{"modelTopology":{"class_name":"Model","config":{"name":"model1124","layers":[{"name":"input1124","class_name":"InputLayer","config":{"batch_input_shape":[null,3],"dtype":"float32","sparse":false,"name":"input1124"},"inbound_nodes":[]},{"name":"dense_Dense6739","class_name":"Dense","config":{"units":2,"activation":"relu","use_bias":true,"kernel_initializer":{"class_name":"VarianceScaling","config":{"scale":1,"mode":"fan_avg","distribution":"normal","seed":null}},"bias_initializer":{"class_name":"Zeros","config":{}},"kernel_regularizer":null,"bias_regularizer":null,"activity_regularizer":null,"kernel_constraint":null,"bias_constraint":null,"name":"dense_Dense6739","trainable":true},"inbound_nodes":[[["input1124",0,0,{}]]]},{"name":"dense_Dense6740","class_name":"Dense","config":{"units":32,"activation":"relu","use_bias":true,"kernel_initializer":{"class_name":"VarianceScaling","config":{"scale":1,"mode":"fan_avg","distribution":"normal","seed":null}},"bias_initializer":{"class_name":"Zeros","config":{}},"kernel_regularizer":null,"bias_regularizer":null,"activity_regularizer":null,"kernel_constraint":null,"bias_constraint":null,"name":"dense_Dense6740","trainable":true},"inbound_nodes":[[["dense_Dense6739",0,0,{}]]]},{"name":"dense_Dense6741","class_name":"Dense","config":{"units":2,"activation":"relu","use_bias":true,"kernel_initializer":{"class_name":"VarianceScaling","config":{"scale":1,"mode":"fan_avg","distribution":"normal","seed":null}},"bias_initializer":{"class_name":"Zeros","config":{}},"kernel_regularizer":null,"bias_regularizer":null,"activity_regularizer":null,"kernel_constraint":null,"bias_constraint":null,"name":"dense_Dense6741","trainable":true},"inbound_nodes":[[["dense_Dense6740",0,0,{}]]]},{"name":"dense_Dense6742","class_name":"Dense","config":{"units":2,"activation":"relu","use_bias":true,"kernel_initializer":{"class_name":"VarianceScaling","config":{"scale":1,"mode":"fan_avg","distribution":"normal","seed":null}},"bias_initializer":{"class_name":"Zeros","config":{}},"kernel_regularizer":null,"bias_regularizer":null,"activity_regularizer":null,"kernel_constraint":null,"bias_constraint":null,"name":"dense_Dense6742","trainable":true},"inbound_nodes":[[["dense_Dense6741",0,0,{}]]]},{"name":"dense_Dense6743","class_name":"Dense","config":{"units":2,"activation":"relu","use_bias":true,"kernel_initializer":{"class_name":"VarianceScaling","config":{"scale":1,"mode":"fan_avg","distribution":"normal","seed":null}},"bias_initializer":{"class_name":"Zeros","config":{}},"kernel_regularizer":null,"bias_regularizer":null,"activity_regularizer":null,"kernel_constraint":null,"bias_constraint":null,"name":"dense_Dense6743","trainable":true},"inbound_nodes":[[["dense_Dense6742",0,0,{}]]]},{"name":"dense_Dense6744","class_name":"Dense","config":{"units":1,"activation":"sigmoid","use_bias":true,"kernel_initializer":{"class_name":"VarianceScaling","config":{"scale":1,"mode":"fan_avg","distribution":"normal","seed":null}},"bias_initializer":{"class_name":"Zeros","config":{}},"kernel_regularizer":null,"bias_regularizer":null,"activity_regularizer":null,"kernel_constraint":null,"bias_constraint":null,"name":"dense_Dense6744","trainable":true},"inbound_nodes":[[["dense_Dense6743",0,0,{}]]]}],"input_layers":[["input1124",0,0]],"output_layers":[["dense_Dense6744",0,0]]},"keras_version":"tfjs-layers 3.9.0","backend":"tensor_flow.js"},"weightsManifest":[{"paths":["weights.bin"],"weights":[{"name":"dense_Dense6739/kernel","shape":[3,2],"dtype":"float32"},{"name":"dense_Dense6739/bias","shape":[2],"dtype":"float32"},{"name":"dense_Dense6740/kernel","shape":[2,32],"dtype":"float32"},{"name":"dense_Dense6740/bias","shape":[32],"dtype":"float32"},{"name":"dense_Dense6741/kernel","shape":[32,2],"dtype":"float32"},{"name":"dense_Dense6741/bias","shape":[2],"dtype":"float32"},{"name":"dense_Dense6742/kernel","shape":[2,2],"dtype":"float32"},{"name":"dense_Dense6742/bias","shape":[2],"dtype":"float32"},{"name":"dense_Dense6743/kernel","shape":[2,2],"dtype":"float32"},{"name":"dense_Dense6743/bias","shape":[2],"dtype":"float32"},{"name":"dense_Dense6744/kernel","shape":[2,1],"dtype":"float32"},{"name":"dense_Dense6744/bias","shape":[1],"dtype":"float32"}]}]}