{"modelTopology":{"class_name":"Model","config":{"name":"model1242","layers":[{"name":"input1242","class_name":"InputLayer","config":{"batch_input_shape":[null,3],"dtype":"float32","sparse":false,"name":"input1242"},"inbound_nodes":[]},{"name":"dense_Dense7447","class_name":"Dense","config":{"units":16,"activation":"relu","use_bias":true,"kernel_initializer":{"class_name":"VarianceScaling","config":{"scale":1,"mode":"fan_avg","distribution":"normal","seed":null}},"bias_initializer":{"class_name":"Zeros","config":{}},"kernel_regularizer":null,"bias_regularizer":null,"activity_regularizer":null,"kernel_constraint":null,"bias_constraint":null,"name":"dense_Dense7447","trainable":true},"inbound_nodes":[[["input1242",0,0,{}]]]},{"name":"dense_Dense7448","class_name":"Dense","config":{"units":32,"activation":"relu","use_bias":true,"kernel_initializer":{"class_name":"VarianceScaling","config":{"scale":1,"mode":"fan_avg","distribution":"normal","seed":null}},"bias_initializer":{"class_name":"Zeros","config":{}},"kernel_regularizer":null,"bias_regularizer":null,"activity_regularizer":null,"kernel_constraint":null,"bias_constraint":null,"name":"dense_Dense7448","trainable":true},"inbound_nodes":[[["dense_Dense7447",0,0,{}]]]},{"name":"dense_Dense7449","class_name":"Dense","config":{"units":16,"activation":"relu","use_bias":true,"kernel_initializer":{"class_name":"VarianceScaling","config":{"scale":1,"mode":"fan_avg","distribution":"normal","seed":null}},"bias_initializer":{"class_name":"Zeros","config":{}},"kernel_regularizer":null,"bias_regularizer":null,"activity_regularizer":null,"kernel_constraint":null,"bias_constraint":null,"name":"dense_Dense7449","trainable":true},"inbound_nodes":[[["dense_Dense7448",0,0,{}]]]},{"name":"dense_Dense7450","class_name":"Dense","config":{"units":4,"activation":"relu","use_bias":true,"kernel_initializer":{"class_name":"VarianceScaling","config":{"scale":1,"mode":"fan_avg","distribution":"normal","seed":null}},"bias_initializer":{"class_name":"Zeros","config":{}},"kernel_regularizer":null,"bias_regularizer":null,"activity_regularizer":null,"kernel_constraint":null,"bias_constraint":null,"name":"dense_Dense7450","trainable":true},"inbound_nodes":[[["dense_Dense7449",0,0,{}]]]},{"name":"dense_Dense7451","class_name":"Dense","config":{"units":32,"activation":"relu","use_bias":true,"kernel_initializer":{"class_name":"VarianceScaling","config":{"scale":1,"mode":"fan_avg","distribution":"normal","seed":null}},"bias_initializer":{"class_name":"Zeros","config":{}},"kernel_regularizer":null,"bias_regularizer":null,"activity_regularizer":null,"kernel_constraint":null,"bias_constraint":null,"name":"dense_Dense7451","trainable":true},"inbound_nodes":[[["dense_Dense7450",0,0,{}]]]},{"name":"dense_Dense7452","class_name":"Dense","config":{"units":1,"activation":"sigmoid","use_bias":true,"kernel_initializer":{"class_name":"VarianceScaling","config":{"scale":1,"mode":"fan_avg","distribution":"normal","seed":null}},"bias_initializer":{"class_name":"Zeros","config":{}},"kernel_regularizer":null,"bias_regularizer":null,"activity_regularizer":null,"kernel_constraint":null,"bias_constraint":null,"name":"dense_Dense7452","trainable":true},"inbound_nodes":[[["dense_Dense7451",0,0,{}]]]}],"input_layers":[["input1242",0,0]],"output_layers":[["dense_Dense7452",0,0]]},"keras_version":"tfjs-layers 3.9.0","backend":"tensor_flow.js"},"weightsManifest":[{"paths":["weights.bin"],"weights":[{"name":"dense_Dense7447/kernel","shape":[3,16],"dtype":"float32"},{"name":"dense_Dense7447/bias","shape":[16],"dtype":"float32"},{"name":"dense_Dense7448/kernel","shape":[16,32],"dtype":"float32"},{"name":"dense_Dense7448/bias","shape":[32],"dtype":"float32"},{"name":"dense_Dense7449/kernel","shape":[32,16],"dtype":"float32"},{"name":"dense_Dense7449/bias","shape":[16],"dtype":"float32"},{"name":"dense_Dense7450/kernel","shape":[16,4],"dtype":"float32"},{"name":"dense_Dense7450/bias","shape":[4],"dtype":"float32"},{"name":"dense_Dense7451/kernel","shape":[4,32],"dtype":"float32"},{"name":"dense_Dense7451/bias","shape":[32],"dtype":"float32"},{"name":"dense_Dense7452/kernel","shape":[32,1],"dtype":"float32"},{"name":"dense_Dense7452/bias","shape":[1],"dtype":"float32"}]}]}