{"modelTopology":{"class_name":"Model","config":{"name":"model812","layers":[{"name":"input812","class_name":"InputLayer","config":{"batch_input_shape":[null,3],"dtype":"float32","sparse":false,"name":"input812"},"inbound_nodes":[]},{"name":"dense_Dense4867","class_name":"Dense","config":{"units":4,"activation":"relu","use_bias":true,"kernel_initializer":{"class_name":"VarianceScaling","config":{"scale":1,"mode":"fan_avg","distribution":"normal","seed":null}},"bias_initializer":{"class_name":"Zeros","config":{}},"kernel_regularizer":null,"bias_regularizer":null,"activity_regularizer":null,"kernel_constraint":null,"bias_constraint":null,"name":"dense_Dense4867","trainable":true},"inbound_nodes":[[["input812",0,0,{}]]]},{"name":"dense_Dense4868","class_name":"Dense","config":{"units":8,"activation":"relu","use_bias":true,"kernel_initializer":{"class_name":"VarianceScaling","config":{"scale":1,"mode":"fan_avg","distribution":"normal","seed":null}},"bias_initializer":{"class_name":"Zeros","config":{}},"kernel_regularizer":null,"bias_regularizer":null,"activity_regularizer":null,"kernel_constraint":null,"bias_constraint":null,"name":"dense_Dense4868","trainable":true},"inbound_nodes":[[["dense_Dense4867",0,0,{}]]]},{"name":"dense_Dense4869","class_name":"Dense","config":{"units":16,"activation":"relu","use_bias":true,"kernel_initializer":{"class_name":"VarianceScaling","config":{"scale":1,"mode":"fan_avg","distribution":"normal","seed":null}},"bias_initializer":{"class_name":"Zeros","config":{}},"kernel_regularizer":null,"bias_regularizer":null,"activity_regularizer":null,"kernel_constraint":null,"bias_constraint":null,"name":"dense_Dense4869","trainable":true},"inbound_nodes":[[["dense_Dense4868",0,0,{}]]]},{"name":"dense_Dense4870","class_name":"Dense","config":{"units":8,"activation":"relu","use_bias":true,"kernel_initializer":{"class_name":"VarianceScaling","config":{"scale":1,"mode":"fan_avg","distribution":"normal","seed":null}},"bias_initializer":{"class_name":"Zeros","config":{}},"kernel_regularizer":null,"bias_regularizer":null,"activity_regularizer":null,"kernel_constraint":null,"bias_constraint":null,"name":"dense_Dense4870","trainable":true},"inbound_nodes":[[["dense_Dense4869",0,0,{}]]]},{"name":"dense_Dense4871","class_name":"Dense","config":{"units":2,"activation":"relu","use_bias":true,"kernel_initializer":{"class_name":"VarianceScaling","config":{"scale":1,"mode":"fan_avg","distribution":"normal","seed":null}},"bias_initializer":{"class_name":"Zeros","config":{}},"kernel_regularizer":null,"bias_regularizer":null,"activity_regularizer":null,"kernel_constraint":null,"bias_constraint":null,"name":"dense_Dense4871","trainable":true},"inbound_nodes":[[["dense_Dense4870",0,0,{}]]]},{"name":"dense_Dense4872","class_name":"Dense","config":{"units":1,"activation":"sigmoid","use_bias":true,"kernel_initializer":{"class_name":"VarianceScaling","config":{"scale":1,"mode":"fan_avg","distribution":"normal","seed":null}},"bias_initializer":{"class_name":"Zeros","config":{}},"kernel_regularizer":null,"bias_regularizer":null,"activity_regularizer":null,"kernel_constraint":null,"bias_constraint":null,"name":"dense_Dense4872","trainable":true},"inbound_nodes":[[["dense_Dense4871",0,0,{}]]]}],"input_layers":[["input812",0,0]],"output_layers":[["dense_Dense4872",0,0]]},"keras_version":"tfjs-layers 3.9.0","backend":"tensor_flow.js"},"weightsManifest":[{"paths":["weights.bin"],"weights":[{"name":"dense_Dense4867/kernel","shape":[3,4],"dtype":"float32"},{"name":"dense_Dense4867/bias","shape":[4],"dtype":"float32"},{"name":"dense_Dense4868/kernel","shape":[4,8],"dtype":"float32"},{"name":"dense_Dense4868/bias","shape":[8],"dtype":"float32"},{"name":"dense_Dense4869/kernel","shape":[8,16],"dtype":"float32"},{"name":"dense_Dense4869/bias","shape":[16],"dtype":"float32"},{"name":"dense_Dense4870/kernel","shape":[16,8],"dtype":"float32"},{"name":"dense_Dense4870/bias","shape":[8],"dtype":"float32"},{"name":"dense_Dense4871/kernel","shape":[8,2],"dtype":"float32"},{"name":"dense_Dense4871/bias","shape":[2],"dtype":"float32"},{"name":"dense_Dense4872/kernel","shape":[2,1],"dtype":"float32"},{"name":"dense_Dense4872/bias","shape":[1],"dtype":"float32"}]}]}