{"modelTopology":{"class_name":"Model","config":{"name":"model978","layers":[{"name":"input978","class_name":"InputLayer","config":{"batch_input_shape":[null,3],"dtype":"float32","sparse":false,"name":"input978"},"inbound_nodes":[]},{"name":"dense_Dense5863","class_name":"Dense","config":{"units":32,"activation":"relu","use_bias":true,"kernel_initializer":{"class_name":"VarianceScaling","config":{"scale":1,"mode":"fan_avg","distribution":"normal","seed":null}},"bias_initializer":{"class_name":"Zeros","config":{}},"kernel_regularizer":null,"bias_regularizer":null,"activity_regularizer":null,"kernel_constraint":null,"bias_constraint":null,"name":"dense_Dense5863","trainable":true},"inbound_nodes":[[["input978",0,0,{}]]]},{"name":"dense_Dense5864","class_name":"Dense","config":{"units":16,"activation":"relu","use_bias":true,"kernel_initializer":{"class_name":"VarianceScaling","config":{"scale":1,"mode":"fan_avg","distribution":"normal","seed":null}},"bias_initializer":{"class_name":"Zeros","config":{}},"kernel_regularizer":null,"bias_regularizer":null,"activity_regularizer":null,"kernel_constraint":null,"bias_constraint":null,"name":"dense_Dense5864","trainable":true},"inbound_nodes":[[["dense_Dense5863",0,0,{}]]]},{"name":"dense_Dense5865","class_name":"Dense","config":{"units":8,"activation":"relu","use_bias":true,"kernel_initializer":{"class_name":"VarianceScaling","config":{"scale":1,"mode":"fan_avg","distribution":"normal","seed":null}},"bias_initializer":{"class_name":"Zeros","config":{}},"kernel_regularizer":null,"bias_regularizer":null,"activity_regularizer":null,"kernel_constraint":null,"bias_constraint":null,"name":"dense_Dense5865","trainable":true},"inbound_nodes":[[["dense_Dense5864",0,0,{}]]]},{"name":"dense_Dense5866","class_name":"Dense","config":{"units":1,"activation":"relu","use_bias":true,"kernel_initializer":{"class_name":"VarianceScaling","config":{"scale":1,"mode":"fan_avg","distribution":"normal","seed":null}},"bias_initializer":{"class_name":"Zeros","config":{}},"kernel_regularizer":null,"bias_regularizer":null,"activity_regularizer":null,"kernel_constraint":null,"bias_constraint":null,"name":"dense_Dense5866","trainable":true},"inbound_nodes":[[["dense_Dense5865",0,0,{}]]]},{"name":"dense_Dense5867","class_name":"Dense","config":{"units":32,"activation":"relu","use_bias":true,"kernel_initializer":{"class_name":"VarianceScaling","config":{"scale":1,"mode":"fan_avg","distribution":"normal","seed":null}},"bias_initializer":{"class_name":"Zeros","config":{}},"kernel_regularizer":null,"bias_regularizer":null,"activity_regularizer":null,"kernel_constraint":null,"bias_constraint":null,"name":"dense_Dense5867","trainable":true},"inbound_nodes":[[["dense_Dense5866",0,0,{}]]]},{"name":"dense_Dense5868","class_name":"Dense","config":{"units":1,"activation":"sigmoid","use_bias":true,"kernel_initializer":{"class_name":"VarianceScaling","config":{"scale":1,"mode":"fan_avg","distribution":"normal","seed":null}},"bias_initializer":{"class_name":"Zeros","config":{}},"kernel_regularizer":null,"bias_regularizer":null,"activity_regularizer":null,"kernel_constraint":null,"bias_constraint":null,"name":"dense_Dense5868","trainable":true},"inbound_nodes":[[["dense_Dense5867",0,0,{}]]]}],"input_layers":[["input978",0,0]],"output_layers":[["dense_Dense5868",0,0]]},"keras_version":"tfjs-layers 3.9.0","backend":"tensor_flow.js"},"weightsManifest":[{"paths":["weights.bin"],"weights":[{"name":"dense_Dense5863/kernel","shape":[3,32],"dtype":"float32"},{"name":"dense_Dense5863/bias","shape":[32],"dtype":"float32"},{"name":"dense_Dense5864/kernel","shape":[32,16],"dtype":"float32"},{"name":"dense_Dense5864/bias","shape":[16],"dtype":"float32"},{"name":"dense_Dense5865/kernel","shape":[16,8],"dtype":"float32"},{"name":"dense_Dense5865/bias","shape":[8],"dtype":"float32"},{"name":"dense_Dense5866/kernel","shape":[8,1],"dtype":"float32"},{"name":"dense_Dense5866/bias","shape":[1],"dtype":"float32"},{"name":"dense_Dense5867/kernel","shape":[1,32],"dtype":"float32"},{"name":"dense_Dense5867/bias","shape":[32],"dtype":"float32"},{"name":"dense_Dense5868/kernel","shape":[32,1],"dtype":"float32"},{"name":"dense_Dense5868/bias","shape":[1],"dtype":"float32"}]}]}