{"modelTopology":{"class_name":"Model","config":{"name":"model660","layers":[{"name":"input660","class_name":"InputLayer","config":{"batch_input_shape":[null,3],"dtype":"float32","sparse":false,"name":"input660"},"inbound_nodes":[]},{"name":"dense_Dense3296","class_name":"Dense","config":{"units":8,"activation":"relu","use_bias":true,"kernel_initializer":{"class_name":"VarianceScaling","config":{"scale":1,"mode":"fan_avg","distribution":"normal","seed":null}},"bias_initializer":{"class_name":"Zeros","config":{}},"kernel_regularizer":null,"bias_regularizer":null,"activity_regularizer":null,"kernel_constraint":null,"bias_constraint":null,"name":"dense_Dense3296","trainable":true},"inbound_nodes":[[["input660",0,0,{}]]]},{"name":"dense_Dense3297","class_name":"Dense","config":{"units":1,"activation":"relu","use_bias":true,"kernel_initializer":{"class_name":"VarianceScaling","config":{"scale":1,"mode":"fan_avg","distribution":"normal","seed":null}},"bias_initializer":{"class_name":"Zeros","config":{}},"kernel_regularizer":null,"bias_regularizer":null,"activity_regularizer":null,"kernel_constraint":null,"bias_constraint":null,"name":"dense_Dense3297","trainable":true},"inbound_nodes":[[["dense_Dense3296",0,0,{}]]]},{"name":"dense_Dense3298","class_name":"Dense","config":{"units":2,"activation":"relu","use_bias":true,"kernel_initializer":{"class_name":"VarianceScaling","config":{"scale":1,"mode":"fan_avg","distribution":"normal","seed":null}},"bias_initializer":{"class_name":"Zeros","config":{}},"kernel_regularizer":null,"bias_regularizer":null,"activity_regularizer":null,"kernel_constraint":null,"bias_constraint":null,"name":"dense_Dense3298","trainable":true},"inbound_nodes":[[["dense_Dense3297",0,0,{}]]]},{"name":"dense_Dense3299","class_name":"Dense","config":{"units":32,"activation":"relu","use_bias":true,"kernel_initializer":{"class_name":"VarianceScaling","config":{"scale":1,"mode":"fan_avg","distribution":"normal","seed":null}},"bias_initializer":{"class_name":"Zeros","config":{}},"kernel_regularizer":null,"bias_regularizer":null,"activity_regularizer":null,"kernel_constraint":null,"bias_constraint":null,"name":"dense_Dense3299","trainable":true},"inbound_nodes":[[["dense_Dense3298",0,0,{}]]]},{"name":"dense_Dense3300","class_name":"Dense","config":{"units":1,"activation":"sigmoid","use_bias":true,"kernel_initializer":{"class_name":"VarianceScaling","config":{"scale":1,"mode":"fan_avg","distribution":"normal","seed":null}},"bias_initializer":{"class_name":"Zeros","config":{}},"kernel_regularizer":null,"bias_regularizer":null,"activity_regularizer":null,"kernel_constraint":null,"bias_constraint":null,"name":"dense_Dense3300","trainable":true},"inbound_nodes":[[["dense_Dense3299",0,0,{}]]]}],"input_layers":[["input660",0,0]],"output_layers":[["dense_Dense3300",0,0]]},"keras_version":"tfjs-layers 3.9.0","backend":"tensor_flow.js"},"weightsManifest":[{"paths":["weights.bin"],"weights":[{"name":"dense_Dense3296/kernel","shape":[3,8],"dtype":"float32"},{"name":"dense_Dense3296/bias","shape":[8],"dtype":"float32"},{"name":"dense_Dense3297/kernel","shape":[8,1],"dtype":"float32"},{"name":"dense_Dense3297/bias","shape":[1],"dtype":"float32"},{"name":"dense_Dense3298/kernel","shape":[1,2],"dtype":"float32"},{"name":"dense_Dense3298/bias","shape":[2],"dtype":"float32"},{"name":"dense_Dense3299/kernel","shape":[2,32],"dtype":"float32"},{"name":"dense_Dense3299/bias","shape":[32],"dtype":"float32"},{"name":"dense_Dense3300/kernel","shape":[32,1],"dtype":"float32"},{"name":"dense_Dense3300/bias","shape":[1],"dtype":"float32"}]}]}