{"modelTopology":{"class_name":"Model","config":{"name":"model219","layers":[{"name":"input219","class_name":"InputLayer","config":{"batch_input_shape":[null,3],"dtype":"float32","sparse":false,"name":"input219"},"inbound_nodes":[]},{"name":"dense_Dense1091","class_name":"Dense","config":{"units":2,"activation":"relu","use_bias":true,"kernel_initializer":{"class_name":"VarianceScaling","config":{"scale":1,"mode":"fan_avg","distribution":"normal","seed":null}},"bias_initializer":{"class_name":"Zeros","config":{}},"kernel_regularizer":null,"bias_regularizer":null,"activity_regularizer":null,"kernel_constraint":null,"bias_constraint":null,"name":"dense_Dense1091","trainable":true},"inbound_nodes":[[["input219",0,0,{}]]]},{"name":"dense_Dense1092","class_name":"Dense","config":{"units":1,"activation":"relu","use_bias":true,"kernel_initializer":{"class_name":"VarianceScaling","config":{"scale":1,"mode":"fan_avg","distribution":"normal","seed":null}},"bias_initializer":{"class_name":"Zeros","config":{}},"kernel_regularizer":null,"bias_regularizer":null,"activity_regularizer":null,"kernel_constraint":null,"bias_constraint":null,"name":"dense_Dense1092","trainable":true},"inbound_nodes":[[["dense_Dense1091",0,0,{}]]]},{"name":"dense_Dense1093","class_name":"Dense","config":{"units":1,"activation":"relu","use_bias":true,"kernel_initializer":{"class_name":"VarianceScaling","config":{"scale":1,"mode":"fan_avg","distribution":"normal","seed":null}},"bias_initializer":{"class_name":"Zeros","config":{}},"kernel_regularizer":null,"bias_regularizer":null,"activity_regularizer":null,"kernel_constraint":null,"bias_constraint":null,"name":"dense_Dense1093","trainable":true},"inbound_nodes":[[["dense_Dense1092",0,0,{}]]]},{"name":"dense_Dense1094","class_name":"Dense","config":{"units":4,"activation":"relu","use_bias":true,"kernel_initializer":{"class_name":"VarianceScaling","config":{"scale":1,"mode":"fan_avg","distribution":"normal","seed":null}},"bias_initializer":{"class_name":"Zeros","config":{}},"kernel_regularizer":null,"bias_regularizer":null,"activity_regularizer":null,"kernel_constraint":null,"bias_constraint":null,"name":"dense_Dense1094","trainable":true},"inbound_nodes":[[["dense_Dense1093",0,0,{}]]]},{"name":"dense_Dense1095","class_name":"Dense","config":{"units":1,"activation":"sigmoid","use_bias":true,"kernel_initializer":{"class_name":"VarianceScaling","config":{"scale":1,"mode":"fan_avg","distribution":"normal","seed":null}},"bias_initializer":{"class_name":"Zeros","config":{}},"kernel_regularizer":null,"bias_regularizer":null,"activity_regularizer":null,"kernel_constraint":null,"bias_constraint":null,"name":"dense_Dense1095","trainable":true},"inbound_nodes":[[["dense_Dense1094",0,0,{}]]]}],"input_layers":[["input219",0,0]],"output_layers":[["dense_Dense1095",0,0]]},"keras_version":"tfjs-layers 3.9.0","backend":"tensor_flow.js"},"weightsManifest":[{"paths":["weights.bin"],"weights":[{"name":"dense_Dense1091/kernel","shape":[3,2],"dtype":"float32"},{"name":"dense_Dense1091/bias","shape":[2],"dtype":"float32"},{"name":"dense_Dense1092/kernel","shape":[2,1],"dtype":"float32"},{"name":"dense_Dense1092/bias","shape":[1],"dtype":"float32"},{"name":"dense_Dense1093/kernel","shape":[1,1],"dtype":"float32"},{"name":"dense_Dense1093/bias","shape":[1],"dtype":"float32"},{"name":"dense_Dense1094/kernel","shape":[1,4],"dtype":"float32"},{"name":"dense_Dense1094/bias","shape":[4],"dtype":"float32"},{"name":"dense_Dense1095/kernel","shape":[4,1],"dtype":"float32"},{"name":"dense_Dense1095/bias","shape":[1],"dtype":"float32"}]}]}