{"modelTopology":{"class_name":"Model","config":{"name":"model373","layers":[{"name":"input373","class_name":"InputLayer","config":{"batch_input_shape":[null,3],"dtype":"float32","sparse":false,"name":"input373"},"inbound_nodes":[]},{"name":"dense_Dense2233","class_name":"Dense","config":{"units":8,"activation":"relu","use_bias":true,"kernel_initializer":{"class_name":"VarianceScaling","config":{"scale":1,"mode":"fan_avg","distribution":"normal","seed":null}},"bias_initializer":{"class_name":"Zeros","config":{}},"kernel_regularizer":null,"bias_regularizer":null,"activity_regularizer":null,"kernel_constraint":null,"bias_constraint":null,"name":"dense_Dense2233","trainable":true},"inbound_nodes":[[["input373",0,0,{}]]]},{"name":"dense_Dense2234","class_name":"Dense","config":{"units":2,"activation":"relu","use_bias":true,"kernel_initializer":{"class_name":"VarianceScaling","config":{"scale":1,"mode":"fan_avg","distribution":"normal","seed":null}},"bias_initializer":{"class_name":"Zeros","config":{}},"kernel_regularizer":null,"bias_regularizer":null,"activity_regularizer":null,"kernel_constraint":null,"bias_constraint":null,"name":"dense_Dense2234","trainable":true},"inbound_nodes":[[["dense_Dense2233",0,0,{}]]]},{"name":"dense_Dense2235","class_name":"Dense","config":{"units":16,"activation":"relu","use_bias":true,"kernel_initializer":{"class_name":"VarianceScaling","config":{"scale":1,"mode":"fan_avg","distribution":"normal","seed":null}},"bias_initializer":{"class_name":"Zeros","config":{}},"kernel_regularizer":null,"bias_regularizer":null,"activity_regularizer":null,"kernel_constraint":null,"bias_constraint":null,"name":"dense_Dense2235","trainable":true},"inbound_nodes":[[["dense_Dense2234",0,0,{}]]]},{"name":"dense_Dense2236","class_name":"Dense","config":{"units":4,"activation":"relu","use_bias":true,"kernel_initializer":{"class_name":"VarianceScaling","config":{"scale":1,"mode":"fan_avg","distribution":"normal","seed":null}},"bias_initializer":{"class_name":"Zeros","config":{}},"kernel_regularizer":null,"bias_regularizer":null,"activity_regularizer":null,"kernel_constraint":null,"bias_constraint":null,"name":"dense_Dense2236","trainable":true},"inbound_nodes":[[["dense_Dense2235",0,0,{}]]]},{"name":"dense_Dense2237","class_name":"Dense","config":{"units":1,"activation":"relu","use_bias":true,"kernel_initializer":{"class_name":"VarianceScaling","config":{"scale":1,"mode":"fan_avg","distribution":"normal","seed":null}},"bias_initializer":{"class_name":"Zeros","config":{}},"kernel_regularizer":null,"bias_regularizer":null,"activity_regularizer":null,"kernel_constraint":null,"bias_constraint":null,"name":"dense_Dense2237","trainable":true},"inbound_nodes":[[["dense_Dense2236",0,0,{}]]]},{"name":"dense_Dense2238","class_name":"Dense","config":{"units":1,"activation":"sigmoid","use_bias":true,"kernel_initializer":{"class_name":"VarianceScaling","config":{"scale":1,"mode":"fan_avg","distribution":"normal","seed":null}},"bias_initializer":{"class_name":"Zeros","config":{}},"kernel_regularizer":null,"bias_regularizer":null,"activity_regularizer":null,"kernel_constraint":null,"bias_constraint":null,"name":"dense_Dense2238","trainable":true},"inbound_nodes":[[["dense_Dense2237",0,0,{}]]]}],"input_layers":[["input373",0,0]],"output_layers":[["dense_Dense2238",0,0]]},"keras_version":"tfjs-layers 3.9.0","backend":"tensor_flow.js"},"weightsManifest":[{"paths":["weights.bin"],"weights":[{"name":"dense_Dense2233/kernel","shape":[3,8],"dtype":"float32"},{"name":"dense_Dense2233/bias","shape":[8],"dtype":"float32"},{"name":"dense_Dense2234/kernel","shape":[8,2],"dtype":"float32"},{"name":"dense_Dense2234/bias","shape":[2],"dtype":"float32"},{"name":"dense_Dense2235/kernel","shape":[2,16],"dtype":"float32"},{"name":"dense_Dense2235/bias","shape":[16],"dtype":"float32"},{"name":"dense_Dense2236/kernel","shape":[16,4],"dtype":"float32"},{"name":"dense_Dense2236/bias","shape":[4],"dtype":"float32"},{"name":"dense_Dense2237/kernel","shape":[4,1],"dtype":"float32"},{"name":"dense_Dense2237/bias","shape":[1],"dtype":"float32"},{"name":"dense_Dense2238/kernel","shape":[1,1],"dtype":"float32"},{"name":"dense_Dense2238/bias","shape":[1],"dtype":"float32"}]}]}