{"modelTopology":{"class_name":"Model","config":{"name":"model925","layers":[{"name":"input925","class_name":"InputLayer","config":{"batch_input_shape":[null,3],"dtype":"float32","sparse":false,"name":"input925"},"inbound_nodes":[]},{"name":"dense_Dense5545","class_name":"Dense","config":{"units":2,"activation":"relu","use_bias":true,"kernel_initializer":{"class_name":"VarianceScaling","config":{"scale":1,"mode":"fan_avg","distribution":"normal","seed":null}},"bias_initializer":{"class_name":"Zeros","config":{}},"kernel_regularizer":null,"bias_regularizer":null,"activity_regularizer":null,"kernel_constraint":null,"bias_constraint":null,"name":"dense_Dense5545","trainable":true},"inbound_nodes":[[["input925",0,0,{}]]]},{"name":"dense_Dense5546","class_name":"Dense","config":{"units":16,"activation":"relu","use_bias":true,"kernel_initializer":{"class_name":"VarianceScaling","config":{"scale":1,"mode":"fan_avg","distribution":"normal","seed":null}},"bias_initializer":{"class_name":"Zeros","config":{}},"kernel_regularizer":null,"bias_regularizer":null,"activity_regularizer":null,"kernel_constraint":null,"bias_constraint":null,"name":"dense_Dense5546","trainable":true},"inbound_nodes":[[["dense_Dense5545",0,0,{}]]]},{"name":"dense_Dense5547","class_name":"Dense","config":{"units":2,"activation":"relu","use_bias":true,"kernel_initializer":{"class_name":"VarianceScaling","config":{"scale":1,"mode":"fan_avg","distribution":"normal","seed":null}},"bias_initializer":{"class_name":"Zeros","config":{}},"kernel_regularizer":null,"bias_regularizer":null,"activity_regularizer":null,"kernel_constraint":null,"bias_constraint":null,"name":"dense_Dense5547","trainable":true},"inbound_nodes":[[["dense_Dense5546",0,0,{}]]]},{"name":"dense_Dense5548","class_name":"Dense","config":{"units":16,"activation":"relu","use_bias":true,"kernel_initializer":{"class_name":"VarianceScaling","config":{"scale":1,"mode":"fan_avg","distribution":"normal","seed":null}},"bias_initializer":{"class_name":"Zeros","config":{}},"kernel_regularizer":null,"bias_regularizer":null,"activity_regularizer":null,"kernel_constraint":null,"bias_constraint":null,"name":"dense_Dense5548","trainable":true},"inbound_nodes":[[["dense_Dense5547",0,0,{}]]]},{"name":"dense_Dense5549","class_name":"Dense","config":{"units":1,"activation":"relu","use_bias":true,"kernel_initializer":{"class_name":"VarianceScaling","config":{"scale":1,"mode":"fan_avg","distribution":"normal","seed":null}},"bias_initializer":{"class_name":"Zeros","config":{}},"kernel_regularizer":null,"bias_regularizer":null,"activity_regularizer":null,"kernel_constraint":null,"bias_constraint":null,"name":"dense_Dense5549","trainable":true},"inbound_nodes":[[["dense_Dense5548",0,0,{}]]]},{"name":"dense_Dense5550","class_name":"Dense","config":{"units":1,"activation":"sigmoid","use_bias":true,"kernel_initializer":{"class_name":"VarianceScaling","config":{"scale":1,"mode":"fan_avg","distribution":"normal","seed":null}},"bias_initializer":{"class_name":"Zeros","config":{}},"kernel_regularizer":null,"bias_regularizer":null,"activity_regularizer":null,"kernel_constraint":null,"bias_constraint":null,"name":"dense_Dense5550","trainable":true},"inbound_nodes":[[["dense_Dense5549",0,0,{}]]]}],"input_layers":[["input925",0,0]],"output_layers":[["dense_Dense5550",0,0]]},"keras_version":"tfjs-layers 3.9.0","backend":"tensor_flow.js"},"weightsManifest":[{"paths":["weights.bin"],"weights":[{"name":"dense_Dense5545/kernel","shape":[3,2],"dtype":"float32"},{"name":"dense_Dense5545/bias","shape":[2],"dtype":"float32"},{"name":"dense_Dense5546/kernel","shape":[2,16],"dtype":"float32"},{"name":"dense_Dense5546/bias","shape":[16],"dtype":"float32"},{"name":"dense_Dense5547/kernel","shape":[16,2],"dtype":"float32"},{"name":"dense_Dense5547/bias","shape":[2],"dtype":"float32"},{"name":"dense_Dense5548/kernel","shape":[2,16],"dtype":"float32"},{"name":"dense_Dense5548/bias","shape":[16],"dtype":"float32"},{"name":"dense_Dense5549/kernel","shape":[16,1],"dtype":"float32"},{"name":"dense_Dense5549/bias","shape":[1],"dtype":"float32"},{"name":"dense_Dense5550/kernel","shape":[1,1],"dtype":"float32"},{"name":"dense_Dense5550/bias","shape":[1],"dtype":"float32"}]}]}