{"modelTopology":{"class_name":"Model","config":{"name":"model834","layers":[{"name":"input834","class_name":"InputLayer","config":{"batch_input_shape":[null,3],"dtype":"float32","sparse":false,"name":"input834"},"inbound_nodes":[]},{"name":"dense_Dense4999","class_name":"Dense","config":{"units":2,"activation":"relu","use_bias":true,"kernel_initializer":{"class_name":"VarianceScaling","config":{"scale":1,"mode":"fan_avg","distribution":"normal","seed":null}},"bias_initializer":{"class_name":"Zeros","config":{}},"kernel_regularizer":null,"bias_regularizer":null,"activity_regularizer":null,"kernel_constraint":null,"bias_constraint":null,"name":"dense_Dense4999","trainable":true},"inbound_nodes":[[["input834",0,0,{}]]]},{"name":"dense_Dense5000","class_name":"Dense","config":{"units":8,"activation":"relu","use_bias":true,"kernel_initializer":{"class_name":"VarianceScaling","config":{"scale":1,"mode":"fan_avg","distribution":"normal","seed":null}},"bias_initializer":{"class_name":"Zeros","config":{}},"kernel_regularizer":null,"bias_regularizer":null,"activity_regularizer":null,"kernel_constraint":null,"bias_constraint":null,"name":"dense_Dense5000","trainable":true},"inbound_nodes":[[["dense_Dense4999",0,0,{}]]]},{"name":"dense_Dense5001","class_name":"Dense","config":{"units":32,"activation":"relu","use_bias":true,"kernel_initializer":{"class_name":"VarianceScaling","config":{"scale":1,"mode":"fan_avg","distribution":"normal","seed":null}},"bias_initializer":{"class_name":"Zeros","config":{}},"kernel_regularizer":null,"bias_regularizer":null,"activity_regularizer":null,"kernel_constraint":null,"bias_constraint":null,"name":"dense_Dense5001","trainable":true},"inbound_nodes":[[["dense_Dense5000",0,0,{}]]]},{"name":"dense_Dense5002","class_name":"Dense","config":{"units":1,"activation":"relu","use_bias":true,"kernel_initializer":{"class_name":"VarianceScaling","config":{"scale":1,"mode":"fan_avg","distribution":"normal","seed":null}},"bias_initializer":{"class_name":"Zeros","config":{}},"kernel_regularizer":null,"bias_regularizer":null,"activity_regularizer":null,"kernel_constraint":null,"bias_constraint":null,"name":"dense_Dense5002","trainable":true},"inbound_nodes":[[["dense_Dense5001",0,0,{}]]]},{"name":"dense_Dense5003","class_name":"Dense","config":{"units":32,"activation":"relu","use_bias":true,"kernel_initializer":{"class_name":"VarianceScaling","config":{"scale":1,"mode":"fan_avg","distribution":"normal","seed":null}},"bias_initializer":{"class_name":"Zeros","config":{}},"kernel_regularizer":null,"bias_regularizer":null,"activity_regularizer":null,"kernel_constraint":null,"bias_constraint":null,"name":"dense_Dense5003","trainable":true},"inbound_nodes":[[["dense_Dense5002",0,0,{}]]]},{"name":"dense_Dense5004","class_name":"Dense","config":{"units":1,"activation":"sigmoid","use_bias":true,"kernel_initializer":{"class_name":"VarianceScaling","config":{"scale":1,"mode":"fan_avg","distribution":"normal","seed":null}},"bias_initializer":{"class_name":"Zeros","config":{}},"kernel_regularizer":null,"bias_regularizer":null,"activity_regularizer":null,"kernel_constraint":null,"bias_constraint":null,"name":"dense_Dense5004","trainable":true},"inbound_nodes":[[["dense_Dense5003",0,0,{}]]]}],"input_layers":[["input834",0,0]],"output_layers":[["dense_Dense5004",0,0]]},"keras_version":"tfjs-layers 3.9.0","backend":"tensor_flow.js"},"weightsManifest":[{"paths":["weights.bin"],"weights":[{"name":"dense_Dense4999/kernel","shape":[3,2],"dtype":"float32"},{"name":"dense_Dense4999/bias","shape":[2],"dtype":"float32"},{"name":"dense_Dense5000/kernel","shape":[2,8],"dtype":"float32"},{"name":"dense_Dense5000/bias","shape":[8],"dtype":"float32"},{"name":"dense_Dense5001/kernel","shape":[8,32],"dtype":"float32"},{"name":"dense_Dense5001/bias","shape":[32],"dtype":"float32"},{"name":"dense_Dense5002/kernel","shape":[32,1],"dtype":"float32"},{"name":"dense_Dense5002/bias","shape":[1],"dtype":"float32"},{"name":"dense_Dense5003/kernel","shape":[1,32],"dtype":"float32"},{"name":"dense_Dense5003/bias","shape":[32],"dtype":"float32"},{"name":"dense_Dense5004/kernel","shape":[32,1],"dtype":"float32"},{"name":"dense_Dense5004/bias","shape":[1],"dtype":"float32"}]}]}