{"modelTopology":{"class_name":"Model","config":{"name":"model537","layers":[{"name":"input537","class_name":"InputLayer","config":{"batch_input_shape":[null,3],"dtype":"float32","sparse":false,"name":"input537"},"inbound_nodes":[]},{"name":"dense_Dense3217","class_name":"Dense","config":{"units":1,"activation":"relu","use_bias":true,"kernel_initializer":{"class_name":"VarianceScaling","config":{"scale":1,"mode":"fan_avg","distribution":"normal","seed":null}},"bias_initializer":{"class_name":"Zeros","config":{}},"kernel_regularizer":null,"bias_regularizer":null,"activity_regularizer":null,"kernel_constraint":null,"bias_constraint":null,"name":"dense_Dense3217","trainable":true},"inbound_nodes":[[["input537",0,0,{}]]]},{"name":"dense_Dense3218","class_name":"Dense","config":{"units":4,"activation":"relu","use_bias":true,"kernel_initializer":{"class_name":"VarianceScaling","config":{"scale":1,"mode":"fan_avg","distribution":"normal","seed":null}},"bias_initializer":{"class_name":"Zeros","config":{}},"kernel_regularizer":null,"bias_regularizer":null,"activity_regularizer":null,"kernel_constraint":null,"bias_constraint":null,"name":"dense_Dense3218","trainable":true},"inbound_nodes":[[["dense_Dense3217",0,0,{}]]]},{"name":"dense_Dense3219","class_name":"Dense","config":{"units":4,"activation":"relu","use_bias":true,"kernel_initializer":{"class_name":"VarianceScaling","config":{"scale":1,"mode":"fan_avg","distribution":"normal","seed":null}},"bias_initializer":{"class_name":"Zeros","config":{}},"kernel_regularizer":null,"bias_regularizer":null,"activity_regularizer":null,"kernel_constraint":null,"bias_constraint":null,"name":"dense_Dense3219","trainable":true},"inbound_nodes":[[["dense_Dense3218",0,0,{}]]]},{"name":"dense_Dense3220","class_name":"Dense","config":{"units":32,"activation":"relu","use_bias":true,"kernel_initializer":{"class_name":"VarianceScaling","config":{"scale":1,"mode":"fan_avg","distribution":"normal","seed":null}},"bias_initializer":{"class_name":"Zeros","config":{}},"kernel_regularizer":null,"bias_regularizer":null,"activity_regularizer":null,"kernel_constraint":null,"bias_constraint":null,"name":"dense_Dense3220","trainable":true},"inbound_nodes":[[["dense_Dense3219",0,0,{}]]]},{"name":"dense_Dense3221","class_name":"Dense","config":{"units":4,"activation":"relu","use_bias":true,"kernel_initializer":{"class_name":"VarianceScaling","config":{"scale":1,"mode":"fan_avg","distribution":"normal","seed":null}},"bias_initializer":{"class_name":"Zeros","config":{}},"kernel_regularizer":null,"bias_regularizer":null,"activity_regularizer":null,"kernel_constraint":null,"bias_constraint":null,"name":"dense_Dense3221","trainable":true},"inbound_nodes":[[["dense_Dense3220",0,0,{}]]]},{"name":"dense_Dense3222","class_name":"Dense","config":{"units":1,"activation":"sigmoid","use_bias":true,"kernel_initializer":{"class_name":"VarianceScaling","config":{"scale":1,"mode":"fan_avg","distribution":"normal","seed":null}},"bias_initializer":{"class_name":"Zeros","config":{}},"kernel_regularizer":null,"bias_regularizer":null,"activity_regularizer":null,"kernel_constraint":null,"bias_constraint":null,"name":"dense_Dense3222","trainable":true},"inbound_nodes":[[["dense_Dense3221",0,0,{}]]]}],"input_layers":[["input537",0,0]],"output_layers":[["dense_Dense3222",0,0]]},"keras_version":"tfjs-layers 3.9.0","backend":"tensor_flow.js"},"weightsManifest":[{"paths":["weights.bin"],"weights":[{"name":"dense_Dense3217/kernel","shape":[3,1],"dtype":"float32"},{"name":"dense_Dense3217/bias","shape":[1],"dtype":"float32"},{"name":"dense_Dense3218/kernel","shape":[1,4],"dtype":"float32"},{"name":"dense_Dense3218/bias","shape":[4],"dtype":"float32"},{"name":"dense_Dense3219/kernel","shape":[4,4],"dtype":"float32"},{"name":"dense_Dense3219/bias","shape":[4],"dtype":"float32"},{"name":"dense_Dense3220/kernel","shape":[4,32],"dtype":"float32"},{"name":"dense_Dense3220/bias","shape":[32],"dtype":"float32"},{"name":"dense_Dense3221/kernel","shape":[32,4],"dtype":"float32"},{"name":"dense_Dense3221/bias","shape":[4],"dtype":"float32"},{"name":"dense_Dense3222/kernel","shape":[4,1],"dtype":"float32"},{"name":"dense_Dense3222/bias","shape":[1],"dtype":"float32"}]}]}