{"modelTopology":{"class_name":"Model","config":{"name":"model1171","layers":[{"name":"input1171","class_name":"InputLayer","config":{"batch_input_shape":[null,3],"dtype":"float32","sparse":false,"name":"input1171"},"inbound_nodes":[]},{"name":"dense_Dense7021","class_name":"Dense","config":{"units":16,"activation":"relu","use_bias":true,"kernel_initializer":{"class_name":"VarianceScaling","config":{"scale":1,"mode":"fan_avg","distribution":"normal","seed":null}},"bias_initializer":{"class_name":"Zeros","config":{}},"kernel_regularizer":null,"bias_regularizer":null,"activity_regularizer":null,"kernel_constraint":null,"bias_constraint":null,"name":"dense_Dense7021","trainable":true},"inbound_nodes":[[["input1171",0,0,{}]]]},{"name":"dense_Dense7022","class_name":"Dense","config":{"units":32,"activation":"relu","use_bias":true,"kernel_initializer":{"class_name":"VarianceScaling","config":{"scale":1,"mode":"fan_avg","distribution":"normal","seed":null}},"bias_initializer":{"class_name":"Zeros","config":{}},"kernel_regularizer":null,"bias_regularizer":null,"activity_regularizer":null,"kernel_constraint":null,"bias_constraint":null,"name":"dense_Dense7022","trainable":true},"inbound_nodes":[[["dense_Dense7021",0,0,{}]]]},{"name":"dense_Dense7023","class_name":"Dense","config":{"units":4,"activation":"relu","use_bias":true,"kernel_initializer":{"class_name":"VarianceScaling","config":{"scale":1,"mode":"fan_avg","distribution":"normal","seed":null}},"bias_initializer":{"class_name":"Zeros","config":{}},"kernel_regularizer":null,"bias_regularizer":null,"activity_regularizer":null,"kernel_constraint":null,"bias_constraint":null,"name":"dense_Dense7023","trainable":true},"inbound_nodes":[[["dense_Dense7022",0,0,{}]]]},{"name":"dense_Dense7024","class_name":"Dense","config":{"units":8,"activation":"relu","use_bias":true,"kernel_initializer":{"class_name":"VarianceScaling","config":{"scale":1,"mode":"fan_avg","distribution":"normal","seed":null}},"bias_initializer":{"class_name":"Zeros","config":{}},"kernel_regularizer":null,"bias_regularizer":null,"activity_regularizer":null,"kernel_constraint":null,"bias_constraint":null,"name":"dense_Dense7024","trainable":true},"inbound_nodes":[[["dense_Dense7023",0,0,{}]]]},{"name":"dense_Dense7025","class_name":"Dense","config":{"units":1,"activation":"relu","use_bias":true,"kernel_initializer":{"class_name":"VarianceScaling","config":{"scale":1,"mode":"fan_avg","distribution":"normal","seed":null}},"bias_initializer":{"class_name":"Zeros","config":{}},"kernel_regularizer":null,"bias_regularizer":null,"activity_regularizer":null,"kernel_constraint":null,"bias_constraint":null,"name":"dense_Dense7025","trainable":true},"inbound_nodes":[[["dense_Dense7024",0,0,{}]]]},{"name":"dense_Dense7026","class_name":"Dense","config":{"units":1,"activation":"sigmoid","use_bias":true,"kernel_initializer":{"class_name":"VarianceScaling","config":{"scale":1,"mode":"fan_avg","distribution":"normal","seed":null}},"bias_initializer":{"class_name":"Zeros","config":{}},"kernel_regularizer":null,"bias_regularizer":null,"activity_regularizer":null,"kernel_constraint":null,"bias_constraint":null,"name":"dense_Dense7026","trainable":true},"inbound_nodes":[[["dense_Dense7025",0,0,{}]]]}],"input_layers":[["input1171",0,0]],"output_layers":[["dense_Dense7026",0,0]]},"keras_version":"tfjs-layers 3.9.0","backend":"tensor_flow.js"},"weightsManifest":[{"paths":["weights.bin"],"weights":[{"name":"dense_Dense7021/kernel","shape":[3,16],"dtype":"float32"},{"name":"dense_Dense7021/bias","shape":[16],"dtype":"float32"},{"name":"dense_Dense7022/kernel","shape":[16,32],"dtype":"float32"},{"name":"dense_Dense7022/bias","shape":[32],"dtype":"float32"},{"name":"dense_Dense7023/kernel","shape":[32,4],"dtype":"float32"},{"name":"dense_Dense7023/bias","shape":[4],"dtype":"float32"},{"name":"dense_Dense7024/kernel","shape":[4,8],"dtype":"float32"},{"name":"dense_Dense7024/bias","shape":[8],"dtype":"float32"},{"name":"dense_Dense7025/kernel","shape":[8,1],"dtype":"float32"},{"name":"dense_Dense7025/bias","shape":[1],"dtype":"float32"},{"name":"dense_Dense7026/kernel","shape":[1,1],"dtype":"float32"},{"name":"dense_Dense7026/bias","shape":[1],"dtype":"float32"}]}]}