{"modelTopology":{"class_name":"Model","config":{"name":"model742","layers":[{"name":"input742","class_name":"InputLayer","config":{"batch_input_shape":[null,3],"dtype":"float32","sparse":false,"name":"input742"},"inbound_nodes":[]},{"name":"dense_Dense4447","class_name":"Dense","config":{"units":8,"activation":"relu","use_bias":true,"kernel_initializer":{"class_name":"VarianceScaling","config":{"scale":1,"mode":"fan_avg","distribution":"normal","seed":null}},"bias_initializer":{"class_name":"Zeros","config":{}},"kernel_regularizer":null,"bias_regularizer":null,"activity_regularizer":null,"kernel_constraint":null,"bias_constraint":null,"name":"dense_Dense4447","trainable":true},"inbound_nodes":[[["input742",0,0,{}]]]},{"name":"dense_Dense4448","class_name":"Dense","config":{"units":8,"activation":"relu","use_bias":true,"kernel_initializer":{"class_name":"VarianceScaling","config":{"scale":1,"mode":"fan_avg","distribution":"normal","seed":null}},"bias_initializer":{"class_name":"Zeros","config":{}},"kernel_regularizer":null,"bias_regularizer":null,"activity_regularizer":null,"kernel_constraint":null,"bias_constraint":null,"name":"dense_Dense4448","trainable":true},"inbound_nodes":[[["dense_Dense4447",0,0,{}]]]},{"name":"dense_Dense4449","class_name":"Dense","config":{"units":4,"activation":"relu","use_bias":true,"kernel_initializer":{"class_name":"VarianceScaling","config":{"scale":1,"mode":"fan_avg","distribution":"normal","seed":null}},"bias_initializer":{"class_name":"Zeros","config":{}},"kernel_regularizer":null,"bias_regularizer":null,"activity_regularizer":null,"kernel_constraint":null,"bias_constraint":null,"name":"dense_Dense4449","trainable":true},"inbound_nodes":[[["dense_Dense4448",0,0,{}]]]},{"name":"dense_Dense4450","class_name":"Dense","config":{"units":8,"activation":"relu","use_bias":true,"kernel_initializer":{"class_name":"VarianceScaling","config":{"scale":1,"mode":"fan_avg","distribution":"normal","seed":null}},"bias_initializer":{"class_name":"Zeros","config":{}},"kernel_regularizer":null,"bias_regularizer":null,"activity_regularizer":null,"kernel_constraint":null,"bias_constraint":null,"name":"dense_Dense4450","trainable":true},"inbound_nodes":[[["dense_Dense4449",0,0,{}]]]},{"name":"dense_Dense4451","class_name":"Dense","config":{"units":8,"activation":"relu","use_bias":true,"kernel_initializer":{"class_name":"VarianceScaling","config":{"scale":1,"mode":"fan_avg","distribution":"normal","seed":null}},"bias_initializer":{"class_name":"Zeros","config":{}},"kernel_regularizer":null,"bias_regularizer":null,"activity_regularizer":null,"kernel_constraint":null,"bias_constraint":null,"name":"dense_Dense4451","trainable":true},"inbound_nodes":[[["dense_Dense4450",0,0,{}]]]},{"name":"dense_Dense4452","class_name":"Dense","config":{"units":1,"activation":"sigmoid","use_bias":true,"kernel_initializer":{"class_name":"VarianceScaling","config":{"scale":1,"mode":"fan_avg","distribution":"normal","seed":null}},"bias_initializer":{"class_name":"Zeros","config":{}},"kernel_regularizer":null,"bias_regularizer":null,"activity_regularizer":null,"kernel_constraint":null,"bias_constraint":null,"name":"dense_Dense4452","trainable":true},"inbound_nodes":[[["dense_Dense4451",0,0,{}]]]}],"input_layers":[["input742",0,0]],"output_layers":[["dense_Dense4452",0,0]]},"keras_version":"tfjs-layers 3.9.0","backend":"tensor_flow.js"},"weightsManifest":[{"paths":["weights.bin"],"weights":[{"name":"dense_Dense4447/kernel","shape":[3,8],"dtype":"float32"},{"name":"dense_Dense4447/bias","shape":[8],"dtype":"float32"},{"name":"dense_Dense4448/kernel","shape":[8,8],"dtype":"float32"},{"name":"dense_Dense4448/bias","shape":[8],"dtype":"float32"},{"name":"dense_Dense4449/kernel","shape":[8,4],"dtype":"float32"},{"name":"dense_Dense4449/bias","shape":[4],"dtype":"float32"},{"name":"dense_Dense4450/kernel","shape":[4,8],"dtype":"float32"},{"name":"dense_Dense4450/bias","shape":[8],"dtype":"float32"},{"name":"dense_Dense4451/kernel","shape":[8,8],"dtype":"float32"},{"name":"dense_Dense4451/bias","shape":[8],"dtype":"float32"},{"name":"dense_Dense4452/kernel","shape":[8,1],"dtype":"float32"},{"name":"dense_Dense4452/bias","shape":[1],"dtype":"float32"}]}]}