{"modelTopology":{"class_name":"Model","config":{"name":"model704","layers":[{"name":"input704","class_name":"InputLayer","config":{"batch_input_shape":[null,3],"dtype":"float32","sparse":false,"name":"input704"},"inbound_nodes":[]},{"name":"dense_Dense4219","class_name":"Dense","config":{"units":1,"activation":"relu","use_bias":true,"kernel_initializer":{"class_name":"VarianceScaling","config":{"scale":1,"mode":"fan_avg","distribution":"normal","seed":null}},"bias_initializer":{"class_name":"Zeros","config":{}},"kernel_regularizer":null,"bias_regularizer":null,"activity_regularizer":null,"kernel_constraint":null,"bias_constraint":null,"name":"dense_Dense4219","trainable":true},"inbound_nodes":[[["input704",0,0,{}]]]},{"name":"dense_Dense4220","class_name":"Dense","config":{"units":8,"activation":"relu","use_bias":true,"kernel_initializer":{"class_name":"VarianceScaling","config":{"scale":1,"mode":"fan_avg","distribution":"normal","seed":null}},"bias_initializer":{"class_name":"Zeros","config":{}},"kernel_regularizer":null,"bias_regularizer":null,"activity_regularizer":null,"kernel_constraint":null,"bias_constraint":null,"name":"dense_Dense4220","trainable":true},"inbound_nodes":[[["dense_Dense4219",0,0,{}]]]},{"name":"dense_Dense4221","class_name":"Dense","config":{"units":2,"activation":"relu","use_bias":true,"kernel_initializer":{"class_name":"VarianceScaling","config":{"scale":1,"mode":"fan_avg","distribution":"normal","seed":null}},"bias_initializer":{"class_name":"Zeros","config":{}},"kernel_regularizer":null,"bias_regularizer":null,"activity_regularizer":null,"kernel_constraint":null,"bias_constraint":null,"name":"dense_Dense4221","trainable":true},"inbound_nodes":[[["dense_Dense4220",0,0,{}]]]},{"name":"dense_Dense4222","class_name":"Dense","config":{"units":8,"activation":"relu","use_bias":true,"kernel_initializer":{"class_name":"VarianceScaling","config":{"scale":1,"mode":"fan_avg","distribution":"normal","seed":null}},"bias_initializer":{"class_name":"Zeros","config":{}},"kernel_regularizer":null,"bias_regularizer":null,"activity_regularizer":null,"kernel_constraint":null,"bias_constraint":null,"name":"dense_Dense4222","trainable":true},"inbound_nodes":[[["dense_Dense4221",0,0,{}]]]},{"name":"dense_Dense4223","class_name":"Dense","config":{"units":2,"activation":"relu","use_bias":true,"kernel_initializer":{"class_name":"VarianceScaling","config":{"scale":1,"mode":"fan_avg","distribution":"normal","seed":null}},"bias_initializer":{"class_name":"Zeros","config":{}},"kernel_regularizer":null,"bias_regularizer":null,"activity_regularizer":null,"kernel_constraint":null,"bias_constraint":null,"name":"dense_Dense4223","trainable":true},"inbound_nodes":[[["dense_Dense4222",0,0,{}]]]},{"name":"dense_Dense4224","class_name":"Dense","config":{"units":1,"activation":"sigmoid","use_bias":true,"kernel_initializer":{"class_name":"VarianceScaling","config":{"scale":1,"mode":"fan_avg","distribution":"normal","seed":null}},"bias_initializer":{"class_name":"Zeros","config":{}},"kernel_regularizer":null,"bias_regularizer":null,"activity_regularizer":null,"kernel_constraint":null,"bias_constraint":null,"name":"dense_Dense4224","trainable":true},"inbound_nodes":[[["dense_Dense4223",0,0,{}]]]}],"input_layers":[["input704",0,0]],"output_layers":[["dense_Dense4224",0,0]]},"keras_version":"tfjs-layers 3.9.0","backend":"tensor_flow.js"},"weightsManifest":[{"paths":["weights.bin"],"weights":[{"name":"dense_Dense4219/kernel","shape":[3,1],"dtype":"float32"},{"name":"dense_Dense4219/bias","shape":[1],"dtype":"float32"},{"name":"dense_Dense4220/kernel","shape":[1,8],"dtype":"float32"},{"name":"dense_Dense4220/bias","shape":[8],"dtype":"float32"},{"name":"dense_Dense4221/kernel","shape":[8,2],"dtype":"float32"},{"name":"dense_Dense4221/bias","shape":[2],"dtype":"float32"},{"name":"dense_Dense4222/kernel","shape":[2,8],"dtype":"float32"},{"name":"dense_Dense4222/bias","shape":[8],"dtype":"float32"},{"name":"dense_Dense4223/kernel","shape":[8,2],"dtype":"float32"},{"name":"dense_Dense4223/bias","shape":[2],"dtype":"float32"},{"name":"dense_Dense4224/kernel","shape":[2,1],"dtype":"float32"},{"name":"dense_Dense4224/bias","shape":[1],"dtype":"float32"}]}]}