{"modelTopology":{"class_name":"Model","config":{"name":"model867","layers":[{"name":"input867","class_name":"InputLayer","config":{"batch_input_shape":[null,3],"dtype":"float32","sparse":false,"name":"input867"},"inbound_nodes":[]},{"name":"dense_Dense5197","class_name":"Dense","config":{"units":4,"activation":"relu","use_bias":true,"kernel_initializer":{"class_name":"VarianceScaling","config":{"scale":1,"mode":"fan_avg","distribution":"normal","seed":null}},"bias_initializer":{"class_name":"Zeros","config":{}},"kernel_regularizer":null,"bias_regularizer":null,"activity_regularizer":null,"kernel_constraint":null,"bias_constraint":null,"name":"dense_Dense5197","trainable":true},"inbound_nodes":[[["input867",0,0,{}]]]},{"name":"dense_Dense5198","class_name":"Dense","config":{"units":16,"activation":"relu","use_bias":true,"kernel_initializer":{"class_name":"VarianceScaling","config":{"scale":1,"mode":"fan_avg","distribution":"normal","seed":null}},"bias_initializer":{"class_name":"Zeros","config":{}},"kernel_regularizer":null,"bias_regularizer":null,"activity_regularizer":null,"kernel_constraint":null,"bias_constraint":null,"name":"dense_Dense5198","trainable":true},"inbound_nodes":[[["dense_Dense5197",0,0,{}]]]},{"name":"dense_Dense5199","class_name":"Dense","config":{"units":1,"activation":"relu","use_bias":true,"kernel_initializer":{"class_name":"VarianceScaling","config":{"scale":1,"mode":"fan_avg","distribution":"normal","seed":null}},"bias_initializer":{"class_name":"Zeros","config":{}},"kernel_regularizer":null,"bias_regularizer":null,"activity_regularizer":null,"kernel_constraint":null,"bias_constraint":null,"name":"dense_Dense5199","trainable":true},"inbound_nodes":[[["dense_Dense5198",0,0,{}]]]},{"name":"dense_Dense5200","class_name":"Dense","config":{"units":1,"activation":"relu","use_bias":true,"kernel_initializer":{"class_name":"VarianceScaling","config":{"scale":1,"mode":"fan_avg","distribution":"normal","seed":null}},"bias_initializer":{"class_name":"Zeros","config":{}},"kernel_regularizer":null,"bias_regularizer":null,"activity_regularizer":null,"kernel_constraint":null,"bias_constraint":null,"name":"dense_Dense5200","trainable":true},"inbound_nodes":[[["dense_Dense5199",0,0,{}]]]},{"name":"dense_Dense5201","class_name":"Dense","config":{"units":4,"activation":"relu","use_bias":true,"kernel_initializer":{"class_name":"VarianceScaling","config":{"scale":1,"mode":"fan_avg","distribution":"normal","seed":null}},"bias_initializer":{"class_name":"Zeros","config":{}},"kernel_regularizer":null,"bias_regularizer":null,"activity_regularizer":null,"kernel_constraint":null,"bias_constraint":null,"name":"dense_Dense5201","trainable":true},"inbound_nodes":[[["dense_Dense5200",0,0,{}]]]},{"name":"dense_Dense5202","class_name":"Dense","config":{"units":1,"activation":"sigmoid","use_bias":true,"kernel_initializer":{"class_name":"VarianceScaling","config":{"scale":1,"mode":"fan_avg","distribution":"normal","seed":null}},"bias_initializer":{"class_name":"Zeros","config":{}},"kernel_regularizer":null,"bias_regularizer":null,"activity_regularizer":null,"kernel_constraint":null,"bias_constraint":null,"name":"dense_Dense5202","trainable":true},"inbound_nodes":[[["dense_Dense5201",0,0,{}]]]}],"input_layers":[["input867",0,0]],"output_layers":[["dense_Dense5202",0,0]]},"keras_version":"tfjs-layers 3.9.0","backend":"tensor_flow.js"},"weightsManifest":[{"paths":["weights.bin"],"weights":[{"name":"dense_Dense5197/kernel","shape":[3,4],"dtype":"float32"},{"name":"dense_Dense5197/bias","shape":[4],"dtype":"float32"},{"name":"dense_Dense5198/kernel","shape":[4,16],"dtype":"float32"},{"name":"dense_Dense5198/bias","shape":[16],"dtype":"float32"},{"name":"dense_Dense5199/kernel","shape":[16,1],"dtype":"float32"},{"name":"dense_Dense5199/bias","shape":[1],"dtype":"float32"},{"name":"dense_Dense5200/kernel","shape":[1,1],"dtype":"float32"},{"name":"dense_Dense5200/bias","shape":[1],"dtype":"float32"},{"name":"dense_Dense5201/kernel","shape":[1,4],"dtype":"float32"},{"name":"dense_Dense5201/bias","shape":[4],"dtype":"float32"},{"name":"dense_Dense5202/kernel","shape":[4,1],"dtype":"float32"},{"name":"dense_Dense5202/bias","shape":[1],"dtype":"float32"}]}]}