{"modelTopology":{"class_name":"Model","config":{"name":"model77","layers":[{"name":"input77","class_name":"InputLayer","config":{"batch_input_shape":[null,3],"dtype":"float32","sparse":false,"name":"input77"},"inbound_nodes":[]},{"name":"dense_Dense457","class_name":"Dense","config":{"units":4,"activation":"relu","use_bias":true,"kernel_initializer":{"class_name":"VarianceScaling","config":{"scale":1,"mode":"fan_avg","distribution":"normal","seed":null}},"bias_initializer":{"class_name":"Zeros","config":{}},"kernel_regularizer":null,"bias_regularizer":null,"activity_regularizer":null,"kernel_constraint":null,"bias_constraint":null,"name":"dense_Dense457","trainable":true},"inbound_nodes":[[["input77",0,0,{}]]]},{"name":"dense_Dense458","class_name":"Dense","config":{"units":1,"activation":"relu","use_bias":true,"kernel_initializer":{"class_name":"VarianceScaling","config":{"scale":1,"mode":"fan_avg","distribution":"normal","seed":null}},"bias_initializer":{"class_name":"Zeros","config":{}},"kernel_regularizer":null,"bias_regularizer":null,"activity_regularizer":null,"kernel_constraint":null,"bias_constraint":null,"name":"dense_Dense458","trainable":true},"inbound_nodes":[[["dense_Dense457",0,0,{}]]]},{"name":"dense_Dense459","class_name":"Dense","config":{"units":4,"activation":"relu","use_bias":true,"kernel_initializer":{"class_name":"VarianceScaling","config":{"scale":1,"mode":"fan_avg","distribution":"normal","seed":null}},"bias_initializer":{"class_name":"Zeros","config":{}},"kernel_regularizer":null,"bias_regularizer":null,"activity_regularizer":null,"kernel_constraint":null,"bias_constraint":null,"name":"dense_Dense459","trainable":true},"inbound_nodes":[[["dense_Dense458",0,0,{}]]]},{"name":"dense_Dense460","class_name":"Dense","config":{"units":1,"activation":"relu","use_bias":true,"kernel_initializer":{"class_name":"VarianceScaling","config":{"scale":1,"mode":"fan_avg","distribution":"normal","seed":null}},"bias_initializer":{"class_name":"Zeros","config":{}},"kernel_regularizer":null,"bias_regularizer":null,"activity_regularizer":null,"kernel_constraint":null,"bias_constraint":null,"name":"dense_Dense460","trainable":true},"inbound_nodes":[[["dense_Dense459",0,0,{}]]]},{"name":"dense_Dense461","class_name":"Dense","config":{"units":16,"activation":"relu","use_bias":true,"kernel_initializer":{"class_name":"VarianceScaling","config":{"scale":1,"mode":"fan_avg","distribution":"normal","seed":null}},"bias_initializer":{"class_name":"Zeros","config":{}},"kernel_regularizer":null,"bias_regularizer":null,"activity_regularizer":null,"kernel_constraint":null,"bias_constraint":null,"name":"dense_Dense461","trainable":true},"inbound_nodes":[[["dense_Dense460",0,0,{}]]]},{"name":"dense_Dense462","class_name":"Dense","config":{"units":1,"activation":"sigmoid","use_bias":true,"kernel_initializer":{"class_name":"VarianceScaling","config":{"scale":1,"mode":"fan_avg","distribution":"normal","seed":null}},"bias_initializer":{"class_name":"Zeros","config":{}},"kernel_regularizer":null,"bias_regularizer":null,"activity_regularizer":null,"kernel_constraint":null,"bias_constraint":null,"name":"dense_Dense462","trainable":true},"inbound_nodes":[[["dense_Dense461",0,0,{}]]]}],"input_layers":[["input77",0,0]],"output_layers":[["dense_Dense462",0,0]]},"keras_version":"tfjs-layers 3.9.0","backend":"tensor_flow.js"},"weightsManifest":[{"paths":["weights.bin"],"weights":[{"name":"dense_Dense457/kernel","shape":[3,4],"dtype":"float32"},{"name":"dense_Dense457/bias","shape":[4],"dtype":"float32"},{"name":"dense_Dense458/kernel","shape":[4,1],"dtype":"float32"},{"name":"dense_Dense458/bias","shape":[1],"dtype":"float32"},{"name":"dense_Dense459/kernel","shape":[1,4],"dtype":"float32"},{"name":"dense_Dense459/bias","shape":[4],"dtype":"float32"},{"name":"dense_Dense460/kernel","shape":[4,1],"dtype":"float32"},{"name":"dense_Dense460/bias","shape":[1],"dtype":"float32"},{"name":"dense_Dense461/kernel","shape":[1,16],"dtype":"float32"},{"name":"dense_Dense461/bias","shape":[16],"dtype":"float32"},{"name":"dense_Dense462/kernel","shape":[16,1],"dtype":"float32"},{"name":"dense_Dense462/bias","shape":[1],"dtype":"float32"}]}]}