{"modelTopology":{"class_name":"Model","config":{"name":"model568","layers":[{"name":"input568","class_name":"InputLayer","config":{"batch_input_shape":[null,3],"dtype":"float32","sparse":false,"name":"input568"},"inbound_nodes":[]},{"name":"dense_Dense2836","class_name":"Dense","config":{"units":4,"activation":"relu","use_bias":true,"kernel_initializer":{"class_name":"VarianceScaling","config":{"scale":1,"mode":"fan_avg","distribution":"normal","seed":null}},"bias_initializer":{"class_name":"Zeros","config":{}},"kernel_regularizer":null,"bias_regularizer":null,"activity_regularizer":null,"kernel_constraint":null,"bias_constraint":null,"name":"dense_Dense2836","trainable":true},"inbound_nodes":[[["input568",0,0,{}]]]},{"name":"dense_Dense2837","class_name":"Dense","config":{"units":8,"activation":"relu","use_bias":true,"kernel_initializer":{"class_name":"VarianceScaling","config":{"scale":1,"mode":"fan_avg","distribution":"normal","seed":null}},"bias_initializer":{"class_name":"Zeros","config":{}},"kernel_regularizer":null,"bias_regularizer":null,"activity_regularizer":null,"kernel_constraint":null,"bias_constraint":null,"name":"dense_Dense2837","trainable":true},"inbound_nodes":[[["dense_Dense2836",0,0,{}]]]},{"name":"dense_Dense2838","class_name":"Dense","config":{"units":16,"activation":"relu","use_bias":true,"kernel_initializer":{"class_name":"VarianceScaling","config":{"scale":1,"mode":"fan_avg","distribution":"normal","seed":null}},"bias_initializer":{"class_name":"Zeros","config":{}},"kernel_regularizer":null,"bias_regularizer":null,"activity_regularizer":null,"kernel_constraint":null,"bias_constraint":null,"name":"dense_Dense2838","trainable":true},"inbound_nodes":[[["dense_Dense2837",0,0,{}]]]},{"name":"dense_Dense2839","class_name":"Dense","config":{"units":8,"activation":"relu","use_bias":true,"kernel_initializer":{"class_name":"VarianceScaling","config":{"scale":1,"mode":"fan_avg","distribution":"normal","seed":null}},"bias_initializer":{"class_name":"Zeros","config":{}},"kernel_regularizer":null,"bias_regularizer":null,"activity_regularizer":null,"kernel_constraint":null,"bias_constraint":null,"name":"dense_Dense2839","trainable":true},"inbound_nodes":[[["dense_Dense2838",0,0,{}]]]},{"name":"dense_Dense2840","class_name":"Dense","config":{"units":1,"activation":"sigmoid","use_bias":true,"kernel_initializer":{"class_name":"VarianceScaling","config":{"scale":1,"mode":"fan_avg","distribution":"normal","seed":null}},"bias_initializer":{"class_name":"Zeros","config":{}},"kernel_regularizer":null,"bias_regularizer":null,"activity_regularizer":null,"kernel_constraint":null,"bias_constraint":null,"name":"dense_Dense2840","trainable":true},"inbound_nodes":[[["dense_Dense2839",0,0,{}]]]}],"input_layers":[["input568",0,0]],"output_layers":[["dense_Dense2840",0,0]]},"keras_version":"tfjs-layers 3.9.0","backend":"tensor_flow.js"},"weightsManifest":[{"paths":["weights.bin"],"weights":[{"name":"dense_Dense2836/kernel","shape":[3,4],"dtype":"float32"},{"name":"dense_Dense2836/bias","shape":[4],"dtype":"float32"},{"name":"dense_Dense2837/kernel","shape":[4,8],"dtype":"float32"},{"name":"dense_Dense2837/bias","shape":[8],"dtype":"float32"},{"name":"dense_Dense2838/kernel","shape":[8,16],"dtype":"float32"},{"name":"dense_Dense2838/bias","shape":[16],"dtype":"float32"},{"name":"dense_Dense2839/kernel","shape":[16,8],"dtype":"float32"},{"name":"dense_Dense2839/bias","shape":[8],"dtype":"float32"},{"name":"dense_Dense2840/kernel","shape":[8,1],"dtype":"float32"},{"name":"dense_Dense2840/bias","shape":[1],"dtype":"float32"}]}]}