{"modelTopology":{"class_name":"Model","config":{"name":"model530","layers":[{"name":"input530","class_name":"InputLayer","config":{"batch_input_shape":[null,3],"dtype":"float32","sparse":false,"name":"input530"},"inbound_nodes":[]},{"name":"dense_Dense2646","class_name":"Dense","config":{"units":4,"activation":"relu","use_bias":true,"kernel_initializer":{"class_name":"VarianceScaling","config":{"scale":1,"mode":"fan_avg","distribution":"normal","seed":null}},"bias_initializer":{"class_name":"Zeros","config":{}},"kernel_regularizer":null,"bias_regularizer":null,"activity_regularizer":null,"kernel_constraint":null,"bias_constraint":null,"name":"dense_Dense2646","trainable":true},"inbound_nodes":[[["input530",0,0,{}]]]},{"name":"dense_Dense2647","class_name":"Dense","config":{"units":4,"activation":"relu","use_bias":true,"kernel_initializer":{"class_name":"VarianceScaling","config":{"scale":1,"mode":"fan_avg","distribution":"normal","seed":null}},"bias_initializer":{"class_name":"Zeros","config":{}},"kernel_regularizer":null,"bias_regularizer":null,"activity_regularizer":null,"kernel_constraint":null,"bias_constraint":null,"name":"dense_Dense2647","trainable":true},"inbound_nodes":[[["dense_Dense2646",0,0,{}]]]},{"name":"dense_Dense2648","class_name":"Dense","config":{"units":16,"activation":"relu","use_bias":true,"kernel_initializer":{"class_name":"VarianceScaling","config":{"scale":1,"mode":"fan_avg","distribution":"normal","seed":null}},"bias_initializer":{"class_name":"Zeros","config":{}},"kernel_regularizer":null,"bias_regularizer":null,"activity_regularizer":null,"kernel_constraint":null,"bias_constraint":null,"name":"dense_Dense2648","trainable":true},"inbound_nodes":[[["dense_Dense2647",0,0,{}]]]},{"name":"dense_Dense2649","class_name":"Dense","config":{"units":2,"activation":"relu","use_bias":true,"kernel_initializer":{"class_name":"VarianceScaling","config":{"scale":1,"mode":"fan_avg","distribution":"normal","seed":null}},"bias_initializer":{"class_name":"Zeros","config":{}},"kernel_regularizer":null,"bias_regularizer":null,"activity_regularizer":null,"kernel_constraint":null,"bias_constraint":null,"name":"dense_Dense2649","trainable":true},"inbound_nodes":[[["dense_Dense2648",0,0,{}]]]},{"name":"dense_Dense2650","class_name":"Dense","config":{"units":1,"activation":"sigmoid","use_bias":true,"kernel_initializer":{"class_name":"VarianceScaling","config":{"scale":1,"mode":"fan_avg","distribution":"normal","seed":null}},"bias_initializer":{"class_name":"Zeros","config":{}},"kernel_regularizer":null,"bias_regularizer":null,"activity_regularizer":null,"kernel_constraint":null,"bias_constraint":null,"name":"dense_Dense2650","trainable":true},"inbound_nodes":[[["dense_Dense2649",0,0,{}]]]}],"input_layers":[["input530",0,0]],"output_layers":[["dense_Dense2650",0,0]]},"keras_version":"tfjs-layers 3.9.0","backend":"tensor_flow.js"},"weightsManifest":[{"paths":["weights.bin"],"weights":[{"name":"dense_Dense2646/kernel","shape":[3,4],"dtype":"float32"},{"name":"dense_Dense2646/bias","shape":[4],"dtype":"float32"},{"name":"dense_Dense2647/kernel","shape":[4,4],"dtype":"float32"},{"name":"dense_Dense2647/bias","shape":[4],"dtype":"float32"},{"name":"dense_Dense2648/kernel","shape":[4,16],"dtype":"float32"},{"name":"dense_Dense2648/bias","shape":[16],"dtype":"float32"},{"name":"dense_Dense2649/kernel","shape":[16,2],"dtype":"float32"},{"name":"dense_Dense2649/bias","shape":[2],"dtype":"float32"},{"name":"dense_Dense2650/kernel","shape":[2,1],"dtype":"float32"},{"name":"dense_Dense2650/bias","shape":[1],"dtype":"float32"}]}]}