{"modelTopology":{"class_name":"Model","config":{"name":"model1050","layers":[{"name":"input1050","class_name":"InputLayer","config":{"batch_input_shape":[null,3],"dtype":"float32","sparse":false,"name":"input1050"},"inbound_nodes":[]},{"name":"dense_Dense6295","class_name":"Dense","config":{"units":16,"activation":"relu","use_bias":true,"kernel_initializer":{"class_name":"VarianceScaling","config":{"scale":1,"mode":"fan_avg","distribution":"normal","seed":null}},"bias_initializer":{"class_name":"Zeros","config":{}},"kernel_regularizer":null,"bias_regularizer":null,"activity_regularizer":null,"kernel_constraint":null,"bias_constraint":null,"name":"dense_Dense6295","trainable":true},"inbound_nodes":[[["input1050",0,0,{}]]]},{"name":"dense_Dense6296","class_name":"Dense","config":{"units":16,"activation":"relu","use_bias":true,"kernel_initializer":{"class_name":"VarianceScaling","config":{"scale":1,"mode":"fan_avg","distribution":"normal","seed":null}},"bias_initializer":{"class_name":"Zeros","config":{}},"kernel_regularizer":null,"bias_regularizer":null,"activity_regularizer":null,"kernel_constraint":null,"bias_constraint":null,"name":"dense_Dense6296","trainable":true},"inbound_nodes":[[["dense_Dense6295",0,0,{}]]]},{"name":"dense_Dense6297","class_name":"Dense","config":{"units":32,"activation":"relu","use_bias":true,"kernel_initializer":{"class_name":"VarianceScaling","config":{"scale":1,"mode":"fan_avg","distribution":"normal","seed":null}},"bias_initializer":{"class_name":"Zeros","config":{}},"kernel_regularizer":null,"bias_regularizer":null,"activity_regularizer":null,"kernel_constraint":null,"bias_constraint":null,"name":"dense_Dense6297","trainable":true},"inbound_nodes":[[["dense_Dense6296",0,0,{}]]]},{"name":"dense_Dense6298","class_name":"Dense","config":{"units":1,"activation":"relu","use_bias":true,"kernel_initializer":{"class_name":"VarianceScaling","config":{"scale":1,"mode":"fan_avg","distribution":"normal","seed":null}},"bias_initializer":{"class_name":"Zeros","config":{}},"kernel_regularizer":null,"bias_regularizer":null,"activity_regularizer":null,"kernel_constraint":null,"bias_constraint":null,"name":"dense_Dense6298","trainable":true},"inbound_nodes":[[["dense_Dense6297",0,0,{}]]]},{"name":"dense_Dense6299","class_name":"Dense","config":{"units":32,"activation":"relu","use_bias":true,"kernel_initializer":{"class_name":"VarianceScaling","config":{"scale":1,"mode":"fan_avg","distribution":"normal","seed":null}},"bias_initializer":{"class_name":"Zeros","config":{}},"kernel_regularizer":null,"bias_regularizer":null,"activity_regularizer":null,"kernel_constraint":null,"bias_constraint":null,"name":"dense_Dense6299","trainable":true},"inbound_nodes":[[["dense_Dense6298",0,0,{}]]]},{"name":"dense_Dense6300","class_name":"Dense","config":{"units":1,"activation":"sigmoid","use_bias":true,"kernel_initializer":{"class_name":"VarianceScaling","config":{"scale":1,"mode":"fan_avg","distribution":"normal","seed":null}},"bias_initializer":{"class_name":"Zeros","config":{}},"kernel_regularizer":null,"bias_regularizer":null,"activity_regularizer":null,"kernel_constraint":null,"bias_constraint":null,"name":"dense_Dense6300","trainable":true},"inbound_nodes":[[["dense_Dense6299",0,0,{}]]]}],"input_layers":[["input1050",0,0]],"output_layers":[["dense_Dense6300",0,0]]},"keras_version":"tfjs-layers 3.9.0","backend":"tensor_flow.js"},"weightsManifest":[{"paths":["weights.bin"],"weights":[{"name":"dense_Dense6295/kernel","shape":[3,16],"dtype":"float32"},{"name":"dense_Dense6295/bias","shape":[16],"dtype":"float32"},{"name":"dense_Dense6296/kernel","shape":[16,16],"dtype":"float32"},{"name":"dense_Dense6296/bias","shape":[16],"dtype":"float32"},{"name":"dense_Dense6297/kernel","shape":[16,32],"dtype":"float32"},{"name":"dense_Dense6297/bias","shape":[32],"dtype":"float32"},{"name":"dense_Dense6298/kernel","shape":[32,1],"dtype":"float32"},{"name":"dense_Dense6298/bias","shape":[1],"dtype":"float32"},{"name":"dense_Dense6299/kernel","shape":[1,32],"dtype":"float32"},{"name":"dense_Dense6299/bias","shape":[32],"dtype":"float32"},{"name":"dense_Dense6300/kernel","shape":[32,1],"dtype":"float32"},{"name":"dense_Dense6300/bias","shape":[1],"dtype":"float32"}]}]}