{"modelTopology":{"class_name":"Model","config":{"name":"model187","layers":[{"name":"input187","class_name":"InputLayer","config":{"batch_input_shape":[null,3],"dtype":"float32","sparse":false,"name":"input187"},"inbound_nodes":[]},{"name":"dense_Dense1117","class_name":"Dense","config":{"units":2,"activation":"relu","use_bias":true,"kernel_initializer":{"class_name":"VarianceScaling","config":{"scale":1,"mode":"fan_avg","distribution":"normal","seed":null}},"bias_initializer":{"class_name":"Zeros","config":{}},"kernel_regularizer":null,"bias_regularizer":null,"activity_regularizer":null,"kernel_constraint":null,"bias_constraint":null,"name":"dense_Dense1117","trainable":true},"inbound_nodes":[[["input187",0,0,{}]]]},{"name":"dense_Dense1118","class_name":"Dense","config":{"units":1,"activation":"relu","use_bias":true,"kernel_initializer":{"class_name":"VarianceScaling","config":{"scale":1,"mode":"fan_avg","distribution":"normal","seed":null}},"bias_initializer":{"class_name":"Zeros","config":{}},"kernel_regularizer":null,"bias_regularizer":null,"activity_regularizer":null,"kernel_constraint":null,"bias_constraint":null,"name":"dense_Dense1118","trainable":true},"inbound_nodes":[[["dense_Dense1117",0,0,{}]]]},{"name":"dense_Dense1119","class_name":"Dense","config":{"units":32,"activation":"relu","use_bias":true,"kernel_initializer":{"class_name":"VarianceScaling","config":{"scale":1,"mode":"fan_avg","distribution":"normal","seed":null}},"bias_initializer":{"class_name":"Zeros","config":{}},"kernel_regularizer":null,"bias_regularizer":null,"activity_regularizer":null,"kernel_constraint":null,"bias_constraint":null,"name":"dense_Dense1119","trainable":true},"inbound_nodes":[[["dense_Dense1118",0,0,{}]]]},{"name":"dense_Dense1120","class_name":"Dense","config":{"units":2,"activation":"relu","use_bias":true,"kernel_initializer":{"class_name":"VarianceScaling","config":{"scale":1,"mode":"fan_avg","distribution":"normal","seed":null}},"bias_initializer":{"class_name":"Zeros","config":{}},"kernel_regularizer":null,"bias_regularizer":null,"activity_regularizer":null,"kernel_constraint":null,"bias_constraint":null,"name":"dense_Dense1120","trainable":true},"inbound_nodes":[[["dense_Dense1119",0,0,{}]]]},{"name":"dense_Dense1121","class_name":"Dense","config":{"units":1,"activation":"relu","use_bias":true,"kernel_initializer":{"class_name":"VarianceScaling","config":{"scale":1,"mode":"fan_avg","distribution":"normal","seed":null}},"bias_initializer":{"class_name":"Zeros","config":{}},"kernel_regularizer":null,"bias_regularizer":null,"activity_regularizer":null,"kernel_constraint":null,"bias_constraint":null,"name":"dense_Dense1121","trainable":true},"inbound_nodes":[[["dense_Dense1120",0,0,{}]]]},{"name":"dense_Dense1122","class_name":"Dense","config":{"units":1,"activation":"sigmoid","use_bias":true,"kernel_initializer":{"class_name":"VarianceScaling","config":{"scale":1,"mode":"fan_avg","distribution":"normal","seed":null}},"bias_initializer":{"class_name":"Zeros","config":{}},"kernel_regularizer":null,"bias_regularizer":null,"activity_regularizer":null,"kernel_constraint":null,"bias_constraint":null,"name":"dense_Dense1122","trainable":true},"inbound_nodes":[[["dense_Dense1121",0,0,{}]]]}],"input_layers":[["input187",0,0]],"output_layers":[["dense_Dense1122",0,0]]},"keras_version":"tfjs-layers 3.9.0","backend":"tensor_flow.js"},"weightsManifest":[{"paths":["weights.bin"],"weights":[{"name":"dense_Dense1117/kernel","shape":[3,2],"dtype":"float32"},{"name":"dense_Dense1117/bias","shape":[2],"dtype":"float32"},{"name":"dense_Dense1118/kernel","shape":[2,1],"dtype":"float32"},{"name":"dense_Dense1118/bias","shape":[1],"dtype":"float32"},{"name":"dense_Dense1119/kernel","shape":[1,32],"dtype":"float32"},{"name":"dense_Dense1119/bias","shape":[32],"dtype":"float32"},{"name":"dense_Dense1120/kernel","shape":[32,2],"dtype":"float32"},{"name":"dense_Dense1120/bias","shape":[2],"dtype":"float32"},{"name":"dense_Dense1121/kernel","shape":[2,1],"dtype":"float32"},{"name":"dense_Dense1121/bias","shape":[1],"dtype":"float32"},{"name":"dense_Dense1122/kernel","shape":[1,1],"dtype":"float32"},{"name":"dense_Dense1122/bias","shape":[1],"dtype":"float32"}]}]}