{"modelTopology":{"class_name":"Model","config":{"name":"model32","layers":[{"name":"input32","class_name":"InputLayer","config":{"batch_input_shape":[null,3],"dtype":"float32","sparse":false,"name":"input32"},"inbound_nodes":[]},{"name":"dense_Dense187","class_name":"Dense","config":{"units":8,"activation":"relu","use_bias":true,"kernel_initializer":{"class_name":"VarianceScaling","config":{"scale":1,"mode":"fan_avg","distribution":"normal","seed":null}},"bias_initializer":{"class_name":"Zeros","config":{}},"kernel_regularizer":null,"bias_regularizer":null,"activity_regularizer":null,"kernel_constraint":null,"bias_constraint":null,"name":"dense_Dense187","trainable":true},"inbound_nodes":[[["input32",0,0,{}]]]},{"name":"dense_Dense188","class_name":"Dense","config":{"units":1,"activation":"relu","use_bias":true,"kernel_initializer":{"class_name":"VarianceScaling","config":{"scale":1,"mode":"fan_avg","distribution":"normal","seed":null}},"bias_initializer":{"class_name":"Zeros","config":{}},"kernel_regularizer":null,"bias_regularizer":null,"activity_regularizer":null,"kernel_constraint":null,"bias_constraint":null,"name":"dense_Dense188","trainable":true},"inbound_nodes":[[["dense_Dense187",0,0,{}]]]},{"name":"dense_Dense189","class_name":"Dense","config":{"units":1,"activation":"relu","use_bias":true,"kernel_initializer":{"class_name":"VarianceScaling","config":{"scale":1,"mode":"fan_avg","distribution":"normal","seed":null}},"bias_initializer":{"class_name":"Zeros","config":{}},"kernel_regularizer":null,"bias_regularizer":null,"activity_regularizer":null,"kernel_constraint":null,"bias_constraint":null,"name":"dense_Dense189","trainable":true},"inbound_nodes":[[["dense_Dense188",0,0,{}]]]},{"name":"dense_Dense190","class_name":"Dense","config":{"units":32,"activation":"relu","use_bias":true,"kernel_initializer":{"class_name":"VarianceScaling","config":{"scale":1,"mode":"fan_avg","distribution":"normal","seed":null}},"bias_initializer":{"class_name":"Zeros","config":{}},"kernel_regularizer":null,"bias_regularizer":null,"activity_regularizer":null,"kernel_constraint":null,"bias_constraint":null,"name":"dense_Dense190","trainable":true},"inbound_nodes":[[["dense_Dense189",0,0,{}]]]},{"name":"dense_Dense191","class_name":"Dense","config":{"units":2,"activation":"relu","use_bias":true,"kernel_initializer":{"class_name":"VarianceScaling","config":{"scale":1,"mode":"fan_avg","distribution":"normal","seed":null}},"bias_initializer":{"class_name":"Zeros","config":{}},"kernel_regularizer":null,"bias_regularizer":null,"activity_regularizer":null,"kernel_constraint":null,"bias_constraint":null,"name":"dense_Dense191","trainable":true},"inbound_nodes":[[["dense_Dense190",0,0,{}]]]},{"name":"dense_Dense192","class_name":"Dense","config":{"units":1,"activation":"sigmoid","use_bias":true,"kernel_initializer":{"class_name":"VarianceScaling","config":{"scale":1,"mode":"fan_avg","distribution":"normal","seed":null}},"bias_initializer":{"class_name":"Zeros","config":{}},"kernel_regularizer":null,"bias_regularizer":null,"activity_regularizer":null,"kernel_constraint":null,"bias_constraint":null,"name":"dense_Dense192","trainable":true},"inbound_nodes":[[["dense_Dense191",0,0,{}]]]}],"input_layers":[["input32",0,0]],"output_layers":[["dense_Dense192",0,0]]},"keras_version":"tfjs-layers 3.9.0","backend":"tensor_flow.js"},"weightsManifest":[{"paths":["weights.bin"],"weights":[{"name":"dense_Dense187/kernel","shape":[3,8],"dtype":"float32"},{"name":"dense_Dense187/bias","shape":[8],"dtype":"float32"},{"name":"dense_Dense188/kernel","shape":[8,1],"dtype":"float32"},{"name":"dense_Dense188/bias","shape":[1],"dtype":"float32"},{"name":"dense_Dense189/kernel","shape":[1,1],"dtype":"float32"},{"name":"dense_Dense189/bias","shape":[1],"dtype":"float32"},{"name":"dense_Dense190/kernel","shape":[1,32],"dtype":"float32"},{"name":"dense_Dense190/bias","shape":[32],"dtype":"float32"},{"name":"dense_Dense191/kernel","shape":[32,2],"dtype":"float32"},{"name":"dense_Dense191/bias","shape":[2],"dtype":"float32"},{"name":"dense_Dense192/kernel","shape":[2,1],"dtype":"float32"},{"name":"dense_Dense192/bias","shape":[1],"dtype":"float32"}]}]}