{"modelTopology":{"class_name":"Model","config":{"name":"model106","layers":[{"name":"input106","class_name":"InputLayer","config":{"batch_input_shape":[null,3],"dtype":"float32","sparse":false,"name":"input106"},"inbound_nodes":[]},{"name":"dense_Dense526","class_name":"Dense","config":{"units":1,"activation":"relu","use_bias":true,"kernel_initializer":{"class_name":"VarianceScaling","config":{"scale":1,"mode":"fan_avg","distribution":"normal","seed":null}},"bias_initializer":{"class_name":"Zeros","config":{}},"kernel_regularizer":null,"bias_regularizer":null,"activity_regularizer":null,"kernel_constraint":null,"bias_constraint":null,"name":"dense_Dense526","trainable":true},"inbound_nodes":[[["input106",0,0,{}]]]},{"name":"dense_Dense527","class_name":"Dense","config":{"units":4,"activation":"relu","use_bias":true,"kernel_initializer":{"class_name":"VarianceScaling","config":{"scale":1,"mode":"fan_avg","distribution":"normal","seed":null}},"bias_initializer":{"class_name":"Zeros","config":{}},"kernel_regularizer":null,"bias_regularizer":null,"activity_regularizer":null,"kernel_constraint":null,"bias_constraint":null,"name":"dense_Dense527","trainable":true},"inbound_nodes":[[["dense_Dense526",0,0,{}]]]},{"name":"dense_Dense528","class_name":"Dense","config":{"units":32,"activation":"relu","use_bias":true,"kernel_initializer":{"class_name":"VarianceScaling","config":{"scale":1,"mode":"fan_avg","distribution":"normal","seed":null}},"bias_initializer":{"class_name":"Zeros","config":{}},"kernel_regularizer":null,"bias_regularizer":null,"activity_regularizer":null,"kernel_constraint":null,"bias_constraint":null,"name":"dense_Dense528","trainable":true},"inbound_nodes":[[["dense_Dense527",0,0,{}]]]},{"name":"dense_Dense529","class_name":"Dense","config":{"units":8,"activation":"relu","use_bias":true,"kernel_initializer":{"class_name":"VarianceScaling","config":{"scale":1,"mode":"fan_avg","distribution":"normal","seed":null}},"bias_initializer":{"class_name":"Zeros","config":{}},"kernel_regularizer":null,"bias_regularizer":null,"activity_regularizer":null,"kernel_constraint":null,"bias_constraint":null,"name":"dense_Dense529","trainable":true},"inbound_nodes":[[["dense_Dense528",0,0,{}]]]},{"name":"dense_Dense530","class_name":"Dense","config":{"units":1,"activation":"sigmoid","use_bias":true,"kernel_initializer":{"class_name":"VarianceScaling","config":{"scale":1,"mode":"fan_avg","distribution":"normal","seed":null}},"bias_initializer":{"class_name":"Zeros","config":{}},"kernel_regularizer":null,"bias_regularizer":null,"activity_regularizer":null,"kernel_constraint":null,"bias_constraint":null,"name":"dense_Dense530","trainable":true},"inbound_nodes":[[["dense_Dense529",0,0,{}]]]}],"input_layers":[["input106",0,0]],"output_layers":[["dense_Dense530",0,0]]},"keras_version":"tfjs-layers 3.9.0","backend":"tensor_flow.js"},"weightsManifest":[{"paths":["weights.bin"],"weights":[{"name":"dense_Dense526/kernel","shape":[3,1],"dtype":"float32"},{"name":"dense_Dense526/bias","shape":[1],"dtype":"float32"},{"name":"dense_Dense527/kernel","shape":[1,4],"dtype":"float32"},{"name":"dense_Dense527/bias","shape":[4],"dtype":"float32"},{"name":"dense_Dense528/kernel","shape":[4,32],"dtype":"float32"},{"name":"dense_Dense528/bias","shape":[32],"dtype":"float32"},{"name":"dense_Dense529/kernel","shape":[32,8],"dtype":"float32"},{"name":"dense_Dense529/bias","shape":[8],"dtype":"float32"},{"name":"dense_Dense530/kernel","shape":[8,1],"dtype":"float32"},{"name":"dense_Dense530/bias","shape":[1],"dtype":"float32"}]}]}