{"modelTopology":{"class_name":"Model","config":{"name":"model329","layers":[{"name":"input329","class_name":"InputLayer","config":{"batch_input_shape":[null,3],"dtype":"float32","sparse":false,"name":"input329"},"inbound_nodes":[]},{"name":"dense_Dense1969","class_name":"Dense","config":{"units":32,"activation":"relu","use_bias":true,"kernel_initializer":{"class_name":"VarianceScaling","config":{"scale":1,"mode":"fan_avg","distribution":"normal","seed":null}},"bias_initializer":{"class_name":"Zeros","config":{}},"kernel_regularizer":null,"bias_regularizer":null,"activity_regularizer":null,"kernel_constraint":null,"bias_constraint":null,"name":"dense_Dense1969","trainable":true},"inbound_nodes":[[["input329",0,0,{}]]]},{"name":"dense_Dense1970","class_name":"Dense","config":{"units":2,"activation":"relu","use_bias":true,"kernel_initializer":{"class_name":"VarianceScaling","config":{"scale":1,"mode":"fan_avg","distribution":"normal","seed":null}},"bias_initializer":{"class_name":"Zeros","config":{}},"kernel_regularizer":null,"bias_regularizer":null,"activity_regularizer":null,"kernel_constraint":null,"bias_constraint":null,"name":"dense_Dense1970","trainable":true},"inbound_nodes":[[["dense_Dense1969",0,0,{}]]]},{"name":"dense_Dense1971","class_name":"Dense","config":{"units":8,"activation":"relu","use_bias":true,"kernel_initializer":{"class_name":"VarianceScaling","config":{"scale":1,"mode":"fan_avg","distribution":"normal","seed":null}},"bias_initializer":{"class_name":"Zeros","config":{}},"kernel_regularizer":null,"bias_regularizer":null,"activity_regularizer":null,"kernel_constraint":null,"bias_constraint":null,"name":"dense_Dense1971","trainable":true},"inbound_nodes":[[["dense_Dense1970",0,0,{}]]]},{"name":"dense_Dense1972","class_name":"Dense","config":{"units":1,"activation":"relu","use_bias":true,"kernel_initializer":{"class_name":"VarianceScaling","config":{"scale":1,"mode":"fan_avg","distribution":"normal","seed":null}},"bias_initializer":{"class_name":"Zeros","config":{}},"kernel_regularizer":null,"bias_regularizer":null,"activity_regularizer":null,"kernel_constraint":null,"bias_constraint":null,"name":"dense_Dense1972","trainable":true},"inbound_nodes":[[["dense_Dense1971",0,0,{}]]]},{"name":"dense_Dense1973","class_name":"Dense","config":{"units":16,"activation":"relu","use_bias":true,"kernel_initializer":{"class_name":"VarianceScaling","config":{"scale":1,"mode":"fan_avg","distribution":"normal","seed":null}},"bias_initializer":{"class_name":"Zeros","config":{}},"kernel_regularizer":null,"bias_regularizer":null,"activity_regularizer":null,"kernel_constraint":null,"bias_constraint":null,"name":"dense_Dense1973","trainable":true},"inbound_nodes":[[["dense_Dense1972",0,0,{}]]]},{"name":"dense_Dense1974","class_name":"Dense","config":{"units":1,"activation":"sigmoid","use_bias":true,"kernel_initializer":{"class_name":"VarianceScaling","config":{"scale":1,"mode":"fan_avg","distribution":"normal","seed":null}},"bias_initializer":{"class_name":"Zeros","config":{}},"kernel_regularizer":null,"bias_regularizer":null,"activity_regularizer":null,"kernel_constraint":null,"bias_constraint":null,"name":"dense_Dense1974","trainable":true},"inbound_nodes":[[["dense_Dense1973",0,0,{}]]]}],"input_layers":[["input329",0,0]],"output_layers":[["dense_Dense1974",0,0]]},"keras_version":"tfjs-layers 3.9.0","backend":"tensor_flow.js"},"weightsManifest":[{"paths":["weights.bin"],"weights":[{"name":"dense_Dense1969/kernel","shape":[3,32],"dtype":"float32"},{"name":"dense_Dense1969/bias","shape":[32],"dtype":"float32"},{"name":"dense_Dense1970/kernel","shape":[32,2],"dtype":"float32"},{"name":"dense_Dense1970/bias","shape":[2],"dtype":"float32"},{"name":"dense_Dense1971/kernel","shape":[2,8],"dtype":"float32"},{"name":"dense_Dense1971/bias","shape":[8],"dtype":"float32"},{"name":"dense_Dense1972/kernel","shape":[8,1],"dtype":"float32"},{"name":"dense_Dense1972/bias","shape":[1],"dtype":"float32"},{"name":"dense_Dense1973/kernel","shape":[1,16],"dtype":"float32"},{"name":"dense_Dense1973/bias","shape":[16],"dtype":"float32"},{"name":"dense_Dense1974/kernel","shape":[16,1],"dtype":"float32"},{"name":"dense_Dense1974/bias","shape":[1],"dtype":"float32"}]}]}