{"modelTopology":{"class_name":"Model","config":{"name":"model297","layers":[{"name":"input297","class_name":"InputLayer","config":{"batch_input_shape":[null,3],"dtype":"float32","sparse":false,"name":"input297"},"inbound_nodes":[]},{"name":"dense_Dense1481","class_name":"Dense","config":{"units":2,"activation":"relu","use_bias":true,"kernel_initializer":{"class_name":"VarianceScaling","config":{"scale":1,"mode":"fan_avg","distribution":"normal","seed":null}},"bias_initializer":{"class_name":"Zeros","config":{}},"kernel_regularizer":null,"bias_regularizer":null,"activity_regularizer":null,"kernel_constraint":null,"bias_constraint":null,"name":"dense_Dense1481","trainable":true},"inbound_nodes":[[["input297",0,0,{}]]]},{"name":"dense_Dense1482","class_name":"Dense","config":{"units":4,"activation":"relu","use_bias":true,"kernel_initializer":{"class_name":"VarianceScaling","config":{"scale":1,"mode":"fan_avg","distribution":"normal","seed":null}},"bias_initializer":{"class_name":"Zeros","config":{}},"kernel_regularizer":null,"bias_regularizer":null,"activity_regularizer":null,"kernel_constraint":null,"bias_constraint":null,"name":"dense_Dense1482","trainable":true},"inbound_nodes":[[["dense_Dense1481",0,0,{}]]]},{"name":"dense_Dense1483","class_name":"Dense","config":{"units":2,"activation":"relu","use_bias":true,"kernel_initializer":{"class_name":"VarianceScaling","config":{"scale":1,"mode":"fan_avg","distribution":"normal","seed":null}},"bias_initializer":{"class_name":"Zeros","config":{}},"kernel_regularizer":null,"bias_regularizer":null,"activity_regularizer":null,"kernel_constraint":null,"bias_constraint":null,"name":"dense_Dense1483","trainable":true},"inbound_nodes":[[["dense_Dense1482",0,0,{}]]]},{"name":"dense_Dense1484","class_name":"Dense","config":{"units":4,"activation":"relu","use_bias":true,"kernel_initializer":{"class_name":"VarianceScaling","config":{"scale":1,"mode":"fan_avg","distribution":"normal","seed":null}},"bias_initializer":{"class_name":"Zeros","config":{}},"kernel_regularizer":null,"bias_regularizer":null,"activity_regularizer":null,"kernel_constraint":null,"bias_constraint":null,"name":"dense_Dense1484","trainable":true},"inbound_nodes":[[["dense_Dense1483",0,0,{}]]]},{"name":"dense_Dense1485","class_name":"Dense","config":{"units":1,"activation":"sigmoid","use_bias":true,"kernel_initializer":{"class_name":"VarianceScaling","config":{"scale":1,"mode":"fan_avg","distribution":"normal","seed":null}},"bias_initializer":{"class_name":"Zeros","config":{}},"kernel_regularizer":null,"bias_regularizer":null,"activity_regularizer":null,"kernel_constraint":null,"bias_constraint":null,"name":"dense_Dense1485","trainable":true},"inbound_nodes":[[["dense_Dense1484",0,0,{}]]]}],"input_layers":[["input297",0,0]],"output_layers":[["dense_Dense1485",0,0]]},"keras_version":"tfjs-layers 3.9.0","backend":"tensor_flow.js"},"weightsManifest":[{"paths":["weights.bin"],"weights":[{"name":"dense_Dense1481/kernel","shape":[3,2],"dtype":"float32"},{"name":"dense_Dense1481/bias","shape":[2],"dtype":"float32"},{"name":"dense_Dense1482/kernel","shape":[2,4],"dtype":"float32"},{"name":"dense_Dense1482/bias","shape":[4],"dtype":"float32"},{"name":"dense_Dense1483/kernel","shape":[4,2],"dtype":"float32"},{"name":"dense_Dense1483/bias","shape":[2],"dtype":"float32"},{"name":"dense_Dense1484/kernel","shape":[2,4],"dtype":"float32"},{"name":"dense_Dense1484/bias","shape":[4],"dtype":"float32"},{"name":"dense_Dense1485/kernel","shape":[4,1],"dtype":"float32"},{"name":"dense_Dense1485/bias","shape":[1],"dtype":"float32"}]}]}