{"modelTopology":{"class_name":"Model","config":{"name":"model155","layers":[{"name":"input155","class_name":"InputLayer","config":{"batch_input_shape":[null,3],"dtype":"float32","sparse":false,"name":"input155"},"inbound_nodes":[]},{"name":"dense_Dense925","class_name":"Dense","config":{"units":1,"activation":"relu","use_bias":true,"kernel_initializer":{"class_name":"VarianceScaling","config":{"scale":1,"mode":"fan_avg","distribution":"normal","seed":null}},"bias_initializer":{"class_name":"Zeros","config":{}},"kernel_regularizer":null,"bias_regularizer":null,"activity_regularizer":null,"kernel_constraint":null,"bias_constraint":null,"name":"dense_Dense925","trainable":true},"inbound_nodes":[[["input155",0,0,{}]]]},{"name":"dense_Dense926","class_name":"Dense","config":{"units":1,"activation":"relu","use_bias":true,"kernel_initializer":{"class_name":"VarianceScaling","config":{"scale":1,"mode":"fan_avg","distribution":"normal","seed":null}},"bias_initializer":{"class_name":"Zeros","config":{}},"kernel_regularizer":null,"bias_regularizer":null,"activity_regularizer":null,"kernel_constraint":null,"bias_constraint":null,"name":"dense_Dense926","trainable":true},"inbound_nodes":[[["dense_Dense925",0,0,{}]]]},{"name":"dense_Dense927","class_name":"Dense","config":{"units":16,"activation":"relu","use_bias":true,"kernel_initializer":{"class_name":"VarianceScaling","config":{"scale":1,"mode":"fan_avg","distribution":"normal","seed":null}},"bias_initializer":{"class_name":"Zeros","config":{}},"kernel_regularizer":null,"bias_regularizer":null,"activity_regularizer":null,"kernel_constraint":null,"bias_constraint":null,"name":"dense_Dense927","trainable":true},"inbound_nodes":[[["dense_Dense926",0,0,{}]]]},{"name":"dense_Dense928","class_name":"Dense","config":{"units":2,"activation":"relu","use_bias":true,"kernel_initializer":{"class_name":"VarianceScaling","config":{"scale":1,"mode":"fan_avg","distribution":"normal","seed":null}},"bias_initializer":{"class_name":"Zeros","config":{}},"kernel_regularizer":null,"bias_regularizer":null,"activity_regularizer":null,"kernel_constraint":null,"bias_constraint":null,"name":"dense_Dense928","trainable":true},"inbound_nodes":[[["dense_Dense927",0,0,{}]]]},{"name":"dense_Dense929","class_name":"Dense","config":{"units":16,"activation":"relu","use_bias":true,"kernel_initializer":{"class_name":"VarianceScaling","config":{"scale":1,"mode":"fan_avg","distribution":"normal","seed":null}},"bias_initializer":{"class_name":"Zeros","config":{}},"kernel_regularizer":null,"bias_regularizer":null,"activity_regularizer":null,"kernel_constraint":null,"bias_constraint":null,"name":"dense_Dense929","trainable":true},"inbound_nodes":[[["dense_Dense928",0,0,{}]]]},{"name":"dense_Dense930","class_name":"Dense","config":{"units":1,"activation":"sigmoid","use_bias":true,"kernel_initializer":{"class_name":"VarianceScaling","config":{"scale":1,"mode":"fan_avg","distribution":"normal","seed":null}},"bias_initializer":{"class_name":"Zeros","config":{}},"kernel_regularizer":null,"bias_regularizer":null,"activity_regularizer":null,"kernel_constraint":null,"bias_constraint":null,"name":"dense_Dense930","trainable":true},"inbound_nodes":[[["dense_Dense929",0,0,{}]]]}],"input_layers":[["input155",0,0]],"output_layers":[["dense_Dense930",0,0]]},"keras_version":"tfjs-layers 3.9.0","backend":"tensor_flow.js"},"weightsManifest":[{"paths":["weights.bin"],"weights":[{"name":"dense_Dense925/kernel","shape":[3,1],"dtype":"float32"},{"name":"dense_Dense925/bias","shape":[1],"dtype":"float32"},{"name":"dense_Dense926/kernel","shape":[1,1],"dtype":"float32"},{"name":"dense_Dense926/bias","shape":[1],"dtype":"float32"},{"name":"dense_Dense927/kernel","shape":[1,16],"dtype":"float32"},{"name":"dense_Dense927/bias","shape":[16],"dtype":"float32"},{"name":"dense_Dense928/kernel","shape":[16,2],"dtype":"float32"},{"name":"dense_Dense928/bias","shape":[2],"dtype":"float32"},{"name":"dense_Dense929/kernel","shape":[2,16],"dtype":"float32"},{"name":"dense_Dense929/bias","shape":[16],"dtype":"float32"},{"name":"dense_Dense930/kernel","shape":[16,1],"dtype":"float32"},{"name":"dense_Dense930/bias","shape":[1],"dtype":"float32"}]}]}