{"modelTopology":{"class_name":"Model","config":{"name":"model100","layers":[{"name":"input100","class_name":"InputLayer","config":{"batch_input_shape":[null,3],"dtype":"float32","sparse":false,"name":"input100"},"inbound_nodes":[]},{"name":"dense_Dense595","class_name":"Dense","config":{"units":16,"activation":"relu","use_bias":true,"kernel_initializer":{"class_name":"VarianceScaling","config":{"scale":1,"mode":"fan_avg","distribution":"normal","seed":null}},"bias_initializer":{"class_name":"Zeros","config":{}},"kernel_regularizer":null,"bias_regularizer":null,"activity_regularizer":null,"kernel_constraint":null,"bias_constraint":null,"name":"dense_Dense595","trainable":true},"inbound_nodes":[[["input100",0,0,{}]]]},{"name":"dense_Dense596","class_name":"Dense","config":{"units":1,"activation":"relu","use_bias":true,"kernel_initializer":{"class_name":"VarianceScaling","config":{"scale":1,"mode":"fan_avg","distribution":"normal","seed":null}},"bias_initializer":{"class_name":"Zeros","config":{}},"kernel_regularizer":null,"bias_regularizer":null,"activity_regularizer":null,"kernel_constraint":null,"bias_constraint":null,"name":"dense_Dense596","trainable":true},"inbound_nodes":[[["dense_Dense595",0,0,{}]]]},{"name":"dense_Dense597","class_name":"Dense","config":{"units":4,"activation":"relu","use_bias":true,"kernel_initializer":{"class_name":"VarianceScaling","config":{"scale":1,"mode":"fan_avg","distribution":"normal","seed":null}},"bias_initializer":{"class_name":"Zeros","config":{}},"kernel_regularizer":null,"bias_regularizer":null,"activity_regularizer":null,"kernel_constraint":null,"bias_constraint":null,"name":"dense_Dense597","trainable":true},"inbound_nodes":[[["dense_Dense596",0,0,{}]]]},{"name":"dense_Dense598","class_name":"Dense","config":{"units":16,"activation":"relu","use_bias":true,"kernel_initializer":{"class_name":"VarianceScaling","config":{"scale":1,"mode":"fan_avg","distribution":"normal","seed":null}},"bias_initializer":{"class_name":"Zeros","config":{}},"kernel_regularizer":null,"bias_regularizer":null,"activity_regularizer":null,"kernel_constraint":null,"bias_constraint":null,"name":"dense_Dense598","trainable":true},"inbound_nodes":[[["dense_Dense597",0,0,{}]]]},{"name":"dense_Dense599","class_name":"Dense","config":{"units":8,"activation":"relu","use_bias":true,"kernel_initializer":{"class_name":"VarianceScaling","config":{"scale":1,"mode":"fan_avg","distribution":"normal","seed":null}},"bias_initializer":{"class_name":"Zeros","config":{}},"kernel_regularizer":null,"bias_regularizer":null,"activity_regularizer":null,"kernel_constraint":null,"bias_constraint":null,"name":"dense_Dense599","trainable":true},"inbound_nodes":[[["dense_Dense598",0,0,{}]]]},{"name":"dense_Dense600","class_name":"Dense","config":{"units":1,"activation":"sigmoid","use_bias":true,"kernel_initializer":{"class_name":"VarianceScaling","config":{"scale":1,"mode":"fan_avg","distribution":"normal","seed":null}},"bias_initializer":{"class_name":"Zeros","config":{}},"kernel_regularizer":null,"bias_regularizer":null,"activity_regularizer":null,"kernel_constraint":null,"bias_constraint":null,"name":"dense_Dense600","trainable":true},"inbound_nodes":[[["dense_Dense599",0,0,{}]]]}],"input_layers":[["input100",0,0]],"output_layers":[["dense_Dense600",0,0]]},"keras_version":"tfjs-layers 3.9.0","backend":"tensor_flow.js"},"weightsManifest":[{"paths":["weights.bin"],"weights":[{"name":"dense_Dense595/kernel","shape":[3,16],"dtype":"float32"},{"name":"dense_Dense595/bias","shape":[16],"dtype":"float32"},{"name":"dense_Dense596/kernel","shape":[16,1],"dtype":"float32"},{"name":"dense_Dense596/bias","shape":[1],"dtype":"float32"},{"name":"dense_Dense597/kernel","shape":[1,4],"dtype":"float32"},{"name":"dense_Dense597/bias","shape":[4],"dtype":"float32"},{"name":"dense_Dense598/kernel","shape":[4,16],"dtype":"float32"},{"name":"dense_Dense598/bias","shape":[16],"dtype":"float32"},{"name":"dense_Dense599/kernel","shape":[16,8],"dtype":"float32"},{"name":"dense_Dense599/bias","shape":[8],"dtype":"float32"},{"name":"dense_Dense600/kernel","shape":[8,1],"dtype":"float32"},{"name":"dense_Dense600/bias","shape":[1],"dtype":"float32"}]}]}