{"modelTopology":{"class_name":"Model","config":{"name":"model911","layers":[{"name":"input911","class_name":"InputLayer","config":{"batch_input_shape":[null,3],"dtype":"float32","sparse":false,"name":"input911"},"inbound_nodes":[]},{"name":"dense_Dense4551","class_name":"Dense","config":{"units":16,"activation":"relu","use_bias":true,"kernel_initializer":{"class_name":"VarianceScaling","config":{"scale":1,"mode":"fan_avg","distribution":"normal","seed":null}},"bias_initializer":{"class_name":"Zeros","config":{}},"kernel_regularizer":null,"bias_regularizer":null,"activity_regularizer":null,"kernel_constraint":null,"bias_constraint":null,"name":"dense_Dense4551","trainable":true},"inbound_nodes":[[["input911",0,0,{}]]]},{"name":"dense_Dense4552","class_name":"Dense","config":{"units":2,"activation":"relu","use_bias":true,"kernel_initializer":{"class_name":"VarianceScaling","config":{"scale":1,"mode":"fan_avg","distribution":"normal","seed":null}},"bias_initializer":{"class_name":"Zeros","config":{}},"kernel_regularizer":null,"bias_regularizer":null,"activity_regularizer":null,"kernel_constraint":null,"bias_constraint":null,"name":"dense_Dense4552","trainable":true},"inbound_nodes":[[["dense_Dense4551",0,0,{}]]]},{"name":"dense_Dense4553","class_name":"Dense","config":{"units":2,"activation":"relu","use_bias":true,"kernel_initializer":{"class_name":"VarianceScaling","config":{"scale":1,"mode":"fan_avg","distribution":"normal","seed":null}},"bias_initializer":{"class_name":"Zeros","config":{}},"kernel_regularizer":null,"bias_regularizer":null,"activity_regularizer":null,"kernel_constraint":null,"bias_constraint":null,"name":"dense_Dense4553","trainable":true},"inbound_nodes":[[["dense_Dense4552",0,0,{}]]]},{"name":"dense_Dense4554","class_name":"Dense","config":{"units":16,"activation":"relu","use_bias":true,"kernel_initializer":{"class_name":"VarianceScaling","config":{"scale":1,"mode":"fan_avg","distribution":"normal","seed":null}},"bias_initializer":{"class_name":"Zeros","config":{}},"kernel_regularizer":null,"bias_regularizer":null,"activity_regularizer":null,"kernel_constraint":null,"bias_constraint":null,"name":"dense_Dense4554","trainable":true},"inbound_nodes":[[["dense_Dense4553",0,0,{}]]]},{"name":"dense_Dense4555","class_name":"Dense","config":{"units":1,"activation":"sigmoid","use_bias":true,"kernel_initializer":{"class_name":"VarianceScaling","config":{"scale":1,"mode":"fan_avg","distribution":"normal","seed":null}},"bias_initializer":{"class_name":"Zeros","config":{}},"kernel_regularizer":null,"bias_regularizer":null,"activity_regularizer":null,"kernel_constraint":null,"bias_constraint":null,"name":"dense_Dense4555","trainable":true},"inbound_nodes":[[["dense_Dense4554",0,0,{}]]]}],"input_layers":[["input911",0,0]],"output_layers":[["dense_Dense4555",0,0]]},"keras_version":"tfjs-layers 3.9.0","backend":"tensor_flow.js"},"weightsManifest":[{"paths":["weights.bin"],"weights":[{"name":"dense_Dense4551/kernel","shape":[3,16],"dtype":"float32"},{"name":"dense_Dense4551/bias","shape":[16],"dtype":"float32"},{"name":"dense_Dense4552/kernel","shape":[16,2],"dtype":"float32"},{"name":"dense_Dense4552/bias","shape":[2],"dtype":"float32"},{"name":"dense_Dense4553/kernel","shape":[2,2],"dtype":"float32"},{"name":"dense_Dense4553/bias","shape":[2],"dtype":"float32"},{"name":"dense_Dense4554/kernel","shape":[2,16],"dtype":"float32"},{"name":"dense_Dense4554/bias","shape":[16],"dtype":"float32"},{"name":"dense_Dense4555/kernel","shape":[16,1],"dtype":"float32"},{"name":"dense_Dense4555/bias","shape":[1],"dtype":"float32"}]}]}