{"modelTopology":{"class_name":"Model","config":{"name":"model901","layers":[{"name":"input901","class_name":"InputLayer","config":{"batch_input_shape":[null,3],"dtype":"float32","sparse":false,"name":"input901"},"inbound_nodes":[]},{"name":"dense_Dense5401","class_name":"Dense","config":{"units":8,"activation":"relu","use_bias":true,"kernel_initializer":{"class_name":"VarianceScaling","config":{"scale":1,"mode":"fan_avg","distribution":"normal","seed":null}},"bias_initializer":{"class_name":"Zeros","config":{}},"kernel_regularizer":null,"bias_regularizer":null,"activity_regularizer":null,"kernel_constraint":null,"bias_constraint":null,"name":"dense_Dense5401","trainable":true},"inbound_nodes":[[["input901",0,0,{}]]]},{"name":"dense_Dense5402","class_name":"Dense","config":{"units":16,"activation":"relu","use_bias":true,"kernel_initializer":{"class_name":"VarianceScaling","config":{"scale":1,"mode":"fan_avg","distribution":"normal","seed":null}},"bias_initializer":{"class_name":"Zeros","config":{}},"kernel_regularizer":null,"bias_regularizer":null,"activity_regularizer":null,"kernel_constraint":null,"bias_constraint":null,"name":"dense_Dense5402","trainable":true},"inbound_nodes":[[["dense_Dense5401",0,0,{}]]]},{"name":"dense_Dense5403","class_name":"Dense","config":{"units":2,"activation":"relu","use_bias":true,"kernel_initializer":{"class_name":"VarianceScaling","config":{"scale":1,"mode":"fan_avg","distribution":"normal","seed":null}},"bias_initializer":{"class_name":"Zeros","config":{}},"kernel_regularizer":null,"bias_regularizer":null,"activity_regularizer":null,"kernel_constraint":null,"bias_constraint":null,"name":"dense_Dense5403","trainable":true},"inbound_nodes":[[["dense_Dense5402",0,0,{}]]]},{"name":"dense_Dense5404","class_name":"Dense","config":{"units":1,"activation":"relu","use_bias":true,"kernel_initializer":{"class_name":"VarianceScaling","config":{"scale":1,"mode":"fan_avg","distribution":"normal","seed":null}},"bias_initializer":{"class_name":"Zeros","config":{}},"kernel_regularizer":null,"bias_regularizer":null,"activity_regularizer":null,"kernel_constraint":null,"bias_constraint":null,"name":"dense_Dense5404","trainable":true},"inbound_nodes":[[["dense_Dense5403",0,0,{}]]]},{"name":"dense_Dense5405","class_name":"Dense","config":{"units":1,"activation":"relu","use_bias":true,"kernel_initializer":{"class_name":"VarianceScaling","config":{"scale":1,"mode":"fan_avg","distribution":"normal","seed":null}},"bias_initializer":{"class_name":"Zeros","config":{}},"kernel_regularizer":null,"bias_regularizer":null,"activity_regularizer":null,"kernel_constraint":null,"bias_constraint":null,"name":"dense_Dense5405","trainable":true},"inbound_nodes":[[["dense_Dense5404",0,0,{}]]]},{"name":"dense_Dense5406","class_name":"Dense","config":{"units":1,"activation":"sigmoid","use_bias":true,"kernel_initializer":{"class_name":"VarianceScaling","config":{"scale":1,"mode":"fan_avg","distribution":"normal","seed":null}},"bias_initializer":{"class_name":"Zeros","config":{}},"kernel_regularizer":null,"bias_regularizer":null,"activity_regularizer":null,"kernel_constraint":null,"bias_constraint":null,"name":"dense_Dense5406","trainable":true},"inbound_nodes":[[["dense_Dense5405",0,0,{}]]]}],"input_layers":[["input901",0,0]],"output_layers":[["dense_Dense5406",0,0]]},"keras_version":"tfjs-layers 3.9.0","backend":"tensor_flow.js"},"weightsManifest":[{"paths":["weights.bin"],"weights":[{"name":"dense_Dense5401/kernel","shape":[3,8],"dtype":"float32"},{"name":"dense_Dense5401/bias","shape":[8],"dtype":"float32"},{"name":"dense_Dense5402/kernel","shape":[8,16],"dtype":"float32"},{"name":"dense_Dense5402/bias","shape":[16],"dtype":"float32"},{"name":"dense_Dense5403/kernel","shape":[16,2],"dtype":"float32"},{"name":"dense_Dense5403/bias","shape":[2],"dtype":"float32"},{"name":"dense_Dense5404/kernel","shape":[2,1],"dtype":"float32"},{"name":"dense_Dense5404/bias","shape":[1],"dtype":"float32"},{"name":"dense_Dense5405/kernel","shape":[1,1],"dtype":"float32"},{"name":"dense_Dense5405/bias","shape":[1],"dtype":"float32"},{"name":"dense_Dense5406/kernel","shape":[1,1],"dtype":"float32"},{"name":"dense_Dense5406/bias","shape":[1],"dtype":"float32"}]}]}