{"modelTopology":{"class_name":"Model","config":{"name":"model992","layers":[{"name":"input992","class_name":"InputLayer","config":{"batch_input_shape":[null,3],"dtype":"float32","sparse":false,"name":"input992"},"inbound_nodes":[]},{"name":"dense_Dense5947","class_name":"Dense","config":{"units":8,"activation":"relu","use_bias":true,"kernel_initializer":{"class_name":"VarianceScaling","config":{"scale":1,"mode":"fan_avg","distribution":"normal","seed":null}},"bias_initializer":{"class_name":"Zeros","config":{}},"kernel_regularizer":null,"bias_regularizer":null,"activity_regularizer":null,"kernel_constraint":null,"bias_constraint":null,"name":"dense_Dense5947","trainable":true},"inbound_nodes":[[["input992",0,0,{}]]]},{"name":"dense_Dense5948","class_name":"Dense","config":{"units":16,"activation":"relu","use_bias":true,"kernel_initializer":{"class_name":"VarianceScaling","config":{"scale":1,"mode":"fan_avg","distribution":"normal","seed":null}},"bias_initializer":{"class_name":"Zeros","config":{}},"kernel_regularizer":null,"bias_regularizer":null,"activity_regularizer":null,"kernel_constraint":null,"bias_constraint":null,"name":"dense_Dense5948","trainable":true},"inbound_nodes":[[["dense_Dense5947",0,0,{}]]]},{"name":"dense_Dense5949","class_name":"Dense","config":{"units":8,"activation":"relu","use_bias":true,"kernel_initializer":{"class_name":"VarianceScaling","config":{"scale":1,"mode":"fan_avg","distribution":"normal","seed":null}},"bias_initializer":{"class_name":"Zeros","config":{}},"kernel_regularizer":null,"bias_regularizer":null,"activity_regularizer":null,"kernel_constraint":null,"bias_constraint":null,"name":"dense_Dense5949","trainable":true},"inbound_nodes":[[["dense_Dense5948",0,0,{}]]]},{"name":"dense_Dense5950","class_name":"Dense","config":{"units":8,"activation":"relu","use_bias":true,"kernel_initializer":{"class_name":"VarianceScaling","config":{"scale":1,"mode":"fan_avg","distribution":"normal","seed":null}},"bias_initializer":{"class_name":"Zeros","config":{}},"kernel_regularizer":null,"bias_regularizer":null,"activity_regularizer":null,"kernel_constraint":null,"bias_constraint":null,"name":"dense_Dense5950","trainable":true},"inbound_nodes":[[["dense_Dense5949",0,0,{}]]]},{"name":"dense_Dense5951","class_name":"Dense","config":{"units":2,"activation":"relu","use_bias":true,"kernel_initializer":{"class_name":"VarianceScaling","config":{"scale":1,"mode":"fan_avg","distribution":"normal","seed":null}},"bias_initializer":{"class_name":"Zeros","config":{}},"kernel_regularizer":null,"bias_regularizer":null,"activity_regularizer":null,"kernel_constraint":null,"bias_constraint":null,"name":"dense_Dense5951","trainable":true},"inbound_nodes":[[["dense_Dense5950",0,0,{}]]]},{"name":"dense_Dense5952","class_name":"Dense","config":{"units":1,"activation":"sigmoid","use_bias":true,"kernel_initializer":{"class_name":"VarianceScaling","config":{"scale":1,"mode":"fan_avg","distribution":"normal","seed":null}},"bias_initializer":{"class_name":"Zeros","config":{}},"kernel_regularizer":null,"bias_regularizer":null,"activity_regularizer":null,"kernel_constraint":null,"bias_constraint":null,"name":"dense_Dense5952","trainable":true},"inbound_nodes":[[["dense_Dense5951",0,0,{}]]]}],"input_layers":[["input992",0,0]],"output_layers":[["dense_Dense5952",0,0]]},"keras_version":"tfjs-layers 3.9.0","backend":"tensor_flow.js"},"weightsManifest":[{"paths":["weights.bin"],"weights":[{"name":"dense_Dense5947/kernel","shape":[3,8],"dtype":"float32"},{"name":"dense_Dense5947/bias","shape":[8],"dtype":"float32"},{"name":"dense_Dense5948/kernel","shape":[8,16],"dtype":"float32"},{"name":"dense_Dense5948/bias","shape":[16],"dtype":"float32"},{"name":"dense_Dense5949/kernel","shape":[16,8],"dtype":"float32"},{"name":"dense_Dense5949/bias","shape":[8],"dtype":"float32"},{"name":"dense_Dense5950/kernel","shape":[8,8],"dtype":"float32"},{"name":"dense_Dense5950/bias","shape":[8],"dtype":"float32"},{"name":"dense_Dense5951/kernel","shape":[8,2],"dtype":"float32"},{"name":"dense_Dense5951/bias","shape":[2],"dtype":"float32"},{"name":"dense_Dense5952/kernel","shape":[2,1],"dtype":"float32"},{"name":"dense_Dense5952/bias","shape":[1],"dtype":"float32"}]}]}