{"modelTopology":{"class_name":"Model","config":{"name":"model863","layers":[{"name":"input863","class_name":"InputLayer","config":{"batch_input_shape":[null,3],"dtype":"float32","sparse":false,"name":"input863"},"inbound_nodes":[]},{"name":"dense_Dense5173","class_name":"Dense","config":{"units":4,"activation":"relu","use_bias":true,"kernel_initializer":{"class_name":"VarianceScaling","config":{"scale":1,"mode":"fan_avg","distribution":"normal","seed":null}},"bias_initializer":{"class_name":"Zeros","config":{}},"kernel_regularizer":null,"bias_regularizer":null,"activity_regularizer":null,"kernel_constraint":null,"bias_constraint":null,"name":"dense_Dense5173","trainable":true},"inbound_nodes":[[["input863",0,0,{}]]]},{"name":"dense_Dense5174","class_name":"Dense","config":{"units":8,"activation":"relu","use_bias":true,"kernel_initializer":{"class_name":"VarianceScaling","config":{"scale":1,"mode":"fan_avg","distribution":"normal","seed":null}},"bias_initializer":{"class_name":"Zeros","config":{}},"kernel_regularizer":null,"bias_regularizer":null,"activity_regularizer":null,"kernel_constraint":null,"bias_constraint":null,"name":"dense_Dense5174","trainable":true},"inbound_nodes":[[["dense_Dense5173",0,0,{}]]]},{"name":"dense_Dense5175","class_name":"Dense","config":{"units":32,"activation":"relu","use_bias":true,"kernel_initializer":{"class_name":"VarianceScaling","config":{"scale":1,"mode":"fan_avg","distribution":"normal","seed":null}},"bias_initializer":{"class_name":"Zeros","config":{}},"kernel_regularizer":null,"bias_regularizer":null,"activity_regularizer":null,"kernel_constraint":null,"bias_constraint":null,"name":"dense_Dense5175","trainable":true},"inbound_nodes":[[["dense_Dense5174",0,0,{}]]]},{"name":"dense_Dense5176","class_name":"Dense","config":{"units":32,"activation":"relu","use_bias":true,"kernel_initializer":{"class_name":"VarianceScaling","config":{"scale":1,"mode":"fan_avg","distribution":"normal","seed":null}},"bias_initializer":{"class_name":"Zeros","config":{}},"kernel_regularizer":null,"bias_regularizer":null,"activity_regularizer":null,"kernel_constraint":null,"bias_constraint":null,"name":"dense_Dense5176","trainable":true},"inbound_nodes":[[["dense_Dense5175",0,0,{}]]]},{"name":"dense_Dense5177","class_name":"Dense","config":{"units":16,"activation":"relu","use_bias":true,"kernel_initializer":{"class_name":"VarianceScaling","config":{"scale":1,"mode":"fan_avg","distribution":"normal","seed":null}},"bias_initializer":{"class_name":"Zeros","config":{}},"kernel_regularizer":null,"bias_regularizer":null,"activity_regularizer":null,"kernel_constraint":null,"bias_constraint":null,"name":"dense_Dense5177","trainable":true},"inbound_nodes":[[["dense_Dense5176",0,0,{}]]]},{"name":"dense_Dense5178","class_name":"Dense","config":{"units":1,"activation":"sigmoid","use_bias":true,"kernel_initializer":{"class_name":"VarianceScaling","config":{"scale":1,"mode":"fan_avg","distribution":"normal","seed":null}},"bias_initializer":{"class_name":"Zeros","config":{}},"kernel_regularizer":null,"bias_regularizer":null,"activity_regularizer":null,"kernel_constraint":null,"bias_constraint":null,"name":"dense_Dense5178","trainable":true},"inbound_nodes":[[["dense_Dense5177",0,0,{}]]]}],"input_layers":[["input863",0,0]],"output_layers":[["dense_Dense5178",0,0]]},"keras_version":"tfjs-layers 3.9.0","backend":"tensor_flow.js"},"weightsManifest":[{"paths":["weights.bin"],"weights":[{"name":"dense_Dense5173/kernel","shape":[3,4],"dtype":"float32"},{"name":"dense_Dense5173/bias","shape":[4],"dtype":"float32"},{"name":"dense_Dense5174/kernel","shape":[4,8],"dtype":"float32"},{"name":"dense_Dense5174/bias","shape":[8],"dtype":"float32"},{"name":"dense_Dense5175/kernel","shape":[8,32],"dtype":"float32"},{"name":"dense_Dense5175/bias","shape":[32],"dtype":"float32"},{"name":"dense_Dense5176/kernel","shape":[32,32],"dtype":"float32"},{"name":"dense_Dense5176/bias","shape":[32],"dtype":"float32"},{"name":"dense_Dense5177/kernel","shape":[32,16],"dtype":"float32"},{"name":"dense_Dense5177/bias","shape":[16],"dtype":"float32"},{"name":"dense_Dense5178/kernel","shape":[16,1],"dtype":"float32"},{"name":"dense_Dense5178/bias","shape":[1],"dtype":"float32"}]}]}