{"modelTopology":{"class_name":"Model","config":{"name":"model768","layers":[{"name":"input768","class_name":"InputLayer","config":{"batch_input_shape":[null,3],"dtype":"float32","sparse":false,"name":"input768"},"inbound_nodes":[]},{"name":"dense_Dense3836","class_name":"Dense","config":{"units":8,"activation":"relu","use_bias":true,"kernel_initializer":{"class_name":"VarianceScaling","config":{"scale":1,"mode":"fan_avg","distribution":"normal","seed":null}},"bias_initializer":{"class_name":"Zeros","config":{}},"kernel_regularizer":null,"bias_regularizer":null,"activity_regularizer":null,"kernel_constraint":null,"bias_constraint":null,"name":"dense_Dense3836","trainable":true},"inbound_nodes":[[["input768",0,0,{}]]]},{"name":"dense_Dense3837","class_name":"Dense","config":{"units":8,"activation":"relu","use_bias":true,"kernel_initializer":{"class_name":"VarianceScaling","config":{"scale":1,"mode":"fan_avg","distribution":"normal","seed":null}},"bias_initializer":{"class_name":"Zeros","config":{}},"kernel_regularizer":null,"bias_regularizer":null,"activity_regularizer":null,"kernel_constraint":null,"bias_constraint":null,"name":"dense_Dense3837","trainable":true},"inbound_nodes":[[["dense_Dense3836",0,0,{}]]]},{"name":"dense_Dense3838","class_name":"Dense","config":{"units":2,"activation":"relu","use_bias":true,"kernel_initializer":{"class_name":"VarianceScaling","config":{"scale":1,"mode":"fan_avg","distribution":"normal","seed":null}},"bias_initializer":{"class_name":"Zeros","config":{}},"kernel_regularizer":null,"bias_regularizer":null,"activity_regularizer":null,"kernel_constraint":null,"bias_constraint":null,"name":"dense_Dense3838","trainable":true},"inbound_nodes":[[["dense_Dense3837",0,0,{}]]]},{"name":"dense_Dense3839","class_name":"Dense","config":{"units":32,"activation":"relu","use_bias":true,"kernel_initializer":{"class_name":"VarianceScaling","config":{"scale":1,"mode":"fan_avg","distribution":"normal","seed":null}},"bias_initializer":{"class_name":"Zeros","config":{}},"kernel_regularizer":null,"bias_regularizer":null,"activity_regularizer":null,"kernel_constraint":null,"bias_constraint":null,"name":"dense_Dense3839","trainable":true},"inbound_nodes":[[["dense_Dense3838",0,0,{}]]]},{"name":"dense_Dense3840","class_name":"Dense","config":{"units":1,"activation":"sigmoid","use_bias":true,"kernel_initializer":{"class_name":"VarianceScaling","config":{"scale":1,"mode":"fan_avg","distribution":"normal","seed":null}},"bias_initializer":{"class_name":"Zeros","config":{}},"kernel_regularizer":null,"bias_regularizer":null,"activity_regularizer":null,"kernel_constraint":null,"bias_constraint":null,"name":"dense_Dense3840","trainable":true},"inbound_nodes":[[["dense_Dense3839",0,0,{}]]]}],"input_layers":[["input768",0,0]],"output_layers":[["dense_Dense3840",0,0]]},"keras_version":"tfjs-layers 3.9.0","backend":"tensor_flow.js"},"weightsManifest":[{"paths":["weights.bin"],"weights":[{"name":"dense_Dense3836/kernel","shape":[3,8],"dtype":"float32"},{"name":"dense_Dense3836/bias","shape":[8],"dtype":"float32"},{"name":"dense_Dense3837/kernel","shape":[8,8],"dtype":"float32"},{"name":"dense_Dense3837/bias","shape":[8],"dtype":"float32"},{"name":"dense_Dense3838/kernel","shape":[8,2],"dtype":"float32"},{"name":"dense_Dense3838/bias","shape":[2],"dtype":"float32"},{"name":"dense_Dense3839/kernel","shape":[2,32],"dtype":"float32"},{"name":"dense_Dense3839/bias","shape":[32],"dtype":"float32"},{"name":"dense_Dense3840/kernel","shape":[32,1],"dtype":"float32"},{"name":"dense_Dense3840/bias","shape":[1],"dtype":"float32"}]}]}