{"modelTopology":{"class_name":"Model","config":{"name":"model1221","layers":[{"name":"input1221","class_name":"InputLayer","config":{"batch_input_shape":[null,3],"dtype":"float32","sparse":false,"name":"input1221"},"inbound_nodes":[]},{"name":"dense_Dense6101","class_name":"Dense","config":{"units":32,"activation":"relu","use_bias":true,"kernel_initializer":{"class_name":"VarianceScaling","config":{"scale":1,"mode":"fan_avg","distribution":"normal","seed":null}},"bias_initializer":{"class_name":"Zeros","config":{}},"kernel_regularizer":null,"bias_regularizer":null,"activity_regularizer":null,"kernel_constraint":null,"bias_constraint":null,"name":"dense_Dense6101","trainable":true},"inbound_nodes":[[["input1221",0,0,{}]]]},{"name":"dense_Dense6102","class_name":"Dense","config":{"units":8,"activation":"relu","use_bias":true,"kernel_initializer":{"class_name":"VarianceScaling","config":{"scale":1,"mode":"fan_avg","distribution":"normal","seed":null}},"bias_initializer":{"class_name":"Zeros","config":{}},"kernel_regularizer":null,"bias_regularizer":null,"activity_regularizer":null,"kernel_constraint":null,"bias_constraint":null,"name":"dense_Dense6102","trainable":true},"inbound_nodes":[[["dense_Dense6101",0,0,{}]]]},{"name":"dense_Dense6103","class_name":"Dense","config":{"units":32,"activation":"relu","use_bias":true,"kernel_initializer":{"class_name":"VarianceScaling","config":{"scale":1,"mode":"fan_avg","distribution":"normal","seed":null}},"bias_initializer":{"class_name":"Zeros","config":{}},"kernel_regularizer":null,"bias_regularizer":null,"activity_regularizer":null,"kernel_constraint":null,"bias_constraint":null,"name":"dense_Dense6103","trainable":true},"inbound_nodes":[[["dense_Dense6102",0,0,{}]]]},{"name":"dense_Dense6104","class_name":"Dense","config":{"units":4,"activation":"relu","use_bias":true,"kernel_initializer":{"class_name":"VarianceScaling","config":{"scale":1,"mode":"fan_avg","distribution":"normal","seed":null}},"bias_initializer":{"class_name":"Zeros","config":{}},"kernel_regularizer":null,"bias_regularizer":null,"activity_regularizer":null,"kernel_constraint":null,"bias_constraint":null,"name":"dense_Dense6104","trainable":true},"inbound_nodes":[[["dense_Dense6103",0,0,{}]]]},{"name":"dense_Dense6105","class_name":"Dense","config":{"units":1,"activation":"sigmoid","use_bias":true,"kernel_initializer":{"class_name":"VarianceScaling","config":{"scale":1,"mode":"fan_avg","distribution":"normal","seed":null}},"bias_initializer":{"class_name":"Zeros","config":{}},"kernel_regularizer":null,"bias_regularizer":null,"activity_regularizer":null,"kernel_constraint":null,"bias_constraint":null,"name":"dense_Dense6105","trainable":true},"inbound_nodes":[[["dense_Dense6104",0,0,{}]]]}],"input_layers":[["input1221",0,0]],"output_layers":[["dense_Dense6105",0,0]]},"keras_version":"tfjs-layers 3.9.0","backend":"tensor_flow.js"},"weightsManifest":[{"paths":["weights.bin"],"weights":[{"name":"dense_Dense6101/kernel","shape":[3,32],"dtype":"float32"},{"name":"dense_Dense6101/bias","shape":[32],"dtype":"float32"},{"name":"dense_Dense6102/kernel","shape":[32,8],"dtype":"float32"},{"name":"dense_Dense6102/bias","shape":[8],"dtype":"float32"},{"name":"dense_Dense6103/kernel","shape":[8,32],"dtype":"float32"},{"name":"dense_Dense6103/bias","shape":[32],"dtype":"float32"},{"name":"dense_Dense6104/kernel","shape":[32,4],"dtype":"float32"},{"name":"dense_Dense6104/bias","shape":[4],"dtype":"float32"},{"name":"dense_Dense6105/kernel","shape":[4,1],"dtype":"float32"},{"name":"dense_Dense6105/bias","shape":[1],"dtype":"float32"}]}]}