{"modelTopology":{"class_name":"Model","config":{"name":"model873","layers":[{"name":"input873","class_name":"InputLayer","config":{"batch_input_shape":[null,3],"dtype":"float32","sparse":false,"name":"input873"},"inbound_nodes":[]},{"name":"dense_Dense5233","class_name":"Dense","config":{"units":4,"activation":"relu","use_bias":true,"kernel_initializer":{"class_name":"VarianceScaling","config":{"scale":1,"mode":"fan_avg","distribution":"normal","seed":null}},"bias_initializer":{"class_name":"Zeros","config":{}},"kernel_regularizer":null,"bias_regularizer":null,"activity_regularizer":null,"kernel_constraint":null,"bias_constraint":null,"name":"dense_Dense5233","trainable":true},"inbound_nodes":[[["input873",0,0,{}]]]},{"name":"dense_Dense5234","class_name":"Dense","config":{"units":16,"activation":"relu","use_bias":true,"kernel_initializer":{"class_name":"VarianceScaling","config":{"scale":1,"mode":"fan_avg","distribution":"normal","seed":null}},"bias_initializer":{"class_name":"Zeros","config":{}},"kernel_regularizer":null,"bias_regularizer":null,"activity_regularizer":null,"kernel_constraint":null,"bias_constraint":null,"name":"dense_Dense5234","trainable":true},"inbound_nodes":[[["dense_Dense5233",0,0,{}]]]},{"name":"dense_Dense5235","class_name":"Dense","config":{"units":1,"activation":"relu","use_bias":true,"kernel_initializer":{"class_name":"VarianceScaling","config":{"scale":1,"mode":"fan_avg","distribution":"normal","seed":null}},"bias_initializer":{"class_name":"Zeros","config":{}},"kernel_regularizer":null,"bias_regularizer":null,"activity_regularizer":null,"kernel_constraint":null,"bias_constraint":null,"name":"dense_Dense5235","trainable":true},"inbound_nodes":[[["dense_Dense5234",0,0,{}]]]},{"name":"dense_Dense5236","class_name":"Dense","config":{"units":2,"activation":"relu","use_bias":true,"kernel_initializer":{"class_name":"VarianceScaling","config":{"scale":1,"mode":"fan_avg","distribution":"normal","seed":null}},"bias_initializer":{"class_name":"Zeros","config":{}},"kernel_regularizer":null,"bias_regularizer":null,"activity_regularizer":null,"kernel_constraint":null,"bias_constraint":null,"name":"dense_Dense5236","trainable":true},"inbound_nodes":[[["dense_Dense5235",0,0,{}]]]},{"name":"dense_Dense5237","class_name":"Dense","config":{"units":4,"activation":"relu","use_bias":true,"kernel_initializer":{"class_name":"VarianceScaling","config":{"scale":1,"mode":"fan_avg","distribution":"normal","seed":null}},"bias_initializer":{"class_name":"Zeros","config":{}},"kernel_regularizer":null,"bias_regularizer":null,"activity_regularizer":null,"kernel_constraint":null,"bias_constraint":null,"name":"dense_Dense5237","trainable":true},"inbound_nodes":[[["dense_Dense5236",0,0,{}]]]},{"name":"dense_Dense5238","class_name":"Dense","config":{"units":1,"activation":"sigmoid","use_bias":true,"kernel_initializer":{"class_name":"VarianceScaling","config":{"scale":1,"mode":"fan_avg","distribution":"normal","seed":null}},"bias_initializer":{"class_name":"Zeros","config":{}},"kernel_regularizer":null,"bias_regularizer":null,"activity_regularizer":null,"kernel_constraint":null,"bias_constraint":null,"name":"dense_Dense5238","trainable":true},"inbound_nodes":[[["dense_Dense5237",0,0,{}]]]}],"input_layers":[["input873",0,0]],"output_layers":[["dense_Dense5238",0,0]]},"keras_version":"tfjs-layers 3.9.0","backend":"tensor_flow.js"},"weightsManifest":[{"paths":["weights.bin"],"weights":[{"name":"dense_Dense5233/kernel","shape":[3,4],"dtype":"float32"},{"name":"dense_Dense5233/bias","shape":[4],"dtype":"float32"},{"name":"dense_Dense5234/kernel","shape":[4,16],"dtype":"float32"},{"name":"dense_Dense5234/bias","shape":[16],"dtype":"float32"},{"name":"dense_Dense5235/kernel","shape":[16,1],"dtype":"float32"},{"name":"dense_Dense5235/bias","shape":[1],"dtype":"float32"},{"name":"dense_Dense5236/kernel","shape":[1,2],"dtype":"float32"},{"name":"dense_Dense5236/bias","shape":[2],"dtype":"float32"},{"name":"dense_Dense5237/kernel","shape":[2,4],"dtype":"float32"},{"name":"dense_Dense5237/bias","shape":[4],"dtype":"float32"},{"name":"dense_Dense5238/kernel","shape":[4,1],"dtype":"float32"},{"name":"dense_Dense5238/bias","shape":[1],"dtype":"float32"}]}]}