{"modelTopology":{"class_name":"Model","config":{"name":"model75","layers":[{"name":"input75","class_name":"InputLayer","config":{"batch_input_shape":[null,3],"dtype":"float32","sparse":false,"name":"input75"},"inbound_nodes":[]},{"name":"dense_Dense445","class_name":"Dense","config":{"units":16,"activation":"relu","use_bias":true,"kernel_initializer":{"class_name":"VarianceScaling","config":{"scale":1,"mode":"fan_avg","distribution":"normal","seed":null}},"bias_initializer":{"class_name":"Zeros","config":{}},"kernel_regularizer":null,"bias_regularizer":null,"activity_regularizer":null,"kernel_constraint":null,"bias_constraint":null,"name":"dense_Dense445","trainable":true},"inbound_nodes":[[["input75",0,0,{}]]]},{"name":"dense_Dense446","class_name":"Dense","config":{"units":1,"activation":"relu","use_bias":true,"kernel_initializer":{"class_name":"VarianceScaling","config":{"scale":1,"mode":"fan_avg","distribution":"normal","seed":null}},"bias_initializer":{"class_name":"Zeros","config":{}},"kernel_regularizer":null,"bias_regularizer":null,"activity_regularizer":null,"kernel_constraint":null,"bias_constraint":null,"name":"dense_Dense446","trainable":true},"inbound_nodes":[[["dense_Dense445",0,0,{}]]]},{"name":"dense_Dense447","class_name":"Dense","config":{"units":4,"activation":"relu","use_bias":true,"kernel_initializer":{"class_name":"VarianceScaling","config":{"scale":1,"mode":"fan_avg","distribution":"normal","seed":null}},"bias_initializer":{"class_name":"Zeros","config":{}},"kernel_regularizer":null,"bias_regularizer":null,"activity_regularizer":null,"kernel_constraint":null,"bias_constraint":null,"name":"dense_Dense447","trainable":true},"inbound_nodes":[[["dense_Dense446",0,0,{}]]]},{"name":"dense_Dense448","class_name":"Dense","config":{"units":1,"activation":"relu","use_bias":true,"kernel_initializer":{"class_name":"VarianceScaling","config":{"scale":1,"mode":"fan_avg","distribution":"normal","seed":null}},"bias_initializer":{"class_name":"Zeros","config":{}},"kernel_regularizer":null,"bias_regularizer":null,"activity_regularizer":null,"kernel_constraint":null,"bias_constraint":null,"name":"dense_Dense448","trainable":true},"inbound_nodes":[[["dense_Dense447",0,0,{}]]]},{"name":"dense_Dense449","class_name":"Dense","config":{"units":4,"activation":"relu","use_bias":true,"kernel_initializer":{"class_name":"VarianceScaling","config":{"scale":1,"mode":"fan_avg","distribution":"normal","seed":null}},"bias_initializer":{"class_name":"Zeros","config":{}},"kernel_regularizer":null,"bias_regularizer":null,"activity_regularizer":null,"kernel_constraint":null,"bias_constraint":null,"name":"dense_Dense449","trainable":true},"inbound_nodes":[[["dense_Dense448",0,0,{}]]]},{"name":"dense_Dense450","class_name":"Dense","config":{"units":1,"activation":"sigmoid","use_bias":true,"kernel_initializer":{"class_name":"VarianceScaling","config":{"scale":1,"mode":"fan_avg","distribution":"normal","seed":null}},"bias_initializer":{"class_name":"Zeros","config":{}},"kernel_regularizer":null,"bias_regularizer":null,"activity_regularizer":null,"kernel_constraint":null,"bias_constraint":null,"name":"dense_Dense450","trainable":true},"inbound_nodes":[[["dense_Dense449",0,0,{}]]]}],"input_layers":[["input75",0,0]],"output_layers":[["dense_Dense450",0,0]]},"keras_version":"tfjs-layers 3.9.0","backend":"tensor_flow.js"},"weightsManifest":[{"paths":["weights.bin"],"weights":[{"name":"dense_Dense445/kernel","shape":[3,16],"dtype":"float32"},{"name":"dense_Dense445/bias","shape":[16],"dtype":"float32"},{"name":"dense_Dense446/kernel","shape":[16,1],"dtype":"float32"},{"name":"dense_Dense446/bias","shape":[1],"dtype":"float32"},{"name":"dense_Dense447/kernel","shape":[1,4],"dtype":"float32"},{"name":"dense_Dense447/bias","shape":[4],"dtype":"float32"},{"name":"dense_Dense448/kernel","shape":[4,1],"dtype":"float32"},{"name":"dense_Dense448/bias","shape":[1],"dtype":"float32"},{"name":"dense_Dense449/kernel","shape":[1,4],"dtype":"float32"},{"name":"dense_Dense449/bias","shape":[4],"dtype":"float32"},{"name":"dense_Dense450/kernel","shape":[4,1],"dtype":"float32"},{"name":"dense_Dense450/bias","shape":[1],"dtype":"float32"}]}]}