{"modelTopology":{"class_name":"Model","config":{"name":"model1024","layers":[{"name":"input1024","class_name":"InputLayer","config":{"batch_input_shape":[null,3],"dtype":"float32","sparse":false,"name":"input1024"},"inbound_nodes":[]},{"name":"dense_Dense5116","class_name":"Dense","config":{"units":16,"activation":"relu","use_bias":true,"kernel_initializer":{"class_name":"VarianceScaling","config":{"scale":1,"mode":"fan_avg","distribution":"normal","seed":null}},"bias_initializer":{"class_name":"Zeros","config":{}},"kernel_regularizer":null,"bias_regularizer":null,"activity_regularizer":null,"kernel_constraint":null,"bias_constraint":null,"name":"dense_Dense5116","trainable":true},"inbound_nodes":[[["input1024",0,0,{}]]]},{"name":"dense_Dense5117","class_name":"Dense","config":{"units":16,"activation":"relu","use_bias":true,"kernel_initializer":{"class_name":"VarianceScaling","config":{"scale":1,"mode":"fan_avg","distribution":"normal","seed":null}},"bias_initializer":{"class_name":"Zeros","config":{}},"kernel_regularizer":null,"bias_regularizer":null,"activity_regularizer":null,"kernel_constraint":null,"bias_constraint":null,"name":"dense_Dense5117","trainable":true},"inbound_nodes":[[["dense_Dense5116",0,0,{}]]]},{"name":"dense_Dense5118","class_name":"Dense","config":{"units":4,"activation":"relu","use_bias":true,"kernel_initializer":{"class_name":"VarianceScaling","config":{"scale":1,"mode":"fan_avg","distribution":"normal","seed":null}},"bias_initializer":{"class_name":"Zeros","config":{}},"kernel_regularizer":null,"bias_regularizer":null,"activity_regularizer":null,"kernel_constraint":null,"bias_constraint":null,"name":"dense_Dense5118","trainable":true},"inbound_nodes":[[["dense_Dense5117",0,0,{}]]]},{"name":"dense_Dense5119","class_name":"Dense","config":{"units":8,"activation":"relu","use_bias":true,"kernel_initializer":{"class_name":"VarianceScaling","config":{"scale":1,"mode":"fan_avg","distribution":"normal","seed":null}},"bias_initializer":{"class_name":"Zeros","config":{}},"kernel_regularizer":null,"bias_regularizer":null,"activity_regularizer":null,"kernel_constraint":null,"bias_constraint":null,"name":"dense_Dense5119","trainable":true},"inbound_nodes":[[["dense_Dense5118",0,0,{}]]]},{"name":"dense_Dense5120","class_name":"Dense","config":{"units":1,"activation":"sigmoid","use_bias":true,"kernel_initializer":{"class_name":"VarianceScaling","config":{"scale":1,"mode":"fan_avg","distribution":"normal","seed":null}},"bias_initializer":{"class_name":"Zeros","config":{}},"kernel_regularizer":null,"bias_regularizer":null,"activity_regularizer":null,"kernel_constraint":null,"bias_constraint":null,"name":"dense_Dense5120","trainable":true},"inbound_nodes":[[["dense_Dense5119",0,0,{}]]]}],"input_layers":[["input1024",0,0]],"output_layers":[["dense_Dense5120",0,0]]},"keras_version":"tfjs-layers 3.9.0","backend":"tensor_flow.js"},"weightsManifest":[{"paths":["weights.bin"],"weights":[{"name":"dense_Dense5116/kernel","shape":[3,16],"dtype":"float32"},{"name":"dense_Dense5116/bias","shape":[16],"dtype":"float32"},{"name":"dense_Dense5117/kernel","shape":[16,16],"dtype":"float32"},{"name":"dense_Dense5117/bias","shape":[16],"dtype":"float32"},{"name":"dense_Dense5118/kernel","shape":[16,4],"dtype":"float32"},{"name":"dense_Dense5118/bias","shape":[4],"dtype":"float32"},{"name":"dense_Dense5119/kernel","shape":[4,8],"dtype":"float32"},{"name":"dense_Dense5119/bias","shape":[8],"dtype":"float32"},{"name":"dense_Dense5120/kernel","shape":[8,1],"dtype":"float32"},{"name":"dense_Dense5120/bias","shape":[1],"dtype":"float32"}]}]}