{"modelTopology":{"class_name":"Model","config":{"name":"model793","layers":[{"name":"input793","class_name":"InputLayer","config":{"batch_input_shape":[null,3],"dtype":"float32","sparse":false,"name":"input793"},"inbound_nodes":[]},{"name":"dense_Dense4753","class_name":"Dense","config":{"units":1,"activation":"relu","use_bias":true,"kernel_initializer":{"class_name":"VarianceScaling","config":{"scale":1,"mode":"fan_avg","distribution":"normal","seed":null}},"bias_initializer":{"class_name":"Zeros","config":{}},"kernel_regularizer":null,"bias_regularizer":null,"activity_regularizer":null,"kernel_constraint":null,"bias_constraint":null,"name":"dense_Dense4753","trainable":true},"inbound_nodes":[[["input793",0,0,{}]]]},{"name":"dense_Dense4754","class_name":"Dense","config":{"units":8,"activation":"relu","use_bias":true,"kernel_initializer":{"class_name":"VarianceScaling","config":{"scale":1,"mode":"fan_avg","distribution":"normal","seed":null}},"bias_initializer":{"class_name":"Zeros","config":{}},"kernel_regularizer":null,"bias_regularizer":null,"activity_regularizer":null,"kernel_constraint":null,"bias_constraint":null,"name":"dense_Dense4754","trainable":true},"inbound_nodes":[[["dense_Dense4753",0,0,{}]]]},{"name":"dense_Dense4755","class_name":"Dense","config":{"units":16,"activation":"relu","use_bias":true,"kernel_initializer":{"class_name":"VarianceScaling","config":{"scale":1,"mode":"fan_avg","distribution":"normal","seed":null}},"bias_initializer":{"class_name":"Zeros","config":{}},"kernel_regularizer":null,"bias_regularizer":null,"activity_regularizer":null,"kernel_constraint":null,"bias_constraint":null,"name":"dense_Dense4755","trainable":true},"inbound_nodes":[[["dense_Dense4754",0,0,{}]]]},{"name":"dense_Dense4756","class_name":"Dense","config":{"units":1,"activation":"relu","use_bias":true,"kernel_initializer":{"class_name":"VarianceScaling","config":{"scale":1,"mode":"fan_avg","distribution":"normal","seed":null}},"bias_initializer":{"class_name":"Zeros","config":{}},"kernel_regularizer":null,"bias_regularizer":null,"activity_regularizer":null,"kernel_constraint":null,"bias_constraint":null,"name":"dense_Dense4756","trainable":true},"inbound_nodes":[[["dense_Dense4755",0,0,{}]]]},{"name":"dense_Dense4757","class_name":"Dense","config":{"units":1,"activation":"relu","use_bias":true,"kernel_initializer":{"class_name":"VarianceScaling","config":{"scale":1,"mode":"fan_avg","distribution":"normal","seed":null}},"bias_initializer":{"class_name":"Zeros","config":{}},"kernel_regularizer":null,"bias_regularizer":null,"activity_regularizer":null,"kernel_constraint":null,"bias_constraint":null,"name":"dense_Dense4757","trainable":true},"inbound_nodes":[[["dense_Dense4756",0,0,{}]]]},{"name":"dense_Dense4758","class_name":"Dense","config":{"units":1,"activation":"sigmoid","use_bias":true,"kernel_initializer":{"class_name":"VarianceScaling","config":{"scale":1,"mode":"fan_avg","distribution":"normal","seed":null}},"bias_initializer":{"class_name":"Zeros","config":{}},"kernel_regularizer":null,"bias_regularizer":null,"activity_regularizer":null,"kernel_constraint":null,"bias_constraint":null,"name":"dense_Dense4758","trainable":true},"inbound_nodes":[[["dense_Dense4757",0,0,{}]]]}],"input_layers":[["input793",0,0]],"output_layers":[["dense_Dense4758",0,0]]},"keras_version":"tfjs-layers 3.9.0","backend":"tensor_flow.js"},"weightsManifest":[{"paths":["weights.bin"],"weights":[{"name":"dense_Dense4753/kernel","shape":[3,1],"dtype":"float32"},{"name":"dense_Dense4753/bias","shape":[1],"dtype":"float32"},{"name":"dense_Dense4754/kernel","shape":[1,8],"dtype":"float32"},{"name":"dense_Dense4754/bias","shape":[8],"dtype":"float32"},{"name":"dense_Dense4755/kernel","shape":[8,16],"dtype":"float32"},{"name":"dense_Dense4755/bias","shape":[16],"dtype":"float32"},{"name":"dense_Dense4756/kernel","shape":[16,1],"dtype":"float32"},{"name":"dense_Dense4756/bias","shape":[1],"dtype":"float32"},{"name":"dense_Dense4757/kernel","shape":[1,1],"dtype":"float32"},{"name":"dense_Dense4757/bias","shape":[1],"dtype":"float32"},{"name":"dense_Dense4758/kernel","shape":[1,1],"dtype":"float32"},{"name":"dense_Dense4758/bias","shape":[1],"dtype":"float32"}]}]}