{"modelTopology":{"class_name":"Model","config":{"name":"model65","layers":[{"name":"input65","class_name":"InputLayer","config":{"batch_input_shape":[null,3],"dtype":"float32","sparse":false,"name":"input65"},"inbound_nodes":[]},{"name":"dense_Dense385","class_name":"Dense","config":{"units":4,"activation":"relu","use_bias":true,"kernel_initializer":{"class_name":"VarianceScaling","config":{"scale":1,"mode":"fan_avg","distribution":"normal","seed":null}},"bias_initializer":{"class_name":"Zeros","config":{}},"kernel_regularizer":null,"bias_regularizer":null,"activity_regularizer":null,"kernel_constraint":null,"bias_constraint":null,"name":"dense_Dense385","trainable":true},"inbound_nodes":[[["input65",0,0,{}]]]},{"name":"dense_Dense386","class_name":"Dense","config":{"units":1,"activation":"relu","use_bias":true,"kernel_initializer":{"class_name":"VarianceScaling","config":{"scale":1,"mode":"fan_avg","distribution":"normal","seed":null}},"bias_initializer":{"class_name":"Zeros","config":{}},"kernel_regularizer":null,"bias_regularizer":null,"activity_regularizer":null,"kernel_constraint":null,"bias_constraint":null,"name":"dense_Dense386","trainable":true},"inbound_nodes":[[["dense_Dense385",0,0,{}]]]},{"name":"dense_Dense387","class_name":"Dense","config":{"units":2,"activation":"relu","use_bias":true,"kernel_initializer":{"class_name":"VarianceScaling","config":{"scale":1,"mode":"fan_avg","distribution":"normal","seed":null}},"bias_initializer":{"class_name":"Zeros","config":{}},"kernel_regularizer":null,"bias_regularizer":null,"activity_regularizer":null,"kernel_constraint":null,"bias_constraint":null,"name":"dense_Dense387","trainable":true},"inbound_nodes":[[["dense_Dense386",0,0,{}]]]},{"name":"dense_Dense388","class_name":"Dense","config":{"units":16,"activation":"relu","use_bias":true,"kernel_initializer":{"class_name":"VarianceScaling","config":{"scale":1,"mode":"fan_avg","distribution":"normal","seed":null}},"bias_initializer":{"class_name":"Zeros","config":{}},"kernel_regularizer":null,"bias_regularizer":null,"activity_regularizer":null,"kernel_constraint":null,"bias_constraint":null,"name":"dense_Dense388","trainable":true},"inbound_nodes":[[["dense_Dense387",0,0,{}]]]},{"name":"dense_Dense389","class_name":"Dense","config":{"units":16,"activation":"relu","use_bias":true,"kernel_initializer":{"class_name":"VarianceScaling","config":{"scale":1,"mode":"fan_avg","distribution":"normal","seed":null}},"bias_initializer":{"class_name":"Zeros","config":{}},"kernel_regularizer":null,"bias_regularizer":null,"activity_regularizer":null,"kernel_constraint":null,"bias_constraint":null,"name":"dense_Dense389","trainable":true},"inbound_nodes":[[["dense_Dense388",0,0,{}]]]},{"name":"dense_Dense390","class_name":"Dense","config":{"units":1,"activation":"sigmoid","use_bias":true,"kernel_initializer":{"class_name":"VarianceScaling","config":{"scale":1,"mode":"fan_avg","distribution":"normal","seed":null}},"bias_initializer":{"class_name":"Zeros","config":{}},"kernel_regularizer":null,"bias_regularizer":null,"activity_regularizer":null,"kernel_constraint":null,"bias_constraint":null,"name":"dense_Dense390","trainable":true},"inbound_nodes":[[["dense_Dense389",0,0,{}]]]}],"input_layers":[["input65",0,0]],"output_layers":[["dense_Dense390",0,0]]},"keras_version":"tfjs-layers 3.9.0","backend":"tensor_flow.js"},"weightsManifest":[{"paths":["weights.bin"],"weights":[{"name":"dense_Dense385/kernel","shape":[3,4],"dtype":"float32"},{"name":"dense_Dense385/bias","shape":[4],"dtype":"float32"},{"name":"dense_Dense386/kernel","shape":[4,1],"dtype":"float32"},{"name":"dense_Dense386/bias","shape":[1],"dtype":"float32"},{"name":"dense_Dense387/kernel","shape":[1,2],"dtype":"float32"},{"name":"dense_Dense387/bias","shape":[2],"dtype":"float32"},{"name":"dense_Dense388/kernel","shape":[2,16],"dtype":"float32"},{"name":"dense_Dense388/bias","shape":[16],"dtype":"float32"},{"name":"dense_Dense389/kernel","shape":[16,16],"dtype":"float32"},{"name":"dense_Dense389/bias","shape":[16],"dtype":"float32"},{"name":"dense_Dense390/kernel","shape":[16,1],"dtype":"float32"},{"name":"dense_Dense390/bias","shape":[1],"dtype":"float32"}]}]}