{"modelTopology":{"class_name":"Model","config":{"name":"model1030","layers":[{"name":"input1030","class_name":"InputLayer","config":{"batch_input_shape":[null,3],"dtype":"float32","sparse":false,"name":"input1030"},"inbound_nodes":[]},{"name":"dense_Dense5146","class_name":"Dense","config":{"units":16,"activation":"relu","use_bias":true,"kernel_initializer":{"class_name":"VarianceScaling","config":{"scale":1,"mode":"fan_avg","distribution":"normal","seed":null}},"bias_initializer":{"class_name":"Zeros","config":{}},"kernel_regularizer":null,"bias_regularizer":null,"activity_regularizer":null,"kernel_constraint":null,"bias_constraint":null,"name":"dense_Dense5146","trainable":true},"inbound_nodes":[[["input1030",0,0,{}]]]},{"name":"dense_Dense5147","class_name":"Dense","config":{"units":16,"activation":"relu","use_bias":true,"kernel_initializer":{"class_name":"VarianceScaling","config":{"scale":1,"mode":"fan_avg","distribution":"normal","seed":null}},"bias_initializer":{"class_name":"Zeros","config":{}},"kernel_regularizer":null,"bias_regularizer":null,"activity_regularizer":null,"kernel_constraint":null,"bias_constraint":null,"name":"dense_Dense5147","trainable":true},"inbound_nodes":[[["dense_Dense5146",0,0,{}]]]},{"name":"dense_Dense5148","class_name":"Dense","config":{"units":8,"activation":"relu","use_bias":true,"kernel_initializer":{"class_name":"VarianceScaling","config":{"scale":1,"mode":"fan_avg","distribution":"normal","seed":null}},"bias_initializer":{"class_name":"Zeros","config":{}},"kernel_regularizer":null,"bias_regularizer":null,"activity_regularizer":null,"kernel_constraint":null,"bias_constraint":null,"name":"dense_Dense5148","trainable":true},"inbound_nodes":[[["dense_Dense5147",0,0,{}]]]},{"name":"dense_Dense5149","class_name":"Dense","config":{"units":8,"activation":"relu","use_bias":true,"kernel_initializer":{"class_name":"VarianceScaling","config":{"scale":1,"mode":"fan_avg","distribution":"normal","seed":null}},"bias_initializer":{"class_name":"Zeros","config":{}},"kernel_regularizer":null,"bias_regularizer":null,"activity_regularizer":null,"kernel_constraint":null,"bias_constraint":null,"name":"dense_Dense5149","trainable":true},"inbound_nodes":[[["dense_Dense5148",0,0,{}]]]},{"name":"dense_Dense5150","class_name":"Dense","config":{"units":1,"activation":"sigmoid","use_bias":true,"kernel_initializer":{"class_name":"VarianceScaling","config":{"scale":1,"mode":"fan_avg","distribution":"normal","seed":null}},"bias_initializer":{"class_name":"Zeros","config":{}},"kernel_regularizer":null,"bias_regularizer":null,"activity_regularizer":null,"kernel_constraint":null,"bias_constraint":null,"name":"dense_Dense5150","trainable":true},"inbound_nodes":[[["dense_Dense5149",0,0,{}]]]}],"input_layers":[["input1030",0,0]],"output_layers":[["dense_Dense5150",0,0]]},"keras_version":"tfjs-layers 3.9.0","backend":"tensor_flow.js"},"weightsManifest":[{"paths":["weights.bin"],"weights":[{"name":"dense_Dense5146/kernel","shape":[3,16],"dtype":"float32"},{"name":"dense_Dense5146/bias","shape":[16],"dtype":"float32"},{"name":"dense_Dense5147/kernel","shape":[16,16],"dtype":"float32"},{"name":"dense_Dense5147/bias","shape":[16],"dtype":"float32"},{"name":"dense_Dense5148/kernel","shape":[16,8],"dtype":"float32"},{"name":"dense_Dense5148/bias","shape":[8],"dtype":"float32"},{"name":"dense_Dense5149/kernel","shape":[8,8],"dtype":"float32"},{"name":"dense_Dense5149/bias","shape":[8],"dtype":"float32"},{"name":"dense_Dense5150/kernel","shape":[8,1],"dtype":"float32"},{"name":"dense_Dense5150/bias","shape":[1],"dtype":"float32"}]}]}