{"modelTopology":{"class_name":"Model","config":{"name":"model842","layers":[{"name":"input842","class_name":"InputLayer","config":{"batch_input_shape":[null,3],"dtype":"float32","sparse":false,"name":"input842"},"inbound_nodes":[]},{"name":"dense_Dense4206","class_name":"Dense","config":{"units":8,"activation":"relu","use_bias":true,"kernel_initializer":{"class_name":"VarianceScaling","config":{"scale":1,"mode":"fan_avg","distribution":"normal","seed":null}},"bias_initializer":{"class_name":"Zeros","config":{}},"kernel_regularizer":null,"bias_regularizer":null,"activity_regularizer":null,"kernel_constraint":null,"bias_constraint":null,"name":"dense_Dense4206","trainable":true},"inbound_nodes":[[["input842",0,0,{}]]]},{"name":"dense_Dense4207","class_name":"Dense","config":{"units":32,"activation":"relu","use_bias":true,"kernel_initializer":{"class_name":"VarianceScaling","config":{"scale":1,"mode":"fan_avg","distribution":"normal","seed":null}},"bias_initializer":{"class_name":"Zeros","config":{}},"kernel_regularizer":null,"bias_regularizer":null,"activity_regularizer":null,"kernel_constraint":null,"bias_constraint":null,"name":"dense_Dense4207","trainable":true},"inbound_nodes":[[["dense_Dense4206",0,0,{}]]]},{"name":"dense_Dense4208","class_name":"Dense","config":{"units":4,"activation":"relu","use_bias":true,"kernel_initializer":{"class_name":"VarianceScaling","config":{"scale":1,"mode":"fan_avg","distribution":"normal","seed":null}},"bias_initializer":{"class_name":"Zeros","config":{}},"kernel_regularizer":null,"bias_regularizer":null,"activity_regularizer":null,"kernel_constraint":null,"bias_constraint":null,"name":"dense_Dense4208","trainable":true},"inbound_nodes":[[["dense_Dense4207",0,0,{}]]]},{"name":"dense_Dense4209","class_name":"Dense","config":{"units":2,"activation":"relu","use_bias":true,"kernel_initializer":{"class_name":"VarianceScaling","config":{"scale":1,"mode":"fan_avg","distribution":"normal","seed":null}},"bias_initializer":{"class_name":"Zeros","config":{}},"kernel_regularizer":null,"bias_regularizer":null,"activity_regularizer":null,"kernel_constraint":null,"bias_constraint":null,"name":"dense_Dense4209","trainable":true},"inbound_nodes":[[["dense_Dense4208",0,0,{}]]]},{"name":"dense_Dense4210","class_name":"Dense","config":{"units":1,"activation":"sigmoid","use_bias":true,"kernel_initializer":{"class_name":"VarianceScaling","config":{"scale":1,"mode":"fan_avg","distribution":"normal","seed":null}},"bias_initializer":{"class_name":"Zeros","config":{}},"kernel_regularizer":null,"bias_regularizer":null,"activity_regularizer":null,"kernel_constraint":null,"bias_constraint":null,"name":"dense_Dense4210","trainable":true},"inbound_nodes":[[["dense_Dense4209",0,0,{}]]]}],"input_layers":[["input842",0,0]],"output_layers":[["dense_Dense4210",0,0]]},"keras_version":"tfjs-layers 3.9.0","backend":"tensor_flow.js"},"weightsManifest":[{"paths":["weights.bin"],"weights":[{"name":"dense_Dense4206/kernel","shape":[3,8],"dtype":"float32"},{"name":"dense_Dense4206/bias","shape":[8],"dtype":"float32"},{"name":"dense_Dense4207/kernel","shape":[8,32],"dtype":"float32"},{"name":"dense_Dense4207/bias","shape":[32],"dtype":"float32"},{"name":"dense_Dense4208/kernel","shape":[32,4],"dtype":"float32"},{"name":"dense_Dense4208/bias","shape":[4],"dtype":"float32"},{"name":"dense_Dense4209/kernel","shape":[4,2],"dtype":"float32"},{"name":"dense_Dense4209/bias","shape":[2],"dtype":"float32"},{"name":"dense_Dense4210/kernel","shape":[2,1],"dtype":"float32"},{"name":"dense_Dense4210/bias","shape":[1],"dtype":"float32"}]}]}