{"modelTopology":{"class_name":"Model","config":{"name":"model147","layers":[{"name":"input147","class_name":"InputLayer","config":{"batch_input_shape":[null,3],"dtype":"float32","sparse":false,"name":"input147"},"inbound_nodes":[]},{"name":"dense_Dense731","class_name":"Dense","config":{"units":1,"activation":"relu","use_bias":true,"kernel_initializer":{"class_name":"VarianceScaling","config":{"scale":1,"mode":"fan_avg","distribution":"normal","seed":null}},"bias_initializer":{"class_name":"Zeros","config":{}},"kernel_regularizer":null,"bias_regularizer":null,"activity_regularizer":null,"kernel_constraint":null,"bias_constraint":null,"name":"dense_Dense731","trainable":true},"inbound_nodes":[[["input147",0,0,{}]]]},{"name":"dense_Dense732","class_name":"Dense","config":{"units":16,"activation":"relu","use_bias":true,"kernel_initializer":{"class_name":"VarianceScaling","config":{"scale":1,"mode":"fan_avg","distribution":"normal","seed":null}},"bias_initializer":{"class_name":"Zeros","config":{}},"kernel_regularizer":null,"bias_regularizer":null,"activity_regularizer":null,"kernel_constraint":null,"bias_constraint":null,"name":"dense_Dense732","trainable":true},"inbound_nodes":[[["dense_Dense731",0,0,{}]]]},{"name":"dense_Dense733","class_name":"Dense","config":{"units":1,"activation":"relu","use_bias":true,"kernel_initializer":{"class_name":"VarianceScaling","config":{"scale":1,"mode":"fan_avg","distribution":"normal","seed":null}},"bias_initializer":{"class_name":"Zeros","config":{}},"kernel_regularizer":null,"bias_regularizer":null,"activity_regularizer":null,"kernel_constraint":null,"bias_constraint":null,"name":"dense_Dense733","trainable":true},"inbound_nodes":[[["dense_Dense732",0,0,{}]]]},{"name":"dense_Dense734","class_name":"Dense","config":{"units":4,"activation":"relu","use_bias":true,"kernel_initializer":{"class_name":"VarianceScaling","config":{"scale":1,"mode":"fan_avg","distribution":"normal","seed":null}},"bias_initializer":{"class_name":"Zeros","config":{}},"kernel_regularizer":null,"bias_regularizer":null,"activity_regularizer":null,"kernel_constraint":null,"bias_constraint":null,"name":"dense_Dense734","trainable":true},"inbound_nodes":[[["dense_Dense733",0,0,{}]]]},{"name":"dense_Dense735","class_name":"Dense","config":{"units":1,"activation":"sigmoid","use_bias":true,"kernel_initializer":{"class_name":"VarianceScaling","config":{"scale":1,"mode":"fan_avg","distribution":"normal","seed":null}},"bias_initializer":{"class_name":"Zeros","config":{}},"kernel_regularizer":null,"bias_regularizer":null,"activity_regularizer":null,"kernel_constraint":null,"bias_constraint":null,"name":"dense_Dense735","trainable":true},"inbound_nodes":[[["dense_Dense734",0,0,{}]]]}],"input_layers":[["input147",0,0]],"output_layers":[["dense_Dense735",0,0]]},"keras_version":"tfjs-layers 3.9.0","backend":"tensor_flow.js"},"weightsManifest":[{"paths":["weights.bin"],"weights":[{"name":"dense_Dense731/kernel","shape":[3,1],"dtype":"float32"},{"name":"dense_Dense731/bias","shape":[1],"dtype":"float32"},{"name":"dense_Dense732/kernel","shape":[1,16],"dtype":"float32"},{"name":"dense_Dense732/bias","shape":[16],"dtype":"float32"},{"name":"dense_Dense733/kernel","shape":[16,1],"dtype":"float32"},{"name":"dense_Dense733/bias","shape":[1],"dtype":"float32"},{"name":"dense_Dense734/kernel","shape":[1,4],"dtype":"float32"},{"name":"dense_Dense734/bias","shape":[4],"dtype":"float32"},{"name":"dense_Dense735/kernel","shape":[4,1],"dtype":"float32"},{"name":"dense_Dense735/bias","shape":[1],"dtype":"float32"}]}]}