{"modelTopology":{"class_name":"Model","config":{"name":"model648","layers":[{"name":"input648","class_name":"InputLayer","config":{"batch_input_shape":[null,3],"dtype":"float32","sparse":false,"name":"input648"},"inbound_nodes":[]},{"name":"dense_Dense3883","class_name":"Dense","config":{"units":16,"activation":"relu","use_bias":true,"kernel_initializer":{"class_name":"VarianceScaling","config":{"scale":1,"mode":"fan_avg","distribution":"normal","seed":null}},"bias_initializer":{"class_name":"Zeros","config":{}},"kernel_regularizer":null,"bias_regularizer":null,"activity_regularizer":null,"kernel_constraint":null,"bias_constraint":null,"name":"dense_Dense3883","trainable":true},"inbound_nodes":[[["input648",0,0,{}]]]},{"name":"dense_Dense3884","class_name":"Dense","config":{"units":4,"activation":"relu","use_bias":true,"kernel_initializer":{"class_name":"VarianceScaling","config":{"scale":1,"mode":"fan_avg","distribution":"normal","seed":null}},"bias_initializer":{"class_name":"Zeros","config":{}},"kernel_regularizer":null,"bias_regularizer":null,"activity_regularizer":null,"kernel_constraint":null,"bias_constraint":null,"name":"dense_Dense3884","trainable":true},"inbound_nodes":[[["dense_Dense3883",0,0,{}]]]},{"name":"dense_Dense3885","class_name":"Dense","config":{"units":32,"activation":"relu","use_bias":true,"kernel_initializer":{"class_name":"VarianceScaling","config":{"scale":1,"mode":"fan_avg","distribution":"normal","seed":null}},"bias_initializer":{"class_name":"Zeros","config":{}},"kernel_regularizer":null,"bias_regularizer":null,"activity_regularizer":null,"kernel_constraint":null,"bias_constraint":null,"name":"dense_Dense3885","trainable":true},"inbound_nodes":[[["dense_Dense3884",0,0,{}]]]},{"name":"dense_Dense3886","class_name":"Dense","config":{"units":32,"activation":"relu","use_bias":true,"kernel_initializer":{"class_name":"VarianceScaling","config":{"scale":1,"mode":"fan_avg","distribution":"normal","seed":null}},"bias_initializer":{"class_name":"Zeros","config":{}},"kernel_regularizer":null,"bias_regularizer":null,"activity_regularizer":null,"kernel_constraint":null,"bias_constraint":null,"name":"dense_Dense3886","trainable":true},"inbound_nodes":[[["dense_Dense3885",0,0,{}]]]},{"name":"dense_Dense3887","class_name":"Dense","config":{"units":32,"activation":"relu","use_bias":true,"kernel_initializer":{"class_name":"VarianceScaling","config":{"scale":1,"mode":"fan_avg","distribution":"normal","seed":null}},"bias_initializer":{"class_name":"Zeros","config":{}},"kernel_regularizer":null,"bias_regularizer":null,"activity_regularizer":null,"kernel_constraint":null,"bias_constraint":null,"name":"dense_Dense3887","trainable":true},"inbound_nodes":[[["dense_Dense3886",0,0,{}]]]},{"name":"dense_Dense3888","class_name":"Dense","config":{"units":1,"activation":"sigmoid","use_bias":true,"kernel_initializer":{"class_name":"VarianceScaling","config":{"scale":1,"mode":"fan_avg","distribution":"normal","seed":null}},"bias_initializer":{"class_name":"Zeros","config":{}},"kernel_regularizer":null,"bias_regularizer":null,"activity_regularizer":null,"kernel_constraint":null,"bias_constraint":null,"name":"dense_Dense3888","trainable":true},"inbound_nodes":[[["dense_Dense3887",0,0,{}]]]}],"input_layers":[["input648",0,0]],"output_layers":[["dense_Dense3888",0,0]]},"keras_version":"tfjs-layers 3.9.0","backend":"tensor_flow.js"},"weightsManifest":[{"paths":["weights.bin"],"weights":[{"name":"dense_Dense3883/kernel","shape":[3,16],"dtype":"float32"},{"name":"dense_Dense3883/bias","shape":[16],"dtype":"float32"},{"name":"dense_Dense3884/kernel","shape":[16,4],"dtype":"float32"},{"name":"dense_Dense3884/bias","shape":[4],"dtype":"float32"},{"name":"dense_Dense3885/kernel","shape":[4,32],"dtype":"float32"},{"name":"dense_Dense3885/bias","shape":[32],"dtype":"float32"},{"name":"dense_Dense3886/kernel","shape":[32,32],"dtype":"float32"},{"name":"dense_Dense3886/bias","shape":[32],"dtype":"float32"},{"name":"dense_Dense3887/kernel","shape":[32,32],"dtype":"float32"},{"name":"dense_Dense3887/bias","shape":[32],"dtype":"float32"},{"name":"dense_Dense3888/kernel","shape":[32,1],"dtype":"float32"},{"name":"dense_Dense3888/bias","shape":[1],"dtype":"float32"}]}]}