{"modelTopology":{"class_name":"Model","config":{"name":"model1027","layers":[{"name":"input1027","class_name":"InputLayer","config":{"batch_input_shape":[null,3],"dtype":"float32","sparse":false,"name":"input1027"},"inbound_nodes":[]},{"name":"dense_Dense5131","class_name":"Dense","config":{"units":16,"activation":"relu","use_bias":true,"kernel_initializer":{"class_name":"VarianceScaling","config":{"scale":1,"mode":"fan_avg","distribution":"normal","seed":null}},"bias_initializer":{"class_name":"Zeros","config":{}},"kernel_regularizer":null,"bias_regularizer":null,"activity_regularizer":null,"kernel_constraint":null,"bias_constraint":null,"name":"dense_Dense5131","trainable":true},"inbound_nodes":[[["input1027",0,0,{}]]]},{"name":"dense_Dense5132","class_name":"Dense","config":{"units":16,"activation":"relu","use_bias":true,"kernel_initializer":{"class_name":"VarianceScaling","config":{"scale":1,"mode":"fan_avg","distribution":"normal","seed":null}},"bias_initializer":{"class_name":"Zeros","config":{}},"kernel_regularizer":null,"bias_regularizer":null,"activity_regularizer":null,"kernel_constraint":null,"bias_constraint":null,"name":"dense_Dense5132","trainable":true},"inbound_nodes":[[["dense_Dense5131",0,0,{}]]]},{"name":"dense_Dense5133","class_name":"Dense","config":{"units":8,"activation":"relu","use_bias":true,"kernel_initializer":{"class_name":"VarianceScaling","config":{"scale":1,"mode":"fan_avg","distribution":"normal","seed":null}},"bias_initializer":{"class_name":"Zeros","config":{}},"kernel_regularizer":null,"bias_regularizer":null,"activity_regularizer":null,"kernel_constraint":null,"bias_constraint":null,"name":"dense_Dense5133","trainable":true},"inbound_nodes":[[["dense_Dense5132",0,0,{}]]]},{"name":"dense_Dense5134","class_name":"Dense","config":{"units":1,"activation":"relu","use_bias":true,"kernel_initializer":{"class_name":"VarianceScaling","config":{"scale":1,"mode":"fan_avg","distribution":"normal","seed":null}},"bias_initializer":{"class_name":"Zeros","config":{}},"kernel_regularizer":null,"bias_regularizer":null,"activity_regularizer":null,"kernel_constraint":null,"bias_constraint":null,"name":"dense_Dense5134","trainable":true},"inbound_nodes":[[["dense_Dense5133",0,0,{}]]]},{"name":"dense_Dense5135","class_name":"Dense","config":{"units":1,"activation":"sigmoid","use_bias":true,"kernel_initializer":{"class_name":"VarianceScaling","config":{"scale":1,"mode":"fan_avg","distribution":"normal","seed":null}},"bias_initializer":{"class_name":"Zeros","config":{}},"kernel_regularizer":null,"bias_regularizer":null,"activity_regularizer":null,"kernel_constraint":null,"bias_constraint":null,"name":"dense_Dense5135","trainable":true},"inbound_nodes":[[["dense_Dense5134",0,0,{}]]]}],"input_layers":[["input1027",0,0]],"output_layers":[["dense_Dense5135",0,0]]},"keras_version":"tfjs-layers 3.9.0","backend":"tensor_flow.js"},"weightsManifest":[{"paths":["weights.bin"],"weights":[{"name":"dense_Dense5131/kernel","shape":[3,16],"dtype":"float32"},{"name":"dense_Dense5131/bias","shape":[16],"dtype":"float32"},{"name":"dense_Dense5132/kernel","shape":[16,16],"dtype":"float32"},{"name":"dense_Dense5132/bias","shape":[16],"dtype":"float32"},{"name":"dense_Dense5133/kernel","shape":[16,8],"dtype":"float32"},{"name":"dense_Dense5133/bias","shape":[8],"dtype":"float32"},{"name":"dense_Dense5134/kernel","shape":[8,1],"dtype":"float32"},{"name":"dense_Dense5134/bias","shape":[1],"dtype":"float32"},{"name":"dense_Dense5135/kernel","shape":[1,1],"dtype":"float32"},{"name":"dense_Dense5135/bias","shape":[1],"dtype":"float32"}]}]}