{"modelTopology":{"class_name":"Model","config":{"name":"model614","layers":[{"name":"input614","class_name":"InputLayer","config":{"batch_input_shape":[null,3],"dtype":"float32","sparse":false,"name":"input614"},"inbound_nodes":[]},{"name":"dense_Dense3679","class_name":"Dense","config":{"units":32,"activation":"relu","use_bias":true,"kernel_initializer":{"class_name":"VarianceScaling","config":{"scale":1,"mode":"fan_avg","distribution":"normal","seed":null}},"bias_initializer":{"class_name":"Zeros","config":{}},"kernel_regularizer":null,"bias_regularizer":null,"activity_regularizer":null,"kernel_constraint":null,"bias_constraint":null,"name":"dense_Dense3679","trainable":true},"inbound_nodes":[[["input614",0,0,{}]]]},{"name":"dense_Dense3680","class_name":"Dense","config":{"units":4,"activation":"relu","use_bias":true,"kernel_initializer":{"class_name":"VarianceScaling","config":{"scale":1,"mode":"fan_avg","distribution":"normal","seed":null}},"bias_initializer":{"class_name":"Zeros","config":{}},"kernel_regularizer":null,"bias_regularizer":null,"activity_regularizer":null,"kernel_constraint":null,"bias_constraint":null,"name":"dense_Dense3680","trainable":true},"inbound_nodes":[[["dense_Dense3679",0,0,{}]]]},{"name":"dense_Dense3681","class_name":"Dense","config":{"units":32,"activation":"relu","use_bias":true,"kernel_initializer":{"class_name":"VarianceScaling","config":{"scale":1,"mode":"fan_avg","distribution":"normal","seed":null}},"bias_initializer":{"class_name":"Zeros","config":{}},"kernel_regularizer":null,"bias_regularizer":null,"activity_regularizer":null,"kernel_constraint":null,"bias_constraint":null,"name":"dense_Dense3681","trainable":true},"inbound_nodes":[[["dense_Dense3680",0,0,{}]]]},{"name":"dense_Dense3682","class_name":"Dense","config":{"units":1,"activation":"relu","use_bias":true,"kernel_initializer":{"class_name":"VarianceScaling","config":{"scale":1,"mode":"fan_avg","distribution":"normal","seed":null}},"bias_initializer":{"class_name":"Zeros","config":{}},"kernel_regularizer":null,"bias_regularizer":null,"activity_regularizer":null,"kernel_constraint":null,"bias_constraint":null,"name":"dense_Dense3682","trainable":true},"inbound_nodes":[[["dense_Dense3681",0,0,{}]]]},{"name":"dense_Dense3683","class_name":"Dense","config":{"units":2,"activation":"relu","use_bias":true,"kernel_initializer":{"class_name":"VarianceScaling","config":{"scale":1,"mode":"fan_avg","distribution":"normal","seed":null}},"bias_initializer":{"class_name":"Zeros","config":{}},"kernel_regularizer":null,"bias_regularizer":null,"activity_regularizer":null,"kernel_constraint":null,"bias_constraint":null,"name":"dense_Dense3683","trainable":true},"inbound_nodes":[[["dense_Dense3682",0,0,{}]]]},{"name":"dense_Dense3684","class_name":"Dense","config":{"units":1,"activation":"sigmoid","use_bias":true,"kernel_initializer":{"class_name":"VarianceScaling","config":{"scale":1,"mode":"fan_avg","distribution":"normal","seed":null}},"bias_initializer":{"class_name":"Zeros","config":{}},"kernel_regularizer":null,"bias_regularizer":null,"activity_regularizer":null,"kernel_constraint":null,"bias_constraint":null,"name":"dense_Dense3684","trainable":true},"inbound_nodes":[[["dense_Dense3683",0,0,{}]]]}],"input_layers":[["input614",0,0]],"output_layers":[["dense_Dense3684",0,0]]},"keras_version":"tfjs-layers 3.9.0","backend":"tensor_flow.js"},"weightsManifest":[{"paths":["weights.bin"],"weights":[{"name":"dense_Dense3679/kernel","shape":[3,32],"dtype":"float32"},{"name":"dense_Dense3679/bias","shape":[32],"dtype":"float32"},{"name":"dense_Dense3680/kernel","shape":[32,4],"dtype":"float32"},{"name":"dense_Dense3680/bias","shape":[4],"dtype":"float32"},{"name":"dense_Dense3681/kernel","shape":[4,32],"dtype":"float32"},{"name":"dense_Dense3681/bias","shape":[32],"dtype":"float32"},{"name":"dense_Dense3682/kernel","shape":[32,1],"dtype":"float32"},{"name":"dense_Dense3682/bias","shape":[1],"dtype":"float32"},{"name":"dense_Dense3683/kernel","shape":[1,2],"dtype":"float32"},{"name":"dense_Dense3683/bias","shape":[2],"dtype":"float32"},{"name":"dense_Dense3684/kernel","shape":[2,1],"dtype":"float32"},{"name":"dense_Dense3684/bias","shape":[1],"dtype":"float32"}]}]}