{"modelTopology":{"class_name":"Model","config":{"name":"model628","layers":[{"name":"input628","class_name":"InputLayer","config":{"batch_input_shape":[null,3],"dtype":"float32","sparse":false,"name":"input628"},"inbound_nodes":[]},{"name":"dense_Dense3763","class_name":"Dense","config":{"units":1,"activation":"relu","use_bias":true,"kernel_initializer":{"class_name":"VarianceScaling","config":{"scale":1,"mode":"fan_avg","distribution":"normal","seed":null}},"bias_initializer":{"class_name":"Zeros","config":{}},"kernel_regularizer":null,"bias_regularizer":null,"activity_regularizer":null,"kernel_constraint":null,"bias_constraint":null,"name":"dense_Dense3763","trainable":true},"inbound_nodes":[[["input628",0,0,{}]]]},{"name":"dense_Dense3764","class_name":"Dense","config":{"units":4,"activation":"relu","use_bias":true,"kernel_initializer":{"class_name":"VarianceScaling","config":{"scale":1,"mode":"fan_avg","distribution":"normal","seed":null}},"bias_initializer":{"class_name":"Zeros","config":{}},"kernel_regularizer":null,"bias_regularizer":null,"activity_regularizer":null,"kernel_constraint":null,"bias_constraint":null,"name":"dense_Dense3764","trainable":true},"inbound_nodes":[[["dense_Dense3763",0,0,{}]]]},{"name":"dense_Dense3765","class_name":"Dense","config":{"units":32,"activation":"relu","use_bias":true,"kernel_initializer":{"class_name":"VarianceScaling","config":{"scale":1,"mode":"fan_avg","distribution":"normal","seed":null}},"bias_initializer":{"class_name":"Zeros","config":{}},"kernel_regularizer":null,"bias_regularizer":null,"activity_regularizer":null,"kernel_constraint":null,"bias_constraint":null,"name":"dense_Dense3765","trainable":true},"inbound_nodes":[[["dense_Dense3764",0,0,{}]]]},{"name":"dense_Dense3766","class_name":"Dense","config":{"units":4,"activation":"relu","use_bias":true,"kernel_initializer":{"class_name":"VarianceScaling","config":{"scale":1,"mode":"fan_avg","distribution":"normal","seed":null}},"bias_initializer":{"class_name":"Zeros","config":{}},"kernel_regularizer":null,"bias_regularizer":null,"activity_regularizer":null,"kernel_constraint":null,"bias_constraint":null,"name":"dense_Dense3766","trainable":true},"inbound_nodes":[[["dense_Dense3765",0,0,{}]]]},{"name":"dense_Dense3767","class_name":"Dense","config":{"units":8,"activation":"relu","use_bias":true,"kernel_initializer":{"class_name":"VarianceScaling","config":{"scale":1,"mode":"fan_avg","distribution":"normal","seed":null}},"bias_initializer":{"class_name":"Zeros","config":{}},"kernel_regularizer":null,"bias_regularizer":null,"activity_regularizer":null,"kernel_constraint":null,"bias_constraint":null,"name":"dense_Dense3767","trainable":true},"inbound_nodes":[[["dense_Dense3766",0,0,{}]]]},{"name":"dense_Dense3768","class_name":"Dense","config":{"units":1,"activation":"sigmoid","use_bias":true,"kernel_initializer":{"class_name":"VarianceScaling","config":{"scale":1,"mode":"fan_avg","distribution":"normal","seed":null}},"bias_initializer":{"class_name":"Zeros","config":{}},"kernel_regularizer":null,"bias_regularizer":null,"activity_regularizer":null,"kernel_constraint":null,"bias_constraint":null,"name":"dense_Dense3768","trainable":true},"inbound_nodes":[[["dense_Dense3767",0,0,{}]]]}],"input_layers":[["input628",0,0]],"output_layers":[["dense_Dense3768",0,0]]},"keras_version":"tfjs-layers 3.9.0","backend":"tensor_flow.js"},"weightsManifest":[{"paths":["weights.bin"],"weights":[{"name":"dense_Dense3763/kernel","shape":[3,1],"dtype":"float32"},{"name":"dense_Dense3763/bias","shape":[1],"dtype":"float32"},{"name":"dense_Dense3764/kernel","shape":[1,4],"dtype":"float32"},{"name":"dense_Dense3764/bias","shape":[4],"dtype":"float32"},{"name":"dense_Dense3765/kernel","shape":[4,32],"dtype":"float32"},{"name":"dense_Dense3765/bias","shape":[32],"dtype":"float32"},{"name":"dense_Dense3766/kernel","shape":[32,4],"dtype":"float32"},{"name":"dense_Dense3766/bias","shape":[4],"dtype":"float32"},{"name":"dense_Dense3767/kernel","shape":[4,8],"dtype":"float32"},{"name":"dense_Dense3767/bias","shape":[8],"dtype":"float32"},{"name":"dense_Dense3768/kernel","shape":[8,1],"dtype":"float32"},{"name":"dense_Dense3768/bias","shape":[1],"dtype":"float32"}]}]}