{"modelTopology":{"class_name":"Model","config":{"name":"model122","layers":[{"name":"input122","class_name":"InputLayer","config":{"batch_input_shape":[null,3],"dtype":"float32","sparse":false,"name":"input122"},"inbound_nodes":[]},{"name":"dense_Dense485","class_name":"Dense","config":{"units":8,"activation":"relu","use_bias":true,"kernel_initializer":{"class_name":"VarianceScaling","config":{"scale":1,"mode":"fan_avg","distribution":"normal","seed":null}},"bias_initializer":{"class_name":"Zeros","config":{}},"kernel_regularizer":null,"bias_regularizer":null,"activity_regularizer":null,"kernel_constraint":null,"bias_constraint":null,"name":"dense_Dense485","trainable":true},"inbound_nodes":[[["input122",0,0,{}]]]},{"name":"dense_Dense486","class_name":"Dense","config":{"units":4,"activation":"relu","use_bias":true,"kernel_initializer":{"class_name":"VarianceScaling","config":{"scale":1,"mode":"fan_avg","distribution":"normal","seed":null}},"bias_initializer":{"class_name":"Zeros","config":{}},"kernel_regularizer":null,"bias_regularizer":null,"activity_regularizer":null,"kernel_constraint":null,"bias_constraint":null,"name":"dense_Dense486","trainable":true},"inbound_nodes":[[["dense_Dense485",0,0,{}]]]},{"name":"dense_Dense487","class_name":"Dense","config":{"units":2,"activation":"relu","use_bias":true,"kernel_initializer":{"class_name":"VarianceScaling","config":{"scale":1,"mode":"fan_avg","distribution":"normal","seed":null}},"bias_initializer":{"class_name":"Zeros","config":{}},"kernel_regularizer":null,"bias_regularizer":null,"activity_regularizer":null,"kernel_constraint":null,"bias_constraint":null,"name":"dense_Dense487","trainable":true},"inbound_nodes":[[["dense_Dense486",0,0,{}]]]},{"name":"dense_Dense488","class_name":"Dense","config":{"units":1,"activation":"sigmoid","use_bias":true,"kernel_initializer":{"class_name":"VarianceScaling","config":{"scale":1,"mode":"fan_avg","distribution":"normal","seed":null}},"bias_initializer":{"class_name":"Zeros","config":{}},"kernel_regularizer":null,"bias_regularizer":null,"activity_regularizer":null,"kernel_constraint":null,"bias_constraint":null,"name":"dense_Dense488","trainable":true},"inbound_nodes":[[["dense_Dense487",0,0,{}]]]}],"input_layers":[["input122",0,0]],"output_layers":[["dense_Dense488",0,0]]},"keras_version":"tfjs-layers 3.9.0","backend":"tensor_flow.js"},"weightsManifest":[{"paths":["weights.bin"],"weights":[{"name":"dense_Dense485/kernel","shape":[3,8],"dtype":"float32"},{"name":"dense_Dense485/bias","shape":[8],"dtype":"float32"},{"name":"dense_Dense486/kernel","shape":[8,4],"dtype":"float32"},{"name":"dense_Dense486/bias","shape":[4],"dtype":"float32"},{"name":"dense_Dense487/kernel","shape":[4,2],"dtype":"float32"},{"name":"dense_Dense487/bias","shape":[2],"dtype":"float32"},{"name":"dense_Dense488/kernel","shape":[2,1],"dtype":"float32"},{"name":"dense_Dense488/bias","shape":[1],"dtype":"float32"}]}]}