{"modelTopology":{"class_name":"Model","config":{"name":"model798","layers":[{"name":"input798","class_name":"InputLayer","config":{"batch_input_shape":[null,3],"dtype":"float32","sparse":false,"name":"input798"},"inbound_nodes":[]},{"name":"dense_Dense4783","class_name":"Dense","config":{"units":2,"activation":"relu","use_bias":true,"kernel_initializer":{"class_name":"VarianceScaling","config":{"scale":1,"mode":"fan_avg","distribution":"normal","seed":null}},"bias_initializer":{"class_name":"Zeros","config":{}},"kernel_regularizer":null,"bias_regularizer":null,"activity_regularizer":null,"kernel_constraint":null,"bias_constraint":null,"name":"dense_Dense4783","trainable":true},"inbound_nodes":[[["input798",0,0,{}]]]},{"name":"dense_Dense4784","class_name":"Dense","config":{"units":8,"activation":"relu","use_bias":true,"kernel_initializer":{"class_name":"VarianceScaling","config":{"scale":1,"mode":"fan_avg","distribution":"normal","seed":null}},"bias_initializer":{"class_name":"Zeros","config":{}},"kernel_regularizer":null,"bias_regularizer":null,"activity_regularizer":null,"kernel_constraint":null,"bias_constraint":null,"name":"dense_Dense4784","trainable":true},"inbound_nodes":[[["dense_Dense4783",0,0,{}]]]},{"name":"dense_Dense4785","class_name":"Dense","config":{"units":16,"activation":"relu","use_bias":true,"kernel_initializer":{"class_name":"VarianceScaling","config":{"scale":1,"mode":"fan_avg","distribution":"normal","seed":null}},"bias_initializer":{"class_name":"Zeros","config":{}},"kernel_regularizer":null,"bias_regularizer":null,"activity_regularizer":null,"kernel_constraint":null,"bias_constraint":null,"name":"dense_Dense4785","trainable":true},"inbound_nodes":[[["dense_Dense4784",0,0,{}]]]},{"name":"dense_Dense4786","class_name":"Dense","config":{"units":1,"activation":"relu","use_bias":true,"kernel_initializer":{"class_name":"VarianceScaling","config":{"scale":1,"mode":"fan_avg","distribution":"normal","seed":null}},"bias_initializer":{"class_name":"Zeros","config":{}},"kernel_regularizer":null,"bias_regularizer":null,"activity_regularizer":null,"kernel_constraint":null,"bias_constraint":null,"name":"dense_Dense4786","trainable":true},"inbound_nodes":[[["dense_Dense4785",0,0,{}]]]},{"name":"dense_Dense4787","class_name":"Dense","config":{"units":32,"activation":"relu","use_bias":true,"kernel_initializer":{"class_name":"VarianceScaling","config":{"scale":1,"mode":"fan_avg","distribution":"normal","seed":null}},"bias_initializer":{"class_name":"Zeros","config":{}},"kernel_regularizer":null,"bias_regularizer":null,"activity_regularizer":null,"kernel_constraint":null,"bias_constraint":null,"name":"dense_Dense4787","trainable":true},"inbound_nodes":[[["dense_Dense4786",0,0,{}]]]},{"name":"dense_Dense4788","class_name":"Dense","config":{"units":1,"activation":"sigmoid","use_bias":true,"kernel_initializer":{"class_name":"VarianceScaling","config":{"scale":1,"mode":"fan_avg","distribution":"normal","seed":null}},"bias_initializer":{"class_name":"Zeros","config":{}},"kernel_regularizer":null,"bias_regularizer":null,"activity_regularizer":null,"kernel_constraint":null,"bias_constraint":null,"name":"dense_Dense4788","trainable":true},"inbound_nodes":[[["dense_Dense4787",0,0,{}]]]}],"input_layers":[["input798",0,0]],"output_layers":[["dense_Dense4788",0,0]]},"keras_version":"tfjs-layers 3.9.0","backend":"tensor_flow.js"},"weightsManifest":[{"paths":["weights.bin"],"weights":[{"name":"dense_Dense4783/kernel","shape":[3,2],"dtype":"float32"},{"name":"dense_Dense4783/bias","shape":[2],"dtype":"float32"},{"name":"dense_Dense4784/kernel","shape":[2,8],"dtype":"float32"},{"name":"dense_Dense4784/bias","shape":[8],"dtype":"float32"},{"name":"dense_Dense4785/kernel","shape":[8,16],"dtype":"float32"},{"name":"dense_Dense4785/bias","shape":[16],"dtype":"float32"},{"name":"dense_Dense4786/kernel","shape":[16,1],"dtype":"float32"},{"name":"dense_Dense4786/bias","shape":[1],"dtype":"float32"},{"name":"dense_Dense4787/kernel","shape":[1,32],"dtype":"float32"},{"name":"dense_Dense4787/bias","shape":[32],"dtype":"float32"},{"name":"dense_Dense4788/kernel","shape":[32,1],"dtype":"float32"},{"name":"dense_Dense4788/bias","shape":[1],"dtype":"float32"}]}]}