{"modelTopology":{"class_name":"Model","config":{"name":"model371","layers":[{"name":"input371","class_name":"InputLayer","config":{"batch_input_shape":[null,3],"dtype":"float32","sparse":false,"name":"input371"},"inbound_nodes":[]},{"name":"dense_Dense2221","class_name":"Dense","config":{"units":4,"activation":"relu","use_bias":true,"kernel_initializer":{"class_name":"VarianceScaling","config":{"scale":1,"mode":"fan_avg","distribution":"normal","seed":null}},"bias_initializer":{"class_name":"Zeros","config":{}},"kernel_regularizer":null,"bias_regularizer":null,"activity_regularizer":null,"kernel_constraint":null,"bias_constraint":null,"name":"dense_Dense2221","trainable":true},"inbound_nodes":[[["input371",0,0,{}]]]},{"name":"dense_Dense2222","class_name":"Dense","config":{"units":2,"activation":"relu","use_bias":true,"kernel_initializer":{"class_name":"VarianceScaling","config":{"scale":1,"mode":"fan_avg","distribution":"normal","seed":null}},"bias_initializer":{"class_name":"Zeros","config":{}},"kernel_regularizer":null,"bias_regularizer":null,"activity_regularizer":null,"kernel_constraint":null,"bias_constraint":null,"name":"dense_Dense2222","trainable":true},"inbound_nodes":[[["dense_Dense2221",0,0,{}]]]},{"name":"dense_Dense2223","class_name":"Dense","config":{"units":16,"activation":"relu","use_bias":true,"kernel_initializer":{"class_name":"VarianceScaling","config":{"scale":1,"mode":"fan_avg","distribution":"normal","seed":null}},"bias_initializer":{"class_name":"Zeros","config":{}},"kernel_regularizer":null,"bias_regularizer":null,"activity_regularizer":null,"kernel_constraint":null,"bias_constraint":null,"name":"dense_Dense2223","trainable":true},"inbound_nodes":[[["dense_Dense2222",0,0,{}]]]},{"name":"dense_Dense2224","class_name":"Dense","config":{"units":2,"activation":"relu","use_bias":true,"kernel_initializer":{"class_name":"VarianceScaling","config":{"scale":1,"mode":"fan_avg","distribution":"normal","seed":null}},"bias_initializer":{"class_name":"Zeros","config":{}},"kernel_regularizer":null,"bias_regularizer":null,"activity_regularizer":null,"kernel_constraint":null,"bias_constraint":null,"name":"dense_Dense2224","trainable":true},"inbound_nodes":[[["dense_Dense2223",0,0,{}]]]},{"name":"dense_Dense2225","class_name":"Dense","config":{"units":16,"activation":"relu","use_bias":true,"kernel_initializer":{"class_name":"VarianceScaling","config":{"scale":1,"mode":"fan_avg","distribution":"normal","seed":null}},"bias_initializer":{"class_name":"Zeros","config":{}},"kernel_regularizer":null,"bias_regularizer":null,"activity_regularizer":null,"kernel_constraint":null,"bias_constraint":null,"name":"dense_Dense2225","trainable":true},"inbound_nodes":[[["dense_Dense2224",0,0,{}]]]},{"name":"dense_Dense2226","class_name":"Dense","config":{"units":1,"activation":"sigmoid","use_bias":true,"kernel_initializer":{"class_name":"VarianceScaling","config":{"scale":1,"mode":"fan_avg","distribution":"normal","seed":null}},"bias_initializer":{"class_name":"Zeros","config":{}},"kernel_regularizer":null,"bias_regularizer":null,"activity_regularizer":null,"kernel_constraint":null,"bias_constraint":null,"name":"dense_Dense2226","trainable":true},"inbound_nodes":[[["dense_Dense2225",0,0,{}]]]}],"input_layers":[["input371",0,0]],"output_layers":[["dense_Dense2226",0,0]]},"keras_version":"tfjs-layers 3.9.0","backend":"tensor_flow.js"},"weightsManifest":[{"paths":["weights.bin"],"weights":[{"name":"dense_Dense2221/kernel","shape":[3,4],"dtype":"float32"},{"name":"dense_Dense2221/bias","shape":[4],"dtype":"float32"},{"name":"dense_Dense2222/kernel","shape":[4,2],"dtype":"float32"},{"name":"dense_Dense2222/bias","shape":[2],"dtype":"float32"},{"name":"dense_Dense2223/kernel","shape":[2,16],"dtype":"float32"},{"name":"dense_Dense2223/bias","shape":[16],"dtype":"float32"},{"name":"dense_Dense2224/kernel","shape":[16,2],"dtype":"float32"},{"name":"dense_Dense2224/bias","shape":[2],"dtype":"float32"},{"name":"dense_Dense2225/kernel","shape":[2,16],"dtype":"float32"},{"name":"dense_Dense2225/bias","shape":[16],"dtype":"float32"},{"name":"dense_Dense2226/kernel","shape":[16,1],"dtype":"float32"},{"name":"dense_Dense2226/bias","shape":[1],"dtype":"float32"}]}]}