{"modelTopology":{"class_name":"Model","config":{"name":"model311","layers":[{"name":"input311","class_name":"InputLayer","config":{"batch_input_shape":[null,3],"dtype":"float32","sparse":false,"name":"input311"},"inbound_nodes":[]},{"name":"dense_Dense1861","class_name":"Dense","config":{"units":2,"activation":"relu","use_bias":true,"kernel_initializer":{"class_name":"VarianceScaling","config":{"scale":1,"mode":"fan_avg","distribution":"normal","seed":null}},"bias_initializer":{"class_name":"Zeros","config":{}},"kernel_regularizer":null,"bias_regularizer":null,"activity_regularizer":null,"kernel_constraint":null,"bias_constraint":null,"name":"dense_Dense1861","trainable":true},"inbound_nodes":[[["input311",0,0,{}]]]},{"name":"dense_Dense1862","class_name":"Dense","config":{"units":2,"activation":"relu","use_bias":true,"kernel_initializer":{"class_name":"VarianceScaling","config":{"scale":1,"mode":"fan_avg","distribution":"normal","seed":null}},"bias_initializer":{"class_name":"Zeros","config":{}},"kernel_regularizer":null,"bias_regularizer":null,"activity_regularizer":null,"kernel_constraint":null,"bias_constraint":null,"name":"dense_Dense1862","trainable":true},"inbound_nodes":[[["dense_Dense1861",0,0,{}]]]},{"name":"dense_Dense1863","class_name":"Dense","config":{"units":4,"activation":"relu","use_bias":true,"kernel_initializer":{"class_name":"VarianceScaling","config":{"scale":1,"mode":"fan_avg","distribution":"normal","seed":null}},"bias_initializer":{"class_name":"Zeros","config":{}},"kernel_regularizer":null,"bias_regularizer":null,"activity_regularizer":null,"kernel_constraint":null,"bias_constraint":null,"name":"dense_Dense1863","trainable":true},"inbound_nodes":[[["dense_Dense1862",0,0,{}]]]},{"name":"dense_Dense1864","class_name":"Dense","config":{"units":8,"activation":"relu","use_bias":true,"kernel_initializer":{"class_name":"VarianceScaling","config":{"scale":1,"mode":"fan_avg","distribution":"normal","seed":null}},"bias_initializer":{"class_name":"Zeros","config":{}},"kernel_regularizer":null,"bias_regularizer":null,"activity_regularizer":null,"kernel_constraint":null,"bias_constraint":null,"name":"dense_Dense1864","trainable":true},"inbound_nodes":[[["dense_Dense1863",0,0,{}]]]},{"name":"dense_Dense1865","class_name":"Dense","config":{"units":16,"activation":"relu","use_bias":true,"kernel_initializer":{"class_name":"VarianceScaling","config":{"scale":1,"mode":"fan_avg","distribution":"normal","seed":null}},"bias_initializer":{"class_name":"Zeros","config":{}},"kernel_regularizer":null,"bias_regularizer":null,"activity_regularizer":null,"kernel_constraint":null,"bias_constraint":null,"name":"dense_Dense1865","trainable":true},"inbound_nodes":[[["dense_Dense1864",0,0,{}]]]},{"name":"dense_Dense1866","class_name":"Dense","config":{"units":1,"activation":"sigmoid","use_bias":true,"kernel_initializer":{"class_name":"VarianceScaling","config":{"scale":1,"mode":"fan_avg","distribution":"normal","seed":null}},"bias_initializer":{"class_name":"Zeros","config":{}},"kernel_regularizer":null,"bias_regularizer":null,"activity_regularizer":null,"kernel_constraint":null,"bias_constraint":null,"name":"dense_Dense1866","trainable":true},"inbound_nodes":[[["dense_Dense1865",0,0,{}]]]}],"input_layers":[["input311",0,0]],"output_layers":[["dense_Dense1866",0,0]]},"keras_version":"tfjs-layers 3.9.0","backend":"tensor_flow.js"},"weightsManifest":[{"paths":["weights.bin"],"weights":[{"name":"dense_Dense1861/kernel","shape":[3,2],"dtype":"float32"},{"name":"dense_Dense1861/bias","shape":[2],"dtype":"float32"},{"name":"dense_Dense1862/kernel","shape":[2,2],"dtype":"float32"},{"name":"dense_Dense1862/bias","shape":[2],"dtype":"float32"},{"name":"dense_Dense1863/kernel","shape":[2,4],"dtype":"float32"},{"name":"dense_Dense1863/bias","shape":[4],"dtype":"float32"},{"name":"dense_Dense1864/kernel","shape":[4,8],"dtype":"float32"},{"name":"dense_Dense1864/bias","shape":[8],"dtype":"float32"},{"name":"dense_Dense1865/kernel","shape":[8,16],"dtype":"float32"},{"name":"dense_Dense1865/bias","shape":[16],"dtype":"float32"},{"name":"dense_Dense1866/kernel","shape":[16,1],"dtype":"float32"},{"name":"dense_Dense1866/bias","shape":[1],"dtype":"float32"}]}]}