{"modelTopology":{"class_name":"Model","config":{"name":"model346","layers":[{"name":"input346","class_name":"InputLayer","config":{"batch_input_shape":[null,3],"dtype":"float32","sparse":false,"name":"input346"},"inbound_nodes":[]},{"name":"dense_Dense2071","class_name":"Dense","config":{"units":2,"activation":"relu","use_bias":true,"kernel_initializer":{"class_name":"VarianceScaling","config":{"scale":1,"mode":"fan_avg","distribution":"normal","seed":null}},"bias_initializer":{"class_name":"Zeros","config":{}},"kernel_regularizer":null,"bias_regularizer":null,"activity_regularizer":null,"kernel_constraint":null,"bias_constraint":null,"name":"dense_Dense2071","trainable":true},"inbound_nodes":[[["input346",0,0,{}]]]},{"name":"dense_Dense2072","class_name":"Dense","config":{"units":2,"activation":"relu","use_bias":true,"kernel_initializer":{"class_name":"VarianceScaling","config":{"scale":1,"mode":"fan_avg","distribution":"normal","seed":null}},"bias_initializer":{"class_name":"Zeros","config":{}},"kernel_regularizer":null,"bias_regularizer":null,"activity_regularizer":null,"kernel_constraint":null,"bias_constraint":null,"name":"dense_Dense2072","trainable":true},"inbound_nodes":[[["dense_Dense2071",0,0,{}]]]},{"name":"dense_Dense2073","class_name":"Dense","config":{"units":8,"activation":"relu","use_bias":true,"kernel_initializer":{"class_name":"VarianceScaling","config":{"scale":1,"mode":"fan_avg","distribution":"normal","seed":null}},"bias_initializer":{"class_name":"Zeros","config":{}},"kernel_regularizer":null,"bias_regularizer":null,"activity_regularizer":null,"kernel_constraint":null,"bias_constraint":null,"name":"dense_Dense2073","trainable":true},"inbound_nodes":[[["dense_Dense2072",0,0,{}]]]},{"name":"dense_Dense2074","class_name":"Dense","config":{"units":8,"activation":"relu","use_bias":true,"kernel_initializer":{"class_name":"VarianceScaling","config":{"scale":1,"mode":"fan_avg","distribution":"normal","seed":null}},"bias_initializer":{"class_name":"Zeros","config":{}},"kernel_regularizer":null,"bias_regularizer":null,"activity_regularizer":null,"kernel_constraint":null,"bias_constraint":null,"name":"dense_Dense2074","trainable":true},"inbound_nodes":[[["dense_Dense2073",0,0,{}]]]},{"name":"dense_Dense2075","class_name":"Dense","config":{"units":8,"activation":"relu","use_bias":true,"kernel_initializer":{"class_name":"VarianceScaling","config":{"scale":1,"mode":"fan_avg","distribution":"normal","seed":null}},"bias_initializer":{"class_name":"Zeros","config":{}},"kernel_regularizer":null,"bias_regularizer":null,"activity_regularizer":null,"kernel_constraint":null,"bias_constraint":null,"name":"dense_Dense2075","trainable":true},"inbound_nodes":[[["dense_Dense2074",0,0,{}]]]},{"name":"dense_Dense2076","class_name":"Dense","config":{"units":1,"activation":"sigmoid","use_bias":true,"kernel_initializer":{"class_name":"VarianceScaling","config":{"scale":1,"mode":"fan_avg","distribution":"normal","seed":null}},"bias_initializer":{"class_name":"Zeros","config":{}},"kernel_regularizer":null,"bias_regularizer":null,"activity_regularizer":null,"kernel_constraint":null,"bias_constraint":null,"name":"dense_Dense2076","trainable":true},"inbound_nodes":[[["dense_Dense2075",0,0,{}]]]}],"input_layers":[["input346",0,0]],"output_layers":[["dense_Dense2076",0,0]]},"keras_version":"tfjs-layers 3.9.0","backend":"tensor_flow.js"},"weightsManifest":[{"paths":["weights.bin"],"weights":[{"name":"dense_Dense2071/kernel","shape":[3,2],"dtype":"float32"},{"name":"dense_Dense2071/bias","shape":[2],"dtype":"float32"},{"name":"dense_Dense2072/kernel","shape":[2,2],"dtype":"float32"},{"name":"dense_Dense2072/bias","shape":[2],"dtype":"float32"},{"name":"dense_Dense2073/kernel","shape":[2,8],"dtype":"float32"},{"name":"dense_Dense2073/bias","shape":[8],"dtype":"float32"},{"name":"dense_Dense2074/kernel","shape":[8,8],"dtype":"float32"},{"name":"dense_Dense2074/bias","shape":[8],"dtype":"float32"},{"name":"dense_Dense2075/kernel","shape":[8,8],"dtype":"float32"},{"name":"dense_Dense2075/bias","shape":[8],"dtype":"float32"},{"name":"dense_Dense2076/kernel","shape":[8,1],"dtype":"float32"},{"name":"dense_Dense2076/bias","shape":[1],"dtype":"float32"}]}]}