{"modelTopology":{"class_name":"Model","config":{"name":"model1162","layers":[{"name":"input1162","class_name":"InputLayer","config":{"batch_input_shape":[null,3],"dtype":"float32","sparse":false,"name":"input1162"},"inbound_nodes":[]},{"name":"dense_Dense6967","class_name":"Dense","config":{"units":4,"activation":"relu","use_bias":true,"kernel_initializer":{"class_name":"VarianceScaling","config":{"scale":1,"mode":"fan_avg","distribution":"normal","seed":null}},"bias_initializer":{"class_name":"Zeros","config":{}},"kernel_regularizer":null,"bias_regularizer":null,"activity_regularizer":null,"kernel_constraint":null,"bias_constraint":null,"name":"dense_Dense6967","trainable":true},"inbound_nodes":[[["input1162",0,0,{}]]]},{"name":"dense_Dense6968","class_name":"Dense","config":{"units":32,"activation":"relu","use_bias":true,"kernel_initializer":{"class_name":"VarianceScaling","config":{"scale":1,"mode":"fan_avg","distribution":"normal","seed":null}},"bias_initializer":{"class_name":"Zeros","config":{}},"kernel_regularizer":null,"bias_regularizer":null,"activity_regularizer":null,"kernel_constraint":null,"bias_constraint":null,"name":"dense_Dense6968","trainable":true},"inbound_nodes":[[["dense_Dense6967",0,0,{}]]]},{"name":"dense_Dense6969","class_name":"Dense","config":{"units":4,"activation":"relu","use_bias":true,"kernel_initializer":{"class_name":"VarianceScaling","config":{"scale":1,"mode":"fan_avg","distribution":"normal","seed":null}},"bias_initializer":{"class_name":"Zeros","config":{}},"kernel_regularizer":null,"bias_regularizer":null,"activity_regularizer":null,"kernel_constraint":null,"bias_constraint":null,"name":"dense_Dense6969","trainable":true},"inbound_nodes":[[["dense_Dense6968",0,0,{}]]]},{"name":"dense_Dense6970","class_name":"Dense","config":{"units":2,"activation":"relu","use_bias":true,"kernel_initializer":{"class_name":"VarianceScaling","config":{"scale":1,"mode":"fan_avg","distribution":"normal","seed":null}},"bias_initializer":{"class_name":"Zeros","config":{}},"kernel_regularizer":null,"bias_regularizer":null,"activity_regularizer":null,"kernel_constraint":null,"bias_constraint":null,"name":"dense_Dense6970","trainable":true},"inbound_nodes":[[["dense_Dense6969",0,0,{}]]]},{"name":"dense_Dense6971","class_name":"Dense","config":{"units":8,"activation":"relu","use_bias":true,"kernel_initializer":{"class_name":"VarianceScaling","config":{"scale":1,"mode":"fan_avg","distribution":"normal","seed":null}},"bias_initializer":{"class_name":"Zeros","config":{}},"kernel_regularizer":null,"bias_regularizer":null,"activity_regularizer":null,"kernel_constraint":null,"bias_constraint":null,"name":"dense_Dense6971","trainable":true},"inbound_nodes":[[["dense_Dense6970",0,0,{}]]]},{"name":"dense_Dense6972","class_name":"Dense","config":{"units":1,"activation":"sigmoid","use_bias":true,"kernel_initializer":{"class_name":"VarianceScaling","config":{"scale":1,"mode":"fan_avg","distribution":"normal","seed":null}},"bias_initializer":{"class_name":"Zeros","config":{}},"kernel_regularizer":null,"bias_regularizer":null,"activity_regularizer":null,"kernel_constraint":null,"bias_constraint":null,"name":"dense_Dense6972","trainable":true},"inbound_nodes":[[["dense_Dense6971",0,0,{}]]]}],"input_layers":[["input1162",0,0]],"output_layers":[["dense_Dense6972",0,0]]},"keras_version":"tfjs-layers 3.9.0","backend":"tensor_flow.js"},"weightsManifest":[{"paths":["weights.bin"],"weights":[{"name":"dense_Dense6967/kernel","shape":[3,4],"dtype":"float32"},{"name":"dense_Dense6967/bias","shape":[4],"dtype":"float32"},{"name":"dense_Dense6968/kernel","shape":[4,32],"dtype":"float32"},{"name":"dense_Dense6968/bias","shape":[32],"dtype":"float32"},{"name":"dense_Dense6969/kernel","shape":[32,4],"dtype":"float32"},{"name":"dense_Dense6969/bias","shape":[4],"dtype":"float32"},{"name":"dense_Dense6970/kernel","shape":[4,2],"dtype":"float32"},{"name":"dense_Dense6970/bias","shape":[2],"dtype":"float32"},{"name":"dense_Dense6971/kernel","shape":[2,8],"dtype":"float32"},{"name":"dense_Dense6971/bias","shape":[8],"dtype":"float32"},{"name":"dense_Dense6972/kernel","shape":[8,1],"dtype":"float32"},{"name":"dense_Dense6972/bias","shape":[1],"dtype":"float32"}]}]}