{"modelTopology":{"class_name":"Model","config":{"name":"model485","layers":[{"name":"input485","class_name":"InputLayer","config":{"batch_input_shape":[null,3],"dtype":"float32","sparse":false,"name":"input485"},"inbound_nodes":[]},{"name":"dense_Dense2905","class_name":"Dense","config":{"units":16,"activation":"relu","use_bias":true,"kernel_initializer":{"class_name":"VarianceScaling","config":{"scale":1,"mode":"fan_avg","distribution":"normal","seed":null}},"bias_initializer":{"class_name":"Zeros","config":{}},"kernel_regularizer":null,"bias_regularizer":null,"activity_regularizer":null,"kernel_constraint":null,"bias_constraint":null,"name":"dense_Dense2905","trainable":true},"inbound_nodes":[[["input485",0,0,{}]]]},{"name":"dense_Dense2906","class_name":"Dense","config":{"units":4,"activation":"relu","use_bias":true,"kernel_initializer":{"class_name":"VarianceScaling","config":{"scale":1,"mode":"fan_avg","distribution":"normal","seed":null}},"bias_initializer":{"class_name":"Zeros","config":{}},"kernel_regularizer":null,"bias_regularizer":null,"activity_regularizer":null,"kernel_constraint":null,"bias_constraint":null,"name":"dense_Dense2906","trainable":true},"inbound_nodes":[[["dense_Dense2905",0,0,{}]]]},{"name":"dense_Dense2907","class_name":"Dense","config":{"units":2,"activation":"relu","use_bias":true,"kernel_initializer":{"class_name":"VarianceScaling","config":{"scale":1,"mode":"fan_avg","distribution":"normal","seed":null}},"bias_initializer":{"class_name":"Zeros","config":{}},"kernel_regularizer":null,"bias_regularizer":null,"activity_regularizer":null,"kernel_constraint":null,"bias_constraint":null,"name":"dense_Dense2907","trainable":true},"inbound_nodes":[[["dense_Dense2906",0,0,{}]]]},{"name":"dense_Dense2908","class_name":"Dense","config":{"units":4,"activation":"relu","use_bias":true,"kernel_initializer":{"class_name":"VarianceScaling","config":{"scale":1,"mode":"fan_avg","distribution":"normal","seed":null}},"bias_initializer":{"class_name":"Zeros","config":{}},"kernel_regularizer":null,"bias_regularizer":null,"activity_regularizer":null,"kernel_constraint":null,"bias_constraint":null,"name":"dense_Dense2908","trainable":true},"inbound_nodes":[[["dense_Dense2907",0,0,{}]]]},{"name":"dense_Dense2909","class_name":"Dense","config":{"units":16,"activation":"relu","use_bias":true,"kernel_initializer":{"class_name":"VarianceScaling","config":{"scale":1,"mode":"fan_avg","distribution":"normal","seed":null}},"bias_initializer":{"class_name":"Zeros","config":{}},"kernel_regularizer":null,"bias_regularizer":null,"activity_regularizer":null,"kernel_constraint":null,"bias_constraint":null,"name":"dense_Dense2909","trainable":true},"inbound_nodes":[[["dense_Dense2908",0,0,{}]]]},{"name":"dense_Dense2910","class_name":"Dense","config":{"units":1,"activation":"sigmoid","use_bias":true,"kernel_initializer":{"class_name":"VarianceScaling","config":{"scale":1,"mode":"fan_avg","distribution":"normal","seed":null}},"bias_initializer":{"class_name":"Zeros","config":{}},"kernel_regularizer":null,"bias_regularizer":null,"activity_regularizer":null,"kernel_constraint":null,"bias_constraint":null,"name":"dense_Dense2910","trainable":true},"inbound_nodes":[[["dense_Dense2909",0,0,{}]]]}],"input_layers":[["input485",0,0]],"output_layers":[["dense_Dense2910",0,0]]},"keras_version":"tfjs-layers 3.9.0","backend":"tensor_flow.js"},"weightsManifest":[{"paths":["weights.bin"],"weights":[{"name":"dense_Dense2905/kernel","shape":[3,16],"dtype":"float32"},{"name":"dense_Dense2905/bias","shape":[16],"dtype":"float32"},{"name":"dense_Dense2906/kernel","shape":[16,4],"dtype":"float32"},{"name":"dense_Dense2906/bias","shape":[4],"dtype":"float32"},{"name":"dense_Dense2907/kernel","shape":[4,2],"dtype":"float32"},{"name":"dense_Dense2907/bias","shape":[2],"dtype":"float32"},{"name":"dense_Dense2908/kernel","shape":[2,4],"dtype":"float32"},{"name":"dense_Dense2908/bias","shape":[4],"dtype":"float32"},{"name":"dense_Dense2909/kernel","shape":[4,16],"dtype":"float32"},{"name":"dense_Dense2909/bias","shape":[16],"dtype":"float32"},{"name":"dense_Dense2910/kernel","shape":[16,1],"dtype":"float32"},{"name":"dense_Dense2910/bias","shape":[1],"dtype":"float32"}]}]}