{"modelTopology":{"class_name":"Model","config":{"name":"model1036","layers":[{"name":"input1036","class_name":"InputLayer","config":{"batch_input_shape":[null,3],"dtype":"float32","sparse":false,"name":"input1036"},"inbound_nodes":[]},{"name":"dense_Dense6211","class_name":"Dense","config":{"units":16,"activation":"relu","use_bias":true,"kernel_initializer":{"class_name":"VarianceScaling","config":{"scale":1,"mode":"fan_avg","distribution":"normal","seed":null}},"bias_initializer":{"class_name":"Zeros","config":{}},"kernel_regularizer":null,"bias_regularizer":null,"activity_regularizer":null,"kernel_constraint":null,"bias_constraint":null,"name":"dense_Dense6211","trainable":true},"inbound_nodes":[[["input1036",0,0,{}]]]},{"name":"dense_Dense6212","class_name":"Dense","config":{"units":16,"activation":"relu","use_bias":true,"kernel_initializer":{"class_name":"VarianceScaling","config":{"scale":1,"mode":"fan_avg","distribution":"normal","seed":null}},"bias_initializer":{"class_name":"Zeros","config":{}},"kernel_regularizer":null,"bias_regularizer":null,"activity_regularizer":null,"kernel_constraint":null,"bias_constraint":null,"name":"dense_Dense6212","trainable":true},"inbound_nodes":[[["dense_Dense6211",0,0,{}]]]},{"name":"dense_Dense6213","class_name":"Dense","config":{"units":16,"activation":"relu","use_bias":true,"kernel_initializer":{"class_name":"VarianceScaling","config":{"scale":1,"mode":"fan_avg","distribution":"normal","seed":null}},"bias_initializer":{"class_name":"Zeros","config":{}},"kernel_regularizer":null,"bias_regularizer":null,"activity_regularizer":null,"kernel_constraint":null,"bias_constraint":null,"name":"dense_Dense6213","trainable":true},"inbound_nodes":[[["dense_Dense6212",0,0,{}]]]},{"name":"dense_Dense6214","class_name":"Dense","config":{"units":16,"activation":"relu","use_bias":true,"kernel_initializer":{"class_name":"VarianceScaling","config":{"scale":1,"mode":"fan_avg","distribution":"normal","seed":null}},"bias_initializer":{"class_name":"Zeros","config":{}},"kernel_regularizer":null,"bias_regularizer":null,"activity_regularizer":null,"kernel_constraint":null,"bias_constraint":null,"name":"dense_Dense6214","trainable":true},"inbound_nodes":[[["dense_Dense6213",0,0,{}]]]},{"name":"dense_Dense6215","class_name":"Dense","config":{"units":8,"activation":"relu","use_bias":true,"kernel_initializer":{"class_name":"VarianceScaling","config":{"scale":1,"mode":"fan_avg","distribution":"normal","seed":null}},"bias_initializer":{"class_name":"Zeros","config":{}},"kernel_regularizer":null,"bias_regularizer":null,"activity_regularizer":null,"kernel_constraint":null,"bias_constraint":null,"name":"dense_Dense6215","trainable":true},"inbound_nodes":[[["dense_Dense6214",0,0,{}]]]},{"name":"dense_Dense6216","class_name":"Dense","config":{"units":1,"activation":"sigmoid","use_bias":true,"kernel_initializer":{"class_name":"VarianceScaling","config":{"scale":1,"mode":"fan_avg","distribution":"normal","seed":null}},"bias_initializer":{"class_name":"Zeros","config":{}},"kernel_regularizer":null,"bias_regularizer":null,"activity_regularizer":null,"kernel_constraint":null,"bias_constraint":null,"name":"dense_Dense6216","trainable":true},"inbound_nodes":[[["dense_Dense6215",0,0,{}]]]}],"input_layers":[["input1036",0,0]],"output_layers":[["dense_Dense6216",0,0]]},"keras_version":"tfjs-layers 3.9.0","backend":"tensor_flow.js"},"weightsManifest":[{"paths":["weights.bin"],"weights":[{"name":"dense_Dense6211/kernel","shape":[3,16],"dtype":"float32"},{"name":"dense_Dense6211/bias","shape":[16],"dtype":"float32"},{"name":"dense_Dense6212/kernel","shape":[16,16],"dtype":"float32"},{"name":"dense_Dense6212/bias","shape":[16],"dtype":"float32"},{"name":"dense_Dense6213/kernel","shape":[16,16],"dtype":"float32"},{"name":"dense_Dense6213/bias","shape":[16],"dtype":"float32"},{"name":"dense_Dense6214/kernel","shape":[16,16],"dtype":"float32"},{"name":"dense_Dense6214/bias","shape":[16],"dtype":"float32"},{"name":"dense_Dense6215/kernel","shape":[16,8],"dtype":"float32"},{"name":"dense_Dense6215/bias","shape":[8],"dtype":"float32"},{"name":"dense_Dense6216/kernel","shape":[8,1],"dtype":"float32"},{"name":"dense_Dense6216/bias","shape":[1],"dtype":"float32"}]}]}