{"modelTopology":{"class_name":"Model","config":{"name":"model567","layers":[{"name":"input567","class_name":"InputLayer","config":{"batch_input_shape":[null,3],"dtype":"float32","sparse":false,"name":"input567"},"inbound_nodes":[]},{"name":"dense_Dense3397","class_name":"Dense","config":{"units":2,"activation":"relu","use_bias":true,"kernel_initializer":{"class_name":"VarianceScaling","config":{"scale":1,"mode":"fan_avg","distribution":"normal","seed":null}},"bias_initializer":{"class_name":"Zeros","config":{}},"kernel_regularizer":null,"bias_regularizer":null,"activity_regularizer":null,"kernel_constraint":null,"bias_constraint":null,"name":"dense_Dense3397","trainable":true},"inbound_nodes":[[["input567",0,0,{}]]]},{"name":"dense_Dense3398","class_name":"Dense","config":{"units":4,"activation":"relu","use_bias":true,"kernel_initializer":{"class_name":"VarianceScaling","config":{"scale":1,"mode":"fan_avg","distribution":"normal","seed":null}},"bias_initializer":{"class_name":"Zeros","config":{}},"kernel_regularizer":null,"bias_regularizer":null,"activity_regularizer":null,"kernel_constraint":null,"bias_constraint":null,"name":"dense_Dense3398","trainable":true},"inbound_nodes":[[["dense_Dense3397",0,0,{}]]]},{"name":"dense_Dense3399","class_name":"Dense","config":{"units":8,"activation":"relu","use_bias":true,"kernel_initializer":{"class_name":"VarianceScaling","config":{"scale":1,"mode":"fan_avg","distribution":"normal","seed":null}},"bias_initializer":{"class_name":"Zeros","config":{}},"kernel_regularizer":null,"bias_regularizer":null,"activity_regularizer":null,"kernel_constraint":null,"bias_constraint":null,"name":"dense_Dense3399","trainable":true},"inbound_nodes":[[["dense_Dense3398",0,0,{}]]]},{"name":"dense_Dense3400","class_name":"Dense","config":{"units":16,"activation":"relu","use_bias":true,"kernel_initializer":{"class_name":"VarianceScaling","config":{"scale":1,"mode":"fan_avg","distribution":"normal","seed":null}},"bias_initializer":{"class_name":"Zeros","config":{}},"kernel_regularizer":null,"bias_regularizer":null,"activity_regularizer":null,"kernel_constraint":null,"bias_constraint":null,"name":"dense_Dense3400","trainable":true},"inbound_nodes":[[["dense_Dense3399",0,0,{}]]]},{"name":"dense_Dense3401","class_name":"Dense","config":{"units":4,"activation":"relu","use_bias":true,"kernel_initializer":{"class_name":"VarianceScaling","config":{"scale":1,"mode":"fan_avg","distribution":"normal","seed":null}},"bias_initializer":{"class_name":"Zeros","config":{}},"kernel_regularizer":null,"bias_regularizer":null,"activity_regularizer":null,"kernel_constraint":null,"bias_constraint":null,"name":"dense_Dense3401","trainable":true},"inbound_nodes":[[["dense_Dense3400",0,0,{}]]]},{"name":"dense_Dense3402","class_name":"Dense","config":{"units":1,"activation":"sigmoid","use_bias":true,"kernel_initializer":{"class_name":"VarianceScaling","config":{"scale":1,"mode":"fan_avg","distribution":"normal","seed":null}},"bias_initializer":{"class_name":"Zeros","config":{}},"kernel_regularizer":null,"bias_regularizer":null,"activity_regularizer":null,"kernel_constraint":null,"bias_constraint":null,"name":"dense_Dense3402","trainable":true},"inbound_nodes":[[["dense_Dense3401",0,0,{}]]]}],"input_layers":[["input567",0,0]],"output_layers":[["dense_Dense3402",0,0]]},"keras_version":"tfjs-layers 3.9.0","backend":"tensor_flow.js"},"weightsManifest":[{"paths":["weights.bin"],"weights":[{"name":"dense_Dense3397/kernel","shape":[3,2],"dtype":"float32"},{"name":"dense_Dense3397/bias","shape":[2],"dtype":"float32"},{"name":"dense_Dense3398/kernel","shape":[2,4],"dtype":"float32"},{"name":"dense_Dense3398/bias","shape":[4],"dtype":"float32"},{"name":"dense_Dense3399/kernel","shape":[4,8],"dtype":"float32"},{"name":"dense_Dense3399/bias","shape":[8],"dtype":"float32"},{"name":"dense_Dense3400/kernel","shape":[8,16],"dtype":"float32"},{"name":"dense_Dense3400/bias","shape":[16],"dtype":"float32"},{"name":"dense_Dense3401/kernel","shape":[16,4],"dtype":"float32"},{"name":"dense_Dense3401/bias","shape":[4],"dtype":"float32"},{"name":"dense_Dense3402/kernel","shape":[4,1],"dtype":"float32"},{"name":"dense_Dense3402/bias","shape":[1],"dtype":"float32"}]}]}