{"modelTopology":{"class_name":"Model","config":{"name":"model79","layers":[{"name":"input79","class_name":"InputLayer","config":{"batch_input_shape":[null,3],"dtype":"float32","sparse":false,"name":"input79"},"inbound_nodes":[]},{"name":"dense_Dense313","class_name":"Dense","config":{"units":4,"activation":"relu","use_bias":true,"kernel_initializer":{"class_name":"VarianceScaling","config":{"scale":1,"mode":"fan_avg","distribution":"normal","seed":null}},"bias_initializer":{"class_name":"Zeros","config":{}},"kernel_regularizer":null,"bias_regularizer":null,"activity_regularizer":null,"kernel_constraint":null,"bias_constraint":null,"name":"dense_Dense313","trainable":true},"inbound_nodes":[[["input79",0,0,{}]]]},{"name":"dense_Dense314","class_name":"Dense","config":{"units":2,"activation":"relu","use_bias":true,"kernel_initializer":{"class_name":"VarianceScaling","config":{"scale":1,"mode":"fan_avg","distribution":"normal","seed":null}},"bias_initializer":{"class_name":"Zeros","config":{}},"kernel_regularizer":null,"bias_regularizer":null,"activity_regularizer":null,"kernel_constraint":null,"bias_constraint":null,"name":"dense_Dense314","trainable":true},"inbound_nodes":[[["dense_Dense313",0,0,{}]]]},{"name":"dense_Dense315","class_name":"Dense","config":{"units":1,"activation":"relu","use_bias":true,"kernel_initializer":{"class_name":"VarianceScaling","config":{"scale":1,"mode":"fan_avg","distribution":"normal","seed":null}},"bias_initializer":{"class_name":"Zeros","config":{}},"kernel_regularizer":null,"bias_regularizer":null,"activity_regularizer":null,"kernel_constraint":null,"bias_constraint":null,"name":"dense_Dense315","trainable":true},"inbound_nodes":[[["dense_Dense314",0,0,{}]]]},{"name":"dense_Dense316","class_name":"Dense","config":{"units":1,"activation":"sigmoid","use_bias":true,"kernel_initializer":{"class_name":"VarianceScaling","config":{"scale":1,"mode":"fan_avg","distribution":"normal","seed":null}},"bias_initializer":{"class_name":"Zeros","config":{}},"kernel_regularizer":null,"bias_regularizer":null,"activity_regularizer":null,"kernel_constraint":null,"bias_constraint":null,"name":"dense_Dense316","trainable":true},"inbound_nodes":[[["dense_Dense315",0,0,{}]]]}],"input_layers":[["input79",0,0]],"output_layers":[["dense_Dense316",0,0]]},"keras_version":"tfjs-layers 3.9.0","backend":"tensor_flow.js"},"weightsManifest":[{"paths":["weights.bin"],"weights":[{"name":"dense_Dense313/kernel","shape":[3,4],"dtype":"float32"},{"name":"dense_Dense313/bias","shape":[4],"dtype":"float32"},{"name":"dense_Dense314/kernel","shape":[4,2],"dtype":"float32"},{"name":"dense_Dense314/bias","shape":[2],"dtype":"float32"},{"name":"dense_Dense315/kernel","shape":[2,1],"dtype":"float32"},{"name":"dense_Dense315/bias","shape":[1],"dtype":"float32"},{"name":"dense_Dense316/kernel","shape":[1,1],"dtype":"float32"},{"name":"dense_Dense316/bias","shape":[1],"dtype":"float32"}]}]}