{"modelTopology":{"class_name":"Model","config":{"name":"model420","layers":[{"name":"input420","class_name":"InputLayer","config":{"batch_input_shape":[null,3],"dtype":"float32","sparse":false,"name":"input420"},"inbound_nodes":[]},{"name":"dense_Dense2515","class_name":"Dense","config":{"units":8,"activation":"relu","use_bias":true,"kernel_initializer":{"class_name":"VarianceScaling","config":{"scale":1,"mode":"fan_avg","distribution":"normal","seed":null}},"bias_initializer":{"class_name":"Zeros","config":{}},"kernel_regularizer":null,"bias_regularizer":null,"activity_regularizer":null,"kernel_constraint":null,"bias_constraint":null,"name":"dense_Dense2515","trainable":true},"inbound_nodes":[[["input420",0,0,{}]]]},{"name":"dense_Dense2516","class_name":"Dense","config":{"units":2,"activation":"relu","use_bias":true,"kernel_initializer":{"class_name":"VarianceScaling","config":{"scale":1,"mode":"fan_avg","distribution":"normal","seed":null}},"bias_initializer":{"class_name":"Zeros","config":{}},"kernel_regularizer":null,"bias_regularizer":null,"activity_regularizer":null,"kernel_constraint":null,"bias_constraint":null,"name":"dense_Dense2516","trainable":true},"inbound_nodes":[[["dense_Dense2515",0,0,{}]]]},{"name":"dense_Dense2517","class_name":"Dense","config":{"units":32,"activation":"relu","use_bias":true,"kernel_initializer":{"class_name":"VarianceScaling","config":{"scale":1,"mode":"fan_avg","distribution":"normal","seed":null}},"bias_initializer":{"class_name":"Zeros","config":{}},"kernel_regularizer":null,"bias_regularizer":null,"activity_regularizer":null,"kernel_constraint":null,"bias_constraint":null,"name":"dense_Dense2517","trainable":true},"inbound_nodes":[[["dense_Dense2516",0,0,{}]]]},{"name":"dense_Dense2518","class_name":"Dense","config":{"units":8,"activation":"relu","use_bias":true,"kernel_initializer":{"class_name":"VarianceScaling","config":{"scale":1,"mode":"fan_avg","distribution":"normal","seed":null}},"bias_initializer":{"class_name":"Zeros","config":{}},"kernel_regularizer":null,"bias_regularizer":null,"activity_regularizer":null,"kernel_constraint":null,"bias_constraint":null,"name":"dense_Dense2518","trainable":true},"inbound_nodes":[[["dense_Dense2517",0,0,{}]]]},{"name":"dense_Dense2519","class_name":"Dense","config":{"units":32,"activation":"relu","use_bias":true,"kernel_initializer":{"class_name":"VarianceScaling","config":{"scale":1,"mode":"fan_avg","distribution":"normal","seed":null}},"bias_initializer":{"class_name":"Zeros","config":{}},"kernel_regularizer":null,"bias_regularizer":null,"activity_regularizer":null,"kernel_constraint":null,"bias_constraint":null,"name":"dense_Dense2519","trainable":true},"inbound_nodes":[[["dense_Dense2518",0,0,{}]]]},{"name":"dense_Dense2520","class_name":"Dense","config":{"units":1,"activation":"sigmoid","use_bias":true,"kernel_initializer":{"class_name":"VarianceScaling","config":{"scale":1,"mode":"fan_avg","distribution":"normal","seed":null}},"bias_initializer":{"class_name":"Zeros","config":{}},"kernel_regularizer":null,"bias_regularizer":null,"activity_regularizer":null,"kernel_constraint":null,"bias_constraint":null,"name":"dense_Dense2520","trainable":true},"inbound_nodes":[[["dense_Dense2519",0,0,{}]]]}],"input_layers":[["input420",0,0]],"output_layers":[["dense_Dense2520",0,0]]},"keras_version":"tfjs-layers 3.9.0","backend":"tensor_flow.js"},"weightsManifest":[{"paths":["weights.bin"],"weights":[{"name":"dense_Dense2515/kernel","shape":[3,8],"dtype":"float32"},{"name":"dense_Dense2515/bias","shape":[8],"dtype":"float32"},{"name":"dense_Dense2516/kernel","shape":[8,2],"dtype":"float32"},{"name":"dense_Dense2516/bias","shape":[2],"dtype":"float32"},{"name":"dense_Dense2517/kernel","shape":[2,32],"dtype":"float32"},{"name":"dense_Dense2517/bias","shape":[32],"dtype":"float32"},{"name":"dense_Dense2518/kernel","shape":[32,8],"dtype":"float32"},{"name":"dense_Dense2518/bias","shape":[8],"dtype":"float32"},{"name":"dense_Dense2519/kernel","shape":[8,32],"dtype":"float32"},{"name":"dense_Dense2519/bias","shape":[32],"dtype":"float32"},{"name":"dense_Dense2520/kernel","shape":[32,1],"dtype":"float32"},{"name":"dense_Dense2520/bias","shape":[1],"dtype":"float32"}]}]}