{"modelTopology":{"class_name":"Model","config":{"name":"model502","layers":[{"name":"input502","class_name":"InputLayer","config":{"batch_input_shape":[null,3],"dtype":"float32","sparse":false,"name":"input502"},"inbound_nodes":[]},{"name":"dense_Dense3007","class_name":"Dense","config":{"units":2,"activation":"relu","use_bias":true,"kernel_initializer":{"class_name":"VarianceScaling","config":{"scale":1,"mode":"fan_avg","distribution":"normal","seed":null}},"bias_initializer":{"class_name":"Zeros","config":{}},"kernel_regularizer":null,"bias_regularizer":null,"activity_regularizer":null,"kernel_constraint":null,"bias_constraint":null,"name":"dense_Dense3007","trainable":true},"inbound_nodes":[[["input502",0,0,{}]]]},{"name":"dense_Dense3008","class_name":"Dense","config":{"units":4,"activation":"relu","use_bias":true,"kernel_initializer":{"class_name":"VarianceScaling","config":{"scale":1,"mode":"fan_avg","distribution":"normal","seed":null}},"bias_initializer":{"class_name":"Zeros","config":{}},"kernel_regularizer":null,"bias_regularizer":null,"activity_regularizer":null,"kernel_constraint":null,"bias_constraint":null,"name":"dense_Dense3008","trainable":true},"inbound_nodes":[[["dense_Dense3007",0,0,{}]]]},{"name":"dense_Dense3009","class_name":"Dense","config":{"units":2,"activation":"relu","use_bias":true,"kernel_initializer":{"class_name":"VarianceScaling","config":{"scale":1,"mode":"fan_avg","distribution":"normal","seed":null}},"bias_initializer":{"class_name":"Zeros","config":{}},"kernel_regularizer":null,"bias_regularizer":null,"activity_regularizer":null,"kernel_constraint":null,"bias_constraint":null,"name":"dense_Dense3009","trainable":true},"inbound_nodes":[[["dense_Dense3008",0,0,{}]]]},{"name":"dense_Dense3010","class_name":"Dense","config":{"units":32,"activation":"relu","use_bias":true,"kernel_initializer":{"class_name":"VarianceScaling","config":{"scale":1,"mode":"fan_avg","distribution":"normal","seed":null}},"bias_initializer":{"class_name":"Zeros","config":{}},"kernel_regularizer":null,"bias_regularizer":null,"activity_regularizer":null,"kernel_constraint":null,"bias_constraint":null,"name":"dense_Dense3010","trainable":true},"inbound_nodes":[[["dense_Dense3009",0,0,{}]]]},{"name":"dense_Dense3011","class_name":"Dense","config":{"units":8,"activation":"relu","use_bias":true,"kernel_initializer":{"class_name":"VarianceScaling","config":{"scale":1,"mode":"fan_avg","distribution":"normal","seed":null}},"bias_initializer":{"class_name":"Zeros","config":{}},"kernel_regularizer":null,"bias_regularizer":null,"activity_regularizer":null,"kernel_constraint":null,"bias_constraint":null,"name":"dense_Dense3011","trainable":true},"inbound_nodes":[[["dense_Dense3010",0,0,{}]]]},{"name":"dense_Dense3012","class_name":"Dense","config":{"units":1,"activation":"sigmoid","use_bias":true,"kernel_initializer":{"class_name":"VarianceScaling","config":{"scale":1,"mode":"fan_avg","distribution":"normal","seed":null}},"bias_initializer":{"class_name":"Zeros","config":{}},"kernel_regularizer":null,"bias_regularizer":null,"activity_regularizer":null,"kernel_constraint":null,"bias_constraint":null,"name":"dense_Dense3012","trainable":true},"inbound_nodes":[[["dense_Dense3011",0,0,{}]]]}],"input_layers":[["input502",0,0]],"output_layers":[["dense_Dense3012",0,0]]},"keras_version":"tfjs-layers 3.9.0","backend":"tensor_flow.js"},"weightsManifest":[{"paths":["weights.bin"],"weights":[{"name":"dense_Dense3007/kernel","shape":[3,2],"dtype":"float32"},{"name":"dense_Dense3007/bias","shape":[2],"dtype":"float32"},{"name":"dense_Dense3008/kernel","shape":[2,4],"dtype":"float32"},{"name":"dense_Dense3008/bias","shape":[4],"dtype":"float32"},{"name":"dense_Dense3009/kernel","shape":[4,2],"dtype":"float32"},{"name":"dense_Dense3009/bias","shape":[2],"dtype":"float32"},{"name":"dense_Dense3010/kernel","shape":[2,32],"dtype":"float32"},{"name":"dense_Dense3010/bias","shape":[32],"dtype":"float32"},{"name":"dense_Dense3011/kernel","shape":[32,8],"dtype":"float32"},{"name":"dense_Dense3011/bias","shape":[8],"dtype":"float32"},{"name":"dense_Dense3012/kernel","shape":[8,1],"dtype":"float32"},{"name":"dense_Dense3012/bias","shape":[1],"dtype":"float32"}]}]}