{"modelTopology":{"class_name":"Model","config":{"name":"model201","layers":[{"name":"input201","class_name":"InputLayer","config":{"batch_input_shape":[null,3],"dtype":"float32","sparse":false,"name":"input201"},"inbound_nodes":[]},{"name":"dense_Dense801","class_name":"Dense","config":{"units":32,"activation":"relu","use_bias":true,"kernel_initializer":{"class_name":"VarianceScaling","config":{"scale":1,"mode":"fan_avg","distribution":"normal","seed":null}},"bias_initializer":{"class_name":"Zeros","config":{}},"kernel_regularizer":null,"bias_regularizer":null,"activity_regularizer":null,"kernel_constraint":null,"bias_constraint":null,"name":"dense_Dense801","trainable":true},"inbound_nodes":[[["input201",0,0,{}]]]},{"name":"dense_Dense802","class_name":"Dense","config":{"units":8,"activation":"relu","use_bias":true,"kernel_initializer":{"class_name":"VarianceScaling","config":{"scale":1,"mode":"fan_avg","distribution":"normal","seed":null}},"bias_initializer":{"class_name":"Zeros","config":{}},"kernel_regularizer":null,"bias_regularizer":null,"activity_regularizer":null,"kernel_constraint":null,"bias_constraint":null,"name":"dense_Dense802","trainable":true},"inbound_nodes":[[["dense_Dense801",0,0,{}]]]},{"name":"dense_Dense803","class_name":"Dense","config":{"units":4,"activation":"relu","use_bias":true,"kernel_initializer":{"class_name":"VarianceScaling","config":{"scale":1,"mode":"fan_avg","distribution":"normal","seed":null}},"bias_initializer":{"class_name":"Zeros","config":{}},"kernel_regularizer":null,"bias_regularizer":null,"activity_regularizer":null,"kernel_constraint":null,"bias_constraint":null,"name":"dense_Dense803","trainable":true},"inbound_nodes":[[["dense_Dense802",0,0,{}]]]},{"name":"dense_Dense804","class_name":"Dense","config":{"units":1,"activation":"sigmoid","use_bias":true,"kernel_initializer":{"class_name":"VarianceScaling","config":{"scale":1,"mode":"fan_avg","distribution":"normal","seed":null}},"bias_initializer":{"class_name":"Zeros","config":{}},"kernel_regularizer":null,"bias_regularizer":null,"activity_regularizer":null,"kernel_constraint":null,"bias_constraint":null,"name":"dense_Dense804","trainable":true},"inbound_nodes":[[["dense_Dense803",0,0,{}]]]}],"input_layers":[["input201",0,0]],"output_layers":[["dense_Dense804",0,0]]},"keras_version":"tfjs-layers 3.9.0","backend":"tensor_flow.js"},"weightsManifest":[{"paths":["weights.bin"],"weights":[{"name":"dense_Dense801/kernel","shape":[3,32],"dtype":"float32"},{"name":"dense_Dense801/bias","shape":[32],"dtype":"float32"},{"name":"dense_Dense802/kernel","shape":[32,8],"dtype":"float32"},{"name":"dense_Dense802/bias","shape":[8],"dtype":"float32"},{"name":"dense_Dense803/kernel","shape":[8,4],"dtype":"float32"},{"name":"dense_Dense803/bias","shape":[4],"dtype":"float32"},{"name":"dense_Dense804/kernel","shape":[4,1],"dtype":"float32"},{"name":"dense_Dense804/bias","shape":[1],"dtype":"float32"}]}]}