{"modelTopology":{"class_name":"Model","config":{"name":"model64","layers":[{"name":"input64","class_name":"InputLayer","config":{"batch_input_shape":[null,3],"dtype":"float32","sparse":false,"name":"input64"},"inbound_nodes":[]},{"name":"dense_Dense379","class_name":"Dense","config":{"units":16,"activation":"relu","use_bias":true,"kernel_initializer":{"class_name":"VarianceScaling","config":{"scale":1,"mode":"fan_avg","distribution":"normal","seed":null}},"bias_initializer":{"class_name":"Zeros","config":{}},"kernel_regularizer":null,"bias_regularizer":null,"activity_regularizer":null,"kernel_constraint":null,"bias_constraint":null,"name":"dense_Dense379","trainable":true},"inbound_nodes":[[["input64",0,0,{}]]]},{"name":"dense_Dense380","class_name":"Dense","config":{"units":1,"activation":"relu","use_bias":true,"kernel_initializer":{"class_name":"VarianceScaling","config":{"scale":1,"mode":"fan_avg","distribution":"normal","seed":null}},"bias_initializer":{"class_name":"Zeros","config":{}},"kernel_regularizer":null,"bias_regularizer":null,"activity_regularizer":null,"kernel_constraint":null,"bias_constraint":null,"name":"dense_Dense380","trainable":true},"inbound_nodes":[[["dense_Dense379",0,0,{}]]]},{"name":"dense_Dense381","class_name":"Dense","config":{"units":2,"activation":"relu","use_bias":true,"kernel_initializer":{"class_name":"VarianceScaling","config":{"scale":1,"mode":"fan_avg","distribution":"normal","seed":null}},"bias_initializer":{"class_name":"Zeros","config":{}},"kernel_regularizer":null,"bias_regularizer":null,"activity_regularizer":null,"kernel_constraint":null,"bias_constraint":null,"name":"dense_Dense381","trainable":true},"inbound_nodes":[[["dense_Dense380",0,0,{}]]]},{"name":"dense_Dense382","class_name":"Dense","config":{"units":16,"activation":"relu","use_bias":true,"kernel_initializer":{"class_name":"VarianceScaling","config":{"scale":1,"mode":"fan_avg","distribution":"normal","seed":null}},"bias_initializer":{"class_name":"Zeros","config":{}},"kernel_regularizer":null,"bias_regularizer":null,"activity_regularizer":null,"kernel_constraint":null,"bias_constraint":null,"name":"dense_Dense382","trainable":true},"inbound_nodes":[[["dense_Dense381",0,0,{}]]]},{"name":"dense_Dense383","class_name":"Dense","config":{"units":8,"activation":"relu","use_bias":true,"kernel_initializer":{"class_name":"VarianceScaling","config":{"scale":1,"mode":"fan_avg","distribution":"normal","seed":null}},"bias_initializer":{"class_name":"Zeros","config":{}},"kernel_regularizer":null,"bias_regularizer":null,"activity_regularizer":null,"kernel_constraint":null,"bias_constraint":null,"name":"dense_Dense383","trainable":true},"inbound_nodes":[[["dense_Dense382",0,0,{}]]]},{"name":"dense_Dense384","class_name":"Dense","config":{"units":1,"activation":"sigmoid","use_bias":true,"kernel_initializer":{"class_name":"VarianceScaling","config":{"scale":1,"mode":"fan_avg","distribution":"normal","seed":null}},"bias_initializer":{"class_name":"Zeros","config":{}},"kernel_regularizer":null,"bias_regularizer":null,"activity_regularizer":null,"kernel_constraint":null,"bias_constraint":null,"name":"dense_Dense384","trainable":true},"inbound_nodes":[[["dense_Dense383",0,0,{}]]]}],"input_layers":[["input64",0,0]],"output_layers":[["dense_Dense384",0,0]]},"keras_version":"tfjs-layers 3.9.0","backend":"tensor_flow.js"},"weightsManifest":[{"paths":["weights.bin"],"weights":[{"name":"dense_Dense379/kernel","shape":[3,16],"dtype":"float32"},{"name":"dense_Dense379/bias","shape":[16],"dtype":"float32"},{"name":"dense_Dense380/kernel","shape":[16,1],"dtype":"float32"},{"name":"dense_Dense380/bias","shape":[1],"dtype":"float32"},{"name":"dense_Dense381/kernel","shape":[1,2],"dtype":"float32"},{"name":"dense_Dense381/bias","shape":[2],"dtype":"float32"},{"name":"dense_Dense382/kernel","shape":[2,16],"dtype":"float32"},{"name":"dense_Dense382/bias","shape":[16],"dtype":"float32"},{"name":"dense_Dense383/kernel","shape":[16,8],"dtype":"float32"},{"name":"dense_Dense383/bias","shape":[8],"dtype":"float32"},{"name":"dense_Dense384/kernel","shape":[8,1],"dtype":"float32"},{"name":"dense_Dense384/bias","shape":[1],"dtype":"float32"}]}]}