{"modelTopology":{"class_name":"Model","config":{"name":"model711","layers":[{"name":"input711","class_name":"InputLayer","config":{"batch_input_shape":[null,3],"dtype":"float32","sparse":false,"name":"input711"},"inbound_nodes":[]},{"name":"dense_Dense3551","class_name":"Dense","config":{"units":8,"activation":"relu","use_bias":true,"kernel_initializer":{"class_name":"VarianceScaling","config":{"scale":1,"mode":"fan_avg","distribution":"normal","seed":null}},"bias_initializer":{"class_name":"Zeros","config":{}},"kernel_regularizer":null,"bias_regularizer":null,"activity_regularizer":null,"kernel_constraint":null,"bias_constraint":null,"name":"dense_Dense3551","trainable":true},"inbound_nodes":[[["input711",0,0,{}]]]},{"name":"dense_Dense3552","class_name":"Dense","config":{"units":2,"activation":"relu","use_bias":true,"kernel_initializer":{"class_name":"VarianceScaling","config":{"scale":1,"mode":"fan_avg","distribution":"normal","seed":null}},"bias_initializer":{"class_name":"Zeros","config":{}},"kernel_regularizer":null,"bias_regularizer":null,"activity_regularizer":null,"kernel_constraint":null,"bias_constraint":null,"name":"dense_Dense3552","trainable":true},"inbound_nodes":[[["dense_Dense3551",0,0,{}]]]},{"name":"dense_Dense3553","class_name":"Dense","config":{"units":16,"activation":"relu","use_bias":true,"kernel_initializer":{"class_name":"VarianceScaling","config":{"scale":1,"mode":"fan_avg","distribution":"normal","seed":null}},"bias_initializer":{"class_name":"Zeros","config":{}},"kernel_regularizer":null,"bias_regularizer":null,"activity_regularizer":null,"kernel_constraint":null,"bias_constraint":null,"name":"dense_Dense3553","trainable":true},"inbound_nodes":[[["dense_Dense3552",0,0,{}]]]},{"name":"dense_Dense3554","class_name":"Dense","config":{"units":4,"activation":"relu","use_bias":true,"kernel_initializer":{"class_name":"VarianceScaling","config":{"scale":1,"mode":"fan_avg","distribution":"normal","seed":null}},"bias_initializer":{"class_name":"Zeros","config":{}},"kernel_regularizer":null,"bias_regularizer":null,"activity_regularizer":null,"kernel_constraint":null,"bias_constraint":null,"name":"dense_Dense3554","trainable":true},"inbound_nodes":[[["dense_Dense3553",0,0,{}]]]},{"name":"dense_Dense3555","class_name":"Dense","config":{"units":1,"activation":"sigmoid","use_bias":true,"kernel_initializer":{"class_name":"VarianceScaling","config":{"scale":1,"mode":"fan_avg","distribution":"normal","seed":null}},"bias_initializer":{"class_name":"Zeros","config":{}},"kernel_regularizer":null,"bias_regularizer":null,"activity_regularizer":null,"kernel_constraint":null,"bias_constraint":null,"name":"dense_Dense3555","trainable":true},"inbound_nodes":[[["dense_Dense3554",0,0,{}]]]}],"input_layers":[["input711",0,0]],"output_layers":[["dense_Dense3555",0,0]]},"keras_version":"tfjs-layers 3.9.0","backend":"tensor_flow.js"},"weightsManifest":[{"paths":["weights.bin"],"weights":[{"name":"dense_Dense3551/kernel","shape":[3,8],"dtype":"float32"},{"name":"dense_Dense3551/bias","shape":[8],"dtype":"float32"},{"name":"dense_Dense3552/kernel","shape":[8,2],"dtype":"float32"},{"name":"dense_Dense3552/bias","shape":[2],"dtype":"float32"},{"name":"dense_Dense3553/kernel","shape":[2,16],"dtype":"float32"},{"name":"dense_Dense3553/bias","shape":[16],"dtype":"float32"},{"name":"dense_Dense3554/kernel","shape":[16,4],"dtype":"float32"},{"name":"dense_Dense3554/bias","shape":[4],"dtype":"float32"},{"name":"dense_Dense3555/kernel","shape":[4,1],"dtype":"float32"},{"name":"dense_Dense3555/bias","shape":[1],"dtype":"float32"}]}]}