{"modelTopology":{"class_name":"Model","config":{"name":"model875","layers":[{"name":"input875","class_name":"InputLayer","config":{"batch_input_shape":[null,3],"dtype":"float32","sparse":false,"name":"input875"},"inbound_nodes":[]},{"name":"dense_Dense5245","class_name":"Dense","config":{"units":2,"activation":"relu","use_bias":true,"kernel_initializer":{"class_name":"VarianceScaling","config":{"scale":1,"mode":"fan_avg","distribution":"normal","seed":null}},"bias_initializer":{"class_name":"Zeros","config":{}},"kernel_regularizer":null,"bias_regularizer":null,"activity_regularizer":null,"kernel_constraint":null,"bias_constraint":null,"name":"dense_Dense5245","trainable":true},"inbound_nodes":[[["input875",0,0,{}]]]},{"name":"dense_Dense5246","class_name":"Dense","config":{"units":16,"activation":"relu","use_bias":true,"kernel_initializer":{"class_name":"VarianceScaling","config":{"scale":1,"mode":"fan_avg","distribution":"normal","seed":null}},"bias_initializer":{"class_name":"Zeros","config":{}},"kernel_regularizer":null,"bias_regularizer":null,"activity_regularizer":null,"kernel_constraint":null,"bias_constraint":null,"name":"dense_Dense5246","trainable":true},"inbound_nodes":[[["dense_Dense5245",0,0,{}]]]},{"name":"dense_Dense5247","class_name":"Dense","config":{"units":1,"activation":"relu","use_bias":true,"kernel_initializer":{"class_name":"VarianceScaling","config":{"scale":1,"mode":"fan_avg","distribution":"normal","seed":null}},"bias_initializer":{"class_name":"Zeros","config":{}},"kernel_regularizer":null,"bias_regularizer":null,"activity_regularizer":null,"kernel_constraint":null,"bias_constraint":null,"name":"dense_Dense5247","trainable":true},"inbound_nodes":[[["dense_Dense5246",0,0,{}]]]},{"name":"dense_Dense5248","class_name":"Dense","config":{"units":2,"activation":"relu","use_bias":true,"kernel_initializer":{"class_name":"VarianceScaling","config":{"scale":1,"mode":"fan_avg","distribution":"normal","seed":null}},"bias_initializer":{"class_name":"Zeros","config":{}},"kernel_regularizer":null,"bias_regularizer":null,"activity_regularizer":null,"kernel_constraint":null,"bias_constraint":null,"name":"dense_Dense5248","trainable":true},"inbound_nodes":[[["dense_Dense5247",0,0,{}]]]},{"name":"dense_Dense5249","class_name":"Dense","config":{"units":16,"activation":"relu","use_bias":true,"kernel_initializer":{"class_name":"VarianceScaling","config":{"scale":1,"mode":"fan_avg","distribution":"normal","seed":null}},"bias_initializer":{"class_name":"Zeros","config":{}},"kernel_regularizer":null,"bias_regularizer":null,"activity_regularizer":null,"kernel_constraint":null,"bias_constraint":null,"name":"dense_Dense5249","trainable":true},"inbound_nodes":[[["dense_Dense5248",0,0,{}]]]},{"name":"dense_Dense5250","class_name":"Dense","config":{"units":1,"activation":"sigmoid","use_bias":true,"kernel_initializer":{"class_name":"VarianceScaling","config":{"scale":1,"mode":"fan_avg","distribution":"normal","seed":null}},"bias_initializer":{"class_name":"Zeros","config":{}},"kernel_regularizer":null,"bias_regularizer":null,"activity_regularizer":null,"kernel_constraint":null,"bias_constraint":null,"name":"dense_Dense5250","trainable":true},"inbound_nodes":[[["dense_Dense5249",0,0,{}]]]}],"input_layers":[["input875",0,0]],"output_layers":[["dense_Dense5250",0,0]]},"keras_version":"tfjs-layers 3.9.0","backend":"tensor_flow.js"},"weightsManifest":[{"paths":["weights.bin"],"weights":[{"name":"dense_Dense5245/kernel","shape":[3,2],"dtype":"float32"},{"name":"dense_Dense5245/bias","shape":[2],"dtype":"float32"},{"name":"dense_Dense5246/kernel","shape":[2,16],"dtype":"float32"},{"name":"dense_Dense5246/bias","shape":[16],"dtype":"float32"},{"name":"dense_Dense5247/kernel","shape":[16,1],"dtype":"float32"},{"name":"dense_Dense5247/bias","shape":[1],"dtype":"float32"},{"name":"dense_Dense5248/kernel","shape":[1,2],"dtype":"float32"},{"name":"dense_Dense5248/bias","shape":[2],"dtype":"float32"},{"name":"dense_Dense5249/kernel","shape":[2,16],"dtype":"float32"},{"name":"dense_Dense5249/bias","shape":[16],"dtype":"float32"},{"name":"dense_Dense5250/kernel","shape":[16,1],"dtype":"float32"},{"name":"dense_Dense5250/bias","shape":[1],"dtype":"float32"}]}]}