{"modelTopology":{"class_name":"Model","config":{"name":"model893","layers":[{"name":"input893","class_name":"InputLayer","config":{"batch_input_shape":[null,3],"dtype":"float32","sparse":false,"name":"input893"},"inbound_nodes":[]},{"name":"dense_Dense5353","class_name":"Dense","config":{"units":16,"activation":"relu","use_bias":true,"kernel_initializer":{"class_name":"VarianceScaling","config":{"scale":1,"mode":"fan_avg","distribution":"normal","seed":null}},"bias_initializer":{"class_name":"Zeros","config":{}},"kernel_regularizer":null,"bias_regularizer":null,"activity_regularizer":null,"kernel_constraint":null,"bias_constraint":null,"name":"dense_Dense5353","trainable":true},"inbound_nodes":[[["input893",0,0,{}]]]},{"name":"dense_Dense5354","class_name":"Dense","config":{"units":16,"activation":"relu","use_bias":true,"kernel_initializer":{"class_name":"VarianceScaling","config":{"scale":1,"mode":"fan_avg","distribution":"normal","seed":null}},"bias_initializer":{"class_name":"Zeros","config":{}},"kernel_regularizer":null,"bias_regularizer":null,"activity_regularizer":null,"kernel_constraint":null,"bias_constraint":null,"name":"dense_Dense5354","trainable":true},"inbound_nodes":[[["dense_Dense5353",0,0,{}]]]},{"name":"dense_Dense5355","class_name":"Dense","config":{"units":1,"activation":"relu","use_bias":true,"kernel_initializer":{"class_name":"VarianceScaling","config":{"scale":1,"mode":"fan_avg","distribution":"normal","seed":null}},"bias_initializer":{"class_name":"Zeros","config":{}},"kernel_regularizer":null,"bias_regularizer":null,"activity_regularizer":null,"kernel_constraint":null,"bias_constraint":null,"name":"dense_Dense5355","trainable":true},"inbound_nodes":[[["dense_Dense5354",0,0,{}]]]},{"name":"dense_Dense5356","class_name":"Dense","config":{"units":16,"activation":"relu","use_bias":true,"kernel_initializer":{"class_name":"VarianceScaling","config":{"scale":1,"mode":"fan_avg","distribution":"normal","seed":null}},"bias_initializer":{"class_name":"Zeros","config":{}},"kernel_regularizer":null,"bias_regularizer":null,"activity_regularizer":null,"kernel_constraint":null,"bias_constraint":null,"name":"dense_Dense5356","trainable":true},"inbound_nodes":[[["dense_Dense5355",0,0,{}]]]},{"name":"dense_Dense5357","class_name":"Dense","config":{"units":16,"activation":"relu","use_bias":true,"kernel_initializer":{"class_name":"VarianceScaling","config":{"scale":1,"mode":"fan_avg","distribution":"normal","seed":null}},"bias_initializer":{"class_name":"Zeros","config":{}},"kernel_regularizer":null,"bias_regularizer":null,"activity_regularizer":null,"kernel_constraint":null,"bias_constraint":null,"name":"dense_Dense5357","trainable":true},"inbound_nodes":[[["dense_Dense5356",0,0,{}]]]},{"name":"dense_Dense5358","class_name":"Dense","config":{"units":1,"activation":"sigmoid","use_bias":true,"kernel_initializer":{"class_name":"VarianceScaling","config":{"scale":1,"mode":"fan_avg","distribution":"normal","seed":null}},"bias_initializer":{"class_name":"Zeros","config":{}},"kernel_regularizer":null,"bias_regularizer":null,"activity_regularizer":null,"kernel_constraint":null,"bias_constraint":null,"name":"dense_Dense5358","trainable":true},"inbound_nodes":[[["dense_Dense5357",0,0,{}]]]}],"input_layers":[["input893",0,0]],"output_layers":[["dense_Dense5358",0,0]]},"keras_version":"tfjs-layers 3.9.0","backend":"tensor_flow.js"},"weightsManifest":[{"paths":["weights.bin"],"weights":[{"name":"dense_Dense5353/kernel","shape":[3,16],"dtype":"float32"},{"name":"dense_Dense5353/bias","shape":[16],"dtype":"float32"},{"name":"dense_Dense5354/kernel","shape":[16,16],"dtype":"float32"},{"name":"dense_Dense5354/bias","shape":[16],"dtype":"float32"},{"name":"dense_Dense5355/kernel","shape":[16,1],"dtype":"float32"},{"name":"dense_Dense5355/bias","shape":[1],"dtype":"float32"},{"name":"dense_Dense5356/kernel","shape":[1,16],"dtype":"float32"},{"name":"dense_Dense5356/bias","shape":[16],"dtype":"float32"},{"name":"dense_Dense5357/kernel","shape":[16,16],"dtype":"float32"},{"name":"dense_Dense5357/bias","shape":[16],"dtype":"float32"},{"name":"dense_Dense5358/kernel","shape":[16,1],"dtype":"float32"},{"name":"dense_Dense5358/bias","shape":[1],"dtype":"float32"}]}]}