{"modelTopology":{"class_name":"Model","config":{"name":"model363","layers":[{"name":"input363","class_name":"InputLayer","config":{"batch_input_shape":[null,3],"dtype":"float32","sparse":false,"name":"input363"},"inbound_nodes":[]},{"name":"dense_Dense1811","class_name":"Dense","config":{"units":2,"activation":"relu","use_bias":true,"kernel_initializer":{"class_name":"VarianceScaling","config":{"scale":1,"mode":"fan_avg","distribution":"normal","seed":null}},"bias_initializer":{"class_name":"Zeros","config":{}},"kernel_regularizer":null,"bias_regularizer":null,"activity_regularizer":null,"kernel_constraint":null,"bias_constraint":null,"name":"dense_Dense1811","trainable":true},"inbound_nodes":[[["input363",0,0,{}]]]},{"name":"dense_Dense1812","class_name":"Dense","config":{"units":16,"activation":"relu","use_bias":true,"kernel_initializer":{"class_name":"VarianceScaling","config":{"scale":1,"mode":"fan_avg","distribution":"normal","seed":null}},"bias_initializer":{"class_name":"Zeros","config":{}},"kernel_regularizer":null,"bias_regularizer":null,"activity_regularizer":null,"kernel_constraint":null,"bias_constraint":null,"name":"dense_Dense1812","trainable":true},"inbound_nodes":[[["dense_Dense1811",0,0,{}]]]},{"name":"dense_Dense1813","class_name":"Dense","config":{"units":1,"activation":"relu","use_bias":true,"kernel_initializer":{"class_name":"VarianceScaling","config":{"scale":1,"mode":"fan_avg","distribution":"normal","seed":null}},"bias_initializer":{"class_name":"Zeros","config":{}},"kernel_regularizer":null,"bias_regularizer":null,"activity_regularizer":null,"kernel_constraint":null,"bias_constraint":null,"name":"dense_Dense1813","trainable":true},"inbound_nodes":[[["dense_Dense1812",0,0,{}]]]},{"name":"dense_Dense1814","class_name":"Dense","config":{"units":4,"activation":"relu","use_bias":true,"kernel_initializer":{"class_name":"VarianceScaling","config":{"scale":1,"mode":"fan_avg","distribution":"normal","seed":null}},"bias_initializer":{"class_name":"Zeros","config":{}},"kernel_regularizer":null,"bias_regularizer":null,"activity_regularizer":null,"kernel_constraint":null,"bias_constraint":null,"name":"dense_Dense1814","trainable":true},"inbound_nodes":[[["dense_Dense1813",0,0,{}]]]},{"name":"dense_Dense1815","class_name":"Dense","config":{"units":1,"activation":"sigmoid","use_bias":true,"kernel_initializer":{"class_name":"VarianceScaling","config":{"scale":1,"mode":"fan_avg","distribution":"normal","seed":null}},"bias_initializer":{"class_name":"Zeros","config":{}},"kernel_regularizer":null,"bias_regularizer":null,"activity_regularizer":null,"kernel_constraint":null,"bias_constraint":null,"name":"dense_Dense1815","trainable":true},"inbound_nodes":[[["dense_Dense1814",0,0,{}]]]}],"input_layers":[["input363",0,0]],"output_layers":[["dense_Dense1815",0,0]]},"keras_version":"tfjs-layers 3.9.0","backend":"tensor_flow.js"},"weightsManifest":[{"paths":["weights.bin"],"weights":[{"name":"dense_Dense1811/kernel","shape":[3,2],"dtype":"float32"},{"name":"dense_Dense1811/bias","shape":[2],"dtype":"float32"},{"name":"dense_Dense1812/kernel","shape":[2,16],"dtype":"float32"},{"name":"dense_Dense1812/bias","shape":[16],"dtype":"float32"},{"name":"dense_Dense1813/kernel","shape":[16,1],"dtype":"float32"},{"name":"dense_Dense1813/bias","shape":[1],"dtype":"float32"},{"name":"dense_Dense1814/kernel","shape":[1,4],"dtype":"float32"},{"name":"dense_Dense1814/bias","shape":[4],"dtype":"float32"},{"name":"dense_Dense1815/kernel","shape":[4,1],"dtype":"float32"},{"name":"dense_Dense1815/bias","shape":[1],"dtype":"float32"}]}]}