{"modelTopology":{"class_name":"Model","config":{"name":"model251","layers":[{"name":"input251","class_name":"InputLayer","config":{"batch_input_shape":[null,3],"dtype":"float32","sparse":false,"name":"input251"},"inbound_nodes":[]},{"name":"dense_Dense1501","class_name":"Dense","config":{"units":1,"activation":"relu","use_bias":true,"kernel_initializer":{"class_name":"VarianceScaling","config":{"scale":1,"mode":"fan_avg","distribution":"normal","seed":null}},"bias_initializer":{"class_name":"Zeros","config":{}},"kernel_regularizer":null,"bias_regularizer":null,"activity_regularizer":null,"kernel_constraint":null,"bias_constraint":null,"name":"dense_Dense1501","trainable":true},"inbound_nodes":[[["input251",0,0,{}]]]},{"name":"dense_Dense1502","class_name":"Dense","config":{"units":2,"activation":"relu","use_bias":true,"kernel_initializer":{"class_name":"VarianceScaling","config":{"scale":1,"mode":"fan_avg","distribution":"normal","seed":null}},"bias_initializer":{"class_name":"Zeros","config":{}},"kernel_regularizer":null,"bias_regularizer":null,"activity_regularizer":null,"kernel_constraint":null,"bias_constraint":null,"name":"dense_Dense1502","trainable":true},"inbound_nodes":[[["dense_Dense1501",0,0,{}]]]},{"name":"dense_Dense1503","class_name":"Dense","config":{"units":1,"activation":"relu","use_bias":true,"kernel_initializer":{"class_name":"VarianceScaling","config":{"scale":1,"mode":"fan_avg","distribution":"normal","seed":null}},"bias_initializer":{"class_name":"Zeros","config":{}},"kernel_regularizer":null,"bias_regularizer":null,"activity_regularizer":null,"kernel_constraint":null,"bias_constraint":null,"name":"dense_Dense1503","trainable":true},"inbound_nodes":[[["dense_Dense1502",0,0,{}]]]},{"name":"dense_Dense1504","class_name":"Dense","config":{"units":32,"activation":"relu","use_bias":true,"kernel_initializer":{"class_name":"VarianceScaling","config":{"scale":1,"mode":"fan_avg","distribution":"normal","seed":null}},"bias_initializer":{"class_name":"Zeros","config":{}},"kernel_regularizer":null,"bias_regularizer":null,"activity_regularizer":null,"kernel_constraint":null,"bias_constraint":null,"name":"dense_Dense1504","trainable":true},"inbound_nodes":[[["dense_Dense1503",0,0,{}]]]},{"name":"dense_Dense1505","class_name":"Dense","config":{"units":16,"activation":"relu","use_bias":true,"kernel_initializer":{"class_name":"VarianceScaling","config":{"scale":1,"mode":"fan_avg","distribution":"normal","seed":null}},"bias_initializer":{"class_name":"Zeros","config":{}},"kernel_regularizer":null,"bias_regularizer":null,"activity_regularizer":null,"kernel_constraint":null,"bias_constraint":null,"name":"dense_Dense1505","trainable":true},"inbound_nodes":[[["dense_Dense1504",0,0,{}]]]},{"name":"dense_Dense1506","class_name":"Dense","config":{"units":1,"activation":"sigmoid","use_bias":true,"kernel_initializer":{"class_name":"VarianceScaling","config":{"scale":1,"mode":"fan_avg","distribution":"normal","seed":null}},"bias_initializer":{"class_name":"Zeros","config":{}},"kernel_regularizer":null,"bias_regularizer":null,"activity_regularizer":null,"kernel_constraint":null,"bias_constraint":null,"name":"dense_Dense1506","trainable":true},"inbound_nodes":[[["dense_Dense1505",0,0,{}]]]}],"input_layers":[["input251",0,0]],"output_layers":[["dense_Dense1506",0,0]]},"keras_version":"tfjs-layers 3.9.0","backend":"tensor_flow.js"},"weightsManifest":[{"paths":["weights.bin"],"weights":[{"name":"dense_Dense1501/kernel","shape":[3,1],"dtype":"float32"},{"name":"dense_Dense1501/bias","shape":[1],"dtype":"float32"},{"name":"dense_Dense1502/kernel","shape":[1,2],"dtype":"float32"},{"name":"dense_Dense1502/bias","shape":[2],"dtype":"float32"},{"name":"dense_Dense1503/kernel","shape":[2,1],"dtype":"float32"},{"name":"dense_Dense1503/bias","shape":[1],"dtype":"float32"},{"name":"dense_Dense1504/kernel","shape":[1,32],"dtype":"float32"},{"name":"dense_Dense1504/bias","shape":[32],"dtype":"float32"},{"name":"dense_Dense1505/kernel","shape":[32,16],"dtype":"float32"},{"name":"dense_Dense1505/bias","shape":[16],"dtype":"float32"},{"name":"dense_Dense1506/kernel","shape":[16,1],"dtype":"float32"},{"name":"dense_Dense1506/bias","shape":[1],"dtype":"float32"}]}]}