{"modelTopology":{"class_name":"Model","config":{"name":"model836","layers":[{"name":"input836","class_name":"InputLayer","config":{"batch_input_shape":[null,3],"dtype":"float32","sparse":false,"name":"input836"},"inbound_nodes":[]},{"name":"dense_Dense4176","class_name":"Dense","config":{"units":8,"activation":"relu","use_bias":true,"kernel_initializer":{"class_name":"VarianceScaling","config":{"scale":1,"mode":"fan_avg","distribution":"normal","seed":null}},"bias_initializer":{"class_name":"Zeros","config":{}},"kernel_regularizer":null,"bias_regularizer":null,"activity_regularizer":null,"kernel_constraint":null,"bias_constraint":null,"name":"dense_Dense4176","trainable":true},"inbound_nodes":[[["input836",0,0,{}]]]},{"name":"dense_Dense4177","class_name":"Dense","config":{"units":32,"activation":"relu","use_bias":true,"kernel_initializer":{"class_name":"VarianceScaling","config":{"scale":1,"mode":"fan_avg","distribution":"normal","seed":null}},"bias_initializer":{"class_name":"Zeros","config":{}},"kernel_regularizer":null,"bias_regularizer":null,"activity_regularizer":null,"kernel_constraint":null,"bias_constraint":null,"name":"dense_Dense4177","trainable":true},"inbound_nodes":[[["dense_Dense4176",0,0,{}]]]},{"name":"dense_Dense4178","class_name":"Dense","config":{"units":2,"activation":"relu","use_bias":true,"kernel_initializer":{"class_name":"VarianceScaling","config":{"scale":1,"mode":"fan_avg","distribution":"normal","seed":null}},"bias_initializer":{"class_name":"Zeros","config":{}},"kernel_regularizer":null,"bias_regularizer":null,"activity_regularizer":null,"kernel_constraint":null,"bias_constraint":null,"name":"dense_Dense4178","trainable":true},"inbound_nodes":[[["dense_Dense4177",0,0,{}]]]},{"name":"dense_Dense4179","class_name":"Dense","config":{"units":2,"activation":"relu","use_bias":true,"kernel_initializer":{"class_name":"VarianceScaling","config":{"scale":1,"mode":"fan_avg","distribution":"normal","seed":null}},"bias_initializer":{"class_name":"Zeros","config":{}},"kernel_regularizer":null,"bias_regularizer":null,"activity_regularizer":null,"kernel_constraint":null,"bias_constraint":null,"name":"dense_Dense4179","trainable":true},"inbound_nodes":[[["dense_Dense4178",0,0,{}]]]},{"name":"dense_Dense4180","class_name":"Dense","config":{"units":1,"activation":"sigmoid","use_bias":true,"kernel_initializer":{"class_name":"VarianceScaling","config":{"scale":1,"mode":"fan_avg","distribution":"normal","seed":null}},"bias_initializer":{"class_name":"Zeros","config":{}},"kernel_regularizer":null,"bias_regularizer":null,"activity_regularizer":null,"kernel_constraint":null,"bias_constraint":null,"name":"dense_Dense4180","trainable":true},"inbound_nodes":[[["dense_Dense4179",0,0,{}]]]}],"input_layers":[["input836",0,0]],"output_layers":[["dense_Dense4180",0,0]]},"keras_version":"tfjs-layers 3.9.0","backend":"tensor_flow.js"},"weightsManifest":[{"paths":["weights.bin"],"weights":[{"name":"dense_Dense4176/kernel","shape":[3,8],"dtype":"float32"},{"name":"dense_Dense4176/bias","shape":[8],"dtype":"float32"},{"name":"dense_Dense4177/kernel","shape":[8,32],"dtype":"float32"},{"name":"dense_Dense4177/bias","shape":[32],"dtype":"float32"},{"name":"dense_Dense4178/kernel","shape":[32,2],"dtype":"float32"},{"name":"dense_Dense4178/bias","shape":[2],"dtype":"float32"},{"name":"dense_Dense4179/kernel","shape":[2,2],"dtype":"float32"},{"name":"dense_Dense4179/bias","shape":[2],"dtype":"float32"},{"name":"dense_Dense4180/kernel","shape":[2,1],"dtype":"float32"},{"name":"dense_Dense4180/bias","shape":[1],"dtype":"float32"}]}]}