{"modelTopology":{"class_name":"Model","config":{"name":"model257","layers":[{"name":"input257","class_name":"InputLayer","config":{"batch_input_shape":[null,3],"dtype":"float32","sparse":false,"name":"input257"},"inbound_nodes":[]},{"name":"dense_Dense1281","class_name":"Dense","config":{"units":2,"activation":"relu","use_bias":true,"kernel_initializer":{"class_name":"VarianceScaling","config":{"scale":1,"mode":"fan_avg","distribution":"normal","seed":null}},"bias_initializer":{"class_name":"Zeros","config":{}},"kernel_regularizer":null,"bias_regularizer":null,"activity_regularizer":null,"kernel_constraint":null,"bias_constraint":null,"name":"dense_Dense1281","trainable":true},"inbound_nodes":[[["input257",0,0,{}]]]},{"name":"dense_Dense1282","class_name":"Dense","config":{"units":2,"activation":"relu","use_bias":true,"kernel_initializer":{"class_name":"VarianceScaling","config":{"scale":1,"mode":"fan_avg","distribution":"normal","seed":null}},"bias_initializer":{"class_name":"Zeros","config":{}},"kernel_regularizer":null,"bias_regularizer":null,"activity_regularizer":null,"kernel_constraint":null,"bias_constraint":null,"name":"dense_Dense1282","trainable":true},"inbound_nodes":[[["dense_Dense1281",0,0,{}]]]},{"name":"dense_Dense1283","class_name":"Dense","config":{"units":1,"activation":"relu","use_bias":true,"kernel_initializer":{"class_name":"VarianceScaling","config":{"scale":1,"mode":"fan_avg","distribution":"normal","seed":null}},"bias_initializer":{"class_name":"Zeros","config":{}},"kernel_regularizer":null,"bias_regularizer":null,"activity_regularizer":null,"kernel_constraint":null,"bias_constraint":null,"name":"dense_Dense1283","trainable":true},"inbound_nodes":[[["dense_Dense1282",0,0,{}]]]},{"name":"dense_Dense1284","class_name":"Dense","config":{"units":16,"activation":"relu","use_bias":true,"kernel_initializer":{"class_name":"VarianceScaling","config":{"scale":1,"mode":"fan_avg","distribution":"normal","seed":null}},"bias_initializer":{"class_name":"Zeros","config":{}},"kernel_regularizer":null,"bias_regularizer":null,"activity_regularizer":null,"kernel_constraint":null,"bias_constraint":null,"name":"dense_Dense1284","trainable":true},"inbound_nodes":[[["dense_Dense1283",0,0,{}]]]},{"name":"dense_Dense1285","class_name":"Dense","config":{"units":1,"activation":"sigmoid","use_bias":true,"kernel_initializer":{"class_name":"VarianceScaling","config":{"scale":1,"mode":"fan_avg","distribution":"normal","seed":null}},"bias_initializer":{"class_name":"Zeros","config":{}},"kernel_regularizer":null,"bias_regularizer":null,"activity_regularizer":null,"kernel_constraint":null,"bias_constraint":null,"name":"dense_Dense1285","trainable":true},"inbound_nodes":[[["dense_Dense1284",0,0,{}]]]}],"input_layers":[["input257",0,0]],"output_layers":[["dense_Dense1285",0,0]]},"keras_version":"tfjs-layers 3.9.0","backend":"tensor_flow.js"},"weightsManifest":[{"paths":["weights.bin"],"weights":[{"name":"dense_Dense1281/kernel","shape":[3,2],"dtype":"float32"},{"name":"dense_Dense1281/bias","shape":[2],"dtype":"float32"},{"name":"dense_Dense1282/kernel","shape":[2,2],"dtype":"float32"},{"name":"dense_Dense1282/bias","shape":[2],"dtype":"float32"},{"name":"dense_Dense1283/kernel","shape":[2,1],"dtype":"float32"},{"name":"dense_Dense1283/bias","shape":[1],"dtype":"float32"},{"name":"dense_Dense1284/kernel","shape":[1,16],"dtype":"float32"},{"name":"dense_Dense1284/bias","shape":[16],"dtype":"float32"},{"name":"dense_Dense1285/kernel","shape":[16,1],"dtype":"float32"},{"name":"dense_Dense1285/bias","shape":[1],"dtype":"float32"}]}]}