{"modelTopology":{"class_name":"Model","config":{"name":"model182","layers":[{"name":"input182","class_name":"InputLayer","config":{"batch_input_shape":[null,3],"dtype":"float32","sparse":false,"name":"input182"},"inbound_nodes":[]},{"name":"dense_Dense906","class_name":"Dense","config":{"units":1,"activation":"relu","use_bias":true,"kernel_initializer":{"class_name":"VarianceScaling","config":{"scale":1,"mode":"fan_avg","distribution":"normal","seed":null}},"bias_initializer":{"class_name":"Zeros","config":{}},"kernel_regularizer":null,"bias_regularizer":null,"activity_regularizer":null,"kernel_constraint":null,"bias_constraint":null,"name":"dense_Dense906","trainable":true},"inbound_nodes":[[["input182",0,0,{}]]]},{"name":"dense_Dense907","class_name":"Dense","config":{"units":32,"activation":"relu","use_bias":true,"kernel_initializer":{"class_name":"VarianceScaling","config":{"scale":1,"mode":"fan_avg","distribution":"normal","seed":null}},"bias_initializer":{"class_name":"Zeros","config":{}},"kernel_regularizer":null,"bias_regularizer":null,"activity_regularizer":null,"kernel_constraint":null,"bias_constraint":null,"name":"dense_Dense907","trainable":true},"inbound_nodes":[[["dense_Dense906",0,0,{}]]]},{"name":"dense_Dense908","class_name":"Dense","config":{"units":1,"activation":"relu","use_bias":true,"kernel_initializer":{"class_name":"VarianceScaling","config":{"scale":1,"mode":"fan_avg","distribution":"normal","seed":null}},"bias_initializer":{"class_name":"Zeros","config":{}},"kernel_regularizer":null,"bias_regularizer":null,"activity_regularizer":null,"kernel_constraint":null,"bias_constraint":null,"name":"dense_Dense908","trainable":true},"inbound_nodes":[[["dense_Dense907",0,0,{}]]]},{"name":"dense_Dense909","class_name":"Dense","config":{"units":2,"activation":"relu","use_bias":true,"kernel_initializer":{"class_name":"VarianceScaling","config":{"scale":1,"mode":"fan_avg","distribution":"normal","seed":null}},"bias_initializer":{"class_name":"Zeros","config":{}},"kernel_regularizer":null,"bias_regularizer":null,"activity_regularizer":null,"kernel_constraint":null,"bias_constraint":null,"name":"dense_Dense909","trainable":true},"inbound_nodes":[[["dense_Dense908",0,0,{}]]]},{"name":"dense_Dense910","class_name":"Dense","config":{"units":1,"activation":"sigmoid","use_bias":true,"kernel_initializer":{"class_name":"VarianceScaling","config":{"scale":1,"mode":"fan_avg","distribution":"normal","seed":null}},"bias_initializer":{"class_name":"Zeros","config":{}},"kernel_regularizer":null,"bias_regularizer":null,"activity_regularizer":null,"kernel_constraint":null,"bias_constraint":null,"name":"dense_Dense910","trainable":true},"inbound_nodes":[[["dense_Dense909",0,0,{}]]]}],"input_layers":[["input182",0,0]],"output_layers":[["dense_Dense910",0,0]]},"keras_version":"tfjs-layers 3.9.0","backend":"tensor_flow.js"},"weightsManifest":[{"paths":["weights.bin"],"weights":[{"name":"dense_Dense906/kernel","shape":[3,1],"dtype":"float32"},{"name":"dense_Dense906/bias","shape":[1],"dtype":"float32"},{"name":"dense_Dense907/kernel","shape":[1,32],"dtype":"float32"},{"name":"dense_Dense907/bias","shape":[32],"dtype":"float32"},{"name":"dense_Dense908/kernel","shape":[32,1],"dtype":"float32"},{"name":"dense_Dense908/bias","shape":[1],"dtype":"float32"},{"name":"dense_Dense909/kernel","shape":[1,2],"dtype":"float32"},{"name":"dense_Dense909/bias","shape":[2],"dtype":"float32"},{"name":"dense_Dense910/kernel","shape":[2,1],"dtype":"float32"},{"name":"dense_Dense910/bias","shape":[1],"dtype":"float32"}]}]}