{"modelTopology":{"class_name":"Model","config":{"name":"model821","layers":[{"name":"input821","class_name":"InputLayer","config":{"batch_input_shape":[null,3],"dtype":"float32","sparse":false,"name":"input821"},"inbound_nodes":[]},{"name":"dense_Dense4921","class_name":"Dense","config":{"units":32,"activation":"relu","use_bias":true,"kernel_initializer":{"class_name":"VarianceScaling","config":{"scale":1,"mode":"fan_avg","distribution":"normal","seed":null}},"bias_initializer":{"class_name":"Zeros","config":{}},"kernel_regularizer":null,"bias_regularizer":null,"activity_regularizer":null,"kernel_constraint":null,"bias_constraint":null,"name":"dense_Dense4921","trainable":true},"inbound_nodes":[[["input821",0,0,{}]]]},{"name":"dense_Dense4922","class_name":"Dense","config":{"units":8,"activation":"relu","use_bias":true,"kernel_initializer":{"class_name":"VarianceScaling","config":{"scale":1,"mode":"fan_avg","distribution":"normal","seed":null}},"bias_initializer":{"class_name":"Zeros","config":{}},"kernel_regularizer":null,"bias_regularizer":null,"activity_regularizer":null,"kernel_constraint":null,"bias_constraint":null,"name":"dense_Dense4922","trainable":true},"inbound_nodes":[[["dense_Dense4921",0,0,{}]]]},{"name":"dense_Dense4923","class_name":"Dense","config":{"units":16,"activation":"relu","use_bias":true,"kernel_initializer":{"class_name":"VarianceScaling","config":{"scale":1,"mode":"fan_avg","distribution":"normal","seed":null}},"bias_initializer":{"class_name":"Zeros","config":{}},"kernel_regularizer":null,"bias_regularizer":null,"activity_regularizer":null,"kernel_constraint":null,"bias_constraint":null,"name":"dense_Dense4923","trainable":true},"inbound_nodes":[[["dense_Dense4922",0,0,{}]]]},{"name":"dense_Dense4924","class_name":"Dense","config":{"units":16,"activation":"relu","use_bias":true,"kernel_initializer":{"class_name":"VarianceScaling","config":{"scale":1,"mode":"fan_avg","distribution":"normal","seed":null}},"bias_initializer":{"class_name":"Zeros","config":{}},"kernel_regularizer":null,"bias_regularizer":null,"activity_regularizer":null,"kernel_constraint":null,"bias_constraint":null,"name":"dense_Dense4924","trainable":true},"inbound_nodes":[[["dense_Dense4923",0,0,{}]]]},{"name":"dense_Dense4925","class_name":"Dense","config":{"units":16,"activation":"relu","use_bias":true,"kernel_initializer":{"class_name":"VarianceScaling","config":{"scale":1,"mode":"fan_avg","distribution":"normal","seed":null}},"bias_initializer":{"class_name":"Zeros","config":{}},"kernel_regularizer":null,"bias_regularizer":null,"activity_regularizer":null,"kernel_constraint":null,"bias_constraint":null,"name":"dense_Dense4925","trainable":true},"inbound_nodes":[[["dense_Dense4924",0,0,{}]]]},{"name":"dense_Dense4926","class_name":"Dense","config":{"units":1,"activation":"sigmoid","use_bias":true,"kernel_initializer":{"class_name":"VarianceScaling","config":{"scale":1,"mode":"fan_avg","distribution":"normal","seed":null}},"bias_initializer":{"class_name":"Zeros","config":{}},"kernel_regularizer":null,"bias_regularizer":null,"activity_regularizer":null,"kernel_constraint":null,"bias_constraint":null,"name":"dense_Dense4926","trainable":true},"inbound_nodes":[[["dense_Dense4925",0,0,{}]]]}],"input_layers":[["input821",0,0]],"output_layers":[["dense_Dense4926",0,0]]},"keras_version":"tfjs-layers 3.9.0","backend":"tensor_flow.js"},"weightsManifest":[{"paths":["weights.bin"],"weights":[{"name":"dense_Dense4921/kernel","shape":[3,32],"dtype":"float32"},{"name":"dense_Dense4921/bias","shape":[32],"dtype":"float32"},{"name":"dense_Dense4922/kernel","shape":[32,8],"dtype":"float32"},{"name":"dense_Dense4922/bias","shape":[8],"dtype":"float32"},{"name":"dense_Dense4923/kernel","shape":[8,16],"dtype":"float32"},{"name":"dense_Dense4923/bias","shape":[16],"dtype":"float32"},{"name":"dense_Dense4924/kernel","shape":[16,16],"dtype":"float32"},{"name":"dense_Dense4924/bias","shape":[16],"dtype":"float32"},{"name":"dense_Dense4925/kernel","shape":[16,16],"dtype":"float32"},{"name":"dense_Dense4925/bias","shape":[16],"dtype":"float32"},{"name":"dense_Dense4926/kernel","shape":[16,1],"dtype":"float32"},{"name":"dense_Dense4926/bias","shape":[1],"dtype":"float32"}]}]}