{"modelTopology":{"class_name":"Model","config":{"name":"model1142","layers":[{"name":"input1142","class_name":"InputLayer","config":{"batch_input_shape":[null,3],"dtype":"float32","sparse":false,"name":"input1142"},"inbound_nodes":[]},{"name":"dense_Dense6847","class_name":"Dense","config":{"units":8,"activation":"relu","use_bias":true,"kernel_initializer":{"class_name":"VarianceScaling","config":{"scale":1,"mode":"fan_avg","distribution":"normal","seed":null}},"bias_initializer":{"class_name":"Zeros","config":{}},"kernel_regularizer":null,"bias_regularizer":null,"activity_regularizer":null,"kernel_constraint":null,"bias_constraint":null,"name":"dense_Dense6847","trainable":true},"inbound_nodes":[[["input1142",0,0,{}]]]},{"name":"dense_Dense6848","class_name":"Dense","config":{"units":32,"activation":"relu","use_bias":true,"kernel_initializer":{"class_name":"VarianceScaling","config":{"scale":1,"mode":"fan_avg","distribution":"normal","seed":null}},"bias_initializer":{"class_name":"Zeros","config":{}},"kernel_regularizer":null,"bias_regularizer":null,"activity_regularizer":null,"kernel_constraint":null,"bias_constraint":null,"name":"dense_Dense6848","trainable":true},"inbound_nodes":[[["dense_Dense6847",0,0,{}]]]},{"name":"dense_Dense6849","class_name":"Dense","config":{"units":2,"activation":"relu","use_bias":true,"kernel_initializer":{"class_name":"VarianceScaling","config":{"scale":1,"mode":"fan_avg","distribution":"normal","seed":null}},"bias_initializer":{"class_name":"Zeros","config":{}},"kernel_regularizer":null,"bias_regularizer":null,"activity_regularizer":null,"kernel_constraint":null,"bias_constraint":null,"name":"dense_Dense6849","trainable":true},"inbound_nodes":[[["dense_Dense6848",0,0,{}]]]},{"name":"dense_Dense6850","class_name":"Dense","config":{"units":16,"activation":"relu","use_bias":true,"kernel_initializer":{"class_name":"VarianceScaling","config":{"scale":1,"mode":"fan_avg","distribution":"normal","seed":null}},"bias_initializer":{"class_name":"Zeros","config":{}},"kernel_regularizer":null,"bias_regularizer":null,"activity_regularizer":null,"kernel_constraint":null,"bias_constraint":null,"name":"dense_Dense6850","trainable":true},"inbound_nodes":[[["dense_Dense6849",0,0,{}]]]},{"name":"dense_Dense6851","class_name":"Dense","config":{"units":2,"activation":"relu","use_bias":true,"kernel_initializer":{"class_name":"VarianceScaling","config":{"scale":1,"mode":"fan_avg","distribution":"normal","seed":null}},"bias_initializer":{"class_name":"Zeros","config":{}},"kernel_regularizer":null,"bias_regularizer":null,"activity_regularizer":null,"kernel_constraint":null,"bias_constraint":null,"name":"dense_Dense6851","trainable":true},"inbound_nodes":[[["dense_Dense6850",0,0,{}]]]},{"name":"dense_Dense6852","class_name":"Dense","config":{"units":1,"activation":"sigmoid","use_bias":true,"kernel_initializer":{"class_name":"VarianceScaling","config":{"scale":1,"mode":"fan_avg","distribution":"normal","seed":null}},"bias_initializer":{"class_name":"Zeros","config":{}},"kernel_regularizer":null,"bias_regularizer":null,"activity_regularizer":null,"kernel_constraint":null,"bias_constraint":null,"name":"dense_Dense6852","trainable":true},"inbound_nodes":[[["dense_Dense6851",0,0,{}]]]}],"input_layers":[["input1142",0,0]],"output_layers":[["dense_Dense6852",0,0]]},"keras_version":"tfjs-layers 3.9.0","backend":"tensor_flow.js"},"weightsManifest":[{"paths":["weights.bin"],"weights":[{"name":"dense_Dense6847/kernel","shape":[3,8],"dtype":"float32"},{"name":"dense_Dense6847/bias","shape":[8],"dtype":"float32"},{"name":"dense_Dense6848/kernel","shape":[8,32],"dtype":"float32"},{"name":"dense_Dense6848/bias","shape":[32],"dtype":"float32"},{"name":"dense_Dense6849/kernel","shape":[32,2],"dtype":"float32"},{"name":"dense_Dense6849/bias","shape":[2],"dtype":"float32"},{"name":"dense_Dense6850/kernel","shape":[2,16],"dtype":"float32"},{"name":"dense_Dense6850/bias","shape":[16],"dtype":"float32"},{"name":"dense_Dense6851/kernel","shape":[16,2],"dtype":"float32"},{"name":"dense_Dense6851/bias","shape":[2],"dtype":"float32"},{"name":"dense_Dense6852/kernel","shape":[2,1],"dtype":"float32"},{"name":"dense_Dense6852/bias","shape":[1],"dtype":"float32"}]}]}