{"modelTopology":{"class_name":"Model","config":{"name":"model319","layers":[{"name":"input319","class_name":"InputLayer","config":{"batch_input_shape":[null,3],"dtype":"float32","sparse":false,"name":"input319"},"inbound_nodes":[]},{"name":"dense_Dense1909","class_name":"Dense","config":{"units":1,"activation":"relu","use_bias":true,"kernel_initializer":{"class_name":"VarianceScaling","config":{"scale":1,"mode":"fan_avg","distribution":"normal","seed":null}},"bias_initializer":{"class_name":"Zeros","config":{}},"kernel_regularizer":null,"bias_regularizer":null,"activity_regularizer":null,"kernel_constraint":null,"bias_constraint":null,"name":"dense_Dense1909","trainable":true},"inbound_nodes":[[["input319",0,0,{}]]]},{"name":"dense_Dense1910","class_name":"Dense","config":{"units":2,"activation":"relu","use_bias":true,"kernel_initializer":{"class_name":"VarianceScaling","config":{"scale":1,"mode":"fan_avg","distribution":"normal","seed":null}},"bias_initializer":{"class_name":"Zeros","config":{}},"kernel_regularizer":null,"bias_regularizer":null,"activity_regularizer":null,"kernel_constraint":null,"bias_constraint":null,"name":"dense_Dense1910","trainable":true},"inbound_nodes":[[["dense_Dense1909",0,0,{}]]]},{"name":"dense_Dense1911","class_name":"Dense","config":{"units":4,"activation":"relu","use_bias":true,"kernel_initializer":{"class_name":"VarianceScaling","config":{"scale":1,"mode":"fan_avg","distribution":"normal","seed":null}},"bias_initializer":{"class_name":"Zeros","config":{}},"kernel_regularizer":null,"bias_regularizer":null,"activity_regularizer":null,"kernel_constraint":null,"bias_constraint":null,"name":"dense_Dense1911","trainable":true},"inbound_nodes":[[["dense_Dense1910",0,0,{}]]]},{"name":"dense_Dense1912","class_name":"Dense","config":{"units":32,"activation":"relu","use_bias":true,"kernel_initializer":{"class_name":"VarianceScaling","config":{"scale":1,"mode":"fan_avg","distribution":"normal","seed":null}},"bias_initializer":{"class_name":"Zeros","config":{}},"kernel_regularizer":null,"bias_regularizer":null,"activity_regularizer":null,"kernel_constraint":null,"bias_constraint":null,"name":"dense_Dense1912","trainable":true},"inbound_nodes":[[["dense_Dense1911",0,0,{}]]]},{"name":"dense_Dense1913","class_name":"Dense","config":{"units":1,"activation":"relu","use_bias":true,"kernel_initializer":{"class_name":"VarianceScaling","config":{"scale":1,"mode":"fan_avg","distribution":"normal","seed":null}},"bias_initializer":{"class_name":"Zeros","config":{}},"kernel_regularizer":null,"bias_regularizer":null,"activity_regularizer":null,"kernel_constraint":null,"bias_constraint":null,"name":"dense_Dense1913","trainable":true},"inbound_nodes":[[["dense_Dense1912",0,0,{}]]]},{"name":"dense_Dense1914","class_name":"Dense","config":{"units":1,"activation":"sigmoid","use_bias":true,"kernel_initializer":{"class_name":"VarianceScaling","config":{"scale":1,"mode":"fan_avg","distribution":"normal","seed":null}},"bias_initializer":{"class_name":"Zeros","config":{}},"kernel_regularizer":null,"bias_regularizer":null,"activity_regularizer":null,"kernel_constraint":null,"bias_constraint":null,"name":"dense_Dense1914","trainable":true},"inbound_nodes":[[["dense_Dense1913",0,0,{}]]]}],"input_layers":[["input319",0,0]],"output_layers":[["dense_Dense1914",0,0]]},"keras_version":"tfjs-layers 3.9.0","backend":"tensor_flow.js"},"weightsManifest":[{"paths":["weights.bin"],"weights":[{"name":"dense_Dense1909/kernel","shape":[3,1],"dtype":"float32"},{"name":"dense_Dense1909/bias","shape":[1],"dtype":"float32"},{"name":"dense_Dense1910/kernel","shape":[1,2],"dtype":"float32"},{"name":"dense_Dense1910/bias","shape":[2],"dtype":"float32"},{"name":"dense_Dense1911/kernel","shape":[2,4],"dtype":"float32"},{"name":"dense_Dense1911/bias","shape":[4],"dtype":"float32"},{"name":"dense_Dense1912/kernel","shape":[4,32],"dtype":"float32"},{"name":"dense_Dense1912/bias","shape":[32],"dtype":"float32"},{"name":"dense_Dense1913/kernel","shape":[32,1],"dtype":"float32"},{"name":"dense_Dense1913/bias","shape":[1],"dtype":"float32"},{"name":"dense_Dense1914/kernel","shape":[1,1],"dtype":"float32"},{"name":"dense_Dense1914/bias","shape":[1],"dtype":"float32"}]}]}