{"modelTopology":{"class_name":"Model","config":{"name":"model201","layers":[{"name":"input201","class_name":"InputLayer","config":{"batch_input_shape":[null,3],"dtype":"float32","sparse":false,"name":"input201"},"inbound_nodes":[]},{"name":"dense_Dense1201","class_name":"Dense","config":{"units":32,"activation":"relu","use_bias":true,"kernel_initializer":{"class_name":"VarianceScaling","config":{"scale":1,"mode":"fan_avg","distribution":"normal","seed":null}},"bias_initializer":{"class_name":"Zeros","config":{}},"kernel_regularizer":null,"bias_regularizer":null,"activity_regularizer":null,"kernel_constraint":null,"bias_constraint":null,"name":"dense_Dense1201","trainable":true},"inbound_nodes":[[["input201",0,0,{}]]]},{"name":"dense_Dense1202","class_name":"Dense","config":{"units":1,"activation":"relu","use_bias":true,"kernel_initializer":{"class_name":"VarianceScaling","config":{"scale":1,"mode":"fan_avg","distribution":"normal","seed":null}},"bias_initializer":{"class_name":"Zeros","config":{}},"kernel_regularizer":null,"bias_regularizer":null,"activity_regularizer":null,"kernel_constraint":null,"bias_constraint":null,"name":"dense_Dense1202","trainable":true},"inbound_nodes":[[["dense_Dense1201",0,0,{}]]]},{"name":"dense_Dense1203","class_name":"Dense","config":{"units":32,"activation":"relu","use_bias":true,"kernel_initializer":{"class_name":"VarianceScaling","config":{"scale":1,"mode":"fan_avg","distribution":"normal","seed":null}},"bias_initializer":{"class_name":"Zeros","config":{}},"kernel_regularizer":null,"bias_regularizer":null,"activity_regularizer":null,"kernel_constraint":null,"bias_constraint":null,"name":"dense_Dense1203","trainable":true},"inbound_nodes":[[["dense_Dense1202",0,0,{}]]]},{"name":"dense_Dense1204","class_name":"Dense","config":{"units":8,"activation":"relu","use_bias":true,"kernel_initializer":{"class_name":"VarianceScaling","config":{"scale":1,"mode":"fan_avg","distribution":"normal","seed":null}},"bias_initializer":{"class_name":"Zeros","config":{}},"kernel_regularizer":null,"bias_regularizer":null,"activity_regularizer":null,"kernel_constraint":null,"bias_constraint":null,"name":"dense_Dense1204","trainable":true},"inbound_nodes":[[["dense_Dense1203",0,0,{}]]]},{"name":"dense_Dense1205","class_name":"Dense","config":{"units":4,"activation":"relu","use_bias":true,"kernel_initializer":{"class_name":"VarianceScaling","config":{"scale":1,"mode":"fan_avg","distribution":"normal","seed":null}},"bias_initializer":{"class_name":"Zeros","config":{}},"kernel_regularizer":null,"bias_regularizer":null,"activity_regularizer":null,"kernel_constraint":null,"bias_constraint":null,"name":"dense_Dense1205","trainable":true},"inbound_nodes":[[["dense_Dense1204",0,0,{}]]]},{"name":"dense_Dense1206","class_name":"Dense","config":{"units":1,"activation":"sigmoid","use_bias":true,"kernel_initializer":{"class_name":"VarianceScaling","config":{"scale":1,"mode":"fan_avg","distribution":"normal","seed":null}},"bias_initializer":{"class_name":"Zeros","config":{}},"kernel_regularizer":null,"bias_regularizer":null,"activity_regularizer":null,"kernel_constraint":null,"bias_constraint":null,"name":"dense_Dense1206","trainable":true},"inbound_nodes":[[["dense_Dense1205",0,0,{}]]]}],"input_layers":[["input201",0,0]],"output_layers":[["dense_Dense1206",0,0]]},"keras_version":"tfjs-layers 3.9.0","backend":"tensor_flow.js"},"weightsManifest":[{"paths":["weights.bin"],"weights":[{"name":"dense_Dense1201/kernel","shape":[3,32],"dtype":"float32"},{"name":"dense_Dense1201/bias","shape":[32],"dtype":"float32"},{"name":"dense_Dense1202/kernel","shape":[32,1],"dtype":"float32"},{"name":"dense_Dense1202/bias","shape":[1],"dtype":"float32"},{"name":"dense_Dense1203/kernel","shape":[1,32],"dtype":"float32"},{"name":"dense_Dense1203/bias","shape":[32],"dtype":"float32"},{"name":"dense_Dense1204/kernel","shape":[32,8],"dtype":"float32"},{"name":"dense_Dense1204/bias","shape":[8],"dtype":"float32"},{"name":"dense_Dense1205/kernel","shape":[8,4],"dtype":"float32"},{"name":"dense_Dense1205/bias","shape":[4],"dtype":"float32"},{"name":"dense_Dense1206/kernel","shape":[4,1],"dtype":"float32"},{"name":"dense_Dense1206/bias","shape":[1],"dtype":"float32"}]}]}