{"modelTopology":{"class_name":"Model","config":{"name":"model309","layers":[{"name":"input309","class_name":"InputLayer","config":{"batch_input_shape":[null,3],"dtype":"float32","sparse":false,"name":"input309"},"inbound_nodes":[]},{"name":"dense_Dense1541","class_name":"Dense","config":{"units":2,"activation":"relu","use_bias":true,"kernel_initializer":{"class_name":"VarianceScaling","config":{"scale":1,"mode":"fan_avg","distribution":"normal","seed":null}},"bias_initializer":{"class_name":"Zeros","config":{}},"kernel_regularizer":null,"bias_regularizer":null,"activity_regularizer":null,"kernel_constraint":null,"bias_constraint":null,"name":"dense_Dense1541","trainable":true},"inbound_nodes":[[["input309",0,0,{}]]]},{"name":"dense_Dense1542","class_name":"Dense","config":{"units":4,"activation":"relu","use_bias":true,"kernel_initializer":{"class_name":"VarianceScaling","config":{"scale":1,"mode":"fan_avg","distribution":"normal","seed":null}},"bias_initializer":{"class_name":"Zeros","config":{}},"kernel_regularizer":null,"bias_regularizer":null,"activity_regularizer":null,"kernel_constraint":null,"bias_constraint":null,"name":"dense_Dense1542","trainable":true},"inbound_nodes":[[["dense_Dense1541",0,0,{}]]]},{"name":"dense_Dense1543","class_name":"Dense","config":{"units":8,"activation":"relu","use_bias":true,"kernel_initializer":{"class_name":"VarianceScaling","config":{"scale":1,"mode":"fan_avg","distribution":"normal","seed":null}},"bias_initializer":{"class_name":"Zeros","config":{}},"kernel_regularizer":null,"bias_regularizer":null,"activity_regularizer":null,"kernel_constraint":null,"bias_constraint":null,"name":"dense_Dense1543","trainable":true},"inbound_nodes":[[["dense_Dense1542",0,0,{}]]]},{"name":"dense_Dense1544","class_name":"Dense","config":{"units":4,"activation":"relu","use_bias":true,"kernel_initializer":{"class_name":"VarianceScaling","config":{"scale":1,"mode":"fan_avg","distribution":"normal","seed":null}},"bias_initializer":{"class_name":"Zeros","config":{}},"kernel_regularizer":null,"bias_regularizer":null,"activity_regularizer":null,"kernel_constraint":null,"bias_constraint":null,"name":"dense_Dense1544","trainable":true},"inbound_nodes":[[["dense_Dense1543",0,0,{}]]]},{"name":"dense_Dense1545","class_name":"Dense","config":{"units":1,"activation":"sigmoid","use_bias":true,"kernel_initializer":{"class_name":"VarianceScaling","config":{"scale":1,"mode":"fan_avg","distribution":"normal","seed":null}},"bias_initializer":{"class_name":"Zeros","config":{}},"kernel_regularizer":null,"bias_regularizer":null,"activity_regularizer":null,"kernel_constraint":null,"bias_constraint":null,"name":"dense_Dense1545","trainable":true},"inbound_nodes":[[["dense_Dense1544",0,0,{}]]]}],"input_layers":[["input309",0,0]],"output_layers":[["dense_Dense1545",0,0]]},"keras_version":"tfjs-layers 3.9.0","backend":"tensor_flow.js"},"weightsManifest":[{"paths":["weights.bin"],"weights":[{"name":"dense_Dense1541/kernel","shape":[3,2],"dtype":"float32"},{"name":"dense_Dense1541/bias","shape":[2],"dtype":"float32"},{"name":"dense_Dense1542/kernel","shape":[2,4],"dtype":"float32"},{"name":"dense_Dense1542/bias","shape":[4],"dtype":"float32"},{"name":"dense_Dense1543/kernel","shape":[4,8],"dtype":"float32"},{"name":"dense_Dense1543/bias","shape":[8],"dtype":"float32"},{"name":"dense_Dense1544/kernel","shape":[8,4],"dtype":"float32"},{"name":"dense_Dense1544/bias","shape":[4],"dtype":"float32"},{"name":"dense_Dense1545/kernel","shape":[4,1],"dtype":"float32"},{"name":"dense_Dense1545/bias","shape":[1],"dtype":"float32"}]}]}