{"modelTopology":{"class_name":"Model","config":{"name":"model570","layers":[{"name":"input570","class_name":"InputLayer","config":{"batch_input_shape":[null,3],"dtype":"float32","sparse":false,"name":"input570"},"inbound_nodes":[]},{"name":"dense_Dense3415","class_name":"Dense","config":{"units":4,"activation":"relu","use_bias":true,"kernel_initializer":{"class_name":"VarianceScaling","config":{"scale":1,"mode":"fan_avg","distribution":"normal","seed":null}},"bias_initializer":{"class_name":"Zeros","config":{}},"kernel_regularizer":null,"bias_regularizer":null,"activity_regularizer":null,"kernel_constraint":null,"bias_constraint":null,"name":"dense_Dense3415","trainable":true},"inbound_nodes":[[["input570",0,0,{}]]]},{"name":"dense_Dense3416","class_name":"Dense","config":{"units":4,"activation":"relu","use_bias":true,"kernel_initializer":{"class_name":"VarianceScaling","config":{"scale":1,"mode":"fan_avg","distribution":"normal","seed":null}},"bias_initializer":{"class_name":"Zeros","config":{}},"kernel_regularizer":null,"bias_regularizer":null,"activity_regularizer":null,"kernel_constraint":null,"bias_constraint":null,"name":"dense_Dense3416","trainable":true},"inbound_nodes":[[["dense_Dense3415",0,0,{}]]]},{"name":"dense_Dense3417","class_name":"Dense","config":{"units":8,"activation":"relu","use_bias":true,"kernel_initializer":{"class_name":"VarianceScaling","config":{"scale":1,"mode":"fan_avg","distribution":"normal","seed":null}},"bias_initializer":{"class_name":"Zeros","config":{}},"kernel_regularizer":null,"bias_regularizer":null,"activity_regularizer":null,"kernel_constraint":null,"bias_constraint":null,"name":"dense_Dense3417","trainable":true},"inbound_nodes":[[["dense_Dense3416",0,0,{}]]]},{"name":"dense_Dense3418","class_name":"Dense","config":{"units":16,"activation":"relu","use_bias":true,"kernel_initializer":{"class_name":"VarianceScaling","config":{"scale":1,"mode":"fan_avg","distribution":"normal","seed":null}},"bias_initializer":{"class_name":"Zeros","config":{}},"kernel_regularizer":null,"bias_regularizer":null,"activity_regularizer":null,"kernel_constraint":null,"bias_constraint":null,"name":"dense_Dense3418","trainable":true},"inbound_nodes":[[["dense_Dense3417",0,0,{}]]]},{"name":"dense_Dense3419","class_name":"Dense","config":{"units":32,"activation":"relu","use_bias":true,"kernel_initializer":{"class_name":"VarianceScaling","config":{"scale":1,"mode":"fan_avg","distribution":"normal","seed":null}},"bias_initializer":{"class_name":"Zeros","config":{}},"kernel_regularizer":null,"bias_regularizer":null,"activity_regularizer":null,"kernel_constraint":null,"bias_constraint":null,"name":"dense_Dense3419","trainable":true},"inbound_nodes":[[["dense_Dense3418",0,0,{}]]]},{"name":"dense_Dense3420","class_name":"Dense","config":{"units":1,"activation":"sigmoid","use_bias":true,"kernel_initializer":{"class_name":"VarianceScaling","config":{"scale":1,"mode":"fan_avg","distribution":"normal","seed":null}},"bias_initializer":{"class_name":"Zeros","config":{}},"kernel_regularizer":null,"bias_regularizer":null,"activity_regularizer":null,"kernel_constraint":null,"bias_constraint":null,"name":"dense_Dense3420","trainable":true},"inbound_nodes":[[["dense_Dense3419",0,0,{}]]]}],"input_layers":[["input570",0,0]],"output_layers":[["dense_Dense3420",0,0]]},"keras_version":"tfjs-layers 3.9.0","backend":"tensor_flow.js"},"weightsManifest":[{"paths":["weights.bin"],"weights":[{"name":"dense_Dense3415/kernel","shape":[3,4],"dtype":"float32"},{"name":"dense_Dense3415/bias","shape":[4],"dtype":"float32"},{"name":"dense_Dense3416/kernel","shape":[4,4],"dtype":"float32"},{"name":"dense_Dense3416/bias","shape":[4],"dtype":"float32"},{"name":"dense_Dense3417/kernel","shape":[4,8],"dtype":"float32"},{"name":"dense_Dense3417/bias","shape":[8],"dtype":"float32"},{"name":"dense_Dense3418/kernel","shape":[8,16],"dtype":"float32"},{"name":"dense_Dense3418/bias","shape":[16],"dtype":"float32"},{"name":"dense_Dense3419/kernel","shape":[16,32],"dtype":"float32"},{"name":"dense_Dense3419/bias","shape":[32],"dtype":"float32"},{"name":"dense_Dense3420/kernel","shape":[32,1],"dtype":"float32"},{"name":"dense_Dense3420/bias","shape":[1],"dtype":"float32"}]}]}