{"modelTopology":{"class_name":"Model","config":{"name":"model696","layers":[{"name":"input696","class_name":"InputLayer","config":{"batch_input_shape":[null,3],"dtype":"float32","sparse":false,"name":"input696"},"inbound_nodes":[]},{"name":"dense_Dense4171","class_name":"Dense","config":{"units":1,"activation":"relu","use_bias":true,"kernel_initializer":{"class_name":"VarianceScaling","config":{"scale":1,"mode":"fan_avg","distribution":"normal","seed":null}},"bias_initializer":{"class_name":"Zeros","config":{}},"kernel_regularizer":null,"bias_regularizer":null,"activity_regularizer":null,"kernel_constraint":null,"bias_constraint":null,"name":"dense_Dense4171","trainable":true},"inbound_nodes":[[["input696",0,0,{}]]]},{"name":"dense_Dense4172","class_name":"Dense","config":{"units":8,"activation":"relu","use_bias":true,"kernel_initializer":{"class_name":"VarianceScaling","config":{"scale":1,"mode":"fan_avg","distribution":"normal","seed":null}},"bias_initializer":{"class_name":"Zeros","config":{}},"kernel_regularizer":null,"bias_regularizer":null,"activity_regularizer":null,"kernel_constraint":null,"bias_constraint":null,"name":"dense_Dense4172","trainable":true},"inbound_nodes":[[["dense_Dense4171",0,0,{}]]]},{"name":"dense_Dense4173","class_name":"Dense","config":{"units":2,"activation":"relu","use_bias":true,"kernel_initializer":{"class_name":"VarianceScaling","config":{"scale":1,"mode":"fan_avg","distribution":"normal","seed":null}},"bias_initializer":{"class_name":"Zeros","config":{}},"kernel_regularizer":null,"bias_regularizer":null,"activity_regularizer":null,"kernel_constraint":null,"bias_constraint":null,"name":"dense_Dense4173","trainable":true},"inbound_nodes":[[["dense_Dense4172",0,0,{}]]]},{"name":"dense_Dense4174","class_name":"Dense","config":{"units":2,"activation":"relu","use_bias":true,"kernel_initializer":{"class_name":"VarianceScaling","config":{"scale":1,"mode":"fan_avg","distribution":"normal","seed":null}},"bias_initializer":{"class_name":"Zeros","config":{}},"kernel_regularizer":null,"bias_regularizer":null,"activity_regularizer":null,"kernel_constraint":null,"bias_constraint":null,"name":"dense_Dense4174","trainable":true},"inbound_nodes":[[["dense_Dense4173",0,0,{}]]]},{"name":"dense_Dense4175","class_name":"Dense","config":{"units":32,"activation":"relu","use_bias":true,"kernel_initializer":{"class_name":"VarianceScaling","config":{"scale":1,"mode":"fan_avg","distribution":"normal","seed":null}},"bias_initializer":{"class_name":"Zeros","config":{}},"kernel_regularizer":null,"bias_regularizer":null,"activity_regularizer":null,"kernel_constraint":null,"bias_constraint":null,"name":"dense_Dense4175","trainable":true},"inbound_nodes":[[["dense_Dense4174",0,0,{}]]]},{"name":"dense_Dense4176","class_name":"Dense","config":{"units":1,"activation":"sigmoid","use_bias":true,"kernel_initializer":{"class_name":"VarianceScaling","config":{"scale":1,"mode":"fan_avg","distribution":"normal","seed":null}},"bias_initializer":{"class_name":"Zeros","config":{}},"kernel_regularizer":null,"bias_regularizer":null,"activity_regularizer":null,"kernel_constraint":null,"bias_constraint":null,"name":"dense_Dense4176","trainable":true},"inbound_nodes":[[["dense_Dense4175",0,0,{}]]]}],"input_layers":[["input696",0,0]],"output_layers":[["dense_Dense4176",0,0]]},"keras_version":"tfjs-layers 3.9.0","backend":"tensor_flow.js"},"weightsManifest":[{"paths":["weights.bin"],"weights":[{"name":"dense_Dense4171/kernel","shape":[3,1],"dtype":"float32"},{"name":"dense_Dense4171/bias","shape":[1],"dtype":"float32"},{"name":"dense_Dense4172/kernel","shape":[1,8],"dtype":"float32"},{"name":"dense_Dense4172/bias","shape":[8],"dtype":"float32"},{"name":"dense_Dense4173/kernel","shape":[8,2],"dtype":"float32"},{"name":"dense_Dense4173/bias","shape":[2],"dtype":"float32"},{"name":"dense_Dense4174/kernel","shape":[2,2],"dtype":"float32"},{"name":"dense_Dense4174/bias","shape":[2],"dtype":"float32"},{"name":"dense_Dense4175/kernel","shape":[2,32],"dtype":"float32"},{"name":"dense_Dense4175/bias","shape":[32],"dtype":"float32"},{"name":"dense_Dense4176/kernel","shape":[32,1],"dtype":"float32"},{"name":"dense_Dense4176/bias","shape":[1],"dtype":"float32"}]}]}