{"modelTopology":{"class_name":"Model","config":{"name":"model927","layers":[{"name":"input927","class_name":"InputLayer","config":{"batch_input_shape":[null,3],"dtype":"float32","sparse":false,"name":"input927"},"inbound_nodes":[]},{"name":"dense_Dense4631","class_name":"Dense","config":{"units":16,"activation":"relu","use_bias":true,"kernel_initializer":{"class_name":"VarianceScaling","config":{"scale":1,"mode":"fan_avg","distribution":"normal","seed":null}},"bias_initializer":{"class_name":"Zeros","config":{}},"kernel_regularizer":null,"bias_regularizer":null,"activity_regularizer":null,"kernel_constraint":null,"bias_constraint":null,"name":"dense_Dense4631","trainable":true},"inbound_nodes":[[["input927",0,0,{}]]]},{"name":"dense_Dense4632","class_name":"Dense","config":{"units":2,"activation":"relu","use_bias":true,"kernel_initializer":{"class_name":"VarianceScaling","config":{"scale":1,"mode":"fan_avg","distribution":"normal","seed":null}},"bias_initializer":{"class_name":"Zeros","config":{}},"kernel_regularizer":null,"bias_regularizer":null,"activity_regularizer":null,"kernel_constraint":null,"bias_constraint":null,"name":"dense_Dense4632","trainable":true},"inbound_nodes":[[["dense_Dense4631",0,0,{}]]]},{"name":"dense_Dense4633","class_name":"Dense","config":{"units":16,"activation":"relu","use_bias":true,"kernel_initializer":{"class_name":"VarianceScaling","config":{"scale":1,"mode":"fan_avg","distribution":"normal","seed":null}},"bias_initializer":{"class_name":"Zeros","config":{}},"kernel_regularizer":null,"bias_regularizer":null,"activity_regularizer":null,"kernel_constraint":null,"bias_constraint":null,"name":"dense_Dense4633","trainable":true},"inbound_nodes":[[["dense_Dense4632",0,0,{}]]]},{"name":"dense_Dense4634","class_name":"Dense","config":{"units":4,"activation":"relu","use_bias":true,"kernel_initializer":{"class_name":"VarianceScaling","config":{"scale":1,"mode":"fan_avg","distribution":"normal","seed":null}},"bias_initializer":{"class_name":"Zeros","config":{}},"kernel_regularizer":null,"bias_regularizer":null,"activity_regularizer":null,"kernel_constraint":null,"bias_constraint":null,"name":"dense_Dense4634","trainable":true},"inbound_nodes":[[["dense_Dense4633",0,0,{}]]]},{"name":"dense_Dense4635","class_name":"Dense","config":{"units":1,"activation":"sigmoid","use_bias":true,"kernel_initializer":{"class_name":"VarianceScaling","config":{"scale":1,"mode":"fan_avg","distribution":"normal","seed":null}},"bias_initializer":{"class_name":"Zeros","config":{}},"kernel_regularizer":null,"bias_regularizer":null,"activity_regularizer":null,"kernel_constraint":null,"bias_constraint":null,"name":"dense_Dense4635","trainable":true},"inbound_nodes":[[["dense_Dense4634",0,0,{}]]]}],"input_layers":[["input927",0,0]],"output_layers":[["dense_Dense4635",0,0]]},"keras_version":"tfjs-layers 3.9.0","backend":"tensor_flow.js"},"weightsManifest":[{"paths":["weights.bin"],"weights":[{"name":"dense_Dense4631/kernel","shape":[3,16],"dtype":"float32"},{"name":"dense_Dense4631/bias","shape":[16],"dtype":"float32"},{"name":"dense_Dense4632/kernel","shape":[16,2],"dtype":"float32"},{"name":"dense_Dense4632/bias","shape":[2],"dtype":"float32"},{"name":"dense_Dense4633/kernel","shape":[2,16],"dtype":"float32"},{"name":"dense_Dense4633/bias","shape":[16],"dtype":"float32"},{"name":"dense_Dense4634/kernel","shape":[16,4],"dtype":"float32"},{"name":"dense_Dense4634/bias","shape":[4],"dtype":"float32"},{"name":"dense_Dense4635/kernel","shape":[4,1],"dtype":"float32"},{"name":"dense_Dense4635/bias","shape":[1],"dtype":"float32"}]}]}