{"modelTopology":{"class_name":"Model","config":{"name":"model89","layers":[{"name":"input89","class_name":"InputLayer","config":{"batch_input_shape":[null,3],"dtype":"float32","sparse":false,"name":"input89"},"inbound_nodes":[]},{"name":"dense_Dense353","class_name":"Dense","config":{"units":4,"activation":"relu","use_bias":true,"kernel_initializer":{"class_name":"VarianceScaling","config":{"scale":1,"mode":"fan_avg","distribution":"normal","seed":null}},"bias_initializer":{"class_name":"Zeros","config":{}},"kernel_regularizer":null,"bias_regularizer":null,"activity_regularizer":null,"kernel_constraint":null,"bias_constraint":null,"name":"dense_Dense353","trainable":true},"inbound_nodes":[[["input89",0,0,{}]]]},{"name":"dense_Dense354","class_name":"Dense","config":{"units":4,"activation":"relu","use_bias":true,"kernel_initializer":{"class_name":"VarianceScaling","config":{"scale":1,"mode":"fan_avg","distribution":"normal","seed":null}},"bias_initializer":{"class_name":"Zeros","config":{}},"kernel_regularizer":null,"bias_regularizer":null,"activity_regularizer":null,"kernel_constraint":null,"bias_constraint":null,"name":"dense_Dense354","trainable":true},"inbound_nodes":[[["dense_Dense353",0,0,{}]]]},{"name":"dense_Dense355","class_name":"Dense","config":{"units":16,"activation":"relu","use_bias":true,"kernel_initializer":{"class_name":"VarianceScaling","config":{"scale":1,"mode":"fan_avg","distribution":"normal","seed":null}},"bias_initializer":{"class_name":"Zeros","config":{}},"kernel_regularizer":null,"bias_regularizer":null,"activity_regularizer":null,"kernel_constraint":null,"bias_constraint":null,"name":"dense_Dense355","trainable":true},"inbound_nodes":[[["dense_Dense354",0,0,{}]]]},{"name":"dense_Dense356","class_name":"Dense","config":{"units":1,"activation":"sigmoid","use_bias":true,"kernel_initializer":{"class_name":"VarianceScaling","config":{"scale":1,"mode":"fan_avg","distribution":"normal","seed":null}},"bias_initializer":{"class_name":"Zeros","config":{}},"kernel_regularizer":null,"bias_regularizer":null,"activity_regularizer":null,"kernel_constraint":null,"bias_constraint":null,"name":"dense_Dense356","trainable":true},"inbound_nodes":[[["dense_Dense355",0,0,{}]]]}],"input_layers":[["input89",0,0]],"output_layers":[["dense_Dense356",0,0]]},"keras_version":"tfjs-layers 3.9.0","backend":"tensor_flow.js"},"weightsManifest":[{"paths":["weights.bin"],"weights":[{"name":"dense_Dense353/kernel","shape":[3,4],"dtype":"float32"},{"name":"dense_Dense353/bias","shape":[4],"dtype":"float32"},{"name":"dense_Dense354/kernel","shape":[4,4],"dtype":"float32"},{"name":"dense_Dense354/bias","shape":[4],"dtype":"float32"},{"name":"dense_Dense355/kernel","shape":[4,16],"dtype":"float32"},{"name":"dense_Dense355/bias","shape":[16],"dtype":"float32"},{"name":"dense_Dense356/kernel","shape":[16,1],"dtype":"float32"},{"name":"dense_Dense356/bias","shape":[1],"dtype":"float32"}]}]}