{"modelTopology":{"class_name":"Model","config":{"name":"model173","layers":[{"name":"input173","class_name":"InputLayer","config":{"batch_input_shape":[null,3],"dtype":"float32","sparse":false,"name":"input173"},"inbound_nodes":[]},{"name":"dense_Dense689","class_name":"Dense","config":{"units":16,"activation":"relu","use_bias":true,"kernel_initializer":{"class_name":"VarianceScaling","config":{"scale":1,"mode":"fan_avg","distribution":"normal","seed":null}},"bias_initializer":{"class_name":"Zeros","config":{}},"kernel_regularizer":null,"bias_regularizer":null,"activity_regularizer":null,"kernel_constraint":null,"bias_constraint":null,"name":"dense_Dense689","trainable":true},"inbound_nodes":[[["input173",0,0,{}]]]},{"name":"dense_Dense690","class_name":"Dense","config":{"units":16,"activation":"relu","use_bias":true,"kernel_initializer":{"class_name":"VarianceScaling","config":{"scale":1,"mode":"fan_avg","distribution":"normal","seed":null}},"bias_initializer":{"class_name":"Zeros","config":{}},"kernel_regularizer":null,"bias_regularizer":null,"activity_regularizer":null,"kernel_constraint":null,"bias_constraint":null,"name":"dense_Dense690","trainable":true},"inbound_nodes":[[["dense_Dense689",0,0,{}]]]},{"name":"dense_Dense691","class_name":"Dense","config":{"units":16,"activation":"relu","use_bias":true,"kernel_initializer":{"class_name":"VarianceScaling","config":{"scale":1,"mode":"fan_avg","distribution":"normal","seed":null}},"bias_initializer":{"class_name":"Zeros","config":{}},"kernel_regularizer":null,"bias_regularizer":null,"activity_regularizer":null,"kernel_constraint":null,"bias_constraint":null,"name":"dense_Dense691","trainable":true},"inbound_nodes":[[["dense_Dense690",0,0,{}]]]},{"name":"dense_Dense692","class_name":"Dense","config":{"units":1,"activation":"sigmoid","use_bias":true,"kernel_initializer":{"class_name":"VarianceScaling","config":{"scale":1,"mode":"fan_avg","distribution":"normal","seed":null}},"bias_initializer":{"class_name":"Zeros","config":{}},"kernel_regularizer":null,"bias_regularizer":null,"activity_regularizer":null,"kernel_constraint":null,"bias_constraint":null,"name":"dense_Dense692","trainable":true},"inbound_nodes":[[["dense_Dense691",0,0,{}]]]}],"input_layers":[["input173",0,0]],"output_layers":[["dense_Dense692",0,0]]},"keras_version":"tfjs-layers 3.9.0","backend":"tensor_flow.js"},"weightsManifest":[{"paths":["weights.bin"],"weights":[{"name":"dense_Dense689/kernel","shape":[3,16],"dtype":"float32"},{"name":"dense_Dense689/bias","shape":[16],"dtype":"float32"},{"name":"dense_Dense690/kernel","shape":[16,16],"dtype":"float32"},{"name":"dense_Dense690/bias","shape":[16],"dtype":"float32"},{"name":"dense_Dense691/kernel","shape":[16,16],"dtype":"float32"},{"name":"dense_Dense691/bias","shape":[16],"dtype":"float32"},{"name":"dense_Dense692/kernel","shape":[16,1],"dtype":"float32"},{"name":"dense_Dense692/bias","shape":[1],"dtype":"float32"}]}]}