{"modelTopology":{"class_name":"Model","config":{"name":"model1269","layers":[{"name":"input1269","class_name":"InputLayer","config":{"batch_input_shape":[null,3],"dtype":"float32","sparse":false,"name":"input1269"},"inbound_nodes":[]},{"name":"dense_Dense7609","class_name":"Dense","config":{"units":4,"activation":"relu","use_bias":true,"kernel_initializer":{"class_name":"VarianceScaling","config":{"scale":1,"mode":"fan_avg","distribution":"normal","seed":null}},"bias_initializer":{"class_name":"Zeros","config":{}},"kernel_regularizer":null,"bias_regularizer":null,"activity_regularizer":null,"kernel_constraint":null,"bias_constraint":null,"name":"dense_Dense7609","trainable":true},"inbound_nodes":[[["input1269",0,0,{}]]]},{"name":"dense_Dense7610","class_name":"Dense","config":{"units":32,"activation":"relu","use_bias":true,"kernel_initializer":{"class_name":"VarianceScaling","config":{"scale":1,"mode":"fan_avg","distribution":"normal","seed":null}},"bias_initializer":{"class_name":"Zeros","config":{}},"kernel_regularizer":null,"bias_regularizer":null,"activity_regularizer":null,"kernel_constraint":null,"bias_constraint":null,"name":"dense_Dense7610","trainable":true},"inbound_nodes":[[["dense_Dense7609",0,0,{}]]]},{"name":"dense_Dense7611","class_name":"Dense","config":{"units":32,"activation":"relu","use_bias":true,"kernel_initializer":{"class_name":"VarianceScaling","config":{"scale":1,"mode":"fan_avg","distribution":"normal","seed":null}},"bias_initializer":{"class_name":"Zeros","config":{}},"kernel_regularizer":null,"bias_regularizer":null,"activity_regularizer":null,"kernel_constraint":null,"bias_constraint":null,"name":"dense_Dense7611","trainable":true},"inbound_nodes":[[["dense_Dense7610",0,0,{}]]]},{"name":"dense_Dense7612","class_name":"Dense","config":{"units":2,"activation":"relu","use_bias":true,"kernel_initializer":{"class_name":"VarianceScaling","config":{"scale":1,"mode":"fan_avg","distribution":"normal","seed":null}},"bias_initializer":{"class_name":"Zeros","config":{}},"kernel_regularizer":null,"bias_regularizer":null,"activity_regularizer":null,"kernel_constraint":null,"bias_constraint":null,"name":"dense_Dense7612","trainable":true},"inbound_nodes":[[["dense_Dense7611",0,0,{}]]]},{"name":"dense_Dense7613","class_name":"Dense","config":{"units":4,"activation":"relu","use_bias":true,"kernel_initializer":{"class_name":"VarianceScaling","config":{"scale":1,"mode":"fan_avg","distribution":"normal","seed":null}},"bias_initializer":{"class_name":"Zeros","config":{}},"kernel_regularizer":null,"bias_regularizer":null,"activity_regularizer":null,"kernel_constraint":null,"bias_constraint":null,"name":"dense_Dense7613","trainable":true},"inbound_nodes":[[["dense_Dense7612",0,0,{}]]]},{"name":"dense_Dense7614","class_name":"Dense","config":{"units":1,"activation":"sigmoid","use_bias":true,"kernel_initializer":{"class_name":"VarianceScaling","config":{"scale":1,"mode":"fan_avg","distribution":"normal","seed":null}},"bias_initializer":{"class_name":"Zeros","config":{}},"kernel_regularizer":null,"bias_regularizer":null,"activity_regularizer":null,"kernel_constraint":null,"bias_constraint":null,"name":"dense_Dense7614","trainable":true},"inbound_nodes":[[["dense_Dense7613",0,0,{}]]]}],"input_layers":[["input1269",0,0]],"output_layers":[["dense_Dense7614",0,0]]},"keras_version":"tfjs-layers 3.9.0","backend":"tensor_flow.js"},"weightsManifest":[{"paths":["weights.bin"],"weights":[{"name":"dense_Dense7609/kernel","shape":[3,4],"dtype":"float32"},{"name":"dense_Dense7609/bias","shape":[4],"dtype":"float32"},{"name":"dense_Dense7610/kernel","shape":[4,32],"dtype":"float32"},{"name":"dense_Dense7610/bias","shape":[32],"dtype":"float32"},{"name":"dense_Dense7611/kernel","shape":[32,32],"dtype":"float32"},{"name":"dense_Dense7611/bias","shape":[32],"dtype":"float32"},{"name":"dense_Dense7612/kernel","shape":[32,2],"dtype":"float32"},{"name":"dense_Dense7612/bias","shape":[2],"dtype":"float32"},{"name":"dense_Dense7613/kernel","shape":[2,4],"dtype":"float32"},{"name":"dense_Dense7613/bias","shape":[4],"dtype":"float32"},{"name":"dense_Dense7614/kernel","shape":[4,1],"dtype":"float32"},{"name":"dense_Dense7614/bias","shape":[1],"dtype":"float32"}]}]}