{"modelTopology":{"class_name":"Model","config":{"name":"model1271","layers":[{"name":"input1271","class_name":"InputLayer","config":{"batch_input_shape":[null,3],"dtype":"float32","sparse":false,"name":"input1271"},"inbound_nodes":[]},{"name":"dense_Dense7621","class_name":"Dense","config":{"units":32,"activation":"relu","use_bias":true,"kernel_initializer":{"class_name":"VarianceScaling","config":{"scale":1,"mode":"fan_avg","distribution":"normal","seed":null}},"bias_initializer":{"class_name":"Zeros","config":{}},"kernel_regularizer":null,"bias_regularizer":null,"activity_regularizer":null,"kernel_constraint":null,"bias_constraint":null,"name":"dense_Dense7621","trainable":true},"inbound_nodes":[[["input1271",0,0,{}]]]},{"name":"dense_Dense7622","class_name":"Dense","config":{"units":32,"activation":"relu","use_bias":true,"kernel_initializer":{"class_name":"VarianceScaling","config":{"scale":1,"mode":"fan_avg","distribution":"normal","seed":null}},"bias_initializer":{"class_name":"Zeros","config":{}},"kernel_regularizer":null,"bias_regularizer":null,"activity_regularizer":null,"kernel_constraint":null,"bias_constraint":null,"name":"dense_Dense7622","trainable":true},"inbound_nodes":[[["dense_Dense7621",0,0,{}]]]},{"name":"dense_Dense7623","class_name":"Dense","config":{"units":32,"activation":"relu","use_bias":true,"kernel_initializer":{"class_name":"VarianceScaling","config":{"scale":1,"mode":"fan_avg","distribution":"normal","seed":null}},"bias_initializer":{"class_name":"Zeros","config":{}},"kernel_regularizer":null,"bias_regularizer":null,"activity_regularizer":null,"kernel_constraint":null,"bias_constraint":null,"name":"dense_Dense7623","trainable":true},"inbound_nodes":[[["dense_Dense7622",0,0,{}]]]},{"name":"dense_Dense7624","class_name":"Dense","config":{"units":2,"activation":"relu","use_bias":true,"kernel_initializer":{"class_name":"VarianceScaling","config":{"scale":1,"mode":"fan_avg","distribution":"normal","seed":null}},"bias_initializer":{"class_name":"Zeros","config":{}},"kernel_regularizer":null,"bias_regularizer":null,"activity_regularizer":null,"kernel_constraint":null,"bias_constraint":null,"name":"dense_Dense7624","trainable":true},"inbound_nodes":[[["dense_Dense7623",0,0,{}]]]},{"name":"dense_Dense7625","class_name":"Dense","config":{"units":16,"activation":"relu","use_bias":true,"kernel_initializer":{"class_name":"VarianceScaling","config":{"scale":1,"mode":"fan_avg","distribution":"normal","seed":null}},"bias_initializer":{"class_name":"Zeros","config":{}},"kernel_regularizer":null,"bias_regularizer":null,"activity_regularizer":null,"kernel_constraint":null,"bias_constraint":null,"name":"dense_Dense7625","trainable":true},"inbound_nodes":[[["dense_Dense7624",0,0,{}]]]},{"name":"dense_Dense7626","class_name":"Dense","config":{"units":1,"activation":"sigmoid","use_bias":true,"kernel_initializer":{"class_name":"VarianceScaling","config":{"scale":1,"mode":"fan_avg","distribution":"normal","seed":null}},"bias_initializer":{"class_name":"Zeros","config":{}},"kernel_regularizer":null,"bias_regularizer":null,"activity_regularizer":null,"kernel_constraint":null,"bias_constraint":null,"name":"dense_Dense7626","trainable":true},"inbound_nodes":[[["dense_Dense7625",0,0,{}]]]}],"input_layers":[["input1271",0,0]],"output_layers":[["dense_Dense7626",0,0]]},"keras_version":"tfjs-layers 3.9.0","backend":"tensor_flow.js"},"weightsManifest":[{"paths":["weights.bin"],"weights":[{"name":"dense_Dense7621/kernel","shape":[3,32],"dtype":"float32"},{"name":"dense_Dense7621/bias","shape":[32],"dtype":"float32"},{"name":"dense_Dense7622/kernel","shape":[32,32],"dtype":"float32"},{"name":"dense_Dense7622/bias","shape":[32],"dtype":"float32"},{"name":"dense_Dense7623/kernel","shape":[32,32],"dtype":"float32"},{"name":"dense_Dense7623/bias","shape":[32],"dtype":"float32"},{"name":"dense_Dense7624/kernel","shape":[32,2],"dtype":"float32"},{"name":"dense_Dense7624/bias","shape":[2],"dtype":"float32"},{"name":"dense_Dense7625/kernel","shape":[2,16],"dtype":"float32"},{"name":"dense_Dense7625/bias","shape":[16],"dtype":"float32"},{"name":"dense_Dense7626/kernel","shape":[16,1],"dtype":"float32"},{"name":"dense_Dense7626/bias","shape":[1],"dtype":"float32"}]}]}