{"modelTopology":{"class_name":"Model","config":{"name":"model1212","layers":[{"name":"input1212","class_name":"InputLayer","config":{"batch_input_shape":[null,3],"dtype":"float32","sparse":false,"name":"input1212"},"inbound_nodes":[]},{"name":"dense_Dense7267","class_name":"Dense","config":{"units":8,"activation":"relu","use_bias":true,"kernel_initializer":{"class_name":"VarianceScaling","config":{"scale":1,"mode":"fan_avg","distribution":"normal","seed":null}},"bias_initializer":{"class_name":"Zeros","config":{}},"kernel_regularizer":null,"bias_regularizer":null,"activity_regularizer":null,"kernel_constraint":null,"bias_constraint":null,"name":"dense_Dense7267","trainable":true},"inbound_nodes":[[["input1212",0,0,{}]]]},{"name":"dense_Dense7268","class_name":"Dense","config":{"units":32,"activation":"relu","use_bias":true,"kernel_initializer":{"class_name":"VarianceScaling","config":{"scale":1,"mode":"fan_avg","distribution":"normal","seed":null}},"bias_initializer":{"class_name":"Zeros","config":{}},"kernel_regularizer":null,"bias_regularizer":null,"activity_regularizer":null,"kernel_constraint":null,"bias_constraint":null,"name":"dense_Dense7268","trainable":true},"inbound_nodes":[[["dense_Dense7267",0,0,{}]]]},{"name":"dense_Dense7269","class_name":"Dense","config":{"units":8,"activation":"relu","use_bias":true,"kernel_initializer":{"class_name":"VarianceScaling","config":{"scale":1,"mode":"fan_avg","distribution":"normal","seed":null}},"bias_initializer":{"class_name":"Zeros","config":{}},"kernel_regularizer":null,"bias_regularizer":null,"activity_regularizer":null,"kernel_constraint":null,"bias_constraint":null,"name":"dense_Dense7269","trainable":true},"inbound_nodes":[[["dense_Dense7268",0,0,{}]]]},{"name":"dense_Dense7270","class_name":"Dense","config":{"units":8,"activation":"relu","use_bias":true,"kernel_initializer":{"class_name":"VarianceScaling","config":{"scale":1,"mode":"fan_avg","distribution":"normal","seed":null}},"bias_initializer":{"class_name":"Zeros","config":{}},"kernel_regularizer":null,"bias_regularizer":null,"activity_regularizer":null,"kernel_constraint":null,"bias_constraint":null,"name":"dense_Dense7270","trainable":true},"inbound_nodes":[[["dense_Dense7269",0,0,{}]]]},{"name":"dense_Dense7271","class_name":"Dense","config":{"units":32,"activation":"relu","use_bias":true,"kernel_initializer":{"class_name":"VarianceScaling","config":{"scale":1,"mode":"fan_avg","distribution":"normal","seed":null}},"bias_initializer":{"class_name":"Zeros","config":{}},"kernel_regularizer":null,"bias_regularizer":null,"activity_regularizer":null,"kernel_constraint":null,"bias_constraint":null,"name":"dense_Dense7271","trainable":true},"inbound_nodes":[[["dense_Dense7270",0,0,{}]]]},{"name":"dense_Dense7272","class_name":"Dense","config":{"units":1,"activation":"sigmoid","use_bias":true,"kernel_initializer":{"class_name":"VarianceScaling","config":{"scale":1,"mode":"fan_avg","distribution":"normal","seed":null}},"bias_initializer":{"class_name":"Zeros","config":{}},"kernel_regularizer":null,"bias_regularizer":null,"activity_regularizer":null,"kernel_constraint":null,"bias_constraint":null,"name":"dense_Dense7272","trainable":true},"inbound_nodes":[[["dense_Dense7271",0,0,{}]]]}],"input_layers":[["input1212",0,0]],"output_layers":[["dense_Dense7272",0,0]]},"keras_version":"tfjs-layers 3.9.0","backend":"tensor_flow.js"},"weightsManifest":[{"paths":["weights.bin"],"weights":[{"name":"dense_Dense7267/kernel","shape":[3,8],"dtype":"float32"},{"name":"dense_Dense7267/bias","shape":[8],"dtype":"float32"},{"name":"dense_Dense7268/kernel","shape":[8,32],"dtype":"float32"},{"name":"dense_Dense7268/bias","shape":[32],"dtype":"float32"},{"name":"dense_Dense7269/kernel","shape":[32,8],"dtype":"float32"},{"name":"dense_Dense7269/bias","shape":[8],"dtype":"float32"},{"name":"dense_Dense7270/kernel","shape":[8,8],"dtype":"float32"},{"name":"dense_Dense7270/bias","shape":[8],"dtype":"float32"},{"name":"dense_Dense7271/kernel","shape":[8,32],"dtype":"float32"},{"name":"dense_Dense7271/bias","shape":[32],"dtype":"float32"},{"name":"dense_Dense7272/kernel","shape":[32,1],"dtype":"float32"},{"name":"dense_Dense7272/bias","shape":[1],"dtype":"float32"}]}]}