{"modelTopology":{"class_name":"Model","config":{"name":"model1222","layers":[{"name":"input1222","class_name":"InputLayer","config":{"batch_input_shape":[null,3],"dtype":"float32","sparse":false,"name":"input1222"},"inbound_nodes":[]},{"name":"dense_Dense7327","class_name":"Dense","config":{"units":2,"activation":"relu","use_bias":true,"kernel_initializer":{"class_name":"VarianceScaling","config":{"scale":1,"mode":"fan_avg","distribution":"normal","seed":null}},"bias_initializer":{"class_name":"Zeros","config":{}},"kernel_regularizer":null,"bias_regularizer":null,"activity_regularizer":null,"kernel_constraint":null,"bias_constraint":null,"name":"dense_Dense7327","trainable":true},"inbound_nodes":[[["input1222",0,0,{}]]]},{"name":"dense_Dense7328","class_name":"Dense","config":{"units":32,"activation":"relu","use_bias":true,"kernel_initializer":{"class_name":"VarianceScaling","config":{"scale":1,"mode":"fan_avg","distribution":"normal","seed":null}},"bias_initializer":{"class_name":"Zeros","config":{}},"kernel_regularizer":null,"bias_regularizer":null,"activity_regularizer":null,"kernel_constraint":null,"bias_constraint":null,"name":"dense_Dense7328","trainable":true},"inbound_nodes":[[["dense_Dense7327",0,0,{}]]]},{"name":"dense_Dense7329","class_name":"Dense","config":{"units":8,"activation":"relu","use_bias":true,"kernel_initializer":{"class_name":"VarianceScaling","config":{"scale":1,"mode":"fan_avg","distribution":"normal","seed":null}},"bias_initializer":{"class_name":"Zeros","config":{}},"kernel_regularizer":null,"bias_regularizer":null,"activity_regularizer":null,"kernel_constraint":null,"bias_constraint":null,"name":"dense_Dense7329","trainable":true},"inbound_nodes":[[["dense_Dense7328",0,0,{}]]]},{"name":"dense_Dense7330","class_name":"Dense","config":{"units":32,"activation":"relu","use_bias":true,"kernel_initializer":{"class_name":"VarianceScaling","config":{"scale":1,"mode":"fan_avg","distribution":"normal","seed":null}},"bias_initializer":{"class_name":"Zeros","config":{}},"kernel_regularizer":null,"bias_regularizer":null,"activity_regularizer":null,"kernel_constraint":null,"bias_constraint":null,"name":"dense_Dense7330","trainable":true},"inbound_nodes":[[["dense_Dense7329",0,0,{}]]]},{"name":"dense_Dense7331","class_name":"Dense","config":{"units":8,"activation":"relu","use_bias":true,"kernel_initializer":{"class_name":"VarianceScaling","config":{"scale":1,"mode":"fan_avg","distribution":"normal","seed":null}},"bias_initializer":{"class_name":"Zeros","config":{}},"kernel_regularizer":null,"bias_regularizer":null,"activity_regularizer":null,"kernel_constraint":null,"bias_constraint":null,"name":"dense_Dense7331","trainable":true},"inbound_nodes":[[["dense_Dense7330",0,0,{}]]]},{"name":"dense_Dense7332","class_name":"Dense","config":{"units":1,"activation":"sigmoid","use_bias":true,"kernel_initializer":{"class_name":"VarianceScaling","config":{"scale":1,"mode":"fan_avg","distribution":"normal","seed":null}},"bias_initializer":{"class_name":"Zeros","config":{}},"kernel_regularizer":null,"bias_regularizer":null,"activity_regularizer":null,"kernel_constraint":null,"bias_constraint":null,"name":"dense_Dense7332","trainable":true},"inbound_nodes":[[["dense_Dense7331",0,0,{}]]]}],"input_layers":[["input1222",0,0]],"output_layers":[["dense_Dense7332",0,0]]},"keras_version":"tfjs-layers 3.9.0","backend":"tensor_flow.js"},"weightsManifest":[{"paths":["weights.bin"],"weights":[{"name":"dense_Dense7327/kernel","shape":[3,2],"dtype":"float32"},{"name":"dense_Dense7327/bias","shape":[2],"dtype":"float32"},{"name":"dense_Dense7328/kernel","shape":[2,32],"dtype":"float32"},{"name":"dense_Dense7328/bias","shape":[32],"dtype":"float32"},{"name":"dense_Dense7329/kernel","shape":[32,8],"dtype":"float32"},{"name":"dense_Dense7329/bias","shape":[8],"dtype":"float32"},{"name":"dense_Dense7330/kernel","shape":[8,32],"dtype":"float32"},{"name":"dense_Dense7330/bias","shape":[32],"dtype":"float32"},{"name":"dense_Dense7331/kernel","shape":[32,8],"dtype":"float32"},{"name":"dense_Dense7331/bias","shape":[8],"dtype":"float32"},{"name":"dense_Dense7332/kernel","shape":[8,1],"dtype":"float32"},{"name":"dense_Dense7332/bias","shape":[1],"dtype":"float32"}]}]}