{"modelTopology":{"class_name":"Model","config":{"name":"model743","layers":[{"name":"input743","class_name":"InputLayer","config":{"batch_input_shape":[null,3],"dtype":"float32","sparse":false,"name":"input743"},"inbound_nodes":[]},{"name":"dense_Dense3711","class_name":"Dense","config":{"units":8,"activation":"relu","use_bias":true,"kernel_initializer":{"class_name":"VarianceScaling","config":{"scale":1,"mode":"fan_avg","distribution":"normal","seed":null}},"bias_initializer":{"class_name":"Zeros","config":{}},"kernel_regularizer":null,"bias_regularizer":null,"activity_regularizer":null,"kernel_constraint":null,"bias_constraint":null,"name":"dense_Dense3711","trainable":true},"inbound_nodes":[[["input743",0,0,{}]]]},{"name":"dense_Dense3712","class_name":"Dense","config":{"units":4,"activation":"relu","use_bias":true,"kernel_initializer":{"class_name":"VarianceScaling","config":{"scale":1,"mode":"fan_avg","distribution":"normal","seed":null}},"bias_initializer":{"class_name":"Zeros","config":{}},"kernel_regularizer":null,"bias_regularizer":null,"activity_regularizer":null,"kernel_constraint":null,"bias_constraint":null,"name":"dense_Dense3712","trainable":true},"inbound_nodes":[[["dense_Dense3711",0,0,{}]]]},{"name":"dense_Dense3713","class_name":"Dense","config":{"units":8,"activation":"relu","use_bias":true,"kernel_initializer":{"class_name":"VarianceScaling","config":{"scale":1,"mode":"fan_avg","distribution":"normal","seed":null}},"bias_initializer":{"class_name":"Zeros","config":{}},"kernel_regularizer":null,"bias_regularizer":null,"activity_regularizer":null,"kernel_constraint":null,"bias_constraint":null,"name":"dense_Dense3713","trainable":true},"inbound_nodes":[[["dense_Dense3712",0,0,{}]]]},{"name":"dense_Dense3714","class_name":"Dense","config":{"units":16,"activation":"relu","use_bias":true,"kernel_initializer":{"class_name":"VarianceScaling","config":{"scale":1,"mode":"fan_avg","distribution":"normal","seed":null}},"bias_initializer":{"class_name":"Zeros","config":{}},"kernel_regularizer":null,"bias_regularizer":null,"activity_regularizer":null,"kernel_constraint":null,"bias_constraint":null,"name":"dense_Dense3714","trainable":true},"inbound_nodes":[[["dense_Dense3713",0,0,{}]]]},{"name":"dense_Dense3715","class_name":"Dense","config":{"units":1,"activation":"sigmoid","use_bias":true,"kernel_initializer":{"class_name":"VarianceScaling","config":{"scale":1,"mode":"fan_avg","distribution":"normal","seed":null}},"bias_initializer":{"class_name":"Zeros","config":{}},"kernel_regularizer":null,"bias_regularizer":null,"activity_regularizer":null,"kernel_constraint":null,"bias_constraint":null,"name":"dense_Dense3715","trainable":true},"inbound_nodes":[[["dense_Dense3714",0,0,{}]]]}],"input_layers":[["input743",0,0]],"output_layers":[["dense_Dense3715",0,0]]},"keras_version":"tfjs-layers 3.9.0","backend":"tensor_flow.js"},"weightsManifest":[{"paths":["weights.bin"],"weights":[{"name":"dense_Dense3711/kernel","shape":[3,8],"dtype":"float32"},{"name":"dense_Dense3711/bias","shape":[8],"dtype":"float32"},{"name":"dense_Dense3712/kernel","shape":[8,4],"dtype":"float32"},{"name":"dense_Dense3712/bias","shape":[4],"dtype":"float32"},{"name":"dense_Dense3713/kernel","shape":[4,8],"dtype":"float32"},{"name":"dense_Dense3713/bias","shape":[8],"dtype":"float32"},{"name":"dense_Dense3714/kernel","shape":[8,16],"dtype":"float32"},{"name":"dense_Dense3714/bias","shape":[16],"dtype":"float32"},{"name":"dense_Dense3715/kernel","shape":[16,1],"dtype":"float32"},{"name":"dense_Dense3715/bias","shape":[1],"dtype":"float32"}]}]}