{"modelTopology":{"class_name":"Model","config":{"name":"model1127","layers":[{"name":"input1127","class_name":"InputLayer","config":{"batch_input_shape":[null,3],"dtype":"float32","sparse":false,"name":"input1127"},"inbound_nodes":[]},{"name":"dense_Dense6757","class_name":"Dense","config":{"units":32,"activation":"relu","use_bias":true,"kernel_initializer":{"class_name":"VarianceScaling","config":{"scale":1,"mode":"fan_avg","distribution":"normal","seed":null}},"bias_initializer":{"class_name":"Zeros","config":{}},"kernel_regularizer":null,"bias_regularizer":null,"activity_regularizer":null,"kernel_constraint":null,"bias_constraint":null,"name":"dense_Dense6757","trainable":true},"inbound_nodes":[[["input1127",0,0,{}]]]},{"name":"dense_Dense6758","class_name":"Dense","config":{"units":32,"activation":"relu","use_bias":true,"kernel_initializer":{"class_name":"VarianceScaling","config":{"scale":1,"mode":"fan_avg","distribution":"normal","seed":null}},"bias_initializer":{"class_name":"Zeros","config":{}},"kernel_regularizer":null,"bias_regularizer":null,"activity_regularizer":null,"kernel_constraint":null,"bias_constraint":null,"name":"dense_Dense6758","trainable":true},"inbound_nodes":[[["dense_Dense6757",0,0,{}]]]},{"name":"dense_Dense6759","class_name":"Dense","config":{"units":2,"activation":"relu","use_bias":true,"kernel_initializer":{"class_name":"VarianceScaling","config":{"scale":1,"mode":"fan_avg","distribution":"normal","seed":null}},"bias_initializer":{"class_name":"Zeros","config":{}},"kernel_regularizer":null,"bias_regularizer":null,"activity_regularizer":null,"kernel_constraint":null,"bias_constraint":null,"name":"dense_Dense6759","trainable":true},"inbound_nodes":[[["dense_Dense6758",0,0,{}]]]},{"name":"dense_Dense6760","class_name":"Dense","config":{"units":2,"activation":"relu","use_bias":true,"kernel_initializer":{"class_name":"VarianceScaling","config":{"scale":1,"mode":"fan_avg","distribution":"normal","seed":null}},"bias_initializer":{"class_name":"Zeros","config":{}},"kernel_regularizer":null,"bias_regularizer":null,"activity_regularizer":null,"kernel_constraint":null,"bias_constraint":null,"name":"dense_Dense6760","trainable":true},"inbound_nodes":[[["dense_Dense6759",0,0,{}]]]},{"name":"dense_Dense6761","class_name":"Dense","config":{"units":16,"activation":"relu","use_bias":true,"kernel_initializer":{"class_name":"VarianceScaling","config":{"scale":1,"mode":"fan_avg","distribution":"normal","seed":null}},"bias_initializer":{"class_name":"Zeros","config":{}},"kernel_regularizer":null,"bias_regularizer":null,"activity_regularizer":null,"kernel_constraint":null,"bias_constraint":null,"name":"dense_Dense6761","trainable":true},"inbound_nodes":[[["dense_Dense6760",0,0,{}]]]},{"name":"dense_Dense6762","class_name":"Dense","config":{"units":1,"activation":"sigmoid","use_bias":true,"kernel_initializer":{"class_name":"VarianceScaling","config":{"scale":1,"mode":"fan_avg","distribution":"normal","seed":null}},"bias_initializer":{"class_name":"Zeros","config":{}},"kernel_regularizer":null,"bias_regularizer":null,"activity_regularizer":null,"kernel_constraint":null,"bias_constraint":null,"name":"dense_Dense6762","trainable":true},"inbound_nodes":[[["dense_Dense6761",0,0,{}]]]}],"input_layers":[["input1127",0,0]],"output_layers":[["dense_Dense6762",0,0]]},"keras_version":"tfjs-layers 3.9.0","backend":"tensor_flow.js"},"weightsManifest":[{"paths":["weights.bin"],"weights":[{"name":"dense_Dense6757/kernel","shape":[3,32],"dtype":"float32"},{"name":"dense_Dense6757/bias","shape":[32],"dtype":"float32"},{"name":"dense_Dense6758/kernel","shape":[32,32],"dtype":"float32"},{"name":"dense_Dense6758/bias","shape":[32],"dtype":"float32"},{"name":"dense_Dense6759/kernel","shape":[32,2],"dtype":"float32"},{"name":"dense_Dense6759/bias","shape":[2],"dtype":"float32"},{"name":"dense_Dense6760/kernel","shape":[2,2],"dtype":"float32"},{"name":"dense_Dense6760/bias","shape":[2],"dtype":"float32"},{"name":"dense_Dense6761/kernel","shape":[2,16],"dtype":"float32"},{"name":"dense_Dense6761/bias","shape":[16],"dtype":"float32"},{"name":"dense_Dense6762/kernel","shape":[16,1],"dtype":"float32"},{"name":"dense_Dense6762/bias","shape":[1],"dtype":"float32"}]}]}