{"modelTopology":{"class_name":"Model","config":{"name":"model1195","layers":[{"name":"input1195","class_name":"InputLayer","config":{"batch_input_shape":[null,3],"dtype":"float32","sparse":false,"name":"input1195"},"inbound_nodes":[]},{"name":"dense_Dense7165","class_name":"Dense","config":{"units":8,"activation":"relu","use_bias":true,"kernel_initializer":{"class_name":"VarianceScaling","config":{"scale":1,"mode":"fan_avg","distribution":"normal","seed":null}},"bias_initializer":{"class_name":"Zeros","config":{}},"kernel_regularizer":null,"bias_regularizer":null,"activity_regularizer":null,"kernel_constraint":null,"bias_constraint":null,"name":"dense_Dense7165","trainable":true},"inbound_nodes":[[["input1195",0,0,{}]]]},{"name":"dense_Dense7166","class_name":"Dense","config":{"units":32,"activation":"relu","use_bias":true,"kernel_initializer":{"class_name":"VarianceScaling","config":{"scale":1,"mode":"fan_avg","distribution":"normal","seed":null}},"bias_initializer":{"class_name":"Zeros","config":{}},"kernel_regularizer":null,"bias_regularizer":null,"activity_regularizer":null,"kernel_constraint":null,"bias_constraint":null,"name":"dense_Dense7166","trainable":true},"inbound_nodes":[[["dense_Dense7165",0,0,{}]]]},{"name":"dense_Dense7167","class_name":"Dense","config":{"units":8,"activation":"relu","use_bias":true,"kernel_initializer":{"class_name":"VarianceScaling","config":{"scale":1,"mode":"fan_avg","distribution":"normal","seed":null}},"bias_initializer":{"class_name":"Zeros","config":{}},"kernel_regularizer":null,"bias_regularizer":null,"activity_regularizer":null,"kernel_constraint":null,"bias_constraint":null,"name":"dense_Dense7167","trainable":true},"inbound_nodes":[[["dense_Dense7166",0,0,{}]]]},{"name":"dense_Dense7168","class_name":"Dense","config":{"units":2,"activation":"relu","use_bias":true,"kernel_initializer":{"class_name":"VarianceScaling","config":{"scale":1,"mode":"fan_avg","distribution":"normal","seed":null}},"bias_initializer":{"class_name":"Zeros","config":{}},"kernel_regularizer":null,"bias_regularizer":null,"activity_regularizer":null,"kernel_constraint":null,"bias_constraint":null,"name":"dense_Dense7168","trainable":true},"inbound_nodes":[[["dense_Dense7167",0,0,{}]]]},{"name":"dense_Dense7169","class_name":"Dense","config":{"units":1,"activation":"relu","use_bias":true,"kernel_initializer":{"class_name":"VarianceScaling","config":{"scale":1,"mode":"fan_avg","distribution":"normal","seed":null}},"bias_initializer":{"class_name":"Zeros","config":{}},"kernel_regularizer":null,"bias_regularizer":null,"activity_regularizer":null,"kernel_constraint":null,"bias_constraint":null,"name":"dense_Dense7169","trainable":true},"inbound_nodes":[[["dense_Dense7168",0,0,{}]]]},{"name":"dense_Dense7170","class_name":"Dense","config":{"units":1,"activation":"sigmoid","use_bias":true,"kernel_initializer":{"class_name":"VarianceScaling","config":{"scale":1,"mode":"fan_avg","distribution":"normal","seed":null}},"bias_initializer":{"class_name":"Zeros","config":{}},"kernel_regularizer":null,"bias_regularizer":null,"activity_regularizer":null,"kernel_constraint":null,"bias_constraint":null,"name":"dense_Dense7170","trainable":true},"inbound_nodes":[[["dense_Dense7169",0,0,{}]]]}],"input_layers":[["input1195",0,0]],"output_layers":[["dense_Dense7170",0,0]]},"keras_version":"tfjs-layers 3.9.0","backend":"tensor_flow.js"},"weightsManifest":[{"paths":["weights.bin"],"weights":[{"name":"dense_Dense7165/kernel","shape":[3,8],"dtype":"float32"},{"name":"dense_Dense7165/bias","shape":[8],"dtype":"float32"},{"name":"dense_Dense7166/kernel","shape":[8,32],"dtype":"float32"},{"name":"dense_Dense7166/bias","shape":[32],"dtype":"float32"},{"name":"dense_Dense7167/kernel","shape":[32,8],"dtype":"float32"},{"name":"dense_Dense7167/bias","shape":[8],"dtype":"float32"},{"name":"dense_Dense7168/kernel","shape":[8,2],"dtype":"float32"},{"name":"dense_Dense7168/bias","shape":[2],"dtype":"float32"},{"name":"dense_Dense7169/kernel","shape":[2,1],"dtype":"float32"},{"name":"dense_Dense7169/bias","shape":[1],"dtype":"float32"},{"name":"dense_Dense7170/kernel","shape":[1,1],"dtype":"float32"},{"name":"dense_Dense7170/bias","shape":[1],"dtype":"float32"}]}]}