{"modelTopology":{"class_name":"Model","config":{"name":"model1099","layers":[{"name":"input1099","class_name":"InputLayer","config":{"batch_input_shape":[null,3],"dtype":"float32","sparse":false,"name":"input1099"},"inbound_nodes":[]},{"name":"dense_Dense5491","class_name":"Dense","config":{"units":32,"activation":"relu","use_bias":true,"kernel_initializer":{"class_name":"VarianceScaling","config":{"scale":1,"mode":"fan_avg","distribution":"normal","seed":null}},"bias_initializer":{"class_name":"Zeros","config":{}},"kernel_regularizer":null,"bias_regularizer":null,"activity_regularizer":null,"kernel_constraint":null,"bias_constraint":null,"name":"dense_Dense5491","trainable":true},"inbound_nodes":[[["input1099",0,0,{}]]]},{"name":"dense_Dense5492","class_name":"Dense","config":{"units":1,"activation":"relu","use_bias":true,"kernel_initializer":{"class_name":"VarianceScaling","config":{"scale":1,"mode":"fan_avg","distribution":"normal","seed":null}},"bias_initializer":{"class_name":"Zeros","config":{}},"kernel_regularizer":null,"bias_regularizer":null,"activity_regularizer":null,"kernel_constraint":null,"bias_constraint":null,"name":"dense_Dense5492","trainable":true},"inbound_nodes":[[["dense_Dense5491",0,0,{}]]]},{"name":"dense_Dense5493","class_name":"Dense","config":{"units":8,"activation":"relu","use_bias":true,"kernel_initializer":{"class_name":"VarianceScaling","config":{"scale":1,"mode":"fan_avg","distribution":"normal","seed":null}},"bias_initializer":{"class_name":"Zeros","config":{}},"kernel_regularizer":null,"bias_regularizer":null,"activity_regularizer":null,"kernel_constraint":null,"bias_constraint":null,"name":"dense_Dense5493","trainable":true},"inbound_nodes":[[["dense_Dense5492",0,0,{}]]]},{"name":"dense_Dense5494","class_name":"Dense","config":{"units":1,"activation":"relu","use_bias":true,"kernel_initializer":{"class_name":"VarianceScaling","config":{"scale":1,"mode":"fan_avg","distribution":"normal","seed":null}},"bias_initializer":{"class_name":"Zeros","config":{}},"kernel_regularizer":null,"bias_regularizer":null,"activity_regularizer":null,"kernel_constraint":null,"bias_constraint":null,"name":"dense_Dense5494","trainable":true},"inbound_nodes":[[["dense_Dense5493",0,0,{}]]]},{"name":"dense_Dense5495","class_name":"Dense","config":{"units":1,"activation":"sigmoid","use_bias":true,"kernel_initializer":{"class_name":"VarianceScaling","config":{"scale":1,"mode":"fan_avg","distribution":"normal","seed":null}},"bias_initializer":{"class_name":"Zeros","config":{}},"kernel_regularizer":null,"bias_regularizer":null,"activity_regularizer":null,"kernel_constraint":null,"bias_constraint":null,"name":"dense_Dense5495","trainable":true},"inbound_nodes":[[["dense_Dense5494",0,0,{}]]]}],"input_layers":[["input1099",0,0]],"output_layers":[["dense_Dense5495",0,0]]},"keras_version":"tfjs-layers 3.9.0","backend":"tensor_flow.js"},"weightsManifest":[{"paths":["weights.bin"],"weights":[{"name":"dense_Dense5491/kernel","shape":[3,32],"dtype":"float32"},{"name":"dense_Dense5491/bias","shape":[32],"dtype":"float32"},{"name":"dense_Dense5492/kernel","shape":[32,1],"dtype":"float32"},{"name":"dense_Dense5492/bias","shape":[1],"dtype":"float32"},{"name":"dense_Dense5493/kernel","shape":[1,8],"dtype":"float32"},{"name":"dense_Dense5493/bias","shape":[8],"dtype":"float32"},{"name":"dense_Dense5494/kernel","shape":[8,1],"dtype":"float32"},{"name":"dense_Dense5494/bias","shape":[1],"dtype":"float32"},{"name":"dense_Dense5495/kernel","shape":[1,1],"dtype":"float32"},{"name":"dense_Dense5495/bias","shape":[1],"dtype":"float32"}]}]}