{"modelTopology":{"class_name":"Model","config":{"name":"model188","layers":[{"name":"input188","class_name":"InputLayer","config":{"batch_input_shape":[null,3],"dtype":"float32","sparse":false,"name":"input188"},"inbound_nodes":[]},{"name":"dense_Dense936","class_name":"Dense","config":{"units":1,"activation":"relu","use_bias":true,"kernel_initializer":{"class_name":"VarianceScaling","config":{"scale":1,"mode":"fan_avg","distribution":"normal","seed":null}},"bias_initializer":{"class_name":"Zeros","config":{}},"kernel_regularizer":null,"bias_regularizer":null,"activity_regularizer":null,"kernel_constraint":null,"bias_constraint":null,"name":"dense_Dense936","trainable":true},"inbound_nodes":[[["input188",0,0,{}]]]},{"name":"dense_Dense937","class_name":"Dense","config":{"units":32,"activation":"relu","use_bias":true,"kernel_initializer":{"class_name":"VarianceScaling","config":{"scale":1,"mode":"fan_avg","distribution":"normal","seed":null}},"bias_initializer":{"class_name":"Zeros","config":{}},"kernel_regularizer":null,"bias_regularizer":null,"activity_regularizer":null,"kernel_constraint":null,"bias_constraint":null,"name":"dense_Dense937","trainable":true},"inbound_nodes":[[["dense_Dense936",0,0,{}]]]},{"name":"dense_Dense938","class_name":"Dense","config":{"units":2,"activation":"relu","use_bias":true,"kernel_initializer":{"class_name":"VarianceScaling","config":{"scale":1,"mode":"fan_avg","distribution":"normal","seed":null}},"bias_initializer":{"class_name":"Zeros","config":{}},"kernel_regularizer":null,"bias_regularizer":null,"activity_regularizer":null,"kernel_constraint":null,"bias_constraint":null,"name":"dense_Dense938","trainable":true},"inbound_nodes":[[["dense_Dense937",0,0,{}]]]},{"name":"dense_Dense939","class_name":"Dense","config":{"units":2,"activation":"relu","use_bias":true,"kernel_initializer":{"class_name":"VarianceScaling","config":{"scale":1,"mode":"fan_avg","distribution":"normal","seed":null}},"bias_initializer":{"class_name":"Zeros","config":{}},"kernel_regularizer":null,"bias_regularizer":null,"activity_regularizer":null,"kernel_constraint":null,"bias_constraint":null,"name":"dense_Dense939","trainable":true},"inbound_nodes":[[["dense_Dense938",0,0,{}]]]},{"name":"dense_Dense940","class_name":"Dense","config":{"units":1,"activation":"sigmoid","use_bias":true,"kernel_initializer":{"class_name":"VarianceScaling","config":{"scale":1,"mode":"fan_avg","distribution":"normal","seed":null}},"bias_initializer":{"class_name":"Zeros","config":{}},"kernel_regularizer":null,"bias_regularizer":null,"activity_regularizer":null,"kernel_constraint":null,"bias_constraint":null,"name":"dense_Dense940","trainable":true},"inbound_nodes":[[["dense_Dense939",0,0,{}]]]}],"input_layers":[["input188",0,0]],"output_layers":[["dense_Dense940",0,0]]},"keras_version":"tfjs-layers 3.9.0","backend":"tensor_flow.js"},"weightsManifest":[{"paths":["weights.bin"],"weights":[{"name":"dense_Dense936/kernel","shape":[3,1],"dtype":"float32"},{"name":"dense_Dense936/bias","shape":[1],"dtype":"float32"},{"name":"dense_Dense937/kernel","shape":[1,32],"dtype":"float32"},{"name":"dense_Dense937/bias","shape":[32],"dtype":"float32"},{"name":"dense_Dense938/kernel","shape":[32,2],"dtype":"float32"},{"name":"dense_Dense938/bias","shape":[2],"dtype":"float32"},{"name":"dense_Dense939/kernel","shape":[2,2],"dtype":"float32"},{"name":"dense_Dense939/bias","shape":[2],"dtype":"float32"},{"name":"dense_Dense940/kernel","shape":[2,1],"dtype":"float32"},{"name":"dense_Dense940/bias","shape":[1],"dtype":"float32"}]}]}