{"modelTopology":{"class_name":"Model","config":{"name":"model227","layers":[{"name":"input227","class_name":"InputLayer","config":{"batch_input_shape":[null,3],"dtype":"float32","sparse":false,"name":"input227"},"inbound_nodes":[]},{"name":"dense_Dense1357","class_name":"Dense","config":{"units":8,"activation":"relu","use_bias":true,"kernel_initializer":{"class_name":"VarianceScaling","config":{"scale":1,"mode":"fan_avg","distribution":"normal","seed":null}},"bias_initializer":{"class_name":"Zeros","config":{}},"kernel_regularizer":null,"bias_regularizer":null,"activity_regularizer":null,"kernel_constraint":null,"bias_constraint":null,"name":"dense_Dense1357","trainable":true},"inbound_nodes":[[["input227",0,0,{}]]]},{"name":"dense_Dense1358","class_name":"Dense","config":{"units":2,"activation":"relu","use_bias":true,"kernel_initializer":{"class_name":"VarianceScaling","config":{"scale":1,"mode":"fan_avg","distribution":"normal","seed":null}},"bias_initializer":{"class_name":"Zeros","config":{}},"kernel_regularizer":null,"bias_regularizer":null,"activity_regularizer":null,"kernel_constraint":null,"bias_constraint":null,"name":"dense_Dense1358","trainable":true},"inbound_nodes":[[["dense_Dense1357",0,0,{}]]]},{"name":"dense_Dense1359","class_name":"Dense","config":{"units":1,"activation":"relu","use_bias":true,"kernel_initializer":{"class_name":"VarianceScaling","config":{"scale":1,"mode":"fan_avg","distribution":"normal","seed":null}},"bias_initializer":{"class_name":"Zeros","config":{}},"kernel_regularizer":null,"bias_regularizer":null,"activity_regularizer":null,"kernel_constraint":null,"bias_constraint":null,"name":"dense_Dense1359","trainable":true},"inbound_nodes":[[["dense_Dense1358",0,0,{}]]]},{"name":"dense_Dense1360","class_name":"Dense","config":{"units":2,"activation":"relu","use_bias":true,"kernel_initializer":{"class_name":"VarianceScaling","config":{"scale":1,"mode":"fan_avg","distribution":"normal","seed":null}},"bias_initializer":{"class_name":"Zeros","config":{}},"kernel_regularizer":null,"bias_regularizer":null,"activity_regularizer":null,"kernel_constraint":null,"bias_constraint":null,"name":"dense_Dense1360","trainable":true},"inbound_nodes":[[["dense_Dense1359",0,0,{}]]]},{"name":"dense_Dense1361","class_name":"Dense","config":{"units":16,"activation":"relu","use_bias":true,"kernel_initializer":{"class_name":"VarianceScaling","config":{"scale":1,"mode":"fan_avg","distribution":"normal","seed":null}},"bias_initializer":{"class_name":"Zeros","config":{}},"kernel_regularizer":null,"bias_regularizer":null,"activity_regularizer":null,"kernel_constraint":null,"bias_constraint":null,"name":"dense_Dense1361","trainable":true},"inbound_nodes":[[["dense_Dense1360",0,0,{}]]]},{"name":"dense_Dense1362","class_name":"Dense","config":{"units":1,"activation":"sigmoid","use_bias":true,"kernel_initializer":{"class_name":"VarianceScaling","config":{"scale":1,"mode":"fan_avg","distribution":"normal","seed":null}},"bias_initializer":{"class_name":"Zeros","config":{}},"kernel_regularizer":null,"bias_regularizer":null,"activity_regularizer":null,"kernel_constraint":null,"bias_constraint":null,"name":"dense_Dense1362","trainable":true},"inbound_nodes":[[["dense_Dense1361",0,0,{}]]]}],"input_layers":[["input227",0,0]],"output_layers":[["dense_Dense1362",0,0]]},"keras_version":"tfjs-layers 3.9.0","backend":"tensor_flow.js"},"weightsManifest":[{"paths":["weights.bin"],"weights":[{"name":"dense_Dense1357/kernel","shape":[3,8],"dtype":"float32"},{"name":"dense_Dense1357/bias","shape":[8],"dtype":"float32"},{"name":"dense_Dense1358/kernel","shape":[8,2],"dtype":"float32"},{"name":"dense_Dense1358/bias","shape":[2],"dtype":"float32"},{"name":"dense_Dense1359/kernel","shape":[2,1],"dtype":"float32"},{"name":"dense_Dense1359/bias","shape":[1],"dtype":"float32"},{"name":"dense_Dense1360/kernel","shape":[1,2],"dtype":"float32"},{"name":"dense_Dense1360/bias","shape":[2],"dtype":"float32"},{"name":"dense_Dense1361/kernel","shape":[2,16],"dtype":"float32"},{"name":"dense_Dense1361/bias","shape":[16],"dtype":"float32"},{"name":"dense_Dense1362/kernel","shape":[16,1],"dtype":"float32"},{"name":"dense_Dense1362/bias","shape":[1],"dtype":"float32"}]}]}