{"modelTopology":{"class_name":"Model","config":{"name":"model35","layers":[{"name":"input35","class_name":"InputLayer","config":{"batch_input_shape":[null,3],"dtype":"float32","sparse":false,"name":"input35"},"inbound_nodes":[]},{"name":"dense_Dense205","class_name":"Dense","config":{"units":8,"activation":"relu","use_bias":true,"kernel_initializer":{"class_name":"VarianceScaling","config":{"scale":1,"mode":"fan_avg","distribution":"normal","seed":null}},"bias_initializer":{"class_name":"Zeros","config":{}},"kernel_regularizer":null,"bias_regularizer":null,"activity_regularizer":null,"kernel_constraint":null,"bias_constraint":null,"name":"dense_Dense205","trainable":true},"inbound_nodes":[[["input35",0,0,{}]]]},{"name":"dense_Dense206","class_name":"Dense","config":{"units":1,"activation":"relu","use_bias":true,"kernel_initializer":{"class_name":"VarianceScaling","config":{"scale":1,"mode":"fan_avg","distribution":"normal","seed":null}},"bias_initializer":{"class_name":"Zeros","config":{}},"kernel_regularizer":null,"bias_regularizer":null,"activity_regularizer":null,"kernel_constraint":null,"bias_constraint":null,"name":"dense_Dense206","trainable":true},"inbound_nodes":[[["dense_Dense205",0,0,{}]]]},{"name":"dense_Dense207","class_name":"Dense","config":{"units":1,"activation":"relu","use_bias":true,"kernel_initializer":{"class_name":"VarianceScaling","config":{"scale":1,"mode":"fan_avg","distribution":"normal","seed":null}},"bias_initializer":{"class_name":"Zeros","config":{}},"kernel_regularizer":null,"bias_regularizer":null,"activity_regularizer":null,"kernel_constraint":null,"bias_constraint":null,"name":"dense_Dense207","trainable":true},"inbound_nodes":[[["dense_Dense206",0,0,{}]]]},{"name":"dense_Dense208","class_name":"Dense","config":{"units":32,"activation":"relu","use_bias":true,"kernel_initializer":{"class_name":"VarianceScaling","config":{"scale":1,"mode":"fan_avg","distribution":"normal","seed":null}},"bias_initializer":{"class_name":"Zeros","config":{}},"kernel_regularizer":null,"bias_regularizer":null,"activity_regularizer":null,"kernel_constraint":null,"bias_constraint":null,"name":"dense_Dense208","trainable":true},"inbound_nodes":[[["dense_Dense207",0,0,{}]]]},{"name":"dense_Dense209","class_name":"Dense","config":{"units":16,"activation":"relu","use_bias":true,"kernel_initializer":{"class_name":"VarianceScaling","config":{"scale":1,"mode":"fan_avg","distribution":"normal","seed":null}},"bias_initializer":{"class_name":"Zeros","config":{}},"kernel_regularizer":null,"bias_regularizer":null,"activity_regularizer":null,"kernel_constraint":null,"bias_constraint":null,"name":"dense_Dense209","trainable":true},"inbound_nodes":[[["dense_Dense208",0,0,{}]]]},{"name":"dense_Dense210","class_name":"Dense","config":{"units":1,"activation":"sigmoid","use_bias":true,"kernel_initializer":{"class_name":"VarianceScaling","config":{"scale":1,"mode":"fan_avg","distribution":"normal","seed":null}},"bias_initializer":{"class_name":"Zeros","config":{}},"kernel_regularizer":null,"bias_regularizer":null,"activity_regularizer":null,"kernel_constraint":null,"bias_constraint":null,"name":"dense_Dense210","trainable":true},"inbound_nodes":[[["dense_Dense209",0,0,{}]]]}],"input_layers":[["input35",0,0]],"output_layers":[["dense_Dense210",0,0]]},"keras_version":"tfjs-layers 3.9.0","backend":"tensor_flow.js"},"weightsManifest":[{"paths":["weights.bin"],"weights":[{"name":"dense_Dense205/kernel","shape":[3,8],"dtype":"float32"},{"name":"dense_Dense205/bias","shape":[8],"dtype":"float32"},{"name":"dense_Dense206/kernel","shape":[8,1],"dtype":"float32"},{"name":"dense_Dense206/bias","shape":[1],"dtype":"float32"},{"name":"dense_Dense207/kernel","shape":[1,1],"dtype":"float32"},{"name":"dense_Dense207/bias","shape":[1],"dtype":"float32"},{"name":"dense_Dense208/kernel","shape":[1,32],"dtype":"float32"},{"name":"dense_Dense208/bias","shape":[32],"dtype":"float32"},{"name":"dense_Dense209/kernel","shape":[32,16],"dtype":"float32"},{"name":"dense_Dense209/bias","shape":[16],"dtype":"float32"},{"name":"dense_Dense210/kernel","shape":[16,1],"dtype":"float32"},{"name":"dense_Dense210/bias","shape":[1],"dtype":"float32"}]}]}