{"modelTopology":{"class_name":"Model","config":{"name":"model362","layers":[{"name":"input362","class_name":"InputLayer","config":{"batch_input_shape":[null,3],"dtype":"float32","sparse":false,"name":"input362"},"inbound_nodes":[]},{"name":"dense_Dense2167","class_name":"Dense","config":{"units":32,"activation":"relu","use_bias":true,"kernel_initializer":{"class_name":"VarianceScaling","config":{"scale":1,"mode":"fan_avg","distribution":"normal","seed":null}},"bias_initializer":{"class_name":"Zeros","config":{}},"kernel_regularizer":null,"bias_regularizer":null,"activity_regularizer":null,"kernel_constraint":null,"bias_constraint":null,"name":"dense_Dense2167","trainable":true},"inbound_nodes":[[["input362",0,0,{}]]]},{"name":"dense_Dense2168","class_name":"Dense","config":{"units":2,"activation":"relu","use_bias":true,"kernel_initializer":{"class_name":"VarianceScaling","config":{"scale":1,"mode":"fan_avg","distribution":"normal","seed":null}},"bias_initializer":{"class_name":"Zeros","config":{}},"kernel_regularizer":null,"bias_regularizer":null,"activity_regularizer":null,"kernel_constraint":null,"bias_constraint":null,"name":"dense_Dense2168","trainable":true},"inbound_nodes":[[["dense_Dense2167",0,0,{}]]]},{"name":"dense_Dense2169","class_name":"Dense","config":{"units":16,"activation":"relu","use_bias":true,"kernel_initializer":{"class_name":"VarianceScaling","config":{"scale":1,"mode":"fan_avg","distribution":"normal","seed":null}},"bias_initializer":{"class_name":"Zeros","config":{}},"kernel_regularizer":null,"bias_regularizer":null,"activity_regularizer":null,"kernel_constraint":null,"bias_constraint":null,"name":"dense_Dense2169","trainable":true},"inbound_nodes":[[["dense_Dense2168",0,0,{}]]]},{"name":"dense_Dense2170","class_name":"Dense","config":{"units":1,"activation":"relu","use_bias":true,"kernel_initializer":{"class_name":"VarianceScaling","config":{"scale":1,"mode":"fan_avg","distribution":"normal","seed":null}},"bias_initializer":{"class_name":"Zeros","config":{}},"kernel_regularizer":null,"bias_regularizer":null,"activity_regularizer":null,"kernel_constraint":null,"bias_constraint":null,"name":"dense_Dense2170","trainable":true},"inbound_nodes":[[["dense_Dense2169",0,0,{}]]]},{"name":"dense_Dense2171","class_name":"Dense","config":{"units":2,"activation":"relu","use_bias":true,"kernel_initializer":{"class_name":"VarianceScaling","config":{"scale":1,"mode":"fan_avg","distribution":"normal","seed":null}},"bias_initializer":{"class_name":"Zeros","config":{}},"kernel_regularizer":null,"bias_regularizer":null,"activity_regularizer":null,"kernel_constraint":null,"bias_constraint":null,"name":"dense_Dense2171","trainable":true},"inbound_nodes":[[["dense_Dense2170",0,0,{}]]]},{"name":"dense_Dense2172","class_name":"Dense","config":{"units":1,"activation":"sigmoid","use_bias":true,"kernel_initializer":{"class_name":"VarianceScaling","config":{"scale":1,"mode":"fan_avg","distribution":"normal","seed":null}},"bias_initializer":{"class_name":"Zeros","config":{}},"kernel_regularizer":null,"bias_regularizer":null,"activity_regularizer":null,"kernel_constraint":null,"bias_constraint":null,"name":"dense_Dense2172","trainable":true},"inbound_nodes":[[["dense_Dense2171",0,0,{}]]]}],"input_layers":[["input362",0,0]],"output_layers":[["dense_Dense2172",0,0]]},"keras_version":"tfjs-layers 3.9.0","backend":"tensor_flow.js"},"weightsManifest":[{"paths":["weights.bin"],"weights":[{"name":"dense_Dense2167/kernel","shape":[3,32],"dtype":"float32"},{"name":"dense_Dense2167/bias","shape":[32],"dtype":"float32"},{"name":"dense_Dense2168/kernel","shape":[32,2],"dtype":"float32"},{"name":"dense_Dense2168/bias","shape":[2],"dtype":"float32"},{"name":"dense_Dense2169/kernel","shape":[2,16],"dtype":"float32"},{"name":"dense_Dense2169/bias","shape":[16],"dtype":"float32"},{"name":"dense_Dense2170/kernel","shape":[16,1],"dtype":"float32"},{"name":"dense_Dense2170/bias","shape":[1],"dtype":"float32"},{"name":"dense_Dense2171/kernel","shape":[1,2],"dtype":"float32"},{"name":"dense_Dense2171/bias","shape":[2],"dtype":"float32"},{"name":"dense_Dense2172/kernel","shape":[2,1],"dtype":"float32"},{"name":"dense_Dense2172/bias","shape":[1],"dtype":"float32"}]}]}