{"modelTopology":{"class_name":"Model","config":{"name":"model522","layers":[{"name":"input522","class_name":"InputLayer","config":{"batch_input_shape":[null,3],"dtype":"float32","sparse":false,"name":"input522"},"inbound_nodes":[]},{"name":"dense_Dense3127","class_name":"Dense","config":{"units":32,"activation":"relu","use_bias":true,"kernel_initializer":{"class_name":"VarianceScaling","config":{"scale":1,"mode":"fan_avg","distribution":"normal","seed":null}},"bias_initializer":{"class_name":"Zeros","config":{}},"kernel_regularizer":null,"bias_regularizer":null,"activity_regularizer":null,"kernel_constraint":null,"bias_constraint":null,"name":"dense_Dense3127","trainable":true},"inbound_nodes":[[["input522",0,0,{}]]]},{"name":"dense_Dense3128","class_name":"Dense","config":{"units":4,"activation":"relu","use_bias":true,"kernel_initializer":{"class_name":"VarianceScaling","config":{"scale":1,"mode":"fan_avg","distribution":"normal","seed":null}},"bias_initializer":{"class_name":"Zeros","config":{}},"kernel_regularizer":null,"bias_regularizer":null,"activity_regularizer":null,"kernel_constraint":null,"bias_constraint":null,"name":"dense_Dense3128","trainable":true},"inbound_nodes":[[["dense_Dense3127",0,0,{}]]]},{"name":"dense_Dense3129","class_name":"Dense","config":{"units":4,"activation":"relu","use_bias":true,"kernel_initializer":{"class_name":"VarianceScaling","config":{"scale":1,"mode":"fan_avg","distribution":"normal","seed":null}},"bias_initializer":{"class_name":"Zeros","config":{}},"kernel_regularizer":null,"bias_regularizer":null,"activity_regularizer":null,"kernel_constraint":null,"bias_constraint":null,"name":"dense_Dense3129","trainable":true},"inbound_nodes":[[["dense_Dense3128",0,0,{}]]]},{"name":"dense_Dense3130","class_name":"Dense","config":{"units":4,"activation":"relu","use_bias":true,"kernel_initializer":{"class_name":"VarianceScaling","config":{"scale":1,"mode":"fan_avg","distribution":"normal","seed":null}},"bias_initializer":{"class_name":"Zeros","config":{}},"kernel_regularizer":null,"bias_regularizer":null,"activity_regularizer":null,"kernel_constraint":null,"bias_constraint":null,"name":"dense_Dense3130","trainable":true},"inbound_nodes":[[["dense_Dense3129",0,0,{}]]]},{"name":"dense_Dense3131","class_name":"Dense","config":{"units":32,"activation":"relu","use_bias":true,"kernel_initializer":{"class_name":"VarianceScaling","config":{"scale":1,"mode":"fan_avg","distribution":"normal","seed":null}},"bias_initializer":{"class_name":"Zeros","config":{}},"kernel_regularizer":null,"bias_regularizer":null,"activity_regularizer":null,"kernel_constraint":null,"bias_constraint":null,"name":"dense_Dense3131","trainable":true},"inbound_nodes":[[["dense_Dense3130",0,0,{}]]]},{"name":"dense_Dense3132","class_name":"Dense","config":{"units":1,"activation":"sigmoid","use_bias":true,"kernel_initializer":{"class_name":"VarianceScaling","config":{"scale":1,"mode":"fan_avg","distribution":"normal","seed":null}},"bias_initializer":{"class_name":"Zeros","config":{}},"kernel_regularizer":null,"bias_regularizer":null,"activity_regularizer":null,"kernel_constraint":null,"bias_constraint":null,"name":"dense_Dense3132","trainable":true},"inbound_nodes":[[["dense_Dense3131",0,0,{}]]]}],"input_layers":[["input522",0,0]],"output_layers":[["dense_Dense3132",0,0]]},"keras_version":"tfjs-layers 3.9.0","backend":"tensor_flow.js"},"weightsManifest":[{"paths":["weights.bin"],"weights":[{"name":"dense_Dense3127/kernel","shape":[3,32],"dtype":"float32"},{"name":"dense_Dense3127/bias","shape":[32],"dtype":"float32"},{"name":"dense_Dense3128/kernel","shape":[32,4],"dtype":"float32"},{"name":"dense_Dense3128/bias","shape":[4],"dtype":"float32"},{"name":"dense_Dense3129/kernel","shape":[4,4],"dtype":"float32"},{"name":"dense_Dense3129/bias","shape":[4],"dtype":"float32"},{"name":"dense_Dense3130/kernel","shape":[4,4],"dtype":"float32"},{"name":"dense_Dense3130/bias","shape":[4],"dtype":"float32"},{"name":"dense_Dense3131/kernel","shape":[4,32],"dtype":"float32"},{"name":"dense_Dense3131/bias","shape":[32],"dtype":"float32"},{"name":"dense_Dense3132/kernel","shape":[32,1],"dtype":"float32"},{"name":"dense_Dense3132/bias","shape":[1],"dtype":"float32"}]}]}