{"modelTopology":{"class_name":"Model","config":{"name":"model446","layers":[{"name":"input446","class_name":"InputLayer","config":{"batch_input_shape":[null,3],"dtype":"float32","sparse":false,"name":"input446"},"inbound_nodes":[]},{"name":"dense_Dense2226","class_name":"Dense","config":{"units":4,"activation":"relu","use_bias":true,"kernel_initializer":{"class_name":"VarianceScaling","config":{"scale":1,"mode":"fan_avg","distribution":"normal","seed":null}},"bias_initializer":{"class_name":"Zeros","config":{}},"kernel_regularizer":null,"bias_regularizer":null,"activity_regularizer":null,"kernel_constraint":null,"bias_constraint":null,"name":"dense_Dense2226","trainable":true},"inbound_nodes":[[["input446",0,0,{}]]]},{"name":"dense_Dense2227","class_name":"Dense","config":{"units":1,"activation":"relu","use_bias":true,"kernel_initializer":{"class_name":"VarianceScaling","config":{"scale":1,"mode":"fan_avg","distribution":"normal","seed":null}},"bias_initializer":{"class_name":"Zeros","config":{}},"kernel_regularizer":null,"bias_regularizer":null,"activity_regularizer":null,"kernel_constraint":null,"bias_constraint":null,"name":"dense_Dense2227","trainable":true},"inbound_nodes":[[["dense_Dense2226",0,0,{}]]]},{"name":"dense_Dense2228","class_name":"Dense","config":{"units":4,"activation":"relu","use_bias":true,"kernel_initializer":{"class_name":"VarianceScaling","config":{"scale":1,"mode":"fan_avg","distribution":"normal","seed":null}},"bias_initializer":{"class_name":"Zeros","config":{}},"kernel_regularizer":null,"bias_regularizer":null,"activity_regularizer":null,"kernel_constraint":null,"bias_constraint":null,"name":"dense_Dense2228","trainable":true},"inbound_nodes":[[["dense_Dense2227",0,0,{}]]]},{"name":"dense_Dense2229","class_name":"Dense","config":{"units":2,"activation":"relu","use_bias":true,"kernel_initializer":{"class_name":"VarianceScaling","config":{"scale":1,"mode":"fan_avg","distribution":"normal","seed":null}},"bias_initializer":{"class_name":"Zeros","config":{}},"kernel_regularizer":null,"bias_regularizer":null,"activity_regularizer":null,"kernel_constraint":null,"bias_constraint":null,"name":"dense_Dense2229","trainable":true},"inbound_nodes":[[["dense_Dense2228",0,0,{}]]]},{"name":"dense_Dense2230","class_name":"Dense","config":{"units":1,"activation":"sigmoid","use_bias":true,"kernel_initializer":{"class_name":"VarianceScaling","config":{"scale":1,"mode":"fan_avg","distribution":"normal","seed":null}},"bias_initializer":{"class_name":"Zeros","config":{}},"kernel_regularizer":null,"bias_regularizer":null,"activity_regularizer":null,"kernel_constraint":null,"bias_constraint":null,"name":"dense_Dense2230","trainable":true},"inbound_nodes":[[["dense_Dense2229",0,0,{}]]]}],"input_layers":[["input446",0,0]],"output_layers":[["dense_Dense2230",0,0]]},"keras_version":"tfjs-layers 3.9.0","backend":"tensor_flow.js"},"weightsManifest":[{"paths":["weights.bin"],"weights":[{"name":"dense_Dense2226/kernel","shape":[3,4],"dtype":"float32"},{"name":"dense_Dense2226/bias","shape":[4],"dtype":"float32"},{"name":"dense_Dense2227/kernel","shape":[4,1],"dtype":"float32"},{"name":"dense_Dense2227/bias","shape":[1],"dtype":"float32"},{"name":"dense_Dense2228/kernel","shape":[1,4],"dtype":"float32"},{"name":"dense_Dense2228/bias","shape":[4],"dtype":"float32"},{"name":"dense_Dense2229/kernel","shape":[4,2],"dtype":"float32"},{"name":"dense_Dense2229/bias","shape":[2],"dtype":"float32"},{"name":"dense_Dense2230/kernel","shape":[2,1],"dtype":"float32"},{"name":"dense_Dense2230/bias","shape":[1],"dtype":"float32"}]}]}