{"modelTopology":{"class_name":"Model","config":{"name":"model288","layers":[{"name":"input288","class_name":"InputLayer","config":{"batch_input_shape":[null,3],"dtype":"float32","sparse":false,"name":"input288"},"inbound_nodes":[]},{"name":"dense_Dense1723","class_name":"Dense","config":{"units":4,"activation":"relu","use_bias":true,"kernel_initializer":{"class_name":"VarianceScaling","config":{"scale":1,"mode":"fan_avg","distribution":"normal","seed":null}},"bias_initializer":{"class_name":"Zeros","config":{}},"kernel_regularizer":null,"bias_regularizer":null,"activity_regularizer":null,"kernel_constraint":null,"bias_constraint":null,"name":"dense_Dense1723","trainable":true},"inbound_nodes":[[["input288",0,0,{}]]]},{"name":"dense_Dense1724","class_name":"Dense","config":{"units":2,"activation":"relu","use_bias":true,"kernel_initializer":{"class_name":"VarianceScaling","config":{"scale":1,"mode":"fan_avg","distribution":"normal","seed":null}},"bias_initializer":{"class_name":"Zeros","config":{}},"kernel_regularizer":null,"bias_regularizer":null,"activity_regularizer":null,"kernel_constraint":null,"bias_constraint":null,"name":"dense_Dense1724","trainable":true},"inbound_nodes":[[["dense_Dense1723",0,0,{}]]]},{"name":"dense_Dense1725","class_name":"Dense","config":{"units":2,"activation":"relu","use_bias":true,"kernel_initializer":{"class_name":"VarianceScaling","config":{"scale":1,"mode":"fan_avg","distribution":"normal","seed":null}},"bias_initializer":{"class_name":"Zeros","config":{}},"kernel_regularizer":null,"bias_regularizer":null,"activity_regularizer":null,"kernel_constraint":null,"bias_constraint":null,"name":"dense_Dense1725","trainable":true},"inbound_nodes":[[["dense_Dense1724",0,0,{}]]]},{"name":"dense_Dense1726","class_name":"Dense","config":{"units":32,"activation":"relu","use_bias":true,"kernel_initializer":{"class_name":"VarianceScaling","config":{"scale":1,"mode":"fan_avg","distribution":"normal","seed":null}},"bias_initializer":{"class_name":"Zeros","config":{}},"kernel_regularizer":null,"bias_regularizer":null,"activity_regularizer":null,"kernel_constraint":null,"bias_constraint":null,"name":"dense_Dense1726","trainable":true},"inbound_nodes":[[["dense_Dense1725",0,0,{}]]]},{"name":"dense_Dense1727","class_name":"Dense","config":{"units":32,"activation":"relu","use_bias":true,"kernel_initializer":{"class_name":"VarianceScaling","config":{"scale":1,"mode":"fan_avg","distribution":"normal","seed":null}},"bias_initializer":{"class_name":"Zeros","config":{}},"kernel_regularizer":null,"bias_regularizer":null,"activity_regularizer":null,"kernel_constraint":null,"bias_constraint":null,"name":"dense_Dense1727","trainable":true},"inbound_nodes":[[["dense_Dense1726",0,0,{}]]]},{"name":"dense_Dense1728","class_name":"Dense","config":{"units":1,"activation":"sigmoid","use_bias":true,"kernel_initializer":{"class_name":"VarianceScaling","config":{"scale":1,"mode":"fan_avg","distribution":"normal","seed":null}},"bias_initializer":{"class_name":"Zeros","config":{}},"kernel_regularizer":null,"bias_regularizer":null,"activity_regularizer":null,"kernel_constraint":null,"bias_constraint":null,"name":"dense_Dense1728","trainable":true},"inbound_nodes":[[["dense_Dense1727",0,0,{}]]]}],"input_layers":[["input288",0,0]],"output_layers":[["dense_Dense1728",0,0]]},"keras_version":"tfjs-layers 3.9.0","backend":"tensor_flow.js"},"weightsManifest":[{"paths":["weights.bin"],"weights":[{"name":"dense_Dense1723/kernel","shape":[3,4],"dtype":"float32"},{"name":"dense_Dense1723/bias","shape":[4],"dtype":"float32"},{"name":"dense_Dense1724/kernel","shape":[4,2],"dtype":"float32"},{"name":"dense_Dense1724/bias","shape":[2],"dtype":"float32"},{"name":"dense_Dense1725/kernel","shape":[2,2],"dtype":"float32"},{"name":"dense_Dense1725/bias","shape":[2],"dtype":"float32"},{"name":"dense_Dense1726/kernel","shape":[2,32],"dtype":"float32"},{"name":"dense_Dense1726/bias","shape":[32],"dtype":"float32"},{"name":"dense_Dense1727/kernel","shape":[32,32],"dtype":"float32"},{"name":"dense_Dense1727/bias","shape":[32],"dtype":"float32"},{"name":"dense_Dense1728/kernel","shape":[32,1],"dtype":"float32"},{"name":"dense_Dense1728/bias","shape":[1],"dtype":"float32"}]}]}