{"modelTopology":{"class_name":"Model","config":{"name":"model245","layers":[{"name":"input245","class_name":"InputLayer","config":{"batch_input_shape":[null,3],"dtype":"float32","sparse":false,"name":"input245"},"inbound_nodes":[]},{"name":"dense_Dense1221","class_name":"Dense","config":{"units":2,"activation":"relu","use_bias":true,"kernel_initializer":{"class_name":"VarianceScaling","config":{"scale":1,"mode":"fan_avg","distribution":"normal","seed":null}},"bias_initializer":{"class_name":"Zeros","config":{}},"kernel_regularizer":null,"bias_regularizer":null,"activity_regularizer":null,"kernel_constraint":null,"bias_constraint":null,"name":"dense_Dense1221","trainable":true},"inbound_nodes":[[["input245",0,0,{}]]]},{"name":"dense_Dense1222","class_name":"Dense","config":{"units":1,"activation":"relu","use_bias":true,"kernel_initializer":{"class_name":"VarianceScaling","config":{"scale":1,"mode":"fan_avg","distribution":"normal","seed":null}},"bias_initializer":{"class_name":"Zeros","config":{}},"kernel_regularizer":null,"bias_regularizer":null,"activity_regularizer":null,"kernel_constraint":null,"bias_constraint":null,"name":"dense_Dense1222","trainable":true},"inbound_nodes":[[["dense_Dense1221",0,0,{}]]]},{"name":"dense_Dense1223","class_name":"Dense","config":{"units":16,"activation":"relu","use_bias":true,"kernel_initializer":{"class_name":"VarianceScaling","config":{"scale":1,"mode":"fan_avg","distribution":"normal","seed":null}},"bias_initializer":{"class_name":"Zeros","config":{}},"kernel_regularizer":null,"bias_regularizer":null,"activity_regularizer":null,"kernel_constraint":null,"bias_constraint":null,"name":"dense_Dense1223","trainable":true},"inbound_nodes":[[["dense_Dense1222",0,0,{}]]]},{"name":"dense_Dense1224","class_name":"Dense","config":{"units":16,"activation":"relu","use_bias":true,"kernel_initializer":{"class_name":"VarianceScaling","config":{"scale":1,"mode":"fan_avg","distribution":"normal","seed":null}},"bias_initializer":{"class_name":"Zeros","config":{}},"kernel_regularizer":null,"bias_regularizer":null,"activity_regularizer":null,"kernel_constraint":null,"bias_constraint":null,"name":"dense_Dense1224","trainable":true},"inbound_nodes":[[["dense_Dense1223",0,0,{}]]]},{"name":"dense_Dense1225","class_name":"Dense","config":{"units":1,"activation":"sigmoid","use_bias":true,"kernel_initializer":{"class_name":"VarianceScaling","config":{"scale":1,"mode":"fan_avg","distribution":"normal","seed":null}},"bias_initializer":{"class_name":"Zeros","config":{}},"kernel_regularizer":null,"bias_regularizer":null,"activity_regularizer":null,"kernel_constraint":null,"bias_constraint":null,"name":"dense_Dense1225","trainable":true},"inbound_nodes":[[["dense_Dense1224",0,0,{}]]]}],"input_layers":[["input245",0,0]],"output_layers":[["dense_Dense1225",0,0]]},"keras_version":"tfjs-layers 3.9.0","backend":"tensor_flow.js"},"weightsManifest":[{"paths":["weights.bin"],"weights":[{"name":"dense_Dense1221/kernel","shape":[3,2],"dtype":"float32"},{"name":"dense_Dense1221/bias","shape":[2],"dtype":"float32"},{"name":"dense_Dense1222/kernel","shape":[2,1],"dtype":"float32"},{"name":"dense_Dense1222/bias","shape":[1],"dtype":"float32"},{"name":"dense_Dense1223/kernel","shape":[1,16],"dtype":"float32"},{"name":"dense_Dense1223/bias","shape":[16],"dtype":"float32"},{"name":"dense_Dense1224/kernel","shape":[16,16],"dtype":"float32"},{"name":"dense_Dense1224/bias","shape":[16],"dtype":"float32"},{"name":"dense_Dense1225/kernel","shape":[16,1],"dtype":"float32"},{"name":"dense_Dense1225/bias","shape":[1],"dtype":"float32"}]}]}