{"modelTopology":{"class_name":"Model","config":{"name":"model409","layers":[{"name":"input409","class_name":"InputLayer","config":{"batch_input_shape":[null,3],"dtype":"float32","sparse":false,"name":"input409"},"inbound_nodes":[]},{"name":"dense_Dense2449","class_name":"Dense","config":{"units":8,"activation":"relu","use_bias":true,"kernel_initializer":{"class_name":"VarianceScaling","config":{"scale":1,"mode":"fan_avg","distribution":"normal","seed":null}},"bias_initializer":{"class_name":"Zeros","config":{}},"kernel_regularizer":null,"bias_regularizer":null,"activity_regularizer":null,"kernel_constraint":null,"bias_constraint":null,"name":"dense_Dense2449","trainable":true},"inbound_nodes":[[["input409",0,0,{}]]]},{"name":"dense_Dense2450","class_name":"Dense","config":{"units":2,"activation":"relu","use_bias":true,"kernel_initializer":{"class_name":"VarianceScaling","config":{"scale":1,"mode":"fan_avg","distribution":"normal","seed":null}},"bias_initializer":{"class_name":"Zeros","config":{}},"kernel_regularizer":null,"bias_regularizer":null,"activity_regularizer":null,"kernel_constraint":null,"bias_constraint":null,"name":"dense_Dense2450","trainable":true},"inbound_nodes":[[["dense_Dense2449",0,0,{}]]]},{"name":"dense_Dense2451","class_name":"Dense","config":{"units":32,"activation":"relu","use_bias":true,"kernel_initializer":{"class_name":"VarianceScaling","config":{"scale":1,"mode":"fan_avg","distribution":"normal","seed":null}},"bias_initializer":{"class_name":"Zeros","config":{}},"kernel_regularizer":null,"bias_regularizer":null,"activity_regularizer":null,"kernel_constraint":null,"bias_constraint":null,"name":"dense_Dense2451","trainable":true},"inbound_nodes":[[["dense_Dense2450",0,0,{}]]]},{"name":"dense_Dense2452","class_name":"Dense","config":{"units":4,"activation":"relu","use_bias":true,"kernel_initializer":{"class_name":"VarianceScaling","config":{"scale":1,"mode":"fan_avg","distribution":"normal","seed":null}},"bias_initializer":{"class_name":"Zeros","config":{}},"kernel_regularizer":null,"bias_regularizer":null,"activity_regularizer":null,"kernel_constraint":null,"bias_constraint":null,"name":"dense_Dense2452","trainable":true},"inbound_nodes":[[["dense_Dense2451",0,0,{}]]]},{"name":"dense_Dense2453","class_name":"Dense","config":{"units":1,"activation":"relu","use_bias":true,"kernel_initializer":{"class_name":"VarianceScaling","config":{"scale":1,"mode":"fan_avg","distribution":"normal","seed":null}},"bias_initializer":{"class_name":"Zeros","config":{}},"kernel_regularizer":null,"bias_regularizer":null,"activity_regularizer":null,"kernel_constraint":null,"bias_constraint":null,"name":"dense_Dense2453","trainable":true},"inbound_nodes":[[["dense_Dense2452",0,0,{}]]]},{"name":"dense_Dense2454","class_name":"Dense","config":{"units":1,"activation":"sigmoid","use_bias":true,"kernel_initializer":{"class_name":"VarianceScaling","config":{"scale":1,"mode":"fan_avg","distribution":"normal","seed":null}},"bias_initializer":{"class_name":"Zeros","config":{}},"kernel_regularizer":null,"bias_regularizer":null,"activity_regularizer":null,"kernel_constraint":null,"bias_constraint":null,"name":"dense_Dense2454","trainable":true},"inbound_nodes":[[["dense_Dense2453",0,0,{}]]]}],"input_layers":[["input409",0,0]],"output_layers":[["dense_Dense2454",0,0]]},"keras_version":"tfjs-layers 3.9.0","backend":"tensor_flow.js"},"weightsManifest":[{"paths":["weights.bin"],"weights":[{"name":"dense_Dense2449/kernel","shape":[3,8],"dtype":"float32"},{"name":"dense_Dense2449/bias","shape":[8],"dtype":"float32"},{"name":"dense_Dense2450/kernel","shape":[8,2],"dtype":"float32"},{"name":"dense_Dense2450/bias","shape":[2],"dtype":"float32"},{"name":"dense_Dense2451/kernel","shape":[2,32],"dtype":"float32"},{"name":"dense_Dense2451/bias","shape":[32],"dtype":"float32"},{"name":"dense_Dense2452/kernel","shape":[32,4],"dtype":"float32"},{"name":"dense_Dense2452/bias","shape":[4],"dtype":"float32"},{"name":"dense_Dense2453/kernel","shape":[4,1],"dtype":"float32"},{"name":"dense_Dense2453/bias","shape":[1],"dtype":"float32"},{"name":"dense_Dense2454/kernel","shape":[1,1],"dtype":"float32"},{"name":"dense_Dense2454/bias","shape":[1],"dtype":"float32"}]}]}