{"modelTopology":{"class_name":"Model","config":{"name":"model153","layers":[{"name":"input153","class_name":"InputLayer","config":{"batch_input_shape":[null,3],"dtype":"float32","sparse":false,"name":"input153"},"inbound_nodes":[]},{"name":"dense_Dense913","class_name":"Dense","config":{"units":16,"activation":"relu","use_bias":true,"kernel_initializer":{"class_name":"VarianceScaling","config":{"scale":1,"mode":"fan_avg","distribution":"normal","seed":null}},"bias_initializer":{"class_name":"Zeros","config":{}},"kernel_regularizer":null,"bias_regularizer":null,"activity_regularizer":null,"kernel_constraint":null,"bias_constraint":null,"name":"dense_Dense913","trainable":true},"inbound_nodes":[[["input153",0,0,{}]]]},{"name":"dense_Dense914","class_name":"Dense","config":{"units":1,"activation":"relu","use_bias":true,"kernel_initializer":{"class_name":"VarianceScaling","config":{"scale":1,"mode":"fan_avg","distribution":"normal","seed":null}},"bias_initializer":{"class_name":"Zeros","config":{}},"kernel_regularizer":null,"bias_regularizer":null,"activity_regularizer":null,"kernel_constraint":null,"bias_constraint":null,"name":"dense_Dense914","trainable":true},"inbound_nodes":[[["dense_Dense913",0,0,{}]]]},{"name":"dense_Dense915","class_name":"Dense","config":{"units":16,"activation":"relu","use_bias":true,"kernel_initializer":{"class_name":"VarianceScaling","config":{"scale":1,"mode":"fan_avg","distribution":"normal","seed":null}},"bias_initializer":{"class_name":"Zeros","config":{}},"kernel_regularizer":null,"bias_regularizer":null,"activity_regularizer":null,"kernel_constraint":null,"bias_constraint":null,"name":"dense_Dense915","trainable":true},"inbound_nodes":[[["dense_Dense914",0,0,{}]]]},{"name":"dense_Dense916","class_name":"Dense","config":{"units":2,"activation":"relu","use_bias":true,"kernel_initializer":{"class_name":"VarianceScaling","config":{"scale":1,"mode":"fan_avg","distribution":"normal","seed":null}},"bias_initializer":{"class_name":"Zeros","config":{}},"kernel_regularizer":null,"bias_regularizer":null,"activity_regularizer":null,"kernel_constraint":null,"bias_constraint":null,"name":"dense_Dense916","trainable":true},"inbound_nodes":[[["dense_Dense915",0,0,{}]]]},{"name":"dense_Dense917","class_name":"Dense","config":{"units":4,"activation":"relu","use_bias":true,"kernel_initializer":{"class_name":"VarianceScaling","config":{"scale":1,"mode":"fan_avg","distribution":"normal","seed":null}},"bias_initializer":{"class_name":"Zeros","config":{}},"kernel_regularizer":null,"bias_regularizer":null,"activity_regularizer":null,"kernel_constraint":null,"bias_constraint":null,"name":"dense_Dense917","trainable":true},"inbound_nodes":[[["dense_Dense916",0,0,{}]]]},{"name":"dense_Dense918","class_name":"Dense","config":{"units":1,"activation":"sigmoid","use_bias":true,"kernel_initializer":{"class_name":"VarianceScaling","config":{"scale":1,"mode":"fan_avg","distribution":"normal","seed":null}},"bias_initializer":{"class_name":"Zeros","config":{}},"kernel_regularizer":null,"bias_regularizer":null,"activity_regularizer":null,"kernel_constraint":null,"bias_constraint":null,"name":"dense_Dense918","trainable":true},"inbound_nodes":[[["dense_Dense917",0,0,{}]]]}],"input_layers":[["input153",0,0]],"output_layers":[["dense_Dense918",0,0]]},"keras_version":"tfjs-layers 3.9.0","backend":"tensor_flow.js"},"weightsManifest":[{"paths":["weights.bin"],"weights":[{"name":"dense_Dense913/kernel","shape":[3,16],"dtype":"float32"},{"name":"dense_Dense913/bias","shape":[16],"dtype":"float32"},{"name":"dense_Dense914/kernel","shape":[16,1],"dtype":"float32"},{"name":"dense_Dense914/bias","shape":[1],"dtype":"float32"},{"name":"dense_Dense915/kernel","shape":[1,16],"dtype":"float32"},{"name":"dense_Dense915/bias","shape":[16],"dtype":"float32"},{"name":"dense_Dense916/kernel","shape":[16,2],"dtype":"float32"},{"name":"dense_Dense916/bias","shape":[2],"dtype":"float32"},{"name":"dense_Dense917/kernel","shape":[2,4],"dtype":"float32"},{"name":"dense_Dense917/bias","shape":[4],"dtype":"float32"},{"name":"dense_Dense918/kernel","shape":[4,1],"dtype":"float32"},{"name":"dense_Dense918/bias","shape":[1],"dtype":"float32"}]}]}