{"modelTopology":{"class_name":"Model","config":{"name":"model1166","layers":[{"name":"input1166","class_name":"InputLayer","config":{"batch_input_shape":[null,3],"dtype":"float32","sparse":false,"name":"input1166"},"inbound_nodes":[]},{"name":"dense_Dense5826","class_name":"Dense","config":{"units":32,"activation":"relu","use_bias":true,"kernel_initializer":{"class_name":"VarianceScaling","config":{"scale":1,"mode":"fan_avg","distribution":"normal","seed":null}},"bias_initializer":{"class_name":"Zeros","config":{}},"kernel_regularizer":null,"bias_regularizer":null,"activity_regularizer":null,"kernel_constraint":null,"bias_constraint":null,"name":"dense_Dense5826","trainable":true},"inbound_nodes":[[["input1166",0,0,{}]]]},{"name":"dense_Dense5827","class_name":"Dense","config":{"units":4,"activation":"relu","use_bias":true,"kernel_initializer":{"class_name":"VarianceScaling","config":{"scale":1,"mode":"fan_avg","distribution":"normal","seed":null}},"bias_initializer":{"class_name":"Zeros","config":{}},"kernel_regularizer":null,"bias_regularizer":null,"activity_regularizer":null,"kernel_constraint":null,"bias_constraint":null,"name":"dense_Dense5827","trainable":true},"inbound_nodes":[[["dense_Dense5826",0,0,{}]]]},{"name":"dense_Dense5828","class_name":"Dense","config":{"units":4,"activation":"relu","use_bias":true,"kernel_initializer":{"class_name":"VarianceScaling","config":{"scale":1,"mode":"fan_avg","distribution":"normal","seed":null}},"bias_initializer":{"class_name":"Zeros","config":{}},"kernel_regularizer":null,"bias_regularizer":null,"activity_regularizer":null,"kernel_constraint":null,"bias_constraint":null,"name":"dense_Dense5828","trainable":true},"inbound_nodes":[[["dense_Dense5827",0,0,{}]]]},{"name":"dense_Dense5829","class_name":"Dense","config":{"units":2,"activation":"relu","use_bias":true,"kernel_initializer":{"class_name":"VarianceScaling","config":{"scale":1,"mode":"fan_avg","distribution":"normal","seed":null}},"bias_initializer":{"class_name":"Zeros","config":{}},"kernel_regularizer":null,"bias_regularizer":null,"activity_regularizer":null,"kernel_constraint":null,"bias_constraint":null,"name":"dense_Dense5829","trainable":true},"inbound_nodes":[[["dense_Dense5828",0,0,{}]]]},{"name":"dense_Dense5830","class_name":"Dense","config":{"units":1,"activation":"sigmoid","use_bias":true,"kernel_initializer":{"class_name":"VarianceScaling","config":{"scale":1,"mode":"fan_avg","distribution":"normal","seed":null}},"bias_initializer":{"class_name":"Zeros","config":{}},"kernel_regularizer":null,"bias_regularizer":null,"activity_regularizer":null,"kernel_constraint":null,"bias_constraint":null,"name":"dense_Dense5830","trainable":true},"inbound_nodes":[[["dense_Dense5829",0,0,{}]]]}],"input_layers":[["input1166",0,0]],"output_layers":[["dense_Dense5830",0,0]]},"keras_version":"tfjs-layers 3.9.0","backend":"tensor_flow.js"},"weightsManifest":[{"paths":["weights.bin"],"weights":[{"name":"dense_Dense5826/kernel","shape":[3,32],"dtype":"float32"},{"name":"dense_Dense5826/bias","shape":[32],"dtype":"float32"},{"name":"dense_Dense5827/kernel","shape":[32,4],"dtype":"float32"},{"name":"dense_Dense5827/bias","shape":[4],"dtype":"float32"},{"name":"dense_Dense5828/kernel","shape":[4,4],"dtype":"float32"},{"name":"dense_Dense5828/bias","shape":[4],"dtype":"float32"},{"name":"dense_Dense5829/kernel","shape":[4,2],"dtype":"float32"},{"name":"dense_Dense5829/bias","shape":[2],"dtype":"float32"},{"name":"dense_Dense5830/kernel","shape":[2,1],"dtype":"float32"},{"name":"dense_Dense5830/bias","shape":[1],"dtype":"float32"}]}]}