{"modelTopology":{"class_name":"Model","config":{"name":"model437","layers":[{"name":"input437","class_name":"InputLayer","config":{"batch_input_shape":[null,3],"dtype":"float32","sparse":false,"name":"input437"},"inbound_nodes":[]},{"name":"dense_Dense2617","class_name":"Dense","config":{"units":8,"activation":"relu","use_bias":true,"kernel_initializer":{"class_name":"VarianceScaling","config":{"scale":1,"mode":"fan_avg","distribution":"normal","seed":null}},"bias_initializer":{"class_name":"Zeros","config":{}},"kernel_regularizer":null,"bias_regularizer":null,"activity_regularizer":null,"kernel_constraint":null,"bias_constraint":null,"name":"dense_Dense2617","trainable":true},"inbound_nodes":[[["input437",0,0,{}]]]},{"name":"dense_Dense2618","class_name":"Dense","config":{"units":4,"activation":"relu","use_bias":true,"kernel_initializer":{"class_name":"VarianceScaling","config":{"scale":1,"mode":"fan_avg","distribution":"normal","seed":null}},"bias_initializer":{"class_name":"Zeros","config":{}},"kernel_regularizer":null,"bias_regularizer":null,"activity_regularizer":null,"kernel_constraint":null,"bias_constraint":null,"name":"dense_Dense2618","trainable":true},"inbound_nodes":[[["dense_Dense2617",0,0,{}]]]},{"name":"dense_Dense2619","class_name":"Dense","config":{"units":1,"activation":"relu","use_bias":true,"kernel_initializer":{"class_name":"VarianceScaling","config":{"scale":1,"mode":"fan_avg","distribution":"normal","seed":null}},"bias_initializer":{"class_name":"Zeros","config":{}},"kernel_regularizer":null,"bias_regularizer":null,"activity_regularizer":null,"kernel_constraint":null,"bias_constraint":null,"name":"dense_Dense2619","trainable":true},"inbound_nodes":[[["dense_Dense2618",0,0,{}]]]},{"name":"dense_Dense2620","class_name":"Dense","config":{"units":1,"activation":"relu","use_bias":true,"kernel_initializer":{"class_name":"VarianceScaling","config":{"scale":1,"mode":"fan_avg","distribution":"normal","seed":null}},"bias_initializer":{"class_name":"Zeros","config":{}},"kernel_regularizer":null,"bias_regularizer":null,"activity_regularizer":null,"kernel_constraint":null,"bias_constraint":null,"name":"dense_Dense2620","trainable":true},"inbound_nodes":[[["dense_Dense2619",0,0,{}]]]},{"name":"dense_Dense2621","class_name":"Dense","config":{"units":16,"activation":"relu","use_bias":true,"kernel_initializer":{"class_name":"VarianceScaling","config":{"scale":1,"mode":"fan_avg","distribution":"normal","seed":null}},"bias_initializer":{"class_name":"Zeros","config":{}},"kernel_regularizer":null,"bias_regularizer":null,"activity_regularizer":null,"kernel_constraint":null,"bias_constraint":null,"name":"dense_Dense2621","trainable":true},"inbound_nodes":[[["dense_Dense2620",0,0,{}]]]},{"name":"dense_Dense2622","class_name":"Dense","config":{"units":1,"activation":"sigmoid","use_bias":true,"kernel_initializer":{"class_name":"VarianceScaling","config":{"scale":1,"mode":"fan_avg","distribution":"normal","seed":null}},"bias_initializer":{"class_name":"Zeros","config":{}},"kernel_regularizer":null,"bias_regularizer":null,"activity_regularizer":null,"kernel_constraint":null,"bias_constraint":null,"name":"dense_Dense2622","trainable":true},"inbound_nodes":[[["dense_Dense2621",0,0,{}]]]}],"input_layers":[["input437",0,0]],"output_layers":[["dense_Dense2622",0,0]]},"keras_version":"tfjs-layers 3.9.0","backend":"tensor_flow.js"},"weightsManifest":[{"paths":["weights.bin"],"weights":[{"name":"dense_Dense2617/kernel","shape":[3,8],"dtype":"float32"},{"name":"dense_Dense2617/bias","shape":[8],"dtype":"float32"},{"name":"dense_Dense2618/kernel","shape":[8,4],"dtype":"float32"},{"name":"dense_Dense2618/bias","shape":[4],"dtype":"float32"},{"name":"dense_Dense2619/kernel","shape":[4,1],"dtype":"float32"},{"name":"dense_Dense2619/bias","shape":[1],"dtype":"float32"},{"name":"dense_Dense2620/kernel","shape":[1,1],"dtype":"float32"},{"name":"dense_Dense2620/bias","shape":[1],"dtype":"float32"},{"name":"dense_Dense2621/kernel","shape":[1,16],"dtype":"float32"},{"name":"dense_Dense2621/bias","shape":[16],"dtype":"float32"},{"name":"dense_Dense2622/kernel","shape":[16,1],"dtype":"float32"},{"name":"dense_Dense2622/bias","shape":[1],"dtype":"float32"}]}]}