{"modelTopology":{"class_name":"Model","config":{"name":"model382","layers":[{"name":"input382","class_name":"InputLayer","config":{"batch_input_shape":[null,3],"dtype":"float32","sparse":false,"name":"input382"},"inbound_nodes":[]},{"name":"dense_Dense2287","class_name":"Dense","config":{"units":16,"activation":"relu","use_bias":true,"kernel_initializer":{"class_name":"VarianceScaling","config":{"scale":1,"mode":"fan_avg","distribution":"normal","seed":null}},"bias_initializer":{"class_name":"Zeros","config":{}},"kernel_regularizer":null,"bias_regularizer":null,"activity_regularizer":null,"kernel_constraint":null,"bias_constraint":null,"name":"dense_Dense2287","trainable":true},"inbound_nodes":[[["input382",0,0,{}]]]},{"name":"dense_Dense2288","class_name":"Dense","config":{"units":2,"activation":"relu","use_bias":true,"kernel_initializer":{"class_name":"VarianceScaling","config":{"scale":1,"mode":"fan_avg","distribution":"normal","seed":null}},"bias_initializer":{"class_name":"Zeros","config":{}},"kernel_regularizer":null,"bias_regularizer":null,"activity_regularizer":null,"kernel_constraint":null,"bias_constraint":null,"name":"dense_Dense2288","trainable":true},"inbound_nodes":[[["dense_Dense2287",0,0,{}]]]},{"name":"dense_Dense2289","class_name":"Dense","config":{"units":16,"activation":"relu","use_bias":true,"kernel_initializer":{"class_name":"VarianceScaling","config":{"scale":1,"mode":"fan_avg","distribution":"normal","seed":null}},"bias_initializer":{"class_name":"Zeros","config":{}},"kernel_regularizer":null,"bias_regularizer":null,"activity_regularizer":null,"kernel_constraint":null,"bias_constraint":null,"name":"dense_Dense2289","trainable":true},"inbound_nodes":[[["dense_Dense2288",0,0,{}]]]},{"name":"dense_Dense2290","class_name":"Dense","config":{"units":8,"activation":"relu","use_bias":true,"kernel_initializer":{"class_name":"VarianceScaling","config":{"scale":1,"mode":"fan_avg","distribution":"normal","seed":null}},"bias_initializer":{"class_name":"Zeros","config":{}},"kernel_regularizer":null,"bias_regularizer":null,"activity_regularizer":null,"kernel_constraint":null,"bias_constraint":null,"name":"dense_Dense2290","trainable":true},"inbound_nodes":[[["dense_Dense2289",0,0,{}]]]},{"name":"dense_Dense2291","class_name":"Dense","config":{"units":8,"activation":"relu","use_bias":true,"kernel_initializer":{"class_name":"VarianceScaling","config":{"scale":1,"mode":"fan_avg","distribution":"normal","seed":null}},"bias_initializer":{"class_name":"Zeros","config":{}},"kernel_regularizer":null,"bias_regularizer":null,"activity_regularizer":null,"kernel_constraint":null,"bias_constraint":null,"name":"dense_Dense2291","trainable":true},"inbound_nodes":[[["dense_Dense2290",0,0,{}]]]},{"name":"dense_Dense2292","class_name":"Dense","config":{"units":1,"activation":"sigmoid","use_bias":true,"kernel_initializer":{"class_name":"VarianceScaling","config":{"scale":1,"mode":"fan_avg","distribution":"normal","seed":null}},"bias_initializer":{"class_name":"Zeros","config":{}},"kernel_regularizer":null,"bias_regularizer":null,"activity_regularizer":null,"kernel_constraint":null,"bias_constraint":null,"name":"dense_Dense2292","trainable":true},"inbound_nodes":[[["dense_Dense2291",0,0,{}]]]}],"input_layers":[["input382",0,0]],"output_layers":[["dense_Dense2292",0,0]]},"keras_version":"tfjs-layers 3.9.0","backend":"tensor_flow.js"},"weightsManifest":[{"paths":["weights.bin"],"weights":[{"name":"dense_Dense2287/kernel","shape":[3,16],"dtype":"float32"},{"name":"dense_Dense2287/bias","shape":[16],"dtype":"float32"},{"name":"dense_Dense2288/kernel","shape":[16,2],"dtype":"float32"},{"name":"dense_Dense2288/bias","shape":[2],"dtype":"float32"},{"name":"dense_Dense2289/kernel","shape":[2,16],"dtype":"float32"},{"name":"dense_Dense2289/bias","shape":[16],"dtype":"float32"},{"name":"dense_Dense2290/kernel","shape":[16,8],"dtype":"float32"},{"name":"dense_Dense2290/bias","shape":[8],"dtype":"float32"},{"name":"dense_Dense2291/kernel","shape":[8,8],"dtype":"float32"},{"name":"dense_Dense2291/bias","shape":[8],"dtype":"float32"},{"name":"dense_Dense2292/kernel","shape":[8,1],"dtype":"float32"},{"name":"dense_Dense2292/bias","shape":[1],"dtype":"float32"}]}]}