{"modelTopology":{"class_name":"Model","config":{"name":"model675","layers":[{"name":"input675","class_name":"InputLayer","config":{"batch_input_shape":[null,3],"dtype":"float32","sparse":false,"name":"input675"},"inbound_nodes":[]},{"name":"dense_Dense3371","class_name":"Dense","config":{"units":8,"activation":"relu","use_bias":true,"kernel_initializer":{"class_name":"VarianceScaling","config":{"scale":1,"mode":"fan_avg","distribution":"normal","seed":null}},"bias_initializer":{"class_name":"Zeros","config":{}},"kernel_regularizer":null,"bias_regularizer":null,"activity_regularizer":null,"kernel_constraint":null,"bias_constraint":null,"name":"dense_Dense3371","trainable":true},"inbound_nodes":[[["input675",0,0,{}]]]},{"name":"dense_Dense3372","class_name":"Dense","config":{"units":1,"activation":"relu","use_bias":true,"kernel_initializer":{"class_name":"VarianceScaling","config":{"scale":1,"mode":"fan_avg","distribution":"normal","seed":null}},"bias_initializer":{"class_name":"Zeros","config":{}},"kernel_regularizer":null,"bias_regularizer":null,"activity_regularizer":null,"kernel_constraint":null,"bias_constraint":null,"name":"dense_Dense3372","trainable":true},"inbound_nodes":[[["dense_Dense3371",0,0,{}]]]},{"name":"dense_Dense3373","class_name":"Dense","config":{"units":16,"activation":"relu","use_bias":true,"kernel_initializer":{"class_name":"VarianceScaling","config":{"scale":1,"mode":"fan_avg","distribution":"normal","seed":null}},"bias_initializer":{"class_name":"Zeros","config":{}},"kernel_regularizer":null,"bias_regularizer":null,"activity_regularizer":null,"kernel_constraint":null,"bias_constraint":null,"name":"dense_Dense3373","trainable":true},"inbound_nodes":[[["dense_Dense3372",0,0,{}]]]},{"name":"dense_Dense3374","class_name":"Dense","config":{"units":4,"activation":"relu","use_bias":true,"kernel_initializer":{"class_name":"VarianceScaling","config":{"scale":1,"mode":"fan_avg","distribution":"normal","seed":null}},"bias_initializer":{"class_name":"Zeros","config":{}},"kernel_regularizer":null,"bias_regularizer":null,"activity_regularizer":null,"kernel_constraint":null,"bias_constraint":null,"name":"dense_Dense3374","trainable":true},"inbound_nodes":[[["dense_Dense3373",0,0,{}]]]},{"name":"dense_Dense3375","class_name":"Dense","config":{"units":1,"activation":"sigmoid","use_bias":true,"kernel_initializer":{"class_name":"VarianceScaling","config":{"scale":1,"mode":"fan_avg","distribution":"normal","seed":null}},"bias_initializer":{"class_name":"Zeros","config":{}},"kernel_regularizer":null,"bias_regularizer":null,"activity_regularizer":null,"kernel_constraint":null,"bias_constraint":null,"name":"dense_Dense3375","trainable":true},"inbound_nodes":[[["dense_Dense3374",0,0,{}]]]}],"input_layers":[["input675",0,0]],"output_layers":[["dense_Dense3375",0,0]]},"keras_version":"tfjs-layers 3.9.0","backend":"tensor_flow.js"},"weightsManifest":[{"paths":["weights.bin"],"weights":[{"name":"dense_Dense3371/kernel","shape":[3,8],"dtype":"float32"},{"name":"dense_Dense3371/bias","shape":[8],"dtype":"float32"},{"name":"dense_Dense3372/kernel","shape":[8,1],"dtype":"float32"},{"name":"dense_Dense3372/bias","shape":[1],"dtype":"float32"},{"name":"dense_Dense3373/kernel","shape":[1,16],"dtype":"float32"},{"name":"dense_Dense3373/bias","shape":[16],"dtype":"float32"},{"name":"dense_Dense3374/kernel","shape":[16,4],"dtype":"float32"},{"name":"dense_Dense3374/bias","shape":[4],"dtype":"float32"},{"name":"dense_Dense3375/kernel","shape":[4,1],"dtype":"float32"},{"name":"dense_Dense3375/bias","shape":[1],"dtype":"float32"}]}]}