{"modelTopology":{"class_name":"Model","config":{"name":"model166","layers":[{"name":"input166","class_name":"InputLayer","config":{"batch_input_shape":[null,3],"dtype":"float32","sparse":false,"name":"input166"},"inbound_nodes":[]},{"name":"dense_Dense826","class_name":"Dense","config":{"units":1,"activation":"relu","use_bias":true,"kernel_initializer":{"class_name":"VarianceScaling","config":{"scale":1,"mode":"fan_avg","distribution":"normal","seed":null}},"bias_initializer":{"class_name":"Zeros","config":{}},"kernel_regularizer":null,"bias_regularizer":null,"activity_regularizer":null,"kernel_constraint":null,"bias_constraint":null,"name":"dense_Dense826","trainable":true},"inbound_nodes":[[["input166",0,0,{}]]]},{"name":"dense_Dense827","class_name":"Dense","config":{"units":16,"activation":"relu","use_bias":true,"kernel_initializer":{"class_name":"VarianceScaling","config":{"scale":1,"mode":"fan_avg","distribution":"normal","seed":null}},"bias_initializer":{"class_name":"Zeros","config":{}},"kernel_regularizer":null,"bias_regularizer":null,"activity_regularizer":null,"kernel_constraint":null,"bias_constraint":null,"name":"dense_Dense827","trainable":true},"inbound_nodes":[[["dense_Dense826",0,0,{}]]]},{"name":"dense_Dense828","class_name":"Dense","config":{"units":8,"activation":"relu","use_bias":true,"kernel_initializer":{"class_name":"VarianceScaling","config":{"scale":1,"mode":"fan_avg","distribution":"normal","seed":null}},"bias_initializer":{"class_name":"Zeros","config":{}},"kernel_regularizer":null,"bias_regularizer":null,"activity_regularizer":null,"kernel_constraint":null,"bias_constraint":null,"name":"dense_Dense828","trainable":true},"inbound_nodes":[[["dense_Dense827",0,0,{}]]]},{"name":"dense_Dense829","class_name":"Dense","config":{"units":8,"activation":"relu","use_bias":true,"kernel_initializer":{"class_name":"VarianceScaling","config":{"scale":1,"mode":"fan_avg","distribution":"normal","seed":null}},"bias_initializer":{"class_name":"Zeros","config":{}},"kernel_regularizer":null,"bias_regularizer":null,"activity_regularizer":null,"kernel_constraint":null,"bias_constraint":null,"name":"dense_Dense829","trainable":true},"inbound_nodes":[[["dense_Dense828",0,0,{}]]]},{"name":"dense_Dense830","class_name":"Dense","config":{"units":1,"activation":"sigmoid","use_bias":true,"kernel_initializer":{"class_name":"VarianceScaling","config":{"scale":1,"mode":"fan_avg","distribution":"normal","seed":null}},"bias_initializer":{"class_name":"Zeros","config":{}},"kernel_regularizer":null,"bias_regularizer":null,"activity_regularizer":null,"kernel_constraint":null,"bias_constraint":null,"name":"dense_Dense830","trainable":true},"inbound_nodes":[[["dense_Dense829",0,0,{}]]]}],"input_layers":[["input166",0,0]],"output_layers":[["dense_Dense830",0,0]]},"keras_version":"tfjs-layers 3.9.0","backend":"tensor_flow.js"},"weightsManifest":[{"paths":["weights.bin"],"weights":[{"name":"dense_Dense826/kernel","shape":[3,1],"dtype":"float32"},{"name":"dense_Dense826/bias","shape":[1],"dtype":"float32"},{"name":"dense_Dense827/kernel","shape":[1,16],"dtype":"float32"},{"name":"dense_Dense827/bias","shape":[16],"dtype":"float32"},{"name":"dense_Dense828/kernel","shape":[16,8],"dtype":"float32"},{"name":"dense_Dense828/bias","shape":[8],"dtype":"float32"},{"name":"dense_Dense829/kernel","shape":[8,8],"dtype":"float32"},{"name":"dense_Dense829/bias","shape":[8],"dtype":"float32"},{"name":"dense_Dense830/kernel","shape":[8,1],"dtype":"float32"},{"name":"dense_Dense830/bias","shape":[1],"dtype":"float32"}]}]}