{"modelTopology":{"class_name":"Model","config":{"name":"model817","layers":[{"name":"input817","class_name":"InputLayer","config":{"batch_input_shape":[null,3],"dtype":"float32","sparse":false,"name":"input817"},"inbound_nodes":[]},{"name":"dense_Dense4897","class_name":"Dense","config":{"units":32,"activation":"relu","use_bias":true,"kernel_initializer":{"class_name":"VarianceScaling","config":{"scale":1,"mode":"fan_avg","distribution":"normal","seed":null}},"bias_initializer":{"class_name":"Zeros","config":{}},"kernel_regularizer":null,"bias_regularizer":null,"activity_regularizer":null,"kernel_constraint":null,"bias_constraint":null,"name":"dense_Dense4897","trainable":true},"inbound_nodes":[[["input817",0,0,{}]]]},{"name":"dense_Dense4898","class_name":"Dense","config":{"units":8,"activation":"relu","use_bias":true,"kernel_initializer":{"class_name":"VarianceScaling","config":{"scale":1,"mode":"fan_avg","distribution":"normal","seed":null}},"bias_initializer":{"class_name":"Zeros","config":{}},"kernel_regularizer":null,"bias_regularizer":null,"activity_regularizer":null,"kernel_constraint":null,"bias_constraint":null,"name":"dense_Dense4898","trainable":true},"inbound_nodes":[[["dense_Dense4897",0,0,{}]]]},{"name":"dense_Dense4899","class_name":"Dense","config":{"units":16,"activation":"relu","use_bias":true,"kernel_initializer":{"class_name":"VarianceScaling","config":{"scale":1,"mode":"fan_avg","distribution":"normal","seed":null}},"bias_initializer":{"class_name":"Zeros","config":{}},"kernel_regularizer":null,"bias_regularizer":null,"activity_regularizer":null,"kernel_constraint":null,"bias_constraint":null,"name":"dense_Dense4899","trainable":true},"inbound_nodes":[[["dense_Dense4898",0,0,{}]]]},{"name":"dense_Dense4900","class_name":"Dense","config":{"units":16,"activation":"relu","use_bias":true,"kernel_initializer":{"class_name":"VarianceScaling","config":{"scale":1,"mode":"fan_avg","distribution":"normal","seed":null}},"bias_initializer":{"class_name":"Zeros","config":{}},"kernel_regularizer":null,"bias_regularizer":null,"activity_regularizer":null,"kernel_constraint":null,"bias_constraint":null,"name":"dense_Dense4900","trainable":true},"inbound_nodes":[[["dense_Dense4899",0,0,{}]]]},{"name":"dense_Dense4901","class_name":"Dense","config":{"units":1,"activation":"relu","use_bias":true,"kernel_initializer":{"class_name":"VarianceScaling","config":{"scale":1,"mode":"fan_avg","distribution":"normal","seed":null}},"bias_initializer":{"class_name":"Zeros","config":{}},"kernel_regularizer":null,"bias_regularizer":null,"activity_regularizer":null,"kernel_constraint":null,"bias_constraint":null,"name":"dense_Dense4901","trainable":true},"inbound_nodes":[[["dense_Dense4900",0,0,{}]]]},{"name":"dense_Dense4902","class_name":"Dense","config":{"units":1,"activation":"sigmoid","use_bias":true,"kernel_initializer":{"class_name":"VarianceScaling","config":{"scale":1,"mode":"fan_avg","distribution":"normal","seed":null}},"bias_initializer":{"class_name":"Zeros","config":{}},"kernel_regularizer":null,"bias_regularizer":null,"activity_regularizer":null,"kernel_constraint":null,"bias_constraint":null,"name":"dense_Dense4902","trainable":true},"inbound_nodes":[[["dense_Dense4901",0,0,{}]]]}],"input_layers":[["input817",0,0]],"output_layers":[["dense_Dense4902",0,0]]},"keras_version":"tfjs-layers 3.9.0","backend":"tensor_flow.js"},"weightsManifest":[{"paths":["weights.bin"],"weights":[{"name":"dense_Dense4897/kernel","shape":[3,32],"dtype":"float32"},{"name":"dense_Dense4897/bias","shape":[32],"dtype":"float32"},{"name":"dense_Dense4898/kernel","shape":[32,8],"dtype":"float32"},{"name":"dense_Dense4898/bias","shape":[8],"dtype":"float32"},{"name":"dense_Dense4899/kernel","shape":[8,16],"dtype":"float32"},{"name":"dense_Dense4899/bias","shape":[16],"dtype":"float32"},{"name":"dense_Dense4900/kernel","shape":[16,16],"dtype":"float32"},{"name":"dense_Dense4900/bias","shape":[16],"dtype":"float32"},{"name":"dense_Dense4901/kernel","shape":[16,1],"dtype":"float32"},{"name":"dense_Dense4901/bias","shape":[1],"dtype":"float32"},{"name":"dense_Dense4902/kernel","shape":[1,1],"dtype":"float32"},{"name":"dense_Dense4902/bias","shape":[1],"dtype":"float32"}]}]}