{"modelTopology":{"class_name":"Model","config":{"name":"model1193","layers":[{"name":"input1193","class_name":"InputLayer","config":{"batch_input_shape":[null,3],"dtype":"float32","sparse":false,"name":"input1193"},"inbound_nodes":[]},{"name":"dense_Dense7153","class_name":"Dense","config":{"units":2,"activation":"relu","use_bias":true,"kernel_initializer":{"class_name":"VarianceScaling","config":{"scale":1,"mode":"fan_avg","distribution":"normal","seed":null}},"bias_initializer":{"class_name":"Zeros","config":{}},"kernel_regularizer":null,"bias_regularizer":null,"activity_regularizer":null,"kernel_constraint":null,"bias_constraint":null,"name":"dense_Dense7153","trainable":true},"inbound_nodes":[[["input1193",0,0,{}]]]},{"name":"dense_Dense7154","class_name":"Dense","config":{"units":32,"activation":"relu","use_bias":true,"kernel_initializer":{"class_name":"VarianceScaling","config":{"scale":1,"mode":"fan_avg","distribution":"normal","seed":null}},"bias_initializer":{"class_name":"Zeros","config":{}},"kernel_regularizer":null,"bias_regularizer":null,"activity_regularizer":null,"kernel_constraint":null,"bias_constraint":null,"name":"dense_Dense7154","trainable":true},"inbound_nodes":[[["dense_Dense7153",0,0,{}]]]},{"name":"dense_Dense7155","class_name":"Dense","config":{"units":8,"activation":"relu","use_bias":true,"kernel_initializer":{"class_name":"VarianceScaling","config":{"scale":1,"mode":"fan_avg","distribution":"normal","seed":null}},"bias_initializer":{"class_name":"Zeros","config":{}},"kernel_regularizer":null,"bias_regularizer":null,"activity_regularizer":null,"kernel_constraint":null,"bias_constraint":null,"name":"dense_Dense7155","trainable":true},"inbound_nodes":[[["dense_Dense7154",0,0,{}]]]},{"name":"dense_Dense7156","class_name":"Dense","config":{"units":1,"activation":"relu","use_bias":true,"kernel_initializer":{"class_name":"VarianceScaling","config":{"scale":1,"mode":"fan_avg","distribution":"normal","seed":null}},"bias_initializer":{"class_name":"Zeros","config":{}},"kernel_regularizer":null,"bias_regularizer":null,"activity_regularizer":null,"kernel_constraint":null,"bias_constraint":null,"name":"dense_Dense7156","trainable":true},"inbound_nodes":[[["dense_Dense7155",0,0,{}]]]},{"name":"dense_Dense7157","class_name":"Dense","config":{"units":16,"activation":"relu","use_bias":true,"kernel_initializer":{"class_name":"VarianceScaling","config":{"scale":1,"mode":"fan_avg","distribution":"normal","seed":null}},"bias_initializer":{"class_name":"Zeros","config":{}},"kernel_regularizer":null,"bias_regularizer":null,"activity_regularizer":null,"kernel_constraint":null,"bias_constraint":null,"name":"dense_Dense7157","trainable":true},"inbound_nodes":[[["dense_Dense7156",0,0,{}]]]},{"name":"dense_Dense7158","class_name":"Dense","config":{"units":1,"activation":"sigmoid","use_bias":true,"kernel_initializer":{"class_name":"VarianceScaling","config":{"scale":1,"mode":"fan_avg","distribution":"normal","seed":null}},"bias_initializer":{"class_name":"Zeros","config":{}},"kernel_regularizer":null,"bias_regularizer":null,"activity_regularizer":null,"kernel_constraint":null,"bias_constraint":null,"name":"dense_Dense7158","trainable":true},"inbound_nodes":[[["dense_Dense7157",0,0,{}]]]}],"input_layers":[["input1193",0,0]],"output_layers":[["dense_Dense7158",0,0]]},"keras_version":"tfjs-layers 3.9.0","backend":"tensor_flow.js"},"weightsManifest":[{"paths":["weights.bin"],"weights":[{"name":"dense_Dense7153/kernel","shape":[3,2],"dtype":"float32"},{"name":"dense_Dense7153/bias","shape":[2],"dtype":"float32"},{"name":"dense_Dense7154/kernel","shape":[2,32],"dtype":"float32"},{"name":"dense_Dense7154/bias","shape":[32],"dtype":"float32"},{"name":"dense_Dense7155/kernel","shape":[32,8],"dtype":"float32"},{"name":"dense_Dense7155/bias","shape":[8],"dtype":"float32"},{"name":"dense_Dense7156/kernel","shape":[8,1],"dtype":"float32"},{"name":"dense_Dense7156/bias","shape":[1],"dtype":"float32"},{"name":"dense_Dense7157/kernel","shape":[1,16],"dtype":"float32"},{"name":"dense_Dense7157/bias","shape":[16],"dtype":"float32"},{"name":"dense_Dense7158/kernel","shape":[16,1],"dtype":"float32"},{"name":"dense_Dense7158/bias","shape":[1],"dtype":"float32"}]}]}