{"modelTopology":{"class_name":"Model","config":{"name":"model9","layers":[{"name":"input9","class_name":"InputLayer","config":{"batch_input_shape":[null,3],"dtype":"float32","sparse":false,"name":"input9"},"inbound_nodes":[]},{"name":"dense_Dense25","class_name":"Dense","config":{"units":2,"activation":"relu","use_bias":true,"kernel_initializer":{"class_name":"VarianceScaling","config":{"scale":1,"mode":"fan_avg","distribution":"normal","seed":null}},"bias_initializer":{"class_name":"Zeros","config":{}},"kernel_regularizer":null,"bias_regularizer":null,"activity_regularizer":null,"kernel_constraint":null,"bias_constraint":null,"name":"dense_Dense25","trainable":true},"inbound_nodes":[[["input9",0,0,{}]]]},{"name":"dense_Dense26","class_name":"Dense","config":{"units":4,"activation":"relu","use_bias":true,"kernel_initializer":{"class_name":"VarianceScaling","config":{"scale":1,"mode":"fan_avg","distribution":"normal","seed":null}},"bias_initializer":{"class_name":"Zeros","config":{}},"kernel_regularizer":null,"bias_regularizer":null,"activity_regularizer":null,"kernel_constraint":null,"bias_constraint":null,"name":"dense_Dense26","trainable":true},"inbound_nodes":[[["dense_Dense25",0,0,{}]]]},{"name":"dense_Dense27","class_name":"Dense","config":{"units":1,"activation":"sigmoid","use_bias":true,"kernel_initializer":{"class_name":"VarianceScaling","config":{"scale":1,"mode":"fan_avg","distribution":"normal","seed":null}},"bias_initializer":{"class_name":"Zeros","config":{}},"kernel_regularizer":null,"bias_regularizer":null,"activity_regularizer":null,"kernel_constraint":null,"bias_constraint":null,"name":"dense_Dense27","trainable":true},"inbound_nodes":[[["dense_Dense26",0,0,{}]]]}],"input_layers":[["input9",0,0]],"output_layers":[["dense_Dense27",0,0]]},"keras_version":"tfjs-layers 3.9.0","backend":"tensor_flow.js"},"weightsManifest":[{"paths":["weights.bin"],"weights":[{"name":"dense_Dense25/kernel","shape":[3,2],"dtype":"float32"},{"name":"dense_Dense25/bias","shape":[2],"dtype":"float32"},{"name":"dense_Dense26/kernel","shape":[2,4],"dtype":"float32"},{"name":"dense_Dense26/bias","shape":[4],"dtype":"float32"},{"name":"dense_Dense27/kernel","shape":[4,1],"dtype":"float32"},{"name":"dense_Dense27/bias","shape":[1],"dtype":"float32"}]}]}