{"modelTopology":{"class_name":"Model","config":{"name":"model890","layers":[{"name":"input890","class_name":"InputLayer","config":{"batch_input_shape":[null,3],"dtype":"float32","sparse":false,"name":"input890"},"inbound_nodes":[]},{"name":"dense_Dense4446","class_name":"Dense","config":{"units":16,"activation":"relu","use_bias":true,"kernel_initializer":{"class_name":"VarianceScaling","config":{"scale":1,"mode":"fan_avg","distribution":"normal","seed":null}},"bias_initializer":{"class_name":"Zeros","config":{}},"kernel_regularizer":null,"bias_regularizer":null,"activity_regularizer":null,"kernel_constraint":null,"bias_constraint":null,"name":"dense_Dense4446","trainable":true},"inbound_nodes":[[["input890",0,0,{}]]]},{"name":"dense_Dense4447","class_name":"Dense","config":{"units":1,"activation":"relu","use_bias":true,"kernel_initializer":{"class_name":"VarianceScaling","config":{"scale":1,"mode":"fan_avg","distribution":"normal","seed":null}},"bias_initializer":{"class_name":"Zeros","config":{}},"kernel_regularizer":null,"bias_regularizer":null,"activity_regularizer":null,"kernel_constraint":null,"bias_constraint":null,"name":"dense_Dense4447","trainable":true},"inbound_nodes":[[["dense_Dense4446",0,0,{}]]]},{"name":"dense_Dense4448","class_name":"Dense","config":{"units":16,"activation":"relu","use_bias":true,"kernel_initializer":{"class_name":"VarianceScaling","config":{"scale":1,"mode":"fan_avg","distribution":"normal","seed":null}},"bias_initializer":{"class_name":"Zeros","config":{}},"kernel_regularizer":null,"bias_regularizer":null,"activity_regularizer":null,"kernel_constraint":null,"bias_constraint":null,"name":"dense_Dense4448","trainable":true},"inbound_nodes":[[["dense_Dense4447",0,0,{}]]]},{"name":"dense_Dense4449","class_name":"Dense","config":{"units":2,"activation":"relu","use_bias":true,"kernel_initializer":{"class_name":"VarianceScaling","config":{"scale":1,"mode":"fan_avg","distribution":"normal","seed":null}},"bias_initializer":{"class_name":"Zeros","config":{}},"kernel_regularizer":null,"bias_regularizer":null,"activity_regularizer":null,"kernel_constraint":null,"bias_constraint":null,"name":"dense_Dense4449","trainable":true},"inbound_nodes":[[["dense_Dense4448",0,0,{}]]]},{"name":"dense_Dense4450","class_name":"Dense","config":{"units":1,"activation":"sigmoid","use_bias":true,"kernel_initializer":{"class_name":"VarianceScaling","config":{"scale":1,"mode":"fan_avg","distribution":"normal","seed":null}},"bias_initializer":{"class_name":"Zeros","config":{}},"kernel_regularizer":null,"bias_regularizer":null,"activity_regularizer":null,"kernel_constraint":null,"bias_constraint":null,"name":"dense_Dense4450","trainable":true},"inbound_nodes":[[["dense_Dense4449",0,0,{}]]]}],"input_layers":[["input890",0,0]],"output_layers":[["dense_Dense4450",0,0]]},"keras_version":"tfjs-layers 3.9.0","backend":"tensor_flow.js"},"weightsManifest":[{"paths":["weights.bin"],"weights":[{"name":"dense_Dense4446/kernel","shape":[3,16],"dtype":"float32"},{"name":"dense_Dense4446/bias","shape":[16],"dtype":"float32"},{"name":"dense_Dense4447/kernel","shape":[16,1],"dtype":"float32"},{"name":"dense_Dense4447/bias","shape":[1],"dtype":"float32"},{"name":"dense_Dense4448/kernel","shape":[1,16],"dtype":"float32"},{"name":"dense_Dense4448/bias","shape":[16],"dtype":"float32"},{"name":"dense_Dense4449/kernel","shape":[16,2],"dtype":"float32"},{"name":"dense_Dense4449/bias","shape":[2],"dtype":"float32"},{"name":"dense_Dense4450/kernel","shape":[2,1],"dtype":"float32"},{"name":"dense_Dense4450/bias","shape":[1],"dtype":"float32"}]}]}