{"modelTopology":{"class_name":"Model","config":{"name":"model256","layers":[{"name":"input256","class_name":"InputLayer","config":{"batch_input_shape":[null,3],"dtype":"float32","sparse":false,"name":"input256"},"inbound_nodes":[]},{"name":"dense_Dense1531","class_name":"Dense","config":{"units":8,"activation":"relu","use_bias":true,"kernel_initializer":{"class_name":"VarianceScaling","config":{"scale":1,"mode":"fan_avg","distribution":"normal","seed":null}},"bias_initializer":{"class_name":"Zeros","config":{}},"kernel_regularizer":null,"bias_regularizer":null,"activity_regularizer":null,"kernel_constraint":null,"bias_constraint":null,"name":"dense_Dense1531","trainable":true},"inbound_nodes":[[["input256",0,0,{}]]]},{"name":"dense_Dense1532","class_name":"Dense","config":{"units":2,"activation":"relu","use_bias":true,"kernel_initializer":{"class_name":"VarianceScaling","config":{"scale":1,"mode":"fan_avg","distribution":"normal","seed":null}},"bias_initializer":{"class_name":"Zeros","config":{}},"kernel_regularizer":null,"bias_regularizer":null,"activity_regularizer":null,"kernel_constraint":null,"bias_constraint":null,"name":"dense_Dense1532","trainable":true},"inbound_nodes":[[["dense_Dense1531",0,0,{}]]]},{"name":"dense_Dense1533","class_name":"Dense","config":{"units":2,"activation":"relu","use_bias":true,"kernel_initializer":{"class_name":"VarianceScaling","config":{"scale":1,"mode":"fan_avg","distribution":"normal","seed":null}},"bias_initializer":{"class_name":"Zeros","config":{}},"kernel_regularizer":null,"bias_regularizer":null,"activity_regularizer":null,"kernel_constraint":null,"bias_constraint":null,"name":"dense_Dense1533","trainable":true},"inbound_nodes":[[["dense_Dense1532",0,0,{}]]]},{"name":"dense_Dense1534","class_name":"Dense","config":{"units":1,"activation":"relu","use_bias":true,"kernel_initializer":{"class_name":"VarianceScaling","config":{"scale":1,"mode":"fan_avg","distribution":"normal","seed":null}},"bias_initializer":{"class_name":"Zeros","config":{}},"kernel_regularizer":null,"bias_regularizer":null,"activity_regularizer":null,"kernel_constraint":null,"bias_constraint":null,"name":"dense_Dense1534","trainable":true},"inbound_nodes":[[["dense_Dense1533",0,0,{}]]]},{"name":"dense_Dense1535","class_name":"Dense","config":{"units":8,"activation":"relu","use_bias":true,"kernel_initializer":{"class_name":"VarianceScaling","config":{"scale":1,"mode":"fan_avg","distribution":"normal","seed":null}},"bias_initializer":{"class_name":"Zeros","config":{}},"kernel_regularizer":null,"bias_regularizer":null,"activity_regularizer":null,"kernel_constraint":null,"bias_constraint":null,"name":"dense_Dense1535","trainable":true},"inbound_nodes":[[["dense_Dense1534",0,0,{}]]]},{"name":"dense_Dense1536","class_name":"Dense","config":{"units":1,"activation":"sigmoid","use_bias":true,"kernel_initializer":{"class_name":"VarianceScaling","config":{"scale":1,"mode":"fan_avg","distribution":"normal","seed":null}},"bias_initializer":{"class_name":"Zeros","config":{}},"kernel_regularizer":null,"bias_regularizer":null,"activity_regularizer":null,"kernel_constraint":null,"bias_constraint":null,"name":"dense_Dense1536","trainable":true},"inbound_nodes":[[["dense_Dense1535",0,0,{}]]]}],"input_layers":[["input256",0,0]],"output_layers":[["dense_Dense1536",0,0]]},"keras_version":"tfjs-layers 3.9.0","backend":"tensor_flow.js"},"weightsManifest":[{"paths":["weights.bin"],"weights":[{"name":"dense_Dense1531/kernel","shape":[3,8],"dtype":"float32"},{"name":"dense_Dense1531/bias","shape":[8],"dtype":"float32"},{"name":"dense_Dense1532/kernel","shape":[8,2],"dtype":"float32"},{"name":"dense_Dense1532/bias","shape":[2],"dtype":"float32"},{"name":"dense_Dense1533/kernel","shape":[2,2],"dtype":"float32"},{"name":"dense_Dense1533/bias","shape":[2],"dtype":"float32"},{"name":"dense_Dense1534/kernel","shape":[2,1],"dtype":"float32"},{"name":"dense_Dense1534/bias","shape":[1],"dtype":"float32"},{"name":"dense_Dense1535/kernel","shape":[1,8],"dtype":"float32"},{"name":"dense_Dense1535/bias","shape":[8],"dtype":"float32"},{"name":"dense_Dense1536/kernel","shape":[8,1],"dtype":"float32"},{"name":"dense_Dense1536/bias","shape":[1],"dtype":"float32"}]}]}