{"modelTopology":{"class_name":"Model","config":{"name":"model670","layers":[{"name":"input670","class_name":"InputLayer","config":{"batch_input_shape":[null,3],"dtype":"float32","sparse":false,"name":"input670"},"inbound_nodes":[]},{"name":"dense_Dense4015","class_name":"Dense","config":{"units":2,"activation":"relu","use_bias":true,"kernel_initializer":{"class_name":"VarianceScaling","config":{"scale":1,"mode":"fan_avg","distribution":"normal","seed":null}},"bias_initializer":{"class_name":"Zeros","config":{}},"kernel_regularizer":null,"bias_regularizer":null,"activity_regularizer":null,"kernel_constraint":null,"bias_constraint":null,"name":"dense_Dense4015","trainable":true},"inbound_nodes":[[["input670",0,0,{}]]]},{"name":"dense_Dense4016","class_name":"Dense","config":{"units":8,"activation":"relu","use_bias":true,"kernel_initializer":{"class_name":"VarianceScaling","config":{"scale":1,"mode":"fan_avg","distribution":"normal","seed":null}},"bias_initializer":{"class_name":"Zeros","config":{}},"kernel_regularizer":null,"bias_regularizer":null,"activity_regularizer":null,"kernel_constraint":null,"bias_constraint":null,"name":"dense_Dense4016","trainable":true},"inbound_nodes":[[["dense_Dense4015",0,0,{}]]]},{"name":"dense_Dense4017","class_name":"Dense","config":{"units":1,"activation":"relu","use_bias":true,"kernel_initializer":{"class_name":"VarianceScaling","config":{"scale":1,"mode":"fan_avg","distribution":"normal","seed":null}},"bias_initializer":{"class_name":"Zeros","config":{}},"kernel_regularizer":null,"bias_regularizer":null,"activity_regularizer":null,"kernel_constraint":null,"bias_constraint":null,"name":"dense_Dense4017","trainable":true},"inbound_nodes":[[["dense_Dense4016",0,0,{}]]]},{"name":"dense_Dense4018","class_name":"Dense","config":{"units":8,"activation":"relu","use_bias":true,"kernel_initializer":{"class_name":"VarianceScaling","config":{"scale":1,"mode":"fan_avg","distribution":"normal","seed":null}},"bias_initializer":{"class_name":"Zeros","config":{}},"kernel_regularizer":null,"bias_regularizer":null,"activity_regularizer":null,"kernel_constraint":null,"bias_constraint":null,"name":"dense_Dense4018","trainable":true},"inbound_nodes":[[["dense_Dense4017",0,0,{}]]]},{"name":"dense_Dense4019","class_name":"Dense","config":{"units":8,"activation":"relu","use_bias":true,"kernel_initializer":{"class_name":"VarianceScaling","config":{"scale":1,"mode":"fan_avg","distribution":"normal","seed":null}},"bias_initializer":{"class_name":"Zeros","config":{}},"kernel_regularizer":null,"bias_regularizer":null,"activity_regularizer":null,"kernel_constraint":null,"bias_constraint":null,"name":"dense_Dense4019","trainable":true},"inbound_nodes":[[["dense_Dense4018",0,0,{}]]]},{"name":"dense_Dense4020","class_name":"Dense","config":{"units":1,"activation":"sigmoid","use_bias":true,"kernel_initializer":{"class_name":"VarianceScaling","config":{"scale":1,"mode":"fan_avg","distribution":"normal","seed":null}},"bias_initializer":{"class_name":"Zeros","config":{}},"kernel_regularizer":null,"bias_regularizer":null,"activity_regularizer":null,"kernel_constraint":null,"bias_constraint":null,"name":"dense_Dense4020","trainable":true},"inbound_nodes":[[["dense_Dense4019",0,0,{}]]]}],"input_layers":[["input670",0,0]],"output_layers":[["dense_Dense4020",0,0]]},"keras_version":"tfjs-layers 3.9.0","backend":"tensor_flow.js"},"weightsManifest":[{"paths":["weights.bin"],"weights":[{"name":"dense_Dense4015/kernel","shape":[3,2],"dtype":"float32"},{"name":"dense_Dense4015/bias","shape":[2],"dtype":"float32"},{"name":"dense_Dense4016/kernel","shape":[2,8],"dtype":"float32"},{"name":"dense_Dense4016/bias","shape":[8],"dtype":"float32"},{"name":"dense_Dense4017/kernel","shape":[8,1],"dtype":"float32"},{"name":"dense_Dense4017/bias","shape":[1],"dtype":"float32"},{"name":"dense_Dense4018/kernel","shape":[1,8],"dtype":"float32"},{"name":"dense_Dense4018/bias","shape":[8],"dtype":"float32"},{"name":"dense_Dense4019/kernel","shape":[8,8],"dtype":"float32"},{"name":"dense_Dense4019/bias","shape":[8],"dtype":"float32"},{"name":"dense_Dense4020/kernel","shape":[8,1],"dtype":"float32"},{"name":"dense_Dense4020/bias","shape":[1],"dtype":"float32"}]}]}