{"modelTopology":{"class_name":"Model","config":{"name":"model971","layers":[{"name":"input971","class_name":"InputLayer","config":{"batch_input_shape":[null,3],"dtype":"float32","sparse":false,"name":"input971"},"inbound_nodes":[]},{"name":"dense_Dense5821","class_name":"Dense","config":{"units":2,"activation":"relu","use_bias":true,"kernel_initializer":{"class_name":"VarianceScaling","config":{"scale":1,"mode":"fan_avg","distribution":"normal","seed":null}},"bias_initializer":{"class_name":"Zeros","config":{}},"kernel_regularizer":null,"bias_regularizer":null,"activity_regularizer":null,"kernel_constraint":null,"bias_constraint":null,"name":"dense_Dense5821","trainable":true},"inbound_nodes":[[["input971",0,0,{}]]]},{"name":"dense_Dense5822","class_name":"Dense","config":{"units":16,"activation":"relu","use_bias":true,"kernel_initializer":{"class_name":"VarianceScaling","config":{"scale":1,"mode":"fan_avg","distribution":"normal","seed":null}},"bias_initializer":{"class_name":"Zeros","config":{}},"kernel_regularizer":null,"bias_regularizer":null,"activity_regularizer":null,"kernel_constraint":null,"bias_constraint":null,"name":"dense_Dense5822","trainable":true},"inbound_nodes":[[["dense_Dense5821",0,0,{}]]]},{"name":"dense_Dense5823","class_name":"Dense","config":{"units":4,"activation":"relu","use_bias":true,"kernel_initializer":{"class_name":"VarianceScaling","config":{"scale":1,"mode":"fan_avg","distribution":"normal","seed":null}},"bias_initializer":{"class_name":"Zeros","config":{}},"kernel_regularizer":null,"bias_regularizer":null,"activity_regularizer":null,"kernel_constraint":null,"bias_constraint":null,"name":"dense_Dense5823","trainable":true},"inbound_nodes":[[["dense_Dense5822",0,0,{}]]]},{"name":"dense_Dense5824","class_name":"Dense","config":{"units":32,"activation":"relu","use_bias":true,"kernel_initializer":{"class_name":"VarianceScaling","config":{"scale":1,"mode":"fan_avg","distribution":"normal","seed":null}},"bias_initializer":{"class_name":"Zeros","config":{}},"kernel_regularizer":null,"bias_regularizer":null,"activity_regularizer":null,"kernel_constraint":null,"bias_constraint":null,"name":"dense_Dense5824","trainable":true},"inbound_nodes":[[["dense_Dense5823",0,0,{}]]]},{"name":"dense_Dense5825","class_name":"Dense","config":{"units":16,"activation":"relu","use_bias":true,"kernel_initializer":{"class_name":"VarianceScaling","config":{"scale":1,"mode":"fan_avg","distribution":"normal","seed":null}},"bias_initializer":{"class_name":"Zeros","config":{}},"kernel_regularizer":null,"bias_regularizer":null,"activity_regularizer":null,"kernel_constraint":null,"bias_constraint":null,"name":"dense_Dense5825","trainable":true},"inbound_nodes":[[["dense_Dense5824",0,0,{}]]]},{"name":"dense_Dense5826","class_name":"Dense","config":{"units":1,"activation":"sigmoid","use_bias":true,"kernel_initializer":{"class_name":"VarianceScaling","config":{"scale":1,"mode":"fan_avg","distribution":"normal","seed":null}},"bias_initializer":{"class_name":"Zeros","config":{}},"kernel_regularizer":null,"bias_regularizer":null,"activity_regularizer":null,"kernel_constraint":null,"bias_constraint":null,"name":"dense_Dense5826","trainable":true},"inbound_nodes":[[["dense_Dense5825",0,0,{}]]]}],"input_layers":[["input971",0,0]],"output_layers":[["dense_Dense5826",0,0]]},"keras_version":"tfjs-layers 3.9.0","backend":"tensor_flow.js"},"weightsManifest":[{"paths":["weights.bin"],"weights":[{"name":"dense_Dense5821/kernel","shape":[3,2],"dtype":"float32"},{"name":"dense_Dense5821/bias","shape":[2],"dtype":"float32"},{"name":"dense_Dense5822/kernel","shape":[2,16],"dtype":"float32"},{"name":"dense_Dense5822/bias","shape":[16],"dtype":"float32"},{"name":"dense_Dense5823/kernel","shape":[16,4],"dtype":"float32"},{"name":"dense_Dense5823/bias","shape":[4],"dtype":"float32"},{"name":"dense_Dense5824/kernel","shape":[4,32],"dtype":"float32"},{"name":"dense_Dense5824/bias","shape":[32],"dtype":"float32"},{"name":"dense_Dense5825/kernel","shape":[32,16],"dtype":"float32"},{"name":"dense_Dense5825/bias","shape":[16],"dtype":"float32"},{"name":"dense_Dense5826/kernel","shape":[16,1],"dtype":"float32"},{"name":"dense_Dense5826/bias","shape":[1],"dtype":"float32"}]}]}