{"modelTopology":{"class_name":"Model","config":{"name":"model1193","layers":[{"name":"input1193","class_name":"InputLayer","config":{"batch_input_shape":[null,3],"dtype":"float32","sparse":false,"name":"input1193"},"inbound_nodes":[]},{"name":"dense_Dense5961","class_name":"Dense","config":{"units":32,"activation":"relu","use_bias":true,"kernel_initializer":{"class_name":"VarianceScaling","config":{"scale":1,"mode":"fan_avg","distribution":"normal","seed":null}},"bias_initializer":{"class_name":"Zeros","config":{}},"kernel_regularizer":null,"bias_regularizer":null,"activity_regularizer":null,"kernel_constraint":null,"bias_constraint":null,"name":"dense_Dense5961","trainable":true},"inbound_nodes":[[["input1193",0,0,{}]]]},{"name":"dense_Dense5962","class_name":"Dense","config":{"units":8,"activation":"relu","use_bias":true,"kernel_initializer":{"class_name":"VarianceScaling","config":{"scale":1,"mode":"fan_avg","distribution":"normal","seed":null}},"bias_initializer":{"class_name":"Zeros","config":{}},"kernel_regularizer":null,"bias_regularizer":null,"activity_regularizer":null,"kernel_constraint":null,"bias_constraint":null,"name":"dense_Dense5962","trainable":true},"inbound_nodes":[[["dense_Dense5961",0,0,{}]]]},{"name":"dense_Dense5963","class_name":"Dense","config":{"units":1,"activation":"relu","use_bias":true,"kernel_initializer":{"class_name":"VarianceScaling","config":{"scale":1,"mode":"fan_avg","distribution":"normal","seed":null}},"bias_initializer":{"class_name":"Zeros","config":{}},"kernel_regularizer":null,"bias_regularizer":null,"activity_regularizer":null,"kernel_constraint":null,"bias_constraint":null,"name":"dense_Dense5963","trainable":true},"inbound_nodes":[[["dense_Dense5962",0,0,{}]]]},{"name":"dense_Dense5964","class_name":"Dense","config":{"units":16,"activation":"relu","use_bias":true,"kernel_initializer":{"class_name":"VarianceScaling","config":{"scale":1,"mode":"fan_avg","distribution":"normal","seed":null}},"bias_initializer":{"class_name":"Zeros","config":{}},"kernel_regularizer":null,"bias_regularizer":null,"activity_regularizer":null,"kernel_constraint":null,"bias_constraint":null,"name":"dense_Dense5964","trainable":true},"inbound_nodes":[[["dense_Dense5963",0,0,{}]]]},{"name":"dense_Dense5965","class_name":"Dense","config":{"units":1,"activation":"sigmoid","use_bias":true,"kernel_initializer":{"class_name":"VarianceScaling","config":{"scale":1,"mode":"fan_avg","distribution":"normal","seed":null}},"bias_initializer":{"class_name":"Zeros","config":{}},"kernel_regularizer":null,"bias_regularizer":null,"activity_regularizer":null,"kernel_constraint":null,"bias_constraint":null,"name":"dense_Dense5965","trainable":true},"inbound_nodes":[[["dense_Dense5964",0,0,{}]]]}],"input_layers":[["input1193",0,0]],"output_layers":[["dense_Dense5965",0,0]]},"keras_version":"tfjs-layers 3.9.0","backend":"tensor_flow.js"},"weightsManifest":[{"paths":["weights.bin"],"weights":[{"name":"dense_Dense5961/kernel","shape":[3,32],"dtype":"float32"},{"name":"dense_Dense5961/bias","shape":[32],"dtype":"float32"},{"name":"dense_Dense5962/kernel","shape":[32,8],"dtype":"float32"},{"name":"dense_Dense5962/bias","shape":[8],"dtype":"float32"},{"name":"dense_Dense5963/kernel","shape":[8,1],"dtype":"float32"},{"name":"dense_Dense5963/bias","shape":[1],"dtype":"float32"},{"name":"dense_Dense5964/kernel","shape":[1,16],"dtype":"float32"},{"name":"dense_Dense5964/bias","shape":[16],"dtype":"float32"},{"name":"dense_Dense5965/kernel","shape":[16,1],"dtype":"float32"},{"name":"dense_Dense5965/bias","shape":[1],"dtype":"float32"}]}]}