{"modelTopology":{"class_name":"Model","config":{"name":"model1267","layers":[{"name":"input1267","class_name":"InputLayer","config":{"batch_input_shape":[null,3],"dtype":"float32","sparse":false,"name":"input1267"},"inbound_nodes":[]},{"name":"dense_Dense7597","class_name":"Dense","config":{"units":32,"activation":"relu","use_bias":true,"kernel_initializer":{"class_name":"VarianceScaling","config":{"scale":1,"mode":"fan_avg","distribution":"normal","seed":null}},"bias_initializer":{"class_name":"Zeros","config":{}},"kernel_regularizer":null,"bias_regularizer":null,"activity_regularizer":null,"kernel_constraint":null,"bias_constraint":null,"name":"dense_Dense7597","trainable":true},"inbound_nodes":[[["input1267",0,0,{}]]]},{"name":"dense_Dense7598","class_name":"Dense","config":{"units":32,"activation":"relu","use_bias":true,"kernel_initializer":{"class_name":"VarianceScaling","config":{"scale":1,"mode":"fan_avg","distribution":"normal","seed":null}},"bias_initializer":{"class_name":"Zeros","config":{}},"kernel_regularizer":null,"bias_regularizer":null,"activity_regularizer":null,"kernel_constraint":null,"bias_constraint":null,"name":"dense_Dense7598","trainable":true},"inbound_nodes":[[["dense_Dense7597",0,0,{}]]]},{"name":"dense_Dense7599","class_name":"Dense","config":{"units":32,"activation":"relu","use_bias":true,"kernel_initializer":{"class_name":"VarianceScaling","config":{"scale":1,"mode":"fan_avg","distribution":"normal","seed":null}},"bias_initializer":{"class_name":"Zeros","config":{}},"kernel_regularizer":null,"bias_regularizer":null,"activity_regularizer":null,"kernel_constraint":null,"bias_constraint":null,"name":"dense_Dense7599","trainable":true},"inbound_nodes":[[["dense_Dense7598",0,0,{}]]]},{"name":"dense_Dense7600","class_name":"Dense","config":{"units":2,"activation":"relu","use_bias":true,"kernel_initializer":{"class_name":"VarianceScaling","config":{"scale":1,"mode":"fan_avg","distribution":"normal","seed":null}},"bias_initializer":{"class_name":"Zeros","config":{}},"kernel_regularizer":null,"bias_regularizer":null,"activity_regularizer":null,"kernel_constraint":null,"bias_constraint":null,"name":"dense_Dense7600","trainable":true},"inbound_nodes":[[["dense_Dense7599",0,0,{}]]]},{"name":"dense_Dense7601","class_name":"Dense","config":{"units":1,"activation":"relu","use_bias":true,"kernel_initializer":{"class_name":"VarianceScaling","config":{"scale":1,"mode":"fan_avg","distribution":"normal","seed":null}},"bias_initializer":{"class_name":"Zeros","config":{}},"kernel_regularizer":null,"bias_regularizer":null,"activity_regularizer":null,"kernel_constraint":null,"bias_constraint":null,"name":"dense_Dense7601","trainable":true},"inbound_nodes":[[["dense_Dense7600",0,0,{}]]]},{"name":"dense_Dense7602","class_name":"Dense","config":{"units":1,"activation":"sigmoid","use_bias":true,"kernel_initializer":{"class_name":"VarianceScaling","config":{"scale":1,"mode":"fan_avg","distribution":"normal","seed":null}},"bias_initializer":{"class_name":"Zeros","config":{}},"kernel_regularizer":null,"bias_regularizer":null,"activity_regularizer":null,"kernel_constraint":null,"bias_constraint":null,"name":"dense_Dense7602","trainable":true},"inbound_nodes":[[["dense_Dense7601",0,0,{}]]]}],"input_layers":[["input1267",0,0]],"output_layers":[["dense_Dense7602",0,0]]},"keras_version":"tfjs-layers 3.9.0","backend":"tensor_flow.js"},"weightsManifest":[{"paths":["weights.bin"],"weights":[{"name":"dense_Dense7597/kernel","shape":[3,32],"dtype":"float32"},{"name":"dense_Dense7597/bias","shape":[32],"dtype":"float32"},{"name":"dense_Dense7598/kernel","shape":[32,32],"dtype":"float32"},{"name":"dense_Dense7598/bias","shape":[32],"dtype":"float32"},{"name":"dense_Dense7599/kernel","shape":[32,32],"dtype":"float32"},{"name":"dense_Dense7599/bias","shape":[32],"dtype":"float32"},{"name":"dense_Dense7600/kernel","shape":[32,2],"dtype":"float32"},{"name":"dense_Dense7600/bias","shape":[2],"dtype":"float32"},{"name":"dense_Dense7601/kernel","shape":[2,1],"dtype":"float32"},{"name":"dense_Dense7601/bias","shape":[1],"dtype":"float32"},{"name":"dense_Dense7602/kernel","shape":[1,1],"dtype":"float32"},{"name":"dense_Dense7602/bias","shape":[1],"dtype":"float32"}]}]}