{"modelTopology":{"class_name":"Model","config":{"name":"model471","layers":[{"name":"input471","class_name":"InputLayer","config":{"batch_input_shape":[null,3],"dtype":"float32","sparse":false,"name":"input471"},"inbound_nodes":[]},{"name":"dense_Dense2351","class_name":"Dense","config":{"units":4,"activation":"relu","use_bias":true,"kernel_initializer":{"class_name":"VarianceScaling","config":{"scale":1,"mode":"fan_avg","distribution":"normal","seed":null}},"bias_initializer":{"class_name":"Zeros","config":{}},"kernel_regularizer":null,"bias_regularizer":null,"activity_regularizer":null,"kernel_constraint":null,"bias_constraint":null,"name":"dense_Dense2351","trainable":true},"inbound_nodes":[[["input471",0,0,{}]]]},{"name":"dense_Dense2352","class_name":"Dense","config":{"units":2,"activation":"relu","use_bias":true,"kernel_initializer":{"class_name":"VarianceScaling","config":{"scale":1,"mode":"fan_avg","distribution":"normal","seed":null}},"bias_initializer":{"class_name":"Zeros","config":{}},"kernel_regularizer":null,"bias_regularizer":null,"activity_regularizer":null,"kernel_constraint":null,"bias_constraint":null,"name":"dense_Dense2352","trainable":true},"inbound_nodes":[[["dense_Dense2351",0,0,{}]]]},{"name":"dense_Dense2353","class_name":"Dense","config":{"units":1,"activation":"relu","use_bias":true,"kernel_initializer":{"class_name":"VarianceScaling","config":{"scale":1,"mode":"fan_avg","distribution":"normal","seed":null}},"bias_initializer":{"class_name":"Zeros","config":{}},"kernel_regularizer":null,"bias_regularizer":null,"activity_regularizer":null,"kernel_constraint":null,"bias_constraint":null,"name":"dense_Dense2353","trainable":true},"inbound_nodes":[[["dense_Dense2352",0,0,{}]]]},{"name":"dense_Dense2354","class_name":"Dense","config":{"units":4,"activation":"relu","use_bias":true,"kernel_initializer":{"class_name":"VarianceScaling","config":{"scale":1,"mode":"fan_avg","distribution":"normal","seed":null}},"bias_initializer":{"class_name":"Zeros","config":{}},"kernel_regularizer":null,"bias_regularizer":null,"activity_regularizer":null,"kernel_constraint":null,"bias_constraint":null,"name":"dense_Dense2354","trainable":true},"inbound_nodes":[[["dense_Dense2353",0,0,{}]]]},{"name":"dense_Dense2355","class_name":"Dense","config":{"units":1,"activation":"sigmoid","use_bias":true,"kernel_initializer":{"class_name":"VarianceScaling","config":{"scale":1,"mode":"fan_avg","distribution":"normal","seed":null}},"bias_initializer":{"class_name":"Zeros","config":{}},"kernel_regularizer":null,"bias_regularizer":null,"activity_regularizer":null,"kernel_constraint":null,"bias_constraint":null,"name":"dense_Dense2355","trainable":true},"inbound_nodes":[[["dense_Dense2354",0,0,{}]]]}],"input_layers":[["input471",0,0]],"output_layers":[["dense_Dense2355",0,0]]},"keras_version":"tfjs-layers 3.9.0","backend":"tensor_flow.js"},"weightsManifest":[{"paths":["weights.bin"],"weights":[{"name":"dense_Dense2351/kernel","shape":[3,4],"dtype":"float32"},{"name":"dense_Dense2351/bias","shape":[4],"dtype":"float32"},{"name":"dense_Dense2352/kernel","shape":[4,2],"dtype":"float32"},{"name":"dense_Dense2352/bias","shape":[2],"dtype":"float32"},{"name":"dense_Dense2353/kernel","shape":[2,1],"dtype":"float32"},{"name":"dense_Dense2353/bias","shape":[1],"dtype":"float32"},{"name":"dense_Dense2354/kernel","shape":[1,4],"dtype":"float32"},{"name":"dense_Dense2354/bias","shape":[4],"dtype":"float32"},{"name":"dense_Dense2355/kernel","shape":[4,1],"dtype":"float32"},{"name":"dense_Dense2355/bias","shape":[1],"dtype":"float32"}]}]}