{"modelTopology":{"class_name":"Model","config":{"name":"model202","layers":[{"name":"input202","class_name":"InputLayer","config":{"batch_input_shape":[null,3],"dtype":"float32","sparse":false,"name":"input202"},"inbound_nodes":[]},{"name":"dense_Dense1006","class_name":"Dense","config":{"units":1,"activation":"relu","use_bias":true,"kernel_initializer":{"class_name":"VarianceScaling","config":{"scale":1,"mode":"fan_avg","distribution":"normal","seed":null}},"bias_initializer":{"class_name":"Zeros","config":{}},"kernel_regularizer":null,"bias_regularizer":null,"activity_regularizer":null,"kernel_constraint":null,"bias_constraint":null,"name":"dense_Dense1006","trainable":true},"inbound_nodes":[[["input202",0,0,{}]]]},{"name":"dense_Dense1007","class_name":"Dense","config":{"units":32,"activation":"relu","use_bias":true,"kernel_initializer":{"class_name":"VarianceScaling","config":{"scale":1,"mode":"fan_avg","distribution":"normal","seed":null}},"bias_initializer":{"class_name":"Zeros","config":{}},"kernel_regularizer":null,"bias_regularizer":null,"activity_regularizer":null,"kernel_constraint":null,"bias_constraint":null,"name":"dense_Dense1007","trainable":true},"inbound_nodes":[[["dense_Dense1006",0,0,{}]]]},{"name":"dense_Dense1008","class_name":"Dense","config":{"units":8,"activation":"relu","use_bias":true,"kernel_initializer":{"class_name":"VarianceScaling","config":{"scale":1,"mode":"fan_avg","distribution":"normal","seed":null}},"bias_initializer":{"class_name":"Zeros","config":{}},"kernel_regularizer":null,"bias_regularizer":null,"activity_regularizer":null,"kernel_constraint":null,"bias_constraint":null,"name":"dense_Dense1008","trainable":true},"inbound_nodes":[[["dense_Dense1007",0,0,{}]]]},{"name":"dense_Dense1009","class_name":"Dense","config":{"units":8,"activation":"relu","use_bias":true,"kernel_initializer":{"class_name":"VarianceScaling","config":{"scale":1,"mode":"fan_avg","distribution":"normal","seed":null}},"bias_initializer":{"class_name":"Zeros","config":{}},"kernel_regularizer":null,"bias_regularizer":null,"activity_regularizer":null,"kernel_constraint":null,"bias_constraint":null,"name":"dense_Dense1009","trainable":true},"inbound_nodes":[[["dense_Dense1008",0,0,{}]]]},{"name":"dense_Dense1010","class_name":"Dense","config":{"units":1,"activation":"sigmoid","use_bias":true,"kernel_initializer":{"class_name":"VarianceScaling","config":{"scale":1,"mode":"fan_avg","distribution":"normal","seed":null}},"bias_initializer":{"class_name":"Zeros","config":{}},"kernel_regularizer":null,"bias_regularizer":null,"activity_regularizer":null,"kernel_constraint":null,"bias_constraint":null,"name":"dense_Dense1010","trainable":true},"inbound_nodes":[[["dense_Dense1009",0,0,{}]]]}],"input_layers":[["input202",0,0]],"output_layers":[["dense_Dense1010",0,0]]},"keras_version":"tfjs-layers 3.9.0","backend":"tensor_flow.js"},"weightsManifest":[{"paths":["weights.bin"],"weights":[{"name":"dense_Dense1006/kernel","shape":[3,1],"dtype":"float32"},{"name":"dense_Dense1006/bias","shape":[1],"dtype":"float32"},{"name":"dense_Dense1007/kernel","shape":[1,32],"dtype":"float32"},{"name":"dense_Dense1007/bias","shape":[32],"dtype":"float32"},{"name":"dense_Dense1008/kernel","shape":[32,8],"dtype":"float32"},{"name":"dense_Dense1008/bias","shape":[8],"dtype":"float32"},{"name":"dense_Dense1009/kernel","shape":[8,8],"dtype":"float32"},{"name":"dense_Dense1009/bias","shape":[8],"dtype":"float32"},{"name":"dense_Dense1010/kernel","shape":[8,1],"dtype":"float32"},{"name":"dense_Dense1010/bias","shape":[1],"dtype":"float32"}]}]}