{"modelTopology":{"class_name":"Model","config":{"name":"model651","layers":[{"name":"input651","class_name":"InputLayer","config":{"batch_input_shape":[null,3],"dtype":"float32","sparse":false,"name":"input651"},"inbound_nodes":[]},{"name":"dense_Dense3901","class_name":"Dense","config":{"units":32,"activation":"relu","use_bias":true,"kernel_initializer":{"class_name":"VarianceScaling","config":{"scale":1,"mode":"fan_avg","distribution":"normal","seed":null}},"bias_initializer":{"class_name":"Zeros","config":{}},"kernel_regularizer":null,"bias_regularizer":null,"activity_regularizer":null,"kernel_constraint":null,"bias_constraint":null,"name":"dense_Dense3901","trainable":true},"inbound_nodes":[[["input651",0,0,{}]]]},{"name":"dense_Dense3902","class_name":"Dense","config":{"units":8,"activation":"relu","use_bias":true,"kernel_initializer":{"class_name":"VarianceScaling","config":{"scale":1,"mode":"fan_avg","distribution":"normal","seed":null}},"bias_initializer":{"class_name":"Zeros","config":{}},"kernel_regularizer":null,"bias_regularizer":null,"activity_regularizer":null,"kernel_constraint":null,"bias_constraint":null,"name":"dense_Dense3902","trainable":true},"inbound_nodes":[[["dense_Dense3901",0,0,{}]]]},{"name":"dense_Dense3903","class_name":"Dense","config":{"units":1,"activation":"relu","use_bias":true,"kernel_initializer":{"class_name":"VarianceScaling","config":{"scale":1,"mode":"fan_avg","distribution":"normal","seed":null}},"bias_initializer":{"class_name":"Zeros","config":{}},"kernel_regularizer":null,"bias_regularizer":null,"activity_regularizer":null,"kernel_constraint":null,"bias_constraint":null,"name":"dense_Dense3903","trainable":true},"inbound_nodes":[[["dense_Dense3902",0,0,{}]]]},{"name":"dense_Dense3904","class_name":"Dense","config":{"units":1,"activation":"relu","use_bias":true,"kernel_initializer":{"class_name":"VarianceScaling","config":{"scale":1,"mode":"fan_avg","distribution":"normal","seed":null}},"bias_initializer":{"class_name":"Zeros","config":{}},"kernel_regularizer":null,"bias_regularizer":null,"activity_regularizer":null,"kernel_constraint":null,"bias_constraint":null,"name":"dense_Dense3904","trainable":true},"inbound_nodes":[[["dense_Dense3903",0,0,{}]]]},{"name":"dense_Dense3905","class_name":"Dense","config":{"units":4,"activation":"relu","use_bias":true,"kernel_initializer":{"class_name":"VarianceScaling","config":{"scale":1,"mode":"fan_avg","distribution":"normal","seed":null}},"bias_initializer":{"class_name":"Zeros","config":{}},"kernel_regularizer":null,"bias_regularizer":null,"activity_regularizer":null,"kernel_constraint":null,"bias_constraint":null,"name":"dense_Dense3905","trainable":true},"inbound_nodes":[[["dense_Dense3904",0,0,{}]]]},{"name":"dense_Dense3906","class_name":"Dense","config":{"units":1,"activation":"sigmoid","use_bias":true,"kernel_initializer":{"class_name":"VarianceScaling","config":{"scale":1,"mode":"fan_avg","distribution":"normal","seed":null}},"bias_initializer":{"class_name":"Zeros","config":{}},"kernel_regularizer":null,"bias_regularizer":null,"activity_regularizer":null,"kernel_constraint":null,"bias_constraint":null,"name":"dense_Dense3906","trainable":true},"inbound_nodes":[[["dense_Dense3905",0,0,{}]]]}],"input_layers":[["input651",0,0]],"output_layers":[["dense_Dense3906",0,0]]},"keras_version":"tfjs-layers 3.9.0","backend":"tensor_flow.js"},"weightsManifest":[{"paths":["weights.bin"],"weights":[{"name":"dense_Dense3901/kernel","shape":[3,32],"dtype":"float32"},{"name":"dense_Dense3901/bias","shape":[32],"dtype":"float32"},{"name":"dense_Dense3902/kernel","shape":[32,8],"dtype":"float32"},{"name":"dense_Dense3902/bias","shape":[8],"dtype":"float32"},{"name":"dense_Dense3903/kernel","shape":[8,1],"dtype":"float32"},{"name":"dense_Dense3903/bias","shape":[1],"dtype":"float32"},{"name":"dense_Dense3904/kernel","shape":[1,1],"dtype":"float32"},{"name":"dense_Dense3904/bias","shape":[1],"dtype":"float32"},{"name":"dense_Dense3905/kernel","shape":[1,4],"dtype":"float32"},{"name":"dense_Dense3905/bias","shape":[4],"dtype":"float32"},{"name":"dense_Dense3906/kernel","shape":[4,1],"dtype":"float32"},{"name":"dense_Dense3906/bias","shape":[1],"dtype":"float32"}]}]}