{"modelTopology":{"class_name":"Model","config":{"name":"model1223","layers":[{"name":"input1223","class_name":"InputLayer","config":{"batch_input_shape":[null,3],"dtype":"float32","sparse":false,"name":"input1223"},"inbound_nodes":[]},{"name":"dense_Dense7333","class_name":"Dense","config":{"units":2,"activation":"relu","use_bias":true,"kernel_initializer":{"class_name":"VarianceScaling","config":{"scale":1,"mode":"fan_avg","distribution":"normal","seed":null}},"bias_initializer":{"class_name":"Zeros","config":{}},"kernel_regularizer":null,"bias_regularizer":null,"activity_regularizer":null,"kernel_constraint":null,"bias_constraint":null,"name":"dense_Dense7333","trainable":true},"inbound_nodes":[[["input1223",0,0,{}]]]},{"name":"dense_Dense7334","class_name":"Dense","config":{"units":32,"activation":"relu","use_bias":true,"kernel_initializer":{"class_name":"VarianceScaling","config":{"scale":1,"mode":"fan_avg","distribution":"normal","seed":null}},"bias_initializer":{"class_name":"Zeros","config":{}},"kernel_regularizer":null,"bias_regularizer":null,"activity_regularizer":null,"kernel_constraint":null,"bias_constraint":null,"name":"dense_Dense7334","trainable":true},"inbound_nodes":[[["dense_Dense7333",0,0,{}]]]},{"name":"dense_Dense7335","class_name":"Dense","config":{"units":8,"activation":"relu","use_bias":true,"kernel_initializer":{"class_name":"VarianceScaling","config":{"scale":1,"mode":"fan_avg","distribution":"normal","seed":null}},"bias_initializer":{"class_name":"Zeros","config":{}},"kernel_regularizer":null,"bias_regularizer":null,"activity_regularizer":null,"kernel_constraint":null,"bias_constraint":null,"name":"dense_Dense7335","trainable":true},"inbound_nodes":[[["dense_Dense7334",0,0,{}]]]},{"name":"dense_Dense7336","class_name":"Dense","config":{"units":32,"activation":"relu","use_bias":true,"kernel_initializer":{"class_name":"VarianceScaling","config":{"scale":1,"mode":"fan_avg","distribution":"normal","seed":null}},"bias_initializer":{"class_name":"Zeros","config":{}},"kernel_regularizer":null,"bias_regularizer":null,"activity_regularizer":null,"kernel_constraint":null,"bias_constraint":null,"name":"dense_Dense7336","trainable":true},"inbound_nodes":[[["dense_Dense7335",0,0,{}]]]},{"name":"dense_Dense7337","class_name":"Dense","config":{"units":16,"activation":"relu","use_bias":true,"kernel_initializer":{"class_name":"VarianceScaling","config":{"scale":1,"mode":"fan_avg","distribution":"normal","seed":null}},"bias_initializer":{"class_name":"Zeros","config":{}},"kernel_regularizer":null,"bias_regularizer":null,"activity_regularizer":null,"kernel_constraint":null,"bias_constraint":null,"name":"dense_Dense7337","trainable":true},"inbound_nodes":[[["dense_Dense7336",0,0,{}]]]},{"name":"dense_Dense7338","class_name":"Dense","config":{"units":1,"activation":"sigmoid","use_bias":true,"kernel_initializer":{"class_name":"VarianceScaling","config":{"scale":1,"mode":"fan_avg","distribution":"normal","seed":null}},"bias_initializer":{"class_name":"Zeros","config":{}},"kernel_regularizer":null,"bias_regularizer":null,"activity_regularizer":null,"kernel_constraint":null,"bias_constraint":null,"name":"dense_Dense7338","trainable":true},"inbound_nodes":[[["dense_Dense7337",0,0,{}]]]}],"input_layers":[["input1223",0,0]],"output_layers":[["dense_Dense7338",0,0]]},"keras_version":"tfjs-layers 3.9.0","backend":"tensor_flow.js"},"weightsManifest":[{"paths":["weights.bin"],"weights":[{"name":"dense_Dense7333/kernel","shape":[3,2],"dtype":"float32"},{"name":"dense_Dense7333/bias","shape":[2],"dtype":"float32"},{"name":"dense_Dense7334/kernel","shape":[2,32],"dtype":"float32"},{"name":"dense_Dense7334/bias","shape":[32],"dtype":"float32"},{"name":"dense_Dense7335/kernel","shape":[32,8],"dtype":"float32"},{"name":"dense_Dense7335/bias","shape":[8],"dtype":"float32"},{"name":"dense_Dense7336/kernel","shape":[8,32],"dtype":"float32"},{"name":"dense_Dense7336/bias","shape":[32],"dtype":"float32"},{"name":"dense_Dense7337/kernel","shape":[32,16],"dtype":"float32"},{"name":"dense_Dense7337/bias","shape":[16],"dtype":"float32"},{"name":"dense_Dense7338/kernel","shape":[16,1],"dtype":"float32"},{"name":"dense_Dense7338/bias","shape":[1],"dtype":"float32"}]}]}