{"modelTopology":{"class_name":"Model","config":{"name":"model526","layers":[{"name":"input526","class_name":"InputLayer","config":{"batch_input_shape":[null,3],"dtype":"float32","sparse":false,"name":"input526"},"inbound_nodes":[]},{"name":"dense_Dense3151","class_name":"Dense","config":{"units":2,"activation":"relu","use_bias":true,"kernel_initializer":{"class_name":"VarianceScaling","config":{"scale":1,"mode":"fan_avg","distribution":"normal","seed":null}},"bias_initializer":{"class_name":"Zeros","config":{}},"kernel_regularizer":null,"bias_regularizer":null,"activity_regularizer":null,"kernel_constraint":null,"bias_constraint":null,"name":"dense_Dense3151","trainable":true},"inbound_nodes":[[["input526",0,0,{}]]]},{"name":"dense_Dense3152","class_name":"Dense","config":{"units":4,"activation":"relu","use_bias":true,"kernel_initializer":{"class_name":"VarianceScaling","config":{"scale":1,"mode":"fan_avg","distribution":"normal","seed":null}},"bias_initializer":{"class_name":"Zeros","config":{}},"kernel_regularizer":null,"bias_regularizer":null,"activity_regularizer":null,"kernel_constraint":null,"bias_constraint":null,"name":"dense_Dense3152","trainable":true},"inbound_nodes":[[["dense_Dense3151",0,0,{}]]]},{"name":"dense_Dense3153","class_name":"Dense","config":{"units":4,"activation":"relu","use_bias":true,"kernel_initializer":{"class_name":"VarianceScaling","config":{"scale":1,"mode":"fan_avg","distribution":"normal","seed":null}},"bias_initializer":{"class_name":"Zeros","config":{}},"kernel_regularizer":null,"bias_regularizer":null,"activity_regularizer":null,"kernel_constraint":null,"bias_constraint":null,"name":"dense_Dense3153","trainable":true},"inbound_nodes":[[["dense_Dense3152",0,0,{}]]]},{"name":"dense_Dense3154","class_name":"Dense","config":{"units":8,"activation":"relu","use_bias":true,"kernel_initializer":{"class_name":"VarianceScaling","config":{"scale":1,"mode":"fan_avg","distribution":"normal","seed":null}},"bias_initializer":{"class_name":"Zeros","config":{}},"kernel_regularizer":null,"bias_regularizer":null,"activity_regularizer":null,"kernel_constraint":null,"bias_constraint":null,"name":"dense_Dense3154","trainable":true},"inbound_nodes":[[["dense_Dense3153",0,0,{}]]]},{"name":"dense_Dense3155","class_name":"Dense","config":{"units":8,"activation":"relu","use_bias":true,"kernel_initializer":{"class_name":"VarianceScaling","config":{"scale":1,"mode":"fan_avg","distribution":"normal","seed":null}},"bias_initializer":{"class_name":"Zeros","config":{}},"kernel_regularizer":null,"bias_regularizer":null,"activity_regularizer":null,"kernel_constraint":null,"bias_constraint":null,"name":"dense_Dense3155","trainable":true},"inbound_nodes":[[["dense_Dense3154",0,0,{}]]]},{"name":"dense_Dense3156","class_name":"Dense","config":{"units":1,"activation":"sigmoid","use_bias":true,"kernel_initializer":{"class_name":"VarianceScaling","config":{"scale":1,"mode":"fan_avg","distribution":"normal","seed":null}},"bias_initializer":{"class_name":"Zeros","config":{}},"kernel_regularizer":null,"bias_regularizer":null,"activity_regularizer":null,"kernel_constraint":null,"bias_constraint":null,"name":"dense_Dense3156","trainable":true},"inbound_nodes":[[["dense_Dense3155",0,0,{}]]]}],"input_layers":[["input526",0,0]],"output_layers":[["dense_Dense3156",0,0]]},"keras_version":"tfjs-layers 3.9.0","backend":"tensor_flow.js"},"weightsManifest":[{"paths":["weights.bin"],"weights":[{"name":"dense_Dense3151/kernel","shape":[3,2],"dtype":"float32"},{"name":"dense_Dense3151/bias","shape":[2],"dtype":"float32"},{"name":"dense_Dense3152/kernel","shape":[2,4],"dtype":"float32"},{"name":"dense_Dense3152/bias","shape":[4],"dtype":"float32"},{"name":"dense_Dense3153/kernel","shape":[4,4],"dtype":"float32"},{"name":"dense_Dense3153/bias","shape":[4],"dtype":"float32"},{"name":"dense_Dense3154/kernel","shape":[4,8],"dtype":"float32"},{"name":"dense_Dense3154/bias","shape":[8],"dtype":"float32"},{"name":"dense_Dense3155/kernel","shape":[8,8],"dtype":"float32"},{"name":"dense_Dense3155/bias","shape":[8],"dtype":"float32"},{"name":"dense_Dense3156/kernel","shape":[8,1],"dtype":"float32"},{"name":"dense_Dense3156/bias","shape":[1],"dtype":"float32"}]}]}