{"modelTopology":{"class_name":"Model","config":{"name":"model946","layers":[{"name":"input946","class_name":"InputLayer","config":{"batch_input_shape":[null,3],"dtype":"float32","sparse":false,"name":"input946"},"inbound_nodes":[]},{"name":"dense_Dense4726","class_name":"Dense","config":{"units":16,"activation":"relu","use_bias":true,"kernel_initializer":{"class_name":"VarianceScaling","config":{"scale":1,"mode":"fan_avg","distribution":"normal","seed":null}},"bias_initializer":{"class_name":"Zeros","config":{}},"kernel_regularizer":null,"bias_regularizer":null,"activity_regularizer":null,"kernel_constraint":null,"bias_constraint":null,"name":"dense_Dense4726","trainable":true},"inbound_nodes":[[["input946",0,0,{}]]]},{"name":"dense_Dense4727","class_name":"Dense","config":{"units":4,"activation":"relu","use_bias":true,"kernel_initializer":{"class_name":"VarianceScaling","config":{"scale":1,"mode":"fan_avg","distribution":"normal","seed":null}},"bias_initializer":{"class_name":"Zeros","config":{}},"kernel_regularizer":null,"bias_regularizer":null,"activity_regularizer":null,"kernel_constraint":null,"bias_constraint":null,"name":"dense_Dense4727","trainable":true},"inbound_nodes":[[["dense_Dense4726",0,0,{}]]]},{"name":"dense_Dense4728","class_name":"Dense","config":{"units":2,"activation":"relu","use_bias":true,"kernel_initializer":{"class_name":"VarianceScaling","config":{"scale":1,"mode":"fan_avg","distribution":"normal","seed":null}},"bias_initializer":{"class_name":"Zeros","config":{}},"kernel_regularizer":null,"bias_regularizer":null,"activity_regularizer":null,"kernel_constraint":null,"bias_constraint":null,"name":"dense_Dense4728","trainable":true},"inbound_nodes":[[["dense_Dense4727",0,0,{}]]]},{"name":"dense_Dense4729","class_name":"Dense","config":{"units":8,"activation":"relu","use_bias":true,"kernel_initializer":{"class_name":"VarianceScaling","config":{"scale":1,"mode":"fan_avg","distribution":"normal","seed":null}},"bias_initializer":{"class_name":"Zeros","config":{}},"kernel_regularizer":null,"bias_regularizer":null,"activity_regularizer":null,"kernel_constraint":null,"bias_constraint":null,"name":"dense_Dense4729","trainable":true},"inbound_nodes":[[["dense_Dense4728",0,0,{}]]]},{"name":"dense_Dense4730","class_name":"Dense","config":{"units":1,"activation":"sigmoid","use_bias":true,"kernel_initializer":{"class_name":"VarianceScaling","config":{"scale":1,"mode":"fan_avg","distribution":"normal","seed":null}},"bias_initializer":{"class_name":"Zeros","config":{}},"kernel_regularizer":null,"bias_regularizer":null,"activity_regularizer":null,"kernel_constraint":null,"bias_constraint":null,"name":"dense_Dense4730","trainable":true},"inbound_nodes":[[["dense_Dense4729",0,0,{}]]]}],"input_layers":[["input946",0,0]],"output_layers":[["dense_Dense4730",0,0]]},"keras_version":"tfjs-layers 3.9.0","backend":"tensor_flow.js"},"weightsManifest":[{"paths":["weights.bin"],"weights":[{"name":"dense_Dense4726/kernel","shape":[3,16],"dtype":"float32"},{"name":"dense_Dense4726/bias","shape":[16],"dtype":"float32"},{"name":"dense_Dense4727/kernel","shape":[16,4],"dtype":"float32"},{"name":"dense_Dense4727/bias","shape":[4],"dtype":"float32"},{"name":"dense_Dense4728/kernel","shape":[4,2],"dtype":"float32"},{"name":"dense_Dense4728/bias","shape":[2],"dtype":"float32"},{"name":"dense_Dense4729/kernel","shape":[2,8],"dtype":"float32"},{"name":"dense_Dense4729/bias","shape":[8],"dtype":"float32"},{"name":"dense_Dense4730/kernel","shape":[8,1],"dtype":"float32"},{"name":"dense_Dense4730/bias","shape":[1],"dtype":"float32"}]}]}