{"modelTopology":{"class_name":"Model","config":{"name":"model335","layers":[{"name":"input335","class_name":"InputLayer","config":{"batch_input_shape":[null,3],"dtype":"float32","sparse":false,"name":"input335"},"inbound_nodes":[]},{"name":"dense_Dense2005","class_name":"Dense","config":{"units":1,"activation":"relu","use_bias":true,"kernel_initializer":{"class_name":"VarianceScaling","config":{"scale":1,"mode":"fan_avg","distribution":"normal","seed":null}},"bias_initializer":{"class_name":"Zeros","config":{}},"kernel_regularizer":null,"bias_regularizer":null,"activity_regularizer":null,"kernel_constraint":null,"bias_constraint":null,"name":"dense_Dense2005","trainable":true},"inbound_nodes":[[["input335",0,0,{}]]]},{"name":"dense_Dense2006","class_name":"Dense","config":{"units":2,"activation":"relu","use_bias":true,"kernel_initializer":{"class_name":"VarianceScaling","config":{"scale":1,"mode":"fan_avg","distribution":"normal","seed":null}},"bias_initializer":{"class_name":"Zeros","config":{}},"kernel_regularizer":null,"bias_regularizer":null,"activity_regularizer":null,"kernel_constraint":null,"bias_constraint":null,"name":"dense_Dense2006","trainable":true},"inbound_nodes":[[["dense_Dense2005",0,0,{}]]]},{"name":"dense_Dense2007","class_name":"Dense","config":{"units":8,"activation":"relu","use_bias":true,"kernel_initializer":{"class_name":"VarianceScaling","config":{"scale":1,"mode":"fan_avg","distribution":"normal","seed":null}},"bias_initializer":{"class_name":"Zeros","config":{}},"kernel_regularizer":null,"bias_regularizer":null,"activity_regularizer":null,"kernel_constraint":null,"bias_constraint":null,"name":"dense_Dense2007","trainable":true},"inbound_nodes":[[["dense_Dense2006",0,0,{}]]]},{"name":"dense_Dense2008","class_name":"Dense","config":{"units":2,"activation":"relu","use_bias":true,"kernel_initializer":{"class_name":"VarianceScaling","config":{"scale":1,"mode":"fan_avg","distribution":"normal","seed":null}},"bias_initializer":{"class_name":"Zeros","config":{}},"kernel_regularizer":null,"bias_regularizer":null,"activity_regularizer":null,"kernel_constraint":null,"bias_constraint":null,"name":"dense_Dense2008","trainable":true},"inbound_nodes":[[["dense_Dense2007",0,0,{}]]]},{"name":"dense_Dense2009","class_name":"Dense","config":{"units":16,"activation":"relu","use_bias":true,"kernel_initializer":{"class_name":"VarianceScaling","config":{"scale":1,"mode":"fan_avg","distribution":"normal","seed":null}},"bias_initializer":{"class_name":"Zeros","config":{}},"kernel_regularizer":null,"bias_regularizer":null,"activity_regularizer":null,"kernel_constraint":null,"bias_constraint":null,"name":"dense_Dense2009","trainable":true},"inbound_nodes":[[["dense_Dense2008",0,0,{}]]]},{"name":"dense_Dense2010","class_name":"Dense","config":{"units":1,"activation":"sigmoid","use_bias":true,"kernel_initializer":{"class_name":"VarianceScaling","config":{"scale":1,"mode":"fan_avg","distribution":"normal","seed":null}},"bias_initializer":{"class_name":"Zeros","config":{}},"kernel_regularizer":null,"bias_regularizer":null,"activity_regularizer":null,"kernel_constraint":null,"bias_constraint":null,"name":"dense_Dense2010","trainable":true},"inbound_nodes":[[["dense_Dense2009",0,0,{}]]]}],"input_layers":[["input335",0,0]],"output_layers":[["dense_Dense2010",0,0]]},"keras_version":"tfjs-layers 3.9.0","backend":"tensor_flow.js"},"weightsManifest":[{"paths":["weights.bin"],"weights":[{"name":"dense_Dense2005/kernel","shape":[3,1],"dtype":"float32"},{"name":"dense_Dense2005/bias","shape":[1],"dtype":"float32"},{"name":"dense_Dense2006/kernel","shape":[1,2],"dtype":"float32"},{"name":"dense_Dense2006/bias","shape":[2],"dtype":"float32"},{"name":"dense_Dense2007/kernel","shape":[2,8],"dtype":"float32"},{"name":"dense_Dense2007/bias","shape":[8],"dtype":"float32"},{"name":"dense_Dense2008/kernel","shape":[8,2],"dtype":"float32"},{"name":"dense_Dense2008/bias","shape":[2],"dtype":"float32"},{"name":"dense_Dense2009/kernel","shape":[2,16],"dtype":"float32"},{"name":"dense_Dense2009/bias","shape":[16],"dtype":"float32"},{"name":"dense_Dense2010/kernel","shape":[16,1],"dtype":"float32"},{"name":"dense_Dense2010/bias","shape":[1],"dtype":"float32"}]}]}