{"modelTopology":{"class_name":"Model","config":{"name":"model93","layers":[{"name":"input93","class_name":"InputLayer","config":{"batch_input_shape":[null,3],"dtype":"float32","sparse":false,"name":"input93"},"inbound_nodes":[]},{"name":"dense_Dense553","class_name":"Dense","config":{"units":4,"activation":"relu","use_bias":true,"kernel_initializer":{"class_name":"VarianceScaling","config":{"scale":1,"mode":"fan_avg","distribution":"normal","seed":null}},"bias_initializer":{"class_name":"Zeros","config":{}},"kernel_regularizer":null,"bias_regularizer":null,"activity_regularizer":null,"kernel_constraint":null,"bias_constraint":null,"name":"dense_Dense553","trainable":true},"inbound_nodes":[[["input93",0,0,{}]]]},{"name":"dense_Dense554","class_name":"Dense","config":{"units":1,"activation":"relu","use_bias":true,"kernel_initializer":{"class_name":"VarianceScaling","config":{"scale":1,"mode":"fan_avg","distribution":"normal","seed":null}},"bias_initializer":{"class_name":"Zeros","config":{}},"kernel_regularizer":null,"bias_regularizer":null,"activity_regularizer":null,"kernel_constraint":null,"bias_constraint":null,"name":"dense_Dense554","trainable":true},"inbound_nodes":[[["dense_Dense553",0,0,{}]]]},{"name":"dense_Dense555","class_name":"Dense","config":{"units":4,"activation":"relu","use_bias":true,"kernel_initializer":{"class_name":"VarianceScaling","config":{"scale":1,"mode":"fan_avg","distribution":"normal","seed":null}},"bias_initializer":{"class_name":"Zeros","config":{}},"kernel_regularizer":null,"bias_regularizer":null,"activity_regularizer":null,"kernel_constraint":null,"bias_constraint":null,"name":"dense_Dense555","trainable":true},"inbound_nodes":[[["dense_Dense554",0,0,{}]]]},{"name":"dense_Dense556","class_name":"Dense","config":{"units":8,"activation":"relu","use_bias":true,"kernel_initializer":{"class_name":"VarianceScaling","config":{"scale":1,"mode":"fan_avg","distribution":"normal","seed":null}},"bias_initializer":{"class_name":"Zeros","config":{}},"kernel_regularizer":null,"bias_regularizer":null,"activity_regularizer":null,"kernel_constraint":null,"bias_constraint":null,"name":"dense_Dense556","trainable":true},"inbound_nodes":[[["dense_Dense555",0,0,{}]]]},{"name":"dense_Dense557","class_name":"Dense","config":{"units":4,"activation":"relu","use_bias":true,"kernel_initializer":{"class_name":"VarianceScaling","config":{"scale":1,"mode":"fan_avg","distribution":"normal","seed":null}},"bias_initializer":{"class_name":"Zeros","config":{}},"kernel_regularizer":null,"bias_regularizer":null,"activity_regularizer":null,"kernel_constraint":null,"bias_constraint":null,"name":"dense_Dense557","trainable":true},"inbound_nodes":[[["dense_Dense556",0,0,{}]]]},{"name":"dense_Dense558","class_name":"Dense","config":{"units":1,"activation":"sigmoid","use_bias":true,"kernel_initializer":{"class_name":"VarianceScaling","config":{"scale":1,"mode":"fan_avg","distribution":"normal","seed":null}},"bias_initializer":{"class_name":"Zeros","config":{}},"kernel_regularizer":null,"bias_regularizer":null,"activity_regularizer":null,"kernel_constraint":null,"bias_constraint":null,"name":"dense_Dense558","trainable":true},"inbound_nodes":[[["dense_Dense557",0,0,{}]]]}],"input_layers":[["input93",0,0]],"output_layers":[["dense_Dense558",0,0]]},"keras_version":"tfjs-layers 3.9.0","backend":"tensor_flow.js"},"weightsManifest":[{"paths":["weights.bin"],"weights":[{"name":"dense_Dense553/kernel","shape":[3,4],"dtype":"float32"},{"name":"dense_Dense553/bias","shape":[4],"dtype":"float32"},{"name":"dense_Dense554/kernel","shape":[4,1],"dtype":"float32"},{"name":"dense_Dense554/bias","shape":[1],"dtype":"float32"},{"name":"dense_Dense555/kernel","shape":[1,4],"dtype":"float32"},{"name":"dense_Dense555/bias","shape":[4],"dtype":"float32"},{"name":"dense_Dense556/kernel","shape":[4,8],"dtype":"float32"},{"name":"dense_Dense556/bias","shape":[8],"dtype":"float32"},{"name":"dense_Dense557/kernel","shape":[8,4],"dtype":"float32"},{"name":"dense_Dense557/bias","shape":[4],"dtype":"float32"},{"name":"dense_Dense558/kernel","shape":[4,1],"dtype":"float32"},{"name":"dense_Dense558/bias","shape":[1],"dtype":"float32"}]}]}