{"modelTopology":{"class_name":"Model","config":{"name":"model818","layers":[{"name":"input818","class_name":"InputLayer","config":{"batch_input_shape":[null,3],"dtype":"float32","sparse":false,"name":"input818"},"inbound_nodes":[]},{"name":"dense_Dense4086","class_name":"Dense","config":{"units":8,"activation":"relu","use_bias":true,"kernel_initializer":{"class_name":"VarianceScaling","config":{"scale":1,"mode":"fan_avg","distribution":"normal","seed":null}},"bias_initializer":{"class_name":"Zeros","config":{}},"kernel_regularizer":null,"bias_regularizer":null,"activity_regularizer":null,"kernel_constraint":null,"bias_constraint":null,"name":"dense_Dense4086","trainable":true},"inbound_nodes":[[["input818",0,0,{}]]]},{"name":"dense_Dense4087","class_name":"Dense","config":{"units":16,"activation":"relu","use_bias":true,"kernel_initializer":{"class_name":"VarianceScaling","config":{"scale":1,"mode":"fan_avg","distribution":"normal","seed":null}},"bias_initializer":{"class_name":"Zeros","config":{}},"kernel_regularizer":null,"bias_regularizer":null,"activity_regularizer":null,"kernel_constraint":null,"bias_constraint":null,"name":"dense_Dense4087","trainable":true},"inbound_nodes":[[["dense_Dense4086",0,0,{}]]]},{"name":"dense_Dense4088","class_name":"Dense","config":{"units":16,"activation":"relu","use_bias":true,"kernel_initializer":{"class_name":"VarianceScaling","config":{"scale":1,"mode":"fan_avg","distribution":"normal","seed":null}},"bias_initializer":{"class_name":"Zeros","config":{}},"kernel_regularizer":null,"bias_regularizer":null,"activity_regularizer":null,"kernel_constraint":null,"bias_constraint":null,"name":"dense_Dense4088","trainable":true},"inbound_nodes":[[["dense_Dense4087",0,0,{}]]]},{"name":"dense_Dense4089","class_name":"Dense","config":{"units":2,"activation":"relu","use_bias":true,"kernel_initializer":{"class_name":"VarianceScaling","config":{"scale":1,"mode":"fan_avg","distribution":"normal","seed":null}},"bias_initializer":{"class_name":"Zeros","config":{}},"kernel_regularizer":null,"bias_regularizer":null,"activity_regularizer":null,"kernel_constraint":null,"bias_constraint":null,"name":"dense_Dense4089","trainable":true},"inbound_nodes":[[["dense_Dense4088",0,0,{}]]]},{"name":"dense_Dense4090","class_name":"Dense","config":{"units":1,"activation":"sigmoid","use_bias":true,"kernel_initializer":{"class_name":"VarianceScaling","config":{"scale":1,"mode":"fan_avg","distribution":"normal","seed":null}},"bias_initializer":{"class_name":"Zeros","config":{}},"kernel_regularizer":null,"bias_regularizer":null,"activity_regularizer":null,"kernel_constraint":null,"bias_constraint":null,"name":"dense_Dense4090","trainable":true},"inbound_nodes":[[["dense_Dense4089",0,0,{}]]]}],"input_layers":[["input818",0,0]],"output_layers":[["dense_Dense4090",0,0]]},"keras_version":"tfjs-layers 3.9.0","backend":"tensor_flow.js"},"weightsManifest":[{"paths":["weights.bin"],"weights":[{"name":"dense_Dense4086/kernel","shape":[3,8],"dtype":"float32"},{"name":"dense_Dense4086/bias","shape":[8],"dtype":"float32"},{"name":"dense_Dense4087/kernel","shape":[8,16],"dtype":"float32"},{"name":"dense_Dense4087/bias","shape":[16],"dtype":"float32"},{"name":"dense_Dense4088/kernel","shape":[16,16],"dtype":"float32"},{"name":"dense_Dense4088/bias","shape":[16],"dtype":"float32"},{"name":"dense_Dense4089/kernel","shape":[16,2],"dtype":"float32"},{"name":"dense_Dense4089/bias","shape":[2],"dtype":"float32"},{"name":"dense_Dense4090/kernel","shape":[2,1],"dtype":"float32"},{"name":"dense_Dense4090/bias","shape":[1],"dtype":"float32"}]}]}