{"modelTopology":{"class_name":"Model","config":{"name":"model133","layers":[{"name":"input133","class_name":"InputLayer","config":{"batch_input_shape":[null,3],"dtype":"float32","sparse":false,"name":"input133"},"inbound_nodes":[]},{"name":"dense_Dense793","class_name":"Dense","config":{"units":16,"activation":"relu","use_bias":true,"kernel_initializer":{"class_name":"VarianceScaling","config":{"scale":1,"mode":"fan_avg","distribution":"normal","seed":null}},"bias_initializer":{"class_name":"Zeros","config":{}},"kernel_regularizer":null,"bias_regularizer":null,"activity_regularizer":null,"kernel_constraint":null,"bias_constraint":null,"name":"dense_Dense793","trainable":true},"inbound_nodes":[[["input133",0,0,{}]]]},{"name":"dense_Dense794","class_name":"Dense","config":{"units":1,"activation":"relu","use_bias":true,"kernel_initializer":{"class_name":"VarianceScaling","config":{"scale":1,"mode":"fan_avg","distribution":"normal","seed":null}},"bias_initializer":{"class_name":"Zeros","config":{}},"kernel_regularizer":null,"bias_regularizer":null,"activity_regularizer":null,"kernel_constraint":null,"bias_constraint":null,"name":"dense_Dense794","trainable":true},"inbound_nodes":[[["dense_Dense793",0,0,{}]]]},{"name":"dense_Dense795","class_name":"Dense","config":{"units":8,"activation":"relu","use_bias":true,"kernel_initializer":{"class_name":"VarianceScaling","config":{"scale":1,"mode":"fan_avg","distribution":"normal","seed":null}},"bias_initializer":{"class_name":"Zeros","config":{}},"kernel_regularizer":null,"bias_regularizer":null,"activity_regularizer":null,"kernel_constraint":null,"bias_constraint":null,"name":"dense_Dense795","trainable":true},"inbound_nodes":[[["dense_Dense794",0,0,{}]]]},{"name":"dense_Dense796","class_name":"Dense","config":{"units":16,"activation":"relu","use_bias":true,"kernel_initializer":{"class_name":"VarianceScaling","config":{"scale":1,"mode":"fan_avg","distribution":"normal","seed":null}},"bias_initializer":{"class_name":"Zeros","config":{}},"kernel_regularizer":null,"bias_regularizer":null,"activity_regularizer":null,"kernel_constraint":null,"bias_constraint":null,"name":"dense_Dense796","trainable":true},"inbound_nodes":[[["dense_Dense795",0,0,{}]]]},{"name":"dense_Dense797","class_name":"Dense","config":{"units":1,"activation":"relu","use_bias":true,"kernel_initializer":{"class_name":"VarianceScaling","config":{"scale":1,"mode":"fan_avg","distribution":"normal","seed":null}},"bias_initializer":{"class_name":"Zeros","config":{}},"kernel_regularizer":null,"bias_regularizer":null,"activity_regularizer":null,"kernel_constraint":null,"bias_constraint":null,"name":"dense_Dense797","trainable":true},"inbound_nodes":[[["dense_Dense796",0,0,{}]]]},{"name":"dense_Dense798","class_name":"Dense","config":{"units":1,"activation":"sigmoid","use_bias":true,"kernel_initializer":{"class_name":"VarianceScaling","config":{"scale":1,"mode":"fan_avg","distribution":"normal","seed":null}},"bias_initializer":{"class_name":"Zeros","config":{}},"kernel_regularizer":null,"bias_regularizer":null,"activity_regularizer":null,"kernel_constraint":null,"bias_constraint":null,"name":"dense_Dense798","trainable":true},"inbound_nodes":[[["dense_Dense797",0,0,{}]]]}],"input_layers":[["input133",0,0]],"output_layers":[["dense_Dense798",0,0]]},"keras_version":"tfjs-layers 3.9.0","backend":"tensor_flow.js"},"weightsManifest":[{"paths":["weights.bin"],"weights":[{"name":"dense_Dense793/kernel","shape":[3,16],"dtype":"float32"},{"name":"dense_Dense793/bias","shape":[16],"dtype":"float32"},{"name":"dense_Dense794/kernel","shape":[16,1],"dtype":"float32"},{"name":"dense_Dense794/bias","shape":[1],"dtype":"float32"},{"name":"dense_Dense795/kernel","shape":[1,8],"dtype":"float32"},{"name":"dense_Dense795/bias","shape":[8],"dtype":"float32"},{"name":"dense_Dense796/kernel","shape":[8,16],"dtype":"float32"},{"name":"dense_Dense796/bias","shape":[16],"dtype":"float32"},{"name":"dense_Dense797/kernel","shape":[16,1],"dtype":"float32"},{"name":"dense_Dense797/bias","shape":[1],"dtype":"float32"},{"name":"dense_Dense798/kernel","shape":[1,1],"dtype":"float32"},{"name":"dense_Dense798/bias","shape":[1],"dtype":"float32"}]}]}