{"modelTopology":{"class_name":"Model","config":{"name":"model577","layers":[{"name":"input577","class_name":"InputLayer","config":{"batch_input_shape":[null,3],"dtype":"float32","sparse":false,"name":"input577"},"inbound_nodes":[]},{"name":"dense_Dense3457","class_name":"Dense","config":{"units":8,"activation":"relu","use_bias":true,"kernel_initializer":{"class_name":"VarianceScaling","config":{"scale":1,"mode":"fan_avg","distribution":"normal","seed":null}},"bias_initializer":{"class_name":"Zeros","config":{}},"kernel_regularizer":null,"bias_regularizer":null,"activity_regularizer":null,"kernel_constraint":null,"bias_constraint":null,"name":"dense_Dense3457","trainable":true},"inbound_nodes":[[["input577",0,0,{}]]]},{"name":"dense_Dense3458","class_name":"Dense","config":{"units":4,"activation":"relu","use_bias":true,"kernel_initializer":{"class_name":"VarianceScaling","config":{"scale":1,"mode":"fan_avg","distribution":"normal","seed":null}},"bias_initializer":{"class_name":"Zeros","config":{}},"kernel_regularizer":null,"bias_regularizer":null,"activity_regularizer":null,"kernel_constraint":null,"bias_constraint":null,"name":"dense_Dense3458","trainable":true},"inbound_nodes":[[["dense_Dense3457",0,0,{}]]]},{"name":"dense_Dense3459","class_name":"Dense","config":{"units":16,"activation":"relu","use_bias":true,"kernel_initializer":{"class_name":"VarianceScaling","config":{"scale":1,"mode":"fan_avg","distribution":"normal","seed":null}},"bias_initializer":{"class_name":"Zeros","config":{}},"kernel_regularizer":null,"bias_regularizer":null,"activity_regularizer":null,"kernel_constraint":null,"bias_constraint":null,"name":"dense_Dense3459","trainable":true},"inbound_nodes":[[["dense_Dense3458",0,0,{}]]]},{"name":"dense_Dense3460","class_name":"Dense","config":{"units":1,"activation":"relu","use_bias":true,"kernel_initializer":{"class_name":"VarianceScaling","config":{"scale":1,"mode":"fan_avg","distribution":"normal","seed":null}},"bias_initializer":{"class_name":"Zeros","config":{}},"kernel_regularizer":null,"bias_regularizer":null,"activity_regularizer":null,"kernel_constraint":null,"bias_constraint":null,"name":"dense_Dense3460","trainable":true},"inbound_nodes":[[["dense_Dense3459",0,0,{}]]]},{"name":"dense_Dense3461","class_name":"Dense","config":{"units":1,"activation":"relu","use_bias":true,"kernel_initializer":{"class_name":"VarianceScaling","config":{"scale":1,"mode":"fan_avg","distribution":"normal","seed":null}},"bias_initializer":{"class_name":"Zeros","config":{}},"kernel_regularizer":null,"bias_regularizer":null,"activity_regularizer":null,"kernel_constraint":null,"bias_constraint":null,"name":"dense_Dense3461","trainable":true},"inbound_nodes":[[["dense_Dense3460",0,0,{}]]]},{"name":"dense_Dense3462","class_name":"Dense","config":{"units":1,"activation":"sigmoid","use_bias":true,"kernel_initializer":{"class_name":"VarianceScaling","config":{"scale":1,"mode":"fan_avg","distribution":"normal","seed":null}},"bias_initializer":{"class_name":"Zeros","config":{}},"kernel_regularizer":null,"bias_regularizer":null,"activity_regularizer":null,"kernel_constraint":null,"bias_constraint":null,"name":"dense_Dense3462","trainable":true},"inbound_nodes":[[["dense_Dense3461",0,0,{}]]]}],"input_layers":[["input577",0,0]],"output_layers":[["dense_Dense3462",0,0]]},"keras_version":"tfjs-layers 3.9.0","backend":"tensor_flow.js"},"weightsManifest":[{"paths":["weights.bin"],"weights":[{"name":"dense_Dense3457/kernel","shape":[3,8],"dtype":"float32"},{"name":"dense_Dense3457/bias","shape":[8],"dtype":"float32"},{"name":"dense_Dense3458/kernel","shape":[8,4],"dtype":"float32"},{"name":"dense_Dense3458/bias","shape":[4],"dtype":"float32"},{"name":"dense_Dense3459/kernel","shape":[4,16],"dtype":"float32"},{"name":"dense_Dense3459/bias","shape":[16],"dtype":"float32"},{"name":"dense_Dense3460/kernel","shape":[16,1],"dtype":"float32"},{"name":"dense_Dense3460/bias","shape":[1],"dtype":"float32"},{"name":"dense_Dense3461/kernel","shape":[1,1],"dtype":"float32"},{"name":"dense_Dense3461/bias","shape":[1],"dtype":"float32"},{"name":"dense_Dense3462/kernel","shape":[1,1],"dtype":"float32"},{"name":"dense_Dense3462/bias","shape":[1],"dtype":"float32"}]}]}