{"modelTopology":{"class_name":"Model","config":{"name":"model711","layers":[{"name":"input711","class_name":"InputLayer","config":{"batch_input_shape":[null,3],"dtype":"float32","sparse":false,"name":"input711"},"inbound_nodes":[]},{"name":"dense_Dense4261","class_name":"Dense","config":{"units":1,"activation":"relu","use_bias":true,"kernel_initializer":{"class_name":"VarianceScaling","config":{"scale":1,"mode":"fan_avg","distribution":"normal","seed":null}},"bias_initializer":{"class_name":"Zeros","config":{}},"kernel_regularizer":null,"bias_regularizer":null,"activity_regularizer":null,"kernel_constraint":null,"bias_constraint":null,"name":"dense_Dense4261","trainable":true},"inbound_nodes":[[["input711",0,0,{}]]]},{"name":"dense_Dense4262","class_name":"Dense","config":{"units":8,"activation":"relu","use_bias":true,"kernel_initializer":{"class_name":"VarianceScaling","config":{"scale":1,"mode":"fan_avg","distribution":"normal","seed":null}},"bias_initializer":{"class_name":"Zeros","config":{}},"kernel_regularizer":null,"bias_regularizer":null,"activity_regularizer":null,"kernel_constraint":null,"bias_constraint":null,"name":"dense_Dense4262","trainable":true},"inbound_nodes":[[["dense_Dense4261",0,0,{}]]]},{"name":"dense_Dense4263","class_name":"Dense","config":{"units":2,"activation":"relu","use_bias":true,"kernel_initializer":{"class_name":"VarianceScaling","config":{"scale":1,"mode":"fan_avg","distribution":"normal","seed":null}},"bias_initializer":{"class_name":"Zeros","config":{}},"kernel_regularizer":null,"bias_regularizer":null,"activity_regularizer":null,"kernel_constraint":null,"bias_constraint":null,"name":"dense_Dense4263","trainable":true},"inbound_nodes":[[["dense_Dense4262",0,0,{}]]]},{"name":"dense_Dense4264","class_name":"Dense","config":{"units":16,"activation":"relu","use_bias":true,"kernel_initializer":{"class_name":"VarianceScaling","config":{"scale":1,"mode":"fan_avg","distribution":"normal","seed":null}},"bias_initializer":{"class_name":"Zeros","config":{}},"kernel_regularizer":null,"bias_regularizer":null,"activity_regularizer":null,"kernel_constraint":null,"bias_constraint":null,"name":"dense_Dense4264","trainable":true},"inbound_nodes":[[["dense_Dense4263",0,0,{}]]]},{"name":"dense_Dense4265","class_name":"Dense","config":{"units":4,"activation":"relu","use_bias":true,"kernel_initializer":{"class_name":"VarianceScaling","config":{"scale":1,"mode":"fan_avg","distribution":"normal","seed":null}},"bias_initializer":{"class_name":"Zeros","config":{}},"kernel_regularizer":null,"bias_regularizer":null,"activity_regularizer":null,"kernel_constraint":null,"bias_constraint":null,"name":"dense_Dense4265","trainable":true},"inbound_nodes":[[["dense_Dense4264",0,0,{}]]]},{"name":"dense_Dense4266","class_name":"Dense","config":{"units":1,"activation":"sigmoid","use_bias":true,"kernel_initializer":{"class_name":"VarianceScaling","config":{"scale":1,"mode":"fan_avg","distribution":"normal","seed":null}},"bias_initializer":{"class_name":"Zeros","config":{}},"kernel_regularizer":null,"bias_regularizer":null,"activity_regularizer":null,"kernel_constraint":null,"bias_constraint":null,"name":"dense_Dense4266","trainable":true},"inbound_nodes":[[["dense_Dense4265",0,0,{}]]]}],"input_layers":[["input711",0,0]],"output_layers":[["dense_Dense4266",0,0]]},"keras_version":"tfjs-layers 3.9.0","backend":"tensor_flow.js"},"weightsManifest":[{"paths":["weights.bin"],"weights":[{"name":"dense_Dense4261/kernel","shape":[3,1],"dtype":"float32"},{"name":"dense_Dense4261/bias","shape":[1],"dtype":"float32"},{"name":"dense_Dense4262/kernel","shape":[1,8],"dtype":"float32"},{"name":"dense_Dense4262/bias","shape":[8],"dtype":"float32"},{"name":"dense_Dense4263/kernel","shape":[8,2],"dtype":"float32"},{"name":"dense_Dense4263/bias","shape":[2],"dtype":"float32"},{"name":"dense_Dense4264/kernel","shape":[2,16],"dtype":"float32"},{"name":"dense_Dense4264/bias","shape":[16],"dtype":"float32"},{"name":"dense_Dense4265/kernel","shape":[16,4],"dtype":"float32"},{"name":"dense_Dense4265/bias","shape":[4],"dtype":"float32"},{"name":"dense_Dense4266/kernel","shape":[4,1],"dtype":"float32"},{"name":"dense_Dense4266/bias","shape":[1],"dtype":"float32"}]}]}