{"modelTopology":{"class_name":"Model","config":{"name":"model117","layers":[{"name":"input117","class_name":"InputLayer","config":{"batch_input_shape":[null,3],"dtype":"float32","sparse":false,"name":"input117"},"inbound_nodes":[]},{"name":"dense_Dense581","class_name":"Dense","config":{"units":1,"activation":"relu","use_bias":true,"kernel_initializer":{"class_name":"VarianceScaling","config":{"scale":1,"mode":"fan_avg","distribution":"normal","seed":null}},"bias_initializer":{"class_name":"Zeros","config":{}},"kernel_regularizer":null,"bias_regularizer":null,"activity_regularizer":null,"kernel_constraint":null,"bias_constraint":null,"name":"dense_Dense581","trainable":true},"inbound_nodes":[[["input117",0,0,{}]]]},{"name":"dense_Dense582","class_name":"Dense","config":{"units":8,"activation":"relu","use_bias":true,"kernel_initializer":{"class_name":"VarianceScaling","config":{"scale":1,"mode":"fan_avg","distribution":"normal","seed":null}},"bias_initializer":{"class_name":"Zeros","config":{}},"kernel_regularizer":null,"bias_regularizer":null,"activity_regularizer":null,"kernel_constraint":null,"bias_constraint":null,"name":"dense_Dense582","trainable":true},"inbound_nodes":[[["dense_Dense581",0,0,{}]]]},{"name":"dense_Dense583","class_name":"Dense","config":{"units":2,"activation":"relu","use_bias":true,"kernel_initializer":{"class_name":"VarianceScaling","config":{"scale":1,"mode":"fan_avg","distribution":"normal","seed":null}},"bias_initializer":{"class_name":"Zeros","config":{}},"kernel_regularizer":null,"bias_regularizer":null,"activity_regularizer":null,"kernel_constraint":null,"bias_constraint":null,"name":"dense_Dense583","trainable":true},"inbound_nodes":[[["dense_Dense582",0,0,{}]]]},{"name":"dense_Dense584","class_name":"Dense","config":{"units":4,"activation":"relu","use_bias":true,"kernel_initializer":{"class_name":"VarianceScaling","config":{"scale":1,"mode":"fan_avg","distribution":"normal","seed":null}},"bias_initializer":{"class_name":"Zeros","config":{}},"kernel_regularizer":null,"bias_regularizer":null,"activity_regularizer":null,"kernel_constraint":null,"bias_constraint":null,"name":"dense_Dense584","trainable":true},"inbound_nodes":[[["dense_Dense583",0,0,{}]]]},{"name":"dense_Dense585","class_name":"Dense","config":{"units":1,"activation":"sigmoid","use_bias":true,"kernel_initializer":{"class_name":"VarianceScaling","config":{"scale":1,"mode":"fan_avg","distribution":"normal","seed":null}},"bias_initializer":{"class_name":"Zeros","config":{}},"kernel_regularizer":null,"bias_regularizer":null,"activity_regularizer":null,"kernel_constraint":null,"bias_constraint":null,"name":"dense_Dense585","trainable":true},"inbound_nodes":[[["dense_Dense584",0,0,{}]]]}],"input_layers":[["input117",0,0]],"output_layers":[["dense_Dense585",0,0]]},"keras_version":"tfjs-layers 3.9.0","backend":"tensor_flow.js"},"weightsManifest":[{"paths":["weights.bin"],"weights":[{"name":"dense_Dense581/kernel","shape":[3,1],"dtype":"float32"},{"name":"dense_Dense581/bias","shape":[1],"dtype":"float32"},{"name":"dense_Dense582/kernel","shape":[1,8],"dtype":"float32"},{"name":"dense_Dense582/bias","shape":[8],"dtype":"float32"},{"name":"dense_Dense583/kernel","shape":[8,2],"dtype":"float32"},{"name":"dense_Dense583/bias","shape":[2],"dtype":"float32"},{"name":"dense_Dense584/kernel","shape":[2,4],"dtype":"float32"},{"name":"dense_Dense584/bias","shape":[4],"dtype":"float32"},{"name":"dense_Dense585/kernel","shape":[4,1],"dtype":"float32"},{"name":"dense_Dense585/bias","shape":[1],"dtype":"float32"}]}]}