{"modelTopology":{"class_name":"Model","config":{"name":"model1187","layers":[{"name":"input1187","class_name":"InputLayer","config":{"batch_input_shape":[null,3],"dtype":"float32","sparse":false,"name":"input1187"},"inbound_nodes":[]},{"name":"dense_Dense5931","class_name":"Dense","config":{"units":32,"activation":"relu","use_bias":true,"kernel_initializer":{"class_name":"VarianceScaling","config":{"scale":1,"mode":"fan_avg","distribution":"normal","seed":null}},"bias_initializer":{"class_name":"Zeros","config":{}},"kernel_regularizer":null,"bias_regularizer":null,"activity_regularizer":null,"kernel_constraint":null,"bias_constraint":null,"name":"dense_Dense5931","trainable":true},"inbound_nodes":[[["input1187",0,0,{}]]]},{"name":"dense_Dense5932","class_name":"Dense","config":{"units":4,"activation":"relu","use_bias":true,"kernel_initializer":{"class_name":"VarianceScaling","config":{"scale":1,"mode":"fan_avg","distribution":"normal","seed":null}},"bias_initializer":{"class_name":"Zeros","config":{}},"kernel_regularizer":null,"bias_regularizer":null,"activity_regularizer":null,"kernel_constraint":null,"bias_constraint":null,"name":"dense_Dense5932","trainable":true},"inbound_nodes":[[["dense_Dense5931",0,0,{}]]]},{"name":"dense_Dense5933","class_name":"Dense","config":{"units":32,"activation":"relu","use_bias":true,"kernel_initializer":{"class_name":"VarianceScaling","config":{"scale":1,"mode":"fan_avg","distribution":"normal","seed":null}},"bias_initializer":{"class_name":"Zeros","config":{}},"kernel_regularizer":null,"bias_regularizer":null,"activity_regularizer":null,"kernel_constraint":null,"bias_constraint":null,"name":"dense_Dense5933","trainable":true},"inbound_nodes":[[["dense_Dense5932",0,0,{}]]]},{"name":"dense_Dense5934","class_name":"Dense","config":{"units":16,"activation":"relu","use_bias":true,"kernel_initializer":{"class_name":"VarianceScaling","config":{"scale":1,"mode":"fan_avg","distribution":"normal","seed":null}},"bias_initializer":{"class_name":"Zeros","config":{}},"kernel_regularizer":null,"bias_regularizer":null,"activity_regularizer":null,"kernel_constraint":null,"bias_constraint":null,"name":"dense_Dense5934","trainable":true},"inbound_nodes":[[["dense_Dense5933",0,0,{}]]]},{"name":"dense_Dense5935","class_name":"Dense","config":{"units":1,"activation":"sigmoid","use_bias":true,"kernel_initializer":{"class_name":"VarianceScaling","config":{"scale":1,"mode":"fan_avg","distribution":"normal","seed":null}},"bias_initializer":{"class_name":"Zeros","config":{}},"kernel_regularizer":null,"bias_regularizer":null,"activity_regularizer":null,"kernel_constraint":null,"bias_constraint":null,"name":"dense_Dense5935","trainable":true},"inbound_nodes":[[["dense_Dense5934",0,0,{}]]]}],"input_layers":[["input1187",0,0]],"output_layers":[["dense_Dense5935",0,0]]},"keras_version":"tfjs-layers 3.9.0","backend":"tensor_flow.js"},"weightsManifest":[{"paths":["weights.bin"],"weights":[{"name":"dense_Dense5931/kernel","shape":[3,32],"dtype":"float32"},{"name":"dense_Dense5931/bias","shape":[32],"dtype":"float32"},{"name":"dense_Dense5932/kernel","shape":[32,4],"dtype":"float32"},{"name":"dense_Dense5932/bias","shape":[4],"dtype":"float32"},{"name":"dense_Dense5933/kernel","shape":[4,32],"dtype":"float32"},{"name":"dense_Dense5933/bias","shape":[32],"dtype":"float32"},{"name":"dense_Dense5934/kernel","shape":[32,16],"dtype":"float32"},{"name":"dense_Dense5934/bias","shape":[16],"dtype":"float32"},{"name":"dense_Dense5935/kernel","shape":[16,1],"dtype":"float32"},{"name":"dense_Dense5935/bias","shape":[1],"dtype":"float32"}]}]}