{"modelTopology":{"class_name":"Model","config":{"name":"model263","layers":[{"name":"input263","class_name":"InputLayer","config":{"batch_input_shape":[null,3],"dtype":"float32","sparse":false,"name":"input263"},"inbound_nodes":[]},{"name":"dense_Dense1573","class_name":"Dense","config":{"units":8,"activation":"relu","use_bias":true,"kernel_initializer":{"class_name":"VarianceScaling","config":{"scale":1,"mode":"fan_avg","distribution":"normal","seed":null}},"bias_initializer":{"class_name":"Zeros","config":{}},"kernel_regularizer":null,"bias_regularizer":null,"activity_regularizer":null,"kernel_constraint":null,"bias_constraint":null,"name":"dense_Dense1573","trainable":true},"inbound_nodes":[[["input263",0,0,{}]]]},{"name":"dense_Dense1574","class_name":"Dense","config":{"units":2,"activation":"relu","use_bias":true,"kernel_initializer":{"class_name":"VarianceScaling","config":{"scale":1,"mode":"fan_avg","distribution":"normal","seed":null}},"bias_initializer":{"class_name":"Zeros","config":{}},"kernel_regularizer":null,"bias_regularizer":null,"activity_regularizer":null,"kernel_constraint":null,"bias_constraint":null,"name":"dense_Dense1574","trainable":true},"inbound_nodes":[[["dense_Dense1573",0,0,{}]]]},{"name":"dense_Dense1575","class_name":"Dense","config":{"units":2,"activation":"relu","use_bias":true,"kernel_initializer":{"class_name":"VarianceScaling","config":{"scale":1,"mode":"fan_avg","distribution":"normal","seed":null}},"bias_initializer":{"class_name":"Zeros","config":{}},"kernel_regularizer":null,"bias_regularizer":null,"activity_regularizer":null,"kernel_constraint":null,"bias_constraint":null,"name":"dense_Dense1575","trainable":true},"inbound_nodes":[[["dense_Dense1574",0,0,{}]]]},{"name":"dense_Dense1576","class_name":"Dense","config":{"units":2,"activation":"relu","use_bias":true,"kernel_initializer":{"class_name":"VarianceScaling","config":{"scale":1,"mode":"fan_avg","distribution":"normal","seed":null}},"bias_initializer":{"class_name":"Zeros","config":{}},"kernel_regularizer":null,"bias_regularizer":null,"activity_regularizer":null,"kernel_constraint":null,"bias_constraint":null,"name":"dense_Dense1576","trainable":true},"inbound_nodes":[[["dense_Dense1575",0,0,{}]]]},{"name":"dense_Dense1577","class_name":"Dense","config":{"units":16,"activation":"relu","use_bias":true,"kernel_initializer":{"class_name":"VarianceScaling","config":{"scale":1,"mode":"fan_avg","distribution":"normal","seed":null}},"bias_initializer":{"class_name":"Zeros","config":{}},"kernel_regularizer":null,"bias_regularizer":null,"activity_regularizer":null,"kernel_constraint":null,"bias_constraint":null,"name":"dense_Dense1577","trainable":true},"inbound_nodes":[[["dense_Dense1576",0,0,{}]]]},{"name":"dense_Dense1578","class_name":"Dense","config":{"units":1,"activation":"sigmoid","use_bias":true,"kernel_initializer":{"class_name":"VarianceScaling","config":{"scale":1,"mode":"fan_avg","distribution":"normal","seed":null}},"bias_initializer":{"class_name":"Zeros","config":{}},"kernel_regularizer":null,"bias_regularizer":null,"activity_regularizer":null,"kernel_constraint":null,"bias_constraint":null,"name":"dense_Dense1578","trainable":true},"inbound_nodes":[[["dense_Dense1577",0,0,{}]]]}],"input_layers":[["input263",0,0]],"output_layers":[["dense_Dense1578",0,0]]},"keras_version":"tfjs-layers 3.9.0","backend":"tensor_flow.js"},"weightsManifest":[{"paths":["weights.bin"],"weights":[{"name":"dense_Dense1573/kernel","shape":[3,8],"dtype":"float32"},{"name":"dense_Dense1573/bias","shape":[8],"dtype":"float32"},{"name":"dense_Dense1574/kernel","shape":[8,2],"dtype":"float32"},{"name":"dense_Dense1574/bias","shape":[2],"dtype":"float32"},{"name":"dense_Dense1575/kernel","shape":[2,2],"dtype":"float32"},{"name":"dense_Dense1575/bias","shape":[2],"dtype":"float32"},{"name":"dense_Dense1576/kernel","shape":[2,2],"dtype":"float32"},{"name":"dense_Dense1576/bias","shape":[2],"dtype":"float32"},{"name":"dense_Dense1577/kernel","shape":[2,16],"dtype":"float32"},{"name":"dense_Dense1577/bias","shape":[16],"dtype":"float32"},{"name":"dense_Dense1578/kernel","shape":[16,1],"dtype":"float32"},{"name":"dense_Dense1578/bias","shape":[1],"dtype":"float32"}]}]}