{"modelTopology":{"class_name":"Model","config":{"name":"model1147","layers":[{"name":"input1147","class_name":"InputLayer","config":{"batch_input_shape":[null,3],"dtype":"float32","sparse":false,"name":"input1147"},"inbound_nodes":[]},{"name":"dense_Dense5731","class_name":"Dense","config":{"units":32,"activation":"relu","use_bias":true,"kernel_initializer":{"class_name":"VarianceScaling","config":{"scale":1,"mode":"fan_avg","distribution":"normal","seed":null}},"bias_initializer":{"class_name":"Zeros","config":{}},"kernel_regularizer":null,"bias_regularizer":null,"activity_regularizer":null,"kernel_constraint":null,"bias_constraint":null,"name":"dense_Dense5731","trainable":true},"inbound_nodes":[[["input1147",0,0,{}]]]},{"name":"dense_Dense5732","class_name":"Dense","config":{"units":2,"activation":"relu","use_bias":true,"kernel_initializer":{"class_name":"VarianceScaling","config":{"scale":1,"mode":"fan_avg","distribution":"normal","seed":null}},"bias_initializer":{"class_name":"Zeros","config":{}},"kernel_regularizer":null,"bias_regularizer":null,"activity_regularizer":null,"kernel_constraint":null,"bias_constraint":null,"name":"dense_Dense5732","trainable":true},"inbound_nodes":[[["dense_Dense5731",0,0,{}]]]},{"name":"dense_Dense5733","class_name":"Dense","config":{"units":32,"activation":"relu","use_bias":true,"kernel_initializer":{"class_name":"VarianceScaling","config":{"scale":1,"mode":"fan_avg","distribution":"normal","seed":null}},"bias_initializer":{"class_name":"Zeros","config":{}},"kernel_regularizer":null,"bias_regularizer":null,"activity_regularizer":null,"kernel_constraint":null,"bias_constraint":null,"name":"dense_Dense5733","trainable":true},"inbound_nodes":[[["dense_Dense5732",0,0,{}]]]},{"name":"dense_Dense5734","class_name":"Dense","config":{"units":1,"activation":"relu","use_bias":true,"kernel_initializer":{"class_name":"VarianceScaling","config":{"scale":1,"mode":"fan_avg","distribution":"normal","seed":null}},"bias_initializer":{"class_name":"Zeros","config":{}},"kernel_regularizer":null,"bias_regularizer":null,"activity_regularizer":null,"kernel_constraint":null,"bias_constraint":null,"name":"dense_Dense5734","trainable":true},"inbound_nodes":[[["dense_Dense5733",0,0,{}]]]},{"name":"dense_Dense5735","class_name":"Dense","config":{"units":1,"activation":"sigmoid","use_bias":true,"kernel_initializer":{"class_name":"VarianceScaling","config":{"scale":1,"mode":"fan_avg","distribution":"normal","seed":null}},"bias_initializer":{"class_name":"Zeros","config":{}},"kernel_regularizer":null,"bias_regularizer":null,"activity_regularizer":null,"kernel_constraint":null,"bias_constraint":null,"name":"dense_Dense5735","trainable":true},"inbound_nodes":[[["dense_Dense5734",0,0,{}]]]}],"input_layers":[["input1147",0,0]],"output_layers":[["dense_Dense5735",0,0]]},"keras_version":"tfjs-layers 3.9.0","backend":"tensor_flow.js"},"weightsManifest":[{"paths":["weights.bin"],"weights":[{"name":"dense_Dense5731/kernel","shape":[3,32],"dtype":"float32"},{"name":"dense_Dense5731/bias","shape":[32],"dtype":"float32"},{"name":"dense_Dense5732/kernel","shape":[32,2],"dtype":"float32"},{"name":"dense_Dense5732/bias","shape":[2],"dtype":"float32"},{"name":"dense_Dense5733/kernel","shape":[2,32],"dtype":"float32"},{"name":"dense_Dense5733/bias","shape":[32],"dtype":"float32"},{"name":"dense_Dense5734/kernel","shape":[32,1],"dtype":"float32"},{"name":"dense_Dense5734/bias","shape":[1],"dtype":"float32"},{"name":"dense_Dense5735/kernel","shape":[1,1],"dtype":"float32"},{"name":"dense_Dense5735/bias","shape":[1],"dtype":"float32"}]}]}