{"modelTopology":{"class_name":"Model","config":{"name":"model1120","layers":[{"name":"input1120","class_name":"InputLayer","config":{"batch_input_shape":[null,3],"dtype":"float32","sparse":false,"name":"input1120"},"inbound_nodes":[]},{"name":"dense_Dense6715","class_name":"Dense","config":{"units":8,"activation":"relu","use_bias":true,"kernel_initializer":{"class_name":"VarianceScaling","config":{"scale":1,"mode":"fan_avg","distribution":"normal","seed":null}},"bias_initializer":{"class_name":"Zeros","config":{}},"kernel_regularizer":null,"bias_regularizer":null,"activity_regularizer":null,"kernel_constraint":null,"bias_constraint":null,"name":"dense_Dense6715","trainable":true},"inbound_nodes":[[["input1120",0,0,{}]]]},{"name":"dense_Dense6716","class_name":"Dense","config":{"units":32,"activation":"relu","use_bias":true,"kernel_initializer":{"class_name":"VarianceScaling","config":{"scale":1,"mode":"fan_avg","distribution":"normal","seed":null}},"bias_initializer":{"class_name":"Zeros","config":{}},"kernel_regularizer":null,"bias_regularizer":null,"activity_regularizer":null,"kernel_constraint":null,"bias_constraint":null,"name":"dense_Dense6716","trainable":true},"inbound_nodes":[[["dense_Dense6715",0,0,{}]]]},{"name":"dense_Dense6717","class_name":"Dense","config":{"units":2,"activation":"relu","use_bias":true,"kernel_initializer":{"class_name":"VarianceScaling","config":{"scale":1,"mode":"fan_avg","distribution":"normal","seed":null}},"bias_initializer":{"class_name":"Zeros","config":{}},"kernel_regularizer":null,"bias_regularizer":null,"activity_regularizer":null,"kernel_constraint":null,"bias_constraint":null,"name":"dense_Dense6717","trainable":true},"inbound_nodes":[[["dense_Dense6716",0,0,{}]]]},{"name":"dense_Dense6718","class_name":"Dense","config":{"units":1,"activation":"relu","use_bias":true,"kernel_initializer":{"class_name":"VarianceScaling","config":{"scale":1,"mode":"fan_avg","distribution":"normal","seed":null}},"bias_initializer":{"class_name":"Zeros","config":{}},"kernel_regularizer":null,"bias_regularizer":null,"activity_regularizer":null,"kernel_constraint":null,"bias_constraint":null,"name":"dense_Dense6718","trainable":true},"inbound_nodes":[[["dense_Dense6717",0,0,{}]]]},{"name":"dense_Dense6719","class_name":"Dense","config":{"units":8,"activation":"relu","use_bias":true,"kernel_initializer":{"class_name":"VarianceScaling","config":{"scale":1,"mode":"fan_avg","distribution":"normal","seed":null}},"bias_initializer":{"class_name":"Zeros","config":{}},"kernel_regularizer":null,"bias_regularizer":null,"activity_regularizer":null,"kernel_constraint":null,"bias_constraint":null,"name":"dense_Dense6719","trainable":true},"inbound_nodes":[[["dense_Dense6718",0,0,{}]]]},{"name":"dense_Dense6720","class_name":"Dense","config":{"units":1,"activation":"sigmoid","use_bias":true,"kernel_initializer":{"class_name":"VarianceScaling","config":{"scale":1,"mode":"fan_avg","distribution":"normal","seed":null}},"bias_initializer":{"class_name":"Zeros","config":{}},"kernel_regularizer":null,"bias_regularizer":null,"activity_regularizer":null,"kernel_constraint":null,"bias_constraint":null,"name":"dense_Dense6720","trainable":true},"inbound_nodes":[[["dense_Dense6719",0,0,{}]]]}],"input_layers":[["input1120",0,0]],"output_layers":[["dense_Dense6720",0,0]]},"keras_version":"tfjs-layers 3.9.0","backend":"tensor_flow.js"},"weightsManifest":[{"paths":["weights.bin"],"weights":[{"name":"dense_Dense6715/kernel","shape":[3,8],"dtype":"float32"},{"name":"dense_Dense6715/bias","shape":[8],"dtype":"float32"},{"name":"dense_Dense6716/kernel","shape":[8,32],"dtype":"float32"},{"name":"dense_Dense6716/bias","shape":[32],"dtype":"float32"},{"name":"dense_Dense6717/kernel","shape":[32,2],"dtype":"float32"},{"name":"dense_Dense6717/bias","shape":[2],"dtype":"float32"},{"name":"dense_Dense6718/kernel","shape":[2,1],"dtype":"float32"},{"name":"dense_Dense6718/bias","shape":[1],"dtype":"float32"},{"name":"dense_Dense6719/kernel","shape":[1,8],"dtype":"float32"},{"name":"dense_Dense6719/bias","shape":[8],"dtype":"float32"},{"name":"dense_Dense6720/kernel","shape":[8,1],"dtype":"float32"},{"name":"dense_Dense6720/bias","shape":[1],"dtype":"float32"}]}]}