{"modelTopology":{"class_name":"Model","config":{"name":"model411","layers":[{"name":"input411","class_name":"InputLayer","config":{"batch_input_shape":[null,3],"dtype":"float32","sparse":false,"name":"input411"},"inbound_nodes":[]},{"name":"dense_Dense2461","class_name":"Dense","config":{"units":1,"activation":"relu","use_bias":true,"kernel_initializer":{"class_name":"VarianceScaling","config":{"scale":1,"mode":"fan_avg","distribution":"normal","seed":null}},"bias_initializer":{"class_name":"Zeros","config":{}},"kernel_regularizer":null,"bias_regularizer":null,"activity_regularizer":null,"kernel_constraint":null,"bias_constraint":null,"name":"dense_Dense2461","trainable":true},"inbound_nodes":[[["input411",0,0,{}]]]},{"name":"dense_Dense2462","class_name":"Dense","config":{"units":2,"activation":"relu","use_bias":true,"kernel_initializer":{"class_name":"VarianceScaling","config":{"scale":1,"mode":"fan_avg","distribution":"normal","seed":null}},"bias_initializer":{"class_name":"Zeros","config":{}},"kernel_regularizer":null,"bias_regularizer":null,"activity_regularizer":null,"kernel_constraint":null,"bias_constraint":null,"name":"dense_Dense2462","trainable":true},"inbound_nodes":[[["dense_Dense2461",0,0,{}]]]},{"name":"dense_Dense2463","class_name":"Dense","config":{"units":32,"activation":"relu","use_bias":true,"kernel_initializer":{"class_name":"VarianceScaling","config":{"scale":1,"mode":"fan_avg","distribution":"normal","seed":null}},"bias_initializer":{"class_name":"Zeros","config":{}},"kernel_regularizer":null,"bias_regularizer":null,"activity_regularizer":null,"kernel_constraint":null,"bias_constraint":null,"name":"dense_Dense2463","trainable":true},"inbound_nodes":[[["dense_Dense2462",0,0,{}]]]},{"name":"dense_Dense2464","class_name":"Dense","config":{"units":4,"activation":"relu","use_bias":true,"kernel_initializer":{"class_name":"VarianceScaling","config":{"scale":1,"mode":"fan_avg","distribution":"normal","seed":null}},"bias_initializer":{"class_name":"Zeros","config":{}},"kernel_regularizer":null,"bias_regularizer":null,"activity_regularizer":null,"kernel_constraint":null,"bias_constraint":null,"name":"dense_Dense2464","trainable":true},"inbound_nodes":[[["dense_Dense2463",0,0,{}]]]},{"name":"dense_Dense2465","class_name":"Dense","config":{"units":4,"activation":"relu","use_bias":true,"kernel_initializer":{"class_name":"VarianceScaling","config":{"scale":1,"mode":"fan_avg","distribution":"normal","seed":null}},"bias_initializer":{"class_name":"Zeros","config":{}},"kernel_regularizer":null,"bias_regularizer":null,"activity_regularizer":null,"kernel_constraint":null,"bias_constraint":null,"name":"dense_Dense2465","trainable":true},"inbound_nodes":[[["dense_Dense2464",0,0,{}]]]},{"name":"dense_Dense2466","class_name":"Dense","config":{"units":1,"activation":"sigmoid","use_bias":true,"kernel_initializer":{"class_name":"VarianceScaling","config":{"scale":1,"mode":"fan_avg","distribution":"normal","seed":null}},"bias_initializer":{"class_name":"Zeros","config":{}},"kernel_regularizer":null,"bias_regularizer":null,"activity_regularizer":null,"kernel_constraint":null,"bias_constraint":null,"name":"dense_Dense2466","trainable":true},"inbound_nodes":[[["dense_Dense2465",0,0,{}]]]}],"input_layers":[["input411",0,0]],"output_layers":[["dense_Dense2466",0,0]]},"keras_version":"tfjs-layers 3.9.0","backend":"tensor_flow.js"},"weightsManifest":[{"paths":["weights.bin"],"weights":[{"name":"dense_Dense2461/kernel","shape":[3,1],"dtype":"float32"},{"name":"dense_Dense2461/bias","shape":[1],"dtype":"float32"},{"name":"dense_Dense2462/kernel","shape":[1,2],"dtype":"float32"},{"name":"dense_Dense2462/bias","shape":[2],"dtype":"float32"},{"name":"dense_Dense2463/kernel","shape":[2,32],"dtype":"float32"},{"name":"dense_Dense2463/bias","shape":[32],"dtype":"float32"},{"name":"dense_Dense2464/kernel","shape":[32,4],"dtype":"float32"},{"name":"dense_Dense2464/bias","shape":[4],"dtype":"float32"},{"name":"dense_Dense2465/kernel","shape":[4,4],"dtype":"float32"},{"name":"dense_Dense2465/bias","shape":[4],"dtype":"float32"},{"name":"dense_Dense2466/kernel","shape":[4,1],"dtype":"float32"},{"name":"dense_Dense2466/bias","shape":[1],"dtype":"float32"}]}]}