{"modelTopology":{"class_name":"Model","config":{"name":"model351","layers":[{"name":"input351","class_name":"InputLayer","config":{"batch_input_shape":[null,3],"dtype":"float32","sparse":false,"name":"input351"},"inbound_nodes":[]},{"name":"dense_Dense1751","class_name":"Dense","config":{"units":2,"activation":"relu","use_bias":true,"kernel_initializer":{"class_name":"VarianceScaling","config":{"scale":1,"mode":"fan_avg","distribution":"normal","seed":null}},"bias_initializer":{"class_name":"Zeros","config":{}},"kernel_regularizer":null,"bias_regularizer":null,"activity_regularizer":null,"kernel_constraint":null,"bias_constraint":null,"name":"dense_Dense1751","trainable":true},"inbound_nodes":[[["input351",0,0,{}]]]},{"name":"dense_Dense1752","class_name":"Dense","config":{"units":8,"activation":"relu","use_bias":true,"kernel_initializer":{"class_name":"VarianceScaling","config":{"scale":1,"mode":"fan_avg","distribution":"normal","seed":null}},"bias_initializer":{"class_name":"Zeros","config":{}},"kernel_regularizer":null,"bias_regularizer":null,"activity_regularizer":null,"kernel_constraint":null,"bias_constraint":null,"name":"dense_Dense1752","trainable":true},"inbound_nodes":[[["dense_Dense1751",0,0,{}]]]},{"name":"dense_Dense1753","class_name":"Dense","config":{"units":16,"activation":"relu","use_bias":true,"kernel_initializer":{"class_name":"VarianceScaling","config":{"scale":1,"mode":"fan_avg","distribution":"normal","seed":null}},"bias_initializer":{"class_name":"Zeros","config":{}},"kernel_regularizer":null,"bias_regularizer":null,"activity_regularizer":null,"kernel_constraint":null,"bias_constraint":null,"name":"dense_Dense1753","trainable":true},"inbound_nodes":[[["dense_Dense1752",0,0,{}]]]},{"name":"dense_Dense1754","class_name":"Dense","config":{"units":4,"activation":"relu","use_bias":true,"kernel_initializer":{"class_name":"VarianceScaling","config":{"scale":1,"mode":"fan_avg","distribution":"normal","seed":null}},"bias_initializer":{"class_name":"Zeros","config":{}},"kernel_regularizer":null,"bias_regularizer":null,"activity_regularizer":null,"kernel_constraint":null,"bias_constraint":null,"name":"dense_Dense1754","trainable":true},"inbound_nodes":[[["dense_Dense1753",0,0,{}]]]},{"name":"dense_Dense1755","class_name":"Dense","config":{"units":1,"activation":"sigmoid","use_bias":true,"kernel_initializer":{"class_name":"VarianceScaling","config":{"scale":1,"mode":"fan_avg","distribution":"normal","seed":null}},"bias_initializer":{"class_name":"Zeros","config":{}},"kernel_regularizer":null,"bias_regularizer":null,"activity_regularizer":null,"kernel_constraint":null,"bias_constraint":null,"name":"dense_Dense1755","trainable":true},"inbound_nodes":[[["dense_Dense1754",0,0,{}]]]}],"input_layers":[["input351",0,0]],"output_layers":[["dense_Dense1755",0,0]]},"keras_version":"tfjs-layers 3.9.0","backend":"tensor_flow.js"},"weightsManifest":[{"paths":["weights.bin"],"weights":[{"name":"dense_Dense1751/kernel","shape":[3,2],"dtype":"float32"},{"name":"dense_Dense1751/bias","shape":[2],"dtype":"float32"},{"name":"dense_Dense1752/kernel","shape":[2,8],"dtype":"float32"},{"name":"dense_Dense1752/bias","shape":[8],"dtype":"float32"},{"name":"dense_Dense1753/kernel","shape":[8,16],"dtype":"float32"},{"name":"dense_Dense1753/bias","shape":[16],"dtype":"float32"},{"name":"dense_Dense1754/kernel","shape":[16,4],"dtype":"float32"},{"name":"dense_Dense1754/bias","shape":[4],"dtype":"float32"},{"name":"dense_Dense1755/kernel","shape":[4,1],"dtype":"float32"},{"name":"dense_Dense1755/bias","shape":[1],"dtype":"float32"}]}]}