{"modelTopology":{"class_name":"Model","config":{"name":"model1276","layers":[{"name":"input1276","class_name":"InputLayer","config":{"batch_input_shape":[null,3],"dtype":"float32","sparse":false,"name":"input1276"},"inbound_nodes":[]},{"name":"dense_Dense7651","class_name":"Dense","config":{"units":32,"activation":"relu","use_bias":true,"kernel_initializer":{"class_name":"VarianceScaling","config":{"scale":1,"mode":"fan_avg","distribution":"normal","seed":null}},"bias_initializer":{"class_name":"Zeros","config":{}},"kernel_regularizer":null,"bias_regularizer":null,"activity_regularizer":null,"kernel_constraint":null,"bias_constraint":null,"name":"dense_Dense7651","trainable":true},"inbound_nodes":[[["input1276",0,0,{}]]]},{"name":"dense_Dense7652","class_name":"Dense","config":{"units":32,"activation":"relu","use_bias":true,"kernel_initializer":{"class_name":"VarianceScaling","config":{"scale":1,"mode":"fan_avg","distribution":"normal","seed":null}},"bias_initializer":{"class_name":"Zeros","config":{}},"kernel_regularizer":null,"bias_regularizer":null,"activity_regularizer":null,"kernel_constraint":null,"bias_constraint":null,"name":"dense_Dense7652","trainable":true},"inbound_nodes":[[["dense_Dense7651",0,0,{}]]]},{"name":"dense_Dense7653","class_name":"Dense","config":{"units":32,"activation":"relu","use_bias":true,"kernel_initializer":{"class_name":"VarianceScaling","config":{"scale":1,"mode":"fan_avg","distribution":"normal","seed":null}},"bias_initializer":{"class_name":"Zeros","config":{}},"kernel_regularizer":null,"bias_regularizer":null,"activity_regularizer":null,"kernel_constraint":null,"bias_constraint":null,"name":"dense_Dense7653","trainable":true},"inbound_nodes":[[["dense_Dense7652",0,0,{}]]]},{"name":"dense_Dense7654","class_name":"Dense","config":{"units":4,"activation":"relu","use_bias":true,"kernel_initializer":{"class_name":"VarianceScaling","config":{"scale":1,"mode":"fan_avg","distribution":"normal","seed":null}},"bias_initializer":{"class_name":"Zeros","config":{}},"kernel_regularizer":null,"bias_regularizer":null,"activity_regularizer":null,"kernel_constraint":null,"bias_constraint":null,"name":"dense_Dense7654","trainable":true},"inbound_nodes":[[["dense_Dense7653",0,0,{}]]]},{"name":"dense_Dense7655","class_name":"Dense","config":{"units":8,"activation":"relu","use_bias":true,"kernel_initializer":{"class_name":"VarianceScaling","config":{"scale":1,"mode":"fan_avg","distribution":"normal","seed":null}},"bias_initializer":{"class_name":"Zeros","config":{}},"kernel_regularizer":null,"bias_regularizer":null,"activity_regularizer":null,"kernel_constraint":null,"bias_constraint":null,"name":"dense_Dense7655","trainable":true},"inbound_nodes":[[["dense_Dense7654",0,0,{}]]]},{"name":"dense_Dense7656","class_name":"Dense","config":{"units":1,"activation":"sigmoid","use_bias":true,"kernel_initializer":{"class_name":"VarianceScaling","config":{"scale":1,"mode":"fan_avg","distribution":"normal","seed":null}},"bias_initializer":{"class_name":"Zeros","config":{}},"kernel_regularizer":null,"bias_regularizer":null,"activity_regularizer":null,"kernel_constraint":null,"bias_constraint":null,"name":"dense_Dense7656","trainable":true},"inbound_nodes":[[["dense_Dense7655",0,0,{}]]]}],"input_layers":[["input1276",0,0]],"output_layers":[["dense_Dense7656",0,0]]},"keras_version":"tfjs-layers 3.9.0","backend":"tensor_flow.js"},"weightsManifest":[{"paths":["weights.bin"],"weights":[{"name":"dense_Dense7651/kernel","shape":[3,32],"dtype":"float32"},{"name":"dense_Dense7651/bias","shape":[32],"dtype":"float32"},{"name":"dense_Dense7652/kernel","shape":[32,32],"dtype":"float32"},{"name":"dense_Dense7652/bias","shape":[32],"dtype":"float32"},{"name":"dense_Dense7653/kernel","shape":[32,32],"dtype":"float32"},{"name":"dense_Dense7653/bias","shape":[32],"dtype":"float32"},{"name":"dense_Dense7654/kernel","shape":[32,4],"dtype":"float32"},{"name":"dense_Dense7654/bias","shape":[4],"dtype":"float32"},{"name":"dense_Dense7655/kernel","shape":[4,8],"dtype":"float32"},{"name":"dense_Dense7655/bias","shape":[8],"dtype":"float32"},{"name":"dense_Dense7656/kernel","shape":[8,1],"dtype":"float32"},{"name":"dense_Dense7656/bias","shape":[1],"dtype":"float32"}]}]}