{"modelTopology":{"class_name":"Model","config":{"name":"model1157","layers":[{"name":"input1157","class_name":"InputLayer","config":{"batch_input_shape":[null,3],"dtype":"float32","sparse":false,"name":"input1157"},"inbound_nodes":[]},{"name":"dense_Dense5781","class_name":"Dense","config":{"units":32,"activation":"relu","use_bias":true,"kernel_initializer":{"class_name":"VarianceScaling","config":{"scale":1,"mode":"fan_avg","distribution":"normal","seed":null}},"bias_initializer":{"class_name":"Zeros","config":{}},"kernel_regularizer":null,"bias_regularizer":null,"activity_regularizer":null,"kernel_constraint":null,"bias_constraint":null,"name":"dense_Dense5781","trainable":true},"inbound_nodes":[[["input1157",0,0,{}]]]},{"name":"dense_Dense5782","class_name":"Dense","config":{"units":4,"activation":"relu","use_bias":true,"kernel_initializer":{"class_name":"VarianceScaling","config":{"scale":1,"mode":"fan_avg","distribution":"normal","seed":null}},"bias_initializer":{"class_name":"Zeros","config":{}},"kernel_regularizer":null,"bias_regularizer":null,"activity_regularizer":null,"kernel_constraint":null,"bias_constraint":null,"name":"dense_Dense5782","trainable":true},"inbound_nodes":[[["dense_Dense5781",0,0,{}]]]},{"name":"dense_Dense5783","class_name":"Dense","config":{"units":1,"activation":"relu","use_bias":true,"kernel_initializer":{"class_name":"VarianceScaling","config":{"scale":1,"mode":"fan_avg","distribution":"normal","seed":null}},"bias_initializer":{"class_name":"Zeros","config":{}},"kernel_regularizer":null,"bias_regularizer":null,"activity_regularizer":null,"kernel_constraint":null,"bias_constraint":null,"name":"dense_Dense5783","trainable":true},"inbound_nodes":[[["dense_Dense5782",0,0,{}]]]},{"name":"dense_Dense5784","class_name":"Dense","config":{"units":16,"activation":"relu","use_bias":true,"kernel_initializer":{"class_name":"VarianceScaling","config":{"scale":1,"mode":"fan_avg","distribution":"normal","seed":null}},"bias_initializer":{"class_name":"Zeros","config":{}},"kernel_regularizer":null,"bias_regularizer":null,"activity_regularizer":null,"kernel_constraint":null,"bias_constraint":null,"name":"dense_Dense5784","trainable":true},"inbound_nodes":[[["dense_Dense5783",0,0,{}]]]},{"name":"dense_Dense5785","class_name":"Dense","config":{"units":1,"activation":"sigmoid","use_bias":true,"kernel_initializer":{"class_name":"VarianceScaling","config":{"scale":1,"mode":"fan_avg","distribution":"normal","seed":null}},"bias_initializer":{"class_name":"Zeros","config":{}},"kernel_regularizer":null,"bias_regularizer":null,"activity_regularizer":null,"kernel_constraint":null,"bias_constraint":null,"name":"dense_Dense5785","trainable":true},"inbound_nodes":[[["dense_Dense5784",0,0,{}]]]}],"input_layers":[["input1157",0,0]],"output_layers":[["dense_Dense5785",0,0]]},"keras_version":"tfjs-layers 3.9.0","backend":"tensor_flow.js"},"weightsManifest":[{"paths":["weights.bin"],"weights":[{"name":"dense_Dense5781/kernel","shape":[3,32],"dtype":"float32"},{"name":"dense_Dense5781/bias","shape":[32],"dtype":"float32"},{"name":"dense_Dense5782/kernel","shape":[32,4],"dtype":"float32"},{"name":"dense_Dense5782/bias","shape":[4],"dtype":"float32"},{"name":"dense_Dense5783/kernel","shape":[4,1],"dtype":"float32"},{"name":"dense_Dense5783/bias","shape":[1],"dtype":"float32"},{"name":"dense_Dense5784/kernel","shape":[1,16],"dtype":"float32"},{"name":"dense_Dense5784/bias","shape":[16],"dtype":"float32"},{"name":"dense_Dense5785/kernel","shape":[16,1],"dtype":"float32"},{"name":"dense_Dense5785/bias","shape":[1],"dtype":"float32"}]}]}