{"modelTopology":{"class_name":"Model","config":{"name":"model1254","layers":[{"name":"input1254","class_name":"InputLayer","config":{"batch_input_shape":[null,3],"dtype":"float32","sparse":false,"name":"input1254"},"inbound_nodes":[]},{"name":"dense_Dense6266","class_name":"Dense","config":{"units":32,"activation":"relu","use_bias":true,"kernel_initializer":{"class_name":"VarianceScaling","config":{"scale":1,"mode":"fan_avg","distribution":"normal","seed":null}},"bias_initializer":{"class_name":"Zeros","config":{}},"kernel_regularizer":null,"bias_regularizer":null,"activity_regularizer":null,"kernel_constraint":null,"bias_constraint":null,"name":"dense_Dense6266","trainable":true},"inbound_nodes":[[["input1254",0,0,{}]]]},{"name":"dense_Dense6267","class_name":"Dense","config":{"units":16,"activation":"relu","use_bias":true,"kernel_initializer":{"class_name":"VarianceScaling","config":{"scale":1,"mode":"fan_avg","distribution":"normal","seed":null}},"bias_initializer":{"class_name":"Zeros","config":{}},"kernel_regularizer":null,"bias_regularizer":null,"activity_regularizer":null,"kernel_constraint":null,"bias_constraint":null,"name":"dense_Dense6267","trainable":true},"inbound_nodes":[[["dense_Dense6266",0,0,{}]]]},{"name":"dense_Dense6268","class_name":"Dense","config":{"units":16,"activation":"relu","use_bias":true,"kernel_initializer":{"class_name":"VarianceScaling","config":{"scale":1,"mode":"fan_avg","distribution":"normal","seed":null}},"bias_initializer":{"class_name":"Zeros","config":{}},"kernel_regularizer":null,"bias_regularizer":null,"activity_regularizer":null,"kernel_constraint":null,"bias_constraint":null,"name":"dense_Dense6268","trainable":true},"inbound_nodes":[[["dense_Dense6267",0,0,{}]]]},{"name":"dense_Dense6269","class_name":"Dense","config":{"units":32,"activation":"relu","use_bias":true,"kernel_initializer":{"class_name":"VarianceScaling","config":{"scale":1,"mode":"fan_avg","distribution":"normal","seed":null}},"bias_initializer":{"class_name":"Zeros","config":{}},"kernel_regularizer":null,"bias_regularizer":null,"activity_regularizer":null,"kernel_constraint":null,"bias_constraint":null,"name":"dense_Dense6269","trainable":true},"inbound_nodes":[[["dense_Dense6268",0,0,{}]]]},{"name":"dense_Dense6270","class_name":"Dense","config":{"units":1,"activation":"sigmoid","use_bias":true,"kernel_initializer":{"class_name":"VarianceScaling","config":{"scale":1,"mode":"fan_avg","distribution":"normal","seed":null}},"bias_initializer":{"class_name":"Zeros","config":{}},"kernel_regularizer":null,"bias_regularizer":null,"activity_regularizer":null,"kernel_constraint":null,"bias_constraint":null,"name":"dense_Dense6270","trainable":true},"inbound_nodes":[[["dense_Dense6269",0,0,{}]]]}],"input_layers":[["input1254",0,0]],"output_layers":[["dense_Dense6270",0,0]]},"keras_version":"tfjs-layers 3.9.0","backend":"tensor_flow.js"},"weightsManifest":[{"paths":["weights.bin"],"weights":[{"name":"dense_Dense6266/kernel","shape":[3,32],"dtype":"float32"},{"name":"dense_Dense6266/bias","shape":[32],"dtype":"float32"},{"name":"dense_Dense6267/kernel","shape":[32,16],"dtype":"float32"},{"name":"dense_Dense6267/bias","shape":[16],"dtype":"float32"},{"name":"dense_Dense6268/kernel","shape":[16,16],"dtype":"float32"},{"name":"dense_Dense6268/bias","shape":[16],"dtype":"float32"},{"name":"dense_Dense6269/kernel","shape":[16,32],"dtype":"float32"},{"name":"dense_Dense6269/bias","shape":[32],"dtype":"float32"},{"name":"dense_Dense6270/kernel","shape":[32,1],"dtype":"float32"},{"name":"dense_Dense6270/bias","shape":[1],"dtype":"float32"}]}]}