{"modelTopology":{"class_name":"Model","config":{"name":"model103","layers":[{"name":"input103","class_name":"InputLayer","config":{"batch_input_shape":[null,3],"dtype":"float32","sparse":false,"name":"input103"},"inbound_nodes":[]},{"name":"dense_Dense613","class_name":"Dense","config":{"units":32,"activation":"relu","use_bias":true,"kernel_initializer":{"class_name":"VarianceScaling","config":{"scale":1,"mode":"fan_avg","distribution":"normal","seed":null}},"bias_initializer":{"class_name":"Zeros","config":{}},"kernel_regularizer":null,"bias_regularizer":null,"activity_regularizer":null,"kernel_constraint":null,"bias_constraint":null,"name":"dense_Dense613","trainable":true},"inbound_nodes":[[["input103",0,0,{}]]]},{"name":"dense_Dense614","class_name":"Dense","config":{"units":1,"activation":"relu","use_bias":true,"kernel_initializer":{"class_name":"VarianceScaling","config":{"scale":1,"mode":"fan_avg","distribution":"normal","seed":null}},"bias_initializer":{"class_name":"Zeros","config":{}},"kernel_regularizer":null,"bias_regularizer":null,"activity_regularizer":null,"kernel_constraint":null,"bias_constraint":null,"name":"dense_Dense614","trainable":true},"inbound_nodes":[[["dense_Dense613",0,0,{}]]]},{"name":"dense_Dense615","class_name":"Dense","config":{"units":4,"activation":"relu","use_bias":true,"kernel_initializer":{"class_name":"VarianceScaling","config":{"scale":1,"mode":"fan_avg","distribution":"normal","seed":null}},"bias_initializer":{"class_name":"Zeros","config":{}},"kernel_regularizer":null,"bias_regularizer":null,"activity_regularizer":null,"kernel_constraint":null,"bias_constraint":null,"name":"dense_Dense615","trainable":true},"inbound_nodes":[[["dense_Dense614",0,0,{}]]]},{"name":"dense_Dense616","class_name":"Dense","config":{"units":32,"activation":"relu","use_bias":true,"kernel_initializer":{"class_name":"VarianceScaling","config":{"scale":1,"mode":"fan_avg","distribution":"normal","seed":null}},"bias_initializer":{"class_name":"Zeros","config":{}},"kernel_regularizer":null,"bias_regularizer":null,"activity_regularizer":null,"kernel_constraint":null,"bias_constraint":null,"name":"dense_Dense616","trainable":true},"inbound_nodes":[[["dense_Dense615",0,0,{}]]]},{"name":"dense_Dense617","class_name":"Dense","config":{"units":1,"activation":"relu","use_bias":true,"kernel_initializer":{"class_name":"VarianceScaling","config":{"scale":1,"mode":"fan_avg","distribution":"normal","seed":null}},"bias_initializer":{"class_name":"Zeros","config":{}},"kernel_regularizer":null,"bias_regularizer":null,"activity_regularizer":null,"kernel_constraint":null,"bias_constraint":null,"name":"dense_Dense617","trainable":true},"inbound_nodes":[[["dense_Dense616",0,0,{}]]]},{"name":"dense_Dense618","class_name":"Dense","config":{"units":1,"activation":"sigmoid","use_bias":true,"kernel_initializer":{"class_name":"VarianceScaling","config":{"scale":1,"mode":"fan_avg","distribution":"normal","seed":null}},"bias_initializer":{"class_name":"Zeros","config":{}},"kernel_regularizer":null,"bias_regularizer":null,"activity_regularizer":null,"kernel_constraint":null,"bias_constraint":null,"name":"dense_Dense618","trainable":true},"inbound_nodes":[[["dense_Dense617",0,0,{}]]]}],"input_layers":[["input103",0,0]],"output_layers":[["dense_Dense618",0,0]]},"keras_version":"tfjs-layers 3.9.0","backend":"tensor_flow.js"},"weightsManifest":[{"paths":["weights.bin"],"weights":[{"name":"dense_Dense613/kernel","shape":[3,32],"dtype":"float32"},{"name":"dense_Dense613/bias","shape":[32],"dtype":"float32"},{"name":"dense_Dense614/kernel","shape":[32,1],"dtype":"float32"},{"name":"dense_Dense614/bias","shape":[1],"dtype":"float32"},{"name":"dense_Dense615/kernel","shape":[1,4],"dtype":"float32"},{"name":"dense_Dense615/bias","shape":[4],"dtype":"float32"},{"name":"dense_Dense616/kernel","shape":[4,32],"dtype":"float32"},{"name":"dense_Dense616/bias","shape":[32],"dtype":"float32"},{"name":"dense_Dense617/kernel","shape":[32,1],"dtype":"float32"},{"name":"dense_Dense617/bias","shape":[1],"dtype":"float32"},{"name":"dense_Dense618/kernel","shape":[1,1],"dtype":"float32"},{"name":"dense_Dense618/bias","shape":[1],"dtype":"float32"}]}]}