{"modelTopology":{"class_name":"Model","config":{"name":"model210","layers":[{"name":"input210","class_name":"InputLayer","config":{"batch_input_shape":[null,3],"dtype":"float32","sparse":false,"name":"input210"},"inbound_nodes":[]},{"name":"dense_Dense1255","class_name":"Dense","config":{"units":1,"activation":"relu","use_bias":true,"kernel_initializer":{"class_name":"VarianceScaling","config":{"scale":1,"mode":"fan_avg","distribution":"normal","seed":null}},"bias_initializer":{"class_name":"Zeros","config":{}},"kernel_regularizer":null,"bias_regularizer":null,"activity_regularizer":null,"kernel_constraint":null,"bias_constraint":null,"name":"dense_Dense1255","trainable":true},"inbound_nodes":[[["input210",0,0,{}]]]},{"name":"dense_Dense1256","class_name":"Dense","config":{"units":1,"activation":"relu","use_bias":true,"kernel_initializer":{"class_name":"VarianceScaling","config":{"scale":1,"mode":"fan_avg","distribution":"normal","seed":null}},"bias_initializer":{"class_name":"Zeros","config":{}},"kernel_regularizer":null,"bias_regularizer":null,"activity_regularizer":null,"kernel_constraint":null,"bias_constraint":null,"name":"dense_Dense1256","trainable":true},"inbound_nodes":[[["dense_Dense1255",0,0,{}]]]},{"name":"dense_Dense1257","class_name":"Dense","config":{"units":32,"activation":"relu","use_bias":true,"kernel_initializer":{"class_name":"VarianceScaling","config":{"scale":1,"mode":"fan_avg","distribution":"normal","seed":null}},"bias_initializer":{"class_name":"Zeros","config":{}},"kernel_regularizer":null,"bias_regularizer":null,"activity_regularizer":null,"kernel_constraint":null,"bias_constraint":null,"name":"dense_Dense1257","trainable":true},"inbound_nodes":[[["dense_Dense1256",0,0,{}]]]},{"name":"dense_Dense1258","class_name":"Dense","config":{"units":16,"activation":"relu","use_bias":true,"kernel_initializer":{"class_name":"VarianceScaling","config":{"scale":1,"mode":"fan_avg","distribution":"normal","seed":null}},"bias_initializer":{"class_name":"Zeros","config":{}},"kernel_regularizer":null,"bias_regularizer":null,"activity_regularizer":null,"kernel_constraint":null,"bias_constraint":null,"name":"dense_Dense1258","trainable":true},"inbound_nodes":[[["dense_Dense1257",0,0,{}]]]},{"name":"dense_Dense1259","class_name":"Dense","config":{"units":32,"activation":"relu","use_bias":true,"kernel_initializer":{"class_name":"VarianceScaling","config":{"scale":1,"mode":"fan_avg","distribution":"normal","seed":null}},"bias_initializer":{"class_name":"Zeros","config":{}},"kernel_regularizer":null,"bias_regularizer":null,"activity_regularizer":null,"kernel_constraint":null,"bias_constraint":null,"name":"dense_Dense1259","trainable":true},"inbound_nodes":[[["dense_Dense1258",0,0,{}]]]},{"name":"dense_Dense1260","class_name":"Dense","config":{"units":1,"activation":"sigmoid","use_bias":true,"kernel_initializer":{"class_name":"VarianceScaling","config":{"scale":1,"mode":"fan_avg","distribution":"normal","seed":null}},"bias_initializer":{"class_name":"Zeros","config":{}},"kernel_regularizer":null,"bias_regularizer":null,"activity_regularizer":null,"kernel_constraint":null,"bias_constraint":null,"name":"dense_Dense1260","trainable":true},"inbound_nodes":[[["dense_Dense1259",0,0,{}]]]}],"input_layers":[["input210",0,0]],"output_layers":[["dense_Dense1260",0,0]]},"keras_version":"tfjs-layers 3.9.0","backend":"tensor_flow.js"},"weightsManifest":[{"paths":["weights.bin"],"weights":[{"name":"dense_Dense1255/kernel","shape":[3,1],"dtype":"float32"},{"name":"dense_Dense1255/bias","shape":[1],"dtype":"float32"},{"name":"dense_Dense1256/kernel","shape":[1,1],"dtype":"float32"},{"name":"dense_Dense1256/bias","shape":[1],"dtype":"float32"},{"name":"dense_Dense1257/kernel","shape":[1,32],"dtype":"float32"},{"name":"dense_Dense1257/bias","shape":[32],"dtype":"float32"},{"name":"dense_Dense1258/kernel","shape":[32,16],"dtype":"float32"},{"name":"dense_Dense1258/bias","shape":[16],"dtype":"float32"},{"name":"dense_Dense1259/kernel","shape":[16,32],"dtype":"float32"},{"name":"dense_Dense1259/bias","shape":[32],"dtype":"float32"},{"name":"dense_Dense1260/kernel","shape":[32,1],"dtype":"float32"},{"name":"dense_Dense1260/bias","shape":[1],"dtype":"float32"}]}]}