{"modelTopology":{"class_name":"Model","config":{"name":"model1249","layers":[{"name":"input1249","class_name":"InputLayer","config":{"batch_input_shape":[null,3],"dtype":"float32","sparse":false,"name":"input1249"},"inbound_nodes":[]},{"name":"dense_Dense7489","class_name":"Dense","config":{"units":32,"activation":"relu","use_bias":true,"kernel_initializer":{"class_name":"VarianceScaling","config":{"scale":1,"mode":"fan_avg","distribution":"normal","seed":null}},"bias_initializer":{"class_name":"Zeros","config":{}},"kernel_regularizer":null,"bias_regularizer":null,"activity_regularizer":null,"kernel_constraint":null,"bias_constraint":null,"name":"dense_Dense7489","trainable":true},"inbound_nodes":[[["input1249",0,0,{}]]]},{"name":"dense_Dense7490","class_name":"Dense","config":{"units":32,"activation":"relu","use_bias":true,"kernel_initializer":{"class_name":"VarianceScaling","config":{"scale":1,"mode":"fan_avg","distribution":"normal","seed":null}},"bias_initializer":{"class_name":"Zeros","config":{}},"kernel_regularizer":null,"bias_regularizer":null,"activity_regularizer":null,"kernel_constraint":null,"bias_constraint":null,"name":"dense_Dense7490","trainable":true},"inbound_nodes":[[["dense_Dense7489",0,0,{}]]]},{"name":"dense_Dense7491","class_name":"Dense","config":{"units":16,"activation":"relu","use_bias":true,"kernel_initializer":{"class_name":"VarianceScaling","config":{"scale":1,"mode":"fan_avg","distribution":"normal","seed":null}},"bias_initializer":{"class_name":"Zeros","config":{}},"kernel_regularizer":null,"bias_regularizer":null,"activity_regularizer":null,"kernel_constraint":null,"bias_constraint":null,"name":"dense_Dense7491","trainable":true},"inbound_nodes":[[["dense_Dense7490",0,0,{}]]]},{"name":"dense_Dense7492","class_name":"Dense","config":{"units":16,"activation":"relu","use_bias":true,"kernel_initializer":{"class_name":"VarianceScaling","config":{"scale":1,"mode":"fan_avg","distribution":"normal","seed":null}},"bias_initializer":{"class_name":"Zeros","config":{}},"kernel_regularizer":null,"bias_regularizer":null,"activity_regularizer":null,"kernel_constraint":null,"bias_constraint":null,"name":"dense_Dense7492","trainable":true},"inbound_nodes":[[["dense_Dense7491",0,0,{}]]]},{"name":"dense_Dense7493","class_name":"Dense","config":{"units":1,"activation":"relu","use_bias":true,"kernel_initializer":{"class_name":"VarianceScaling","config":{"scale":1,"mode":"fan_avg","distribution":"normal","seed":null}},"bias_initializer":{"class_name":"Zeros","config":{}},"kernel_regularizer":null,"bias_regularizer":null,"activity_regularizer":null,"kernel_constraint":null,"bias_constraint":null,"name":"dense_Dense7493","trainable":true},"inbound_nodes":[[["dense_Dense7492",0,0,{}]]]},{"name":"dense_Dense7494","class_name":"Dense","config":{"units":1,"activation":"sigmoid","use_bias":true,"kernel_initializer":{"class_name":"VarianceScaling","config":{"scale":1,"mode":"fan_avg","distribution":"normal","seed":null}},"bias_initializer":{"class_name":"Zeros","config":{}},"kernel_regularizer":null,"bias_regularizer":null,"activity_regularizer":null,"kernel_constraint":null,"bias_constraint":null,"name":"dense_Dense7494","trainable":true},"inbound_nodes":[[["dense_Dense7493",0,0,{}]]]}],"input_layers":[["input1249",0,0]],"output_layers":[["dense_Dense7494",0,0]]},"keras_version":"tfjs-layers 3.9.0","backend":"tensor_flow.js"},"weightsManifest":[{"paths":["weights.bin"],"weights":[{"name":"dense_Dense7489/kernel","shape":[3,32],"dtype":"float32"},{"name":"dense_Dense7489/bias","shape":[32],"dtype":"float32"},{"name":"dense_Dense7490/kernel","shape":[32,32],"dtype":"float32"},{"name":"dense_Dense7490/bias","shape":[32],"dtype":"float32"},{"name":"dense_Dense7491/kernel","shape":[32,16],"dtype":"float32"},{"name":"dense_Dense7491/bias","shape":[16],"dtype":"float32"},{"name":"dense_Dense7492/kernel","shape":[16,16],"dtype":"float32"},{"name":"dense_Dense7492/bias","shape":[16],"dtype":"float32"},{"name":"dense_Dense7493/kernel","shape":[16,1],"dtype":"float32"},{"name":"dense_Dense7493/bias","shape":[1],"dtype":"float32"},{"name":"dense_Dense7494/kernel","shape":[1,1],"dtype":"float32"},{"name":"dense_Dense7494/bias","shape":[1],"dtype":"float32"}]}]}