{"modelTopology":{"class_name":"Model","config":{"name":"model1122","layers":[{"name":"input1122","class_name":"InputLayer","config":{"batch_input_shape":[null,3],"dtype":"float32","sparse":false,"name":"input1122"},"inbound_nodes":[]},{"name":"dense_Dense6727","class_name":"Dense","config":{"units":8,"activation":"relu","use_bias":true,"kernel_initializer":{"class_name":"VarianceScaling","config":{"scale":1,"mode":"fan_avg","distribution":"normal","seed":null}},"bias_initializer":{"class_name":"Zeros","config":{}},"kernel_regularizer":null,"bias_regularizer":null,"activity_regularizer":null,"kernel_constraint":null,"bias_constraint":null,"name":"dense_Dense6727","trainable":true},"inbound_nodes":[[["input1122",0,0,{}]]]},{"name":"dense_Dense6728","class_name":"Dense","config":{"units":32,"activation":"relu","use_bias":true,"kernel_initializer":{"class_name":"VarianceScaling","config":{"scale":1,"mode":"fan_avg","distribution":"normal","seed":null}},"bias_initializer":{"class_name":"Zeros","config":{}},"kernel_regularizer":null,"bias_regularizer":null,"activity_regularizer":null,"kernel_constraint":null,"bias_constraint":null,"name":"dense_Dense6728","trainable":true},"inbound_nodes":[[["dense_Dense6727",0,0,{}]]]},{"name":"dense_Dense6729","class_name":"Dense","config":{"units":2,"activation":"relu","use_bias":true,"kernel_initializer":{"class_name":"VarianceScaling","config":{"scale":1,"mode":"fan_avg","distribution":"normal","seed":null}},"bias_initializer":{"class_name":"Zeros","config":{}},"kernel_regularizer":null,"bias_regularizer":null,"activity_regularizer":null,"kernel_constraint":null,"bias_constraint":null,"name":"dense_Dense6729","trainable":true},"inbound_nodes":[[["dense_Dense6728",0,0,{}]]]},{"name":"dense_Dense6730","class_name":"Dense","config":{"units":1,"activation":"relu","use_bias":true,"kernel_initializer":{"class_name":"VarianceScaling","config":{"scale":1,"mode":"fan_avg","distribution":"normal","seed":null}},"bias_initializer":{"class_name":"Zeros","config":{}},"kernel_regularizer":null,"bias_regularizer":null,"activity_regularizer":null,"kernel_constraint":null,"bias_constraint":null,"name":"dense_Dense6730","trainable":true},"inbound_nodes":[[["dense_Dense6729",0,0,{}]]]},{"name":"dense_Dense6731","class_name":"Dense","config":{"units":32,"activation":"relu","use_bias":true,"kernel_initializer":{"class_name":"VarianceScaling","config":{"scale":1,"mode":"fan_avg","distribution":"normal","seed":null}},"bias_initializer":{"class_name":"Zeros","config":{}},"kernel_regularizer":null,"bias_regularizer":null,"activity_regularizer":null,"kernel_constraint":null,"bias_constraint":null,"name":"dense_Dense6731","trainable":true},"inbound_nodes":[[["dense_Dense6730",0,0,{}]]]},{"name":"dense_Dense6732","class_name":"Dense","config":{"units":1,"activation":"sigmoid","use_bias":true,"kernel_initializer":{"class_name":"VarianceScaling","config":{"scale":1,"mode":"fan_avg","distribution":"normal","seed":null}},"bias_initializer":{"class_name":"Zeros","config":{}},"kernel_regularizer":null,"bias_regularizer":null,"activity_regularizer":null,"kernel_constraint":null,"bias_constraint":null,"name":"dense_Dense6732","trainable":true},"inbound_nodes":[[["dense_Dense6731",0,0,{}]]]}],"input_layers":[["input1122",0,0]],"output_layers":[["dense_Dense6732",0,0]]},"keras_version":"tfjs-layers 3.9.0","backend":"tensor_flow.js"},"weightsManifest":[{"paths":["weights.bin"],"weights":[{"name":"dense_Dense6727/kernel","shape":[3,8],"dtype":"float32"},{"name":"dense_Dense6727/bias","shape":[8],"dtype":"float32"},{"name":"dense_Dense6728/kernel","shape":[8,32],"dtype":"float32"},{"name":"dense_Dense6728/bias","shape":[32],"dtype":"float32"},{"name":"dense_Dense6729/kernel","shape":[32,2],"dtype":"float32"},{"name":"dense_Dense6729/bias","shape":[2],"dtype":"float32"},{"name":"dense_Dense6730/kernel","shape":[2,1],"dtype":"float32"},{"name":"dense_Dense6730/bias","shape":[1],"dtype":"float32"},{"name":"dense_Dense6731/kernel","shape":[1,32],"dtype":"float32"},{"name":"dense_Dense6731/bias","shape":[32],"dtype":"float32"},{"name":"dense_Dense6732/kernel","shape":[32,1],"dtype":"float32"},{"name":"dense_Dense6732/bias","shape":[1],"dtype":"float32"}]}]}