{"modelTopology":{"class_name":"Model","config":{"name":"model380","layers":[{"name":"input380","class_name":"InputLayer","config":{"batch_input_shape":[null,3],"dtype":"float32","sparse":false,"name":"input380"},"inbound_nodes":[]},{"name":"dense_Dense2275","class_name":"Dense","config":{"units":4,"activation":"relu","use_bias":true,"kernel_initializer":{"class_name":"VarianceScaling","config":{"scale":1,"mode":"fan_avg","distribution":"normal","seed":null}},"bias_initializer":{"class_name":"Zeros","config":{}},"kernel_regularizer":null,"bias_regularizer":null,"activity_regularizer":null,"kernel_constraint":null,"bias_constraint":null,"name":"dense_Dense2275","trainable":true},"inbound_nodes":[[["input380",0,0,{}]]]},{"name":"dense_Dense2276","class_name":"Dense","config":{"units":2,"activation":"relu","use_bias":true,"kernel_initializer":{"class_name":"VarianceScaling","config":{"scale":1,"mode":"fan_avg","distribution":"normal","seed":null}},"bias_initializer":{"class_name":"Zeros","config":{}},"kernel_regularizer":null,"bias_regularizer":null,"activity_regularizer":null,"kernel_constraint":null,"bias_constraint":null,"name":"dense_Dense2276","trainable":true},"inbound_nodes":[[["dense_Dense2275",0,0,{}]]]},{"name":"dense_Dense2277","class_name":"Dense","config":{"units":16,"activation":"relu","use_bias":true,"kernel_initializer":{"class_name":"VarianceScaling","config":{"scale":1,"mode":"fan_avg","distribution":"normal","seed":null}},"bias_initializer":{"class_name":"Zeros","config":{}},"kernel_regularizer":null,"bias_regularizer":null,"activity_regularizer":null,"kernel_constraint":null,"bias_constraint":null,"name":"dense_Dense2277","trainable":true},"inbound_nodes":[[["dense_Dense2276",0,0,{}]]]},{"name":"dense_Dense2278","class_name":"Dense","config":{"units":8,"activation":"relu","use_bias":true,"kernel_initializer":{"class_name":"VarianceScaling","config":{"scale":1,"mode":"fan_avg","distribution":"normal","seed":null}},"bias_initializer":{"class_name":"Zeros","config":{}},"kernel_regularizer":null,"bias_regularizer":null,"activity_regularizer":null,"kernel_constraint":null,"bias_constraint":null,"name":"dense_Dense2278","trainable":true},"inbound_nodes":[[["dense_Dense2277",0,0,{}]]]},{"name":"dense_Dense2279","class_name":"Dense","config":{"units":2,"activation":"relu","use_bias":true,"kernel_initializer":{"class_name":"VarianceScaling","config":{"scale":1,"mode":"fan_avg","distribution":"normal","seed":null}},"bias_initializer":{"class_name":"Zeros","config":{}},"kernel_regularizer":null,"bias_regularizer":null,"activity_regularizer":null,"kernel_constraint":null,"bias_constraint":null,"name":"dense_Dense2279","trainable":true},"inbound_nodes":[[["dense_Dense2278",0,0,{}]]]},{"name":"dense_Dense2280","class_name":"Dense","config":{"units":1,"activation":"sigmoid","use_bias":true,"kernel_initializer":{"class_name":"VarianceScaling","config":{"scale":1,"mode":"fan_avg","distribution":"normal","seed":null}},"bias_initializer":{"class_name":"Zeros","config":{}},"kernel_regularizer":null,"bias_regularizer":null,"activity_regularizer":null,"kernel_constraint":null,"bias_constraint":null,"name":"dense_Dense2280","trainable":true},"inbound_nodes":[[["dense_Dense2279",0,0,{}]]]}],"input_layers":[["input380",0,0]],"output_layers":[["dense_Dense2280",0,0]]},"keras_version":"tfjs-layers 3.9.0","backend":"tensor_flow.js"},"weightsManifest":[{"paths":["weights.bin"],"weights":[{"name":"dense_Dense2275/kernel","shape":[3,4],"dtype":"float32"},{"name":"dense_Dense2275/bias","shape":[4],"dtype":"float32"},{"name":"dense_Dense2276/kernel","shape":[4,2],"dtype":"float32"},{"name":"dense_Dense2276/bias","shape":[2],"dtype":"float32"},{"name":"dense_Dense2277/kernel","shape":[2,16],"dtype":"float32"},{"name":"dense_Dense2277/bias","shape":[16],"dtype":"float32"},{"name":"dense_Dense2278/kernel","shape":[16,8],"dtype":"float32"},{"name":"dense_Dense2278/bias","shape":[8],"dtype":"float32"},{"name":"dense_Dense2279/kernel","shape":[8,2],"dtype":"float32"},{"name":"dense_Dense2279/bias","shape":[2],"dtype":"float32"},{"name":"dense_Dense2280/kernel","shape":[2,1],"dtype":"float32"},{"name":"dense_Dense2280/bias","shape":[1],"dtype":"float32"}]}]}