{"modelTopology":{"class_name":"Model","config":{"name":"model1288","layers":[{"name":"input1288","class_name":"InputLayer","config":{"batch_input_shape":[null,3],"dtype":"float32","sparse":false,"name":"input1288"},"inbound_nodes":[]},{"name":"dense_Dense7723","class_name":"Dense","config":{"units":2,"activation":"relu","use_bias":true,"kernel_initializer":{"class_name":"VarianceScaling","config":{"scale":1,"mode":"fan_avg","distribution":"normal","seed":null}},"bias_initializer":{"class_name":"Zeros","config":{}},"kernel_regularizer":null,"bias_regularizer":null,"activity_regularizer":null,"kernel_constraint":null,"bias_constraint":null,"name":"dense_Dense7723","trainable":true},"inbound_nodes":[[["input1288",0,0,{}]]]},{"name":"dense_Dense7724","class_name":"Dense","config":{"units":32,"activation":"relu","use_bias":true,"kernel_initializer":{"class_name":"VarianceScaling","config":{"scale":1,"mode":"fan_avg","distribution":"normal","seed":null}},"bias_initializer":{"class_name":"Zeros","config":{}},"kernel_regularizer":null,"bias_regularizer":null,"activity_regularizer":null,"kernel_constraint":null,"bias_constraint":null,"name":"dense_Dense7724","trainable":true},"inbound_nodes":[[["dense_Dense7723",0,0,{}]]]},{"name":"dense_Dense7725","class_name":"Dense","config":{"units":32,"activation":"relu","use_bias":true,"kernel_initializer":{"class_name":"VarianceScaling","config":{"scale":1,"mode":"fan_avg","distribution":"normal","seed":null}},"bias_initializer":{"class_name":"Zeros","config":{}},"kernel_regularizer":null,"bias_regularizer":null,"activity_regularizer":null,"kernel_constraint":null,"bias_constraint":null,"name":"dense_Dense7725","trainable":true},"inbound_nodes":[[["dense_Dense7724",0,0,{}]]]},{"name":"dense_Dense7726","class_name":"Dense","config":{"units":16,"activation":"relu","use_bias":true,"kernel_initializer":{"class_name":"VarianceScaling","config":{"scale":1,"mode":"fan_avg","distribution":"normal","seed":null}},"bias_initializer":{"class_name":"Zeros","config":{}},"kernel_regularizer":null,"bias_regularizer":null,"activity_regularizer":null,"kernel_constraint":null,"bias_constraint":null,"name":"dense_Dense7726","trainable":true},"inbound_nodes":[[["dense_Dense7725",0,0,{}]]]},{"name":"dense_Dense7727","class_name":"Dense","config":{"units":8,"activation":"relu","use_bias":true,"kernel_initializer":{"class_name":"VarianceScaling","config":{"scale":1,"mode":"fan_avg","distribution":"normal","seed":null}},"bias_initializer":{"class_name":"Zeros","config":{}},"kernel_regularizer":null,"bias_regularizer":null,"activity_regularizer":null,"kernel_constraint":null,"bias_constraint":null,"name":"dense_Dense7727","trainable":true},"inbound_nodes":[[["dense_Dense7726",0,0,{}]]]},{"name":"dense_Dense7728","class_name":"Dense","config":{"units":1,"activation":"sigmoid","use_bias":true,"kernel_initializer":{"class_name":"VarianceScaling","config":{"scale":1,"mode":"fan_avg","distribution":"normal","seed":null}},"bias_initializer":{"class_name":"Zeros","config":{}},"kernel_regularizer":null,"bias_regularizer":null,"activity_regularizer":null,"kernel_constraint":null,"bias_constraint":null,"name":"dense_Dense7728","trainable":true},"inbound_nodes":[[["dense_Dense7727",0,0,{}]]]}],"input_layers":[["input1288",0,0]],"output_layers":[["dense_Dense7728",0,0]]},"keras_version":"tfjs-layers 3.9.0","backend":"tensor_flow.js"},"weightsManifest":[{"paths":["weights.bin"],"weights":[{"name":"dense_Dense7723/kernel","shape":[3,2],"dtype":"float32"},{"name":"dense_Dense7723/bias","shape":[2],"dtype":"float32"},{"name":"dense_Dense7724/kernel","shape":[2,32],"dtype":"float32"},{"name":"dense_Dense7724/bias","shape":[32],"dtype":"float32"},{"name":"dense_Dense7725/kernel","shape":[32,32],"dtype":"float32"},{"name":"dense_Dense7725/bias","shape":[32],"dtype":"float32"},{"name":"dense_Dense7726/kernel","shape":[32,16],"dtype":"float32"},{"name":"dense_Dense7726/bias","shape":[16],"dtype":"float32"},{"name":"dense_Dense7727/kernel","shape":[16,8],"dtype":"float32"},{"name":"dense_Dense7727/bias","shape":[8],"dtype":"float32"},{"name":"dense_Dense7728/kernel","shape":[8,1],"dtype":"float32"},{"name":"dense_Dense7728/bias","shape":[1],"dtype":"float32"}]}]}