{"modelTopology":{"class_name":"Model","config":{"name":"model913","layers":[{"name":"input913","class_name":"InputLayer","config":{"batch_input_shape":[null,3],"dtype":"float32","sparse":false,"name":"input913"},"inbound_nodes":[]},{"name":"dense_Dense5473","class_name":"Dense","config":{"units":2,"activation":"relu","use_bias":true,"kernel_initializer":{"class_name":"VarianceScaling","config":{"scale":1,"mode":"fan_avg","distribution":"normal","seed":null}},"bias_initializer":{"class_name":"Zeros","config":{}},"kernel_regularizer":null,"bias_regularizer":null,"activity_regularizer":null,"kernel_constraint":null,"bias_constraint":null,"name":"dense_Dense5473","trainable":true},"inbound_nodes":[[["input913",0,0,{}]]]},{"name":"dense_Dense5474","class_name":"Dense","config":{"units":16,"activation":"relu","use_bias":true,"kernel_initializer":{"class_name":"VarianceScaling","config":{"scale":1,"mode":"fan_avg","distribution":"normal","seed":null}},"bias_initializer":{"class_name":"Zeros","config":{}},"kernel_regularizer":null,"bias_regularizer":null,"activity_regularizer":null,"kernel_constraint":null,"bias_constraint":null,"name":"dense_Dense5474","trainable":true},"inbound_nodes":[[["dense_Dense5473",0,0,{}]]]},{"name":"dense_Dense5475","class_name":"Dense","config":{"units":2,"activation":"relu","use_bias":true,"kernel_initializer":{"class_name":"VarianceScaling","config":{"scale":1,"mode":"fan_avg","distribution":"normal","seed":null}},"bias_initializer":{"class_name":"Zeros","config":{}},"kernel_regularizer":null,"bias_regularizer":null,"activity_regularizer":null,"kernel_constraint":null,"bias_constraint":null,"name":"dense_Dense5475","trainable":true},"inbound_nodes":[[["dense_Dense5474",0,0,{}]]]},{"name":"dense_Dense5476","class_name":"Dense","config":{"units":4,"activation":"relu","use_bias":true,"kernel_initializer":{"class_name":"VarianceScaling","config":{"scale":1,"mode":"fan_avg","distribution":"normal","seed":null}},"bias_initializer":{"class_name":"Zeros","config":{}},"kernel_regularizer":null,"bias_regularizer":null,"activity_regularizer":null,"kernel_constraint":null,"bias_constraint":null,"name":"dense_Dense5476","trainable":true},"inbound_nodes":[[["dense_Dense5475",0,0,{}]]]},{"name":"dense_Dense5477","class_name":"Dense","config":{"units":1,"activation":"relu","use_bias":true,"kernel_initializer":{"class_name":"VarianceScaling","config":{"scale":1,"mode":"fan_avg","distribution":"normal","seed":null}},"bias_initializer":{"class_name":"Zeros","config":{}},"kernel_regularizer":null,"bias_regularizer":null,"activity_regularizer":null,"kernel_constraint":null,"bias_constraint":null,"name":"dense_Dense5477","trainable":true},"inbound_nodes":[[["dense_Dense5476",0,0,{}]]]},{"name":"dense_Dense5478","class_name":"Dense","config":{"units":1,"activation":"sigmoid","use_bias":true,"kernel_initializer":{"class_name":"VarianceScaling","config":{"scale":1,"mode":"fan_avg","distribution":"normal","seed":null}},"bias_initializer":{"class_name":"Zeros","config":{}},"kernel_regularizer":null,"bias_regularizer":null,"activity_regularizer":null,"kernel_constraint":null,"bias_constraint":null,"name":"dense_Dense5478","trainable":true},"inbound_nodes":[[["dense_Dense5477",0,0,{}]]]}],"input_layers":[["input913",0,0]],"output_layers":[["dense_Dense5478",0,0]]},"keras_version":"tfjs-layers 3.9.0","backend":"tensor_flow.js"},"weightsManifest":[{"paths":["weights.bin"],"weights":[{"name":"dense_Dense5473/kernel","shape":[3,2],"dtype":"float32"},{"name":"dense_Dense5473/bias","shape":[2],"dtype":"float32"},{"name":"dense_Dense5474/kernel","shape":[2,16],"dtype":"float32"},{"name":"dense_Dense5474/bias","shape":[16],"dtype":"float32"},{"name":"dense_Dense5475/kernel","shape":[16,2],"dtype":"float32"},{"name":"dense_Dense5475/bias","shape":[2],"dtype":"float32"},{"name":"dense_Dense5476/kernel","shape":[2,4],"dtype":"float32"},{"name":"dense_Dense5476/bias","shape":[4],"dtype":"float32"},{"name":"dense_Dense5477/kernel","shape":[4,1],"dtype":"float32"},{"name":"dense_Dense5477/bias","shape":[1],"dtype":"float32"},{"name":"dense_Dense5478/kernel","shape":[1,1],"dtype":"float32"},{"name":"dense_Dense5478/bias","shape":[1],"dtype":"float32"}]}]}