{"modelTopology":{"class_name":"Model","config":{"name":"model529","layers":[{"name":"input529","class_name":"InputLayer","config":{"batch_input_shape":[null,3],"dtype":"float32","sparse":false,"name":"input529"},"inbound_nodes":[]},{"name":"dense_Dense3169","class_name":"Dense","config":{"units":4,"activation":"relu","use_bias":true,"kernel_initializer":{"class_name":"VarianceScaling","config":{"scale":1,"mode":"fan_avg","distribution":"normal","seed":null}},"bias_initializer":{"class_name":"Zeros","config":{}},"kernel_regularizer":null,"bias_regularizer":null,"activity_regularizer":null,"kernel_constraint":null,"bias_constraint":null,"name":"dense_Dense3169","trainable":true},"inbound_nodes":[[["input529",0,0,{}]]]},{"name":"dense_Dense3170","class_name":"Dense","config":{"units":4,"activation":"relu","use_bias":true,"kernel_initializer":{"class_name":"VarianceScaling","config":{"scale":1,"mode":"fan_avg","distribution":"normal","seed":null}},"bias_initializer":{"class_name":"Zeros","config":{}},"kernel_regularizer":null,"bias_regularizer":null,"activity_regularizer":null,"kernel_constraint":null,"bias_constraint":null,"name":"dense_Dense3170","trainable":true},"inbound_nodes":[[["dense_Dense3169",0,0,{}]]]},{"name":"dense_Dense3171","class_name":"Dense","config":{"units":4,"activation":"relu","use_bias":true,"kernel_initializer":{"class_name":"VarianceScaling","config":{"scale":1,"mode":"fan_avg","distribution":"normal","seed":null}},"bias_initializer":{"class_name":"Zeros","config":{}},"kernel_regularizer":null,"bias_regularizer":null,"activity_regularizer":null,"kernel_constraint":null,"bias_constraint":null,"name":"dense_Dense3171","trainable":true},"inbound_nodes":[[["dense_Dense3170",0,0,{}]]]},{"name":"dense_Dense3172","class_name":"Dense","config":{"units":16,"activation":"relu","use_bias":true,"kernel_initializer":{"class_name":"VarianceScaling","config":{"scale":1,"mode":"fan_avg","distribution":"normal","seed":null}},"bias_initializer":{"class_name":"Zeros","config":{}},"kernel_regularizer":null,"bias_regularizer":null,"activity_regularizer":null,"kernel_constraint":null,"bias_constraint":null,"name":"dense_Dense3172","trainable":true},"inbound_nodes":[[["dense_Dense3171",0,0,{}]]]},{"name":"dense_Dense3173","class_name":"Dense","config":{"units":1,"activation":"relu","use_bias":true,"kernel_initializer":{"class_name":"VarianceScaling","config":{"scale":1,"mode":"fan_avg","distribution":"normal","seed":null}},"bias_initializer":{"class_name":"Zeros","config":{}},"kernel_regularizer":null,"bias_regularizer":null,"activity_regularizer":null,"kernel_constraint":null,"bias_constraint":null,"name":"dense_Dense3173","trainable":true},"inbound_nodes":[[["dense_Dense3172",0,0,{}]]]},{"name":"dense_Dense3174","class_name":"Dense","config":{"units":1,"activation":"sigmoid","use_bias":true,"kernel_initializer":{"class_name":"VarianceScaling","config":{"scale":1,"mode":"fan_avg","distribution":"normal","seed":null}},"bias_initializer":{"class_name":"Zeros","config":{}},"kernel_regularizer":null,"bias_regularizer":null,"activity_regularizer":null,"kernel_constraint":null,"bias_constraint":null,"name":"dense_Dense3174","trainable":true},"inbound_nodes":[[["dense_Dense3173",0,0,{}]]]}],"input_layers":[["input529",0,0]],"output_layers":[["dense_Dense3174",0,0]]},"keras_version":"tfjs-layers 3.9.0","backend":"tensor_flow.js"},"weightsManifest":[{"paths":["weights.bin"],"weights":[{"name":"dense_Dense3169/kernel","shape":[3,4],"dtype":"float32"},{"name":"dense_Dense3169/bias","shape":[4],"dtype":"float32"},{"name":"dense_Dense3170/kernel","shape":[4,4],"dtype":"float32"},{"name":"dense_Dense3170/bias","shape":[4],"dtype":"float32"},{"name":"dense_Dense3171/kernel","shape":[4,4],"dtype":"float32"},{"name":"dense_Dense3171/bias","shape":[4],"dtype":"float32"},{"name":"dense_Dense3172/kernel","shape":[4,16],"dtype":"float32"},{"name":"dense_Dense3172/bias","shape":[16],"dtype":"float32"},{"name":"dense_Dense3173/kernel","shape":[16,1],"dtype":"float32"},{"name":"dense_Dense3173/bias","shape":[1],"dtype":"float32"},{"name":"dense_Dense3174/kernel","shape":[1,1],"dtype":"float32"},{"name":"dense_Dense3174/bias","shape":[1],"dtype":"float32"}]}]}