{"modelTopology":{"class_name":"Model","config":{"name":"model498","layers":[{"name":"input498","class_name":"InputLayer","config":{"batch_input_shape":[null,3],"dtype":"float32","sparse":false,"name":"input498"},"inbound_nodes":[]},{"name":"dense_Dense2983","class_name":"Dense","config":{"units":4,"activation":"relu","use_bias":true,"kernel_initializer":{"class_name":"VarianceScaling","config":{"scale":1,"mode":"fan_avg","distribution":"normal","seed":null}},"bias_initializer":{"class_name":"Zeros","config":{}},"kernel_regularizer":null,"bias_regularizer":null,"activity_regularizer":null,"kernel_constraint":null,"bias_constraint":null,"name":"dense_Dense2983","trainable":true},"inbound_nodes":[[["input498",0,0,{}]]]},{"name":"dense_Dense2984","class_name":"Dense","config":{"units":4,"activation":"relu","use_bias":true,"kernel_initializer":{"class_name":"VarianceScaling","config":{"scale":1,"mode":"fan_avg","distribution":"normal","seed":null}},"bias_initializer":{"class_name":"Zeros","config":{}},"kernel_regularizer":null,"bias_regularizer":null,"activity_regularizer":null,"kernel_constraint":null,"bias_constraint":null,"name":"dense_Dense2984","trainable":true},"inbound_nodes":[[["dense_Dense2983",0,0,{}]]]},{"name":"dense_Dense2985","class_name":"Dense","config":{"units":2,"activation":"relu","use_bias":true,"kernel_initializer":{"class_name":"VarianceScaling","config":{"scale":1,"mode":"fan_avg","distribution":"normal","seed":null}},"bias_initializer":{"class_name":"Zeros","config":{}},"kernel_regularizer":null,"bias_regularizer":null,"activity_regularizer":null,"kernel_constraint":null,"bias_constraint":null,"name":"dense_Dense2985","trainable":true},"inbound_nodes":[[["dense_Dense2984",0,0,{}]]]},{"name":"dense_Dense2986","class_name":"Dense","config":{"units":16,"activation":"relu","use_bias":true,"kernel_initializer":{"class_name":"VarianceScaling","config":{"scale":1,"mode":"fan_avg","distribution":"normal","seed":null}},"bias_initializer":{"class_name":"Zeros","config":{}},"kernel_regularizer":null,"bias_regularizer":null,"activity_regularizer":null,"kernel_constraint":null,"bias_constraint":null,"name":"dense_Dense2986","trainable":true},"inbound_nodes":[[["dense_Dense2985",0,0,{}]]]},{"name":"dense_Dense2987","class_name":"Dense","config":{"units":32,"activation":"relu","use_bias":true,"kernel_initializer":{"class_name":"VarianceScaling","config":{"scale":1,"mode":"fan_avg","distribution":"normal","seed":null}},"bias_initializer":{"class_name":"Zeros","config":{}},"kernel_regularizer":null,"bias_regularizer":null,"activity_regularizer":null,"kernel_constraint":null,"bias_constraint":null,"name":"dense_Dense2987","trainable":true},"inbound_nodes":[[["dense_Dense2986",0,0,{}]]]},{"name":"dense_Dense2988","class_name":"Dense","config":{"units":1,"activation":"sigmoid","use_bias":true,"kernel_initializer":{"class_name":"VarianceScaling","config":{"scale":1,"mode":"fan_avg","distribution":"normal","seed":null}},"bias_initializer":{"class_name":"Zeros","config":{}},"kernel_regularizer":null,"bias_regularizer":null,"activity_regularizer":null,"kernel_constraint":null,"bias_constraint":null,"name":"dense_Dense2988","trainable":true},"inbound_nodes":[[["dense_Dense2987",0,0,{}]]]}],"input_layers":[["input498",0,0]],"output_layers":[["dense_Dense2988",0,0]]},"keras_version":"tfjs-layers 3.9.0","backend":"tensor_flow.js"},"weightsManifest":[{"paths":["weights.bin"],"weights":[{"name":"dense_Dense2983/kernel","shape":[3,4],"dtype":"float32"},{"name":"dense_Dense2983/bias","shape":[4],"dtype":"float32"},{"name":"dense_Dense2984/kernel","shape":[4,4],"dtype":"float32"},{"name":"dense_Dense2984/bias","shape":[4],"dtype":"float32"},{"name":"dense_Dense2985/kernel","shape":[4,2],"dtype":"float32"},{"name":"dense_Dense2985/bias","shape":[2],"dtype":"float32"},{"name":"dense_Dense2986/kernel","shape":[2,16],"dtype":"float32"},{"name":"dense_Dense2986/bias","shape":[16],"dtype":"float32"},{"name":"dense_Dense2987/kernel","shape":[16,32],"dtype":"float32"},{"name":"dense_Dense2987/bias","shape":[32],"dtype":"float32"},{"name":"dense_Dense2988/kernel","shape":[32,1],"dtype":"float32"},{"name":"dense_Dense2988/bias","shape":[1],"dtype":"float32"}]}]}