{"modelTopology":{"class_name":"Model","config":{"name":"model179","layers":[{"name":"input179","class_name":"InputLayer","config":{"batch_input_shape":[null,3],"dtype":"float32","sparse":false,"name":"input179"},"inbound_nodes":[]},{"name":"dense_Dense1069","class_name":"Dense","config":{"units":4,"activation":"relu","use_bias":true,"kernel_initializer":{"class_name":"VarianceScaling","config":{"scale":1,"mode":"fan_avg","distribution":"normal","seed":null}},"bias_initializer":{"class_name":"Zeros","config":{}},"kernel_regularizer":null,"bias_regularizer":null,"activity_regularizer":null,"kernel_constraint":null,"bias_constraint":null,"name":"dense_Dense1069","trainable":true},"inbound_nodes":[[["input179",0,0,{}]]]},{"name":"dense_Dense1070","class_name":"Dense","config":{"units":1,"activation":"relu","use_bias":true,"kernel_initializer":{"class_name":"VarianceScaling","config":{"scale":1,"mode":"fan_avg","distribution":"normal","seed":null}},"bias_initializer":{"class_name":"Zeros","config":{}},"kernel_regularizer":null,"bias_regularizer":null,"activity_regularizer":null,"kernel_constraint":null,"bias_constraint":null,"name":"dense_Dense1070","trainable":true},"inbound_nodes":[[["dense_Dense1069",0,0,{}]]]},{"name":"dense_Dense1071","class_name":"Dense","config":{"units":16,"activation":"relu","use_bias":true,"kernel_initializer":{"class_name":"VarianceScaling","config":{"scale":1,"mode":"fan_avg","distribution":"normal","seed":null}},"bias_initializer":{"class_name":"Zeros","config":{}},"kernel_regularizer":null,"bias_regularizer":null,"activity_regularizer":null,"kernel_constraint":null,"bias_constraint":null,"name":"dense_Dense1071","trainable":true},"inbound_nodes":[[["dense_Dense1070",0,0,{}]]]},{"name":"dense_Dense1072","class_name":"Dense","config":{"units":32,"activation":"relu","use_bias":true,"kernel_initializer":{"class_name":"VarianceScaling","config":{"scale":1,"mode":"fan_avg","distribution":"normal","seed":null}},"bias_initializer":{"class_name":"Zeros","config":{}},"kernel_regularizer":null,"bias_regularizer":null,"activity_regularizer":null,"kernel_constraint":null,"bias_constraint":null,"name":"dense_Dense1072","trainable":true},"inbound_nodes":[[["dense_Dense1071",0,0,{}]]]},{"name":"dense_Dense1073","class_name":"Dense","config":{"units":16,"activation":"relu","use_bias":true,"kernel_initializer":{"class_name":"VarianceScaling","config":{"scale":1,"mode":"fan_avg","distribution":"normal","seed":null}},"bias_initializer":{"class_name":"Zeros","config":{}},"kernel_regularizer":null,"bias_regularizer":null,"activity_regularizer":null,"kernel_constraint":null,"bias_constraint":null,"name":"dense_Dense1073","trainable":true},"inbound_nodes":[[["dense_Dense1072",0,0,{}]]]},{"name":"dense_Dense1074","class_name":"Dense","config":{"units":1,"activation":"sigmoid","use_bias":true,"kernel_initializer":{"class_name":"VarianceScaling","config":{"scale":1,"mode":"fan_avg","distribution":"normal","seed":null}},"bias_initializer":{"class_name":"Zeros","config":{}},"kernel_regularizer":null,"bias_regularizer":null,"activity_regularizer":null,"kernel_constraint":null,"bias_constraint":null,"name":"dense_Dense1074","trainable":true},"inbound_nodes":[[["dense_Dense1073",0,0,{}]]]}],"input_layers":[["input179",0,0]],"output_layers":[["dense_Dense1074",0,0]]},"keras_version":"tfjs-layers 3.9.0","backend":"tensor_flow.js"},"weightsManifest":[{"paths":["weights.bin"],"weights":[{"name":"dense_Dense1069/kernel","shape":[3,4],"dtype":"float32"},{"name":"dense_Dense1069/bias","shape":[4],"dtype":"float32"},{"name":"dense_Dense1070/kernel","shape":[4,1],"dtype":"float32"},{"name":"dense_Dense1070/bias","shape":[1],"dtype":"float32"},{"name":"dense_Dense1071/kernel","shape":[1,16],"dtype":"float32"},{"name":"dense_Dense1071/bias","shape":[16],"dtype":"float32"},{"name":"dense_Dense1072/kernel","shape":[16,32],"dtype":"float32"},{"name":"dense_Dense1072/bias","shape":[32],"dtype":"float32"},{"name":"dense_Dense1073/kernel","shape":[32,16],"dtype":"float32"},{"name":"dense_Dense1073/bias","shape":[16],"dtype":"float32"},{"name":"dense_Dense1074/kernel","shape":[16,1],"dtype":"float32"},{"name":"dense_Dense1074/bias","shape":[1],"dtype":"float32"}]}]}