{"modelTopology":{"class_name":"Model","config":{"name":"model425","layers":[{"name":"input425","class_name":"InputLayer","config":{"batch_input_shape":[null,3],"dtype":"float32","sparse":false,"name":"input425"},"inbound_nodes":[]},{"name":"dense_Dense2545","class_name":"Dense","config":{"units":4,"activation":"relu","use_bias":true,"kernel_initializer":{"class_name":"VarianceScaling","config":{"scale":1,"mode":"fan_avg","distribution":"normal","seed":null}},"bias_initializer":{"class_name":"Zeros","config":{}},"kernel_regularizer":null,"bias_regularizer":null,"activity_regularizer":null,"kernel_constraint":null,"bias_constraint":null,"name":"dense_Dense2545","trainable":true},"inbound_nodes":[[["input425",0,0,{}]]]},{"name":"dense_Dense2546","class_name":"Dense","config":{"units":2,"activation":"relu","use_bias":true,"kernel_initializer":{"class_name":"VarianceScaling","config":{"scale":1,"mode":"fan_avg","distribution":"normal","seed":null}},"bias_initializer":{"class_name":"Zeros","config":{}},"kernel_regularizer":null,"bias_regularizer":null,"activity_regularizer":null,"kernel_constraint":null,"bias_constraint":null,"name":"dense_Dense2546","trainable":true},"inbound_nodes":[[["dense_Dense2545",0,0,{}]]]},{"name":"dense_Dense2547","class_name":"Dense","config":{"units":32,"activation":"relu","use_bias":true,"kernel_initializer":{"class_name":"VarianceScaling","config":{"scale":1,"mode":"fan_avg","distribution":"normal","seed":null}},"bias_initializer":{"class_name":"Zeros","config":{}},"kernel_regularizer":null,"bias_regularizer":null,"activity_regularizer":null,"kernel_constraint":null,"bias_constraint":null,"name":"dense_Dense2547","trainable":true},"inbound_nodes":[[["dense_Dense2546",0,0,{}]]]},{"name":"dense_Dense2548","class_name":"Dense","config":{"units":16,"activation":"relu","use_bias":true,"kernel_initializer":{"class_name":"VarianceScaling","config":{"scale":1,"mode":"fan_avg","distribution":"normal","seed":null}},"bias_initializer":{"class_name":"Zeros","config":{}},"kernel_regularizer":null,"bias_regularizer":null,"activity_regularizer":null,"kernel_constraint":null,"bias_constraint":null,"name":"dense_Dense2548","trainable":true},"inbound_nodes":[[["dense_Dense2547",0,0,{}]]]},{"name":"dense_Dense2549","class_name":"Dense","config":{"units":16,"activation":"relu","use_bias":true,"kernel_initializer":{"class_name":"VarianceScaling","config":{"scale":1,"mode":"fan_avg","distribution":"normal","seed":null}},"bias_initializer":{"class_name":"Zeros","config":{}},"kernel_regularizer":null,"bias_regularizer":null,"activity_regularizer":null,"kernel_constraint":null,"bias_constraint":null,"name":"dense_Dense2549","trainable":true},"inbound_nodes":[[["dense_Dense2548",0,0,{}]]]},{"name":"dense_Dense2550","class_name":"Dense","config":{"units":1,"activation":"sigmoid","use_bias":true,"kernel_initializer":{"class_name":"VarianceScaling","config":{"scale":1,"mode":"fan_avg","distribution":"normal","seed":null}},"bias_initializer":{"class_name":"Zeros","config":{}},"kernel_regularizer":null,"bias_regularizer":null,"activity_regularizer":null,"kernel_constraint":null,"bias_constraint":null,"name":"dense_Dense2550","trainable":true},"inbound_nodes":[[["dense_Dense2549",0,0,{}]]]}],"input_layers":[["input425",0,0]],"output_layers":[["dense_Dense2550",0,0]]},"keras_version":"tfjs-layers 3.9.0","backend":"tensor_flow.js"},"weightsManifest":[{"paths":["weights.bin"],"weights":[{"name":"dense_Dense2545/kernel","shape":[3,4],"dtype":"float32"},{"name":"dense_Dense2545/bias","shape":[4],"dtype":"float32"},{"name":"dense_Dense2546/kernel","shape":[4,2],"dtype":"float32"},{"name":"dense_Dense2546/bias","shape":[2],"dtype":"float32"},{"name":"dense_Dense2547/kernel","shape":[2,32],"dtype":"float32"},{"name":"dense_Dense2547/bias","shape":[32],"dtype":"float32"},{"name":"dense_Dense2548/kernel","shape":[32,16],"dtype":"float32"},{"name":"dense_Dense2548/bias","shape":[16],"dtype":"float32"},{"name":"dense_Dense2549/kernel","shape":[16,16],"dtype":"float32"},{"name":"dense_Dense2549/bias","shape":[16],"dtype":"float32"},{"name":"dense_Dense2550/kernel","shape":[16,1],"dtype":"float32"},{"name":"dense_Dense2550/bias","shape":[1],"dtype":"float32"}]}]}