{"modelTopology":{"class_name":"Model","config":{"name":"model426","layers":[{"name":"input426","class_name":"InputLayer","config":{"batch_input_shape":[null,3],"dtype":"float32","sparse":false,"name":"input426"},"inbound_nodes":[]},{"name":"dense_Dense2551","class_name":"Dense","config":{"units":16,"activation":"relu","use_bias":true,"kernel_initializer":{"class_name":"VarianceScaling","config":{"scale":1,"mode":"fan_avg","distribution":"normal","seed":null}},"bias_initializer":{"class_name":"Zeros","config":{}},"kernel_regularizer":null,"bias_regularizer":null,"activity_regularizer":null,"kernel_constraint":null,"bias_constraint":null,"name":"dense_Dense2551","trainable":true},"inbound_nodes":[[["input426",0,0,{}]]]},{"name":"dense_Dense2552","class_name":"Dense","config":{"units":2,"activation":"relu","use_bias":true,"kernel_initializer":{"class_name":"VarianceScaling","config":{"scale":1,"mode":"fan_avg","distribution":"normal","seed":null}},"bias_initializer":{"class_name":"Zeros","config":{}},"kernel_regularizer":null,"bias_regularizer":null,"activity_regularizer":null,"kernel_constraint":null,"bias_constraint":null,"name":"dense_Dense2552","trainable":true},"inbound_nodes":[[["dense_Dense2551",0,0,{}]]]},{"name":"dense_Dense2553","class_name":"Dense","config":{"units":32,"activation":"relu","use_bias":true,"kernel_initializer":{"class_name":"VarianceScaling","config":{"scale":1,"mode":"fan_avg","distribution":"normal","seed":null}},"bias_initializer":{"class_name":"Zeros","config":{}},"kernel_regularizer":null,"bias_regularizer":null,"activity_regularizer":null,"kernel_constraint":null,"bias_constraint":null,"name":"dense_Dense2553","trainable":true},"inbound_nodes":[[["dense_Dense2552",0,0,{}]]]},{"name":"dense_Dense2554","class_name":"Dense","config":{"units":16,"activation":"relu","use_bias":true,"kernel_initializer":{"class_name":"VarianceScaling","config":{"scale":1,"mode":"fan_avg","distribution":"normal","seed":null}},"bias_initializer":{"class_name":"Zeros","config":{}},"kernel_regularizer":null,"bias_regularizer":null,"activity_regularizer":null,"kernel_constraint":null,"bias_constraint":null,"name":"dense_Dense2554","trainable":true},"inbound_nodes":[[["dense_Dense2553",0,0,{}]]]},{"name":"dense_Dense2555","class_name":"Dense","config":{"units":32,"activation":"relu","use_bias":true,"kernel_initializer":{"class_name":"VarianceScaling","config":{"scale":1,"mode":"fan_avg","distribution":"normal","seed":null}},"bias_initializer":{"class_name":"Zeros","config":{}},"kernel_regularizer":null,"bias_regularizer":null,"activity_regularizer":null,"kernel_constraint":null,"bias_constraint":null,"name":"dense_Dense2555","trainable":true},"inbound_nodes":[[["dense_Dense2554",0,0,{}]]]},{"name":"dense_Dense2556","class_name":"Dense","config":{"units":1,"activation":"sigmoid","use_bias":true,"kernel_initializer":{"class_name":"VarianceScaling","config":{"scale":1,"mode":"fan_avg","distribution":"normal","seed":null}},"bias_initializer":{"class_name":"Zeros","config":{}},"kernel_regularizer":null,"bias_regularizer":null,"activity_regularizer":null,"kernel_constraint":null,"bias_constraint":null,"name":"dense_Dense2556","trainable":true},"inbound_nodes":[[["dense_Dense2555",0,0,{}]]]}],"input_layers":[["input426",0,0]],"output_layers":[["dense_Dense2556",0,0]]},"keras_version":"tfjs-layers 3.9.0","backend":"tensor_flow.js"},"weightsManifest":[{"paths":["weights.bin"],"weights":[{"name":"dense_Dense2551/kernel","shape":[3,16],"dtype":"float32"},{"name":"dense_Dense2551/bias","shape":[16],"dtype":"float32"},{"name":"dense_Dense2552/kernel","shape":[16,2],"dtype":"float32"},{"name":"dense_Dense2552/bias","shape":[2],"dtype":"float32"},{"name":"dense_Dense2553/kernel","shape":[2,32],"dtype":"float32"},{"name":"dense_Dense2553/bias","shape":[32],"dtype":"float32"},{"name":"dense_Dense2554/kernel","shape":[32,16],"dtype":"float32"},{"name":"dense_Dense2554/bias","shape":[16],"dtype":"float32"},{"name":"dense_Dense2555/kernel","shape":[16,32],"dtype":"float32"},{"name":"dense_Dense2555/bias","shape":[32],"dtype":"float32"},{"name":"dense_Dense2556/kernel","shape":[32,1],"dtype":"float32"},{"name":"dense_Dense2556/bias","shape":[1],"dtype":"float32"}]}]}