{"modelTopology":{"class_name":"Model","config":{"name":"model539","layers":[{"name":"input539","class_name":"InputLayer","config":{"batch_input_shape":[null,3],"dtype":"float32","sparse":false,"name":"input539"},"inbound_nodes":[]},{"name":"dense_Dense3229","class_name":"Dense","config":{"units":4,"activation":"relu","use_bias":true,"kernel_initializer":{"class_name":"VarianceScaling","config":{"scale":1,"mode":"fan_avg","distribution":"normal","seed":null}},"bias_initializer":{"class_name":"Zeros","config":{}},"kernel_regularizer":null,"bias_regularizer":null,"activity_regularizer":null,"kernel_constraint":null,"bias_constraint":null,"name":"dense_Dense3229","trainable":true},"inbound_nodes":[[["input539",0,0,{}]]]},{"name":"dense_Dense3230","class_name":"Dense","config":{"units":4,"activation":"relu","use_bias":true,"kernel_initializer":{"class_name":"VarianceScaling","config":{"scale":1,"mode":"fan_avg","distribution":"normal","seed":null}},"bias_initializer":{"class_name":"Zeros","config":{}},"kernel_regularizer":null,"bias_regularizer":null,"activity_regularizer":null,"kernel_constraint":null,"bias_constraint":null,"name":"dense_Dense3230","trainable":true},"inbound_nodes":[[["dense_Dense3229",0,0,{}]]]},{"name":"dense_Dense3231","class_name":"Dense","config":{"units":4,"activation":"relu","use_bias":true,"kernel_initializer":{"class_name":"VarianceScaling","config":{"scale":1,"mode":"fan_avg","distribution":"normal","seed":null}},"bias_initializer":{"class_name":"Zeros","config":{}},"kernel_regularizer":null,"bias_regularizer":null,"activity_regularizer":null,"kernel_constraint":null,"bias_constraint":null,"name":"dense_Dense3231","trainable":true},"inbound_nodes":[[["dense_Dense3230",0,0,{}]]]},{"name":"dense_Dense3232","class_name":"Dense","config":{"units":32,"activation":"relu","use_bias":true,"kernel_initializer":{"class_name":"VarianceScaling","config":{"scale":1,"mode":"fan_avg","distribution":"normal","seed":null}},"bias_initializer":{"class_name":"Zeros","config":{}},"kernel_regularizer":null,"bias_regularizer":null,"activity_regularizer":null,"kernel_constraint":null,"bias_constraint":null,"name":"dense_Dense3232","trainable":true},"inbound_nodes":[[["dense_Dense3231",0,0,{}]]]},{"name":"dense_Dense3233","class_name":"Dense","config":{"units":16,"activation":"relu","use_bias":true,"kernel_initializer":{"class_name":"VarianceScaling","config":{"scale":1,"mode":"fan_avg","distribution":"normal","seed":null}},"bias_initializer":{"class_name":"Zeros","config":{}},"kernel_regularizer":null,"bias_regularizer":null,"activity_regularizer":null,"kernel_constraint":null,"bias_constraint":null,"name":"dense_Dense3233","trainable":true},"inbound_nodes":[[["dense_Dense3232",0,0,{}]]]},{"name":"dense_Dense3234","class_name":"Dense","config":{"units":1,"activation":"sigmoid","use_bias":true,"kernel_initializer":{"class_name":"VarianceScaling","config":{"scale":1,"mode":"fan_avg","distribution":"normal","seed":null}},"bias_initializer":{"class_name":"Zeros","config":{}},"kernel_regularizer":null,"bias_regularizer":null,"activity_regularizer":null,"kernel_constraint":null,"bias_constraint":null,"name":"dense_Dense3234","trainable":true},"inbound_nodes":[[["dense_Dense3233",0,0,{}]]]}],"input_layers":[["input539",0,0]],"output_layers":[["dense_Dense3234",0,0]]},"keras_version":"tfjs-layers 3.9.0","backend":"tensor_flow.js"},"weightsManifest":[{"paths":["weights.bin"],"weights":[{"name":"dense_Dense3229/kernel","shape":[3,4],"dtype":"float32"},{"name":"dense_Dense3229/bias","shape":[4],"dtype":"float32"},{"name":"dense_Dense3230/kernel","shape":[4,4],"dtype":"float32"},{"name":"dense_Dense3230/bias","shape":[4],"dtype":"float32"},{"name":"dense_Dense3231/kernel","shape":[4,4],"dtype":"float32"},{"name":"dense_Dense3231/bias","shape":[4],"dtype":"float32"},{"name":"dense_Dense3232/kernel","shape":[4,32],"dtype":"float32"},{"name":"dense_Dense3232/bias","shape":[32],"dtype":"float32"},{"name":"dense_Dense3233/kernel","shape":[32,16],"dtype":"float32"},{"name":"dense_Dense3233/bias","shape":[16],"dtype":"float32"},{"name":"dense_Dense3234/kernel","shape":[16,1],"dtype":"float32"},{"name":"dense_Dense3234/bias","shape":[1],"dtype":"float32"}]}]}