{"modelTopology":{"class_name":"Model","config":{"name":"model255","layers":[{"name":"input255","class_name":"InputLayer","config":{"batch_input_shape":[null,3],"dtype":"float32","sparse":false,"name":"input255"},"inbound_nodes":[]},{"name":"dense_Dense1525","class_name":"Dense","config":{"units":4,"activation":"relu","use_bias":true,"kernel_initializer":{"class_name":"VarianceScaling","config":{"scale":1,"mode":"fan_avg","distribution":"normal","seed":null}},"bias_initializer":{"class_name":"Zeros","config":{}},"kernel_regularizer":null,"bias_regularizer":null,"activity_regularizer":null,"kernel_constraint":null,"bias_constraint":null,"name":"dense_Dense1525","trainable":true},"inbound_nodes":[[["input255",0,0,{}]]]},{"name":"dense_Dense1526","class_name":"Dense","config":{"units":2,"activation":"relu","use_bias":true,"kernel_initializer":{"class_name":"VarianceScaling","config":{"scale":1,"mode":"fan_avg","distribution":"normal","seed":null}},"bias_initializer":{"class_name":"Zeros","config":{}},"kernel_regularizer":null,"bias_regularizer":null,"activity_regularizer":null,"kernel_constraint":null,"bias_constraint":null,"name":"dense_Dense1526","trainable":true},"inbound_nodes":[[["dense_Dense1525",0,0,{}]]]},{"name":"dense_Dense1527","class_name":"Dense","config":{"units":2,"activation":"relu","use_bias":true,"kernel_initializer":{"class_name":"VarianceScaling","config":{"scale":1,"mode":"fan_avg","distribution":"normal","seed":null}},"bias_initializer":{"class_name":"Zeros","config":{}},"kernel_regularizer":null,"bias_regularizer":null,"activity_regularizer":null,"kernel_constraint":null,"bias_constraint":null,"name":"dense_Dense1527","trainable":true},"inbound_nodes":[[["dense_Dense1526",0,0,{}]]]},{"name":"dense_Dense1528","class_name":"Dense","config":{"units":1,"activation":"relu","use_bias":true,"kernel_initializer":{"class_name":"VarianceScaling","config":{"scale":1,"mode":"fan_avg","distribution":"normal","seed":null}},"bias_initializer":{"class_name":"Zeros","config":{}},"kernel_regularizer":null,"bias_regularizer":null,"activity_regularizer":null,"kernel_constraint":null,"bias_constraint":null,"name":"dense_Dense1528","trainable":true},"inbound_nodes":[[["dense_Dense1527",0,0,{}]]]},{"name":"dense_Dense1529","class_name":"Dense","config":{"units":4,"activation":"relu","use_bias":true,"kernel_initializer":{"class_name":"VarianceScaling","config":{"scale":1,"mode":"fan_avg","distribution":"normal","seed":null}},"bias_initializer":{"class_name":"Zeros","config":{}},"kernel_regularizer":null,"bias_regularizer":null,"activity_regularizer":null,"kernel_constraint":null,"bias_constraint":null,"name":"dense_Dense1529","trainable":true},"inbound_nodes":[[["dense_Dense1528",0,0,{}]]]},{"name":"dense_Dense1530","class_name":"Dense","config":{"units":1,"activation":"sigmoid","use_bias":true,"kernel_initializer":{"class_name":"VarianceScaling","config":{"scale":1,"mode":"fan_avg","distribution":"normal","seed":null}},"bias_initializer":{"class_name":"Zeros","config":{}},"kernel_regularizer":null,"bias_regularizer":null,"activity_regularizer":null,"kernel_constraint":null,"bias_constraint":null,"name":"dense_Dense1530","trainable":true},"inbound_nodes":[[["dense_Dense1529",0,0,{}]]]}],"input_layers":[["input255",0,0]],"output_layers":[["dense_Dense1530",0,0]]},"keras_version":"tfjs-layers 3.9.0","backend":"tensor_flow.js"},"weightsManifest":[{"paths":["weights.bin"],"weights":[{"name":"dense_Dense1525/kernel","shape":[3,4],"dtype":"float32"},{"name":"dense_Dense1525/bias","shape":[4],"dtype":"float32"},{"name":"dense_Dense1526/kernel","shape":[4,2],"dtype":"float32"},{"name":"dense_Dense1526/bias","shape":[2],"dtype":"float32"},{"name":"dense_Dense1527/kernel","shape":[2,2],"dtype":"float32"},{"name":"dense_Dense1527/bias","shape":[2],"dtype":"float32"},{"name":"dense_Dense1528/kernel","shape":[2,1],"dtype":"float32"},{"name":"dense_Dense1528/bias","shape":[1],"dtype":"float32"},{"name":"dense_Dense1529/kernel","shape":[1,4],"dtype":"float32"},{"name":"dense_Dense1529/bias","shape":[4],"dtype":"float32"},{"name":"dense_Dense1530/kernel","shape":[4,1],"dtype":"float32"},{"name":"dense_Dense1530/bias","shape":[1],"dtype":"float32"}]}]}