{"modelTopology":{"class_name":"Model","config":{"name":"model434","layers":[{"name":"input434","class_name":"InputLayer","config":{"batch_input_shape":[null,3],"dtype":"float32","sparse":false,"name":"input434"},"inbound_nodes":[]},{"name":"dense_Dense2599","class_name":"Dense","config":{"units":2,"activation":"relu","use_bias":true,"kernel_initializer":{"class_name":"VarianceScaling","config":{"scale":1,"mode":"fan_avg","distribution":"normal","seed":null}},"bias_initializer":{"class_name":"Zeros","config":{}},"kernel_regularizer":null,"bias_regularizer":null,"activity_regularizer":null,"kernel_constraint":null,"bias_constraint":null,"name":"dense_Dense2599","trainable":true},"inbound_nodes":[[["input434",0,0,{}]]]},{"name":"dense_Dense2600","class_name":"Dense","config":{"units":4,"activation":"relu","use_bias":true,"kernel_initializer":{"class_name":"VarianceScaling","config":{"scale":1,"mode":"fan_avg","distribution":"normal","seed":null}},"bias_initializer":{"class_name":"Zeros","config":{}},"kernel_regularizer":null,"bias_regularizer":null,"activity_regularizer":null,"kernel_constraint":null,"bias_constraint":null,"name":"dense_Dense2600","trainable":true},"inbound_nodes":[[["dense_Dense2599",0,0,{}]]]},{"name":"dense_Dense2601","class_name":"Dense","config":{"units":1,"activation":"relu","use_bias":true,"kernel_initializer":{"class_name":"VarianceScaling","config":{"scale":1,"mode":"fan_avg","distribution":"normal","seed":null}},"bias_initializer":{"class_name":"Zeros","config":{}},"kernel_regularizer":null,"bias_regularizer":null,"activity_regularizer":null,"kernel_constraint":null,"bias_constraint":null,"name":"dense_Dense2601","trainable":true},"inbound_nodes":[[["dense_Dense2600",0,0,{}]]]},{"name":"dense_Dense2602","class_name":"Dense","config":{"units":1,"activation":"relu","use_bias":true,"kernel_initializer":{"class_name":"VarianceScaling","config":{"scale":1,"mode":"fan_avg","distribution":"normal","seed":null}},"bias_initializer":{"class_name":"Zeros","config":{}},"kernel_regularizer":null,"bias_regularizer":null,"activity_regularizer":null,"kernel_constraint":null,"bias_constraint":null,"name":"dense_Dense2602","trainable":true},"inbound_nodes":[[["dense_Dense2601",0,0,{}]]]},{"name":"dense_Dense2603","class_name":"Dense","config":{"units":2,"activation":"relu","use_bias":true,"kernel_initializer":{"class_name":"VarianceScaling","config":{"scale":1,"mode":"fan_avg","distribution":"normal","seed":null}},"bias_initializer":{"class_name":"Zeros","config":{}},"kernel_regularizer":null,"bias_regularizer":null,"activity_regularizer":null,"kernel_constraint":null,"bias_constraint":null,"name":"dense_Dense2603","trainable":true},"inbound_nodes":[[["dense_Dense2602",0,0,{}]]]},{"name":"dense_Dense2604","class_name":"Dense","config":{"units":1,"activation":"sigmoid","use_bias":true,"kernel_initializer":{"class_name":"VarianceScaling","config":{"scale":1,"mode":"fan_avg","distribution":"normal","seed":null}},"bias_initializer":{"class_name":"Zeros","config":{}},"kernel_regularizer":null,"bias_regularizer":null,"activity_regularizer":null,"kernel_constraint":null,"bias_constraint":null,"name":"dense_Dense2604","trainable":true},"inbound_nodes":[[["dense_Dense2603",0,0,{}]]]}],"input_layers":[["input434",0,0]],"output_layers":[["dense_Dense2604",0,0]]},"keras_version":"tfjs-layers 3.9.0","backend":"tensor_flow.js"},"weightsManifest":[{"paths":["weights.bin"],"weights":[{"name":"dense_Dense2599/kernel","shape":[3,2],"dtype":"float32"},{"name":"dense_Dense2599/bias","shape":[2],"dtype":"float32"},{"name":"dense_Dense2600/kernel","shape":[2,4],"dtype":"float32"},{"name":"dense_Dense2600/bias","shape":[4],"dtype":"float32"},{"name":"dense_Dense2601/kernel","shape":[4,1],"dtype":"float32"},{"name":"dense_Dense2601/bias","shape":[1],"dtype":"float32"},{"name":"dense_Dense2602/kernel","shape":[1,1],"dtype":"float32"},{"name":"dense_Dense2602/bias","shape":[1],"dtype":"float32"},{"name":"dense_Dense2603/kernel","shape":[1,2],"dtype":"float32"},{"name":"dense_Dense2603/bias","shape":[2],"dtype":"float32"},{"name":"dense_Dense2604/kernel","shape":[2,1],"dtype":"float32"},{"name":"dense_Dense2604/bias","shape":[1],"dtype":"float32"}]}]}