{"modelTopology":{"class_name":"Model","config":{"name":"model274","layers":[{"name":"input274","class_name":"InputLayer","config":{"batch_input_shape":[null,3],"dtype":"float32","sparse":false,"name":"input274"},"inbound_nodes":[]},{"name":"dense_Dense1639","class_name":"Dense","config":{"units":4,"activation":"relu","use_bias":true,"kernel_initializer":{"class_name":"VarianceScaling","config":{"scale":1,"mode":"fan_avg","distribution":"normal","seed":null}},"bias_initializer":{"class_name":"Zeros","config":{}},"kernel_regularizer":null,"bias_regularizer":null,"activity_regularizer":null,"kernel_constraint":null,"bias_constraint":null,"name":"dense_Dense1639","trainable":true},"inbound_nodes":[[["input274",0,0,{}]]]},{"name":"dense_Dense1640","class_name":"Dense","config":{"units":2,"activation":"relu","use_bias":true,"kernel_initializer":{"class_name":"VarianceScaling","config":{"scale":1,"mode":"fan_avg","distribution":"normal","seed":null}},"bias_initializer":{"class_name":"Zeros","config":{}},"kernel_regularizer":null,"bias_regularizer":null,"activity_regularizer":null,"kernel_constraint":null,"bias_constraint":null,"name":"dense_Dense1640","trainable":true},"inbound_nodes":[[["dense_Dense1639",0,0,{}]]]},{"name":"dense_Dense1641","class_name":"Dense","config":{"units":2,"activation":"relu","use_bias":true,"kernel_initializer":{"class_name":"VarianceScaling","config":{"scale":1,"mode":"fan_avg","distribution":"normal","seed":null}},"bias_initializer":{"class_name":"Zeros","config":{}},"kernel_regularizer":null,"bias_regularizer":null,"activity_regularizer":null,"kernel_constraint":null,"bias_constraint":null,"name":"dense_Dense1641","trainable":true},"inbound_nodes":[[["dense_Dense1640",0,0,{}]]]},{"name":"dense_Dense1642","class_name":"Dense","config":{"units":8,"activation":"relu","use_bias":true,"kernel_initializer":{"class_name":"VarianceScaling","config":{"scale":1,"mode":"fan_avg","distribution":"normal","seed":null}},"bias_initializer":{"class_name":"Zeros","config":{}},"kernel_regularizer":null,"bias_regularizer":null,"activity_regularizer":null,"kernel_constraint":null,"bias_constraint":null,"name":"dense_Dense1642","trainable":true},"inbound_nodes":[[["dense_Dense1641",0,0,{}]]]},{"name":"dense_Dense1643","class_name":"Dense","config":{"units":8,"activation":"relu","use_bias":true,"kernel_initializer":{"class_name":"VarianceScaling","config":{"scale":1,"mode":"fan_avg","distribution":"normal","seed":null}},"bias_initializer":{"class_name":"Zeros","config":{}},"kernel_regularizer":null,"bias_regularizer":null,"activity_regularizer":null,"kernel_constraint":null,"bias_constraint":null,"name":"dense_Dense1643","trainable":true},"inbound_nodes":[[["dense_Dense1642",0,0,{}]]]},{"name":"dense_Dense1644","class_name":"Dense","config":{"units":1,"activation":"sigmoid","use_bias":true,"kernel_initializer":{"class_name":"VarianceScaling","config":{"scale":1,"mode":"fan_avg","distribution":"normal","seed":null}},"bias_initializer":{"class_name":"Zeros","config":{}},"kernel_regularizer":null,"bias_regularizer":null,"activity_regularizer":null,"kernel_constraint":null,"bias_constraint":null,"name":"dense_Dense1644","trainable":true},"inbound_nodes":[[["dense_Dense1643",0,0,{}]]]}],"input_layers":[["input274",0,0]],"output_layers":[["dense_Dense1644",0,0]]},"keras_version":"tfjs-layers 3.9.0","backend":"tensor_flow.js"},"weightsManifest":[{"paths":["weights.bin"],"weights":[{"name":"dense_Dense1639/kernel","shape":[3,4],"dtype":"float32"},{"name":"dense_Dense1639/bias","shape":[4],"dtype":"float32"},{"name":"dense_Dense1640/kernel","shape":[4,2],"dtype":"float32"},{"name":"dense_Dense1640/bias","shape":[2],"dtype":"float32"},{"name":"dense_Dense1641/kernel","shape":[2,2],"dtype":"float32"},{"name":"dense_Dense1641/bias","shape":[2],"dtype":"float32"},{"name":"dense_Dense1642/kernel","shape":[2,8],"dtype":"float32"},{"name":"dense_Dense1642/bias","shape":[8],"dtype":"float32"},{"name":"dense_Dense1643/kernel","shape":[8,8],"dtype":"float32"},{"name":"dense_Dense1643/bias","shape":[8],"dtype":"float32"},{"name":"dense_Dense1644/kernel","shape":[8,1],"dtype":"float32"},{"name":"dense_Dense1644/bias","shape":[1],"dtype":"float32"}]}]}