{"modelTopology":{"class_name":"Model","config":{"name":"model1236","layers":[{"name":"input1236","class_name":"InputLayer","config":{"batch_input_shape":[null,3],"dtype":"float32","sparse":false,"name":"input1236"},"inbound_nodes":[]},{"name":"dense_Dense7411","class_name":"Dense","config":{"units":16,"activation":"relu","use_bias":true,"kernel_initializer":{"class_name":"VarianceScaling","config":{"scale":1,"mode":"fan_avg","distribution":"normal","seed":null}},"bias_initializer":{"class_name":"Zeros","config":{}},"kernel_regularizer":null,"bias_regularizer":null,"activity_regularizer":null,"kernel_constraint":null,"bias_constraint":null,"name":"dense_Dense7411","trainable":true},"inbound_nodes":[[["input1236",0,0,{}]]]},{"name":"dense_Dense7412","class_name":"Dense","config":{"units":32,"activation":"relu","use_bias":true,"kernel_initializer":{"class_name":"VarianceScaling","config":{"scale":1,"mode":"fan_avg","distribution":"normal","seed":null}},"bias_initializer":{"class_name":"Zeros","config":{}},"kernel_regularizer":null,"bias_regularizer":null,"activity_regularizer":null,"kernel_constraint":null,"bias_constraint":null,"name":"dense_Dense7412","trainable":true},"inbound_nodes":[[["dense_Dense7411",0,0,{}]]]},{"name":"dense_Dense7413","class_name":"Dense","config":{"units":16,"activation":"relu","use_bias":true,"kernel_initializer":{"class_name":"VarianceScaling","config":{"scale":1,"mode":"fan_avg","distribution":"normal","seed":null}},"bias_initializer":{"class_name":"Zeros","config":{}},"kernel_regularizer":null,"bias_regularizer":null,"activity_regularizer":null,"kernel_constraint":null,"bias_constraint":null,"name":"dense_Dense7413","trainable":true},"inbound_nodes":[[["dense_Dense7412",0,0,{}]]]},{"name":"dense_Dense7414","class_name":"Dense","config":{"units":2,"activation":"relu","use_bias":true,"kernel_initializer":{"class_name":"VarianceScaling","config":{"scale":1,"mode":"fan_avg","distribution":"normal","seed":null}},"bias_initializer":{"class_name":"Zeros","config":{}},"kernel_regularizer":null,"bias_regularizer":null,"activity_regularizer":null,"kernel_constraint":null,"bias_constraint":null,"name":"dense_Dense7414","trainable":true},"inbound_nodes":[[["dense_Dense7413",0,0,{}]]]},{"name":"dense_Dense7415","class_name":"Dense","config":{"units":32,"activation":"relu","use_bias":true,"kernel_initializer":{"class_name":"VarianceScaling","config":{"scale":1,"mode":"fan_avg","distribution":"normal","seed":null}},"bias_initializer":{"class_name":"Zeros","config":{}},"kernel_regularizer":null,"bias_regularizer":null,"activity_regularizer":null,"kernel_constraint":null,"bias_constraint":null,"name":"dense_Dense7415","trainable":true},"inbound_nodes":[[["dense_Dense7414",0,0,{}]]]},{"name":"dense_Dense7416","class_name":"Dense","config":{"units":1,"activation":"sigmoid","use_bias":true,"kernel_initializer":{"class_name":"VarianceScaling","config":{"scale":1,"mode":"fan_avg","distribution":"normal","seed":null}},"bias_initializer":{"class_name":"Zeros","config":{}},"kernel_regularizer":null,"bias_regularizer":null,"activity_regularizer":null,"kernel_constraint":null,"bias_constraint":null,"name":"dense_Dense7416","trainable":true},"inbound_nodes":[[["dense_Dense7415",0,0,{}]]]}],"input_layers":[["input1236",0,0]],"output_layers":[["dense_Dense7416",0,0]]},"keras_version":"tfjs-layers 3.9.0","backend":"tensor_flow.js"},"weightsManifest":[{"paths":["weights.bin"],"weights":[{"name":"dense_Dense7411/kernel","shape":[3,16],"dtype":"float32"},{"name":"dense_Dense7411/bias","shape":[16],"dtype":"float32"},{"name":"dense_Dense7412/kernel","shape":[16,32],"dtype":"float32"},{"name":"dense_Dense7412/bias","shape":[32],"dtype":"float32"},{"name":"dense_Dense7413/kernel","shape":[32,16],"dtype":"float32"},{"name":"dense_Dense7413/bias","shape":[16],"dtype":"float32"},{"name":"dense_Dense7414/kernel","shape":[16,2],"dtype":"float32"},{"name":"dense_Dense7414/bias","shape":[2],"dtype":"float32"},{"name":"dense_Dense7415/kernel","shape":[2,32],"dtype":"float32"},{"name":"dense_Dense7415/bias","shape":[32],"dtype":"float32"},{"name":"dense_Dense7416/kernel","shape":[32,1],"dtype":"float32"},{"name":"dense_Dense7416/bias","shape":[1],"dtype":"float32"}]}]}