{"modelTopology":{"class_name":"Model","config":{"name":"model1216","layers":[{"name":"input1216","class_name":"InputLayer","config":{"batch_input_shape":[null,3],"dtype":"float32","sparse":false,"name":"input1216"},"inbound_nodes":[]},{"name":"dense_Dense6076","class_name":"Dense","config":{"units":32,"activation":"relu","use_bias":true,"kernel_initializer":{"class_name":"VarianceScaling","config":{"scale":1,"mode":"fan_avg","distribution":"normal","seed":null}},"bias_initializer":{"class_name":"Zeros","config":{}},"kernel_regularizer":null,"bias_regularizer":null,"activity_regularizer":null,"kernel_constraint":null,"bias_constraint":null,"name":"dense_Dense6076","trainable":true},"inbound_nodes":[[["input1216",0,0,{}]]]},{"name":"dense_Dense6077","class_name":"Dense","config":{"units":8,"activation":"relu","use_bias":true,"kernel_initializer":{"class_name":"VarianceScaling","config":{"scale":1,"mode":"fan_avg","distribution":"normal","seed":null}},"bias_initializer":{"class_name":"Zeros","config":{}},"kernel_regularizer":null,"bias_regularizer":null,"activity_regularizer":null,"kernel_constraint":null,"bias_constraint":null,"name":"dense_Dense6077","trainable":true},"inbound_nodes":[[["dense_Dense6076",0,0,{}]]]},{"name":"dense_Dense6078","class_name":"Dense","config":{"units":16,"activation":"relu","use_bias":true,"kernel_initializer":{"class_name":"VarianceScaling","config":{"scale":1,"mode":"fan_avg","distribution":"normal","seed":null}},"bias_initializer":{"class_name":"Zeros","config":{}},"kernel_regularizer":null,"bias_regularizer":null,"activity_regularizer":null,"kernel_constraint":null,"bias_constraint":null,"name":"dense_Dense6078","trainable":true},"inbound_nodes":[[["dense_Dense6077",0,0,{}]]]},{"name":"dense_Dense6079","class_name":"Dense","config":{"units":8,"activation":"relu","use_bias":true,"kernel_initializer":{"class_name":"VarianceScaling","config":{"scale":1,"mode":"fan_avg","distribution":"normal","seed":null}},"bias_initializer":{"class_name":"Zeros","config":{}},"kernel_regularizer":null,"bias_regularizer":null,"activity_regularizer":null,"kernel_constraint":null,"bias_constraint":null,"name":"dense_Dense6079","trainable":true},"inbound_nodes":[[["dense_Dense6078",0,0,{}]]]},{"name":"dense_Dense6080","class_name":"Dense","config":{"units":1,"activation":"sigmoid","use_bias":true,"kernel_initializer":{"class_name":"VarianceScaling","config":{"scale":1,"mode":"fan_avg","distribution":"normal","seed":null}},"bias_initializer":{"class_name":"Zeros","config":{}},"kernel_regularizer":null,"bias_regularizer":null,"activity_regularizer":null,"kernel_constraint":null,"bias_constraint":null,"name":"dense_Dense6080","trainable":true},"inbound_nodes":[[["dense_Dense6079",0,0,{}]]]}],"input_layers":[["input1216",0,0]],"output_layers":[["dense_Dense6080",0,0]]},"keras_version":"tfjs-layers 3.9.0","backend":"tensor_flow.js"},"weightsManifest":[{"paths":["weights.bin"],"weights":[{"name":"dense_Dense6076/kernel","shape":[3,32],"dtype":"float32"},{"name":"dense_Dense6076/bias","shape":[32],"dtype":"float32"},{"name":"dense_Dense6077/kernel","shape":[32,8],"dtype":"float32"},{"name":"dense_Dense6077/bias","shape":[8],"dtype":"float32"},{"name":"dense_Dense6078/kernel","shape":[8,16],"dtype":"float32"},{"name":"dense_Dense6078/bias","shape":[16],"dtype":"float32"},{"name":"dense_Dense6079/kernel","shape":[16,8],"dtype":"float32"},{"name":"dense_Dense6079/bias","shape":[8],"dtype":"float32"},{"name":"dense_Dense6080/kernel","shape":[8,1],"dtype":"float32"},{"name":"dense_Dense6080/bias","shape":[1],"dtype":"float32"}]}]}