{"modelTopology":{"class_name":"Model","config":{"name":"model476","layers":[{"name":"input476","class_name":"InputLayer","config":{"batch_input_shape":[null,3],"dtype":"float32","sparse":false,"name":"input476"},"inbound_nodes":[]},{"name":"dense_Dense2376","class_name":"Dense","config":{"units":4,"activation":"relu","use_bias":true,"kernel_initializer":{"class_name":"VarianceScaling","config":{"scale":1,"mode":"fan_avg","distribution":"normal","seed":null}},"bias_initializer":{"class_name":"Zeros","config":{}},"kernel_regularizer":null,"bias_regularizer":null,"activity_regularizer":null,"kernel_constraint":null,"bias_constraint":null,"name":"dense_Dense2376","trainable":true},"inbound_nodes":[[["input476",0,0,{}]]]},{"name":"dense_Dense2377","class_name":"Dense","config":{"units":2,"activation":"relu","use_bias":true,"kernel_initializer":{"class_name":"VarianceScaling","config":{"scale":1,"mode":"fan_avg","distribution":"normal","seed":null}},"bias_initializer":{"class_name":"Zeros","config":{}},"kernel_regularizer":null,"bias_regularizer":null,"activity_regularizer":null,"kernel_constraint":null,"bias_constraint":null,"name":"dense_Dense2377","trainable":true},"inbound_nodes":[[["dense_Dense2376",0,0,{}]]]},{"name":"dense_Dense2378","class_name":"Dense","config":{"units":2,"activation":"relu","use_bias":true,"kernel_initializer":{"class_name":"VarianceScaling","config":{"scale":1,"mode":"fan_avg","distribution":"normal","seed":null}},"bias_initializer":{"class_name":"Zeros","config":{}},"kernel_regularizer":null,"bias_regularizer":null,"activity_regularizer":null,"kernel_constraint":null,"bias_constraint":null,"name":"dense_Dense2378","trainable":true},"inbound_nodes":[[["dense_Dense2377",0,0,{}]]]},{"name":"dense_Dense2379","class_name":"Dense","config":{"units":2,"activation":"relu","use_bias":true,"kernel_initializer":{"class_name":"VarianceScaling","config":{"scale":1,"mode":"fan_avg","distribution":"normal","seed":null}},"bias_initializer":{"class_name":"Zeros","config":{}},"kernel_regularizer":null,"bias_regularizer":null,"activity_regularizer":null,"kernel_constraint":null,"bias_constraint":null,"name":"dense_Dense2379","trainable":true},"inbound_nodes":[[["dense_Dense2378",0,0,{}]]]},{"name":"dense_Dense2380","class_name":"Dense","config":{"units":1,"activation":"sigmoid","use_bias":true,"kernel_initializer":{"class_name":"VarianceScaling","config":{"scale":1,"mode":"fan_avg","distribution":"normal","seed":null}},"bias_initializer":{"class_name":"Zeros","config":{}},"kernel_regularizer":null,"bias_regularizer":null,"activity_regularizer":null,"kernel_constraint":null,"bias_constraint":null,"name":"dense_Dense2380","trainable":true},"inbound_nodes":[[["dense_Dense2379",0,0,{}]]]}],"input_layers":[["input476",0,0]],"output_layers":[["dense_Dense2380",0,0]]},"keras_version":"tfjs-layers 3.9.0","backend":"tensor_flow.js"},"weightsManifest":[{"paths":["weights.bin"],"weights":[{"name":"dense_Dense2376/kernel","shape":[3,4],"dtype":"float32"},{"name":"dense_Dense2376/bias","shape":[4],"dtype":"float32"},{"name":"dense_Dense2377/kernel","shape":[4,2],"dtype":"float32"},{"name":"dense_Dense2377/bias","shape":[2],"dtype":"float32"},{"name":"dense_Dense2378/kernel","shape":[2,2],"dtype":"float32"},{"name":"dense_Dense2378/bias","shape":[2],"dtype":"float32"},{"name":"dense_Dense2379/kernel","shape":[2,2],"dtype":"float32"},{"name":"dense_Dense2379/bias","shape":[2],"dtype":"float32"},{"name":"dense_Dense2380/kernel","shape":[2,1],"dtype":"float32"},{"name":"dense_Dense2380/bias","shape":[1],"dtype":"float32"}]}]}