{"modelTopology":{"class_name":"Model","config":{"name":"model70","layers":[{"name":"input70","class_name":"InputLayer","config":{"batch_input_shape":[null,3],"dtype":"float32","sparse":false,"name":"input70"},"inbound_nodes":[]},{"name":"dense_Dense277","class_name":"Dense","config":{"units":2,"activation":"relu","use_bias":true,"kernel_initializer":{"class_name":"VarianceScaling","config":{"scale":1,"mode":"fan_avg","distribution":"normal","seed":null}},"bias_initializer":{"class_name":"Zeros","config":{}},"kernel_regularizer":null,"bias_regularizer":null,"activity_regularizer":null,"kernel_constraint":null,"bias_constraint":null,"name":"dense_Dense277","trainable":true},"inbound_nodes":[[["input70",0,0,{}]]]},{"name":"dense_Dense278","class_name":"Dense","config":{"units":32,"activation":"relu","use_bias":true,"kernel_initializer":{"class_name":"VarianceScaling","config":{"scale":1,"mode":"fan_avg","distribution":"normal","seed":null}},"bias_initializer":{"class_name":"Zeros","config":{}},"kernel_regularizer":null,"bias_regularizer":null,"activity_regularizer":null,"kernel_constraint":null,"bias_constraint":null,"name":"dense_Dense278","trainable":true},"inbound_nodes":[[["dense_Dense277",0,0,{}]]]},{"name":"dense_Dense279","class_name":"Dense","config":{"units":8,"activation":"relu","use_bias":true,"kernel_initializer":{"class_name":"VarianceScaling","config":{"scale":1,"mode":"fan_avg","distribution":"normal","seed":null}},"bias_initializer":{"class_name":"Zeros","config":{}},"kernel_regularizer":null,"bias_regularizer":null,"activity_regularizer":null,"kernel_constraint":null,"bias_constraint":null,"name":"dense_Dense279","trainable":true},"inbound_nodes":[[["dense_Dense278",0,0,{}]]]},{"name":"dense_Dense280","class_name":"Dense","config":{"units":1,"activation":"sigmoid","use_bias":true,"kernel_initializer":{"class_name":"VarianceScaling","config":{"scale":1,"mode":"fan_avg","distribution":"normal","seed":null}},"bias_initializer":{"class_name":"Zeros","config":{}},"kernel_regularizer":null,"bias_regularizer":null,"activity_regularizer":null,"kernel_constraint":null,"bias_constraint":null,"name":"dense_Dense280","trainable":true},"inbound_nodes":[[["dense_Dense279",0,0,{}]]]}],"input_layers":[["input70",0,0]],"output_layers":[["dense_Dense280",0,0]]},"keras_version":"tfjs-layers 3.9.0","backend":"tensor_flow.js"},"weightsManifest":[{"paths":["weights.bin"],"weights":[{"name":"dense_Dense277/kernel","shape":[3,2],"dtype":"float32"},{"name":"dense_Dense277/bias","shape":[2],"dtype":"float32"},{"name":"dense_Dense278/kernel","shape":[2,32],"dtype":"float32"},{"name":"dense_Dense278/bias","shape":[32],"dtype":"float32"},{"name":"dense_Dense279/kernel","shape":[32,8],"dtype":"float32"},{"name":"dense_Dense279/bias","shape":[8],"dtype":"float32"},{"name":"dense_Dense280/kernel","shape":[8,1],"dtype":"float32"},{"name":"dense_Dense280/bias","shape":[1],"dtype":"float32"}]}]}