{"modelTopology":{"class_name":"Model","config":{"name":"model294","layers":[{"name":"input294","class_name":"InputLayer","config":{"batch_input_shape":[null,3],"dtype":"float32","sparse":false,"name":"input294"},"inbound_nodes":[]},{"name":"dense_Dense1759","class_name":"Dense","config":{"units":2,"activation":"relu","use_bias":true,"kernel_initializer":{"class_name":"VarianceScaling","config":{"scale":1,"mode":"fan_avg","distribution":"normal","seed":null}},"bias_initializer":{"class_name":"Zeros","config":{}},"kernel_regularizer":null,"bias_regularizer":null,"activity_regularizer":null,"kernel_constraint":null,"bias_constraint":null,"name":"dense_Dense1759","trainable":true},"inbound_nodes":[[["input294",0,0,{}]]]},{"name":"dense_Dense1760","class_name":"Dense","config":{"units":2,"activation":"relu","use_bias":true,"kernel_initializer":{"class_name":"VarianceScaling","config":{"scale":1,"mode":"fan_avg","distribution":"normal","seed":null}},"bias_initializer":{"class_name":"Zeros","config":{}},"kernel_regularizer":null,"bias_regularizer":null,"activity_regularizer":null,"kernel_constraint":null,"bias_constraint":null,"name":"dense_Dense1760","trainable":true},"inbound_nodes":[[["dense_Dense1759",0,0,{}]]]},{"name":"dense_Dense1761","class_name":"Dense","config":{"units":4,"activation":"relu","use_bias":true,"kernel_initializer":{"class_name":"VarianceScaling","config":{"scale":1,"mode":"fan_avg","distribution":"normal","seed":null}},"bias_initializer":{"class_name":"Zeros","config":{}},"kernel_regularizer":null,"bias_regularizer":null,"activity_regularizer":null,"kernel_constraint":null,"bias_constraint":null,"name":"dense_Dense1761","trainable":true},"inbound_nodes":[[["dense_Dense1760",0,0,{}]]]},{"name":"dense_Dense1762","class_name":"Dense","config":{"units":1,"activation":"relu","use_bias":true,"kernel_initializer":{"class_name":"VarianceScaling","config":{"scale":1,"mode":"fan_avg","distribution":"normal","seed":null}},"bias_initializer":{"class_name":"Zeros","config":{}},"kernel_regularizer":null,"bias_regularizer":null,"activity_regularizer":null,"kernel_constraint":null,"bias_constraint":null,"name":"dense_Dense1762","trainable":true},"inbound_nodes":[[["dense_Dense1761",0,0,{}]]]},{"name":"dense_Dense1763","class_name":"Dense","config":{"units":32,"activation":"relu","use_bias":true,"kernel_initializer":{"class_name":"VarianceScaling","config":{"scale":1,"mode":"fan_avg","distribution":"normal","seed":null}},"bias_initializer":{"class_name":"Zeros","config":{}},"kernel_regularizer":null,"bias_regularizer":null,"activity_regularizer":null,"kernel_constraint":null,"bias_constraint":null,"name":"dense_Dense1763","trainable":true},"inbound_nodes":[[["dense_Dense1762",0,0,{}]]]},{"name":"dense_Dense1764","class_name":"Dense","config":{"units":1,"activation":"sigmoid","use_bias":true,"kernel_initializer":{"class_name":"VarianceScaling","config":{"scale":1,"mode":"fan_avg","distribution":"normal","seed":null}},"bias_initializer":{"class_name":"Zeros","config":{}},"kernel_regularizer":null,"bias_regularizer":null,"activity_regularizer":null,"kernel_constraint":null,"bias_constraint":null,"name":"dense_Dense1764","trainable":true},"inbound_nodes":[[["dense_Dense1763",0,0,{}]]]}],"input_layers":[["input294",0,0]],"output_layers":[["dense_Dense1764",0,0]]},"keras_version":"tfjs-layers 3.9.0","backend":"tensor_flow.js"},"weightsManifest":[{"paths":["weights.bin"],"weights":[{"name":"dense_Dense1759/kernel","shape":[3,2],"dtype":"float32"},{"name":"dense_Dense1759/bias","shape":[2],"dtype":"float32"},{"name":"dense_Dense1760/kernel","shape":[2,2],"dtype":"float32"},{"name":"dense_Dense1760/bias","shape":[2],"dtype":"float32"},{"name":"dense_Dense1761/kernel","shape":[2,4],"dtype":"float32"},{"name":"dense_Dense1761/bias","shape":[4],"dtype":"float32"},{"name":"dense_Dense1762/kernel","shape":[4,1],"dtype":"float32"},{"name":"dense_Dense1762/bias","shape":[1],"dtype":"float32"},{"name":"dense_Dense1763/kernel","shape":[1,32],"dtype":"float32"},{"name":"dense_Dense1763/bias","shape":[32],"dtype":"float32"},{"name":"dense_Dense1764/kernel","shape":[32,1],"dtype":"float32"},{"name":"dense_Dense1764/bias","shape":[1],"dtype":"float32"}]}]}