{"modelTopology":{"class_name":"Model","config":{"name":"model861","layers":[{"name":"input861","class_name":"InputLayer","config":{"batch_input_shape":[null,3],"dtype":"float32","sparse":false,"name":"input861"},"inbound_nodes":[]},{"name":"dense_Dense5161","class_name":"Dense","config":{"units":1,"activation":"relu","use_bias":true,"kernel_initializer":{"class_name":"VarianceScaling","config":{"scale":1,"mode":"fan_avg","distribution":"normal","seed":null}},"bias_initializer":{"class_name":"Zeros","config":{}},"kernel_regularizer":null,"bias_regularizer":null,"activity_regularizer":null,"kernel_constraint":null,"bias_constraint":null,"name":"dense_Dense5161","trainable":true},"inbound_nodes":[[["input861",0,0,{}]]]},{"name":"dense_Dense5162","class_name":"Dense","config":{"units":8,"activation":"relu","use_bias":true,"kernel_initializer":{"class_name":"VarianceScaling","config":{"scale":1,"mode":"fan_avg","distribution":"normal","seed":null}},"bias_initializer":{"class_name":"Zeros","config":{}},"kernel_regularizer":null,"bias_regularizer":null,"activity_regularizer":null,"kernel_constraint":null,"bias_constraint":null,"name":"dense_Dense5162","trainable":true},"inbound_nodes":[[["dense_Dense5161",0,0,{}]]]},{"name":"dense_Dense5163","class_name":"Dense","config":{"units":32,"activation":"relu","use_bias":true,"kernel_initializer":{"class_name":"VarianceScaling","config":{"scale":1,"mode":"fan_avg","distribution":"normal","seed":null}},"bias_initializer":{"class_name":"Zeros","config":{}},"kernel_regularizer":null,"bias_regularizer":null,"activity_regularizer":null,"kernel_constraint":null,"bias_constraint":null,"name":"dense_Dense5163","trainable":true},"inbound_nodes":[[["dense_Dense5162",0,0,{}]]]},{"name":"dense_Dense5164","class_name":"Dense","config":{"units":32,"activation":"relu","use_bias":true,"kernel_initializer":{"class_name":"VarianceScaling","config":{"scale":1,"mode":"fan_avg","distribution":"normal","seed":null}},"bias_initializer":{"class_name":"Zeros","config":{}},"kernel_regularizer":null,"bias_regularizer":null,"activity_regularizer":null,"kernel_constraint":null,"bias_constraint":null,"name":"dense_Dense5164","trainable":true},"inbound_nodes":[[["dense_Dense5163",0,0,{}]]]},{"name":"dense_Dense5165","class_name":"Dense","config":{"units":4,"activation":"relu","use_bias":true,"kernel_initializer":{"class_name":"VarianceScaling","config":{"scale":1,"mode":"fan_avg","distribution":"normal","seed":null}},"bias_initializer":{"class_name":"Zeros","config":{}},"kernel_regularizer":null,"bias_regularizer":null,"activity_regularizer":null,"kernel_constraint":null,"bias_constraint":null,"name":"dense_Dense5165","trainable":true},"inbound_nodes":[[["dense_Dense5164",0,0,{}]]]},{"name":"dense_Dense5166","class_name":"Dense","config":{"units":1,"activation":"sigmoid","use_bias":true,"kernel_initializer":{"class_name":"VarianceScaling","config":{"scale":1,"mode":"fan_avg","distribution":"normal","seed":null}},"bias_initializer":{"class_name":"Zeros","config":{}},"kernel_regularizer":null,"bias_regularizer":null,"activity_regularizer":null,"kernel_constraint":null,"bias_constraint":null,"name":"dense_Dense5166","trainable":true},"inbound_nodes":[[["dense_Dense5165",0,0,{}]]]}],"input_layers":[["input861",0,0]],"output_layers":[["dense_Dense5166",0,0]]},"keras_version":"tfjs-layers 3.9.0","backend":"tensor_flow.js"},"weightsManifest":[{"paths":["weights.bin"],"weights":[{"name":"dense_Dense5161/kernel","shape":[3,1],"dtype":"float32"},{"name":"dense_Dense5161/bias","shape":[1],"dtype":"float32"},{"name":"dense_Dense5162/kernel","shape":[1,8],"dtype":"float32"},{"name":"dense_Dense5162/bias","shape":[8],"dtype":"float32"},{"name":"dense_Dense5163/kernel","shape":[8,32],"dtype":"float32"},{"name":"dense_Dense5163/bias","shape":[32],"dtype":"float32"},{"name":"dense_Dense5164/kernel","shape":[32,32],"dtype":"float32"},{"name":"dense_Dense5164/bias","shape":[32],"dtype":"float32"},{"name":"dense_Dense5165/kernel","shape":[32,4],"dtype":"float32"},{"name":"dense_Dense5165/bias","shape":[4],"dtype":"float32"},{"name":"dense_Dense5166/kernel","shape":[4,1],"dtype":"float32"},{"name":"dense_Dense5166/bias","shape":[1],"dtype":"float32"}]}]}