{"modelTopology":{"class_name":"Model","config":{"name":"model803","layers":[{"name":"input803","class_name":"InputLayer","config":{"batch_input_shape":[null,3],"dtype":"float32","sparse":false,"name":"input803"},"inbound_nodes":[]},{"name":"dense_Dense4011","class_name":"Dense","config":{"units":8,"activation":"relu","use_bias":true,"kernel_initializer":{"class_name":"VarianceScaling","config":{"scale":1,"mode":"fan_avg","distribution":"normal","seed":null}},"bias_initializer":{"class_name":"Zeros","config":{}},"kernel_regularizer":null,"bias_regularizer":null,"activity_regularizer":null,"kernel_constraint":null,"bias_constraint":null,"name":"dense_Dense4011","trainable":true},"inbound_nodes":[[["input803",0,0,{}]]]},{"name":"dense_Dense4012","class_name":"Dense","config":{"units":16,"activation":"relu","use_bias":true,"kernel_initializer":{"class_name":"VarianceScaling","config":{"scale":1,"mode":"fan_avg","distribution":"normal","seed":null}},"bias_initializer":{"class_name":"Zeros","config":{}},"kernel_regularizer":null,"bias_regularizer":null,"activity_regularizer":null,"kernel_constraint":null,"bias_constraint":null,"name":"dense_Dense4012","trainable":true},"inbound_nodes":[[["dense_Dense4011",0,0,{}]]]},{"name":"dense_Dense4013","class_name":"Dense","config":{"units":2,"activation":"relu","use_bias":true,"kernel_initializer":{"class_name":"VarianceScaling","config":{"scale":1,"mode":"fan_avg","distribution":"normal","seed":null}},"bias_initializer":{"class_name":"Zeros","config":{}},"kernel_regularizer":null,"bias_regularizer":null,"activity_regularizer":null,"kernel_constraint":null,"bias_constraint":null,"name":"dense_Dense4013","trainable":true},"inbound_nodes":[[["dense_Dense4012",0,0,{}]]]},{"name":"dense_Dense4014","class_name":"Dense","config":{"units":16,"activation":"relu","use_bias":true,"kernel_initializer":{"class_name":"VarianceScaling","config":{"scale":1,"mode":"fan_avg","distribution":"normal","seed":null}},"bias_initializer":{"class_name":"Zeros","config":{}},"kernel_regularizer":null,"bias_regularizer":null,"activity_regularizer":null,"kernel_constraint":null,"bias_constraint":null,"name":"dense_Dense4014","trainable":true},"inbound_nodes":[[["dense_Dense4013",0,0,{}]]]},{"name":"dense_Dense4015","class_name":"Dense","config":{"units":1,"activation":"sigmoid","use_bias":true,"kernel_initializer":{"class_name":"VarianceScaling","config":{"scale":1,"mode":"fan_avg","distribution":"normal","seed":null}},"bias_initializer":{"class_name":"Zeros","config":{}},"kernel_regularizer":null,"bias_regularizer":null,"activity_regularizer":null,"kernel_constraint":null,"bias_constraint":null,"name":"dense_Dense4015","trainable":true},"inbound_nodes":[[["dense_Dense4014",0,0,{}]]]}],"input_layers":[["input803",0,0]],"output_layers":[["dense_Dense4015",0,0]]},"keras_version":"tfjs-layers 3.9.0","backend":"tensor_flow.js"},"weightsManifest":[{"paths":["weights.bin"],"weights":[{"name":"dense_Dense4011/kernel","shape":[3,8],"dtype":"float32"},{"name":"dense_Dense4011/bias","shape":[8],"dtype":"float32"},{"name":"dense_Dense4012/kernel","shape":[8,16],"dtype":"float32"},{"name":"dense_Dense4012/bias","shape":[16],"dtype":"float32"},{"name":"dense_Dense4013/kernel","shape":[16,2],"dtype":"float32"},{"name":"dense_Dense4013/bias","shape":[2],"dtype":"float32"},{"name":"dense_Dense4014/kernel","shape":[2,16],"dtype":"float32"},{"name":"dense_Dense4014/bias","shape":[16],"dtype":"float32"},{"name":"dense_Dense4015/kernel","shape":[16,1],"dtype":"float32"},{"name":"dense_Dense4015/bias","shape":[1],"dtype":"float32"}]}]}