{"modelTopology":{"class_name":"Model","config":{"name":"model935","layers":[{"name":"input935","class_name":"InputLayer","config":{"batch_input_shape":[null,3],"dtype":"float32","sparse":false,"name":"input935"},"inbound_nodes":[]},{"name":"dense_Dense4671","class_name":"Dense","config":{"units":16,"activation":"relu","use_bias":true,"kernel_initializer":{"class_name":"VarianceScaling","config":{"scale":1,"mode":"fan_avg","distribution":"normal","seed":null}},"bias_initializer":{"class_name":"Zeros","config":{}},"kernel_regularizer":null,"bias_regularizer":null,"activity_regularizer":null,"kernel_constraint":null,"bias_constraint":null,"name":"dense_Dense4671","trainable":true},"inbound_nodes":[[["input935",0,0,{}]]]},{"name":"dense_Dense4672","class_name":"Dense","config":{"units":2,"activation":"relu","use_bias":true,"kernel_initializer":{"class_name":"VarianceScaling","config":{"scale":1,"mode":"fan_avg","distribution":"normal","seed":null}},"bias_initializer":{"class_name":"Zeros","config":{}},"kernel_regularizer":null,"bias_regularizer":null,"activity_regularizer":null,"kernel_constraint":null,"bias_constraint":null,"name":"dense_Dense4672","trainable":true},"inbound_nodes":[[["dense_Dense4671",0,0,{}]]]},{"name":"dense_Dense4673","class_name":"Dense","config":{"units":32,"activation":"relu","use_bias":true,"kernel_initializer":{"class_name":"VarianceScaling","config":{"scale":1,"mode":"fan_avg","distribution":"normal","seed":null}},"bias_initializer":{"class_name":"Zeros","config":{}},"kernel_regularizer":null,"bias_regularizer":null,"activity_regularizer":null,"kernel_constraint":null,"bias_constraint":null,"name":"dense_Dense4673","trainable":true},"inbound_nodes":[[["dense_Dense4672",0,0,{}]]]},{"name":"dense_Dense4674","class_name":"Dense","config":{"units":16,"activation":"relu","use_bias":true,"kernel_initializer":{"class_name":"VarianceScaling","config":{"scale":1,"mode":"fan_avg","distribution":"normal","seed":null}},"bias_initializer":{"class_name":"Zeros","config":{}},"kernel_regularizer":null,"bias_regularizer":null,"activity_regularizer":null,"kernel_constraint":null,"bias_constraint":null,"name":"dense_Dense4674","trainable":true},"inbound_nodes":[[["dense_Dense4673",0,0,{}]]]},{"name":"dense_Dense4675","class_name":"Dense","config":{"units":1,"activation":"sigmoid","use_bias":true,"kernel_initializer":{"class_name":"VarianceScaling","config":{"scale":1,"mode":"fan_avg","distribution":"normal","seed":null}},"bias_initializer":{"class_name":"Zeros","config":{}},"kernel_regularizer":null,"bias_regularizer":null,"activity_regularizer":null,"kernel_constraint":null,"bias_constraint":null,"name":"dense_Dense4675","trainable":true},"inbound_nodes":[[["dense_Dense4674",0,0,{}]]]}],"input_layers":[["input935",0,0]],"output_layers":[["dense_Dense4675",0,0]]},"keras_version":"tfjs-layers 3.9.0","backend":"tensor_flow.js"},"weightsManifest":[{"paths":["weights.bin"],"weights":[{"name":"dense_Dense4671/kernel","shape":[3,16],"dtype":"float32"},{"name":"dense_Dense4671/bias","shape":[16],"dtype":"float32"},{"name":"dense_Dense4672/kernel","shape":[16,2],"dtype":"float32"},{"name":"dense_Dense4672/bias","shape":[2],"dtype":"float32"},{"name":"dense_Dense4673/kernel","shape":[2,32],"dtype":"float32"},{"name":"dense_Dense4673/bias","shape":[32],"dtype":"float32"},{"name":"dense_Dense4674/kernel","shape":[32,16],"dtype":"float32"},{"name":"dense_Dense4674/bias","shape":[16],"dtype":"float32"},{"name":"dense_Dense4675/kernel","shape":[16,1],"dtype":"float32"},{"name":"dense_Dense4675/bias","shape":[1],"dtype":"float32"}]}]}