{"modelTopology":{"class_name":"Model","config":{"name":"model154","layers":[{"name":"input154","class_name":"InputLayer","config":{"batch_input_shape":[null,3],"dtype":"float32","sparse":false,"name":"input154"},"inbound_nodes":[]},{"name":"dense_Dense919","class_name":"Dense","config":{"units":2,"activation":"relu","use_bias":true,"kernel_initializer":{"class_name":"VarianceScaling","config":{"scale":1,"mode":"fan_avg","distribution":"normal","seed":null}},"bias_initializer":{"class_name":"Zeros","config":{}},"kernel_regularizer":null,"bias_regularizer":null,"activity_regularizer":null,"kernel_constraint":null,"bias_constraint":null,"name":"dense_Dense919","trainable":true},"inbound_nodes":[[["input154",0,0,{}]]]},{"name":"dense_Dense920","class_name":"Dense","config":{"units":1,"activation":"relu","use_bias":true,"kernel_initializer":{"class_name":"VarianceScaling","config":{"scale":1,"mode":"fan_avg","distribution":"normal","seed":null}},"bias_initializer":{"class_name":"Zeros","config":{}},"kernel_regularizer":null,"bias_regularizer":null,"activity_regularizer":null,"kernel_constraint":null,"bias_constraint":null,"name":"dense_Dense920","trainable":true},"inbound_nodes":[[["dense_Dense919",0,0,{}]]]},{"name":"dense_Dense921","class_name":"Dense","config":{"units":16,"activation":"relu","use_bias":true,"kernel_initializer":{"class_name":"VarianceScaling","config":{"scale":1,"mode":"fan_avg","distribution":"normal","seed":null}},"bias_initializer":{"class_name":"Zeros","config":{}},"kernel_regularizer":null,"bias_regularizer":null,"activity_regularizer":null,"kernel_constraint":null,"bias_constraint":null,"name":"dense_Dense921","trainable":true},"inbound_nodes":[[["dense_Dense920",0,0,{}]]]},{"name":"dense_Dense922","class_name":"Dense","config":{"units":2,"activation":"relu","use_bias":true,"kernel_initializer":{"class_name":"VarianceScaling","config":{"scale":1,"mode":"fan_avg","distribution":"normal","seed":null}},"bias_initializer":{"class_name":"Zeros","config":{}},"kernel_regularizer":null,"bias_regularizer":null,"activity_regularizer":null,"kernel_constraint":null,"bias_constraint":null,"name":"dense_Dense922","trainable":true},"inbound_nodes":[[["dense_Dense921",0,0,{}]]]},{"name":"dense_Dense923","class_name":"Dense","config":{"units":8,"activation":"relu","use_bias":true,"kernel_initializer":{"class_name":"VarianceScaling","config":{"scale":1,"mode":"fan_avg","distribution":"normal","seed":null}},"bias_initializer":{"class_name":"Zeros","config":{}},"kernel_regularizer":null,"bias_regularizer":null,"activity_regularizer":null,"kernel_constraint":null,"bias_constraint":null,"name":"dense_Dense923","trainable":true},"inbound_nodes":[[["dense_Dense922",0,0,{}]]]},{"name":"dense_Dense924","class_name":"Dense","config":{"units":1,"activation":"sigmoid","use_bias":true,"kernel_initializer":{"class_name":"VarianceScaling","config":{"scale":1,"mode":"fan_avg","distribution":"normal","seed":null}},"bias_initializer":{"class_name":"Zeros","config":{}},"kernel_regularizer":null,"bias_regularizer":null,"activity_regularizer":null,"kernel_constraint":null,"bias_constraint":null,"name":"dense_Dense924","trainable":true},"inbound_nodes":[[["dense_Dense923",0,0,{}]]]}],"input_layers":[["input154",0,0]],"output_layers":[["dense_Dense924",0,0]]},"keras_version":"tfjs-layers 3.9.0","backend":"tensor_flow.js"},"weightsManifest":[{"paths":["weights.bin"],"weights":[{"name":"dense_Dense919/kernel","shape":[3,2],"dtype":"float32"},{"name":"dense_Dense919/bias","shape":[2],"dtype":"float32"},{"name":"dense_Dense920/kernel","shape":[2,1],"dtype":"float32"},{"name":"dense_Dense920/bias","shape":[1],"dtype":"float32"},{"name":"dense_Dense921/kernel","shape":[1,16],"dtype":"float32"},{"name":"dense_Dense921/bias","shape":[16],"dtype":"float32"},{"name":"dense_Dense922/kernel","shape":[16,2],"dtype":"float32"},{"name":"dense_Dense922/bias","shape":[2],"dtype":"float32"},{"name":"dense_Dense923/kernel","shape":[2,8],"dtype":"float32"},{"name":"dense_Dense923/bias","shape":[8],"dtype":"float32"},{"name":"dense_Dense924/kernel","shape":[8,1],"dtype":"float32"},{"name":"dense_Dense924/bias","shape":[1],"dtype":"float32"}]}]}