{"modelTopology":{"class_name":"Model","config":{"name":"model469","layers":[{"name":"input469","class_name":"InputLayer","config":{"batch_input_shape":[null,3],"dtype":"float32","sparse":false,"name":"input469"},"inbound_nodes":[]},{"name":"dense_Dense2809","class_name":"Dense","config":{"units":32,"activation":"relu","use_bias":true,"kernel_initializer":{"class_name":"VarianceScaling","config":{"scale":1,"mode":"fan_avg","distribution":"normal","seed":null}},"bias_initializer":{"class_name":"Zeros","config":{}},"kernel_regularizer":null,"bias_regularizer":null,"activity_regularizer":null,"kernel_constraint":null,"bias_constraint":null,"name":"dense_Dense2809","trainable":true},"inbound_nodes":[[["input469",0,0,{}]]]},{"name":"dense_Dense2810","class_name":"Dense","config":{"units":4,"activation":"relu","use_bias":true,"kernel_initializer":{"class_name":"VarianceScaling","config":{"scale":1,"mode":"fan_avg","distribution":"normal","seed":null}},"bias_initializer":{"class_name":"Zeros","config":{}},"kernel_regularizer":null,"bias_regularizer":null,"activity_regularizer":null,"kernel_constraint":null,"bias_constraint":null,"name":"dense_Dense2810","trainable":true},"inbound_nodes":[[["dense_Dense2809",0,0,{}]]]},{"name":"dense_Dense2811","class_name":"Dense","config":{"units":2,"activation":"relu","use_bias":true,"kernel_initializer":{"class_name":"VarianceScaling","config":{"scale":1,"mode":"fan_avg","distribution":"normal","seed":null}},"bias_initializer":{"class_name":"Zeros","config":{}},"kernel_regularizer":null,"bias_regularizer":null,"activity_regularizer":null,"kernel_constraint":null,"bias_constraint":null,"name":"dense_Dense2811","trainable":true},"inbound_nodes":[[["dense_Dense2810",0,0,{}]]]},{"name":"dense_Dense2812","class_name":"Dense","config":{"units":1,"activation":"relu","use_bias":true,"kernel_initializer":{"class_name":"VarianceScaling","config":{"scale":1,"mode":"fan_avg","distribution":"normal","seed":null}},"bias_initializer":{"class_name":"Zeros","config":{}},"kernel_regularizer":null,"bias_regularizer":null,"activity_regularizer":null,"kernel_constraint":null,"bias_constraint":null,"name":"dense_Dense2812","trainable":true},"inbound_nodes":[[["dense_Dense2811",0,0,{}]]]},{"name":"dense_Dense2813","class_name":"Dense","config":{"units":1,"activation":"relu","use_bias":true,"kernel_initializer":{"class_name":"VarianceScaling","config":{"scale":1,"mode":"fan_avg","distribution":"normal","seed":null}},"bias_initializer":{"class_name":"Zeros","config":{}},"kernel_regularizer":null,"bias_regularizer":null,"activity_regularizer":null,"kernel_constraint":null,"bias_constraint":null,"name":"dense_Dense2813","trainable":true},"inbound_nodes":[[["dense_Dense2812",0,0,{}]]]},{"name":"dense_Dense2814","class_name":"Dense","config":{"units":1,"activation":"sigmoid","use_bias":true,"kernel_initializer":{"class_name":"VarianceScaling","config":{"scale":1,"mode":"fan_avg","distribution":"normal","seed":null}},"bias_initializer":{"class_name":"Zeros","config":{}},"kernel_regularizer":null,"bias_regularizer":null,"activity_regularizer":null,"kernel_constraint":null,"bias_constraint":null,"name":"dense_Dense2814","trainable":true},"inbound_nodes":[[["dense_Dense2813",0,0,{}]]]}],"input_layers":[["input469",0,0]],"output_layers":[["dense_Dense2814",0,0]]},"keras_version":"tfjs-layers 3.9.0","backend":"tensor_flow.js"},"weightsManifest":[{"paths":["weights.bin"],"weights":[{"name":"dense_Dense2809/kernel","shape":[3,32],"dtype":"float32"},{"name":"dense_Dense2809/bias","shape":[32],"dtype":"float32"},{"name":"dense_Dense2810/kernel","shape":[32,4],"dtype":"float32"},{"name":"dense_Dense2810/bias","shape":[4],"dtype":"float32"},{"name":"dense_Dense2811/kernel","shape":[4,2],"dtype":"float32"},{"name":"dense_Dense2811/bias","shape":[2],"dtype":"float32"},{"name":"dense_Dense2812/kernel","shape":[2,1],"dtype":"float32"},{"name":"dense_Dense2812/bias","shape":[1],"dtype":"float32"},{"name":"dense_Dense2813/kernel","shape":[1,1],"dtype":"float32"},{"name":"dense_Dense2813/bias","shape":[1],"dtype":"float32"},{"name":"dense_Dense2814/kernel","shape":[1,1],"dtype":"float32"},{"name":"dense_Dense2814/bias","shape":[1],"dtype":"float32"}]}]}