{"modelTopology":{"class_name":"Model","config":{"name":"model298","layers":[{"name":"input298","class_name":"InputLayer","config":{"batch_input_shape":[null,3],"dtype":"float32","sparse":false,"name":"input298"},"inbound_nodes":[]},{"name":"dense_Dense1486","class_name":"Dense","config":{"units":2,"activation":"relu","use_bias":true,"kernel_initializer":{"class_name":"VarianceScaling","config":{"scale":1,"mode":"fan_avg","distribution":"normal","seed":null}},"bias_initializer":{"class_name":"Zeros","config":{}},"kernel_regularizer":null,"bias_regularizer":null,"activity_regularizer":null,"kernel_constraint":null,"bias_constraint":null,"name":"dense_Dense1486","trainable":true},"inbound_nodes":[[["input298",0,0,{}]]]},{"name":"dense_Dense1487","class_name":"Dense","config":{"units":4,"activation":"relu","use_bias":true,"kernel_initializer":{"class_name":"VarianceScaling","config":{"scale":1,"mode":"fan_avg","distribution":"normal","seed":null}},"bias_initializer":{"class_name":"Zeros","config":{}},"kernel_regularizer":null,"bias_regularizer":null,"activity_regularizer":null,"kernel_constraint":null,"bias_constraint":null,"name":"dense_Dense1487","trainable":true},"inbound_nodes":[[["dense_Dense1486",0,0,{}]]]},{"name":"dense_Dense1488","class_name":"Dense","config":{"units":2,"activation":"relu","use_bias":true,"kernel_initializer":{"class_name":"VarianceScaling","config":{"scale":1,"mode":"fan_avg","distribution":"normal","seed":null}},"bias_initializer":{"class_name":"Zeros","config":{}},"kernel_regularizer":null,"bias_regularizer":null,"activity_regularizer":null,"kernel_constraint":null,"bias_constraint":null,"name":"dense_Dense1488","trainable":true},"inbound_nodes":[[["dense_Dense1487",0,0,{}]]]},{"name":"dense_Dense1489","class_name":"Dense","config":{"units":8,"activation":"relu","use_bias":true,"kernel_initializer":{"class_name":"VarianceScaling","config":{"scale":1,"mode":"fan_avg","distribution":"normal","seed":null}},"bias_initializer":{"class_name":"Zeros","config":{}},"kernel_regularizer":null,"bias_regularizer":null,"activity_regularizer":null,"kernel_constraint":null,"bias_constraint":null,"name":"dense_Dense1489","trainable":true},"inbound_nodes":[[["dense_Dense1488",0,0,{}]]]},{"name":"dense_Dense1490","class_name":"Dense","config":{"units":1,"activation":"sigmoid","use_bias":true,"kernel_initializer":{"class_name":"VarianceScaling","config":{"scale":1,"mode":"fan_avg","distribution":"normal","seed":null}},"bias_initializer":{"class_name":"Zeros","config":{}},"kernel_regularizer":null,"bias_regularizer":null,"activity_regularizer":null,"kernel_constraint":null,"bias_constraint":null,"name":"dense_Dense1490","trainable":true},"inbound_nodes":[[["dense_Dense1489",0,0,{}]]]}],"input_layers":[["input298",0,0]],"output_layers":[["dense_Dense1490",0,0]]},"keras_version":"tfjs-layers 3.9.0","backend":"tensor_flow.js"},"weightsManifest":[{"paths":["weights.bin"],"weights":[{"name":"dense_Dense1486/kernel","shape":[3,2],"dtype":"float32"},{"name":"dense_Dense1486/bias","shape":[2],"dtype":"float32"},{"name":"dense_Dense1487/kernel","shape":[2,4],"dtype":"float32"},{"name":"dense_Dense1487/bias","shape":[4],"dtype":"float32"},{"name":"dense_Dense1488/kernel","shape":[4,2],"dtype":"float32"},{"name":"dense_Dense1488/bias","shape":[2],"dtype":"float32"},{"name":"dense_Dense1489/kernel","shape":[2,8],"dtype":"float32"},{"name":"dense_Dense1489/bias","shape":[8],"dtype":"float32"},{"name":"dense_Dense1490/kernel","shape":[8,1],"dtype":"float32"},{"name":"dense_Dense1490/bias","shape":[1],"dtype":"float32"}]}]}