{"modelTopology":{"class_name":"Model","config":{"name":"model1254","layers":[{"name":"input1254","class_name":"InputLayer","config":{"batch_input_shape":[null,3],"dtype":"float32","sparse":false,"name":"input1254"},"inbound_nodes":[]},{"name":"dense_Dense7519","class_name":"Dense","config":{"units":32,"activation":"relu","use_bias":true,"kernel_initializer":{"class_name":"VarianceScaling","config":{"scale":1,"mode":"fan_avg","distribution":"normal","seed":null}},"bias_initializer":{"class_name":"Zeros","config":{}},"kernel_regularizer":null,"bias_regularizer":null,"activity_regularizer":null,"kernel_constraint":null,"bias_constraint":null,"name":"dense_Dense7519","trainable":true},"inbound_nodes":[[["input1254",0,0,{}]]]},{"name":"dense_Dense7520","class_name":"Dense","config":{"units":32,"activation":"relu","use_bias":true,"kernel_initializer":{"class_name":"VarianceScaling","config":{"scale":1,"mode":"fan_avg","distribution":"normal","seed":null}},"bias_initializer":{"class_name":"Zeros","config":{}},"kernel_regularizer":null,"bias_regularizer":null,"activity_regularizer":null,"kernel_constraint":null,"bias_constraint":null,"name":"dense_Dense7520","trainable":true},"inbound_nodes":[[["dense_Dense7519",0,0,{}]]]},{"name":"dense_Dense7521","class_name":"Dense","config":{"units":16,"activation":"relu","use_bias":true,"kernel_initializer":{"class_name":"VarianceScaling","config":{"scale":1,"mode":"fan_avg","distribution":"normal","seed":null}},"bias_initializer":{"class_name":"Zeros","config":{}},"kernel_regularizer":null,"bias_regularizer":null,"activity_regularizer":null,"kernel_constraint":null,"bias_constraint":null,"name":"dense_Dense7521","trainable":true},"inbound_nodes":[[["dense_Dense7520",0,0,{}]]]},{"name":"dense_Dense7522","class_name":"Dense","config":{"units":16,"activation":"relu","use_bias":true,"kernel_initializer":{"class_name":"VarianceScaling","config":{"scale":1,"mode":"fan_avg","distribution":"normal","seed":null}},"bias_initializer":{"class_name":"Zeros","config":{}},"kernel_regularizer":null,"bias_regularizer":null,"activity_regularizer":null,"kernel_constraint":null,"bias_constraint":null,"name":"dense_Dense7522","trainable":true},"inbound_nodes":[[["dense_Dense7521",0,0,{}]]]},{"name":"dense_Dense7523","class_name":"Dense","config":{"units":32,"activation":"relu","use_bias":true,"kernel_initializer":{"class_name":"VarianceScaling","config":{"scale":1,"mode":"fan_avg","distribution":"normal","seed":null}},"bias_initializer":{"class_name":"Zeros","config":{}},"kernel_regularizer":null,"bias_regularizer":null,"activity_regularizer":null,"kernel_constraint":null,"bias_constraint":null,"name":"dense_Dense7523","trainable":true},"inbound_nodes":[[["dense_Dense7522",0,0,{}]]]},{"name":"dense_Dense7524","class_name":"Dense","config":{"units":1,"activation":"sigmoid","use_bias":true,"kernel_initializer":{"class_name":"VarianceScaling","config":{"scale":1,"mode":"fan_avg","distribution":"normal","seed":null}},"bias_initializer":{"class_name":"Zeros","config":{}},"kernel_regularizer":null,"bias_regularizer":null,"activity_regularizer":null,"kernel_constraint":null,"bias_constraint":null,"name":"dense_Dense7524","trainable":true},"inbound_nodes":[[["dense_Dense7523",0,0,{}]]]}],"input_layers":[["input1254",0,0]],"output_layers":[["dense_Dense7524",0,0]]},"keras_version":"tfjs-layers 3.9.0","backend":"tensor_flow.js"},"weightsManifest":[{"paths":["weights.bin"],"weights":[{"name":"dense_Dense7519/kernel","shape":[3,32],"dtype":"float32"},{"name":"dense_Dense7519/bias","shape":[32],"dtype":"float32"},{"name":"dense_Dense7520/kernel","shape":[32,32],"dtype":"float32"},{"name":"dense_Dense7520/bias","shape":[32],"dtype":"float32"},{"name":"dense_Dense7521/kernel","shape":[32,16],"dtype":"float32"},{"name":"dense_Dense7521/bias","shape":[16],"dtype":"float32"},{"name":"dense_Dense7522/kernel","shape":[16,16],"dtype":"float32"},{"name":"dense_Dense7522/bias","shape":[16],"dtype":"float32"},{"name":"dense_Dense7523/kernel","shape":[16,32],"dtype":"float32"},{"name":"dense_Dense7523/bias","shape":[32],"dtype":"float32"},{"name":"dense_Dense7524/kernel","shape":[32,1],"dtype":"float32"},{"name":"dense_Dense7524/bias","shape":[1],"dtype":"float32"}]}]}