{"modelTopology":{"class_name":"Model","config":{"name":"model10","layers":[{"name":"input10","class_name":"InputLayer","config":{"batch_input_shape":[null,3],"dtype":"float32","sparse":false,"name":"input10"},"inbound_nodes":[]},{"name":"dense_Dense46","class_name":"Dense","config":{"units":1,"activation":"relu","use_bias":true,"kernel_initializer":{"class_name":"VarianceScaling","config":{"scale":1,"mode":"fan_avg","distribution":"normal","seed":null}},"bias_initializer":{"class_name":"Zeros","config":{}},"kernel_regularizer":null,"bias_regularizer":null,"activity_regularizer":null,"kernel_constraint":null,"bias_constraint":null,"name":"dense_Dense46","trainable":true},"inbound_nodes":[[["input10",0,0,{}]]]},{"name":"dense_Dense47","class_name":"Dense","config":{"units":1,"activation":"relu","use_bias":true,"kernel_initializer":{"class_name":"VarianceScaling","config":{"scale":1,"mode":"fan_avg","distribution":"normal","seed":null}},"bias_initializer":{"class_name":"Zeros","config":{}},"kernel_regularizer":null,"bias_regularizer":null,"activity_regularizer":null,"kernel_constraint":null,"bias_constraint":null,"name":"dense_Dense47","trainable":true},"inbound_nodes":[[["dense_Dense46",0,0,{}]]]},{"name":"dense_Dense48","class_name":"Dense","config":{"units":2,"activation":"relu","use_bias":true,"kernel_initializer":{"class_name":"VarianceScaling","config":{"scale":1,"mode":"fan_avg","distribution":"normal","seed":null}},"bias_initializer":{"class_name":"Zeros","config":{}},"kernel_regularizer":null,"bias_regularizer":null,"activity_regularizer":null,"kernel_constraint":null,"bias_constraint":null,"name":"dense_Dense48","trainable":true},"inbound_nodes":[[["dense_Dense47",0,0,{}]]]},{"name":"dense_Dense49","class_name":"Dense","config":{"units":8,"activation":"relu","use_bias":true,"kernel_initializer":{"class_name":"VarianceScaling","config":{"scale":1,"mode":"fan_avg","distribution":"normal","seed":null}},"bias_initializer":{"class_name":"Zeros","config":{}},"kernel_regularizer":null,"bias_regularizer":null,"activity_regularizer":null,"kernel_constraint":null,"bias_constraint":null,"name":"dense_Dense49","trainable":true},"inbound_nodes":[[["dense_Dense48",0,0,{}]]]},{"name":"dense_Dense50","class_name":"Dense","config":{"units":1,"activation":"sigmoid","use_bias":true,"kernel_initializer":{"class_name":"VarianceScaling","config":{"scale":1,"mode":"fan_avg","distribution":"normal","seed":null}},"bias_initializer":{"class_name":"Zeros","config":{}},"kernel_regularizer":null,"bias_regularizer":null,"activity_regularizer":null,"kernel_constraint":null,"bias_constraint":null,"name":"dense_Dense50","trainable":true},"inbound_nodes":[[["dense_Dense49",0,0,{}]]]}],"input_layers":[["input10",0,0]],"output_layers":[["dense_Dense50",0,0]]},"keras_version":"tfjs-layers 3.9.0","backend":"tensor_flow.js"},"weightsManifest":[{"paths":["weights.bin"],"weights":[{"name":"dense_Dense46/kernel","shape":[3,1],"dtype":"float32"},{"name":"dense_Dense46/bias","shape":[1],"dtype":"float32"},{"name":"dense_Dense47/kernel","shape":[1,1],"dtype":"float32"},{"name":"dense_Dense47/bias","shape":[1],"dtype":"float32"},{"name":"dense_Dense48/kernel","shape":[1,2],"dtype":"float32"},{"name":"dense_Dense48/bias","shape":[2],"dtype":"float32"},{"name":"dense_Dense49/kernel","shape":[2,8],"dtype":"float32"},{"name":"dense_Dense49/bias","shape":[8],"dtype":"float32"},{"name":"dense_Dense50/kernel","shape":[8,1],"dtype":"float32"},{"name":"dense_Dense50/bias","shape":[1],"dtype":"float32"}]}]}