{"modelTopology":{"class_name":"Model","config":{"name":"model667","layers":[{"name":"input667","class_name":"InputLayer","config":{"batch_input_shape":[null,3],"dtype":"float32","sparse":false,"name":"input667"},"inbound_nodes":[]},{"name":"dense_Dense3997","class_name":"Dense","config":{"units":1,"activation":"relu","use_bias":true,"kernel_initializer":{"class_name":"VarianceScaling","config":{"scale":1,"mode":"fan_avg","distribution":"normal","seed":null}},"bias_initializer":{"class_name":"Zeros","config":{}},"kernel_regularizer":null,"bias_regularizer":null,"activity_regularizer":null,"kernel_constraint":null,"bias_constraint":null,"name":"dense_Dense3997","trainable":true},"inbound_nodes":[[["input667",0,0,{}]]]},{"name":"dense_Dense3998","class_name":"Dense","config":{"units":8,"activation":"relu","use_bias":true,"kernel_initializer":{"class_name":"VarianceScaling","config":{"scale":1,"mode":"fan_avg","distribution":"normal","seed":null}},"bias_initializer":{"class_name":"Zeros","config":{}},"kernel_regularizer":null,"bias_regularizer":null,"activity_regularizer":null,"kernel_constraint":null,"bias_constraint":null,"name":"dense_Dense3998","trainable":true},"inbound_nodes":[[["dense_Dense3997",0,0,{}]]]},{"name":"dense_Dense3999","class_name":"Dense","config":{"units":1,"activation":"relu","use_bias":true,"kernel_initializer":{"class_name":"VarianceScaling","config":{"scale":1,"mode":"fan_avg","distribution":"normal","seed":null}},"bias_initializer":{"class_name":"Zeros","config":{}},"kernel_regularizer":null,"bias_regularizer":null,"activity_regularizer":null,"kernel_constraint":null,"bias_constraint":null,"name":"dense_Dense3999","trainable":true},"inbound_nodes":[[["dense_Dense3998",0,0,{}]]]},{"name":"dense_Dense4000","class_name":"Dense","config":{"units":8,"activation":"relu","use_bias":true,"kernel_initializer":{"class_name":"VarianceScaling","config":{"scale":1,"mode":"fan_avg","distribution":"normal","seed":null}},"bias_initializer":{"class_name":"Zeros","config":{}},"kernel_regularizer":null,"bias_regularizer":null,"activity_regularizer":null,"kernel_constraint":null,"bias_constraint":null,"name":"dense_Dense4000","trainable":true},"inbound_nodes":[[["dense_Dense3999",0,0,{}]]]},{"name":"dense_Dense4001","class_name":"Dense","config":{"units":1,"activation":"relu","use_bias":true,"kernel_initializer":{"class_name":"VarianceScaling","config":{"scale":1,"mode":"fan_avg","distribution":"normal","seed":null}},"bias_initializer":{"class_name":"Zeros","config":{}},"kernel_regularizer":null,"bias_regularizer":null,"activity_regularizer":null,"kernel_constraint":null,"bias_constraint":null,"name":"dense_Dense4001","trainable":true},"inbound_nodes":[[["dense_Dense4000",0,0,{}]]]},{"name":"dense_Dense4002","class_name":"Dense","config":{"units":1,"activation":"sigmoid","use_bias":true,"kernel_initializer":{"class_name":"VarianceScaling","config":{"scale":1,"mode":"fan_avg","distribution":"normal","seed":null}},"bias_initializer":{"class_name":"Zeros","config":{}},"kernel_regularizer":null,"bias_regularizer":null,"activity_regularizer":null,"kernel_constraint":null,"bias_constraint":null,"name":"dense_Dense4002","trainable":true},"inbound_nodes":[[["dense_Dense4001",0,0,{}]]]}],"input_layers":[["input667",0,0]],"output_layers":[["dense_Dense4002",0,0]]},"keras_version":"tfjs-layers 3.9.0","backend":"tensor_flow.js"},"weightsManifest":[{"paths":["weights.bin"],"weights":[{"name":"dense_Dense3997/kernel","shape":[3,1],"dtype":"float32"},{"name":"dense_Dense3997/bias","shape":[1],"dtype":"float32"},{"name":"dense_Dense3998/kernel","shape":[1,8],"dtype":"float32"},{"name":"dense_Dense3998/bias","shape":[8],"dtype":"float32"},{"name":"dense_Dense3999/kernel","shape":[8,1],"dtype":"float32"},{"name":"dense_Dense3999/bias","shape":[1],"dtype":"float32"},{"name":"dense_Dense4000/kernel","shape":[1,8],"dtype":"float32"},{"name":"dense_Dense4000/bias","shape":[8],"dtype":"float32"},{"name":"dense_Dense4001/kernel","shape":[8,1],"dtype":"float32"},{"name":"dense_Dense4001/bias","shape":[1],"dtype":"float32"},{"name":"dense_Dense4002/kernel","shape":[1,1],"dtype":"float32"},{"name":"dense_Dense4002/bias","shape":[1],"dtype":"float32"}]}]}