{"modelTopology":{"class_name":"Model","config":{"name":"model586","layers":[{"name":"input586","class_name":"InputLayer","config":{"batch_input_shape":[null,3],"dtype":"float32","sparse":false,"name":"input586"},"inbound_nodes":[]},{"name":"dense_Dense3511","class_name":"Dense","config":{"units":16,"activation":"relu","use_bias":true,"kernel_initializer":{"class_name":"VarianceScaling","config":{"scale":1,"mode":"fan_avg","distribution":"normal","seed":null}},"bias_initializer":{"class_name":"Zeros","config":{}},"kernel_regularizer":null,"bias_regularizer":null,"activity_regularizer":null,"kernel_constraint":null,"bias_constraint":null,"name":"dense_Dense3511","trainable":true},"inbound_nodes":[[["input586",0,0,{}]]]},{"name":"dense_Dense3512","class_name":"Dense","config":{"units":4,"activation":"relu","use_bias":true,"kernel_initializer":{"class_name":"VarianceScaling","config":{"scale":1,"mode":"fan_avg","distribution":"normal","seed":null}},"bias_initializer":{"class_name":"Zeros","config":{}},"kernel_regularizer":null,"bias_regularizer":null,"activity_regularizer":null,"kernel_constraint":null,"bias_constraint":null,"name":"dense_Dense3512","trainable":true},"inbound_nodes":[[["dense_Dense3511",0,0,{}]]]},{"name":"dense_Dense3513","class_name":"Dense","config":{"units":16,"activation":"relu","use_bias":true,"kernel_initializer":{"class_name":"VarianceScaling","config":{"scale":1,"mode":"fan_avg","distribution":"normal","seed":null}},"bias_initializer":{"class_name":"Zeros","config":{}},"kernel_regularizer":null,"bias_regularizer":null,"activity_regularizer":null,"kernel_constraint":null,"bias_constraint":null,"name":"dense_Dense3513","trainable":true},"inbound_nodes":[[["dense_Dense3512",0,0,{}]]]},{"name":"dense_Dense3514","class_name":"Dense","config":{"units":2,"activation":"relu","use_bias":true,"kernel_initializer":{"class_name":"VarianceScaling","config":{"scale":1,"mode":"fan_avg","distribution":"normal","seed":null}},"bias_initializer":{"class_name":"Zeros","config":{}},"kernel_regularizer":null,"bias_regularizer":null,"activity_regularizer":null,"kernel_constraint":null,"bias_constraint":null,"name":"dense_Dense3514","trainable":true},"inbound_nodes":[[["dense_Dense3513",0,0,{}]]]},{"name":"dense_Dense3515","class_name":"Dense","config":{"units":8,"activation":"relu","use_bias":true,"kernel_initializer":{"class_name":"VarianceScaling","config":{"scale":1,"mode":"fan_avg","distribution":"normal","seed":null}},"bias_initializer":{"class_name":"Zeros","config":{}},"kernel_regularizer":null,"bias_regularizer":null,"activity_regularizer":null,"kernel_constraint":null,"bias_constraint":null,"name":"dense_Dense3515","trainable":true},"inbound_nodes":[[["dense_Dense3514",0,0,{}]]]},{"name":"dense_Dense3516","class_name":"Dense","config":{"units":1,"activation":"sigmoid","use_bias":true,"kernel_initializer":{"class_name":"VarianceScaling","config":{"scale":1,"mode":"fan_avg","distribution":"normal","seed":null}},"bias_initializer":{"class_name":"Zeros","config":{}},"kernel_regularizer":null,"bias_regularizer":null,"activity_regularizer":null,"kernel_constraint":null,"bias_constraint":null,"name":"dense_Dense3516","trainable":true},"inbound_nodes":[[["dense_Dense3515",0,0,{}]]]}],"input_layers":[["input586",0,0]],"output_layers":[["dense_Dense3516",0,0]]},"keras_version":"tfjs-layers 3.9.0","backend":"tensor_flow.js"},"weightsManifest":[{"paths":["weights.bin"],"weights":[{"name":"dense_Dense3511/kernel","shape":[3,16],"dtype":"float32"},{"name":"dense_Dense3511/bias","shape":[16],"dtype":"float32"},{"name":"dense_Dense3512/kernel","shape":[16,4],"dtype":"float32"},{"name":"dense_Dense3512/bias","shape":[4],"dtype":"float32"},{"name":"dense_Dense3513/kernel","shape":[4,16],"dtype":"float32"},{"name":"dense_Dense3513/bias","shape":[16],"dtype":"float32"},{"name":"dense_Dense3514/kernel","shape":[16,2],"dtype":"float32"},{"name":"dense_Dense3514/bias","shape":[2],"dtype":"float32"},{"name":"dense_Dense3515/kernel","shape":[2,8],"dtype":"float32"},{"name":"dense_Dense3515/bias","shape":[8],"dtype":"float32"},{"name":"dense_Dense3516/kernel","shape":[8,1],"dtype":"float32"},{"name":"dense_Dense3516/bias","shape":[1],"dtype":"float32"}]}]}