{"modelTopology":{"class_name":"Model","config":{"name":"model490","layers":[{"name":"input490","class_name":"InputLayer","config":{"batch_input_shape":[null,3],"dtype":"float32","sparse":false,"name":"input490"},"inbound_nodes":[]},{"name":"dense_Dense2446","class_name":"Dense","config":{"units":4,"activation":"relu","use_bias":true,"kernel_initializer":{"class_name":"VarianceScaling","config":{"scale":1,"mode":"fan_avg","distribution":"normal","seed":null}},"bias_initializer":{"class_name":"Zeros","config":{}},"kernel_regularizer":null,"bias_regularizer":null,"activity_regularizer":null,"kernel_constraint":null,"bias_constraint":null,"name":"dense_Dense2446","trainable":true},"inbound_nodes":[[["input490",0,0,{}]]]},{"name":"dense_Dense2447","class_name":"Dense","config":{"units":2,"activation":"relu","use_bias":true,"kernel_initializer":{"class_name":"VarianceScaling","config":{"scale":1,"mode":"fan_avg","distribution":"normal","seed":null}},"bias_initializer":{"class_name":"Zeros","config":{}},"kernel_regularizer":null,"bias_regularizer":null,"activity_regularizer":null,"kernel_constraint":null,"bias_constraint":null,"name":"dense_Dense2447","trainable":true},"inbound_nodes":[[["dense_Dense2446",0,0,{}]]]},{"name":"dense_Dense2448","class_name":"Dense","config":{"units":8,"activation":"relu","use_bias":true,"kernel_initializer":{"class_name":"VarianceScaling","config":{"scale":1,"mode":"fan_avg","distribution":"normal","seed":null}},"bias_initializer":{"class_name":"Zeros","config":{}},"kernel_regularizer":null,"bias_regularizer":null,"activity_regularizer":null,"kernel_constraint":null,"bias_constraint":null,"name":"dense_Dense2448","trainable":true},"inbound_nodes":[[["dense_Dense2447",0,0,{}]]]},{"name":"dense_Dense2449","class_name":"Dense","config":{"units":8,"activation":"relu","use_bias":true,"kernel_initializer":{"class_name":"VarianceScaling","config":{"scale":1,"mode":"fan_avg","distribution":"normal","seed":null}},"bias_initializer":{"class_name":"Zeros","config":{}},"kernel_regularizer":null,"bias_regularizer":null,"activity_regularizer":null,"kernel_constraint":null,"bias_constraint":null,"name":"dense_Dense2449","trainable":true},"inbound_nodes":[[["dense_Dense2448",0,0,{}]]]},{"name":"dense_Dense2450","class_name":"Dense","config":{"units":1,"activation":"sigmoid","use_bias":true,"kernel_initializer":{"class_name":"VarianceScaling","config":{"scale":1,"mode":"fan_avg","distribution":"normal","seed":null}},"bias_initializer":{"class_name":"Zeros","config":{}},"kernel_regularizer":null,"bias_regularizer":null,"activity_regularizer":null,"kernel_constraint":null,"bias_constraint":null,"name":"dense_Dense2450","trainable":true},"inbound_nodes":[[["dense_Dense2449",0,0,{}]]]}],"input_layers":[["input490",0,0]],"output_layers":[["dense_Dense2450",0,0]]},"keras_version":"tfjs-layers 3.9.0","backend":"tensor_flow.js"},"weightsManifest":[{"paths":["weights.bin"],"weights":[{"name":"dense_Dense2446/kernel","shape":[3,4],"dtype":"float32"},{"name":"dense_Dense2446/bias","shape":[4],"dtype":"float32"},{"name":"dense_Dense2447/kernel","shape":[4,2],"dtype":"float32"},{"name":"dense_Dense2447/bias","shape":[2],"dtype":"float32"},{"name":"dense_Dense2448/kernel","shape":[2,8],"dtype":"float32"},{"name":"dense_Dense2448/bias","shape":[8],"dtype":"float32"},{"name":"dense_Dense2449/kernel","shape":[8,8],"dtype":"float32"},{"name":"dense_Dense2449/bias","shape":[8],"dtype":"float32"},{"name":"dense_Dense2450/kernel","shape":[8,1],"dtype":"float32"},{"name":"dense_Dense2450/bias","shape":[1],"dtype":"float32"}]}]}