{"modelTopology":{"class_name":"Model","config":{"name":"model225","layers":[{"name":"input225","class_name":"InputLayer","config":{"batch_input_shape":[null,3],"dtype":"float32","sparse":false,"name":"input225"},"inbound_nodes":[]},{"name":"dense_Dense1345","class_name":"Dense","config":{"units":16,"activation":"relu","use_bias":true,"kernel_initializer":{"class_name":"VarianceScaling","config":{"scale":1,"mode":"fan_avg","distribution":"normal","seed":null}},"bias_initializer":{"class_name":"Zeros","config":{}},"kernel_regularizer":null,"bias_regularizer":null,"activity_regularizer":null,"kernel_constraint":null,"bias_constraint":null,"name":"dense_Dense1345","trainable":true},"inbound_nodes":[[["input225",0,0,{}]]]},{"name":"dense_Dense1346","class_name":"Dense","config":{"units":2,"activation":"relu","use_bias":true,"kernel_initializer":{"class_name":"VarianceScaling","config":{"scale":1,"mode":"fan_avg","distribution":"normal","seed":null}},"bias_initializer":{"class_name":"Zeros","config":{}},"kernel_regularizer":null,"bias_regularizer":null,"activity_regularizer":null,"kernel_constraint":null,"bias_constraint":null,"name":"dense_Dense1346","trainable":true},"inbound_nodes":[[["dense_Dense1345",0,0,{}]]]},{"name":"dense_Dense1347","class_name":"Dense","config":{"units":1,"activation":"relu","use_bias":true,"kernel_initializer":{"class_name":"VarianceScaling","config":{"scale":1,"mode":"fan_avg","distribution":"normal","seed":null}},"bias_initializer":{"class_name":"Zeros","config":{}},"kernel_regularizer":null,"bias_regularizer":null,"activity_regularizer":null,"kernel_constraint":null,"bias_constraint":null,"name":"dense_Dense1347","trainable":true},"inbound_nodes":[[["dense_Dense1346",0,0,{}]]]},{"name":"dense_Dense1348","class_name":"Dense","config":{"units":2,"activation":"relu","use_bias":true,"kernel_initializer":{"class_name":"VarianceScaling","config":{"scale":1,"mode":"fan_avg","distribution":"normal","seed":null}},"bias_initializer":{"class_name":"Zeros","config":{}},"kernel_regularizer":null,"bias_regularizer":null,"activity_regularizer":null,"kernel_constraint":null,"bias_constraint":null,"name":"dense_Dense1348","trainable":true},"inbound_nodes":[[["dense_Dense1347",0,0,{}]]]},{"name":"dense_Dense1349","class_name":"Dense","config":{"units":4,"activation":"relu","use_bias":true,"kernel_initializer":{"class_name":"VarianceScaling","config":{"scale":1,"mode":"fan_avg","distribution":"normal","seed":null}},"bias_initializer":{"class_name":"Zeros","config":{}},"kernel_regularizer":null,"bias_regularizer":null,"activity_regularizer":null,"kernel_constraint":null,"bias_constraint":null,"name":"dense_Dense1349","trainable":true},"inbound_nodes":[[["dense_Dense1348",0,0,{}]]]},{"name":"dense_Dense1350","class_name":"Dense","config":{"units":1,"activation":"sigmoid","use_bias":true,"kernel_initializer":{"class_name":"VarianceScaling","config":{"scale":1,"mode":"fan_avg","distribution":"normal","seed":null}},"bias_initializer":{"class_name":"Zeros","config":{}},"kernel_regularizer":null,"bias_regularizer":null,"activity_regularizer":null,"kernel_constraint":null,"bias_constraint":null,"name":"dense_Dense1350","trainable":true},"inbound_nodes":[[["dense_Dense1349",0,0,{}]]]}],"input_layers":[["input225",0,0]],"output_layers":[["dense_Dense1350",0,0]]},"keras_version":"tfjs-layers 3.9.0","backend":"tensor_flow.js"},"weightsManifest":[{"paths":["weights.bin"],"weights":[{"name":"dense_Dense1345/kernel","shape":[3,16],"dtype":"float32"},{"name":"dense_Dense1345/bias","shape":[16],"dtype":"float32"},{"name":"dense_Dense1346/kernel","shape":[16,2],"dtype":"float32"},{"name":"dense_Dense1346/bias","shape":[2],"dtype":"float32"},{"name":"dense_Dense1347/kernel","shape":[2,1],"dtype":"float32"},{"name":"dense_Dense1347/bias","shape":[1],"dtype":"float32"},{"name":"dense_Dense1348/kernel","shape":[1,2],"dtype":"float32"},{"name":"dense_Dense1348/bias","shape":[2],"dtype":"float32"},{"name":"dense_Dense1349/kernel","shape":[2,4],"dtype":"float32"},{"name":"dense_Dense1349/bias","shape":[4],"dtype":"float32"},{"name":"dense_Dense1350/kernel","shape":[4,1],"dtype":"float32"},{"name":"dense_Dense1350/bias","shape":[1],"dtype":"float32"}]}]}