{"modelTopology":{"class_name":"Model","config":{"name":"model683","layers":[{"name":"input683","class_name":"InputLayer","config":{"batch_input_shape":[null,3],"dtype":"float32","sparse":false,"name":"input683"},"inbound_nodes":[]},{"name":"dense_Dense3411","class_name":"Dense","config":{"units":8,"activation":"relu","use_bias":true,"kernel_initializer":{"class_name":"VarianceScaling","config":{"scale":1,"mode":"fan_avg","distribution":"normal","seed":null}},"bias_initializer":{"class_name":"Zeros","config":{}},"kernel_regularizer":null,"bias_regularizer":null,"activity_regularizer":null,"kernel_constraint":null,"bias_constraint":null,"name":"dense_Dense3411","trainable":true},"inbound_nodes":[[["input683",0,0,{}]]]},{"name":"dense_Dense3412","class_name":"Dense","config":{"units":1,"activation":"relu","use_bias":true,"kernel_initializer":{"class_name":"VarianceScaling","config":{"scale":1,"mode":"fan_avg","distribution":"normal","seed":null}},"bias_initializer":{"class_name":"Zeros","config":{}},"kernel_regularizer":null,"bias_regularizer":null,"activity_regularizer":null,"kernel_constraint":null,"bias_constraint":null,"name":"dense_Dense3412","trainable":true},"inbound_nodes":[[["dense_Dense3411",0,0,{}]]]},{"name":"dense_Dense3413","class_name":"Dense","config":{"units":32,"activation":"relu","use_bias":true,"kernel_initializer":{"class_name":"VarianceScaling","config":{"scale":1,"mode":"fan_avg","distribution":"normal","seed":null}},"bias_initializer":{"class_name":"Zeros","config":{}},"kernel_regularizer":null,"bias_regularizer":null,"activity_regularizer":null,"kernel_constraint":null,"bias_constraint":null,"name":"dense_Dense3413","trainable":true},"inbound_nodes":[[["dense_Dense3412",0,0,{}]]]},{"name":"dense_Dense3414","class_name":"Dense","config":{"units":16,"activation":"relu","use_bias":true,"kernel_initializer":{"class_name":"VarianceScaling","config":{"scale":1,"mode":"fan_avg","distribution":"normal","seed":null}},"bias_initializer":{"class_name":"Zeros","config":{}},"kernel_regularizer":null,"bias_regularizer":null,"activity_regularizer":null,"kernel_constraint":null,"bias_constraint":null,"name":"dense_Dense3414","trainable":true},"inbound_nodes":[[["dense_Dense3413",0,0,{}]]]},{"name":"dense_Dense3415","class_name":"Dense","config":{"units":1,"activation":"sigmoid","use_bias":true,"kernel_initializer":{"class_name":"VarianceScaling","config":{"scale":1,"mode":"fan_avg","distribution":"normal","seed":null}},"bias_initializer":{"class_name":"Zeros","config":{}},"kernel_regularizer":null,"bias_regularizer":null,"activity_regularizer":null,"kernel_constraint":null,"bias_constraint":null,"name":"dense_Dense3415","trainable":true},"inbound_nodes":[[["dense_Dense3414",0,0,{}]]]}],"input_layers":[["input683",0,0]],"output_layers":[["dense_Dense3415",0,0]]},"keras_version":"tfjs-layers 3.9.0","backend":"tensor_flow.js"},"weightsManifest":[{"paths":["weights.bin"],"weights":[{"name":"dense_Dense3411/kernel","shape":[3,8],"dtype":"float32"},{"name":"dense_Dense3411/bias","shape":[8],"dtype":"float32"},{"name":"dense_Dense3412/kernel","shape":[8,1],"dtype":"float32"},{"name":"dense_Dense3412/bias","shape":[1],"dtype":"float32"},{"name":"dense_Dense3413/kernel","shape":[1,32],"dtype":"float32"},{"name":"dense_Dense3413/bias","shape":[32],"dtype":"float32"},{"name":"dense_Dense3414/kernel","shape":[32,16],"dtype":"float32"},{"name":"dense_Dense3414/bias","shape":[16],"dtype":"float32"},{"name":"dense_Dense3415/kernel","shape":[16,1],"dtype":"float32"},{"name":"dense_Dense3415/bias","shape":[1],"dtype":"float32"}]}]}