{"modelTopology":{"class_name":"Model","config":{"name":"model1265","layers":[{"name":"input1265","class_name":"InputLayer","config":{"batch_input_shape":[null,3],"dtype":"float32","sparse":false,"name":"input1265"},"inbound_nodes":[]},{"name":"dense_Dense7585","class_name":"Dense","config":{"units":8,"activation":"relu","use_bias":true,"kernel_initializer":{"class_name":"VarianceScaling","config":{"scale":1,"mode":"fan_avg","distribution":"normal","seed":null}},"bias_initializer":{"class_name":"Zeros","config":{}},"kernel_regularizer":null,"bias_regularizer":null,"activity_regularizer":null,"kernel_constraint":null,"bias_constraint":null,"name":"dense_Dense7585","trainable":true},"inbound_nodes":[[["input1265",0,0,{}]]]},{"name":"dense_Dense7586","class_name":"Dense","config":{"units":32,"activation":"relu","use_bias":true,"kernel_initializer":{"class_name":"VarianceScaling","config":{"scale":1,"mode":"fan_avg","distribution":"normal","seed":null}},"bias_initializer":{"class_name":"Zeros","config":{}},"kernel_regularizer":null,"bias_regularizer":null,"activity_regularizer":null,"kernel_constraint":null,"bias_constraint":null,"name":"dense_Dense7586","trainable":true},"inbound_nodes":[[["dense_Dense7585",0,0,{}]]]},{"name":"dense_Dense7587","class_name":"Dense","config":{"units":32,"activation":"relu","use_bias":true,"kernel_initializer":{"class_name":"VarianceScaling","config":{"scale":1,"mode":"fan_avg","distribution":"normal","seed":null}},"bias_initializer":{"class_name":"Zeros","config":{}},"kernel_regularizer":null,"bias_regularizer":null,"activity_regularizer":null,"kernel_constraint":null,"bias_constraint":null,"name":"dense_Dense7587","trainable":true},"inbound_nodes":[[["dense_Dense7586",0,0,{}]]]},{"name":"dense_Dense7588","class_name":"Dense","config":{"units":1,"activation":"relu","use_bias":true,"kernel_initializer":{"class_name":"VarianceScaling","config":{"scale":1,"mode":"fan_avg","distribution":"normal","seed":null}},"bias_initializer":{"class_name":"Zeros","config":{}},"kernel_regularizer":null,"bias_regularizer":null,"activity_regularizer":null,"kernel_constraint":null,"bias_constraint":null,"name":"dense_Dense7588","trainable":true},"inbound_nodes":[[["dense_Dense7587",0,0,{}]]]},{"name":"dense_Dense7589","class_name":"Dense","config":{"units":16,"activation":"relu","use_bias":true,"kernel_initializer":{"class_name":"VarianceScaling","config":{"scale":1,"mode":"fan_avg","distribution":"normal","seed":null}},"bias_initializer":{"class_name":"Zeros","config":{}},"kernel_regularizer":null,"bias_regularizer":null,"activity_regularizer":null,"kernel_constraint":null,"bias_constraint":null,"name":"dense_Dense7589","trainable":true},"inbound_nodes":[[["dense_Dense7588",0,0,{}]]]},{"name":"dense_Dense7590","class_name":"Dense","config":{"units":1,"activation":"sigmoid","use_bias":true,"kernel_initializer":{"class_name":"VarianceScaling","config":{"scale":1,"mode":"fan_avg","distribution":"normal","seed":null}},"bias_initializer":{"class_name":"Zeros","config":{}},"kernel_regularizer":null,"bias_regularizer":null,"activity_regularizer":null,"kernel_constraint":null,"bias_constraint":null,"name":"dense_Dense7590","trainable":true},"inbound_nodes":[[["dense_Dense7589",0,0,{}]]]}],"input_layers":[["input1265",0,0]],"output_layers":[["dense_Dense7590",0,0]]},"keras_version":"tfjs-layers 3.9.0","backend":"tensor_flow.js"},"weightsManifest":[{"paths":["weights.bin"],"weights":[{"name":"dense_Dense7585/kernel","shape":[3,8],"dtype":"float32"},{"name":"dense_Dense7585/bias","shape":[8],"dtype":"float32"},{"name":"dense_Dense7586/kernel","shape":[8,32],"dtype":"float32"},{"name":"dense_Dense7586/bias","shape":[32],"dtype":"float32"},{"name":"dense_Dense7587/kernel","shape":[32,32],"dtype":"float32"},{"name":"dense_Dense7587/bias","shape":[32],"dtype":"float32"},{"name":"dense_Dense7588/kernel","shape":[32,1],"dtype":"float32"},{"name":"dense_Dense7588/bias","shape":[1],"dtype":"float32"},{"name":"dense_Dense7589/kernel","shape":[1,16],"dtype":"float32"},{"name":"dense_Dense7589/bias","shape":[16],"dtype":"float32"},{"name":"dense_Dense7590/kernel","shape":[16,1],"dtype":"float32"},{"name":"dense_Dense7590/bias","shape":[1],"dtype":"float32"}]}]}