{"modelTopology":{"class_name":"Model","config":{"name":"model1241","layers":[{"name":"input1241","class_name":"InputLayer","config":{"batch_input_shape":[null,3],"dtype":"float32","sparse":false,"name":"input1241"},"inbound_nodes":[]},{"name":"dense_Dense7441","class_name":"Dense","config":{"units":32,"activation":"relu","use_bias":true,"kernel_initializer":{"class_name":"VarianceScaling","config":{"scale":1,"mode":"fan_avg","distribution":"normal","seed":null}},"bias_initializer":{"class_name":"Zeros","config":{}},"kernel_regularizer":null,"bias_regularizer":null,"activity_regularizer":null,"kernel_constraint":null,"bias_constraint":null,"name":"dense_Dense7441","trainable":true},"inbound_nodes":[[["input1241",0,0,{}]]]},{"name":"dense_Dense7442","class_name":"Dense","config":{"units":32,"activation":"relu","use_bias":true,"kernel_initializer":{"class_name":"VarianceScaling","config":{"scale":1,"mode":"fan_avg","distribution":"normal","seed":null}},"bias_initializer":{"class_name":"Zeros","config":{}},"kernel_regularizer":null,"bias_regularizer":null,"activity_regularizer":null,"kernel_constraint":null,"bias_constraint":null,"name":"dense_Dense7442","trainable":true},"inbound_nodes":[[["dense_Dense7441",0,0,{}]]]},{"name":"dense_Dense7443","class_name":"Dense","config":{"units":16,"activation":"relu","use_bias":true,"kernel_initializer":{"class_name":"VarianceScaling","config":{"scale":1,"mode":"fan_avg","distribution":"normal","seed":null}},"bias_initializer":{"class_name":"Zeros","config":{}},"kernel_regularizer":null,"bias_regularizer":null,"activity_regularizer":null,"kernel_constraint":null,"bias_constraint":null,"name":"dense_Dense7443","trainable":true},"inbound_nodes":[[["dense_Dense7442",0,0,{}]]]},{"name":"dense_Dense7444","class_name":"Dense","config":{"units":4,"activation":"relu","use_bias":true,"kernel_initializer":{"class_name":"VarianceScaling","config":{"scale":1,"mode":"fan_avg","distribution":"normal","seed":null}},"bias_initializer":{"class_name":"Zeros","config":{}},"kernel_regularizer":null,"bias_regularizer":null,"activity_regularizer":null,"kernel_constraint":null,"bias_constraint":null,"name":"dense_Dense7444","trainable":true},"inbound_nodes":[[["dense_Dense7443",0,0,{}]]]},{"name":"dense_Dense7445","class_name":"Dense","config":{"units":16,"activation":"relu","use_bias":true,"kernel_initializer":{"class_name":"VarianceScaling","config":{"scale":1,"mode":"fan_avg","distribution":"normal","seed":null}},"bias_initializer":{"class_name":"Zeros","config":{}},"kernel_regularizer":null,"bias_regularizer":null,"activity_regularizer":null,"kernel_constraint":null,"bias_constraint":null,"name":"dense_Dense7445","trainable":true},"inbound_nodes":[[["dense_Dense7444",0,0,{}]]]},{"name":"dense_Dense7446","class_name":"Dense","config":{"units":1,"activation":"sigmoid","use_bias":true,"kernel_initializer":{"class_name":"VarianceScaling","config":{"scale":1,"mode":"fan_avg","distribution":"normal","seed":null}},"bias_initializer":{"class_name":"Zeros","config":{}},"kernel_regularizer":null,"bias_regularizer":null,"activity_regularizer":null,"kernel_constraint":null,"bias_constraint":null,"name":"dense_Dense7446","trainable":true},"inbound_nodes":[[["dense_Dense7445",0,0,{}]]]}],"input_layers":[["input1241",0,0]],"output_layers":[["dense_Dense7446",0,0]]},"keras_version":"tfjs-layers 3.9.0","backend":"tensor_flow.js"},"weightsManifest":[{"paths":["weights.bin"],"weights":[{"name":"dense_Dense7441/kernel","shape":[3,32],"dtype":"float32"},{"name":"dense_Dense7441/bias","shape":[32],"dtype":"float32"},{"name":"dense_Dense7442/kernel","shape":[32,32],"dtype":"float32"},{"name":"dense_Dense7442/bias","shape":[32],"dtype":"float32"},{"name":"dense_Dense7443/kernel","shape":[32,16],"dtype":"float32"},{"name":"dense_Dense7443/bias","shape":[16],"dtype":"float32"},{"name":"dense_Dense7444/kernel","shape":[16,4],"dtype":"float32"},{"name":"dense_Dense7444/bias","shape":[4],"dtype":"float32"},{"name":"dense_Dense7445/kernel","shape":[4,16],"dtype":"float32"},{"name":"dense_Dense7445/bias","shape":[16],"dtype":"float32"},{"name":"dense_Dense7446/kernel","shape":[16,1],"dtype":"float32"},{"name":"dense_Dense7446/bias","shape":[1],"dtype":"float32"}]}]}