{"modelTopology":{"class_name":"Model","config":{"name":"model408","layers":[{"name":"input408","class_name":"InputLayer","config":{"batch_input_shape":[null,3],"dtype":"float32","sparse":false,"name":"input408"},"inbound_nodes":[]},{"name":"dense_Dense2443","class_name":"Dense","config":{"units":16,"activation":"relu","use_bias":true,"kernel_initializer":{"class_name":"VarianceScaling","config":{"scale":1,"mode":"fan_avg","distribution":"normal","seed":null}},"bias_initializer":{"class_name":"Zeros","config":{}},"kernel_regularizer":null,"bias_regularizer":null,"activity_regularizer":null,"kernel_constraint":null,"bias_constraint":null,"name":"dense_Dense2443","trainable":true},"inbound_nodes":[[["input408",0,0,{}]]]},{"name":"dense_Dense2444","class_name":"Dense","config":{"units":2,"activation":"relu","use_bias":true,"kernel_initializer":{"class_name":"VarianceScaling","config":{"scale":1,"mode":"fan_avg","distribution":"normal","seed":null}},"bias_initializer":{"class_name":"Zeros","config":{}},"kernel_regularizer":null,"bias_regularizer":null,"activity_regularizer":null,"kernel_constraint":null,"bias_constraint":null,"name":"dense_Dense2444","trainable":true},"inbound_nodes":[[["dense_Dense2443",0,0,{}]]]},{"name":"dense_Dense2445","class_name":"Dense","config":{"units":32,"activation":"relu","use_bias":true,"kernel_initializer":{"class_name":"VarianceScaling","config":{"scale":1,"mode":"fan_avg","distribution":"normal","seed":null}},"bias_initializer":{"class_name":"Zeros","config":{}},"kernel_regularizer":null,"bias_regularizer":null,"activity_regularizer":null,"kernel_constraint":null,"bias_constraint":null,"name":"dense_Dense2445","trainable":true},"inbound_nodes":[[["dense_Dense2444",0,0,{}]]]},{"name":"dense_Dense2446","class_name":"Dense","config":{"units":2,"activation":"relu","use_bias":true,"kernel_initializer":{"class_name":"VarianceScaling","config":{"scale":1,"mode":"fan_avg","distribution":"normal","seed":null}},"bias_initializer":{"class_name":"Zeros","config":{}},"kernel_regularizer":null,"bias_regularizer":null,"activity_regularizer":null,"kernel_constraint":null,"bias_constraint":null,"name":"dense_Dense2446","trainable":true},"inbound_nodes":[[["dense_Dense2445",0,0,{}]]]},{"name":"dense_Dense2447","class_name":"Dense","config":{"units":32,"activation":"relu","use_bias":true,"kernel_initializer":{"class_name":"VarianceScaling","config":{"scale":1,"mode":"fan_avg","distribution":"normal","seed":null}},"bias_initializer":{"class_name":"Zeros","config":{}},"kernel_regularizer":null,"bias_regularizer":null,"activity_regularizer":null,"kernel_constraint":null,"bias_constraint":null,"name":"dense_Dense2447","trainable":true},"inbound_nodes":[[["dense_Dense2446",0,0,{}]]]},{"name":"dense_Dense2448","class_name":"Dense","config":{"units":1,"activation":"sigmoid","use_bias":true,"kernel_initializer":{"class_name":"VarianceScaling","config":{"scale":1,"mode":"fan_avg","distribution":"normal","seed":null}},"bias_initializer":{"class_name":"Zeros","config":{}},"kernel_regularizer":null,"bias_regularizer":null,"activity_regularizer":null,"kernel_constraint":null,"bias_constraint":null,"name":"dense_Dense2448","trainable":true},"inbound_nodes":[[["dense_Dense2447",0,0,{}]]]}],"input_layers":[["input408",0,0]],"output_layers":[["dense_Dense2448",0,0]]},"keras_version":"tfjs-layers 3.9.0","backend":"tensor_flow.js"},"weightsManifest":[{"paths":["weights.bin"],"weights":[{"name":"dense_Dense2443/kernel","shape":[3,16],"dtype":"float32"},{"name":"dense_Dense2443/bias","shape":[16],"dtype":"float32"},{"name":"dense_Dense2444/kernel","shape":[16,2],"dtype":"float32"},{"name":"dense_Dense2444/bias","shape":[2],"dtype":"float32"},{"name":"dense_Dense2445/kernel","shape":[2,32],"dtype":"float32"},{"name":"dense_Dense2445/bias","shape":[32],"dtype":"float32"},{"name":"dense_Dense2446/kernel","shape":[32,2],"dtype":"float32"},{"name":"dense_Dense2446/bias","shape":[2],"dtype":"float32"},{"name":"dense_Dense2447/kernel","shape":[2,32],"dtype":"float32"},{"name":"dense_Dense2447/bias","shape":[32],"dtype":"float32"},{"name":"dense_Dense2448/kernel","shape":[32,1],"dtype":"float32"},{"name":"dense_Dense2448/bias","shape":[1],"dtype":"float32"}]}]}