{"modelTopology":{"class_name":"Model","config":{"name":"model354","layers":[{"name":"input354","class_name":"InputLayer","config":{"batch_input_shape":[null,3],"dtype":"float32","sparse":false,"name":"input354"},"inbound_nodes":[]},{"name":"dense_Dense1766","class_name":"Dense","config":{"units":2,"activation":"relu","use_bias":true,"kernel_initializer":{"class_name":"VarianceScaling","config":{"scale":1,"mode":"fan_avg","distribution":"normal","seed":null}},"bias_initializer":{"class_name":"Zeros","config":{}},"kernel_regularizer":null,"bias_regularizer":null,"activity_regularizer":null,"kernel_constraint":null,"bias_constraint":null,"name":"dense_Dense1766","trainable":true},"inbound_nodes":[[["input354",0,0,{}]]]},{"name":"dense_Dense1767","class_name":"Dense","config":{"units":8,"activation":"relu","use_bias":true,"kernel_initializer":{"class_name":"VarianceScaling","config":{"scale":1,"mode":"fan_avg","distribution":"normal","seed":null}},"bias_initializer":{"class_name":"Zeros","config":{}},"kernel_regularizer":null,"bias_regularizer":null,"activity_regularizer":null,"kernel_constraint":null,"bias_constraint":null,"name":"dense_Dense1767","trainable":true},"inbound_nodes":[[["dense_Dense1766",0,0,{}]]]},{"name":"dense_Dense1768","class_name":"Dense","config":{"units":16,"activation":"relu","use_bias":true,"kernel_initializer":{"class_name":"VarianceScaling","config":{"scale":1,"mode":"fan_avg","distribution":"normal","seed":null}},"bias_initializer":{"class_name":"Zeros","config":{}},"kernel_regularizer":null,"bias_regularizer":null,"activity_regularizer":null,"kernel_constraint":null,"bias_constraint":null,"name":"dense_Dense1768","trainable":true},"inbound_nodes":[[["dense_Dense1767",0,0,{}]]]},{"name":"dense_Dense1769","class_name":"Dense","config":{"units":32,"activation":"relu","use_bias":true,"kernel_initializer":{"class_name":"VarianceScaling","config":{"scale":1,"mode":"fan_avg","distribution":"normal","seed":null}},"bias_initializer":{"class_name":"Zeros","config":{}},"kernel_regularizer":null,"bias_regularizer":null,"activity_regularizer":null,"kernel_constraint":null,"bias_constraint":null,"name":"dense_Dense1769","trainable":true},"inbound_nodes":[[["dense_Dense1768",0,0,{}]]]},{"name":"dense_Dense1770","class_name":"Dense","config":{"units":1,"activation":"sigmoid","use_bias":true,"kernel_initializer":{"class_name":"VarianceScaling","config":{"scale":1,"mode":"fan_avg","distribution":"normal","seed":null}},"bias_initializer":{"class_name":"Zeros","config":{}},"kernel_regularizer":null,"bias_regularizer":null,"activity_regularizer":null,"kernel_constraint":null,"bias_constraint":null,"name":"dense_Dense1770","trainable":true},"inbound_nodes":[[["dense_Dense1769",0,0,{}]]]}],"input_layers":[["input354",0,0]],"output_layers":[["dense_Dense1770",0,0]]},"keras_version":"tfjs-layers 3.9.0","backend":"tensor_flow.js"},"weightsManifest":[{"paths":["weights.bin"],"weights":[{"name":"dense_Dense1766/kernel","shape":[3,2],"dtype":"float32"},{"name":"dense_Dense1766/bias","shape":[2],"dtype":"float32"},{"name":"dense_Dense1767/kernel","shape":[2,8],"dtype":"float32"},{"name":"dense_Dense1767/bias","shape":[8],"dtype":"float32"},{"name":"dense_Dense1768/kernel","shape":[8,16],"dtype":"float32"},{"name":"dense_Dense1768/bias","shape":[16],"dtype":"float32"},{"name":"dense_Dense1769/kernel","shape":[16,32],"dtype":"float32"},{"name":"dense_Dense1769/bias","shape":[32],"dtype":"float32"},{"name":"dense_Dense1770/kernel","shape":[32,1],"dtype":"float32"},{"name":"dense_Dense1770/bias","shape":[1],"dtype":"float32"}]}]}