{"modelTopology":{"class_name":"Model","config":{"name":"model1075","layers":[{"name":"input1075","class_name":"InputLayer","config":{"batch_input_shape":[null,3],"dtype":"float32","sparse":false,"name":"input1075"},"inbound_nodes":[]},{"name":"dense_Dense5371","class_name":"Dense","config":{"units":16,"activation":"relu","use_bias":true,"kernel_initializer":{"class_name":"VarianceScaling","config":{"scale":1,"mode":"fan_avg","distribution":"normal","seed":null}},"bias_initializer":{"class_name":"Zeros","config":{}},"kernel_regularizer":null,"bias_regularizer":null,"activity_regularizer":null,"kernel_constraint":null,"bias_constraint":null,"name":"dense_Dense5371","trainable":true},"inbound_nodes":[[["input1075",0,0,{}]]]},{"name":"dense_Dense5372","class_name":"Dense","config":{"units":32,"activation":"relu","use_bias":true,"kernel_initializer":{"class_name":"VarianceScaling","config":{"scale":1,"mode":"fan_avg","distribution":"normal","seed":null}},"bias_initializer":{"class_name":"Zeros","config":{}},"kernel_regularizer":null,"bias_regularizer":null,"activity_regularizer":null,"kernel_constraint":null,"bias_constraint":null,"name":"dense_Dense5372","trainable":true},"inbound_nodes":[[["dense_Dense5371",0,0,{}]]]},{"name":"dense_Dense5373","class_name":"Dense","config":{"units":32,"activation":"relu","use_bias":true,"kernel_initializer":{"class_name":"VarianceScaling","config":{"scale":1,"mode":"fan_avg","distribution":"normal","seed":null}},"bias_initializer":{"class_name":"Zeros","config":{}},"kernel_regularizer":null,"bias_regularizer":null,"activity_regularizer":null,"kernel_constraint":null,"bias_constraint":null,"name":"dense_Dense5373","trainable":true},"inbound_nodes":[[["dense_Dense5372",0,0,{}]]]},{"name":"dense_Dense5374","class_name":"Dense","config":{"units":1,"activation":"relu","use_bias":true,"kernel_initializer":{"class_name":"VarianceScaling","config":{"scale":1,"mode":"fan_avg","distribution":"normal","seed":null}},"bias_initializer":{"class_name":"Zeros","config":{}},"kernel_regularizer":null,"bias_regularizer":null,"activity_regularizer":null,"kernel_constraint":null,"bias_constraint":null,"name":"dense_Dense5374","trainable":true},"inbound_nodes":[[["dense_Dense5373",0,0,{}]]]},{"name":"dense_Dense5375","class_name":"Dense","config":{"units":1,"activation":"sigmoid","use_bias":true,"kernel_initializer":{"class_name":"VarianceScaling","config":{"scale":1,"mode":"fan_avg","distribution":"normal","seed":null}},"bias_initializer":{"class_name":"Zeros","config":{}},"kernel_regularizer":null,"bias_regularizer":null,"activity_regularizer":null,"kernel_constraint":null,"bias_constraint":null,"name":"dense_Dense5375","trainable":true},"inbound_nodes":[[["dense_Dense5374",0,0,{}]]]}],"input_layers":[["input1075",0,0]],"output_layers":[["dense_Dense5375",0,0]]},"keras_version":"tfjs-layers 3.9.0","backend":"tensor_flow.js"},"weightsManifest":[{"paths":["weights.bin"],"weights":[{"name":"dense_Dense5371/kernel","shape":[3,16],"dtype":"float32"},{"name":"dense_Dense5371/bias","shape":[16],"dtype":"float32"},{"name":"dense_Dense5372/kernel","shape":[16,32],"dtype":"float32"},{"name":"dense_Dense5372/bias","shape":[32],"dtype":"float32"},{"name":"dense_Dense5373/kernel","shape":[32,32],"dtype":"float32"},{"name":"dense_Dense5373/bias","shape":[32],"dtype":"float32"},{"name":"dense_Dense5374/kernel","shape":[32,1],"dtype":"float32"},{"name":"dense_Dense5374/bias","shape":[1],"dtype":"float32"},{"name":"dense_Dense5375/kernel","shape":[1,1],"dtype":"float32"},{"name":"dense_Dense5375/bias","shape":[1],"dtype":"float32"}]}]}