{"modelTopology":{"class_name":"Model","config":{"name":"model849","layers":[{"name":"input849","class_name":"InputLayer","config":{"batch_input_shape":[null,3],"dtype":"float32","sparse":false,"name":"input849"},"inbound_nodes":[]},{"name":"dense_Dense4241","class_name":"Dense","config":{"units":8,"activation":"relu","use_bias":true,"kernel_initializer":{"class_name":"VarianceScaling","config":{"scale":1,"mode":"fan_avg","distribution":"normal","seed":null}},"bias_initializer":{"class_name":"Zeros","config":{}},"kernel_regularizer":null,"bias_regularizer":null,"activity_regularizer":null,"kernel_constraint":null,"bias_constraint":null,"name":"dense_Dense4241","trainable":true},"inbound_nodes":[[["input849",0,0,{}]]]},{"name":"dense_Dense4242","class_name":"Dense","config":{"units":32,"activation":"relu","use_bias":true,"kernel_initializer":{"class_name":"VarianceScaling","config":{"scale":1,"mode":"fan_avg","distribution":"normal","seed":null}},"bias_initializer":{"class_name":"Zeros","config":{}},"kernel_regularizer":null,"bias_regularizer":null,"activity_regularizer":null,"kernel_constraint":null,"bias_constraint":null,"name":"dense_Dense4242","trainable":true},"inbound_nodes":[[["dense_Dense4241",0,0,{}]]]},{"name":"dense_Dense4243","class_name":"Dense","config":{"units":8,"activation":"relu","use_bias":true,"kernel_initializer":{"class_name":"VarianceScaling","config":{"scale":1,"mode":"fan_avg","distribution":"normal","seed":null}},"bias_initializer":{"class_name":"Zeros","config":{}},"kernel_regularizer":null,"bias_regularizer":null,"activity_regularizer":null,"kernel_constraint":null,"bias_constraint":null,"name":"dense_Dense4243","trainable":true},"inbound_nodes":[[["dense_Dense4242",0,0,{}]]]},{"name":"dense_Dense4244","class_name":"Dense","config":{"units":4,"activation":"relu","use_bias":true,"kernel_initializer":{"class_name":"VarianceScaling","config":{"scale":1,"mode":"fan_avg","distribution":"normal","seed":null}},"bias_initializer":{"class_name":"Zeros","config":{}},"kernel_regularizer":null,"bias_regularizer":null,"activity_regularizer":null,"kernel_constraint":null,"bias_constraint":null,"name":"dense_Dense4244","trainable":true},"inbound_nodes":[[["dense_Dense4243",0,0,{}]]]},{"name":"dense_Dense4245","class_name":"Dense","config":{"units":1,"activation":"sigmoid","use_bias":true,"kernel_initializer":{"class_name":"VarianceScaling","config":{"scale":1,"mode":"fan_avg","distribution":"normal","seed":null}},"bias_initializer":{"class_name":"Zeros","config":{}},"kernel_regularizer":null,"bias_regularizer":null,"activity_regularizer":null,"kernel_constraint":null,"bias_constraint":null,"name":"dense_Dense4245","trainable":true},"inbound_nodes":[[["dense_Dense4244",0,0,{}]]]}],"input_layers":[["input849",0,0]],"output_layers":[["dense_Dense4245",0,0]]},"keras_version":"tfjs-layers 3.9.0","backend":"tensor_flow.js"},"weightsManifest":[{"paths":["weights.bin"],"weights":[{"name":"dense_Dense4241/kernel","shape":[3,8],"dtype":"float32"},{"name":"dense_Dense4241/bias","shape":[8],"dtype":"float32"},{"name":"dense_Dense4242/kernel","shape":[8,32],"dtype":"float32"},{"name":"dense_Dense4242/bias","shape":[32],"dtype":"float32"},{"name":"dense_Dense4243/kernel","shape":[32,8],"dtype":"float32"},{"name":"dense_Dense4243/bias","shape":[8],"dtype":"float32"},{"name":"dense_Dense4244/kernel","shape":[8,4],"dtype":"float32"},{"name":"dense_Dense4244/bias","shape":[4],"dtype":"float32"},{"name":"dense_Dense4245/kernel","shape":[4,1],"dtype":"float32"},{"name":"dense_Dense4245/bias","shape":[1],"dtype":"float32"}]}]}