{"modelTopology":{"class_name":"Model","config":{"name":"model904","layers":[{"name":"input904","class_name":"InputLayer","config":{"batch_input_shape":[null,3],"dtype":"float32","sparse":false,"name":"input904"},"inbound_nodes":[]},{"name":"dense_Dense4516","class_name":"Dense","config":{"units":16,"activation":"relu","use_bias":true,"kernel_initializer":{"class_name":"VarianceScaling","config":{"scale":1,"mode":"fan_avg","distribution":"normal","seed":null}},"bias_initializer":{"class_name":"Zeros","config":{}},"kernel_regularizer":null,"bias_regularizer":null,"activity_regularizer":null,"kernel_constraint":null,"bias_constraint":null,"name":"dense_Dense4516","trainable":true},"inbound_nodes":[[["input904",0,0,{}]]]},{"name":"dense_Dense4517","class_name":"Dense","config":{"units":2,"activation":"relu","use_bias":true,"kernel_initializer":{"class_name":"VarianceScaling","config":{"scale":1,"mode":"fan_avg","distribution":"normal","seed":null}},"bias_initializer":{"class_name":"Zeros","config":{}},"kernel_regularizer":null,"bias_regularizer":null,"activity_regularizer":null,"kernel_constraint":null,"bias_constraint":null,"name":"dense_Dense4517","trainable":true},"inbound_nodes":[[["dense_Dense4516",0,0,{}]]]},{"name":"dense_Dense4518","class_name":"Dense","config":{"units":1,"activation":"relu","use_bias":true,"kernel_initializer":{"class_name":"VarianceScaling","config":{"scale":1,"mode":"fan_avg","distribution":"normal","seed":null}},"bias_initializer":{"class_name":"Zeros","config":{}},"kernel_regularizer":null,"bias_regularizer":null,"activity_regularizer":null,"kernel_constraint":null,"bias_constraint":null,"name":"dense_Dense4518","trainable":true},"inbound_nodes":[[["dense_Dense4517",0,0,{}]]]},{"name":"dense_Dense4519","class_name":"Dense","config":{"units":8,"activation":"relu","use_bias":true,"kernel_initializer":{"class_name":"VarianceScaling","config":{"scale":1,"mode":"fan_avg","distribution":"normal","seed":null}},"bias_initializer":{"class_name":"Zeros","config":{}},"kernel_regularizer":null,"bias_regularizer":null,"activity_regularizer":null,"kernel_constraint":null,"bias_constraint":null,"name":"dense_Dense4519","trainable":true},"inbound_nodes":[[["dense_Dense4518",0,0,{}]]]},{"name":"dense_Dense4520","class_name":"Dense","config":{"units":1,"activation":"sigmoid","use_bias":true,"kernel_initializer":{"class_name":"VarianceScaling","config":{"scale":1,"mode":"fan_avg","distribution":"normal","seed":null}},"bias_initializer":{"class_name":"Zeros","config":{}},"kernel_regularizer":null,"bias_regularizer":null,"activity_regularizer":null,"kernel_constraint":null,"bias_constraint":null,"name":"dense_Dense4520","trainable":true},"inbound_nodes":[[["dense_Dense4519",0,0,{}]]]}],"input_layers":[["input904",0,0]],"output_layers":[["dense_Dense4520",0,0]]},"keras_version":"tfjs-layers 3.9.0","backend":"tensor_flow.js"},"weightsManifest":[{"paths":["weights.bin"],"weights":[{"name":"dense_Dense4516/kernel","shape":[3,16],"dtype":"float32"},{"name":"dense_Dense4516/bias","shape":[16],"dtype":"float32"},{"name":"dense_Dense4517/kernel","shape":[16,2],"dtype":"float32"},{"name":"dense_Dense4517/bias","shape":[2],"dtype":"float32"},{"name":"dense_Dense4518/kernel","shape":[2,1],"dtype":"float32"},{"name":"dense_Dense4518/bias","shape":[1],"dtype":"float32"},{"name":"dense_Dense4519/kernel","shape":[1,8],"dtype":"float32"},{"name":"dense_Dense4519/bias","shape":[8],"dtype":"float32"},{"name":"dense_Dense4520/kernel","shape":[8,1],"dtype":"float32"},{"name":"dense_Dense4520/bias","shape":[1],"dtype":"float32"}]}]}