{"modelTopology":{"class_name":"Model","config":{"name":"model1049","layers":[{"name":"input1049","class_name":"InputLayer","config":{"batch_input_shape":[null,3],"dtype":"float32","sparse":false,"name":"input1049"},"inbound_nodes":[]},{"name":"dense_Dense6289","class_name":"Dense","config":{"units":16,"activation":"relu","use_bias":true,"kernel_initializer":{"class_name":"VarianceScaling","config":{"scale":1,"mode":"fan_avg","distribution":"normal","seed":null}},"bias_initializer":{"class_name":"Zeros","config":{}},"kernel_regularizer":null,"bias_regularizer":null,"activity_regularizer":null,"kernel_constraint":null,"bias_constraint":null,"name":"dense_Dense6289","trainable":true},"inbound_nodes":[[["input1049",0,0,{}]]]},{"name":"dense_Dense6290","class_name":"Dense","config":{"units":16,"activation":"relu","use_bias":true,"kernel_initializer":{"class_name":"VarianceScaling","config":{"scale":1,"mode":"fan_avg","distribution":"normal","seed":null}},"bias_initializer":{"class_name":"Zeros","config":{}},"kernel_regularizer":null,"bias_regularizer":null,"activity_regularizer":null,"kernel_constraint":null,"bias_constraint":null,"name":"dense_Dense6290","trainable":true},"inbound_nodes":[[["dense_Dense6289",0,0,{}]]]},{"name":"dense_Dense6291","class_name":"Dense","config":{"units":32,"activation":"relu","use_bias":true,"kernel_initializer":{"class_name":"VarianceScaling","config":{"scale":1,"mode":"fan_avg","distribution":"normal","seed":null}},"bias_initializer":{"class_name":"Zeros","config":{}},"kernel_regularizer":null,"bias_regularizer":null,"activity_regularizer":null,"kernel_constraint":null,"bias_constraint":null,"name":"dense_Dense6291","trainable":true},"inbound_nodes":[[["dense_Dense6290",0,0,{}]]]},{"name":"dense_Dense6292","class_name":"Dense","config":{"units":1,"activation":"relu","use_bias":true,"kernel_initializer":{"class_name":"VarianceScaling","config":{"scale":1,"mode":"fan_avg","distribution":"normal","seed":null}},"bias_initializer":{"class_name":"Zeros","config":{}},"kernel_regularizer":null,"bias_regularizer":null,"activity_regularizer":null,"kernel_constraint":null,"bias_constraint":null,"name":"dense_Dense6292","trainable":true},"inbound_nodes":[[["dense_Dense6291",0,0,{}]]]},{"name":"dense_Dense6293","class_name":"Dense","config":{"units":16,"activation":"relu","use_bias":true,"kernel_initializer":{"class_name":"VarianceScaling","config":{"scale":1,"mode":"fan_avg","distribution":"normal","seed":null}},"bias_initializer":{"class_name":"Zeros","config":{}},"kernel_regularizer":null,"bias_regularizer":null,"activity_regularizer":null,"kernel_constraint":null,"bias_constraint":null,"name":"dense_Dense6293","trainable":true},"inbound_nodes":[[["dense_Dense6292",0,0,{}]]]},{"name":"dense_Dense6294","class_name":"Dense","config":{"units":1,"activation":"sigmoid","use_bias":true,"kernel_initializer":{"class_name":"VarianceScaling","config":{"scale":1,"mode":"fan_avg","distribution":"normal","seed":null}},"bias_initializer":{"class_name":"Zeros","config":{}},"kernel_regularizer":null,"bias_regularizer":null,"activity_regularizer":null,"kernel_constraint":null,"bias_constraint":null,"name":"dense_Dense6294","trainable":true},"inbound_nodes":[[["dense_Dense6293",0,0,{}]]]}],"input_layers":[["input1049",0,0]],"output_layers":[["dense_Dense6294",0,0]]},"keras_version":"tfjs-layers 3.9.0","backend":"tensor_flow.js"},"weightsManifest":[{"paths":["weights.bin"],"weights":[{"name":"dense_Dense6289/kernel","shape":[3,16],"dtype":"float32"},{"name":"dense_Dense6289/bias","shape":[16],"dtype":"float32"},{"name":"dense_Dense6290/kernel","shape":[16,16],"dtype":"float32"},{"name":"dense_Dense6290/bias","shape":[16],"dtype":"float32"},{"name":"dense_Dense6291/kernel","shape":[16,32],"dtype":"float32"},{"name":"dense_Dense6291/bias","shape":[32],"dtype":"float32"},{"name":"dense_Dense6292/kernel","shape":[32,1],"dtype":"float32"},{"name":"dense_Dense6292/bias","shape":[1],"dtype":"float32"},{"name":"dense_Dense6293/kernel","shape":[1,16],"dtype":"float32"},{"name":"dense_Dense6293/bias","shape":[16],"dtype":"float32"},{"name":"dense_Dense6294/kernel","shape":[16,1],"dtype":"float32"},{"name":"dense_Dense6294/bias","shape":[1],"dtype":"float32"}]}]}