{"modelTopology":{"class_name":"Model","config":{"name":"model904","layers":[{"name":"input904","class_name":"InputLayer","config":{"batch_input_shape":[null,3],"dtype":"float32","sparse":false,"name":"input904"},"inbound_nodes":[]},{"name":"dense_Dense5419","class_name":"Dense","config":{"units":8,"activation":"relu","use_bias":true,"kernel_initializer":{"class_name":"VarianceScaling","config":{"scale":1,"mode":"fan_avg","distribution":"normal","seed":null}},"bias_initializer":{"class_name":"Zeros","config":{}},"kernel_regularizer":null,"bias_regularizer":null,"activity_regularizer":null,"kernel_constraint":null,"bias_constraint":null,"name":"dense_Dense5419","trainable":true},"inbound_nodes":[[["input904",0,0,{}]]]},{"name":"dense_Dense5420","class_name":"Dense","config":{"units":16,"activation":"relu","use_bias":true,"kernel_initializer":{"class_name":"VarianceScaling","config":{"scale":1,"mode":"fan_avg","distribution":"normal","seed":null}},"bias_initializer":{"class_name":"Zeros","config":{}},"kernel_regularizer":null,"bias_regularizer":null,"activity_regularizer":null,"kernel_constraint":null,"bias_constraint":null,"name":"dense_Dense5420","trainable":true},"inbound_nodes":[[["dense_Dense5419",0,0,{}]]]},{"name":"dense_Dense5421","class_name":"Dense","config":{"units":2,"activation":"relu","use_bias":true,"kernel_initializer":{"class_name":"VarianceScaling","config":{"scale":1,"mode":"fan_avg","distribution":"normal","seed":null}},"bias_initializer":{"class_name":"Zeros","config":{}},"kernel_regularizer":null,"bias_regularizer":null,"activity_regularizer":null,"kernel_constraint":null,"bias_constraint":null,"name":"dense_Dense5421","trainable":true},"inbound_nodes":[[["dense_Dense5420",0,0,{}]]]},{"name":"dense_Dense5422","class_name":"Dense","config":{"units":1,"activation":"relu","use_bias":true,"kernel_initializer":{"class_name":"VarianceScaling","config":{"scale":1,"mode":"fan_avg","distribution":"normal","seed":null}},"bias_initializer":{"class_name":"Zeros","config":{}},"kernel_regularizer":null,"bias_regularizer":null,"activity_regularizer":null,"kernel_constraint":null,"bias_constraint":null,"name":"dense_Dense5422","trainable":true},"inbound_nodes":[[["dense_Dense5421",0,0,{}]]]},{"name":"dense_Dense5423","class_name":"Dense","config":{"units":8,"activation":"relu","use_bias":true,"kernel_initializer":{"class_name":"VarianceScaling","config":{"scale":1,"mode":"fan_avg","distribution":"normal","seed":null}},"bias_initializer":{"class_name":"Zeros","config":{}},"kernel_regularizer":null,"bias_regularizer":null,"activity_regularizer":null,"kernel_constraint":null,"bias_constraint":null,"name":"dense_Dense5423","trainable":true},"inbound_nodes":[[["dense_Dense5422",0,0,{}]]]},{"name":"dense_Dense5424","class_name":"Dense","config":{"units":1,"activation":"sigmoid","use_bias":true,"kernel_initializer":{"class_name":"VarianceScaling","config":{"scale":1,"mode":"fan_avg","distribution":"normal","seed":null}},"bias_initializer":{"class_name":"Zeros","config":{}},"kernel_regularizer":null,"bias_regularizer":null,"activity_regularizer":null,"kernel_constraint":null,"bias_constraint":null,"name":"dense_Dense5424","trainable":true},"inbound_nodes":[[["dense_Dense5423",0,0,{}]]]}],"input_layers":[["input904",0,0]],"output_layers":[["dense_Dense5424",0,0]]},"keras_version":"tfjs-layers 3.9.0","backend":"tensor_flow.js"},"weightsManifest":[{"paths":["weights.bin"],"weights":[{"name":"dense_Dense5419/kernel","shape":[3,8],"dtype":"float32"},{"name":"dense_Dense5419/bias","shape":[8],"dtype":"float32"},{"name":"dense_Dense5420/kernel","shape":[8,16],"dtype":"float32"},{"name":"dense_Dense5420/bias","shape":[16],"dtype":"float32"},{"name":"dense_Dense5421/kernel","shape":[16,2],"dtype":"float32"},{"name":"dense_Dense5421/bias","shape":[2],"dtype":"float32"},{"name":"dense_Dense5422/kernel","shape":[2,1],"dtype":"float32"},{"name":"dense_Dense5422/bias","shape":[1],"dtype":"float32"},{"name":"dense_Dense5423/kernel","shape":[1,8],"dtype":"float32"},{"name":"dense_Dense5423/bias","shape":[8],"dtype":"float32"},{"name":"dense_Dense5424/kernel","shape":[8,1],"dtype":"float32"},{"name":"dense_Dense5424/bias","shape":[1],"dtype":"float32"}]}]}