{"modelTopology":{"class_name":"Model","config":{"name":"model20","layers":[{"name":"input20","class_name":"InputLayer","config":{"batch_input_shape":[null,3],"dtype":"float32","sparse":false,"name":"input20"},"inbound_nodes":[]},{"name":"dense_Dense58","class_name":"Dense","config":{"units":8,"activation":"relu","use_bias":true,"kernel_initializer":{"class_name":"VarianceScaling","config":{"scale":1,"mode":"fan_avg","distribution":"normal","seed":null}},"bias_initializer":{"class_name":"Zeros","config":{}},"kernel_regularizer":null,"bias_regularizer":null,"activity_regularizer":null,"kernel_constraint":null,"bias_constraint":null,"name":"dense_Dense58","trainable":true},"inbound_nodes":[[["input20",0,0,{}]]]},{"name":"dense_Dense59","class_name":"Dense","config":{"units":2,"activation":"relu","use_bias":true,"kernel_initializer":{"class_name":"VarianceScaling","config":{"scale":1,"mode":"fan_avg","distribution":"normal","seed":null}},"bias_initializer":{"class_name":"Zeros","config":{}},"kernel_regularizer":null,"bias_regularizer":null,"activity_regularizer":null,"kernel_constraint":null,"bias_constraint":null,"name":"dense_Dense59","trainable":true},"inbound_nodes":[[["dense_Dense58",0,0,{}]]]},{"name":"dense_Dense60","class_name":"Dense","config":{"units":1,"activation":"sigmoid","use_bias":true,"kernel_initializer":{"class_name":"VarianceScaling","config":{"scale":1,"mode":"fan_avg","distribution":"normal","seed":null}},"bias_initializer":{"class_name":"Zeros","config":{}},"kernel_regularizer":null,"bias_regularizer":null,"activity_regularizer":null,"kernel_constraint":null,"bias_constraint":null,"name":"dense_Dense60","trainable":true},"inbound_nodes":[[["dense_Dense59",0,0,{}]]]}],"input_layers":[["input20",0,0]],"output_layers":[["dense_Dense60",0,0]]},"keras_version":"tfjs-layers 3.9.0","backend":"tensor_flow.js"},"weightsManifest":[{"paths":["weights.bin"],"weights":[{"name":"dense_Dense58/kernel","shape":[3,8],"dtype":"float32"},{"name":"dense_Dense58/bias","shape":[8],"dtype":"float32"},{"name":"dense_Dense59/kernel","shape":[8,2],"dtype":"float32"},{"name":"dense_Dense59/bias","shape":[2],"dtype":"float32"},{"name":"dense_Dense60/kernel","shape":[2,1],"dtype":"float32"},{"name":"dense_Dense60/bias","shape":[1],"dtype":"float32"}]}]}