{"modelTopology":{"class_name":"Model","config":{"name":"model934","layers":[{"name":"input934","class_name":"InputLayer","config":{"batch_input_shape":[null,3],"dtype":"float32","sparse":false,"name":"input934"},"inbound_nodes":[]},{"name":"dense_Dense5599","class_name":"Dense","config":{"units":2,"activation":"relu","use_bias":true,"kernel_initializer":{"class_name":"VarianceScaling","config":{"scale":1,"mode":"fan_avg","distribution":"normal","seed":null}},"bias_initializer":{"class_name":"Zeros","config":{}},"kernel_regularizer":null,"bias_regularizer":null,"activity_regularizer":null,"kernel_constraint":null,"bias_constraint":null,"name":"dense_Dense5599","trainable":true},"inbound_nodes":[[["input934",0,0,{}]]]},{"name":"dense_Dense5600","class_name":"Dense","config":{"units":16,"activation":"relu","use_bias":true,"kernel_initializer":{"class_name":"VarianceScaling","config":{"scale":1,"mode":"fan_avg","distribution":"normal","seed":null}},"bias_initializer":{"class_name":"Zeros","config":{}},"kernel_regularizer":null,"bias_regularizer":null,"activity_regularizer":null,"kernel_constraint":null,"bias_constraint":null,"name":"dense_Dense5600","trainable":true},"inbound_nodes":[[["dense_Dense5599",0,0,{}]]]},{"name":"dense_Dense5601","class_name":"Dense","config":{"units":2,"activation":"relu","use_bias":true,"kernel_initializer":{"class_name":"VarianceScaling","config":{"scale":1,"mode":"fan_avg","distribution":"normal","seed":null}},"bias_initializer":{"class_name":"Zeros","config":{}},"kernel_regularizer":null,"bias_regularizer":null,"activity_regularizer":null,"kernel_constraint":null,"bias_constraint":null,"name":"dense_Dense5601","trainable":true},"inbound_nodes":[[["dense_Dense5600",0,0,{}]]]},{"name":"dense_Dense5602","class_name":"Dense","config":{"units":32,"activation":"relu","use_bias":true,"kernel_initializer":{"class_name":"VarianceScaling","config":{"scale":1,"mode":"fan_avg","distribution":"normal","seed":null}},"bias_initializer":{"class_name":"Zeros","config":{}},"kernel_regularizer":null,"bias_regularizer":null,"activity_regularizer":null,"kernel_constraint":null,"bias_constraint":null,"name":"dense_Dense5602","trainable":true},"inbound_nodes":[[["dense_Dense5601",0,0,{}]]]},{"name":"dense_Dense5603","class_name":"Dense","config":{"units":8,"activation":"relu","use_bias":true,"kernel_initializer":{"class_name":"VarianceScaling","config":{"scale":1,"mode":"fan_avg","distribution":"normal","seed":null}},"bias_initializer":{"class_name":"Zeros","config":{}},"kernel_regularizer":null,"bias_regularizer":null,"activity_regularizer":null,"kernel_constraint":null,"bias_constraint":null,"name":"dense_Dense5603","trainable":true},"inbound_nodes":[[["dense_Dense5602",0,0,{}]]]},{"name":"dense_Dense5604","class_name":"Dense","config":{"units":1,"activation":"sigmoid","use_bias":true,"kernel_initializer":{"class_name":"VarianceScaling","config":{"scale":1,"mode":"fan_avg","distribution":"normal","seed":null}},"bias_initializer":{"class_name":"Zeros","config":{}},"kernel_regularizer":null,"bias_regularizer":null,"activity_regularizer":null,"kernel_constraint":null,"bias_constraint":null,"name":"dense_Dense5604","trainable":true},"inbound_nodes":[[["dense_Dense5603",0,0,{}]]]}],"input_layers":[["input934",0,0]],"output_layers":[["dense_Dense5604",0,0]]},"keras_version":"tfjs-layers 3.9.0","backend":"tensor_flow.js"},"weightsManifest":[{"paths":["weights.bin"],"weights":[{"name":"dense_Dense5599/kernel","shape":[3,2],"dtype":"float32"},{"name":"dense_Dense5599/bias","shape":[2],"dtype":"float32"},{"name":"dense_Dense5600/kernel","shape":[2,16],"dtype":"float32"},{"name":"dense_Dense5600/bias","shape":[16],"dtype":"float32"},{"name":"dense_Dense5601/kernel","shape":[16,2],"dtype":"float32"},{"name":"dense_Dense5601/bias","shape":[2],"dtype":"float32"},{"name":"dense_Dense5602/kernel","shape":[2,32],"dtype":"float32"},{"name":"dense_Dense5602/bias","shape":[32],"dtype":"float32"},{"name":"dense_Dense5603/kernel","shape":[32,8],"dtype":"float32"},{"name":"dense_Dense5603/bias","shape":[8],"dtype":"float32"},{"name":"dense_Dense5604/kernel","shape":[8,1],"dtype":"float32"},{"name":"dense_Dense5604/bias","shape":[1],"dtype":"float32"}]}]}