{"modelTopology":{"class_name":"Model","config":{"name":"model1293","layers":[{"name":"input1293","class_name":"InputLayer","config":{"batch_input_shape":[null,3],"dtype":"float32","sparse":false,"name":"input1293"},"inbound_nodes":[]},{"name":"dense_Dense7753","class_name":"Dense","config":{"units":1,"activation":"relu","use_bias":true,"kernel_initializer":{"class_name":"VarianceScaling","config":{"scale":1,"mode":"fan_avg","distribution":"normal","seed":null}},"bias_initializer":{"class_name":"Zeros","config":{}},"kernel_regularizer":null,"bias_regularizer":null,"activity_regularizer":null,"kernel_constraint":null,"bias_constraint":null,"name":"dense_Dense7753","trainable":true},"inbound_nodes":[[["input1293",0,0,{}]]]},{"name":"dense_Dense7754","class_name":"Dense","config":{"units":32,"activation":"relu","use_bias":true,"kernel_initializer":{"class_name":"VarianceScaling","config":{"scale":1,"mode":"fan_avg","distribution":"normal","seed":null}},"bias_initializer":{"class_name":"Zeros","config":{}},"kernel_regularizer":null,"bias_regularizer":null,"activity_regularizer":null,"kernel_constraint":null,"bias_constraint":null,"name":"dense_Dense7754","trainable":true},"inbound_nodes":[[["dense_Dense7753",0,0,{}]]]},{"name":"dense_Dense7755","class_name":"Dense","config":{"units":32,"activation":"relu","use_bias":true,"kernel_initializer":{"class_name":"VarianceScaling","config":{"scale":1,"mode":"fan_avg","distribution":"normal","seed":null}},"bias_initializer":{"class_name":"Zeros","config":{}},"kernel_regularizer":null,"bias_regularizer":null,"activity_regularizer":null,"kernel_constraint":null,"bias_constraint":null,"name":"dense_Dense7755","trainable":true},"inbound_nodes":[[["dense_Dense7754",0,0,{}]]]},{"name":"dense_Dense7756","class_name":"Dense","config":{"units":32,"activation":"relu","use_bias":true,"kernel_initializer":{"class_name":"VarianceScaling","config":{"scale":1,"mode":"fan_avg","distribution":"normal","seed":null}},"bias_initializer":{"class_name":"Zeros","config":{}},"kernel_regularizer":null,"bias_regularizer":null,"activity_regularizer":null,"kernel_constraint":null,"bias_constraint":null,"name":"dense_Dense7756","trainable":true},"inbound_nodes":[[["dense_Dense7755",0,0,{}]]]},{"name":"dense_Dense7757","class_name":"Dense","config":{"units":4,"activation":"relu","use_bias":true,"kernel_initializer":{"class_name":"VarianceScaling","config":{"scale":1,"mode":"fan_avg","distribution":"normal","seed":null}},"bias_initializer":{"class_name":"Zeros","config":{}},"kernel_regularizer":null,"bias_regularizer":null,"activity_regularizer":null,"kernel_constraint":null,"bias_constraint":null,"name":"dense_Dense7757","trainable":true},"inbound_nodes":[[["dense_Dense7756",0,0,{}]]]},{"name":"dense_Dense7758","class_name":"Dense","config":{"units":1,"activation":"sigmoid","use_bias":true,"kernel_initializer":{"class_name":"VarianceScaling","config":{"scale":1,"mode":"fan_avg","distribution":"normal","seed":null}},"bias_initializer":{"class_name":"Zeros","config":{}},"kernel_regularizer":null,"bias_regularizer":null,"activity_regularizer":null,"kernel_constraint":null,"bias_constraint":null,"name":"dense_Dense7758","trainable":true},"inbound_nodes":[[["dense_Dense7757",0,0,{}]]]}],"input_layers":[["input1293",0,0]],"output_layers":[["dense_Dense7758",0,0]]},"keras_version":"tfjs-layers 3.9.0","backend":"tensor_flow.js"},"weightsManifest":[{"paths":["weights.bin"],"weights":[{"name":"dense_Dense7753/kernel","shape":[3,1],"dtype":"float32"},{"name":"dense_Dense7753/bias","shape":[1],"dtype":"float32"},{"name":"dense_Dense7754/kernel","shape":[1,32],"dtype":"float32"},{"name":"dense_Dense7754/bias","shape":[32],"dtype":"float32"},{"name":"dense_Dense7755/kernel","shape":[32,32],"dtype":"float32"},{"name":"dense_Dense7755/bias","shape":[32],"dtype":"float32"},{"name":"dense_Dense7756/kernel","shape":[32,32],"dtype":"float32"},{"name":"dense_Dense7756/bias","shape":[32],"dtype":"float32"},{"name":"dense_Dense7757/kernel","shape":[32,4],"dtype":"float32"},{"name":"dense_Dense7757/bias","shape":[4],"dtype":"float32"},{"name":"dense_Dense7758/kernel","shape":[4,1],"dtype":"float32"},{"name":"dense_Dense7758/bias","shape":[1],"dtype":"float32"}]}]}