{"modelTopology":{"class_name":"Model","config":{"name":"model81","layers":[{"name":"input81","class_name":"InputLayer","config":{"batch_input_shape":[null,3],"dtype":"float32","sparse":false,"name":"input81"},"inbound_nodes":[]},{"name":"dense_Dense401","class_name":"Dense","config":{"units":1,"activation":"relu","use_bias":true,"kernel_initializer":{"class_name":"VarianceScaling","config":{"scale":1,"mode":"fan_avg","distribution":"normal","seed":null}},"bias_initializer":{"class_name":"Zeros","config":{}},"kernel_regularizer":null,"bias_regularizer":null,"activity_regularizer":null,"kernel_constraint":null,"bias_constraint":null,"name":"dense_Dense401","trainable":true},"inbound_nodes":[[["input81",0,0,{}]]]},{"name":"dense_Dense402","class_name":"Dense","config":{"units":4,"activation":"relu","use_bias":true,"kernel_initializer":{"class_name":"VarianceScaling","config":{"scale":1,"mode":"fan_avg","distribution":"normal","seed":null}},"bias_initializer":{"class_name":"Zeros","config":{}},"kernel_regularizer":null,"bias_regularizer":null,"activity_regularizer":null,"kernel_constraint":null,"bias_constraint":null,"name":"dense_Dense402","trainable":true},"inbound_nodes":[[["dense_Dense401",0,0,{}]]]},{"name":"dense_Dense403","class_name":"Dense","config":{"units":2,"activation":"relu","use_bias":true,"kernel_initializer":{"class_name":"VarianceScaling","config":{"scale":1,"mode":"fan_avg","distribution":"normal","seed":null}},"bias_initializer":{"class_name":"Zeros","config":{}},"kernel_regularizer":null,"bias_regularizer":null,"activity_regularizer":null,"kernel_constraint":null,"bias_constraint":null,"name":"dense_Dense403","trainable":true},"inbound_nodes":[[["dense_Dense402",0,0,{}]]]},{"name":"dense_Dense404","class_name":"Dense","config":{"units":4,"activation":"relu","use_bias":true,"kernel_initializer":{"class_name":"VarianceScaling","config":{"scale":1,"mode":"fan_avg","distribution":"normal","seed":null}},"bias_initializer":{"class_name":"Zeros","config":{}},"kernel_regularizer":null,"bias_regularizer":null,"activity_regularizer":null,"kernel_constraint":null,"bias_constraint":null,"name":"dense_Dense404","trainable":true},"inbound_nodes":[[["dense_Dense403",0,0,{}]]]},{"name":"dense_Dense405","class_name":"Dense","config":{"units":1,"activation":"sigmoid","use_bias":true,"kernel_initializer":{"class_name":"VarianceScaling","config":{"scale":1,"mode":"fan_avg","distribution":"normal","seed":null}},"bias_initializer":{"class_name":"Zeros","config":{}},"kernel_regularizer":null,"bias_regularizer":null,"activity_regularizer":null,"kernel_constraint":null,"bias_constraint":null,"name":"dense_Dense405","trainable":true},"inbound_nodes":[[["dense_Dense404",0,0,{}]]]}],"input_layers":[["input81",0,0]],"output_layers":[["dense_Dense405",0,0]]},"keras_version":"tfjs-layers 3.9.0","backend":"tensor_flow.js"},"weightsManifest":[{"paths":["weights.bin"],"weights":[{"name":"dense_Dense401/kernel","shape":[3,1],"dtype":"float32"},{"name":"dense_Dense401/bias","shape":[1],"dtype":"float32"},{"name":"dense_Dense402/kernel","shape":[1,4],"dtype":"float32"},{"name":"dense_Dense402/bias","shape":[4],"dtype":"float32"},{"name":"dense_Dense403/kernel","shape":[4,2],"dtype":"float32"},{"name":"dense_Dense403/bias","shape":[2],"dtype":"float32"},{"name":"dense_Dense404/kernel","shape":[2,4],"dtype":"float32"},{"name":"dense_Dense404/bias","shape":[4],"dtype":"float32"},{"name":"dense_Dense405/kernel","shape":[4,1],"dtype":"float32"},{"name":"dense_Dense405/bias","shape":[1],"dtype":"float32"}]}]}