{"modelTopology":{"class_name":"Model","config":{"name":"model1018","layers":[{"name":"input1018","class_name":"InputLayer","config":{"batch_input_shape":[null,3],"dtype":"float32","sparse":false,"name":"input1018"},"inbound_nodes":[]},{"name":"dense_Dense5086","class_name":"Dense","config":{"units":16,"activation":"relu","use_bias":true,"kernel_initializer":{"class_name":"VarianceScaling","config":{"scale":1,"mode":"fan_avg","distribution":"normal","seed":null}},"bias_initializer":{"class_name":"Zeros","config":{}},"kernel_regularizer":null,"bias_regularizer":null,"activity_regularizer":null,"kernel_constraint":null,"bias_constraint":null,"name":"dense_Dense5086","trainable":true},"inbound_nodes":[[["input1018",0,0,{}]]]},{"name":"dense_Dense5087","class_name":"Dense","config":{"units":16,"activation":"relu","use_bias":true,"kernel_initializer":{"class_name":"VarianceScaling","config":{"scale":1,"mode":"fan_avg","distribution":"normal","seed":null}},"bias_initializer":{"class_name":"Zeros","config":{}},"kernel_regularizer":null,"bias_regularizer":null,"activity_regularizer":null,"kernel_constraint":null,"bias_constraint":null,"name":"dense_Dense5087","trainable":true},"inbound_nodes":[[["dense_Dense5086",0,0,{}]]]},{"name":"dense_Dense5088","class_name":"Dense","config":{"units":2,"activation":"relu","use_bias":true,"kernel_initializer":{"class_name":"VarianceScaling","config":{"scale":1,"mode":"fan_avg","distribution":"normal","seed":null}},"bias_initializer":{"class_name":"Zeros","config":{}},"kernel_regularizer":null,"bias_regularizer":null,"activity_regularizer":null,"kernel_constraint":null,"bias_constraint":null,"name":"dense_Dense5088","trainable":true},"inbound_nodes":[[["dense_Dense5087",0,0,{}]]]},{"name":"dense_Dense5089","class_name":"Dense","config":{"units":8,"activation":"relu","use_bias":true,"kernel_initializer":{"class_name":"VarianceScaling","config":{"scale":1,"mode":"fan_avg","distribution":"normal","seed":null}},"bias_initializer":{"class_name":"Zeros","config":{}},"kernel_regularizer":null,"bias_regularizer":null,"activity_regularizer":null,"kernel_constraint":null,"bias_constraint":null,"name":"dense_Dense5089","trainable":true},"inbound_nodes":[[["dense_Dense5088",0,0,{}]]]},{"name":"dense_Dense5090","class_name":"Dense","config":{"units":1,"activation":"sigmoid","use_bias":true,"kernel_initializer":{"class_name":"VarianceScaling","config":{"scale":1,"mode":"fan_avg","distribution":"normal","seed":null}},"bias_initializer":{"class_name":"Zeros","config":{}},"kernel_regularizer":null,"bias_regularizer":null,"activity_regularizer":null,"kernel_constraint":null,"bias_constraint":null,"name":"dense_Dense5090","trainable":true},"inbound_nodes":[[["dense_Dense5089",0,0,{}]]]}],"input_layers":[["input1018",0,0]],"output_layers":[["dense_Dense5090",0,0]]},"keras_version":"tfjs-layers 3.9.0","backend":"tensor_flow.js"},"weightsManifest":[{"paths":["weights.bin"],"weights":[{"name":"dense_Dense5086/kernel","shape":[3,16],"dtype":"float32"},{"name":"dense_Dense5086/bias","shape":[16],"dtype":"float32"},{"name":"dense_Dense5087/kernel","shape":[16,16],"dtype":"float32"},{"name":"dense_Dense5087/bias","shape":[16],"dtype":"float32"},{"name":"dense_Dense5088/kernel","shape":[16,2],"dtype":"float32"},{"name":"dense_Dense5088/bias","shape":[2],"dtype":"float32"},{"name":"dense_Dense5089/kernel","shape":[2,8],"dtype":"float32"},{"name":"dense_Dense5089/bias","shape":[8],"dtype":"float32"},{"name":"dense_Dense5090/kernel","shape":[8,1],"dtype":"float32"},{"name":"dense_Dense5090/bias","shape":[1],"dtype":"float32"}]}]}