{"modelTopology":{"class_name":"Model","config":{"name":"model652","layers":[{"name":"input652","class_name":"InputLayer","config":{"batch_input_shape":[null,3],"dtype":"float32","sparse":false,"name":"input652"},"inbound_nodes":[]},{"name":"dense_Dense3907","class_name":"Dense","config":{"units":16,"activation":"relu","use_bias":true,"kernel_initializer":{"class_name":"VarianceScaling","config":{"scale":1,"mode":"fan_avg","distribution":"normal","seed":null}},"bias_initializer":{"class_name":"Zeros","config":{}},"kernel_regularizer":null,"bias_regularizer":null,"activity_regularizer":null,"kernel_constraint":null,"bias_constraint":null,"name":"dense_Dense3907","trainable":true},"inbound_nodes":[[["input652",0,0,{}]]]},{"name":"dense_Dense3908","class_name":"Dense","config":{"units":8,"activation":"relu","use_bias":true,"kernel_initializer":{"class_name":"VarianceScaling","config":{"scale":1,"mode":"fan_avg","distribution":"normal","seed":null}},"bias_initializer":{"class_name":"Zeros","config":{}},"kernel_regularizer":null,"bias_regularizer":null,"activity_regularizer":null,"kernel_constraint":null,"bias_constraint":null,"name":"dense_Dense3908","trainable":true},"inbound_nodes":[[["dense_Dense3907",0,0,{}]]]},{"name":"dense_Dense3909","class_name":"Dense","config":{"units":1,"activation":"relu","use_bias":true,"kernel_initializer":{"class_name":"VarianceScaling","config":{"scale":1,"mode":"fan_avg","distribution":"normal","seed":null}},"bias_initializer":{"class_name":"Zeros","config":{}},"kernel_regularizer":null,"bias_regularizer":null,"activity_regularizer":null,"kernel_constraint":null,"bias_constraint":null,"name":"dense_Dense3909","trainable":true},"inbound_nodes":[[["dense_Dense3908",0,0,{}]]]},{"name":"dense_Dense3910","class_name":"Dense","config":{"units":1,"activation":"relu","use_bias":true,"kernel_initializer":{"class_name":"VarianceScaling","config":{"scale":1,"mode":"fan_avg","distribution":"normal","seed":null}},"bias_initializer":{"class_name":"Zeros","config":{}},"kernel_regularizer":null,"bias_regularizer":null,"activity_regularizer":null,"kernel_constraint":null,"bias_constraint":null,"name":"dense_Dense3910","trainable":true},"inbound_nodes":[[["dense_Dense3909",0,0,{}]]]},{"name":"dense_Dense3911","class_name":"Dense","config":{"units":8,"activation":"relu","use_bias":true,"kernel_initializer":{"class_name":"VarianceScaling","config":{"scale":1,"mode":"fan_avg","distribution":"normal","seed":null}},"bias_initializer":{"class_name":"Zeros","config":{}},"kernel_regularizer":null,"bias_regularizer":null,"activity_regularizer":null,"kernel_constraint":null,"bias_constraint":null,"name":"dense_Dense3911","trainable":true},"inbound_nodes":[[["dense_Dense3910",0,0,{}]]]},{"name":"dense_Dense3912","class_name":"Dense","config":{"units":1,"activation":"sigmoid","use_bias":true,"kernel_initializer":{"class_name":"VarianceScaling","config":{"scale":1,"mode":"fan_avg","distribution":"normal","seed":null}},"bias_initializer":{"class_name":"Zeros","config":{}},"kernel_regularizer":null,"bias_regularizer":null,"activity_regularizer":null,"kernel_constraint":null,"bias_constraint":null,"name":"dense_Dense3912","trainable":true},"inbound_nodes":[[["dense_Dense3911",0,0,{}]]]}],"input_layers":[["input652",0,0]],"output_layers":[["dense_Dense3912",0,0]]},"keras_version":"tfjs-layers 3.9.0","backend":"tensor_flow.js"},"weightsManifest":[{"paths":["weights.bin"],"weights":[{"name":"dense_Dense3907/kernel","shape":[3,16],"dtype":"float32"},{"name":"dense_Dense3907/bias","shape":[16],"dtype":"float32"},{"name":"dense_Dense3908/kernel","shape":[16,8],"dtype":"float32"},{"name":"dense_Dense3908/bias","shape":[8],"dtype":"float32"},{"name":"dense_Dense3909/kernel","shape":[8,1],"dtype":"float32"},{"name":"dense_Dense3909/bias","shape":[1],"dtype":"float32"},{"name":"dense_Dense3910/kernel","shape":[1,1],"dtype":"float32"},{"name":"dense_Dense3910/bias","shape":[1],"dtype":"float32"},{"name":"dense_Dense3911/kernel","shape":[1,8],"dtype":"float32"},{"name":"dense_Dense3911/bias","shape":[8],"dtype":"float32"},{"name":"dense_Dense3912/kernel","shape":[8,1],"dtype":"float32"},{"name":"dense_Dense3912/bias","shape":[1],"dtype":"float32"}]}]}