{"modelTopology":{"class_name":"Model","config":{"name":"model90","layers":[{"name":"input90","class_name":"InputLayer","config":{"batch_input_shape":[null,3],"dtype":"float32","sparse":false,"name":"input90"},"inbound_nodes":[]},{"name":"dense_Dense357","class_name":"Dense","config":{"units":4,"activation":"relu","use_bias":true,"kernel_initializer":{"class_name":"VarianceScaling","config":{"scale":1,"mode":"fan_avg","distribution":"normal","seed":null}},"bias_initializer":{"class_name":"Zeros","config":{}},"kernel_regularizer":null,"bias_regularizer":null,"activity_regularizer":null,"kernel_constraint":null,"bias_constraint":null,"name":"dense_Dense357","trainable":true},"inbound_nodes":[[["input90",0,0,{}]]]},{"name":"dense_Dense358","class_name":"Dense","config":{"units":4,"activation":"relu","use_bias":true,"kernel_initializer":{"class_name":"VarianceScaling","config":{"scale":1,"mode":"fan_avg","distribution":"normal","seed":null}},"bias_initializer":{"class_name":"Zeros","config":{}},"kernel_regularizer":null,"bias_regularizer":null,"activity_regularizer":null,"kernel_constraint":null,"bias_constraint":null,"name":"dense_Dense358","trainable":true},"inbound_nodes":[[["dense_Dense357",0,0,{}]]]},{"name":"dense_Dense359","class_name":"Dense","config":{"units":32,"activation":"relu","use_bias":true,"kernel_initializer":{"class_name":"VarianceScaling","config":{"scale":1,"mode":"fan_avg","distribution":"normal","seed":null}},"bias_initializer":{"class_name":"Zeros","config":{}},"kernel_regularizer":null,"bias_regularizer":null,"activity_regularizer":null,"kernel_constraint":null,"bias_constraint":null,"name":"dense_Dense359","trainable":true},"inbound_nodes":[[["dense_Dense358",0,0,{}]]]},{"name":"dense_Dense360","class_name":"Dense","config":{"units":1,"activation":"sigmoid","use_bias":true,"kernel_initializer":{"class_name":"VarianceScaling","config":{"scale":1,"mode":"fan_avg","distribution":"normal","seed":null}},"bias_initializer":{"class_name":"Zeros","config":{}},"kernel_regularizer":null,"bias_regularizer":null,"activity_regularizer":null,"kernel_constraint":null,"bias_constraint":null,"name":"dense_Dense360","trainable":true},"inbound_nodes":[[["dense_Dense359",0,0,{}]]]}],"input_layers":[["input90",0,0]],"output_layers":[["dense_Dense360",0,0]]},"keras_version":"tfjs-layers 3.9.0","backend":"tensor_flow.js"},"weightsManifest":[{"paths":["weights.bin"],"weights":[{"name":"dense_Dense357/kernel","shape":[3,4],"dtype":"float32"},{"name":"dense_Dense357/bias","shape":[4],"dtype":"float32"},{"name":"dense_Dense358/kernel","shape":[4,4],"dtype":"float32"},{"name":"dense_Dense358/bias","shape":[4],"dtype":"float32"},{"name":"dense_Dense359/kernel","shape":[4,32],"dtype":"float32"},{"name":"dense_Dense359/bias","shape":[32],"dtype":"float32"},{"name":"dense_Dense360/kernel","shape":[32,1],"dtype":"float32"},{"name":"dense_Dense360/bias","shape":[1],"dtype":"float32"}]}]}