{"modelTopology":{"class_name":"Model","config":{"name":"model992","layers":[{"name":"input992","class_name":"InputLayer","config":{"batch_input_shape":[null,3],"dtype":"float32","sparse":false,"name":"input992"},"inbound_nodes":[]},{"name":"dense_Dense4956","class_name":"Dense","config":{"units":16,"activation":"relu","use_bias":true,"kernel_initializer":{"class_name":"VarianceScaling","config":{"scale":1,"mode":"fan_avg","distribution":"normal","seed":null}},"bias_initializer":{"class_name":"Zeros","config":{}},"kernel_regularizer":null,"bias_regularizer":null,"activity_regularizer":null,"kernel_constraint":null,"bias_constraint":null,"name":"dense_Dense4956","trainable":true},"inbound_nodes":[[["input992",0,0,{}]]]},{"name":"dense_Dense4957","class_name":"Dense","config":{"units":8,"activation":"relu","use_bias":true,"kernel_initializer":{"class_name":"VarianceScaling","config":{"scale":1,"mode":"fan_avg","distribution":"normal","seed":null}},"bias_initializer":{"class_name":"Zeros","config":{}},"kernel_regularizer":null,"bias_regularizer":null,"activity_regularizer":null,"kernel_constraint":null,"bias_constraint":null,"name":"dense_Dense4957","trainable":true},"inbound_nodes":[[["dense_Dense4956",0,0,{}]]]},{"name":"dense_Dense4958","class_name":"Dense","config":{"units":8,"activation":"relu","use_bias":true,"kernel_initializer":{"class_name":"VarianceScaling","config":{"scale":1,"mode":"fan_avg","distribution":"normal","seed":null}},"bias_initializer":{"class_name":"Zeros","config":{}},"kernel_regularizer":null,"bias_regularizer":null,"activity_regularizer":null,"kernel_constraint":null,"bias_constraint":null,"name":"dense_Dense4958","trainable":true},"inbound_nodes":[[["dense_Dense4957",0,0,{}]]]},{"name":"dense_Dense4959","class_name":"Dense","config":{"units":2,"activation":"relu","use_bias":true,"kernel_initializer":{"class_name":"VarianceScaling","config":{"scale":1,"mode":"fan_avg","distribution":"normal","seed":null}},"bias_initializer":{"class_name":"Zeros","config":{}},"kernel_regularizer":null,"bias_regularizer":null,"activity_regularizer":null,"kernel_constraint":null,"bias_constraint":null,"name":"dense_Dense4959","trainable":true},"inbound_nodes":[[["dense_Dense4958",0,0,{}]]]},{"name":"dense_Dense4960","class_name":"Dense","config":{"units":1,"activation":"sigmoid","use_bias":true,"kernel_initializer":{"class_name":"VarianceScaling","config":{"scale":1,"mode":"fan_avg","distribution":"normal","seed":null}},"bias_initializer":{"class_name":"Zeros","config":{}},"kernel_regularizer":null,"bias_regularizer":null,"activity_regularizer":null,"kernel_constraint":null,"bias_constraint":null,"name":"dense_Dense4960","trainable":true},"inbound_nodes":[[["dense_Dense4959",0,0,{}]]]}],"input_layers":[["input992",0,0]],"output_layers":[["dense_Dense4960",0,0]]},"keras_version":"tfjs-layers 3.9.0","backend":"tensor_flow.js"},"weightsManifest":[{"paths":["weights.bin"],"weights":[{"name":"dense_Dense4956/kernel","shape":[3,16],"dtype":"float32"},{"name":"dense_Dense4956/bias","shape":[16],"dtype":"float32"},{"name":"dense_Dense4957/kernel","shape":[16,8],"dtype":"float32"},{"name":"dense_Dense4957/bias","shape":[8],"dtype":"float32"},{"name":"dense_Dense4958/kernel","shape":[8,8],"dtype":"float32"},{"name":"dense_Dense4958/bias","shape":[8],"dtype":"float32"},{"name":"dense_Dense4959/kernel","shape":[8,2],"dtype":"float32"},{"name":"dense_Dense4959/bias","shape":[2],"dtype":"float32"},{"name":"dense_Dense4960/kernel","shape":[2,1],"dtype":"float32"},{"name":"dense_Dense4960/bias","shape":[1],"dtype":"float32"}]}]}