{"modelTopology":{"class_name":"Model","config":{"name":"model841","layers":[{"name":"input841","class_name":"InputLayer","config":{"batch_input_shape":[null,3],"dtype":"float32","sparse":false,"name":"input841"},"inbound_nodes":[]},{"name":"dense_Dense5041","class_name":"Dense","config":{"units":32,"activation":"relu","use_bias":true,"kernel_initializer":{"class_name":"VarianceScaling","config":{"scale":1,"mode":"fan_avg","distribution":"normal","seed":null}},"bias_initializer":{"class_name":"Zeros","config":{}},"kernel_regularizer":null,"bias_regularizer":null,"activity_regularizer":null,"kernel_constraint":null,"bias_constraint":null,"name":"dense_Dense5041","trainable":true},"inbound_nodes":[[["input841",0,0,{}]]]},{"name":"dense_Dense5042","class_name":"Dense","config":{"units":8,"activation":"relu","use_bias":true,"kernel_initializer":{"class_name":"VarianceScaling","config":{"scale":1,"mode":"fan_avg","distribution":"normal","seed":null}},"bias_initializer":{"class_name":"Zeros","config":{}},"kernel_regularizer":null,"bias_regularizer":null,"activity_regularizer":null,"kernel_constraint":null,"bias_constraint":null,"name":"dense_Dense5042","trainable":true},"inbound_nodes":[[["dense_Dense5041",0,0,{}]]]},{"name":"dense_Dense5043","class_name":"Dense","config":{"units":32,"activation":"relu","use_bias":true,"kernel_initializer":{"class_name":"VarianceScaling","config":{"scale":1,"mode":"fan_avg","distribution":"normal","seed":null}},"bias_initializer":{"class_name":"Zeros","config":{}},"kernel_regularizer":null,"bias_regularizer":null,"activity_regularizer":null,"kernel_constraint":null,"bias_constraint":null,"name":"dense_Dense5043","trainable":true},"inbound_nodes":[[["dense_Dense5042",0,0,{}]]]},{"name":"dense_Dense5044","class_name":"Dense","config":{"units":4,"activation":"relu","use_bias":true,"kernel_initializer":{"class_name":"VarianceScaling","config":{"scale":1,"mode":"fan_avg","distribution":"normal","seed":null}},"bias_initializer":{"class_name":"Zeros","config":{}},"kernel_regularizer":null,"bias_regularizer":null,"activity_regularizer":null,"kernel_constraint":null,"bias_constraint":null,"name":"dense_Dense5044","trainable":true},"inbound_nodes":[[["dense_Dense5043",0,0,{}]]]},{"name":"dense_Dense5045","class_name":"Dense","config":{"units":1,"activation":"relu","use_bias":true,"kernel_initializer":{"class_name":"VarianceScaling","config":{"scale":1,"mode":"fan_avg","distribution":"normal","seed":null}},"bias_initializer":{"class_name":"Zeros","config":{}},"kernel_regularizer":null,"bias_regularizer":null,"activity_regularizer":null,"kernel_constraint":null,"bias_constraint":null,"name":"dense_Dense5045","trainable":true},"inbound_nodes":[[["dense_Dense5044",0,0,{}]]]},{"name":"dense_Dense5046","class_name":"Dense","config":{"units":1,"activation":"sigmoid","use_bias":true,"kernel_initializer":{"class_name":"VarianceScaling","config":{"scale":1,"mode":"fan_avg","distribution":"normal","seed":null}},"bias_initializer":{"class_name":"Zeros","config":{}},"kernel_regularizer":null,"bias_regularizer":null,"activity_regularizer":null,"kernel_constraint":null,"bias_constraint":null,"name":"dense_Dense5046","trainable":true},"inbound_nodes":[[["dense_Dense5045",0,0,{}]]]}],"input_layers":[["input841",0,0]],"output_layers":[["dense_Dense5046",0,0]]},"keras_version":"tfjs-layers 3.9.0","backend":"tensor_flow.js"},"weightsManifest":[{"paths":["weights.bin"],"weights":[{"name":"dense_Dense5041/kernel","shape":[3,32],"dtype":"float32"},{"name":"dense_Dense5041/bias","shape":[32],"dtype":"float32"},{"name":"dense_Dense5042/kernel","shape":[32,8],"dtype":"float32"},{"name":"dense_Dense5042/bias","shape":[8],"dtype":"float32"},{"name":"dense_Dense5043/kernel","shape":[8,32],"dtype":"float32"},{"name":"dense_Dense5043/bias","shape":[32],"dtype":"float32"},{"name":"dense_Dense5044/kernel","shape":[32,4],"dtype":"float32"},{"name":"dense_Dense5044/bias","shape":[4],"dtype":"float32"},{"name":"dense_Dense5045/kernel","shape":[4,1],"dtype":"float32"},{"name":"dense_Dense5045/bias","shape":[1],"dtype":"float32"},{"name":"dense_Dense5046/kernel","shape":[1,1],"dtype":"float32"},{"name":"dense_Dense5046/bias","shape":[1],"dtype":"float32"}]}]}