{"modelTopology":{"class_name":"Model","config":{"name":"model548","layers":[{"name":"input548","class_name":"InputLayer","config":{"batch_input_shape":[null,3],"dtype":"float32","sparse":false,"name":"input548"},"inbound_nodes":[]},{"name":"dense_Dense3283","class_name":"Dense","config":{"units":4,"activation":"relu","use_bias":true,"kernel_initializer":{"class_name":"VarianceScaling","config":{"scale":1,"mode":"fan_avg","distribution":"normal","seed":null}},"bias_initializer":{"class_name":"Zeros","config":{}},"kernel_regularizer":null,"bias_regularizer":null,"activity_regularizer":null,"kernel_constraint":null,"bias_constraint":null,"name":"dense_Dense3283","trainable":true},"inbound_nodes":[[["input548",0,0,{}]]]},{"name":"dense_Dense3284","class_name":"Dense","config":{"units":4,"activation":"relu","use_bias":true,"kernel_initializer":{"class_name":"VarianceScaling","config":{"scale":1,"mode":"fan_avg","distribution":"normal","seed":null}},"bias_initializer":{"class_name":"Zeros","config":{}},"kernel_regularizer":null,"bias_regularizer":null,"activity_regularizer":null,"kernel_constraint":null,"bias_constraint":null,"name":"dense_Dense3284","trainable":true},"inbound_nodes":[[["dense_Dense3283",0,0,{}]]]},{"name":"dense_Dense3285","class_name":"Dense","config":{"units":8,"activation":"relu","use_bias":true,"kernel_initializer":{"class_name":"VarianceScaling","config":{"scale":1,"mode":"fan_avg","distribution":"normal","seed":null}},"bias_initializer":{"class_name":"Zeros","config":{}},"kernel_regularizer":null,"bias_regularizer":null,"activity_regularizer":null,"kernel_constraint":null,"bias_constraint":null,"name":"dense_Dense3285","trainable":true},"inbound_nodes":[[["dense_Dense3284",0,0,{}]]]},{"name":"dense_Dense3286","class_name":"Dense","config":{"units":2,"activation":"relu","use_bias":true,"kernel_initializer":{"class_name":"VarianceScaling","config":{"scale":1,"mode":"fan_avg","distribution":"normal","seed":null}},"bias_initializer":{"class_name":"Zeros","config":{}},"kernel_regularizer":null,"bias_regularizer":null,"activity_regularizer":null,"kernel_constraint":null,"bias_constraint":null,"name":"dense_Dense3286","trainable":true},"inbound_nodes":[[["dense_Dense3285",0,0,{}]]]},{"name":"dense_Dense3287","class_name":"Dense","config":{"units":2,"activation":"relu","use_bias":true,"kernel_initializer":{"class_name":"VarianceScaling","config":{"scale":1,"mode":"fan_avg","distribution":"normal","seed":null}},"bias_initializer":{"class_name":"Zeros","config":{}},"kernel_regularizer":null,"bias_regularizer":null,"activity_regularizer":null,"kernel_constraint":null,"bias_constraint":null,"name":"dense_Dense3287","trainable":true},"inbound_nodes":[[["dense_Dense3286",0,0,{}]]]},{"name":"dense_Dense3288","class_name":"Dense","config":{"units":1,"activation":"sigmoid","use_bias":true,"kernel_initializer":{"class_name":"VarianceScaling","config":{"scale":1,"mode":"fan_avg","distribution":"normal","seed":null}},"bias_initializer":{"class_name":"Zeros","config":{}},"kernel_regularizer":null,"bias_regularizer":null,"activity_regularizer":null,"kernel_constraint":null,"bias_constraint":null,"name":"dense_Dense3288","trainable":true},"inbound_nodes":[[["dense_Dense3287",0,0,{}]]]}],"input_layers":[["input548",0,0]],"output_layers":[["dense_Dense3288",0,0]]},"keras_version":"tfjs-layers 3.9.0","backend":"tensor_flow.js"},"weightsManifest":[{"paths":["weights.bin"],"weights":[{"name":"dense_Dense3283/kernel","shape":[3,4],"dtype":"float32"},{"name":"dense_Dense3283/bias","shape":[4],"dtype":"float32"},{"name":"dense_Dense3284/kernel","shape":[4,4],"dtype":"float32"},{"name":"dense_Dense3284/bias","shape":[4],"dtype":"float32"},{"name":"dense_Dense3285/kernel","shape":[4,8],"dtype":"float32"},{"name":"dense_Dense3285/bias","shape":[8],"dtype":"float32"},{"name":"dense_Dense3286/kernel","shape":[8,2],"dtype":"float32"},{"name":"dense_Dense3286/bias","shape":[2],"dtype":"float32"},{"name":"dense_Dense3287/kernel","shape":[2,2],"dtype":"float32"},{"name":"dense_Dense3287/bias","shape":[2],"dtype":"float32"},{"name":"dense_Dense3288/kernel","shape":[2,1],"dtype":"float32"},{"name":"dense_Dense3288/bias","shape":[1],"dtype":"float32"}]}]}