{"modelTopology":{"class_name":"Model","config":{"name":"model371","layers":[{"name":"input371","class_name":"InputLayer","config":{"batch_input_shape":[null,3],"dtype":"float32","sparse":false,"name":"input371"},"inbound_nodes":[]},{"name":"dense_Dense1851","class_name":"Dense","config":{"units":2,"activation":"relu","use_bias":true,"kernel_initializer":{"class_name":"VarianceScaling","config":{"scale":1,"mode":"fan_avg","distribution":"normal","seed":null}},"bias_initializer":{"class_name":"Zeros","config":{}},"kernel_regularizer":null,"bias_regularizer":null,"activity_regularizer":null,"kernel_constraint":null,"bias_constraint":null,"name":"dense_Dense1851","trainable":true},"inbound_nodes":[[["input371",0,0,{}]]]},{"name":"dense_Dense1852","class_name":"Dense","config":{"units":16,"activation":"relu","use_bias":true,"kernel_initializer":{"class_name":"VarianceScaling","config":{"scale":1,"mode":"fan_avg","distribution":"normal","seed":null}},"bias_initializer":{"class_name":"Zeros","config":{}},"kernel_regularizer":null,"bias_regularizer":null,"activity_regularizer":null,"kernel_constraint":null,"bias_constraint":null,"name":"dense_Dense1852","trainable":true},"inbound_nodes":[[["dense_Dense1851",0,0,{}]]]},{"name":"dense_Dense1853","class_name":"Dense","config":{"units":2,"activation":"relu","use_bias":true,"kernel_initializer":{"class_name":"VarianceScaling","config":{"scale":1,"mode":"fan_avg","distribution":"normal","seed":null}},"bias_initializer":{"class_name":"Zeros","config":{}},"kernel_regularizer":null,"bias_regularizer":null,"activity_regularizer":null,"kernel_constraint":null,"bias_constraint":null,"name":"dense_Dense1853","trainable":true},"inbound_nodes":[[["dense_Dense1852",0,0,{}]]]},{"name":"dense_Dense1854","class_name":"Dense","config":{"units":16,"activation":"relu","use_bias":true,"kernel_initializer":{"class_name":"VarianceScaling","config":{"scale":1,"mode":"fan_avg","distribution":"normal","seed":null}},"bias_initializer":{"class_name":"Zeros","config":{}},"kernel_regularizer":null,"bias_regularizer":null,"activity_regularizer":null,"kernel_constraint":null,"bias_constraint":null,"name":"dense_Dense1854","trainable":true},"inbound_nodes":[[["dense_Dense1853",0,0,{}]]]},{"name":"dense_Dense1855","class_name":"Dense","config":{"units":1,"activation":"sigmoid","use_bias":true,"kernel_initializer":{"class_name":"VarianceScaling","config":{"scale":1,"mode":"fan_avg","distribution":"normal","seed":null}},"bias_initializer":{"class_name":"Zeros","config":{}},"kernel_regularizer":null,"bias_regularizer":null,"activity_regularizer":null,"kernel_constraint":null,"bias_constraint":null,"name":"dense_Dense1855","trainable":true},"inbound_nodes":[[["dense_Dense1854",0,0,{}]]]}],"input_layers":[["input371",0,0]],"output_layers":[["dense_Dense1855",0,0]]},"keras_version":"tfjs-layers 3.9.0","backend":"tensor_flow.js"},"weightsManifest":[{"paths":["weights.bin"],"weights":[{"name":"dense_Dense1851/kernel","shape":[3,2],"dtype":"float32"},{"name":"dense_Dense1851/bias","shape":[2],"dtype":"float32"},{"name":"dense_Dense1852/kernel","shape":[2,16],"dtype":"float32"},{"name":"dense_Dense1852/bias","shape":[16],"dtype":"float32"},{"name":"dense_Dense1853/kernel","shape":[16,2],"dtype":"float32"},{"name":"dense_Dense1853/bias","shape":[2],"dtype":"float32"},{"name":"dense_Dense1854/kernel","shape":[2,16],"dtype":"float32"},{"name":"dense_Dense1854/bias","shape":[16],"dtype":"float32"},{"name":"dense_Dense1855/kernel","shape":[16,1],"dtype":"float32"},{"name":"dense_Dense1855/bias","shape":[1],"dtype":"float32"}]}]}