{"modelTopology":{"class_name":"Model","config":{"name":"model1161","layers":[{"name":"input1161","class_name":"InputLayer","config":{"batch_input_shape":[null,3],"dtype":"float32","sparse":false,"name":"input1161"},"inbound_nodes":[]},{"name":"dense_Dense5801","class_name":"Dense","config":{"units":32,"activation":"relu","use_bias":true,"kernel_initializer":{"class_name":"VarianceScaling","config":{"scale":1,"mode":"fan_avg","distribution":"normal","seed":null}},"bias_initializer":{"class_name":"Zeros","config":{}},"kernel_regularizer":null,"bias_regularizer":null,"activity_regularizer":null,"kernel_constraint":null,"bias_constraint":null,"name":"dense_Dense5801","trainable":true},"inbound_nodes":[[["input1161",0,0,{}]]]},{"name":"dense_Dense5802","class_name":"Dense","config":{"units":4,"activation":"relu","use_bias":true,"kernel_initializer":{"class_name":"VarianceScaling","config":{"scale":1,"mode":"fan_avg","distribution":"normal","seed":null}},"bias_initializer":{"class_name":"Zeros","config":{}},"kernel_regularizer":null,"bias_regularizer":null,"activity_regularizer":null,"kernel_constraint":null,"bias_constraint":null,"name":"dense_Dense5802","trainable":true},"inbound_nodes":[[["dense_Dense5801",0,0,{}]]]},{"name":"dense_Dense5803","class_name":"Dense","config":{"units":2,"activation":"relu","use_bias":true,"kernel_initializer":{"class_name":"VarianceScaling","config":{"scale":1,"mode":"fan_avg","distribution":"normal","seed":null}},"bias_initializer":{"class_name":"Zeros","config":{}},"kernel_regularizer":null,"bias_regularizer":null,"activity_regularizer":null,"kernel_constraint":null,"bias_constraint":null,"name":"dense_Dense5803","trainable":true},"inbound_nodes":[[["dense_Dense5802",0,0,{}]]]},{"name":"dense_Dense5804","class_name":"Dense","config":{"units":4,"activation":"relu","use_bias":true,"kernel_initializer":{"class_name":"VarianceScaling","config":{"scale":1,"mode":"fan_avg","distribution":"normal","seed":null}},"bias_initializer":{"class_name":"Zeros","config":{}},"kernel_regularizer":null,"bias_regularizer":null,"activity_regularizer":null,"kernel_constraint":null,"bias_constraint":null,"name":"dense_Dense5804","trainable":true},"inbound_nodes":[[["dense_Dense5803",0,0,{}]]]},{"name":"dense_Dense5805","class_name":"Dense","config":{"units":1,"activation":"sigmoid","use_bias":true,"kernel_initializer":{"class_name":"VarianceScaling","config":{"scale":1,"mode":"fan_avg","distribution":"normal","seed":null}},"bias_initializer":{"class_name":"Zeros","config":{}},"kernel_regularizer":null,"bias_regularizer":null,"activity_regularizer":null,"kernel_constraint":null,"bias_constraint":null,"name":"dense_Dense5805","trainable":true},"inbound_nodes":[[["dense_Dense5804",0,0,{}]]]}],"input_layers":[["input1161",0,0]],"output_layers":[["dense_Dense5805",0,0]]},"keras_version":"tfjs-layers 3.9.0","backend":"tensor_flow.js"},"weightsManifest":[{"paths":["weights.bin"],"weights":[{"name":"dense_Dense5801/kernel","shape":[3,32],"dtype":"float32"},{"name":"dense_Dense5801/bias","shape":[32],"dtype":"float32"},{"name":"dense_Dense5802/kernel","shape":[32,4],"dtype":"float32"},{"name":"dense_Dense5802/bias","shape":[4],"dtype":"float32"},{"name":"dense_Dense5803/kernel","shape":[4,2],"dtype":"float32"},{"name":"dense_Dense5803/bias","shape":[2],"dtype":"float32"},{"name":"dense_Dense5804/kernel","shape":[2,4],"dtype":"float32"},{"name":"dense_Dense5804/bias","shape":[4],"dtype":"float32"},{"name":"dense_Dense5805/kernel","shape":[4,1],"dtype":"float32"},{"name":"dense_Dense5805/bias","shape":[1],"dtype":"float32"}]}]}