{"modelTopology":{"class_name":"Model","config":{"name":"model218","layers":[{"name":"input218","class_name":"InputLayer","config":{"batch_input_shape":[null,3],"dtype":"float32","sparse":false,"name":"input218"},"inbound_nodes":[]},{"name":"dense_Dense1303","class_name":"Dense","config":{"units":2,"activation":"relu","use_bias":true,"kernel_initializer":{"class_name":"VarianceScaling","config":{"scale":1,"mode":"fan_avg","distribution":"normal","seed":null}},"bias_initializer":{"class_name":"Zeros","config":{}},"kernel_regularizer":null,"bias_regularizer":null,"activity_regularizer":null,"kernel_constraint":null,"bias_constraint":null,"name":"dense_Dense1303","trainable":true},"inbound_nodes":[[["input218",0,0,{}]]]},{"name":"dense_Dense1304","class_name":"Dense","config":{"units":2,"activation":"relu","use_bias":true,"kernel_initializer":{"class_name":"VarianceScaling","config":{"scale":1,"mode":"fan_avg","distribution":"normal","seed":null}},"bias_initializer":{"class_name":"Zeros","config":{}},"kernel_regularizer":null,"bias_regularizer":null,"activity_regularizer":null,"kernel_constraint":null,"bias_constraint":null,"name":"dense_Dense1304","trainable":true},"inbound_nodes":[[["dense_Dense1303",0,0,{}]]]},{"name":"dense_Dense1305","class_name":"Dense","config":{"units":1,"activation":"relu","use_bias":true,"kernel_initializer":{"class_name":"VarianceScaling","config":{"scale":1,"mode":"fan_avg","distribution":"normal","seed":null}},"bias_initializer":{"class_name":"Zeros","config":{}},"kernel_regularizer":null,"bias_regularizer":null,"activity_regularizer":null,"kernel_constraint":null,"bias_constraint":null,"name":"dense_Dense1305","trainable":true},"inbound_nodes":[[["dense_Dense1304",0,0,{}]]]},{"name":"dense_Dense1306","class_name":"Dense","config":{"units":1,"activation":"relu","use_bias":true,"kernel_initializer":{"class_name":"VarianceScaling","config":{"scale":1,"mode":"fan_avg","distribution":"normal","seed":null}},"bias_initializer":{"class_name":"Zeros","config":{}},"kernel_regularizer":null,"bias_regularizer":null,"activity_regularizer":null,"kernel_constraint":null,"bias_constraint":null,"name":"dense_Dense1306","trainable":true},"inbound_nodes":[[["dense_Dense1305",0,0,{}]]]},{"name":"dense_Dense1307","class_name":"Dense","config":{"units":2,"activation":"relu","use_bias":true,"kernel_initializer":{"class_name":"VarianceScaling","config":{"scale":1,"mode":"fan_avg","distribution":"normal","seed":null}},"bias_initializer":{"class_name":"Zeros","config":{}},"kernel_regularizer":null,"bias_regularizer":null,"activity_regularizer":null,"kernel_constraint":null,"bias_constraint":null,"name":"dense_Dense1307","trainable":true},"inbound_nodes":[[["dense_Dense1306",0,0,{}]]]},{"name":"dense_Dense1308","class_name":"Dense","config":{"units":1,"activation":"sigmoid","use_bias":true,"kernel_initializer":{"class_name":"VarianceScaling","config":{"scale":1,"mode":"fan_avg","distribution":"normal","seed":null}},"bias_initializer":{"class_name":"Zeros","config":{}},"kernel_regularizer":null,"bias_regularizer":null,"activity_regularizer":null,"kernel_constraint":null,"bias_constraint":null,"name":"dense_Dense1308","trainable":true},"inbound_nodes":[[["dense_Dense1307",0,0,{}]]]}],"input_layers":[["input218",0,0]],"output_layers":[["dense_Dense1308",0,0]]},"keras_version":"tfjs-layers 3.9.0","backend":"tensor_flow.js"},"weightsManifest":[{"paths":["weights.bin"],"weights":[{"name":"dense_Dense1303/kernel","shape":[3,2],"dtype":"float32"},{"name":"dense_Dense1303/bias","shape":[2],"dtype":"float32"},{"name":"dense_Dense1304/kernel","shape":[2,2],"dtype":"float32"},{"name":"dense_Dense1304/bias","shape":[2],"dtype":"float32"},{"name":"dense_Dense1305/kernel","shape":[2,1],"dtype":"float32"},{"name":"dense_Dense1305/bias","shape":[1],"dtype":"float32"},{"name":"dense_Dense1306/kernel","shape":[1,1],"dtype":"float32"},{"name":"dense_Dense1306/bias","shape":[1],"dtype":"float32"},{"name":"dense_Dense1307/kernel","shape":[1,2],"dtype":"float32"},{"name":"dense_Dense1307/bias","shape":[2],"dtype":"float32"},{"name":"dense_Dense1308/kernel","shape":[2,1],"dtype":"float32"},{"name":"dense_Dense1308/bias","shape":[1],"dtype":"float32"}]}]}