{"modelTopology":{"class_name":"Model","config":{"name":"model575","layers":[{"name":"input575","class_name":"InputLayer","config":{"batch_input_shape":[null,3],"dtype":"float32","sparse":false,"name":"input575"},"inbound_nodes":[]},{"name":"dense_Dense3445","class_name":"Dense","config":{"units":4,"activation":"relu","use_bias":true,"kernel_initializer":{"class_name":"VarianceScaling","config":{"scale":1,"mode":"fan_avg","distribution":"normal","seed":null}},"bias_initializer":{"class_name":"Zeros","config":{}},"kernel_regularizer":null,"bias_regularizer":null,"activity_regularizer":null,"kernel_constraint":null,"bias_constraint":null,"name":"dense_Dense3445","trainable":true},"inbound_nodes":[[["input575",0,0,{}]]]},{"name":"dense_Dense3446","class_name":"Dense","config":{"units":4,"activation":"relu","use_bias":true,"kernel_initializer":{"class_name":"VarianceScaling","config":{"scale":1,"mode":"fan_avg","distribution":"normal","seed":null}},"bias_initializer":{"class_name":"Zeros","config":{}},"kernel_regularizer":null,"bias_regularizer":null,"activity_regularizer":null,"kernel_constraint":null,"bias_constraint":null,"name":"dense_Dense3446","trainable":true},"inbound_nodes":[[["dense_Dense3445",0,0,{}]]]},{"name":"dense_Dense3447","class_name":"Dense","config":{"units":8,"activation":"relu","use_bias":true,"kernel_initializer":{"class_name":"VarianceScaling","config":{"scale":1,"mode":"fan_avg","distribution":"normal","seed":null}},"bias_initializer":{"class_name":"Zeros","config":{}},"kernel_regularizer":null,"bias_regularizer":null,"activity_regularizer":null,"kernel_constraint":null,"bias_constraint":null,"name":"dense_Dense3447","trainable":true},"inbound_nodes":[[["dense_Dense3446",0,0,{}]]]},{"name":"dense_Dense3448","class_name":"Dense","config":{"units":32,"activation":"relu","use_bias":true,"kernel_initializer":{"class_name":"VarianceScaling","config":{"scale":1,"mode":"fan_avg","distribution":"normal","seed":null}},"bias_initializer":{"class_name":"Zeros","config":{}},"kernel_regularizer":null,"bias_regularizer":null,"activity_regularizer":null,"kernel_constraint":null,"bias_constraint":null,"name":"dense_Dense3448","trainable":true},"inbound_nodes":[[["dense_Dense3447",0,0,{}]]]},{"name":"dense_Dense3449","class_name":"Dense","config":{"units":16,"activation":"relu","use_bias":true,"kernel_initializer":{"class_name":"VarianceScaling","config":{"scale":1,"mode":"fan_avg","distribution":"normal","seed":null}},"bias_initializer":{"class_name":"Zeros","config":{}},"kernel_regularizer":null,"bias_regularizer":null,"activity_regularizer":null,"kernel_constraint":null,"bias_constraint":null,"name":"dense_Dense3449","trainable":true},"inbound_nodes":[[["dense_Dense3448",0,0,{}]]]},{"name":"dense_Dense3450","class_name":"Dense","config":{"units":1,"activation":"sigmoid","use_bias":true,"kernel_initializer":{"class_name":"VarianceScaling","config":{"scale":1,"mode":"fan_avg","distribution":"normal","seed":null}},"bias_initializer":{"class_name":"Zeros","config":{}},"kernel_regularizer":null,"bias_regularizer":null,"activity_regularizer":null,"kernel_constraint":null,"bias_constraint":null,"name":"dense_Dense3450","trainable":true},"inbound_nodes":[[["dense_Dense3449",0,0,{}]]]}],"input_layers":[["input575",0,0]],"output_layers":[["dense_Dense3450",0,0]]},"keras_version":"tfjs-layers 3.9.0","backend":"tensor_flow.js"},"weightsManifest":[{"paths":["weights.bin"],"weights":[{"name":"dense_Dense3445/kernel","shape":[3,4],"dtype":"float32"},{"name":"dense_Dense3445/bias","shape":[4],"dtype":"float32"},{"name":"dense_Dense3446/kernel","shape":[4,4],"dtype":"float32"},{"name":"dense_Dense3446/bias","shape":[4],"dtype":"float32"},{"name":"dense_Dense3447/kernel","shape":[4,8],"dtype":"float32"},{"name":"dense_Dense3447/bias","shape":[8],"dtype":"float32"},{"name":"dense_Dense3448/kernel","shape":[8,32],"dtype":"float32"},{"name":"dense_Dense3448/bias","shape":[32],"dtype":"float32"},{"name":"dense_Dense3449/kernel","shape":[32,16],"dtype":"float32"},{"name":"dense_Dense3449/bias","shape":[16],"dtype":"float32"},{"name":"dense_Dense3450/kernel","shape":[16,1],"dtype":"float32"},{"name":"dense_Dense3450/bias","shape":[1],"dtype":"float32"}]}]}