{"modelTopology":{"class_name":"Model","config":{"name":"model808","layers":[{"name":"input808","class_name":"InputLayer","config":{"batch_input_shape":[null,3],"dtype":"float32","sparse":false,"name":"input808"},"inbound_nodes":[]},{"name":"dense_Dense4843","class_name":"Dense","config":{"units":16,"activation":"relu","use_bias":true,"kernel_initializer":{"class_name":"VarianceScaling","config":{"scale":1,"mode":"fan_avg","distribution":"normal","seed":null}},"bias_initializer":{"class_name":"Zeros","config":{}},"kernel_regularizer":null,"bias_regularizer":null,"activity_regularizer":null,"kernel_constraint":null,"bias_constraint":null,"name":"dense_Dense4843","trainable":true},"inbound_nodes":[[["input808",0,0,{}]]]},{"name":"dense_Dense4844","class_name":"Dense","config":{"units":8,"activation":"relu","use_bias":true,"kernel_initializer":{"class_name":"VarianceScaling","config":{"scale":1,"mode":"fan_avg","distribution":"normal","seed":null}},"bias_initializer":{"class_name":"Zeros","config":{}},"kernel_regularizer":null,"bias_regularizer":null,"activity_regularizer":null,"kernel_constraint":null,"bias_constraint":null,"name":"dense_Dense4844","trainable":true},"inbound_nodes":[[["dense_Dense4843",0,0,{}]]]},{"name":"dense_Dense4845","class_name":"Dense","config":{"units":16,"activation":"relu","use_bias":true,"kernel_initializer":{"class_name":"VarianceScaling","config":{"scale":1,"mode":"fan_avg","distribution":"normal","seed":null}},"bias_initializer":{"class_name":"Zeros","config":{}},"kernel_regularizer":null,"bias_regularizer":null,"activity_regularizer":null,"kernel_constraint":null,"bias_constraint":null,"name":"dense_Dense4845","trainable":true},"inbound_nodes":[[["dense_Dense4844",0,0,{}]]]},{"name":"dense_Dense4846","class_name":"Dense","config":{"units":4,"activation":"relu","use_bias":true,"kernel_initializer":{"class_name":"VarianceScaling","config":{"scale":1,"mode":"fan_avg","distribution":"normal","seed":null}},"bias_initializer":{"class_name":"Zeros","config":{}},"kernel_regularizer":null,"bias_regularizer":null,"activity_regularizer":null,"kernel_constraint":null,"bias_constraint":null,"name":"dense_Dense4846","trainable":true},"inbound_nodes":[[["dense_Dense4845",0,0,{}]]]},{"name":"dense_Dense4847","class_name":"Dense","config":{"units":8,"activation":"relu","use_bias":true,"kernel_initializer":{"class_name":"VarianceScaling","config":{"scale":1,"mode":"fan_avg","distribution":"normal","seed":null}},"bias_initializer":{"class_name":"Zeros","config":{}},"kernel_regularizer":null,"bias_regularizer":null,"activity_regularizer":null,"kernel_constraint":null,"bias_constraint":null,"name":"dense_Dense4847","trainable":true},"inbound_nodes":[[["dense_Dense4846",0,0,{}]]]},{"name":"dense_Dense4848","class_name":"Dense","config":{"units":1,"activation":"sigmoid","use_bias":true,"kernel_initializer":{"class_name":"VarianceScaling","config":{"scale":1,"mode":"fan_avg","distribution":"normal","seed":null}},"bias_initializer":{"class_name":"Zeros","config":{}},"kernel_regularizer":null,"bias_regularizer":null,"activity_regularizer":null,"kernel_constraint":null,"bias_constraint":null,"name":"dense_Dense4848","trainable":true},"inbound_nodes":[[["dense_Dense4847",0,0,{}]]]}],"input_layers":[["input808",0,0]],"output_layers":[["dense_Dense4848",0,0]]},"keras_version":"tfjs-layers 3.9.0","backend":"tensor_flow.js"},"weightsManifest":[{"paths":["weights.bin"],"weights":[{"name":"dense_Dense4843/kernel","shape":[3,16],"dtype":"float32"},{"name":"dense_Dense4843/bias","shape":[16],"dtype":"float32"},{"name":"dense_Dense4844/kernel","shape":[16,8],"dtype":"float32"},{"name":"dense_Dense4844/bias","shape":[8],"dtype":"float32"},{"name":"dense_Dense4845/kernel","shape":[8,16],"dtype":"float32"},{"name":"dense_Dense4845/bias","shape":[16],"dtype":"float32"},{"name":"dense_Dense4846/kernel","shape":[16,4],"dtype":"float32"},{"name":"dense_Dense4846/bias","shape":[4],"dtype":"float32"},{"name":"dense_Dense4847/kernel","shape":[4,8],"dtype":"float32"},{"name":"dense_Dense4847/bias","shape":[8],"dtype":"float32"},{"name":"dense_Dense4848/kernel","shape":[8,1],"dtype":"float32"},{"name":"dense_Dense4848/bias","shape":[1],"dtype":"float32"}]}]}