{"modelTopology":{"class_name":"Model","config":{"name":"model491","layers":[{"name":"input491","class_name":"InputLayer","config":{"batch_input_shape":[null,3],"dtype":"float32","sparse":false,"name":"input491"},"inbound_nodes":[]},{"name":"dense_Dense2941","class_name":"Dense","config":{"units":32,"activation":"relu","use_bias":true,"kernel_initializer":{"class_name":"VarianceScaling","config":{"scale":1,"mode":"fan_avg","distribution":"normal","seed":null}},"bias_initializer":{"class_name":"Zeros","config":{}},"kernel_regularizer":null,"bias_regularizer":null,"activity_regularizer":null,"kernel_constraint":null,"bias_constraint":null,"name":"dense_Dense2941","trainable":true},"inbound_nodes":[[["input491",0,0,{}]]]},{"name":"dense_Dense2942","class_name":"Dense","config":{"units":4,"activation":"relu","use_bias":true,"kernel_initializer":{"class_name":"VarianceScaling","config":{"scale":1,"mode":"fan_avg","distribution":"normal","seed":null}},"bias_initializer":{"class_name":"Zeros","config":{}},"kernel_regularizer":null,"bias_regularizer":null,"activity_regularizer":null,"kernel_constraint":null,"bias_constraint":null,"name":"dense_Dense2942","trainable":true},"inbound_nodes":[[["dense_Dense2941",0,0,{}]]]},{"name":"dense_Dense2943","class_name":"Dense","config":{"units":2,"activation":"relu","use_bias":true,"kernel_initializer":{"class_name":"VarianceScaling","config":{"scale":1,"mode":"fan_avg","distribution":"normal","seed":null}},"bias_initializer":{"class_name":"Zeros","config":{}},"kernel_regularizer":null,"bias_regularizer":null,"activity_regularizer":null,"kernel_constraint":null,"bias_constraint":null,"name":"dense_Dense2943","trainable":true},"inbound_nodes":[[["dense_Dense2942",0,0,{}]]]},{"name":"dense_Dense2944","class_name":"Dense","config":{"units":8,"activation":"relu","use_bias":true,"kernel_initializer":{"class_name":"VarianceScaling","config":{"scale":1,"mode":"fan_avg","distribution":"normal","seed":null}},"bias_initializer":{"class_name":"Zeros","config":{}},"kernel_regularizer":null,"bias_regularizer":null,"activity_regularizer":null,"kernel_constraint":null,"bias_constraint":null,"name":"dense_Dense2944","trainable":true},"inbound_nodes":[[["dense_Dense2943",0,0,{}]]]},{"name":"dense_Dense2945","class_name":"Dense","config":{"units":16,"activation":"relu","use_bias":true,"kernel_initializer":{"class_name":"VarianceScaling","config":{"scale":1,"mode":"fan_avg","distribution":"normal","seed":null}},"bias_initializer":{"class_name":"Zeros","config":{}},"kernel_regularizer":null,"bias_regularizer":null,"activity_regularizer":null,"kernel_constraint":null,"bias_constraint":null,"name":"dense_Dense2945","trainable":true},"inbound_nodes":[[["dense_Dense2944",0,0,{}]]]},{"name":"dense_Dense2946","class_name":"Dense","config":{"units":1,"activation":"sigmoid","use_bias":true,"kernel_initializer":{"class_name":"VarianceScaling","config":{"scale":1,"mode":"fan_avg","distribution":"normal","seed":null}},"bias_initializer":{"class_name":"Zeros","config":{}},"kernel_regularizer":null,"bias_regularizer":null,"activity_regularizer":null,"kernel_constraint":null,"bias_constraint":null,"name":"dense_Dense2946","trainable":true},"inbound_nodes":[[["dense_Dense2945",0,0,{}]]]}],"input_layers":[["input491",0,0]],"output_layers":[["dense_Dense2946",0,0]]},"keras_version":"tfjs-layers 3.9.0","backend":"tensor_flow.js"},"weightsManifest":[{"paths":["weights.bin"],"weights":[{"name":"dense_Dense2941/kernel","shape":[3,32],"dtype":"float32"},{"name":"dense_Dense2941/bias","shape":[32],"dtype":"float32"},{"name":"dense_Dense2942/kernel","shape":[32,4],"dtype":"float32"},{"name":"dense_Dense2942/bias","shape":[4],"dtype":"float32"},{"name":"dense_Dense2943/kernel","shape":[4,2],"dtype":"float32"},{"name":"dense_Dense2943/bias","shape":[2],"dtype":"float32"},{"name":"dense_Dense2944/kernel","shape":[2,8],"dtype":"float32"},{"name":"dense_Dense2944/bias","shape":[8],"dtype":"float32"},{"name":"dense_Dense2945/kernel","shape":[8,16],"dtype":"float32"},{"name":"dense_Dense2945/bias","shape":[16],"dtype":"float32"},{"name":"dense_Dense2946/kernel","shape":[16,1],"dtype":"float32"},{"name":"dense_Dense2946/bias","shape":[1],"dtype":"float32"}]}]}