{"modelTopology":{"class_name":"Model","config":{"name":"model760","layers":[{"name":"input760","class_name":"InputLayer","config":{"batch_input_shape":[null,3],"dtype":"float32","sparse":false,"name":"input760"},"inbound_nodes":[]},{"name":"dense_Dense4555","class_name":"Dense","config":{"units":32,"activation":"relu","use_bias":true,"kernel_initializer":{"class_name":"VarianceScaling","config":{"scale":1,"mode":"fan_avg","distribution":"normal","seed":null}},"bias_initializer":{"class_name":"Zeros","config":{}},"kernel_regularizer":null,"bias_regularizer":null,"activity_regularizer":null,"kernel_constraint":null,"bias_constraint":null,"name":"dense_Dense4555","trainable":true},"inbound_nodes":[[["input760",0,0,{}]]]},{"name":"dense_Dense4556","class_name":"Dense","config":{"units":8,"activation":"relu","use_bias":true,"kernel_initializer":{"class_name":"VarianceScaling","config":{"scale":1,"mode":"fan_avg","distribution":"normal","seed":null}},"bias_initializer":{"class_name":"Zeros","config":{}},"kernel_regularizer":null,"bias_regularizer":null,"activity_regularizer":null,"kernel_constraint":null,"bias_constraint":null,"name":"dense_Dense4556","trainable":true},"inbound_nodes":[[["dense_Dense4555",0,0,{}]]]},{"name":"dense_Dense4557","class_name":"Dense","config":{"units":8,"activation":"relu","use_bias":true,"kernel_initializer":{"class_name":"VarianceScaling","config":{"scale":1,"mode":"fan_avg","distribution":"normal","seed":null}},"bias_initializer":{"class_name":"Zeros","config":{}},"kernel_regularizer":null,"bias_regularizer":null,"activity_regularizer":null,"kernel_constraint":null,"bias_constraint":null,"name":"dense_Dense4557","trainable":true},"inbound_nodes":[[["dense_Dense4556",0,0,{}]]]},{"name":"dense_Dense4558","class_name":"Dense","config":{"units":1,"activation":"relu","use_bias":true,"kernel_initializer":{"class_name":"VarianceScaling","config":{"scale":1,"mode":"fan_avg","distribution":"normal","seed":null}},"bias_initializer":{"class_name":"Zeros","config":{}},"kernel_regularizer":null,"bias_regularizer":null,"activity_regularizer":null,"kernel_constraint":null,"bias_constraint":null,"name":"dense_Dense4558","trainable":true},"inbound_nodes":[[["dense_Dense4557",0,0,{}]]]},{"name":"dense_Dense4559","class_name":"Dense","config":{"units":8,"activation":"relu","use_bias":true,"kernel_initializer":{"class_name":"VarianceScaling","config":{"scale":1,"mode":"fan_avg","distribution":"normal","seed":null}},"bias_initializer":{"class_name":"Zeros","config":{}},"kernel_regularizer":null,"bias_regularizer":null,"activity_regularizer":null,"kernel_constraint":null,"bias_constraint":null,"name":"dense_Dense4559","trainable":true},"inbound_nodes":[[["dense_Dense4558",0,0,{}]]]},{"name":"dense_Dense4560","class_name":"Dense","config":{"units":1,"activation":"sigmoid","use_bias":true,"kernel_initializer":{"class_name":"VarianceScaling","config":{"scale":1,"mode":"fan_avg","distribution":"normal","seed":null}},"bias_initializer":{"class_name":"Zeros","config":{}},"kernel_regularizer":null,"bias_regularizer":null,"activity_regularizer":null,"kernel_constraint":null,"bias_constraint":null,"name":"dense_Dense4560","trainable":true},"inbound_nodes":[[["dense_Dense4559",0,0,{}]]]}],"input_layers":[["input760",0,0]],"output_layers":[["dense_Dense4560",0,0]]},"keras_version":"tfjs-layers 3.9.0","backend":"tensor_flow.js"},"weightsManifest":[{"paths":["weights.bin"],"weights":[{"name":"dense_Dense4555/kernel","shape":[3,32],"dtype":"float32"},{"name":"dense_Dense4555/bias","shape":[32],"dtype":"float32"},{"name":"dense_Dense4556/kernel","shape":[32,8],"dtype":"float32"},{"name":"dense_Dense4556/bias","shape":[8],"dtype":"float32"},{"name":"dense_Dense4557/kernel","shape":[8,8],"dtype":"float32"},{"name":"dense_Dense4557/bias","shape":[8],"dtype":"float32"},{"name":"dense_Dense4558/kernel","shape":[8,1],"dtype":"float32"},{"name":"dense_Dense4558/bias","shape":[1],"dtype":"float32"},{"name":"dense_Dense4559/kernel","shape":[1,8],"dtype":"float32"},{"name":"dense_Dense4559/bias","shape":[8],"dtype":"float32"},{"name":"dense_Dense4560/kernel","shape":[8,1],"dtype":"float32"},{"name":"dense_Dense4560/bias","shape":[1],"dtype":"float32"}]}]}