{"modelTopology":{"class_name":"Model","config":{"name":"model531","layers":[{"name":"input531","class_name":"InputLayer","config":{"batch_input_shape":[null,3],"dtype":"float32","sparse":false,"name":"input531"},"inbound_nodes":[]},{"name":"dense_Dense2651","class_name":"Dense","config":{"units":4,"activation":"relu","use_bias":true,"kernel_initializer":{"class_name":"VarianceScaling","config":{"scale":1,"mode":"fan_avg","distribution":"normal","seed":null}},"bias_initializer":{"class_name":"Zeros","config":{}},"kernel_regularizer":null,"bias_regularizer":null,"activity_regularizer":null,"kernel_constraint":null,"bias_constraint":null,"name":"dense_Dense2651","trainable":true},"inbound_nodes":[[["input531",0,0,{}]]]},{"name":"dense_Dense2652","class_name":"Dense","config":{"units":4,"activation":"relu","use_bias":true,"kernel_initializer":{"class_name":"VarianceScaling","config":{"scale":1,"mode":"fan_avg","distribution":"normal","seed":null}},"bias_initializer":{"class_name":"Zeros","config":{}},"kernel_regularizer":null,"bias_regularizer":null,"activity_regularizer":null,"kernel_constraint":null,"bias_constraint":null,"name":"dense_Dense2652","trainable":true},"inbound_nodes":[[["dense_Dense2651",0,0,{}]]]},{"name":"dense_Dense2653","class_name":"Dense","config":{"units":16,"activation":"relu","use_bias":true,"kernel_initializer":{"class_name":"VarianceScaling","config":{"scale":1,"mode":"fan_avg","distribution":"normal","seed":null}},"bias_initializer":{"class_name":"Zeros","config":{}},"kernel_regularizer":null,"bias_regularizer":null,"activity_regularizer":null,"kernel_constraint":null,"bias_constraint":null,"name":"dense_Dense2653","trainable":true},"inbound_nodes":[[["dense_Dense2652",0,0,{}]]]},{"name":"dense_Dense2654","class_name":"Dense","config":{"units":4,"activation":"relu","use_bias":true,"kernel_initializer":{"class_name":"VarianceScaling","config":{"scale":1,"mode":"fan_avg","distribution":"normal","seed":null}},"bias_initializer":{"class_name":"Zeros","config":{}},"kernel_regularizer":null,"bias_regularizer":null,"activity_regularizer":null,"kernel_constraint":null,"bias_constraint":null,"name":"dense_Dense2654","trainable":true},"inbound_nodes":[[["dense_Dense2653",0,0,{}]]]},{"name":"dense_Dense2655","class_name":"Dense","config":{"units":1,"activation":"sigmoid","use_bias":true,"kernel_initializer":{"class_name":"VarianceScaling","config":{"scale":1,"mode":"fan_avg","distribution":"normal","seed":null}},"bias_initializer":{"class_name":"Zeros","config":{}},"kernel_regularizer":null,"bias_regularizer":null,"activity_regularizer":null,"kernel_constraint":null,"bias_constraint":null,"name":"dense_Dense2655","trainable":true},"inbound_nodes":[[["dense_Dense2654",0,0,{}]]]}],"input_layers":[["input531",0,0]],"output_layers":[["dense_Dense2655",0,0]]},"keras_version":"tfjs-layers 3.9.0","backend":"tensor_flow.js"},"weightsManifest":[{"paths":["weights.bin"],"weights":[{"name":"dense_Dense2651/kernel","shape":[3,4],"dtype":"float32"},{"name":"dense_Dense2651/bias","shape":[4],"dtype":"float32"},{"name":"dense_Dense2652/kernel","shape":[4,4],"dtype":"float32"},{"name":"dense_Dense2652/bias","shape":[4],"dtype":"float32"},{"name":"dense_Dense2653/kernel","shape":[4,16],"dtype":"float32"},{"name":"dense_Dense2653/bias","shape":[16],"dtype":"float32"},{"name":"dense_Dense2654/kernel","shape":[16,4],"dtype":"float32"},{"name":"dense_Dense2654/bias","shape":[4],"dtype":"float32"},{"name":"dense_Dense2655/kernel","shape":[4,1],"dtype":"float32"},{"name":"dense_Dense2655/bias","shape":[1],"dtype":"float32"}]}]}