{"modelTopology":{"class_name":"Model","config":{"name":"model914","layers":[{"name":"input914","class_name":"InputLayer","config":{"batch_input_shape":[null,3],"dtype":"float32","sparse":false,"name":"input914"},"inbound_nodes":[]},{"name":"dense_Dense5479","class_name":"Dense","config":{"units":16,"activation":"relu","use_bias":true,"kernel_initializer":{"class_name":"VarianceScaling","config":{"scale":1,"mode":"fan_avg","distribution":"normal","seed":null}},"bias_initializer":{"class_name":"Zeros","config":{}},"kernel_regularizer":null,"bias_regularizer":null,"activity_regularizer":null,"kernel_constraint":null,"bias_constraint":null,"name":"dense_Dense5479","trainable":true},"inbound_nodes":[[["input914",0,0,{}]]]},{"name":"dense_Dense5480","class_name":"Dense","config":{"units":16,"activation":"relu","use_bias":true,"kernel_initializer":{"class_name":"VarianceScaling","config":{"scale":1,"mode":"fan_avg","distribution":"normal","seed":null}},"bias_initializer":{"class_name":"Zeros","config":{}},"kernel_regularizer":null,"bias_regularizer":null,"activity_regularizer":null,"kernel_constraint":null,"bias_constraint":null,"name":"dense_Dense5480","trainable":true},"inbound_nodes":[[["dense_Dense5479",0,0,{}]]]},{"name":"dense_Dense5481","class_name":"Dense","config":{"units":2,"activation":"relu","use_bias":true,"kernel_initializer":{"class_name":"VarianceScaling","config":{"scale":1,"mode":"fan_avg","distribution":"normal","seed":null}},"bias_initializer":{"class_name":"Zeros","config":{}},"kernel_regularizer":null,"bias_regularizer":null,"activity_regularizer":null,"kernel_constraint":null,"bias_constraint":null,"name":"dense_Dense5481","trainable":true},"inbound_nodes":[[["dense_Dense5480",0,0,{}]]]},{"name":"dense_Dense5482","class_name":"Dense","config":{"units":4,"activation":"relu","use_bias":true,"kernel_initializer":{"class_name":"VarianceScaling","config":{"scale":1,"mode":"fan_avg","distribution":"normal","seed":null}},"bias_initializer":{"class_name":"Zeros","config":{}},"kernel_regularizer":null,"bias_regularizer":null,"activity_regularizer":null,"kernel_constraint":null,"bias_constraint":null,"name":"dense_Dense5482","trainable":true},"inbound_nodes":[[["dense_Dense5481",0,0,{}]]]},{"name":"dense_Dense5483","class_name":"Dense","config":{"units":2,"activation":"relu","use_bias":true,"kernel_initializer":{"class_name":"VarianceScaling","config":{"scale":1,"mode":"fan_avg","distribution":"normal","seed":null}},"bias_initializer":{"class_name":"Zeros","config":{}},"kernel_regularizer":null,"bias_regularizer":null,"activity_regularizer":null,"kernel_constraint":null,"bias_constraint":null,"name":"dense_Dense5483","trainable":true},"inbound_nodes":[[["dense_Dense5482",0,0,{}]]]},{"name":"dense_Dense5484","class_name":"Dense","config":{"units":1,"activation":"sigmoid","use_bias":true,"kernel_initializer":{"class_name":"VarianceScaling","config":{"scale":1,"mode":"fan_avg","distribution":"normal","seed":null}},"bias_initializer":{"class_name":"Zeros","config":{}},"kernel_regularizer":null,"bias_regularizer":null,"activity_regularizer":null,"kernel_constraint":null,"bias_constraint":null,"name":"dense_Dense5484","trainable":true},"inbound_nodes":[[["dense_Dense5483",0,0,{}]]]}],"input_layers":[["input914",0,0]],"output_layers":[["dense_Dense5484",0,0]]},"keras_version":"tfjs-layers 3.9.0","backend":"tensor_flow.js"},"weightsManifest":[{"paths":["weights.bin"],"weights":[{"name":"dense_Dense5479/kernel","shape":[3,16],"dtype":"float32"},{"name":"dense_Dense5479/bias","shape":[16],"dtype":"float32"},{"name":"dense_Dense5480/kernel","shape":[16,16],"dtype":"float32"},{"name":"dense_Dense5480/bias","shape":[16],"dtype":"float32"},{"name":"dense_Dense5481/kernel","shape":[16,2],"dtype":"float32"},{"name":"dense_Dense5481/bias","shape":[2],"dtype":"float32"},{"name":"dense_Dense5482/kernel","shape":[2,4],"dtype":"float32"},{"name":"dense_Dense5482/bias","shape":[4],"dtype":"float32"},{"name":"dense_Dense5483/kernel","shape":[4,2],"dtype":"float32"},{"name":"dense_Dense5483/bias","shape":[2],"dtype":"float32"},{"name":"dense_Dense5484/kernel","shape":[2,1],"dtype":"float32"},{"name":"dense_Dense5484/bias","shape":[1],"dtype":"float32"}]}]}