{"modelTopology":{"class_name":"Model","config":{"name":"model826","layers":[{"name":"input826","class_name":"InputLayer","config":{"batch_input_shape":[null,3],"dtype":"float32","sparse":false,"name":"input826"},"inbound_nodes":[]},{"name":"dense_Dense4951","class_name":"Dense","config":{"units":16,"activation":"relu","use_bias":true,"kernel_initializer":{"class_name":"VarianceScaling","config":{"scale":1,"mode":"fan_avg","distribution":"normal","seed":null}},"bias_initializer":{"class_name":"Zeros","config":{}},"kernel_regularizer":null,"bias_regularizer":null,"activity_regularizer":null,"kernel_constraint":null,"bias_constraint":null,"name":"dense_Dense4951","trainable":true},"inbound_nodes":[[["input826",0,0,{}]]]},{"name":"dense_Dense4952","class_name":"Dense","config":{"units":8,"activation":"relu","use_bias":true,"kernel_initializer":{"class_name":"VarianceScaling","config":{"scale":1,"mode":"fan_avg","distribution":"normal","seed":null}},"bias_initializer":{"class_name":"Zeros","config":{}},"kernel_regularizer":null,"bias_regularizer":null,"activity_regularizer":null,"kernel_constraint":null,"bias_constraint":null,"name":"dense_Dense4952","trainable":true},"inbound_nodes":[[["dense_Dense4951",0,0,{}]]]},{"name":"dense_Dense4953","class_name":"Dense","config":{"units":16,"activation":"relu","use_bias":true,"kernel_initializer":{"class_name":"VarianceScaling","config":{"scale":1,"mode":"fan_avg","distribution":"normal","seed":null}},"bias_initializer":{"class_name":"Zeros","config":{}},"kernel_regularizer":null,"bias_regularizer":null,"activity_regularizer":null,"kernel_constraint":null,"bias_constraint":null,"name":"dense_Dense4953","trainable":true},"inbound_nodes":[[["dense_Dense4952",0,0,{}]]]},{"name":"dense_Dense4954","class_name":"Dense","config":{"units":32,"activation":"relu","use_bias":true,"kernel_initializer":{"class_name":"VarianceScaling","config":{"scale":1,"mode":"fan_avg","distribution":"normal","seed":null}},"bias_initializer":{"class_name":"Zeros","config":{}},"kernel_regularizer":null,"bias_regularizer":null,"activity_regularizer":null,"kernel_constraint":null,"bias_constraint":null,"name":"dense_Dense4954","trainable":true},"inbound_nodes":[[["dense_Dense4953",0,0,{}]]]},{"name":"dense_Dense4955","class_name":"Dense","config":{"units":8,"activation":"relu","use_bias":true,"kernel_initializer":{"class_name":"VarianceScaling","config":{"scale":1,"mode":"fan_avg","distribution":"normal","seed":null}},"bias_initializer":{"class_name":"Zeros","config":{}},"kernel_regularizer":null,"bias_regularizer":null,"activity_regularizer":null,"kernel_constraint":null,"bias_constraint":null,"name":"dense_Dense4955","trainable":true},"inbound_nodes":[[["dense_Dense4954",0,0,{}]]]},{"name":"dense_Dense4956","class_name":"Dense","config":{"units":1,"activation":"sigmoid","use_bias":true,"kernel_initializer":{"class_name":"VarianceScaling","config":{"scale":1,"mode":"fan_avg","distribution":"normal","seed":null}},"bias_initializer":{"class_name":"Zeros","config":{}},"kernel_regularizer":null,"bias_regularizer":null,"activity_regularizer":null,"kernel_constraint":null,"bias_constraint":null,"name":"dense_Dense4956","trainable":true},"inbound_nodes":[[["dense_Dense4955",0,0,{}]]]}],"input_layers":[["input826",0,0]],"output_layers":[["dense_Dense4956",0,0]]},"keras_version":"tfjs-layers 3.9.0","backend":"tensor_flow.js"},"weightsManifest":[{"paths":["weights.bin"],"weights":[{"name":"dense_Dense4951/kernel","shape":[3,16],"dtype":"float32"},{"name":"dense_Dense4951/bias","shape":[16],"dtype":"float32"},{"name":"dense_Dense4952/kernel","shape":[16,8],"dtype":"float32"},{"name":"dense_Dense4952/bias","shape":[8],"dtype":"float32"},{"name":"dense_Dense4953/kernel","shape":[8,16],"dtype":"float32"},{"name":"dense_Dense4953/bias","shape":[16],"dtype":"float32"},{"name":"dense_Dense4954/kernel","shape":[16,32],"dtype":"float32"},{"name":"dense_Dense4954/bias","shape":[32],"dtype":"float32"},{"name":"dense_Dense4955/kernel","shape":[32,8],"dtype":"float32"},{"name":"dense_Dense4955/bias","shape":[8],"dtype":"float32"},{"name":"dense_Dense4956/kernel","shape":[8,1],"dtype":"float32"},{"name":"dense_Dense4956/bias","shape":[1],"dtype":"float32"}]}]}