{"modelTopology":{"class_name":"Model","config":{"name":"model104","layers":[{"name":"input104","class_name":"InputLayer","config":{"batch_input_shape":[null,3],"dtype":"float32","sparse":false,"name":"input104"},"inbound_nodes":[]},{"name":"dense_Dense413","class_name":"Dense","config":{"units":4,"activation":"relu","use_bias":true,"kernel_initializer":{"class_name":"VarianceScaling","config":{"scale":1,"mode":"fan_avg","distribution":"normal","seed":null}},"bias_initializer":{"class_name":"Zeros","config":{}},"kernel_regularizer":null,"bias_regularizer":null,"activity_regularizer":null,"kernel_constraint":null,"bias_constraint":null,"name":"dense_Dense413","trainable":true},"inbound_nodes":[[["input104",0,0,{}]]]},{"name":"dense_Dense414","class_name":"Dense","config":{"units":32,"activation":"relu","use_bias":true,"kernel_initializer":{"class_name":"VarianceScaling","config":{"scale":1,"mode":"fan_avg","distribution":"normal","seed":null}},"bias_initializer":{"class_name":"Zeros","config":{}},"kernel_regularizer":null,"bias_regularizer":null,"activity_regularizer":null,"kernel_constraint":null,"bias_constraint":null,"name":"dense_Dense414","trainable":true},"inbound_nodes":[[["dense_Dense413",0,0,{}]]]},{"name":"dense_Dense415","class_name":"Dense","config":{"units":2,"activation":"relu","use_bias":true,"kernel_initializer":{"class_name":"VarianceScaling","config":{"scale":1,"mode":"fan_avg","distribution":"normal","seed":null}},"bias_initializer":{"class_name":"Zeros","config":{}},"kernel_regularizer":null,"bias_regularizer":null,"activity_regularizer":null,"kernel_constraint":null,"bias_constraint":null,"name":"dense_Dense415","trainable":true},"inbound_nodes":[[["dense_Dense414",0,0,{}]]]},{"name":"dense_Dense416","class_name":"Dense","config":{"units":1,"activation":"sigmoid","use_bias":true,"kernel_initializer":{"class_name":"VarianceScaling","config":{"scale":1,"mode":"fan_avg","distribution":"normal","seed":null}},"bias_initializer":{"class_name":"Zeros","config":{}},"kernel_regularizer":null,"bias_regularizer":null,"activity_regularizer":null,"kernel_constraint":null,"bias_constraint":null,"name":"dense_Dense416","trainable":true},"inbound_nodes":[[["dense_Dense415",0,0,{}]]]}],"input_layers":[["input104",0,0]],"output_layers":[["dense_Dense416",0,0]]},"keras_version":"tfjs-layers 3.9.0","backend":"tensor_flow.js"},"weightsManifest":[{"paths":["weights.bin"],"weights":[{"name":"dense_Dense413/kernel","shape":[3,4],"dtype":"float32"},{"name":"dense_Dense413/bias","shape":[4],"dtype":"float32"},{"name":"dense_Dense414/kernel","shape":[4,32],"dtype":"float32"},{"name":"dense_Dense414/bias","shape":[32],"dtype":"float32"},{"name":"dense_Dense415/kernel","shape":[32,2],"dtype":"float32"},{"name":"dense_Dense415/bias","shape":[2],"dtype":"float32"},{"name":"dense_Dense416/kernel","shape":[2,1],"dtype":"float32"},{"name":"dense_Dense416/bias","shape":[1],"dtype":"float32"}]}]}