{"modelTopology":{"class_name":"Model","config":{"name":"model1099","layers":[{"name":"input1099","class_name":"InputLayer","config":{"batch_input_shape":[null,3],"dtype":"float32","sparse":false,"name":"input1099"},"inbound_nodes":[]},{"name":"dense_Dense6589","class_name":"Dense","config":{"units":4,"activation":"relu","use_bias":true,"kernel_initializer":{"class_name":"VarianceScaling","config":{"scale":1,"mode":"fan_avg","distribution":"normal","seed":null}},"bias_initializer":{"class_name":"Zeros","config":{}},"kernel_regularizer":null,"bias_regularizer":null,"activity_regularizer":null,"kernel_constraint":null,"bias_constraint":null,"name":"dense_Dense6589","trainable":true},"inbound_nodes":[[["input1099",0,0,{}]]]},{"name":"dense_Dense6590","class_name":"Dense","config":{"units":32,"activation":"relu","use_bias":true,"kernel_initializer":{"class_name":"VarianceScaling","config":{"scale":1,"mode":"fan_avg","distribution":"normal","seed":null}},"bias_initializer":{"class_name":"Zeros","config":{}},"kernel_regularizer":null,"bias_regularizer":null,"activity_regularizer":null,"kernel_constraint":null,"bias_constraint":null,"name":"dense_Dense6590","trainable":true},"inbound_nodes":[[["dense_Dense6589",0,0,{}]]]},{"name":"dense_Dense6591","class_name":"Dense","config":{"units":1,"activation":"relu","use_bias":true,"kernel_initializer":{"class_name":"VarianceScaling","config":{"scale":1,"mode":"fan_avg","distribution":"normal","seed":null}},"bias_initializer":{"class_name":"Zeros","config":{}},"kernel_regularizer":null,"bias_regularizer":null,"activity_regularizer":null,"kernel_constraint":null,"bias_constraint":null,"name":"dense_Dense6591","trainable":true},"inbound_nodes":[[["dense_Dense6590",0,0,{}]]]},{"name":"dense_Dense6592","class_name":"Dense","config":{"units":8,"activation":"relu","use_bias":true,"kernel_initializer":{"class_name":"VarianceScaling","config":{"scale":1,"mode":"fan_avg","distribution":"normal","seed":null}},"bias_initializer":{"class_name":"Zeros","config":{}},"kernel_regularizer":null,"bias_regularizer":null,"activity_regularizer":null,"kernel_constraint":null,"bias_constraint":null,"name":"dense_Dense6592","trainable":true},"inbound_nodes":[[["dense_Dense6591",0,0,{}]]]},{"name":"dense_Dense6593","class_name":"Dense","config":{"units":1,"activation":"relu","use_bias":true,"kernel_initializer":{"class_name":"VarianceScaling","config":{"scale":1,"mode":"fan_avg","distribution":"normal","seed":null}},"bias_initializer":{"class_name":"Zeros","config":{}},"kernel_regularizer":null,"bias_regularizer":null,"activity_regularizer":null,"kernel_constraint":null,"bias_constraint":null,"name":"dense_Dense6593","trainable":true},"inbound_nodes":[[["dense_Dense6592",0,0,{}]]]},{"name":"dense_Dense6594","class_name":"Dense","config":{"units":1,"activation":"sigmoid","use_bias":true,"kernel_initializer":{"class_name":"VarianceScaling","config":{"scale":1,"mode":"fan_avg","distribution":"normal","seed":null}},"bias_initializer":{"class_name":"Zeros","config":{}},"kernel_regularizer":null,"bias_regularizer":null,"activity_regularizer":null,"kernel_constraint":null,"bias_constraint":null,"name":"dense_Dense6594","trainable":true},"inbound_nodes":[[["dense_Dense6593",0,0,{}]]]}],"input_layers":[["input1099",0,0]],"output_layers":[["dense_Dense6594",0,0]]},"keras_version":"tfjs-layers 3.9.0","backend":"tensor_flow.js"},"weightsManifest":[{"paths":["weights.bin"],"weights":[{"name":"dense_Dense6589/kernel","shape":[3,4],"dtype":"float32"},{"name":"dense_Dense6589/bias","shape":[4],"dtype":"float32"},{"name":"dense_Dense6590/kernel","shape":[4,32],"dtype":"float32"},{"name":"dense_Dense6590/bias","shape":[32],"dtype":"float32"},{"name":"dense_Dense6591/kernel","shape":[32,1],"dtype":"float32"},{"name":"dense_Dense6591/bias","shape":[1],"dtype":"float32"},{"name":"dense_Dense6592/kernel","shape":[1,8],"dtype":"float32"},{"name":"dense_Dense6592/bias","shape":[8],"dtype":"float32"},{"name":"dense_Dense6593/kernel","shape":[8,1],"dtype":"float32"},{"name":"dense_Dense6593/bias","shape":[1],"dtype":"float32"},{"name":"dense_Dense6594/kernel","shape":[1,1],"dtype":"float32"},{"name":"dense_Dense6594/bias","shape":[1],"dtype":"float32"}]}]}