{"modelTopology":{"class_name":"Model","config":{"name":"model946","layers":[{"name":"input946","class_name":"InputLayer","config":{"batch_input_shape":[null,3],"dtype":"float32","sparse":false,"name":"input946"},"inbound_nodes":[]},{"name":"dense_Dense5671","class_name":"Dense","config":{"units":2,"activation":"relu","use_bias":true,"kernel_initializer":{"class_name":"VarianceScaling","config":{"scale":1,"mode":"fan_avg","distribution":"normal","seed":null}},"bias_initializer":{"class_name":"Zeros","config":{}},"kernel_regularizer":null,"bias_regularizer":null,"activity_regularizer":null,"kernel_constraint":null,"bias_constraint":null,"name":"dense_Dense5671","trainable":true},"inbound_nodes":[[["input946",0,0,{}]]]},{"name":"dense_Dense5672","class_name":"Dense","config":{"units":16,"activation":"relu","use_bias":true,"kernel_initializer":{"class_name":"VarianceScaling","config":{"scale":1,"mode":"fan_avg","distribution":"normal","seed":null}},"bias_initializer":{"class_name":"Zeros","config":{}},"kernel_regularizer":null,"bias_regularizer":null,"activity_regularizer":null,"kernel_constraint":null,"bias_constraint":null,"name":"dense_Dense5672","trainable":true},"inbound_nodes":[[["dense_Dense5671",0,0,{}]]]},{"name":"dense_Dense5673","class_name":"Dense","config":{"units":4,"activation":"relu","use_bias":true,"kernel_initializer":{"class_name":"VarianceScaling","config":{"scale":1,"mode":"fan_avg","distribution":"normal","seed":null}},"bias_initializer":{"class_name":"Zeros","config":{}},"kernel_regularizer":null,"bias_regularizer":null,"activity_regularizer":null,"kernel_constraint":null,"bias_constraint":null,"name":"dense_Dense5673","trainable":true},"inbound_nodes":[[["dense_Dense5672",0,0,{}]]]},{"name":"dense_Dense5674","class_name":"Dense","config":{"units":2,"activation":"relu","use_bias":true,"kernel_initializer":{"class_name":"VarianceScaling","config":{"scale":1,"mode":"fan_avg","distribution":"normal","seed":null}},"bias_initializer":{"class_name":"Zeros","config":{}},"kernel_regularizer":null,"bias_regularizer":null,"activity_regularizer":null,"kernel_constraint":null,"bias_constraint":null,"name":"dense_Dense5674","trainable":true},"inbound_nodes":[[["dense_Dense5673",0,0,{}]]]},{"name":"dense_Dense5675","class_name":"Dense","config":{"units":8,"activation":"relu","use_bias":true,"kernel_initializer":{"class_name":"VarianceScaling","config":{"scale":1,"mode":"fan_avg","distribution":"normal","seed":null}},"bias_initializer":{"class_name":"Zeros","config":{}},"kernel_regularizer":null,"bias_regularizer":null,"activity_regularizer":null,"kernel_constraint":null,"bias_constraint":null,"name":"dense_Dense5675","trainable":true},"inbound_nodes":[[["dense_Dense5674",0,0,{}]]]},{"name":"dense_Dense5676","class_name":"Dense","config":{"units":1,"activation":"sigmoid","use_bias":true,"kernel_initializer":{"class_name":"VarianceScaling","config":{"scale":1,"mode":"fan_avg","distribution":"normal","seed":null}},"bias_initializer":{"class_name":"Zeros","config":{}},"kernel_regularizer":null,"bias_regularizer":null,"activity_regularizer":null,"kernel_constraint":null,"bias_constraint":null,"name":"dense_Dense5676","trainable":true},"inbound_nodes":[[["dense_Dense5675",0,0,{}]]]}],"input_layers":[["input946",0,0]],"output_layers":[["dense_Dense5676",0,0]]},"keras_version":"tfjs-layers 3.9.0","backend":"tensor_flow.js"},"weightsManifest":[{"paths":["weights.bin"],"weights":[{"name":"dense_Dense5671/kernel","shape":[3,2],"dtype":"float32"},{"name":"dense_Dense5671/bias","shape":[2],"dtype":"float32"},{"name":"dense_Dense5672/kernel","shape":[2,16],"dtype":"float32"},{"name":"dense_Dense5672/bias","shape":[16],"dtype":"float32"},{"name":"dense_Dense5673/kernel","shape":[16,4],"dtype":"float32"},{"name":"dense_Dense5673/bias","shape":[4],"dtype":"float32"},{"name":"dense_Dense5674/kernel","shape":[4,2],"dtype":"float32"},{"name":"dense_Dense5674/bias","shape":[2],"dtype":"float32"},{"name":"dense_Dense5675/kernel","shape":[2,8],"dtype":"float32"},{"name":"dense_Dense5675/bias","shape":[8],"dtype":"float32"},{"name":"dense_Dense5676/kernel","shape":[8,1],"dtype":"float32"},{"name":"dense_Dense5676/bias","shape":[1],"dtype":"float32"}]}]}