{"modelTopology":{"class_name":"Model","config":{"name":"model933","layers":[{"name":"input933","class_name":"InputLayer","config":{"batch_input_shape":[null,3],"dtype":"float32","sparse":false,"name":"input933"},"inbound_nodes":[]},{"name":"dense_Dense5593","class_name":"Dense","config":{"units":4,"activation":"relu","use_bias":true,"kernel_initializer":{"class_name":"VarianceScaling","config":{"scale":1,"mode":"fan_avg","distribution":"normal","seed":null}},"bias_initializer":{"class_name":"Zeros","config":{}},"kernel_regularizer":null,"bias_regularizer":null,"activity_regularizer":null,"kernel_constraint":null,"bias_constraint":null,"name":"dense_Dense5593","trainable":true},"inbound_nodes":[[["input933",0,0,{}]]]},{"name":"dense_Dense5594","class_name":"Dense","config":{"units":16,"activation":"relu","use_bias":true,"kernel_initializer":{"class_name":"VarianceScaling","config":{"scale":1,"mode":"fan_avg","distribution":"normal","seed":null}},"bias_initializer":{"class_name":"Zeros","config":{}},"kernel_regularizer":null,"bias_regularizer":null,"activity_regularizer":null,"kernel_constraint":null,"bias_constraint":null,"name":"dense_Dense5594","trainable":true},"inbound_nodes":[[["dense_Dense5593",0,0,{}]]]},{"name":"dense_Dense5595","class_name":"Dense","config":{"units":2,"activation":"relu","use_bias":true,"kernel_initializer":{"class_name":"VarianceScaling","config":{"scale":1,"mode":"fan_avg","distribution":"normal","seed":null}},"bias_initializer":{"class_name":"Zeros","config":{}},"kernel_regularizer":null,"bias_regularizer":null,"activity_regularizer":null,"kernel_constraint":null,"bias_constraint":null,"name":"dense_Dense5595","trainable":true},"inbound_nodes":[[["dense_Dense5594",0,0,{}]]]},{"name":"dense_Dense5596","class_name":"Dense","config":{"units":32,"activation":"relu","use_bias":true,"kernel_initializer":{"class_name":"VarianceScaling","config":{"scale":1,"mode":"fan_avg","distribution":"normal","seed":null}},"bias_initializer":{"class_name":"Zeros","config":{}},"kernel_regularizer":null,"bias_regularizer":null,"activity_regularizer":null,"kernel_constraint":null,"bias_constraint":null,"name":"dense_Dense5596","trainable":true},"inbound_nodes":[[["dense_Dense5595",0,0,{}]]]},{"name":"dense_Dense5597","class_name":"Dense","config":{"units":4,"activation":"relu","use_bias":true,"kernel_initializer":{"class_name":"VarianceScaling","config":{"scale":1,"mode":"fan_avg","distribution":"normal","seed":null}},"bias_initializer":{"class_name":"Zeros","config":{}},"kernel_regularizer":null,"bias_regularizer":null,"activity_regularizer":null,"kernel_constraint":null,"bias_constraint":null,"name":"dense_Dense5597","trainable":true},"inbound_nodes":[[["dense_Dense5596",0,0,{}]]]},{"name":"dense_Dense5598","class_name":"Dense","config":{"units":1,"activation":"sigmoid","use_bias":true,"kernel_initializer":{"class_name":"VarianceScaling","config":{"scale":1,"mode":"fan_avg","distribution":"normal","seed":null}},"bias_initializer":{"class_name":"Zeros","config":{}},"kernel_regularizer":null,"bias_regularizer":null,"activity_regularizer":null,"kernel_constraint":null,"bias_constraint":null,"name":"dense_Dense5598","trainable":true},"inbound_nodes":[[["dense_Dense5597",0,0,{}]]]}],"input_layers":[["input933",0,0]],"output_layers":[["dense_Dense5598",0,0]]},"keras_version":"tfjs-layers 3.9.0","backend":"tensor_flow.js"},"weightsManifest":[{"paths":["weights.bin"],"weights":[{"name":"dense_Dense5593/kernel","shape":[3,4],"dtype":"float32"},{"name":"dense_Dense5593/bias","shape":[4],"dtype":"float32"},{"name":"dense_Dense5594/kernel","shape":[4,16],"dtype":"float32"},{"name":"dense_Dense5594/bias","shape":[16],"dtype":"float32"},{"name":"dense_Dense5595/kernel","shape":[16,2],"dtype":"float32"},{"name":"dense_Dense5595/bias","shape":[2],"dtype":"float32"},{"name":"dense_Dense5596/kernel","shape":[2,32],"dtype":"float32"},{"name":"dense_Dense5596/bias","shape":[32],"dtype":"float32"},{"name":"dense_Dense5597/kernel","shape":[32,4],"dtype":"float32"},{"name":"dense_Dense5597/bias","shape":[4],"dtype":"float32"},{"name":"dense_Dense5598/kernel","shape":[4,1],"dtype":"float32"},{"name":"dense_Dense5598/bias","shape":[1],"dtype":"float32"}]}]}