{"modelTopology":{"class_name":"Model","config":{"name":"model377","layers":[{"name":"input377","class_name":"InputLayer","config":{"batch_input_shape":[null,3],"dtype":"float32","sparse":false,"name":"input377"},"inbound_nodes":[]},{"name":"dense_Dense1881","class_name":"Dense","config":{"units":2,"activation":"relu","use_bias":true,"kernel_initializer":{"class_name":"VarianceScaling","config":{"scale":1,"mode":"fan_avg","distribution":"normal","seed":null}},"bias_initializer":{"class_name":"Zeros","config":{}},"kernel_regularizer":null,"bias_regularizer":null,"activity_regularizer":null,"kernel_constraint":null,"bias_constraint":null,"name":"dense_Dense1881","trainable":true},"inbound_nodes":[[["input377",0,0,{}]]]},{"name":"dense_Dense1882","class_name":"Dense","config":{"units":16,"activation":"relu","use_bias":true,"kernel_initializer":{"class_name":"VarianceScaling","config":{"scale":1,"mode":"fan_avg","distribution":"normal","seed":null}},"bias_initializer":{"class_name":"Zeros","config":{}},"kernel_regularizer":null,"bias_regularizer":null,"activity_regularizer":null,"kernel_constraint":null,"bias_constraint":null,"name":"dense_Dense1882","trainable":true},"inbound_nodes":[[["dense_Dense1881",0,0,{}]]]},{"name":"dense_Dense1883","class_name":"Dense","config":{"units":4,"activation":"relu","use_bias":true,"kernel_initializer":{"class_name":"VarianceScaling","config":{"scale":1,"mode":"fan_avg","distribution":"normal","seed":null}},"bias_initializer":{"class_name":"Zeros","config":{}},"kernel_regularizer":null,"bias_regularizer":null,"activity_regularizer":null,"kernel_constraint":null,"bias_constraint":null,"name":"dense_Dense1883","trainable":true},"inbound_nodes":[[["dense_Dense1882",0,0,{}]]]},{"name":"dense_Dense1884","class_name":"Dense","config":{"units":16,"activation":"relu","use_bias":true,"kernel_initializer":{"class_name":"VarianceScaling","config":{"scale":1,"mode":"fan_avg","distribution":"normal","seed":null}},"bias_initializer":{"class_name":"Zeros","config":{}},"kernel_regularizer":null,"bias_regularizer":null,"activity_regularizer":null,"kernel_constraint":null,"bias_constraint":null,"name":"dense_Dense1884","trainable":true},"inbound_nodes":[[["dense_Dense1883",0,0,{}]]]},{"name":"dense_Dense1885","class_name":"Dense","config":{"units":1,"activation":"sigmoid","use_bias":true,"kernel_initializer":{"class_name":"VarianceScaling","config":{"scale":1,"mode":"fan_avg","distribution":"normal","seed":null}},"bias_initializer":{"class_name":"Zeros","config":{}},"kernel_regularizer":null,"bias_regularizer":null,"activity_regularizer":null,"kernel_constraint":null,"bias_constraint":null,"name":"dense_Dense1885","trainable":true},"inbound_nodes":[[["dense_Dense1884",0,0,{}]]]}],"input_layers":[["input377",0,0]],"output_layers":[["dense_Dense1885",0,0]]},"keras_version":"tfjs-layers 3.9.0","backend":"tensor_flow.js"},"weightsManifest":[{"paths":["weights.bin"],"weights":[{"name":"dense_Dense1881/kernel","shape":[3,2],"dtype":"float32"},{"name":"dense_Dense1881/bias","shape":[2],"dtype":"float32"},{"name":"dense_Dense1882/kernel","shape":[2,16],"dtype":"float32"},{"name":"dense_Dense1882/bias","shape":[16],"dtype":"float32"},{"name":"dense_Dense1883/kernel","shape":[16,4],"dtype":"float32"},{"name":"dense_Dense1883/bias","shape":[4],"dtype":"float32"},{"name":"dense_Dense1884/kernel","shape":[4,16],"dtype":"float32"},{"name":"dense_Dense1884/bias","shape":[16],"dtype":"float32"},{"name":"dense_Dense1885/kernel","shape":[16,1],"dtype":"float32"},{"name":"dense_Dense1885/bias","shape":[1],"dtype":"float32"}]}]}