{"modelTopology":{"class_name":"Model","config":{"name":"model863","layers":[{"name":"input863","class_name":"InputLayer","config":{"batch_input_shape":[null,3],"dtype":"float32","sparse":false,"name":"input863"},"inbound_nodes":[]},{"name":"dense_Dense4311","class_name":"Dense","config":{"units":8,"activation":"relu","use_bias":true,"kernel_initializer":{"class_name":"VarianceScaling","config":{"scale":1,"mode":"fan_avg","distribution":"normal","seed":null}},"bias_initializer":{"class_name":"Zeros","config":{}},"kernel_regularizer":null,"bias_regularizer":null,"activity_regularizer":null,"kernel_constraint":null,"bias_constraint":null,"name":"dense_Dense4311","trainable":true},"inbound_nodes":[[["input863",0,0,{}]]]},{"name":"dense_Dense4312","class_name":"Dense","config":{"units":32,"activation":"relu","use_bias":true,"kernel_initializer":{"class_name":"VarianceScaling","config":{"scale":1,"mode":"fan_avg","distribution":"normal","seed":null}},"bias_initializer":{"class_name":"Zeros","config":{}},"kernel_regularizer":null,"bias_regularizer":null,"activity_regularizer":null,"kernel_constraint":null,"bias_constraint":null,"name":"dense_Dense4312","trainable":true},"inbound_nodes":[[["dense_Dense4311",0,0,{}]]]},{"name":"dense_Dense4313","class_name":"Dense","config":{"units":32,"activation":"relu","use_bias":true,"kernel_initializer":{"class_name":"VarianceScaling","config":{"scale":1,"mode":"fan_avg","distribution":"normal","seed":null}},"bias_initializer":{"class_name":"Zeros","config":{}},"kernel_regularizer":null,"bias_regularizer":null,"activity_regularizer":null,"kernel_constraint":null,"bias_constraint":null,"name":"dense_Dense4313","trainable":true},"inbound_nodes":[[["dense_Dense4312",0,0,{}]]]},{"name":"dense_Dense4314","class_name":"Dense","config":{"units":16,"activation":"relu","use_bias":true,"kernel_initializer":{"class_name":"VarianceScaling","config":{"scale":1,"mode":"fan_avg","distribution":"normal","seed":null}},"bias_initializer":{"class_name":"Zeros","config":{}},"kernel_regularizer":null,"bias_regularizer":null,"activity_regularizer":null,"kernel_constraint":null,"bias_constraint":null,"name":"dense_Dense4314","trainable":true},"inbound_nodes":[[["dense_Dense4313",0,0,{}]]]},{"name":"dense_Dense4315","class_name":"Dense","config":{"units":1,"activation":"sigmoid","use_bias":true,"kernel_initializer":{"class_name":"VarianceScaling","config":{"scale":1,"mode":"fan_avg","distribution":"normal","seed":null}},"bias_initializer":{"class_name":"Zeros","config":{}},"kernel_regularizer":null,"bias_regularizer":null,"activity_regularizer":null,"kernel_constraint":null,"bias_constraint":null,"name":"dense_Dense4315","trainable":true},"inbound_nodes":[[["dense_Dense4314",0,0,{}]]]}],"input_layers":[["input863",0,0]],"output_layers":[["dense_Dense4315",0,0]]},"keras_version":"tfjs-layers 3.9.0","backend":"tensor_flow.js"},"weightsManifest":[{"paths":["weights.bin"],"weights":[{"name":"dense_Dense4311/kernel","shape":[3,8],"dtype":"float32"},{"name":"dense_Dense4311/bias","shape":[8],"dtype":"float32"},{"name":"dense_Dense4312/kernel","shape":[8,32],"dtype":"float32"},{"name":"dense_Dense4312/bias","shape":[32],"dtype":"float32"},{"name":"dense_Dense4313/kernel","shape":[32,32],"dtype":"float32"},{"name":"dense_Dense4313/bias","shape":[32],"dtype":"float32"},{"name":"dense_Dense4314/kernel","shape":[32,16],"dtype":"float32"},{"name":"dense_Dense4314/bias","shape":[16],"dtype":"float32"},{"name":"dense_Dense4315/kernel","shape":[16,1],"dtype":"float32"},{"name":"dense_Dense4315/bias","shape":[1],"dtype":"float32"}]}]}