{"modelTopology":{"class_name":"Model","config":{"name":"model340","layers":[{"name":"input340","class_name":"InputLayer","config":{"batch_input_shape":[null,3],"dtype":"float32","sparse":false,"name":"input340"},"inbound_nodes":[]},{"name":"dense_Dense2035","class_name":"Dense","config":{"units":4,"activation":"relu","use_bias":true,"kernel_initializer":{"class_name":"VarianceScaling","config":{"scale":1,"mode":"fan_avg","distribution":"normal","seed":null}},"bias_initializer":{"class_name":"Zeros","config":{}},"kernel_regularizer":null,"bias_regularizer":null,"activity_regularizer":null,"kernel_constraint":null,"bias_constraint":null,"name":"dense_Dense2035","trainable":true},"inbound_nodes":[[["input340",0,0,{}]]]},{"name":"dense_Dense2036","class_name":"Dense","config":{"units":2,"activation":"relu","use_bias":true,"kernel_initializer":{"class_name":"VarianceScaling","config":{"scale":1,"mode":"fan_avg","distribution":"normal","seed":null}},"bias_initializer":{"class_name":"Zeros","config":{}},"kernel_regularizer":null,"bias_regularizer":null,"activity_regularizer":null,"kernel_constraint":null,"bias_constraint":null,"name":"dense_Dense2036","trainable":true},"inbound_nodes":[[["dense_Dense2035",0,0,{}]]]},{"name":"dense_Dense2037","class_name":"Dense","config":{"units":8,"activation":"relu","use_bias":true,"kernel_initializer":{"class_name":"VarianceScaling","config":{"scale":1,"mode":"fan_avg","distribution":"normal","seed":null}},"bias_initializer":{"class_name":"Zeros","config":{}},"kernel_regularizer":null,"bias_regularizer":null,"activity_regularizer":null,"kernel_constraint":null,"bias_constraint":null,"name":"dense_Dense2037","trainable":true},"inbound_nodes":[[["dense_Dense2036",0,0,{}]]]},{"name":"dense_Dense2038","class_name":"Dense","config":{"units":4,"activation":"relu","use_bias":true,"kernel_initializer":{"class_name":"VarianceScaling","config":{"scale":1,"mode":"fan_avg","distribution":"normal","seed":null}},"bias_initializer":{"class_name":"Zeros","config":{}},"kernel_regularizer":null,"bias_regularizer":null,"activity_regularizer":null,"kernel_constraint":null,"bias_constraint":null,"name":"dense_Dense2038","trainable":true},"inbound_nodes":[[["dense_Dense2037",0,0,{}]]]},{"name":"dense_Dense2039","class_name":"Dense","config":{"units":8,"activation":"relu","use_bias":true,"kernel_initializer":{"class_name":"VarianceScaling","config":{"scale":1,"mode":"fan_avg","distribution":"normal","seed":null}},"bias_initializer":{"class_name":"Zeros","config":{}},"kernel_regularizer":null,"bias_regularizer":null,"activity_regularizer":null,"kernel_constraint":null,"bias_constraint":null,"name":"dense_Dense2039","trainable":true},"inbound_nodes":[[["dense_Dense2038",0,0,{}]]]},{"name":"dense_Dense2040","class_name":"Dense","config":{"units":1,"activation":"sigmoid","use_bias":true,"kernel_initializer":{"class_name":"VarianceScaling","config":{"scale":1,"mode":"fan_avg","distribution":"normal","seed":null}},"bias_initializer":{"class_name":"Zeros","config":{}},"kernel_regularizer":null,"bias_regularizer":null,"activity_regularizer":null,"kernel_constraint":null,"bias_constraint":null,"name":"dense_Dense2040","trainable":true},"inbound_nodes":[[["dense_Dense2039",0,0,{}]]]}],"input_layers":[["input340",0,0]],"output_layers":[["dense_Dense2040",0,0]]},"keras_version":"tfjs-layers 3.9.0","backend":"tensor_flow.js"},"weightsManifest":[{"paths":["weights.bin"],"weights":[{"name":"dense_Dense2035/kernel","shape":[3,4],"dtype":"float32"},{"name":"dense_Dense2035/bias","shape":[4],"dtype":"float32"},{"name":"dense_Dense2036/kernel","shape":[4,2],"dtype":"float32"},{"name":"dense_Dense2036/bias","shape":[2],"dtype":"float32"},{"name":"dense_Dense2037/kernel","shape":[2,8],"dtype":"float32"},{"name":"dense_Dense2037/bias","shape":[8],"dtype":"float32"},{"name":"dense_Dense2038/kernel","shape":[8,4],"dtype":"float32"},{"name":"dense_Dense2038/bias","shape":[4],"dtype":"float32"},{"name":"dense_Dense2039/kernel","shape":[4,8],"dtype":"float32"},{"name":"dense_Dense2039/bias","shape":[8],"dtype":"float32"},{"name":"dense_Dense2040/kernel","shape":[8,1],"dtype":"float32"},{"name":"dense_Dense2040/bias","shape":[1],"dtype":"float32"}]}]}