{"modelTopology":{"class_name":"Model","config":{"name":"model239","layers":[{"name":"input239","class_name":"InputLayer","config":{"batch_input_shape":[null,3],"dtype":"float32","sparse":false,"name":"input239"},"inbound_nodes":[]},{"name":"dense_Dense1429","class_name":"Dense","config":{"units":16,"activation":"relu","use_bias":true,"kernel_initializer":{"class_name":"VarianceScaling","config":{"scale":1,"mode":"fan_avg","distribution":"normal","seed":null}},"bias_initializer":{"class_name":"Zeros","config":{}},"kernel_regularizer":null,"bias_regularizer":null,"activity_regularizer":null,"kernel_constraint":null,"bias_constraint":null,"name":"dense_Dense1429","trainable":true},"inbound_nodes":[[["input239",0,0,{}]]]},{"name":"dense_Dense1430","class_name":"Dense","config":{"units":2,"activation":"relu","use_bias":true,"kernel_initializer":{"class_name":"VarianceScaling","config":{"scale":1,"mode":"fan_avg","distribution":"normal","seed":null}},"bias_initializer":{"class_name":"Zeros","config":{}},"kernel_regularizer":null,"bias_regularizer":null,"activity_regularizer":null,"kernel_constraint":null,"bias_constraint":null,"name":"dense_Dense1430","trainable":true},"inbound_nodes":[[["dense_Dense1429",0,0,{}]]]},{"name":"dense_Dense1431","class_name":"Dense","config":{"units":1,"activation":"relu","use_bias":true,"kernel_initializer":{"class_name":"VarianceScaling","config":{"scale":1,"mode":"fan_avg","distribution":"normal","seed":null}},"bias_initializer":{"class_name":"Zeros","config":{}},"kernel_regularizer":null,"bias_regularizer":null,"activity_regularizer":null,"kernel_constraint":null,"bias_constraint":null,"name":"dense_Dense1431","trainable":true},"inbound_nodes":[[["dense_Dense1430",0,0,{}]]]},{"name":"dense_Dense1432","class_name":"Dense","config":{"units":8,"activation":"relu","use_bias":true,"kernel_initializer":{"class_name":"VarianceScaling","config":{"scale":1,"mode":"fan_avg","distribution":"normal","seed":null}},"bias_initializer":{"class_name":"Zeros","config":{}},"kernel_regularizer":null,"bias_regularizer":null,"activity_regularizer":null,"kernel_constraint":null,"bias_constraint":null,"name":"dense_Dense1432","trainable":true},"inbound_nodes":[[["dense_Dense1431",0,0,{}]]]},{"name":"dense_Dense1433","class_name":"Dense","config":{"units":16,"activation":"relu","use_bias":true,"kernel_initializer":{"class_name":"VarianceScaling","config":{"scale":1,"mode":"fan_avg","distribution":"normal","seed":null}},"bias_initializer":{"class_name":"Zeros","config":{}},"kernel_regularizer":null,"bias_regularizer":null,"activity_regularizer":null,"kernel_constraint":null,"bias_constraint":null,"name":"dense_Dense1433","trainable":true},"inbound_nodes":[[["dense_Dense1432",0,0,{}]]]},{"name":"dense_Dense1434","class_name":"Dense","config":{"units":1,"activation":"sigmoid","use_bias":true,"kernel_initializer":{"class_name":"VarianceScaling","config":{"scale":1,"mode":"fan_avg","distribution":"normal","seed":null}},"bias_initializer":{"class_name":"Zeros","config":{}},"kernel_regularizer":null,"bias_regularizer":null,"activity_regularizer":null,"kernel_constraint":null,"bias_constraint":null,"name":"dense_Dense1434","trainable":true},"inbound_nodes":[[["dense_Dense1433",0,0,{}]]]}],"input_layers":[["input239",0,0]],"output_layers":[["dense_Dense1434",0,0]]},"keras_version":"tfjs-layers 3.9.0","backend":"tensor_flow.js"},"weightsManifest":[{"paths":["weights.bin"],"weights":[{"name":"dense_Dense1429/kernel","shape":[3,16],"dtype":"float32"},{"name":"dense_Dense1429/bias","shape":[16],"dtype":"float32"},{"name":"dense_Dense1430/kernel","shape":[16,2],"dtype":"float32"},{"name":"dense_Dense1430/bias","shape":[2],"dtype":"float32"},{"name":"dense_Dense1431/kernel","shape":[2,1],"dtype":"float32"},{"name":"dense_Dense1431/bias","shape":[1],"dtype":"float32"},{"name":"dense_Dense1432/kernel","shape":[1,8],"dtype":"float32"},{"name":"dense_Dense1432/bias","shape":[8],"dtype":"float32"},{"name":"dense_Dense1433/kernel","shape":[8,16],"dtype":"float32"},{"name":"dense_Dense1433/bias","shape":[16],"dtype":"float32"},{"name":"dense_Dense1434/kernel","shape":[16,1],"dtype":"float32"},{"name":"dense_Dense1434/bias","shape":[1],"dtype":"float32"}]}]}