{"modelTopology":{"class_name":"Model","config":{"name":"model412","layers":[{"name":"input412","class_name":"InputLayer","config":{"batch_input_shape":[null,3],"dtype":"float32","sparse":false,"name":"input412"},"inbound_nodes":[]},{"name":"dense_Dense2056","class_name":"Dense","config":{"units":2,"activation":"relu","use_bias":true,"kernel_initializer":{"class_name":"VarianceScaling","config":{"scale":1,"mode":"fan_avg","distribution":"normal","seed":null}},"bias_initializer":{"class_name":"Zeros","config":{}},"kernel_regularizer":null,"bias_regularizer":null,"activity_regularizer":null,"kernel_constraint":null,"bias_constraint":null,"name":"dense_Dense2056","trainable":true},"inbound_nodes":[[["input412",0,0,{}]]]},{"name":"dense_Dense2057","class_name":"Dense","config":{"units":32,"activation":"relu","use_bias":true,"kernel_initializer":{"class_name":"VarianceScaling","config":{"scale":1,"mode":"fan_avg","distribution":"normal","seed":null}},"bias_initializer":{"class_name":"Zeros","config":{}},"kernel_regularizer":null,"bias_regularizer":null,"activity_regularizer":null,"kernel_constraint":null,"bias_constraint":null,"name":"dense_Dense2057","trainable":true},"inbound_nodes":[[["dense_Dense2056",0,0,{}]]]},{"name":"dense_Dense2058","class_name":"Dense","config":{"units":4,"activation":"relu","use_bias":true,"kernel_initializer":{"class_name":"VarianceScaling","config":{"scale":1,"mode":"fan_avg","distribution":"normal","seed":null}},"bias_initializer":{"class_name":"Zeros","config":{}},"kernel_regularizer":null,"bias_regularizer":null,"activity_regularizer":null,"kernel_constraint":null,"bias_constraint":null,"name":"dense_Dense2058","trainable":true},"inbound_nodes":[[["dense_Dense2057",0,0,{}]]]},{"name":"dense_Dense2059","class_name":"Dense","config":{"units":8,"activation":"relu","use_bias":true,"kernel_initializer":{"class_name":"VarianceScaling","config":{"scale":1,"mode":"fan_avg","distribution":"normal","seed":null}},"bias_initializer":{"class_name":"Zeros","config":{}},"kernel_regularizer":null,"bias_regularizer":null,"activity_regularizer":null,"kernel_constraint":null,"bias_constraint":null,"name":"dense_Dense2059","trainable":true},"inbound_nodes":[[["dense_Dense2058",0,0,{}]]]},{"name":"dense_Dense2060","class_name":"Dense","config":{"units":1,"activation":"sigmoid","use_bias":true,"kernel_initializer":{"class_name":"VarianceScaling","config":{"scale":1,"mode":"fan_avg","distribution":"normal","seed":null}},"bias_initializer":{"class_name":"Zeros","config":{}},"kernel_regularizer":null,"bias_regularizer":null,"activity_regularizer":null,"kernel_constraint":null,"bias_constraint":null,"name":"dense_Dense2060","trainable":true},"inbound_nodes":[[["dense_Dense2059",0,0,{}]]]}],"input_layers":[["input412",0,0]],"output_layers":[["dense_Dense2060",0,0]]},"keras_version":"tfjs-layers 3.9.0","backend":"tensor_flow.js"},"weightsManifest":[{"paths":["weights.bin"],"weights":[{"name":"dense_Dense2056/kernel","shape":[3,2],"dtype":"float32"},{"name":"dense_Dense2056/bias","shape":[2],"dtype":"float32"},{"name":"dense_Dense2057/kernel","shape":[2,32],"dtype":"float32"},{"name":"dense_Dense2057/bias","shape":[32],"dtype":"float32"},{"name":"dense_Dense2058/kernel","shape":[32,4],"dtype":"float32"},{"name":"dense_Dense2058/bias","shape":[4],"dtype":"float32"},{"name":"dense_Dense2059/kernel","shape":[4,8],"dtype":"float32"},{"name":"dense_Dense2059/bias","shape":[8],"dtype":"float32"},{"name":"dense_Dense2060/kernel","shape":[8,1],"dtype":"float32"},{"name":"dense_Dense2060/bias","shape":[1],"dtype":"float32"}]}]}