{"modelTopology":{"class_name":"Model","config":{"name":"model947","layers":[{"name":"input947","class_name":"InputLayer","config":{"batch_input_shape":[null,3],"dtype":"float32","sparse":false,"name":"input947"},"inbound_nodes":[]},{"name":"dense_Dense5677","class_name":"Dense","config":{"units":16,"activation":"relu","use_bias":true,"kernel_initializer":{"class_name":"VarianceScaling","config":{"scale":1,"mode":"fan_avg","distribution":"normal","seed":null}},"bias_initializer":{"class_name":"Zeros","config":{}},"kernel_regularizer":null,"bias_regularizer":null,"activity_regularizer":null,"kernel_constraint":null,"bias_constraint":null,"name":"dense_Dense5677","trainable":true},"inbound_nodes":[[["input947",0,0,{}]]]},{"name":"dense_Dense5678","class_name":"Dense","config":{"units":16,"activation":"relu","use_bias":true,"kernel_initializer":{"class_name":"VarianceScaling","config":{"scale":1,"mode":"fan_avg","distribution":"normal","seed":null}},"bias_initializer":{"class_name":"Zeros","config":{}},"kernel_regularizer":null,"bias_regularizer":null,"activity_regularizer":null,"kernel_constraint":null,"bias_constraint":null,"name":"dense_Dense5678","trainable":true},"inbound_nodes":[[["dense_Dense5677",0,0,{}]]]},{"name":"dense_Dense5679","class_name":"Dense","config":{"units":4,"activation":"relu","use_bias":true,"kernel_initializer":{"class_name":"VarianceScaling","config":{"scale":1,"mode":"fan_avg","distribution":"normal","seed":null}},"bias_initializer":{"class_name":"Zeros","config":{}},"kernel_regularizer":null,"bias_regularizer":null,"activity_regularizer":null,"kernel_constraint":null,"bias_constraint":null,"name":"dense_Dense5679","trainable":true},"inbound_nodes":[[["dense_Dense5678",0,0,{}]]]},{"name":"dense_Dense5680","class_name":"Dense","config":{"units":2,"activation":"relu","use_bias":true,"kernel_initializer":{"class_name":"VarianceScaling","config":{"scale":1,"mode":"fan_avg","distribution":"normal","seed":null}},"bias_initializer":{"class_name":"Zeros","config":{}},"kernel_regularizer":null,"bias_regularizer":null,"activity_regularizer":null,"kernel_constraint":null,"bias_constraint":null,"name":"dense_Dense5680","trainable":true},"inbound_nodes":[[["dense_Dense5679",0,0,{}]]]},{"name":"dense_Dense5681","class_name":"Dense","config":{"units":16,"activation":"relu","use_bias":true,"kernel_initializer":{"class_name":"VarianceScaling","config":{"scale":1,"mode":"fan_avg","distribution":"normal","seed":null}},"bias_initializer":{"class_name":"Zeros","config":{}},"kernel_regularizer":null,"bias_regularizer":null,"activity_regularizer":null,"kernel_constraint":null,"bias_constraint":null,"name":"dense_Dense5681","trainable":true},"inbound_nodes":[[["dense_Dense5680",0,0,{}]]]},{"name":"dense_Dense5682","class_name":"Dense","config":{"units":1,"activation":"sigmoid","use_bias":true,"kernel_initializer":{"class_name":"VarianceScaling","config":{"scale":1,"mode":"fan_avg","distribution":"normal","seed":null}},"bias_initializer":{"class_name":"Zeros","config":{}},"kernel_regularizer":null,"bias_regularizer":null,"activity_regularizer":null,"kernel_constraint":null,"bias_constraint":null,"name":"dense_Dense5682","trainable":true},"inbound_nodes":[[["dense_Dense5681",0,0,{}]]]}],"input_layers":[["input947",0,0]],"output_layers":[["dense_Dense5682",0,0]]},"keras_version":"tfjs-layers 3.9.0","backend":"tensor_flow.js"},"weightsManifest":[{"paths":["weights.bin"],"weights":[{"name":"dense_Dense5677/kernel","shape":[3,16],"dtype":"float32"},{"name":"dense_Dense5677/bias","shape":[16],"dtype":"float32"},{"name":"dense_Dense5678/kernel","shape":[16,16],"dtype":"float32"},{"name":"dense_Dense5678/bias","shape":[16],"dtype":"float32"},{"name":"dense_Dense5679/kernel","shape":[16,4],"dtype":"float32"},{"name":"dense_Dense5679/bias","shape":[4],"dtype":"float32"},{"name":"dense_Dense5680/kernel","shape":[4,2],"dtype":"float32"},{"name":"dense_Dense5680/bias","shape":[2],"dtype":"float32"},{"name":"dense_Dense5681/kernel","shape":[2,16],"dtype":"float32"},{"name":"dense_Dense5681/bias","shape":[16],"dtype":"float32"},{"name":"dense_Dense5682/kernel","shape":[16,1],"dtype":"float32"},{"name":"dense_Dense5682/bias","shape":[1],"dtype":"float32"}]}]}