{"modelTopology":{"class_name":"Model","config":{"name":"model222","layers":[{"name":"input222","class_name":"InputLayer","config":{"batch_input_shape":[null,3],"dtype":"float32","sparse":false,"name":"input222"},"inbound_nodes":[]},{"name":"dense_Dense1106","class_name":"Dense","config":{"units":2,"activation":"relu","use_bias":true,"kernel_initializer":{"class_name":"VarianceScaling","config":{"scale":1,"mode":"fan_avg","distribution":"normal","seed":null}},"bias_initializer":{"class_name":"Zeros","config":{}},"kernel_regularizer":null,"bias_regularizer":null,"activity_regularizer":null,"kernel_constraint":null,"bias_constraint":null,"name":"dense_Dense1106","trainable":true},"inbound_nodes":[[["input222",0,0,{}]]]},{"name":"dense_Dense1107","class_name":"Dense","config":{"units":1,"activation":"relu","use_bias":true,"kernel_initializer":{"class_name":"VarianceScaling","config":{"scale":1,"mode":"fan_avg","distribution":"normal","seed":null}},"bias_initializer":{"class_name":"Zeros","config":{}},"kernel_regularizer":null,"bias_regularizer":null,"activity_regularizer":null,"kernel_constraint":null,"bias_constraint":null,"name":"dense_Dense1107","trainable":true},"inbound_nodes":[[["dense_Dense1106",0,0,{}]]]},{"name":"dense_Dense1108","class_name":"Dense","config":{"units":1,"activation":"relu","use_bias":true,"kernel_initializer":{"class_name":"VarianceScaling","config":{"scale":1,"mode":"fan_avg","distribution":"normal","seed":null}},"bias_initializer":{"class_name":"Zeros","config":{}},"kernel_regularizer":null,"bias_regularizer":null,"activity_regularizer":null,"kernel_constraint":null,"bias_constraint":null,"name":"dense_Dense1108","trainable":true},"inbound_nodes":[[["dense_Dense1107",0,0,{}]]]},{"name":"dense_Dense1109","class_name":"Dense","config":{"units":32,"activation":"relu","use_bias":true,"kernel_initializer":{"class_name":"VarianceScaling","config":{"scale":1,"mode":"fan_avg","distribution":"normal","seed":null}},"bias_initializer":{"class_name":"Zeros","config":{}},"kernel_regularizer":null,"bias_regularizer":null,"activity_regularizer":null,"kernel_constraint":null,"bias_constraint":null,"name":"dense_Dense1109","trainable":true},"inbound_nodes":[[["dense_Dense1108",0,0,{}]]]},{"name":"dense_Dense1110","class_name":"Dense","config":{"units":1,"activation":"sigmoid","use_bias":true,"kernel_initializer":{"class_name":"VarianceScaling","config":{"scale":1,"mode":"fan_avg","distribution":"normal","seed":null}},"bias_initializer":{"class_name":"Zeros","config":{}},"kernel_regularizer":null,"bias_regularizer":null,"activity_regularizer":null,"kernel_constraint":null,"bias_constraint":null,"name":"dense_Dense1110","trainable":true},"inbound_nodes":[[["dense_Dense1109",0,0,{}]]]}],"input_layers":[["input222",0,0]],"output_layers":[["dense_Dense1110",0,0]]},"keras_version":"tfjs-layers 3.9.0","backend":"tensor_flow.js"},"weightsManifest":[{"paths":["weights.bin"],"weights":[{"name":"dense_Dense1106/kernel","shape":[3,2],"dtype":"float32"},{"name":"dense_Dense1106/bias","shape":[2],"dtype":"float32"},{"name":"dense_Dense1107/kernel","shape":[2,1],"dtype":"float32"},{"name":"dense_Dense1107/bias","shape":[1],"dtype":"float32"},{"name":"dense_Dense1108/kernel","shape":[1,1],"dtype":"float32"},{"name":"dense_Dense1108/bias","shape":[1],"dtype":"float32"},{"name":"dense_Dense1109/kernel","shape":[1,32],"dtype":"float32"},{"name":"dense_Dense1109/bias","shape":[32],"dtype":"float32"},{"name":"dense_Dense1110/kernel","shape":[32,1],"dtype":"float32"},{"name":"dense_Dense1110/bias","shape":[1],"dtype":"float32"}]}]}