{"modelTopology":{"class_name":"Model","config":{"name":"model1231","layers":[{"name":"input1231","class_name":"InputLayer","config":{"batch_input_shape":[null,3],"dtype":"float32","sparse":false,"name":"input1231"},"inbound_nodes":[]},{"name":"dense_Dense7381","class_name":"Dense","config":{"units":8,"activation":"relu","use_bias":true,"kernel_initializer":{"class_name":"VarianceScaling","config":{"scale":1,"mode":"fan_avg","distribution":"normal","seed":null}},"bias_initializer":{"class_name":"Zeros","config":{}},"kernel_regularizer":null,"bias_regularizer":null,"activity_regularizer":null,"kernel_constraint":null,"bias_constraint":null,"name":"dense_Dense7381","trainable":true},"inbound_nodes":[[["input1231",0,0,{}]]]},{"name":"dense_Dense7382","class_name":"Dense","config":{"units":32,"activation":"relu","use_bias":true,"kernel_initializer":{"class_name":"VarianceScaling","config":{"scale":1,"mode":"fan_avg","distribution":"normal","seed":null}},"bias_initializer":{"class_name":"Zeros","config":{}},"kernel_regularizer":null,"bias_regularizer":null,"activity_regularizer":null,"kernel_constraint":null,"bias_constraint":null,"name":"dense_Dense7382","trainable":true},"inbound_nodes":[[["dense_Dense7381",0,0,{}]]]},{"name":"dense_Dense7383","class_name":"Dense","config":{"units":16,"activation":"relu","use_bias":true,"kernel_initializer":{"class_name":"VarianceScaling","config":{"scale":1,"mode":"fan_avg","distribution":"normal","seed":null}},"bias_initializer":{"class_name":"Zeros","config":{}},"kernel_regularizer":null,"bias_regularizer":null,"activity_regularizer":null,"kernel_constraint":null,"bias_constraint":null,"name":"dense_Dense7383","trainable":true},"inbound_nodes":[[["dense_Dense7382",0,0,{}]]]},{"name":"dense_Dense7384","class_name":"Dense","config":{"units":2,"activation":"relu","use_bias":true,"kernel_initializer":{"class_name":"VarianceScaling","config":{"scale":1,"mode":"fan_avg","distribution":"normal","seed":null}},"bias_initializer":{"class_name":"Zeros","config":{}},"kernel_regularizer":null,"bias_regularizer":null,"activity_regularizer":null,"kernel_constraint":null,"bias_constraint":null,"name":"dense_Dense7384","trainable":true},"inbound_nodes":[[["dense_Dense7383",0,0,{}]]]},{"name":"dense_Dense7385","class_name":"Dense","config":{"units":1,"activation":"relu","use_bias":true,"kernel_initializer":{"class_name":"VarianceScaling","config":{"scale":1,"mode":"fan_avg","distribution":"normal","seed":null}},"bias_initializer":{"class_name":"Zeros","config":{}},"kernel_regularizer":null,"bias_regularizer":null,"activity_regularizer":null,"kernel_constraint":null,"bias_constraint":null,"name":"dense_Dense7385","trainable":true},"inbound_nodes":[[["dense_Dense7384",0,0,{}]]]},{"name":"dense_Dense7386","class_name":"Dense","config":{"units":1,"activation":"sigmoid","use_bias":true,"kernel_initializer":{"class_name":"VarianceScaling","config":{"scale":1,"mode":"fan_avg","distribution":"normal","seed":null}},"bias_initializer":{"class_name":"Zeros","config":{}},"kernel_regularizer":null,"bias_regularizer":null,"activity_regularizer":null,"kernel_constraint":null,"bias_constraint":null,"name":"dense_Dense7386","trainable":true},"inbound_nodes":[[["dense_Dense7385",0,0,{}]]]}],"input_layers":[["input1231",0,0]],"output_layers":[["dense_Dense7386",0,0]]},"keras_version":"tfjs-layers 3.9.0","backend":"tensor_flow.js"},"weightsManifest":[{"paths":["weights.bin"],"weights":[{"name":"dense_Dense7381/kernel","shape":[3,8],"dtype":"float32"},{"name":"dense_Dense7381/bias","shape":[8],"dtype":"float32"},{"name":"dense_Dense7382/kernel","shape":[8,32],"dtype":"float32"},{"name":"dense_Dense7382/bias","shape":[32],"dtype":"float32"},{"name":"dense_Dense7383/kernel","shape":[32,16],"dtype":"float32"},{"name":"dense_Dense7383/bias","shape":[16],"dtype":"float32"},{"name":"dense_Dense7384/kernel","shape":[16,2],"dtype":"float32"},{"name":"dense_Dense7384/bias","shape":[2],"dtype":"float32"},{"name":"dense_Dense7385/kernel","shape":[2,1],"dtype":"float32"},{"name":"dense_Dense7385/bias","shape":[1],"dtype":"float32"},{"name":"dense_Dense7386/kernel","shape":[1,1],"dtype":"float32"},{"name":"dense_Dense7386/bias","shape":[1],"dtype":"float32"}]}]}