{"modelTopology":{"class_name":"Model","config":{"name":"model199","layers":[{"name":"input199","class_name":"InputLayer","config":{"batch_input_shape":[null,3],"dtype":"float32","sparse":false,"name":"input199"},"inbound_nodes":[]},{"name":"dense_Dense991","class_name":"Dense","config":{"units":1,"activation":"relu","use_bias":true,"kernel_initializer":{"class_name":"VarianceScaling","config":{"scale":1,"mode":"fan_avg","distribution":"normal","seed":null}},"bias_initializer":{"class_name":"Zeros","config":{}},"kernel_regularizer":null,"bias_regularizer":null,"activity_regularizer":null,"kernel_constraint":null,"bias_constraint":null,"name":"dense_Dense991","trainable":true},"inbound_nodes":[[["input199",0,0,{}]]]},{"name":"dense_Dense992","class_name":"Dense","config":{"units":32,"activation":"relu","use_bias":true,"kernel_initializer":{"class_name":"VarianceScaling","config":{"scale":1,"mode":"fan_avg","distribution":"normal","seed":null}},"bias_initializer":{"class_name":"Zeros","config":{}},"kernel_regularizer":null,"bias_regularizer":null,"activity_regularizer":null,"kernel_constraint":null,"bias_constraint":null,"name":"dense_Dense992","trainable":true},"inbound_nodes":[[["dense_Dense991",0,0,{}]]]},{"name":"dense_Dense993","class_name":"Dense","config":{"units":8,"activation":"relu","use_bias":true,"kernel_initializer":{"class_name":"VarianceScaling","config":{"scale":1,"mode":"fan_avg","distribution":"normal","seed":null}},"bias_initializer":{"class_name":"Zeros","config":{}},"kernel_regularizer":null,"bias_regularizer":null,"activity_regularizer":null,"kernel_constraint":null,"bias_constraint":null,"name":"dense_Dense993","trainable":true},"inbound_nodes":[[["dense_Dense992",0,0,{}]]]},{"name":"dense_Dense994","class_name":"Dense","config":{"units":1,"activation":"relu","use_bias":true,"kernel_initializer":{"class_name":"VarianceScaling","config":{"scale":1,"mode":"fan_avg","distribution":"normal","seed":null}},"bias_initializer":{"class_name":"Zeros","config":{}},"kernel_regularizer":null,"bias_regularizer":null,"activity_regularizer":null,"kernel_constraint":null,"bias_constraint":null,"name":"dense_Dense994","trainable":true},"inbound_nodes":[[["dense_Dense993",0,0,{}]]]},{"name":"dense_Dense995","class_name":"Dense","config":{"units":1,"activation":"sigmoid","use_bias":true,"kernel_initializer":{"class_name":"VarianceScaling","config":{"scale":1,"mode":"fan_avg","distribution":"normal","seed":null}},"bias_initializer":{"class_name":"Zeros","config":{}},"kernel_regularizer":null,"bias_regularizer":null,"activity_regularizer":null,"kernel_constraint":null,"bias_constraint":null,"name":"dense_Dense995","trainable":true},"inbound_nodes":[[["dense_Dense994",0,0,{}]]]}],"input_layers":[["input199",0,0]],"output_layers":[["dense_Dense995",0,0]]},"keras_version":"tfjs-layers 3.9.0","backend":"tensor_flow.js"},"weightsManifest":[{"paths":["weights.bin"],"weights":[{"name":"dense_Dense991/kernel","shape":[3,1],"dtype":"float32"},{"name":"dense_Dense991/bias","shape":[1],"dtype":"float32"},{"name":"dense_Dense992/kernel","shape":[1,32],"dtype":"float32"},{"name":"dense_Dense992/bias","shape":[32],"dtype":"float32"},{"name":"dense_Dense993/kernel","shape":[32,8],"dtype":"float32"},{"name":"dense_Dense993/bias","shape":[8],"dtype":"float32"},{"name":"dense_Dense994/kernel","shape":[8,1],"dtype":"float32"},{"name":"dense_Dense994/bias","shape":[1],"dtype":"float32"},{"name":"dense_Dense995/kernel","shape":[1,1],"dtype":"float32"},{"name":"dense_Dense995/bias","shape":[1],"dtype":"float32"}]}]}