{"modelTopology":{"class_name":"Model","config":{"name":"model29","layers":[{"name":"input29","class_name":"InputLayer","config":{"batch_input_shape":[null,3],"dtype":"float32","sparse":false,"name":"input29"},"inbound_nodes":[]},{"name":"dense_Dense141","class_name":"Dense","config":{"units":1,"activation":"relu","use_bias":true,"kernel_initializer":{"class_name":"VarianceScaling","config":{"scale":1,"mode":"fan_avg","distribution":"normal","seed":null}},"bias_initializer":{"class_name":"Zeros","config":{}},"kernel_regularizer":null,"bias_regularizer":null,"activity_regularizer":null,"kernel_constraint":null,"bias_constraint":null,"name":"dense_Dense141","trainable":true},"inbound_nodes":[[["input29",0,0,{}]]]},{"name":"dense_Dense142","class_name":"Dense","config":{"units":1,"activation":"relu","use_bias":true,"kernel_initializer":{"class_name":"VarianceScaling","config":{"scale":1,"mode":"fan_avg","distribution":"normal","seed":null}},"bias_initializer":{"class_name":"Zeros","config":{}},"kernel_regularizer":null,"bias_regularizer":null,"activity_regularizer":null,"kernel_constraint":null,"bias_constraint":null,"name":"dense_Dense142","trainable":true},"inbound_nodes":[[["dense_Dense141",0,0,{}]]]},{"name":"dense_Dense143","class_name":"Dense","config":{"units":16,"activation":"relu","use_bias":true,"kernel_initializer":{"class_name":"VarianceScaling","config":{"scale":1,"mode":"fan_avg","distribution":"normal","seed":null}},"bias_initializer":{"class_name":"Zeros","config":{}},"kernel_regularizer":null,"bias_regularizer":null,"activity_regularizer":null,"kernel_constraint":null,"bias_constraint":null,"name":"dense_Dense143","trainable":true},"inbound_nodes":[[["dense_Dense142",0,0,{}]]]},{"name":"dense_Dense144","class_name":"Dense","config":{"units":16,"activation":"relu","use_bias":true,"kernel_initializer":{"class_name":"VarianceScaling","config":{"scale":1,"mode":"fan_avg","distribution":"normal","seed":null}},"bias_initializer":{"class_name":"Zeros","config":{}},"kernel_regularizer":null,"bias_regularizer":null,"activity_regularizer":null,"kernel_constraint":null,"bias_constraint":null,"name":"dense_Dense144","trainable":true},"inbound_nodes":[[["dense_Dense143",0,0,{}]]]},{"name":"dense_Dense145","class_name":"Dense","config":{"units":1,"activation":"sigmoid","use_bias":true,"kernel_initializer":{"class_name":"VarianceScaling","config":{"scale":1,"mode":"fan_avg","distribution":"normal","seed":null}},"bias_initializer":{"class_name":"Zeros","config":{}},"kernel_regularizer":null,"bias_regularizer":null,"activity_regularizer":null,"kernel_constraint":null,"bias_constraint":null,"name":"dense_Dense145","trainable":true},"inbound_nodes":[[["dense_Dense144",0,0,{}]]]}],"input_layers":[["input29",0,0]],"output_layers":[["dense_Dense145",0,0]]},"keras_version":"tfjs-layers 3.9.0","backend":"tensor_flow.js"},"weightsManifest":[{"paths":["weights.bin"],"weights":[{"name":"dense_Dense141/kernel","shape":[3,1],"dtype":"float32"},{"name":"dense_Dense141/bias","shape":[1],"dtype":"float32"},{"name":"dense_Dense142/kernel","shape":[1,1],"dtype":"float32"},{"name":"dense_Dense142/bias","shape":[1],"dtype":"float32"},{"name":"dense_Dense143/kernel","shape":[1,16],"dtype":"float32"},{"name":"dense_Dense143/bias","shape":[16],"dtype":"float32"},{"name":"dense_Dense144/kernel","shape":[16,16],"dtype":"float32"},{"name":"dense_Dense144/bias","shape":[16],"dtype":"float32"},{"name":"dense_Dense145/kernel","shape":[16,1],"dtype":"float32"},{"name":"dense_Dense145/bias","shape":[1],"dtype":"float32"}]}]}