{"modelTopology":{"class_name":"Model","config":{"name":"model231","layers":[{"name":"input231","class_name":"InputLayer","config":{"batch_input_shape":[null,3],"dtype":"float32","sparse":false,"name":"input231"},"inbound_nodes":[]},{"name":"dense_Dense1151","class_name":"Dense","config":{"units":2,"activation":"relu","use_bias":true,"kernel_initializer":{"class_name":"VarianceScaling","config":{"scale":1,"mode":"fan_avg","distribution":"normal","seed":null}},"bias_initializer":{"class_name":"Zeros","config":{}},"kernel_regularizer":null,"bias_regularizer":null,"activity_regularizer":null,"kernel_constraint":null,"bias_constraint":null,"name":"dense_Dense1151","trainable":true},"inbound_nodes":[[["input231",0,0,{}]]]},{"name":"dense_Dense1152","class_name":"Dense","config":{"units":1,"activation":"relu","use_bias":true,"kernel_initializer":{"class_name":"VarianceScaling","config":{"scale":1,"mode":"fan_avg","distribution":"normal","seed":null}},"bias_initializer":{"class_name":"Zeros","config":{}},"kernel_regularizer":null,"bias_regularizer":null,"activity_regularizer":null,"kernel_constraint":null,"bias_constraint":null,"name":"dense_Dense1152","trainable":true},"inbound_nodes":[[["dense_Dense1151",0,0,{}]]]},{"name":"dense_Dense1153","class_name":"Dense","config":{"units":4,"activation":"relu","use_bias":true,"kernel_initializer":{"class_name":"VarianceScaling","config":{"scale":1,"mode":"fan_avg","distribution":"normal","seed":null}},"bias_initializer":{"class_name":"Zeros","config":{}},"kernel_regularizer":null,"bias_regularizer":null,"activity_regularizer":null,"kernel_constraint":null,"bias_constraint":null,"name":"dense_Dense1153","trainable":true},"inbound_nodes":[[["dense_Dense1152",0,0,{}]]]},{"name":"dense_Dense1154","class_name":"Dense","config":{"units":4,"activation":"relu","use_bias":true,"kernel_initializer":{"class_name":"VarianceScaling","config":{"scale":1,"mode":"fan_avg","distribution":"normal","seed":null}},"bias_initializer":{"class_name":"Zeros","config":{}},"kernel_regularizer":null,"bias_regularizer":null,"activity_regularizer":null,"kernel_constraint":null,"bias_constraint":null,"name":"dense_Dense1154","trainable":true},"inbound_nodes":[[["dense_Dense1153",0,0,{}]]]},{"name":"dense_Dense1155","class_name":"Dense","config":{"units":1,"activation":"sigmoid","use_bias":true,"kernel_initializer":{"class_name":"VarianceScaling","config":{"scale":1,"mode":"fan_avg","distribution":"normal","seed":null}},"bias_initializer":{"class_name":"Zeros","config":{}},"kernel_regularizer":null,"bias_regularizer":null,"activity_regularizer":null,"kernel_constraint":null,"bias_constraint":null,"name":"dense_Dense1155","trainable":true},"inbound_nodes":[[["dense_Dense1154",0,0,{}]]]}],"input_layers":[["input231",0,0]],"output_layers":[["dense_Dense1155",0,0]]},"keras_version":"tfjs-layers 3.9.0","backend":"tensor_flow.js"},"weightsManifest":[{"paths":["weights.bin"],"weights":[{"name":"dense_Dense1151/kernel","shape":[3,2],"dtype":"float32"},{"name":"dense_Dense1151/bias","shape":[2],"dtype":"float32"},{"name":"dense_Dense1152/kernel","shape":[2,1],"dtype":"float32"},{"name":"dense_Dense1152/bias","shape":[1],"dtype":"float32"},{"name":"dense_Dense1153/kernel","shape":[1,4],"dtype":"float32"},{"name":"dense_Dense1153/bias","shape":[4],"dtype":"float32"},{"name":"dense_Dense1154/kernel","shape":[4,4],"dtype":"float32"},{"name":"dense_Dense1154/bias","shape":[4],"dtype":"float32"},{"name":"dense_Dense1155/kernel","shape":[4,1],"dtype":"float32"},{"name":"dense_Dense1155/bias","shape":[1],"dtype":"float32"}]}]}