{"modelTopology":{"class_name":"Model","config":{"name":"model783","layers":[{"name":"input783","class_name":"InputLayer","config":{"batch_input_shape":[null,3],"dtype":"float32","sparse":false,"name":"input783"},"inbound_nodes":[]},{"name":"dense_Dense4693","class_name":"Dense","config":{"units":1,"activation":"relu","use_bias":true,"kernel_initializer":{"class_name":"VarianceScaling","config":{"scale":1,"mode":"fan_avg","distribution":"normal","seed":null}},"bias_initializer":{"class_name":"Zeros","config":{}},"kernel_regularizer":null,"bias_regularizer":null,"activity_regularizer":null,"kernel_constraint":null,"bias_constraint":null,"name":"dense_Dense4693","trainable":true},"inbound_nodes":[[["input783",0,0,{}]]]},{"name":"dense_Dense4694","class_name":"Dense","config":{"units":8,"activation":"relu","use_bias":true,"kernel_initializer":{"class_name":"VarianceScaling","config":{"scale":1,"mode":"fan_avg","distribution":"normal","seed":null}},"bias_initializer":{"class_name":"Zeros","config":{}},"kernel_regularizer":null,"bias_regularizer":null,"activity_regularizer":null,"kernel_constraint":null,"bias_constraint":null,"name":"dense_Dense4694","trainable":true},"inbound_nodes":[[["dense_Dense4693",0,0,{}]]]},{"name":"dense_Dense4695","class_name":"Dense","config":{"units":8,"activation":"relu","use_bias":true,"kernel_initializer":{"class_name":"VarianceScaling","config":{"scale":1,"mode":"fan_avg","distribution":"normal","seed":null}},"bias_initializer":{"class_name":"Zeros","config":{}},"kernel_regularizer":null,"bias_regularizer":null,"activity_regularizer":null,"kernel_constraint":null,"bias_constraint":null,"name":"dense_Dense4695","trainable":true},"inbound_nodes":[[["dense_Dense4694",0,0,{}]]]},{"name":"dense_Dense4696","class_name":"Dense","config":{"units":16,"activation":"relu","use_bias":true,"kernel_initializer":{"class_name":"VarianceScaling","config":{"scale":1,"mode":"fan_avg","distribution":"normal","seed":null}},"bias_initializer":{"class_name":"Zeros","config":{}},"kernel_regularizer":null,"bias_regularizer":null,"activity_regularizer":null,"kernel_constraint":null,"bias_constraint":null,"name":"dense_Dense4696","trainable":true},"inbound_nodes":[[["dense_Dense4695",0,0,{}]]]},{"name":"dense_Dense4697","class_name":"Dense","config":{"units":4,"activation":"relu","use_bias":true,"kernel_initializer":{"class_name":"VarianceScaling","config":{"scale":1,"mode":"fan_avg","distribution":"normal","seed":null}},"bias_initializer":{"class_name":"Zeros","config":{}},"kernel_regularizer":null,"bias_regularizer":null,"activity_regularizer":null,"kernel_constraint":null,"bias_constraint":null,"name":"dense_Dense4697","trainable":true},"inbound_nodes":[[["dense_Dense4696",0,0,{}]]]},{"name":"dense_Dense4698","class_name":"Dense","config":{"units":1,"activation":"sigmoid","use_bias":true,"kernel_initializer":{"class_name":"VarianceScaling","config":{"scale":1,"mode":"fan_avg","distribution":"normal","seed":null}},"bias_initializer":{"class_name":"Zeros","config":{}},"kernel_regularizer":null,"bias_regularizer":null,"activity_regularizer":null,"kernel_constraint":null,"bias_constraint":null,"name":"dense_Dense4698","trainable":true},"inbound_nodes":[[["dense_Dense4697",0,0,{}]]]}],"input_layers":[["input783",0,0]],"output_layers":[["dense_Dense4698",0,0]]},"keras_version":"tfjs-layers 3.9.0","backend":"tensor_flow.js"},"weightsManifest":[{"paths":["weights.bin"],"weights":[{"name":"dense_Dense4693/kernel","shape":[3,1],"dtype":"float32"},{"name":"dense_Dense4693/bias","shape":[1],"dtype":"float32"},{"name":"dense_Dense4694/kernel","shape":[1,8],"dtype":"float32"},{"name":"dense_Dense4694/bias","shape":[8],"dtype":"float32"},{"name":"dense_Dense4695/kernel","shape":[8,8],"dtype":"float32"},{"name":"dense_Dense4695/bias","shape":[8],"dtype":"float32"},{"name":"dense_Dense4696/kernel","shape":[8,16],"dtype":"float32"},{"name":"dense_Dense4696/bias","shape":[16],"dtype":"float32"},{"name":"dense_Dense4697/kernel","shape":[16,4],"dtype":"float32"},{"name":"dense_Dense4697/bias","shape":[4],"dtype":"float32"},{"name":"dense_Dense4698/kernel","shape":[4,1],"dtype":"float32"},{"name":"dense_Dense4698/bias","shape":[1],"dtype":"float32"}]}]}