{"modelTopology":{"class_name":"Model","config":{"name":"model805","layers":[{"name":"input805","class_name":"InputLayer","config":{"batch_input_shape":[null,3],"dtype":"float32","sparse":false,"name":"input805"},"inbound_nodes":[]},{"name":"dense_Dense4021","class_name":"Dense","config":{"units":8,"activation":"relu","use_bias":true,"kernel_initializer":{"class_name":"VarianceScaling","config":{"scale":1,"mode":"fan_avg","distribution":"normal","seed":null}},"bias_initializer":{"class_name":"Zeros","config":{}},"kernel_regularizer":null,"bias_regularizer":null,"activity_regularizer":null,"kernel_constraint":null,"bias_constraint":null,"name":"dense_Dense4021","trainable":true},"inbound_nodes":[[["input805",0,0,{}]]]},{"name":"dense_Dense4022","class_name":"Dense","config":{"units":16,"activation":"relu","use_bias":true,"kernel_initializer":{"class_name":"VarianceScaling","config":{"scale":1,"mode":"fan_avg","distribution":"normal","seed":null}},"bias_initializer":{"class_name":"Zeros","config":{}},"kernel_regularizer":null,"bias_regularizer":null,"activity_regularizer":null,"kernel_constraint":null,"bias_constraint":null,"name":"dense_Dense4022","trainable":true},"inbound_nodes":[[["dense_Dense4021",0,0,{}]]]},{"name":"dense_Dense4023","class_name":"Dense","config":{"units":4,"activation":"relu","use_bias":true,"kernel_initializer":{"class_name":"VarianceScaling","config":{"scale":1,"mode":"fan_avg","distribution":"normal","seed":null}},"bias_initializer":{"class_name":"Zeros","config":{}},"kernel_regularizer":null,"bias_regularizer":null,"activity_regularizer":null,"kernel_constraint":null,"bias_constraint":null,"name":"dense_Dense4023","trainable":true},"inbound_nodes":[[["dense_Dense4022",0,0,{}]]]},{"name":"dense_Dense4024","class_name":"Dense","config":{"units":1,"activation":"relu","use_bias":true,"kernel_initializer":{"class_name":"VarianceScaling","config":{"scale":1,"mode":"fan_avg","distribution":"normal","seed":null}},"bias_initializer":{"class_name":"Zeros","config":{}},"kernel_regularizer":null,"bias_regularizer":null,"activity_regularizer":null,"kernel_constraint":null,"bias_constraint":null,"name":"dense_Dense4024","trainable":true},"inbound_nodes":[[["dense_Dense4023",0,0,{}]]]},{"name":"dense_Dense4025","class_name":"Dense","config":{"units":1,"activation":"sigmoid","use_bias":true,"kernel_initializer":{"class_name":"VarianceScaling","config":{"scale":1,"mode":"fan_avg","distribution":"normal","seed":null}},"bias_initializer":{"class_name":"Zeros","config":{}},"kernel_regularizer":null,"bias_regularizer":null,"activity_regularizer":null,"kernel_constraint":null,"bias_constraint":null,"name":"dense_Dense4025","trainable":true},"inbound_nodes":[[["dense_Dense4024",0,0,{}]]]}],"input_layers":[["input805",0,0]],"output_layers":[["dense_Dense4025",0,0]]},"keras_version":"tfjs-layers 3.9.0","backend":"tensor_flow.js"},"weightsManifest":[{"paths":["weights.bin"],"weights":[{"name":"dense_Dense4021/kernel","shape":[3,8],"dtype":"float32"},{"name":"dense_Dense4021/bias","shape":[8],"dtype":"float32"},{"name":"dense_Dense4022/kernel","shape":[8,16],"dtype":"float32"},{"name":"dense_Dense4022/bias","shape":[16],"dtype":"float32"},{"name":"dense_Dense4023/kernel","shape":[16,4],"dtype":"float32"},{"name":"dense_Dense4023/bias","shape":[4],"dtype":"float32"},{"name":"dense_Dense4024/kernel","shape":[4,1],"dtype":"float32"},{"name":"dense_Dense4024/bias","shape":[1],"dtype":"float32"},{"name":"dense_Dense4025/kernel","shape":[1,1],"dtype":"float32"},{"name":"dense_Dense4025/bias","shape":[1],"dtype":"float32"}]}]}