{"modelTopology":{"class_name":"Model","config":{"name":"model514","layers":[{"name":"input514","class_name":"InputLayer","config":{"batch_input_shape":[null,3],"dtype":"float32","sparse":false,"name":"input514"},"inbound_nodes":[]},{"name":"dense_Dense2566","class_name":"Dense","config":{"units":4,"activation":"relu","use_bias":true,"kernel_initializer":{"class_name":"VarianceScaling","config":{"scale":1,"mode":"fan_avg","distribution":"normal","seed":null}},"bias_initializer":{"class_name":"Zeros","config":{}},"kernel_regularizer":null,"bias_regularizer":null,"activity_regularizer":null,"kernel_constraint":null,"bias_constraint":null,"name":"dense_Dense2566","trainable":true},"inbound_nodes":[[["input514",0,0,{}]]]},{"name":"dense_Dense2567","class_name":"Dense","config":{"units":4,"activation":"relu","use_bias":true,"kernel_initializer":{"class_name":"VarianceScaling","config":{"scale":1,"mode":"fan_avg","distribution":"normal","seed":null}},"bias_initializer":{"class_name":"Zeros","config":{}},"kernel_regularizer":null,"bias_regularizer":null,"activity_regularizer":null,"kernel_constraint":null,"bias_constraint":null,"name":"dense_Dense2567","trainable":true},"inbound_nodes":[[["dense_Dense2566",0,0,{}]]]},{"name":"dense_Dense2568","class_name":"Dense","config":{"units":2,"activation":"relu","use_bias":true,"kernel_initializer":{"class_name":"VarianceScaling","config":{"scale":1,"mode":"fan_avg","distribution":"normal","seed":null}},"bias_initializer":{"class_name":"Zeros","config":{}},"kernel_regularizer":null,"bias_regularizer":null,"activity_regularizer":null,"kernel_constraint":null,"bias_constraint":null,"name":"dense_Dense2568","trainable":true},"inbound_nodes":[[["dense_Dense2567",0,0,{}]]]},{"name":"dense_Dense2569","class_name":"Dense","config":{"units":8,"activation":"relu","use_bias":true,"kernel_initializer":{"class_name":"VarianceScaling","config":{"scale":1,"mode":"fan_avg","distribution":"normal","seed":null}},"bias_initializer":{"class_name":"Zeros","config":{}},"kernel_regularizer":null,"bias_regularizer":null,"activity_regularizer":null,"kernel_constraint":null,"bias_constraint":null,"name":"dense_Dense2569","trainable":true},"inbound_nodes":[[["dense_Dense2568",0,0,{}]]]},{"name":"dense_Dense2570","class_name":"Dense","config":{"units":1,"activation":"sigmoid","use_bias":true,"kernel_initializer":{"class_name":"VarianceScaling","config":{"scale":1,"mode":"fan_avg","distribution":"normal","seed":null}},"bias_initializer":{"class_name":"Zeros","config":{}},"kernel_regularizer":null,"bias_regularizer":null,"activity_regularizer":null,"kernel_constraint":null,"bias_constraint":null,"name":"dense_Dense2570","trainable":true},"inbound_nodes":[[["dense_Dense2569",0,0,{}]]]}],"input_layers":[["input514",0,0]],"output_layers":[["dense_Dense2570",0,0]]},"keras_version":"tfjs-layers 3.9.0","backend":"tensor_flow.js"},"weightsManifest":[{"paths":["weights.bin"],"weights":[{"name":"dense_Dense2566/kernel","shape":[3,4],"dtype":"float32"},{"name":"dense_Dense2566/bias","shape":[4],"dtype":"float32"},{"name":"dense_Dense2567/kernel","shape":[4,4],"dtype":"float32"},{"name":"dense_Dense2567/bias","shape":[4],"dtype":"float32"},{"name":"dense_Dense2568/kernel","shape":[4,2],"dtype":"float32"},{"name":"dense_Dense2568/bias","shape":[2],"dtype":"float32"},{"name":"dense_Dense2569/kernel","shape":[2,8],"dtype":"float32"},{"name":"dense_Dense2569/bias","shape":[8],"dtype":"float32"},{"name":"dense_Dense2570/kernel","shape":[8,1],"dtype":"float32"},{"name":"dense_Dense2570/bias","shape":[1],"dtype":"float32"}]}]}