{"modelTopology":{"class_name":"Model","config":{"name":"model673","layers":[{"name":"input673","class_name":"InputLayer","config":{"batch_input_shape":[null,3],"dtype":"float32","sparse":false,"name":"input673"},"inbound_nodes":[]},{"name":"dense_Dense4033","class_name":"Dense","config":{"units":1,"activation":"relu","use_bias":true,"kernel_initializer":{"class_name":"VarianceScaling","config":{"scale":1,"mode":"fan_avg","distribution":"normal","seed":null}},"bias_initializer":{"class_name":"Zeros","config":{}},"kernel_regularizer":null,"bias_regularizer":null,"activity_regularizer":null,"kernel_constraint":null,"bias_constraint":null,"name":"dense_Dense4033","trainable":true},"inbound_nodes":[[["input673",0,0,{}]]]},{"name":"dense_Dense4034","class_name":"Dense","config":{"units":8,"activation":"relu","use_bias":true,"kernel_initializer":{"class_name":"VarianceScaling","config":{"scale":1,"mode":"fan_avg","distribution":"normal","seed":null}},"bias_initializer":{"class_name":"Zeros","config":{}},"kernel_regularizer":null,"bias_regularizer":null,"activity_regularizer":null,"kernel_constraint":null,"bias_constraint":null,"name":"dense_Dense4034","trainable":true},"inbound_nodes":[[["dense_Dense4033",0,0,{}]]]},{"name":"dense_Dense4035","class_name":"Dense","config":{"units":1,"activation":"relu","use_bias":true,"kernel_initializer":{"class_name":"VarianceScaling","config":{"scale":1,"mode":"fan_avg","distribution":"normal","seed":null}},"bias_initializer":{"class_name":"Zeros","config":{}},"kernel_regularizer":null,"bias_regularizer":null,"activity_regularizer":null,"kernel_constraint":null,"bias_constraint":null,"name":"dense_Dense4035","trainable":true},"inbound_nodes":[[["dense_Dense4034",0,0,{}]]]},{"name":"dense_Dense4036","class_name":"Dense","config":{"units":16,"activation":"relu","use_bias":true,"kernel_initializer":{"class_name":"VarianceScaling","config":{"scale":1,"mode":"fan_avg","distribution":"normal","seed":null}},"bias_initializer":{"class_name":"Zeros","config":{}},"kernel_regularizer":null,"bias_regularizer":null,"activity_regularizer":null,"kernel_constraint":null,"bias_constraint":null,"name":"dense_Dense4036","trainable":true},"inbound_nodes":[[["dense_Dense4035",0,0,{}]]]},{"name":"dense_Dense4037","class_name":"Dense","config":{"units":1,"activation":"relu","use_bias":true,"kernel_initializer":{"class_name":"VarianceScaling","config":{"scale":1,"mode":"fan_avg","distribution":"normal","seed":null}},"bias_initializer":{"class_name":"Zeros","config":{}},"kernel_regularizer":null,"bias_regularizer":null,"activity_regularizer":null,"kernel_constraint":null,"bias_constraint":null,"name":"dense_Dense4037","trainable":true},"inbound_nodes":[[["dense_Dense4036",0,0,{}]]]},{"name":"dense_Dense4038","class_name":"Dense","config":{"units":1,"activation":"sigmoid","use_bias":true,"kernel_initializer":{"class_name":"VarianceScaling","config":{"scale":1,"mode":"fan_avg","distribution":"normal","seed":null}},"bias_initializer":{"class_name":"Zeros","config":{}},"kernel_regularizer":null,"bias_regularizer":null,"activity_regularizer":null,"kernel_constraint":null,"bias_constraint":null,"name":"dense_Dense4038","trainable":true},"inbound_nodes":[[["dense_Dense4037",0,0,{}]]]}],"input_layers":[["input673",0,0]],"output_layers":[["dense_Dense4038",0,0]]},"keras_version":"tfjs-layers 3.9.0","backend":"tensor_flow.js"},"weightsManifest":[{"paths":["weights.bin"],"weights":[{"name":"dense_Dense4033/kernel","shape":[3,1],"dtype":"float32"},{"name":"dense_Dense4033/bias","shape":[1],"dtype":"float32"},{"name":"dense_Dense4034/kernel","shape":[1,8],"dtype":"float32"},{"name":"dense_Dense4034/bias","shape":[8],"dtype":"float32"},{"name":"dense_Dense4035/kernel","shape":[8,1],"dtype":"float32"},{"name":"dense_Dense4035/bias","shape":[1],"dtype":"float32"},{"name":"dense_Dense4036/kernel","shape":[1,16],"dtype":"float32"},{"name":"dense_Dense4036/bias","shape":[16],"dtype":"float32"},{"name":"dense_Dense4037/kernel","shape":[16,1],"dtype":"float32"},{"name":"dense_Dense4037/bias","shape":[1],"dtype":"float32"},{"name":"dense_Dense4038/kernel","shape":[1,1],"dtype":"float32"},{"name":"dense_Dense4038/bias","shape":[1],"dtype":"float32"}]}]}