{"modelTopology":{"class_name":"Model","config":{"name":"model1295","layers":[{"name":"input1295","class_name":"InputLayer","config":{"batch_input_shape":[null,3],"dtype":"float32","sparse":false,"name":"input1295"},"inbound_nodes":[]},{"name":"dense_Dense7765","class_name":"Dense","config":{"units":4,"activation":"relu","use_bias":true,"kernel_initializer":{"class_name":"VarianceScaling","config":{"scale":1,"mode":"fan_avg","distribution":"normal","seed":null}},"bias_initializer":{"class_name":"Zeros","config":{}},"kernel_regularizer":null,"bias_regularizer":null,"activity_regularizer":null,"kernel_constraint":null,"bias_constraint":null,"name":"dense_Dense7765","trainable":true},"inbound_nodes":[[["input1295",0,0,{}]]]},{"name":"dense_Dense7766","class_name":"Dense","config":{"units":32,"activation":"relu","use_bias":true,"kernel_initializer":{"class_name":"VarianceScaling","config":{"scale":1,"mode":"fan_avg","distribution":"normal","seed":null}},"bias_initializer":{"class_name":"Zeros","config":{}},"kernel_regularizer":null,"bias_regularizer":null,"activity_regularizer":null,"kernel_constraint":null,"bias_constraint":null,"name":"dense_Dense7766","trainable":true},"inbound_nodes":[[["dense_Dense7765",0,0,{}]]]},{"name":"dense_Dense7767","class_name":"Dense","config":{"units":32,"activation":"relu","use_bias":true,"kernel_initializer":{"class_name":"VarianceScaling","config":{"scale":1,"mode":"fan_avg","distribution":"normal","seed":null}},"bias_initializer":{"class_name":"Zeros","config":{}},"kernel_regularizer":null,"bias_regularizer":null,"activity_regularizer":null,"kernel_constraint":null,"bias_constraint":null,"name":"dense_Dense7767","trainable":true},"inbound_nodes":[[["dense_Dense7766",0,0,{}]]]},{"name":"dense_Dense7768","class_name":"Dense","config":{"units":32,"activation":"relu","use_bias":true,"kernel_initializer":{"class_name":"VarianceScaling","config":{"scale":1,"mode":"fan_avg","distribution":"normal","seed":null}},"bias_initializer":{"class_name":"Zeros","config":{}},"kernel_regularizer":null,"bias_regularizer":null,"activity_regularizer":null,"kernel_constraint":null,"bias_constraint":null,"name":"dense_Dense7768","trainable":true},"inbound_nodes":[[["dense_Dense7767",0,0,{}]]]},{"name":"dense_Dense7769","class_name":"Dense","config":{"units":16,"activation":"relu","use_bias":true,"kernel_initializer":{"class_name":"VarianceScaling","config":{"scale":1,"mode":"fan_avg","distribution":"normal","seed":null}},"bias_initializer":{"class_name":"Zeros","config":{}},"kernel_regularizer":null,"bias_regularizer":null,"activity_regularizer":null,"kernel_constraint":null,"bias_constraint":null,"name":"dense_Dense7769","trainable":true},"inbound_nodes":[[["dense_Dense7768",0,0,{}]]]},{"name":"dense_Dense7770","class_name":"Dense","config":{"units":1,"activation":"sigmoid","use_bias":true,"kernel_initializer":{"class_name":"VarianceScaling","config":{"scale":1,"mode":"fan_avg","distribution":"normal","seed":null}},"bias_initializer":{"class_name":"Zeros","config":{}},"kernel_regularizer":null,"bias_regularizer":null,"activity_regularizer":null,"kernel_constraint":null,"bias_constraint":null,"name":"dense_Dense7770","trainable":true},"inbound_nodes":[[["dense_Dense7769",0,0,{}]]]}],"input_layers":[["input1295",0,0]],"output_layers":[["dense_Dense7770",0,0]]},"keras_version":"tfjs-layers 3.9.0","backend":"tensor_flow.js"},"weightsManifest":[{"paths":["weights.bin"],"weights":[{"name":"dense_Dense7765/kernel","shape":[3,4],"dtype":"float32"},{"name":"dense_Dense7765/bias","shape":[4],"dtype":"float32"},{"name":"dense_Dense7766/kernel","shape":[4,32],"dtype":"float32"},{"name":"dense_Dense7766/bias","shape":[32],"dtype":"float32"},{"name":"dense_Dense7767/kernel","shape":[32,32],"dtype":"float32"},{"name":"dense_Dense7767/bias","shape":[32],"dtype":"float32"},{"name":"dense_Dense7768/kernel","shape":[32,32],"dtype":"float32"},{"name":"dense_Dense7768/bias","shape":[32],"dtype":"float32"},{"name":"dense_Dense7769/kernel","shape":[32,16],"dtype":"float32"},{"name":"dense_Dense7769/bias","shape":[16],"dtype":"float32"},{"name":"dense_Dense7770/kernel","shape":[16,1],"dtype":"float32"},{"name":"dense_Dense7770/bias","shape":[1],"dtype":"float32"}]}]}