{"modelTopology":{"class_name":"Model","config":{"name":"model355","layers":[{"name":"input355","class_name":"InputLayer","config":{"batch_input_shape":[null,3],"dtype":"float32","sparse":false,"name":"input355"},"inbound_nodes":[]},{"name":"dense_Dense1771","class_name":"Dense","config":{"units":2,"activation":"relu","use_bias":true,"kernel_initializer":{"class_name":"VarianceScaling","config":{"scale":1,"mode":"fan_avg","distribution":"normal","seed":null}},"bias_initializer":{"class_name":"Zeros","config":{}},"kernel_regularizer":null,"bias_regularizer":null,"activity_regularizer":null,"kernel_constraint":null,"bias_constraint":null,"name":"dense_Dense1771","trainable":true},"inbound_nodes":[[["input355",0,0,{}]]]},{"name":"dense_Dense1772","class_name":"Dense","config":{"units":8,"activation":"relu","use_bias":true,"kernel_initializer":{"class_name":"VarianceScaling","config":{"scale":1,"mode":"fan_avg","distribution":"normal","seed":null}},"bias_initializer":{"class_name":"Zeros","config":{}},"kernel_regularizer":null,"bias_regularizer":null,"activity_regularizer":null,"kernel_constraint":null,"bias_constraint":null,"name":"dense_Dense1772","trainable":true},"inbound_nodes":[[["dense_Dense1771",0,0,{}]]]},{"name":"dense_Dense1773","class_name":"Dense","config":{"units":32,"activation":"relu","use_bias":true,"kernel_initializer":{"class_name":"VarianceScaling","config":{"scale":1,"mode":"fan_avg","distribution":"normal","seed":null}},"bias_initializer":{"class_name":"Zeros","config":{}},"kernel_regularizer":null,"bias_regularizer":null,"activity_regularizer":null,"kernel_constraint":null,"bias_constraint":null,"name":"dense_Dense1773","trainable":true},"inbound_nodes":[[["dense_Dense1772",0,0,{}]]]},{"name":"dense_Dense1774","class_name":"Dense","config":{"units":1,"activation":"relu","use_bias":true,"kernel_initializer":{"class_name":"VarianceScaling","config":{"scale":1,"mode":"fan_avg","distribution":"normal","seed":null}},"bias_initializer":{"class_name":"Zeros","config":{}},"kernel_regularizer":null,"bias_regularizer":null,"activity_regularizer":null,"kernel_constraint":null,"bias_constraint":null,"name":"dense_Dense1774","trainable":true},"inbound_nodes":[[["dense_Dense1773",0,0,{}]]]},{"name":"dense_Dense1775","class_name":"Dense","config":{"units":1,"activation":"sigmoid","use_bias":true,"kernel_initializer":{"class_name":"VarianceScaling","config":{"scale":1,"mode":"fan_avg","distribution":"normal","seed":null}},"bias_initializer":{"class_name":"Zeros","config":{}},"kernel_regularizer":null,"bias_regularizer":null,"activity_regularizer":null,"kernel_constraint":null,"bias_constraint":null,"name":"dense_Dense1775","trainable":true},"inbound_nodes":[[["dense_Dense1774",0,0,{}]]]}],"input_layers":[["input355",0,0]],"output_layers":[["dense_Dense1775",0,0]]},"keras_version":"tfjs-layers 3.9.0","backend":"tensor_flow.js"},"weightsManifest":[{"paths":["weights.bin"],"weights":[{"name":"dense_Dense1771/kernel","shape":[3,2],"dtype":"float32"},{"name":"dense_Dense1771/bias","shape":[2],"dtype":"float32"},{"name":"dense_Dense1772/kernel","shape":[2,8],"dtype":"float32"},{"name":"dense_Dense1772/bias","shape":[8],"dtype":"float32"},{"name":"dense_Dense1773/kernel","shape":[8,32],"dtype":"float32"},{"name":"dense_Dense1773/bias","shape":[32],"dtype":"float32"},{"name":"dense_Dense1774/kernel","shape":[32,1],"dtype":"float32"},{"name":"dense_Dense1774/bias","shape":[1],"dtype":"float32"},{"name":"dense_Dense1775/kernel","shape":[1,1],"dtype":"float32"},{"name":"dense_Dense1775/bias","shape":[1],"dtype":"float32"}]}]}