{"modelTopology":{"class_name":"Model","config":{"name":"model1264","layers":[{"name":"input1264","class_name":"InputLayer","config":{"batch_input_shape":[null,3],"dtype":"float32","sparse":false,"name":"input1264"},"inbound_nodes":[]},{"name":"dense_Dense7579","class_name":"Dense","config":{"units":16,"activation":"relu","use_bias":true,"kernel_initializer":{"class_name":"VarianceScaling","config":{"scale":1,"mode":"fan_avg","distribution":"normal","seed":null}},"bias_initializer":{"class_name":"Zeros","config":{}},"kernel_regularizer":null,"bias_regularizer":null,"activity_regularizer":null,"kernel_constraint":null,"bias_constraint":null,"name":"dense_Dense7579","trainable":true},"inbound_nodes":[[["input1264",0,0,{}]]]},{"name":"dense_Dense7580","class_name":"Dense","config":{"units":32,"activation":"relu","use_bias":true,"kernel_initializer":{"class_name":"VarianceScaling","config":{"scale":1,"mode":"fan_avg","distribution":"normal","seed":null}},"bias_initializer":{"class_name":"Zeros","config":{}},"kernel_regularizer":null,"bias_regularizer":null,"activity_regularizer":null,"kernel_constraint":null,"bias_constraint":null,"name":"dense_Dense7580","trainable":true},"inbound_nodes":[[["dense_Dense7579",0,0,{}]]]},{"name":"dense_Dense7581","class_name":"Dense","config":{"units":32,"activation":"relu","use_bias":true,"kernel_initializer":{"class_name":"VarianceScaling","config":{"scale":1,"mode":"fan_avg","distribution":"normal","seed":null}},"bias_initializer":{"class_name":"Zeros","config":{}},"kernel_regularizer":null,"bias_regularizer":null,"activity_regularizer":null,"kernel_constraint":null,"bias_constraint":null,"name":"dense_Dense7581","trainable":true},"inbound_nodes":[[["dense_Dense7580",0,0,{}]]]},{"name":"dense_Dense7582","class_name":"Dense","config":{"units":1,"activation":"relu","use_bias":true,"kernel_initializer":{"class_name":"VarianceScaling","config":{"scale":1,"mode":"fan_avg","distribution":"normal","seed":null}},"bias_initializer":{"class_name":"Zeros","config":{}},"kernel_regularizer":null,"bias_regularizer":null,"activity_regularizer":null,"kernel_constraint":null,"bias_constraint":null,"name":"dense_Dense7582","trainable":true},"inbound_nodes":[[["dense_Dense7581",0,0,{}]]]},{"name":"dense_Dense7583","class_name":"Dense","config":{"units":8,"activation":"relu","use_bias":true,"kernel_initializer":{"class_name":"VarianceScaling","config":{"scale":1,"mode":"fan_avg","distribution":"normal","seed":null}},"bias_initializer":{"class_name":"Zeros","config":{}},"kernel_regularizer":null,"bias_regularizer":null,"activity_regularizer":null,"kernel_constraint":null,"bias_constraint":null,"name":"dense_Dense7583","trainable":true},"inbound_nodes":[[["dense_Dense7582",0,0,{}]]]},{"name":"dense_Dense7584","class_name":"Dense","config":{"units":1,"activation":"sigmoid","use_bias":true,"kernel_initializer":{"class_name":"VarianceScaling","config":{"scale":1,"mode":"fan_avg","distribution":"normal","seed":null}},"bias_initializer":{"class_name":"Zeros","config":{}},"kernel_regularizer":null,"bias_regularizer":null,"activity_regularizer":null,"kernel_constraint":null,"bias_constraint":null,"name":"dense_Dense7584","trainable":true},"inbound_nodes":[[["dense_Dense7583",0,0,{}]]]}],"input_layers":[["input1264",0,0]],"output_layers":[["dense_Dense7584",0,0]]},"keras_version":"tfjs-layers 3.9.0","backend":"tensor_flow.js"},"weightsManifest":[{"paths":["weights.bin"],"weights":[{"name":"dense_Dense7579/kernel","shape":[3,16],"dtype":"float32"},{"name":"dense_Dense7579/bias","shape":[16],"dtype":"float32"},{"name":"dense_Dense7580/kernel","shape":[16,32],"dtype":"float32"},{"name":"dense_Dense7580/bias","shape":[32],"dtype":"float32"},{"name":"dense_Dense7581/kernel","shape":[32,32],"dtype":"float32"},{"name":"dense_Dense7581/bias","shape":[32],"dtype":"float32"},{"name":"dense_Dense7582/kernel","shape":[32,1],"dtype":"float32"},{"name":"dense_Dense7582/bias","shape":[1],"dtype":"float32"},{"name":"dense_Dense7583/kernel","shape":[1,8],"dtype":"float32"},{"name":"dense_Dense7583/bias","shape":[8],"dtype":"float32"},{"name":"dense_Dense7584/kernel","shape":[8,1],"dtype":"float32"},{"name":"dense_Dense7584/bias","shape":[1],"dtype":"float32"}]}]}