{"modelTopology":{"class_name":"Model","config":{"name":"model789","layers":[{"name":"input789","class_name":"InputLayer","config":{"batch_input_shape":[null,3],"dtype":"float32","sparse":false,"name":"input789"},"inbound_nodes":[]},{"name":"dense_Dense4729","class_name":"Dense","config":{"units":4,"activation":"relu","use_bias":true,"kernel_initializer":{"class_name":"VarianceScaling","config":{"scale":1,"mode":"fan_avg","distribution":"normal","seed":null}},"bias_initializer":{"class_name":"Zeros","config":{}},"kernel_regularizer":null,"bias_regularizer":null,"activity_regularizer":null,"kernel_constraint":null,"bias_constraint":null,"name":"dense_Dense4729","trainable":true},"inbound_nodes":[[["input789",0,0,{}]]]},{"name":"dense_Dense4730","class_name":"Dense","config":{"units":8,"activation":"relu","use_bias":true,"kernel_initializer":{"class_name":"VarianceScaling","config":{"scale":1,"mode":"fan_avg","distribution":"normal","seed":null}},"bias_initializer":{"class_name":"Zeros","config":{}},"kernel_regularizer":null,"bias_regularizer":null,"activity_regularizer":null,"kernel_constraint":null,"bias_constraint":null,"name":"dense_Dense4730","trainable":true},"inbound_nodes":[[["dense_Dense4729",0,0,{}]]]},{"name":"dense_Dense4731","class_name":"Dense","config":{"units":8,"activation":"relu","use_bias":true,"kernel_initializer":{"class_name":"VarianceScaling","config":{"scale":1,"mode":"fan_avg","distribution":"normal","seed":null}},"bias_initializer":{"class_name":"Zeros","config":{}},"kernel_regularizer":null,"bias_regularizer":null,"activity_regularizer":null,"kernel_constraint":null,"bias_constraint":null,"name":"dense_Dense4731","trainable":true},"inbound_nodes":[[["dense_Dense4730",0,0,{}]]]},{"name":"dense_Dense4732","class_name":"Dense","config":{"units":32,"activation":"relu","use_bias":true,"kernel_initializer":{"class_name":"VarianceScaling","config":{"scale":1,"mode":"fan_avg","distribution":"normal","seed":null}},"bias_initializer":{"class_name":"Zeros","config":{}},"kernel_regularizer":null,"bias_regularizer":null,"activity_regularizer":null,"kernel_constraint":null,"bias_constraint":null,"name":"dense_Dense4732","trainable":true},"inbound_nodes":[[["dense_Dense4731",0,0,{}]]]},{"name":"dense_Dense4733","class_name":"Dense","config":{"units":4,"activation":"relu","use_bias":true,"kernel_initializer":{"class_name":"VarianceScaling","config":{"scale":1,"mode":"fan_avg","distribution":"normal","seed":null}},"bias_initializer":{"class_name":"Zeros","config":{}},"kernel_regularizer":null,"bias_regularizer":null,"activity_regularizer":null,"kernel_constraint":null,"bias_constraint":null,"name":"dense_Dense4733","trainable":true},"inbound_nodes":[[["dense_Dense4732",0,0,{}]]]},{"name":"dense_Dense4734","class_name":"Dense","config":{"units":1,"activation":"sigmoid","use_bias":true,"kernel_initializer":{"class_name":"VarianceScaling","config":{"scale":1,"mode":"fan_avg","distribution":"normal","seed":null}},"bias_initializer":{"class_name":"Zeros","config":{}},"kernel_regularizer":null,"bias_regularizer":null,"activity_regularizer":null,"kernel_constraint":null,"bias_constraint":null,"name":"dense_Dense4734","trainable":true},"inbound_nodes":[[["dense_Dense4733",0,0,{}]]]}],"input_layers":[["input789",0,0]],"output_layers":[["dense_Dense4734",0,0]]},"keras_version":"tfjs-layers 3.9.0","backend":"tensor_flow.js"},"weightsManifest":[{"paths":["weights.bin"],"weights":[{"name":"dense_Dense4729/kernel","shape":[3,4],"dtype":"float32"},{"name":"dense_Dense4729/bias","shape":[4],"dtype":"float32"},{"name":"dense_Dense4730/kernel","shape":[4,8],"dtype":"float32"},{"name":"dense_Dense4730/bias","shape":[8],"dtype":"float32"},{"name":"dense_Dense4731/kernel","shape":[8,8],"dtype":"float32"},{"name":"dense_Dense4731/bias","shape":[8],"dtype":"float32"},{"name":"dense_Dense4732/kernel","shape":[8,32],"dtype":"float32"},{"name":"dense_Dense4732/bias","shape":[32],"dtype":"float32"},{"name":"dense_Dense4733/kernel","shape":[32,4],"dtype":"float32"},{"name":"dense_Dense4733/bias","shape":[4],"dtype":"float32"},{"name":"dense_Dense4734/kernel","shape":[4,1],"dtype":"float32"},{"name":"dense_Dense4734/bias","shape":[1],"dtype":"float32"}]}]}