{"modelTopology":{"class_name":"Model","config":{"name":"model562","layers":[{"name":"input562","class_name":"InputLayer","config":{"batch_input_shape":[null,3],"dtype":"float32","sparse":false,"name":"input562"},"inbound_nodes":[]},{"name":"dense_Dense3367","class_name":"Dense","config":{"units":4,"activation":"relu","use_bias":true,"kernel_initializer":{"class_name":"VarianceScaling","config":{"scale":1,"mode":"fan_avg","distribution":"normal","seed":null}},"bias_initializer":{"class_name":"Zeros","config":{}},"kernel_regularizer":null,"bias_regularizer":null,"activity_regularizer":null,"kernel_constraint":null,"bias_constraint":null,"name":"dense_Dense3367","trainable":true},"inbound_nodes":[[["input562",0,0,{}]]]},{"name":"dense_Dense3368","class_name":"Dense","config":{"units":4,"activation":"relu","use_bias":true,"kernel_initializer":{"class_name":"VarianceScaling","config":{"scale":1,"mode":"fan_avg","distribution":"normal","seed":null}},"bias_initializer":{"class_name":"Zeros","config":{}},"kernel_regularizer":null,"bias_regularizer":null,"activity_regularizer":null,"kernel_constraint":null,"bias_constraint":null,"name":"dense_Dense3368","trainable":true},"inbound_nodes":[[["dense_Dense3367",0,0,{}]]]},{"name":"dense_Dense3369","class_name":"Dense","config":{"units":8,"activation":"relu","use_bias":true,"kernel_initializer":{"class_name":"VarianceScaling","config":{"scale":1,"mode":"fan_avg","distribution":"normal","seed":null}},"bias_initializer":{"class_name":"Zeros","config":{}},"kernel_regularizer":null,"bias_regularizer":null,"activity_regularizer":null,"kernel_constraint":null,"bias_constraint":null,"name":"dense_Dense3369","trainable":true},"inbound_nodes":[[["dense_Dense3368",0,0,{}]]]},{"name":"dense_Dense3370","class_name":"Dense","config":{"units":8,"activation":"relu","use_bias":true,"kernel_initializer":{"class_name":"VarianceScaling","config":{"scale":1,"mode":"fan_avg","distribution":"normal","seed":null}},"bias_initializer":{"class_name":"Zeros","config":{}},"kernel_regularizer":null,"bias_regularizer":null,"activity_regularizer":null,"kernel_constraint":null,"bias_constraint":null,"name":"dense_Dense3370","trainable":true},"inbound_nodes":[[["dense_Dense3369",0,0,{}]]]},{"name":"dense_Dense3371","class_name":"Dense","config":{"units":8,"activation":"relu","use_bias":true,"kernel_initializer":{"class_name":"VarianceScaling","config":{"scale":1,"mode":"fan_avg","distribution":"normal","seed":null}},"bias_initializer":{"class_name":"Zeros","config":{}},"kernel_regularizer":null,"bias_regularizer":null,"activity_regularizer":null,"kernel_constraint":null,"bias_constraint":null,"name":"dense_Dense3371","trainable":true},"inbound_nodes":[[["dense_Dense3370",0,0,{}]]]},{"name":"dense_Dense3372","class_name":"Dense","config":{"units":1,"activation":"sigmoid","use_bias":true,"kernel_initializer":{"class_name":"VarianceScaling","config":{"scale":1,"mode":"fan_avg","distribution":"normal","seed":null}},"bias_initializer":{"class_name":"Zeros","config":{}},"kernel_regularizer":null,"bias_regularizer":null,"activity_regularizer":null,"kernel_constraint":null,"bias_constraint":null,"name":"dense_Dense3372","trainable":true},"inbound_nodes":[[["dense_Dense3371",0,0,{}]]]}],"input_layers":[["input562",0,0]],"output_layers":[["dense_Dense3372",0,0]]},"keras_version":"tfjs-layers 3.9.0","backend":"tensor_flow.js"},"weightsManifest":[{"paths":["weights.bin"],"weights":[{"name":"dense_Dense3367/kernel","shape":[3,4],"dtype":"float32"},{"name":"dense_Dense3367/bias","shape":[4],"dtype":"float32"},{"name":"dense_Dense3368/kernel","shape":[4,4],"dtype":"float32"},{"name":"dense_Dense3368/bias","shape":[4],"dtype":"float32"},{"name":"dense_Dense3369/kernel","shape":[4,8],"dtype":"float32"},{"name":"dense_Dense3369/bias","shape":[8],"dtype":"float32"},{"name":"dense_Dense3370/kernel","shape":[8,8],"dtype":"float32"},{"name":"dense_Dense3370/bias","shape":[8],"dtype":"float32"},{"name":"dense_Dense3371/kernel","shape":[8,8],"dtype":"float32"},{"name":"dense_Dense3371/bias","shape":[8],"dtype":"float32"},{"name":"dense_Dense3372/kernel","shape":[8,1],"dtype":"float32"},{"name":"dense_Dense3372/bias","shape":[1],"dtype":"float32"}]}]}