{"modelTopology":{"class_name":"Model","config":{"name":"model681","layers":[{"name":"input681","class_name":"InputLayer","config":{"batch_input_shape":[null,3],"dtype":"float32","sparse":false,"name":"input681"},"inbound_nodes":[]},{"name":"dense_Dense4081","class_name":"Dense","config":{"units":32,"activation":"relu","use_bias":true,"kernel_initializer":{"class_name":"VarianceScaling","config":{"scale":1,"mode":"fan_avg","distribution":"normal","seed":null}},"bias_initializer":{"class_name":"Zeros","config":{}},"kernel_regularizer":null,"bias_regularizer":null,"activity_regularizer":null,"kernel_constraint":null,"bias_constraint":null,"name":"dense_Dense4081","trainable":true},"inbound_nodes":[[["input681",0,0,{}]]]},{"name":"dense_Dense4082","class_name":"Dense","config":{"units":8,"activation":"relu","use_bias":true,"kernel_initializer":{"class_name":"VarianceScaling","config":{"scale":1,"mode":"fan_avg","distribution":"normal","seed":null}},"bias_initializer":{"class_name":"Zeros","config":{}},"kernel_regularizer":null,"bias_regularizer":null,"activity_regularizer":null,"kernel_constraint":null,"bias_constraint":null,"name":"dense_Dense4082","trainable":true},"inbound_nodes":[[["dense_Dense4081",0,0,{}]]]},{"name":"dense_Dense4083","class_name":"Dense","config":{"units":1,"activation":"relu","use_bias":true,"kernel_initializer":{"class_name":"VarianceScaling","config":{"scale":1,"mode":"fan_avg","distribution":"normal","seed":null}},"bias_initializer":{"class_name":"Zeros","config":{}},"kernel_regularizer":null,"bias_regularizer":null,"activity_regularizer":null,"kernel_constraint":null,"bias_constraint":null,"name":"dense_Dense4083","trainable":true},"inbound_nodes":[[["dense_Dense4082",0,0,{}]]]},{"name":"dense_Dense4084","class_name":"Dense","config":{"units":32,"activation":"relu","use_bias":true,"kernel_initializer":{"class_name":"VarianceScaling","config":{"scale":1,"mode":"fan_avg","distribution":"normal","seed":null}},"bias_initializer":{"class_name":"Zeros","config":{}},"kernel_regularizer":null,"bias_regularizer":null,"activity_regularizer":null,"kernel_constraint":null,"bias_constraint":null,"name":"dense_Dense4084","trainable":true},"inbound_nodes":[[["dense_Dense4083",0,0,{}]]]},{"name":"dense_Dense4085","class_name":"Dense","config":{"units":4,"activation":"relu","use_bias":true,"kernel_initializer":{"class_name":"VarianceScaling","config":{"scale":1,"mode":"fan_avg","distribution":"normal","seed":null}},"bias_initializer":{"class_name":"Zeros","config":{}},"kernel_regularizer":null,"bias_regularizer":null,"activity_regularizer":null,"kernel_constraint":null,"bias_constraint":null,"name":"dense_Dense4085","trainable":true},"inbound_nodes":[[["dense_Dense4084",0,0,{}]]]},{"name":"dense_Dense4086","class_name":"Dense","config":{"units":1,"activation":"sigmoid","use_bias":true,"kernel_initializer":{"class_name":"VarianceScaling","config":{"scale":1,"mode":"fan_avg","distribution":"normal","seed":null}},"bias_initializer":{"class_name":"Zeros","config":{}},"kernel_regularizer":null,"bias_regularizer":null,"activity_regularizer":null,"kernel_constraint":null,"bias_constraint":null,"name":"dense_Dense4086","trainable":true},"inbound_nodes":[[["dense_Dense4085",0,0,{}]]]}],"input_layers":[["input681",0,0]],"output_layers":[["dense_Dense4086",0,0]]},"keras_version":"tfjs-layers 3.9.0","backend":"tensor_flow.js"},"weightsManifest":[{"paths":["weights.bin"],"weights":[{"name":"dense_Dense4081/kernel","shape":[3,32],"dtype":"float32"},{"name":"dense_Dense4081/bias","shape":[32],"dtype":"float32"},{"name":"dense_Dense4082/kernel","shape":[32,8],"dtype":"float32"},{"name":"dense_Dense4082/bias","shape":[8],"dtype":"float32"},{"name":"dense_Dense4083/kernel","shape":[8,1],"dtype":"float32"},{"name":"dense_Dense4083/bias","shape":[1],"dtype":"float32"},{"name":"dense_Dense4084/kernel","shape":[1,32],"dtype":"float32"},{"name":"dense_Dense4084/bias","shape":[32],"dtype":"float32"},{"name":"dense_Dense4085/kernel","shape":[32,4],"dtype":"float32"},{"name":"dense_Dense4085/bias","shape":[4],"dtype":"float32"},{"name":"dense_Dense4086/kernel","shape":[4,1],"dtype":"float32"},{"name":"dense_Dense4086/bias","shape":[1],"dtype":"float32"}]}]}