{"modelTopology":{"class_name":"Model","config":{"name":"model414","layers":[{"name":"input414","class_name":"InputLayer","config":{"batch_input_shape":[null,3],"dtype":"float32","sparse":false,"name":"input414"},"inbound_nodes":[]},{"name":"dense_Dense2479","class_name":"Dense","config":{"units":2,"activation":"relu","use_bias":true,"kernel_initializer":{"class_name":"VarianceScaling","config":{"scale":1,"mode":"fan_avg","distribution":"normal","seed":null}},"bias_initializer":{"class_name":"Zeros","config":{}},"kernel_regularizer":null,"bias_regularizer":null,"activity_regularizer":null,"kernel_constraint":null,"bias_constraint":null,"name":"dense_Dense2479","trainable":true},"inbound_nodes":[[["input414",0,0,{}]]]},{"name":"dense_Dense2480","class_name":"Dense","config":{"units":2,"activation":"relu","use_bias":true,"kernel_initializer":{"class_name":"VarianceScaling","config":{"scale":1,"mode":"fan_avg","distribution":"normal","seed":null}},"bias_initializer":{"class_name":"Zeros","config":{}},"kernel_regularizer":null,"bias_regularizer":null,"activity_regularizer":null,"kernel_constraint":null,"bias_constraint":null,"name":"dense_Dense2480","trainable":true},"inbound_nodes":[[["dense_Dense2479",0,0,{}]]]},{"name":"dense_Dense2481","class_name":"Dense","config":{"units":32,"activation":"relu","use_bias":true,"kernel_initializer":{"class_name":"VarianceScaling","config":{"scale":1,"mode":"fan_avg","distribution":"normal","seed":null}},"bias_initializer":{"class_name":"Zeros","config":{}},"kernel_regularizer":null,"bias_regularizer":null,"activity_regularizer":null,"kernel_constraint":null,"bias_constraint":null,"name":"dense_Dense2481","trainable":true},"inbound_nodes":[[["dense_Dense2480",0,0,{}]]]},{"name":"dense_Dense2482","class_name":"Dense","config":{"units":4,"activation":"relu","use_bias":true,"kernel_initializer":{"class_name":"VarianceScaling","config":{"scale":1,"mode":"fan_avg","distribution":"normal","seed":null}},"bias_initializer":{"class_name":"Zeros","config":{}},"kernel_regularizer":null,"bias_regularizer":null,"activity_regularizer":null,"kernel_constraint":null,"bias_constraint":null,"name":"dense_Dense2482","trainable":true},"inbound_nodes":[[["dense_Dense2481",0,0,{}]]]},{"name":"dense_Dense2483","class_name":"Dense","config":{"units":32,"activation":"relu","use_bias":true,"kernel_initializer":{"class_name":"VarianceScaling","config":{"scale":1,"mode":"fan_avg","distribution":"normal","seed":null}},"bias_initializer":{"class_name":"Zeros","config":{}},"kernel_regularizer":null,"bias_regularizer":null,"activity_regularizer":null,"kernel_constraint":null,"bias_constraint":null,"name":"dense_Dense2483","trainable":true},"inbound_nodes":[[["dense_Dense2482",0,0,{}]]]},{"name":"dense_Dense2484","class_name":"Dense","config":{"units":1,"activation":"sigmoid","use_bias":true,"kernel_initializer":{"class_name":"VarianceScaling","config":{"scale":1,"mode":"fan_avg","distribution":"normal","seed":null}},"bias_initializer":{"class_name":"Zeros","config":{}},"kernel_regularizer":null,"bias_regularizer":null,"activity_regularizer":null,"kernel_constraint":null,"bias_constraint":null,"name":"dense_Dense2484","trainable":true},"inbound_nodes":[[["dense_Dense2483",0,0,{}]]]}],"input_layers":[["input414",0,0]],"output_layers":[["dense_Dense2484",0,0]]},"keras_version":"tfjs-layers 3.9.0","backend":"tensor_flow.js"},"weightsManifest":[{"paths":["weights.bin"],"weights":[{"name":"dense_Dense2479/kernel","shape":[3,2],"dtype":"float32"},{"name":"dense_Dense2479/bias","shape":[2],"dtype":"float32"},{"name":"dense_Dense2480/kernel","shape":[2,2],"dtype":"float32"},{"name":"dense_Dense2480/bias","shape":[2],"dtype":"float32"},{"name":"dense_Dense2481/kernel","shape":[2,32],"dtype":"float32"},{"name":"dense_Dense2481/bias","shape":[32],"dtype":"float32"},{"name":"dense_Dense2482/kernel","shape":[32,4],"dtype":"float32"},{"name":"dense_Dense2482/bias","shape":[4],"dtype":"float32"},{"name":"dense_Dense2483/kernel","shape":[4,32],"dtype":"float32"},{"name":"dense_Dense2483/bias","shape":[32],"dtype":"float32"},{"name":"dense_Dense2484/kernel","shape":[32,1],"dtype":"float32"},{"name":"dense_Dense2484/bias","shape":[1],"dtype":"float32"}]}]}