{"modelTopology":{"class_name":"Model","config":{"name":"model605","layers":[{"name":"input605","class_name":"InputLayer","config":{"batch_input_shape":[null,3],"dtype":"float32","sparse":false,"name":"input605"},"inbound_nodes":[]},{"name":"dense_Dense3625","class_name":"Dense","config":{"units":16,"activation":"relu","use_bias":true,"kernel_initializer":{"class_name":"VarianceScaling","config":{"scale":1,"mode":"fan_avg","distribution":"normal","seed":null}},"bias_initializer":{"class_name":"Zeros","config":{}},"kernel_regularizer":null,"bias_regularizer":null,"activity_regularizer":null,"kernel_constraint":null,"bias_constraint":null,"name":"dense_Dense3625","trainable":true},"inbound_nodes":[[["input605",0,0,{}]]]},{"name":"dense_Dense3626","class_name":"Dense","config":{"units":4,"activation":"relu","use_bias":true,"kernel_initializer":{"class_name":"VarianceScaling","config":{"scale":1,"mode":"fan_avg","distribution":"normal","seed":null}},"bias_initializer":{"class_name":"Zeros","config":{}},"kernel_regularizer":null,"bias_regularizer":null,"activity_regularizer":null,"kernel_constraint":null,"bias_constraint":null,"name":"dense_Dense3626","trainable":true},"inbound_nodes":[[["dense_Dense3625",0,0,{}]]]},{"name":"dense_Dense3627","class_name":"Dense","config":{"units":16,"activation":"relu","use_bias":true,"kernel_initializer":{"class_name":"VarianceScaling","config":{"scale":1,"mode":"fan_avg","distribution":"normal","seed":null}},"bias_initializer":{"class_name":"Zeros","config":{}},"kernel_regularizer":null,"bias_regularizer":null,"activity_regularizer":null,"kernel_constraint":null,"bias_constraint":null,"name":"dense_Dense3627","trainable":true},"inbound_nodes":[[["dense_Dense3626",0,0,{}]]]},{"name":"dense_Dense3628","class_name":"Dense","config":{"units":16,"activation":"relu","use_bias":true,"kernel_initializer":{"class_name":"VarianceScaling","config":{"scale":1,"mode":"fan_avg","distribution":"normal","seed":null}},"bias_initializer":{"class_name":"Zeros","config":{}},"kernel_regularizer":null,"bias_regularizer":null,"activity_regularizer":null,"kernel_constraint":null,"bias_constraint":null,"name":"dense_Dense3628","trainable":true},"inbound_nodes":[[["dense_Dense3627",0,0,{}]]]},{"name":"dense_Dense3629","class_name":"Dense","config":{"units":16,"activation":"relu","use_bias":true,"kernel_initializer":{"class_name":"VarianceScaling","config":{"scale":1,"mode":"fan_avg","distribution":"normal","seed":null}},"bias_initializer":{"class_name":"Zeros","config":{}},"kernel_regularizer":null,"bias_regularizer":null,"activity_regularizer":null,"kernel_constraint":null,"bias_constraint":null,"name":"dense_Dense3629","trainable":true},"inbound_nodes":[[["dense_Dense3628",0,0,{}]]]},{"name":"dense_Dense3630","class_name":"Dense","config":{"units":1,"activation":"sigmoid","use_bias":true,"kernel_initializer":{"class_name":"VarianceScaling","config":{"scale":1,"mode":"fan_avg","distribution":"normal","seed":null}},"bias_initializer":{"class_name":"Zeros","config":{}},"kernel_regularizer":null,"bias_regularizer":null,"activity_regularizer":null,"kernel_constraint":null,"bias_constraint":null,"name":"dense_Dense3630","trainable":true},"inbound_nodes":[[["dense_Dense3629",0,0,{}]]]}],"input_layers":[["input605",0,0]],"output_layers":[["dense_Dense3630",0,0]]},"keras_version":"tfjs-layers 3.9.0","backend":"tensor_flow.js"},"weightsManifest":[{"paths":["weights.bin"],"weights":[{"name":"dense_Dense3625/kernel","shape":[3,16],"dtype":"float32"},{"name":"dense_Dense3625/bias","shape":[16],"dtype":"float32"},{"name":"dense_Dense3626/kernel","shape":[16,4],"dtype":"float32"},{"name":"dense_Dense3626/bias","shape":[4],"dtype":"float32"},{"name":"dense_Dense3627/kernel","shape":[4,16],"dtype":"float32"},{"name":"dense_Dense3627/bias","shape":[16],"dtype":"float32"},{"name":"dense_Dense3628/kernel","shape":[16,16],"dtype":"float32"},{"name":"dense_Dense3628/bias","shape":[16],"dtype":"float32"},{"name":"dense_Dense3629/kernel","shape":[16,16],"dtype":"float32"},{"name":"dense_Dense3629/bias","shape":[16],"dtype":"float32"},{"name":"dense_Dense3630/kernel","shape":[16,1],"dtype":"float32"},{"name":"dense_Dense3630/bias","shape":[1],"dtype":"float32"}]}]}