{"modelTopology":{"class_name":"Model","config":{"name":"model81","layers":[{"name":"input81","class_name":"InputLayer","config":{"batch_input_shape":[null,3],"dtype":"float32","sparse":false,"name":"input81"},"inbound_nodes":[]},{"name":"dense_Dense321","class_name":"Dense","config":{"units":4,"activation":"relu","use_bias":true,"kernel_initializer":{"class_name":"VarianceScaling","config":{"scale":1,"mode":"fan_avg","distribution":"normal","seed":null}},"bias_initializer":{"class_name":"Zeros","config":{}},"kernel_regularizer":null,"bias_regularizer":null,"activity_regularizer":null,"kernel_constraint":null,"bias_constraint":null,"name":"dense_Dense321","trainable":true},"inbound_nodes":[[["input81",0,0,{}]]]},{"name":"dense_Dense322","class_name":"Dense","config":{"units":2,"activation":"relu","use_bias":true,"kernel_initializer":{"class_name":"VarianceScaling","config":{"scale":1,"mode":"fan_avg","distribution":"normal","seed":null}},"bias_initializer":{"class_name":"Zeros","config":{}},"kernel_regularizer":null,"bias_regularizer":null,"activity_regularizer":null,"kernel_constraint":null,"bias_constraint":null,"name":"dense_Dense322","trainable":true},"inbound_nodes":[[["dense_Dense321",0,0,{}]]]},{"name":"dense_Dense323","class_name":"Dense","config":{"units":4,"activation":"relu","use_bias":true,"kernel_initializer":{"class_name":"VarianceScaling","config":{"scale":1,"mode":"fan_avg","distribution":"normal","seed":null}},"bias_initializer":{"class_name":"Zeros","config":{}},"kernel_regularizer":null,"bias_regularizer":null,"activity_regularizer":null,"kernel_constraint":null,"bias_constraint":null,"name":"dense_Dense323","trainable":true},"inbound_nodes":[[["dense_Dense322",0,0,{}]]]},{"name":"dense_Dense324","class_name":"Dense","config":{"units":1,"activation":"sigmoid","use_bias":true,"kernel_initializer":{"class_name":"VarianceScaling","config":{"scale":1,"mode":"fan_avg","distribution":"normal","seed":null}},"bias_initializer":{"class_name":"Zeros","config":{}},"kernel_regularizer":null,"bias_regularizer":null,"activity_regularizer":null,"kernel_constraint":null,"bias_constraint":null,"name":"dense_Dense324","trainable":true},"inbound_nodes":[[["dense_Dense323",0,0,{}]]]}],"input_layers":[["input81",0,0]],"output_layers":[["dense_Dense324",0,0]]},"keras_version":"tfjs-layers 3.9.0","backend":"tensor_flow.js"},"weightsManifest":[{"paths":["weights.bin"],"weights":[{"name":"dense_Dense321/kernel","shape":[3,4],"dtype":"float32"},{"name":"dense_Dense321/bias","shape":[4],"dtype":"float32"},{"name":"dense_Dense322/kernel","shape":[4,2],"dtype":"float32"},{"name":"dense_Dense322/bias","shape":[2],"dtype":"float32"},{"name":"dense_Dense323/kernel","shape":[2,4],"dtype":"float32"},{"name":"dense_Dense323/bias","shape":[4],"dtype":"float32"},{"name":"dense_Dense324/kernel","shape":[4,1],"dtype":"float32"},{"name":"dense_Dense324/bias","shape":[1],"dtype":"float32"}]}]}