{"modelTopology":{"class_name":"Model","config":{"name":"model230","layers":[{"name":"input230","class_name":"InputLayer","config":{"batch_input_shape":[null,3],"dtype":"float32","sparse":false,"name":"input230"},"inbound_nodes":[]},{"name":"dense_Dense1375","class_name":"Dense","config":{"units":2,"activation":"relu","use_bias":true,"kernel_initializer":{"class_name":"VarianceScaling","config":{"scale":1,"mode":"fan_avg","distribution":"normal","seed":null}},"bias_initializer":{"class_name":"Zeros","config":{}},"kernel_regularizer":null,"bias_regularizer":null,"activity_regularizer":null,"kernel_constraint":null,"bias_constraint":null,"name":"dense_Dense1375","trainable":true},"inbound_nodes":[[["input230",0,0,{}]]]},{"name":"dense_Dense1376","class_name":"Dense","config":{"units":2,"activation":"relu","use_bias":true,"kernel_initializer":{"class_name":"VarianceScaling","config":{"scale":1,"mode":"fan_avg","distribution":"normal","seed":null}},"bias_initializer":{"class_name":"Zeros","config":{}},"kernel_regularizer":null,"bias_regularizer":null,"activity_regularizer":null,"kernel_constraint":null,"bias_constraint":null,"name":"dense_Dense1376","trainable":true},"inbound_nodes":[[["dense_Dense1375",0,0,{}]]]},{"name":"dense_Dense1377","class_name":"Dense","config":{"units":1,"activation":"relu","use_bias":true,"kernel_initializer":{"class_name":"VarianceScaling","config":{"scale":1,"mode":"fan_avg","distribution":"normal","seed":null}},"bias_initializer":{"class_name":"Zeros","config":{}},"kernel_regularizer":null,"bias_regularizer":null,"activity_regularizer":null,"kernel_constraint":null,"bias_constraint":null,"name":"dense_Dense1377","trainable":true},"inbound_nodes":[[["dense_Dense1376",0,0,{}]]]},{"name":"dense_Dense1378","class_name":"Dense","config":{"units":4,"activation":"relu","use_bias":true,"kernel_initializer":{"class_name":"VarianceScaling","config":{"scale":1,"mode":"fan_avg","distribution":"normal","seed":null}},"bias_initializer":{"class_name":"Zeros","config":{}},"kernel_regularizer":null,"bias_regularizer":null,"activity_regularizer":null,"kernel_constraint":null,"bias_constraint":null,"name":"dense_Dense1378","trainable":true},"inbound_nodes":[[["dense_Dense1377",0,0,{}]]]},{"name":"dense_Dense1379","class_name":"Dense","config":{"units":2,"activation":"relu","use_bias":true,"kernel_initializer":{"class_name":"VarianceScaling","config":{"scale":1,"mode":"fan_avg","distribution":"normal","seed":null}},"bias_initializer":{"class_name":"Zeros","config":{}},"kernel_regularizer":null,"bias_regularizer":null,"activity_regularizer":null,"kernel_constraint":null,"bias_constraint":null,"name":"dense_Dense1379","trainable":true},"inbound_nodes":[[["dense_Dense1378",0,0,{}]]]},{"name":"dense_Dense1380","class_name":"Dense","config":{"units":1,"activation":"sigmoid","use_bias":true,"kernel_initializer":{"class_name":"VarianceScaling","config":{"scale":1,"mode":"fan_avg","distribution":"normal","seed":null}},"bias_initializer":{"class_name":"Zeros","config":{}},"kernel_regularizer":null,"bias_regularizer":null,"activity_regularizer":null,"kernel_constraint":null,"bias_constraint":null,"name":"dense_Dense1380","trainable":true},"inbound_nodes":[[["dense_Dense1379",0,0,{}]]]}],"input_layers":[["input230",0,0]],"output_layers":[["dense_Dense1380",0,0]]},"keras_version":"tfjs-layers 3.9.0","backend":"tensor_flow.js"},"weightsManifest":[{"paths":["weights.bin"],"weights":[{"name":"dense_Dense1375/kernel","shape":[3,2],"dtype":"float32"},{"name":"dense_Dense1375/bias","shape":[2],"dtype":"float32"},{"name":"dense_Dense1376/kernel","shape":[2,2],"dtype":"float32"},{"name":"dense_Dense1376/bias","shape":[2],"dtype":"float32"},{"name":"dense_Dense1377/kernel","shape":[2,1],"dtype":"float32"},{"name":"dense_Dense1377/bias","shape":[1],"dtype":"float32"},{"name":"dense_Dense1378/kernel","shape":[1,4],"dtype":"float32"},{"name":"dense_Dense1378/bias","shape":[4],"dtype":"float32"},{"name":"dense_Dense1379/kernel","shape":[4,2],"dtype":"float32"},{"name":"dense_Dense1379/bias","shape":[2],"dtype":"float32"},{"name":"dense_Dense1380/kernel","shape":[2,1],"dtype":"float32"},{"name":"dense_Dense1380/bias","shape":[1],"dtype":"float32"}]}]}