{"modelTopology":{"class_name":"Model","config":{"name":"model286","layers":[{"name":"input286","class_name":"InputLayer","config":{"batch_input_shape":[null,3],"dtype":"float32","sparse":false,"name":"input286"},"inbound_nodes":[]},{"name":"dense_Dense1711","class_name":"Dense","config":{"units":8,"activation":"relu","use_bias":true,"kernel_initializer":{"class_name":"VarianceScaling","config":{"scale":1,"mode":"fan_avg","distribution":"normal","seed":null}},"bias_initializer":{"class_name":"Zeros","config":{}},"kernel_regularizer":null,"bias_regularizer":null,"activity_regularizer":null,"kernel_constraint":null,"bias_constraint":null,"name":"dense_Dense1711","trainable":true},"inbound_nodes":[[["input286",0,0,{}]]]},{"name":"dense_Dense1712","class_name":"Dense","config":{"units":2,"activation":"relu","use_bias":true,"kernel_initializer":{"class_name":"VarianceScaling","config":{"scale":1,"mode":"fan_avg","distribution":"normal","seed":null}},"bias_initializer":{"class_name":"Zeros","config":{}},"kernel_regularizer":null,"bias_regularizer":null,"activity_regularizer":null,"kernel_constraint":null,"bias_constraint":null,"name":"dense_Dense1712","trainable":true},"inbound_nodes":[[["dense_Dense1711",0,0,{}]]]},{"name":"dense_Dense1713","class_name":"Dense","config":{"units":2,"activation":"relu","use_bias":true,"kernel_initializer":{"class_name":"VarianceScaling","config":{"scale":1,"mode":"fan_avg","distribution":"normal","seed":null}},"bias_initializer":{"class_name":"Zeros","config":{}},"kernel_regularizer":null,"bias_regularizer":null,"activity_regularizer":null,"kernel_constraint":null,"bias_constraint":null,"name":"dense_Dense1713","trainable":true},"inbound_nodes":[[["dense_Dense1712",0,0,{}]]]},{"name":"dense_Dense1714","class_name":"Dense","config":{"units":32,"activation":"relu","use_bias":true,"kernel_initializer":{"class_name":"VarianceScaling","config":{"scale":1,"mode":"fan_avg","distribution":"normal","seed":null}},"bias_initializer":{"class_name":"Zeros","config":{}},"kernel_regularizer":null,"bias_regularizer":null,"activity_regularizer":null,"kernel_constraint":null,"bias_constraint":null,"name":"dense_Dense1714","trainable":true},"inbound_nodes":[[["dense_Dense1713",0,0,{}]]]},{"name":"dense_Dense1715","class_name":"Dense","config":{"units":8,"activation":"relu","use_bias":true,"kernel_initializer":{"class_name":"VarianceScaling","config":{"scale":1,"mode":"fan_avg","distribution":"normal","seed":null}},"bias_initializer":{"class_name":"Zeros","config":{}},"kernel_regularizer":null,"bias_regularizer":null,"activity_regularizer":null,"kernel_constraint":null,"bias_constraint":null,"name":"dense_Dense1715","trainable":true},"inbound_nodes":[[["dense_Dense1714",0,0,{}]]]},{"name":"dense_Dense1716","class_name":"Dense","config":{"units":1,"activation":"sigmoid","use_bias":true,"kernel_initializer":{"class_name":"VarianceScaling","config":{"scale":1,"mode":"fan_avg","distribution":"normal","seed":null}},"bias_initializer":{"class_name":"Zeros","config":{}},"kernel_regularizer":null,"bias_regularizer":null,"activity_regularizer":null,"kernel_constraint":null,"bias_constraint":null,"name":"dense_Dense1716","trainable":true},"inbound_nodes":[[["dense_Dense1715",0,0,{}]]]}],"input_layers":[["input286",0,0]],"output_layers":[["dense_Dense1716",0,0]]},"keras_version":"tfjs-layers 3.9.0","backend":"tensor_flow.js"},"weightsManifest":[{"paths":["weights.bin"],"weights":[{"name":"dense_Dense1711/kernel","shape":[3,8],"dtype":"float32"},{"name":"dense_Dense1711/bias","shape":[8],"dtype":"float32"},{"name":"dense_Dense1712/kernel","shape":[8,2],"dtype":"float32"},{"name":"dense_Dense1712/bias","shape":[2],"dtype":"float32"},{"name":"dense_Dense1713/kernel","shape":[2,2],"dtype":"float32"},{"name":"dense_Dense1713/bias","shape":[2],"dtype":"float32"},{"name":"dense_Dense1714/kernel","shape":[2,32],"dtype":"float32"},{"name":"dense_Dense1714/bias","shape":[32],"dtype":"float32"},{"name":"dense_Dense1715/kernel","shape":[32,8],"dtype":"float32"},{"name":"dense_Dense1715/bias","shape":[8],"dtype":"float32"},{"name":"dense_Dense1716/kernel","shape":[8,1],"dtype":"float32"},{"name":"dense_Dense1716/bias","shape":[1],"dtype":"float32"}]}]}