{"modelTopology":{"class_name":"Model","config":{"name":"model1085","layers":[{"name":"input1085","class_name":"InputLayer","config":{"batch_input_shape":[null,3],"dtype":"float32","sparse":false,"name":"input1085"},"inbound_nodes":[]},{"name":"dense_Dense6505","class_name":"Dense","config":{"units":32,"activation":"relu","use_bias":true,"kernel_initializer":{"class_name":"VarianceScaling","config":{"scale":1,"mode":"fan_avg","distribution":"normal","seed":null}},"bias_initializer":{"class_name":"Zeros","config":{}},"kernel_regularizer":null,"bias_regularizer":null,"activity_regularizer":null,"kernel_constraint":null,"bias_constraint":null,"name":"dense_Dense6505","trainable":true},"inbound_nodes":[[["input1085",0,0,{}]]]},{"name":"dense_Dense6506","class_name":"Dense","config":{"units":32,"activation":"relu","use_bias":true,"kernel_initializer":{"class_name":"VarianceScaling","config":{"scale":1,"mode":"fan_avg","distribution":"normal","seed":null}},"bias_initializer":{"class_name":"Zeros","config":{}},"kernel_regularizer":null,"bias_regularizer":null,"activity_regularizer":null,"kernel_constraint":null,"bias_constraint":null,"name":"dense_Dense6506","trainable":true},"inbound_nodes":[[["dense_Dense6505",0,0,{}]]]},{"name":"dense_Dense6507","class_name":"Dense","config":{"units":1,"activation":"relu","use_bias":true,"kernel_initializer":{"class_name":"VarianceScaling","config":{"scale":1,"mode":"fan_avg","distribution":"normal","seed":null}},"bias_initializer":{"class_name":"Zeros","config":{}},"kernel_regularizer":null,"bias_regularizer":null,"activity_regularizer":null,"kernel_constraint":null,"bias_constraint":null,"name":"dense_Dense6507","trainable":true},"inbound_nodes":[[["dense_Dense6506",0,0,{}]]]},{"name":"dense_Dense6508","class_name":"Dense","config":{"units":1,"activation":"relu","use_bias":true,"kernel_initializer":{"class_name":"VarianceScaling","config":{"scale":1,"mode":"fan_avg","distribution":"normal","seed":null}},"bias_initializer":{"class_name":"Zeros","config":{}},"kernel_regularizer":null,"bias_regularizer":null,"activity_regularizer":null,"kernel_constraint":null,"bias_constraint":null,"name":"dense_Dense6508","trainable":true},"inbound_nodes":[[["dense_Dense6507",0,0,{}]]]},{"name":"dense_Dense6509","class_name":"Dense","config":{"units":16,"activation":"relu","use_bias":true,"kernel_initializer":{"class_name":"VarianceScaling","config":{"scale":1,"mode":"fan_avg","distribution":"normal","seed":null}},"bias_initializer":{"class_name":"Zeros","config":{}},"kernel_regularizer":null,"bias_regularizer":null,"activity_regularizer":null,"kernel_constraint":null,"bias_constraint":null,"name":"dense_Dense6509","trainable":true},"inbound_nodes":[[["dense_Dense6508",0,0,{}]]]},{"name":"dense_Dense6510","class_name":"Dense","config":{"units":1,"activation":"sigmoid","use_bias":true,"kernel_initializer":{"class_name":"VarianceScaling","config":{"scale":1,"mode":"fan_avg","distribution":"normal","seed":null}},"bias_initializer":{"class_name":"Zeros","config":{}},"kernel_regularizer":null,"bias_regularizer":null,"activity_regularizer":null,"kernel_constraint":null,"bias_constraint":null,"name":"dense_Dense6510","trainable":true},"inbound_nodes":[[["dense_Dense6509",0,0,{}]]]}],"input_layers":[["input1085",0,0]],"output_layers":[["dense_Dense6510",0,0]]},"keras_version":"tfjs-layers 3.9.0","backend":"tensor_flow.js"},"weightsManifest":[{"paths":["weights.bin"],"weights":[{"name":"dense_Dense6505/kernel","shape":[3,32],"dtype":"float32"},{"name":"dense_Dense6505/bias","shape":[32],"dtype":"float32"},{"name":"dense_Dense6506/kernel","shape":[32,32],"dtype":"float32"},{"name":"dense_Dense6506/bias","shape":[32],"dtype":"float32"},{"name":"dense_Dense6507/kernel","shape":[32,1],"dtype":"float32"},{"name":"dense_Dense6507/bias","shape":[1],"dtype":"float32"},{"name":"dense_Dense6508/kernel","shape":[1,1],"dtype":"float32"},{"name":"dense_Dense6508/bias","shape":[1],"dtype":"float32"},{"name":"dense_Dense6509/kernel","shape":[1,16],"dtype":"float32"},{"name":"dense_Dense6509/bias","shape":[16],"dtype":"float32"},{"name":"dense_Dense6510/kernel","shape":[16,1],"dtype":"float32"},{"name":"dense_Dense6510/bias","shape":[1],"dtype":"float32"}]}]}