{"modelTopology":{"class_name":"Model","config":{"name":"model219","layers":[{"name":"input219","class_name":"InputLayer","config":{"batch_input_shape":[null,3],"dtype":"float32","sparse":false,"name":"input219"},"inbound_nodes":[]},{"name":"dense_Dense1309","class_name":"Dense","config":{"units":16,"activation":"relu","use_bias":true,"kernel_initializer":{"class_name":"VarianceScaling","config":{"scale":1,"mode":"fan_avg","distribution":"normal","seed":null}},"bias_initializer":{"class_name":"Zeros","config":{}},"kernel_regularizer":null,"bias_regularizer":null,"activity_regularizer":null,"kernel_constraint":null,"bias_constraint":null,"name":"dense_Dense1309","trainable":true},"inbound_nodes":[[["input219",0,0,{}]]]},{"name":"dense_Dense1310","class_name":"Dense","config":{"units":2,"activation":"relu","use_bias":true,"kernel_initializer":{"class_name":"VarianceScaling","config":{"scale":1,"mode":"fan_avg","distribution":"normal","seed":null}},"bias_initializer":{"class_name":"Zeros","config":{}},"kernel_regularizer":null,"bias_regularizer":null,"activity_regularizer":null,"kernel_constraint":null,"bias_constraint":null,"name":"dense_Dense1310","trainable":true},"inbound_nodes":[[["dense_Dense1309",0,0,{}]]]},{"name":"dense_Dense1311","class_name":"Dense","config":{"units":1,"activation":"relu","use_bias":true,"kernel_initializer":{"class_name":"VarianceScaling","config":{"scale":1,"mode":"fan_avg","distribution":"normal","seed":null}},"bias_initializer":{"class_name":"Zeros","config":{}},"kernel_regularizer":null,"bias_regularizer":null,"activity_regularizer":null,"kernel_constraint":null,"bias_constraint":null,"name":"dense_Dense1311","trainable":true},"inbound_nodes":[[["dense_Dense1310",0,0,{}]]]},{"name":"dense_Dense1312","class_name":"Dense","config":{"units":1,"activation":"relu","use_bias":true,"kernel_initializer":{"class_name":"VarianceScaling","config":{"scale":1,"mode":"fan_avg","distribution":"normal","seed":null}},"bias_initializer":{"class_name":"Zeros","config":{}},"kernel_regularizer":null,"bias_regularizer":null,"activity_regularizer":null,"kernel_constraint":null,"bias_constraint":null,"name":"dense_Dense1312","trainable":true},"inbound_nodes":[[["dense_Dense1311",0,0,{}]]]},{"name":"dense_Dense1313","class_name":"Dense","config":{"units":4,"activation":"relu","use_bias":true,"kernel_initializer":{"class_name":"VarianceScaling","config":{"scale":1,"mode":"fan_avg","distribution":"normal","seed":null}},"bias_initializer":{"class_name":"Zeros","config":{}},"kernel_regularizer":null,"bias_regularizer":null,"activity_regularizer":null,"kernel_constraint":null,"bias_constraint":null,"name":"dense_Dense1313","trainable":true},"inbound_nodes":[[["dense_Dense1312",0,0,{}]]]},{"name":"dense_Dense1314","class_name":"Dense","config":{"units":1,"activation":"sigmoid","use_bias":true,"kernel_initializer":{"class_name":"VarianceScaling","config":{"scale":1,"mode":"fan_avg","distribution":"normal","seed":null}},"bias_initializer":{"class_name":"Zeros","config":{}},"kernel_regularizer":null,"bias_regularizer":null,"activity_regularizer":null,"kernel_constraint":null,"bias_constraint":null,"name":"dense_Dense1314","trainable":true},"inbound_nodes":[[["dense_Dense1313",0,0,{}]]]}],"input_layers":[["input219",0,0]],"output_layers":[["dense_Dense1314",0,0]]},"keras_version":"tfjs-layers 3.9.0","backend":"tensor_flow.js"},"weightsManifest":[{"paths":["weights.bin"],"weights":[{"name":"dense_Dense1309/kernel","shape":[3,16],"dtype":"float32"},{"name":"dense_Dense1309/bias","shape":[16],"dtype":"float32"},{"name":"dense_Dense1310/kernel","shape":[16,2],"dtype":"float32"},{"name":"dense_Dense1310/bias","shape":[2],"dtype":"float32"},{"name":"dense_Dense1311/kernel","shape":[2,1],"dtype":"float32"},{"name":"dense_Dense1311/bias","shape":[1],"dtype":"float32"},{"name":"dense_Dense1312/kernel","shape":[1,1],"dtype":"float32"},{"name":"dense_Dense1312/bias","shape":[1],"dtype":"float32"},{"name":"dense_Dense1313/kernel","shape":[1,4],"dtype":"float32"},{"name":"dense_Dense1313/bias","shape":[4],"dtype":"float32"},{"name":"dense_Dense1314/kernel","shape":[4,1],"dtype":"float32"},{"name":"dense_Dense1314/bias","shape":[1],"dtype":"float32"}]}]}