{"modelTopology":{"class_name":"Model","config":{"name":"model739","layers":[{"name":"input739","class_name":"InputLayer","config":{"batch_input_shape":[null,3],"dtype":"float32","sparse":false,"name":"input739"},"inbound_nodes":[]},{"name":"dense_Dense4429","class_name":"Dense","config":{"units":8,"activation":"relu","use_bias":true,"kernel_initializer":{"class_name":"VarianceScaling","config":{"scale":1,"mode":"fan_avg","distribution":"normal","seed":null}},"bias_initializer":{"class_name":"Zeros","config":{}},"kernel_regularizer":null,"bias_regularizer":null,"activity_regularizer":null,"kernel_constraint":null,"bias_constraint":null,"name":"dense_Dense4429","trainable":true},"inbound_nodes":[[["input739",0,0,{}]]]},{"name":"dense_Dense4430","class_name":"Dense","config":{"units":8,"activation":"relu","use_bias":true,"kernel_initializer":{"class_name":"VarianceScaling","config":{"scale":1,"mode":"fan_avg","distribution":"normal","seed":null}},"bias_initializer":{"class_name":"Zeros","config":{}},"kernel_regularizer":null,"bias_regularizer":null,"activity_regularizer":null,"kernel_constraint":null,"bias_constraint":null,"name":"dense_Dense4430","trainable":true},"inbound_nodes":[[["dense_Dense4429",0,0,{}]]]},{"name":"dense_Dense4431","class_name":"Dense","config":{"units":4,"activation":"relu","use_bias":true,"kernel_initializer":{"class_name":"VarianceScaling","config":{"scale":1,"mode":"fan_avg","distribution":"normal","seed":null}},"bias_initializer":{"class_name":"Zeros","config":{}},"kernel_regularizer":null,"bias_regularizer":null,"activity_regularizer":null,"kernel_constraint":null,"bias_constraint":null,"name":"dense_Dense4431","trainable":true},"inbound_nodes":[[["dense_Dense4430",0,0,{}]]]},{"name":"dense_Dense4432","class_name":"Dense","config":{"units":8,"activation":"relu","use_bias":true,"kernel_initializer":{"class_name":"VarianceScaling","config":{"scale":1,"mode":"fan_avg","distribution":"normal","seed":null}},"bias_initializer":{"class_name":"Zeros","config":{}},"kernel_regularizer":null,"bias_regularizer":null,"activity_regularizer":null,"kernel_constraint":null,"bias_constraint":null,"name":"dense_Dense4432","trainable":true},"inbound_nodes":[[["dense_Dense4431",0,0,{}]]]},{"name":"dense_Dense4433","class_name":"Dense","config":{"units":1,"activation":"relu","use_bias":true,"kernel_initializer":{"class_name":"VarianceScaling","config":{"scale":1,"mode":"fan_avg","distribution":"normal","seed":null}},"bias_initializer":{"class_name":"Zeros","config":{}},"kernel_regularizer":null,"bias_regularizer":null,"activity_regularizer":null,"kernel_constraint":null,"bias_constraint":null,"name":"dense_Dense4433","trainable":true},"inbound_nodes":[[["dense_Dense4432",0,0,{}]]]},{"name":"dense_Dense4434","class_name":"Dense","config":{"units":1,"activation":"sigmoid","use_bias":true,"kernel_initializer":{"class_name":"VarianceScaling","config":{"scale":1,"mode":"fan_avg","distribution":"normal","seed":null}},"bias_initializer":{"class_name":"Zeros","config":{}},"kernel_regularizer":null,"bias_regularizer":null,"activity_regularizer":null,"kernel_constraint":null,"bias_constraint":null,"name":"dense_Dense4434","trainable":true},"inbound_nodes":[[["dense_Dense4433",0,0,{}]]]}],"input_layers":[["input739",0,0]],"output_layers":[["dense_Dense4434",0,0]]},"keras_version":"tfjs-layers 3.9.0","backend":"tensor_flow.js"},"weightsManifest":[{"paths":["weights.bin"],"weights":[{"name":"dense_Dense4429/kernel","shape":[3,8],"dtype":"float32"},{"name":"dense_Dense4429/bias","shape":[8],"dtype":"float32"},{"name":"dense_Dense4430/kernel","shape":[8,8],"dtype":"float32"},{"name":"dense_Dense4430/bias","shape":[8],"dtype":"float32"},{"name":"dense_Dense4431/kernel","shape":[8,4],"dtype":"float32"},{"name":"dense_Dense4431/bias","shape":[4],"dtype":"float32"},{"name":"dense_Dense4432/kernel","shape":[4,8],"dtype":"float32"},{"name":"dense_Dense4432/bias","shape":[8],"dtype":"float32"},{"name":"dense_Dense4433/kernel","shape":[8,1],"dtype":"float32"},{"name":"dense_Dense4433/bias","shape":[1],"dtype":"float32"},{"name":"dense_Dense4434/kernel","shape":[1,1],"dtype":"float32"},{"name":"dense_Dense4434/bias","shape":[1],"dtype":"float32"}]}]}