{"modelTopology":{"class_name":"Model","config":{"name":"model386","layers":[{"name":"input386","class_name":"InputLayer","config":{"batch_input_shape":[null,3],"dtype":"float32","sparse":false,"name":"input386"},"inbound_nodes":[]},{"name":"dense_Dense2311","class_name":"Dense","config":{"units":8,"activation":"relu","use_bias":true,"kernel_initializer":{"class_name":"VarianceScaling","config":{"scale":1,"mode":"fan_avg","distribution":"normal","seed":null}},"bias_initializer":{"class_name":"Zeros","config":{}},"kernel_regularizer":null,"bias_regularizer":null,"activity_regularizer":null,"kernel_constraint":null,"bias_constraint":null,"name":"dense_Dense2311","trainable":true},"inbound_nodes":[[["input386",0,0,{}]]]},{"name":"dense_Dense2312","class_name":"Dense","config":{"units":2,"activation":"relu","use_bias":true,"kernel_initializer":{"class_name":"VarianceScaling","config":{"scale":1,"mode":"fan_avg","distribution":"normal","seed":null}},"bias_initializer":{"class_name":"Zeros","config":{}},"kernel_regularizer":null,"bias_regularizer":null,"activity_regularizer":null,"kernel_constraint":null,"bias_constraint":null,"name":"dense_Dense2312","trainable":true},"inbound_nodes":[[["dense_Dense2311",0,0,{}]]]},{"name":"dense_Dense2313","class_name":"Dense","config":{"units":16,"activation":"relu","use_bias":true,"kernel_initializer":{"class_name":"VarianceScaling","config":{"scale":1,"mode":"fan_avg","distribution":"normal","seed":null}},"bias_initializer":{"class_name":"Zeros","config":{}},"kernel_regularizer":null,"bias_regularizer":null,"activity_regularizer":null,"kernel_constraint":null,"bias_constraint":null,"name":"dense_Dense2313","trainable":true},"inbound_nodes":[[["dense_Dense2312",0,0,{}]]]},{"name":"dense_Dense2314","class_name":"Dense","config":{"units":16,"activation":"relu","use_bias":true,"kernel_initializer":{"class_name":"VarianceScaling","config":{"scale":1,"mode":"fan_avg","distribution":"normal","seed":null}},"bias_initializer":{"class_name":"Zeros","config":{}},"kernel_regularizer":null,"bias_regularizer":null,"activity_regularizer":null,"kernel_constraint":null,"bias_constraint":null,"name":"dense_Dense2314","trainable":true},"inbound_nodes":[[["dense_Dense2313",0,0,{}]]]},{"name":"dense_Dense2315","class_name":"Dense","config":{"units":2,"activation":"relu","use_bias":true,"kernel_initializer":{"class_name":"VarianceScaling","config":{"scale":1,"mode":"fan_avg","distribution":"normal","seed":null}},"bias_initializer":{"class_name":"Zeros","config":{}},"kernel_regularizer":null,"bias_regularizer":null,"activity_regularizer":null,"kernel_constraint":null,"bias_constraint":null,"name":"dense_Dense2315","trainable":true},"inbound_nodes":[[["dense_Dense2314",0,0,{}]]]},{"name":"dense_Dense2316","class_name":"Dense","config":{"units":1,"activation":"sigmoid","use_bias":true,"kernel_initializer":{"class_name":"VarianceScaling","config":{"scale":1,"mode":"fan_avg","distribution":"normal","seed":null}},"bias_initializer":{"class_name":"Zeros","config":{}},"kernel_regularizer":null,"bias_regularizer":null,"activity_regularizer":null,"kernel_constraint":null,"bias_constraint":null,"name":"dense_Dense2316","trainable":true},"inbound_nodes":[[["dense_Dense2315",0,0,{}]]]}],"input_layers":[["input386",0,0]],"output_layers":[["dense_Dense2316",0,0]]},"keras_version":"tfjs-layers 3.9.0","backend":"tensor_flow.js"},"weightsManifest":[{"paths":["weights.bin"],"weights":[{"name":"dense_Dense2311/kernel","shape":[3,8],"dtype":"float32"},{"name":"dense_Dense2311/bias","shape":[8],"dtype":"float32"},{"name":"dense_Dense2312/kernel","shape":[8,2],"dtype":"float32"},{"name":"dense_Dense2312/bias","shape":[2],"dtype":"float32"},{"name":"dense_Dense2313/kernel","shape":[2,16],"dtype":"float32"},{"name":"dense_Dense2313/bias","shape":[16],"dtype":"float32"},{"name":"dense_Dense2314/kernel","shape":[16,16],"dtype":"float32"},{"name":"dense_Dense2314/bias","shape":[16],"dtype":"float32"},{"name":"dense_Dense2315/kernel","shape":[16,2],"dtype":"float32"},{"name":"dense_Dense2315/bias","shape":[2],"dtype":"float32"},{"name":"dense_Dense2316/kernel","shape":[2,1],"dtype":"float32"},{"name":"dense_Dense2316/bias","shape":[1],"dtype":"float32"}]}]}