{"modelTopology":{"class_name":"Model","config":{"name":"model307","layers":[{"name":"input307","class_name":"InputLayer","config":{"batch_input_shape":[null,3],"dtype":"float32","sparse":false,"name":"input307"},"inbound_nodes":[]},{"name":"dense_Dense1837","class_name":"Dense","config":{"units":4,"activation":"relu","use_bias":true,"kernel_initializer":{"class_name":"VarianceScaling","config":{"scale":1,"mode":"fan_avg","distribution":"normal","seed":null}},"bias_initializer":{"class_name":"Zeros","config":{}},"kernel_regularizer":null,"bias_regularizer":null,"activity_regularizer":null,"kernel_constraint":null,"bias_constraint":null,"name":"dense_Dense1837","trainable":true},"inbound_nodes":[[["input307",0,0,{}]]]},{"name":"dense_Dense1838","class_name":"Dense","config":{"units":2,"activation":"relu","use_bias":true,"kernel_initializer":{"class_name":"VarianceScaling","config":{"scale":1,"mode":"fan_avg","distribution":"normal","seed":null}},"bias_initializer":{"class_name":"Zeros","config":{}},"kernel_regularizer":null,"bias_regularizer":null,"activity_regularizer":null,"kernel_constraint":null,"bias_constraint":null,"name":"dense_Dense1838","trainable":true},"inbound_nodes":[[["dense_Dense1837",0,0,{}]]]},{"name":"dense_Dense1839","class_name":"Dense","config":{"units":4,"activation":"relu","use_bias":true,"kernel_initializer":{"class_name":"VarianceScaling","config":{"scale":1,"mode":"fan_avg","distribution":"normal","seed":null}},"bias_initializer":{"class_name":"Zeros","config":{}},"kernel_regularizer":null,"bias_regularizer":null,"activity_regularizer":null,"kernel_constraint":null,"bias_constraint":null,"name":"dense_Dense1839","trainable":true},"inbound_nodes":[[["dense_Dense1838",0,0,{}]]]},{"name":"dense_Dense1840","class_name":"Dense","config":{"units":8,"activation":"relu","use_bias":true,"kernel_initializer":{"class_name":"VarianceScaling","config":{"scale":1,"mode":"fan_avg","distribution":"normal","seed":null}},"bias_initializer":{"class_name":"Zeros","config":{}},"kernel_regularizer":null,"bias_regularizer":null,"activity_regularizer":null,"kernel_constraint":null,"bias_constraint":null,"name":"dense_Dense1840","trainable":true},"inbound_nodes":[[["dense_Dense1839",0,0,{}]]]},{"name":"dense_Dense1841","class_name":"Dense","config":{"units":1,"activation":"relu","use_bias":true,"kernel_initializer":{"class_name":"VarianceScaling","config":{"scale":1,"mode":"fan_avg","distribution":"normal","seed":null}},"bias_initializer":{"class_name":"Zeros","config":{}},"kernel_regularizer":null,"bias_regularizer":null,"activity_regularizer":null,"kernel_constraint":null,"bias_constraint":null,"name":"dense_Dense1841","trainable":true},"inbound_nodes":[[["dense_Dense1840",0,0,{}]]]},{"name":"dense_Dense1842","class_name":"Dense","config":{"units":1,"activation":"sigmoid","use_bias":true,"kernel_initializer":{"class_name":"VarianceScaling","config":{"scale":1,"mode":"fan_avg","distribution":"normal","seed":null}},"bias_initializer":{"class_name":"Zeros","config":{}},"kernel_regularizer":null,"bias_regularizer":null,"activity_regularizer":null,"kernel_constraint":null,"bias_constraint":null,"name":"dense_Dense1842","trainable":true},"inbound_nodes":[[["dense_Dense1841",0,0,{}]]]}],"input_layers":[["input307",0,0]],"output_layers":[["dense_Dense1842",0,0]]},"keras_version":"tfjs-layers 3.9.0","backend":"tensor_flow.js"},"weightsManifest":[{"paths":["weights.bin"],"weights":[{"name":"dense_Dense1837/kernel","shape":[3,4],"dtype":"float32"},{"name":"dense_Dense1837/bias","shape":[4],"dtype":"float32"},{"name":"dense_Dense1838/kernel","shape":[4,2],"dtype":"float32"},{"name":"dense_Dense1838/bias","shape":[2],"dtype":"float32"},{"name":"dense_Dense1839/kernel","shape":[2,4],"dtype":"float32"},{"name":"dense_Dense1839/bias","shape":[4],"dtype":"float32"},{"name":"dense_Dense1840/kernel","shape":[4,8],"dtype":"float32"},{"name":"dense_Dense1840/bias","shape":[8],"dtype":"float32"},{"name":"dense_Dense1841/kernel","shape":[8,1],"dtype":"float32"},{"name":"dense_Dense1841/bias","shape":[1],"dtype":"float32"},{"name":"dense_Dense1842/kernel","shape":[1,1],"dtype":"float32"},{"name":"dense_Dense1842/bias","shape":[1],"dtype":"float32"}]}]}