{"modelTopology":{"class_name":"Model","config":{"name":"model1034","layers":[{"name":"input1034","class_name":"InputLayer","config":{"batch_input_shape":[null,3],"dtype":"float32","sparse":false,"name":"input1034"},"inbound_nodes":[]},{"name":"dense_Dense5166","class_name":"Dense","config":{"units":16,"activation":"relu","use_bias":true,"kernel_initializer":{"class_name":"VarianceScaling","config":{"scale":1,"mode":"fan_avg","distribution":"normal","seed":null}},"bias_initializer":{"class_name":"Zeros","config":{}},"kernel_regularizer":null,"bias_regularizer":null,"activity_regularizer":null,"kernel_constraint":null,"bias_constraint":null,"name":"dense_Dense5166","trainable":true},"inbound_nodes":[[["input1034",0,0,{}]]]},{"name":"dense_Dense5167","class_name":"Dense","config":{"units":16,"activation":"relu","use_bias":true,"kernel_initializer":{"class_name":"VarianceScaling","config":{"scale":1,"mode":"fan_avg","distribution":"normal","seed":null}},"bias_initializer":{"class_name":"Zeros","config":{}},"kernel_regularizer":null,"bias_regularizer":null,"activity_regularizer":null,"kernel_constraint":null,"bias_constraint":null,"name":"dense_Dense5167","trainable":true},"inbound_nodes":[[["dense_Dense5166",0,0,{}]]]},{"name":"dense_Dense5168","class_name":"Dense","config":{"units":16,"activation":"relu","use_bias":true,"kernel_initializer":{"class_name":"VarianceScaling","config":{"scale":1,"mode":"fan_avg","distribution":"normal","seed":null}},"bias_initializer":{"class_name":"Zeros","config":{}},"kernel_regularizer":null,"bias_regularizer":null,"activity_regularizer":null,"kernel_constraint":null,"bias_constraint":null,"name":"dense_Dense5168","trainable":true},"inbound_nodes":[[["dense_Dense5167",0,0,{}]]]},{"name":"dense_Dense5169","class_name":"Dense","config":{"units":2,"activation":"relu","use_bias":true,"kernel_initializer":{"class_name":"VarianceScaling","config":{"scale":1,"mode":"fan_avg","distribution":"normal","seed":null}},"bias_initializer":{"class_name":"Zeros","config":{}},"kernel_regularizer":null,"bias_regularizer":null,"activity_regularizer":null,"kernel_constraint":null,"bias_constraint":null,"name":"dense_Dense5169","trainable":true},"inbound_nodes":[[["dense_Dense5168",0,0,{}]]]},{"name":"dense_Dense5170","class_name":"Dense","config":{"units":1,"activation":"sigmoid","use_bias":true,"kernel_initializer":{"class_name":"VarianceScaling","config":{"scale":1,"mode":"fan_avg","distribution":"normal","seed":null}},"bias_initializer":{"class_name":"Zeros","config":{}},"kernel_regularizer":null,"bias_regularizer":null,"activity_regularizer":null,"kernel_constraint":null,"bias_constraint":null,"name":"dense_Dense5170","trainable":true},"inbound_nodes":[[["dense_Dense5169",0,0,{}]]]}],"input_layers":[["input1034",0,0]],"output_layers":[["dense_Dense5170",0,0]]},"keras_version":"tfjs-layers 3.9.0","backend":"tensor_flow.js"},"weightsManifest":[{"paths":["weights.bin"],"weights":[{"name":"dense_Dense5166/kernel","shape":[3,16],"dtype":"float32"},{"name":"dense_Dense5166/bias","shape":[16],"dtype":"float32"},{"name":"dense_Dense5167/kernel","shape":[16,16],"dtype":"float32"},{"name":"dense_Dense5167/bias","shape":[16],"dtype":"float32"},{"name":"dense_Dense5168/kernel","shape":[16,16],"dtype":"float32"},{"name":"dense_Dense5168/bias","shape":[16],"dtype":"float32"},{"name":"dense_Dense5169/kernel","shape":[16,2],"dtype":"float32"},{"name":"dense_Dense5169/bias","shape":[2],"dtype":"float32"},{"name":"dense_Dense5170/kernel","shape":[2,1],"dtype":"float32"},{"name":"dense_Dense5170/bias","shape":[1],"dtype":"float32"}]}]}