{"modelTopology":{"class_name":"Model","config":{"name":"model869","layers":[{"name":"input869","class_name":"InputLayer","config":{"batch_input_shape":[null,3],"dtype":"float32","sparse":false,"name":"input869"},"inbound_nodes":[]},{"name":"dense_Dense5209","class_name":"Dense","config":{"units":16,"activation":"relu","use_bias":true,"kernel_initializer":{"class_name":"VarianceScaling","config":{"scale":1,"mode":"fan_avg","distribution":"normal","seed":null}},"bias_initializer":{"class_name":"Zeros","config":{}},"kernel_regularizer":null,"bias_regularizer":null,"activity_regularizer":null,"kernel_constraint":null,"bias_constraint":null,"name":"dense_Dense5209","trainable":true},"inbound_nodes":[[["input869",0,0,{}]]]},{"name":"dense_Dense5210","class_name":"Dense","config":{"units":16,"activation":"relu","use_bias":true,"kernel_initializer":{"class_name":"VarianceScaling","config":{"scale":1,"mode":"fan_avg","distribution":"normal","seed":null}},"bias_initializer":{"class_name":"Zeros","config":{}},"kernel_regularizer":null,"bias_regularizer":null,"activity_regularizer":null,"kernel_constraint":null,"bias_constraint":null,"name":"dense_Dense5210","trainable":true},"inbound_nodes":[[["dense_Dense5209",0,0,{}]]]},{"name":"dense_Dense5211","class_name":"Dense","config":{"units":1,"activation":"relu","use_bias":true,"kernel_initializer":{"class_name":"VarianceScaling","config":{"scale":1,"mode":"fan_avg","distribution":"normal","seed":null}},"bias_initializer":{"class_name":"Zeros","config":{}},"kernel_regularizer":null,"bias_regularizer":null,"activity_regularizer":null,"kernel_constraint":null,"bias_constraint":null,"name":"dense_Dense5211","trainable":true},"inbound_nodes":[[["dense_Dense5210",0,0,{}]]]},{"name":"dense_Dense5212","class_name":"Dense","config":{"units":1,"activation":"relu","use_bias":true,"kernel_initializer":{"class_name":"VarianceScaling","config":{"scale":1,"mode":"fan_avg","distribution":"normal","seed":null}},"bias_initializer":{"class_name":"Zeros","config":{}},"kernel_regularizer":null,"bias_regularizer":null,"activity_regularizer":null,"kernel_constraint":null,"bias_constraint":null,"name":"dense_Dense5212","trainable":true},"inbound_nodes":[[["dense_Dense5211",0,0,{}]]]},{"name":"dense_Dense5213","class_name":"Dense","config":{"units":16,"activation":"relu","use_bias":true,"kernel_initializer":{"class_name":"VarianceScaling","config":{"scale":1,"mode":"fan_avg","distribution":"normal","seed":null}},"bias_initializer":{"class_name":"Zeros","config":{}},"kernel_regularizer":null,"bias_regularizer":null,"activity_regularizer":null,"kernel_constraint":null,"bias_constraint":null,"name":"dense_Dense5213","trainable":true},"inbound_nodes":[[["dense_Dense5212",0,0,{}]]]},{"name":"dense_Dense5214","class_name":"Dense","config":{"units":1,"activation":"sigmoid","use_bias":true,"kernel_initializer":{"class_name":"VarianceScaling","config":{"scale":1,"mode":"fan_avg","distribution":"normal","seed":null}},"bias_initializer":{"class_name":"Zeros","config":{}},"kernel_regularizer":null,"bias_regularizer":null,"activity_regularizer":null,"kernel_constraint":null,"bias_constraint":null,"name":"dense_Dense5214","trainable":true},"inbound_nodes":[[["dense_Dense5213",0,0,{}]]]}],"input_layers":[["input869",0,0]],"output_layers":[["dense_Dense5214",0,0]]},"keras_version":"tfjs-layers 3.9.0","backend":"tensor_flow.js"},"weightsManifest":[{"paths":["weights.bin"],"weights":[{"name":"dense_Dense5209/kernel","shape":[3,16],"dtype":"float32"},{"name":"dense_Dense5209/bias","shape":[16],"dtype":"float32"},{"name":"dense_Dense5210/kernel","shape":[16,16],"dtype":"float32"},{"name":"dense_Dense5210/bias","shape":[16],"dtype":"float32"},{"name":"dense_Dense5211/kernel","shape":[16,1],"dtype":"float32"},{"name":"dense_Dense5211/bias","shape":[1],"dtype":"float32"},{"name":"dense_Dense5212/kernel","shape":[1,1],"dtype":"float32"},{"name":"dense_Dense5212/bias","shape":[1],"dtype":"float32"},{"name":"dense_Dense5213/kernel","shape":[1,16],"dtype":"float32"},{"name":"dense_Dense5213/bias","shape":[16],"dtype":"float32"},{"name":"dense_Dense5214/kernel","shape":[16,1],"dtype":"float32"},{"name":"dense_Dense5214/bias","shape":[1],"dtype":"float32"}]}]}