{"modelTopology":{"class_name":"Model","config":{"name":"model616","layers":[{"name":"input616","class_name":"InputLayer","config":{"batch_input_shape":[null,3],"dtype":"float32","sparse":false,"name":"input616"},"inbound_nodes":[]},{"name":"dense_Dense3076","class_name":"Dense","config":{"units":4,"activation":"relu","use_bias":true,"kernel_initializer":{"class_name":"VarianceScaling","config":{"scale":1,"mode":"fan_avg","distribution":"normal","seed":null}},"bias_initializer":{"class_name":"Zeros","config":{}},"kernel_regularizer":null,"bias_regularizer":null,"activity_regularizer":null,"kernel_constraint":null,"bias_constraint":null,"name":"dense_Dense3076","trainable":true},"inbound_nodes":[[["input616",0,0,{}]]]},{"name":"dense_Dense3077","class_name":"Dense","config":{"units":32,"activation":"relu","use_bias":true,"kernel_initializer":{"class_name":"VarianceScaling","config":{"scale":1,"mode":"fan_avg","distribution":"normal","seed":null}},"bias_initializer":{"class_name":"Zeros","config":{}},"kernel_regularizer":null,"bias_regularizer":null,"activity_regularizer":null,"kernel_constraint":null,"bias_constraint":null,"name":"dense_Dense3077","trainable":true},"inbound_nodes":[[["dense_Dense3076",0,0,{}]]]},{"name":"dense_Dense3078","class_name":"Dense","config":{"units":1,"activation":"relu","use_bias":true,"kernel_initializer":{"class_name":"VarianceScaling","config":{"scale":1,"mode":"fan_avg","distribution":"normal","seed":null}},"bias_initializer":{"class_name":"Zeros","config":{}},"kernel_regularizer":null,"bias_regularizer":null,"activity_regularizer":null,"kernel_constraint":null,"bias_constraint":null,"name":"dense_Dense3078","trainable":true},"inbound_nodes":[[["dense_Dense3077",0,0,{}]]]},{"name":"dense_Dense3079","class_name":"Dense","config":{"units":8,"activation":"relu","use_bias":true,"kernel_initializer":{"class_name":"VarianceScaling","config":{"scale":1,"mode":"fan_avg","distribution":"normal","seed":null}},"bias_initializer":{"class_name":"Zeros","config":{}},"kernel_regularizer":null,"bias_regularizer":null,"activity_regularizer":null,"kernel_constraint":null,"bias_constraint":null,"name":"dense_Dense3079","trainable":true},"inbound_nodes":[[["dense_Dense3078",0,0,{}]]]},{"name":"dense_Dense3080","class_name":"Dense","config":{"units":1,"activation":"sigmoid","use_bias":true,"kernel_initializer":{"class_name":"VarianceScaling","config":{"scale":1,"mode":"fan_avg","distribution":"normal","seed":null}},"bias_initializer":{"class_name":"Zeros","config":{}},"kernel_regularizer":null,"bias_regularizer":null,"activity_regularizer":null,"kernel_constraint":null,"bias_constraint":null,"name":"dense_Dense3080","trainable":true},"inbound_nodes":[[["dense_Dense3079",0,0,{}]]]}],"input_layers":[["input616",0,0]],"output_layers":[["dense_Dense3080",0,0]]},"keras_version":"tfjs-layers 3.9.0","backend":"tensor_flow.js"},"weightsManifest":[{"paths":["weights.bin"],"weights":[{"name":"dense_Dense3076/kernel","shape":[3,4],"dtype":"float32"},{"name":"dense_Dense3076/bias","shape":[4],"dtype":"float32"},{"name":"dense_Dense3077/kernel","shape":[4,32],"dtype":"float32"},{"name":"dense_Dense3077/bias","shape":[32],"dtype":"float32"},{"name":"dense_Dense3078/kernel","shape":[32,1],"dtype":"float32"},{"name":"dense_Dense3078/bias","shape":[1],"dtype":"float32"},{"name":"dense_Dense3079/kernel","shape":[1,8],"dtype":"float32"},{"name":"dense_Dense3079/bias","shape":[8],"dtype":"float32"},{"name":"dense_Dense3080/kernel","shape":[8,1],"dtype":"float32"},{"name":"dense_Dense3080/bias","shape":[1],"dtype":"float32"}]}]}