{"modelTopology":{"class_name":"Model","config":{"name":"model1156","layers":[{"name":"input1156","class_name":"InputLayer","config":{"batch_input_shape":[null,3],"dtype":"float32","sparse":false,"name":"input1156"},"inbound_nodes":[]},{"name":"dense_Dense6931","class_name":"Dense","config":{"units":4,"activation":"relu","use_bias":true,"kernel_initializer":{"class_name":"VarianceScaling","config":{"scale":1,"mode":"fan_avg","distribution":"normal","seed":null}},"bias_initializer":{"class_name":"Zeros","config":{}},"kernel_regularizer":null,"bias_regularizer":null,"activity_regularizer":null,"kernel_constraint":null,"bias_constraint":null,"name":"dense_Dense6931","trainable":true},"inbound_nodes":[[["input1156",0,0,{}]]]},{"name":"dense_Dense6932","class_name":"Dense","config":{"units":32,"activation":"relu","use_bias":true,"kernel_initializer":{"class_name":"VarianceScaling","config":{"scale":1,"mode":"fan_avg","distribution":"normal","seed":null}},"bias_initializer":{"class_name":"Zeros","config":{}},"kernel_regularizer":null,"bias_regularizer":null,"activity_regularizer":null,"kernel_constraint":null,"bias_constraint":null,"name":"dense_Dense6932","trainable":true},"inbound_nodes":[[["dense_Dense6931",0,0,{}]]]},{"name":"dense_Dense6933","class_name":"Dense","config":{"units":4,"activation":"relu","use_bias":true,"kernel_initializer":{"class_name":"VarianceScaling","config":{"scale":1,"mode":"fan_avg","distribution":"normal","seed":null}},"bias_initializer":{"class_name":"Zeros","config":{}},"kernel_regularizer":null,"bias_regularizer":null,"activity_regularizer":null,"kernel_constraint":null,"bias_constraint":null,"name":"dense_Dense6933","trainable":true},"inbound_nodes":[[["dense_Dense6932",0,0,{}]]]},{"name":"dense_Dense6934","class_name":"Dense","config":{"units":1,"activation":"relu","use_bias":true,"kernel_initializer":{"class_name":"VarianceScaling","config":{"scale":1,"mode":"fan_avg","distribution":"normal","seed":null}},"bias_initializer":{"class_name":"Zeros","config":{}},"kernel_regularizer":null,"bias_regularizer":null,"activity_regularizer":null,"kernel_constraint":null,"bias_constraint":null,"name":"dense_Dense6934","trainable":true},"inbound_nodes":[[["dense_Dense6933",0,0,{}]]]},{"name":"dense_Dense6935","class_name":"Dense","config":{"units":8,"activation":"relu","use_bias":true,"kernel_initializer":{"class_name":"VarianceScaling","config":{"scale":1,"mode":"fan_avg","distribution":"normal","seed":null}},"bias_initializer":{"class_name":"Zeros","config":{}},"kernel_regularizer":null,"bias_regularizer":null,"activity_regularizer":null,"kernel_constraint":null,"bias_constraint":null,"name":"dense_Dense6935","trainable":true},"inbound_nodes":[[["dense_Dense6934",0,0,{}]]]},{"name":"dense_Dense6936","class_name":"Dense","config":{"units":1,"activation":"sigmoid","use_bias":true,"kernel_initializer":{"class_name":"VarianceScaling","config":{"scale":1,"mode":"fan_avg","distribution":"normal","seed":null}},"bias_initializer":{"class_name":"Zeros","config":{}},"kernel_regularizer":null,"bias_regularizer":null,"activity_regularizer":null,"kernel_constraint":null,"bias_constraint":null,"name":"dense_Dense6936","trainable":true},"inbound_nodes":[[["dense_Dense6935",0,0,{}]]]}],"input_layers":[["input1156",0,0]],"output_layers":[["dense_Dense6936",0,0]]},"keras_version":"tfjs-layers 3.9.0","backend":"tensor_flow.js"},"weightsManifest":[{"paths":["weights.bin"],"weights":[{"name":"dense_Dense6931/kernel","shape":[3,4],"dtype":"float32"},{"name":"dense_Dense6931/bias","shape":[4],"dtype":"float32"},{"name":"dense_Dense6932/kernel","shape":[4,32],"dtype":"float32"},{"name":"dense_Dense6932/bias","shape":[32],"dtype":"float32"},{"name":"dense_Dense6933/kernel","shape":[32,4],"dtype":"float32"},{"name":"dense_Dense6933/bias","shape":[4],"dtype":"float32"},{"name":"dense_Dense6934/kernel","shape":[4,1],"dtype":"float32"},{"name":"dense_Dense6934/bias","shape":[1],"dtype":"float32"},{"name":"dense_Dense6935/kernel","shape":[1,8],"dtype":"float32"},{"name":"dense_Dense6935/bias","shape":[8],"dtype":"float32"},{"name":"dense_Dense6936/kernel","shape":[8,1],"dtype":"float32"},{"name":"dense_Dense6936/bias","shape":[1],"dtype":"float32"}]}]}