{"modelTopology":{"class_name":"Model","config":{"name":"model1148","layers":[{"name":"input1148","class_name":"InputLayer","config":{"batch_input_shape":[null,3],"dtype":"float32","sparse":false,"name":"input1148"},"inbound_nodes":[]},{"name":"dense_Dense6883","class_name":"Dense","config":{"units":1,"activation":"relu","use_bias":true,"kernel_initializer":{"class_name":"VarianceScaling","config":{"scale":1,"mode":"fan_avg","distribution":"normal","seed":null}},"bias_initializer":{"class_name":"Zeros","config":{}},"kernel_regularizer":null,"bias_regularizer":null,"activity_regularizer":null,"kernel_constraint":null,"bias_constraint":null,"name":"dense_Dense6883","trainable":true},"inbound_nodes":[[["input1148",0,0,{}]]]},{"name":"dense_Dense6884","class_name":"Dense","config":{"units":32,"activation":"relu","use_bias":true,"kernel_initializer":{"class_name":"VarianceScaling","config":{"scale":1,"mode":"fan_avg","distribution":"normal","seed":null}},"bias_initializer":{"class_name":"Zeros","config":{}},"kernel_regularizer":null,"bias_regularizer":null,"activity_regularizer":null,"kernel_constraint":null,"bias_constraint":null,"name":"dense_Dense6884","trainable":true},"inbound_nodes":[[["dense_Dense6883",0,0,{}]]]},{"name":"dense_Dense6885","class_name":"Dense","config":{"units":2,"activation":"relu","use_bias":true,"kernel_initializer":{"class_name":"VarianceScaling","config":{"scale":1,"mode":"fan_avg","distribution":"normal","seed":null}},"bias_initializer":{"class_name":"Zeros","config":{}},"kernel_regularizer":null,"bias_regularizer":null,"activity_regularizer":null,"kernel_constraint":null,"bias_constraint":null,"name":"dense_Dense6885","trainable":true},"inbound_nodes":[[["dense_Dense6884",0,0,{}]]]},{"name":"dense_Dense6886","class_name":"Dense","config":{"units":32,"activation":"relu","use_bias":true,"kernel_initializer":{"class_name":"VarianceScaling","config":{"scale":1,"mode":"fan_avg","distribution":"normal","seed":null}},"bias_initializer":{"class_name":"Zeros","config":{}},"kernel_regularizer":null,"bias_regularizer":null,"activity_regularizer":null,"kernel_constraint":null,"bias_constraint":null,"name":"dense_Dense6886","trainable":true},"inbound_nodes":[[["dense_Dense6885",0,0,{}]]]},{"name":"dense_Dense6887","class_name":"Dense","config":{"units":2,"activation":"relu","use_bias":true,"kernel_initializer":{"class_name":"VarianceScaling","config":{"scale":1,"mode":"fan_avg","distribution":"normal","seed":null}},"bias_initializer":{"class_name":"Zeros","config":{}},"kernel_regularizer":null,"bias_regularizer":null,"activity_regularizer":null,"kernel_constraint":null,"bias_constraint":null,"name":"dense_Dense6887","trainable":true},"inbound_nodes":[[["dense_Dense6886",0,0,{}]]]},{"name":"dense_Dense6888","class_name":"Dense","config":{"units":1,"activation":"sigmoid","use_bias":true,"kernel_initializer":{"class_name":"VarianceScaling","config":{"scale":1,"mode":"fan_avg","distribution":"normal","seed":null}},"bias_initializer":{"class_name":"Zeros","config":{}},"kernel_regularizer":null,"bias_regularizer":null,"activity_regularizer":null,"kernel_constraint":null,"bias_constraint":null,"name":"dense_Dense6888","trainable":true},"inbound_nodes":[[["dense_Dense6887",0,0,{}]]]}],"input_layers":[["input1148",0,0]],"output_layers":[["dense_Dense6888",0,0]]},"keras_version":"tfjs-layers 3.9.0","backend":"tensor_flow.js"},"weightsManifest":[{"paths":["weights.bin"],"weights":[{"name":"dense_Dense6883/kernel","shape":[3,1],"dtype":"float32"},{"name":"dense_Dense6883/bias","shape":[1],"dtype":"float32"},{"name":"dense_Dense6884/kernel","shape":[1,32],"dtype":"float32"},{"name":"dense_Dense6884/bias","shape":[32],"dtype":"float32"},{"name":"dense_Dense6885/kernel","shape":[32,2],"dtype":"float32"},{"name":"dense_Dense6885/bias","shape":[2],"dtype":"float32"},{"name":"dense_Dense6886/kernel","shape":[2,32],"dtype":"float32"},{"name":"dense_Dense6886/bias","shape":[32],"dtype":"float32"},{"name":"dense_Dense6887/kernel","shape":[32,2],"dtype":"float32"},{"name":"dense_Dense6887/bias","shape":[2],"dtype":"float32"},{"name":"dense_Dense6888/kernel","shape":[2,1],"dtype":"float32"},{"name":"dense_Dense6888/bias","shape":[1],"dtype":"float32"}]}]}