{"modelTopology":{"class_name":"Model","config":{"name":"model748","layers":[{"name":"input748","class_name":"InputLayer","config":{"batch_input_shape":[null,3],"dtype":"float32","sparse":false,"name":"input748"},"inbound_nodes":[]},{"name":"dense_Dense3736","class_name":"Dense","config":{"units":8,"activation":"relu","use_bias":true,"kernel_initializer":{"class_name":"VarianceScaling","config":{"scale":1,"mode":"fan_avg","distribution":"normal","seed":null}},"bias_initializer":{"class_name":"Zeros","config":{}},"kernel_regularizer":null,"bias_regularizer":null,"activity_regularizer":null,"kernel_constraint":null,"bias_constraint":null,"name":"dense_Dense3736","trainable":true},"inbound_nodes":[[["input748",0,0,{}]]]},{"name":"dense_Dense3737","class_name":"Dense","config":{"units":4,"activation":"relu","use_bias":true,"kernel_initializer":{"class_name":"VarianceScaling","config":{"scale":1,"mode":"fan_avg","distribution":"normal","seed":null}},"bias_initializer":{"class_name":"Zeros","config":{}},"kernel_regularizer":null,"bias_regularizer":null,"activity_regularizer":null,"kernel_constraint":null,"bias_constraint":null,"name":"dense_Dense3737","trainable":true},"inbound_nodes":[[["dense_Dense3736",0,0,{}]]]},{"name":"dense_Dense3738","class_name":"Dense","config":{"units":16,"activation":"relu","use_bias":true,"kernel_initializer":{"class_name":"VarianceScaling","config":{"scale":1,"mode":"fan_avg","distribution":"normal","seed":null}},"bias_initializer":{"class_name":"Zeros","config":{}},"kernel_regularizer":null,"bias_regularizer":null,"activity_regularizer":null,"kernel_constraint":null,"bias_constraint":null,"name":"dense_Dense3738","trainable":true},"inbound_nodes":[[["dense_Dense3737",0,0,{}]]]},{"name":"dense_Dense3739","class_name":"Dense","config":{"units":8,"activation":"relu","use_bias":true,"kernel_initializer":{"class_name":"VarianceScaling","config":{"scale":1,"mode":"fan_avg","distribution":"normal","seed":null}},"bias_initializer":{"class_name":"Zeros","config":{}},"kernel_regularizer":null,"bias_regularizer":null,"activity_regularizer":null,"kernel_constraint":null,"bias_constraint":null,"name":"dense_Dense3739","trainable":true},"inbound_nodes":[[["dense_Dense3738",0,0,{}]]]},{"name":"dense_Dense3740","class_name":"Dense","config":{"units":1,"activation":"sigmoid","use_bias":true,"kernel_initializer":{"class_name":"VarianceScaling","config":{"scale":1,"mode":"fan_avg","distribution":"normal","seed":null}},"bias_initializer":{"class_name":"Zeros","config":{}},"kernel_regularizer":null,"bias_regularizer":null,"activity_regularizer":null,"kernel_constraint":null,"bias_constraint":null,"name":"dense_Dense3740","trainable":true},"inbound_nodes":[[["dense_Dense3739",0,0,{}]]]}],"input_layers":[["input748",0,0]],"output_layers":[["dense_Dense3740",0,0]]},"keras_version":"tfjs-layers 3.9.0","backend":"tensor_flow.js"},"weightsManifest":[{"paths":["weights.bin"],"weights":[{"name":"dense_Dense3736/kernel","shape":[3,8],"dtype":"float32"},{"name":"dense_Dense3736/bias","shape":[8],"dtype":"float32"},{"name":"dense_Dense3737/kernel","shape":[8,4],"dtype":"float32"},{"name":"dense_Dense3737/bias","shape":[4],"dtype":"float32"},{"name":"dense_Dense3738/kernel","shape":[4,16],"dtype":"float32"},{"name":"dense_Dense3738/bias","shape":[16],"dtype":"float32"},{"name":"dense_Dense3739/kernel","shape":[16,8],"dtype":"float32"},{"name":"dense_Dense3739/bias","shape":[8],"dtype":"float32"},{"name":"dense_Dense3740/kernel","shape":[8,1],"dtype":"float32"},{"name":"dense_Dense3740/bias","shape":[1],"dtype":"float32"}]}]}