{"modelTopology":{"class_name":"Model","config":{"name":"model923","layers":[{"name":"input923","class_name":"InputLayer","config":{"batch_input_shape":[null,3],"dtype":"float32","sparse":false,"name":"input923"},"inbound_nodes":[]},{"name":"dense_Dense5533","class_name":"Dense","config":{"units":16,"activation":"relu","use_bias":true,"kernel_initializer":{"class_name":"VarianceScaling","config":{"scale":1,"mode":"fan_avg","distribution":"normal","seed":null}},"bias_initializer":{"class_name":"Zeros","config":{}},"kernel_regularizer":null,"bias_regularizer":null,"activity_regularizer":null,"kernel_constraint":null,"bias_constraint":null,"name":"dense_Dense5533","trainable":true},"inbound_nodes":[[["input923",0,0,{}]]]},{"name":"dense_Dense5534","class_name":"Dense","config":{"units":16,"activation":"relu","use_bias":true,"kernel_initializer":{"class_name":"VarianceScaling","config":{"scale":1,"mode":"fan_avg","distribution":"normal","seed":null}},"bias_initializer":{"class_name":"Zeros","config":{}},"kernel_regularizer":null,"bias_regularizer":null,"activity_regularizer":null,"kernel_constraint":null,"bias_constraint":null,"name":"dense_Dense5534","trainable":true},"inbound_nodes":[[["dense_Dense5533",0,0,{}]]]},{"name":"dense_Dense5535","class_name":"Dense","config":{"units":2,"activation":"relu","use_bias":true,"kernel_initializer":{"class_name":"VarianceScaling","config":{"scale":1,"mode":"fan_avg","distribution":"normal","seed":null}},"bias_initializer":{"class_name":"Zeros","config":{}},"kernel_regularizer":null,"bias_regularizer":null,"activity_regularizer":null,"kernel_constraint":null,"bias_constraint":null,"name":"dense_Dense5535","trainable":true},"inbound_nodes":[[["dense_Dense5534",0,0,{}]]]},{"name":"dense_Dense5536","class_name":"Dense","config":{"units":8,"activation":"relu","use_bias":true,"kernel_initializer":{"class_name":"VarianceScaling","config":{"scale":1,"mode":"fan_avg","distribution":"normal","seed":null}},"bias_initializer":{"class_name":"Zeros","config":{}},"kernel_regularizer":null,"bias_regularizer":null,"activity_regularizer":null,"kernel_constraint":null,"bias_constraint":null,"name":"dense_Dense5536","trainable":true},"inbound_nodes":[[["dense_Dense5535",0,0,{}]]]},{"name":"dense_Dense5537","class_name":"Dense","config":{"units":16,"activation":"relu","use_bias":true,"kernel_initializer":{"class_name":"VarianceScaling","config":{"scale":1,"mode":"fan_avg","distribution":"normal","seed":null}},"bias_initializer":{"class_name":"Zeros","config":{}},"kernel_regularizer":null,"bias_regularizer":null,"activity_regularizer":null,"kernel_constraint":null,"bias_constraint":null,"name":"dense_Dense5537","trainable":true},"inbound_nodes":[[["dense_Dense5536",0,0,{}]]]},{"name":"dense_Dense5538","class_name":"Dense","config":{"units":1,"activation":"sigmoid","use_bias":true,"kernel_initializer":{"class_name":"VarianceScaling","config":{"scale":1,"mode":"fan_avg","distribution":"normal","seed":null}},"bias_initializer":{"class_name":"Zeros","config":{}},"kernel_regularizer":null,"bias_regularizer":null,"activity_regularizer":null,"kernel_constraint":null,"bias_constraint":null,"name":"dense_Dense5538","trainable":true},"inbound_nodes":[[["dense_Dense5537",0,0,{}]]]}],"input_layers":[["input923",0,0]],"output_layers":[["dense_Dense5538",0,0]]},"keras_version":"tfjs-layers 3.9.0","backend":"tensor_flow.js"},"weightsManifest":[{"paths":["weights.bin"],"weights":[{"name":"dense_Dense5533/kernel","shape":[3,16],"dtype":"float32"},{"name":"dense_Dense5533/bias","shape":[16],"dtype":"float32"},{"name":"dense_Dense5534/kernel","shape":[16,16],"dtype":"float32"},{"name":"dense_Dense5534/bias","shape":[16],"dtype":"float32"},{"name":"dense_Dense5535/kernel","shape":[16,2],"dtype":"float32"},{"name":"dense_Dense5535/bias","shape":[2],"dtype":"float32"},{"name":"dense_Dense5536/kernel","shape":[2,8],"dtype":"float32"},{"name":"dense_Dense5536/bias","shape":[8],"dtype":"float32"},{"name":"dense_Dense5537/kernel","shape":[8,16],"dtype":"float32"},{"name":"dense_Dense5537/bias","shape":[16],"dtype":"float32"},{"name":"dense_Dense5538/kernel","shape":[16,1],"dtype":"float32"},{"name":"dense_Dense5538/bias","shape":[1],"dtype":"float32"}]}]}