{"modelTopology":{"class_name":"Model","config":{"name":"model1000","layers":[{"name":"input1000","class_name":"InputLayer","config":{"batch_input_shape":[null,3],"dtype":"float32","sparse":false,"name":"input1000"},"inbound_nodes":[]},{"name":"dense_Dense5995","class_name":"Dense","config":{"units":8,"activation":"relu","use_bias":true,"kernel_initializer":{"class_name":"VarianceScaling","config":{"scale":1,"mode":"fan_avg","distribution":"normal","seed":null}},"bias_initializer":{"class_name":"Zeros","config":{}},"kernel_regularizer":null,"bias_regularizer":null,"activity_regularizer":null,"kernel_constraint":null,"bias_constraint":null,"name":"dense_Dense5995","trainable":true},"inbound_nodes":[[["input1000",0,0,{}]]]},{"name":"dense_Dense5996","class_name":"Dense","config":{"units":16,"activation":"relu","use_bias":true,"kernel_initializer":{"class_name":"VarianceScaling","config":{"scale":1,"mode":"fan_avg","distribution":"normal","seed":null}},"bias_initializer":{"class_name":"Zeros","config":{}},"kernel_regularizer":null,"bias_regularizer":null,"activity_regularizer":null,"kernel_constraint":null,"bias_constraint":null,"name":"dense_Dense5996","trainable":true},"inbound_nodes":[[["dense_Dense5995",0,0,{}]]]},{"name":"dense_Dense5997","class_name":"Dense","config":{"units":8,"activation":"relu","use_bias":true,"kernel_initializer":{"class_name":"VarianceScaling","config":{"scale":1,"mode":"fan_avg","distribution":"normal","seed":null}},"bias_initializer":{"class_name":"Zeros","config":{}},"kernel_regularizer":null,"bias_regularizer":null,"activity_regularizer":null,"kernel_constraint":null,"bias_constraint":null,"name":"dense_Dense5997","trainable":true},"inbound_nodes":[[["dense_Dense5996",0,0,{}]]]},{"name":"dense_Dense5998","class_name":"Dense","config":{"units":16,"activation":"relu","use_bias":true,"kernel_initializer":{"class_name":"VarianceScaling","config":{"scale":1,"mode":"fan_avg","distribution":"normal","seed":null}},"bias_initializer":{"class_name":"Zeros","config":{}},"kernel_regularizer":null,"bias_regularizer":null,"activity_regularizer":null,"kernel_constraint":null,"bias_constraint":null,"name":"dense_Dense5998","trainable":true},"inbound_nodes":[[["dense_Dense5997",0,0,{}]]]},{"name":"dense_Dense5999","class_name":"Dense","config":{"units":8,"activation":"relu","use_bias":true,"kernel_initializer":{"class_name":"VarianceScaling","config":{"scale":1,"mode":"fan_avg","distribution":"normal","seed":null}},"bias_initializer":{"class_name":"Zeros","config":{}},"kernel_regularizer":null,"bias_regularizer":null,"activity_regularizer":null,"kernel_constraint":null,"bias_constraint":null,"name":"dense_Dense5999","trainable":true},"inbound_nodes":[[["dense_Dense5998",0,0,{}]]]},{"name":"dense_Dense6000","class_name":"Dense","config":{"units":1,"activation":"sigmoid","use_bias":true,"kernel_initializer":{"class_name":"VarianceScaling","config":{"scale":1,"mode":"fan_avg","distribution":"normal","seed":null}},"bias_initializer":{"class_name":"Zeros","config":{}},"kernel_regularizer":null,"bias_regularizer":null,"activity_regularizer":null,"kernel_constraint":null,"bias_constraint":null,"name":"dense_Dense6000","trainable":true},"inbound_nodes":[[["dense_Dense5999",0,0,{}]]]}],"input_layers":[["input1000",0,0]],"output_layers":[["dense_Dense6000",0,0]]},"keras_version":"tfjs-layers 3.9.0","backend":"tensor_flow.js"},"weightsManifest":[{"paths":["weights.bin"],"weights":[{"name":"dense_Dense5995/kernel","shape":[3,8],"dtype":"float32"},{"name":"dense_Dense5995/bias","shape":[8],"dtype":"float32"},{"name":"dense_Dense5996/kernel","shape":[8,16],"dtype":"float32"},{"name":"dense_Dense5996/bias","shape":[16],"dtype":"float32"},{"name":"dense_Dense5997/kernel","shape":[16,8],"dtype":"float32"},{"name":"dense_Dense5997/bias","shape":[8],"dtype":"float32"},{"name":"dense_Dense5998/kernel","shape":[8,16],"dtype":"float32"},{"name":"dense_Dense5998/bias","shape":[16],"dtype":"float32"},{"name":"dense_Dense5999/kernel","shape":[16,8],"dtype":"float32"},{"name":"dense_Dense5999/bias","shape":[8],"dtype":"float32"},{"name":"dense_Dense6000/kernel","shape":[8,1],"dtype":"float32"},{"name":"dense_Dense6000/bias","shape":[1],"dtype":"float32"}]}]}