{"modelTopology":{"class_name":"Model","config":{"name":"model1266","layers":[{"name":"input1266","class_name":"InputLayer","config":{"batch_input_shape":[null,3],"dtype":"float32","sparse":false,"name":"input1266"},"inbound_nodes":[]},{"name":"dense_Dense7591","class_name":"Dense","config":{"units":8,"activation":"relu","use_bias":true,"kernel_initializer":{"class_name":"VarianceScaling","config":{"scale":1,"mode":"fan_avg","distribution":"normal","seed":null}},"bias_initializer":{"class_name":"Zeros","config":{}},"kernel_regularizer":null,"bias_regularizer":null,"activity_regularizer":null,"kernel_constraint":null,"bias_constraint":null,"name":"dense_Dense7591","trainable":true},"inbound_nodes":[[["input1266",0,0,{}]]]},{"name":"dense_Dense7592","class_name":"Dense","config":{"units":32,"activation":"relu","use_bias":true,"kernel_initializer":{"class_name":"VarianceScaling","config":{"scale":1,"mode":"fan_avg","distribution":"normal","seed":null}},"bias_initializer":{"class_name":"Zeros","config":{}},"kernel_regularizer":null,"bias_regularizer":null,"activity_regularizer":null,"kernel_constraint":null,"bias_constraint":null,"name":"dense_Dense7592","trainable":true},"inbound_nodes":[[["dense_Dense7591",0,0,{}]]]},{"name":"dense_Dense7593","class_name":"Dense","config":{"units":32,"activation":"relu","use_bias":true,"kernel_initializer":{"class_name":"VarianceScaling","config":{"scale":1,"mode":"fan_avg","distribution":"normal","seed":null}},"bias_initializer":{"class_name":"Zeros","config":{}},"kernel_regularizer":null,"bias_regularizer":null,"activity_regularizer":null,"kernel_constraint":null,"bias_constraint":null,"name":"dense_Dense7593","trainable":true},"inbound_nodes":[[["dense_Dense7592",0,0,{}]]]},{"name":"dense_Dense7594","class_name":"Dense","config":{"units":1,"activation":"relu","use_bias":true,"kernel_initializer":{"class_name":"VarianceScaling","config":{"scale":1,"mode":"fan_avg","distribution":"normal","seed":null}},"bias_initializer":{"class_name":"Zeros","config":{}},"kernel_regularizer":null,"bias_regularizer":null,"activity_regularizer":null,"kernel_constraint":null,"bias_constraint":null,"name":"dense_Dense7594","trainable":true},"inbound_nodes":[[["dense_Dense7593",0,0,{}]]]},{"name":"dense_Dense7595","class_name":"Dense","config":{"units":32,"activation":"relu","use_bias":true,"kernel_initializer":{"class_name":"VarianceScaling","config":{"scale":1,"mode":"fan_avg","distribution":"normal","seed":null}},"bias_initializer":{"class_name":"Zeros","config":{}},"kernel_regularizer":null,"bias_regularizer":null,"activity_regularizer":null,"kernel_constraint":null,"bias_constraint":null,"name":"dense_Dense7595","trainable":true},"inbound_nodes":[[["dense_Dense7594",0,0,{}]]]},{"name":"dense_Dense7596","class_name":"Dense","config":{"units":1,"activation":"sigmoid","use_bias":true,"kernel_initializer":{"class_name":"VarianceScaling","config":{"scale":1,"mode":"fan_avg","distribution":"normal","seed":null}},"bias_initializer":{"class_name":"Zeros","config":{}},"kernel_regularizer":null,"bias_regularizer":null,"activity_regularizer":null,"kernel_constraint":null,"bias_constraint":null,"name":"dense_Dense7596","trainable":true},"inbound_nodes":[[["dense_Dense7595",0,0,{}]]]}],"input_layers":[["input1266",0,0]],"output_layers":[["dense_Dense7596",0,0]]},"keras_version":"tfjs-layers 3.9.0","backend":"tensor_flow.js"},"weightsManifest":[{"paths":["weights.bin"],"weights":[{"name":"dense_Dense7591/kernel","shape":[3,8],"dtype":"float32"},{"name":"dense_Dense7591/bias","shape":[8],"dtype":"float32"},{"name":"dense_Dense7592/kernel","shape":[8,32],"dtype":"float32"},{"name":"dense_Dense7592/bias","shape":[32],"dtype":"float32"},{"name":"dense_Dense7593/kernel","shape":[32,32],"dtype":"float32"},{"name":"dense_Dense7593/bias","shape":[32],"dtype":"float32"},{"name":"dense_Dense7594/kernel","shape":[32,1],"dtype":"float32"},{"name":"dense_Dense7594/bias","shape":[1],"dtype":"float32"},{"name":"dense_Dense7595/kernel","shape":[1,32],"dtype":"float32"},{"name":"dense_Dense7595/bias","shape":[32],"dtype":"float32"},{"name":"dense_Dense7596/kernel","shape":[32,1],"dtype":"float32"},{"name":"dense_Dense7596/bias","shape":[1],"dtype":"float32"}]}]}