{"modelTopology":{"class_name":"Model","config":{"name":"model325","layers":[{"name":"input325","class_name":"InputLayer","config":{"batch_input_shape":[null,3],"dtype":"float32","sparse":false,"name":"input325"},"inbound_nodes":[]},{"name":"dense_Dense1945","class_name":"Dense","config":{"units":2,"activation":"relu","use_bias":true,"kernel_initializer":{"class_name":"VarianceScaling","config":{"scale":1,"mode":"fan_avg","distribution":"normal","seed":null}},"bias_initializer":{"class_name":"Zeros","config":{}},"kernel_regularizer":null,"bias_regularizer":null,"activity_regularizer":null,"kernel_constraint":null,"bias_constraint":null,"name":"dense_Dense1945","trainable":true},"inbound_nodes":[[["input325",0,0,{}]]]},{"name":"dense_Dense1946","class_name":"Dense","config":{"units":2,"activation":"relu","use_bias":true,"kernel_initializer":{"class_name":"VarianceScaling","config":{"scale":1,"mode":"fan_avg","distribution":"normal","seed":null}},"bias_initializer":{"class_name":"Zeros","config":{}},"kernel_regularizer":null,"bias_regularizer":null,"activity_regularizer":null,"kernel_constraint":null,"bias_constraint":null,"name":"dense_Dense1946","trainable":true},"inbound_nodes":[[["dense_Dense1945",0,0,{}]]]},{"name":"dense_Dense1947","class_name":"Dense","config":{"units":8,"activation":"relu","use_bias":true,"kernel_initializer":{"class_name":"VarianceScaling","config":{"scale":1,"mode":"fan_avg","distribution":"normal","seed":null}},"bias_initializer":{"class_name":"Zeros","config":{}},"kernel_regularizer":null,"bias_regularizer":null,"activity_regularizer":null,"kernel_constraint":null,"bias_constraint":null,"name":"dense_Dense1947","trainable":true},"inbound_nodes":[[["dense_Dense1946",0,0,{}]]]},{"name":"dense_Dense1948","class_name":"Dense","config":{"units":1,"activation":"relu","use_bias":true,"kernel_initializer":{"class_name":"VarianceScaling","config":{"scale":1,"mode":"fan_avg","distribution":"normal","seed":null}},"bias_initializer":{"class_name":"Zeros","config":{}},"kernel_regularizer":null,"bias_regularizer":null,"activity_regularizer":null,"kernel_constraint":null,"bias_constraint":null,"name":"dense_Dense1948","trainable":true},"inbound_nodes":[[["dense_Dense1947",0,0,{}]]]},{"name":"dense_Dense1949","class_name":"Dense","config":{"units":1,"activation":"relu","use_bias":true,"kernel_initializer":{"class_name":"VarianceScaling","config":{"scale":1,"mode":"fan_avg","distribution":"normal","seed":null}},"bias_initializer":{"class_name":"Zeros","config":{}},"kernel_regularizer":null,"bias_regularizer":null,"activity_regularizer":null,"kernel_constraint":null,"bias_constraint":null,"name":"dense_Dense1949","trainable":true},"inbound_nodes":[[["dense_Dense1948",0,0,{}]]]},{"name":"dense_Dense1950","class_name":"Dense","config":{"units":1,"activation":"sigmoid","use_bias":true,"kernel_initializer":{"class_name":"VarianceScaling","config":{"scale":1,"mode":"fan_avg","distribution":"normal","seed":null}},"bias_initializer":{"class_name":"Zeros","config":{}},"kernel_regularizer":null,"bias_regularizer":null,"activity_regularizer":null,"kernel_constraint":null,"bias_constraint":null,"name":"dense_Dense1950","trainable":true},"inbound_nodes":[[["dense_Dense1949",0,0,{}]]]}],"input_layers":[["input325",0,0]],"output_layers":[["dense_Dense1950",0,0]]},"keras_version":"tfjs-layers 3.9.0","backend":"tensor_flow.js"},"weightsManifest":[{"paths":["weights.bin"],"weights":[{"name":"dense_Dense1945/kernel","shape":[3,2],"dtype":"float32"},{"name":"dense_Dense1945/bias","shape":[2],"dtype":"float32"},{"name":"dense_Dense1946/kernel","shape":[2,2],"dtype":"float32"},{"name":"dense_Dense1946/bias","shape":[2],"dtype":"float32"},{"name":"dense_Dense1947/kernel","shape":[2,8],"dtype":"float32"},{"name":"dense_Dense1947/bias","shape":[8],"dtype":"float32"},{"name":"dense_Dense1948/kernel","shape":[8,1],"dtype":"float32"},{"name":"dense_Dense1948/bias","shape":[1],"dtype":"float32"},{"name":"dense_Dense1949/kernel","shape":[1,1],"dtype":"float32"},{"name":"dense_Dense1949/bias","shape":[1],"dtype":"float32"},{"name":"dense_Dense1950/kernel","shape":[1,1],"dtype":"float32"},{"name":"dense_Dense1950/bias","shape":[1],"dtype":"float32"}]}]}