{"modelTopology":{"class_name":"Model","config":{"name":"model517","layers":[{"name":"input517","class_name":"InputLayer","config":{"batch_input_shape":[null,3],"dtype":"float32","sparse":false,"name":"input517"},"inbound_nodes":[]},{"name":"dense_Dense3097","class_name":"Dense","config":{"units":16,"activation":"relu","use_bias":true,"kernel_initializer":{"class_name":"VarianceScaling","config":{"scale":1,"mode":"fan_avg","distribution":"normal","seed":null}},"bias_initializer":{"class_name":"Zeros","config":{}},"kernel_regularizer":null,"bias_regularizer":null,"activity_regularizer":null,"kernel_constraint":null,"bias_constraint":null,"name":"dense_Dense3097","trainable":true},"inbound_nodes":[[["input517",0,0,{}]]]},{"name":"dense_Dense3098","class_name":"Dense","config":{"units":4,"activation":"relu","use_bias":true,"kernel_initializer":{"class_name":"VarianceScaling","config":{"scale":1,"mode":"fan_avg","distribution":"normal","seed":null}},"bias_initializer":{"class_name":"Zeros","config":{}},"kernel_regularizer":null,"bias_regularizer":null,"activity_regularizer":null,"kernel_constraint":null,"bias_constraint":null,"name":"dense_Dense3098","trainable":true},"inbound_nodes":[[["dense_Dense3097",0,0,{}]]]},{"name":"dense_Dense3099","class_name":"Dense","config":{"units":4,"activation":"relu","use_bias":true,"kernel_initializer":{"class_name":"VarianceScaling","config":{"scale":1,"mode":"fan_avg","distribution":"normal","seed":null}},"bias_initializer":{"class_name":"Zeros","config":{}},"kernel_regularizer":null,"bias_regularizer":null,"activity_regularizer":null,"kernel_constraint":null,"bias_constraint":null,"name":"dense_Dense3099","trainable":true},"inbound_nodes":[[["dense_Dense3098",0,0,{}]]]},{"name":"dense_Dense3100","class_name":"Dense","config":{"units":4,"activation":"relu","use_bias":true,"kernel_initializer":{"class_name":"VarianceScaling","config":{"scale":1,"mode":"fan_avg","distribution":"normal","seed":null}},"bias_initializer":{"class_name":"Zeros","config":{}},"kernel_regularizer":null,"bias_regularizer":null,"activity_regularizer":null,"kernel_constraint":null,"bias_constraint":null,"name":"dense_Dense3100","trainable":true},"inbound_nodes":[[["dense_Dense3099",0,0,{}]]]},{"name":"dense_Dense3101","class_name":"Dense","config":{"units":1,"activation":"relu","use_bias":true,"kernel_initializer":{"class_name":"VarianceScaling","config":{"scale":1,"mode":"fan_avg","distribution":"normal","seed":null}},"bias_initializer":{"class_name":"Zeros","config":{}},"kernel_regularizer":null,"bias_regularizer":null,"activity_regularizer":null,"kernel_constraint":null,"bias_constraint":null,"name":"dense_Dense3101","trainable":true},"inbound_nodes":[[["dense_Dense3100",0,0,{}]]]},{"name":"dense_Dense3102","class_name":"Dense","config":{"units":1,"activation":"sigmoid","use_bias":true,"kernel_initializer":{"class_name":"VarianceScaling","config":{"scale":1,"mode":"fan_avg","distribution":"normal","seed":null}},"bias_initializer":{"class_name":"Zeros","config":{}},"kernel_regularizer":null,"bias_regularizer":null,"activity_regularizer":null,"kernel_constraint":null,"bias_constraint":null,"name":"dense_Dense3102","trainable":true},"inbound_nodes":[[["dense_Dense3101",0,0,{}]]]}],"input_layers":[["input517",0,0]],"output_layers":[["dense_Dense3102",0,0]]},"keras_version":"tfjs-layers 3.9.0","backend":"tensor_flow.js"},"weightsManifest":[{"paths":["weights.bin"],"weights":[{"name":"dense_Dense3097/kernel","shape":[3,16],"dtype":"float32"},{"name":"dense_Dense3097/bias","shape":[16],"dtype":"float32"},{"name":"dense_Dense3098/kernel","shape":[16,4],"dtype":"float32"},{"name":"dense_Dense3098/bias","shape":[4],"dtype":"float32"},{"name":"dense_Dense3099/kernel","shape":[4,4],"dtype":"float32"},{"name":"dense_Dense3099/bias","shape":[4],"dtype":"float32"},{"name":"dense_Dense3100/kernel","shape":[4,4],"dtype":"float32"},{"name":"dense_Dense3100/bias","shape":[4],"dtype":"float32"},{"name":"dense_Dense3101/kernel","shape":[4,1],"dtype":"float32"},{"name":"dense_Dense3101/bias","shape":[1],"dtype":"float32"},{"name":"dense_Dense3102/kernel","shape":[1,1],"dtype":"float32"},{"name":"dense_Dense3102/bias","shape":[1],"dtype":"float32"}]}]}