{"modelTopology":{"class_name":"Model","config":{"name":"model1225","layers":[{"name":"input1225","class_name":"InputLayer","config":{"batch_input_shape":[null,3],"dtype":"float32","sparse":false,"name":"input1225"},"inbound_nodes":[]},{"name":"dense_Dense7345","class_name":"Dense","config":{"units":32,"activation":"relu","use_bias":true,"kernel_initializer":{"class_name":"VarianceScaling","config":{"scale":1,"mode":"fan_avg","distribution":"normal","seed":null}},"bias_initializer":{"class_name":"Zeros","config":{}},"kernel_regularizer":null,"bias_regularizer":null,"activity_regularizer":null,"kernel_constraint":null,"bias_constraint":null,"name":"dense_Dense7345","trainable":true},"inbound_nodes":[[["input1225",0,0,{}]]]},{"name":"dense_Dense7346","class_name":"Dense","config":{"units":32,"activation":"relu","use_bias":true,"kernel_initializer":{"class_name":"VarianceScaling","config":{"scale":1,"mode":"fan_avg","distribution":"normal","seed":null}},"bias_initializer":{"class_name":"Zeros","config":{}},"kernel_regularizer":null,"bias_regularizer":null,"activity_regularizer":null,"kernel_constraint":null,"bias_constraint":null,"name":"dense_Dense7346","trainable":true},"inbound_nodes":[[["dense_Dense7345",0,0,{}]]]},{"name":"dense_Dense7347","class_name":"Dense","config":{"units":16,"activation":"relu","use_bias":true,"kernel_initializer":{"class_name":"VarianceScaling","config":{"scale":1,"mode":"fan_avg","distribution":"normal","seed":null}},"bias_initializer":{"class_name":"Zeros","config":{}},"kernel_regularizer":null,"bias_regularizer":null,"activity_regularizer":null,"kernel_constraint":null,"bias_constraint":null,"name":"dense_Dense7347","trainable":true},"inbound_nodes":[[["dense_Dense7346",0,0,{}]]]},{"name":"dense_Dense7348","class_name":"Dense","config":{"units":1,"activation":"relu","use_bias":true,"kernel_initializer":{"class_name":"VarianceScaling","config":{"scale":1,"mode":"fan_avg","distribution":"normal","seed":null}},"bias_initializer":{"class_name":"Zeros","config":{}},"kernel_regularizer":null,"bias_regularizer":null,"activity_regularizer":null,"kernel_constraint":null,"bias_constraint":null,"name":"dense_Dense7348","trainable":true},"inbound_nodes":[[["dense_Dense7347",0,0,{}]]]},{"name":"dense_Dense7349","class_name":"Dense","config":{"units":1,"activation":"relu","use_bias":true,"kernel_initializer":{"class_name":"VarianceScaling","config":{"scale":1,"mode":"fan_avg","distribution":"normal","seed":null}},"bias_initializer":{"class_name":"Zeros","config":{}},"kernel_regularizer":null,"bias_regularizer":null,"activity_regularizer":null,"kernel_constraint":null,"bias_constraint":null,"name":"dense_Dense7349","trainable":true},"inbound_nodes":[[["dense_Dense7348",0,0,{}]]]},{"name":"dense_Dense7350","class_name":"Dense","config":{"units":1,"activation":"sigmoid","use_bias":true,"kernel_initializer":{"class_name":"VarianceScaling","config":{"scale":1,"mode":"fan_avg","distribution":"normal","seed":null}},"bias_initializer":{"class_name":"Zeros","config":{}},"kernel_regularizer":null,"bias_regularizer":null,"activity_regularizer":null,"kernel_constraint":null,"bias_constraint":null,"name":"dense_Dense7350","trainable":true},"inbound_nodes":[[["dense_Dense7349",0,0,{}]]]}],"input_layers":[["input1225",0,0]],"output_layers":[["dense_Dense7350",0,0]]},"keras_version":"tfjs-layers 3.9.0","backend":"tensor_flow.js"},"weightsManifest":[{"paths":["weights.bin"],"weights":[{"name":"dense_Dense7345/kernel","shape":[3,32],"dtype":"float32"},{"name":"dense_Dense7345/bias","shape":[32],"dtype":"float32"},{"name":"dense_Dense7346/kernel","shape":[32,32],"dtype":"float32"},{"name":"dense_Dense7346/bias","shape":[32],"dtype":"float32"},{"name":"dense_Dense7347/kernel","shape":[32,16],"dtype":"float32"},{"name":"dense_Dense7347/bias","shape":[16],"dtype":"float32"},{"name":"dense_Dense7348/kernel","shape":[16,1],"dtype":"float32"},{"name":"dense_Dense7348/bias","shape":[1],"dtype":"float32"},{"name":"dense_Dense7349/kernel","shape":[1,1],"dtype":"float32"},{"name":"dense_Dense7349/bias","shape":[1],"dtype":"float32"},{"name":"dense_Dense7350/kernel","shape":[1,1],"dtype":"float32"},{"name":"dense_Dense7350/bias","shape":[1],"dtype":"float32"}]}]}