{"modelTopology":{"class_name":"Model","config":{"name":"model116","layers":[{"name":"input116","class_name":"InputLayer","config":{"batch_input_shape":[null,3],"dtype":"float32","sparse":false,"name":"input116"},"inbound_nodes":[]},{"name":"dense_Dense461","class_name":"Dense","config":{"units":8,"activation":"relu","use_bias":true,"kernel_initializer":{"class_name":"VarianceScaling","config":{"scale":1,"mode":"fan_avg","distribution":"normal","seed":null}},"bias_initializer":{"class_name":"Zeros","config":{}},"kernel_regularizer":null,"bias_regularizer":null,"activity_regularizer":null,"kernel_constraint":null,"bias_constraint":null,"name":"dense_Dense461","trainable":true},"inbound_nodes":[[["input116",0,0,{}]]]},{"name":"dense_Dense462","class_name":"Dense","config":{"units":2,"activation":"relu","use_bias":true,"kernel_initializer":{"class_name":"VarianceScaling","config":{"scale":1,"mode":"fan_avg","distribution":"normal","seed":null}},"bias_initializer":{"class_name":"Zeros","config":{}},"kernel_regularizer":null,"bias_regularizer":null,"activity_regularizer":null,"kernel_constraint":null,"bias_constraint":null,"name":"dense_Dense462","trainable":true},"inbound_nodes":[[["dense_Dense461",0,0,{}]]]},{"name":"dense_Dense463","class_name":"Dense","config":{"units":2,"activation":"relu","use_bias":true,"kernel_initializer":{"class_name":"VarianceScaling","config":{"scale":1,"mode":"fan_avg","distribution":"normal","seed":null}},"bias_initializer":{"class_name":"Zeros","config":{}},"kernel_regularizer":null,"bias_regularizer":null,"activity_regularizer":null,"kernel_constraint":null,"bias_constraint":null,"name":"dense_Dense463","trainable":true},"inbound_nodes":[[["dense_Dense462",0,0,{}]]]},{"name":"dense_Dense464","class_name":"Dense","config":{"units":1,"activation":"sigmoid","use_bias":true,"kernel_initializer":{"class_name":"VarianceScaling","config":{"scale":1,"mode":"fan_avg","distribution":"normal","seed":null}},"bias_initializer":{"class_name":"Zeros","config":{}},"kernel_regularizer":null,"bias_regularizer":null,"activity_regularizer":null,"kernel_constraint":null,"bias_constraint":null,"name":"dense_Dense464","trainable":true},"inbound_nodes":[[["dense_Dense463",0,0,{}]]]}],"input_layers":[["input116",0,0]],"output_layers":[["dense_Dense464",0,0]]},"keras_version":"tfjs-layers 3.9.0","backend":"tensor_flow.js"},"weightsManifest":[{"paths":["weights.bin"],"weights":[{"name":"dense_Dense461/kernel","shape":[3,8],"dtype":"float32"},{"name":"dense_Dense461/bias","shape":[8],"dtype":"float32"},{"name":"dense_Dense462/kernel","shape":[8,2],"dtype":"float32"},{"name":"dense_Dense462/bias","shape":[2],"dtype":"float32"},{"name":"dense_Dense463/kernel","shape":[2,2],"dtype":"float32"},{"name":"dense_Dense463/bias","shape":[2],"dtype":"float32"},{"name":"dense_Dense464/kernel","shape":[2,1],"dtype":"float32"},{"name":"dense_Dense464/bias","shape":[1],"dtype":"float32"}]}]}