{"modelTopology":{"class_name":"Model","config":{"name":"model1022","layers":[{"name":"input1022","class_name":"InputLayer","config":{"batch_input_shape":[null,3],"dtype":"float32","sparse":false,"name":"input1022"},"inbound_nodes":[]},{"name":"dense_Dense6127","class_name":"Dense","config":{"units":16,"activation":"relu","use_bias":true,"kernel_initializer":{"class_name":"VarianceScaling","config":{"scale":1,"mode":"fan_avg","distribution":"normal","seed":null}},"bias_initializer":{"class_name":"Zeros","config":{}},"kernel_regularizer":null,"bias_regularizer":null,"activity_regularizer":null,"kernel_constraint":null,"bias_constraint":null,"name":"dense_Dense6127","trainable":true},"inbound_nodes":[[["input1022",0,0,{}]]]},{"name":"dense_Dense6128","class_name":"Dense","config":{"units":16,"activation":"relu","use_bias":true,"kernel_initializer":{"class_name":"VarianceScaling","config":{"scale":1,"mode":"fan_avg","distribution":"normal","seed":null}},"bias_initializer":{"class_name":"Zeros","config":{}},"kernel_regularizer":null,"bias_regularizer":null,"activity_regularizer":null,"kernel_constraint":null,"bias_constraint":null,"name":"dense_Dense6128","trainable":true},"inbound_nodes":[[["dense_Dense6127",0,0,{}]]]},{"name":"dense_Dense6129","class_name":"Dense","config":{"units":16,"activation":"relu","use_bias":true,"kernel_initializer":{"class_name":"VarianceScaling","config":{"scale":1,"mode":"fan_avg","distribution":"normal","seed":null}},"bias_initializer":{"class_name":"Zeros","config":{}},"kernel_regularizer":null,"bias_regularizer":null,"activity_regularizer":null,"kernel_constraint":null,"bias_constraint":null,"name":"dense_Dense6129","trainable":true},"inbound_nodes":[[["dense_Dense6128",0,0,{}]]]},{"name":"dense_Dense6130","class_name":"Dense","config":{"units":4,"activation":"relu","use_bias":true,"kernel_initializer":{"class_name":"VarianceScaling","config":{"scale":1,"mode":"fan_avg","distribution":"normal","seed":null}},"bias_initializer":{"class_name":"Zeros","config":{}},"kernel_regularizer":null,"bias_regularizer":null,"activity_regularizer":null,"kernel_constraint":null,"bias_constraint":null,"name":"dense_Dense6130","trainable":true},"inbound_nodes":[[["dense_Dense6129",0,0,{}]]]},{"name":"dense_Dense6131","class_name":"Dense","config":{"units":2,"activation":"relu","use_bias":true,"kernel_initializer":{"class_name":"VarianceScaling","config":{"scale":1,"mode":"fan_avg","distribution":"normal","seed":null}},"bias_initializer":{"class_name":"Zeros","config":{}},"kernel_regularizer":null,"bias_regularizer":null,"activity_regularizer":null,"kernel_constraint":null,"bias_constraint":null,"name":"dense_Dense6131","trainable":true},"inbound_nodes":[[["dense_Dense6130",0,0,{}]]]},{"name":"dense_Dense6132","class_name":"Dense","config":{"units":1,"activation":"sigmoid","use_bias":true,"kernel_initializer":{"class_name":"VarianceScaling","config":{"scale":1,"mode":"fan_avg","distribution":"normal","seed":null}},"bias_initializer":{"class_name":"Zeros","config":{}},"kernel_regularizer":null,"bias_regularizer":null,"activity_regularizer":null,"kernel_constraint":null,"bias_constraint":null,"name":"dense_Dense6132","trainable":true},"inbound_nodes":[[["dense_Dense6131",0,0,{}]]]}],"input_layers":[["input1022",0,0]],"output_layers":[["dense_Dense6132",0,0]]},"keras_version":"tfjs-layers 3.9.0","backend":"tensor_flow.js"},"weightsManifest":[{"paths":["weights.bin"],"weights":[{"name":"dense_Dense6127/kernel","shape":[3,16],"dtype":"float32"},{"name":"dense_Dense6127/bias","shape":[16],"dtype":"float32"},{"name":"dense_Dense6128/kernel","shape":[16,16],"dtype":"float32"},{"name":"dense_Dense6128/bias","shape":[16],"dtype":"float32"},{"name":"dense_Dense6129/kernel","shape":[16,16],"dtype":"float32"},{"name":"dense_Dense6129/bias","shape":[16],"dtype":"float32"},{"name":"dense_Dense6130/kernel","shape":[16,4],"dtype":"float32"},{"name":"dense_Dense6130/bias","shape":[4],"dtype":"float32"},{"name":"dense_Dense6131/kernel","shape":[4,2],"dtype":"float32"},{"name":"dense_Dense6131/bias","shape":[2],"dtype":"float32"},{"name":"dense_Dense6132/kernel","shape":[2,1],"dtype":"float32"},{"name":"dense_Dense6132/bias","shape":[1],"dtype":"float32"}]}]}