{"modelTopology":{"class_name":"Model","config":{"name":"model197","layers":[{"name":"input197","class_name":"InputLayer","config":{"batch_input_shape":[null,3],"dtype":"float32","sparse":false,"name":"input197"},"inbound_nodes":[]},{"name":"dense_Dense1177","class_name":"Dense","config":{"units":16,"activation":"relu","use_bias":true,"kernel_initializer":{"class_name":"VarianceScaling","config":{"scale":1,"mode":"fan_avg","distribution":"normal","seed":null}},"bias_initializer":{"class_name":"Zeros","config":{}},"kernel_regularizer":null,"bias_regularizer":null,"activity_regularizer":null,"kernel_constraint":null,"bias_constraint":null,"name":"dense_Dense1177","trainable":true},"inbound_nodes":[[["input197",0,0,{}]]]},{"name":"dense_Dense1178","class_name":"Dense","config":{"units":1,"activation":"relu","use_bias":true,"kernel_initializer":{"class_name":"VarianceScaling","config":{"scale":1,"mode":"fan_avg","distribution":"normal","seed":null}},"bias_initializer":{"class_name":"Zeros","config":{}},"kernel_regularizer":null,"bias_regularizer":null,"activity_regularizer":null,"kernel_constraint":null,"bias_constraint":null,"name":"dense_Dense1178","trainable":true},"inbound_nodes":[[["dense_Dense1177",0,0,{}]]]},{"name":"dense_Dense1179","class_name":"Dense","config":{"units":32,"activation":"relu","use_bias":true,"kernel_initializer":{"class_name":"VarianceScaling","config":{"scale":1,"mode":"fan_avg","distribution":"normal","seed":null}},"bias_initializer":{"class_name":"Zeros","config":{}},"kernel_regularizer":null,"bias_regularizer":null,"activity_regularizer":null,"kernel_constraint":null,"bias_constraint":null,"name":"dense_Dense1179","trainable":true},"inbound_nodes":[[["dense_Dense1178",0,0,{}]]]},{"name":"dense_Dense1180","class_name":"Dense","config":{"units":4,"activation":"relu","use_bias":true,"kernel_initializer":{"class_name":"VarianceScaling","config":{"scale":1,"mode":"fan_avg","distribution":"normal","seed":null}},"bias_initializer":{"class_name":"Zeros","config":{}},"kernel_regularizer":null,"bias_regularizer":null,"activity_regularizer":null,"kernel_constraint":null,"bias_constraint":null,"name":"dense_Dense1180","trainable":true},"inbound_nodes":[[["dense_Dense1179",0,0,{}]]]},{"name":"dense_Dense1181","class_name":"Dense","config":{"units":16,"activation":"relu","use_bias":true,"kernel_initializer":{"class_name":"VarianceScaling","config":{"scale":1,"mode":"fan_avg","distribution":"normal","seed":null}},"bias_initializer":{"class_name":"Zeros","config":{}},"kernel_regularizer":null,"bias_regularizer":null,"activity_regularizer":null,"kernel_constraint":null,"bias_constraint":null,"name":"dense_Dense1181","trainable":true},"inbound_nodes":[[["dense_Dense1180",0,0,{}]]]},{"name":"dense_Dense1182","class_name":"Dense","config":{"units":1,"activation":"sigmoid","use_bias":true,"kernel_initializer":{"class_name":"VarianceScaling","config":{"scale":1,"mode":"fan_avg","distribution":"normal","seed":null}},"bias_initializer":{"class_name":"Zeros","config":{}},"kernel_regularizer":null,"bias_regularizer":null,"activity_regularizer":null,"kernel_constraint":null,"bias_constraint":null,"name":"dense_Dense1182","trainable":true},"inbound_nodes":[[["dense_Dense1181",0,0,{}]]]}],"input_layers":[["input197",0,0]],"output_layers":[["dense_Dense1182",0,0]]},"keras_version":"tfjs-layers 3.9.0","backend":"tensor_flow.js"},"weightsManifest":[{"paths":["weights.bin"],"weights":[{"name":"dense_Dense1177/kernel","shape":[3,16],"dtype":"float32"},{"name":"dense_Dense1177/bias","shape":[16],"dtype":"float32"},{"name":"dense_Dense1178/kernel","shape":[16,1],"dtype":"float32"},{"name":"dense_Dense1178/bias","shape":[1],"dtype":"float32"},{"name":"dense_Dense1179/kernel","shape":[1,32],"dtype":"float32"},{"name":"dense_Dense1179/bias","shape":[32],"dtype":"float32"},{"name":"dense_Dense1180/kernel","shape":[32,4],"dtype":"float32"},{"name":"dense_Dense1180/bias","shape":[4],"dtype":"float32"},{"name":"dense_Dense1181/kernel","shape":[4,16],"dtype":"float32"},{"name":"dense_Dense1181/bias","shape":[16],"dtype":"float32"},{"name":"dense_Dense1182/kernel","shape":[16,1],"dtype":"float32"},{"name":"dense_Dense1182/bias","shape":[1],"dtype":"float32"}]}]}