{"modelTopology":{"class_name":"Model","config":{"name":"model960","layers":[{"name":"input960","class_name":"InputLayer","config":{"batch_input_shape":[null,3],"dtype":"float32","sparse":false,"name":"input960"},"inbound_nodes":[]},{"name":"dense_Dense5755","class_name":"Dense","config":{"units":32,"activation":"relu","use_bias":true,"kernel_initializer":{"class_name":"VarianceScaling","config":{"scale":1,"mode":"fan_avg","distribution":"normal","seed":null}},"bias_initializer":{"class_name":"Zeros","config":{}},"kernel_regularizer":null,"bias_regularizer":null,"activity_regularizer":null,"kernel_constraint":null,"bias_constraint":null,"name":"dense_Dense5755","trainable":true},"inbound_nodes":[[["input960",0,0,{}]]]},{"name":"dense_Dense5756","class_name":"Dense","config":{"units":16,"activation":"relu","use_bias":true,"kernel_initializer":{"class_name":"VarianceScaling","config":{"scale":1,"mode":"fan_avg","distribution":"normal","seed":null}},"bias_initializer":{"class_name":"Zeros","config":{}},"kernel_regularizer":null,"bias_regularizer":null,"activity_regularizer":null,"kernel_constraint":null,"bias_constraint":null,"name":"dense_Dense5756","trainable":true},"inbound_nodes":[[["dense_Dense5755",0,0,{}]]]},{"name":"dense_Dense5757","class_name":"Dense","config":{"units":4,"activation":"relu","use_bias":true,"kernel_initializer":{"class_name":"VarianceScaling","config":{"scale":1,"mode":"fan_avg","distribution":"normal","seed":null}},"bias_initializer":{"class_name":"Zeros","config":{}},"kernel_regularizer":null,"bias_regularizer":null,"activity_regularizer":null,"kernel_constraint":null,"bias_constraint":null,"name":"dense_Dense5757","trainable":true},"inbound_nodes":[[["dense_Dense5756",0,0,{}]]]},{"name":"dense_Dense5758","class_name":"Dense","config":{"units":8,"activation":"relu","use_bias":true,"kernel_initializer":{"class_name":"VarianceScaling","config":{"scale":1,"mode":"fan_avg","distribution":"normal","seed":null}},"bias_initializer":{"class_name":"Zeros","config":{}},"kernel_regularizer":null,"bias_regularizer":null,"activity_regularizer":null,"kernel_constraint":null,"bias_constraint":null,"name":"dense_Dense5758","trainable":true},"inbound_nodes":[[["dense_Dense5757",0,0,{}]]]},{"name":"dense_Dense5759","class_name":"Dense","config":{"units":32,"activation":"relu","use_bias":true,"kernel_initializer":{"class_name":"VarianceScaling","config":{"scale":1,"mode":"fan_avg","distribution":"normal","seed":null}},"bias_initializer":{"class_name":"Zeros","config":{}},"kernel_regularizer":null,"bias_regularizer":null,"activity_regularizer":null,"kernel_constraint":null,"bias_constraint":null,"name":"dense_Dense5759","trainable":true},"inbound_nodes":[[["dense_Dense5758",0,0,{}]]]},{"name":"dense_Dense5760","class_name":"Dense","config":{"units":1,"activation":"sigmoid","use_bias":true,"kernel_initializer":{"class_name":"VarianceScaling","config":{"scale":1,"mode":"fan_avg","distribution":"normal","seed":null}},"bias_initializer":{"class_name":"Zeros","config":{}},"kernel_regularizer":null,"bias_regularizer":null,"activity_regularizer":null,"kernel_constraint":null,"bias_constraint":null,"name":"dense_Dense5760","trainable":true},"inbound_nodes":[[["dense_Dense5759",0,0,{}]]]}],"input_layers":[["input960",0,0]],"output_layers":[["dense_Dense5760",0,0]]},"keras_version":"tfjs-layers 3.9.0","backend":"tensor_flow.js"},"weightsManifest":[{"paths":["weights.bin"],"weights":[{"name":"dense_Dense5755/kernel","shape":[3,32],"dtype":"float32"},{"name":"dense_Dense5755/bias","shape":[32],"dtype":"float32"},{"name":"dense_Dense5756/kernel","shape":[32,16],"dtype":"float32"},{"name":"dense_Dense5756/bias","shape":[16],"dtype":"float32"},{"name":"dense_Dense5757/kernel","shape":[16,4],"dtype":"float32"},{"name":"dense_Dense5757/bias","shape":[4],"dtype":"float32"},{"name":"dense_Dense5758/kernel","shape":[4,8],"dtype":"float32"},{"name":"dense_Dense5758/bias","shape":[8],"dtype":"float32"},{"name":"dense_Dense5759/kernel","shape":[8,32],"dtype":"float32"},{"name":"dense_Dense5759/bias","shape":[32],"dtype":"float32"},{"name":"dense_Dense5760/kernel","shape":[32,1],"dtype":"float32"},{"name":"dense_Dense5760/bias","shape":[1],"dtype":"float32"}]}]}