{"modelTopology":{"class_name":"Model","config":{"name":"model109","layers":[{"name":"input109","class_name":"InputLayer","config":{"batch_input_shape":[null,3],"dtype":"float32","sparse":false,"name":"input109"},"inbound_nodes":[]},{"name":"dense_Dense433","class_name":"Dense","config":{"units":8,"activation":"relu","use_bias":true,"kernel_initializer":{"class_name":"VarianceScaling","config":{"scale":1,"mode":"fan_avg","distribution":"normal","seed":null}},"bias_initializer":{"class_name":"Zeros","config":{}},"kernel_regularizer":null,"bias_regularizer":null,"activity_regularizer":null,"kernel_constraint":null,"bias_constraint":null,"name":"dense_Dense433","trainable":true},"inbound_nodes":[[["input109",0,0,{}]]]},{"name":"dense_Dense434","class_name":"Dense","config":{"units":1,"activation":"relu","use_bias":true,"kernel_initializer":{"class_name":"VarianceScaling","config":{"scale":1,"mode":"fan_avg","distribution":"normal","seed":null}},"bias_initializer":{"class_name":"Zeros","config":{}},"kernel_regularizer":null,"bias_regularizer":null,"activity_regularizer":null,"kernel_constraint":null,"bias_constraint":null,"name":"dense_Dense434","trainable":true},"inbound_nodes":[[["dense_Dense433",0,0,{}]]]},{"name":"dense_Dense435","class_name":"Dense","config":{"units":1,"activation":"relu","use_bias":true,"kernel_initializer":{"class_name":"VarianceScaling","config":{"scale":1,"mode":"fan_avg","distribution":"normal","seed":null}},"bias_initializer":{"class_name":"Zeros","config":{}},"kernel_regularizer":null,"bias_regularizer":null,"activity_regularizer":null,"kernel_constraint":null,"bias_constraint":null,"name":"dense_Dense435","trainable":true},"inbound_nodes":[[["dense_Dense434",0,0,{}]]]},{"name":"dense_Dense436","class_name":"Dense","config":{"units":1,"activation":"sigmoid","use_bias":true,"kernel_initializer":{"class_name":"VarianceScaling","config":{"scale":1,"mode":"fan_avg","distribution":"normal","seed":null}},"bias_initializer":{"class_name":"Zeros","config":{}},"kernel_regularizer":null,"bias_regularizer":null,"activity_regularizer":null,"kernel_constraint":null,"bias_constraint":null,"name":"dense_Dense436","trainable":true},"inbound_nodes":[[["dense_Dense435",0,0,{}]]]}],"input_layers":[["input109",0,0]],"output_layers":[["dense_Dense436",0,0]]},"keras_version":"tfjs-layers 3.9.0","backend":"tensor_flow.js"},"weightsManifest":[{"paths":["weights.bin"],"weights":[{"name":"dense_Dense433/kernel","shape":[3,8],"dtype":"float32"},{"name":"dense_Dense433/bias","shape":[8],"dtype":"float32"},{"name":"dense_Dense434/kernel","shape":[8,1],"dtype":"float32"},{"name":"dense_Dense434/bias","shape":[1],"dtype":"float32"},{"name":"dense_Dense435/kernel","shape":[1,1],"dtype":"float32"},{"name":"dense_Dense435/bias","shape":[1],"dtype":"float32"},{"name":"dense_Dense436/kernel","shape":[1,1],"dtype":"float32"},{"name":"dense_Dense436/bias","shape":[1],"dtype":"float32"}]}]}