{"modelTopology":{"class_name":"Model","config":{"name":"model758","layers":[{"name":"input758","class_name":"InputLayer","config":{"batch_input_shape":[null,3],"dtype":"float32","sparse":false,"name":"input758"},"inbound_nodes":[]},{"name":"dense_Dense4543","class_name":"Dense","config":{"units":8,"activation":"relu","use_bias":true,"kernel_initializer":{"class_name":"VarianceScaling","config":{"scale":1,"mode":"fan_avg","distribution":"normal","seed":null}},"bias_initializer":{"class_name":"Zeros","config":{}},"kernel_regularizer":null,"bias_regularizer":null,"activity_regularizer":null,"kernel_constraint":null,"bias_constraint":null,"name":"dense_Dense4543","trainable":true},"inbound_nodes":[[["input758",0,0,{}]]]},{"name":"dense_Dense4544","class_name":"Dense","config":{"units":8,"activation":"relu","use_bias":true,"kernel_initializer":{"class_name":"VarianceScaling","config":{"scale":1,"mode":"fan_avg","distribution":"normal","seed":null}},"bias_initializer":{"class_name":"Zeros","config":{}},"kernel_regularizer":null,"bias_regularizer":null,"activity_regularizer":null,"kernel_constraint":null,"bias_constraint":null,"name":"dense_Dense4544","trainable":true},"inbound_nodes":[[["dense_Dense4543",0,0,{}]]]},{"name":"dense_Dense4545","class_name":"Dense","config":{"units":8,"activation":"relu","use_bias":true,"kernel_initializer":{"class_name":"VarianceScaling","config":{"scale":1,"mode":"fan_avg","distribution":"normal","seed":null}},"bias_initializer":{"class_name":"Zeros","config":{}},"kernel_regularizer":null,"bias_regularizer":null,"activity_regularizer":null,"kernel_constraint":null,"bias_constraint":null,"name":"dense_Dense4545","trainable":true},"inbound_nodes":[[["dense_Dense4544",0,0,{}]]]},{"name":"dense_Dense4546","class_name":"Dense","config":{"units":1,"activation":"relu","use_bias":true,"kernel_initializer":{"class_name":"VarianceScaling","config":{"scale":1,"mode":"fan_avg","distribution":"normal","seed":null}},"bias_initializer":{"class_name":"Zeros","config":{}},"kernel_regularizer":null,"bias_regularizer":null,"activity_regularizer":null,"kernel_constraint":null,"bias_constraint":null,"name":"dense_Dense4546","trainable":true},"inbound_nodes":[[["dense_Dense4545",0,0,{}]]]},{"name":"dense_Dense4547","class_name":"Dense","config":{"units":2,"activation":"relu","use_bias":true,"kernel_initializer":{"class_name":"VarianceScaling","config":{"scale":1,"mode":"fan_avg","distribution":"normal","seed":null}},"bias_initializer":{"class_name":"Zeros","config":{}},"kernel_regularizer":null,"bias_regularizer":null,"activity_regularizer":null,"kernel_constraint":null,"bias_constraint":null,"name":"dense_Dense4547","trainable":true},"inbound_nodes":[[["dense_Dense4546",0,0,{}]]]},{"name":"dense_Dense4548","class_name":"Dense","config":{"units":1,"activation":"sigmoid","use_bias":true,"kernel_initializer":{"class_name":"VarianceScaling","config":{"scale":1,"mode":"fan_avg","distribution":"normal","seed":null}},"bias_initializer":{"class_name":"Zeros","config":{}},"kernel_regularizer":null,"bias_regularizer":null,"activity_regularizer":null,"kernel_constraint":null,"bias_constraint":null,"name":"dense_Dense4548","trainable":true},"inbound_nodes":[[["dense_Dense4547",0,0,{}]]]}],"input_layers":[["input758",0,0]],"output_layers":[["dense_Dense4548",0,0]]},"keras_version":"tfjs-layers 3.9.0","backend":"tensor_flow.js"},"weightsManifest":[{"paths":["weights.bin"],"weights":[{"name":"dense_Dense4543/kernel","shape":[3,8],"dtype":"float32"},{"name":"dense_Dense4543/bias","shape":[8],"dtype":"float32"},{"name":"dense_Dense4544/kernel","shape":[8,8],"dtype":"float32"},{"name":"dense_Dense4544/bias","shape":[8],"dtype":"float32"},{"name":"dense_Dense4545/kernel","shape":[8,8],"dtype":"float32"},{"name":"dense_Dense4545/bias","shape":[8],"dtype":"float32"},{"name":"dense_Dense4546/kernel","shape":[8,1],"dtype":"float32"},{"name":"dense_Dense4546/bias","shape":[1],"dtype":"float32"},{"name":"dense_Dense4547/kernel","shape":[1,2],"dtype":"float32"},{"name":"dense_Dense4547/bias","shape":[2],"dtype":"float32"},{"name":"dense_Dense4548/kernel","shape":[2,1],"dtype":"float32"},{"name":"dense_Dense4548/bias","shape":[1],"dtype":"float32"}]}]}