{"modelTopology":{"class_name":"Model","config":{"name":"model552","layers":[{"name":"input552","class_name":"InputLayer","config":{"batch_input_shape":[null,3],"dtype":"float32","sparse":false,"name":"input552"},"inbound_nodes":[]},{"name":"dense_Dense2756","class_name":"Dense","config":{"units":4,"activation":"relu","use_bias":true,"kernel_initializer":{"class_name":"VarianceScaling","config":{"scale":1,"mode":"fan_avg","distribution":"normal","seed":null}},"bias_initializer":{"class_name":"Zeros","config":{}},"kernel_regularizer":null,"bias_regularizer":null,"activity_regularizer":null,"kernel_constraint":null,"bias_constraint":null,"name":"dense_Dense2756","trainable":true},"inbound_nodes":[[["input552",0,0,{}]]]},{"name":"dense_Dense2757","class_name":"Dense","config":{"units":8,"activation":"relu","use_bias":true,"kernel_initializer":{"class_name":"VarianceScaling","config":{"scale":1,"mode":"fan_avg","distribution":"normal","seed":null}},"bias_initializer":{"class_name":"Zeros","config":{}},"kernel_regularizer":null,"bias_regularizer":null,"activity_regularizer":null,"kernel_constraint":null,"bias_constraint":null,"name":"dense_Dense2757","trainable":true},"inbound_nodes":[[["dense_Dense2756",0,0,{}]]]},{"name":"dense_Dense2758","class_name":"Dense","config":{"units":2,"activation":"relu","use_bias":true,"kernel_initializer":{"class_name":"VarianceScaling","config":{"scale":1,"mode":"fan_avg","distribution":"normal","seed":null}},"bias_initializer":{"class_name":"Zeros","config":{}},"kernel_regularizer":null,"bias_regularizer":null,"activity_regularizer":null,"kernel_constraint":null,"bias_constraint":null,"name":"dense_Dense2758","trainable":true},"inbound_nodes":[[["dense_Dense2757",0,0,{}]]]},{"name":"dense_Dense2759","class_name":"Dense","config":{"units":32,"activation":"relu","use_bias":true,"kernel_initializer":{"class_name":"VarianceScaling","config":{"scale":1,"mode":"fan_avg","distribution":"normal","seed":null}},"bias_initializer":{"class_name":"Zeros","config":{}},"kernel_regularizer":null,"bias_regularizer":null,"activity_regularizer":null,"kernel_constraint":null,"bias_constraint":null,"name":"dense_Dense2759","trainable":true},"inbound_nodes":[[["dense_Dense2758",0,0,{}]]]},{"name":"dense_Dense2760","class_name":"Dense","config":{"units":1,"activation":"sigmoid","use_bias":true,"kernel_initializer":{"class_name":"VarianceScaling","config":{"scale":1,"mode":"fan_avg","distribution":"normal","seed":null}},"bias_initializer":{"class_name":"Zeros","config":{}},"kernel_regularizer":null,"bias_regularizer":null,"activity_regularizer":null,"kernel_constraint":null,"bias_constraint":null,"name":"dense_Dense2760","trainable":true},"inbound_nodes":[[["dense_Dense2759",0,0,{}]]]}],"input_layers":[["input552",0,0]],"output_layers":[["dense_Dense2760",0,0]]},"keras_version":"tfjs-layers 3.9.0","backend":"tensor_flow.js"},"weightsManifest":[{"paths":["weights.bin"],"weights":[{"name":"dense_Dense2756/kernel","shape":[3,4],"dtype":"float32"},{"name":"dense_Dense2756/bias","shape":[4],"dtype":"float32"},{"name":"dense_Dense2757/kernel","shape":[4,8],"dtype":"float32"},{"name":"dense_Dense2757/bias","shape":[8],"dtype":"float32"},{"name":"dense_Dense2758/kernel","shape":[8,2],"dtype":"float32"},{"name":"dense_Dense2758/bias","shape":[2],"dtype":"float32"},{"name":"dense_Dense2759/kernel","shape":[2,32],"dtype":"float32"},{"name":"dense_Dense2759/bias","shape":[32],"dtype":"float32"},{"name":"dense_Dense2760/kernel","shape":[32,1],"dtype":"float32"},{"name":"dense_Dense2760/bias","shape":[1],"dtype":"float32"}]}]}