{"modelTopology":{"class_name":"Model","config":{"name":"model1289","layers":[{"name":"input1289","class_name":"InputLayer","config":{"batch_input_shape":[null,3],"dtype":"float32","sparse":false,"name":"input1289"},"inbound_nodes":[]},{"name":"dense_Dense7729","class_name":"Dense","config":{"units":1,"activation":"relu","use_bias":true,"kernel_initializer":{"class_name":"VarianceScaling","config":{"scale":1,"mode":"fan_avg","distribution":"normal","seed":null}},"bias_initializer":{"class_name":"Zeros","config":{}},"kernel_regularizer":null,"bias_regularizer":null,"activity_regularizer":null,"kernel_constraint":null,"bias_constraint":null,"name":"dense_Dense7729","trainable":true},"inbound_nodes":[[["input1289",0,0,{}]]]},{"name":"dense_Dense7730","class_name":"Dense","config":{"units":32,"activation":"relu","use_bias":true,"kernel_initializer":{"class_name":"VarianceScaling","config":{"scale":1,"mode":"fan_avg","distribution":"normal","seed":null}},"bias_initializer":{"class_name":"Zeros","config":{}},"kernel_regularizer":null,"bias_regularizer":null,"activity_regularizer":null,"kernel_constraint":null,"bias_constraint":null,"name":"dense_Dense7730","trainable":true},"inbound_nodes":[[["dense_Dense7729",0,0,{}]]]},{"name":"dense_Dense7731","class_name":"Dense","config":{"units":32,"activation":"relu","use_bias":true,"kernel_initializer":{"class_name":"VarianceScaling","config":{"scale":1,"mode":"fan_avg","distribution":"normal","seed":null}},"bias_initializer":{"class_name":"Zeros","config":{}},"kernel_regularizer":null,"bias_regularizer":null,"activity_regularizer":null,"kernel_constraint":null,"bias_constraint":null,"name":"dense_Dense7731","trainable":true},"inbound_nodes":[[["dense_Dense7730",0,0,{}]]]},{"name":"dense_Dense7732","class_name":"Dense","config":{"units":16,"activation":"relu","use_bias":true,"kernel_initializer":{"class_name":"VarianceScaling","config":{"scale":1,"mode":"fan_avg","distribution":"normal","seed":null}},"bias_initializer":{"class_name":"Zeros","config":{}},"kernel_regularizer":null,"bias_regularizer":null,"activity_regularizer":null,"kernel_constraint":null,"bias_constraint":null,"name":"dense_Dense7732","trainable":true},"inbound_nodes":[[["dense_Dense7731",0,0,{}]]]},{"name":"dense_Dense7733","class_name":"Dense","config":{"units":16,"activation":"relu","use_bias":true,"kernel_initializer":{"class_name":"VarianceScaling","config":{"scale":1,"mode":"fan_avg","distribution":"normal","seed":null}},"bias_initializer":{"class_name":"Zeros","config":{}},"kernel_regularizer":null,"bias_regularizer":null,"activity_regularizer":null,"kernel_constraint":null,"bias_constraint":null,"name":"dense_Dense7733","trainable":true},"inbound_nodes":[[["dense_Dense7732",0,0,{}]]]},{"name":"dense_Dense7734","class_name":"Dense","config":{"units":1,"activation":"sigmoid","use_bias":true,"kernel_initializer":{"class_name":"VarianceScaling","config":{"scale":1,"mode":"fan_avg","distribution":"normal","seed":null}},"bias_initializer":{"class_name":"Zeros","config":{}},"kernel_regularizer":null,"bias_regularizer":null,"activity_regularizer":null,"kernel_constraint":null,"bias_constraint":null,"name":"dense_Dense7734","trainable":true},"inbound_nodes":[[["dense_Dense7733",0,0,{}]]]}],"input_layers":[["input1289",0,0]],"output_layers":[["dense_Dense7734",0,0]]},"keras_version":"tfjs-layers 3.9.0","backend":"tensor_flow.js"},"weightsManifest":[{"paths":["weights.bin"],"weights":[{"name":"dense_Dense7729/kernel","shape":[3,1],"dtype":"float32"},{"name":"dense_Dense7729/bias","shape":[1],"dtype":"float32"},{"name":"dense_Dense7730/kernel","shape":[1,32],"dtype":"float32"},{"name":"dense_Dense7730/bias","shape":[32],"dtype":"float32"},{"name":"dense_Dense7731/kernel","shape":[32,32],"dtype":"float32"},{"name":"dense_Dense7731/bias","shape":[32],"dtype":"float32"},{"name":"dense_Dense7732/kernel","shape":[32,16],"dtype":"float32"},{"name":"dense_Dense7732/bias","shape":[16],"dtype":"float32"},{"name":"dense_Dense7733/kernel","shape":[16,16],"dtype":"float32"},{"name":"dense_Dense7733/bias","shape":[16],"dtype":"float32"},{"name":"dense_Dense7734/kernel","shape":[16,1],"dtype":"float32"},{"name":"dense_Dense7734/bias","shape":[1],"dtype":"float32"}]}]}