{"modelTopology":{"class_name":"Model","config":{"name":"model1051","layers":[{"name":"input1051","class_name":"InputLayer","config":{"batch_input_shape":[null,3],"dtype":"float32","sparse":false,"name":"input1051"},"inbound_nodes":[]},{"name":"dense_Dense5251","class_name":"Dense","config":{"units":16,"activation":"relu","use_bias":true,"kernel_initializer":{"class_name":"VarianceScaling","config":{"scale":1,"mode":"fan_avg","distribution":"normal","seed":null}},"bias_initializer":{"class_name":"Zeros","config":{}},"kernel_regularizer":null,"bias_regularizer":null,"activity_regularizer":null,"kernel_constraint":null,"bias_constraint":null,"name":"dense_Dense5251","trainable":true},"inbound_nodes":[[["input1051",0,0,{}]]]},{"name":"dense_Dense5252","class_name":"Dense","config":{"units":32,"activation":"relu","use_bias":true,"kernel_initializer":{"class_name":"VarianceScaling","config":{"scale":1,"mode":"fan_avg","distribution":"normal","seed":null}},"bias_initializer":{"class_name":"Zeros","config":{}},"kernel_regularizer":null,"bias_regularizer":null,"activity_regularizer":null,"kernel_constraint":null,"bias_constraint":null,"name":"dense_Dense5252","trainable":true},"inbound_nodes":[[["dense_Dense5251",0,0,{}]]]},{"name":"dense_Dense5253","class_name":"Dense","config":{"units":2,"activation":"relu","use_bias":true,"kernel_initializer":{"class_name":"VarianceScaling","config":{"scale":1,"mode":"fan_avg","distribution":"normal","seed":null}},"bias_initializer":{"class_name":"Zeros","config":{}},"kernel_regularizer":null,"bias_regularizer":null,"activity_regularizer":null,"kernel_constraint":null,"bias_constraint":null,"name":"dense_Dense5253","trainable":true},"inbound_nodes":[[["dense_Dense5252",0,0,{}]]]},{"name":"dense_Dense5254","class_name":"Dense","config":{"units":1,"activation":"relu","use_bias":true,"kernel_initializer":{"class_name":"VarianceScaling","config":{"scale":1,"mode":"fan_avg","distribution":"normal","seed":null}},"bias_initializer":{"class_name":"Zeros","config":{}},"kernel_regularizer":null,"bias_regularizer":null,"activity_regularizer":null,"kernel_constraint":null,"bias_constraint":null,"name":"dense_Dense5254","trainable":true},"inbound_nodes":[[["dense_Dense5253",0,0,{}]]]},{"name":"dense_Dense5255","class_name":"Dense","config":{"units":1,"activation":"sigmoid","use_bias":true,"kernel_initializer":{"class_name":"VarianceScaling","config":{"scale":1,"mode":"fan_avg","distribution":"normal","seed":null}},"bias_initializer":{"class_name":"Zeros","config":{}},"kernel_regularizer":null,"bias_regularizer":null,"activity_regularizer":null,"kernel_constraint":null,"bias_constraint":null,"name":"dense_Dense5255","trainable":true},"inbound_nodes":[[["dense_Dense5254",0,0,{}]]]}],"input_layers":[["input1051",0,0]],"output_layers":[["dense_Dense5255",0,0]]},"keras_version":"tfjs-layers 3.9.0","backend":"tensor_flow.js"},"weightsManifest":[{"paths":["weights.bin"],"weights":[{"name":"dense_Dense5251/kernel","shape":[3,16],"dtype":"float32"},{"name":"dense_Dense5251/bias","shape":[16],"dtype":"float32"},{"name":"dense_Dense5252/kernel","shape":[16,32],"dtype":"float32"},{"name":"dense_Dense5252/bias","shape":[32],"dtype":"float32"},{"name":"dense_Dense5253/kernel","shape":[32,2],"dtype":"float32"},{"name":"dense_Dense5253/bias","shape":[2],"dtype":"float32"},{"name":"dense_Dense5254/kernel","shape":[2,1],"dtype":"float32"},{"name":"dense_Dense5254/bias","shape":[1],"dtype":"float32"},{"name":"dense_Dense5255/kernel","shape":[1,1],"dtype":"float32"},{"name":"dense_Dense5255/bias","shape":[1],"dtype":"float32"}]}]}