{"modelTopology":{"class_name":"Model","config":{"name":"model636","layers":[{"name":"input636","class_name":"InputLayer","config":{"batch_input_shape":[null,3],"dtype":"float32","sparse":false,"name":"input636"},"inbound_nodes":[]},{"name":"dense_Dense3811","class_name":"Dense","config":{"units":4,"activation":"relu","use_bias":true,"kernel_initializer":{"class_name":"VarianceScaling","config":{"scale":1,"mode":"fan_avg","distribution":"normal","seed":null}},"bias_initializer":{"class_name":"Zeros","config":{}},"kernel_regularizer":null,"bias_regularizer":null,"activity_regularizer":null,"kernel_constraint":null,"bias_constraint":null,"name":"dense_Dense3811","trainable":true},"inbound_nodes":[[["input636",0,0,{}]]]},{"name":"dense_Dense3812","class_name":"Dense","config":{"units":4,"activation":"relu","use_bias":true,"kernel_initializer":{"class_name":"VarianceScaling","config":{"scale":1,"mode":"fan_avg","distribution":"normal","seed":null}},"bias_initializer":{"class_name":"Zeros","config":{}},"kernel_regularizer":null,"bias_regularizer":null,"activity_regularizer":null,"kernel_constraint":null,"bias_constraint":null,"name":"dense_Dense3812","trainable":true},"inbound_nodes":[[["dense_Dense3811",0,0,{}]]]},{"name":"dense_Dense3813","class_name":"Dense","config":{"units":32,"activation":"relu","use_bias":true,"kernel_initializer":{"class_name":"VarianceScaling","config":{"scale":1,"mode":"fan_avg","distribution":"normal","seed":null}},"bias_initializer":{"class_name":"Zeros","config":{}},"kernel_regularizer":null,"bias_regularizer":null,"activity_regularizer":null,"kernel_constraint":null,"bias_constraint":null,"name":"dense_Dense3813","trainable":true},"inbound_nodes":[[["dense_Dense3812",0,0,{}]]]},{"name":"dense_Dense3814","class_name":"Dense","config":{"units":8,"activation":"relu","use_bias":true,"kernel_initializer":{"class_name":"VarianceScaling","config":{"scale":1,"mode":"fan_avg","distribution":"normal","seed":null}},"bias_initializer":{"class_name":"Zeros","config":{}},"kernel_regularizer":null,"bias_regularizer":null,"activity_regularizer":null,"kernel_constraint":null,"bias_constraint":null,"name":"dense_Dense3814","trainable":true},"inbound_nodes":[[["dense_Dense3813",0,0,{}]]]},{"name":"dense_Dense3815","class_name":"Dense","config":{"units":32,"activation":"relu","use_bias":true,"kernel_initializer":{"class_name":"VarianceScaling","config":{"scale":1,"mode":"fan_avg","distribution":"normal","seed":null}},"bias_initializer":{"class_name":"Zeros","config":{}},"kernel_regularizer":null,"bias_regularizer":null,"activity_regularizer":null,"kernel_constraint":null,"bias_constraint":null,"name":"dense_Dense3815","trainable":true},"inbound_nodes":[[["dense_Dense3814",0,0,{}]]]},{"name":"dense_Dense3816","class_name":"Dense","config":{"units":1,"activation":"sigmoid","use_bias":true,"kernel_initializer":{"class_name":"VarianceScaling","config":{"scale":1,"mode":"fan_avg","distribution":"normal","seed":null}},"bias_initializer":{"class_name":"Zeros","config":{}},"kernel_regularizer":null,"bias_regularizer":null,"activity_regularizer":null,"kernel_constraint":null,"bias_constraint":null,"name":"dense_Dense3816","trainable":true},"inbound_nodes":[[["dense_Dense3815",0,0,{}]]]}],"input_layers":[["input636",0,0]],"output_layers":[["dense_Dense3816",0,0]]},"keras_version":"tfjs-layers 3.9.0","backend":"tensor_flow.js"},"weightsManifest":[{"paths":["weights.bin"],"weights":[{"name":"dense_Dense3811/kernel","shape":[3,4],"dtype":"float32"},{"name":"dense_Dense3811/bias","shape":[4],"dtype":"float32"},{"name":"dense_Dense3812/kernel","shape":[4,4],"dtype":"float32"},{"name":"dense_Dense3812/bias","shape":[4],"dtype":"float32"},{"name":"dense_Dense3813/kernel","shape":[4,32],"dtype":"float32"},{"name":"dense_Dense3813/bias","shape":[32],"dtype":"float32"},{"name":"dense_Dense3814/kernel","shape":[32,8],"dtype":"float32"},{"name":"dense_Dense3814/bias","shape":[8],"dtype":"float32"},{"name":"dense_Dense3815/kernel","shape":[8,32],"dtype":"float32"},{"name":"dense_Dense3815/bias","shape":[32],"dtype":"float32"},{"name":"dense_Dense3816/kernel","shape":[32,1],"dtype":"float32"},{"name":"dense_Dense3816/bias","shape":[1],"dtype":"float32"}]}]}