{"modelTopology":{"class_name":"Model","config":{"name":"model394","layers":[{"name":"input394","class_name":"InputLayer","config":{"batch_input_shape":[null,3],"dtype":"float32","sparse":false,"name":"input394"},"inbound_nodes":[]},{"name":"dense_Dense2359","class_name":"Dense","config":{"units":16,"activation":"relu","use_bias":true,"kernel_initializer":{"class_name":"VarianceScaling","config":{"scale":1,"mode":"fan_avg","distribution":"normal","seed":null}},"bias_initializer":{"class_name":"Zeros","config":{}},"kernel_regularizer":null,"bias_regularizer":null,"activity_regularizer":null,"kernel_constraint":null,"bias_constraint":null,"name":"dense_Dense2359","trainable":true},"inbound_nodes":[[["input394",0,0,{}]]]},{"name":"dense_Dense2360","class_name":"Dense","config":{"units":2,"activation":"relu","use_bias":true,"kernel_initializer":{"class_name":"VarianceScaling","config":{"scale":1,"mode":"fan_avg","distribution":"normal","seed":null}},"bias_initializer":{"class_name":"Zeros","config":{}},"kernel_regularizer":null,"bias_regularizer":null,"activity_regularizer":null,"kernel_constraint":null,"bias_constraint":null,"name":"dense_Dense2360","trainable":true},"inbound_nodes":[[["dense_Dense2359",0,0,{}]]]},{"name":"dense_Dense2361","class_name":"Dense","config":{"units":16,"activation":"relu","use_bias":true,"kernel_initializer":{"class_name":"VarianceScaling","config":{"scale":1,"mode":"fan_avg","distribution":"normal","seed":null}},"bias_initializer":{"class_name":"Zeros","config":{}},"kernel_regularizer":null,"bias_regularizer":null,"activity_regularizer":null,"kernel_constraint":null,"bias_constraint":null,"name":"dense_Dense2361","trainable":true},"inbound_nodes":[[["dense_Dense2360",0,0,{}]]]},{"name":"dense_Dense2362","class_name":"Dense","config":{"units":32,"activation":"relu","use_bias":true,"kernel_initializer":{"class_name":"VarianceScaling","config":{"scale":1,"mode":"fan_avg","distribution":"normal","seed":null}},"bias_initializer":{"class_name":"Zeros","config":{}},"kernel_regularizer":null,"bias_regularizer":null,"activity_regularizer":null,"kernel_constraint":null,"bias_constraint":null,"name":"dense_Dense2362","trainable":true},"inbound_nodes":[[["dense_Dense2361",0,0,{}]]]},{"name":"dense_Dense2363","class_name":"Dense","config":{"units":8,"activation":"relu","use_bias":true,"kernel_initializer":{"class_name":"VarianceScaling","config":{"scale":1,"mode":"fan_avg","distribution":"normal","seed":null}},"bias_initializer":{"class_name":"Zeros","config":{}},"kernel_regularizer":null,"bias_regularizer":null,"activity_regularizer":null,"kernel_constraint":null,"bias_constraint":null,"name":"dense_Dense2363","trainable":true},"inbound_nodes":[[["dense_Dense2362",0,0,{}]]]},{"name":"dense_Dense2364","class_name":"Dense","config":{"units":1,"activation":"sigmoid","use_bias":true,"kernel_initializer":{"class_name":"VarianceScaling","config":{"scale":1,"mode":"fan_avg","distribution":"normal","seed":null}},"bias_initializer":{"class_name":"Zeros","config":{}},"kernel_regularizer":null,"bias_regularizer":null,"activity_regularizer":null,"kernel_constraint":null,"bias_constraint":null,"name":"dense_Dense2364","trainable":true},"inbound_nodes":[[["dense_Dense2363",0,0,{}]]]}],"input_layers":[["input394",0,0]],"output_layers":[["dense_Dense2364",0,0]]},"keras_version":"tfjs-layers 3.9.0","backend":"tensor_flow.js"},"weightsManifest":[{"paths":["weights.bin"],"weights":[{"name":"dense_Dense2359/kernel","shape":[3,16],"dtype":"float32"},{"name":"dense_Dense2359/bias","shape":[16],"dtype":"float32"},{"name":"dense_Dense2360/kernel","shape":[16,2],"dtype":"float32"},{"name":"dense_Dense2360/bias","shape":[2],"dtype":"float32"},{"name":"dense_Dense2361/kernel","shape":[2,16],"dtype":"float32"},{"name":"dense_Dense2361/bias","shape":[16],"dtype":"float32"},{"name":"dense_Dense2362/kernel","shape":[16,32],"dtype":"float32"},{"name":"dense_Dense2362/bias","shape":[32],"dtype":"float32"},{"name":"dense_Dense2363/kernel","shape":[32,8],"dtype":"float32"},{"name":"dense_Dense2363/bias","shape":[8],"dtype":"float32"},{"name":"dense_Dense2364/kernel","shape":[8,1],"dtype":"float32"},{"name":"dense_Dense2364/bias","shape":[1],"dtype":"float32"}]}]}