{"modelTopology":{"class_name":"Model","config":{"name":"model18","layers":[{"name":"input18","class_name":"InputLayer","config":{"batch_input_shape":[null,3],"dtype":"float32","sparse":false,"name":"input18"},"inbound_nodes":[]},{"name":"dense_Dense103","class_name":"Dense","config":{"units":32,"activation":"relu","use_bias":true,"kernel_initializer":{"class_name":"VarianceScaling","config":{"scale":1,"mode":"fan_avg","distribution":"normal","seed":null}},"bias_initializer":{"class_name":"Zeros","config":{}},"kernel_regularizer":null,"bias_regularizer":null,"activity_regularizer":null,"kernel_constraint":null,"bias_constraint":null,"name":"dense_Dense103","trainable":true},"inbound_nodes":[[["input18",0,0,{}]]]},{"name":"dense_Dense104","class_name":"Dense","config":{"units":1,"activation":"relu","use_bias":true,"kernel_initializer":{"class_name":"VarianceScaling","config":{"scale":1,"mode":"fan_avg","distribution":"normal","seed":null}},"bias_initializer":{"class_name":"Zeros","config":{}},"kernel_regularizer":null,"bias_regularizer":null,"activity_regularizer":null,"kernel_constraint":null,"bias_constraint":null,"name":"dense_Dense104","trainable":true},"inbound_nodes":[[["dense_Dense103",0,0,{}]]]},{"name":"dense_Dense105","class_name":"Dense","config":{"units":1,"activation":"relu","use_bias":true,"kernel_initializer":{"class_name":"VarianceScaling","config":{"scale":1,"mode":"fan_avg","distribution":"normal","seed":null}},"bias_initializer":{"class_name":"Zeros","config":{}},"kernel_regularizer":null,"bias_regularizer":null,"activity_regularizer":null,"kernel_constraint":null,"bias_constraint":null,"name":"dense_Dense105","trainable":true},"inbound_nodes":[[["dense_Dense104",0,0,{}]]]},{"name":"dense_Dense106","class_name":"Dense","config":{"units":4,"activation":"relu","use_bias":true,"kernel_initializer":{"class_name":"VarianceScaling","config":{"scale":1,"mode":"fan_avg","distribution":"normal","seed":null}},"bias_initializer":{"class_name":"Zeros","config":{}},"kernel_regularizer":null,"bias_regularizer":null,"activity_regularizer":null,"kernel_constraint":null,"bias_constraint":null,"name":"dense_Dense106","trainable":true},"inbound_nodes":[[["dense_Dense105",0,0,{}]]]},{"name":"dense_Dense107","class_name":"Dense","config":{"units":32,"activation":"relu","use_bias":true,"kernel_initializer":{"class_name":"VarianceScaling","config":{"scale":1,"mode":"fan_avg","distribution":"normal","seed":null}},"bias_initializer":{"class_name":"Zeros","config":{}},"kernel_regularizer":null,"bias_regularizer":null,"activity_regularizer":null,"kernel_constraint":null,"bias_constraint":null,"name":"dense_Dense107","trainable":true},"inbound_nodes":[[["dense_Dense106",0,0,{}]]]},{"name":"dense_Dense108","class_name":"Dense","config":{"units":1,"activation":"sigmoid","use_bias":true,"kernel_initializer":{"class_name":"VarianceScaling","config":{"scale":1,"mode":"fan_avg","distribution":"normal","seed":null}},"bias_initializer":{"class_name":"Zeros","config":{}},"kernel_regularizer":null,"bias_regularizer":null,"activity_regularizer":null,"kernel_constraint":null,"bias_constraint":null,"name":"dense_Dense108","trainable":true},"inbound_nodes":[[["dense_Dense107",0,0,{}]]]}],"input_layers":[["input18",0,0]],"output_layers":[["dense_Dense108",0,0]]},"keras_version":"tfjs-layers 3.9.0","backend":"tensor_flow.js"},"weightsManifest":[{"paths":["weights.bin"],"weights":[{"name":"dense_Dense103/kernel","shape":[3,32],"dtype":"float32"},{"name":"dense_Dense103/bias","shape":[32],"dtype":"float32"},{"name":"dense_Dense104/kernel","shape":[32,1],"dtype":"float32"},{"name":"dense_Dense104/bias","shape":[1],"dtype":"float32"},{"name":"dense_Dense105/kernel","shape":[1,1],"dtype":"float32"},{"name":"dense_Dense105/bias","shape":[1],"dtype":"float32"},{"name":"dense_Dense106/kernel","shape":[1,4],"dtype":"float32"},{"name":"dense_Dense106/bias","shape":[4],"dtype":"float32"},{"name":"dense_Dense107/kernel","shape":[4,32],"dtype":"float32"},{"name":"dense_Dense107/bias","shape":[32],"dtype":"float32"},{"name":"dense_Dense108/kernel","shape":[32,1],"dtype":"float32"},{"name":"dense_Dense108/bias","shape":[1],"dtype":"float32"}]}]}