{"modelTopology":{"class_name":"Model","config":{"name":"model332","layers":[{"name":"input332","class_name":"InputLayer","config":{"batch_input_shape":[null,3],"dtype":"float32","sparse":false,"name":"input332"},"inbound_nodes":[]},{"name":"dense_Dense1656","class_name":"Dense","config":{"units":2,"activation":"relu","use_bias":true,"kernel_initializer":{"class_name":"VarianceScaling","config":{"scale":1,"mode":"fan_avg","distribution":"normal","seed":null}},"bias_initializer":{"class_name":"Zeros","config":{}},"kernel_regularizer":null,"bias_regularizer":null,"activity_regularizer":null,"kernel_constraint":null,"bias_constraint":null,"name":"dense_Dense1656","trainable":true},"inbound_nodes":[[["input332",0,0,{}]]]},{"name":"dense_Dense1657","class_name":"Dense","config":{"units":8,"activation":"relu","use_bias":true,"kernel_initializer":{"class_name":"VarianceScaling","config":{"scale":1,"mode":"fan_avg","distribution":"normal","seed":null}},"bias_initializer":{"class_name":"Zeros","config":{}},"kernel_regularizer":null,"bias_regularizer":null,"activity_regularizer":null,"kernel_constraint":null,"bias_constraint":null,"name":"dense_Dense1657","trainable":true},"inbound_nodes":[[["dense_Dense1656",0,0,{}]]]},{"name":"dense_Dense1658","class_name":"Dense","config":{"units":2,"activation":"relu","use_bias":true,"kernel_initializer":{"class_name":"VarianceScaling","config":{"scale":1,"mode":"fan_avg","distribution":"normal","seed":null}},"bias_initializer":{"class_name":"Zeros","config":{}},"kernel_regularizer":null,"bias_regularizer":null,"activity_regularizer":null,"kernel_constraint":null,"bias_constraint":null,"name":"dense_Dense1658","trainable":true},"inbound_nodes":[[["dense_Dense1657",0,0,{}]]]},{"name":"dense_Dense1659","class_name":"Dense","config":{"units":2,"activation":"relu","use_bias":true,"kernel_initializer":{"class_name":"VarianceScaling","config":{"scale":1,"mode":"fan_avg","distribution":"normal","seed":null}},"bias_initializer":{"class_name":"Zeros","config":{}},"kernel_regularizer":null,"bias_regularizer":null,"activity_regularizer":null,"kernel_constraint":null,"bias_constraint":null,"name":"dense_Dense1659","trainable":true},"inbound_nodes":[[["dense_Dense1658",0,0,{}]]]},{"name":"dense_Dense1660","class_name":"Dense","config":{"units":1,"activation":"sigmoid","use_bias":true,"kernel_initializer":{"class_name":"VarianceScaling","config":{"scale":1,"mode":"fan_avg","distribution":"normal","seed":null}},"bias_initializer":{"class_name":"Zeros","config":{}},"kernel_regularizer":null,"bias_regularizer":null,"activity_regularizer":null,"kernel_constraint":null,"bias_constraint":null,"name":"dense_Dense1660","trainable":true},"inbound_nodes":[[["dense_Dense1659",0,0,{}]]]}],"input_layers":[["input332",0,0]],"output_layers":[["dense_Dense1660",0,0]]},"keras_version":"tfjs-layers 3.9.0","backend":"tensor_flow.js"},"weightsManifest":[{"paths":["weights.bin"],"weights":[{"name":"dense_Dense1656/kernel","shape":[3,2],"dtype":"float32"},{"name":"dense_Dense1656/bias","shape":[2],"dtype":"float32"},{"name":"dense_Dense1657/kernel","shape":[2,8],"dtype":"float32"},{"name":"dense_Dense1657/bias","shape":[8],"dtype":"float32"},{"name":"dense_Dense1658/kernel","shape":[8,2],"dtype":"float32"},{"name":"dense_Dense1658/bias","shape":[2],"dtype":"float32"},{"name":"dense_Dense1659/kernel","shape":[2,2],"dtype":"float32"},{"name":"dense_Dense1659/bias","shape":[2],"dtype":"float32"},{"name":"dense_Dense1660/kernel","shape":[2,1],"dtype":"float32"},{"name":"dense_Dense1660/bias","shape":[1],"dtype":"float32"}]}]}