{"modelTopology":{"class_name":"Model","config":{"name":"model447","layers":[{"name":"input447","class_name":"InputLayer","config":{"batch_input_shape":[null,3],"dtype":"float32","sparse":false,"name":"input447"},"inbound_nodes":[]},{"name":"dense_Dense2677","class_name":"Dense","config":{"units":8,"activation":"relu","use_bias":true,"kernel_initializer":{"class_name":"VarianceScaling","config":{"scale":1,"mode":"fan_avg","distribution":"normal","seed":null}},"bias_initializer":{"class_name":"Zeros","config":{}},"kernel_regularizer":null,"bias_regularizer":null,"activity_regularizer":null,"kernel_constraint":null,"bias_constraint":null,"name":"dense_Dense2677","trainable":true},"inbound_nodes":[[["input447",0,0,{}]]]},{"name":"dense_Dense2678","class_name":"Dense","config":{"units":4,"activation":"relu","use_bias":true,"kernel_initializer":{"class_name":"VarianceScaling","config":{"scale":1,"mode":"fan_avg","distribution":"normal","seed":null}},"bias_initializer":{"class_name":"Zeros","config":{}},"kernel_regularizer":null,"bias_regularizer":null,"activity_regularizer":null,"kernel_constraint":null,"bias_constraint":null,"name":"dense_Dense2678","trainable":true},"inbound_nodes":[[["dense_Dense2677",0,0,{}]]]},{"name":"dense_Dense2679","class_name":"Dense","config":{"units":1,"activation":"relu","use_bias":true,"kernel_initializer":{"class_name":"VarianceScaling","config":{"scale":1,"mode":"fan_avg","distribution":"normal","seed":null}},"bias_initializer":{"class_name":"Zeros","config":{}},"kernel_regularizer":null,"bias_regularizer":null,"activity_regularizer":null,"kernel_constraint":null,"bias_constraint":null,"name":"dense_Dense2679","trainable":true},"inbound_nodes":[[["dense_Dense2678",0,0,{}]]]},{"name":"dense_Dense2680","class_name":"Dense","config":{"units":4,"activation":"relu","use_bias":true,"kernel_initializer":{"class_name":"VarianceScaling","config":{"scale":1,"mode":"fan_avg","distribution":"normal","seed":null}},"bias_initializer":{"class_name":"Zeros","config":{}},"kernel_regularizer":null,"bias_regularizer":null,"activity_regularizer":null,"kernel_constraint":null,"bias_constraint":null,"name":"dense_Dense2680","trainable":true},"inbound_nodes":[[["dense_Dense2679",0,0,{}]]]},{"name":"dense_Dense2681","class_name":"Dense","config":{"units":4,"activation":"relu","use_bias":true,"kernel_initializer":{"class_name":"VarianceScaling","config":{"scale":1,"mode":"fan_avg","distribution":"normal","seed":null}},"bias_initializer":{"class_name":"Zeros","config":{}},"kernel_regularizer":null,"bias_regularizer":null,"activity_regularizer":null,"kernel_constraint":null,"bias_constraint":null,"name":"dense_Dense2681","trainable":true},"inbound_nodes":[[["dense_Dense2680",0,0,{}]]]},{"name":"dense_Dense2682","class_name":"Dense","config":{"units":1,"activation":"sigmoid","use_bias":true,"kernel_initializer":{"class_name":"VarianceScaling","config":{"scale":1,"mode":"fan_avg","distribution":"normal","seed":null}},"bias_initializer":{"class_name":"Zeros","config":{}},"kernel_regularizer":null,"bias_regularizer":null,"activity_regularizer":null,"kernel_constraint":null,"bias_constraint":null,"name":"dense_Dense2682","trainable":true},"inbound_nodes":[[["dense_Dense2681",0,0,{}]]]}],"input_layers":[["input447",0,0]],"output_layers":[["dense_Dense2682",0,0]]},"keras_version":"tfjs-layers 3.9.0","backend":"tensor_flow.js"},"weightsManifest":[{"paths":["weights.bin"],"weights":[{"name":"dense_Dense2677/kernel","shape":[3,8],"dtype":"float32"},{"name":"dense_Dense2677/bias","shape":[8],"dtype":"float32"},{"name":"dense_Dense2678/kernel","shape":[8,4],"dtype":"float32"},{"name":"dense_Dense2678/bias","shape":[4],"dtype":"float32"},{"name":"dense_Dense2679/kernel","shape":[4,1],"dtype":"float32"},{"name":"dense_Dense2679/bias","shape":[1],"dtype":"float32"},{"name":"dense_Dense2680/kernel","shape":[1,4],"dtype":"float32"},{"name":"dense_Dense2680/bias","shape":[4],"dtype":"float32"},{"name":"dense_Dense2681/kernel","shape":[4,4],"dtype":"float32"},{"name":"dense_Dense2681/bias","shape":[4],"dtype":"float32"},{"name":"dense_Dense2682/kernel","shape":[4,1],"dtype":"float32"},{"name":"dense_Dense2682/bias","shape":[1],"dtype":"float32"}]}]}