{"modelTopology":{"class_name":"Model","config":{"name":"model852","layers":[{"name":"input852","class_name":"InputLayer","config":{"batch_input_shape":[null,3],"dtype":"float32","sparse":false,"name":"input852"},"inbound_nodes":[]},{"name":"dense_Dense5107","class_name":"Dense","config":{"units":1,"activation":"relu","use_bias":true,"kernel_initializer":{"class_name":"VarianceScaling","config":{"scale":1,"mode":"fan_avg","distribution":"normal","seed":null}},"bias_initializer":{"class_name":"Zeros","config":{}},"kernel_regularizer":null,"bias_regularizer":null,"activity_regularizer":null,"kernel_constraint":null,"bias_constraint":null,"name":"dense_Dense5107","trainable":true},"inbound_nodes":[[["input852",0,0,{}]]]},{"name":"dense_Dense5108","class_name":"Dense","config":{"units":8,"activation":"relu","use_bias":true,"kernel_initializer":{"class_name":"VarianceScaling","config":{"scale":1,"mode":"fan_avg","distribution":"normal","seed":null}},"bias_initializer":{"class_name":"Zeros","config":{}},"kernel_regularizer":null,"bias_regularizer":null,"activity_regularizer":null,"kernel_constraint":null,"bias_constraint":null,"name":"dense_Dense5108","trainable":true},"inbound_nodes":[[["dense_Dense5107",0,0,{}]]]},{"name":"dense_Dense5109","class_name":"Dense","config":{"units":32,"activation":"relu","use_bias":true,"kernel_initializer":{"class_name":"VarianceScaling","config":{"scale":1,"mode":"fan_avg","distribution":"normal","seed":null}},"bias_initializer":{"class_name":"Zeros","config":{}},"kernel_regularizer":null,"bias_regularizer":null,"activity_regularizer":null,"kernel_constraint":null,"bias_constraint":null,"name":"dense_Dense5109","trainable":true},"inbound_nodes":[[["dense_Dense5108",0,0,{}]]]},{"name":"dense_Dense5110","class_name":"Dense","config":{"units":8,"activation":"relu","use_bias":true,"kernel_initializer":{"class_name":"VarianceScaling","config":{"scale":1,"mode":"fan_avg","distribution":"normal","seed":null}},"bias_initializer":{"class_name":"Zeros","config":{}},"kernel_regularizer":null,"bias_regularizer":null,"activity_regularizer":null,"kernel_constraint":null,"bias_constraint":null,"name":"dense_Dense5110","trainable":true},"inbound_nodes":[[["dense_Dense5109",0,0,{}]]]},{"name":"dense_Dense5111","class_name":"Dense","config":{"units":32,"activation":"relu","use_bias":true,"kernel_initializer":{"class_name":"VarianceScaling","config":{"scale":1,"mode":"fan_avg","distribution":"normal","seed":null}},"bias_initializer":{"class_name":"Zeros","config":{}},"kernel_regularizer":null,"bias_regularizer":null,"activity_regularizer":null,"kernel_constraint":null,"bias_constraint":null,"name":"dense_Dense5111","trainable":true},"inbound_nodes":[[["dense_Dense5110",0,0,{}]]]},{"name":"dense_Dense5112","class_name":"Dense","config":{"units":1,"activation":"sigmoid","use_bias":true,"kernel_initializer":{"class_name":"VarianceScaling","config":{"scale":1,"mode":"fan_avg","distribution":"normal","seed":null}},"bias_initializer":{"class_name":"Zeros","config":{}},"kernel_regularizer":null,"bias_regularizer":null,"activity_regularizer":null,"kernel_constraint":null,"bias_constraint":null,"name":"dense_Dense5112","trainable":true},"inbound_nodes":[[["dense_Dense5111",0,0,{}]]]}],"input_layers":[["input852",0,0]],"output_layers":[["dense_Dense5112",0,0]]},"keras_version":"tfjs-layers 3.9.0","backend":"tensor_flow.js"},"weightsManifest":[{"paths":["weights.bin"],"weights":[{"name":"dense_Dense5107/kernel","shape":[3,1],"dtype":"float32"},{"name":"dense_Dense5107/bias","shape":[1],"dtype":"float32"},{"name":"dense_Dense5108/kernel","shape":[1,8],"dtype":"float32"},{"name":"dense_Dense5108/bias","shape":[8],"dtype":"float32"},{"name":"dense_Dense5109/kernel","shape":[8,32],"dtype":"float32"},{"name":"dense_Dense5109/bias","shape":[32],"dtype":"float32"},{"name":"dense_Dense5110/kernel","shape":[32,8],"dtype":"float32"},{"name":"dense_Dense5110/bias","shape":[8],"dtype":"float32"},{"name":"dense_Dense5111/kernel","shape":[8,32],"dtype":"float32"},{"name":"dense_Dense5111/bias","shape":[32],"dtype":"float32"},{"name":"dense_Dense5112/kernel","shape":[32,1],"dtype":"float32"},{"name":"dense_Dense5112/bias","shape":[1],"dtype":"float32"}]}]}