{"modelTopology":{"class_name":"Model","config":{"name":"model1203","layers":[{"name":"input1203","class_name":"InputLayer","config":{"batch_input_shape":[null,3],"dtype":"float32","sparse":false,"name":"input1203"},"inbound_nodes":[]},{"name":"dense_Dense6011","class_name":"Dense","config":{"units":32,"activation":"relu","use_bias":true,"kernel_initializer":{"class_name":"VarianceScaling","config":{"scale":1,"mode":"fan_avg","distribution":"normal","seed":null}},"bias_initializer":{"class_name":"Zeros","config":{}},"kernel_regularizer":null,"bias_regularizer":null,"activity_regularizer":null,"kernel_constraint":null,"bias_constraint":null,"name":"dense_Dense6011","trainable":true},"inbound_nodes":[[["input1203",0,0,{}]]]},{"name":"dense_Dense6012","class_name":"Dense","config":{"units":8,"activation":"relu","use_bias":true,"kernel_initializer":{"class_name":"VarianceScaling","config":{"scale":1,"mode":"fan_avg","distribution":"normal","seed":null}},"bias_initializer":{"class_name":"Zeros","config":{}},"kernel_regularizer":null,"bias_regularizer":null,"activity_regularizer":null,"kernel_constraint":null,"bias_constraint":null,"name":"dense_Dense6012","trainable":true},"inbound_nodes":[[["dense_Dense6011",0,0,{}]]]},{"name":"dense_Dense6013","class_name":"Dense","config":{"units":4,"activation":"relu","use_bias":true,"kernel_initializer":{"class_name":"VarianceScaling","config":{"scale":1,"mode":"fan_avg","distribution":"normal","seed":null}},"bias_initializer":{"class_name":"Zeros","config":{}},"kernel_regularizer":null,"bias_regularizer":null,"activity_regularizer":null,"kernel_constraint":null,"bias_constraint":null,"name":"dense_Dense6013","trainable":true},"inbound_nodes":[[["dense_Dense6012",0,0,{}]]]},{"name":"dense_Dense6014","class_name":"Dense","config":{"units":4,"activation":"relu","use_bias":true,"kernel_initializer":{"class_name":"VarianceScaling","config":{"scale":1,"mode":"fan_avg","distribution":"normal","seed":null}},"bias_initializer":{"class_name":"Zeros","config":{}},"kernel_regularizer":null,"bias_regularizer":null,"activity_regularizer":null,"kernel_constraint":null,"bias_constraint":null,"name":"dense_Dense6014","trainable":true},"inbound_nodes":[[["dense_Dense6013",0,0,{}]]]},{"name":"dense_Dense6015","class_name":"Dense","config":{"units":1,"activation":"sigmoid","use_bias":true,"kernel_initializer":{"class_name":"VarianceScaling","config":{"scale":1,"mode":"fan_avg","distribution":"normal","seed":null}},"bias_initializer":{"class_name":"Zeros","config":{}},"kernel_regularizer":null,"bias_regularizer":null,"activity_regularizer":null,"kernel_constraint":null,"bias_constraint":null,"name":"dense_Dense6015","trainable":true},"inbound_nodes":[[["dense_Dense6014",0,0,{}]]]}],"input_layers":[["input1203",0,0]],"output_layers":[["dense_Dense6015",0,0]]},"keras_version":"tfjs-layers 3.9.0","backend":"tensor_flow.js"},"weightsManifest":[{"paths":["weights.bin"],"weights":[{"name":"dense_Dense6011/kernel","shape":[3,32],"dtype":"float32"},{"name":"dense_Dense6011/bias","shape":[32],"dtype":"float32"},{"name":"dense_Dense6012/kernel","shape":[32,8],"dtype":"float32"},{"name":"dense_Dense6012/bias","shape":[8],"dtype":"float32"},{"name":"dense_Dense6013/kernel","shape":[8,4],"dtype":"float32"},{"name":"dense_Dense6013/bias","shape":[4],"dtype":"float32"},{"name":"dense_Dense6014/kernel","shape":[4,4],"dtype":"float32"},{"name":"dense_Dense6014/bias","shape":[4],"dtype":"float32"},{"name":"dense_Dense6015/kernel","shape":[4,1],"dtype":"float32"},{"name":"dense_Dense6015/bias","shape":[1],"dtype":"float32"}]}]}