{"modelTopology":{"class_name":"Model","config":{"name":"model773","layers":[{"name":"input773","class_name":"InputLayer","config":{"batch_input_shape":[null,3],"dtype":"float32","sparse":false,"name":"input773"},"inbound_nodes":[]},{"name":"dense_Dense4633","class_name":"Dense","config":{"units":8,"activation":"relu","use_bias":true,"kernel_initializer":{"class_name":"VarianceScaling","config":{"scale":1,"mode":"fan_avg","distribution":"normal","seed":null}},"bias_initializer":{"class_name":"Zeros","config":{}},"kernel_regularizer":null,"bias_regularizer":null,"activity_regularizer":null,"kernel_constraint":null,"bias_constraint":null,"name":"dense_Dense4633","trainable":true},"inbound_nodes":[[["input773",0,0,{}]]]},{"name":"dense_Dense4634","class_name":"Dense","config":{"units":8,"activation":"relu","use_bias":true,"kernel_initializer":{"class_name":"VarianceScaling","config":{"scale":1,"mode":"fan_avg","distribution":"normal","seed":null}},"bias_initializer":{"class_name":"Zeros","config":{}},"kernel_regularizer":null,"bias_regularizer":null,"activity_regularizer":null,"kernel_constraint":null,"bias_constraint":null,"name":"dense_Dense4634","trainable":true},"inbound_nodes":[[["dense_Dense4633",0,0,{}]]]},{"name":"dense_Dense4635","class_name":"Dense","config":{"units":8,"activation":"relu","use_bias":true,"kernel_initializer":{"class_name":"VarianceScaling","config":{"scale":1,"mode":"fan_avg","distribution":"normal","seed":null}},"bias_initializer":{"class_name":"Zeros","config":{}},"kernel_regularizer":null,"bias_regularizer":null,"activity_regularizer":null,"kernel_constraint":null,"bias_constraint":null,"name":"dense_Dense4635","trainable":true},"inbound_nodes":[[["dense_Dense4634",0,0,{}]]]},{"name":"dense_Dense4636","class_name":"Dense","config":{"units":4,"activation":"relu","use_bias":true,"kernel_initializer":{"class_name":"VarianceScaling","config":{"scale":1,"mode":"fan_avg","distribution":"normal","seed":null}},"bias_initializer":{"class_name":"Zeros","config":{}},"kernel_regularizer":null,"bias_regularizer":null,"activity_regularizer":null,"kernel_constraint":null,"bias_constraint":null,"name":"dense_Dense4636","trainable":true},"inbound_nodes":[[["dense_Dense4635",0,0,{}]]]},{"name":"dense_Dense4637","class_name":"Dense","config":{"units":16,"activation":"relu","use_bias":true,"kernel_initializer":{"class_name":"VarianceScaling","config":{"scale":1,"mode":"fan_avg","distribution":"normal","seed":null}},"bias_initializer":{"class_name":"Zeros","config":{}},"kernel_regularizer":null,"bias_regularizer":null,"activity_regularizer":null,"kernel_constraint":null,"bias_constraint":null,"name":"dense_Dense4637","trainable":true},"inbound_nodes":[[["dense_Dense4636",0,0,{}]]]},{"name":"dense_Dense4638","class_name":"Dense","config":{"units":1,"activation":"sigmoid","use_bias":true,"kernel_initializer":{"class_name":"VarianceScaling","config":{"scale":1,"mode":"fan_avg","distribution":"normal","seed":null}},"bias_initializer":{"class_name":"Zeros","config":{}},"kernel_regularizer":null,"bias_regularizer":null,"activity_regularizer":null,"kernel_constraint":null,"bias_constraint":null,"name":"dense_Dense4638","trainable":true},"inbound_nodes":[[["dense_Dense4637",0,0,{}]]]}],"input_layers":[["input773",0,0]],"output_layers":[["dense_Dense4638",0,0]]},"keras_version":"tfjs-layers 3.9.0","backend":"tensor_flow.js"},"weightsManifest":[{"paths":["weights.bin"],"weights":[{"name":"dense_Dense4633/kernel","shape":[3,8],"dtype":"float32"},{"name":"dense_Dense4633/bias","shape":[8],"dtype":"float32"},{"name":"dense_Dense4634/kernel","shape":[8,8],"dtype":"float32"},{"name":"dense_Dense4634/bias","shape":[8],"dtype":"float32"},{"name":"dense_Dense4635/kernel","shape":[8,8],"dtype":"float32"},{"name":"dense_Dense4635/bias","shape":[8],"dtype":"float32"},{"name":"dense_Dense4636/kernel","shape":[8,4],"dtype":"float32"},{"name":"dense_Dense4636/bias","shape":[4],"dtype":"float32"},{"name":"dense_Dense4637/kernel","shape":[4,16],"dtype":"float32"},{"name":"dense_Dense4637/bias","shape":[16],"dtype":"float32"},{"name":"dense_Dense4638/kernel","shape":[16,1],"dtype":"float32"},{"name":"dense_Dense4638/bias","shape":[1],"dtype":"float32"}]}]}