{"modelTopology":{"class_name":"Model","config":{"name":"model680","layers":[{"name":"input680","class_name":"InputLayer","config":{"batch_input_shape":[null,3],"dtype":"float32","sparse":false,"name":"input680"},"inbound_nodes":[]},{"name":"dense_Dense4075","class_name":"Dense","config":{"units":2,"activation":"relu","use_bias":true,"kernel_initializer":{"class_name":"VarianceScaling","config":{"scale":1,"mode":"fan_avg","distribution":"normal","seed":null}},"bias_initializer":{"class_name":"Zeros","config":{}},"kernel_regularizer":null,"bias_regularizer":null,"activity_regularizer":null,"kernel_constraint":null,"bias_constraint":null,"name":"dense_Dense4075","trainable":true},"inbound_nodes":[[["input680",0,0,{}]]]},{"name":"dense_Dense4076","class_name":"Dense","config":{"units":8,"activation":"relu","use_bias":true,"kernel_initializer":{"class_name":"VarianceScaling","config":{"scale":1,"mode":"fan_avg","distribution":"normal","seed":null}},"bias_initializer":{"class_name":"Zeros","config":{}},"kernel_regularizer":null,"bias_regularizer":null,"activity_regularizer":null,"kernel_constraint":null,"bias_constraint":null,"name":"dense_Dense4076","trainable":true},"inbound_nodes":[[["dense_Dense4075",0,0,{}]]]},{"name":"dense_Dense4077","class_name":"Dense","config":{"units":1,"activation":"relu","use_bias":true,"kernel_initializer":{"class_name":"VarianceScaling","config":{"scale":1,"mode":"fan_avg","distribution":"normal","seed":null}},"bias_initializer":{"class_name":"Zeros","config":{}},"kernel_regularizer":null,"bias_regularizer":null,"activity_regularizer":null,"kernel_constraint":null,"bias_constraint":null,"name":"dense_Dense4077","trainable":true},"inbound_nodes":[[["dense_Dense4076",0,0,{}]]]},{"name":"dense_Dense4078","class_name":"Dense","config":{"units":32,"activation":"relu","use_bias":true,"kernel_initializer":{"class_name":"VarianceScaling","config":{"scale":1,"mode":"fan_avg","distribution":"normal","seed":null}},"bias_initializer":{"class_name":"Zeros","config":{}},"kernel_regularizer":null,"bias_regularizer":null,"activity_regularizer":null,"kernel_constraint":null,"bias_constraint":null,"name":"dense_Dense4078","trainable":true},"inbound_nodes":[[["dense_Dense4077",0,0,{}]]]},{"name":"dense_Dense4079","class_name":"Dense","config":{"units":2,"activation":"relu","use_bias":true,"kernel_initializer":{"class_name":"VarianceScaling","config":{"scale":1,"mode":"fan_avg","distribution":"normal","seed":null}},"bias_initializer":{"class_name":"Zeros","config":{}},"kernel_regularizer":null,"bias_regularizer":null,"activity_regularizer":null,"kernel_constraint":null,"bias_constraint":null,"name":"dense_Dense4079","trainable":true},"inbound_nodes":[[["dense_Dense4078",0,0,{}]]]},{"name":"dense_Dense4080","class_name":"Dense","config":{"units":1,"activation":"sigmoid","use_bias":true,"kernel_initializer":{"class_name":"VarianceScaling","config":{"scale":1,"mode":"fan_avg","distribution":"normal","seed":null}},"bias_initializer":{"class_name":"Zeros","config":{}},"kernel_regularizer":null,"bias_regularizer":null,"activity_regularizer":null,"kernel_constraint":null,"bias_constraint":null,"name":"dense_Dense4080","trainable":true},"inbound_nodes":[[["dense_Dense4079",0,0,{}]]]}],"input_layers":[["input680",0,0]],"output_layers":[["dense_Dense4080",0,0]]},"keras_version":"tfjs-layers 3.9.0","backend":"tensor_flow.js"},"weightsManifest":[{"paths":["weights.bin"],"weights":[{"name":"dense_Dense4075/kernel","shape":[3,2],"dtype":"float32"},{"name":"dense_Dense4075/bias","shape":[2],"dtype":"float32"},{"name":"dense_Dense4076/kernel","shape":[2,8],"dtype":"float32"},{"name":"dense_Dense4076/bias","shape":[8],"dtype":"float32"},{"name":"dense_Dense4077/kernel","shape":[8,1],"dtype":"float32"},{"name":"dense_Dense4077/bias","shape":[1],"dtype":"float32"},{"name":"dense_Dense4078/kernel","shape":[1,32],"dtype":"float32"},{"name":"dense_Dense4078/bias","shape":[32],"dtype":"float32"},{"name":"dense_Dense4079/kernel","shape":[32,2],"dtype":"float32"},{"name":"dense_Dense4079/bias","shape":[2],"dtype":"float32"},{"name":"dense_Dense4080/kernel","shape":[2,1],"dtype":"float32"},{"name":"dense_Dense4080/bias","shape":[1],"dtype":"float32"}]}]}