{"modelTopology":{"class_name":"Model","config":{"name":"model886","layers":[{"name":"input886","class_name":"InputLayer","config":{"batch_input_shape":[null,3],"dtype":"float32","sparse":false,"name":"input886"},"inbound_nodes":[]},{"name":"dense_Dense5311","class_name":"Dense","config":{"units":4,"activation":"relu","use_bias":true,"kernel_initializer":{"class_name":"VarianceScaling","config":{"scale":1,"mode":"fan_avg","distribution":"normal","seed":null}},"bias_initializer":{"class_name":"Zeros","config":{}},"kernel_regularizer":null,"bias_regularizer":null,"activity_regularizer":null,"kernel_constraint":null,"bias_constraint":null,"name":"dense_Dense5311","trainable":true},"inbound_nodes":[[["input886",0,0,{}]]]},{"name":"dense_Dense5312","class_name":"Dense","config":{"units":16,"activation":"relu","use_bias":true,"kernel_initializer":{"class_name":"VarianceScaling","config":{"scale":1,"mode":"fan_avg","distribution":"normal","seed":null}},"bias_initializer":{"class_name":"Zeros","config":{}},"kernel_regularizer":null,"bias_regularizer":null,"activity_regularizer":null,"kernel_constraint":null,"bias_constraint":null,"name":"dense_Dense5312","trainable":true},"inbound_nodes":[[["dense_Dense5311",0,0,{}]]]},{"name":"dense_Dense5313","class_name":"Dense","config":{"units":1,"activation":"relu","use_bias":true,"kernel_initializer":{"class_name":"VarianceScaling","config":{"scale":1,"mode":"fan_avg","distribution":"normal","seed":null}},"bias_initializer":{"class_name":"Zeros","config":{}},"kernel_regularizer":null,"bias_regularizer":null,"activity_regularizer":null,"kernel_constraint":null,"bias_constraint":null,"name":"dense_Dense5313","trainable":true},"inbound_nodes":[[["dense_Dense5312",0,0,{}]]]},{"name":"dense_Dense5314","class_name":"Dense","config":{"units":8,"activation":"relu","use_bias":true,"kernel_initializer":{"class_name":"VarianceScaling","config":{"scale":1,"mode":"fan_avg","distribution":"normal","seed":null}},"bias_initializer":{"class_name":"Zeros","config":{}},"kernel_regularizer":null,"bias_regularizer":null,"activity_regularizer":null,"kernel_constraint":null,"bias_constraint":null,"name":"dense_Dense5314","trainable":true},"inbound_nodes":[[["dense_Dense5313",0,0,{}]]]},{"name":"dense_Dense5315","class_name":"Dense","config":{"units":8,"activation":"relu","use_bias":true,"kernel_initializer":{"class_name":"VarianceScaling","config":{"scale":1,"mode":"fan_avg","distribution":"normal","seed":null}},"bias_initializer":{"class_name":"Zeros","config":{}},"kernel_regularizer":null,"bias_regularizer":null,"activity_regularizer":null,"kernel_constraint":null,"bias_constraint":null,"name":"dense_Dense5315","trainable":true},"inbound_nodes":[[["dense_Dense5314",0,0,{}]]]},{"name":"dense_Dense5316","class_name":"Dense","config":{"units":1,"activation":"sigmoid","use_bias":true,"kernel_initializer":{"class_name":"VarianceScaling","config":{"scale":1,"mode":"fan_avg","distribution":"normal","seed":null}},"bias_initializer":{"class_name":"Zeros","config":{}},"kernel_regularizer":null,"bias_regularizer":null,"activity_regularizer":null,"kernel_constraint":null,"bias_constraint":null,"name":"dense_Dense5316","trainable":true},"inbound_nodes":[[["dense_Dense5315",0,0,{}]]]}],"input_layers":[["input886",0,0]],"output_layers":[["dense_Dense5316",0,0]]},"keras_version":"tfjs-layers 3.9.0","backend":"tensor_flow.js"},"weightsManifest":[{"paths":["weights.bin"],"weights":[{"name":"dense_Dense5311/kernel","shape":[3,4],"dtype":"float32"},{"name":"dense_Dense5311/bias","shape":[4],"dtype":"float32"},{"name":"dense_Dense5312/kernel","shape":[4,16],"dtype":"float32"},{"name":"dense_Dense5312/bias","shape":[16],"dtype":"float32"},{"name":"dense_Dense5313/kernel","shape":[16,1],"dtype":"float32"},{"name":"dense_Dense5313/bias","shape":[1],"dtype":"float32"},{"name":"dense_Dense5314/kernel","shape":[1,8],"dtype":"float32"},{"name":"dense_Dense5314/bias","shape":[8],"dtype":"float32"},{"name":"dense_Dense5315/kernel","shape":[8,8],"dtype":"float32"},{"name":"dense_Dense5315/bias","shape":[8],"dtype":"float32"},{"name":"dense_Dense5316/kernel","shape":[8,1],"dtype":"float32"},{"name":"dense_Dense5316/bias","shape":[1],"dtype":"float32"}]}]}