{"modelTopology":{"class_name":"Model","config":{"name":"model658","layers":[{"name":"input658","class_name":"InputLayer","config":{"batch_input_shape":[null,3],"dtype":"float32","sparse":false,"name":"input658"},"inbound_nodes":[]},{"name":"dense_Dense3943","class_name":"Dense","config":{"units":4,"activation":"relu","use_bias":true,"kernel_initializer":{"class_name":"VarianceScaling","config":{"scale":1,"mode":"fan_avg","distribution":"normal","seed":null}},"bias_initializer":{"class_name":"Zeros","config":{}},"kernel_regularizer":null,"bias_regularizer":null,"activity_regularizer":null,"kernel_constraint":null,"bias_constraint":null,"name":"dense_Dense3943","trainable":true},"inbound_nodes":[[["input658",0,0,{}]]]},{"name":"dense_Dense3944","class_name":"Dense","config":{"units":8,"activation":"relu","use_bias":true,"kernel_initializer":{"class_name":"VarianceScaling","config":{"scale":1,"mode":"fan_avg","distribution":"normal","seed":null}},"bias_initializer":{"class_name":"Zeros","config":{}},"kernel_regularizer":null,"bias_regularizer":null,"activity_regularizer":null,"kernel_constraint":null,"bias_constraint":null,"name":"dense_Dense3944","trainable":true},"inbound_nodes":[[["dense_Dense3943",0,0,{}]]]},{"name":"dense_Dense3945","class_name":"Dense","config":{"units":1,"activation":"relu","use_bias":true,"kernel_initializer":{"class_name":"VarianceScaling","config":{"scale":1,"mode":"fan_avg","distribution":"normal","seed":null}},"bias_initializer":{"class_name":"Zeros","config":{}},"kernel_regularizer":null,"bias_regularizer":null,"activity_regularizer":null,"kernel_constraint":null,"bias_constraint":null,"name":"dense_Dense3945","trainable":true},"inbound_nodes":[[["dense_Dense3944",0,0,{}]]]},{"name":"dense_Dense3946","class_name":"Dense","config":{"units":2,"activation":"relu","use_bias":true,"kernel_initializer":{"class_name":"VarianceScaling","config":{"scale":1,"mode":"fan_avg","distribution":"normal","seed":null}},"bias_initializer":{"class_name":"Zeros","config":{}},"kernel_regularizer":null,"bias_regularizer":null,"activity_regularizer":null,"kernel_constraint":null,"bias_constraint":null,"name":"dense_Dense3946","trainable":true},"inbound_nodes":[[["dense_Dense3945",0,0,{}]]]},{"name":"dense_Dense3947","class_name":"Dense","config":{"units":8,"activation":"relu","use_bias":true,"kernel_initializer":{"class_name":"VarianceScaling","config":{"scale":1,"mode":"fan_avg","distribution":"normal","seed":null}},"bias_initializer":{"class_name":"Zeros","config":{}},"kernel_regularizer":null,"bias_regularizer":null,"activity_regularizer":null,"kernel_constraint":null,"bias_constraint":null,"name":"dense_Dense3947","trainable":true},"inbound_nodes":[[["dense_Dense3946",0,0,{}]]]},{"name":"dense_Dense3948","class_name":"Dense","config":{"units":1,"activation":"sigmoid","use_bias":true,"kernel_initializer":{"class_name":"VarianceScaling","config":{"scale":1,"mode":"fan_avg","distribution":"normal","seed":null}},"bias_initializer":{"class_name":"Zeros","config":{}},"kernel_regularizer":null,"bias_regularizer":null,"activity_regularizer":null,"kernel_constraint":null,"bias_constraint":null,"name":"dense_Dense3948","trainable":true},"inbound_nodes":[[["dense_Dense3947",0,0,{}]]]}],"input_layers":[["input658",0,0]],"output_layers":[["dense_Dense3948",0,0]]},"keras_version":"tfjs-layers 3.9.0","backend":"tensor_flow.js"},"weightsManifest":[{"paths":["weights.bin"],"weights":[{"name":"dense_Dense3943/kernel","shape":[3,4],"dtype":"float32"},{"name":"dense_Dense3943/bias","shape":[4],"dtype":"float32"},{"name":"dense_Dense3944/kernel","shape":[4,8],"dtype":"float32"},{"name":"dense_Dense3944/bias","shape":[8],"dtype":"float32"},{"name":"dense_Dense3945/kernel","shape":[8,1],"dtype":"float32"},{"name":"dense_Dense3945/bias","shape":[1],"dtype":"float32"},{"name":"dense_Dense3946/kernel","shape":[1,2],"dtype":"float32"},{"name":"dense_Dense3946/bias","shape":[2],"dtype":"float32"},{"name":"dense_Dense3947/kernel","shape":[2,8],"dtype":"float32"},{"name":"dense_Dense3947/bias","shape":[8],"dtype":"float32"},{"name":"dense_Dense3948/kernel","shape":[8,1],"dtype":"float32"},{"name":"dense_Dense3948/bias","shape":[1],"dtype":"float32"}]}]}