{"modelTopology":{"class_name":"Model","config":{"name":"model570","layers":[{"name":"input570","class_name":"InputLayer","config":{"batch_input_shape":[null,3],"dtype":"float32","sparse":false,"name":"input570"},"inbound_nodes":[]},{"name":"dense_Dense2846","class_name":"Dense","config":{"units":4,"activation":"relu","use_bias":true,"kernel_initializer":{"class_name":"VarianceScaling","config":{"scale":1,"mode":"fan_avg","distribution":"normal","seed":null}},"bias_initializer":{"class_name":"Zeros","config":{}},"kernel_regularizer":null,"bias_regularizer":null,"activity_regularizer":null,"kernel_constraint":null,"bias_constraint":null,"name":"dense_Dense2846","trainable":true},"inbound_nodes":[[["input570",0,0,{}]]]},{"name":"dense_Dense2847","class_name":"Dense","config":{"units":8,"activation":"relu","use_bias":true,"kernel_initializer":{"class_name":"VarianceScaling","config":{"scale":1,"mode":"fan_avg","distribution":"normal","seed":null}},"bias_initializer":{"class_name":"Zeros","config":{}},"kernel_regularizer":null,"bias_regularizer":null,"activity_regularizer":null,"kernel_constraint":null,"bias_constraint":null,"name":"dense_Dense2847","trainable":true},"inbound_nodes":[[["dense_Dense2846",0,0,{}]]]},{"name":"dense_Dense2848","class_name":"Dense","config":{"units":16,"activation":"relu","use_bias":true,"kernel_initializer":{"class_name":"VarianceScaling","config":{"scale":1,"mode":"fan_avg","distribution":"normal","seed":null}},"bias_initializer":{"class_name":"Zeros","config":{}},"kernel_regularizer":null,"bias_regularizer":null,"activity_regularizer":null,"kernel_constraint":null,"bias_constraint":null,"name":"dense_Dense2848","trainable":true},"inbound_nodes":[[["dense_Dense2847",0,0,{}]]]},{"name":"dense_Dense2849","class_name":"Dense","config":{"units":32,"activation":"relu","use_bias":true,"kernel_initializer":{"class_name":"VarianceScaling","config":{"scale":1,"mode":"fan_avg","distribution":"normal","seed":null}},"bias_initializer":{"class_name":"Zeros","config":{}},"kernel_regularizer":null,"bias_regularizer":null,"activity_regularizer":null,"kernel_constraint":null,"bias_constraint":null,"name":"dense_Dense2849","trainable":true},"inbound_nodes":[[["dense_Dense2848",0,0,{}]]]},{"name":"dense_Dense2850","class_name":"Dense","config":{"units":1,"activation":"sigmoid","use_bias":true,"kernel_initializer":{"class_name":"VarianceScaling","config":{"scale":1,"mode":"fan_avg","distribution":"normal","seed":null}},"bias_initializer":{"class_name":"Zeros","config":{}},"kernel_regularizer":null,"bias_regularizer":null,"activity_regularizer":null,"kernel_constraint":null,"bias_constraint":null,"name":"dense_Dense2850","trainable":true},"inbound_nodes":[[["dense_Dense2849",0,0,{}]]]}],"input_layers":[["input570",0,0]],"output_layers":[["dense_Dense2850",0,0]]},"keras_version":"tfjs-layers 3.9.0","backend":"tensor_flow.js"},"weightsManifest":[{"paths":["weights.bin"],"weights":[{"name":"dense_Dense2846/kernel","shape":[3,4],"dtype":"float32"},{"name":"dense_Dense2846/bias","shape":[4],"dtype":"float32"},{"name":"dense_Dense2847/kernel","shape":[4,8],"dtype":"float32"},{"name":"dense_Dense2847/bias","shape":[8],"dtype":"float32"},{"name":"dense_Dense2848/kernel","shape":[8,16],"dtype":"float32"},{"name":"dense_Dense2848/bias","shape":[16],"dtype":"float32"},{"name":"dense_Dense2849/kernel","shape":[16,32],"dtype":"float32"},{"name":"dense_Dense2849/bias","shape":[32],"dtype":"float32"},{"name":"dense_Dense2850/kernel","shape":[32,1],"dtype":"float32"},{"name":"dense_Dense2850/bias","shape":[1],"dtype":"float32"}]}]}