{"modelTopology":{"class_name":"Model","config":{"name":"model1240","layers":[{"name":"input1240","class_name":"InputLayer","config":{"batch_input_shape":[null,3],"dtype":"float32","sparse":false,"name":"input1240"},"inbound_nodes":[]},{"name":"dense_Dense7435","class_name":"Dense","config":{"units":32,"activation":"relu","use_bias":true,"kernel_initializer":{"class_name":"VarianceScaling","config":{"scale":1,"mode":"fan_avg","distribution":"normal","seed":null}},"bias_initializer":{"class_name":"Zeros","config":{}},"kernel_regularizer":null,"bias_regularizer":null,"activity_regularizer":null,"kernel_constraint":null,"bias_constraint":null,"name":"dense_Dense7435","trainable":true},"inbound_nodes":[[["input1240",0,0,{}]]]},{"name":"dense_Dense7436","class_name":"Dense","config":{"units":32,"activation":"relu","use_bias":true,"kernel_initializer":{"class_name":"VarianceScaling","config":{"scale":1,"mode":"fan_avg","distribution":"normal","seed":null}},"bias_initializer":{"class_name":"Zeros","config":{}},"kernel_regularizer":null,"bias_regularizer":null,"activity_regularizer":null,"kernel_constraint":null,"bias_constraint":null,"name":"dense_Dense7436","trainable":true},"inbound_nodes":[[["dense_Dense7435",0,0,{}]]]},{"name":"dense_Dense7437","class_name":"Dense","config":{"units":16,"activation":"relu","use_bias":true,"kernel_initializer":{"class_name":"VarianceScaling","config":{"scale":1,"mode":"fan_avg","distribution":"normal","seed":null}},"bias_initializer":{"class_name":"Zeros","config":{}},"kernel_regularizer":null,"bias_regularizer":null,"activity_regularizer":null,"kernel_constraint":null,"bias_constraint":null,"name":"dense_Dense7437","trainable":true},"inbound_nodes":[[["dense_Dense7436",0,0,{}]]]},{"name":"dense_Dense7438","class_name":"Dense","config":{"units":4,"activation":"relu","use_bias":true,"kernel_initializer":{"class_name":"VarianceScaling","config":{"scale":1,"mode":"fan_avg","distribution":"normal","seed":null}},"bias_initializer":{"class_name":"Zeros","config":{}},"kernel_regularizer":null,"bias_regularizer":null,"activity_regularizer":null,"kernel_constraint":null,"bias_constraint":null,"name":"dense_Dense7438","trainable":true},"inbound_nodes":[[["dense_Dense7437",0,0,{}]]]},{"name":"dense_Dense7439","class_name":"Dense","config":{"units":8,"activation":"relu","use_bias":true,"kernel_initializer":{"class_name":"VarianceScaling","config":{"scale":1,"mode":"fan_avg","distribution":"normal","seed":null}},"bias_initializer":{"class_name":"Zeros","config":{}},"kernel_regularizer":null,"bias_regularizer":null,"activity_regularizer":null,"kernel_constraint":null,"bias_constraint":null,"name":"dense_Dense7439","trainable":true},"inbound_nodes":[[["dense_Dense7438",0,0,{}]]]},{"name":"dense_Dense7440","class_name":"Dense","config":{"units":1,"activation":"sigmoid","use_bias":true,"kernel_initializer":{"class_name":"VarianceScaling","config":{"scale":1,"mode":"fan_avg","distribution":"normal","seed":null}},"bias_initializer":{"class_name":"Zeros","config":{}},"kernel_regularizer":null,"bias_regularizer":null,"activity_regularizer":null,"kernel_constraint":null,"bias_constraint":null,"name":"dense_Dense7440","trainable":true},"inbound_nodes":[[["dense_Dense7439",0,0,{}]]]}],"input_layers":[["input1240",0,0]],"output_layers":[["dense_Dense7440",0,0]]},"keras_version":"tfjs-layers 3.9.0","backend":"tensor_flow.js"},"weightsManifest":[{"paths":["weights.bin"],"weights":[{"name":"dense_Dense7435/kernel","shape":[3,32],"dtype":"float32"},{"name":"dense_Dense7435/bias","shape":[32],"dtype":"float32"},{"name":"dense_Dense7436/kernel","shape":[32,32],"dtype":"float32"},{"name":"dense_Dense7436/bias","shape":[32],"dtype":"float32"},{"name":"dense_Dense7437/kernel","shape":[32,16],"dtype":"float32"},{"name":"dense_Dense7437/bias","shape":[16],"dtype":"float32"},{"name":"dense_Dense7438/kernel","shape":[16,4],"dtype":"float32"},{"name":"dense_Dense7438/bias","shape":[4],"dtype":"float32"},{"name":"dense_Dense7439/kernel","shape":[4,8],"dtype":"float32"},{"name":"dense_Dense7439/bias","shape":[8],"dtype":"float32"},{"name":"dense_Dense7440/kernel","shape":[8,1],"dtype":"float32"},{"name":"dense_Dense7440/bias","shape":[1],"dtype":"float32"}]}]}