{"modelTopology":{"class_name":"Model","config":{"name":"model1227","layers":[{"name":"input1227","class_name":"InputLayer","config":{"batch_input_shape":[null,3],"dtype":"float32","sparse":false,"name":"input1227"},"inbound_nodes":[]},{"name":"dense_Dense7357","class_name":"Dense","config":{"units":16,"activation":"relu","use_bias":true,"kernel_initializer":{"class_name":"VarianceScaling","config":{"scale":1,"mode":"fan_avg","distribution":"normal","seed":null}},"bias_initializer":{"class_name":"Zeros","config":{}},"kernel_regularizer":null,"bias_regularizer":null,"activity_regularizer":null,"kernel_constraint":null,"bias_constraint":null,"name":"dense_Dense7357","trainable":true},"inbound_nodes":[[["input1227",0,0,{}]]]},{"name":"dense_Dense7358","class_name":"Dense","config":{"units":32,"activation":"relu","use_bias":true,"kernel_initializer":{"class_name":"VarianceScaling","config":{"scale":1,"mode":"fan_avg","distribution":"normal","seed":null}},"bias_initializer":{"class_name":"Zeros","config":{}},"kernel_regularizer":null,"bias_regularizer":null,"activity_regularizer":null,"kernel_constraint":null,"bias_constraint":null,"name":"dense_Dense7358","trainable":true},"inbound_nodes":[[["dense_Dense7357",0,0,{}]]]},{"name":"dense_Dense7359","class_name":"Dense","config":{"units":16,"activation":"relu","use_bias":true,"kernel_initializer":{"class_name":"VarianceScaling","config":{"scale":1,"mode":"fan_avg","distribution":"normal","seed":null}},"bias_initializer":{"class_name":"Zeros","config":{}},"kernel_regularizer":null,"bias_regularizer":null,"activity_regularizer":null,"kernel_constraint":null,"bias_constraint":null,"name":"dense_Dense7359","trainable":true},"inbound_nodes":[[["dense_Dense7358",0,0,{}]]]},{"name":"dense_Dense7360","class_name":"Dense","config":{"units":1,"activation":"relu","use_bias":true,"kernel_initializer":{"class_name":"VarianceScaling","config":{"scale":1,"mode":"fan_avg","distribution":"normal","seed":null}},"bias_initializer":{"class_name":"Zeros","config":{}},"kernel_regularizer":null,"bias_regularizer":null,"activity_regularizer":null,"kernel_constraint":null,"bias_constraint":null,"name":"dense_Dense7360","trainable":true},"inbound_nodes":[[["dense_Dense7359",0,0,{}]]]},{"name":"dense_Dense7361","class_name":"Dense","config":{"units":4,"activation":"relu","use_bias":true,"kernel_initializer":{"class_name":"VarianceScaling","config":{"scale":1,"mode":"fan_avg","distribution":"normal","seed":null}},"bias_initializer":{"class_name":"Zeros","config":{}},"kernel_regularizer":null,"bias_regularizer":null,"activity_regularizer":null,"kernel_constraint":null,"bias_constraint":null,"name":"dense_Dense7361","trainable":true},"inbound_nodes":[[["dense_Dense7360",0,0,{}]]]},{"name":"dense_Dense7362","class_name":"Dense","config":{"units":1,"activation":"sigmoid","use_bias":true,"kernel_initializer":{"class_name":"VarianceScaling","config":{"scale":1,"mode":"fan_avg","distribution":"normal","seed":null}},"bias_initializer":{"class_name":"Zeros","config":{}},"kernel_regularizer":null,"bias_regularizer":null,"activity_regularizer":null,"kernel_constraint":null,"bias_constraint":null,"name":"dense_Dense7362","trainable":true},"inbound_nodes":[[["dense_Dense7361",0,0,{}]]]}],"input_layers":[["input1227",0,0]],"output_layers":[["dense_Dense7362",0,0]]},"keras_version":"tfjs-layers 3.9.0","backend":"tensor_flow.js"},"weightsManifest":[{"paths":["weights.bin"],"weights":[{"name":"dense_Dense7357/kernel","shape":[3,16],"dtype":"float32"},{"name":"dense_Dense7357/bias","shape":[16],"dtype":"float32"},{"name":"dense_Dense7358/kernel","shape":[16,32],"dtype":"float32"},{"name":"dense_Dense7358/bias","shape":[32],"dtype":"float32"},{"name":"dense_Dense7359/kernel","shape":[32,16],"dtype":"float32"},{"name":"dense_Dense7359/bias","shape":[16],"dtype":"float32"},{"name":"dense_Dense7360/kernel","shape":[16,1],"dtype":"float32"},{"name":"dense_Dense7360/bias","shape":[1],"dtype":"float32"},{"name":"dense_Dense7361/kernel","shape":[1,4],"dtype":"float32"},{"name":"dense_Dense7361/bias","shape":[4],"dtype":"float32"},{"name":"dense_Dense7362/kernel","shape":[4,1],"dtype":"float32"},{"name":"dense_Dense7362/bias","shape":[1],"dtype":"float32"}]}]}