{"modelTopology":{"class_name":"Model","config":{"name":"model970","layers":[{"name":"input970","class_name":"InputLayer","config":{"batch_input_shape":[null,3],"dtype":"float32","sparse":false,"name":"input970"},"inbound_nodes":[]},{"name":"dense_Dense5815","class_name":"Dense","config":{"units":4,"activation":"relu","use_bias":true,"kernel_initializer":{"class_name":"VarianceScaling","config":{"scale":1,"mode":"fan_avg","distribution":"normal","seed":null}},"bias_initializer":{"class_name":"Zeros","config":{}},"kernel_regularizer":null,"bias_regularizer":null,"activity_regularizer":null,"kernel_constraint":null,"bias_constraint":null,"name":"dense_Dense5815","trainable":true},"inbound_nodes":[[["input970",0,0,{}]]]},{"name":"dense_Dense5816","class_name":"Dense","config":{"units":16,"activation":"relu","use_bias":true,"kernel_initializer":{"class_name":"VarianceScaling","config":{"scale":1,"mode":"fan_avg","distribution":"normal","seed":null}},"bias_initializer":{"class_name":"Zeros","config":{}},"kernel_regularizer":null,"bias_regularizer":null,"activity_regularizer":null,"kernel_constraint":null,"bias_constraint":null,"name":"dense_Dense5816","trainable":true},"inbound_nodes":[[["dense_Dense5815",0,0,{}]]]},{"name":"dense_Dense5817","class_name":"Dense","config":{"units":4,"activation":"relu","use_bias":true,"kernel_initializer":{"class_name":"VarianceScaling","config":{"scale":1,"mode":"fan_avg","distribution":"normal","seed":null}},"bias_initializer":{"class_name":"Zeros","config":{}},"kernel_regularizer":null,"bias_regularizer":null,"activity_regularizer":null,"kernel_constraint":null,"bias_constraint":null,"name":"dense_Dense5817","trainable":true},"inbound_nodes":[[["dense_Dense5816",0,0,{}]]]},{"name":"dense_Dense5818","class_name":"Dense","config":{"units":32,"activation":"relu","use_bias":true,"kernel_initializer":{"class_name":"VarianceScaling","config":{"scale":1,"mode":"fan_avg","distribution":"normal","seed":null}},"bias_initializer":{"class_name":"Zeros","config":{}},"kernel_regularizer":null,"bias_regularizer":null,"activity_regularizer":null,"kernel_constraint":null,"bias_constraint":null,"name":"dense_Dense5818","trainable":true},"inbound_nodes":[[["dense_Dense5817",0,0,{}]]]},{"name":"dense_Dense5819","class_name":"Dense","config":{"units":8,"activation":"relu","use_bias":true,"kernel_initializer":{"class_name":"VarianceScaling","config":{"scale":1,"mode":"fan_avg","distribution":"normal","seed":null}},"bias_initializer":{"class_name":"Zeros","config":{}},"kernel_regularizer":null,"bias_regularizer":null,"activity_regularizer":null,"kernel_constraint":null,"bias_constraint":null,"name":"dense_Dense5819","trainable":true},"inbound_nodes":[[["dense_Dense5818",0,0,{}]]]},{"name":"dense_Dense5820","class_name":"Dense","config":{"units":1,"activation":"sigmoid","use_bias":true,"kernel_initializer":{"class_name":"VarianceScaling","config":{"scale":1,"mode":"fan_avg","distribution":"normal","seed":null}},"bias_initializer":{"class_name":"Zeros","config":{}},"kernel_regularizer":null,"bias_regularizer":null,"activity_regularizer":null,"kernel_constraint":null,"bias_constraint":null,"name":"dense_Dense5820","trainable":true},"inbound_nodes":[[["dense_Dense5819",0,0,{}]]]}],"input_layers":[["input970",0,0]],"output_layers":[["dense_Dense5820",0,0]]},"keras_version":"tfjs-layers 3.9.0","backend":"tensor_flow.js"},"weightsManifest":[{"paths":["weights.bin"],"weights":[{"name":"dense_Dense5815/kernel","shape":[3,4],"dtype":"float32"},{"name":"dense_Dense5815/bias","shape":[4],"dtype":"float32"},{"name":"dense_Dense5816/kernel","shape":[4,16],"dtype":"float32"},{"name":"dense_Dense5816/bias","shape":[16],"dtype":"float32"},{"name":"dense_Dense5817/kernel","shape":[16,4],"dtype":"float32"},{"name":"dense_Dense5817/bias","shape":[4],"dtype":"float32"},{"name":"dense_Dense5818/kernel","shape":[4,32],"dtype":"float32"},{"name":"dense_Dense5818/bias","shape":[32],"dtype":"float32"},{"name":"dense_Dense5819/kernel","shape":[32,8],"dtype":"float32"},{"name":"dense_Dense5819/bias","shape":[8],"dtype":"float32"},{"name":"dense_Dense5820/kernel","shape":[8,1],"dtype":"float32"},{"name":"dense_Dense5820/bias","shape":[1],"dtype":"float32"}]}]}