{"modelTopology":{"class_name":"Model","config":{"name":"model1125","layers":[{"name":"input1125","class_name":"InputLayer","config":{"batch_input_shape":[null,3],"dtype":"float32","sparse":false,"name":"input1125"},"inbound_nodes":[]},{"name":"dense_Dense5621","class_name":"Dense","config":{"units":32,"activation":"relu","use_bias":true,"kernel_initializer":{"class_name":"VarianceScaling","config":{"scale":1,"mode":"fan_avg","distribution":"normal","seed":null}},"bias_initializer":{"class_name":"Zeros","config":{}},"kernel_regularizer":null,"bias_regularizer":null,"activity_regularizer":null,"kernel_constraint":null,"bias_constraint":null,"name":"dense_Dense5621","trainable":true},"inbound_nodes":[[["input1125",0,0,{}]]]},{"name":"dense_Dense5622","class_name":"Dense","config":{"units":2,"activation":"relu","use_bias":true,"kernel_initializer":{"class_name":"VarianceScaling","config":{"scale":1,"mode":"fan_avg","distribution":"normal","seed":null}},"bias_initializer":{"class_name":"Zeros","config":{}},"kernel_regularizer":null,"bias_regularizer":null,"activity_regularizer":null,"kernel_constraint":null,"bias_constraint":null,"name":"dense_Dense5622","trainable":true},"inbound_nodes":[[["dense_Dense5621",0,0,{}]]]},{"name":"dense_Dense5623","class_name":"Dense","config":{"units":2,"activation":"relu","use_bias":true,"kernel_initializer":{"class_name":"VarianceScaling","config":{"scale":1,"mode":"fan_avg","distribution":"normal","seed":null}},"bias_initializer":{"class_name":"Zeros","config":{}},"kernel_regularizer":null,"bias_regularizer":null,"activity_regularizer":null,"kernel_constraint":null,"bias_constraint":null,"name":"dense_Dense5623","trainable":true},"inbound_nodes":[[["dense_Dense5622",0,0,{}]]]},{"name":"dense_Dense5624","class_name":"Dense","config":{"units":4,"activation":"relu","use_bias":true,"kernel_initializer":{"class_name":"VarianceScaling","config":{"scale":1,"mode":"fan_avg","distribution":"normal","seed":null}},"bias_initializer":{"class_name":"Zeros","config":{}},"kernel_regularizer":null,"bias_regularizer":null,"activity_regularizer":null,"kernel_constraint":null,"bias_constraint":null,"name":"dense_Dense5624","trainable":true},"inbound_nodes":[[["dense_Dense5623",0,0,{}]]]},{"name":"dense_Dense5625","class_name":"Dense","config":{"units":1,"activation":"sigmoid","use_bias":true,"kernel_initializer":{"class_name":"VarianceScaling","config":{"scale":1,"mode":"fan_avg","distribution":"normal","seed":null}},"bias_initializer":{"class_name":"Zeros","config":{}},"kernel_regularizer":null,"bias_regularizer":null,"activity_regularizer":null,"kernel_constraint":null,"bias_constraint":null,"name":"dense_Dense5625","trainable":true},"inbound_nodes":[[["dense_Dense5624",0,0,{}]]]}],"input_layers":[["input1125",0,0]],"output_layers":[["dense_Dense5625",0,0]]},"keras_version":"tfjs-layers 3.9.0","backend":"tensor_flow.js"},"weightsManifest":[{"paths":["weights.bin"],"weights":[{"name":"dense_Dense5621/kernel","shape":[3,32],"dtype":"float32"},{"name":"dense_Dense5621/bias","shape":[32],"dtype":"float32"},{"name":"dense_Dense5622/kernel","shape":[32,2],"dtype":"float32"},{"name":"dense_Dense5622/bias","shape":[2],"dtype":"float32"},{"name":"dense_Dense5623/kernel","shape":[2,2],"dtype":"float32"},{"name":"dense_Dense5623/bias","shape":[2],"dtype":"float32"},{"name":"dense_Dense5624/kernel","shape":[2,4],"dtype":"float32"},{"name":"dense_Dense5624/bias","shape":[4],"dtype":"float32"},{"name":"dense_Dense5625/kernel","shape":[4,1],"dtype":"float32"},{"name":"dense_Dense5625/bias","shape":[1],"dtype":"float32"}]}]}