{"modelTopology":{"class_name":"Model","config":{"name":"model588","layers":[{"name":"input588","class_name":"InputLayer","config":{"batch_input_shape":[null,3],"dtype":"float32","sparse":false,"name":"input588"},"inbound_nodes":[]},{"name":"dense_Dense3523","class_name":"Dense","config":{"units":8,"activation":"relu","use_bias":true,"kernel_initializer":{"class_name":"VarianceScaling","config":{"scale":1,"mode":"fan_avg","distribution":"normal","seed":null}},"bias_initializer":{"class_name":"Zeros","config":{}},"kernel_regularizer":null,"bias_regularizer":null,"activity_regularizer":null,"kernel_constraint":null,"bias_constraint":null,"name":"dense_Dense3523","trainable":true},"inbound_nodes":[[["input588",0,0,{}]]]},{"name":"dense_Dense3524","class_name":"Dense","config":{"units":4,"activation":"relu","use_bias":true,"kernel_initializer":{"class_name":"VarianceScaling","config":{"scale":1,"mode":"fan_avg","distribution":"normal","seed":null}},"bias_initializer":{"class_name":"Zeros","config":{}},"kernel_regularizer":null,"bias_regularizer":null,"activity_regularizer":null,"kernel_constraint":null,"bias_constraint":null,"name":"dense_Dense3524","trainable":true},"inbound_nodes":[[["dense_Dense3523",0,0,{}]]]},{"name":"dense_Dense3525","class_name":"Dense","config":{"units":16,"activation":"relu","use_bias":true,"kernel_initializer":{"class_name":"VarianceScaling","config":{"scale":1,"mode":"fan_avg","distribution":"normal","seed":null}},"bias_initializer":{"class_name":"Zeros","config":{}},"kernel_regularizer":null,"bias_regularizer":null,"activity_regularizer":null,"kernel_constraint":null,"bias_constraint":null,"name":"dense_Dense3525","trainable":true},"inbound_nodes":[[["dense_Dense3524",0,0,{}]]]},{"name":"dense_Dense3526","class_name":"Dense","config":{"units":2,"activation":"relu","use_bias":true,"kernel_initializer":{"class_name":"VarianceScaling","config":{"scale":1,"mode":"fan_avg","distribution":"normal","seed":null}},"bias_initializer":{"class_name":"Zeros","config":{}},"kernel_regularizer":null,"bias_regularizer":null,"activity_regularizer":null,"kernel_constraint":null,"bias_constraint":null,"name":"dense_Dense3526","trainable":true},"inbound_nodes":[[["dense_Dense3525",0,0,{}]]]},{"name":"dense_Dense3527","class_name":"Dense","config":{"units":32,"activation":"relu","use_bias":true,"kernel_initializer":{"class_name":"VarianceScaling","config":{"scale":1,"mode":"fan_avg","distribution":"normal","seed":null}},"bias_initializer":{"class_name":"Zeros","config":{}},"kernel_regularizer":null,"bias_regularizer":null,"activity_regularizer":null,"kernel_constraint":null,"bias_constraint":null,"name":"dense_Dense3527","trainable":true},"inbound_nodes":[[["dense_Dense3526",0,0,{}]]]},{"name":"dense_Dense3528","class_name":"Dense","config":{"units":1,"activation":"sigmoid","use_bias":true,"kernel_initializer":{"class_name":"VarianceScaling","config":{"scale":1,"mode":"fan_avg","distribution":"normal","seed":null}},"bias_initializer":{"class_name":"Zeros","config":{}},"kernel_regularizer":null,"bias_regularizer":null,"activity_regularizer":null,"kernel_constraint":null,"bias_constraint":null,"name":"dense_Dense3528","trainable":true},"inbound_nodes":[[["dense_Dense3527",0,0,{}]]]}],"input_layers":[["input588",0,0]],"output_layers":[["dense_Dense3528",0,0]]},"keras_version":"tfjs-layers 3.9.0","backend":"tensor_flow.js"},"weightsManifest":[{"paths":["weights.bin"],"weights":[{"name":"dense_Dense3523/kernel","shape":[3,8],"dtype":"float32"},{"name":"dense_Dense3523/bias","shape":[8],"dtype":"float32"},{"name":"dense_Dense3524/kernel","shape":[8,4],"dtype":"float32"},{"name":"dense_Dense3524/bias","shape":[4],"dtype":"float32"},{"name":"dense_Dense3525/kernel","shape":[4,16],"dtype":"float32"},{"name":"dense_Dense3525/bias","shape":[16],"dtype":"float32"},{"name":"dense_Dense3526/kernel","shape":[16,2],"dtype":"float32"},{"name":"dense_Dense3526/bias","shape":[2],"dtype":"float32"},{"name":"dense_Dense3527/kernel","shape":[2,32],"dtype":"float32"},{"name":"dense_Dense3527/bias","shape":[32],"dtype":"float32"},{"name":"dense_Dense3528/kernel","shape":[32,1],"dtype":"float32"},{"name":"dense_Dense3528/bias","shape":[1],"dtype":"float32"}]}]}