{"modelTopology":{"class_name":"Model","config":{"name":"model317","layers":[{"name":"input317","class_name":"InputLayer","config":{"batch_input_shape":[null,3],"dtype":"float32","sparse":false,"name":"input317"},"inbound_nodes":[]},{"name":"dense_Dense1581","class_name":"Dense","config":{"units":2,"activation":"relu","use_bias":true,"kernel_initializer":{"class_name":"VarianceScaling","config":{"scale":1,"mode":"fan_avg","distribution":"normal","seed":null}},"bias_initializer":{"class_name":"Zeros","config":{}},"kernel_regularizer":null,"bias_regularizer":null,"activity_regularizer":null,"kernel_constraint":null,"bias_constraint":null,"name":"dense_Dense1581","trainable":true},"inbound_nodes":[[["input317",0,0,{}]]]},{"name":"dense_Dense1582","class_name":"Dense","config":{"units":4,"activation":"relu","use_bias":true,"kernel_initializer":{"class_name":"VarianceScaling","config":{"scale":1,"mode":"fan_avg","distribution":"normal","seed":null}},"bias_initializer":{"class_name":"Zeros","config":{}},"kernel_regularizer":null,"bias_regularizer":null,"activity_regularizer":null,"kernel_constraint":null,"bias_constraint":null,"name":"dense_Dense1582","trainable":true},"inbound_nodes":[[["dense_Dense1581",0,0,{}]]]},{"name":"dense_Dense1583","class_name":"Dense","config":{"units":16,"activation":"relu","use_bias":true,"kernel_initializer":{"class_name":"VarianceScaling","config":{"scale":1,"mode":"fan_avg","distribution":"normal","seed":null}},"bias_initializer":{"class_name":"Zeros","config":{}},"kernel_regularizer":null,"bias_regularizer":null,"activity_regularizer":null,"kernel_constraint":null,"bias_constraint":null,"name":"dense_Dense1583","trainable":true},"inbound_nodes":[[["dense_Dense1582",0,0,{}]]]},{"name":"dense_Dense1584","class_name":"Dense","config":{"units":16,"activation":"relu","use_bias":true,"kernel_initializer":{"class_name":"VarianceScaling","config":{"scale":1,"mode":"fan_avg","distribution":"normal","seed":null}},"bias_initializer":{"class_name":"Zeros","config":{}},"kernel_regularizer":null,"bias_regularizer":null,"activity_regularizer":null,"kernel_constraint":null,"bias_constraint":null,"name":"dense_Dense1584","trainable":true},"inbound_nodes":[[["dense_Dense1583",0,0,{}]]]},{"name":"dense_Dense1585","class_name":"Dense","config":{"units":1,"activation":"sigmoid","use_bias":true,"kernel_initializer":{"class_name":"VarianceScaling","config":{"scale":1,"mode":"fan_avg","distribution":"normal","seed":null}},"bias_initializer":{"class_name":"Zeros","config":{}},"kernel_regularizer":null,"bias_regularizer":null,"activity_regularizer":null,"kernel_constraint":null,"bias_constraint":null,"name":"dense_Dense1585","trainable":true},"inbound_nodes":[[["dense_Dense1584",0,0,{}]]]}],"input_layers":[["input317",0,0]],"output_layers":[["dense_Dense1585",0,0]]},"keras_version":"tfjs-layers 3.9.0","backend":"tensor_flow.js"},"weightsManifest":[{"paths":["weights.bin"],"weights":[{"name":"dense_Dense1581/kernel","shape":[3,2],"dtype":"float32"},{"name":"dense_Dense1581/bias","shape":[2],"dtype":"float32"},{"name":"dense_Dense1582/kernel","shape":[2,4],"dtype":"float32"},{"name":"dense_Dense1582/bias","shape":[4],"dtype":"float32"},{"name":"dense_Dense1583/kernel","shape":[4,16],"dtype":"float32"},{"name":"dense_Dense1583/bias","shape":[16],"dtype":"float32"},{"name":"dense_Dense1584/kernel","shape":[16,16],"dtype":"float32"},{"name":"dense_Dense1584/bias","shape":[16],"dtype":"float32"},{"name":"dense_Dense1585/kernel","shape":[16,1],"dtype":"float32"},{"name":"dense_Dense1585/bias","shape":[1],"dtype":"float32"}]}]}