{"modelTopology":{"class_name":"Model","config":{"name":"model273","layers":[{"name":"input273","class_name":"InputLayer","config":{"batch_input_shape":[null,3],"dtype":"float32","sparse":false,"name":"input273"},"inbound_nodes":[]},{"name":"dense_Dense1633","class_name":"Dense","config":{"units":4,"activation":"relu","use_bias":true,"kernel_initializer":{"class_name":"VarianceScaling","config":{"scale":1,"mode":"fan_avg","distribution":"normal","seed":null}},"bias_initializer":{"class_name":"Zeros","config":{}},"kernel_regularizer":null,"bias_regularizer":null,"activity_regularizer":null,"kernel_constraint":null,"bias_constraint":null,"name":"dense_Dense1633","trainable":true},"inbound_nodes":[[["input273",0,0,{}]]]},{"name":"dense_Dense1634","class_name":"Dense","config":{"units":2,"activation":"relu","use_bias":true,"kernel_initializer":{"class_name":"VarianceScaling","config":{"scale":1,"mode":"fan_avg","distribution":"normal","seed":null}},"bias_initializer":{"class_name":"Zeros","config":{}},"kernel_regularizer":null,"bias_regularizer":null,"activity_regularizer":null,"kernel_constraint":null,"bias_constraint":null,"name":"dense_Dense1634","trainable":true},"inbound_nodes":[[["dense_Dense1633",0,0,{}]]]},{"name":"dense_Dense1635","class_name":"Dense","config":{"units":2,"activation":"relu","use_bias":true,"kernel_initializer":{"class_name":"VarianceScaling","config":{"scale":1,"mode":"fan_avg","distribution":"normal","seed":null}},"bias_initializer":{"class_name":"Zeros","config":{}},"kernel_regularizer":null,"bias_regularizer":null,"activity_regularizer":null,"kernel_constraint":null,"bias_constraint":null,"name":"dense_Dense1635","trainable":true},"inbound_nodes":[[["dense_Dense1634",0,0,{}]]]},{"name":"dense_Dense1636","class_name":"Dense","config":{"units":8,"activation":"relu","use_bias":true,"kernel_initializer":{"class_name":"VarianceScaling","config":{"scale":1,"mode":"fan_avg","distribution":"normal","seed":null}},"bias_initializer":{"class_name":"Zeros","config":{}},"kernel_regularizer":null,"bias_regularizer":null,"activity_regularizer":null,"kernel_constraint":null,"bias_constraint":null,"name":"dense_Dense1636","trainable":true},"inbound_nodes":[[["dense_Dense1635",0,0,{}]]]},{"name":"dense_Dense1637","class_name":"Dense","config":{"units":4,"activation":"relu","use_bias":true,"kernel_initializer":{"class_name":"VarianceScaling","config":{"scale":1,"mode":"fan_avg","distribution":"normal","seed":null}},"bias_initializer":{"class_name":"Zeros","config":{}},"kernel_regularizer":null,"bias_regularizer":null,"activity_regularizer":null,"kernel_constraint":null,"bias_constraint":null,"name":"dense_Dense1637","trainable":true},"inbound_nodes":[[["dense_Dense1636",0,0,{}]]]},{"name":"dense_Dense1638","class_name":"Dense","config":{"units":1,"activation":"sigmoid","use_bias":true,"kernel_initializer":{"class_name":"VarianceScaling","config":{"scale":1,"mode":"fan_avg","distribution":"normal","seed":null}},"bias_initializer":{"class_name":"Zeros","config":{}},"kernel_regularizer":null,"bias_regularizer":null,"activity_regularizer":null,"kernel_constraint":null,"bias_constraint":null,"name":"dense_Dense1638","trainable":true},"inbound_nodes":[[["dense_Dense1637",0,0,{}]]]}],"input_layers":[["input273",0,0]],"output_layers":[["dense_Dense1638",0,0]]},"keras_version":"tfjs-layers 3.9.0","backend":"tensor_flow.js"},"weightsManifest":[{"paths":["weights.bin"],"weights":[{"name":"dense_Dense1633/kernel","shape":[3,4],"dtype":"float32"},{"name":"dense_Dense1633/bias","shape":[4],"dtype":"float32"},{"name":"dense_Dense1634/kernel","shape":[4,2],"dtype":"float32"},{"name":"dense_Dense1634/bias","shape":[2],"dtype":"float32"},{"name":"dense_Dense1635/kernel","shape":[2,2],"dtype":"float32"},{"name":"dense_Dense1635/bias","shape":[2],"dtype":"float32"},{"name":"dense_Dense1636/kernel","shape":[2,8],"dtype":"float32"},{"name":"dense_Dense1636/bias","shape":[8],"dtype":"float32"},{"name":"dense_Dense1637/kernel","shape":[8,4],"dtype":"float32"},{"name":"dense_Dense1637/bias","shape":[4],"dtype":"float32"},{"name":"dense_Dense1638/kernel","shape":[4,1],"dtype":"float32"},{"name":"dense_Dense1638/bias","shape":[1],"dtype":"float32"}]}]}