{"modelTopology":{"class_name":"Model","config":{"name":"model1138","layers":[{"name":"input1138","class_name":"InputLayer","config":{"batch_input_shape":[null,3],"dtype":"float32","sparse":false,"name":"input1138"},"inbound_nodes":[]},{"name":"dense_Dense6823","class_name":"Dense","config":{"units":32,"activation":"relu","use_bias":true,"kernel_initializer":{"class_name":"VarianceScaling","config":{"scale":1,"mode":"fan_avg","distribution":"normal","seed":null}},"bias_initializer":{"class_name":"Zeros","config":{}},"kernel_regularizer":null,"bias_regularizer":null,"activity_regularizer":null,"kernel_constraint":null,"bias_constraint":null,"name":"dense_Dense6823","trainable":true},"inbound_nodes":[[["input1138",0,0,{}]]]},{"name":"dense_Dense6824","class_name":"Dense","config":{"units":32,"activation":"relu","use_bias":true,"kernel_initializer":{"class_name":"VarianceScaling","config":{"scale":1,"mode":"fan_avg","distribution":"normal","seed":null}},"bias_initializer":{"class_name":"Zeros","config":{}},"kernel_regularizer":null,"bias_regularizer":null,"activity_regularizer":null,"kernel_constraint":null,"bias_constraint":null,"name":"dense_Dense6824","trainable":true},"inbound_nodes":[[["dense_Dense6823",0,0,{}]]]},{"name":"dense_Dense6825","class_name":"Dense","config":{"units":2,"activation":"relu","use_bias":true,"kernel_initializer":{"class_name":"VarianceScaling","config":{"scale":1,"mode":"fan_avg","distribution":"normal","seed":null}},"bias_initializer":{"class_name":"Zeros","config":{}},"kernel_regularizer":null,"bias_regularizer":null,"activity_regularizer":null,"kernel_constraint":null,"bias_constraint":null,"name":"dense_Dense6825","trainable":true},"inbound_nodes":[[["dense_Dense6824",0,0,{}]]]},{"name":"dense_Dense6826","class_name":"Dense","config":{"units":8,"activation":"relu","use_bias":true,"kernel_initializer":{"class_name":"VarianceScaling","config":{"scale":1,"mode":"fan_avg","distribution":"normal","seed":null}},"bias_initializer":{"class_name":"Zeros","config":{}},"kernel_regularizer":null,"bias_regularizer":null,"activity_regularizer":null,"kernel_constraint":null,"bias_constraint":null,"name":"dense_Dense6826","trainable":true},"inbound_nodes":[[["dense_Dense6825",0,0,{}]]]},{"name":"dense_Dense6827","class_name":"Dense","config":{"units":8,"activation":"relu","use_bias":true,"kernel_initializer":{"class_name":"VarianceScaling","config":{"scale":1,"mode":"fan_avg","distribution":"normal","seed":null}},"bias_initializer":{"class_name":"Zeros","config":{}},"kernel_regularizer":null,"bias_regularizer":null,"activity_regularizer":null,"kernel_constraint":null,"bias_constraint":null,"name":"dense_Dense6827","trainable":true},"inbound_nodes":[[["dense_Dense6826",0,0,{}]]]},{"name":"dense_Dense6828","class_name":"Dense","config":{"units":1,"activation":"sigmoid","use_bias":true,"kernel_initializer":{"class_name":"VarianceScaling","config":{"scale":1,"mode":"fan_avg","distribution":"normal","seed":null}},"bias_initializer":{"class_name":"Zeros","config":{}},"kernel_regularizer":null,"bias_regularizer":null,"activity_regularizer":null,"kernel_constraint":null,"bias_constraint":null,"name":"dense_Dense6828","trainable":true},"inbound_nodes":[[["dense_Dense6827",0,0,{}]]]}],"input_layers":[["input1138",0,0]],"output_layers":[["dense_Dense6828",0,0]]},"keras_version":"tfjs-layers 3.9.0","backend":"tensor_flow.js"},"weightsManifest":[{"paths":["weights.bin"],"weights":[{"name":"dense_Dense6823/kernel","shape":[3,32],"dtype":"float32"},{"name":"dense_Dense6823/bias","shape":[32],"dtype":"float32"},{"name":"dense_Dense6824/kernel","shape":[32,32],"dtype":"float32"},{"name":"dense_Dense6824/bias","shape":[32],"dtype":"float32"},{"name":"dense_Dense6825/kernel","shape":[32,2],"dtype":"float32"},{"name":"dense_Dense6825/bias","shape":[2],"dtype":"float32"},{"name":"dense_Dense6826/kernel","shape":[2,8],"dtype":"float32"},{"name":"dense_Dense6826/bias","shape":[8],"dtype":"float32"},{"name":"dense_Dense6827/kernel","shape":[8,8],"dtype":"float32"},{"name":"dense_Dense6827/bias","shape":[8],"dtype":"float32"},{"name":"dense_Dense6828/kernel","shape":[8,1],"dtype":"float32"},{"name":"dense_Dense6828/bias","shape":[1],"dtype":"float32"}]}]}