{"modelTopology":{"class_name":"Model","config":{"name":"model156","layers":[{"name":"input156","class_name":"InputLayer","config":{"batch_input_shape":[null,3],"dtype":"float32","sparse":false,"name":"input156"},"inbound_nodes":[]},{"name":"dense_Dense776","class_name":"Dense","config":{"units":1,"activation":"relu","use_bias":true,"kernel_initializer":{"class_name":"VarianceScaling","config":{"scale":1,"mode":"fan_avg","distribution":"normal","seed":null}},"bias_initializer":{"class_name":"Zeros","config":{}},"kernel_regularizer":null,"bias_regularizer":null,"activity_regularizer":null,"kernel_constraint":null,"bias_constraint":null,"name":"dense_Dense776","trainable":true},"inbound_nodes":[[["input156",0,0,{}]]]},{"name":"dense_Dense777","class_name":"Dense","config":{"units":16,"activation":"relu","use_bias":true,"kernel_initializer":{"class_name":"VarianceScaling","config":{"scale":1,"mode":"fan_avg","distribution":"normal","seed":null}},"bias_initializer":{"class_name":"Zeros","config":{}},"kernel_regularizer":null,"bias_regularizer":null,"activity_regularizer":null,"kernel_constraint":null,"bias_constraint":null,"name":"dense_Dense777","trainable":true},"inbound_nodes":[[["dense_Dense776",0,0,{}]]]},{"name":"dense_Dense778","class_name":"Dense","config":{"units":2,"activation":"relu","use_bias":true,"kernel_initializer":{"class_name":"VarianceScaling","config":{"scale":1,"mode":"fan_avg","distribution":"normal","seed":null}},"bias_initializer":{"class_name":"Zeros","config":{}},"kernel_regularizer":null,"bias_regularizer":null,"activity_regularizer":null,"kernel_constraint":null,"bias_constraint":null,"name":"dense_Dense778","trainable":true},"inbound_nodes":[[["dense_Dense777",0,0,{}]]]},{"name":"dense_Dense779","class_name":"Dense","config":{"units":32,"activation":"relu","use_bias":true,"kernel_initializer":{"class_name":"VarianceScaling","config":{"scale":1,"mode":"fan_avg","distribution":"normal","seed":null}},"bias_initializer":{"class_name":"Zeros","config":{}},"kernel_regularizer":null,"bias_regularizer":null,"activity_regularizer":null,"kernel_constraint":null,"bias_constraint":null,"name":"dense_Dense779","trainable":true},"inbound_nodes":[[["dense_Dense778",0,0,{}]]]},{"name":"dense_Dense780","class_name":"Dense","config":{"units":1,"activation":"sigmoid","use_bias":true,"kernel_initializer":{"class_name":"VarianceScaling","config":{"scale":1,"mode":"fan_avg","distribution":"normal","seed":null}},"bias_initializer":{"class_name":"Zeros","config":{}},"kernel_regularizer":null,"bias_regularizer":null,"activity_regularizer":null,"kernel_constraint":null,"bias_constraint":null,"name":"dense_Dense780","trainable":true},"inbound_nodes":[[["dense_Dense779",0,0,{}]]]}],"input_layers":[["input156",0,0]],"output_layers":[["dense_Dense780",0,0]]},"keras_version":"tfjs-layers 3.9.0","backend":"tensor_flow.js"},"weightsManifest":[{"paths":["weights.bin"],"weights":[{"name":"dense_Dense776/kernel","shape":[3,1],"dtype":"float32"},{"name":"dense_Dense776/bias","shape":[1],"dtype":"float32"},{"name":"dense_Dense777/kernel","shape":[1,16],"dtype":"float32"},{"name":"dense_Dense777/bias","shape":[16],"dtype":"float32"},{"name":"dense_Dense778/kernel","shape":[16,2],"dtype":"float32"},{"name":"dense_Dense778/bias","shape":[2],"dtype":"float32"},{"name":"dense_Dense779/kernel","shape":[2,32],"dtype":"float32"},{"name":"dense_Dense779/bias","shape":[32],"dtype":"float32"},{"name":"dense_Dense780/kernel","shape":[32,1],"dtype":"float32"},{"name":"dense_Dense780/bias","shape":[1],"dtype":"float32"}]}]}