{"modelTopology":{"class_name":"Model","config":{"name":"model1100","layers":[{"name":"input1100","class_name":"InputLayer","config":{"batch_input_shape":[null,3],"dtype":"float32","sparse":false,"name":"input1100"},"inbound_nodes":[]},{"name":"dense_Dense6595","class_name":"Dense","config":{"units":1,"activation":"relu","use_bias":true,"kernel_initializer":{"class_name":"VarianceScaling","config":{"scale":1,"mode":"fan_avg","distribution":"normal","seed":null}},"bias_initializer":{"class_name":"Zeros","config":{}},"kernel_regularizer":null,"bias_regularizer":null,"activity_regularizer":null,"kernel_constraint":null,"bias_constraint":null,"name":"dense_Dense6595","trainable":true},"inbound_nodes":[[["input1100",0,0,{}]]]},{"name":"dense_Dense6596","class_name":"Dense","config":{"units":32,"activation":"relu","use_bias":true,"kernel_initializer":{"class_name":"VarianceScaling","config":{"scale":1,"mode":"fan_avg","distribution":"normal","seed":null}},"bias_initializer":{"class_name":"Zeros","config":{}},"kernel_regularizer":null,"bias_regularizer":null,"activity_regularizer":null,"kernel_constraint":null,"bias_constraint":null,"name":"dense_Dense6596","trainable":true},"inbound_nodes":[[["dense_Dense6595",0,0,{}]]]},{"name":"dense_Dense6597","class_name":"Dense","config":{"units":1,"activation":"relu","use_bias":true,"kernel_initializer":{"class_name":"VarianceScaling","config":{"scale":1,"mode":"fan_avg","distribution":"normal","seed":null}},"bias_initializer":{"class_name":"Zeros","config":{}},"kernel_regularizer":null,"bias_regularizer":null,"activity_regularizer":null,"kernel_constraint":null,"bias_constraint":null,"name":"dense_Dense6597","trainable":true},"inbound_nodes":[[["dense_Dense6596",0,0,{}]]]},{"name":"dense_Dense6598","class_name":"Dense","config":{"units":8,"activation":"relu","use_bias":true,"kernel_initializer":{"class_name":"VarianceScaling","config":{"scale":1,"mode":"fan_avg","distribution":"normal","seed":null}},"bias_initializer":{"class_name":"Zeros","config":{}},"kernel_regularizer":null,"bias_regularizer":null,"activity_regularizer":null,"kernel_constraint":null,"bias_constraint":null,"name":"dense_Dense6598","trainable":true},"inbound_nodes":[[["dense_Dense6597",0,0,{}]]]},{"name":"dense_Dense6599","class_name":"Dense","config":{"units":2,"activation":"relu","use_bias":true,"kernel_initializer":{"class_name":"VarianceScaling","config":{"scale":1,"mode":"fan_avg","distribution":"normal","seed":null}},"bias_initializer":{"class_name":"Zeros","config":{}},"kernel_regularizer":null,"bias_regularizer":null,"activity_regularizer":null,"kernel_constraint":null,"bias_constraint":null,"name":"dense_Dense6599","trainable":true},"inbound_nodes":[[["dense_Dense6598",0,0,{}]]]},{"name":"dense_Dense6600","class_name":"Dense","config":{"units":1,"activation":"sigmoid","use_bias":true,"kernel_initializer":{"class_name":"VarianceScaling","config":{"scale":1,"mode":"fan_avg","distribution":"normal","seed":null}},"bias_initializer":{"class_name":"Zeros","config":{}},"kernel_regularizer":null,"bias_regularizer":null,"activity_regularizer":null,"kernel_constraint":null,"bias_constraint":null,"name":"dense_Dense6600","trainable":true},"inbound_nodes":[[["dense_Dense6599",0,0,{}]]]}],"input_layers":[["input1100",0,0]],"output_layers":[["dense_Dense6600",0,0]]},"keras_version":"tfjs-layers 3.9.0","backend":"tensor_flow.js"},"weightsManifest":[{"paths":["weights.bin"],"weights":[{"name":"dense_Dense6595/kernel","shape":[3,1],"dtype":"float32"},{"name":"dense_Dense6595/bias","shape":[1],"dtype":"float32"},{"name":"dense_Dense6596/kernel","shape":[1,32],"dtype":"float32"},{"name":"dense_Dense6596/bias","shape":[32],"dtype":"float32"},{"name":"dense_Dense6597/kernel","shape":[32,1],"dtype":"float32"},{"name":"dense_Dense6597/bias","shape":[1],"dtype":"float32"},{"name":"dense_Dense6598/kernel","shape":[1,8],"dtype":"float32"},{"name":"dense_Dense6598/bias","shape":[8],"dtype":"float32"},{"name":"dense_Dense6599/kernel","shape":[8,2],"dtype":"float32"},{"name":"dense_Dense6599/bias","shape":[2],"dtype":"float32"},{"name":"dense_Dense6600/kernel","shape":[2,1],"dtype":"float32"},{"name":"dense_Dense6600/bias","shape":[1],"dtype":"float32"}]}]}