{"modelTopology":{"class_name":"Model","config":{"name":"model1273","layers":[{"name":"input1273","class_name":"InputLayer","config":{"batch_input_shape":[null,3],"dtype":"float32","sparse":false,"name":"input1273"},"inbound_nodes":[]},{"name":"dense_Dense7633","class_name":"Dense","config":{"units":2,"activation":"relu","use_bias":true,"kernel_initializer":{"class_name":"VarianceScaling","config":{"scale":1,"mode":"fan_avg","distribution":"normal","seed":null}},"bias_initializer":{"class_name":"Zeros","config":{}},"kernel_regularizer":null,"bias_regularizer":null,"activity_regularizer":null,"kernel_constraint":null,"bias_constraint":null,"name":"dense_Dense7633","trainable":true},"inbound_nodes":[[["input1273",0,0,{}]]]},{"name":"dense_Dense7634","class_name":"Dense","config":{"units":32,"activation":"relu","use_bias":true,"kernel_initializer":{"class_name":"VarianceScaling","config":{"scale":1,"mode":"fan_avg","distribution":"normal","seed":null}},"bias_initializer":{"class_name":"Zeros","config":{}},"kernel_regularizer":null,"bias_regularizer":null,"activity_regularizer":null,"kernel_constraint":null,"bias_constraint":null,"name":"dense_Dense7634","trainable":true},"inbound_nodes":[[["dense_Dense7633",0,0,{}]]]},{"name":"dense_Dense7635","class_name":"Dense","config":{"units":32,"activation":"relu","use_bias":true,"kernel_initializer":{"class_name":"VarianceScaling","config":{"scale":1,"mode":"fan_avg","distribution":"normal","seed":null}},"bias_initializer":{"class_name":"Zeros","config":{}},"kernel_regularizer":null,"bias_regularizer":null,"activity_regularizer":null,"kernel_constraint":null,"bias_constraint":null,"name":"dense_Dense7635","trainable":true},"inbound_nodes":[[["dense_Dense7634",0,0,{}]]]},{"name":"dense_Dense7636","class_name":"Dense","config":{"units":4,"activation":"relu","use_bias":true,"kernel_initializer":{"class_name":"VarianceScaling","config":{"scale":1,"mode":"fan_avg","distribution":"normal","seed":null}},"bias_initializer":{"class_name":"Zeros","config":{}},"kernel_regularizer":null,"bias_regularizer":null,"activity_regularizer":null,"kernel_constraint":null,"bias_constraint":null,"name":"dense_Dense7636","trainable":true},"inbound_nodes":[[["dense_Dense7635",0,0,{}]]]},{"name":"dense_Dense7637","class_name":"Dense","config":{"units":1,"activation":"relu","use_bias":true,"kernel_initializer":{"class_name":"VarianceScaling","config":{"scale":1,"mode":"fan_avg","distribution":"normal","seed":null}},"bias_initializer":{"class_name":"Zeros","config":{}},"kernel_regularizer":null,"bias_regularizer":null,"activity_regularizer":null,"kernel_constraint":null,"bias_constraint":null,"name":"dense_Dense7637","trainable":true},"inbound_nodes":[[["dense_Dense7636",0,0,{}]]]},{"name":"dense_Dense7638","class_name":"Dense","config":{"units":1,"activation":"sigmoid","use_bias":true,"kernel_initializer":{"class_name":"VarianceScaling","config":{"scale":1,"mode":"fan_avg","distribution":"normal","seed":null}},"bias_initializer":{"class_name":"Zeros","config":{}},"kernel_regularizer":null,"bias_regularizer":null,"activity_regularizer":null,"kernel_constraint":null,"bias_constraint":null,"name":"dense_Dense7638","trainable":true},"inbound_nodes":[[["dense_Dense7637",0,0,{}]]]}],"input_layers":[["input1273",0,0]],"output_layers":[["dense_Dense7638",0,0]]},"keras_version":"tfjs-layers 3.9.0","backend":"tensor_flow.js"},"weightsManifest":[{"paths":["weights.bin"],"weights":[{"name":"dense_Dense7633/kernel","shape":[3,2],"dtype":"float32"},{"name":"dense_Dense7633/bias","shape":[2],"dtype":"float32"},{"name":"dense_Dense7634/kernel","shape":[2,32],"dtype":"float32"},{"name":"dense_Dense7634/bias","shape":[32],"dtype":"float32"},{"name":"dense_Dense7635/kernel","shape":[32,32],"dtype":"float32"},{"name":"dense_Dense7635/bias","shape":[32],"dtype":"float32"},{"name":"dense_Dense7636/kernel","shape":[32,4],"dtype":"float32"},{"name":"dense_Dense7636/bias","shape":[4],"dtype":"float32"},{"name":"dense_Dense7637/kernel","shape":[4,1],"dtype":"float32"},{"name":"dense_Dense7637/bias","shape":[1],"dtype":"float32"},{"name":"dense_Dense7638/kernel","shape":[1,1],"dtype":"float32"},{"name":"dense_Dense7638/bias","shape":[1],"dtype":"float32"}]}]}