{"modelTopology":{"class_name":"Model","config":{"name":"model1146","layers":[{"name":"input1146","class_name":"InputLayer","config":{"batch_input_shape":[null,3],"dtype":"float32","sparse":false,"name":"input1146"},"inbound_nodes":[]},{"name":"dense_Dense6871","class_name":"Dense","config":{"units":2,"activation":"relu","use_bias":true,"kernel_initializer":{"class_name":"VarianceScaling","config":{"scale":1,"mode":"fan_avg","distribution":"normal","seed":null}},"bias_initializer":{"class_name":"Zeros","config":{}},"kernel_regularizer":null,"bias_regularizer":null,"activity_regularizer":null,"kernel_constraint":null,"bias_constraint":null,"name":"dense_Dense6871","trainable":true},"inbound_nodes":[[["input1146",0,0,{}]]]},{"name":"dense_Dense6872","class_name":"Dense","config":{"units":32,"activation":"relu","use_bias":true,"kernel_initializer":{"class_name":"VarianceScaling","config":{"scale":1,"mode":"fan_avg","distribution":"normal","seed":null}},"bias_initializer":{"class_name":"Zeros","config":{}},"kernel_regularizer":null,"bias_regularizer":null,"activity_regularizer":null,"kernel_constraint":null,"bias_constraint":null,"name":"dense_Dense6872","trainable":true},"inbound_nodes":[[["dense_Dense6871",0,0,{}]]]},{"name":"dense_Dense6873","class_name":"Dense","config":{"units":2,"activation":"relu","use_bias":true,"kernel_initializer":{"class_name":"VarianceScaling","config":{"scale":1,"mode":"fan_avg","distribution":"normal","seed":null}},"bias_initializer":{"class_name":"Zeros","config":{}},"kernel_regularizer":null,"bias_regularizer":null,"activity_regularizer":null,"kernel_constraint":null,"bias_constraint":null,"name":"dense_Dense6873","trainable":true},"inbound_nodes":[[["dense_Dense6872",0,0,{}]]]},{"name":"dense_Dense6874","class_name":"Dense","config":{"units":16,"activation":"relu","use_bias":true,"kernel_initializer":{"class_name":"VarianceScaling","config":{"scale":1,"mode":"fan_avg","distribution":"normal","seed":null}},"bias_initializer":{"class_name":"Zeros","config":{}},"kernel_regularizer":null,"bias_regularizer":null,"activity_regularizer":null,"kernel_constraint":null,"bias_constraint":null,"name":"dense_Dense6874","trainable":true},"inbound_nodes":[[["dense_Dense6873",0,0,{}]]]},{"name":"dense_Dense6875","class_name":"Dense","config":{"units":32,"activation":"relu","use_bias":true,"kernel_initializer":{"class_name":"VarianceScaling","config":{"scale":1,"mode":"fan_avg","distribution":"normal","seed":null}},"bias_initializer":{"class_name":"Zeros","config":{}},"kernel_regularizer":null,"bias_regularizer":null,"activity_regularizer":null,"kernel_constraint":null,"bias_constraint":null,"name":"dense_Dense6875","trainable":true},"inbound_nodes":[[["dense_Dense6874",0,0,{}]]]},{"name":"dense_Dense6876","class_name":"Dense","config":{"units":1,"activation":"sigmoid","use_bias":true,"kernel_initializer":{"class_name":"VarianceScaling","config":{"scale":1,"mode":"fan_avg","distribution":"normal","seed":null}},"bias_initializer":{"class_name":"Zeros","config":{}},"kernel_regularizer":null,"bias_regularizer":null,"activity_regularizer":null,"kernel_constraint":null,"bias_constraint":null,"name":"dense_Dense6876","trainable":true},"inbound_nodes":[[["dense_Dense6875",0,0,{}]]]}],"input_layers":[["input1146",0,0]],"output_layers":[["dense_Dense6876",0,0]]},"keras_version":"tfjs-layers 3.9.0","backend":"tensor_flow.js"},"weightsManifest":[{"paths":["weights.bin"],"weights":[{"name":"dense_Dense6871/kernel","shape":[3,2],"dtype":"float32"},{"name":"dense_Dense6871/bias","shape":[2],"dtype":"float32"},{"name":"dense_Dense6872/kernel","shape":[2,32],"dtype":"float32"},{"name":"dense_Dense6872/bias","shape":[32],"dtype":"float32"},{"name":"dense_Dense6873/kernel","shape":[32,2],"dtype":"float32"},{"name":"dense_Dense6873/bias","shape":[2],"dtype":"float32"},{"name":"dense_Dense6874/kernel","shape":[2,16],"dtype":"float32"},{"name":"dense_Dense6874/bias","shape":[16],"dtype":"float32"},{"name":"dense_Dense6875/kernel","shape":[16,32],"dtype":"float32"},{"name":"dense_Dense6875/bias","shape":[32],"dtype":"float32"},{"name":"dense_Dense6876/kernel","shape":[32,1],"dtype":"float32"},{"name":"dense_Dense6876/bias","shape":[1],"dtype":"float32"}]}]}