{"modelTopology":{"class_name":"Model","config":{"name":"model470","layers":[{"name":"input470","class_name":"InputLayer","config":{"batch_input_shape":[null,3],"dtype":"float32","sparse":false,"name":"input470"},"inbound_nodes":[]},{"name":"dense_Dense2815","class_name":"Dense","config":{"units":16,"activation":"relu","use_bias":true,"kernel_initializer":{"class_name":"VarianceScaling","config":{"scale":1,"mode":"fan_avg","distribution":"normal","seed":null}},"bias_initializer":{"class_name":"Zeros","config":{}},"kernel_regularizer":null,"bias_regularizer":null,"activity_regularizer":null,"kernel_constraint":null,"bias_constraint":null,"name":"dense_Dense2815","trainable":true},"inbound_nodes":[[["input470",0,0,{}]]]},{"name":"dense_Dense2816","class_name":"Dense","config":{"units":4,"activation":"relu","use_bias":true,"kernel_initializer":{"class_name":"VarianceScaling","config":{"scale":1,"mode":"fan_avg","distribution":"normal","seed":null}},"bias_initializer":{"class_name":"Zeros","config":{}},"kernel_regularizer":null,"bias_regularizer":null,"activity_regularizer":null,"kernel_constraint":null,"bias_constraint":null,"name":"dense_Dense2816","trainable":true},"inbound_nodes":[[["dense_Dense2815",0,0,{}]]]},{"name":"dense_Dense2817","class_name":"Dense","config":{"units":2,"activation":"relu","use_bias":true,"kernel_initializer":{"class_name":"VarianceScaling","config":{"scale":1,"mode":"fan_avg","distribution":"normal","seed":null}},"bias_initializer":{"class_name":"Zeros","config":{}},"kernel_regularizer":null,"bias_regularizer":null,"activity_regularizer":null,"kernel_constraint":null,"bias_constraint":null,"name":"dense_Dense2817","trainable":true},"inbound_nodes":[[["dense_Dense2816",0,0,{}]]]},{"name":"dense_Dense2818","class_name":"Dense","config":{"units":1,"activation":"relu","use_bias":true,"kernel_initializer":{"class_name":"VarianceScaling","config":{"scale":1,"mode":"fan_avg","distribution":"normal","seed":null}},"bias_initializer":{"class_name":"Zeros","config":{}},"kernel_regularizer":null,"bias_regularizer":null,"activity_regularizer":null,"kernel_constraint":null,"bias_constraint":null,"name":"dense_Dense2818","trainable":true},"inbound_nodes":[[["dense_Dense2817",0,0,{}]]]},{"name":"dense_Dense2819","class_name":"Dense","config":{"units":2,"activation":"relu","use_bias":true,"kernel_initializer":{"class_name":"VarianceScaling","config":{"scale":1,"mode":"fan_avg","distribution":"normal","seed":null}},"bias_initializer":{"class_name":"Zeros","config":{}},"kernel_regularizer":null,"bias_regularizer":null,"activity_regularizer":null,"kernel_constraint":null,"bias_constraint":null,"name":"dense_Dense2819","trainable":true},"inbound_nodes":[[["dense_Dense2818",0,0,{}]]]},{"name":"dense_Dense2820","class_name":"Dense","config":{"units":1,"activation":"sigmoid","use_bias":true,"kernel_initializer":{"class_name":"VarianceScaling","config":{"scale":1,"mode":"fan_avg","distribution":"normal","seed":null}},"bias_initializer":{"class_name":"Zeros","config":{}},"kernel_regularizer":null,"bias_regularizer":null,"activity_regularizer":null,"kernel_constraint":null,"bias_constraint":null,"name":"dense_Dense2820","trainable":true},"inbound_nodes":[[["dense_Dense2819",0,0,{}]]]}],"input_layers":[["input470",0,0]],"output_layers":[["dense_Dense2820",0,0]]},"keras_version":"tfjs-layers 3.9.0","backend":"tensor_flow.js"},"weightsManifest":[{"paths":["weights.bin"],"weights":[{"name":"dense_Dense2815/kernel","shape":[3,16],"dtype":"float32"},{"name":"dense_Dense2815/bias","shape":[16],"dtype":"float32"},{"name":"dense_Dense2816/kernel","shape":[16,4],"dtype":"float32"},{"name":"dense_Dense2816/bias","shape":[4],"dtype":"float32"},{"name":"dense_Dense2817/kernel","shape":[4,2],"dtype":"float32"},{"name":"dense_Dense2817/bias","shape":[2],"dtype":"float32"},{"name":"dense_Dense2818/kernel","shape":[2,1],"dtype":"float32"},{"name":"dense_Dense2818/bias","shape":[1],"dtype":"float32"},{"name":"dense_Dense2819/kernel","shape":[1,2],"dtype":"float32"},{"name":"dense_Dense2819/bias","shape":[2],"dtype":"float32"},{"name":"dense_Dense2820/kernel","shape":[2,1],"dtype":"float32"},{"name":"dense_Dense2820/bias","shape":[1],"dtype":"float32"}]}]}