{"modelTopology":{"class_name":"Model","config":{"name":"model192","layers":[{"name":"input192","class_name":"InputLayer","config":{"batch_input_shape":[null,3],"dtype":"float32","sparse":false,"name":"input192"},"inbound_nodes":[]},{"name":"dense_Dense1147","class_name":"Dense","config":{"units":2,"activation":"relu","use_bias":true,"kernel_initializer":{"class_name":"VarianceScaling","config":{"scale":1,"mode":"fan_avg","distribution":"normal","seed":null}},"bias_initializer":{"class_name":"Zeros","config":{}},"kernel_regularizer":null,"bias_regularizer":null,"activity_regularizer":null,"kernel_constraint":null,"bias_constraint":null,"name":"dense_Dense1147","trainable":true},"inbound_nodes":[[["input192",0,0,{}]]]},{"name":"dense_Dense1148","class_name":"Dense","config":{"units":1,"activation":"relu","use_bias":true,"kernel_initializer":{"class_name":"VarianceScaling","config":{"scale":1,"mode":"fan_avg","distribution":"normal","seed":null}},"bias_initializer":{"class_name":"Zeros","config":{}},"kernel_regularizer":null,"bias_regularizer":null,"activity_regularizer":null,"kernel_constraint":null,"bias_constraint":null,"name":"dense_Dense1148","trainable":true},"inbound_nodes":[[["dense_Dense1147",0,0,{}]]]},{"name":"dense_Dense1149","class_name":"Dense","config":{"units":32,"activation":"relu","use_bias":true,"kernel_initializer":{"class_name":"VarianceScaling","config":{"scale":1,"mode":"fan_avg","distribution":"normal","seed":null}},"bias_initializer":{"class_name":"Zeros","config":{}},"kernel_regularizer":null,"bias_regularizer":null,"activity_regularizer":null,"kernel_constraint":null,"bias_constraint":null,"name":"dense_Dense1149","trainable":true},"inbound_nodes":[[["dense_Dense1148",0,0,{}]]]},{"name":"dense_Dense1150","class_name":"Dense","config":{"units":2,"activation":"relu","use_bias":true,"kernel_initializer":{"class_name":"VarianceScaling","config":{"scale":1,"mode":"fan_avg","distribution":"normal","seed":null}},"bias_initializer":{"class_name":"Zeros","config":{}},"kernel_regularizer":null,"bias_regularizer":null,"activity_regularizer":null,"kernel_constraint":null,"bias_constraint":null,"name":"dense_Dense1150","trainable":true},"inbound_nodes":[[["dense_Dense1149",0,0,{}]]]},{"name":"dense_Dense1151","class_name":"Dense","config":{"units":32,"activation":"relu","use_bias":true,"kernel_initializer":{"class_name":"VarianceScaling","config":{"scale":1,"mode":"fan_avg","distribution":"normal","seed":null}},"bias_initializer":{"class_name":"Zeros","config":{}},"kernel_regularizer":null,"bias_regularizer":null,"activity_regularizer":null,"kernel_constraint":null,"bias_constraint":null,"name":"dense_Dense1151","trainable":true},"inbound_nodes":[[["dense_Dense1150",0,0,{}]]]},{"name":"dense_Dense1152","class_name":"Dense","config":{"units":1,"activation":"sigmoid","use_bias":true,"kernel_initializer":{"class_name":"VarianceScaling","config":{"scale":1,"mode":"fan_avg","distribution":"normal","seed":null}},"bias_initializer":{"class_name":"Zeros","config":{}},"kernel_regularizer":null,"bias_regularizer":null,"activity_regularizer":null,"kernel_constraint":null,"bias_constraint":null,"name":"dense_Dense1152","trainable":true},"inbound_nodes":[[["dense_Dense1151",0,0,{}]]]}],"input_layers":[["input192",0,0]],"output_layers":[["dense_Dense1152",0,0]]},"keras_version":"tfjs-layers 3.9.0","backend":"tensor_flow.js"},"weightsManifest":[{"paths":["weights.bin"],"weights":[{"name":"dense_Dense1147/kernel","shape":[3,2],"dtype":"float32"},{"name":"dense_Dense1147/bias","shape":[2],"dtype":"float32"},{"name":"dense_Dense1148/kernel","shape":[2,1],"dtype":"float32"},{"name":"dense_Dense1148/bias","shape":[1],"dtype":"float32"},{"name":"dense_Dense1149/kernel","shape":[1,32],"dtype":"float32"},{"name":"dense_Dense1149/bias","shape":[32],"dtype":"float32"},{"name":"dense_Dense1150/kernel","shape":[32,2],"dtype":"float32"},{"name":"dense_Dense1150/bias","shape":[2],"dtype":"float32"},{"name":"dense_Dense1151/kernel","shape":[2,32],"dtype":"float32"},{"name":"dense_Dense1151/bias","shape":[32],"dtype":"float32"},{"name":"dense_Dense1152/kernel","shape":[32,1],"dtype":"float32"},{"name":"dense_Dense1152/bias","shape":[1],"dtype":"float32"}]}]}