{"modelTopology":{"class_name":"Model","config":{"name":"model708","layers":[{"name":"input708","class_name":"InputLayer","config":{"batch_input_shape":[null,3],"dtype":"float32","sparse":false,"name":"input708"},"inbound_nodes":[]},{"name":"dense_Dense3536","class_name":"Dense","config":{"units":8,"activation":"relu","use_bias":true,"kernel_initializer":{"class_name":"VarianceScaling","config":{"scale":1,"mode":"fan_avg","distribution":"normal","seed":null}},"bias_initializer":{"class_name":"Zeros","config":{}},"kernel_regularizer":null,"bias_regularizer":null,"activity_regularizer":null,"kernel_constraint":null,"bias_constraint":null,"name":"dense_Dense3536","trainable":true},"inbound_nodes":[[["input708",0,0,{}]]]},{"name":"dense_Dense3537","class_name":"Dense","config":{"units":2,"activation":"relu","use_bias":true,"kernel_initializer":{"class_name":"VarianceScaling","config":{"scale":1,"mode":"fan_avg","distribution":"normal","seed":null}},"bias_initializer":{"class_name":"Zeros","config":{}},"kernel_regularizer":null,"bias_regularizer":null,"activity_regularizer":null,"kernel_constraint":null,"bias_constraint":null,"name":"dense_Dense3537","trainable":true},"inbound_nodes":[[["dense_Dense3536",0,0,{}]]]},{"name":"dense_Dense3538","class_name":"Dense","config":{"units":8,"activation":"relu","use_bias":true,"kernel_initializer":{"class_name":"VarianceScaling","config":{"scale":1,"mode":"fan_avg","distribution":"normal","seed":null}},"bias_initializer":{"class_name":"Zeros","config":{}},"kernel_regularizer":null,"bias_regularizer":null,"activity_regularizer":null,"kernel_constraint":null,"bias_constraint":null,"name":"dense_Dense3538","trainable":true},"inbound_nodes":[[["dense_Dense3537",0,0,{}]]]},{"name":"dense_Dense3539","class_name":"Dense","config":{"units":32,"activation":"relu","use_bias":true,"kernel_initializer":{"class_name":"VarianceScaling","config":{"scale":1,"mode":"fan_avg","distribution":"normal","seed":null}},"bias_initializer":{"class_name":"Zeros","config":{}},"kernel_regularizer":null,"bias_regularizer":null,"activity_regularizer":null,"kernel_constraint":null,"bias_constraint":null,"name":"dense_Dense3539","trainable":true},"inbound_nodes":[[["dense_Dense3538",0,0,{}]]]},{"name":"dense_Dense3540","class_name":"Dense","config":{"units":1,"activation":"sigmoid","use_bias":true,"kernel_initializer":{"class_name":"VarianceScaling","config":{"scale":1,"mode":"fan_avg","distribution":"normal","seed":null}},"bias_initializer":{"class_name":"Zeros","config":{}},"kernel_regularizer":null,"bias_regularizer":null,"activity_regularizer":null,"kernel_constraint":null,"bias_constraint":null,"name":"dense_Dense3540","trainable":true},"inbound_nodes":[[["dense_Dense3539",0,0,{}]]]}],"input_layers":[["input708",0,0]],"output_layers":[["dense_Dense3540",0,0]]},"keras_version":"tfjs-layers 3.9.0","backend":"tensor_flow.js"},"weightsManifest":[{"paths":["weights.bin"],"weights":[{"name":"dense_Dense3536/kernel","shape":[3,8],"dtype":"float32"},{"name":"dense_Dense3536/bias","shape":[8],"dtype":"float32"},{"name":"dense_Dense3537/kernel","shape":[8,2],"dtype":"float32"},{"name":"dense_Dense3537/bias","shape":[2],"dtype":"float32"},{"name":"dense_Dense3538/kernel","shape":[2,8],"dtype":"float32"},{"name":"dense_Dense3538/bias","shape":[8],"dtype":"float32"},{"name":"dense_Dense3539/kernel","shape":[8,32],"dtype":"float32"},{"name":"dense_Dense3539/bias","shape":[32],"dtype":"float32"},{"name":"dense_Dense3540/kernel","shape":[32,1],"dtype":"float32"},{"name":"dense_Dense3540/bias","shape":[1],"dtype":"float32"}]}]}