{"modelTopology":{"class_name":"Model","config":{"name":"model861","layers":[{"name":"input861","class_name":"InputLayer","config":{"batch_input_shape":[null,3],"dtype":"float32","sparse":false,"name":"input861"},"inbound_nodes":[]},{"name":"dense_Dense4301","class_name":"Dense","config":{"units":8,"activation":"relu","use_bias":true,"kernel_initializer":{"class_name":"VarianceScaling","config":{"scale":1,"mode":"fan_avg","distribution":"normal","seed":null}},"bias_initializer":{"class_name":"Zeros","config":{}},"kernel_regularizer":null,"bias_regularizer":null,"activity_regularizer":null,"kernel_constraint":null,"bias_constraint":null,"name":"dense_Dense4301","trainable":true},"inbound_nodes":[[["input861",0,0,{}]]]},{"name":"dense_Dense4302","class_name":"Dense","config":{"units":32,"activation":"relu","use_bias":true,"kernel_initializer":{"class_name":"VarianceScaling","config":{"scale":1,"mode":"fan_avg","distribution":"normal","seed":null}},"bias_initializer":{"class_name":"Zeros","config":{}},"kernel_regularizer":null,"bias_regularizer":null,"activity_regularizer":null,"kernel_constraint":null,"bias_constraint":null,"name":"dense_Dense4302","trainable":true},"inbound_nodes":[[["dense_Dense4301",0,0,{}]]]},{"name":"dense_Dense4303","class_name":"Dense","config":{"units":32,"activation":"relu","use_bias":true,"kernel_initializer":{"class_name":"VarianceScaling","config":{"scale":1,"mode":"fan_avg","distribution":"normal","seed":null}},"bias_initializer":{"class_name":"Zeros","config":{}},"kernel_regularizer":null,"bias_regularizer":null,"activity_regularizer":null,"kernel_constraint":null,"bias_constraint":null,"name":"dense_Dense4303","trainable":true},"inbound_nodes":[[["dense_Dense4302",0,0,{}]]]},{"name":"dense_Dense4304","class_name":"Dense","config":{"units":4,"activation":"relu","use_bias":true,"kernel_initializer":{"class_name":"VarianceScaling","config":{"scale":1,"mode":"fan_avg","distribution":"normal","seed":null}},"bias_initializer":{"class_name":"Zeros","config":{}},"kernel_regularizer":null,"bias_regularizer":null,"activity_regularizer":null,"kernel_constraint":null,"bias_constraint":null,"name":"dense_Dense4304","trainable":true},"inbound_nodes":[[["dense_Dense4303",0,0,{}]]]},{"name":"dense_Dense4305","class_name":"Dense","config":{"units":1,"activation":"sigmoid","use_bias":true,"kernel_initializer":{"class_name":"VarianceScaling","config":{"scale":1,"mode":"fan_avg","distribution":"normal","seed":null}},"bias_initializer":{"class_name":"Zeros","config":{}},"kernel_regularizer":null,"bias_regularizer":null,"activity_regularizer":null,"kernel_constraint":null,"bias_constraint":null,"name":"dense_Dense4305","trainable":true},"inbound_nodes":[[["dense_Dense4304",0,0,{}]]]}],"input_layers":[["input861",0,0]],"output_layers":[["dense_Dense4305",0,0]]},"keras_version":"tfjs-layers 3.9.0","backend":"tensor_flow.js"},"weightsManifest":[{"paths":["weights.bin"],"weights":[{"name":"dense_Dense4301/kernel","shape":[3,8],"dtype":"float32"},{"name":"dense_Dense4301/bias","shape":[8],"dtype":"float32"},{"name":"dense_Dense4302/kernel","shape":[8,32],"dtype":"float32"},{"name":"dense_Dense4302/bias","shape":[32],"dtype":"float32"},{"name":"dense_Dense4303/kernel","shape":[32,32],"dtype":"float32"},{"name":"dense_Dense4303/bias","shape":[32],"dtype":"float32"},{"name":"dense_Dense4304/kernel","shape":[32,4],"dtype":"float32"},{"name":"dense_Dense4304/bias","shape":[4],"dtype":"float32"},{"name":"dense_Dense4305/kernel","shape":[4,1],"dtype":"float32"},{"name":"dense_Dense4305/bias","shape":[1],"dtype":"float32"}]}]}