{"modelTopology":{"class_name":"Model","config":{"name":"model942","layers":[{"name":"input942","class_name":"InputLayer","config":{"batch_input_shape":[null,3],"dtype":"float32","sparse":false,"name":"input942"},"inbound_nodes":[]},{"name":"dense_Dense5647","class_name":"Dense","config":{"units":4,"activation":"relu","use_bias":true,"kernel_initializer":{"class_name":"VarianceScaling","config":{"scale":1,"mode":"fan_avg","distribution":"normal","seed":null}},"bias_initializer":{"class_name":"Zeros","config":{}},"kernel_regularizer":null,"bias_regularizer":null,"activity_regularizer":null,"kernel_constraint":null,"bias_constraint":null,"name":"dense_Dense5647","trainable":true},"inbound_nodes":[[["input942",0,0,{}]]]},{"name":"dense_Dense5648","class_name":"Dense","config":{"units":16,"activation":"relu","use_bias":true,"kernel_initializer":{"class_name":"VarianceScaling","config":{"scale":1,"mode":"fan_avg","distribution":"normal","seed":null}},"bias_initializer":{"class_name":"Zeros","config":{}},"kernel_regularizer":null,"bias_regularizer":null,"activity_regularizer":null,"kernel_constraint":null,"bias_constraint":null,"name":"dense_Dense5648","trainable":true},"inbound_nodes":[[["dense_Dense5647",0,0,{}]]]},{"name":"dense_Dense5649","class_name":"Dense","config":{"units":4,"activation":"relu","use_bias":true,"kernel_initializer":{"class_name":"VarianceScaling","config":{"scale":1,"mode":"fan_avg","distribution":"normal","seed":null}},"bias_initializer":{"class_name":"Zeros","config":{}},"kernel_regularizer":null,"bias_regularizer":null,"activity_regularizer":null,"kernel_constraint":null,"bias_constraint":null,"name":"dense_Dense5649","trainable":true},"inbound_nodes":[[["dense_Dense5648",0,0,{}]]]},{"name":"dense_Dense5650","class_name":"Dense","config":{"units":1,"activation":"relu","use_bias":true,"kernel_initializer":{"class_name":"VarianceScaling","config":{"scale":1,"mode":"fan_avg","distribution":"normal","seed":null}},"bias_initializer":{"class_name":"Zeros","config":{}},"kernel_regularizer":null,"bias_regularizer":null,"activity_regularizer":null,"kernel_constraint":null,"bias_constraint":null,"name":"dense_Dense5650","trainable":true},"inbound_nodes":[[["dense_Dense5649",0,0,{}]]]},{"name":"dense_Dense5651","class_name":"Dense","config":{"units":32,"activation":"relu","use_bias":true,"kernel_initializer":{"class_name":"VarianceScaling","config":{"scale":1,"mode":"fan_avg","distribution":"normal","seed":null}},"bias_initializer":{"class_name":"Zeros","config":{}},"kernel_regularizer":null,"bias_regularizer":null,"activity_regularizer":null,"kernel_constraint":null,"bias_constraint":null,"name":"dense_Dense5651","trainable":true},"inbound_nodes":[[["dense_Dense5650",0,0,{}]]]},{"name":"dense_Dense5652","class_name":"Dense","config":{"units":1,"activation":"sigmoid","use_bias":true,"kernel_initializer":{"class_name":"VarianceScaling","config":{"scale":1,"mode":"fan_avg","distribution":"normal","seed":null}},"bias_initializer":{"class_name":"Zeros","config":{}},"kernel_regularizer":null,"bias_regularizer":null,"activity_regularizer":null,"kernel_constraint":null,"bias_constraint":null,"name":"dense_Dense5652","trainable":true},"inbound_nodes":[[["dense_Dense5651",0,0,{}]]]}],"input_layers":[["input942",0,0]],"output_layers":[["dense_Dense5652",0,0]]},"keras_version":"tfjs-layers 3.9.0","backend":"tensor_flow.js"},"weightsManifest":[{"paths":["weights.bin"],"weights":[{"name":"dense_Dense5647/kernel","shape":[3,4],"dtype":"float32"},{"name":"dense_Dense5647/bias","shape":[4],"dtype":"float32"},{"name":"dense_Dense5648/kernel","shape":[4,16],"dtype":"float32"},{"name":"dense_Dense5648/bias","shape":[16],"dtype":"float32"},{"name":"dense_Dense5649/kernel","shape":[16,4],"dtype":"float32"},{"name":"dense_Dense5649/bias","shape":[4],"dtype":"float32"},{"name":"dense_Dense5650/kernel","shape":[4,1],"dtype":"float32"},{"name":"dense_Dense5650/bias","shape":[1],"dtype":"float32"},{"name":"dense_Dense5651/kernel","shape":[1,32],"dtype":"float32"},{"name":"dense_Dense5651/bias","shape":[32],"dtype":"float32"},{"name":"dense_Dense5652/kernel","shape":[32,1],"dtype":"float32"},{"name":"dense_Dense5652/bias","shape":[1],"dtype":"float32"}]}]}