{"modelTopology":{"class_name":"Model","config":{"name":"model16","layers":[{"name":"input16","class_name":"InputLayer","config":{"batch_input_shape":[null,3],"dtype":"float32","sparse":false,"name":"input16"},"inbound_nodes":[]},{"name":"dense_Dense91","class_name":"Dense","config":{"units":2,"activation":"relu","use_bias":true,"kernel_initializer":{"class_name":"VarianceScaling","config":{"scale":1,"mode":"fan_avg","distribution":"normal","seed":null}},"bias_initializer":{"class_name":"Zeros","config":{}},"kernel_regularizer":null,"bias_regularizer":null,"activity_regularizer":null,"kernel_constraint":null,"bias_constraint":null,"name":"dense_Dense91","trainable":true},"inbound_nodes":[[["input16",0,0,{}]]]},{"name":"dense_Dense92","class_name":"Dense","config":{"units":1,"activation":"relu","use_bias":true,"kernel_initializer":{"class_name":"VarianceScaling","config":{"scale":1,"mode":"fan_avg","distribution":"normal","seed":null}},"bias_initializer":{"class_name":"Zeros","config":{}},"kernel_regularizer":null,"bias_regularizer":null,"activity_regularizer":null,"kernel_constraint":null,"bias_constraint":null,"name":"dense_Dense92","trainable":true},"inbound_nodes":[[["dense_Dense91",0,0,{}]]]},{"name":"dense_Dense93","class_name":"Dense","config":{"units":1,"activation":"relu","use_bias":true,"kernel_initializer":{"class_name":"VarianceScaling","config":{"scale":1,"mode":"fan_avg","distribution":"normal","seed":null}},"bias_initializer":{"class_name":"Zeros","config":{}},"kernel_regularizer":null,"bias_regularizer":null,"activity_regularizer":null,"kernel_constraint":null,"bias_constraint":null,"name":"dense_Dense93","trainable":true},"inbound_nodes":[[["dense_Dense92",0,0,{}]]]},{"name":"dense_Dense94","class_name":"Dense","config":{"units":4,"activation":"relu","use_bias":true,"kernel_initializer":{"class_name":"VarianceScaling","config":{"scale":1,"mode":"fan_avg","distribution":"normal","seed":null}},"bias_initializer":{"class_name":"Zeros","config":{}},"kernel_regularizer":null,"bias_regularizer":null,"activity_regularizer":null,"kernel_constraint":null,"bias_constraint":null,"name":"dense_Dense94","trainable":true},"inbound_nodes":[[["dense_Dense93",0,0,{}]]]},{"name":"dense_Dense95","class_name":"Dense","config":{"units":8,"activation":"relu","use_bias":true,"kernel_initializer":{"class_name":"VarianceScaling","config":{"scale":1,"mode":"fan_avg","distribution":"normal","seed":null}},"bias_initializer":{"class_name":"Zeros","config":{}},"kernel_regularizer":null,"bias_regularizer":null,"activity_regularizer":null,"kernel_constraint":null,"bias_constraint":null,"name":"dense_Dense95","trainable":true},"inbound_nodes":[[["dense_Dense94",0,0,{}]]]},{"name":"dense_Dense96","class_name":"Dense","config":{"units":1,"activation":"sigmoid","use_bias":true,"kernel_initializer":{"class_name":"VarianceScaling","config":{"scale":1,"mode":"fan_avg","distribution":"normal","seed":null}},"bias_initializer":{"class_name":"Zeros","config":{}},"kernel_regularizer":null,"bias_regularizer":null,"activity_regularizer":null,"kernel_constraint":null,"bias_constraint":null,"name":"dense_Dense96","trainable":true},"inbound_nodes":[[["dense_Dense95",0,0,{}]]]}],"input_layers":[["input16",0,0]],"output_layers":[["dense_Dense96",0,0]]},"keras_version":"tfjs-layers 3.9.0","backend":"tensor_flow.js"},"weightsManifest":[{"paths":["weights.bin"],"weights":[{"name":"dense_Dense91/kernel","shape":[3,2],"dtype":"float32"},{"name":"dense_Dense91/bias","shape":[2],"dtype":"float32"},{"name":"dense_Dense92/kernel","shape":[2,1],"dtype":"float32"},{"name":"dense_Dense92/bias","shape":[1],"dtype":"float32"},{"name":"dense_Dense93/kernel","shape":[1,1],"dtype":"float32"},{"name":"dense_Dense93/bias","shape":[1],"dtype":"float32"},{"name":"dense_Dense94/kernel","shape":[1,4],"dtype":"float32"},{"name":"dense_Dense94/bias","shape":[4],"dtype":"float32"},{"name":"dense_Dense95/kernel","shape":[4,8],"dtype":"float32"},{"name":"dense_Dense95/bias","shape":[8],"dtype":"float32"},{"name":"dense_Dense96/kernel","shape":[8,1],"dtype":"float32"},{"name":"dense_Dense96/bias","shape":[1],"dtype":"float32"}]}]}