{"modelTopology":{"class_name":"Model","config":{"name":"model326","layers":[{"name":"input326","class_name":"InputLayer","config":{"batch_input_shape":[null,3],"dtype":"float32","sparse":false,"name":"input326"},"inbound_nodes":[]},{"name":"dense_Dense1951","class_name":"Dense","config":{"units":2,"activation":"relu","use_bias":true,"kernel_initializer":{"class_name":"VarianceScaling","config":{"scale":1,"mode":"fan_avg","distribution":"normal","seed":null}},"bias_initializer":{"class_name":"Zeros","config":{}},"kernel_regularizer":null,"bias_regularizer":null,"activity_regularizer":null,"kernel_constraint":null,"bias_constraint":null,"name":"dense_Dense1951","trainable":true},"inbound_nodes":[[["input326",0,0,{}]]]},{"name":"dense_Dense1952","class_name":"Dense","config":{"units":2,"activation":"relu","use_bias":true,"kernel_initializer":{"class_name":"VarianceScaling","config":{"scale":1,"mode":"fan_avg","distribution":"normal","seed":null}},"bias_initializer":{"class_name":"Zeros","config":{}},"kernel_regularizer":null,"bias_regularizer":null,"activity_regularizer":null,"kernel_constraint":null,"bias_constraint":null,"name":"dense_Dense1952","trainable":true},"inbound_nodes":[[["dense_Dense1951",0,0,{}]]]},{"name":"dense_Dense1953","class_name":"Dense","config":{"units":8,"activation":"relu","use_bias":true,"kernel_initializer":{"class_name":"VarianceScaling","config":{"scale":1,"mode":"fan_avg","distribution":"normal","seed":null}},"bias_initializer":{"class_name":"Zeros","config":{}},"kernel_regularizer":null,"bias_regularizer":null,"activity_regularizer":null,"kernel_constraint":null,"bias_constraint":null,"name":"dense_Dense1953","trainable":true},"inbound_nodes":[[["dense_Dense1952",0,0,{}]]]},{"name":"dense_Dense1954","class_name":"Dense","config":{"units":1,"activation":"relu","use_bias":true,"kernel_initializer":{"class_name":"VarianceScaling","config":{"scale":1,"mode":"fan_avg","distribution":"normal","seed":null}},"bias_initializer":{"class_name":"Zeros","config":{}},"kernel_regularizer":null,"bias_regularizer":null,"activity_regularizer":null,"kernel_constraint":null,"bias_constraint":null,"name":"dense_Dense1954","trainable":true},"inbound_nodes":[[["dense_Dense1953",0,0,{}]]]},{"name":"dense_Dense1955","class_name":"Dense","config":{"units":2,"activation":"relu","use_bias":true,"kernel_initializer":{"class_name":"VarianceScaling","config":{"scale":1,"mode":"fan_avg","distribution":"normal","seed":null}},"bias_initializer":{"class_name":"Zeros","config":{}},"kernel_regularizer":null,"bias_regularizer":null,"activity_regularizer":null,"kernel_constraint":null,"bias_constraint":null,"name":"dense_Dense1955","trainable":true},"inbound_nodes":[[["dense_Dense1954",0,0,{}]]]},{"name":"dense_Dense1956","class_name":"Dense","config":{"units":1,"activation":"sigmoid","use_bias":true,"kernel_initializer":{"class_name":"VarianceScaling","config":{"scale":1,"mode":"fan_avg","distribution":"normal","seed":null}},"bias_initializer":{"class_name":"Zeros","config":{}},"kernel_regularizer":null,"bias_regularizer":null,"activity_regularizer":null,"kernel_constraint":null,"bias_constraint":null,"name":"dense_Dense1956","trainable":true},"inbound_nodes":[[["dense_Dense1955",0,0,{}]]]}],"input_layers":[["input326",0,0]],"output_layers":[["dense_Dense1956",0,0]]},"keras_version":"tfjs-layers 3.9.0","backend":"tensor_flow.js"},"weightsManifest":[{"paths":["weights.bin"],"weights":[{"name":"dense_Dense1951/kernel","shape":[3,2],"dtype":"float32"},{"name":"dense_Dense1951/bias","shape":[2],"dtype":"float32"},{"name":"dense_Dense1952/kernel","shape":[2,2],"dtype":"float32"},{"name":"dense_Dense1952/bias","shape":[2],"dtype":"float32"},{"name":"dense_Dense1953/kernel","shape":[2,8],"dtype":"float32"},{"name":"dense_Dense1953/bias","shape":[8],"dtype":"float32"},{"name":"dense_Dense1954/kernel","shape":[8,1],"dtype":"float32"},{"name":"dense_Dense1954/bias","shape":[1],"dtype":"float32"},{"name":"dense_Dense1955/kernel","shape":[1,2],"dtype":"float32"},{"name":"dense_Dense1955/bias","shape":[2],"dtype":"float32"},{"name":"dense_Dense1956/kernel","shape":[2,1],"dtype":"float32"},{"name":"dense_Dense1956/bias","shape":[1],"dtype":"float32"}]}]}