{"modelTopology":{"class_name":"Model","config":{"name":"model1205","layers":[{"name":"input1205","class_name":"InputLayer","config":{"batch_input_shape":[null,3],"dtype":"float32","sparse":false,"name":"input1205"},"inbound_nodes":[]},{"name":"dense_Dense7225","class_name":"Dense","config":{"units":16,"activation":"relu","use_bias":true,"kernel_initializer":{"class_name":"VarianceScaling","config":{"scale":1,"mode":"fan_avg","distribution":"normal","seed":null}},"bias_initializer":{"class_name":"Zeros","config":{}},"kernel_regularizer":null,"bias_regularizer":null,"activity_regularizer":null,"kernel_constraint":null,"bias_constraint":null,"name":"dense_Dense7225","trainable":true},"inbound_nodes":[[["input1205",0,0,{}]]]},{"name":"dense_Dense7226","class_name":"Dense","config":{"units":32,"activation":"relu","use_bias":true,"kernel_initializer":{"class_name":"VarianceScaling","config":{"scale":1,"mode":"fan_avg","distribution":"normal","seed":null}},"bias_initializer":{"class_name":"Zeros","config":{}},"kernel_regularizer":null,"bias_regularizer":null,"activity_regularizer":null,"kernel_constraint":null,"bias_constraint":null,"name":"dense_Dense7226","trainable":true},"inbound_nodes":[[["dense_Dense7225",0,0,{}]]]},{"name":"dense_Dense7227","class_name":"Dense","config":{"units":8,"activation":"relu","use_bias":true,"kernel_initializer":{"class_name":"VarianceScaling","config":{"scale":1,"mode":"fan_avg","distribution":"normal","seed":null}},"bias_initializer":{"class_name":"Zeros","config":{}},"kernel_regularizer":null,"bias_regularizer":null,"activity_regularizer":null,"kernel_constraint":null,"bias_constraint":null,"name":"dense_Dense7227","trainable":true},"inbound_nodes":[[["dense_Dense7226",0,0,{}]]]},{"name":"dense_Dense7228","class_name":"Dense","config":{"units":4,"activation":"relu","use_bias":true,"kernel_initializer":{"class_name":"VarianceScaling","config":{"scale":1,"mode":"fan_avg","distribution":"normal","seed":null}},"bias_initializer":{"class_name":"Zeros","config":{}},"kernel_regularizer":null,"bias_regularizer":null,"activity_regularizer":null,"kernel_constraint":null,"bias_constraint":null,"name":"dense_Dense7228","trainable":true},"inbound_nodes":[[["dense_Dense7227",0,0,{}]]]},{"name":"dense_Dense7229","class_name":"Dense","config":{"units":16,"activation":"relu","use_bias":true,"kernel_initializer":{"class_name":"VarianceScaling","config":{"scale":1,"mode":"fan_avg","distribution":"normal","seed":null}},"bias_initializer":{"class_name":"Zeros","config":{}},"kernel_regularizer":null,"bias_regularizer":null,"activity_regularizer":null,"kernel_constraint":null,"bias_constraint":null,"name":"dense_Dense7229","trainable":true},"inbound_nodes":[[["dense_Dense7228",0,0,{}]]]},{"name":"dense_Dense7230","class_name":"Dense","config":{"units":1,"activation":"sigmoid","use_bias":true,"kernel_initializer":{"class_name":"VarianceScaling","config":{"scale":1,"mode":"fan_avg","distribution":"normal","seed":null}},"bias_initializer":{"class_name":"Zeros","config":{}},"kernel_regularizer":null,"bias_regularizer":null,"activity_regularizer":null,"kernel_constraint":null,"bias_constraint":null,"name":"dense_Dense7230","trainable":true},"inbound_nodes":[[["dense_Dense7229",0,0,{}]]]}],"input_layers":[["input1205",0,0]],"output_layers":[["dense_Dense7230",0,0]]},"keras_version":"tfjs-layers 3.9.0","backend":"tensor_flow.js"},"weightsManifest":[{"paths":["weights.bin"],"weights":[{"name":"dense_Dense7225/kernel","shape":[3,16],"dtype":"float32"},{"name":"dense_Dense7225/bias","shape":[16],"dtype":"float32"},{"name":"dense_Dense7226/kernel","shape":[16,32],"dtype":"float32"},{"name":"dense_Dense7226/bias","shape":[32],"dtype":"float32"},{"name":"dense_Dense7227/kernel","shape":[32,8],"dtype":"float32"},{"name":"dense_Dense7227/bias","shape":[8],"dtype":"float32"},{"name":"dense_Dense7228/kernel","shape":[8,4],"dtype":"float32"},{"name":"dense_Dense7228/bias","shape":[4],"dtype":"float32"},{"name":"dense_Dense7229/kernel","shape":[4,16],"dtype":"float32"},{"name":"dense_Dense7229/bias","shape":[16],"dtype":"float32"},{"name":"dense_Dense7230/kernel","shape":[16,1],"dtype":"float32"},{"name":"dense_Dense7230/bias","shape":[1],"dtype":"float32"}]}]}