{"modelTopology":{"class_name":"Model","config":{"name":"model958","layers":[{"name":"input958","class_name":"InputLayer","config":{"batch_input_shape":[null,3],"dtype":"float32","sparse":false,"name":"input958"},"inbound_nodes":[]},{"name":"dense_Dense5743","class_name":"Dense","config":{"units":1,"activation":"relu","use_bias":true,"kernel_initializer":{"class_name":"VarianceScaling","config":{"scale":1,"mode":"fan_avg","distribution":"normal","seed":null}},"bias_initializer":{"class_name":"Zeros","config":{}},"kernel_regularizer":null,"bias_regularizer":null,"activity_regularizer":null,"kernel_constraint":null,"bias_constraint":null,"name":"dense_Dense5743","trainable":true},"inbound_nodes":[[["input958",0,0,{}]]]},{"name":"dense_Dense5744","class_name":"Dense","config":{"units":16,"activation":"relu","use_bias":true,"kernel_initializer":{"class_name":"VarianceScaling","config":{"scale":1,"mode":"fan_avg","distribution":"normal","seed":null}},"bias_initializer":{"class_name":"Zeros","config":{}},"kernel_regularizer":null,"bias_regularizer":null,"activity_regularizer":null,"kernel_constraint":null,"bias_constraint":null,"name":"dense_Dense5744","trainable":true},"inbound_nodes":[[["dense_Dense5743",0,0,{}]]]},{"name":"dense_Dense5745","class_name":"Dense","config":{"units":4,"activation":"relu","use_bias":true,"kernel_initializer":{"class_name":"VarianceScaling","config":{"scale":1,"mode":"fan_avg","distribution":"normal","seed":null}},"bias_initializer":{"class_name":"Zeros","config":{}},"kernel_regularizer":null,"bias_regularizer":null,"activity_regularizer":null,"kernel_constraint":null,"bias_constraint":null,"name":"dense_Dense5745","trainable":true},"inbound_nodes":[[["dense_Dense5744",0,0,{}]]]},{"name":"dense_Dense5746","class_name":"Dense","config":{"units":8,"activation":"relu","use_bias":true,"kernel_initializer":{"class_name":"VarianceScaling","config":{"scale":1,"mode":"fan_avg","distribution":"normal","seed":null}},"bias_initializer":{"class_name":"Zeros","config":{}},"kernel_regularizer":null,"bias_regularizer":null,"activity_regularizer":null,"kernel_constraint":null,"bias_constraint":null,"name":"dense_Dense5746","trainable":true},"inbound_nodes":[[["dense_Dense5745",0,0,{}]]]},{"name":"dense_Dense5747","class_name":"Dense","config":{"units":8,"activation":"relu","use_bias":true,"kernel_initializer":{"class_name":"VarianceScaling","config":{"scale":1,"mode":"fan_avg","distribution":"normal","seed":null}},"bias_initializer":{"class_name":"Zeros","config":{}},"kernel_regularizer":null,"bias_regularizer":null,"activity_regularizer":null,"kernel_constraint":null,"bias_constraint":null,"name":"dense_Dense5747","trainable":true},"inbound_nodes":[[["dense_Dense5746",0,0,{}]]]},{"name":"dense_Dense5748","class_name":"Dense","config":{"units":1,"activation":"sigmoid","use_bias":true,"kernel_initializer":{"class_name":"VarianceScaling","config":{"scale":1,"mode":"fan_avg","distribution":"normal","seed":null}},"bias_initializer":{"class_name":"Zeros","config":{}},"kernel_regularizer":null,"bias_regularizer":null,"activity_regularizer":null,"kernel_constraint":null,"bias_constraint":null,"name":"dense_Dense5748","trainable":true},"inbound_nodes":[[["dense_Dense5747",0,0,{}]]]}],"input_layers":[["input958",0,0]],"output_layers":[["dense_Dense5748",0,0]]},"keras_version":"tfjs-layers 3.9.0","backend":"tensor_flow.js"},"weightsManifest":[{"paths":["weights.bin"],"weights":[{"name":"dense_Dense5743/kernel","shape":[3,1],"dtype":"float32"},{"name":"dense_Dense5743/bias","shape":[1],"dtype":"float32"},{"name":"dense_Dense5744/kernel","shape":[1,16],"dtype":"float32"},{"name":"dense_Dense5744/bias","shape":[16],"dtype":"float32"},{"name":"dense_Dense5745/kernel","shape":[16,4],"dtype":"float32"},{"name":"dense_Dense5745/bias","shape":[4],"dtype":"float32"},{"name":"dense_Dense5746/kernel","shape":[4,8],"dtype":"float32"},{"name":"dense_Dense5746/bias","shape":[8],"dtype":"float32"},{"name":"dense_Dense5747/kernel","shape":[8,8],"dtype":"float32"},{"name":"dense_Dense5747/bias","shape":[8],"dtype":"float32"},{"name":"dense_Dense5748/kernel","shape":[8,1],"dtype":"float32"},{"name":"dense_Dense5748/bias","shape":[1],"dtype":"float32"}]}]}