{"modelTopology":{"class_name":"Model","config":{"name":"model984","layers":[{"name":"input984","class_name":"InputLayer","config":{"batch_input_shape":[null,3],"dtype":"float32","sparse":false,"name":"input984"},"inbound_nodes":[]},{"name":"dense_Dense5899","class_name":"Dense","config":{"units":8,"activation":"relu","use_bias":true,"kernel_initializer":{"class_name":"VarianceScaling","config":{"scale":1,"mode":"fan_avg","distribution":"normal","seed":null}},"bias_initializer":{"class_name":"Zeros","config":{}},"kernel_regularizer":null,"bias_regularizer":null,"activity_regularizer":null,"kernel_constraint":null,"bias_constraint":null,"name":"dense_Dense5899","trainable":true},"inbound_nodes":[[["input984",0,0,{}]]]},{"name":"dense_Dense5900","class_name":"Dense","config":{"units":16,"activation":"relu","use_bias":true,"kernel_initializer":{"class_name":"VarianceScaling","config":{"scale":1,"mode":"fan_avg","distribution":"normal","seed":null}},"bias_initializer":{"class_name":"Zeros","config":{}},"kernel_regularizer":null,"bias_regularizer":null,"activity_regularizer":null,"kernel_constraint":null,"bias_constraint":null,"name":"dense_Dense5900","trainable":true},"inbound_nodes":[[["dense_Dense5899",0,0,{}]]]},{"name":"dense_Dense5901","class_name":"Dense","config":{"units":8,"activation":"relu","use_bias":true,"kernel_initializer":{"class_name":"VarianceScaling","config":{"scale":1,"mode":"fan_avg","distribution":"normal","seed":null}},"bias_initializer":{"class_name":"Zeros","config":{}},"kernel_regularizer":null,"bias_regularizer":null,"activity_regularizer":null,"kernel_constraint":null,"bias_constraint":null,"name":"dense_Dense5901","trainable":true},"inbound_nodes":[[["dense_Dense5900",0,0,{}]]]},{"name":"dense_Dense5902","class_name":"Dense","config":{"units":2,"activation":"relu","use_bias":true,"kernel_initializer":{"class_name":"VarianceScaling","config":{"scale":1,"mode":"fan_avg","distribution":"normal","seed":null}},"bias_initializer":{"class_name":"Zeros","config":{}},"kernel_regularizer":null,"bias_regularizer":null,"activity_regularizer":null,"kernel_constraint":null,"bias_constraint":null,"name":"dense_Dense5902","trainable":true},"inbound_nodes":[[["dense_Dense5901",0,0,{}]]]},{"name":"dense_Dense5903","class_name":"Dense","config":{"units":32,"activation":"relu","use_bias":true,"kernel_initializer":{"class_name":"VarianceScaling","config":{"scale":1,"mode":"fan_avg","distribution":"normal","seed":null}},"bias_initializer":{"class_name":"Zeros","config":{}},"kernel_regularizer":null,"bias_regularizer":null,"activity_regularizer":null,"kernel_constraint":null,"bias_constraint":null,"name":"dense_Dense5903","trainable":true},"inbound_nodes":[[["dense_Dense5902",0,0,{}]]]},{"name":"dense_Dense5904","class_name":"Dense","config":{"units":1,"activation":"sigmoid","use_bias":true,"kernel_initializer":{"class_name":"VarianceScaling","config":{"scale":1,"mode":"fan_avg","distribution":"normal","seed":null}},"bias_initializer":{"class_name":"Zeros","config":{}},"kernel_regularizer":null,"bias_regularizer":null,"activity_regularizer":null,"kernel_constraint":null,"bias_constraint":null,"name":"dense_Dense5904","trainable":true},"inbound_nodes":[[["dense_Dense5903",0,0,{}]]]}],"input_layers":[["input984",0,0]],"output_layers":[["dense_Dense5904",0,0]]},"keras_version":"tfjs-layers 3.9.0","backend":"tensor_flow.js"},"weightsManifest":[{"paths":["weights.bin"],"weights":[{"name":"dense_Dense5899/kernel","shape":[3,8],"dtype":"float32"},{"name":"dense_Dense5899/bias","shape":[8],"dtype":"float32"},{"name":"dense_Dense5900/kernel","shape":[8,16],"dtype":"float32"},{"name":"dense_Dense5900/bias","shape":[16],"dtype":"float32"},{"name":"dense_Dense5901/kernel","shape":[16,8],"dtype":"float32"},{"name":"dense_Dense5901/bias","shape":[8],"dtype":"float32"},{"name":"dense_Dense5902/kernel","shape":[8,2],"dtype":"float32"},{"name":"dense_Dense5902/bias","shape":[2],"dtype":"float32"},{"name":"dense_Dense5903/kernel","shape":[2,32],"dtype":"float32"},{"name":"dense_Dense5903/bias","shape":[32],"dtype":"float32"},{"name":"dense_Dense5904/kernel","shape":[32,1],"dtype":"float32"},{"name":"dense_Dense5904/bias","shape":[1],"dtype":"float32"}]}]}