{"modelTopology":{"class_name":"Model","config":{"name":"model666","layers":[{"name":"input666","class_name":"InputLayer","config":{"batch_input_shape":[null,3],"dtype":"float32","sparse":false,"name":"input666"},"inbound_nodes":[]},{"name":"dense_Dense3991","class_name":"Dense","config":{"units":2,"activation":"relu","use_bias":true,"kernel_initializer":{"class_name":"VarianceScaling","config":{"scale":1,"mode":"fan_avg","distribution":"normal","seed":null}},"bias_initializer":{"class_name":"Zeros","config":{}},"kernel_regularizer":null,"bias_regularizer":null,"activity_regularizer":null,"kernel_constraint":null,"bias_constraint":null,"name":"dense_Dense3991","trainable":true},"inbound_nodes":[[["input666",0,0,{}]]]},{"name":"dense_Dense3992","class_name":"Dense","config":{"units":8,"activation":"relu","use_bias":true,"kernel_initializer":{"class_name":"VarianceScaling","config":{"scale":1,"mode":"fan_avg","distribution":"normal","seed":null}},"bias_initializer":{"class_name":"Zeros","config":{}},"kernel_regularizer":null,"bias_regularizer":null,"activity_regularizer":null,"kernel_constraint":null,"bias_constraint":null,"name":"dense_Dense3992","trainable":true},"inbound_nodes":[[["dense_Dense3991",0,0,{}]]]},{"name":"dense_Dense3993","class_name":"Dense","config":{"units":1,"activation":"relu","use_bias":true,"kernel_initializer":{"class_name":"VarianceScaling","config":{"scale":1,"mode":"fan_avg","distribution":"normal","seed":null}},"bias_initializer":{"class_name":"Zeros","config":{}},"kernel_regularizer":null,"bias_regularizer":null,"activity_regularizer":null,"kernel_constraint":null,"bias_constraint":null,"name":"dense_Dense3993","trainable":true},"inbound_nodes":[[["dense_Dense3992",0,0,{}]]]},{"name":"dense_Dense3994","class_name":"Dense","config":{"units":4,"activation":"relu","use_bias":true,"kernel_initializer":{"class_name":"VarianceScaling","config":{"scale":1,"mode":"fan_avg","distribution":"normal","seed":null}},"bias_initializer":{"class_name":"Zeros","config":{}},"kernel_regularizer":null,"bias_regularizer":null,"activity_regularizer":null,"kernel_constraint":null,"bias_constraint":null,"name":"dense_Dense3994","trainable":true},"inbound_nodes":[[["dense_Dense3993",0,0,{}]]]},{"name":"dense_Dense3995","class_name":"Dense","config":{"units":32,"activation":"relu","use_bias":true,"kernel_initializer":{"class_name":"VarianceScaling","config":{"scale":1,"mode":"fan_avg","distribution":"normal","seed":null}},"bias_initializer":{"class_name":"Zeros","config":{}},"kernel_regularizer":null,"bias_regularizer":null,"activity_regularizer":null,"kernel_constraint":null,"bias_constraint":null,"name":"dense_Dense3995","trainable":true},"inbound_nodes":[[["dense_Dense3994",0,0,{}]]]},{"name":"dense_Dense3996","class_name":"Dense","config":{"units":1,"activation":"sigmoid","use_bias":true,"kernel_initializer":{"class_name":"VarianceScaling","config":{"scale":1,"mode":"fan_avg","distribution":"normal","seed":null}},"bias_initializer":{"class_name":"Zeros","config":{}},"kernel_regularizer":null,"bias_regularizer":null,"activity_regularizer":null,"kernel_constraint":null,"bias_constraint":null,"name":"dense_Dense3996","trainable":true},"inbound_nodes":[[["dense_Dense3995",0,0,{}]]]}],"input_layers":[["input666",0,0]],"output_layers":[["dense_Dense3996",0,0]]},"keras_version":"tfjs-layers 3.9.0","backend":"tensor_flow.js"},"weightsManifest":[{"paths":["weights.bin"],"weights":[{"name":"dense_Dense3991/kernel","shape":[3,2],"dtype":"float32"},{"name":"dense_Dense3991/bias","shape":[2],"dtype":"float32"},{"name":"dense_Dense3992/kernel","shape":[2,8],"dtype":"float32"},{"name":"dense_Dense3992/bias","shape":[8],"dtype":"float32"},{"name":"dense_Dense3993/kernel","shape":[8,1],"dtype":"float32"},{"name":"dense_Dense3993/bias","shape":[1],"dtype":"float32"},{"name":"dense_Dense3994/kernel","shape":[1,4],"dtype":"float32"},{"name":"dense_Dense3994/bias","shape":[4],"dtype":"float32"},{"name":"dense_Dense3995/kernel","shape":[4,32],"dtype":"float32"},{"name":"dense_Dense3995/bias","shape":[32],"dtype":"float32"},{"name":"dense_Dense3996/kernel","shape":[32,1],"dtype":"float32"},{"name":"dense_Dense3996/bias","shape":[1],"dtype":"float32"}]}]}