{"modelTopology":{"class_name":"Model","config":{"name":"model174","layers":[{"name":"input174","class_name":"InputLayer","config":{"batch_input_shape":[null,3],"dtype":"float32","sparse":false,"name":"input174"},"inbound_nodes":[]},{"name":"dense_Dense693","class_name":"Dense","config":{"units":16,"activation":"relu","use_bias":true,"kernel_initializer":{"class_name":"VarianceScaling","config":{"scale":1,"mode":"fan_avg","distribution":"normal","seed":null}},"bias_initializer":{"class_name":"Zeros","config":{}},"kernel_regularizer":null,"bias_regularizer":null,"activity_regularizer":null,"kernel_constraint":null,"bias_constraint":null,"name":"dense_Dense693","trainable":true},"inbound_nodes":[[["input174",0,0,{}]]]},{"name":"dense_Dense694","class_name":"Dense","config":{"units":16,"activation":"relu","use_bias":true,"kernel_initializer":{"class_name":"VarianceScaling","config":{"scale":1,"mode":"fan_avg","distribution":"normal","seed":null}},"bias_initializer":{"class_name":"Zeros","config":{}},"kernel_regularizer":null,"bias_regularizer":null,"activity_regularizer":null,"kernel_constraint":null,"bias_constraint":null,"name":"dense_Dense694","trainable":true},"inbound_nodes":[[["dense_Dense693",0,0,{}]]]},{"name":"dense_Dense695","class_name":"Dense","config":{"units":32,"activation":"relu","use_bias":true,"kernel_initializer":{"class_name":"VarianceScaling","config":{"scale":1,"mode":"fan_avg","distribution":"normal","seed":null}},"bias_initializer":{"class_name":"Zeros","config":{}},"kernel_regularizer":null,"bias_regularizer":null,"activity_regularizer":null,"kernel_constraint":null,"bias_constraint":null,"name":"dense_Dense695","trainable":true},"inbound_nodes":[[["dense_Dense694",0,0,{}]]]},{"name":"dense_Dense696","class_name":"Dense","config":{"units":1,"activation":"sigmoid","use_bias":true,"kernel_initializer":{"class_name":"VarianceScaling","config":{"scale":1,"mode":"fan_avg","distribution":"normal","seed":null}},"bias_initializer":{"class_name":"Zeros","config":{}},"kernel_regularizer":null,"bias_regularizer":null,"activity_regularizer":null,"kernel_constraint":null,"bias_constraint":null,"name":"dense_Dense696","trainable":true},"inbound_nodes":[[["dense_Dense695",0,0,{}]]]}],"input_layers":[["input174",0,0]],"output_layers":[["dense_Dense696",0,0]]},"keras_version":"tfjs-layers 3.9.0","backend":"tensor_flow.js"},"weightsManifest":[{"paths":["weights.bin"],"weights":[{"name":"dense_Dense693/kernel","shape":[3,16],"dtype":"float32"},{"name":"dense_Dense693/bias","shape":[16],"dtype":"float32"},{"name":"dense_Dense694/kernel","shape":[16,16],"dtype":"float32"},{"name":"dense_Dense694/bias","shape":[16],"dtype":"float32"},{"name":"dense_Dense695/kernel","shape":[16,32],"dtype":"float32"},{"name":"dense_Dense695/bias","shape":[32],"dtype":"float32"},{"name":"dense_Dense696/kernel","shape":[32,1],"dtype":"float32"},{"name":"dense_Dense696/bias","shape":[1],"dtype":"float32"}]}]}