{"modelTopology":{"class_name":"Model","config":{"name":"model9","layers":[{"name":"input9","class_name":"InputLayer","config":{"batch_input_shape":[null,3],"dtype":"float32","sparse":false,"name":"input9"},"inbound_nodes":[]},{"name":"dense_Dense41","class_name":"Dense","config":{"units":1,"activation":"relu","use_bias":true,"kernel_initializer":{"class_name":"VarianceScaling","config":{"scale":1,"mode":"fan_avg","distribution":"normal","seed":null}},"bias_initializer":{"class_name":"Zeros","config":{}},"kernel_regularizer":null,"bias_regularizer":null,"activity_regularizer":null,"kernel_constraint":null,"bias_constraint":null,"name":"dense_Dense41","trainable":true},"inbound_nodes":[[["input9",0,0,{}]]]},{"name":"dense_Dense42","class_name":"Dense","config":{"units":1,"activation":"relu","use_bias":true,"kernel_initializer":{"class_name":"VarianceScaling","config":{"scale":1,"mode":"fan_avg","distribution":"normal","seed":null}},"bias_initializer":{"class_name":"Zeros","config":{}},"kernel_regularizer":null,"bias_regularizer":null,"activity_regularizer":null,"kernel_constraint":null,"bias_constraint":null,"name":"dense_Dense42","trainable":true},"inbound_nodes":[[["dense_Dense41",0,0,{}]]]},{"name":"dense_Dense43","class_name":"Dense","config":{"units":2,"activation":"relu","use_bias":true,"kernel_initializer":{"class_name":"VarianceScaling","config":{"scale":1,"mode":"fan_avg","distribution":"normal","seed":null}},"bias_initializer":{"class_name":"Zeros","config":{}},"kernel_regularizer":null,"bias_regularizer":null,"activity_regularizer":null,"kernel_constraint":null,"bias_constraint":null,"name":"dense_Dense43","trainable":true},"inbound_nodes":[[["dense_Dense42",0,0,{}]]]},{"name":"dense_Dense44","class_name":"Dense","config":{"units":4,"activation":"relu","use_bias":true,"kernel_initializer":{"class_name":"VarianceScaling","config":{"scale":1,"mode":"fan_avg","distribution":"normal","seed":null}},"bias_initializer":{"class_name":"Zeros","config":{}},"kernel_regularizer":null,"bias_regularizer":null,"activity_regularizer":null,"kernel_constraint":null,"bias_constraint":null,"name":"dense_Dense44","trainable":true},"inbound_nodes":[[["dense_Dense43",0,0,{}]]]},{"name":"dense_Dense45","class_name":"Dense","config":{"units":1,"activation":"sigmoid","use_bias":true,"kernel_initializer":{"class_name":"VarianceScaling","config":{"scale":1,"mode":"fan_avg","distribution":"normal","seed":null}},"bias_initializer":{"class_name":"Zeros","config":{}},"kernel_regularizer":null,"bias_regularizer":null,"activity_regularizer":null,"kernel_constraint":null,"bias_constraint":null,"name":"dense_Dense45","trainable":true},"inbound_nodes":[[["dense_Dense44",0,0,{}]]]}],"input_layers":[["input9",0,0]],"output_layers":[["dense_Dense45",0,0]]},"keras_version":"tfjs-layers 3.9.0","backend":"tensor_flow.js"},"weightsManifest":[{"paths":["weights.bin"],"weights":[{"name":"dense_Dense41/kernel","shape":[3,1],"dtype":"float32"},{"name":"dense_Dense41/bias","shape":[1],"dtype":"float32"},{"name":"dense_Dense42/kernel","shape":[1,1],"dtype":"float32"},{"name":"dense_Dense42/bias","shape":[1],"dtype":"float32"},{"name":"dense_Dense43/kernel","shape":[1,2],"dtype":"float32"},{"name":"dense_Dense43/bias","shape":[2],"dtype":"float32"},{"name":"dense_Dense44/kernel","shape":[2,4],"dtype":"float32"},{"name":"dense_Dense44/bias","shape":[4],"dtype":"float32"},{"name":"dense_Dense45/kernel","shape":[4,1],"dtype":"float32"},{"name":"dense_Dense45/bias","shape":[1],"dtype":"float32"}]}]}