{"modelTopology":{"class_name":"Model","config":{"name":"model746","layers":[{"name":"input746","class_name":"InputLayer","config":{"batch_input_shape":[null,3],"dtype":"float32","sparse":false,"name":"input746"},"inbound_nodes":[]},{"name":"dense_Dense4471","class_name":"Dense","config":{"units":16,"activation":"relu","use_bias":true,"kernel_initializer":{"class_name":"VarianceScaling","config":{"scale":1,"mode":"fan_avg","distribution":"normal","seed":null}},"bias_initializer":{"class_name":"Zeros","config":{}},"kernel_regularizer":null,"bias_regularizer":null,"activity_regularizer":null,"kernel_constraint":null,"bias_constraint":null,"name":"dense_Dense4471","trainable":true},"inbound_nodes":[[["input746",0,0,{}]]]},{"name":"dense_Dense4472","class_name":"Dense","config":{"units":8,"activation":"relu","use_bias":true,"kernel_initializer":{"class_name":"VarianceScaling","config":{"scale":1,"mode":"fan_avg","distribution":"normal","seed":null}},"bias_initializer":{"class_name":"Zeros","config":{}},"kernel_regularizer":null,"bias_regularizer":null,"activity_regularizer":null,"kernel_constraint":null,"bias_constraint":null,"name":"dense_Dense4472","trainable":true},"inbound_nodes":[[["dense_Dense4471",0,0,{}]]]},{"name":"dense_Dense4473","class_name":"Dense","config":{"units":4,"activation":"relu","use_bias":true,"kernel_initializer":{"class_name":"VarianceScaling","config":{"scale":1,"mode":"fan_avg","distribution":"normal","seed":null}},"bias_initializer":{"class_name":"Zeros","config":{}},"kernel_regularizer":null,"bias_regularizer":null,"activity_regularizer":null,"kernel_constraint":null,"bias_constraint":null,"name":"dense_Dense4473","trainable":true},"inbound_nodes":[[["dense_Dense4472",0,0,{}]]]},{"name":"dense_Dense4474","class_name":"Dense","config":{"units":16,"activation":"relu","use_bias":true,"kernel_initializer":{"class_name":"VarianceScaling","config":{"scale":1,"mode":"fan_avg","distribution":"normal","seed":null}},"bias_initializer":{"class_name":"Zeros","config":{}},"kernel_regularizer":null,"bias_regularizer":null,"activity_regularizer":null,"kernel_constraint":null,"bias_constraint":null,"name":"dense_Dense4474","trainable":true},"inbound_nodes":[[["dense_Dense4473",0,0,{}]]]},{"name":"dense_Dense4475","class_name":"Dense","config":{"units":2,"activation":"relu","use_bias":true,"kernel_initializer":{"class_name":"VarianceScaling","config":{"scale":1,"mode":"fan_avg","distribution":"normal","seed":null}},"bias_initializer":{"class_name":"Zeros","config":{}},"kernel_regularizer":null,"bias_regularizer":null,"activity_regularizer":null,"kernel_constraint":null,"bias_constraint":null,"name":"dense_Dense4475","trainable":true},"inbound_nodes":[[["dense_Dense4474",0,0,{}]]]},{"name":"dense_Dense4476","class_name":"Dense","config":{"units":1,"activation":"sigmoid","use_bias":true,"kernel_initializer":{"class_name":"VarianceScaling","config":{"scale":1,"mode":"fan_avg","distribution":"normal","seed":null}},"bias_initializer":{"class_name":"Zeros","config":{}},"kernel_regularizer":null,"bias_regularizer":null,"activity_regularizer":null,"kernel_constraint":null,"bias_constraint":null,"name":"dense_Dense4476","trainable":true},"inbound_nodes":[[["dense_Dense4475",0,0,{}]]]}],"input_layers":[["input746",0,0]],"output_layers":[["dense_Dense4476",0,0]]},"keras_version":"tfjs-layers 3.9.0","backend":"tensor_flow.js"},"weightsManifest":[{"paths":["weights.bin"],"weights":[{"name":"dense_Dense4471/kernel","shape":[3,16],"dtype":"float32"},{"name":"dense_Dense4471/bias","shape":[16],"dtype":"float32"},{"name":"dense_Dense4472/kernel","shape":[16,8],"dtype":"float32"},{"name":"dense_Dense4472/bias","shape":[8],"dtype":"float32"},{"name":"dense_Dense4473/kernel","shape":[8,4],"dtype":"float32"},{"name":"dense_Dense4473/bias","shape":[4],"dtype":"float32"},{"name":"dense_Dense4474/kernel","shape":[4,16],"dtype":"float32"},{"name":"dense_Dense4474/bias","shape":[16],"dtype":"float32"},{"name":"dense_Dense4475/kernel","shape":[16,2],"dtype":"float32"},{"name":"dense_Dense4475/bias","shape":[2],"dtype":"float32"},{"name":"dense_Dense4476/kernel","shape":[2,1],"dtype":"float32"},{"name":"dense_Dense4476/bias","shape":[1],"dtype":"float32"}]}]}