{"modelTopology":{"class_name":"Model","config":{"name":"model775","layers":[{"name":"input775","class_name":"InputLayer","config":{"batch_input_shape":[null,3],"dtype":"float32","sparse":false,"name":"input775"},"inbound_nodes":[]},{"name":"dense_Dense4645","class_name":"Dense","config":{"units":4,"activation":"relu","use_bias":true,"kernel_initializer":{"class_name":"VarianceScaling","config":{"scale":1,"mode":"fan_avg","distribution":"normal","seed":null}},"bias_initializer":{"class_name":"Zeros","config":{}},"kernel_regularizer":null,"bias_regularizer":null,"activity_regularizer":null,"kernel_constraint":null,"bias_constraint":null,"name":"dense_Dense4645","trainable":true},"inbound_nodes":[[["input775",0,0,{}]]]},{"name":"dense_Dense4646","class_name":"Dense","config":{"units":8,"activation":"relu","use_bias":true,"kernel_initializer":{"class_name":"VarianceScaling","config":{"scale":1,"mode":"fan_avg","distribution":"normal","seed":null}},"bias_initializer":{"class_name":"Zeros","config":{}},"kernel_regularizer":null,"bias_regularizer":null,"activity_regularizer":null,"kernel_constraint":null,"bias_constraint":null,"name":"dense_Dense4646","trainable":true},"inbound_nodes":[[["dense_Dense4645",0,0,{}]]]},{"name":"dense_Dense4647","class_name":"Dense","config":{"units":8,"activation":"relu","use_bias":true,"kernel_initializer":{"class_name":"VarianceScaling","config":{"scale":1,"mode":"fan_avg","distribution":"normal","seed":null}},"bias_initializer":{"class_name":"Zeros","config":{}},"kernel_regularizer":null,"bias_regularizer":null,"activity_regularizer":null,"kernel_constraint":null,"bias_constraint":null,"name":"dense_Dense4647","trainable":true},"inbound_nodes":[[["dense_Dense4646",0,0,{}]]]},{"name":"dense_Dense4648","class_name":"Dense","config":{"units":8,"activation":"relu","use_bias":true,"kernel_initializer":{"class_name":"VarianceScaling","config":{"scale":1,"mode":"fan_avg","distribution":"normal","seed":null}},"bias_initializer":{"class_name":"Zeros","config":{}},"kernel_regularizer":null,"bias_regularizer":null,"activity_regularizer":null,"kernel_constraint":null,"bias_constraint":null,"name":"dense_Dense4648","trainable":true},"inbound_nodes":[[["dense_Dense4647",0,0,{}]]]},{"name":"dense_Dense4649","class_name":"Dense","config":{"units":1,"activation":"relu","use_bias":true,"kernel_initializer":{"class_name":"VarianceScaling","config":{"scale":1,"mode":"fan_avg","distribution":"normal","seed":null}},"bias_initializer":{"class_name":"Zeros","config":{}},"kernel_regularizer":null,"bias_regularizer":null,"activity_regularizer":null,"kernel_constraint":null,"bias_constraint":null,"name":"dense_Dense4649","trainable":true},"inbound_nodes":[[["dense_Dense4648",0,0,{}]]]},{"name":"dense_Dense4650","class_name":"Dense","config":{"units":1,"activation":"sigmoid","use_bias":true,"kernel_initializer":{"class_name":"VarianceScaling","config":{"scale":1,"mode":"fan_avg","distribution":"normal","seed":null}},"bias_initializer":{"class_name":"Zeros","config":{}},"kernel_regularizer":null,"bias_regularizer":null,"activity_regularizer":null,"kernel_constraint":null,"bias_constraint":null,"name":"dense_Dense4650","trainable":true},"inbound_nodes":[[["dense_Dense4649",0,0,{}]]]}],"input_layers":[["input775",0,0]],"output_layers":[["dense_Dense4650",0,0]]},"keras_version":"tfjs-layers 3.9.0","backend":"tensor_flow.js"},"weightsManifest":[{"paths":["weights.bin"],"weights":[{"name":"dense_Dense4645/kernel","shape":[3,4],"dtype":"float32"},{"name":"dense_Dense4645/bias","shape":[4],"dtype":"float32"},{"name":"dense_Dense4646/kernel","shape":[4,8],"dtype":"float32"},{"name":"dense_Dense4646/bias","shape":[8],"dtype":"float32"},{"name":"dense_Dense4647/kernel","shape":[8,8],"dtype":"float32"},{"name":"dense_Dense4647/bias","shape":[8],"dtype":"float32"},{"name":"dense_Dense4648/kernel","shape":[8,8],"dtype":"float32"},{"name":"dense_Dense4648/bias","shape":[8],"dtype":"float32"},{"name":"dense_Dense4649/kernel","shape":[8,1],"dtype":"float32"},{"name":"dense_Dense4649/bias","shape":[1],"dtype":"float32"},{"name":"dense_Dense4650/kernel","shape":[1,1],"dtype":"float32"},{"name":"dense_Dense4650/bias","shape":[1],"dtype":"float32"}]}]}