{"modelTopology":{"class_name":"Model","config":{"name":"model33","layers":[{"name":"input33","class_name":"InputLayer","config":{"batch_input_shape":[null,3],"dtype":"float32","sparse":false,"name":"input33"},"inbound_nodes":[]},{"name":"dense_Dense161","class_name":"Dense","config":{"units":1,"activation":"relu","use_bias":true,"kernel_initializer":{"class_name":"VarianceScaling","config":{"scale":1,"mode":"fan_avg","distribution":"normal","seed":null}},"bias_initializer":{"class_name":"Zeros","config":{}},"kernel_regularizer":null,"bias_regularizer":null,"activity_regularizer":null,"kernel_constraint":null,"bias_constraint":null,"name":"dense_Dense161","trainable":true},"inbound_nodes":[[["input33",0,0,{}]]]},{"name":"dense_Dense162","class_name":"Dense","config":{"units":1,"activation":"relu","use_bias":true,"kernel_initializer":{"class_name":"VarianceScaling","config":{"scale":1,"mode":"fan_avg","distribution":"normal","seed":null}},"bias_initializer":{"class_name":"Zeros","config":{}},"kernel_regularizer":null,"bias_regularizer":null,"activity_regularizer":null,"kernel_constraint":null,"bias_constraint":null,"name":"dense_Dense162","trainable":true},"inbound_nodes":[[["dense_Dense161",0,0,{}]]]},{"name":"dense_Dense163","class_name":"Dense","config":{"units":32,"activation":"relu","use_bias":true,"kernel_initializer":{"class_name":"VarianceScaling","config":{"scale":1,"mode":"fan_avg","distribution":"normal","seed":null}},"bias_initializer":{"class_name":"Zeros","config":{}},"kernel_regularizer":null,"bias_regularizer":null,"activity_regularizer":null,"kernel_constraint":null,"bias_constraint":null,"name":"dense_Dense163","trainable":true},"inbound_nodes":[[["dense_Dense162",0,0,{}]]]},{"name":"dense_Dense164","class_name":"Dense","config":{"units":4,"activation":"relu","use_bias":true,"kernel_initializer":{"class_name":"VarianceScaling","config":{"scale":1,"mode":"fan_avg","distribution":"normal","seed":null}},"bias_initializer":{"class_name":"Zeros","config":{}},"kernel_regularizer":null,"bias_regularizer":null,"activity_regularizer":null,"kernel_constraint":null,"bias_constraint":null,"name":"dense_Dense164","trainable":true},"inbound_nodes":[[["dense_Dense163",0,0,{}]]]},{"name":"dense_Dense165","class_name":"Dense","config":{"units":1,"activation":"sigmoid","use_bias":true,"kernel_initializer":{"class_name":"VarianceScaling","config":{"scale":1,"mode":"fan_avg","distribution":"normal","seed":null}},"bias_initializer":{"class_name":"Zeros","config":{}},"kernel_regularizer":null,"bias_regularizer":null,"activity_regularizer":null,"kernel_constraint":null,"bias_constraint":null,"name":"dense_Dense165","trainable":true},"inbound_nodes":[[["dense_Dense164",0,0,{}]]]}],"input_layers":[["input33",0,0]],"output_layers":[["dense_Dense165",0,0]]},"keras_version":"tfjs-layers 3.9.0","backend":"tensor_flow.js"},"weightsManifest":[{"paths":["weights.bin"],"weights":[{"name":"dense_Dense161/kernel","shape":[3,1],"dtype":"float32"},{"name":"dense_Dense161/bias","shape":[1],"dtype":"float32"},{"name":"dense_Dense162/kernel","shape":[1,1],"dtype":"float32"},{"name":"dense_Dense162/bias","shape":[1],"dtype":"float32"},{"name":"dense_Dense163/kernel","shape":[1,32],"dtype":"float32"},{"name":"dense_Dense163/bias","shape":[32],"dtype":"float32"},{"name":"dense_Dense164/kernel","shape":[32,4],"dtype":"float32"},{"name":"dense_Dense164/bias","shape":[4],"dtype":"float32"},{"name":"dense_Dense165/kernel","shape":[4,1],"dtype":"float32"},{"name":"dense_Dense165/bias","shape":[1],"dtype":"float32"}]}]}