{"modelTopology":{"class_name":"Model","config":{"name":"model32","layers":[{"name":"input32","class_name":"InputLayer","config":{"batch_input_shape":[null,3],"dtype":"float32","sparse":false,"name":"input32"},"inbound_nodes":[]},{"name":"dense_Dense125","class_name":"Dense","config":{"units":1,"activation":"relu","use_bias":true,"kernel_initializer":{"class_name":"VarianceScaling","config":{"scale":1,"mode":"fan_avg","distribution":"normal","seed":null}},"bias_initializer":{"class_name":"Zeros","config":{}},"kernel_regularizer":null,"bias_regularizer":null,"activity_regularizer":null,"kernel_constraint":null,"bias_constraint":null,"name":"dense_Dense125","trainable":true},"inbound_nodes":[[["input32",0,0,{}]]]},{"name":"dense_Dense126","class_name":"Dense","config":{"units":32,"activation":"relu","use_bias":true,"kernel_initializer":{"class_name":"VarianceScaling","config":{"scale":1,"mode":"fan_avg","distribution":"normal","seed":null}},"bias_initializer":{"class_name":"Zeros","config":{}},"kernel_regularizer":null,"bias_regularizer":null,"activity_regularizer":null,"kernel_constraint":null,"bias_constraint":null,"name":"dense_Dense126","trainable":true},"inbound_nodes":[[["dense_Dense125",0,0,{}]]]},{"name":"dense_Dense127","class_name":"Dense","config":{"units":2,"activation":"relu","use_bias":true,"kernel_initializer":{"class_name":"VarianceScaling","config":{"scale":1,"mode":"fan_avg","distribution":"normal","seed":null}},"bias_initializer":{"class_name":"Zeros","config":{}},"kernel_regularizer":null,"bias_regularizer":null,"activity_regularizer":null,"kernel_constraint":null,"bias_constraint":null,"name":"dense_Dense127","trainable":true},"inbound_nodes":[[["dense_Dense126",0,0,{}]]]},{"name":"dense_Dense128","class_name":"Dense","config":{"units":1,"activation":"sigmoid","use_bias":true,"kernel_initializer":{"class_name":"VarianceScaling","config":{"scale":1,"mode":"fan_avg","distribution":"normal","seed":null}},"bias_initializer":{"class_name":"Zeros","config":{}},"kernel_regularizer":null,"bias_regularizer":null,"activity_regularizer":null,"kernel_constraint":null,"bias_constraint":null,"name":"dense_Dense128","trainable":true},"inbound_nodes":[[["dense_Dense127",0,0,{}]]]}],"input_layers":[["input32",0,0]],"output_layers":[["dense_Dense128",0,0]]},"keras_version":"tfjs-layers 3.9.0","backend":"tensor_flow.js"},"weightsManifest":[{"paths":["weights.bin"],"weights":[{"name":"dense_Dense125/kernel","shape":[3,1],"dtype":"float32"},{"name":"dense_Dense125/bias","shape":[1],"dtype":"float32"},{"name":"dense_Dense126/kernel","shape":[1,32],"dtype":"float32"},{"name":"dense_Dense126/bias","shape":[32],"dtype":"float32"},{"name":"dense_Dense127/kernel","shape":[32,2],"dtype":"float32"},{"name":"dense_Dense127/bias","shape":[2],"dtype":"float32"},{"name":"dense_Dense128/kernel","shape":[2,1],"dtype":"float32"},{"name":"dense_Dense128/bias","shape":[1],"dtype":"float32"}]}]}