{"modelTopology":{"class_name":"Model","config":{"name":"model692","layers":[{"name":"input692","class_name":"InputLayer","config":{"batch_input_shape":[null,3],"dtype":"float32","sparse":false,"name":"input692"},"inbound_nodes":[]},{"name":"dense_Dense4147","class_name":"Dense","config":{"units":32,"activation":"relu","use_bias":true,"kernel_initializer":{"class_name":"VarianceScaling","config":{"scale":1,"mode":"fan_avg","distribution":"normal","seed":null}},"bias_initializer":{"class_name":"Zeros","config":{}},"kernel_regularizer":null,"bias_regularizer":null,"activity_regularizer":null,"kernel_constraint":null,"bias_constraint":null,"name":"dense_Dense4147","trainable":true},"inbound_nodes":[[["input692",0,0,{}]]]},{"name":"dense_Dense4148","class_name":"Dense","config":{"units":8,"activation":"relu","use_bias":true,"kernel_initializer":{"class_name":"VarianceScaling","config":{"scale":1,"mode":"fan_avg","distribution":"normal","seed":null}},"bias_initializer":{"class_name":"Zeros","config":{}},"kernel_regularizer":null,"bias_regularizer":null,"activity_regularizer":null,"kernel_constraint":null,"bias_constraint":null,"name":"dense_Dense4148","trainable":true},"inbound_nodes":[[["dense_Dense4147",0,0,{}]]]},{"name":"dense_Dense4149","class_name":"Dense","config":{"units":2,"activation":"relu","use_bias":true,"kernel_initializer":{"class_name":"VarianceScaling","config":{"scale":1,"mode":"fan_avg","distribution":"normal","seed":null}},"bias_initializer":{"class_name":"Zeros","config":{}},"kernel_regularizer":null,"bias_regularizer":null,"activity_regularizer":null,"kernel_constraint":null,"bias_constraint":null,"name":"dense_Dense4149","trainable":true},"inbound_nodes":[[["dense_Dense4148",0,0,{}]]]},{"name":"dense_Dense4150","class_name":"Dense","config":{"units":2,"activation":"relu","use_bias":true,"kernel_initializer":{"class_name":"VarianceScaling","config":{"scale":1,"mode":"fan_avg","distribution":"normal","seed":null}},"bias_initializer":{"class_name":"Zeros","config":{}},"kernel_regularizer":null,"bias_regularizer":null,"activity_regularizer":null,"kernel_constraint":null,"bias_constraint":null,"name":"dense_Dense4150","trainable":true},"inbound_nodes":[[["dense_Dense4149",0,0,{}]]]},{"name":"dense_Dense4151","class_name":"Dense","config":{"units":2,"activation":"relu","use_bias":true,"kernel_initializer":{"class_name":"VarianceScaling","config":{"scale":1,"mode":"fan_avg","distribution":"normal","seed":null}},"bias_initializer":{"class_name":"Zeros","config":{}},"kernel_regularizer":null,"bias_regularizer":null,"activity_regularizer":null,"kernel_constraint":null,"bias_constraint":null,"name":"dense_Dense4151","trainable":true},"inbound_nodes":[[["dense_Dense4150",0,0,{}]]]},{"name":"dense_Dense4152","class_name":"Dense","config":{"units":1,"activation":"sigmoid","use_bias":true,"kernel_initializer":{"class_name":"VarianceScaling","config":{"scale":1,"mode":"fan_avg","distribution":"normal","seed":null}},"bias_initializer":{"class_name":"Zeros","config":{}},"kernel_regularizer":null,"bias_regularizer":null,"activity_regularizer":null,"kernel_constraint":null,"bias_constraint":null,"name":"dense_Dense4152","trainable":true},"inbound_nodes":[[["dense_Dense4151",0,0,{}]]]}],"input_layers":[["input692",0,0]],"output_layers":[["dense_Dense4152",0,0]]},"keras_version":"tfjs-layers 3.9.0","backend":"tensor_flow.js"},"weightsManifest":[{"paths":["weights.bin"],"weights":[{"name":"dense_Dense4147/kernel","shape":[3,32],"dtype":"float32"},{"name":"dense_Dense4147/bias","shape":[32],"dtype":"float32"},{"name":"dense_Dense4148/kernel","shape":[32,8],"dtype":"float32"},{"name":"dense_Dense4148/bias","shape":[8],"dtype":"float32"},{"name":"dense_Dense4149/kernel","shape":[8,2],"dtype":"float32"},{"name":"dense_Dense4149/bias","shape":[2],"dtype":"float32"},{"name":"dense_Dense4150/kernel","shape":[2,2],"dtype":"float32"},{"name":"dense_Dense4150/bias","shape":[2],"dtype":"float32"},{"name":"dense_Dense4151/kernel","shape":[2,2],"dtype":"float32"},{"name":"dense_Dense4151/bias","shape":[2],"dtype":"float32"},{"name":"dense_Dense4152/kernel","shape":[2,1],"dtype":"float32"},{"name":"dense_Dense4152/bias","shape":[1],"dtype":"float32"}]}]}