{"modelTopology":{"class_name":"Model","config":{"name":"model624","layers":[{"name":"input624","class_name":"InputLayer","config":{"batch_input_shape":[null,3],"dtype":"float32","sparse":false,"name":"input624"},"inbound_nodes":[]},{"name":"dense_Dense3739","class_name":"Dense","config":{"units":4,"activation":"relu","use_bias":true,"kernel_initializer":{"class_name":"VarianceScaling","config":{"scale":1,"mode":"fan_avg","distribution":"normal","seed":null}},"bias_initializer":{"class_name":"Zeros","config":{}},"kernel_regularizer":null,"bias_regularizer":null,"activity_regularizer":null,"kernel_constraint":null,"bias_constraint":null,"name":"dense_Dense3739","trainable":true},"inbound_nodes":[[["input624",0,0,{}]]]},{"name":"dense_Dense3740","class_name":"Dense","config":{"units":4,"activation":"relu","use_bias":true,"kernel_initializer":{"class_name":"VarianceScaling","config":{"scale":1,"mode":"fan_avg","distribution":"normal","seed":null}},"bias_initializer":{"class_name":"Zeros","config":{}},"kernel_regularizer":null,"bias_regularizer":null,"activity_regularizer":null,"kernel_constraint":null,"bias_constraint":null,"name":"dense_Dense3740","trainable":true},"inbound_nodes":[[["dense_Dense3739",0,0,{}]]]},{"name":"dense_Dense3741","class_name":"Dense","config":{"units":32,"activation":"relu","use_bias":true,"kernel_initializer":{"class_name":"VarianceScaling","config":{"scale":1,"mode":"fan_avg","distribution":"normal","seed":null}},"bias_initializer":{"class_name":"Zeros","config":{}},"kernel_regularizer":null,"bias_regularizer":null,"activity_regularizer":null,"kernel_constraint":null,"bias_constraint":null,"name":"dense_Dense3741","trainable":true},"inbound_nodes":[[["dense_Dense3740",0,0,{}]]]},{"name":"dense_Dense3742","class_name":"Dense","config":{"units":2,"activation":"relu","use_bias":true,"kernel_initializer":{"class_name":"VarianceScaling","config":{"scale":1,"mode":"fan_avg","distribution":"normal","seed":null}},"bias_initializer":{"class_name":"Zeros","config":{}},"kernel_regularizer":null,"bias_regularizer":null,"activity_regularizer":null,"kernel_constraint":null,"bias_constraint":null,"name":"dense_Dense3742","trainable":true},"inbound_nodes":[[["dense_Dense3741",0,0,{}]]]},{"name":"dense_Dense3743","class_name":"Dense","config":{"units":32,"activation":"relu","use_bias":true,"kernel_initializer":{"class_name":"VarianceScaling","config":{"scale":1,"mode":"fan_avg","distribution":"normal","seed":null}},"bias_initializer":{"class_name":"Zeros","config":{}},"kernel_regularizer":null,"bias_regularizer":null,"activity_regularizer":null,"kernel_constraint":null,"bias_constraint":null,"name":"dense_Dense3743","trainable":true},"inbound_nodes":[[["dense_Dense3742",0,0,{}]]]},{"name":"dense_Dense3744","class_name":"Dense","config":{"units":1,"activation":"sigmoid","use_bias":true,"kernel_initializer":{"class_name":"VarianceScaling","config":{"scale":1,"mode":"fan_avg","distribution":"normal","seed":null}},"bias_initializer":{"class_name":"Zeros","config":{}},"kernel_regularizer":null,"bias_regularizer":null,"activity_regularizer":null,"kernel_constraint":null,"bias_constraint":null,"name":"dense_Dense3744","trainable":true},"inbound_nodes":[[["dense_Dense3743",0,0,{}]]]}],"input_layers":[["input624",0,0]],"output_layers":[["dense_Dense3744",0,0]]},"keras_version":"tfjs-layers 3.9.0","backend":"tensor_flow.js"},"weightsManifest":[{"paths":["weights.bin"],"weights":[{"name":"dense_Dense3739/kernel","shape":[3,4],"dtype":"float32"},{"name":"dense_Dense3739/bias","shape":[4],"dtype":"float32"},{"name":"dense_Dense3740/kernel","shape":[4,4],"dtype":"float32"},{"name":"dense_Dense3740/bias","shape":[4],"dtype":"float32"},{"name":"dense_Dense3741/kernel","shape":[4,32],"dtype":"float32"},{"name":"dense_Dense3741/bias","shape":[32],"dtype":"float32"},{"name":"dense_Dense3742/kernel","shape":[32,2],"dtype":"float32"},{"name":"dense_Dense3742/bias","shape":[2],"dtype":"float32"},{"name":"dense_Dense3743/kernel","shape":[2,32],"dtype":"float32"},{"name":"dense_Dense3743/bias","shape":[32],"dtype":"float32"},{"name":"dense_Dense3744/kernel","shape":[32,1],"dtype":"float32"},{"name":"dense_Dense3744/bias","shape":[1],"dtype":"float32"}]}]}