{"modelTopology":{"class_name":"Model","config":{"name":"model457","layers":[{"name":"input457","class_name":"InputLayer","config":{"batch_input_shape":[null,3],"dtype":"float32","sparse":false,"name":"input457"},"inbound_nodes":[]},{"name":"dense_Dense2737","class_name":"Dense","config":{"units":16,"activation":"relu","use_bias":true,"kernel_initializer":{"class_name":"VarianceScaling","config":{"scale":1,"mode":"fan_avg","distribution":"normal","seed":null}},"bias_initializer":{"class_name":"Zeros","config":{}},"kernel_regularizer":null,"bias_regularizer":null,"activity_regularizer":null,"kernel_constraint":null,"bias_constraint":null,"name":"dense_Dense2737","trainable":true},"inbound_nodes":[[["input457",0,0,{}]]]},{"name":"dense_Dense2738","class_name":"Dense","config":{"units":4,"activation":"relu","use_bias":true,"kernel_initializer":{"class_name":"VarianceScaling","config":{"scale":1,"mode":"fan_avg","distribution":"normal","seed":null}},"bias_initializer":{"class_name":"Zeros","config":{}},"kernel_regularizer":null,"bias_regularizer":null,"activity_regularizer":null,"kernel_constraint":null,"bias_constraint":null,"name":"dense_Dense2738","trainable":true},"inbound_nodes":[[["dense_Dense2737",0,0,{}]]]},{"name":"dense_Dense2739","class_name":"Dense","config":{"units":1,"activation":"relu","use_bias":true,"kernel_initializer":{"class_name":"VarianceScaling","config":{"scale":1,"mode":"fan_avg","distribution":"normal","seed":null}},"bias_initializer":{"class_name":"Zeros","config":{}},"kernel_regularizer":null,"bias_regularizer":null,"activity_regularizer":null,"kernel_constraint":null,"bias_constraint":null,"name":"dense_Dense2739","trainable":true},"inbound_nodes":[[["dense_Dense2738",0,0,{}]]]},{"name":"dense_Dense2740","class_name":"Dense","config":{"units":16,"activation":"relu","use_bias":true,"kernel_initializer":{"class_name":"VarianceScaling","config":{"scale":1,"mode":"fan_avg","distribution":"normal","seed":null}},"bias_initializer":{"class_name":"Zeros","config":{}},"kernel_regularizer":null,"bias_regularizer":null,"activity_regularizer":null,"kernel_constraint":null,"bias_constraint":null,"name":"dense_Dense2740","trainable":true},"inbound_nodes":[[["dense_Dense2739",0,0,{}]]]},{"name":"dense_Dense2741","class_name":"Dense","config":{"units":1,"activation":"relu","use_bias":true,"kernel_initializer":{"class_name":"VarianceScaling","config":{"scale":1,"mode":"fan_avg","distribution":"normal","seed":null}},"bias_initializer":{"class_name":"Zeros","config":{}},"kernel_regularizer":null,"bias_regularizer":null,"activity_regularizer":null,"kernel_constraint":null,"bias_constraint":null,"name":"dense_Dense2741","trainable":true},"inbound_nodes":[[["dense_Dense2740",0,0,{}]]]},{"name":"dense_Dense2742","class_name":"Dense","config":{"units":1,"activation":"sigmoid","use_bias":true,"kernel_initializer":{"class_name":"VarianceScaling","config":{"scale":1,"mode":"fan_avg","distribution":"normal","seed":null}},"bias_initializer":{"class_name":"Zeros","config":{}},"kernel_regularizer":null,"bias_regularizer":null,"activity_regularizer":null,"kernel_constraint":null,"bias_constraint":null,"name":"dense_Dense2742","trainable":true},"inbound_nodes":[[["dense_Dense2741",0,0,{}]]]}],"input_layers":[["input457",0,0]],"output_layers":[["dense_Dense2742",0,0]]},"keras_version":"tfjs-layers 3.9.0","backend":"tensor_flow.js"},"weightsManifest":[{"paths":["weights.bin"],"weights":[{"name":"dense_Dense2737/kernel","shape":[3,16],"dtype":"float32"},{"name":"dense_Dense2737/bias","shape":[16],"dtype":"float32"},{"name":"dense_Dense2738/kernel","shape":[16,4],"dtype":"float32"},{"name":"dense_Dense2738/bias","shape":[4],"dtype":"float32"},{"name":"dense_Dense2739/kernel","shape":[4,1],"dtype":"float32"},{"name":"dense_Dense2739/bias","shape":[1],"dtype":"float32"},{"name":"dense_Dense2740/kernel","shape":[1,16],"dtype":"float32"},{"name":"dense_Dense2740/bias","shape":[16],"dtype":"float32"},{"name":"dense_Dense2741/kernel","shape":[16,1],"dtype":"float32"},{"name":"dense_Dense2741/bias","shape":[1],"dtype":"float32"},{"name":"dense_Dense2742/kernel","shape":[1,1],"dtype":"float32"},{"name":"dense_Dense2742/bias","shape":[1],"dtype":"float32"}]}]}