{"modelTopology":{"class_name":"Model","config":{"name":"model19","layers":[{"name":"input19","class_name":"InputLayer","config":{"batch_input_shape":[null,3],"dtype":"float32","sparse":false,"name":"input19"},"inbound_nodes":[]},{"name":"dense_Dense109","class_name":"Dense","config":{"units":16,"activation":"relu","use_bias":true,"kernel_initializer":{"class_name":"VarianceScaling","config":{"scale":1,"mode":"fan_avg","distribution":"normal","seed":null}},"bias_initializer":{"class_name":"Zeros","config":{}},"kernel_regularizer":null,"bias_regularizer":null,"activity_regularizer":null,"kernel_constraint":null,"bias_constraint":null,"name":"dense_Dense109","trainable":true},"inbound_nodes":[[["input19",0,0,{}]]]},{"name":"dense_Dense110","class_name":"Dense","config":{"units":1,"activation":"relu","use_bias":true,"kernel_initializer":{"class_name":"VarianceScaling","config":{"scale":1,"mode":"fan_avg","distribution":"normal","seed":null}},"bias_initializer":{"class_name":"Zeros","config":{}},"kernel_regularizer":null,"bias_regularizer":null,"activity_regularizer":null,"kernel_constraint":null,"bias_constraint":null,"name":"dense_Dense110","trainable":true},"inbound_nodes":[[["dense_Dense109",0,0,{}]]]},{"name":"dense_Dense111","class_name":"Dense","config":{"units":1,"activation":"relu","use_bias":true,"kernel_initializer":{"class_name":"VarianceScaling","config":{"scale":1,"mode":"fan_avg","distribution":"normal","seed":null}},"bias_initializer":{"class_name":"Zeros","config":{}},"kernel_regularizer":null,"bias_regularizer":null,"activity_regularizer":null,"kernel_constraint":null,"bias_constraint":null,"name":"dense_Dense111","trainable":true},"inbound_nodes":[[["dense_Dense110",0,0,{}]]]},{"name":"dense_Dense112","class_name":"Dense","config":{"units":8,"activation":"relu","use_bias":true,"kernel_initializer":{"class_name":"VarianceScaling","config":{"scale":1,"mode":"fan_avg","distribution":"normal","seed":null}},"bias_initializer":{"class_name":"Zeros","config":{}},"kernel_regularizer":null,"bias_regularizer":null,"activity_regularizer":null,"kernel_constraint":null,"bias_constraint":null,"name":"dense_Dense112","trainable":true},"inbound_nodes":[[["dense_Dense111",0,0,{}]]]},{"name":"dense_Dense113","class_name":"Dense","config":{"units":1,"activation":"relu","use_bias":true,"kernel_initializer":{"class_name":"VarianceScaling","config":{"scale":1,"mode":"fan_avg","distribution":"normal","seed":null}},"bias_initializer":{"class_name":"Zeros","config":{}},"kernel_regularizer":null,"bias_regularizer":null,"activity_regularizer":null,"kernel_constraint":null,"bias_constraint":null,"name":"dense_Dense113","trainable":true},"inbound_nodes":[[["dense_Dense112",0,0,{}]]]},{"name":"dense_Dense114","class_name":"Dense","config":{"units":1,"activation":"sigmoid","use_bias":true,"kernel_initializer":{"class_name":"VarianceScaling","config":{"scale":1,"mode":"fan_avg","distribution":"normal","seed":null}},"bias_initializer":{"class_name":"Zeros","config":{}},"kernel_regularizer":null,"bias_regularizer":null,"activity_regularizer":null,"kernel_constraint":null,"bias_constraint":null,"name":"dense_Dense114","trainable":true},"inbound_nodes":[[["dense_Dense113",0,0,{}]]]}],"input_layers":[["input19",0,0]],"output_layers":[["dense_Dense114",0,0]]},"keras_version":"tfjs-layers 3.9.0","backend":"tensor_flow.js"},"weightsManifest":[{"paths":["weights.bin"],"weights":[{"name":"dense_Dense109/kernel","shape":[3,16],"dtype":"float32"},{"name":"dense_Dense109/bias","shape":[16],"dtype":"float32"},{"name":"dense_Dense110/kernel","shape":[16,1],"dtype":"float32"},{"name":"dense_Dense110/bias","shape":[1],"dtype":"float32"},{"name":"dense_Dense111/kernel","shape":[1,1],"dtype":"float32"},{"name":"dense_Dense111/bias","shape":[1],"dtype":"float32"},{"name":"dense_Dense112/kernel","shape":[1,8],"dtype":"float32"},{"name":"dense_Dense112/bias","shape":[8],"dtype":"float32"},{"name":"dense_Dense113/kernel","shape":[8,1],"dtype":"float32"},{"name":"dense_Dense113/bias","shape":[1],"dtype":"float32"},{"name":"dense_Dense114/kernel","shape":[1,1],"dtype":"float32"},{"name":"dense_Dense114/bias","shape":[1],"dtype":"float32"}]}]}