{"modelTopology":{"class_name":"Model","config":{"name":"model395","layers":[{"name":"input395","class_name":"InputLayer","config":{"batch_input_shape":[null,3],"dtype":"float32","sparse":false,"name":"input395"},"inbound_nodes":[]},{"name":"dense_Dense1971","class_name":"Dense","config":{"units":2,"activation":"relu","use_bias":true,"kernel_initializer":{"class_name":"VarianceScaling","config":{"scale":1,"mode":"fan_avg","distribution":"normal","seed":null}},"bias_initializer":{"class_name":"Zeros","config":{}},"kernel_regularizer":null,"bias_regularizer":null,"activity_regularizer":null,"kernel_constraint":null,"bias_constraint":null,"name":"dense_Dense1971","trainable":true},"inbound_nodes":[[["input395",0,0,{}]]]},{"name":"dense_Dense1972","class_name":"Dense","config":{"units":16,"activation":"relu","use_bias":true,"kernel_initializer":{"class_name":"VarianceScaling","config":{"scale":1,"mode":"fan_avg","distribution":"normal","seed":null}},"bias_initializer":{"class_name":"Zeros","config":{}},"kernel_regularizer":null,"bias_regularizer":null,"activity_regularizer":null,"kernel_constraint":null,"bias_constraint":null,"name":"dense_Dense1972","trainable":true},"inbound_nodes":[[["dense_Dense1971",0,0,{}]]]},{"name":"dense_Dense1973","class_name":"Dense","config":{"units":32,"activation":"relu","use_bias":true,"kernel_initializer":{"class_name":"VarianceScaling","config":{"scale":1,"mode":"fan_avg","distribution":"normal","seed":null}},"bias_initializer":{"class_name":"Zeros","config":{}},"kernel_regularizer":null,"bias_regularizer":null,"activity_regularizer":null,"kernel_constraint":null,"bias_constraint":null,"name":"dense_Dense1973","trainable":true},"inbound_nodes":[[["dense_Dense1972",0,0,{}]]]},{"name":"dense_Dense1974","class_name":"Dense","config":{"units":16,"activation":"relu","use_bias":true,"kernel_initializer":{"class_name":"VarianceScaling","config":{"scale":1,"mode":"fan_avg","distribution":"normal","seed":null}},"bias_initializer":{"class_name":"Zeros","config":{}},"kernel_regularizer":null,"bias_regularizer":null,"activity_regularizer":null,"kernel_constraint":null,"bias_constraint":null,"name":"dense_Dense1974","trainable":true},"inbound_nodes":[[["dense_Dense1973",0,0,{}]]]},{"name":"dense_Dense1975","class_name":"Dense","config":{"units":1,"activation":"sigmoid","use_bias":true,"kernel_initializer":{"class_name":"VarianceScaling","config":{"scale":1,"mode":"fan_avg","distribution":"normal","seed":null}},"bias_initializer":{"class_name":"Zeros","config":{}},"kernel_regularizer":null,"bias_regularizer":null,"activity_regularizer":null,"kernel_constraint":null,"bias_constraint":null,"name":"dense_Dense1975","trainable":true},"inbound_nodes":[[["dense_Dense1974",0,0,{}]]]}],"input_layers":[["input395",0,0]],"output_layers":[["dense_Dense1975",0,0]]},"keras_version":"tfjs-layers 3.9.0","backend":"tensor_flow.js"},"weightsManifest":[{"paths":["weights.bin"],"weights":[{"name":"dense_Dense1971/kernel","shape":[3,2],"dtype":"float32"},{"name":"dense_Dense1971/bias","shape":[2],"dtype":"float32"},{"name":"dense_Dense1972/kernel","shape":[2,16],"dtype":"float32"},{"name":"dense_Dense1972/bias","shape":[16],"dtype":"float32"},{"name":"dense_Dense1973/kernel","shape":[16,32],"dtype":"float32"},{"name":"dense_Dense1973/bias","shape":[32],"dtype":"float32"},{"name":"dense_Dense1974/kernel","shape":[32,16],"dtype":"float32"},{"name":"dense_Dense1974/bias","shape":[16],"dtype":"float32"},{"name":"dense_Dense1975/kernel","shape":[16,1],"dtype":"float32"},{"name":"dense_Dense1975/bias","shape":[1],"dtype":"float32"}]}]}