{"modelTopology":{"class_name":"Model","config":{"name":"model438","layers":[{"name":"input438","class_name":"InputLayer","config":{"batch_input_shape":[null,3],"dtype":"float32","sparse":false,"name":"input438"},"inbound_nodes":[]},{"name":"dense_Dense2186","class_name":"Dense","config":{"units":4,"activation":"relu","use_bias":true,"kernel_initializer":{"class_name":"VarianceScaling","config":{"scale":1,"mode":"fan_avg","distribution":"normal","seed":null}},"bias_initializer":{"class_name":"Zeros","config":{}},"kernel_regularizer":null,"bias_regularizer":null,"activity_regularizer":null,"kernel_constraint":null,"bias_constraint":null,"name":"dense_Dense2186","trainable":true},"inbound_nodes":[[["input438",0,0,{}]]]},{"name":"dense_Dense2187","class_name":"Dense","config":{"units":1,"activation":"relu","use_bias":true,"kernel_initializer":{"class_name":"VarianceScaling","config":{"scale":1,"mode":"fan_avg","distribution":"normal","seed":null}},"bias_initializer":{"class_name":"Zeros","config":{}},"kernel_regularizer":null,"bias_regularizer":null,"activity_regularizer":null,"kernel_constraint":null,"bias_constraint":null,"name":"dense_Dense2187","trainable":true},"inbound_nodes":[[["dense_Dense2186",0,0,{}]]]},{"name":"dense_Dense2188","class_name":"Dense","config":{"units":1,"activation":"relu","use_bias":true,"kernel_initializer":{"class_name":"VarianceScaling","config":{"scale":1,"mode":"fan_avg","distribution":"normal","seed":null}},"bias_initializer":{"class_name":"Zeros","config":{}},"kernel_regularizer":null,"bias_regularizer":null,"activity_regularizer":null,"kernel_constraint":null,"bias_constraint":null,"name":"dense_Dense2188","trainable":true},"inbound_nodes":[[["dense_Dense2187",0,0,{}]]]},{"name":"dense_Dense2189","class_name":"Dense","config":{"units":32,"activation":"relu","use_bias":true,"kernel_initializer":{"class_name":"VarianceScaling","config":{"scale":1,"mode":"fan_avg","distribution":"normal","seed":null}},"bias_initializer":{"class_name":"Zeros","config":{}},"kernel_regularizer":null,"bias_regularizer":null,"activity_regularizer":null,"kernel_constraint":null,"bias_constraint":null,"name":"dense_Dense2189","trainable":true},"inbound_nodes":[[["dense_Dense2188",0,0,{}]]]},{"name":"dense_Dense2190","class_name":"Dense","config":{"units":1,"activation":"sigmoid","use_bias":true,"kernel_initializer":{"class_name":"VarianceScaling","config":{"scale":1,"mode":"fan_avg","distribution":"normal","seed":null}},"bias_initializer":{"class_name":"Zeros","config":{}},"kernel_regularizer":null,"bias_regularizer":null,"activity_regularizer":null,"kernel_constraint":null,"bias_constraint":null,"name":"dense_Dense2190","trainable":true},"inbound_nodes":[[["dense_Dense2189",0,0,{}]]]}],"input_layers":[["input438",0,0]],"output_layers":[["dense_Dense2190",0,0]]},"keras_version":"tfjs-layers 3.9.0","backend":"tensor_flow.js"},"weightsManifest":[{"paths":["weights.bin"],"weights":[{"name":"dense_Dense2186/kernel","shape":[3,4],"dtype":"float32"},{"name":"dense_Dense2186/bias","shape":[4],"dtype":"float32"},{"name":"dense_Dense2187/kernel","shape":[4,1],"dtype":"float32"},{"name":"dense_Dense2187/bias","shape":[1],"dtype":"float32"},{"name":"dense_Dense2188/kernel","shape":[1,1],"dtype":"float32"},{"name":"dense_Dense2188/bias","shape":[1],"dtype":"float32"},{"name":"dense_Dense2189/kernel","shape":[1,32],"dtype":"float32"},{"name":"dense_Dense2189/bias","shape":[32],"dtype":"float32"},{"name":"dense_Dense2190/kernel","shape":[32,1],"dtype":"float32"},{"name":"dense_Dense2190/bias","shape":[1],"dtype":"float32"}]}]}