{"modelTopology":{"class_name":"Model","config":{"name":"model745","layers":[{"name":"input745","class_name":"InputLayer","config":{"batch_input_shape":[null,3],"dtype":"float32","sparse":false,"name":"input745"},"inbound_nodes":[]},{"name":"dense_Dense4465","class_name":"Dense","config":{"units":16,"activation":"relu","use_bias":true,"kernel_initializer":{"class_name":"VarianceScaling","config":{"scale":1,"mode":"fan_avg","distribution":"normal","seed":null}},"bias_initializer":{"class_name":"Zeros","config":{}},"kernel_regularizer":null,"bias_regularizer":null,"activity_regularizer":null,"kernel_constraint":null,"bias_constraint":null,"name":"dense_Dense4465","trainable":true},"inbound_nodes":[[["input745",0,0,{}]]]},{"name":"dense_Dense4466","class_name":"Dense","config":{"units":8,"activation":"relu","use_bias":true,"kernel_initializer":{"class_name":"VarianceScaling","config":{"scale":1,"mode":"fan_avg","distribution":"normal","seed":null}},"bias_initializer":{"class_name":"Zeros","config":{}},"kernel_regularizer":null,"bias_regularizer":null,"activity_regularizer":null,"kernel_constraint":null,"bias_constraint":null,"name":"dense_Dense4466","trainable":true},"inbound_nodes":[[["dense_Dense4465",0,0,{}]]]},{"name":"dense_Dense4467","class_name":"Dense","config":{"units":4,"activation":"relu","use_bias":true,"kernel_initializer":{"class_name":"VarianceScaling","config":{"scale":1,"mode":"fan_avg","distribution":"normal","seed":null}},"bias_initializer":{"class_name":"Zeros","config":{}},"kernel_regularizer":null,"bias_regularizer":null,"activity_regularizer":null,"kernel_constraint":null,"bias_constraint":null,"name":"dense_Dense4467","trainable":true},"inbound_nodes":[[["dense_Dense4466",0,0,{}]]]},{"name":"dense_Dense4468","class_name":"Dense","config":{"units":16,"activation":"relu","use_bias":true,"kernel_initializer":{"class_name":"VarianceScaling","config":{"scale":1,"mode":"fan_avg","distribution":"normal","seed":null}},"bias_initializer":{"class_name":"Zeros","config":{}},"kernel_regularizer":null,"bias_regularizer":null,"activity_regularizer":null,"kernel_constraint":null,"bias_constraint":null,"name":"dense_Dense4468","trainable":true},"inbound_nodes":[[["dense_Dense4467",0,0,{}]]]},{"name":"dense_Dense4469","class_name":"Dense","config":{"units":1,"activation":"relu","use_bias":true,"kernel_initializer":{"class_name":"VarianceScaling","config":{"scale":1,"mode":"fan_avg","distribution":"normal","seed":null}},"bias_initializer":{"class_name":"Zeros","config":{}},"kernel_regularizer":null,"bias_regularizer":null,"activity_regularizer":null,"kernel_constraint":null,"bias_constraint":null,"name":"dense_Dense4469","trainable":true},"inbound_nodes":[[["dense_Dense4468",0,0,{}]]]},{"name":"dense_Dense4470","class_name":"Dense","config":{"units":1,"activation":"sigmoid","use_bias":true,"kernel_initializer":{"class_name":"VarianceScaling","config":{"scale":1,"mode":"fan_avg","distribution":"normal","seed":null}},"bias_initializer":{"class_name":"Zeros","config":{}},"kernel_regularizer":null,"bias_regularizer":null,"activity_regularizer":null,"kernel_constraint":null,"bias_constraint":null,"name":"dense_Dense4470","trainable":true},"inbound_nodes":[[["dense_Dense4469",0,0,{}]]]}],"input_layers":[["input745",0,0]],"output_layers":[["dense_Dense4470",0,0]]},"keras_version":"tfjs-layers 3.9.0","backend":"tensor_flow.js"},"weightsManifest":[{"paths":["weights.bin"],"weights":[{"name":"dense_Dense4465/kernel","shape":[3,16],"dtype":"float32"},{"name":"dense_Dense4465/bias","shape":[16],"dtype":"float32"},{"name":"dense_Dense4466/kernel","shape":[16,8],"dtype":"float32"},{"name":"dense_Dense4466/bias","shape":[8],"dtype":"float32"},{"name":"dense_Dense4467/kernel","shape":[8,4],"dtype":"float32"},{"name":"dense_Dense4467/bias","shape":[4],"dtype":"float32"},{"name":"dense_Dense4468/kernel","shape":[4,16],"dtype":"float32"},{"name":"dense_Dense4468/bias","shape":[16],"dtype":"float32"},{"name":"dense_Dense4469/kernel","shape":[16,1],"dtype":"float32"},{"name":"dense_Dense4469/bias","shape":[1],"dtype":"float32"},{"name":"dense_Dense4470/kernel","shape":[1,1],"dtype":"float32"},{"name":"dense_Dense4470/bias","shape":[1],"dtype":"float32"}]}]}