{"modelTopology":{"class_name":"Model","config":{"name":"model1270","layers":[{"name":"input1270","class_name":"InputLayer","config":{"batch_input_shape":[null,3],"dtype":"float32","sparse":false,"name":"input1270"},"inbound_nodes":[]},{"name":"dense_Dense7615","class_name":"Dense","config":{"units":2,"activation":"relu","use_bias":true,"kernel_initializer":{"class_name":"VarianceScaling","config":{"scale":1,"mode":"fan_avg","distribution":"normal","seed":null}},"bias_initializer":{"class_name":"Zeros","config":{}},"kernel_regularizer":null,"bias_regularizer":null,"activity_regularizer":null,"kernel_constraint":null,"bias_constraint":null,"name":"dense_Dense7615","trainable":true},"inbound_nodes":[[["input1270",0,0,{}]]]},{"name":"dense_Dense7616","class_name":"Dense","config":{"units":32,"activation":"relu","use_bias":true,"kernel_initializer":{"class_name":"VarianceScaling","config":{"scale":1,"mode":"fan_avg","distribution":"normal","seed":null}},"bias_initializer":{"class_name":"Zeros","config":{}},"kernel_regularizer":null,"bias_regularizer":null,"activity_regularizer":null,"kernel_constraint":null,"bias_constraint":null,"name":"dense_Dense7616","trainable":true},"inbound_nodes":[[["dense_Dense7615",0,0,{}]]]},{"name":"dense_Dense7617","class_name":"Dense","config":{"units":32,"activation":"relu","use_bias":true,"kernel_initializer":{"class_name":"VarianceScaling","config":{"scale":1,"mode":"fan_avg","distribution":"normal","seed":null}},"bias_initializer":{"class_name":"Zeros","config":{}},"kernel_regularizer":null,"bias_regularizer":null,"activity_regularizer":null,"kernel_constraint":null,"bias_constraint":null,"name":"dense_Dense7617","trainable":true},"inbound_nodes":[[["dense_Dense7616",0,0,{}]]]},{"name":"dense_Dense7618","class_name":"Dense","config":{"units":2,"activation":"relu","use_bias":true,"kernel_initializer":{"class_name":"VarianceScaling","config":{"scale":1,"mode":"fan_avg","distribution":"normal","seed":null}},"bias_initializer":{"class_name":"Zeros","config":{}},"kernel_regularizer":null,"bias_regularizer":null,"activity_regularizer":null,"kernel_constraint":null,"bias_constraint":null,"name":"dense_Dense7618","trainable":true},"inbound_nodes":[[["dense_Dense7617",0,0,{}]]]},{"name":"dense_Dense7619","class_name":"Dense","config":{"units":8,"activation":"relu","use_bias":true,"kernel_initializer":{"class_name":"VarianceScaling","config":{"scale":1,"mode":"fan_avg","distribution":"normal","seed":null}},"bias_initializer":{"class_name":"Zeros","config":{}},"kernel_regularizer":null,"bias_regularizer":null,"activity_regularizer":null,"kernel_constraint":null,"bias_constraint":null,"name":"dense_Dense7619","trainable":true},"inbound_nodes":[[["dense_Dense7618",0,0,{}]]]},{"name":"dense_Dense7620","class_name":"Dense","config":{"units":1,"activation":"sigmoid","use_bias":true,"kernel_initializer":{"class_name":"VarianceScaling","config":{"scale":1,"mode":"fan_avg","distribution":"normal","seed":null}},"bias_initializer":{"class_name":"Zeros","config":{}},"kernel_regularizer":null,"bias_regularizer":null,"activity_regularizer":null,"kernel_constraint":null,"bias_constraint":null,"name":"dense_Dense7620","trainable":true},"inbound_nodes":[[["dense_Dense7619",0,0,{}]]]}],"input_layers":[["input1270",0,0]],"output_layers":[["dense_Dense7620",0,0]]},"keras_version":"tfjs-layers 3.9.0","backend":"tensor_flow.js"},"weightsManifest":[{"paths":["weights.bin"],"weights":[{"name":"dense_Dense7615/kernel","shape":[3,2],"dtype":"float32"},{"name":"dense_Dense7615/bias","shape":[2],"dtype":"float32"},{"name":"dense_Dense7616/kernel","shape":[2,32],"dtype":"float32"},{"name":"dense_Dense7616/bias","shape":[32],"dtype":"float32"},{"name":"dense_Dense7617/kernel","shape":[32,32],"dtype":"float32"},{"name":"dense_Dense7617/bias","shape":[32],"dtype":"float32"},{"name":"dense_Dense7618/kernel","shape":[32,2],"dtype":"float32"},{"name":"dense_Dense7618/bias","shape":[2],"dtype":"float32"},{"name":"dense_Dense7619/kernel","shape":[2,8],"dtype":"float32"},{"name":"dense_Dense7619/bias","shape":[8],"dtype":"float32"},{"name":"dense_Dense7620/kernel","shape":[8,1],"dtype":"float32"},{"name":"dense_Dense7620/bias","shape":[1],"dtype":"float32"}]}]}