{"modelTopology":{"class_name":"Model","config":{"name":"model171","layers":[{"name":"input171","class_name":"InputLayer","config":{"batch_input_shape":[null,3],"dtype":"float32","sparse":false,"name":"input171"},"inbound_nodes":[]},{"name":"dense_Dense851","class_name":"Dense","config":{"units":1,"activation":"relu","use_bias":true,"kernel_initializer":{"class_name":"VarianceScaling","config":{"scale":1,"mode":"fan_avg","distribution":"normal","seed":null}},"bias_initializer":{"class_name":"Zeros","config":{}},"kernel_regularizer":null,"bias_regularizer":null,"activity_regularizer":null,"kernel_constraint":null,"bias_constraint":null,"name":"dense_Dense851","trainable":true},"inbound_nodes":[[["input171",0,0,{}]]]},{"name":"dense_Dense852","class_name":"Dense","config":{"units":16,"activation":"relu","use_bias":true,"kernel_initializer":{"class_name":"VarianceScaling","config":{"scale":1,"mode":"fan_avg","distribution":"normal","seed":null}},"bias_initializer":{"class_name":"Zeros","config":{}},"kernel_regularizer":null,"bias_regularizer":null,"activity_regularizer":null,"kernel_constraint":null,"bias_constraint":null,"name":"dense_Dense852","trainable":true},"inbound_nodes":[[["dense_Dense851",0,0,{}]]]},{"name":"dense_Dense853","class_name":"Dense","config":{"units":16,"activation":"relu","use_bias":true,"kernel_initializer":{"class_name":"VarianceScaling","config":{"scale":1,"mode":"fan_avg","distribution":"normal","seed":null}},"bias_initializer":{"class_name":"Zeros","config":{}},"kernel_regularizer":null,"bias_regularizer":null,"activity_regularizer":null,"kernel_constraint":null,"bias_constraint":null,"name":"dense_Dense853","trainable":true},"inbound_nodes":[[["dense_Dense852",0,0,{}]]]},{"name":"dense_Dense854","class_name":"Dense","config":{"units":4,"activation":"relu","use_bias":true,"kernel_initializer":{"class_name":"VarianceScaling","config":{"scale":1,"mode":"fan_avg","distribution":"normal","seed":null}},"bias_initializer":{"class_name":"Zeros","config":{}},"kernel_regularizer":null,"bias_regularizer":null,"activity_regularizer":null,"kernel_constraint":null,"bias_constraint":null,"name":"dense_Dense854","trainable":true},"inbound_nodes":[[["dense_Dense853",0,0,{}]]]},{"name":"dense_Dense855","class_name":"Dense","config":{"units":1,"activation":"sigmoid","use_bias":true,"kernel_initializer":{"class_name":"VarianceScaling","config":{"scale":1,"mode":"fan_avg","distribution":"normal","seed":null}},"bias_initializer":{"class_name":"Zeros","config":{}},"kernel_regularizer":null,"bias_regularizer":null,"activity_regularizer":null,"kernel_constraint":null,"bias_constraint":null,"name":"dense_Dense855","trainable":true},"inbound_nodes":[[["dense_Dense854",0,0,{}]]]}],"input_layers":[["input171",0,0]],"output_layers":[["dense_Dense855",0,0]]},"keras_version":"tfjs-layers 3.9.0","backend":"tensor_flow.js"},"weightsManifest":[{"paths":["weights.bin"],"weights":[{"name":"dense_Dense851/kernel","shape":[3,1],"dtype":"float32"},{"name":"dense_Dense851/bias","shape":[1],"dtype":"float32"},{"name":"dense_Dense852/kernel","shape":[1,16],"dtype":"float32"},{"name":"dense_Dense852/bias","shape":[16],"dtype":"float32"},{"name":"dense_Dense853/kernel","shape":[16,16],"dtype":"float32"},{"name":"dense_Dense853/bias","shape":[16],"dtype":"float32"},{"name":"dense_Dense854/kernel","shape":[16,4],"dtype":"float32"},{"name":"dense_Dense854/bias","shape":[4],"dtype":"float32"},{"name":"dense_Dense855/kernel","shape":[4,1],"dtype":"float32"},{"name":"dense_Dense855/bias","shape":[1],"dtype":"float32"}]}]}