{"modelTopology":{"class_name":"Model","config":{"name":"model1235","layers":[{"name":"input1235","class_name":"InputLayer","config":{"batch_input_shape":[null,3],"dtype":"float32","sparse":false,"name":"input1235"},"inbound_nodes":[]},{"name":"dense_Dense6171","class_name":"Dense","config":{"units":32,"activation":"relu","use_bias":true,"kernel_initializer":{"class_name":"VarianceScaling","config":{"scale":1,"mode":"fan_avg","distribution":"normal","seed":null}},"bias_initializer":{"class_name":"Zeros","config":{}},"kernel_regularizer":null,"bias_regularizer":null,"activity_regularizer":null,"kernel_constraint":null,"bias_constraint":null,"name":"dense_Dense6171","trainable":true},"inbound_nodes":[[["input1235",0,0,{}]]]},{"name":"dense_Dense6172","class_name":"Dense","config":{"units":16,"activation":"relu","use_bias":true,"kernel_initializer":{"class_name":"VarianceScaling","config":{"scale":1,"mode":"fan_avg","distribution":"normal","seed":null}},"bias_initializer":{"class_name":"Zeros","config":{}},"kernel_regularizer":null,"bias_regularizer":null,"activity_regularizer":null,"kernel_constraint":null,"bias_constraint":null,"name":"dense_Dense6172","trainable":true},"inbound_nodes":[[["dense_Dense6171",0,0,{}]]]},{"name":"dense_Dense6173","class_name":"Dense","config":{"units":2,"activation":"relu","use_bias":true,"kernel_initializer":{"class_name":"VarianceScaling","config":{"scale":1,"mode":"fan_avg","distribution":"normal","seed":null}},"bias_initializer":{"class_name":"Zeros","config":{}},"kernel_regularizer":null,"bias_regularizer":null,"activity_regularizer":null,"kernel_constraint":null,"bias_constraint":null,"name":"dense_Dense6173","trainable":true},"inbound_nodes":[[["dense_Dense6172",0,0,{}]]]},{"name":"dense_Dense6174","class_name":"Dense","config":{"units":16,"activation":"relu","use_bias":true,"kernel_initializer":{"class_name":"VarianceScaling","config":{"scale":1,"mode":"fan_avg","distribution":"normal","seed":null}},"bias_initializer":{"class_name":"Zeros","config":{}},"kernel_regularizer":null,"bias_regularizer":null,"activity_regularizer":null,"kernel_constraint":null,"bias_constraint":null,"name":"dense_Dense6174","trainable":true},"inbound_nodes":[[["dense_Dense6173",0,0,{}]]]},{"name":"dense_Dense6175","class_name":"Dense","config":{"units":1,"activation":"sigmoid","use_bias":true,"kernel_initializer":{"class_name":"VarianceScaling","config":{"scale":1,"mode":"fan_avg","distribution":"normal","seed":null}},"bias_initializer":{"class_name":"Zeros","config":{}},"kernel_regularizer":null,"bias_regularizer":null,"activity_regularizer":null,"kernel_constraint":null,"bias_constraint":null,"name":"dense_Dense6175","trainable":true},"inbound_nodes":[[["dense_Dense6174",0,0,{}]]]}],"input_layers":[["input1235",0,0]],"output_layers":[["dense_Dense6175",0,0]]},"keras_version":"tfjs-layers 3.9.0","backend":"tensor_flow.js"},"weightsManifest":[{"paths":["weights.bin"],"weights":[{"name":"dense_Dense6171/kernel","shape":[3,32],"dtype":"float32"},{"name":"dense_Dense6171/bias","shape":[32],"dtype":"float32"},{"name":"dense_Dense6172/kernel","shape":[32,16],"dtype":"float32"},{"name":"dense_Dense6172/bias","shape":[16],"dtype":"float32"},{"name":"dense_Dense6173/kernel","shape":[16,2],"dtype":"float32"},{"name":"dense_Dense6173/bias","shape":[2],"dtype":"float32"},{"name":"dense_Dense6174/kernel","shape":[2,16],"dtype":"float32"},{"name":"dense_Dense6174/bias","shape":[16],"dtype":"float32"},{"name":"dense_Dense6175/kernel","shape":[16,1],"dtype":"float32"},{"name":"dense_Dense6175/bias","shape":[1],"dtype":"float32"}]}]}