{"modelTopology":{"class_name":"Model","config":{"name":"model1248","layers":[{"name":"input1248","class_name":"InputLayer","config":{"batch_input_shape":[null,3],"dtype":"float32","sparse":false,"name":"input1248"},"inbound_nodes":[]},{"name":"dense_Dense7483","class_name":"Dense","config":{"units":4,"activation":"relu","use_bias":true,"kernel_initializer":{"class_name":"VarianceScaling","config":{"scale":1,"mode":"fan_avg","distribution":"normal","seed":null}},"bias_initializer":{"class_name":"Zeros","config":{}},"kernel_regularizer":null,"bias_regularizer":null,"activity_regularizer":null,"kernel_constraint":null,"bias_constraint":null,"name":"dense_Dense7483","trainable":true},"inbound_nodes":[[["input1248",0,0,{}]]]},{"name":"dense_Dense7484","class_name":"Dense","config":{"units":32,"activation":"relu","use_bias":true,"kernel_initializer":{"class_name":"VarianceScaling","config":{"scale":1,"mode":"fan_avg","distribution":"normal","seed":null}},"bias_initializer":{"class_name":"Zeros","config":{}},"kernel_regularizer":null,"bias_regularizer":null,"activity_regularizer":null,"kernel_constraint":null,"bias_constraint":null,"name":"dense_Dense7484","trainable":true},"inbound_nodes":[[["dense_Dense7483",0,0,{}]]]},{"name":"dense_Dense7485","class_name":"Dense","config":{"units":16,"activation":"relu","use_bias":true,"kernel_initializer":{"class_name":"VarianceScaling","config":{"scale":1,"mode":"fan_avg","distribution":"normal","seed":null}},"bias_initializer":{"class_name":"Zeros","config":{}},"kernel_regularizer":null,"bias_regularizer":null,"activity_regularizer":null,"kernel_constraint":null,"bias_constraint":null,"name":"dense_Dense7485","trainable":true},"inbound_nodes":[[["dense_Dense7484",0,0,{}]]]},{"name":"dense_Dense7486","class_name":"Dense","config":{"units":8,"activation":"relu","use_bias":true,"kernel_initializer":{"class_name":"VarianceScaling","config":{"scale":1,"mode":"fan_avg","distribution":"normal","seed":null}},"bias_initializer":{"class_name":"Zeros","config":{}},"kernel_regularizer":null,"bias_regularizer":null,"activity_regularizer":null,"kernel_constraint":null,"bias_constraint":null,"name":"dense_Dense7486","trainable":true},"inbound_nodes":[[["dense_Dense7485",0,0,{}]]]},{"name":"dense_Dense7487","class_name":"Dense","config":{"units":32,"activation":"relu","use_bias":true,"kernel_initializer":{"class_name":"VarianceScaling","config":{"scale":1,"mode":"fan_avg","distribution":"normal","seed":null}},"bias_initializer":{"class_name":"Zeros","config":{}},"kernel_regularizer":null,"bias_regularizer":null,"activity_regularizer":null,"kernel_constraint":null,"bias_constraint":null,"name":"dense_Dense7487","trainable":true},"inbound_nodes":[[["dense_Dense7486",0,0,{}]]]},{"name":"dense_Dense7488","class_name":"Dense","config":{"units":1,"activation":"sigmoid","use_bias":true,"kernel_initializer":{"class_name":"VarianceScaling","config":{"scale":1,"mode":"fan_avg","distribution":"normal","seed":null}},"bias_initializer":{"class_name":"Zeros","config":{}},"kernel_regularizer":null,"bias_regularizer":null,"activity_regularizer":null,"kernel_constraint":null,"bias_constraint":null,"name":"dense_Dense7488","trainable":true},"inbound_nodes":[[["dense_Dense7487",0,0,{}]]]}],"input_layers":[["input1248",0,0]],"output_layers":[["dense_Dense7488",0,0]]},"keras_version":"tfjs-layers 3.9.0","backend":"tensor_flow.js"},"weightsManifest":[{"paths":["weights.bin"],"weights":[{"name":"dense_Dense7483/kernel","shape":[3,4],"dtype":"float32"},{"name":"dense_Dense7483/bias","shape":[4],"dtype":"float32"},{"name":"dense_Dense7484/kernel","shape":[4,32],"dtype":"float32"},{"name":"dense_Dense7484/bias","shape":[32],"dtype":"float32"},{"name":"dense_Dense7485/kernel","shape":[32,16],"dtype":"float32"},{"name":"dense_Dense7485/bias","shape":[16],"dtype":"float32"},{"name":"dense_Dense7486/kernel","shape":[16,8],"dtype":"float32"},{"name":"dense_Dense7486/bias","shape":[8],"dtype":"float32"},{"name":"dense_Dense7487/kernel","shape":[8,32],"dtype":"float32"},{"name":"dense_Dense7487/bias","shape":[32],"dtype":"float32"},{"name":"dense_Dense7488/kernel","shape":[32,1],"dtype":"float32"},{"name":"dense_Dense7488/bias","shape":[1],"dtype":"float32"}]}]}