{"modelTopology":{"class_name":"Model","config":{"name":"model758","layers":[{"name":"input758","class_name":"InputLayer","config":{"batch_input_shape":[null,3],"dtype":"float32","sparse":false,"name":"input758"},"inbound_nodes":[]},{"name":"dense_Dense3786","class_name":"Dense","config":{"units":8,"activation":"relu","use_bias":true,"kernel_initializer":{"class_name":"VarianceScaling","config":{"scale":1,"mode":"fan_avg","distribution":"normal","seed":null}},"bias_initializer":{"class_name":"Zeros","config":{}},"kernel_regularizer":null,"bias_regularizer":null,"activity_regularizer":null,"kernel_constraint":null,"bias_constraint":null,"name":"dense_Dense3786","trainable":true},"inbound_nodes":[[["input758",0,0,{}]]]},{"name":"dense_Dense3787","class_name":"Dense","config":{"units":8,"activation":"relu","use_bias":true,"kernel_initializer":{"class_name":"VarianceScaling","config":{"scale":1,"mode":"fan_avg","distribution":"normal","seed":null}},"bias_initializer":{"class_name":"Zeros","config":{}},"kernel_regularizer":null,"bias_regularizer":null,"activity_regularizer":null,"kernel_constraint":null,"bias_constraint":null,"name":"dense_Dense3787","trainable":true},"inbound_nodes":[[["dense_Dense3786",0,0,{}]]]},{"name":"dense_Dense3788","class_name":"Dense","config":{"units":1,"activation":"relu","use_bias":true,"kernel_initializer":{"class_name":"VarianceScaling","config":{"scale":1,"mode":"fan_avg","distribution":"normal","seed":null}},"bias_initializer":{"class_name":"Zeros","config":{}},"kernel_regularizer":null,"bias_regularizer":null,"activity_regularizer":null,"kernel_constraint":null,"bias_constraint":null,"name":"dense_Dense3788","trainable":true},"inbound_nodes":[[["dense_Dense3787",0,0,{}]]]},{"name":"dense_Dense3789","class_name":"Dense","config":{"units":2,"activation":"relu","use_bias":true,"kernel_initializer":{"class_name":"VarianceScaling","config":{"scale":1,"mode":"fan_avg","distribution":"normal","seed":null}},"bias_initializer":{"class_name":"Zeros","config":{}},"kernel_regularizer":null,"bias_regularizer":null,"activity_regularizer":null,"kernel_constraint":null,"bias_constraint":null,"name":"dense_Dense3789","trainable":true},"inbound_nodes":[[["dense_Dense3788",0,0,{}]]]},{"name":"dense_Dense3790","class_name":"Dense","config":{"units":1,"activation":"sigmoid","use_bias":true,"kernel_initializer":{"class_name":"VarianceScaling","config":{"scale":1,"mode":"fan_avg","distribution":"normal","seed":null}},"bias_initializer":{"class_name":"Zeros","config":{}},"kernel_regularizer":null,"bias_regularizer":null,"activity_regularizer":null,"kernel_constraint":null,"bias_constraint":null,"name":"dense_Dense3790","trainable":true},"inbound_nodes":[[["dense_Dense3789",0,0,{}]]]}],"input_layers":[["input758",0,0]],"output_layers":[["dense_Dense3790",0,0]]},"keras_version":"tfjs-layers 3.9.0","backend":"tensor_flow.js"},"weightsManifest":[{"paths":["weights.bin"],"weights":[{"name":"dense_Dense3786/kernel","shape":[3,8],"dtype":"float32"},{"name":"dense_Dense3786/bias","shape":[8],"dtype":"float32"},{"name":"dense_Dense3787/kernel","shape":[8,8],"dtype":"float32"},{"name":"dense_Dense3787/bias","shape":[8],"dtype":"float32"},{"name":"dense_Dense3788/kernel","shape":[8,1],"dtype":"float32"},{"name":"dense_Dense3788/bias","shape":[1],"dtype":"float32"},{"name":"dense_Dense3789/kernel","shape":[1,2],"dtype":"float32"},{"name":"dense_Dense3789/bias","shape":[2],"dtype":"float32"},{"name":"dense_Dense3790/kernel","shape":[2,1],"dtype":"float32"},{"name":"dense_Dense3790/bias","shape":[1],"dtype":"float32"}]}]}