{"modelTopology":{"class_name":"Model","config":{"name":"model272","layers":[{"name":"input272","class_name":"InputLayer","config":{"batch_input_shape":[null,3],"dtype":"float32","sparse":false,"name":"input272"},"inbound_nodes":[]},{"name":"dense_Dense1627","class_name":"Dense","config":{"units":4,"activation":"relu","use_bias":true,"kernel_initializer":{"class_name":"VarianceScaling","config":{"scale":1,"mode":"fan_avg","distribution":"normal","seed":null}},"bias_initializer":{"class_name":"Zeros","config":{}},"kernel_regularizer":null,"bias_regularizer":null,"activity_regularizer":null,"kernel_constraint":null,"bias_constraint":null,"name":"dense_Dense1627","trainable":true},"inbound_nodes":[[["input272",0,0,{}]]]},{"name":"dense_Dense1628","class_name":"Dense","config":{"units":2,"activation":"relu","use_bias":true,"kernel_initializer":{"class_name":"VarianceScaling","config":{"scale":1,"mode":"fan_avg","distribution":"normal","seed":null}},"bias_initializer":{"class_name":"Zeros","config":{}},"kernel_regularizer":null,"bias_regularizer":null,"activity_regularizer":null,"kernel_constraint":null,"bias_constraint":null,"name":"dense_Dense1628","trainable":true},"inbound_nodes":[[["dense_Dense1627",0,0,{}]]]},{"name":"dense_Dense1629","class_name":"Dense","config":{"units":2,"activation":"relu","use_bias":true,"kernel_initializer":{"class_name":"VarianceScaling","config":{"scale":1,"mode":"fan_avg","distribution":"normal","seed":null}},"bias_initializer":{"class_name":"Zeros","config":{}},"kernel_regularizer":null,"bias_regularizer":null,"activity_regularizer":null,"kernel_constraint":null,"bias_constraint":null,"name":"dense_Dense1629","trainable":true},"inbound_nodes":[[["dense_Dense1628",0,0,{}]]]},{"name":"dense_Dense1630","class_name":"Dense","config":{"units":8,"activation":"relu","use_bias":true,"kernel_initializer":{"class_name":"VarianceScaling","config":{"scale":1,"mode":"fan_avg","distribution":"normal","seed":null}},"bias_initializer":{"class_name":"Zeros","config":{}},"kernel_regularizer":null,"bias_regularizer":null,"activity_regularizer":null,"kernel_constraint":null,"bias_constraint":null,"name":"dense_Dense1630","trainable":true},"inbound_nodes":[[["dense_Dense1629",0,0,{}]]]},{"name":"dense_Dense1631","class_name":"Dense","config":{"units":2,"activation":"relu","use_bias":true,"kernel_initializer":{"class_name":"VarianceScaling","config":{"scale":1,"mode":"fan_avg","distribution":"normal","seed":null}},"bias_initializer":{"class_name":"Zeros","config":{}},"kernel_regularizer":null,"bias_regularizer":null,"activity_regularizer":null,"kernel_constraint":null,"bias_constraint":null,"name":"dense_Dense1631","trainable":true},"inbound_nodes":[[["dense_Dense1630",0,0,{}]]]},{"name":"dense_Dense1632","class_name":"Dense","config":{"units":1,"activation":"sigmoid","use_bias":true,"kernel_initializer":{"class_name":"VarianceScaling","config":{"scale":1,"mode":"fan_avg","distribution":"normal","seed":null}},"bias_initializer":{"class_name":"Zeros","config":{}},"kernel_regularizer":null,"bias_regularizer":null,"activity_regularizer":null,"kernel_constraint":null,"bias_constraint":null,"name":"dense_Dense1632","trainable":true},"inbound_nodes":[[["dense_Dense1631",0,0,{}]]]}],"input_layers":[["input272",0,0]],"output_layers":[["dense_Dense1632",0,0]]},"keras_version":"tfjs-layers 3.9.0","backend":"tensor_flow.js"},"weightsManifest":[{"paths":["weights.bin"],"weights":[{"name":"dense_Dense1627/kernel","shape":[3,4],"dtype":"float32"},{"name":"dense_Dense1627/bias","shape":[4],"dtype":"float32"},{"name":"dense_Dense1628/kernel","shape":[4,2],"dtype":"float32"},{"name":"dense_Dense1628/bias","shape":[2],"dtype":"float32"},{"name":"dense_Dense1629/kernel","shape":[2,2],"dtype":"float32"},{"name":"dense_Dense1629/bias","shape":[2],"dtype":"float32"},{"name":"dense_Dense1630/kernel","shape":[2,8],"dtype":"float32"},{"name":"dense_Dense1630/bias","shape":[8],"dtype":"float32"},{"name":"dense_Dense1631/kernel","shape":[8,2],"dtype":"float32"},{"name":"dense_Dense1631/bias","shape":[2],"dtype":"float32"},{"name":"dense_Dense1632/kernel","shape":[2,1],"dtype":"float32"},{"name":"dense_Dense1632/bias","shape":[1],"dtype":"float32"}]}]}