{"modelTopology":{"class_name":"Model","config":{"name":"model662","layers":[{"name":"input662","class_name":"InputLayer","config":{"batch_input_shape":[null,3],"dtype":"float32","sparse":false,"name":"input662"},"inbound_nodes":[]},{"name":"dense_Dense3967","class_name":"Dense","config":{"units":8,"activation":"relu","use_bias":true,"kernel_initializer":{"class_name":"VarianceScaling","config":{"scale":1,"mode":"fan_avg","distribution":"normal","seed":null}},"bias_initializer":{"class_name":"Zeros","config":{}},"kernel_regularizer":null,"bias_regularizer":null,"activity_regularizer":null,"kernel_constraint":null,"bias_constraint":null,"name":"dense_Dense3967","trainable":true},"inbound_nodes":[[["input662",0,0,{}]]]},{"name":"dense_Dense3968","class_name":"Dense","config":{"units":8,"activation":"relu","use_bias":true,"kernel_initializer":{"class_name":"VarianceScaling","config":{"scale":1,"mode":"fan_avg","distribution":"normal","seed":null}},"bias_initializer":{"class_name":"Zeros","config":{}},"kernel_regularizer":null,"bias_regularizer":null,"activity_regularizer":null,"kernel_constraint":null,"bias_constraint":null,"name":"dense_Dense3968","trainable":true},"inbound_nodes":[[["dense_Dense3967",0,0,{}]]]},{"name":"dense_Dense3969","class_name":"Dense","config":{"units":1,"activation":"relu","use_bias":true,"kernel_initializer":{"class_name":"VarianceScaling","config":{"scale":1,"mode":"fan_avg","distribution":"normal","seed":null}},"bias_initializer":{"class_name":"Zeros","config":{}},"kernel_regularizer":null,"bias_regularizer":null,"activity_regularizer":null,"kernel_constraint":null,"bias_constraint":null,"name":"dense_Dense3969","trainable":true},"inbound_nodes":[[["dense_Dense3968",0,0,{}]]]},{"name":"dense_Dense3970","class_name":"Dense","config":{"units":4,"activation":"relu","use_bias":true,"kernel_initializer":{"class_name":"VarianceScaling","config":{"scale":1,"mode":"fan_avg","distribution":"normal","seed":null}},"bias_initializer":{"class_name":"Zeros","config":{}},"kernel_regularizer":null,"bias_regularizer":null,"activity_regularizer":null,"kernel_constraint":null,"bias_constraint":null,"name":"dense_Dense3970","trainable":true},"inbound_nodes":[[["dense_Dense3969",0,0,{}]]]},{"name":"dense_Dense3971","class_name":"Dense","config":{"units":2,"activation":"relu","use_bias":true,"kernel_initializer":{"class_name":"VarianceScaling","config":{"scale":1,"mode":"fan_avg","distribution":"normal","seed":null}},"bias_initializer":{"class_name":"Zeros","config":{}},"kernel_regularizer":null,"bias_regularizer":null,"activity_regularizer":null,"kernel_constraint":null,"bias_constraint":null,"name":"dense_Dense3971","trainable":true},"inbound_nodes":[[["dense_Dense3970",0,0,{}]]]},{"name":"dense_Dense3972","class_name":"Dense","config":{"units":1,"activation":"sigmoid","use_bias":true,"kernel_initializer":{"class_name":"VarianceScaling","config":{"scale":1,"mode":"fan_avg","distribution":"normal","seed":null}},"bias_initializer":{"class_name":"Zeros","config":{}},"kernel_regularizer":null,"bias_regularizer":null,"activity_regularizer":null,"kernel_constraint":null,"bias_constraint":null,"name":"dense_Dense3972","trainable":true},"inbound_nodes":[[["dense_Dense3971",0,0,{}]]]}],"input_layers":[["input662",0,0]],"output_layers":[["dense_Dense3972",0,0]]},"keras_version":"tfjs-layers 3.9.0","backend":"tensor_flow.js"},"weightsManifest":[{"paths":["weights.bin"],"weights":[{"name":"dense_Dense3967/kernel","shape":[3,8],"dtype":"float32"},{"name":"dense_Dense3967/bias","shape":[8],"dtype":"float32"},{"name":"dense_Dense3968/kernel","shape":[8,8],"dtype":"float32"},{"name":"dense_Dense3968/bias","shape":[8],"dtype":"float32"},{"name":"dense_Dense3969/kernel","shape":[8,1],"dtype":"float32"},{"name":"dense_Dense3969/bias","shape":[1],"dtype":"float32"},{"name":"dense_Dense3970/kernel","shape":[1,4],"dtype":"float32"},{"name":"dense_Dense3970/bias","shape":[4],"dtype":"float32"},{"name":"dense_Dense3971/kernel","shape":[4,2],"dtype":"float32"},{"name":"dense_Dense3971/bias","shape":[2],"dtype":"float32"},{"name":"dense_Dense3972/kernel","shape":[2,1],"dtype":"float32"},{"name":"dense_Dense3972/bias","shape":[1],"dtype":"float32"}]}]}