{"modelTopology":{"class_name":"Model","config":{"name":"model1160","layers":[{"name":"input1160","class_name":"InputLayer","config":{"batch_input_shape":[null,3],"dtype":"float32","sparse":false,"name":"input1160"},"inbound_nodes":[]},{"name":"dense_Dense6955","class_name":"Dense","config":{"units":4,"activation":"relu","use_bias":true,"kernel_initializer":{"class_name":"VarianceScaling","config":{"scale":1,"mode":"fan_avg","distribution":"normal","seed":null}},"bias_initializer":{"class_name":"Zeros","config":{}},"kernel_regularizer":null,"bias_regularizer":null,"activity_regularizer":null,"kernel_constraint":null,"bias_constraint":null,"name":"dense_Dense6955","trainable":true},"inbound_nodes":[[["input1160",0,0,{}]]]},{"name":"dense_Dense6956","class_name":"Dense","config":{"units":32,"activation":"relu","use_bias":true,"kernel_initializer":{"class_name":"VarianceScaling","config":{"scale":1,"mode":"fan_avg","distribution":"normal","seed":null}},"bias_initializer":{"class_name":"Zeros","config":{}},"kernel_regularizer":null,"bias_regularizer":null,"activity_regularizer":null,"kernel_constraint":null,"bias_constraint":null,"name":"dense_Dense6956","trainable":true},"inbound_nodes":[[["dense_Dense6955",0,0,{}]]]},{"name":"dense_Dense6957","class_name":"Dense","config":{"units":4,"activation":"relu","use_bias":true,"kernel_initializer":{"class_name":"VarianceScaling","config":{"scale":1,"mode":"fan_avg","distribution":"normal","seed":null}},"bias_initializer":{"class_name":"Zeros","config":{}},"kernel_regularizer":null,"bias_regularizer":null,"activity_regularizer":null,"kernel_constraint":null,"bias_constraint":null,"name":"dense_Dense6957","trainable":true},"inbound_nodes":[[["dense_Dense6956",0,0,{}]]]},{"name":"dense_Dense6958","class_name":"Dense","config":{"units":2,"activation":"relu","use_bias":true,"kernel_initializer":{"class_name":"VarianceScaling","config":{"scale":1,"mode":"fan_avg","distribution":"normal","seed":null}},"bias_initializer":{"class_name":"Zeros","config":{}},"kernel_regularizer":null,"bias_regularizer":null,"activity_regularizer":null,"kernel_constraint":null,"bias_constraint":null,"name":"dense_Dense6958","trainable":true},"inbound_nodes":[[["dense_Dense6957",0,0,{}]]]},{"name":"dense_Dense6959","class_name":"Dense","config":{"units":2,"activation":"relu","use_bias":true,"kernel_initializer":{"class_name":"VarianceScaling","config":{"scale":1,"mode":"fan_avg","distribution":"normal","seed":null}},"bias_initializer":{"class_name":"Zeros","config":{}},"kernel_regularizer":null,"bias_regularizer":null,"activity_regularizer":null,"kernel_constraint":null,"bias_constraint":null,"name":"dense_Dense6959","trainable":true},"inbound_nodes":[[["dense_Dense6958",0,0,{}]]]},{"name":"dense_Dense6960","class_name":"Dense","config":{"units":1,"activation":"sigmoid","use_bias":true,"kernel_initializer":{"class_name":"VarianceScaling","config":{"scale":1,"mode":"fan_avg","distribution":"normal","seed":null}},"bias_initializer":{"class_name":"Zeros","config":{}},"kernel_regularizer":null,"bias_regularizer":null,"activity_regularizer":null,"kernel_constraint":null,"bias_constraint":null,"name":"dense_Dense6960","trainable":true},"inbound_nodes":[[["dense_Dense6959",0,0,{}]]]}],"input_layers":[["input1160",0,0]],"output_layers":[["dense_Dense6960",0,0]]},"keras_version":"tfjs-layers 3.9.0","backend":"tensor_flow.js"},"weightsManifest":[{"paths":["weights.bin"],"weights":[{"name":"dense_Dense6955/kernel","shape":[3,4],"dtype":"float32"},{"name":"dense_Dense6955/bias","shape":[4],"dtype":"float32"},{"name":"dense_Dense6956/kernel","shape":[4,32],"dtype":"float32"},{"name":"dense_Dense6956/bias","shape":[32],"dtype":"float32"},{"name":"dense_Dense6957/kernel","shape":[32,4],"dtype":"float32"},{"name":"dense_Dense6957/bias","shape":[4],"dtype":"float32"},{"name":"dense_Dense6958/kernel","shape":[4,2],"dtype":"float32"},{"name":"dense_Dense6958/bias","shape":[2],"dtype":"float32"},{"name":"dense_Dense6959/kernel","shape":[2,2],"dtype":"float32"},{"name":"dense_Dense6959/bias","shape":[2],"dtype":"float32"},{"name":"dense_Dense6960/kernel","shape":[2,1],"dtype":"float32"},{"name":"dense_Dense6960/bias","shape":[1],"dtype":"float32"}]}]}