{"modelTopology":{"class_name":"Model","config":{"name":"model685","layers":[{"name":"input685","class_name":"InputLayer","config":{"batch_input_shape":[null,3],"dtype":"float32","sparse":false,"name":"input685"},"inbound_nodes":[]},{"name":"dense_Dense4105","class_name":"Dense","config":{"units":1,"activation":"relu","use_bias":true,"kernel_initializer":{"class_name":"VarianceScaling","config":{"scale":1,"mode":"fan_avg","distribution":"normal","seed":null}},"bias_initializer":{"class_name":"Zeros","config":{}},"kernel_regularizer":null,"bias_regularizer":null,"activity_regularizer":null,"kernel_constraint":null,"bias_constraint":null,"name":"dense_Dense4105","trainable":true},"inbound_nodes":[[["input685",0,0,{}]]]},{"name":"dense_Dense4106","class_name":"Dense","config":{"units":8,"activation":"relu","use_bias":true,"kernel_initializer":{"class_name":"VarianceScaling","config":{"scale":1,"mode":"fan_avg","distribution":"normal","seed":null}},"bias_initializer":{"class_name":"Zeros","config":{}},"kernel_regularizer":null,"bias_regularizer":null,"activity_regularizer":null,"kernel_constraint":null,"bias_constraint":null,"name":"dense_Dense4106","trainable":true},"inbound_nodes":[[["dense_Dense4105",0,0,{}]]]},{"name":"dense_Dense4107","class_name":"Dense","config":{"units":2,"activation":"relu","use_bias":true,"kernel_initializer":{"class_name":"VarianceScaling","config":{"scale":1,"mode":"fan_avg","distribution":"normal","seed":null}},"bias_initializer":{"class_name":"Zeros","config":{}},"kernel_regularizer":null,"bias_regularizer":null,"activity_regularizer":null,"kernel_constraint":null,"bias_constraint":null,"name":"dense_Dense4107","trainable":true},"inbound_nodes":[[["dense_Dense4106",0,0,{}]]]},{"name":"dense_Dense4108","class_name":"Dense","config":{"units":1,"activation":"relu","use_bias":true,"kernel_initializer":{"class_name":"VarianceScaling","config":{"scale":1,"mode":"fan_avg","distribution":"normal","seed":null}},"bias_initializer":{"class_name":"Zeros","config":{}},"kernel_regularizer":null,"bias_regularizer":null,"activity_regularizer":null,"kernel_constraint":null,"bias_constraint":null,"name":"dense_Dense4108","trainable":true},"inbound_nodes":[[["dense_Dense4107",0,0,{}]]]},{"name":"dense_Dense4109","class_name":"Dense","config":{"units":1,"activation":"relu","use_bias":true,"kernel_initializer":{"class_name":"VarianceScaling","config":{"scale":1,"mode":"fan_avg","distribution":"normal","seed":null}},"bias_initializer":{"class_name":"Zeros","config":{}},"kernel_regularizer":null,"bias_regularizer":null,"activity_regularizer":null,"kernel_constraint":null,"bias_constraint":null,"name":"dense_Dense4109","trainable":true},"inbound_nodes":[[["dense_Dense4108",0,0,{}]]]},{"name":"dense_Dense4110","class_name":"Dense","config":{"units":1,"activation":"sigmoid","use_bias":true,"kernel_initializer":{"class_name":"VarianceScaling","config":{"scale":1,"mode":"fan_avg","distribution":"normal","seed":null}},"bias_initializer":{"class_name":"Zeros","config":{}},"kernel_regularizer":null,"bias_regularizer":null,"activity_regularizer":null,"kernel_constraint":null,"bias_constraint":null,"name":"dense_Dense4110","trainable":true},"inbound_nodes":[[["dense_Dense4109",0,0,{}]]]}],"input_layers":[["input685",0,0]],"output_layers":[["dense_Dense4110",0,0]]},"keras_version":"tfjs-layers 3.9.0","backend":"tensor_flow.js"},"weightsManifest":[{"paths":["weights.bin"],"weights":[{"name":"dense_Dense4105/kernel","shape":[3,1],"dtype":"float32"},{"name":"dense_Dense4105/bias","shape":[1],"dtype":"float32"},{"name":"dense_Dense4106/kernel","shape":[1,8],"dtype":"float32"},{"name":"dense_Dense4106/bias","shape":[8],"dtype":"float32"},{"name":"dense_Dense4107/kernel","shape":[8,2],"dtype":"float32"},{"name":"dense_Dense4107/bias","shape":[2],"dtype":"float32"},{"name":"dense_Dense4108/kernel","shape":[2,1],"dtype":"float32"},{"name":"dense_Dense4108/bias","shape":[1],"dtype":"float32"},{"name":"dense_Dense4109/kernel","shape":[1,1],"dtype":"float32"},{"name":"dense_Dense4109/bias","shape":[1],"dtype":"float32"},{"name":"dense_Dense4110/kernel","shape":[1,1],"dtype":"float32"},{"name":"dense_Dense4110/bias","shape":[1],"dtype":"float32"}]}]}