{"modelTopology":{"class_name":"Model","config":{"name":"model83","layers":[{"name":"input83","class_name":"InputLayer","config":{"batch_input_shape":[null,3],"dtype":"float32","sparse":false,"name":"input83"},"inbound_nodes":[]},{"name":"dense_Dense493","class_name":"Dense","config":{"units":1,"activation":"relu","use_bias":true,"kernel_initializer":{"class_name":"VarianceScaling","config":{"scale":1,"mode":"fan_avg","distribution":"normal","seed":null}},"bias_initializer":{"class_name":"Zeros","config":{}},"kernel_regularizer":null,"bias_regularizer":null,"activity_regularizer":null,"kernel_constraint":null,"bias_constraint":null,"name":"dense_Dense493","trainable":true},"inbound_nodes":[[["input83",0,0,{}]]]},{"name":"dense_Dense494","class_name":"Dense","config":{"units":1,"activation":"relu","use_bias":true,"kernel_initializer":{"class_name":"VarianceScaling","config":{"scale":1,"mode":"fan_avg","distribution":"normal","seed":null}},"bias_initializer":{"class_name":"Zeros","config":{}},"kernel_regularizer":null,"bias_regularizer":null,"activity_regularizer":null,"kernel_constraint":null,"bias_constraint":null,"name":"dense_Dense494","trainable":true},"inbound_nodes":[[["dense_Dense493",0,0,{}]]]},{"name":"dense_Dense495","class_name":"Dense","config":{"units":4,"activation":"relu","use_bias":true,"kernel_initializer":{"class_name":"VarianceScaling","config":{"scale":1,"mode":"fan_avg","distribution":"normal","seed":null}},"bias_initializer":{"class_name":"Zeros","config":{}},"kernel_regularizer":null,"bias_regularizer":null,"activity_regularizer":null,"kernel_constraint":null,"bias_constraint":null,"name":"dense_Dense495","trainable":true},"inbound_nodes":[[["dense_Dense494",0,0,{}]]]},{"name":"dense_Dense496","class_name":"Dense","config":{"units":2,"activation":"relu","use_bias":true,"kernel_initializer":{"class_name":"VarianceScaling","config":{"scale":1,"mode":"fan_avg","distribution":"normal","seed":null}},"bias_initializer":{"class_name":"Zeros","config":{}},"kernel_regularizer":null,"bias_regularizer":null,"activity_regularizer":null,"kernel_constraint":null,"bias_constraint":null,"name":"dense_Dense496","trainable":true},"inbound_nodes":[[["dense_Dense495",0,0,{}]]]},{"name":"dense_Dense497","class_name":"Dense","config":{"units":16,"activation":"relu","use_bias":true,"kernel_initializer":{"class_name":"VarianceScaling","config":{"scale":1,"mode":"fan_avg","distribution":"normal","seed":null}},"bias_initializer":{"class_name":"Zeros","config":{}},"kernel_regularizer":null,"bias_regularizer":null,"activity_regularizer":null,"kernel_constraint":null,"bias_constraint":null,"name":"dense_Dense497","trainable":true},"inbound_nodes":[[["dense_Dense496",0,0,{}]]]},{"name":"dense_Dense498","class_name":"Dense","config":{"units":1,"activation":"sigmoid","use_bias":true,"kernel_initializer":{"class_name":"VarianceScaling","config":{"scale":1,"mode":"fan_avg","distribution":"normal","seed":null}},"bias_initializer":{"class_name":"Zeros","config":{}},"kernel_regularizer":null,"bias_regularizer":null,"activity_regularizer":null,"kernel_constraint":null,"bias_constraint":null,"name":"dense_Dense498","trainable":true},"inbound_nodes":[[["dense_Dense497",0,0,{}]]]}],"input_layers":[["input83",0,0]],"output_layers":[["dense_Dense498",0,0]]},"keras_version":"tfjs-layers 3.9.0","backend":"tensor_flow.js"},"weightsManifest":[{"paths":["weights.bin"],"weights":[{"name":"dense_Dense493/kernel","shape":[3,1],"dtype":"float32"},{"name":"dense_Dense493/bias","shape":[1],"dtype":"float32"},{"name":"dense_Dense494/kernel","shape":[1,1],"dtype":"float32"},{"name":"dense_Dense494/bias","shape":[1],"dtype":"float32"},{"name":"dense_Dense495/kernel","shape":[1,4],"dtype":"float32"},{"name":"dense_Dense495/bias","shape":[4],"dtype":"float32"},{"name":"dense_Dense496/kernel","shape":[4,2],"dtype":"float32"},{"name":"dense_Dense496/bias","shape":[2],"dtype":"float32"},{"name":"dense_Dense497/kernel","shape":[2,16],"dtype":"float32"},{"name":"dense_Dense497/bias","shape":[16],"dtype":"float32"},{"name":"dense_Dense498/kernel","shape":[16,1],"dtype":"float32"},{"name":"dense_Dense498/bias","shape":[1],"dtype":"float32"}]}]}