{"modelTopology":{"class_name":"Model","config":{"name":"model413","layers":[{"name":"input413","class_name":"InputLayer","config":{"batch_input_shape":[null,3],"dtype":"float32","sparse":false,"name":"input413"},"inbound_nodes":[]},{"name":"dense_Dense2473","class_name":"Dense","config":{"units":2,"activation":"relu","use_bias":true,"kernel_initializer":{"class_name":"VarianceScaling","config":{"scale":1,"mode":"fan_avg","distribution":"normal","seed":null}},"bias_initializer":{"class_name":"Zeros","config":{}},"kernel_regularizer":null,"bias_regularizer":null,"activity_regularizer":null,"kernel_constraint":null,"bias_constraint":null,"name":"dense_Dense2473","trainable":true},"inbound_nodes":[[["input413",0,0,{}]]]},{"name":"dense_Dense2474","class_name":"Dense","config":{"units":2,"activation":"relu","use_bias":true,"kernel_initializer":{"class_name":"VarianceScaling","config":{"scale":1,"mode":"fan_avg","distribution":"normal","seed":null}},"bias_initializer":{"class_name":"Zeros","config":{}},"kernel_regularizer":null,"bias_regularizer":null,"activity_regularizer":null,"kernel_constraint":null,"bias_constraint":null,"name":"dense_Dense2474","trainable":true},"inbound_nodes":[[["dense_Dense2473",0,0,{}]]]},{"name":"dense_Dense2475","class_name":"Dense","config":{"units":32,"activation":"relu","use_bias":true,"kernel_initializer":{"class_name":"VarianceScaling","config":{"scale":1,"mode":"fan_avg","distribution":"normal","seed":null}},"bias_initializer":{"class_name":"Zeros","config":{}},"kernel_regularizer":null,"bias_regularizer":null,"activity_regularizer":null,"kernel_constraint":null,"bias_constraint":null,"name":"dense_Dense2475","trainable":true},"inbound_nodes":[[["dense_Dense2474",0,0,{}]]]},{"name":"dense_Dense2476","class_name":"Dense","config":{"units":4,"activation":"relu","use_bias":true,"kernel_initializer":{"class_name":"VarianceScaling","config":{"scale":1,"mode":"fan_avg","distribution":"normal","seed":null}},"bias_initializer":{"class_name":"Zeros","config":{}},"kernel_regularizer":null,"bias_regularizer":null,"activity_regularizer":null,"kernel_constraint":null,"bias_constraint":null,"name":"dense_Dense2476","trainable":true},"inbound_nodes":[[["dense_Dense2475",0,0,{}]]]},{"name":"dense_Dense2477","class_name":"Dense","config":{"units":16,"activation":"relu","use_bias":true,"kernel_initializer":{"class_name":"VarianceScaling","config":{"scale":1,"mode":"fan_avg","distribution":"normal","seed":null}},"bias_initializer":{"class_name":"Zeros","config":{}},"kernel_regularizer":null,"bias_regularizer":null,"activity_regularizer":null,"kernel_constraint":null,"bias_constraint":null,"name":"dense_Dense2477","trainable":true},"inbound_nodes":[[["dense_Dense2476",0,0,{}]]]},{"name":"dense_Dense2478","class_name":"Dense","config":{"units":1,"activation":"sigmoid","use_bias":true,"kernel_initializer":{"class_name":"VarianceScaling","config":{"scale":1,"mode":"fan_avg","distribution":"normal","seed":null}},"bias_initializer":{"class_name":"Zeros","config":{}},"kernel_regularizer":null,"bias_regularizer":null,"activity_regularizer":null,"kernel_constraint":null,"bias_constraint":null,"name":"dense_Dense2478","trainable":true},"inbound_nodes":[[["dense_Dense2477",0,0,{}]]]}],"input_layers":[["input413",0,0]],"output_layers":[["dense_Dense2478",0,0]]},"keras_version":"tfjs-layers 3.9.0","backend":"tensor_flow.js"},"weightsManifest":[{"paths":["weights.bin"],"weights":[{"name":"dense_Dense2473/kernel","shape":[3,2],"dtype":"float32"},{"name":"dense_Dense2473/bias","shape":[2],"dtype":"float32"},{"name":"dense_Dense2474/kernel","shape":[2,2],"dtype":"float32"},{"name":"dense_Dense2474/bias","shape":[2],"dtype":"float32"},{"name":"dense_Dense2475/kernel","shape":[2,32],"dtype":"float32"},{"name":"dense_Dense2475/bias","shape":[32],"dtype":"float32"},{"name":"dense_Dense2476/kernel","shape":[32,4],"dtype":"float32"},{"name":"dense_Dense2476/bias","shape":[4],"dtype":"float32"},{"name":"dense_Dense2477/kernel","shape":[4,16],"dtype":"float32"},{"name":"dense_Dense2477/bias","shape":[16],"dtype":"float32"},{"name":"dense_Dense2478/kernel","shape":[16,1],"dtype":"float32"},{"name":"dense_Dense2478/bias","shape":[1],"dtype":"float32"}]}]}