{"modelTopology":{"class_name":"Model","config":{"name":"model765","layers":[{"name":"input765","class_name":"InputLayer","config":{"batch_input_shape":[null,3],"dtype":"float32","sparse":false,"name":"input765"},"inbound_nodes":[]},{"name":"dense_Dense3821","class_name":"Dense","config":{"units":8,"activation":"relu","use_bias":true,"kernel_initializer":{"class_name":"VarianceScaling","config":{"scale":1,"mode":"fan_avg","distribution":"normal","seed":null}},"bias_initializer":{"class_name":"Zeros","config":{}},"kernel_regularizer":null,"bias_regularizer":null,"activity_regularizer":null,"kernel_constraint":null,"bias_constraint":null,"name":"dense_Dense3821","trainable":true},"inbound_nodes":[[["input765",0,0,{}]]]},{"name":"dense_Dense3822","class_name":"Dense","config":{"units":8,"activation":"relu","use_bias":true,"kernel_initializer":{"class_name":"VarianceScaling","config":{"scale":1,"mode":"fan_avg","distribution":"normal","seed":null}},"bias_initializer":{"class_name":"Zeros","config":{}},"kernel_regularizer":null,"bias_regularizer":null,"activity_regularizer":null,"kernel_constraint":null,"bias_constraint":null,"name":"dense_Dense3822","trainable":true},"inbound_nodes":[[["dense_Dense3821",0,0,{}]]]},{"name":"dense_Dense3823","class_name":"Dense","config":{"units":2,"activation":"relu","use_bias":true,"kernel_initializer":{"class_name":"VarianceScaling","config":{"scale":1,"mode":"fan_avg","distribution":"normal","seed":null}},"bias_initializer":{"class_name":"Zeros","config":{}},"kernel_regularizer":null,"bias_regularizer":null,"activity_regularizer":null,"kernel_constraint":null,"bias_constraint":null,"name":"dense_Dense3823","trainable":true},"inbound_nodes":[[["dense_Dense3822",0,0,{}]]]},{"name":"dense_Dense3824","class_name":"Dense","config":{"units":4,"activation":"relu","use_bias":true,"kernel_initializer":{"class_name":"VarianceScaling","config":{"scale":1,"mode":"fan_avg","distribution":"normal","seed":null}},"bias_initializer":{"class_name":"Zeros","config":{}},"kernel_regularizer":null,"bias_regularizer":null,"activity_regularizer":null,"kernel_constraint":null,"bias_constraint":null,"name":"dense_Dense3824","trainable":true},"inbound_nodes":[[["dense_Dense3823",0,0,{}]]]},{"name":"dense_Dense3825","class_name":"Dense","config":{"units":1,"activation":"sigmoid","use_bias":true,"kernel_initializer":{"class_name":"VarianceScaling","config":{"scale":1,"mode":"fan_avg","distribution":"normal","seed":null}},"bias_initializer":{"class_name":"Zeros","config":{}},"kernel_regularizer":null,"bias_regularizer":null,"activity_regularizer":null,"kernel_constraint":null,"bias_constraint":null,"name":"dense_Dense3825","trainable":true},"inbound_nodes":[[["dense_Dense3824",0,0,{}]]]}],"input_layers":[["input765",0,0]],"output_layers":[["dense_Dense3825",0,0]]},"keras_version":"tfjs-layers 3.9.0","backend":"tensor_flow.js"},"weightsManifest":[{"paths":["weights.bin"],"weights":[{"name":"dense_Dense3821/kernel","shape":[3,8],"dtype":"float32"},{"name":"dense_Dense3821/bias","shape":[8],"dtype":"float32"},{"name":"dense_Dense3822/kernel","shape":[8,8],"dtype":"float32"},{"name":"dense_Dense3822/bias","shape":[8],"dtype":"float32"},{"name":"dense_Dense3823/kernel","shape":[8,2],"dtype":"float32"},{"name":"dense_Dense3823/bias","shape":[2],"dtype":"float32"},{"name":"dense_Dense3824/kernel","shape":[2,4],"dtype":"float32"},{"name":"dense_Dense3824/bias","shape":[4],"dtype":"float32"},{"name":"dense_Dense3825/kernel","shape":[4,1],"dtype":"float32"},{"name":"dense_Dense3825/bias","shape":[1],"dtype":"float32"}]}]}