{"modelTopology":{"class_name":"Model","config":{"name":"model885","layers":[{"name":"input885","class_name":"InputLayer","config":{"batch_input_shape":[null,3],"dtype":"float32","sparse":false,"name":"input885"},"inbound_nodes":[]},{"name":"dense_Dense4421","class_name":"Dense","config":{"units":16,"activation":"relu","use_bias":true,"kernel_initializer":{"class_name":"VarianceScaling","config":{"scale":1,"mode":"fan_avg","distribution":"normal","seed":null}},"bias_initializer":{"class_name":"Zeros","config":{}},"kernel_regularizer":null,"bias_regularizer":null,"activity_regularizer":null,"kernel_constraint":null,"bias_constraint":null,"name":"dense_Dense4421","trainable":true},"inbound_nodes":[[["input885",0,0,{}]]]},{"name":"dense_Dense4422","class_name":"Dense","config":{"units":1,"activation":"relu","use_bias":true,"kernel_initializer":{"class_name":"VarianceScaling","config":{"scale":1,"mode":"fan_avg","distribution":"normal","seed":null}},"bias_initializer":{"class_name":"Zeros","config":{}},"kernel_regularizer":null,"bias_regularizer":null,"activity_regularizer":null,"kernel_constraint":null,"bias_constraint":null,"name":"dense_Dense4422","trainable":true},"inbound_nodes":[[["dense_Dense4421",0,0,{}]]]},{"name":"dense_Dense4423","class_name":"Dense","config":{"units":8,"activation":"relu","use_bias":true,"kernel_initializer":{"class_name":"VarianceScaling","config":{"scale":1,"mode":"fan_avg","distribution":"normal","seed":null}},"bias_initializer":{"class_name":"Zeros","config":{}},"kernel_regularizer":null,"bias_regularizer":null,"activity_regularizer":null,"kernel_constraint":null,"bias_constraint":null,"name":"dense_Dense4423","trainable":true},"inbound_nodes":[[["dense_Dense4422",0,0,{}]]]},{"name":"dense_Dense4424","class_name":"Dense","config":{"units":4,"activation":"relu","use_bias":true,"kernel_initializer":{"class_name":"VarianceScaling","config":{"scale":1,"mode":"fan_avg","distribution":"normal","seed":null}},"bias_initializer":{"class_name":"Zeros","config":{}},"kernel_regularizer":null,"bias_regularizer":null,"activity_regularizer":null,"kernel_constraint":null,"bias_constraint":null,"name":"dense_Dense4424","trainable":true},"inbound_nodes":[[["dense_Dense4423",0,0,{}]]]},{"name":"dense_Dense4425","class_name":"Dense","config":{"units":1,"activation":"sigmoid","use_bias":true,"kernel_initializer":{"class_name":"VarianceScaling","config":{"scale":1,"mode":"fan_avg","distribution":"normal","seed":null}},"bias_initializer":{"class_name":"Zeros","config":{}},"kernel_regularizer":null,"bias_regularizer":null,"activity_regularizer":null,"kernel_constraint":null,"bias_constraint":null,"name":"dense_Dense4425","trainable":true},"inbound_nodes":[[["dense_Dense4424",0,0,{}]]]}],"input_layers":[["input885",0,0]],"output_layers":[["dense_Dense4425",0,0]]},"keras_version":"tfjs-layers 3.9.0","backend":"tensor_flow.js"},"weightsManifest":[{"paths":["weights.bin"],"weights":[{"name":"dense_Dense4421/kernel","shape":[3,16],"dtype":"float32"},{"name":"dense_Dense4421/bias","shape":[16],"dtype":"float32"},{"name":"dense_Dense4422/kernel","shape":[16,1],"dtype":"float32"},{"name":"dense_Dense4422/bias","shape":[1],"dtype":"float32"},{"name":"dense_Dense4423/kernel","shape":[1,8],"dtype":"float32"},{"name":"dense_Dense4423/bias","shape":[8],"dtype":"float32"},{"name":"dense_Dense4424/kernel","shape":[8,4],"dtype":"float32"},{"name":"dense_Dense4424/bias","shape":[4],"dtype":"float32"},{"name":"dense_Dense4425/kernel","shape":[4,1],"dtype":"float32"},{"name":"dense_Dense4425/bias","shape":[1],"dtype":"float32"}]}]}