{"modelTopology":{"class_name":"Model","config":{"name":"model1247","layers":[{"name":"input1247","class_name":"InputLayer","config":{"batch_input_shape":[null,3],"dtype":"float32","sparse":false,"name":"input1247"},"inbound_nodes":[]},{"name":"dense_Dense6231","class_name":"Dense","config":{"units":32,"activation":"relu","use_bias":true,"kernel_initializer":{"class_name":"VarianceScaling","config":{"scale":1,"mode":"fan_avg","distribution":"normal","seed":null}},"bias_initializer":{"class_name":"Zeros","config":{}},"kernel_regularizer":null,"bias_regularizer":null,"activity_regularizer":null,"kernel_constraint":null,"bias_constraint":null,"name":"dense_Dense6231","trainable":true},"inbound_nodes":[[["input1247",0,0,{}]]]},{"name":"dense_Dense6232","class_name":"Dense","config":{"units":16,"activation":"relu","use_bias":true,"kernel_initializer":{"class_name":"VarianceScaling","config":{"scale":1,"mode":"fan_avg","distribution":"normal","seed":null}},"bias_initializer":{"class_name":"Zeros","config":{}},"kernel_regularizer":null,"bias_regularizer":null,"activity_regularizer":null,"kernel_constraint":null,"bias_constraint":null,"name":"dense_Dense6232","trainable":true},"inbound_nodes":[[["dense_Dense6231",0,0,{}]]]},{"name":"dense_Dense6233","class_name":"Dense","config":{"units":8,"activation":"relu","use_bias":true,"kernel_initializer":{"class_name":"VarianceScaling","config":{"scale":1,"mode":"fan_avg","distribution":"normal","seed":null}},"bias_initializer":{"class_name":"Zeros","config":{}},"kernel_regularizer":null,"bias_regularizer":null,"activity_regularizer":null,"kernel_constraint":null,"bias_constraint":null,"name":"dense_Dense6233","trainable":true},"inbound_nodes":[[["dense_Dense6232",0,0,{}]]]},{"name":"dense_Dense6234","class_name":"Dense","config":{"units":16,"activation":"relu","use_bias":true,"kernel_initializer":{"class_name":"VarianceScaling","config":{"scale":1,"mode":"fan_avg","distribution":"normal","seed":null}},"bias_initializer":{"class_name":"Zeros","config":{}},"kernel_regularizer":null,"bias_regularizer":null,"activity_regularizer":null,"kernel_constraint":null,"bias_constraint":null,"name":"dense_Dense6234","trainable":true},"inbound_nodes":[[["dense_Dense6233",0,0,{}]]]},{"name":"dense_Dense6235","class_name":"Dense","config":{"units":1,"activation":"sigmoid","use_bias":true,"kernel_initializer":{"class_name":"VarianceScaling","config":{"scale":1,"mode":"fan_avg","distribution":"normal","seed":null}},"bias_initializer":{"class_name":"Zeros","config":{}},"kernel_regularizer":null,"bias_regularizer":null,"activity_regularizer":null,"kernel_constraint":null,"bias_constraint":null,"name":"dense_Dense6235","trainable":true},"inbound_nodes":[[["dense_Dense6234",0,0,{}]]]}],"input_layers":[["input1247",0,0]],"output_layers":[["dense_Dense6235",0,0]]},"keras_version":"tfjs-layers 3.9.0","backend":"tensor_flow.js"},"weightsManifest":[{"paths":["weights.bin"],"weights":[{"name":"dense_Dense6231/kernel","shape":[3,32],"dtype":"float32"},{"name":"dense_Dense6231/bias","shape":[32],"dtype":"float32"},{"name":"dense_Dense6232/kernel","shape":[32,16],"dtype":"float32"},{"name":"dense_Dense6232/bias","shape":[16],"dtype":"float32"},{"name":"dense_Dense6233/kernel","shape":[16,8],"dtype":"float32"},{"name":"dense_Dense6233/bias","shape":[8],"dtype":"float32"},{"name":"dense_Dense6234/kernel","shape":[8,16],"dtype":"float32"},{"name":"dense_Dense6234/bias","shape":[16],"dtype":"float32"},{"name":"dense_Dense6235/kernel","shape":[16,1],"dtype":"float32"},{"name":"dense_Dense6235/bias","shape":[1],"dtype":"float32"}]}]}