{"modelTopology":{"class_name":"Model","config":{"name":"model401","layers":[{"name":"input401","class_name":"InputLayer","config":{"batch_input_shape":[null,3],"dtype":"float32","sparse":false,"name":"input401"},"inbound_nodes":[]},{"name":"dense_Dense2401","class_name":"Dense","config":{"units":2,"activation":"relu","use_bias":true,"kernel_initializer":{"class_name":"VarianceScaling","config":{"scale":1,"mode":"fan_avg","distribution":"normal","seed":null}},"bias_initializer":{"class_name":"Zeros","config":{}},"kernel_regularizer":null,"bias_regularizer":null,"activity_regularizer":null,"kernel_constraint":null,"bias_constraint":null,"name":"dense_Dense2401","trainable":true},"inbound_nodes":[[["input401",0,0,{}]]]},{"name":"dense_Dense2402","class_name":"Dense","config":{"units":2,"activation":"relu","use_bias":true,"kernel_initializer":{"class_name":"VarianceScaling","config":{"scale":1,"mode":"fan_avg","distribution":"normal","seed":null}},"bias_initializer":{"class_name":"Zeros","config":{}},"kernel_regularizer":null,"bias_regularizer":null,"activity_regularizer":null,"kernel_constraint":null,"bias_constraint":null,"name":"dense_Dense2402","trainable":true},"inbound_nodes":[[["dense_Dense2401",0,0,{}]]]},{"name":"dense_Dense2403","class_name":"Dense","config":{"units":32,"activation":"relu","use_bias":true,"kernel_initializer":{"class_name":"VarianceScaling","config":{"scale":1,"mode":"fan_avg","distribution":"normal","seed":null}},"bias_initializer":{"class_name":"Zeros","config":{}},"kernel_regularizer":null,"bias_regularizer":null,"activity_regularizer":null,"kernel_constraint":null,"bias_constraint":null,"name":"dense_Dense2403","trainable":true},"inbound_nodes":[[["dense_Dense2402",0,0,{}]]]},{"name":"dense_Dense2404","class_name":"Dense","config":{"units":1,"activation":"relu","use_bias":true,"kernel_initializer":{"class_name":"VarianceScaling","config":{"scale":1,"mode":"fan_avg","distribution":"normal","seed":null}},"bias_initializer":{"class_name":"Zeros","config":{}},"kernel_regularizer":null,"bias_regularizer":null,"activity_regularizer":null,"kernel_constraint":null,"bias_constraint":null,"name":"dense_Dense2404","trainable":true},"inbound_nodes":[[["dense_Dense2403",0,0,{}]]]},{"name":"dense_Dense2405","class_name":"Dense","config":{"units":16,"activation":"relu","use_bias":true,"kernel_initializer":{"class_name":"VarianceScaling","config":{"scale":1,"mode":"fan_avg","distribution":"normal","seed":null}},"bias_initializer":{"class_name":"Zeros","config":{}},"kernel_regularizer":null,"bias_regularizer":null,"activity_regularizer":null,"kernel_constraint":null,"bias_constraint":null,"name":"dense_Dense2405","trainable":true},"inbound_nodes":[[["dense_Dense2404",0,0,{}]]]},{"name":"dense_Dense2406","class_name":"Dense","config":{"units":1,"activation":"sigmoid","use_bias":true,"kernel_initializer":{"class_name":"VarianceScaling","config":{"scale":1,"mode":"fan_avg","distribution":"normal","seed":null}},"bias_initializer":{"class_name":"Zeros","config":{}},"kernel_regularizer":null,"bias_regularizer":null,"activity_regularizer":null,"kernel_constraint":null,"bias_constraint":null,"name":"dense_Dense2406","trainable":true},"inbound_nodes":[[["dense_Dense2405",0,0,{}]]]}],"input_layers":[["input401",0,0]],"output_layers":[["dense_Dense2406",0,0]]},"keras_version":"tfjs-layers 3.9.0","backend":"tensor_flow.js"},"weightsManifest":[{"paths":["weights.bin"],"weights":[{"name":"dense_Dense2401/kernel","shape":[3,2],"dtype":"float32"},{"name":"dense_Dense2401/bias","shape":[2],"dtype":"float32"},{"name":"dense_Dense2402/kernel","shape":[2,2],"dtype":"float32"},{"name":"dense_Dense2402/bias","shape":[2],"dtype":"float32"},{"name":"dense_Dense2403/kernel","shape":[2,32],"dtype":"float32"},{"name":"dense_Dense2403/bias","shape":[32],"dtype":"float32"},{"name":"dense_Dense2404/kernel","shape":[32,1],"dtype":"float32"},{"name":"dense_Dense2404/bias","shape":[1],"dtype":"float32"},{"name":"dense_Dense2405/kernel","shape":[1,16],"dtype":"float32"},{"name":"dense_Dense2405/bias","shape":[16],"dtype":"float32"},{"name":"dense_Dense2406/kernel","shape":[16,1],"dtype":"float32"},{"name":"dense_Dense2406/bias","shape":[1],"dtype":"float32"}]}]}