{"modelTopology":{"class_name":"Model","config":{"name":"model1111","layers":[{"name":"input1111","class_name":"InputLayer","config":{"batch_input_shape":[null,3],"dtype":"float32","sparse":false,"name":"input1111"},"inbound_nodes":[]},{"name":"dense_Dense6661","class_name":"Dense","config":{"units":4,"activation":"relu","use_bias":true,"kernel_initializer":{"class_name":"VarianceScaling","config":{"scale":1,"mode":"fan_avg","distribution":"normal","seed":null}},"bias_initializer":{"class_name":"Zeros","config":{}},"kernel_regularizer":null,"bias_regularizer":null,"activity_regularizer":null,"kernel_constraint":null,"bias_constraint":null,"name":"dense_Dense6661","trainable":true},"inbound_nodes":[[["input1111",0,0,{}]]]},{"name":"dense_Dense6662","class_name":"Dense","config":{"units":32,"activation":"relu","use_bias":true,"kernel_initializer":{"class_name":"VarianceScaling","config":{"scale":1,"mode":"fan_avg","distribution":"normal","seed":null}},"bias_initializer":{"class_name":"Zeros","config":{}},"kernel_regularizer":null,"bias_regularizer":null,"activity_regularizer":null,"kernel_constraint":null,"bias_constraint":null,"name":"dense_Dense6662","trainable":true},"inbound_nodes":[[["dense_Dense6661",0,0,{}]]]},{"name":"dense_Dense6663","class_name":"Dense","config":{"units":1,"activation":"relu","use_bias":true,"kernel_initializer":{"class_name":"VarianceScaling","config":{"scale":1,"mode":"fan_avg","distribution":"normal","seed":null}},"bias_initializer":{"class_name":"Zeros","config":{}},"kernel_regularizer":null,"bias_regularizer":null,"activity_regularizer":null,"kernel_constraint":null,"bias_constraint":null,"name":"dense_Dense6663","trainable":true},"inbound_nodes":[[["dense_Dense6662",0,0,{}]]]},{"name":"dense_Dense6664","class_name":"Dense","config":{"units":32,"activation":"relu","use_bias":true,"kernel_initializer":{"class_name":"VarianceScaling","config":{"scale":1,"mode":"fan_avg","distribution":"normal","seed":null}},"bias_initializer":{"class_name":"Zeros","config":{}},"kernel_regularizer":null,"bias_regularizer":null,"activity_regularizer":null,"kernel_constraint":null,"bias_constraint":null,"name":"dense_Dense6664","trainable":true},"inbound_nodes":[[["dense_Dense6663",0,0,{}]]]},{"name":"dense_Dense6665","class_name":"Dense","config":{"units":1,"activation":"relu","use_bias":true,"kernel_initializer":{"class_name":"VarianceScaling","config":{"scale":1,"mode":"fan_avg","distribution":"normal","seed":null}},"bias_initializer":{"class_name":"Zeros","config":{}},"kernel_regularizer":null,"bias_regularizer":null,"activity_regularizer":null,"kernel_constraint":null,"bias_constraint":null,"name":"dense_Dense6665","trainable":true},"inbound_nodes":[[["dense_Dense6664",0,0,{}]]]},{"name":"dense_Dense6666","class_name":"Dense","config":{"units":1,"activation":"sigmoid","use_bias":true,"kernel_initializer":{"class_name":"VarianceScaling","config":{"scale":1,"mode":"fan_avg","distribution":"normal","seed":null}},"bias_initializer":{"class_name":"Zeros","config":{}},"kernel_regularizer":null,"bias_regularizer":null,"activity_regularizer":null,"kernel_constraint":null,"bias_constraint":null,"name":"dense_Dense6666","trainable":true},"inbound_nodes":[[["dense_Dense6665",0,0,{}]]]}],"input_layers":[["input1111",0,0]],"output_layers":[["dense_Dense6666",0,0]]},"keras_version":"tfjs-layers 3.9.0","backend":"tensor_flow.js"},"weightsManifest":[{"paths":["weights.bin"],"weights":[{"name":"dense_Dense6661/kernel","shape":[3,4],"dtype":"float32"},{"name":"dense_Dense6661/bias","shape":[4],"dtype":"float32"},{"name":"dense_Dense6662/kernel","shape":[4,32],"dtype":"float32"},{"name":"dense_Dense6662/bias","shape":[32],"dtype":"float32"},{"name":"dense_Dense6663/kernel","shape":[32,1],"dtype":"float32"},{"name":"dense_Dense6663/bias","shape":[1],"dtype":"float32"},{"name":"dense_Dense6664/kernel","shape":[1,32],"dtype":"float32"},{"name":"dense_Dense6664/bias","shape":[32],"dtype":"float32"},{"name":"dense_Dense6665/kernel","shape":[32,1],"dtype":"float32"},{"name":"dense_Dense6665/bias","shape":[1],"dtype":"float32"},{"name":"dense_Dense6666/kernel","shape":[1,1],"dtype":"float32"},{"name":"dense_Dense6666/bias","shape":[1],"dtype":"float32"}]}]}