{"modelTopology":{"class_name":"Model","config":{"name":"model647","layers":[{"name":"input647","class_name":"InputLayer","config":{"batch_input_shape":[null,3],"dtype":"float32","sparse":false,"name":"input647"},"inbound_nodes":[]},{"name":"dense_Dense3877","class_name":"Dense","config":{"units":32,"activation":"relu","use_bias":true,"kernel_initializer":{"class_name":"VarianceScaling","config":{"scale":1,"mode":"fan_avg","distribution":"normal","seed":null}},"bias_initializer":{"class_name":"Zeros","config":{}},"kernel_regularizer":null,"bias_regularizer":null,"activity_regularizer":null,"kernel_constraint":null,"bias_constraint":null,"name":"dense_Dense3877","trainable":true},"inbound_nodes":[[["input647",0,0,{}]]]},{"name":"dense_Dense3878","class_name":"Dense","config":{"units":4,"activation":"relu","use_bias":true,"kernel_initializer":{"class_name":"VarianceScaling","config":{"scale":1,"mode":"fan_avg","distribution":"normal","seed":null}},"bias_initializer":{"class_name":"Zeros","config":{}},"kernel_regularizer":null,"bias_regularizer":null,"activity_regularizer":null,"kernel_constraint":null,"bias_constraint":null,"name":"dense_Dense3878","trainable":true},"inbound_nodes":[[["dense_Dense3877",0,0,{}]]]},{"name":"dense_Dense3879","class_name":"Dense","config":{"units":32,"activation":"relu","use_bias":true,"kernel_initializer":{"class_name":"VarianceScaling","config":{"scale":1,"mode":"fan_avg","distribution":"normal","seed":null}},"bias_initializer":{"class_name":"Zeros","config":{}},"kernel_regularizer":null,"bias_regularizer":null,"activity_regularizer":null,"kernel_constraint":null,"bias_constraint":null,"name":"dense_Dense3879","trainable":true},"inbound_nodes":[[["dense_Dense3878",0,0,{}]]]},{"name":"dense_Dense3880","class_name":"Dense","config":{"units":32,"activation":"relu","use_bias":true,"kernel_initializer":{"class_name":"VarianceScaling","config":{"scale":1,"mode":"fan_avg","distribution":"normal","seed":null}},"bias_initializer":{"class_name":"Zeros","config":{}},"kernel_regularizer":null,"bias_regularizer":null,"activity_regularizer":null,"kernel_constraint":null,"bias_constraint":null,"name":"dense_Dense3880","trainable":true},"inbound_nodes":[[["dense_Dense3879",0,0,{}]]]},{"name":"dense_Dense3881","class_name":"Dense","config":{"units":16,"activation":"relu","use_bias":true,"kernel_initializer":{"class_name":"VarianceScaling","config":{"scale":1,"mode":"fan_avg","distribution":"normal","seed":null}},"bias_initializer":{"class_name":"Zeros","config":{}},"kernel_regularizer":null,"bias_regularizer":null,"activity_regularizer":null,"kernel_constraint":null,"bias_constraint":null,"name":"dense_Dense3881","trainable":true},"inbound_nodes":[[["dense_Dense3880",0,0,{}]]]},{"name":"dense_Dense3882","class_name":"Dense","config":{"units":1,"activation":"sigmoid","use_bias":true,"kernel_initializer":{"class_name":"VarianceScaling","config":{"scale":1,"mode":"fan_avg","distribution":"normal","seed":null}},"bias_initializer":{"class_name":"Zeros","config":{}},"kernel_regularizer":null,"bias_regularizer":null,"activity_regularizer":null,"kernel_constraint":null,"bias_constraint":null,"name":"dense_Dense3882","trainable":true},"inbound_nodes":[[["dense_Dense3881",0,0,{}]]]}],"input_layers":[["input647",0,0]],"output_layers":[["dense_Dense3882",0,0]]},"keras_version":"tfjs-layers 3.9.0","backend":"tensor_flow.js"},"weightsManifest":[{"paths":["weights.bin"],"weights":[{"name":"dense_Dense3877/kernel","shape":[3,32],"dtype":"float32"},{"name":"dense_Dense3877/bias","shape":[32],"dtype":"float32"},{"name":"dense_Dense3878/kernel","shape":[32,4],"dtype":"float32"},{"name":"dense_Dense3878/bias","shape":[4],"dtype":"float32"},{"name":"dense_Dense3879/kernel","shape":[4,32],"dtype":"float32"},{"name":"dense_Dense3879/bias","shape":[32],"dtype":"float32"},{"name":"dense_Dense3880/kernel","shape":[32,32],"dtype":"float32"},{"name":"dense_Dense3880/bias","shape":[32],"dtype":"float32"},{"name":"dense_Dense3881/kernel","shape":[32,16],"dtype":"float32"},{"name":"dense_Dense3881/bias","shape":[16],"dtype":"float32"},{"name":"dense_Dense3882/kernel","shape":[16,1],"dtype":"float32"},{"name":"dense_Dense3882/bias","shape":[1],"dtype":"float32"}]}]}