{"modelTopology":{"class_name":"Model","config":{"name":"model735","layers":[{"name":"input735","class_name":"InputLayer","config":{"batch_input_shape":[null,3],"dtype":"float32","sparse":false,"name":"input735"},"inbound_nodes":[]},{"name":"dense_Dense3671","class_name":"Dense","config":{"units":8,"activation":"relu","use_bias":true,"kernel_initializer":{"class_name":"VarianceScaling","config":{"scale":1,"mode":"fan_avg","distribution":"normal","seed":null}},"bias_initializer":{"class_name":"Zeros","config":{}},"kernel_regularizer":null,"bias_regularizer":null,"activity_regularizer":null,"kernel_constraint":null,"bias_constraint":null,"name":"dense_Dense3671","trainable":true},"inbound_nodes":[[["input735",0,0,{}]]]},{"name":"dense_Dense3672","class_name":"Dense","config":{"units":4,"activation":"relu","use_bias":true,"kernel_initializer":{"class_name":"VarianceScaling","config":{"scale":1,"mode":"fan_avg","distribution":"normal","seed":null}},"bias_initializer":{"class_name":"Zeros","config":{}},"kernel_regularizer":null,"bias_regularizer":null,"activity_regularizer":null,"kernel_constraint":null,"bias_constraint":null,"name":"dense_Dense3672","trainable":true},"inbound_nodes":[[["dense_Dense3671",0,0,{}]]]},{"name":"dense_Dense3673","class_name":"Dense","config":{"units":4,"activation":"relu","use_bias":true,"kernel_initializer":{"class_name":"VarianceScaling","config":{"scale":1,"mode":"fan_avg","distribution":"normal","seed":null}},"bias_initializer":{"class_name":"Zeros","config":{}},"kernel_regularizer":null,"bias_regularizer":null,"activity_regularizer":null,"kernel_constraint":null,"bias_constraint":null,"name":"dense_Dense3673","trainable":true},"inbound_nodes":[[["dense_Dense3672",0,0,{}]]]},{"name":"dense_Dense3674","class_name":"Dense","config":{"units":4,"activation":"relu","use_bias":true,"kernel_initializer":{"class_name":"VarianceScaling","config":{"scale":1,"mode":"fan_avg","distribution":"normal","seed":null}},"bias_initializer":{"class_name":"Zeros","config":{}},"kernel_regularizer":null,"bias_regularizer":null,"activity_regularizer":null,"kernel_constraint":null,"bias_constraint":null,"name":"dense_Dense3674","trainable":true},"inbound_nodes":[[["dense_Dense3673",0,0,{}]]]},{"name":"dense_Dense3675","class_name":"Dense","config":{"units":1,"activation":"sigmoid","use_bias":true,"kernel_initializer":{"class_name":"VarianceScaling","config":{"scale":1,"mode":"fan_avg","distribution":"normal","seed":null}},"bias_initializer":{"class_name":"Zeros","config":{}},"kernel_regularizer":null,"bias_regularizer":null,"activity_regularizer":null,"kernel_constraint":null,"bias_constraint":null,"name":"dense_Dense3675","trainable":true},"inbound_nodes":[[["dense_Dense3674",0,0,{}]]]}],"input_layers":[["input735",0,0]],"output_layers":[["dense_Dense3675",0,0]]},"keras_version":"tfjs-layers 3.9.0","backend":"tensor_flow.js"},"weightsManifest":[{"paths":["weights.bin"],"weights":[{"name":"dense_Dense3671/kernel","shape":[3,8],"dtype":"float32"},{"name":"dense_Dense3671/bias","shape":[8],"dtype":"float32"},{"name":"dense_Dense3672/kernel","shape":[8,4],"dtype":"float32"},{"name":"dense_Dense3672/bias","shape":[4],"dtype":"float32"},{"name":"dense_Dense3673/kernel","shape":[4,4],"dtype":"float32"},{"name":"dense_Dense3673/bias","shape":[4],"dtype":"float32"},{"name":"dense_Dense3674/kernel","shape":[4,4],"dtype":"float32"},{"name":"dense_Dense3674/bias","shape":[4],"dtype":"float32"},{"name":"dense_Dense3675/kernel","shape":[4,1],"dtype":"float32"},{"name":"dense_Dense3675/bias","shape":[1],"dtype":"float32"}]}]}