{"modelTopology":{"class_name":"Model","config":{"name":"model1028","layers":[{"name":"input1028","class_name":"InputLayer","config":{"batch_input_shape":[null,3],"dtype":"float32","sparse":false,"name":"input1028"},"inbound_nodes":[]},{"name":"dense_Dense6163","class_name":"Dense","config":{"units":4,"activation":"relu","use_bias":true,"kernel_initializer":{"class_name":"VarianceScaling","config":{"scale":1,"mode":"fan_avg","distribution":"normal","seed":null}},"bias_initializer":{"class_name":"Zeros","config":{}},"kernel_regularizer":null,"bias_regularizer":null,"activity_regularizer":null,"kernel_constraint":null,"bias_constraint":null,"name":"dense_Dense6163","trainable":true},"inbound_nodes":[[["input1028",0,0,{}]]]},{"name":"dense_Dense6164","class_name":"Dense","config":{"units":16,"activation":"relu","use_bias":true,"kernel_initializer":{"class_name":"VarianceScaling","config":{"scale":1,"mode":"fan_avg","distribution":"normal","seed":null}},"bias_initializer":{"class_name":"Zeros","config":{}},"kernel_regularizer":null,"bias_regularizer":null,"activity_regularizer":null,"kernel_constraint":null,"bias_constraint":null,"name":"dense_Dense6164","trainable":true},"inbound_nodes":[[["dense_Dense6163",0,0,{}]]]},{"name":"dense_Dense6165","class_name":"Dense","config":{"units":16,"activation":"relu","use_bias":true,"kernel_initializer":{"class_name":"VarianceScaling","config":{"scale":1,"mode":"fan_avg","distribution":"normal","seed":null}},"bias_initializer":{"class_name":"Zeros","config":{}},"kernel_regularizer":null,"bias_regularizer":null,"activity_regularizer":null,"kernel_constraint":null,"bias_constraint":null,"name":"dense_Dense6165","trainable":true},"inbound_nodes":[[["dense_Dense6164",0,0,{}]]]},{"name":"dense_Dense6166","class_name":"Dense","config":{"units":8,"activation":"relu","use_bias":true,"kernel_initializer":{"class_name":"VarianceScaling","config":{"scale":1,"mode":"fan_avg","distribution":"normal","seed":null}},"bias_initializer":{"class_name":"Zeros","config":{}},"kernel_regularizer":null,"bias_regularizer":null,"activity_regularizer":null,"kernel_constraint":null,"bias_constraint":null,"name":"dense_Dense6166","trainable":true},"inbound_nodes":[[["dense_Dense6165",0,0,{}]]]},{"name":"dense_Dense6167","class_name":"Dense","config":{"units":2,"activation":"relu","use_bias":true,"kernel_initializer":{"class_name":"VarianceScaling","config":{"scale":1,"mode":"fan_avg","distribution":"normal","seed":null}},"bias_initializer":{"class_name":"Zeros","config":{}},"kernel_regularizer":null,"bias_regularizer":null,"activity_regularizer":null,"kernel_constraint":null,"bias_constraint":null,"name":"dense_Dense6167","trainable":true},"inbound_nodes":[[["dense_Dense6166",0,0,{}]]]},{"name":"dense_Dense6168","class_name":"Dense","config":{"units":1,"activation":"sigmoid","use_bias":true,"kernel_initializer":{"class_name":"VarianceScaling","config":{"scale":1,"mode":"fan_avg","distribution":"normal","seed":null}},"bias_initializer":{"class_name":"Zeros","config":{}},"kernel_regularizer":null,"bias_regularizer":null,"activity_regularizer":null,"kernel_constraint":null,"bias_constraint":null,"name":"dense_Dense6168","trainable":true},"inbound_nodes":[[["dense_Dense6167",0,0,{}]]]}],"input_layers":[["input1028",0,0]],"output_layers":[["dense_Dense6168",0,0]]},"keras_version":"tfjs-layers 3.9.0","backend":"tensor_flow.js"},"weightsManifest":[{"paths":["weights.bin"],"weights":[{"name":"dense_Dense6163/kernel","shape":[3,4],"dtype":"float32"},{"name":"dense_Dense6163/bias","shape":[4],"dtype":"float32"},{"name":"dense_Dense6164/kernel","shape":[4,16],"dtype":"float32"},{"name":"dense_Dense6164/bias","shape":[16],"dtype":"float32"},{"name":"dense_Dense6165/kernel","shape":[16,16],"dtype":"float32"},{"name":"dense_Dense6165/bias","shape":[16],"dtype":"float32"},{"name":"dense_Dense6166/kernel","shape":[16,8],"dtype":"float32"},{"name":"dense_Dense6166/bias","shape":[8],"dtype":"float32"},{"name":"dense_Dense6167/kernel","shape":[8,2],"dtype":"float32"},{"name":"dense_Dense6167/bias","shape":[2],"dtype":"float32"},{"name":"dense_Dense6168/kernel","shape":[2,1],"dtype":"float32"},{"name":"dense_Dense6168/bias","shape":[1],"dtype":"float32"}]}]}