{"modelTopology":{"class_name":"Model","config":{"name":"model693","layers":[{"name":"input693","class_name":"InputLayer","config":{"batch_input_shape":[null,3],"dtype":"float32","sparse":false,"name":"input693"},"inbound_nodes":[]},{"name":"dense_Dense4153","class_name":"Dense","config":{"units":4,"activation":"relu","use_bias":true,"kernel_initializer":{"class_name":"VarianceScaling","config":{"scale":1,"mode":"fan_avg","distribution":"normal","seed":null}},"bias_initializer":{"class_name":"Zeros","config":{}},"kernel_regularizer":null,"bias_regularizer":null,"activity_regularizer":null,"kernel_constraint":null,"bias_constraint":null,"name":"dense_Dense4153","trainable":true},"inbound_nodes":[[["input693",0,0,{}]]]},{"name":"dense_Dense4154","class_name":"Dense","config":{"units":8,"activation":"relu","use_bias":true,"kernel_initializer":{"class_name":"VarianceScaling","config":{"scale":1,"mode":"fan_avg","distribution":"normal","seed":null}},"bias_initializer":{"class_name":"Zeros","config":{}},"kernel_regularizer":null,"bias_regularizer":null,"activity_regularizer":null,"kernel_constraint":null,"bias_constraint":null,"name":"dense_Dense4154","trainable":true},"inbound_nodes":[[["dense_Dense4153",0,0,{}]]]},{"name":"dense_Dense4155","class_name":"Dense","config":{"units":2,"activation":"relu","use_bias":true,"kernel_initializer":{"class_name":"VarianceScaling","config":{"scale":1,"mode":"fan_avg","distribution":"normal","seed":null}},"bias_initializer":{"class_name":"Zeros","config":{}},"kernel_regularizer":null,"bias_regularizer":null,"activity_regularizer":null,"kernel_constraint":null,"bias_constraint":null,"name":"dense_Dense4155","trainable":true},"inbound_nodes":[[["dense_Dense4154",0,0,{}]]]},{"name":"dense_Dense4156","class_name":"Dense","config":{"units":2,"activation":"relu","use_bias":true,"kernel_initializer":{"class_name":"VarianceScaling","config":{"scale":1,"mode":"fan_avg","distribution":"normal","seed":null}},"bias_initializer":{"class_name":"Zeros","config":{}},"kernel_regularizer":null,"bias_regularizer":null,"activity_regularizer":null,"kernel_constraint":null,"bias_constraint":null,"name":"dense_Dense4156","trainable":true},"inbound_nodes":[[["dense_Dense4155",0,0,{}]]]},{"name":"dense_Dense4157","class_name":"Dense","config":{"units":4,"activation":"relu","use_bias":true,"kernel_initializer":{"class_name":"VarianceScaling","config":{"scale":1,"mode":"fan_avg","distribution":"normal","seed":null}},"bias_initializer":{"class_name":"Zeros","config":{}},"kernel_regularizer":null,"bias_regularizer":null,"activity_regularizer":null,"kernel_constraint":null,"bias_constraint":null,"name":"dense_Dense4157","trainable":true},"inbound_nodes":[[["dense_Dense4156",0,0,{}]]]},{"name":"dense_Dense4158","class_name":"Dense","config":{"units":1,"activation":"sigmoid","use_bias":true,"kernel_initializer":{"class_name":"VarianceScaling","config":{"scale":1,"mode":"fan_avg","distribution":"normal","seed":null}},"bias_initializer":{"class_name":"Zeros","config":{}},"kernel_regularizer":null,"bias_regularizer":null,"activity_regularizer":null,"kernel_constraint":null,"bias_constraint":null,"name":"dense_Dense4158","trainable":true},"inbound_nodes":[[["dense_Dense4157",0,0,{}]]]}],"input_layers":[["input693",0,0]],"output_layers":[["dense_Dense4158",0,0]]},"keras_version":"tfjs-layers 3.9.0","backend":"tensor_flow.js"},"weightsManifest":[{"paths":["weights.bin"],"weights":[{"name":"dense_Dense4153/kernel","shape":[3,4],"dtype":"float32"},{"name":"dense_Dense4153/bias","shape":[4],"dtype":"float32"},{"name":"dense_Dense4154/kernel","shape":[4,8],"dtype":"float32"},{"name":"dense_Dense4154/bias","shape":[8],"dtype":"float32"},{"name":"dense_Dense4155/kernel","shape":[8,2],"dtype":"float32"},{"name":"dense_Dense4155/bias","shape":[2],"dtype":"float32"},{"name":"dense_Dense4156/kernel","shape":[2,2],"dtype":"float32"},{"name":"dense_Dense4156/bias","shape":[2],"dtype":"float32"},{"name":"dense_Dense4157/kernel","shape":[2,4],"dtype":"float32"},{"name":"dense_Dense4157/bias","shape":[4],"dtype":"float32"},{"name":"dense_Dense4158/kernel","shape":[4,1],"dtype":"float32"},{"name":"dense_Dense4158/bias","shape":[1],"dtype":"float32"}]}]}