{"modelTopology":{"class_name":"Model","config":{"name":"model343","layers":[{"name":"input343","class_name":"InputLayer","config":{"batch_input_shape":[null,3],"dtype":"float32","sparse":false,"name":"input343"},"inbound_nodes":[]},{"name":"dense_Dense2053","class_name":"Dense","config":{"units":2,"activation":"relu","use_bias":true,"kernel_initializer":{"class_name":"VarianceScaling","config":{"scale":1,"mode":"fan_avg","distribution":"normal","seed":null}},"bias_initializer":{"class_name":"Zeros","config":{}},"kernel_regularizer":null,"bias_regularizer":null,"activity_regularizer":null,"kernel_constraint":null,"bias_constraint":null,"name":"dense_Dense2053","trainable":true},"inbound_nodes":[[["input343",0,0,{}]]]},{"name":"dense_Dense2054","class_name":"Dense","config":{"units":2,"activation":"relu","use_bias":true,"kernel_initializer":{"class_name":"VarianceScaling","config":{"scale":1,"mode":"fan_avg","distribution":"normal","seed":null}},"bias_initializer":{"class_name":"Zeros","config":{}},"kernel_regularizer":null,"bias_regularizer":null,"activity_regularizer":null,"kernel_constraint":null,"bias_constraint":null,"name":"dense_Dense2054","trainable":true},"inbound_nodes":[[["dense_Dense2053",0,0,{}]]]},{"name":"dense_Dense2055","class_name":"Dense","config":{"units":8,"activation":"relu","use_bias":true,"kernel_initializer":{"class_name":"VarianceScaling","config":{"scale":1,"mode":"fan_avg","distribution":"normal","seed":null}},"bias_initializer":{"class_name":"Zeros","config":{}},"kernel_regularizer":null,"bias_regularizer":null,"activity_regularizer":null,"kernel_constraint":null,"bias_constraint":null,"name":"dense_Dense2055","trainable":true},"inbound_nodes":[[["dense_Dense2054",0,0,{}]]]},{"name":"dense_Dense2056","class_name":"Dense","config":{"units":8,"activation":"relu","use_bias":true,"kernel_initializer":{"class_name":"VarianceScaling","config":{"scale":1,"mode":"fan_avg","distribution":"normal","seed":null}},"bias_initializer":{"class_name":"Zeros","config":{}},"kernel_regularizer":null,"bias_regularizer":null,"activity_regularizer":null,"kernel_constraint":null,"bias_constraint":null,"name":"dense_Dense2056","trainable":true},"inbound_nodes":[[["dense_Dense2055",0,0,{}]]]},{"name":"dense_Dense2057","class_name":"Dense","config":{"units":1,"activation":"relu","use_bias":true,"kernel_initializer":{"class_name":"VarianceScaling","config":{"scale":1,"mode":"fan_avg","distribution":"normal","seed":null}},"bias_initializer":{"class_name":"Zeros","config":{}},"kernel_regularizer":null,"bias_regularizer":null,"activity_regularizer":null,"kernel_constraint":null,"bias_constraint":null,"name":"dense_Dense2057","trainable":true},"inbound_nodes":[[["dense_Dense2056",0,0,{}]]]},{"name":"dense_Dense2058","class_name":"Dense","config":{"units":1,"activation":"sigmoid","use_bias":true,"kernel_initializer":{"class_name":"VarianceScaling","config":{"scale":1,"mode":"fan_avg","distribution":"normal","seed":null}},"bias_initializer":{"class_name":"Zeros","config":{}},"kernel_regularizer":null,"bias_regularizer":null,"activity_regularizer":null,"kernel_constraint":null,"bias_constraint":null,"name":"dense_Dense2058","trainable":true},"inbound_nodes":[[["dense_Dense2057",0,0,{}]]]}],"input_layers":[["input343",0,0]],"output_layers":[["dense_Dense2058",0,0]]},"keras_version":"tfjs-layers 3.9.0","backend":"tensor_flow.js"},"weightsManifest":[{"paths":["weights.bin"],"weights":[{"name":"dense_Dense2053/kernel","shape":[3,2],"dtype":"float32"},{"name":"dense_Dense2053/bias","shape":[2],"dtype":"float32"},{"name":"dense_Dense2054/kernel","shape":[2,2],"dtype":"float32"},{"name":"dense_Dense2054/bias","shape":[2],"dtype":"float32"},{"name":"dense_Dense2055/kernel","shape":[2,8],"dtype":"float32"},{"name":"dense_Dense2055/bias","shape":[8],"dtype":"float32"},{"name":"dense_Dense2056/kernel","shape":[8,8],"dtype":"float32"},{"name":"dense_Dense2056/bias","shape":[8],"dtype":"float32"},{"name":"dense_Dense2057/kernel","shape":[8,1],"dtype":"float32"},{"name":"dense_Dense2057/bias","shape":[1],"dtype":"float32"},{"name":"dense_Dense2058/kernel","shape":[1,1],"dtype":"float32"},{"name":"dense_Dense2058/bias","shape":[1],"dtype":"float32"}]}]}