{"modelTopology":{"class_name":"Model","config":{"name":"model1263","layers":[{"name":"input1263","class_name":"InputLayer","config":{"batch_input_shape":[null,3],"dtype":"float32","sparse":false,"name":"input1263"},"inbound_nodes":[]},{"name":"dense_Dense7573","class_name":"Dense","config":{"units":1,"activation":"relu","use_bias":true,"kernel_initializer":{"class_name":"VarianceScaling","config":{"scale":1,"mode":"fan_avg","distribution":"normal","seed":null}},"bias_initializer":{"class_name":"Zeros","config":{}},"kernel_regularizer":null,"bias_regularizer":null,"activity_regularizer":null,"kernel_constraint":null,"bias_constraint":null,"name":"dense_Dense7573","trainable":true},"inbound_nodes":[[["input1263",0,0,{}]]]},{"name":"dense_Dense7574","class_name":"Dense","config":{"units":32,"activation":"relu","use_bias":true,"kernel_initializer":{"class_name":"VarianceScaling","config":{"scale":1,"mode":"fan_avg","distribution":"normal","seed":null}},"bias_initializer":{"class_name":"Zeros","config":{}},"kernel_regularizer":null,"bias_regularizer":null,"activity_regularizer":null,"kernel_constraint":null,"bias_constraint":null,"name":"dense_Dense7574","trainable":true},"inbound_nodes":[[["dense_Dense7573",0,0,{}]]]},{"name":"dense_Dense7575","class_name":"Dense","config":{"units":32,"activation":"relu","use_bias":true,"kernel_initializer":{"class_name":"VarianceScaling","config":{"scale":1,"mode":"fan_avg","distribution":"normal","seed":null}},"bias_initializer":{"class_name":"Zeros","config":{}},"kernel_regularizer":null,"bias_regularizer":null,"activity_regularizer":null,"kernel_constraint":null,"bias_constraint":null,"name":"dense_Dense7575","trainable":true},"inbound_nodes":[[["dense_Dense7574",0,0,{}]]]},{"name":"dense_Dense7576","class_name":"Dense","config":{"units":1,"activation":"relu","use_bias":true,"kernel_initializer":{"class_name":"VarianceScaling","config":{"scale":1,"mode":"fan_avg","distribution":"normal","seed":null}},"bias_initializer":{"class_name":"Zeros","config":{}},"kernel_regularizer":null,"bias_regularizer":null,"activity_regularizer":null,"kernel_constraint":null,"bias_constraint":null,"name":"dense_Dense7576","trainable":true},"inbound_nodes":[[["dense_Dense7575",0,0,{}]]]},{"name":"dense_Dense7577","class_name":"Dense","config":{"units":4,"activation":"relu","use_bias":true,"kernel_initializer":{"class_name":"VarianceScaling","config":{"scale":1,"mode":"fan_avg","distribution":"normal","seed":null}},"bias_initializer":{"class_name":"Zeros","config":{}},"kernel_regularizer":null,"bias_regularizer":null,"activity_regularizer":null,"kernel_constraint":null,"bias_constraint":null,"name":"dense_Dense7577","trainable":true},"inbound_nodes":[[["dense_Dense7576",0,0,{}]]]},{"name":"dense_Dense7578","class_name":"Dense","config":{"units":1,"activation":"sigmoid","use_bias":true,"kernel_initializer":{"class_name":"VarianceScaling","config":{"scale":1,"mode":"fan_avg","distribution":"normal","seed":null}},"bias_initializer":{"class_name":"Zeros","config":{}},"kernel_regularizer":null,"bias_regularizer":null,"activity_regularizer":null,"kernel_constraint":null,"bias_constraint":null,"name":"dense_Dense7578","trainable":true},"inbound_nodes":[[["dense_Dense7577",0,0,{}]]]}],"input_layers":[["input1263",0,0]],"output_layers":[["dense_Dense7578",0,0]]},"keras_version":"tfjs-layers 3.9.0","backend":"tensor_flow.js"},"weightsManifest":[{"paths":["weights.bin"],"weights":[{"name":"dense_Dense7573/kernel","shape":[3,1],"dtype":"float32"},{"name":"dense_Dense7573/bias","shape":[1],"dtype":"float32"},{"name":"dense_Dense7574/kernel","shape":[1,32],"dtype":"float32"},{"name":"dense_Dense7574/bias","shape":[32],"dtype":"float32"},{"name":"dense_Dense7575/kernel","shape":[32,32],"dtype":"float32"},{"name":"dense_Dense7575/bias","shape":[32],"dtype":"float32"},{"name":"dense_Dense7576/kernel","shape":[32,1],"dtype":"float32"},{"name":"dense_Dense7576/bias","shape":[1],"dtype":"float32"},{"name":"dense_Dense7577/kernel","shape":[1,4],"dtype":"float32"},{"name":"dense_Dense7577/bias","shape":[4],"dtype":"float32"},{"name":"dense_Dense7578/kernel","shape":[4,1],"dtype":"float32"},{"name":"dense_Dense7578/bias","shape":[1],"dtype":"float32"}]}]}