{"modelTopology":{"class_name":"Model","config":{"name":"model839","layers":[{"name":"input839","class_name":"InputLayer","config":{"batch_input_shape":[null,3],"dtype":"float32","sparse":false,"name":"input839"},"inbound_nodes":[]},{"name":"dense_Dense5029","class_name":"Dense","config":{"units":1,"activation":"relu","use_bias":true,"kernel_initializer":{"class_name":"VarianceScaling","config":{"scale":1,"mode":"fan_avg","distribution":"normal","seed":null}},"bias_initializer":{"class_name":"Zeros","config":{}},"kernel_regularizer":null,"bias_regularizer":null,"activity_regularizer":null,"kernel_constraint":null,"bias_constraint":null,"name":"dense_Dense5029","trainable":true},"inbound_nodes":[[["input839",0,0,{}]]]},{"name":"dense_Dense5030","class_name":"Dense","config":{"units":8,"activation":"relu","use_bias":true,"kernel_initializer":{"class_name":"VarianceScaling","config":{"scale":1,"mode":"fan_avg","distribution":"normal","seed":null}},"bias_initializer":{"class_name":"Zeros","config":{}},"kernel_regularizer":null,"bias_regularizer":null,"activity_regularizer":null,"kernel_constraint":null,"bias_constraint":null,"name":"dense_Dense5030","trainable":true},"inbound_nodes":[[["dense_Dense5029",0,0,{}]]]},{"name":"dense_Dense5031","class_name":"Dense","config":{"units":32,"activation":"relu","use_bias":true,"kernel_initializer":{"class_name":"VarianceScaling","config":{"scale":1,"mode":"fan_avg","distribution":"normal","seed":null}},"bias_initializer":{"class_name":"Zeros","config":{}},"kernel_regularizer":null,"bias_regularizer":null,"activity_regularizer":null,"kernel_constraint":null,"bias_constraint":null,"name":"dense_Dense5031","trainable":true},"inbound_nodes":[[["dense_Dense5030",0,0,{}]]]},{"name":"dense_Dense5032","class_name":"Dense","config":{"units":2,"activation":"relu","use_bias":true,"kernel_initializer":{"class_name":"VarianceScaling","config":{"scale":1,"mode":"fan_avg","distribution":"normal","seed":null}},"bias_initializer":{"class_name":"Zeros","config":{}},"kernel_regularizer":null,"bias_regularizer":null,"activity_regularizer":null,"kernel_constraint":null,"bias_constraint":null,"name":"dense_Dense5032","trainable":true},"inbound_nodes":[[["dense_Dense5031",0,0,{}]]]},{"name":"dense_Dense5033","class_name":"Dense","config":{"units":16,"activation":"relu","use_bias":true,"kernel_initializer":{"class_name":"VarianceScaling","config":{"scale":1,"mode":"fan_avg","distribution":"normal","seed":null}},"bias_initializer":{"class_name":"Zeros","config":{}},"kernel_regularizer":null,"bias_regularizer":null,"activity_regularizer":null,"kernel_constraint":null,"bias_constraint":null,"name":"dense_Dense5033","trainable":true},"inbound_nodes":[[["dense_Dense5032",0,0,{}]]]},{"name":"dense_Dense5034","class_name":"Dense","config":{"units":1,"activation":"sigmoid","use_bias":true,"kernel_initializer":{"class_name":"VarianceScaling","config":{"scale":1,"mode":"fan_avg","distribution":"normal","seed":null}},"bias_initializer":{"class_name":"Zeros","config":{}},"kernel_regularizer":null,"bias_regularizer":null,"activity_regularizer":null,"kernel_constraint":null,"bias_constraint":null,"name":"dense_Dense5034","trainable":true},"inbound_nodes":[[["dense_Dense5033",0,0,{}]]]}],"input_layers":[["input839",0,0]],"output_layers":[["dense_Dense5034",0,0]]},"keras_version":"tfjs-layers 3.9.0","backend":"tensor_flow.js"},"weightsManifest":[{"paths":["weights.bin"],"weights":[{"name":"dense_Dense5029/kernel","shape":[3,1],"dtype":"float32"},{"name":"dense_Dense5029/bias","shape":[1],"dtype":"float32"},{"name":"dense_Dense5030/kernel","shape":[1,8],"dtype":"float32"},{"name":"dense_Dense5030/bias","shape":[8],"dtype":"float32"},{"name":"dense_Dense5031/kernel","shape":[8,32],"dtype":"float32"},{"name":"dense_Dense5031/bias","shape":[32],"dtype":"float32"},{"name":"dense_Dense5032/kernel","shape":[32,2],"dtype":"float32"},{"name":"dense_Dense5032/bias","shape":[2],"dtype":"float32"},{"name":"dense_Dense5033/kernel","shape":[2,16],"dtype":"float32"},{"name":"dense_Dense5033/bias","shape":[16],"dtype":"float32"},{"name":"dense_Dense5034/kernel","shape":[16,1],"dtype":"float32"},{"name":"dense_Dense5034/bias","shape":[1],"dtype":"float32"}]}]}