{"modelTopology":{"class_name":"Model","config":{"name":"model77","layers":[{"name":"input77","class_name":"InputLayer","config":{"batch_input_shape":[null,3],"dtype":"float32","sparse":false,"name":"input77"},"inbound_nodes":[]},{"name":"dense_Dense305","class_name":"Dense","config":{"units":4,"activation":"relu","use_bias":true,"kernel_initializer":{"class_name":"VarianceScaling","config":{"scale":1,"mode":"fan_avg","distribution":"normal","seed":null}},"bias_initializer":{"class_name":"Zeros","config":{}},"kernel_regularizer":null,"bias_regularizer":null,"activity_regularizer":null,"kernel_constraint":null,"bias_constraint":null,"name":"dense_Dense305","trainable":true},"inbound_nodes":[[["input77",0,0,{}]]]},{"name":"dense_Dense306","class_name":"Dense","config":{"units":1,"activation":"relu","use_bias":true,"kernel_initializer":{"class_name":"VarianceScaling","config":{"scale":1,"mode":"fan_avg","distribution":"normal","seed":null}},"bias_initializer":{"class_name":"Zeros","config":{}},"kernel_regularizer":null,"bias_regularizer":null,"activity_regularizer":null,"kernel_constraint":null,"bias_constraint":null,"name":"dense_Dense306","trainable":true},"inbound_nodes":[[["dense_Dense305",0,0,{}]]]},{"name":"dense_Dense307","class_name":"Dense","config":{"units":16,"activation":"relu","use_bias":true,"kernel_initializer":{"class_name":"VarianceScaling","config":{"scale":1,"mode":"fan_avg","distribution":"normal","seed":null}},"bias_initializer":{"class_name":"Zeros","config":{}},"kernel_regularizer":null,"bias_regularizer":null,"activity_regularizer":null,"kernel_constraint":null,"bias_constraint":null,"name":"dense_Dense307","trainable":true},"inbound_nodes":[[["dense_Dense306",0,0,{}]]]},{"name":"dense_Dense308","class_name":"Dense","config":{"units":1,"activation":"sigmoid","use_bias":true,"kernel_initializer":{"class_name":"VarianceScaling","config":{"scale":1,"mode":"fan_avg","distribution":"normal","seed":null}},"bias_initializer":{"class_name":"Zeros","config":{}},"kernel_regularizer":null,"bias_regularizer":null,"activity_regularizer":null,"kernel_constraint":null,"bias_constraint":null,"name":"dense_Dense308","trainable":true},"inbound_nodes":[[["dense_Dense307",0,0,{}]]]}],"input_layers":[["input77",0,0]],"output_layers":[["dense_Dense308",0,0]]},"keras_version":"tfjs-layers 3.9.0","backend":"tensor_flow.js"},"weightsManifest":[{"paths":["weights.bin"],"weights":[{"name":"dense_Dense305/kernel","shape":[3,4],"dtype":"float32"},{"name":"dense_Dense305/bias","shape":[4],"dtype":"float32"},{"name":"dense_Dense306/kernel","shape":[4,1],"dtype":"float32"},{"name":"dense_Dense306/bias","shape":[1],"dtype":"float32"},{"name":"dense_Dense307/kernel","shape":[1,16],"dtype":"float32"},{"name":"dense_Dense307/bias","shape":[16],"dtype":"float32"},{"name":"dense_Dense308/kernel","shape":[16,1],"dtype":"float32"},{"name":"dense_Dense308/bias","shape":[1],"dtype":"float32"}]}]}