{"modelTopology":{"class_name":"Model","config":{"name":"model931","layers":[{"name":"input931","class_name":"InputLayer","config":{"batch_input_shape":[null,3],"dtype":"float32","sparse":false,"name":"input931"},"inbound_nodes":[]},{"name":"dense_Dense4651","class_name":"Dense","config":{"units":16,"activation":"relu","use_bias":true,"kernel_initializer":{"class_name":"VarianceScaling","config":{"scale":1,"mode":"fan_avg","distribution":"normal","seed":null}},"bias_initializer":{"class_name":"Zeros","config":{}},"kernel_regularizer":null,"bias_regularizer":null,"activity_regularizer":null,"kernel_constraint":null,"bias_constraint":null,"name":"dense_Dense4651","trainable":true},"inbound_nodes":[[["input931",0,0,{}]]]},{"name":"dense_Dense4652","class_name":"Dense","config":{"units":2,"activation":"relu","use_bias":true,"kernel_initializer":{"class_name":"VarianceScaling","config":{"scale":1,"mode":"fan_avg","distribution":"normal","seed":null}},"bias_initializer":{"class_name":"Zeros","config":{}},"kernel_regularizer":null,"bias_regularizer":null,"activity_regularizer":null,"kernel_constraint":null,"bias_constraint":null,"name":"dense_Dense4652","trainable":true},"inbound_nodes":[[["dense_Dense4651",0,0,{}]]]},{"name":"dense_Dense4653","class_name":"Dense","config":{"units":32,"activation":"relu","use_bias":true,"kernel_initializer":{"class_name":"VarianceScaling","config":{"scale":1,"mode":"fan_avg","distribution":"normal","seed":null}},"bias_initializer":{"class_name":"Zeros","config":{}},"kernel_regularizer":null,"bias_regularizer":null,"activity_regularizer":null,"kernel_constraint":null,"bias_constraint":null,"name":"dense_Dense4653","trainable":true},"inbound_nodes":[[["dense_Dense4652",0,0,{}]]]},{"name":"dense_Dense4654","class_name":"Dense","config":{"units":1,"activation":"relu","use_bias":true,"kernel_initializer":{"class_name":"VarianceScaling","config":{"scale":1,"mode":"fan_avg","distribution":"normal","seed":null}},"bias_initializer":{"class_name":"Zeros","config":{}},"kernel_regularizer":null,"bias_regularizer":null,"activity_regularizer":null,"kernel_constraint":null,"bias_constraint":null,"name":"dense_Dense4654","trainable":true},"inbound_nodes":[[["dense_Dense4653",0,0,{}]]]},{"name":"dense_Dense4655","class_name":"Dense","config":{"units":1,"activation":"sigmoid","use_bias":true,"kernel_initializer":{"class_name":"VarianceScaling","config":{"scale":1,"mode":"fan_avg","distribution":"normal","seed":null}},"bias_initializer":{"class_name":"Zeros","config":{}},"kernel_regularizer":null,"bias_regularizer":null,"activity_regularizer":null,"kernel_constraint":null,"bias_constraint":null,"name":"dense_Dense4655","trainable":true},"inbound_nodes":[[["dense_Dense4654",0,0,{}]]]}],"input_layers":[["input931",0,0]],"output_layers":[["dense_Dense4655",0,0]]},"keras_version":"tfjs-layers 3.9.0","backend":"tensor_flow.js"},"weightsManifest":[{"paths":["weights.bin"],"weights":[{"name":"dense_Dense4651/kernel","shape":[3,16],"dtype":"float32"},{"name":"dense_Dense4651/bias","shape":[16],"dtype":"float32"},{"name":"dense_Dense4652/kernel","shape":[16,2],"dtype":"float32"},{"name":"dense_Dense4652/bias","shape":[2],"dtype":"float32"},{"name":"dense_Dense4653/kernel","shape":[2,32],"dtype":"float32"},{"name":"dense_Dense4653/bias","shape":[32],"dtype":"float32"},{"name":"dense_Dense4654/kernel","shape":[32,1],"dtype":"float32"},{"name":"dense_Dense4654/bias","shape":[1],"dtype":"float32"},{"name":"dense_Dense4655/kernel","shape":[1,1],"dtype":"float32"},{"name":"dense_Dense4655/bias","shape":[1],"dtype":"float32"}]}]}