{"modelTopology":{"class_name":"Model","config":{"name":"model932","layers":[{"name":"input932","class_name":"InputLayer","config":{"batch_input_shape":[null,3],"dtype":"float32","sparse":false,"name":"input932"},"inbound_nodes":[]},{"name":"dense_Dense5587","class_name":"Dense","config":{"units":8,"activation":"relu","use_bias":true,"kernel_initializer":{"class_name":"VarianceScaling","config":{"scale":1,"mode":"fan_avg","distribution":"normal","seed":null}},"bias_initializer":{"class_name":"Zeros","config":{}},"kernel_regularizer":null,"bias_regularizer":null,"activity_regularizer":null,"kernel_constraint":null,"bias_constraint":null,"name":"dense_Dense5587","trainable":true},"inbound_nodes":[[["input932",0,0,{}]]]},{"name":"dense_Dense5588","class_name":"Dense","config":{"units":16,"activation":"relu","use_bias":true,"kernel_initializer":{"class_name":"VarianceScaling","config":{"scale":1,"mode":"fan_avg","distribution":"normal","seed":null}},"bias_initializer":{"class_name":"Zeros","config":{}},"kernel_regularizer":null,"bias_regularizer":null,"activity_regularizer":null,"kernel_constraint":null,"bias_constraint":null,"name":"dense_Dense5588","trainable":true},"inbound_nodes":[[["dense_Dense5587",0,0,{}]]]},{"name":"dense_Dense5589","class_name":"Dense","config":{"units":2,"activation":"relu","use_bias":true,"kernel_initializer":{"class_name":"VarianceScaling","config":{"scale":1,"mode":"fan_avg","distribution":"normal","seed":null}},"bias_initializer":{"class_name":"Zeros","config":{}},"kernel_regularizer":null,"bias_regularizer":null,"activity_regularizer":null,"kernel_constraint":null,"bias_constraint":null,"name":"dense_Dense5589","trainable":true},"inbound_nodes":[[["dense_Dense5588",0,0,{}]]]},{"name":"dense_Dense5590","class_name":"Dense","config":{"units":32,"activation":"relu","use_bias":true,"kernel_initializer":{"class_name":"VarianceScaling","config":{"scale":1,"mode":"fan_avg","distribution":"normal","seed":null}},"bias_initializer":{"class_name":"Zeros","config":{}},"kernel_regularizer":null,"bias_regularizer":null,"activity_regularizer":null,"kernel_constraint":null,"bias_constraint":null,"name":"dense_Dense5590","trainable":true},"inbound_nodes":[[["dense_Dense5589",0,0,{}]]]},{"name":"dense_Dense5591","class_name":"Dense","config":{"units":2,"activation":"relu","use_bias":true,"kernel_initializer":{"class_name":"VarianceScaling","config":{"scale":1,"mode":"fan_avg","distribution":"normal","seed":null}},"bias_initializer":{"class_name":"Zeros","config":{}},"kernel_regularizer":null,"bias_regularizer":null,"activity_regularizer":null,"kernel_constraint":null,"bias_constraint":null,"name":"dense_Dense5591","trainable":true},"inbound_nodes":[[["dense_Dense5590",0,0,{}]]]},{"name":"dense_Dense5592","class_name":"Dense","config":{"units":1,"activation":"sigmoid","use_bias":true,"kernel_initializer":{"class_name":"VarianceScaling","config":{"scale":1,"mode":"fan_avg","distribution":"normal","seed":null}},"bias_initializer":{"class_name":"Zeros","config":{}},"kernel_regularizer":null,"bias_regularizer":null,"activity_regularizer":null,"kernel_constraint":null,"bias_constraint":null,"name":"dense_Dense5592","trainable":true},"inbound_nodes":[[["dense_Dense5591",0,0,{}]]]}],"input_layers":[["input932",0,0]],"output_layers":[["dense_Dense5592",0,0]]},"keras_version":"tfjs-layers 3.9.0","backend":"tensor_flow.js"},"weightsManifest":[{"paths":["weights.bin"],"weights":[{"name":"dense_Dense5587/kernel","shape":[3,8],"dtype":"float32"},{"name":"dense_Dense5587/bias","shape":[8],"dtype":"float32"},{"name":"dense_Dense5588/kernel","shape":[8,16],"dtype":"float32"},{"name":"dense_Dense5588/bias","shape":[16],"dtype":"float32"},{"name":"dense_Dense5589/kernel","shape":[16,2],"dtype":"float32"},{"name":"dense_Dense5589/bias","shape":[2],"dtype":"float32"},{"name":"dense_Dense5590/kernel","shape":[2,32],"dtype":"float32"},{"name":"dense_Dense5590/bias","shape":[32],"dtype":"float32"},{"name":"dense_Dense5591/kernel","shape":[32,2],"dtype":"float32"},{"name":"dense_Dense5591/bias","shape":[2],"dtype":"float32"},{"name":"dense_Dense5592/kernel","shape":[2,1],"dtype":"float32"},{"name":"dense_Dense5592/bias","shape":[1],"dtype":"float32"}]}]}