{"modelTopology":{"class_name":"Model","config":{"name":"model157","layers":[{"name":"input157","class_name":"InputLayer","config":{"batch_input_shape":[null,3],"dtype":"float32","sparse":false,"name":"input157"},"inbound_nodes":[]},{"name":"dense_Dense781","class_name":"Dense","config":{"units":1,"activation":"relu","use_bias":true,"kernel_initializer":{"class_name":"VarianceScaling","config":{"scale":1,"mode":"fan_avg","distribution":"normal","seed":null}},"bias_initializer":{"class_name":"Zeros","config":{}},"kernel_regularizer":null,"bias_regularizer":null,"activity_regularizer":null,"kernel_constraint":null,"bias_constraint":null,"name":"dense_Dense781","trainable":true},"inbound_nodes":[[["input157",0,0,{}]]]},{"name":"dense_Dense782","class_name":"Dense","config":{"units":16,"activation":"relu","use_bias":true,"kernel_initializer":{"class_name":"VarianceScaling","config":{"scale":1,"mode":"fan_avg","distribution":"normal","seed":null}},"bias_initializer":{"class_name":"Zeros","config":{}},"kernel_regularizer":null,"bias_regularizer":null,"activity_regularizer":null,"kernel_constraint":null,"bias_constraint":null,"name":"dense_Dense782","trainable":true},"inbound_nodes":[[["dense_Dense781",0,0,{}]]]},{"name":"dense_Dense783","class_name":"Dense","config":{"units":4,"activation":"relu","use_bias":true,"kernel_initializer":{"class_name":"VarianceScaling","config":{"scale":1,"mode":"fan_avg","distribution":"normal","seed":null}},"bias_initializer":{"class_name":"Zeros","config":{}},"kernel_regularizer":null,"bias_regularizer":null,"activity_regularizer":null,"kernel_constraint":null,"bias_constraint":null,"name":"dense_Dense783","trainable":true},"inbound_nodes":[[["dense_Dense782",0,0,{}]]]},{"name":"dense_Dense784","class_name":"Dense","config":{"units":1,"activation":"relu","use_bias":true,"kernel_initializer":{"class_name":"VarianceScaling","config":{"scale":1,"mode":"fan_avg","distribution":"normal","seed":null}},"bias_initializer":{"class_name":"Zeros","config":{}},"kernel_regularizer":null,"bias_regularizer":null,"activity_regularizer":null,"kernel_constraint":null,"bias_constraint":null,"name":"dense_Dense784","trainable":true},"inbound_nodes":[[["dense_Dense783",0,0,{}]]]},{"name":"dense_Dense785","class_name":"Dense","config":{"units":1,"activation":"sigmoid","use_bias":true,"kernel_initializer":{"class_name":"VarianceScaling","config":{"scale":1,"mode":"fan_avg","distribution":"normal","seed":null}},"bias_initializer":{"class_name":"Zeros","config":{}},"kernel_regularizer":null,"bias_regularizer":null,"activity_regularizer":null,"kernel_constraint":null,"bias_constraint":null,"name":"dense_Dense785","trainable":true},"inbound_nodes":[[["dense_Dense784",0,0,{}]]]}],"input_layers":[["input157",0,0]],"output_layers":[["dense_Dense785",0,0]]},"keras_version":"tfjs-layers 3.9.0","backend":"tensor_flow.js"},"weightsManifest":[{"paths":["weights.bin"],"weights":[{"name":"dense_Dense781/kernel","shape":[3,1],"dtype":"float32"},{"name":"dense_Dense781/bias","shape":[1],"dtype":"float32"},{"name":"dense_Dense782/kernel","shape":[1,16],"dtype":"float32"},{"name":"dense_Dense782/bias","shape":[16],"dtype":"float32"},{"name":"dense_Dense783/kernel","shape":[16,4],"dtype":"float32"},{"name":"dense_Dense783/bias","shape":[4],"dtype":"float32"},{"name":"dense_Dense784/kernel","shape":[4,1],"dtype":"float32"},{"name":"dense_Dense784/bias","shape":[1],"dtype":"float32"},{"name":"dense_Dense785/kernel","shape":[1,1],"dtype":"float32"},{"name":"dense_Dense785/bias","shape":[1],"dtype":"float32"}]}]}