{"modelTopology":{"class_name":"Model","config":{"name":"model194","layers":[{"name":"input194","class_name":"InputLayer","config":{"batch_input_shape":[null,3],"dtype":"float32","sparse":false,"name":"input194"},"inbound_nodes":[]},{"name":"dense_Dense966","class_name":"Dense","config":{"units":1,"activation":"relu","use_bias":true,"kernel_initializer":{"class_name":"VarianceScaling","config":{"scale":1,"mode":"fan_avg","distribution":"normal","seed":null}},"bias_initializer":{"class_name":"Zeros","config":{}},"kernel_regularizer":null,"bias_regularizer":null,"activity_regularizer":null,"kernel_constraint":null,"bias_constraint":null,"name":"dense_Dense966","trainable":true},"inbound_nodes":[[["input194",0,0,{}]]]},{"name":"dense_Dense967","class_name":"Dense","config":{"units":32,"activation":"relu","use_bias":true,"kernel_initializer":{"class_name":"VarianceScaling","config":{"scale":1,"mode":"fan_avg","distribution":"normal","seed":null}},"bias_initializer":{"class_name":"Zeros","config":{}},"kernel_regularizer":null,"bias_regularizer":null,"activity_regularizer":null,"kernel_constraint":null,"bias_constraint":null,"name":"dense_Dense967","trainable":true},"inbound_nodes":[[["dense_Dense966",0,0,{}]]]},{"name":"dense_Dense968","class_name":"Dense","config":{"units":4,"activation":"relu","use_bias":true,"kernel_initializer":{"class_name":"VarianceScaling","config":{"scale":1,"mode":"fan_avg","distribution":"normal","seed":null}},"bias_initializer":{"class_name":"Zeros","config":{}},"kernel_regularizer":null,"bias_regularizer":null,"activity_regularizer":null,"kernel_constraint":null,"bias_constraint":null,"name":"dense_Dense968","trainable":true},"inbound_nodes":[[["dense_Dense967",0,0,{}]]]},{"name":"dense_Dense969","class_name":"Dense","config":{"units":2,"activation":"relu","use_bias":true,"kernel_initializer":{"class_name":"VarianceScaling","config":{"scale":1,"mode":"fan_avg","distribution":"normal","seed":null}},"bias_initializer":{"class_name":"Zeros","config":{}},"kernel_regularizer":null,"bias_regularizer":null,"activity_regularizer":null,"kernel_constraint":null,"bias_constraint":null,"name":"dense_Dense969","trainable":true},"inbound_nodes":[[["dense_Dense968",0,0,{}]]]},{"name":"dense_Dense970","class_name":"Dense","config":{"units":1,"activation":"sigmoid","use_bias":true,"kernel_initializer":{"class_name":"VarianceScaling","config":{"scale":1,"mode":"fan_avg","distribution":"normal","seed":null}},"bias_initializer":{"class_name":"Zeros","config":{}},"kernel_regularizer":null,"bias_regularizer":null,"activity_regularizer":null,"kernel_constraint":null,"bias_constraint":null,"name":"dense_Dense970","trainable":true},"inbound_nodes":[[["dense_Dense969",0,0,{}]]]}],"input_layers":[["input194",0,0]],"output_layers":[["dense_Dense970",0,0]]},"keras_version":"tfjs-layers 3.9.0","backend":"tensor_flow.js"},"weightsManifest":[{"paths":["weights.bin"],"weights":[{"name":"dense_Dense966/kernel","shape":[3,1],"dtype":"float32"},{"name":"dense_Dense966/bias","shape":[1],"dtype":"float32"},{"name":"dense_Dense967/kernel","shape":[1,32],"dtype":"float32"},{"name":"dense_Dense967/bias","shape":[32],"dtype":"float32"},{"name":"dense_Dense968/kernel","shape":[32,4],"dtype":"float32"},{"name":"dense_Dense968/bias","shape":[4],"dtype":"float32"},{"name":"dense_Dense969/kernel","shape":[4,2],"dtype":"float32"},{"name":"dense_Dense969/bias","shape":[2],"dtype":"float32"},{"name":"dense_Dense970/kernel","shape":[2,1],"dtype":"float32"},{"name":"dense_Dense970/bias","shape":[1],"dtype":"float32"}]}]}