{"modelTopology":{"class_name":"Model","config":{"name":"model690","layers":[{"name":"input690","class_name":"InputLayer","config":{"batch_input_shape":[null,3],"dtype":"float32","sparse":false,"name":"input690"},"inbound_nodes":[]},{"name":"dense_Dense4135","class_name":"Dense","config":{"units":16,"activation":"relu","use_bias":true,"kernel_initializer":{"class_name":"VarianceScaling","config":{"scale":1,"mode":"fan_avg","distribution":"normal","seed":null}},"bias_initializer":{"class_name":"Zeros","config":{}},"kernel_regularizer":null,"bias_regularizer":null,"activity_regularizer":null,"kernel_constraint":null,"bias_constraint":null,"name":"dense_Dense4135","trainable":true},"inbound_nodes":[[["input690",0,0,{}]]]},{"name":"dense_Dense4136","class_name":"Dense","config":{"units":8,"activation":"relu","use_bias":true,"kernel_initializer":{"class_name":"VarianceScaling","config":{"scale":1,"mode":"fan_avg","distribution":"normal","seed":null}},"bias_initializer":{"class_name":"Zeros","config":{}},"kernel_regularizer":null,"bias_regularizer":null,"activity_regularizer":null,"kernel_constraint":null,"bias_constraint":null,"name":"dense_Dense4136","trainable":true},"inbound_nodes":[[["dense_Dense4135",0,0,{}]]]},{"name":"dense_Dense4137","class_name":"Dense","config":{"units":2,"activation":"relu","use_bias":true,"kernel_initializer":{"class_name":"VarianceScaling","config":{"scale":1,"mode":"fan_avg","distribution":"normal","seed":null}},"bias_initializer":{"class_name":"Zeros","config":{}},"kernel_regularizer":null,"bias_regularizer":null,"activity_regularizer":null,"kernel_constraint":null,"bias_constraint":null,"name":"dense_Dense4137","trainable":true},"inbound_nodes":[[["dense_Dense4136",0,0,{}]]]},{"name":"dense_Dense4138","class_name":"Dense","config":{"units":1,"activation":"relu","use_bias":true,"kernel_initializer":{"class_name":"VarianceScaling","config":{"scale":1,"mode":"fan_avg","distribution":"normal","seed":null}},"bias_initializer":{"class_name":"Zeros","config":{}},"kernel_regularizer":null,"bias_regularizer":null,"activity_regularizer":null,"kernel_constraint":null,"bias_constraint":null,"name":"dense_Dense4138","trainable":true},"inbound_nodes":[[["dense_Dense4137",0,0,{}]]]},{"name":"dense_Dense4139","class_name":"Dense","config":{"units":32,"activation":"relu","use_bias":true,"kernel_initializer":{"class_name":"VarianceScaling","config":{"scale":1,"mode":"fan_avg","distribution":"normal","seed":null}},"bias_initializer":{"class_name":"Zeros","config":{}},"kernel_regularizer":null,"bias_regularizer":null,"activity_regularizer":null,"kernel_constraint":null,"bias_constraint":null,"name":"dense_Dense4139","trainable":true},"inbound_nodes":[[["dense_Dense4138",0,0,{}]]]},{"name":"dense_Dense4140","class_name":"Dense","config":{"units":1,"activation":"sigmoid","use_bias":true,"kernel_initializer":{"class_name":"VarianceScaling","config":{"scale":1,"mode":"fan_avg","distribution":"normal","seed":null}},"bias_initializer":{"class_name":"Zeros","config":{}},"kernel_regularizer":null,"bias_regularizer":null,"activity_regularizer":null,"kernel_constraint":null,"bias_constraint":null,"name":"dense_Dense4140","trainable":true},"inbound_nodes":[[["dense_Dense4139",0,0,{}]]]}],"input_layers":[["input690",0,0]],"output_layers":[["dense_Dense4140",0,0]]},"keras_version":"tfjs-layers 3.9.0","backend":"tensor_flow.js"},"weightsManifest":[{"paths":["weights.bin"],"weights":[{"name":"dense_Dense4135/kernel","shape":[3,16],"dtype":"float32"},{"name":"dense_Dense4135/bias","shape":[16],"dtype":"float32"},{"name":"dense_Dense4136/kernel","shape":[16,8],"dtype":"float32"},{"name":"dense_Dense4136/bias","shape":[8],"dtype":"float32"},{"name":"dense_Dense4137/kernel","shape":[8,2],"dtype":"float32"},{"name":"dense_Dense4137/bias","shape":[2],"dtype":"float32"},{"name":"dense_Dense4138/kernel","shape":[2,1],"dtype":"float32"},{"name":"dense_Dense4138/bias","shape":[1],"dtype":"float32"},{"name":"dense_Dense4139/kernel","shape":[1,32],"dtype":"float32"},{"name":"dense_Dense4139/bias","shape":[32],"dtype":"float32"},{"name":"dense_Dense4140/kernel","shape":[32,1],"dtype":"float32"},{"name":"dense_Dense4140/bias","shape":[1],"dtype":"float32"}]}]}