{"modelTopology":{"class_name":"Model","config":{"name":"model621","layers":[{"name":"input621","class_name":"InputLayer","config":{"batch_input_shape":[null,3],"dtype":"float32","sparse":false,"name":"input621"},"inbound_nodes":[]},{"name":"dense_Dense3721","class_name":"Dense","config":{"units":4,"activation":"relu","use_bias":true,"kernel_initializer":{"class_name":"VarianceScaling","config":{"scale":1,"mode":"fan_avg","distribution":"normal","seed":null}},"bias_initializer":{"class_name":"Zeros","config":{}},"kernel_regularizer":null,"bias_regularizer":null,"activity_regularizer":null,"kernel_constraint":null,"bias_constraint":null,"name":"dense_Dense3721","trainable":true},"inbound_nodes":[[["input621",0,0,{}]]]},{"name":"dense_Dense3722","class_name":"Dense","config":{"units":4,"activation":"relu","use_bias":true,"kernel_initializer":{"class_name":"VarianceScaling","config":{"scale":1,"mode":"fan_avg","distribution":"normal","seed":null}},"bias_initializer":{"class_name":"Zeros","config":{}},"kernel_regularizer":null,"bias_regularizer":null,"activity_regularizer":null,"kernel_constraint":null,"bias_constraint":null,"name":"dense_Dense3722","trainable":true},"inbound_nodes":[[["dense_Dense3721",0,0,{}]]]},{"name":"dense_Dense3723","class_name":"Dense","config":{"units":32,"activation":"relu","use_bias":true,"kernel_initializer":{"class_name":"VarianceScaling","config":{"scale":1,"mode":"fan_avg","distribution":"normal","seed":null}},"bias_initializer":{"class_name":"Zeros","config":{}},"kernel_regularizer":null,"bias_regularizer":null,"activity_regularizer":null,"kernel_constraint":null,"bias_constraint":null,"name":"dense_Dense3723","trainable":true},"inbound_nodes":[[["dense_Dense3722",0,0,{}]]]},{"name":"dense_Dense3724","class_name":"Dense","config":{"units":2,"activation":"relu","use_bias":true,"kernel_initializer":{"class_name":"VarianceScaling","config":{"scale":1,"mode":"fan_avg","distribution":"normal","seed":null}},"bias_initializer":{"class_name":"Zeros","config":{}},"kernel_regularizer":null,"bias_regularizer":null,"activity_regularizer":null,"kernel_constraint":null,"bias_constraint":null,"name":"dense_Dense3724","trainable":true},"inbound_nodes":[[["dense_Dense3723",0,0,{}]]]},{"name":"dense_Dense3725","class_name":"Dense","config":{"units":4,"activation":"relu","use_bias":true,"kernel_initializer":{"class_name":"VarianceScaling","config":{"scale":1,"mode":"fan_avg","distribution":"normal","seed":null}},"bias_initializer":{"class_name":"Zeros","config":{}},"kernel_regularizer":null,"bias_regularizer":null,"activity_regularizer":null,"kernel_constraint":null,"bias_constraint":null,"name":"dense_Dense3725","trainable":true},"inbound_nodes":[[["dense_Dense3724",0,0,{}]]]},{"name":"dense_Dense3726","class_name":"Dense","config":{"units":1,"activation":"sigmoid","use_bias":true,"kernel_initializer":{"class_name":"VarianceScaling","config":{"scale":1,"mode":"fan_avg","distribution":"normal","seed":null}},"bias_initializer":{"class_name":"Zeros","config":{}},"kernel_regularizer":null,"bias_regularizer":null,"activity_regularizer":null,"kernel_constraint":null,"bias_constraint":null,"name":"dense_Dense3726","trainable":true},"inbound_nodes":[[["dense_Dense3725",0,0,{}]]]}],"input_layers":[["input621",0,0]],"output_layers":[["dense_Dense3726",0,0]]},"keras_version":"tfjs-layers 3.9.0","backend":"tensor_flow.js"},"weightsManifest":[{"paths":["weights.bin"],"weights":[{"name":"dense_Dense3721/kernel","shape":[3,4],"dtype":"float32"},{"name":"dense_Dense3721/bias","shape":[4],"dtype":"float32"},{"name":"dense_Dense3722/kernel","shape":[4,4],"dtype":"float32"},{"name":"dense_Dense3722/bias","shape":[4],"dtype":"float32"},{"name":"dense_Dense3723/kernel","shape":[4,32],"dtype":"float32"},{"name":"dense_Dense3723/bias","shape":[32],"dtype":"float32"},{"name":"dense_Dense3724/kernel","shape":[32,2],"dtype":"float32"},{"name":"dense_Dense3724/bias","shape":[2],"dtype":"float32"},{"name":"dense_Dense3725/kernel","shape":[2,4],"dtype":"float32"},{"name":"dense_Dense3725/bias","shape":[4],"dtype":"float32"},{"name":"dense_Dense3726/kernel","shape":[4,1],"dtype":"float32"},{"name":"dense_Dense3726/bias","shape":[1],"dtype":"float32"}]}]}