{"modelTopology":{"class_name":"Model","config":{"name":"model270","layers":[{"name":"input270","class_name":"InputLayer","config":{"batch_input_shape":[null,3],"dtype":"float32","sparse":false,"name":"input270"},"inbound_nodes":[]},{"name":"dense_Dense1615","class_name":"Dense","config":{"units":1,"activation":"relu","use_bias":true,"kernel_initializer":{"class_name":"VarianceScaling","config":{"scale":1,"mode":"fan_avg","distribution":"normal","seed":null}},"bias_initializer":{"class_name":"Zeros","config":{}},"kernel_regularizer":null,"bias_regularizer":null,"activity_regularizer":null,"kernel_constraint":null,"bias_constraint":null,"name":"dense_Dense1615","trainable":true},"inbound_nodes":[[["input270",0,0,{}]]]},{"name":"dense_Dense1616","class_name":"Dense","config":{"units":2,"activation":"relu","use_bias":true,"kernel_initializer":{"class_name":"VarianceScaling","config":{"scale":1,"mode":"fan_avg","distribution":"normal","seed":null}},"bias_initializer":{"class_name":"Zeros","config":{}},"kernel_regularizer":null,"bias_regularizer":null,"activity_regularizer":null,"kernel_constraint":null,"bias_constraint":null,"name":"dense_Dense1616","trainable":true},"inbound_nodes":[[["dense_Dense1615",0,0,{}]]]},{"name":"dense_Dense1617","class_name":"Dense","config":{"units":2,"activation":"relu","use_bias":true,"kernel_initializer":{"class_name":"VarianceScaling","config":{"scale":1,"mode":"fan_avg","distribution":"normal","seed":null}},"bias_initializer":{"class_name":"Zeros","config":{}},"kernel_regularizer":null,"bias_regularizer":null,"activity_regularizer":null,"kernel_constraint":null,"bias_constraint":null,"name":"dense_Dense1617","trainable":true},"inbound_nodes":[[["dense_Dense1616",0,0,{}]]]},{"name":"dense_Dense1618","class_name":"Dense","config":{"units":4,"activation":"relu","use_bias":true,"kernel_initializer":{"class_name":"VarianceScaling","config":{"scale":1,"mode":"fan_avg","distribution":"normal","seed":null}},"bias_initializer":{"class_name":"Zeros","config":{}},"kernel_regularizer":null,"bias_regularizer":null,"activity_regularizer":null,"kernel_constraint":null,"bias_constraint":null,"name":"dense_Dense1618","trainable":true},"inbound_nodes":[[["dense_Dense1617",0,0,{}]]]},{"name":"dense_Dense1619","class_name":"Dense","config":{"units":32,"activation":"relu","use_bias":true,"kernel_initializer":{"class_name":"VarianceScaling","config":{"scale":1,"mode":"fan_avg","distribution":"normal","seed":null}},"bias_initializer":{"class_name":"Zeros","config":{}},"kernel_regularizer":null,"bias_regularizer":null,"activity_regularizer":null,"kernel_constraint":null,"bias_constraint":null,"name":"dense_Dense1619","trainable":true},"inbound_nodes":[[["dense_Dense1618",0,0,{}]]]},{"name":"dense_Dense1620","class_name":"Dense","config":{"units":1,"activation":"sigmoid","use_bias":true,"kernel_initializer":{"class_name":"VarianceScaling","config":{"scale":1,"mode":"fan_avg","distribution":"normal","seed":null}},"bias_initializer":{"class_name":"Zeros","config":{}},"kernel_regularizer":null,"bias_regularizer":null,"activity_regularizer":null,"kernel_constraint":null,"bias_constraint":null,"name":"dense_Dense1620","trainable":true},"inbound_nodes":[[["dense_Dense1619",0,0,{}]]]}],"input_layers":[["input270",0,0]],"output_layers":[["dense_Dense1620",0,0]]},"keras_version":"tfjs-layers 3.9.0","backend":"tensor_flow.js"},"weightsManifest":[{"paths":["weights.bin"],"weights":[{"name":"dense_Dense1615/kernel","shape":[3,1],"dtype":"float32"},{"name":"dense_Dense1615/bias","shape":[1],"dtype":"float32"},{"name":"dense_Dense1616/kernel","shape":[1,2],"dtype":"float32"},{"name":"dense_Dense1616/bias","shape":[2],"dtype":"float32"},{"name":"dense_Dense1617/kernel","shape":[2,2],"dtype":"float32"},{"name":"dense_Dense1617/bias","shape":[2],"dtype":"float32"},{"name":"dense_Dense1618/kernel","shape":[2,4],"dtype":"float32"},{"name":"dense_Dense1618/bias","shape":[4],"dtype":"float32"},{"name":"dense_Dense1619/kernel","shape":[4,32],"dtype":"float32"},{"name":"dense_Dense1619/bias","shape":[32],"dtype":"float32"},{"name":"dense_Dense1620/kernel","shape":[32,1],"dtype":"float32"},{"name":"dense_Dense1620/bias","shape":[1],"dtype":"float32"}]}]}