{"modelTopology":{"class_name":"Model","config":{"name":"model759","layers":[{"name":"input759","class_name":"InputLayer","config":{"batch_input_shape":[null,3],"dtype":"float32","sparse":false,"name":"input759"},"inbound_nodes":[]},{"name":"dense_Dense3791","class_name":"Dense","config":{"units":8,"activation":"relu","use_bias":true,"kernel_initializer":{"class_name":"VarianceScaling","config":{"scale":1,"mode":"fan_avg","distribution":"normal","seed":null}},"bias_initializer":{"class_name":"Zeros","config":{}},"kernel_regularizer":null,"bias_regularizer":null,"activity_regularizer":null,"kernel_constraint":null,"bias_constraint":null,"name":"dense_Dense3791","trainable":true},"inbound_nodes":[[["input759",0,0,{}]]]},{"name":"dense_Dense3792","class_name":"Dense","config":{"units":8,"activation":"relu","use_bias":true,"kernel_initializer":{"class_name":"VarianceScaling","config":{"scale":1,"mode":"fan_avg","distribution":"normal","seed":null}},"bias_initializer":{"class_name":"Zeros","config":{}},"kernel_regularizer":null,"bias_regularizer":null,"activity_regularizer":null,"kernel_constraint":null,"bias_constraint":null,"name":"dense_Dense3792","trainable":true},"inbound_nodes":[[["dense_Dense3791",0,0,{}]]]},{"name":"dense_Dense3793","class_name":"Dense","config":{"units":1,"activation":"relu","use_bias":true,"kernel_initializer":{"class_name":"VarianceScaling","config":{"scale":1,"mode":"fan_avg","distribution":"normal","seed":null}},"bias_initializer":{"class_name":"Zeros","config":{}},"kernel_regularizer":null,"bias_regularizer":null,"activity_regularizer":null,"kernel_constraint":null,"bias_constraint":null,"name":"dense_Dense3793","trainable":true},"inbound_nodes":[[["dense_Dense3792",0,0,{}]]]},{"name":"dense_Dense3794","class_name":"Dense","config":{"units":4,"activation":"relu","use_bias":true,"kernel_initializer":{"class_name":"VarianceScaling","config":{"scale":1,"mode":"fan_avg","distribution":"normal","seed":null}},"bias_initializer":{"class_name":"Zeros","config":{}},"kernel_regularizer":null,"bias_regularizer":null,"activity_regularizer":null,"kernel_constraint":null,"bias_constraint":null,"name":"dense_Dense3794","trainable":true},"inbound_nodes":[[["dense_Dense3793",0,0,{}]]]},{"name":"dense_Dense3795","class_name":"Dense","config":{"units":1,"activation":"sigmoid","use_bias":true,"kernel_initializer":{"class_name":"VarianceScaling","config":{"scale":1,"mode":"fan_avg","distribution":"normal","seed":null}},"bias_initializer":{"class_name":"Zeros","config":{}},"kernel_regularizer":null,"bias_regularizer":null,"activity_regularizer":null,"kernel_constraint":null,"bias_constraint":null,"name":"dense_Dense3795","trainable":true},"inbound_nodes":[[["dense_Dense3794",0,0,{}]]]}],"input_layers":[["input759",0,0]],"output_layers":[["dense_Dense3795",0,0]]},"keras_version":"tfjs-layers 3.9.0","backend":"tensor_flow.js"},"weightsManifest":[{"paths":["weights.bin"],"weights":[{"name":"dense_Dense3791/kernel","shape":[3,8],"dtype":"float32"},{"name":"dense_Dense3791/bias","shape":[8],"dtype":"float32"},{"name":"dense_Dense3792/kernel","shape":[8,8],"dtype":"float32"},{"name":"dense_Dense3792/bias","shape":[8],"dtype":"float32"},{"name":"dense_Dense3793/kernel","shape":[8,1],"dtype":"float32"},{"name":"dense_Dense3793/bias","shape":[1],"dtype":"float32"},{"name":"dense_Dense3794/kernel","shape":[1,4],"dtype":"float32"},{"name":"dense_Dense3794/bias","shape":[4],"dtype":"float32"},{"name":"dense_Dense3795/kernel","shape":[4,1],"dtype":"float32"},{"name":"dense_Dense3795/bias","shape":[1],"dtype":"float32"}]}]}