{"modelTopology":{"class_name":"Model","config":{"name":"model374","layers":[{"name":"input374","class_name":"InputLayer","config":{"batch_input_shape":[null,3],"dtype":"float32","sparse":false,"name":"input374"},"inbound_nodes":[]},{"name":"dense_Dense1866","class_name":"Dense","config":{"units":2,"activation":"relu","use_bias":true,"kernel_initializer":{"class_name":"VarianceScaling","config":{"scale":1,"mode":"fan_avg","distribution":"normal","seed":null}},"bias_initializer":{"class_name":"Zeros","config":{}},"kernel_regularizer":null,"bias_regularizer":null,"activity_regularizer":null,"kernel_constraint":null,"bias_constraint":null,"name":"dense_Dense1866","trainable":true},"inbound_nodes":[[["input374",0,0,{}]]]},{"name":"dense_Dense1867","class_name":"Dense","config":{"units":16,"activation":"relu","use_bias":true,"kernel_initializer":{"class_name":"VarianceScaling","config":{"scale":1,"mode":"fan_avg","distribution":"normal","seed":null}},"bias_initializer":{"class_name":"Zeros","config":{}},"kernel_regularizer":null,"bias_regularizer":null,"activity_regularizer":null,"kernel_constraint":null,"bias_constraint":null,"name":"dense_Dense1867","trainable":true},"inbound_nodes":[[["dense_Dense1866",0,0,{}]]]},{"name":"dense_Dense1868","class_name":"Dense","config":{"units":4,"activation":"relu","use_bias":true,"kernel_initializer":{"class_name":"VarianceScaling","config":{"scale":1,"mode":"fan_avg","distribution":"normal","seed":null}},"bias_initializer":{"class_name":"Zeros","config":{}},"kernel_regularizer":null,"bias_regularizer":null,"activity_regularizer":null,"kernel_constraint":null,"bias_constraint":null,"name":"dense_Dense1868","trainable":true},"inbound_nodes":[[["dense_Dense1867",0,0,{}]]]},{"name":"dense_Dense1869","class_name":"Dense","config":{"units":2,"activation":"relu","use_bias":true,"kernel_initializer":{"class_name":"VarianceScaling","config":{"scale":1,"mode":"fan_avg","distribution":"normal","seed":null}},"bias_initializer":{"class_name":"Zeros","config":{}},"kernel_regularizer":null,"bias_regularizer":null,"activity_regularizer":null,"kernel_constraint":null,"bias_constraint":null,"name":"dense_Dense1869","trainable":true},"inbound_nodes":[[["dense_Dense1868",0,0,{}]]]},{"name":"dense_Dense1870","class_name":"Dense","config":{"units":1,"activation":"sigmoid","use_bias":true,"kernel_initializer":{"class_name":"VarianceScaling","config":{"scale":1,"mode":"fan_avg","distribution":"normal","seed":null}},"bias_initializer":{"class_name":"Zeros","config":{}},"kernel_regularizer":null,"bias_regularizer":null,"activity_regularizer":null,"kernel_constraint":null,"bias_constraint":null,"name":"dense_Dense1870","trainable":true},"inbound_nodes":[[["dense_Dense1869",0,0,{}]]]}],"input_layers":[["input374",0,0]],"output_layers":[["dense_Dense1870",0,0]]},"keras_version":"tfjs-layers 3.9.0","backend":"tensor_flow.js"},"weightsManifest":[{"paths":["weights.bin"],"weights":[{"name":"dense_Dense1866/kernel","shape":[3,2],"dtype":"float32"},{"name":"dense_Dense1866/bias","shape":[2],"dtype":"float32"},{"name":"dense_Dense1867/kernel","shape":[2,16],"dtype":"float32"},{"name":"dense_Dense1867/bias","shape":[16],"dtype":"float32"},{"name":"dense_Dense1868/kernel","shape":[16,4],"dtype":"float32"},{"name":"dense_Dense1868/bias","shape":[4],"dtype":"float32"},{"name":"dense_Dense1869/kernel","shape":[4,2],"dtype":"float32"},{"name":"dense_Dense1869/bias","shape":[2],"dtype":"float32"},{"name":"dense_Dense1870/kernel","shape":[2,1],"dtype":"float32"},{"name":"dense_Dense1870/bias","shape":[1],"dtype":"float32"}]}]}