{"modelTopology":{"class_name":"Model","config":{"name":"model600","layers":[{"name":"input600","class_name":"InputLayer","config":{"batch_input_shape":[null,3],"dtype":"float32","sparse":false,"name":"input600"},"inbound_nodes":[]},{"name":"dense_Dense2996","class_name":"Dense","config":{"units":4,"activation":"relu","use_bias":true,"kernel_initializer":{"class_name":"VarianceScaling","config":{"scale":1,"mode":"fan_avg","distribution":"normal","seed":null}},"bias_initializer":{"class_name":"Zeros","config":{}},"kernel_regularizer":null,"bias_regularizer":null,"activity_regularizer":null,"kernel_constraint":null,"bias_constraint":null,"name":"dense_Dense2996","trainable":true},"inbound_nodes":[[["input600",0,0,{}]]]},{"name":"dense_Dense2997","class_name":"Dense","config":{"units":16,"activation":"relu","use_bias":true,"kernel_initializer":{"class_name":"VarianceScaling","config":{"scale":1,"mode":"fan_avg","distribution":"normal","seed":null}},"bias_initializer":{"class_name":"Zeros","config":{}},"kernel_regularizer":null,"bias_regularizer":null,"activity_regularizer":null,"kernel_constraint":null,"bias_constraint":null,"name":"dense_Dense2997","trainable":true},"inbound_nodes":[[["dense_Dense2996",0,0,{}]]]},{"name":"dense_Dense2998","class_name":"Dense","config":{"units":8,"activation":"relu","use_bias":true,"kernel_initializer":{"class_name":"VarianceScaling","config":{"scale":1,"mode":"fan_avg","distribution":"normal","seed":null}},"bias_initializer":{"class_name":"Zeros","config":{}},"kernel_regularizer":null,"bias_regularizer":null,"activity_regularizer":null,"kernel_constraint":null,"bias_constraint":null,"name":"dense_Dense2998","trainable":true},"inbound_nodes":[[["dense_Dense2997",0,0,{}]]]},{"name":"dense_Dense2999","class_name":"Dense","config":{"units":32,"activation":"relu","use_bias":true,"kernel_initializer":{"class_name":"VarianceScaling","config":{"scale":1,"mode":"fan_avg","distribution":"normal","seed":null}},"bias_initializer":{"class_name":"Zeros","config":{}},"kernel_regularizer":null,"bias_regularizer":null,"activity_regularizer":null,"kernel_constraint":null,"bias_constraint":null,"name":"dense_Dense2999","trainable":true},"inbound_nodes":[[["dense_Dense2998",0,0,{}]]]},{"name":"dense_Dense3000","class_name":"Dense","config":{"units":1,"activation":"sigmoid","use_bias":true,"kernel_initializer":{"class_name":"VarianceScaling","config":{"scale":1,"mode":"fan_avg","distribution":"normal","seed":null}},"bias_initializer":{"class_name":"Zeros","config":{}},"kernel_regularizer":null,"bias_regularizer":null,"activity_regularizer":null,"kernel_constraint":null,"bias_constraint":null,"name":"dense_Dense3000","trainable":true},"inbound_nodes":[[["dense_Dense2999",0,0,{}]]]}],"input_layers":[["input600",0,0]],"output_layers":[["dense_Dense3000",0,0]]},"keras_version":"tfjs-layers 3.9.0","backend":"tensor_flow.js"},"weightsManifest":[{"paths":["weights.bin"],"weights":[{"name":"dense_Dense2996/kernel","shape":[3,4],"dtype":"float32"},{"name":"dense_Dense2996/bias","shape":[4],"dtype":"float32"},{"name":"dense_Dense2997/kernel","shape":[4,16],"dtype":"float32"},{"name":"dense_Dense2997/bias","shape":[16],"dtype":"float32"},{"name":"dense_Dense2998/kernel","shape":[16,8],"dtype":"float32"},{"name":"dense_Dense2998/bias","shape":[8],"dtype":"float32"},{"name":"dense_Dense2999/kernel","shape":[8,32],"dtype":"float32"},{"name":"dense_Dense2999/bias","shape":[32],"dtype":"float32"},{"name":"dense_Dense3000/kernel","shape":[32,1],"dtype":"float32"},{"name":"dense_Dense3000/bias","shape":[1],"dtype":"float32"}]}]}