{"modelTopology":{"class_name":"Model","config":{"name":"model439","layers":[{"name":"input439","class_name":"InputLayer","config":{"batch_input_shape":[null,3],"dtype":"float32","sparse":false,"name":"input439"},"inbound_nodes":[]},{"name":"dense_Dense2629","class_name":"Dense","config":{"units":2,"activation":"relu","use_bias":true,"kernel_initializer":{"class_name":"VarianceScaling","config":{"scale":1,"mode":"fan_avg","distribution":"normal","seed":null}},"bias_initializer":{"class_name":"Zeros","config":{}},"kernel_regularizer":null,"bias_regularizer":null,"activity_regularizer":null,"kernel_constraint":null,"bias_constraint":null,"name":"dense_Dense2629","trainable":true},"inbound_nodes":[[["input439",0,0,{}]]]},{"name":"dense_Dense2630","class_name":"Dense","config":{"units":4,"activation":"relu","use_bias":true,"kernel_initializer":{"class_name":"VarianceScaling","config":{"scale":1,"mode":"fan_avg","distribution":"normal","seed":null}},"bias_initializer":{"class_name":"Zeros","config":{}},"kernel_regularizer":null,"bias_regularizer":null,"activity_regularizer":null,"kernel_constraint":null,"bias_constraint":null,"name":"dense_Dense2630","trainable":true},"inbound_nodes":[[["dense_Dense2629",0,0,{}]]]},{"name":"dense_Dense2631","class_name":"Dense","config":{"units":1,"activation":"relu","use_bias":true,"kernel_initializer":{"class_name":"VarianceScaling","config":{"scale":1,"mode":"fan_avg","distribution":"normal","seed":null}},"bias_initializer":{"class_name":"Zeros","config":{}},"kernel_regularizer":null,"bias_regularizer":null,"activity_regularizer":null,"kernel_constraint":null,"bias_constraint":null,"name":"dense_Dense2631","trainable":true},"inbound_nodes":[[["dense_Dense2630",0,0,{}]]]},{"name":"dense_Dense2632","class_name":"Dense","config":{"units":2,"activation":"relu","use_bias":true,"kernel_initializer":{"class_name":"VarianceScaling","config":{"scale":1,"mode":"fan_avg","distribution":"normal","seed":null}},"bias_initializer":{"class_name":"Zeros","config":{}},"kernel_regularizer":null,"bias_regularizer":null,"activity_regularizer":null,"kernel_constraint":null,"bias_constraint":null,"name":"dense_Dense2632","trainable":true},"inbound_nodes":[[["dense_Dense2631",0,0,{}]]]},{"name":"dense_Dense2633","class_name":"Dense","config":{"units":1,"activation":"relu","use_bias":true,"kernel_initializer":{"class_name":"VarianceScaling","config":{"scale":1,"mode":"fan_avg","distribution":"normal","seed":null}},"bias_initializer":{"class_name":"Zeros","config":{}},"kernel_regularizer":null,"bias_regularizer":null,"activity_regularizer":null,"kernel_constraint":null,"bias_constraint":null,"name":"dense_Dense2633","trainable":true},"inbound_nodes":[[["dense_Dense2632",0,0,{}]]]},{"name":"dense_Dense2634","class_name":"Dense","config":{"units":1,"activation":"sigmoid","use_bias":true,"kernel_initializer":{"class_name":"VarianceScaling","config":{"scale":1,"mode":"fan_avg","distribution":"normal","seed":null}},"bias_initializer":{"class_name":"Zeros","config":{}},"kernel_regularizer":null,"bias_regularizer":null,"activity_regularizer":null,"kernel_constraint":null,"bias_constraint":null,"name":"dense_Dense2634","trainable":true},"inbound_nodes":[[["dense_Dense2633",0,0,{}]]]}],"input_layers":[["input439",0,0]],"output_layers":[["dense_Dense2634",0,0]]},"keras_version":"tfjs-layers 3.9.0","backend":"tensor_flow.js"},"weightsManifest":[{"paths":["weights.bin"],"weights":[{"name":"dense_Dense2629/kernel","shape":[3,2],"dtype":"float32"},{"name":"dense_Dense2629/bias","shape":[2],"dtype":"float32"},{"name":"dense_Dense2630/kernel","shape":[2,4],"dtype":"float32"},{"name":"dense_Dense2630/bias","shape":[4],"dtype":"float32"},{"name":"dense_Dense2631/kernel","shape":[4,1],"dtype":"float32"},{"name":"dense_Dense2631/bias","shape":[1],"dtype":"float32"},{"name":"dense_Dense2632/kernel","shape":[1,2],"dtype":"float32"},{"name":"dense_Dense2632/bias","shape":[2],"dtype":"float32"},{"name":"dense_Dense2633/kernel","shape":[2,1],"dtype":"float32"},{"name":"dense_Dense2633/bias","shape":[1],"dtype":"float32"},{"name":"dense_Dense2634/kernel","shape":[1,1],"dtype":"float32"},{"name":"dense_Dense2634/bias","shape":[1],"dtype":"float32"}]}]}