{"modelTopology":{"class_name":"Model","config":{"name":"model375","layers":[{"name":"input375","class_name":"InputLayer","config":{"batch_input_shape":[null,3],"dtype":"float32","sparse":false,"name":"input375"},"inbound_nodes":[]},{"name":"dense_Dense1871","class_name":"Dense","config":{"units":2,"activation":"relu","use_bias":true,"kernel_initializer":{"class_name":"VarianceScaling","config":{"scale":1,"mode":"fan_avg","distribution":"normal","seed":null}},"bias_initializer":{"class_name":"Zeros","config":{}},"kernel_regularizer":null,"bias_regularizer":null,"activity_regularizer":null,"kernel_constraint":null,"bias_constraint":null,"name":"dense_Dense1871","trainable":true},"inbound_nodes":[[["input375",0,0,{}]]]},{"name":"dense_Dense1872","class_name":"Dense","config":{"units":16,"activation":"relu","use_bias":true,"kernel_initializer":{"class_name":"VarianceScaling","config":{"scale":1,"mode":"fan_avg","distribution":"normal","seed":null}},"bias_initializer":{"class_name":"Zeros","config":{}},"kernel_regularizer":null,"bias_regularizer":null,"activity_regularizer":null,"kernel_constraint":null,"bias_constraint":null,"name":"dense_Dense1872","trainable":true},"inbound_nodes":[[["dense_Dense1871",0,0,{}]]]},{"name":"dense_Dense1873","class_name":"Dense","config":{"units":4,"activation":"relu","use_bias":true,"kernel_initializer":{"class_name":"VarianceScaling","config":{"scale":1,"mode":"fan_avg","distribution":"normal","seed":null}},"bias_initializer":{"class_name":"Zeros","config":{}},"kernel_regularizer":null,"bias_regularizer":null,"activity_regularizer":null,"kernel_constraint":null,"bias_constraint":null,"name":"dense_Dense1873","trainable":true},"inbound_nodes":[[["dense_Dense1872",0,0,{}]]]},{"name":"dense_Dense1874","class_name":"Dense","config":{"units":4,"activation":"relu","use_bias":true,"kernel_initializer":{"class_name":"VarianceScaling","config":{"scale":1,"mode":"fan_avg","distribution":"normal","seed":null}},"bias_initializer":{"class_name":"Zeros","config":{}},"kernel_regularizer":null,"bias_regularizer":null,"activity_regularizer":null,"kernel_constraint":null,"bias_constraint":null,"name":"dense_Dense1874","trainable":true},"inbound_nodes":[[["dense_Dense1873",0,0,{}]]]},{"name":"dense_Dense1875","class_name":"Dense","config":{"units":1,"activation":"sigmoid","use_bias":true,"kernel_initializer":{"class_name":"VarianceScaling","config":{"scale":1,"mode":"fan_avg","distribution":"normal","seed":null}},"bias_initializer":{"class_name":"Zeros","config":{}},"kernel_regularizer":null,"bias_regularizer":null,"activity_regularizer":null,"kernel_constraint":null,"bias_constraint":null,"name":"dense_Dense1875","trainable":true},"inbound_nodes":[[["dense_Dense1874",0,0,{}]]]}],"input_layers":[["input375",0,0]],"output_layers":[["dense_Dense1875",0,0]]},"keras_version":"tfjs-layers 3.9.0","backend":"tensor_flow.js"},"weightsManifest":[{"paths":["weights.bin"],"weights":[{"name":"dense_Dense1871/kernel","shape":[3,2],"dtype":"float32"},{"name":"dense_Dense1871/bias","shape":[2],"dtype":"float32"},{"name":"dense_Dense1872/kernel","shape":[2,16],"dtype":"float32"},{"name":"dense_Dense1872/bias","shape":[16],"dtype":"float32"},{"name":"dense_Dense1873/kernel","shape":[16,4],"dtype":"float32"},{"name":"dense_Dense1873/bias","shape":[4],"dtype":"float32"},{"name":"dense_Dense1874/kernel","shape":[4,4],"dtype":"float32"},{"name":"dense_Dense1874/bias","shape":[4],"dtype":"float32"},{"name":"dense_Dense1875/kernel","shape":[4,1],"dtype":"float32"},{"name":"dense_Dense1875/bias","shape":[1],"dtype":"float32"}]}]}