{"modelTopology":{"class_name":"Model","config":{"name":"model541","layers":[{"name":"input541","class_name":"InputLayer","config":{"batch_input_shape":[null,3],"dtype":"float32","sparse":false,"name":"input541"},"inbound_nodes":[]},{"name":"dense_Dense3241","class_name":"Dense","config":{"units":8,"activation":"relu","use_bias":true,"kernel_initializer":{"class_name":"VarianceScaling","config":{"scale":1,"mode":"fan_avg","distribution":"normal","seed":null}},"bias_initializer":{"class_name":"Zeros","config":{}},"kernel_regularizer":null,"bias_regularizer":null,"activity_regularizer":null,"kernel_constraint":null,"bias_constraint":null,"name":"dense_Dense3241","trainable":true},"inbound_nodes":[[["input541",0,0,{}]]]},{"name":"dense_Dense3242","class_name":"Dense","config":{"units":4,"activation":"relu","use_bias":true,"kernel_initializer":{"class_name":"VarianceScaling","config":{"scale":1,"mode":"fan_avg","distribution":"normal","seed":null}},"bias_initializer":{"class_name":"Zeros","config":{}},"kernel_regularizer":null,"bias_regularizer":null,"activity_regularizer":null,"kernel_constraint":null,"bias_constraint":null,"name":"dense_Dense3242","trainable":true},"inbound_nodes":[[["dense_Dense3241",0,0,{}]]]},{"name":"dense_Dense3243","class_name":"Dense","config":{"units":8,"activation":"relu","use_bias":true,"kernel_initializer":{"class_name":"VarianceScaling","config":{"scale":1,"mode":"fan_avg","distribution":"normal","seed":null}},"bias_initializer":{"class_name":"Zeros","config":{}},"kernel_regularizer":null,"bias_regularizer":null,"activity_regularizer":null,"kernel_constraint":null,"bias_constraint":null,"name":"dense_Dense3243","trainable":true},"inbound_nodes":[[["dense_Dense3242",0,0,{}]]]},{"name":"dense_Dense3244","class_name":"Dense","config":{"units":1,"activation":"relu","use_bias":true,"kernel_initializer":{"class_name":"VarianceScaling","config":{"scale":1,"mode":"fan_avg","distribution":"normal","seed":null}},"bias_initializer":{"class_name":"Zeros","config":{}},"kernel_regularizer":null,"bias_regularizer":null,"activity_regularizer":null,"kernel_constraint":null,"bias_constraint":null,"name":"dense_Dense3244","trainable":true},"inbound_nodes":[[["dense_Dense3243",0,0,{}]]]},{"name":"dense_Dense3245","class_name":"Dense","config":{"units":1,"activation":"relu","use_bias":true,"kernel_initializer":{"class_name":"VarianceScaling","config":{"scale":1,"mode":"fan_avg","distribution":"normal","seed":null}},"bias_initializer":{"class_name":"Zeros","config":{}},"kernel_regularizer":null,"bias_regularizer":null,"activity_regularizer":null,"kernel_constraint":null,"bias_constraint":null,"name":"dense_Dense3245","trainable":true},"inbound_nodes":[[["dense_Dense3244",0,0,{}]]]},{"name":"dense_Dense3246","class_name":"Dense","config":{"units":1,"activation":"sigmoid","use_bias":true,"kernel_initializer":{"class_name":"VarianceScaling","config":{"scale":1,"mode":"fan_avg","distribution":"normal","seed":null}},"bias_initializer":{"class_name":"Zeros","config":{}},"kernel_regularizer":null,"bias_regularizer":null,"activity_regularizer":null,"kernel_constraint":null,"bias_constraint":null,"name":"dense_Dense3246","trainable":true},"inbound_nodes":[[["dense_Dense3245",0,0,{}]]]}],"input_layers":[["input541",0,0]],"output_layers":[["dense_Dense3246",0,0]]},"keras_version":"tfjs-layers 3.9.0","backend":"tensor_flow.js"},"weightsManifest":[{"paths":["weights.bin"],"weights":[{"name":"dense_Dense3241/kernel","shape":[3,8],"dtype":"float32"},{"name":"dense_Dense3241/bias","shape":[8],"dtype":"float32"},{"name":"dense_Dense3242/kernel","shape":[8,4],"dtype":"float32"},{"name":"dense_Dense3242/bias","shape":[4],"dtype":"float32"},{"name":"dense_Dense3243/kernel","shape":[4,8],"dtype":"float32"},{"name":"dense_Dense3243/bias","shape":[8],"dtype":"float32"},{"name":"dense_Dense3244/kernel","shape":[8,1],"dtype":"float32"},{"name":"dense_Dense3244/bias","shape":[1],"dtype":"float32"},{"name":"dense_Dense3245/kernel","shape":[1,1],"dtype":"float32"},{"name":"dense_Dense3245/bias","shape":[1],"dtype":"float32"},{"name":"dense_Dense3246/kernel","shape":[1,1],"dtype":"float32"},{"name":"dense_Dense3246/bias","shape":[1],"dtype":"float32"}]}]}