{"modelTopology":{"class_name":"Model","config":{"name":"model422","layers":[{"name":"input422","class_name":"InputLayer","config":{"batch_input_shape":[null,3],"dtype":"float32","sparse":false,"name":"input422"},"inbound_nodes":[]},{"name":"dense_Dense2527","class_name":"Dense","config":{"units":2,"activation":"relu","use_bias":true,"kernel_initializer":{"class_name":"VarianceScaling","config":{"scale":1,"mode":"fan_avg","distribution":"normal","seed":null}},"bias_initializer":{"class_name":"Zeros","config":{}},"kernel_regularizer":null,"bias_regularizer":null,"activity_regularizer":null,"kernel_constraint":null,"bias_constraint":null,"name":"dense_Dense2527","trainable":true},"inbound_nodes":[[["input422",0,0,{}]]]},{"name":"dense_Dense2528","class_name":"Dense","config":{"units":2,"activation":"relu","use_bias":true,"kernel_initializer":{"class_name":"VarianceScaling","config":{"scale":1,"mode":"fan_avg","distribution":"normal","seed":null}},"bias_initializer":{"class_name":"Zeros","config":{}},"kernel_regularizer":null,"bias_regularizer":null,"activity_regularizer":null,"kernel_constraint":null,"bias_constraint":null,"name":"dense_Dense2528","trainable":true},"inbound_nodes":[[["dense_Dense2527",0,0,{}]]]},{"name":"dense_Dense2529","class_name":"Dense","config":{"units":32,"activation":"relu","use_bias":true,"kernel_initializer":{"class_name":"VarianceScaling","config":{"scale":1,"mode":"fan_avg","distribution":"normal","seed":null}},"bias_initializer":{"class_name":"Zeros","config":{}},"kernel_regularizer":null,"bias_regularizer":null,"activity_regularizer":null,"kernel_constraint":null,"bias_constraint":null,"name":"dense_Dense2529","trainable":true},"inbound_nodes":[[["dense_Dense2528",0,0,{}]]]},{"name":"dense_Dense2530","class_name":"Dense","config":{"units":16,"activation":"relu","use_bias":true,"kernel_initializer":{"class_name":"VarianceScaling","config":{"scale":1,"mode":"fan_avg","distribution":"normal","seed":null}},"bias_initializer":{"class_name":"Zeros","config":{}},"kernel_regularizer":null,"bias_regularizer":null,"activity_regularizer":null,"kernel_constraint":null,"bias_constraint":null,"name":"dense_Dense2530","trainable":true},"inbound_nodes":[[["dense_Dense2529",0,0,{}]]]},{"name":"dense_Dense2531","class_name":"Dense","config":{"units":2,"activation":"relu","use_bias":true,"kernel_initializer":{"class_name":"VarianceScaling","config":{"scale":1,"mode":"fan_avg","distribution":"normal","seed":null}},"bias_initializer":{"class_name":"Zeros","config":{}},"kernel_regularizer":null,"bias_regularizer":null,"activity_regularizer":null,"kernel_constraint":null,"bias_constraint":null,"name":"dense_Dense2531","trainable":true},"inbound_nodes":[[["dense_Dense2530",0,0,{}]]]},{"name":"dense_Dense2532","class_name":"Dense","config":{"units":1,"activation":"sigmoid","use_bias":true,"kernel_initializer":{"class_name":"VarianceScaling","config":{"scale":1,"mode":"fan_avg","distribution":"normal","seed":null}},"bias_initializer":{"class_name":"Zeros","config":{}},"kernel_regularizer":null,"bias_regularizer":null,"activity_regularizer":null,"kernel_constraint":null,"bias_constraint":null,"name":"dense_Dense2532","trainable":true},"inbound_nodes":[[["dense_Dense2531",0,0,{}]]]}],"input_layers":[["input422",0,0]],"output_layers":[["dense_Dense2532",0,0]]},"keras_version":"tfjs-layers 3.9.0","backend":"tensor_flow.js"},"weightsManifest":[{"paths":["weights.bin"],"weights":[{"name":"dense_Dense2527/kernel","shape":[3,2],"dtype":"float32"},{"name":"dense_Dense2527/bias","shape":[2],"dtype":"float32"},{"name":"dense_Dense2528/kernel","shape":[2,2],"dtype":"float32"},{"name":"dense_Dense2528/bias","shape":[2],"dtype":"float32"},{"name":"dense_Dense2529/kernel","shape":[2,32],"dtype":"float32"},{"name":"dense_Dense2529/bias","shape":[32],"dtype":"float32"},{"name":"dense_Dense2530/kernel","shape":[32,16],"dtype":"float32"},{"name":"dense_Dense2530/bias","shape":[16],"dtype":"float32"},{"name":"dense_Dense2531/kernel","shape":[16,2],"dtype":"float32"},{"name":"dense_Dense2531/bias","shape":[2],"dtype":"float32"},{"name":"dense_Dense2532/kernel","shape":[2,1],"dtype":"float32"},{"name":"dense_Dense2532/bias","shape":[1],"dtype":"float32"}]}]}