{"modelTopology":{"class_name":"Model","config":{"name":"model203","layers":[{"name":"input203","class_name":"InputLayer","config":{"batch_input_shape":[null,3],"dtype":"float32","sparse":false,"name":"input203"},"inbound_nodes":[]},{"name":"dense_Dense1213","class_name":"Dense","config":{"units":1,"activation":"relu","use_bias":true,"kernel_initializer":{"class_name":"VarianceScaling","config":{"scale":1,"mode":"fan_avg","distribution":"normal","seed":null}},"bias_initializer":{"class_name":"Zeros","config":{}},"kernel_regularizer":null,"bias_regularizer":null,"activity_regularizer":null,"kernel_constraint":null,"bias_constraint":null,"name":"dense_Dense1213","trainable":true},"inbound_nodes":[[["input203",0,0,{}]]]},{"name":"dense_Dense1214","class_name":"Dense","config":{"units":1,"activation":"relu","use_bias":true,"kernel_initializer":{"class_name":"VarianceScaling","config":{"scale":1,"mode":"fan_avg","distribution":"normal","seed":null}},"bias_initializer":{"class_name":"Zeros","config":{}},"kernel_regularizer":null,"bias_regularizer":null,"activity_regularizer":null,"kernel_constraint":null,"bias_constraint":null,"name":"dense_Dense1214","trainable":true},"inbound_nodes":[[["dense_Dense1213",0,0,{}]]]},{"name":"dense_Dense1215","class_name":"Dense","config":{"units":32,"activation":"relu","use_bias":true,"kernel_initializer":{"class_name":"VarianceScaling","config":{"scale":1,"mode":"fan_avg","distribution":"normal","seed":null}},"bias_initializer":{"class_name":"Zeros","config":{}},"kernel_regularizer":null,"bias_regularizer":null,"activity_regularizer":null,"kernel_constraint":null,"bias_constraint":null,"name":"dense_Dense1215","trainable":true},"inbound_nodes":[[["dense_Dense1214",0,0,{}]]]},{"name":"dense_Dense1216","class_name":"Dense","config":{"units":8,"activation":"relu","use_bias":true,"kernel_initializer":{"class_name":"VarianceScaling","config":{"scale":1,"mode":"fan_avg","distribution":"normal","seed":null}},"bias_initializer":{"class_name":"Zeros","config":{}},"kernel_regularizer":null,"bias_regularizer":null,"activity_regularizer":null,"kernel_constraint":null,"bias_constraint":null,"name":"dense_Dense1216","trainable":true},"inbound_nodes":[[["dense_Dense1215",0,0,{}]]]},{"name":"dense_Dense1217","class_name":"Dense","config":{"units":16,"activation":"relu","use_bias":true,"kernel_initializer":{"class_name":"VarianceScaling","config":{"scale":1,"mode":"fan_avg","distribution":"normal","seed":null}},"bias_initializer":{"class_name":"Zeros","config":{}},"kernel_regularizer":null,"bias_regularizer":null,"activity_regularizer":null,"kernel_constraint":null,"bias_constraint":null,"name":"dense_Dense1217","trainable":true},"inbound_nodes":[[["dense_Dense1216",0,0,{}]]]},{"name":"dense_Dense1218","class_name":"Dense","config":{"units":1,"activation":"sigmoid","use_bias":true,"kernel_initializer":{"class_name":"VarianceScaling","config":{"scale":1,"mode":"fan_avg","distribution":"normal","seed":null}},"bias_initializer":{"class_name":"Zeros","config":{}},"kernel_regularizer":null,"bias_regularizer":null,"activity_regularizer":null,"kernel_constraint":null,"bias_constraint":null,"name":"dense_Dense1218","trainable":true},"inbound_nodes":[[["dense_Dense1217",0,0,{}]]]}],"input_layers":[["input203",0,0]],"output_layers":[["dense_Dense1218",0,0]]},"keras_version":"tfjs-layers 3.9.0","backend":"tensor_flow.js"},"weightsManifest":[{"paths":["weights.bin"],"weights":[{"name":"dense_Dense1213/kernel","shape":[3,1],"dtype":"float32"},{"name":"dense_Dense1213/bias","shape":[1],"dtype":"float32"},{"name":"dense_Dense1214/kernel","shape":[1,1],"dtype":"float32"},{"name":"dense_Dense1214/bias","shape":[1],"dtype":"float32"},{"name":"dense_Dense1215/kernel","shape":[1,32],"dtype":"float32"},{"name":"dense_Dense1215/bias","shape":[32],"dtype":"float32"},{"name":"dense_Dense1216/kernel","shape":[32,8],"dtype":"float32"},{"name":"dense_Dense1216/bias","shape":[8],"dtype":"float32"},{"name":"dense_Dense1217/kernel","shape":[8,16],"dtype":"float32"},{"name":"dense_Dense1217/bias","shape":[16],"dtype":"float32"},{"name":"dense_Dense1218/kernel","shape":[16,1],"dtype":"float32"},{"name":"dense_Dense1218/bias","shape":[1],"dtype":"float32"}]}]}