{"modelTopology":{"class_name":"Model","config":{"name":"model1272","layers":[{"name":"input1272","class_name":"InputLayer","config":{"batch_input_shape":[null,3],"dtype":"float32","sparse":false,"name":"input1272"},"inbound_nodes":[]},{"name":"dense_Dense6356","class_name":"Dense","config":{"units":32,"activation":"relu","use_bias":true,"kernel_initializer":{"class_name":"VarianceScaling","config":{"scale":1,"mode":"fan_avg","distribution":"normal","seed":null}},"bias_initializer":{"class_name":"Zeros","config":{}},"kernel_regularizer":null,"bias_regularizer":null,"activity_regularizer":null,"kernel_constraint":null,"bias_constraint":null,"name":"dense_Dense6356","trainable":true},"inbound_nodes":[[["input1272",0,0,{}]]]},{"name":"dense_Dense6357","class_name":"Dense","config":{"units":32,"activation":"relu","use_bias":true,"kernel_initializer":{"class_name":"VarianceScaling","config":{"scale":1,"mode":"fan_avg","distribution":"normal","seed":null}},"bias_initializer":{"class_name":"Zeros","config":{}},"kernel_regularizer":null,"bias_regularizer":null,"activity_regularizer":null,"kernel_constraint":null,"bias_constraint":null,"name":"dense_Dense6357","trainable":true},"inbound_nodes":[[["dense_Dense6356",0,0,{}]]]},{"name":"dense_Dense6358","class_name":"Dense","config":{"units":2,"activation":"relu","use_bias":true,"kernel_initializer":{"class_name":"VarianceScaling","config":{"scale":1,"mode":"fan_avg","distribution":"normal","seed":null}},"bias_initializer":{"class_name":"Zeros","config":{}},"kernel_regularizer":null,"bias_regularizer":null,"activity_regularizer":null,"kernel_constraint":null,"bias_constraint":null,"name":"dense_Dense6358","trainable":true},"inbound_nodes":[[["dense_Dense6357",0,0,{}]]]},{"name":"dense_Dense6359","class_name":"Dense","config":{"units":32,"activation":"relu","use_bias":true,"kernel_initializer":{"class_name":"VarianceScaling","config":{"scale":1,"mode":"fan_avg","distribution":"normal","seed":null}},"bias_initializer":{"class_name":"Zeros","config":{}},"kernel_regularizer":null,"bias_regularizer":null,"activity_regularizer":null,"kernel_constraint":null,"bias_constraint":null,"name":"dense_Dense6359","trainable":true},"inbound_nodes":[[["dense_Dense6358",0,0,{}]]]},{"name":"dense_Dense6360","class_name":"Dense","config":{"units":1,"activation":"sigmoid","use_bias":true,"kernel_initializer":{"class_name":"VarianceScaling","config":{"scale":1,"mode":"fan_avg","distribution":"normal","seed":null}},"bias_initializer":{"class_name":"Zeros","config":{}},"kernel_regularizer":null,"bias_regularizer":null,"activity_regularizer":null,"kernel_constraint":null,"bias_constraint":null,"name":"dense_Dense6360","trainable":true},"inbound_nodes":[[["dense_Dense6359",0,0,{}]]]}],"input_layers":[["input1272",0,0]],"output_layers":[["dense_Dense6360",0,0]]},"keras_version":"tfjs-layers 3.9.0","backend":"tensor_flow.js"},"weightsManifest":[{"paths":["weights.bin"],"weights":[{"name":"dense_Dense6356/kernel","shape":[3,32],"dtype":"float32"},{"name":"dense_Dense6356/bias","shape":[32],"dtype":"float32"},{"name":"dense_Dense6357/kernel","shape":[32,32],"dtype":"float32"},{"name":"dense_Dense6357/bias","shape":[32],"dtype":"float32"},{"name":"dense_Dense6358/kernel","shape":[32,2],"dtype":"float32"},{"name":"dense_Dense6358/bias","shape":[2],"dtype":"float32"},{"name":"dense_Dense6359/kernel","shape":[2,32],"dtype":"float32"},{"name":"dense_Dense6359/bias","shape":[32],"dtype":"float32"},{"name":"dense_Dense6360/kernel","shape":[32,1],"dtype":"float32"},{"name":"dense_Dense6360/bias","shape":[1],"dtype":"float32"}]}]}