{"modelTopology":{"class_name":"Model","config":{"name":"model236","layers":[{"name":"input236","class_name":"InputLayer","config":{"batch_input_shape":[null,3],"dtype":"float32","sparse":false,"name":"input236"},"inbound_nodes":[]},{"name":"dense_Dense1411","class_name":"Dense","config":{"units":2,"activation":"relu","use_bias":true,"kernel_initializer":{"class_name":"VarianceScaling","config":{"scale":1,"mode":"fan_avg","distribution":"normal","seed":null}},"bias_initializer":{"class_name":"Zeros","config":{}},"kernel_regularizer":null,"bias_regularizer":null,"activity_regularizer":null,"kernel_constraint":null,"bias_constraint":null,"name":"dense_Dense1411","trainable":true},"inbound_nodes":[[["input236",0,0,{}]]]},{"name":"dense_Dense1412","class_name":"Dense","config":{"units":2,"activation":"relu","use_bias":true,"kernel_initializer":{"class_name":"VarianceScaling","config":{"scale":1,"mode":"fan_avg","distribution":"normal","seed":null}},"bias_initializer":{"class_name":"Zeros","config":{}},"kernel_regularizer":null,"bias_regularizer":null,"activity_regularizer":null,"kernel_constraint":null,"bias_constraint":null,"name":"dense_Dense1412","trainable":true},"inbound_nodes":[[["dense_Dense1411",0,0,{}]]]},{"name":"dense_Dense1413","class_name":"Dense","config":{"units":1,"activation":"relu","use_bias":true,"kernel_initializer":{"class_name":"VarianceScaling","config":{"scale":1,"mode":"fan_avg","distribution":"normal","seed":null}},"bias_initializer":{"class_name":"Zeros","config":{}},"kernel_regularizer":null,"bias_regularizer":null,"activity_regularizer":null,"kernel_constraint":null,"bias_constraint":null,"name":"dense_Dense1413","trainable":true},"inbound_nodes":[[["dense_Dense1412",0,0,{}]]]},{"name":"dense_Dense1414","class_name":"Dense","config":{"units":8,"activation":"relu","use_bias":true,"kernel_initializer":{"class_name":"VarianceScaling","config":{"scale":1,"mode":"fan_avg","distribution":"normal","seed":null}},"bias_initializer":{"class_name":"Zeros","config":{}},"kernel_regularizer":null,"bias_regularizer":null,"activity_regularizer":null,"kernel_constraint":null,"bias_constraint":null,"name":"dense_Dense1414","trainable":true},"inbound_nodes":[[["dense_Dense1413",0,0,{}]]]},{"name":"dense_Dense1415","class_name":"Dense","config":{"units":2,"activation":"relu","use_bias":true,"kernel_initializer":{"class_name":"VarianceScaling","config":{"scale":1,"mode":"fan_avg","distribution":"normal","seed":null}},"bias_initializer":{"class_name":"Zeros","config":{}},"kernel_regularizer":null,"bias_regularizer":null,"activity_regularizer":null,"kernel_constraint":null,"bias_constraint":null,"name":"dense_Dense1415","trainable":true},"inbound_nodes":[[["dense_Dense1414",0,0,{}]]]},{"name":"dense_Dense1416","class_name":"Dense","config":{"units":1,"activation":"sigmoid","use_bias":true,"kernel_initializer":{"class_name":"VarianceScaling","config":{"scale":1,"mode":"fan_avg","distribution":"normal","seed":null}},"bias_initializer":{"class_name":"Zeros","config":{}},"kernel_regularizer":null,"bias_regularizer":null,"activity_regularizer":null,"kernel_constraint":null,"bias_constraint":null,"name":"dense_Dense1416","trainable":true},"inbound_nodes":[[["dense_Dense1415",0,0,{}]]]}],"input_layers":[["input236",0,0]],"output_layers":[["dense_Dense1416",0,0]]},"keras_version":"tfjs-layers 3.9.0","backend":"tensor_flow.js"},"weightsManifest":[{"paths":["weights.bin"],"weights":[{"name":"dense_Dense1411/kernel","shape":[3,2],"dtype":"float32"},{"name":"dense_Dense1411/bias","shape":[2],"dtype":"float32"},{"name":"dense_Dense1412/kernel","shape":[2,2],"dtype":"float32"},{"name":"dense_Dense1412/bias","shape":[2],"dtype":"float32"},{"name":"dense_Dense1413/kernel","shape":[2,1],"dtype":"float32"},{"name":"dense_Dense1413/bias","shape":[1],"dtype":"float32"},{"name":"dense_Dense1414/kernel","shape":[1,8],"dtype":"float32"},{"name":"dense_Dense1414/bias","shape":[8],"dtype":"float32"},{"name":"dense_Dense1415/kernel","shape":[8,2],"dtype":"float32"},{"name":"dense_Dense1415/bias","shape":[2],"dtype":"float32"},{"name":"dense_Dense1416/kernel","shape":[2,1],"dtype":"float32"},{"name":"dense_Dense1416/bias","shape":[1],"dtype":"float32"}]}]}