{"modelTopology":{"class_name":"Model","config":{"name":"model676","layers":[{"name":"input676","class_name":"InputLayer","config":{"batch_input_shape":[null,3],"dtype":"float32","sparse":false,"name":"input676"},"inbound_nodes":[]},{"name":"dense_Dense4051","class_name":"Dense","config":{"units":2,"activation":"relu","use_bias":true,"kernel_initializer":{"class_name":"VarianceScaling","config":{"scale":1,"mode":"fan_avg","distribution":"normal","seed":null}},"bias_initializer":{"class_name":"Zeros","config":{}},"kernel_regularizer":null,"bias_regularizer":null,"activity_regularizer":null,"kernel_constraint":null,"bias_constraint":null,"name":"dense_Dense4051","trainable":true},"inbound_nodes":[[["input676",0,0,{}]]]},{"name":"dense_Dense4052","class_name":"Dense","config":{"units":8,"activation":"relu","use_bias":true,"kernel_initializer":{"class_name":"VarianceScaling","config":{"scale":1,"mode":"fan_avg","distribution":"normal","seed":null}},"bias_initializer":{"class_name":"Zeros","config":{}},"kernel_regularizer":null,"bias_regularizer":null,"activity_regularizer":null,"kernel_constraint":null,"bias_constraint":null,"name":"dense_Dense4052","trainable":true},"inbound_nodes":[[["dense_Dense4051",0,0,{}]]]},{"name":"dense_Dense4053","class_name":"Dense","config":{"units":1,"activation":"relu","use_bias":true,"kernel_initializer":{"class_name":"VarianceScaling","config":{"scale":1,"mode":"fan_avg","distribution":"normal","seed":null}},"bias_initializer":{"class_name":"Zeros","config":{}},"kernel_regularizer":null,"bias_regularizer":null,"activity_regularizer":null,"kernel_constraint":null,"bias_constraint":null,"name":"dense_Dense4053","trainable":true},"inbound_nodes":[[["dense_Dense4052",0,0,{}]]]},{"name":"dense_Dense4054","class_name":"Dense","config":{"units":16,"activation":"relu","use_bias":true,"kernel_initializer":{"class_name":"VarianceScaling","config":{"scale":1,"mode":"fan_avg","distribution":"normal","seed":null}},"bias_initializer":{"class_name":"Zeros","config":{}},"kernel_regularizer":null,"bias_regularizer":null,"activity_regularizer":null,"kernel_constraint":null,"bias_constraint":null,"name":"dense_Dense4054","trainable":true},"inbound_nodes":[[["dense_Dense4053",0,0,{}]]]},{"name":"dense_Dense4055","class_name":"Dense","config":{"units":8,"activation":"relu","use_bias":true,"kernel_initializer":{"class_name":"VarianceScaling","config":{"scale":1,"mode":"fan_avg","distribution":"normal","seed":null}},"bias_initializer":{"class_name":"Zeros","config":{}},"kernel_regularizer":null,"bias_regularizer":null,"activity_regularizer":null,"kernel_constraint":null,"bias_constraint":null,"name":"dense_Dense4055","trainable":true},"inbound_nodes":[[["dense_Dense4054",0,0,{}]]]},{"name":"dense_Dense4056","class_name":"Dense","config":{"units":1,"activation":"sigmoid","use_bias":true,"kernel_initializer":{"class_name":"VarianceScaling","config":{"scale":1,"mode":"fan_avg","distribution":"normal","seed":null}},"bias_initializer":{"class_name":"Zeros","config":{}},"kernel_regularizer":null,"bias_regularizer":null,"activity_regularizer":null,"kernel_constraint":null,"bias_constraint":null,"name":"dense_Dense4056","trainable":true},"inbound_nodes":[[["dense_Dense4055",0,0,{}]]]}],"input_layers":[["input676",0,0]],"output_layers":[["dense_Dense4056",0,0]]},"keras_version":"tfjs-layers 3.9.0","backend":"tensor_flow.js"},"weightsManifest":[{"paths":["weights.bin"],"weights":[{"name":"dense_Dense4051/kernel","shape":[3,2],"dtype":"float32"},{"name":"dense_Dense4051/bias","shape":[2],"dtype":"float32"},{"name":"dense_Dense4052/kernel","shape":[2,8],"dtype":"float32"},{"name":"dense_Dense4052/bias","shape":[8],"dtype":"float32"},{"name":"dense_Dense4053/kernel","shape":[8,1],"dtype":"float32"},{"name":"dense_Dense4053/bias","shape":[1],"dtype":"float32"},{"name":"dense_Dense4054/kernel","shape":[1,16],"dtype":"float32"},{"name":"dense_Dense4054/bias","shape":[16],"dtype":"float32"},{"name":"dense_Dense4055/kernel","shape":[16,8],"dtype":"float32"},{"name":"dense_Dense4055/bias","shape":[8],"dtype":"float32"},{"name":"dense_Dense4056/kernel","shape":[8,1],"dtype":"float32"},{"name":"dense_Dense4056/bias","shape":[1],"dtype":"float32"}]}]}