{"modelTopology":{"class_name":"Model","config":{"name":"model1250","layers":[{"name":"input1250","class_name":"InputLayer","config":{"batch_input_shape":[null,3],"dtype":"float32","sparse":false,"name":"input1250"},"inbound_nodes":[]},{"name":"dense_Dense7495","class_name":"Dense","config":{"units":2,"activation":"relu","use_bias":true,"kernel_initializer":{"class_name":"VarianceScaling","config":{"scale":1,"mode":"fan_avg","distribution":"normal","seed":null}},"bias_initializer":{"class_name":"Zeros","config":{}},"kernel_regularizer":null,"bias_regularizer":null,"activity_regularizer":null,"kernel_constraint":null,"bias_constraint":null,"name":"dense_Dense7495","trainable":true},"inbound_nodes":[[["input1250",0,0,{}]]]},{"name":"dense_Dense7496","class_name":"Dense","config":{"units":32,"activation":"relu","use_bias":true,"kernel_initializer":{"class_name":"VarianceScaling","config":{"scale":1,"mode":"fan_avg","distribution":"normal","seed":null}},"bias_initializer":{"class_name":"Zeros","config":{}},"kernel_regularizer":null,"bias_regularizer":null,"activity_regularizer":null,"kernel_constraint":null,"bias_constraint":null,"name":"dense_Dense7496","trainable":true},"inbound_nodes":[[["dense_Dense7495",0,0,{}]]]},{"name":"dense_Dense7497","class_name":"Dense","config":{"units":16,"activation":"relu","use_bias":true,"kernel_initializer":{"class_name":"VarianceScaling","config":{"scale":1,"mode":"fan_avg","distribution":"normal","seed":null}},"bias_initializer":{"class_name":"Zeros","config":{}},"kernel_regularizer":null,"bias_regularizer":null,"activity_regularizer":null,"kernel_constraint":null,"bias_constraint":null,"name":"dense_Dense7497","trainable":true},"inbound_nodes":[[["dense_Dense7496",0,0,{}]]]},{"name":"dense_Dense7498","class_name":"Dense","config":{"units":16,"activation":"relu","use_bias":true,"kernel_initializer":{"class_name":"VarianceScaling","config":{"scale":1,"mode":"fan_avg","distribution":"normal","seed":null}},"bias_initializer":{"class_name":"Zeros","config":{}},"kernel_regularizer":null,"bias_regularizer":null,"activity_regularizer":null,"kernel_constraint":null,"bias_constraint":null,"name":"dense_Dense7498","trainable":true},"inbound_nodes":[[["dense_Dense7497",0,0,{}]]]},{"name":"dense_Dense7499","class_name":"Dense","config":{"units":2,"activation":"relu","use_bias":true,"kernel_initializer":{"class_name":"VarianceScaling","config":{"scale":1,"mode":"fan_avg","distribution":"normal","seed":null}},"bias_initializer":{"class_name":"Zeros","config":{}},"kernel_regularizer":null,"bias_regularizer":null,"activity_regularizer":null,"kernel_constraint":null,"bias_constraint":null,"name":"dense_Dense7499","trainable":true},"inbound_nodes":[[["dense_Dense7498",0,0,{}]]]},{"name":"dense_Dense7500","class_name":"Dense","config":{"units":1,"activation":"sigmoid","use_bias":true,"kernel_initializer":{"class_name":"VarianceScaling","config":{"scale":1,"mode":"fan_avg","distribution":"normal","seed":null}},"bias_initializer":{"class_name":"Zeros","config":{}},"kernel_regularizer":null,"bias_regularizer":null,"activity_regularizer":null,"kernel_constraint":null,"bias_constraint":null,"name":"dense_Dense7500","trainable":true},"inbound_nodes":[[["dense_Dense7499",0,0,{}]]]}],"input_layers":[["input1250",0,0]],"output_layers":[["dense_Dense7500",0,0]]},"keras_version":"tfjs-layers 3.9.0","backend":"tensor_flow.js"},"weightsManifest":[{"paths":["weights.bin"],"weights":[{"name":"dense_Dense7495/kernel","shape":[3,2],"dtype":"float32"},{"name":"dense_Dense7495/bias","shape":[2],"dtype":"float32"},{"name":"dense_Dense7496/kernel","shape":[2,32],"dtype":"float32"},{"name":"dense_Dense7496/bias","shape":[32],"dtype":"float32"},{"name":"dense_Dense7497/kernel","shape":[32,16],"dtype":"float32"},{"name":"dense_Dense7497/bias","shape":[16],"dtype":"float32"},{"name":"dense_Dense7498/kernel","shape":[16,16],"dtype":"float32"},{"name":"dense_Dense7498/bias","shape":[16],"dtype":"float32"},{"name":"dense_Dense7499/kernel","shape":[16,2],"dtype":"float32"},{"name":"dense_Dense7499/bias","shape":[2],"dtype":"float32"},{"name":"dense_Dense7500/kernel","shape":[2,1],"dtype":"float32"},{"name":"dense_Dense7500/bias","shape":[1],"dtype":"float32"}]}]}