{"modelTopology":{"class_name":"Model","config":{"name":"model222","layers":[{"name":"input222","class_name":"InputLayer","config":{"batch_input_shape":[null,3],"dtype":"float32","sparse":false,"name":"input222"},"inbound_nodes":[]},{"name":"dense_Dense1327","class_name":"Dense","config":{"units":32,"activation":"relu","use_bias":true,"kernel_initializer":{"class_name":"VarianceScaling","config":{"scale":1,"mode":"fan_avg","distribution":"normal","seed":null}},"bias_initializer":{"class_name":"Zeros","config":{}},"kernel_regularizer":null,"bias_regularizer":null,"activity_regularizer":null,"kernel_constraint":null,"bias_constraint":null,"name":"dense_Dense1327","trainable":true},"inbound_nodes":[[["input222",0,0,{}]]]},{"name":"dense_Dense1328","class_name":"Dense","config":{"units":2,"activation":"relu","use_bias":true,"kernel_initializer":{"class_name":"VarianceScaling","config":{"scale":1,"mode":"fan_avg","distribution":"normal","seed":null}},"bias_initializer":{"class_name":"Zeros","config":{}},"kernel_regularizer":null,"bias_regularizer":null,"activity_regularizer":null,"kernel_constraint":null,"bias_constraint":null,"name":"dense_Dense1328","trainable":true},"inbound_nodes":[[["dense_Dense1327",0,0,{}]]]},{"name":"dense_Dense1329","class_name":"Dense","config":{"units":1,"activation":"relu","use_bias":true,"kernel_initializer":{"class_name":"VarianceScaling","config":{"scale":1,"mode":"fan_avg","distribution":"normal","seed":null}},"bias_initializer":{"class_name":"Zeros","config":{}},"kernel_regularizer":null,"bias_regularizer":null,"activity_regularizer":null,"kernel_constraint":null,"bias_constraint":null,"name":"dense_Dense1329","trainable":true},"inbound_nodes":[[["dense_Dense1328",0,0,{}]]]},{"name":"dense_Dense1330","class_name":"Dense","config":{"units":1,"activation":"relu","use_bias":true,"kernel_initializer":{"class_name":"VarianceScaling","config":{"scale":1,"mode":"fan_avg","distribution":"normal","seed":null}},"bias_initializer":{"class_name":"Zeros","config":{}},"kernel_regularizer":null,"bias_regularizer":null,"activity_regularizer":null,"kernel_constraint":null,"bias_constraint":null,"name":"dense_Dense1330","trainable":true},"inbound_nodes":[[["dense_Dense1329",0,0,{}]]]},{"name":"dense_Dense1331","class_name":"Dense","config":{"units":32,"activation":"relu","use_bias":true,"kernel_initializer":{"class_name":"VarianceScaling","config":{"scale":1,"mode":"fan_avg","distribution":"normal","seed":null}},"bias_initializer":{"class_name":"Zeros","config":{}},"kernel_regularizer":null,"bias_regularizer":null,"activity_regularizer":null,"kernel_constraint":null,"bias_constraint":null,"name":"dense_Dense1331","trainable":true},"inbound_nodes":[[["dense_Dense1330",0,0,{}]]]},{"name":"dense_Dense1332","class_name":"Dense","config":{"units":1,"activation":"sigmoid","use_bias":true,"kernel_initializer":{"class_name":"VarianceScaling","config":{"scale":1,"mode":"fan_avg","distribution":"normal","seed":null}},"bias_initializer":{"class_name":"Zeros","config":{}},"kernel_regularizer":null,"bias_regularizer":null,"activity_regularizer":null,"kernel_constraint":null,"bias_constraint":null,"name":"dense_Dense1332","trainable":true},"inbound_nodes":[[["dense_Dense1331",0,0,{}]]]}],"input_layers":[["input222",0,0]],"output_layers":[["dense_Dense1332",0,0]]},"keras_version":"tfjs-layers 3.9.0","backend":"tensor_flow.js"},"weightsManifest":[{"paths":["weights.bin"],"weights":[{"name":"dense_Dense1327/kernel","shape":[3,32],"dtype":"float32"},{"name":"dense_Dense1327/bias","shape":[32],"dtype":"float32"},{"name":"dense_Dense1328/kernel","shape":[32,2],"dtype":"float32"},{"name":"dense_Dense1328/bias","shape":[2],"dtype":"float32"},{"name":"dense_Dense1329/kernel","shape":[2,1],"dtype":"float32"},{"name":"dense_Dense1329/bias","shape":[1],"dtype":"float32"},{"name":"dense_Dense1330/kernel","shape":[1,1],"dtype":"float32"},{"name":"dense_Dense1330/bias","shape":[1],"dtype":"float32"},{"name":"dense_Dense1331/kernel","shape":[1,32],"dtype":"float32"},{"name":"dense_Dense1331/bias","shape":[32],"dtype":"float32"},{"name":"dense_Dense1332/kernel","shape":[32,1],"dtype":"float32"},{"name":"dense_Dense1332/bias","shape":[1],"dtype":"float32"}]}]}