{"modelTopology":{"class_name":"Model","config":{"name":"model1047","layers":[{"name":"input1047","class_name":"InputLayer","config":{"batch_input_shape":[null,3],"dtype":"float32","sparse":false,"name":"input1047"},"inbound_nodes":[]},{"name":"dense_Dense6277","class_name":"Dense","config":{"units":16,"activation":"relu","use_bias":true,"kernel_initializer":{"class_name":"VarianceScaling","config":{"scale":1,"mode":"fan_avg","distribution":"normal","seed":null}},"bias_initializer":{"class_name":"Zeros","config":{}},"kernel_regularizer":null,"bias_regularizer":null,"activity_regularizer":null,"kernel_constraint":null,"bias_constraint":null,"name":"dense_Dense6277","trainable":true},"inbound_nodes":[[["input1047",0,0,{}]]]},{"name":"dense_Dense6278","class_name":"Dense","config":{"units":16,"activation":"relu","use_bias":true,"kernel_initializer":{"class_name":"VarianceScaling","config":{"scale":1,"mode":"fan_avg","distribution":"normal","seed":null}},"bias_initializer":{"class_name":"Zeros","config":{}},"kernel_regularizer":null,"bias_regularizer":null,"activity_regularizer":null,"kernel_constraint":null,"bias_constraint":null,"name":"dense_Dense6278","trainable":true},"inbound_nodes":[[["dense_Dense6277",0,0,{}]]]},{"name":"dense_Dense6279","class_name":"Dense","config":{"units":32,"activation":"relu","use_bias":true,"kernel_initializer":{"class_name":"VarianceScaling","config":{"scale":1,"mode":"fan_avg","distribution":"normal","seed":null}},"bias_initializer":{"class_name":"Zeros","config":{}},"kernel_regularizer":null,"bias_regularizer":null,"activity_regularizer":null,"kernel_constraint":null,"bias_constraint":null,"name":"dense_Dense6279","trainable":true},"inbound_nodes":[[["dense_Dense6278",0,0,{}]]]},{"name":"dense_Dense6280","class_name":"Dense","config":{"units":1,"activation":"relu","use_bias":true,"kernel_initializer":{"class_name":"VarianceScaling","config":{"scale":1,"mode":"fan_avg","distribution":"normal","seed":null}},"bias_initializer":{"class_name":"Zeros","config":{}},"kernel_regularizer":null,"bias_regularizer":null,"activity_regularizer":null,"kernel_constraint":null,"bias_constraint":null,"name":"dense_Dense6280","trainable":true},"inbound_nodes":[[["dense_Dense6279",0,0,{}]]]},{"name":"dense_Dense6281","class_name":"Dense","config":{"units":4,"activation":"relu","use_bias":true,"kernel_initializer":{"class_name":"VarianceScaling","config":{"scale":1,"mode":"fan_avg","distribution":"normal","seed":null}},"bias_initializer":{"class_name":"Zeros","config":{}},"kernel_regularizer":null,"bias_regularizer":null,"activity_regularizer":null,"kernel_constraint":null,"bias_constraint":null,"name":"dense_Dense6281","trainable":true},"inbound_nodes":[[["dense_Dense6280",0,0,{}]]]},{"name":"dense_Dense6282","class_name":"Dense","config":{"units":1,"activation":"sigmoid","use_bias":true,"kernel_initializer":{"class_name":"VarianceScaling","config":{"scale":1,"mode":"fan_avg","distribution":"normal","seed":null}},"bias_initializer":{"class_name":"Zeros","config":{}},"kernel_regularizer":null,"bias_regularizer":null,"activity_regularizer":null,"kernel_constraint":null,"bias_constraint":null,"name":"dense_Dense6282","trainable":true},"inbound_nodes":[[["dense_Dense6281",0,0,{}]]]}],"input_layers":[["input1047",0,0]],"output_layers":[["dense_Dense6282",0,0]]},"keras_version":"tfjs-layers 3.9.0","backend":"tensor_flow.js"},"weightsManifest":[{"paths":["weights.bin"],"weights":[{"name":"dense_Dense6277/kernel","shape":[3,16],"dtype":"float32"},{"name":"dense_Dense6277/bias","shape":[16],"dtype":"float32"},{"name":"dense_Dense6278/kernel","shape":[16,16],"dtype":"float32"},{"name":"dense_Dense6278/bias","shape":[16],"dtype":"float32"},{"name":"dense_Dense6279/kernel","shape":[16,32],"dtype":"float32"},{"name":"dense_Dense6279/bias","shape":[32],"dtype":"float32"},{"name":"dense_Dense6280/kernel","shape":[32,1],"dtype":"float32"},{"name":"dense_Dense6280/bias","shape":[1],"dtype":"float32"},{"name":"dense_Dense6281/kernel","shape":[1,4],"dtype":"float32"},{"name":"dense_Dense6281/bias","shape":[4],"dtype":"float32"},{"name":"dense_Dense6282/kernel","shape":[4,1],"dtype":"float32"},{"name":"dense_Dense6282/bias","shape":[1],"dtype":"float32"}]}]}