{"modelTopology":{"class_name":"Model","config":{"name":"model276","layers":[{"name":"input276","class_name":"InputLayer","config":{"batch_input_shape":[null,3],"dtype":"float32","sparse":false,"name":"input276"},"inbound_nodes":[]},{"name":"dense_Dense1651","class_name":"Dense","config":{"units":32,"activation":"relu","use_bias":true,"kernel_initializer":{"class_name":"VarianceScaling","config":{"scale":1,"mode":"fan_avg","distribution":"normal","seed":null}},"bias_initializer":{"class_name":"Zeros","config":{}},"kernel_regularizer":null,"bias_regularizer":null,"activity_regularizer":null,"kernel_constraint":null,"bias_constraint":null,"name":"dense_Dense1651","trainable":true},"inbound_nodes":[[["input276",0,0,{}]]]},{"name":"dense_Dense1652","class_name":"Dense","config":{"units":2,"activation":"relu","use_bias":true,"kernel_initializer":{"class_name":"VarianceScaling","config":{"scale":1,"mode":"fan_avg","distribution":"normal","seed":null}},"bias_initializer":{"class_name":"Zeros","config":{}},"kernel_regularizer":null,"bias_regularizer":null,"activity_regularizer":null,"kernel_constraint":null,"bias_constraint":null,"name":"dense_Dense1652","trainable":true},"inbound_nodes":[[["dense_Dense1651",0,0,{}]]]},{"name":"dense_Dense1653","class_name":"Dense","config":{"units":2,"activation":"relu","use_bias":true,"kernel_initializer":{"class_name":"VarianceScaling","config":{"scale":1,"mode":"fan_avg","distribution":"normal","seed":null}},"bias_initializer":{"class_name":"Zeros","config":{}},"kernel_regularizer":null,"bias_regularizer":null,"activity_regularizer":null,"kernel_constraint":null,"bias_constraint":null,"name":"dense_Dense1653","trainable":true},"inbound_nodes":[[["dense_Dense1652",0,0,{}]]]},{"name":"dense_Dense1654","class_name":"Dense","config":{"units":8,"activation":"relu","use_bias":true,"kernel_initializer":{"class_name":"VarianceScaling","config":{"scale":1,"mode":"fan_avg","distribution":"normal","seed":null}},"bias_initializer":{"class_name":"Zeros","config":{}},"kernel_regularizer":null,"bias_regularizer":null,"activity_regularizer":null,"kernel_constraint":null,"bias_constraint":null,"name":"dense_Dense1654","trainable":true},"inbound_nodes":[[["dense_Dense1653",0,0,{}]]]},{"name":"dense_Dense1655","class_name":"Dense","config":{"units":32,"activation":"relu","use_bias":true,"kernel_initializer":{"class_name":"VarianceScaling","config":{"scale":1,"mode":"fan_avg","distribution":"normal","seed":null}},"bias_initializer":{"class_name":"Zeros","config":{}},"kernel_regularizer":null,"bias_regularizer":null,"activity_regularizer":null,"kernel_constraint":null,"bias_constraint":null,"name":"dense_Dense1655","trainable":true},"inbound_nodes":[[["dense_Dense1654",0,0,{}]]]},{"name":"dense_Dense1656","class_name":"Dense","config":{"units":1,"activation":"sigmoid","use_bias":true,"kernel_initializer":{"class_name":"VarianceScaling","config":{"scale":1,"mode":"fan_avg","distribution":"normal","seed":null}},"bias_initializer":{"class_name":"Zeros","config":{}},"kernel_regularizer":null,"bias_regularizer":null,"activity_regularizer":null,"kernel_constraint":null,"bias_constraint":null,"name":"dense_Dense1656","trainable":true},"inbound_nodes":[[["dense_Dense1655",0,0,{}]]]}],"input_layers":[["input276",0,0]],"output_layers":[["dense_Dense1656",0,0]]},"keras_version":"tfjs-layers 3.9.0","backend":"tensor_flow.js"},"weightsManifest":[{"paths":["weights.bin"],"weights":[{"name":"dense_Dense1651/kernel","shape":[3,32],"dtype":"float32"},{"name":"dense_Dense1651/bias","shape":[32],"dtype":"float32"},{"name":"dense_Dense1652/kernel","shape":[32,2],"dtype":"float32"},{"name":"dense_Dense1652/bias","shape":[2],"dtype":"float32"},{"name":"dense_Dense1653/kernel","shape":[2,2],"dtype":"float32"},{"name":"dense_Dense1653/bias","shape":[2],"dtype":"float32"},{"name":"dense_Dense1654/kernel","shape":[2,8],"dtype":"float32"},{"name":"dense_Dense1654/bias","shape":[8],"dtype":"float32"},{"name":"dense_Dense1655/kernel","shape":[8,32],"dtype":"float32"},{"name":"dense_Dense1655/bias","shape":[32],"dtype":"float32"},{"name":"dense_Dense1656/kernel","shape":[32,1],"dtype":"float32"},{"name":"dense_Dense1656/bias","shape":[1],"dtype":"float32"}]}]}