{"modelTopology":{"class_name":"Model","config":{"name":"model1079","layers":[{"name":"input1079","class_name":"InputLayer","config":{"batch_input_shape":[null,3],"dtype":"float32","sparse":false,"name":"input1079"},"inbound_nodes":[]},{"name":"dense_Dense6469","class_name":"Dense","config":{"units":16,"activation":"relu","use_bias":true,"kernel_initializer":{"class_name":"VarianceScaling","config":{"scale":1,"mode":"fan_avg","distribution":"normal","seed":null}},"bias_initializer":{"class_name":"Zeros","config":{}},"kernel_regularizer":null,"bias_regularizer":null,"activity_regularizer":null,"kernel_constraint":null,"bias_constraint":null,"name":"dense_Dense6469","trainable":true},"inbound_nodes":[[["input1079",0,0,{}]]]},{"name":"dense_Dense6470","class_name":"Dense","config":{"units":16,"activation":"relu","use_bias":true,"kernel_initializer":{"class_name":"VarianceScaling","config":{"scale":1,"mode":"fan_avg","distribution":"normal","seed":null}},"bias_initializer":{"class_name":"Zeros","config":{}},"kernel_regularizer":null,"bias_regularizer":null,"activity_regularizer":null,"kernel_constraint":null,"bias_constraint":null,"name":"dense_Dense6470","trainable":true},"inbound_nodes":[[["dense_Dense6469",0,0,{}]]]},{"name":"dense_Dense6471","class_name":"Dense","config":{"units":32,"activation":"relu","use_bias":true,"kernel_initializer":{"class_name":"VarianceScaling","config":{"scale":1,"mode":"fan_avg","distribution":"normal","seed":null}},"bias_initializer":{"class_name":"Zeros","config":{}},"kernel_regularizer":null,"bias_regularizer":null,"activity_regularizer":null,"kernel_constraint":null,"bias_constraint":null,"name":"dense_Dense6471","trainable":true},"inbound_nodes":[[["dense_Dense6470",0,0,{}]]]},{"name":"dense_Dense6472","class_name":"Dense","config":{"units":32,"activation":"relu","use_bias":true,"kernel_initializer":{"class_name":"VarianceScaling","config":{"scale":1,"mode":"fan_avg","distribution":"normal","seed":null}},"bias_initializer":{"class_name":"Zeros","config":{}},"kernel_regularizer":null,"bias_regularizer":null,"activity_regularizer":null,"kernel_constraint":null,"bias_constraint":null,"name":"dense_Dense6472","trainable":true},"inbound_nodes":[[["dense_Dense6471",0,0,{}]]]},{"name":"dense_Dense6473","class_name":"Dense","config":{"units":16,"activation":"relu","use_bias":true,"kernel_initializer":{"class_name":"VarianceScaling","config":{"scale":1,"mode":"fan_avg","distribution":"normal","seed":null}},"bias_initializer":{"class_name":"Zeros","config":{}},"kernel_regularizer":null,"bias_regularizer":null,"activity_regularizer":null,"kernel_constraint":null,"bias_constraint":null,"name":"dense_Dense6473","trainable":true},"inbound_nodes":[[["dense_Dense6472",0,0,{}]]]},{"name":"dense_Dense6474","class_name":"Dense","config":{"units":1,"activation":"sigmoid","use_bias":true,"kernel_initializer":{"class_name":"VarianceScaling","config":{"scale":1,"mode":"fan_avg","distribution":"normal","seed":null}},"bias_initializer":{"class_name":"Zeros","config":{}},"kernel_regularizer":null,"bias_regularizer":null,"activity_regularizer":null,"kernel_constraint":null,"bias_constraint":null,"name":"dense_Dense6474","trainable":true},"inbound_nodes":[[["dense_Dense6473",0,0,{}]]]}],"input_layers":[["input1079",0,0]],"output_layers":[["dense_Dense6474",0,0]]},"keras_version":"tfjs-layers 3.9.0","backend":"tensor_flow.js"},"weightsManifest":[{"paths":["weights.bin"],"weights":[{"name":"dense_Dense6469/kernel","shape":[3,16],"dtype":"float32"},{"name":"dense_Dense6469/bias","shape":[16],"dtype":"float32"},{"name":"dense_Dense6470/kernel","shape":[16,16],"dtype":"float32"},{"name":"dense_Dense6470/bias","shape":[16],"dtype":"float32"},{"name":"dense_Dense6471/kernel","shape":[16,32],"dtype":"float32"},{"name":"dense_Dense6471/bias","shape":[32],"dtype":"float32"},{"name":"dense_Dense6472/kernel","shape":[32,32],"dtype":"float32"},{"name":"dense_Dense6472/bias","shape":[32],"dtype":"float32"},{"name":"dense_Dense6473/kernel","shape":[32,16],"dtype":"float32"},{"name":"dense_Dense6473/bias","shape":[16],"dtype":"float32"},{"name":"dense_Dense6474/kernel","shape":[16,1],"dtype":"float32"},{"name":"dense_Dense6474/bias","shape":[1],"dtype":"float32"}]}]}