{"modelTopology":{"class_name":"Model","config":{"name":"model476","layers":[{"name":"input476","class_name":"InputLayer","config":{"batch_input_shape":[null,3],"dtype":"float32","sparse":false,"name":"input476"},"inbound_nodes":[]},{"name":"dense_Dense2851","class_name":"Dense","config":{"units":8,"activation":"relu","use_bias":true,"kernel_initializer":{"class_name":"VarianceScaling","config":{"scale":1,"mode":"fan_avg","distribution":"normal","seed":null}},"bias_initializer":{"class_name":"Zeros","config":{}},"kernel_regularizer":null,"bias_regularizer":null,"activity_regularizer":null,"kernel_constraint":null,"bias_constraint":null,"name":"dense_Dense2851","trainable":true},"inbound_nodes":[[["input476",0,0,{}]]]},{"name":"dense_Dense2852","class_name":"Dense","config":{"units":4,"activation":"relu","use_bias":true,"kernel_initializer":{"class_name":"VarianceScaling","config":{"scale":1,"mode":"fan_avg","distribution":"normal","seed":null}},"bias_initializer":{"class_name":"Zeros","config":{}},"kernel_regularizer":null,"bias_regularizer":null,"activity_regularizer":null,"kernel_constraint":null,"bias_constraint":null,"name":"dense_Dense2852","trainable":true},"inbound_nodes":[[["dense_Dense2851",0,0,{}]]]},{"name":"dense_Dense2853","class_name":"Dense","config":{"units":2,"activation":"relu","use_bias":true,"kernel_initializer":{"class_name":"VarianceScaling","config":{"scale":1,"mode":"fan_avg","distribution":"normal","seed":null}},"bias_initializer":{"class_name":"Zeros","config":{}},"kernel_regularizer":null,"bias_regularizer":null,"activity_regularizer":null,"kernel_constraint":null,"bias_constraint":null,"name":"dense_Dense2853","trainable":true},"inbound_nodes":[[["dense_Dense2852",0,0,{}]]]},{"name":"dense_Dense2854","class_name":"Dense","config":{"units":2,"activation":"relu","use_bias":true,"kernel_initializer":{"class_name":"VarianceScaling","config":{"scale":1,"mode":"fan_avg","distribution":"normal","seed":null}},"bias_initializer":{"class_name":"Zeros","config":{}},"kernel_regularizer":null,"bias_regularizer":null,"activity_regularizer":null,"kernel_constraint":null,"bias_constraint":null,"name":"dense_Dense2854","trainable":true},"inbound_nodes":[[["dense_Dense2853",0,0,{}]]]},{"name":"dense_Dense2855","class_name":"Dense","config":{"units":2,"activation":"relu","use_bias":true,"kernel_initializer":{"class_name":"VarianceScaling","config":{"scale":1,"mode":"fan_avg","distribution":"normal","seed":null}},"bias_initializer":{"class_name":"Zeros","config":{}},"kernel_regularizer":null,"bias_regularizer":null,"activity_regularizer":null,"kernel_constraint":null,"bias_constraint":null,"name":"dense_Dense2855","trainable":true},"inbound_nodes":[[["dense_Dense2854",0,0,{}]]]},{"name":"dense_Dense2856","class_name":"Dense","config":{"units":1,"activation":"sigmoid","use_bias":true,"kernel_initializer":{"class_name":"VarianceScaling","config":{"scale":1,"mode":"fan_avg","distribution":"normal","seed":null}},"bias_initializer":{"class_name":"Zeros","config":{}},"kernel_regularizer":null,"bias_regularizer":null,"activity_regularizer":null,"kernel_constraint":null,"bias_constraint":null,"name":"dense_Dense2856","trainable":true},"inbound_nodes":[[["dense_Dense2855",0,0,{}]]]}],"input_layers":[["input476",0,0]],"output_layers":[["dense_Dense2856",0,0]]},"keras_version":"tfjs-layers 3.9.0","backend":"tensor_flow.js"},"weightsManifest":[{"paths":["weights.bin"],"weights":[{"name":"dense_Dense2851/kernel","shape":[3,8],"dtype":"float32"},{"name":"dense_Dense2851/bias","shape":[8],"dtype":"float32"},{"name":"dense_Dense2852/kernel","shape":[8,4],"dtype":"float32"},{"name":"dense_Dense2852/bias","shape":[4],"dtype":"float32"},{"name":"dense_Dense2853/kernel","shape":[4,2],"dtype":"float32"},{"name":"dense_Dense2853/bias","shape":[2],"dtype":"float32"},{"name":"dense_Dense2854/kernel","shape":[2,2],"dtype":"float32"},{"name":"dense_Dense2854/bias","shape":[2],"dtype":"float32"},{"name":"dense_Dense2855/kernel","shape":[2,2],"dtype":"float32"},{"name":"dense_Dense2855/bias","shape":[2],"dtype":"float32"},{"name":"dense_Dense2856/kernel","shape":[2,1],"dtype":"float32"},{"name":"dense_Dense2856/bias","shape":[1],"dtype":"float32"}]}]}