{"modelTopology":{"class_name":"Model","config":{"name":"model429","layers":[{"name":"input429","class_name":"InputLayer","config":{"batch_input_shape":[null,3],"dtype":"float32","sparse":false,"name":"input429"},"inbound_nodes":[]},{"name":"dense_Dense2569","class_name":"Dense","config":{"units":1,"activation":"relu","use_bias":true,"kernel_initializer":{"class_name":"VarianceScaling","config":{"scale":1,"mode":"fan_avg","distribution":"normal","seed":null}},"bias_initializer":{"class_name":"Zeros","config":{}},"kernel_regularizer":null,"bias_regularizer":null,"activity_regularizer":null,"kernel_constraint":null,"bias_constraint":null,"name":"dense_Dense2569","trainable":true},"inbound_nodes":[[["input429",0,0,{}]]]},{"name":"dense_Dense2570","class_name":"Dense","config":{"units":2,"activation":"relu","use_bias":true,"kernel_initializer":{"class_name":"VarianceScaling","config":{"scale":1,"mode":"fan_avg","distribution":"normal","seed":null}},"bias_initializer":{"class_name":"Zeros","config":{}},"kernel_regularizer":null,"bias_regularizer":null,"activity_regularizer":null,"kernel_constraint":null,"bias_constraint":null,"name":"dense_Dense2570","trainable":true},"inbound_nodes":[[["dense_Dense2569",0,0,{}]]]},{"name":"dense_Dense2571","class_name":"Dense","config":{"units":32,"activation":"relu","use_bias":true,"kernel_initializer":{"class_name":"VarianceScaling","config":{"scale":1,"mode":"fan_avg","distribution":"normal","seed":null}},"bias_initializer":{"class_name":"Zeros","config":{}},"kernel_regularizer":null,"bias_regularizer":null,"activity_regularizer":null,"kernel_constraint":null,"bias_constraint":null,"name":"dense_Dense2571","trainable":true},"inbound_nodes":[[["dense_Dense2570",0,0,{}]]]},{"name":"dense_Dense2572","class_name":"Dense","config":{"units":32,"activation":"relu","use_bias":true,"kernel_initializer":{"class_name":"VarianceScaling","config":{"scale":1,"mode":"fan_avg","distribution":"normal","seed":null}},"bias_initializer":{"class_name":"Zeros","config":{}},"kernel_regularizer":null,"bias_regularizer":null,"activity_regularizer":null,"kernel_constraint":null,"bias_constraint":null,"name":"dense_Dense2572","trainable":true},"inbound_nodes":[[["dense_Dense2571",0,0,{}]]]},{"name":"dense_Dense2573","class_name":"Dense","config":{"units":4,"activation":"relu","use_bias":true,"kernel_initializer":{"class_name":"VarianceScaling","config":{"scale":1,"mode":"fan_avg","distribution":"normal","seed":null}},"bias_initializer":{"class_name":"Zeros","config":{}},"kernel_regularizer":null,"bias_regularizer":null,"activity_regularizer":null,"kernel_constraint":null,"bias_constraint":null,"name":"dense_Dense2573","trainable":true},"inbound_nodes":[[["dense_Dense2572",0,0,{}]]]},{"name":"dense_Dense2574","class_name":"Dense","config":{"units":1,"activation":"sigmoid","use_bias":true,"kernel_initializer":{"class_name":"VarianceScaling","config":{"scale":1,"mode":"fan_avg","distribution":"normal","seed":null}},"bias_initializer":{"class_name":"Zeros","config":{}},"kernel_regularizer":null,"bias_regularizer":null,"activity_regularizer":null,"kernel_constraint":null,"bias_constraint":null,"name":"dense_Dense2574","trainable":true},"inbound_nodes":[[["dense_Dense2573",0,0,{}]]]}],"input_layers":[["input429",0,0]],"output_layers":[["dense_Dense2574",0,0]]},"keras_version":"tfjs-layers 3.9.0","backend":"tensor_flow.js"},"weightsManifest":[{"paths":["weights.bin"],"weights":[{"name":"dense_Dense2569/kernel","shape":[3,1],"dtype":"float32"},{"name":"dense_Dense2569/bias","shape":[1],"dtype":"float32"},{"name":"dense_Dense2570/kernel","shape":[1,2],"dtype":"float32"},{"name":"dense_Dense2570/bias","shape":[2],"dtype":"float32"},{"name":"dense_Dense2571/kernel","shape":[2,32],"dtype":"float32"},{"name":"dense_Dense2571/bias","shape":[32],"dtype":"float32"},{"name":"dense_Dense2572/kernel","shape":[32,32],"dtype":"float32"},{"name":"dense_Dense2572/bias","shape":[32],"dtype":"float32"},{"name":"dense_Dense2573/kernel","shape":[32,4],"dtype":"float32"},{"name":"dense_Dense2573/bias","shape":[4],"dtype":"float32"},{"name":"dense_Dense2574/kernel","shape":[4,1],"dtype":"float32"},{"name":"dense_Dense2574/bias","shape":[1],"dtype":"float32"}]}]}