{"modelTopology":{"class_name":"Model","config":{"name":"model280","layers":[{"name":"input280","class_name":"InputLayer","config":{"batch_input_shape":[null,3],"dtype":"float32","sparse":false,"name":"input280"},"inbound_nodes":[]},{"name":"dense_Dense1396","class_name":"Dense","config":{"units":2,"activation":"relu","use_bias":true,"kernel_initializer":{"class_name":"VarianceScaling","config":{"scale":1,"mode":"fan_avg","distribution":"normal","seed":null}},"bias_initializer":{"class_name":"Zeros","config":{}},"kernel_regularizer":null,"bias_regularizer":null,"activity_regularizer":null,"kernel_constraint":null,"bias_constraint":null,"name":"dense_Dense1396","trainable":true},"inbound_nodes":[[["input280",0,0,{}]]]},{"name":"dense_Dense1397","class_name":"Dense","config":{"units":2,"activation":"relu","use_bias":true,"kernel_initializer":{"class_name":"VarianceScaling","config":{"scale":1,"mode":"fan_avg","distribution":"normal","seed":null}},"bias_initializer":{"class_name":"Zeros","config":{}},"kernel_regularizer":null,"bias_regularizer":null,"activity_regularizer":null,"kernel_constraint":null,"bias_constraint":null,"name":"dense_Dense1397","trainable":true},"inbound_nodes":[[["dense_Dense1396",0,0,{}]]]},{"name":"dense_Dense1398","class_name":"Dense","config":{"units":16,"activation":"relu","use_bias":true,"kernel_initializer":{"class_name":"VarianceScaling","config":{"scale":1,"mode":"fan_avg","distribution":"normal","seed":null}},"bias_initializer":{"class_name":"Zeros","config":{}},"kernel_regularizer":null,"bias_regularizer":null,"activity_regularizer":null,"kernel_constraint":null,"bias_constraint":null,"name":"dense_Dense1398","trainable":true},"inbound_nodes":[[["dense_Dense1397",0,0,{}]]]},{"name":"dense_Dense1399","class_name":"Dense","config":{"units":8,"activation":"relu","use_bias":true,"kernel_initializer":{"class_name":"VarianceScaling","config":{"scale":1,"mode":"fan_avg","distribution":"normal","seed":null}},"bias_initializer":{"class_name":"Zeros","config":{}},"kernel_regularizer":null,"bias_regularizer":null,"activity_regularizer":null,"kernel_constraint":null,"bias_constraint":null,"name":"dense_Dense1399","trainable":true},"inbound_nodes":[[["dense_Dense1398",0,0,{}]]]},{"name":"dense_Dense1400","class_name":"Dense","config":{"units":1,"activation":"sigmoid","use_bias":true,"kernel_initializer":{"class_name":"VarianceScaling","config":{"scale":1,"mode":"fan_avg","distribution":"normal","seed":null}},"bias_initializer":{"class_name":"Zeros","config":{}},"kernel_regularizer":null,"bias_regularizer":null,"activity_regularizer":null,"kernel_constraint":null,"bias_constraint":null,"name":"dense_Dense1400","trainable":true},"inbound_nodes":[[["dense_Dense1399",0,0,{}]]]}],"input_layers":[["input280",0,0]],"output_layers":[["dense_Dense1400",0,0]]},"keras_version":"tfjs-layers 3.9.0","backend":"tensor_flow.js"},"weightsManifest":[{"paths":["weights.bin"],"weights":[{"name":"dense_Dense1396/kernel","shape":[3,2],"dtype":"float32"},{"name":"dense_Dense1396/bias","shape":[2],"dtype":"float32"},{"name":"dense_Dense1397/kernel","shape":[2,2],"dtype":"float32"},{"name":"dense_Dense1397/bias","shape":[2],"dtype":"float32"},{"name":"dense_Dense1398/kernel","shape":[2,16],"dtype":"float32"},{"name":"dense_Dense1398/bias","shape":[16],"dtype":"float32"},{"name":"dense_Dense1399/kernel","shape":[16,8],"dtype":"float32"},{"name":"dense_Dense1399/bias","shape":[8],"dtype":"float32"},{"name":"dense_Dense1400/kernel","shape":[8,1],"dtype":"float32"},{"name":"dense_Dense1400/bias","shape":[1],"dtype":"float32"}]}]}