{"modelTopology":{"class_name":"Model","config":{"name":"model799","layers":[{"name":"input799","class_name":"InputLayer","config":{"batch_input_shape":[null,3],"dtype":"float32","sparse":false,"name":"input799"},"inbound_nodes":[]},{"name":"dense_Dense4789","class_name":"Dense","config":{"units":1,"activation":"relu","use_bias":true,"kernel_initializer":{"class_name":"VarianceScaling","config":{"scale":1,"mode":"fan_avg","distribution":"normal","seed":null}},"bias_initializer":{"class_name":"Zeros","config":{}},"kernel_regularizer":null,"bias_regularizer":null,"activity_regularizer":null,"kernel_constraint":null,"bias_constraint":null,"name":"dense_Dense4789","trainable":true},"inbound_nodes":[[["input799",0,0,{}]]]},{"name":"dense_Dense4790","class_name":"Dense","config":{"units":8,"activation":"relu","use_bias":true,"kernel_initializer":{"class_name":"VarianceScaling","config":{"scale":1,"mode":"fan_avg","distribution":"normal","seed":null}},"bias_initializer":{"class_name":"Zeros","config":{}},"kernel_regularizer":null,"bias_regularizer":null,"activity_regularizer":null,"kernel_constraint":null,"bias_constraint":null,"name":"dense_Dense4790","trainable":true},"inbound_nodes":[[["dense_Dense4789",0,0,{}]]]},{"name":"dense_Dense4791","class_name":"Dense","config":{"units":16,"activation":"relu","use_bias":true,"kernel_initializer":{"class_name":"VarianceScaling","config":{"scale":1,"mode":"fan_avg","distribution":"normal","seed":null}},"bias_initializer":{"class_name":"Zeros","config":{}},"kernel_regularizer":null,"bias_regularizer":null,"activity_regularizer":null,"kernel_constraint":null,"bias_constraint":null,"name":"dense_Dense4791","trainable":true},"inbound_nodes":[[["dense_Dense4790",0,0,{}]]]},{"name":"dense_Dense4792","class_name":"Dense","config":{"units":2,"activation":"relu","use_bias":true,"kernel_initializer":{"class_name":"VarianceScaling","config":{"scale":1,"mode":"fan_avg","distribution":"normal","seed":null}},"bias_initializer":{"class_name":"Zeros","config":{}},"kernel_regularizer":null,"bias_regularizer":null,"activity_regularizer":null,"kernel_constraint":null,"bias_constraint":null,"name":"dense_Dense4792","trainable":true},"inbound_nodes":[[["dense_Dense4791",0,0,{}]]]},{"name":"dense_Dense4793","class_name":"Dense","config":{"units":1,"activation":"relu","use_bias":true,"kernel_initializer":{"class_name":"VarianceScaling","config":{"scale":1,"mode":"fan_avg","distribution":"normal","seed":null}},"bias_initializer":{"class_name":"Zeros","config":{}},"kernel_regularizer":null,"bias_regularizer":null,"activity_regularizer":null,"kernel_constraint":null,"bias_constraint":null,"name":"dense_Dense4793","trainable":true},"inbound_nodes":[[["dense_Dense4792",0,0,{}]]]},{"name":"dense_Dense4794","class_name":"Dense","config":{"units":1,"activation":"sigmoid","use_bias":true,"kernel_initializer":{"class_name":"VarianceScaling","config":{"scale":1,"mode":"fan_avg","distribution":"normal","seed":null}},"bias_initializer":{"class_name":"Zeros","config":{}},"kernel_regularizer":null,"bias_regularizer":null,"activity_regularizer":null,"kernel_constraint":null,"bias_constraint":null,"name":"dense_Dense4794","trainable":true},"inbound_nodes":[[["dense_Dense4793",0,0,{}]]]}],"input_layers":[["input799",0,0]],"output_layers":[["dense_Dense4794",0,0]]},"keras_version":"tfjs-layers 3.9.0","backend":"tensor_flow.js"},"weightsManifest":[{"paths":["weights.bin"],"weights":[{"name":"dense_Dense4789/kernel","shape":[3,1],"dtype":"float32"},{"name":"dense_Dense4789/bias","shape":[1],"dtype":"float32"},{"name":"dense_Dense4790/kernel","shape":[1,8],"dtype":"float32"},{"name":"dense_Dense4790/bias","shape":[8],"dtype":"float32"},{"name":"dense_Dense4791/kernel","shape":[8,16],"dtype":"float32"},{"name":"dense_Dense4791/bias","shape":[16],"dtype":"float32"},{"name":"dense_Dense4792/kernel","shape":[16,2],"dtype":"float32"},{"name":"dense_Dense4792/bias","shape":[2],"dtype":"float32"},{"name":"dense_Dense4793/kernel","shape":[2,1],"dtype":"float32"},{"name":"dense_Dense4793/bias","shape":[1],"dtype":"float32"},{"name":"dense_Dense4794/kernel","shape":[1,1],"dtype":"float32"},{"name":"dense_Dense4794/bias","shape":[1],"dtype":"float32"}]}]}