{"modelTopology":{"class_name":"Model","config":{"name":"model124","layers":[{"name":"input124","class_name":"InputLayer","config":{"batch_input_shape":[null,3],"dtype":"float32","sparse":false,"name":"input124"},"inbound_nodes":[]},{"name":"dense_Dense493","class_name":"Dense","config":{"units":8,"activation":"relu","use_bias":true,"kernel_initializer":{"class_name":"VarianceScaling","config":{"scale":1,"mode":"fan_avg","distribution":"normal","seed":null}},"bias_initializer":{"class_name":"Zeros","config":{}},"kernel_regularizer":null,"bias_regularizer":null,"activity_regularizer":null,"kernel_constraint":null,"bias_constraint":null,"name":"dense_Dense493","trainable":true},"inbound_nodes":[[["input124",0,0,{}]]]},{"name":"dense_Dense494","class_name":"Dense","config":{"units":4,"activation":"relu","use_bias":true,"kernel_initializer":{"class_name":"VarianceScaling","config":{"scale":1,"mode":"fan_avg","distribution":"normal","seed":null}},"bias_initializer":{"class_name":"Zeros","config":{}},"kernel_regularizer":null,"bias_regularizer":null,"activity_regularizer":null,"kernel_constraint":null,"bias_constraint":null,"name":"dense_Dense494","trainable":true},"inbound_nodes":[[["dense_Dense493",0,0,{}]]]},{"name":"dense_Dense495","class_name":"Dense","config":{"units":8,"activation":"relu","use_bias":true,"kernel_initializer":{"class_name":"VarianceScaling","config":{"scale":1,"mode":"fan_avg","distribution":"normal","seed":null}},"bias_initializer":{"class_name":"Zeros","config":{}},"kernel_regularizer":null,"bias_regularizer":null,"activity_regularizer":null,"kernel_constraint":null,"bias_constraint":null,"name":"dense_Dense495","trainable":true},"inbound_nodes":[[["dense_Dense494",0,0,{}]]]},{"name":"dense_Dense496","class_name":"Dense","config":{"units":1,"activation":"sigmoid","use_bias":true,"kernel_initializer":{"class_name":"VarianceScaling","config":{"scale":1,"mode":"fan_avg","distribution":"normal","seed":null}},"bias_initializer":{"class_name":"Zeros","config":{}},"kernel_regularizer":null,"bias_regularizer":null,"activity_regularizer":null,"kernel_constraint":null,"bias_constraint":null,"name":"dense_Dense496","trainable":true},"inbound_nodes":[[["dense_Dense495",0,0,{}]]]}],"input_layers":[["input124",0,0]],"output_layers":[["dense_Dense496",0,0]]},"keras_version":"tfjs-layers 3.9.0","backend":"tensor_flow.js"},"weightsManifest":[{"paths":["weights.bin"],"weights":[{"name":"dense_Dense493/kernel","shape":[3,8],"dtype":"float32"},{"name":"dense_Dense493/bias","shape":[8],"dtype":"float32"},{"name":"dense_Dense494/kernel","shape":[8,4],"dtype":"float32"},{"name":"dense_Dense494/bias","shape":[4],"dtype":"float32"},{"name":"dense_Dense495/kernel","shape":[4,8],"dtype":"float32"},{"name":"dense_Dense495/bias","shape":[8],"dtype":"float32"},{"name":"dense_Dense496/kernel","shape":[8,1],"dtype":"float32"},{"name":"dense_Dense496/bias","shape":[1],"dtype":"float32"}]}]}