{"modelTopology":{"class_name":"Model","config":{"name":"model1294","layers":[{"name":"input1294","class_name":"InputLayer","config":{"batch_input_shape":[null,3],"dtype":"float32","sparse":false,"name":"input1294"},"inbound_nodes":[]},{"name":"dense_Dense7759","class_name":"Dense","config":{"units":4,"activation":"relu","use_bias":true,"kernel_initializer":{"class_name":"VarianceScaling","config":{"scale":1,"mode":"fan_avg","distribution":"normal","seed":null}},"bias_initializer":{"class_name":"Zeros","config":{}},"kernel_regularizer":null,"bias_regularizer":null,"activity_regularizer":null,"kernel_constraint":null,"bias_constraint":null,"name":"dense_Dense7759","trainable":true},"inbound_nodes":[[["input1294",0,0,{}]]]},{"name":"dense_Dense7760","class_name":"Dense","config":{"units":32,"activation":"relu","use_bias":true,"kernel_initializer":{"class_name":"VarianceScaling","config":{"scale":1,"mode":"fan_avg","distribution":"normal","seed":null}},"bias_initializer":{"class_name":"Zeros","config":{}},"kernel_regularizer":null,"bias_regularizer":null,"activity_regularizer":null,"kernel_constraint":null,"bias_constraint":null,"name":"dense_Dense7760","trainable":true},"inbound_nodes":[[["dense_Dense7759",0,0,{}]]]},{"name":"dense_Dense7761","class_name":"Dense","config":{"units":32,"activation":"relu","use_bias":true,"kernel_initializer":{"class_name":"VarianceScaling","config":{"scale":1,"mode":"fan_avg","distribution":"normal","seed":null}},"bias_initializer":{"class_name":"Zeros","config":{}},"kernel_regularizer":null,"bias_regularizer":null,"activity_regularizer":null,"kernel_constraint":null,"bias_constraint":null,"name":"dense_Dense7761","trainable":true},"inbound_nodes":[[["dense_Dense7760",0,0,{}]]]},{"name":"dense_Dense7762","class_name":"Dense","config":{"units":32,"activation":"relu","use_bias":true,"kernel_initializer":{"class_name":"VarianceScaling","config":{"scale":1,"mode":"fan_avg","distribution":"normal","seed":null}},"bias_initializer":{"class_name":"Zeros","config":{}},"kernel_regularizer":null,"bias_regularizer":null,"activity_regularizer":null,"kernel_constraint":null,"bias_constraint":null,"name":"dense_Dense7762","trainable":true},"inbound_nodes":[[["dense_Dense7761",0,0,{}]]]},{"name":"dense_Dense7763","class_name":"Dense","config":{"units":8,"activation":"relu","use_bias":true,"kernel_initializer":{"class_name":"VarianceScaling","config":{"scale":1,"mode":"fan_avg","distribution":"normal","seed":null}},"bias_initializer":{"class_name":"Zeros","config":{}},"kernel_regularizer":null,"bias_regularizer":null,"activity_regularizer":null,"kernel_constraint":null,"bias_constraint":null,"name":"dense_Dense7763","trainable":true},"inbound_nodes":[[["dense_Dense7762",0,0,{}]]]},{"name":"dense_Dense7764","class_name":"Dense","config":{"units":1,"activation":"sigmoid","use_bias":true,"kernel_initializer":{"class_name":"VarianceScaling","config":{"scale":1,"mode":"fan_avg","distribution":"normal","seed":null}},"bias_initializer":{"class_name":"Zeros","config":{}},"kernel_regularizer":null,"bias_regularizer":null,"activity_regularizer":null,"kernel_constraint":null,"bias_constraint":null,"name":"dense_Dense7764","trainable":true},"inbound_nodes":[[["dense_Dense7763",0,0,{}]]]}],"input_layers":[["input1294",0,0]],"output_layers":[["dense_Dense7764",0,0]]},"keras_version":"tfjs-layers 3.9.0","backend":"tensor_flow.js"},"weightsManifest":[{"paths":["weights.bin"],"weights":[{"name":"dense_Dense7759/kernel","shape":[3,4],"dtype":"float32"},{"name":"dense_Dense7759/bias","shape":[4],"dtype":"float32"},{"name":"dense_Dense7760/kernel","shape":[4,32],"dtype":"float32"},{"name":"dense_Dense7760/bias","shape":[32],"dtype":"float32"},{"name":"dense_Dense7761/kernel","shape":[32,32],"dtype":"float32"},{"name":"dense_Dense7761/bias","shape":[32],"dtype":"float32"},{"name":"dense_Dense7762/kernel","shape":[32,32],"dtype":"float32"},{"name":"dense_Dense7762/bias","shape":[32],"dtype":"float32"},{"name":"dense_Dense7763/kernel","shape":[32,8],"dtype":"float32"},{"name":"dense_Dense7763/bias","shape":[8],"dtype":"float32"},{"name":"dense_Dense7764/kernel","shape":[8,1],"dtype":"float32"},{"name":"dense_Dense7764/bias","shape":[1],"dtype":"float32"}]}]}