{"modelTopology":{"class_name":"Model","config":{"name":"model581","layers":[{"name":"input581","class_name":"InputLayer","config":{"batch_input_shape":[null,3],"dtype":"float32","sparse":false,"name":"input581"},"inbound_nodes":[]},{"name":"dense_Dense3481","class_name":"Dense","config":{"units":2,"activation":"relu","use_bias":true,"kernel_initializer":{"class_name":"VarianceScaling","config":{"scale":1,"mode":"fan_avg","distribution":"normal","seed":null}},"bias_initializer":{"class_name":"Zeros","config":{}},"kernel_regularizer":null,"bias_regularizer":null,"activity_regularizer":null,"kernel_constraint":null,"bias_constraint":null,"name":"dense_Dense3481","trainable":true},"inbound_nodes":[[["input581",0,0,{}]]]},{"name":"dense_Dense3482","class_name":"Dense","config":{"units":4,"activation":"relu","use_bias":true,"kernel_initializer":{"class_name":"VarianceScaling","config":{"scale":1,"mode":"fan_avg","distribution":"normal","seed":null}},"bias_initializer":{"class_name":"Zeros","config":{}},"kernel_regularizer":null,"bias_regularizer":null,"activity_regularizer":null,"kernel_constraint":null,"bias_constraint":null,"name":"dense_Dense3482","trainable":true},"inbound_nodes":[[["dense_Dense3481",0,0,{}]]]},{"name":"dense_Dense3483","class_name":"Dense","config":{"units":16,"activation":"relu","use_bias":true,"kernel_initializer":{"class_name":"VarianceScaling","config":{"scale":1,"mode":"fan_avg","distribution":"normal","seed":null}},"bias_initializer":{"class_name":"Zeros","config":{}},"kernel_regularizer":null,"bias_regularizer":null,"activity_regularizer":null,"kernel_constraint":null,"bias_constraint":null,"name":"dense_Dense3483","trainable":true},"inbound_nodes":[[["dense_Dense3482",0,0,{}]]]},{"name":"dense_Dense3484","class_name":"Dense","config":{"units":1,"activation":"relu","use_bias":true,"kernel_initializer":{"class_name":"VarianceScaling","config":{"scale":1,"mode":"fan_avg","distribution":"normal","seed":null}},"bias_initializer":{"class_name":"Zeros","config":{}},"kernel_regularizer":null,"bias_regularizer":null,"activity_regularizer":null,"kernel_constraint":null,"bias_constraint":null,"name":"dense_Dense3484","trainable":true},"inbound_nodes":[[["dense_Dense3483",0,0,{}]]]},{"name":"dense_Dense3485","class_name":"Dense","config":{"units":16,"activation":"relu","use_bias":true,"kernel_initializer":{"class_name":"VarianceScaling","config":{"scale":1,"mode":"fan_avg","distribution":"normal","seed":null}},"bias_initializer":{"class_name":"Zeros","config":{}},"kernel_regularizer":null,"bias_regularizer":null,"activity_regularizer":null,"kernel_constraint":null,"bias_constraint":null,"name":"dense_Dense3485","trainable":true},"inbound_nodes":[[["dense_Dense3484",0,0,{}]]]},{"name":"dense_Dense3486","class_name":"Dense","config":{"units":1,"activation":"sigmoid","use_bias":true,"kernel_initializer":{"class_name":"VarianceScaling","config":{"scale":1,"mode":"fan_avg","distribution":"normal","seed":null}},"bias_initializer":{"class_name":"Zeros","config":{}},"kernel_regularizer":null,"bias_regularizer":null,"activity_regularizer":null,"kernel_constraint":null,"bias_constraint":null,"name":"dense_Dense3486","trainable":true},"inbound_nodes":[[["dense_Dense3485",0,0,{}]]]}],"input_layers":[["input581",0,0]],"output_layers":[["dense_Dense3486",0,0]]},"keras_version":"tfjs-layers 3.9.0","backend":"tensor_flow.js"},"weightsManifest":[{"paths":["weights.bin"],"weights":[{"name":"dense_Dense3481/kernel","shape":[3,2],"dtype":"float32"},{"name":"dense_Dense3481/bias","shape":[2],"dtype":"float32"},{"name":"dense_Dense3482/kernel","shape":[2,4],"dtype":"float32"},{"name":"dense_Dense3482/bias","shape":[4],"dtype":"float32"},{"name":"dense_Dense3483/kernel","shape":[4,16],"dtype":"float32"},{"name":"dense_Dense3483/bias","shape":[16],"dtype":"float32"},{"name":"dense_Dense3484/kernel","shape":[16,1],"dtype":"float32"},{"name":"dense_Dense3484/bias","shape":[1],"dtype":"float32"},{"name":"dense_Dense3485/kernel","shape":[1,16],"dtype":"float32"},{"name":"dense_Dense3485/bias","shape":[16],"dtype":"float32"},{"name":"dense_Dense3486/kernel","shape":[16,1],"dtype":"float32"},{"name":"dense_Dense3486/bias","shape":[1],"dtype":"float32"}]}]}