{"modelTopology":{"class_name":"Model","config":{"name":"model352","layers":[{"name":"input352","class_name":"InputLayer","config":{"batch_input_shape":[null,3],"dtype":"float32","sparse":false,"name":"input352"},"inbound_nodes":[]},{"name":"dense_Dense1756","class_name":"Dense","config":{"units":2,"activation":"relu","use_bias":true,"kernel_initializer":{"class_name":"VarianceScaling","config":{"scale":1,"mode":"fan_avg","distribution":"normal","seed":null}},"bias_initializer":{"class_name":"Zeros","config":{}},"kernel_regularizer":null,"bias_regularizer":null,"activity_regularizer":null,"kernel_constraint":null,"bias_constraint":null,"name":"dense_Dense1756","trainable":true},"inbound_nodes":[[["input352",0,0,{}]]]},{"name":"dense_Dense1757","class_name":"Dense","config":{"units":8,"activation":"relu","use_bias":true,"kernel_initializer":{"class_name":"VarianceScaling","config":{"scale":1,"mode":"fan_avg","distribution":"normal","seed":null}},"bias_initializer":{"class_name":"Zeros","config":{}},"kernel_regularizer":null,"bias_regularizer":null,"activity_regularizer":null,"kernel_constraint":null,"bias_constraint":null,"name":"dense_Dense1757","trainable":true},"inbound_nodes":[[["dense_Dense1756",0,0,{}]]]},{"name":"dense_Dense1758","class_name":"Dense","config":{"units":16,"activation":"relu","use_bias":true,"kernel_initializer":{"class_name":"VarianceScaling","config":{"scale":1,"mode":"fan_avg","distribution":"normal","seed":null}},"bias_initializer":{"class_name":"Zeros","config":{}},"kernel_regularizer":null,"bias_regularizer":null,"activity_regularizer":null,"kernel_constraint":null,"bias_constraint":null,"name":"dense_Dense1758","trainable":true},"inbound_nodes":[[["dense_Dense1757",0,0,{}]]]},{"name":"dense_Dense1759","class_name":"Dense","config":{"units":8,"activation":"relu","use_bias":true,"kernel_initializer":{"class_name":"VarianceScaling","config":{"scale":1,"mode":"fan_avg","distribution":"normal","seed":null}},"bias_initializer":{"class_name":"Zeros","config":{}},"kernel_regularizer":null,"bias_regularizer":null,"activity_regularizer":null,"kernel_constraint":null,"bias_constraint":null,"name":"dense_Dense1759","trainable":true},"inbound_nodes":[[["dense_Dense1758",0,0,{}]]]},{"name":"dense_Dense1760","class_name":"Dense","config":{"units":1,"activation":"sigmoid","use_bias":true,"kernel_initializer":{"class_name":"VarianceScaling","config":{"scale":1,"mode":"fan_avg","distribution":"normal","seed":null}},"bias_initializer":{"class_name":"Zeros","config":{}},"kernel_regularizer":null,"bias_regularizer":null,"activity_regularizer":null,"kernel_constraint":null,"bias_constraint":null,"name":"dense_Dense1760","trainable":true},"inbound_nodes":[[["dense_Dense1759",0,0,{}]]]}],"input_layers":[["input352",0,0]],"output_layers":[["dense_Dense1760",0,0]]},"keras_version":"tfjs-layers 3.9.0","backend":"tensor_flow.js"},"weightsManifest":[{"paths":["weights.bin"],"weights":[{"name":"dense_Dense1756/kernel","shape":[3,2],"dtype":"float32"},{"name":"dense_Dense1756/bias","shape":[2],"dtype":"float32"},{"name":"dense_Dense1757/kernel","shape":[2,8],"dtype":"float32"},{"name":"dense_Dense1757/bias","shape":[8],"dtype":"float32"},{"name":"dense_Dense1758/kernel","shape":[8,16],"dtype":"float32"},{"name":"dense_Dense1758/bias","shape":[16],"dtype":"float32"},{"name":"dense_Dense1759/kernel","shape":[16,8],"dtype":"float32"},{"name":"dense_Dense1759/bias","shape":[8],"dtype":"float32"},{"name":"dense_Dense1760/kernel","shape":[8,1],"dtype":"float32"},{"name":"dense_Dense1760/bias","shape":[1],"dtype":"float32"}]}]}