{"modelTopology":{"class_name":"Model","config":{"name":"model302","layers":[{"name":"input302","class_name":"InputLayer","config":{"batch_input_shape":[null,3],"dtype":"float32","sparse":false,"name":"input302"},"inbound_nodes":[]},{"name":"dense_Dense1506","class_name":"Dense","config":{"units":2,"activation":"relu","use_bias":true,"kernel_initializer":{"class_name":"VarianceScaling","config":{"scale":1,"mode":"fan_avg","distribution":"normal","seed":null}},"bias_initializer":{"class_name":"Zeros","config":{}},"kernel_regularizer":null,"bias_regularizer":null,"activity_regularizer":null,"kernel_constraint":null,"bias_constraint":null,"name":"dense_Dense1506","trainable":true},"inbound_nodes":[[["input302",0,0,{}]]]},{"name":"dense_Dense1507","class_name":"Dense","config":{"units":4,"activation":"relu","use_bias":true,"kernel_initializer":{"class_name":"VarianceScaling","config":{"scale":1,"mode":"fan_avg","distribution":"normal","seed":null}},"bias_initializer":{"class_name":"Zeros","config":{}},"kernel_regularizer":null,"bias_regularizer":null,"activity_regularizer":null,"kernel_constraint":null,"bias_constraint":null,"name":"dense_Dense1507","trainable":true},"inbound_nodes":[[["dense_Dense1506",0,0,{}]]]},{"name":"dense_Dense1508","class_name":"Dense","config":{"units":4,"activation":"relu","use_bias":true,"kernel_initializer":{"class_name":"VarianceScaling","config":{"scale":1,"mode":"fan_avg","distribution":"normal","seed":null}},"bias_initializer":{"class_name":"Zeros","config":{}},"kernel_regularizer":null,"bias_regularizer":null,"activity_regularizer":null,"kernel_constraint":null,"bias_constraint":null,"name":"dense_Dense1508","trainable":true},"inbound_nodes":[[["dense_Dense1507",0,0,{}]]]},{"name":"dense_Dense1509","class_name":"Dense","config":{"units":2,"activation":"relu","use_bias":true,"kernel_initializer":{"class_name":"VarianceScaling","config":{"scale":1,"mode":"fan_avg","distribution":"normal","seed":null}},"bias_initializer":{"class_name":"Zeros","config":{}},"kernel_regularizer":null,"bias_regularizer":null,"activity_regularizer":null,"kernel_constraint":null,"bias_constraint":null,"name":"dense_Dense1509","trainable":true},"inbound_nodes":[[["dense_Dense1508",0,0,{}]]]},{"name":"dense_Dense1510","class_name":"Dense","config":{"units":1,"activation":"sigmoid","use_bias":true,"kernel_initializer":{"class_name":"VarianceScaling","config":{"scale":1,"mode":"fan_avg","distribution":"normal","seed":null}},"bias_initializer":{"class_name":"Zeros","config":{}},"kernel_regularizer":null,"bias_regularizer":null,"activity_regularizer":null,"kernel_constraint":null,"bias_constraint":null,"name":"dense_Dense1510","trainable":true},"inbound_nodes":[[["dense_Dense1509",0,0,{}]]]}],"input_layers":[["input302",0,0]],"output_layers":[["dense_Dense1510",0,0]]},"keras_version":"tfjs-layers 3.9.0","backend":"tensor_flow.js"},"weightsManifest":[{"paths":["weights.bin"],"weights":[{"name":"dense_Dense1506/kernel","shape":[3,2],"dtype":"float32"},{"name":"dense_Dense1506/bias","shape":[2],"dtype":"float32"},{"name":"dense_Dense1507/kernel","shape":[2,4],"dtype":"float32"},{"name":"dense_Dense1507/bias","shape":[4],"dtype":"float32"},{"name":"dense_Dense1508/kernel","shape":[4,4],"dtype":"float32"},{"name":"dense_Dense1508/bias","shape":[4],"dtype":"float32"},{"name":"dense_Dense1509/kernel","shape":[4,2],"dtype":"float32"},{"name":"dense_Dense1509/bias","shape":[2],"dtype":"float32"},{"name":"dense_Dense1510/kernel","shape":[2,1],"dtype":"float32"},{"name":"dense_Dense1510/bias","shape":[1],"dtype":"float32"}]}]}