{"modelTopology":{"class_name":"Model","config":{"name":"model245","layers":[{"name":"input245","class_name":"InputLayer","config":{"batch_input_shape":[null,3],"dtype":"float32","sparse":false,"name":"input245"},"inbound_nodes":[]},{"name":"dense_Dense1465","class_name":"Dense","config":{"units":4,"activation":"relu","use_bias":true,"kernel_initializer":{"class_name":"VarianceScaling","config":{"scale":1,"mode":"fan_avg","distribution":"normal","seed":null}},"bias_initializer":{"class_name":"Zeros","config":{}},"kernel_regularizer":null,"bias_regularizer":null,"activity_regularizer":null,"kernel_constraint":null,"bias_constraint":null,"name":"dense_Dense1465","trainable":true},"inbound_nodes":[[["input245",0,0,{}]]]},{"name":"dense_Dense1466","class_name":"Dense","config":{"units":2,"activation":"relu","use_bias":true,"kernel_initializer":{"class_name":"VarianceScaling","config":{"scale":1,"mode":"fan_avg","distribution":"normal","seed":null}},"bias_initializer":{"class_name":"Zeros","config":{}},"kernel_regularizer":null,"bias_regularizer":null,"activity_regularizer":null,"kernel_constraint":null,"bias_constraint":null,"name":"dense_Dense1466","trainable":true},"inbound_nodes":[[["dense_Dense1465",0,0,{}]]]},{"name":"dense_Dense1467","class_name":"Dense","config":{"units":1,"activation":"relu","use_bias":true,"kernel_initializer":{"class_name":"VarianceScaling","config":{"scale":1,"mode":"fan_avg","distribution":"normal","seed":null}},"bias_initializer":{"class_name":"Zeros","config":{}},"kernel_regularizer":null,"bias_regularizer":null,"activity_regularizer":null,"kernel_constraint":null,"bias_constraint":null,"name":"dense_Dense1467","trainable":true},"inbound_nodes":[[["dense_Dense1466",0,0,{}]]]},{"name":"dense_Dense1468","class_name":"Dense","config":{"units":16,"activation":"relu","use_bias":true,"kernel_initializer":{"class_name":"VarianceScaling","config":{"scale":1,"mode":"fan_avg","distribution":"normal","seed":null}},"bias_initializer":{"class_name":"Zeros","config":{}},"kernel_regularizer":null,"bias_regularizer":null,"activity_regularizer":null,"kernel_constraint":null,"bias_constraint":null,"name":"dense_Dense1468","trainable":true},"inbound_nodes":[[["dense_Dense1467",0,0,{}]]]},{"name":"dense_Dense1469","class_name":"Dense","config":{"units":16,"activation":"relu","use_bias":true,"kernel_initializer":{"class_name":"VarianceScaling","config":{"scale":1,"mode":"fan_avg","distribution":"normal","seed":null}},"bias_initializer":{"class_name":"Zeros","config":{}},"kernel_regularizer":null,"bias_regularizer":null,"activity_regularizer":null,"kernel_constraint":null,"bias_constraint":null,"name":"dense_Dense1469","trainable":true},"inbound_nodes":[[["dense_Dense1468",0,0,{}]]]},{"name":"dense_Dense1470","class_name":"Dense","config":{"units":1,"activation":"sigmoid","use_bias":true,"kernel_initializer":{"class_name":"VarianceScaling","config":{"scale":1,"mode":"fan_avg","distribution":"normal","seed":null}},"bias_initializer":{"class_name":"Zeros","config":{}},"kernel_regularizer":null,"bias_regularizer":null,"activity_regularizer":null,"kernel_constraint":null,"bias_constraint":null,"name":"dense_Dense1470","trainable":true},"inbound_nodes":[[["dense_Dense1469",0,0,{}]]]}],"input_layers":[["input245",0,0]],"output_layers":[["dense_Dense1470",0,0]]},"keras_version":"tfjs-layers 3.9.0","backend":"tensor_flow.js"},"weightsManifest":[{"paths":["weights.bin"],"weights":[{"name":"dense_Dense1465/kernel","shape":[3,4],"dtype":"float32"},{"name":"dense_Dense1465/bias","shape":[4],"dtype":"float32"},{"name":"dense_Dense1466/kernel","shape":[4,2],"dtype":"float32"},{"name":"dense_Dense1466/bias","shape":[2],"dtype":"float32"},{"name":"dense_Dense1467/kernel","shape":[2,1],"dtype":"float32"},{"name":"dense_Dense1467/bias","shape":[1],"dtype":"float32"},{"name":"dense_Dense1468/kernel","shape":[1,16],"dtype":"float32"},{"name":"dense_Dense1468/bias","shape":[16],"dtype":"float32"},{"name":"dense_Dense1469/kernel","shape":[16,16],"dtype":"float32"},{"name":"dense_Dense1469/bias","shape":[16],"dtype":"float32"},{"name":"dense_Dense1470/kernel","shape":[16,1],"dtype":"float32"},{"name":"dense_Dense1470/bias","shape":[1],"dtype":"float32"}]}]}