{"modelTopology":{"class_name":"Model","config":{"name":"model459","layers":[{"name":"input459","class_name":"InputLayer","config":{"batch_input_shape":[null,3],"dtype":"float32","sparse":false,"name":"input459"},"inbound_nodes":[]},{"name":"dense_Dense2291","class_name":"Dense","config":{"units":4,"activation":"relu","use_bias":true,"kernel_initializer":{"class_name":"VarianceScaling","config":{"scale":1,"mode":"fan_avg","distribution":"normal","seed":null}},"bias_initializer":{"class_name":"Zeros","config":{}},"kernel_regularizer":null,"bias_regularizer":null,"activity_regularizer":null,"kernel_constraint":null,"bias_constraint":null,"name":"dense_Dense2291","trainable":true},"inbound_nodes":[[["input459",0,0,{}]]]},{"name":"dense_Dense2292","class_name":"Dense","config":{"units":1,"activation":"relu","use_bias":true,"kernel_initializer":{"class_name":"VarianceScaling","config":{"scale":1,"mode":"fan_avg","distribution":"normal","seed":null}},"bias_initializer":{"class_name":"Zeros","config":{}},"kernel_regularizer":null,"bias_regularizer":null,"activity_regularizer":null,"kernel_constraint":null,"bias_constraint":null,"name":"dense_Dense2292","trainable":true},"inbound_nodes":[[["dense_Dense2291",0,0,{}]]]},{"name":"dense_Dense2293","class_name":"Dense","config":{"units":16,"activation":"relu","use_bias":true,"kernel_initializer":{"class_name":"VarianceScaling","config":{"scale":1,"mode":"fan_avg","distribution":"normal","seed":null}},"bias_initializer":{"class_name":"Zeros","config":{}},"kernel_regularizer":null,"bias_regularizer":null,"activity_regularizer":null,"kernel_constraint":null,"bias_constraint":null,"name":"dense_Dense2293","trainable":true},"inbound_nodes":[[["dense_Dense2292",0,0,{}]]]},{"name":"dense_Dense2294","class_name":"Dense","config":{"units":4,"activation":"relu","use_bias":true,"kernel_initializer":{"class_name":"VarianceScaling","config":{"scale":1,"mode":"fan_avg","distribution":"normal","seed":null}},"bias_initializer":{"class_name":"Zeros","config":{}},"kernel_regularizer":null,"bias_regularizer":null,"activity_regularizer":null,"kernel_constraint":null,"bias_constraint":null,"name":"dense_Dense2294","trainable":true},"inbound_nodes":[[["dense_Dense2293",0,0,{}]]]},{"name":"dense_Dense2295","class_name":"Dense","config":{"units":1,"activation":"sigmoid","use_bias":true,"kernel_initializer":{"class_name":"VarianceScaling","config":{"scale":1,"mode":"fan_avg","distribution":"normal","seed":null}},"bias_initializer":{"class_name":"Zeros","config":{}},"kernel_regularizer":null,"bias_regularizer":null,"activity_regularizer":null,"kernel_constraint":null,"bias_constraint":null,"name":"dense_Dense2295","trainable":true},"inbound_nodes":[[["dense_Dense2294",0,0,{}]]]}],"input_layers":[["input459",0,0]],"output_layers":[["dense_Dense2295",0,0]]},"keras_version":"tfjs-layers 3.9.0","backend":"tensor_flow.js"},"weightsManifest":[{"paths":["weights.bin"],"weights":[{"name":"dense_Dense2291/kernel","shape":[3,4],"dtype":"float32"},{"name":"dense_Dense2291/bias","shape":[4],"dtype":"float32"},{"name":"dense_Dense2292/kernel","shape":[4,1],"dtype":"float32"},{"name":"dense_Dense2292/bias","shape":[1],"dtype":"float32"},{"name":"dense_Dense2293/kernel","shape":[1,16],"dtype":"float32"},{"name":"dense_Dense2293/bias","shape":[16],"dtype":"float32"},{"name":"dense_Dense2294/kernel","shape":[16,4],"dtype":"float32"},{"name":"dense_Dense2294/bias","shape":[4],"dtype":"float32"},{"name":"dense_Dense2295/kernel","shape":[4,1],"dtype":"float32"},{"name":"dense_Dense2295/bias","shape":[1],"dtype":"float32"}]}]}