{"modelTopology":{"class_name":"Model","config":{"name":"model278","layers":[{"name":"input278","class_name":"InputLayer","config":{"batch_input_shape":[null,3],"dtype":"float32","sparse":false,"name":"input278"},"inbound_nodes":[]},{"name":"dense_Dense1663","class_name":"Dense","config":{"units":1,"activation":"relu","use_bias":true,"kernel_initializer":{"class_name":"VarianceScaling","config":{"scale":1,"mode":"fan_avg","distribution":"normal","seed":null}},"bias_initializer":{"class_name":"Zeros","config":{}},"kernel_regularizer":null,"bias_regularizer":null,"activity_regularizer":null,"kernel_constraint":null,"bias_constraint":null,"name":"dense_Dense1663","trainable":true},"inbound_nodes":[[["input278",0,0,{}]]]},{"name":"dense_Dense1664","class_name":"Dense","config":{"units":2,"activation":"relu","use_bias":true,"kernel_initializer":{"class_name":"VarianceScaling","config":{"scale":1,"mode":"fan_avg","distribution":"normal","seed":null}},"bias_initializer":{"class_name":"Zeros","config":{}},"kernel_regularizer":null,"bias_regularizer":null,"activity_regularizer":null,"kernel_constraint":null,"bias_constraint":null,"name":"dense_Dense1664","trainable":true},"inbound_nodes":[[["dense_Dense1663",0,0,{}]]]},{"name":"dense_Dense1665","class_name":"Dense","config":{"units":2,"activation":"relu","use_bias":true,"kernel_initializer":{"class_name":"VarianceScaling","config":{"scale":1,"mode":"fan_avg","distribution":"normal","seed":null}},"bias_initializer":{"class_name":"Zeros","config":{}},"kernel_regularizer":null,"bias_regularizer":null,"activity_regularizer":null,"kernel_constraint":null,"bias_constraint":null,"name":"dense_Dense1665","trainable":true},"inbound_nodes":[[["dense_Dense1664",0,0,{}]]]},{"name":"dense_Dense1666","class_name":"Dense","config":{"units":16,"activation":"relu","use_bias":true,"kernel_initializer":{"class_name":"VarianceScaling","config":{"scale":1,"mode":"fan_avg","distribution":"normal","seed":null}},"bias_initializer":{"class_name":"Zeros","config":{}},"kernel_regularizer":null,"bias_regularizer":null,"activity_regularizer":null,"kernel_constraint":null,"bias_constraint":null,"name":"dense_Dense1666","trainable":true},"inbound_nodes":[[["dense_Dense1665",0,0,{}]]]},{"name":"dense_Dense1667","class_name":"Dense","config":{"units":2,"activation":"relu","use_bias":true,"kernel_initializer":{"class_name":"VarianceScaling","config":{"scale":1,"mode":"fan_avg","distribution":"normal","seed":null}},"bias_initializer":{"class_name":"Zeros","config":{}},"kernel_regularizer":null,"bias_regularizer":null,"activity_regularizer":null,"kernel_constraint":null,"bias_constraint":null,"name":"dense_Dense1667","trainable":true},"inbound_nodes":[[["dense_Dense1666",0,0,{}]]]},{"name":"dense_Dense1668","class_name":"Dense","config":{"units":1,"activation":"sigmoid","use_bias":true,"kernel_initializer":{"class_name":"VarianceScaling","config":{"scale":1,"mode":"fan_avg","distribution":"normal","seed":null}},"bias_initializer":{"class_name":"Zeros","config":{}},"kernel_regularizer":null,"bias_regularizer":null,"activity_regularizer":null,"kernel_constraint":null,"bias_constraint":null,"name":"dense_Dense1668","trainable":true},"inbound_nodes":[[["dense_Dense1667",0,0,{}]]]}],"input_layers":[["input278",0,0]],"output_layers":[["dense_Dense1668",0,0]]},"keras_version":"tfjs-layers 3.9.0","backend":"tensor_flow.js"},"weightsManifest":[{"paths":["weights.bin"],"weights":[{"name":"dense_Dense1663/kernel","shape":[3,1],"dtype":"float32"},{"name":"dense_Dense1663/bias","shape":[1],"dtype":"float32"},{"name":"dense_Dense1664/kernel","shape":[1,2],"dtype":"float32"},{"name":"dense_Dense1664/bias","shape":[2],"dtype":"float32"},{"name":"dense_Dense1665/kernel","shape":[2,2],"dtype":"float32"},{"name":"dense_Dense1665/bias","shape":[2],"dtype":"float32"},{"name":"dense_Dense1666/kernel","shape":[2,16],"dtype":"float32"},{"name":"dense_Dense1666/bias","shape":[16],"dtype":"float32"},{"name":"dense_Dense1667/kernel","shape":[16,2],"dtype":"float32"},{"name":"dense_Dense1667/bias","shape":[2],"dtype":"float32"},{"name":"dense_Dense1668/kernel","shape":[2,1],"dtype":"float32"},{"name":"dense_Dense1668/bias","shape":[1],"dtype":"float32"}]}]}