{"modelTopology":{"class_name":"Model","config":{"name":"model463","layers":[{"name":"input463","class_name":"InputLayer","config":{"batch_input_shape":[null,3],"dtype":"float32","sparse":false,"name":"input463"},"inbound_nodes":[]},{"name":"dense_Dense2773","class_name":"Dense","config":{"units":32,"activation":"relu","use_bias":true,"kernel_initializer":{"class_name":"VarianceScaling","config":{"scale":1,"mode":"fan_avg","distribution":"normal","seed":null}},"bias_initializer":{"class_name":"Zeros","config":{}},"kernel_regularizer":null,"bias_regularizer":null,"activity_regularizer":null,"kernel_constraint":null,"bias_constraint":null,"name":"dense_Dense2773","trainable":true},"inbound_nodes":[[["input463",0,0,{}]]]},{"name":"dense_Dense2774","class_name":"Dense","config":{"units":4,"activation":"relu","use_bias":true,"kernel_initializer":{"class_name":"VarianceScaling","config":{"scale":1,"mode":"fan_avg","distribution":"normal","seed":null}},"bias_initializer":{"class_name":"Zeros","config":{}},"kernel_regularizer":null,"bias_regularizer":null,"activity_regularizer":null,"kernel_constraint":null,"bias_constraint":null,"name":"dense_Dense2774","trainable":true},"inbound_nodes":[[["dense_Dense2773",0,0,{}]]]},{"name":"dense_Dense2775","class_name":"Dense","config":{"units":1,"activation":"relu","use_bias":true,"kernel_initializer":{"class_name":"VarianceScaling","config":{"scale":1,"mode":"fan_avg","distribution":"normal","seed":null}},"bias_initializer":{"class_name":"Zeros","config":{}},"kernel_regularizer":null,"bias_regularizer":null,"activity_regularizer":null,"kernel_constraint":null,"bias_constraint":null,"name":"dense_Dense2775","trainable":true},"inbound_nodes":[[["dense_Dense2774",0,0,{}]]]},{"name":"dense_Dense2776","class_name":"Dense","config":{"units":32,"activation":"relu","use_bias":true,"kernel_initializer":{"class_name":"VarianceScaling","config":{"scale":1,"mode":"fan_avg","distribution":"normal","seed":null}},"bias_initializer":{"class_name":"Zeros","config":{}},"kernel_regularizer":null,"bias_regularizer":null,"activity_regularizer":null,"kernel_constraint":null,"bias_constraint":null,"name":"dense_Dense2776","trainable":true},"inbound_nodes":[[["dense_Dense2775",0,0,{}]]]},{"name":"dense_Dense2777","class_name":"Dense","config":{"units":1,"activation":"relu","use_bias":true,"kernel_initializer":{"class_name":"VarianceScaling","config":{"scale":1,"mode":"fan_avg","distribution":"normal","seed":null}},"bias_initializer":{"class_name":"Zeros","config":{}},"kernel_regularizer":null,"bias_regularizer":null,"activity_regularizer":null,"kernel_constraint":null,"bias_constraint":null,"name":"dense_Dense2777","trainable":true},"inbound_nodes":[[["dense_Dense2776",0,0,{}]]]},{"name":"dense_Dense2778","class_name":"Dense","config":{"units":1,"activation":"sigmoid","use_bias":true,"kernel_initializer":{"class_name":"VarianceScaling","config":{"scale":1,"mode":"fan_avg","distribution":"normal","seed":null}},"bias_initializer":{"class_name":"Zeros","config":{}},"kernel_regularizer":null,"bias_regularizer":null,"activity_regularizer":null,"kernel_constraint":null,"bias_constraint":null,"name":"dense_Dense2778","trainable":true},"inbound_nodes":[[["dense_Dense2777",0,0,{}]]]}],"input_layers":[["input463",0,0]],"output_layers":[["dense_Dense2778",0,0]]},"keras_version":"tfjs-layers 3.9.0","backend":"tensor_flow.js"},"weightsManifest":[{"paths":["weights.bin"],"weights":[{"name":"dense_Dense2773/kernel","shape":[3,32],"dtype":"float32"},{"name":"dense_Dense2773/bias","shape":[32],"dtype":"float32"},{"name":"dense_Dense2774/kernel","shape":[32,4],"dtype":"float32"},{"name":"dense_Dense2774/bias","shape":[4],"dtype":"float32"},{"name":"dense_Dense2775/kernel","shape":[4,1],"dtype":"float32"},{"name":"dense_Dense2775/bias","shape":[1],"dtype":"float32"},{"name":"dense_Dense2776/kernel","shape":[1,32],"dtype":"float32"},{"name":"dense_Dense2776/bias","shape":[32],"dtype":"float32"},{"name":"dense_Dense2777/kernel","shape":[32,1],"dtype":"float32"},{"name":"dense_Dense2777/bias","shape":[1],"dtype":"float32"},{"name":"dense_Dense2778/kernel","shape":[1,1],"dtype":"float32"},{"name":"dense_Dense2778/bias","shape":[1],"dtype":"float32"}]}]}