{"modelTopology":{"class_name":"Model","config":{"name":"model763","layers":[{"name":"input763","class_name":"InputLayer","config":{"batch_input_shape":[null,3],"dtype":"float32","sparse":false,"name":"input763"},"inbound_nodes":[]},{"name":"dense_Dense4573","class_name":"Dense","config":{"units":8,"activation":"relu","use_bias":true,"kernel_initializer":{"class_name":"VarianceScaling","config":{"scale":1,"mode":"fan_avg","distribution":"normal","seed":null}},"bias_initializer":{"class_name":"Zeros","config":{}},"kernel_regularizer":null,"bias_regularizer":null,"activity_regularizer":null,"kernel_constraint":null,"bias_constraint":null,"name":"dense_Dense4573","trainable":true},"inbound_nodes":[[["input763",0,0,{}]]]},{"name":"dense_Dense4574","class_name":"Dense","config":{"units":8,"activation":"relu","use_bias":true,"kernel_initializer":{"class_name":"VarianceScaling","config":{"scale":1,"mode":"fan_avg","distribution":"normal","seed":null}},"bias_initializer":{"class_name":"Zeros","config":{}},"kernel_regularizer":null,"bias_regularizer":null,"activity_regularizer":null,"kernel_constraint":null,"bias_constraint":null,"name":"dense_Dense4574","trainable":true},"inbound_nodes":[[["dense_Dense4573",0,0,{}]]]},{"name":"dense_Dense4575","class_name":"Dense","config":{"units":8,"activation":"relu","use_bias":true,"kernel_initializer":{"class_name":"VarianceScaling","config":{"scale":1,"mode":"fan_avg","distribution":"normal","seed":null}},"bias_initializer":{"class_name":"Zeros","config":{}},"kernel_regularizer":null,"bias_regularizer":null,"activity_regularizer":null,"kernel_constraint":null,"bias_constraint":null,"name":"dense_Dense4575","trainable":true},"inbound_nodes":[[["dense_Dense4574",0,0,{}]]]},{"name":"dense_Dense4576","class_name":"Dense","config":{"units":2,"activation":"relu","use_bias":true,"kernel_initializer":{"class_name":"VarianceScaling","config":{"scale":1,"mode":"fan_avg","distribution":"normal","seed":null}},"bias_initializer":{"class_name":"Zeros","config":{}},"kernel_regularizer":null,"bias_regularizer":null,"activity_regularizer":null,"kernel_constraint":null,"bias_constraint":null,"name":"dense_Dense4576","trainable":true},"inbound_nodes":[[["dense_Dense4575",0,0,{}]]]},{"name":"dense_Dense4577","class_name":"Dense","config":{"units":1,"activation":"relu","use_bias":true,"kernel_initializer":{"class_name":"VarianceScaling","config":{"scale":1,"mode":"fan_avg","distribution":"normal","seed":null}},"bias_initializer":{"class_name":"Zeros","config":{}},"kernel_regularizer":null,"bias_regularizer":null,"activity_regularizer":null,"kernel_constraint":null,"bias_constraint":null,"name":"dense_Dense4577","trainable":true},"inbound_nodes":[[["dense_Dense4576",0,0,{}]]]},{"name":"dense_Dense4578","class_name":"Dense","config":{"units":1,"activation":"sigmoid","use_bias":true,"kernel_initializer":{"class_name":"VarianceScaling","config":{"scale":1,"mode":"fan_avg","distribution":"normal","seed":null}},"bias_initializer":{"class_name":"Zeros","config":{}},"kernel_regularizer":null,"bias_regularizer":null,"activity_regularizer":null,"kernel_constraint":null,"bias_constraint":null,"name":"dense_Dense4578","trainable":true},"inbound_nodes":[[["dense_Dense4577",0,0,{}]]]}],"input_layers":[["input763",0,0]],"output_layers":[["dense_Dense4578",0,0]]},"keras_version":"tfjs-layers 3.9.0","backend":"tensor_flow.js"},"weightsManifest":[{"paths":["weights.bin"],"weights":[{"name":"dense_Dense4573/kernel","shape":[3,8],"dtype":"float32"},{"name":"dense_Dense4573/bias","shape":[8],"dtype":"float32"},{"name":"dense_Dense4574/kernel","shape":[8,8],"dtype":"float32"},{"name":"dense_Dense4574/bias","shape":[8],"dtype":"float32"},{"name":"dense_Dense4575/kernel","shape":[8,8],"dtype":"float32"},{"name":"dense_Dense4575/bias","shape":[8],"dtype":"float32"},{"name":"dense_Dense4576/kernel","shape":[8,2],"dtype":"float32"},{"name":"dense_Dense4576/bias","shape":[2],"dtype":"float32"},{"name":"dense_Dense4577/kernel","shape":[2,1],"dtype":"float32"},{"name":"dense_Dense4577/bias","shape":[1],"dtype":"float32"},{"name":"dense_Dense4578/kernel","shape":[1,1],"dtype":"float32"},{"name":"dense_Dense4578/bias","shape":[1],"dtype":"float32"}]}]}