{"modelTopology":{"class_name":"Model","config":{"name":"model176","layers":[{"name":"input176","class_name":"InputLayer","config":{"batch_input_shape":[null,3],"dtype":"float32","sparse":false,"name":"input176"},"inbound_nodes":[]},{"name":"dense_Dense701","class_name":"Dense","config":{"units":16,"activation":"relu","use_bias":true,"kernel_initializer":{"class_name":"VarianceScaling","config":{"scale":1,"mode":"fan_avg","distribution":"normal","seed":null}},"bias_initializer":{"class_name":"Zeros","config":{}},"kernel_regularizer":null,"bias_regularizer":null,"activity_regularizer":null,"kernel_constraint":null,"bias_constraint":null,"name":"dense_Dense701","trainable":true},"inbound_nodes":[[["input176",0,0,{}]]]},{"name":"dense_Dense702","class_name":"Dense","config":{"units":32,"activation":"relu","use_bias":true,"kernel_initializer":{"class_name":"VarianceScaling","config":{"scale":1,"mode":"fan_avg","distribution":"normal","seed":null}},"bias_initializer":{"class_name":"Zeros","config":{}},"kernel_regularizer":null,"bias_regularizer":null,"activity_regularizer":null,"kernel_constraint":null,"bias_constraint":null,"name":"dense_Dense702","trainable":true},"inbound_nodes":[[["dense_Dense701",0,0,{}]]]},{"name":"dense_Dense703","class_name":"Dense","config":{"units":2,"activation":"relu","use_bias":true,"kernel_initializer":{"class_name":"VarianceScaling","config":{"scale":1,"mode":"fan_avg","distribution":"normal","seed":null}},"bias_initializer":{"class_name":"Zeros","config":{}},"kernel_regularizer":null,"bias_regularizer":null,"activity_regularizer":null,"kernel_constraint":null,"bias_constraint":null,"name":"dense_Dense703","trainable":true},"inbound_nodes":[[["dense_Dense702",0,0,{}]]]},{"name":"dense_Dense704","class_name":"Dense","config":{"units":1,"activation":"sigmoid","use_bias":true,"kernel_initializer":{"class_name":"VarianceScaling","config":{"scale":1,"mode":"fan_avg","distribution":"normal","seed":null}},"bias_initializer":{"class_name":"Zeros","config":{}},"kernel_regularizer":null,"bias_regularizer":null,"activity_regularizer":null,"kernel_constraint":null,"bias_constraint":null,"name":"dense_Dense704","trainable":true},"inbound_nodes":[[["dense_Dense703",0,0,{}]]]}],"input_layers":[["input176",0,0]],"output_layers":[["dense_Dense704",0,0]]},"keras_version":"tfjs-layers 3.9.0","backend":"tensor_flow.js"},"weightsManifest":[{"paths":["weights.bin"],"weights":[{"name":"dense_Dense701/kernel","shape":[3,16],"dtype":"float32"},{"name":"dense_Dense701/bias","shape":[16],"dtype":"float32"},{"name":"dense_Dense702/kernel","shape":[16,32],"dtype":"float32"},{"name":"dense_Dense702/bias","shape":[32],"dtype":"float32"},{"name":"dense_Dense703/kernel","shape":[32,2],"dtype":"float32"},{"name":"dense_Dense703/bias","shape":[2],"dtype":"float32"},{"name":"dense_Dense704/kernel","shape":[2,1],"dtype":"float32"},{"name":"dense_Dense704/bias","shape":[1],"dtype":"float32"}]}]}