{"modelTopology":{"class_name":"Model","config":{"name":"model1038","layers":[{"name":"input1038","class_name":"InputLayer","config":{"batch_input_shape":[null,3],"dtype":"float32","sparse":false,"name":"input1038"},"inbound_nodes":[]},{"name":"dense_Dense5186","class_name":"Dense","config":{"units":16,"activation":"relu","use_bias":true,"kernel_initializer":{"class_name":"VarianceScaling","config":{"scale":1,"mode":"fan_avg","distribution":"normal","seed":null}},"bias_initializer":{"class_name":"Zeros","config":{}},"kernel_regularizer":null,"bias_regularizer":null,"activity_regularizer":null,"kernel_constraint":null,"bias_constraint":null,"name":"dense_Dense5186","trainable":true},"inbound_nodes":[[["input1038",0,0,{}]]]},{"name":"dense_Dense5187","class_name":"Dense","config":{"units":16,"activation":"relu","use_bias":true,"kernel_initializer":{"class_name":"VarianceScaling","config":{"scale":1,"mode":"fan_avg","distribution":"normal","seed":null}},"bias_initializer":{"class_name":"Zeros","config":{}},"kernel_regularizer":null,"bias_regularizer":null,"activity_regularizer":null,"kernel_constraint":null,"bias_constraint":null,"name":"dense_Dense5187","trainable":true},"inbound_nodes":[[["dense_Dense5186",0,0,{}]]]},{"name":"dense_Dense5188","class_name":"Dense","config":{"units":16,"activation":"relu","use_bias":true,"kernel_initializer":{"class_name":"VarianceScaling","config":{"scale":1,"mode":"fan_avg","distribution":"normal","seed":null}},"bias_initializer":{"class_name":"Zeros","config":{}},"kernel_regularizer":null,"bias_regularizer":null,"activity_regularizer":null,"kernel_constraint":null,"bias_constraint":null,"name":"dense_Dense5188","trainable":true},"inbound_nodes":[[["dense_Dense5187",0,0,{}]]]},{"name":"dense_Dense5189","class_name":"Dense","config":{"units":32,"activation":"relu","use_bias":true,"kernel_initializer":{"class_name":"VarianceScaling","config":{"scale":1,"mode":"fan_avg","distribution":"normal","seed":null}},"bias_initializer":{"class_name":"Zeros","config":{}},"kernel_regularizer":null,"bias_regularizer":null,"activity_regularizer":null,"kernel_constraint":null,"bias_constraint":null,"name":"dense_Dense5189","trainable":true},"inbound_nodes":[[["dense_Dense5188",0,0,{}]]]},{"name":"dense_Dense5190","class_name":"Dense","config":{"units":1,"activation":"sigmoid","use_bias":true,"kernel_initializer":{"class_name":"VarianceScaling","config":{"scale":1,"mode":"fan_avg","distribution":"normal","seed":null}},"bias_initializer":{"class_name":"Zeros","config":{}},"kernel_regularizer":null,"bias_regularizer":null,"activity_regularizer":null,"kernel_constraint":null,"bias_constraint":null,"name":"dense_Dense5190","trainable":true},"inbound_nodes":[[["dense_Dense5189",0,0,{}]]]}],"input_layers":[["input1038",0,0]],"output_layers":[["dense_Dense5190",0,0]]},"keras_version":"tfjs-layers 3.9.0","backend":"tensor_flow.js"},"weightsManifest":[{"paths":["weights.bin"],"weights":[{"name":"dense_Dense5186/kernel","shape":[3,16],"dtype":"float32"},{"name":"dense_Dense5186/bias","shape":[16],"dtype":"float32"},{"name":"dense_Dense5187/kernel","shape":[16,16],"dtype":"float32"},{"name":"dense_Dense5187/bias","shape":[16],"dtype":"float32"},{"name":"dense_Dense5188/kernel","shape":[16,16],"dtype":"float32"},{"name":"dense_Dense5188/bias","shape":[16],"dtype":"float32"},{"name":"dense_Dense5189/kernel","shape":[16,32],"dtype":"float32"},{"name":"dense_Dense5189/bias","shape":[32],"dtype":"float32"},{"name":"dense_Dense5190/kernel","shape":[32,1],"dtype":"float32"},{"name":"dense_Dense5190/bias","shape":[1],"dtype":"float32"}]}]}