{"modelTopology":{"class_name":"Model","config":{"name":"model988","layers":[{"name":"input988","class_name":"InputLayer","config":{"batch_input_shape":[null,3],"dtype":"float32","sparse":false,"name":"input988"},"inbound_nodes":[]},{"name":"dense_Dense5923","class_name":"Dense","config":{"units":2,"activation":"relu","use_bias":true,"kernel_initializer":{"class_name":"VarianceScaling","config":{"scale":1,"mode":"fan_avg","distribution":"normal","seed":null}},"bias_initializer":{"class_name":"Zeros","config":{}},"kernel_regularizer":null,"bias_regularizer":null,"activity_regularizer":null,"kernel_constraint":null,"bias_constraint":null,"name":"dense_Dense5923","trainable":true},"inbound_nodes":[[["input988",0,0,{}]]]},{"name":"dense_Dense5924","class_name":"Dense","config":{"units":16,"activation":"relu","use_bias":true,"kernel_initializer":{"class_name":"VarianceScaling","config":{"scale":1,"mode":"fan_avg","distribution":"normal","seed":null}},"bias_initializer":{"class_name":"Zeros","config":{}},"kernel_regularizer":null,"bias_regularizer":null,"activity_regularizer":null,"kernel_constraint":null,"bias_constraint":null,"name":"dense_Dense5924","trainable":true},"inbound_nodes":[[["dense_Dense5923",0,0,{}]]]},{"name":"dense_Dense5925","class_name":"Dense","config":{"units":8,"activation":"relu","use_bias":true,"kernel_initializer":{"class_name":"VarianceScaling","config":{"scale":1,"mode":"fan_avg","distribution":"normal","seed":null}},"bias_initializer":{"class_name":"Zeros","config":{}},"kernel_regularizer":null,"bias_regularizer":null,"activity_regularizer":null,"kernel_constraint":null,"bias_constraint":null,"name":"dense_Dense5925","trainable":true},"inbound_nodes":[[["dense_Dense5924",0,0,{}]]]},{"name":"dense_Dense5926","class_name":"Dense","config":{"units":4,"activation":"relu","use_bias":true,"kernel_initializer":{"class_name":"VarianceScaling","config":{"scale":1,"mode":"fan_avg","distribution":"normal","seed":null}},"bias_initializer":{"class_name":"Zeros","config":{}},"kernel_regularizer":null,"bias_regularizer":null,"activity_regularizer":null,"kernel_constraint":null,"bias_constraint":null,"name":"dense_Dense5926","trainable":true},"inbound_nodes":[[["dense_Dense5925",0,0,{}]]]},{"name":"dense_Dense5927","class_name":"Dense","config":{"units":8,"activation":"relu","use_bias":true,"kernel_initializer":{"class_name":"VarianceScaling","config":{"scale":1,"mode":"fan_avg","distribution":"normal","seed":null}},"bias_initializer":{"class_name":"Zeros","config":{}},"kernel_regularizer":null,"bias_regularizer":null,"activity_regularizer":null,"kernel_constraint":null,"bias_constraint":null,"name":"dense_Dense5927","trainable":true},"inbound_nodes":[[["dense_Dense5926",0,0,{}]]]},{"name":"dense_Dense5928","class_name":"Dense","config":{"units":1,"activation":"sigmoid","use_bias":true,"kernel_initializer":{"class_name":"VarianceScaling","config":{"scale":1,"mode":"fan_avg","distribution":"normal","seed":null}},"bias_initializer":{"class_name":"Zeros","config":{}},"kernel_regularizer":null,"bias_regularizer":null,"activity_regularizer":null,"kernel_constraint":null,"bias_constraint":null,"name":"dense_Dense5928","trainable":true},"inbound_nodes":[[["dense_Dense5927",0,0,{}]]]}],"input_layers":[["input988",0,0]],"output_layers":[["dense_Dense5928",0,0]]},"keras_version":"tfjs-layers 3.9.0","backend":"tensor_flow.js"},"weightsManifest":[{"paths":["weights.bin"],"weights":[{"name":"dense_Dense5923/kernel","shape":[3,2],"dtype":"float32"},{"name":"dense_Dense5923/bias","shape":[2],"dtype":"float32"},{"name":"dense_Dense5924/kernel","shape":[2,16],"dtype":"float32"},{"name":"dense_Dense5924/bias","shape":[16],"dtype":"float32"},{"name":"dense_Dense5925/kernel","shape":[16,8],"dtype":"float32"},{"name":"dense_Dense5925/bias","shape":[8],"dtype":"float32"},{"name":"dense_Dense5926/kernel","shape":[8,4],"dtype":"float32"},{"name":"dense_Dense5926/bias","shape":[4],"dtype":"float32"},{"name":"dense_Dense5927/kernel","shape":[4,8],"dtype":"float32"},{"name":"dense_Dense5927/bias","shape":[8],"dtype":"float32"},{"name":"dense_Dense5928/kernel","shape":[8,1],"dtype":"float32"},{"name":"dense_Dense5928/bias","shape":[1],"dtype":"float32"}]}]}