{"modelTopology":{"class_name":"Model","config":{"name":"model1157","layers":[{"name":"input1157","class_name":"InputLayer","config":{"batch_input_shape":[null,3],"dtype":"float32","sparse":false,"name":"input1157"},"inbound_nodes":[]},{"name":"dense_Dense6937","class_name":"Dense","config":{"units":32,"activation":"relu","use_bias":true,"kernel_initializer":{"class_name":"VarianceScaling","config":{"scale":1,"mode":"fan_avg","distribution":"normal","seed":null}},"bias_initializer":{"class_name":"Zeros","config":{}},"kernel_regularizer":null,"bias_regularizer":null,"activity_regularizer":null,"kernel_constraint":null,"bias_constraint":null,"name":"dense_Dense6937","trainable":true},"inbound_nodes":[[["input1157",0,0,{}]]]},{"name":"dense_Dense6938","class_name":"Dense","config":{"units":32,"activation":"relu","use_bias":true,"kernel_initializer":{"class_name":"VarianceScaling","config":{"scale":1,"mode":"fan_avg","distribution":"normal","seed":null}},"bias_initializer":{"class_name":"Zeros","config":{}},"kernel_regularizer":null,"bias_regularizer":null,"activity_regularizer":null,"kernel_constraint":null,"bias_constraint":null,"name":"dense_Dense6938","trainable":true},"inbound_nodes":[[["dense_Dense6937",0,0,{}]]]},{"name":"dense_Dense6939","class_name":"Dense","config":{"units":4,"activation":"relu","use_bias":true,"kernel_initializer":{"class_name":"VarianceScaling","config":{"scale":1,"mode":"fan_avg","distribution":"normal","seed":null}},"bias_initializer":{"class_name":"Zeros","config":{}},"kernel_regularizer":null,"bias_regularizer":null,"activity_regularizer":null,"kernel_constraint":null,"bias_constraint":null,"name":"dense_Dense6939","trainable":true},"inbound_nodes":[[["dense_Dense6938",0,0,{}]]]},{"name":"dense_Dense6940","class_name":"Dense","config":{"units":1,"activation":"relu","use_bias":true,"kernel_initializer":{"class_name":"VarianceScaling","config":{"scale":1,"mode":"fan_avg","distribution":"normal","seed":null}},"bias_initializer":{"class_name":"Zeros","config":{}},"kernel_regularizer":null,"bias_regularizer":null,"activity_regularizer":null,"kernel_constraint":null,"bias_constraint":null,"name":"dense_Dense6940","trainable":true},"inbound_nodes":[[["dense_Dense6939",0,0,{}]]]},{"name":"dense_Dense6941","class_name":"Dense","config":{"units":16,"activation":"relu","use_bias":true,"kernel_initializer":{"class_name":"VarianceScaling","config":{"scale":1,"mode":"fan_avg","distribution":"normal","seed":null}},"bias_initializer":{"class_name":"Zeros","config":{}},"kernel_regularizer":null,"bias_regularizer":null,"activity_regularizer":null,"kernel_constraint":null,"bias_constraint":null,"name":"dense_Dense6941","trainable":true},"inbound_nodes":[[["dense_Dense6940",0,0,{}]]]},{"name":"dense_Dense6942","class_name":"Dense","config":{"units":1,"activation":"sigmoid","use_bias":true,"kernel_initializer":{"class_name":"VarianceScaling","config":{"scale":1,"mode":"fan_avg","distribution":"normal","seed":null}},"bias_initializer":{"class_name":"Zeros","config":{}},"kernel_regularizer":null,"bias_regularizer":null,"activity_regularizer":null,"kernel_constraint":null,"bias_constraint":null,"name":"dense_Dense6942","trainable":true},"inbound_nodes":[[["dense_Dense6941",0,0,{}]]]}],"input_layers":[["input1157",0,0]],"output_layers":[["dense_Dense6942",0,0]]},"keras_version":"tfjs-layers 3.9.0","backend":"tensor_flow.js"},"weightsManifest":[{"paths":["weights.bin"],"weights":[{"name":"dense_Dense6937/kernel","shape":[3,32],"dtype":"float32"},{"name":"dense_Dense6937/bias","shape":[32],"dtype":"float32"},{"name":"dense_Dense6938/kernel","shape":[32,32],"dtype":"float32"},{"name":"dense_Dense6938/bias","shape":[32],"dtype":"float32"},{"name":"dense_Dense6939/kernel","shape":[32,4],"dtype":"float32"},{"name":"dense_Dense6939/bias","shape":[4],"dtype":"float32"},{"name":"dense_Dense6940/kernel","shape":[4,1],"dtype":"float32"},{"name":"dense_Dense6940/bias","shape":[1],"dtype":"float32"},{"name":"dense_Dense6941/kernel","shape":[1,16],"dtype":"float32"},{"name":"dense_Dense6941/bias","shape":[16],"dtype":"float32"},{"name":"dense_Dense6942/kernel","shape":[16,1],"dtype":"float32"},{"name":"dense_Dense6942/bias","shape":[1],"dtype":"float32"}]}]}