{"modelTopology":{"class_name":"Model","config":{"name":"model697","layers":[{"name":"input697","class_name":"InputLayer","config":{"batch_input_shape":[null,3],"dtype":"float32","sparse":false,"name":"input697"},"inbound_nodes":[]},{"name":"dense_Dense4177","class_name":"Dense","config":{"units":4,"activation":"relu","use_bias":true,"kernel_initializer":{"class_name":"VarianceScaling","config":{"scale":1,"mode":"fan_avg","distribution":"normal","seed":null}},"bias_initializer":{"class_name":"Zeros","config":{}},"kernel_regularizer":null,"bias_regularizer":null,"activity_regularizer":null,"kernel_constraint":null,"bias_constraint":null,"name":"dense_Dense4177","trainable":true},"inbound_nodes":[[["input697",0,0,{}]]]},{"name":"dense_Dense4178","class_name":"Dense","config":{"units":8,"activation":"relu","use_bias":true,"kernel_initializer":{"class_name":"VarianceScaling","config":{"scale":1,"mode":"fan_avg","distribution":"normal","seed":null}},"bias_initializer":{"class_name":"Zeros","config":{}},"kernel_regularizer":null,"bias_regularizer":null,"activity_regularizer":null,"kernel_constraint":null,"bias_constraint":null,"name":"dense_Dense4178","trainable":true},"inbound_nodes":[[["dense_Dense4177",0,0,{}]]]},{"name":"dense_Dense4179","class_name":"Dense","config":{"units":2,"activation":"relu","use_bias":true,"kernel_initializer":{"class_name":"VarianceScaling","config":{"scale":1,"mode":"fan_avg","distribution":"normal","seed":null}},"bias_initializer":{"class_name":"Zeros","config":{}},"kernel_regularizer":null,"bias_regularizer":null,"activity_regularizer":null,"kernel_constraint":null,"bias_constraint":null,"name":"dense_Dense4179","trainable":true},"inbound_nodes":[[["dense_Dense4178",0,0,{}]]]},{"name":"dense_Dense4180","class_name":"Dense","config":{"units":4,"activation":"relu","use_bias":true,"kernel_initializer":{"class_name":"VarianceScaling","config":{"scale":1,"mode":"fan_avg","distribution":"normal","seed":null}},"bias_initializer":{"class_name":"Zeros","config":{}},"kernel_regularizer":null,"bias_regularizer":null,"activity_regularizer":null,"kernel_constraint":null,"bias_constraint":null,"name":"dense_Dense4180","trainable":true},"inbound_nodes":[[["dense_Dense4179",0,0,{}]]]},{"name":"dense_Dense4181","class_name":"Dense","config":{"units":1,"activation":"relu","use_bias":true,"kernel_initializer":{"class_name":"VarianceScaling","config":{"scale":1,"mode":"fan_avg","distribution":"normal","seed":null}},"bias_initializer":{"class_name":"Zeros","config":{}},"kernel_regularizer":null,"bias_regularizer":null,"activity_regularizer":null,"kernel_constraint":null,"bias_constraint":null,"name":"dense_Dense4181","trainable":true},"inbound_nodes":[[["dense_Dense4180",0,0,{}]]]},{"name":"dense_Dense4182","class_name":"Dense","config":{"units":1,"activation":"sigmoid","use_bias":true,"kernel_initializer":{"class_name":"VarianceScaling","config":{"scale":1,"mode":"fan_avg","distribution":"normal","seed":null}},"bias_initializer":{"class_name":"Zeros","config":{}},"kernel_regularizer":null,"bias_regularizer":null,"activity_regularizer":null,"kernel_constraint":null,"bias_constraint":null,"name":"dense_Dense4182","trainable":true},"inbound_nodes":[[["dense_Dense4181",0,0,{}]]]}],"input_layers":[["input697",0,0]],"output_layers":[["dense_Dense4182",0,0]]},"keras_version":"tfjs-layers 3.9.0","backend":"tensor_flow.js"},"weightsManifest":[{"paths":["weights.bin"],"weights":[{"name":"dense_Dense4177/kernel","shape":[3,4],"dtype":"float32"},{"name":"dense_Dense4177/bias","shape":[4],"dtype":"float32"},{"name":"dense_Dense4178/kernel","shape":[4,8],"dtype":"float32"},{"name":"dense_Dense4178/bias","shape":[8],"dtype":"float32"},{"name":"dense_Dense4179/kernel","shape":[8,2],"dtype":"float32"},{"name":"dense_Dense4179/bias","shape":[2],"dtype":"float32"},{"name":"dense_Dense4180/kernel","shape":[2,4],"dtype":"float32"},{"name":"dense_Dense4180/bias","shape":[4],"dtype":"float32"},{"name":"dense_Dense4181/kernel","shape":[4,1],"dtype":"float32"},{"name":"dense_Dense4181/bias","shape":[1],"dtype":"float32"},{"name":"dense_Dense4182/kernel","shape":[1,1],"dtype":"float32"},{"name":"dense_Dense4182/bias","shape":[1],"dtype":"float32"}]}]}