{"modelTopology":{"class_name":"Model","config":{"name":"model13","layers":[{"name":"input13","class_name":"InputLayer","config":{"batch_input_shape":[null,3],"dtype":"float32","sparse":false,"name":"input13"},"inbound_nodes":[]},{"name":"dense_Dense37","class_name":"Dense","config":{"units":4,"activation":"relu","use_bias":true,"kernel_initializer":{"class_name":"VarianceScaling","config":{"scale":1,"mode":"fan_avg","distribution":"normal","seed":null}},"bias_initializer":{"class_name":"Zeros","config":{}},"kernel_regularizer":null,"bias_regularizer":null,"activity_regularizer":null,"kernel_constraint":null,"bias_constraint":null,"name":"dense_Dense37","trainable":true},"inbound_nodes":[[["input13",0,0,{}]]]},{"name":"dense_Dense38","class_name":"Dense","config":{"units":1,"activation":"relu","use_bias":true,"kernel_initializer":{"class_name":"VarianceScaling","config":{"scale":1,"mode":"fan_avg","distribution":"normal","seed":null}},"bias_initializer":{"class_name":"Zeros","config":{}},"kernel_regularizer":null,"bias_regularizer":null,"activity_regularizer":null,"kernel_constraint":null,"bias_constraint":null,"name":"dense_Dense38","trainable":true},"inbound_nodes":[[["dense_Dense37",0,0,{}]]]},{"name":"dense_Dense39","class_name":"Dense","config":{"units":1,"activation":"sigmoid","use_bias":true,"kernel_initializer":{"class_name":"VarianceScaling","config":{"scale":1,"mode":"fan_avg","distribution":"normal","seed":null}},"bias_initializer":{"class_name":"Zeros","config":{}},"kernel_regularizer":null,"bias_regularizer":null,"activity_regularizer":null,"kernel_constraint":null,"bias_constraint":null,"name":"dense_Dense39","trainable":true},"inbound_nodes":[[["dense_Dense38",0,0,{}]]]}],"input_layers":[["input13",0,0]],"output_layers":[["dense_Dense39",0,0]]},"keras_version":"tfjs-layers 3.9.0","backend":"tensor_flow.js"},"weightsManifest":[{"paths":["weights.bin"],"weights":[{"name":"dense_Dense37/kernel","shape":[3,4],"dtype":"float32"},{"name":"dense_Dense37/bias","shape":[4],"dtype":"float32"},{"name":"dense_Dense38/kernel","shape":[4,1],"dtype":"float32"},{"name":"dense_Dense38/bias","shape":[1],"dtype":"float32"},{"name":"dense_Dense39/kernel","shape":[1,1],"dtype":"float32"},{"name":"dense_Dense39/bias","shape":[1],"dtype":"float32"}]}]}