{"modelTopology":{"class_name":"Model","config":{"name":"model1190","layers":[{"name":"input1190","class_name":"InputLayer","config":{"batch_input_shape":[null,3],"dtype":"float32","sparse":false,"name":"input1190"},"inbound_nodes":[]},{"name":"dense_Dense7135","class_name":"Dense","config":{"units":4,"activation":"relu","use_bias":true,"kernel_initializer":{"class_name":"VarianceScaling","config":{"scale":1,"mode":"fan_avg","distribution":"normal","seed":null}},"bias_initializer":{"class_name":"Zeros","config":{}},"kernel_regularizer":null,"bias_regularizer":null,"activity_regularizer":null,"kernel_constraint":null,"bias_constraint":null,"name":"dense_Dense7135","trainable":true},"inbound_nodes":[[["input1190",0,0,{}]]]},{"name":"dense_Dense7136","class_name":"Dense","config":{"units":32,"activation":"relu","use_bias":true,"kernel_initializer":{"class_name":"VarianceScaling","config":{"scale":1,"mode":"fan_avg","distribution":"normal","seed":null}},"bias_initializer":{"class_name":"Zeros","config":{}},"kernel_regularizer":null,"bias_regularizer":null,"activity_regularizer":null,"kernel_constraint":null,"bias_constraint":null,"name":"dense_Dense7136","trainable":true},"inbound_nodes":[[["dense_Dense7135",0,0,{}]]]},{"name":"dense_Dense7137","class_name":"Dense","config":{"units":8,"activation":"relu","use_bias":true,"kernel_initializer":{"class_name":"VarianceScaling","config":{"scale":1,"mode":"fan_avg","distribution":"normal","seed":null}},"bias_initializer":{"class_name":"Zeros","config":{}},"kernel_regularizer":null,"bias_regularizer":null,"activity_regularizer":null,"kernel_constraint":null,"bias_constraint":null,"name":"dense_Dense7137","trainable":true},"inbound_nodes":[[["dense_Dense7136",0,0,{}]]]},{"name":"dense_Dense7138","class_name":"Dense","config":{"units":1,"activation":"relu","use_bias":true,"kernel_initializer":{"class_name":"VarianceScaling","config":{"scale":1,"mode":"fan_avg","distribution":"normal","seed":null}},"bias_initializer":{"class_name":"Zeros","config":{}},"kernel_regularizer":null,"bias_regularizer":null,"activity_regularizer":null,"kernel_constraint":null,"bias_constraint":null,"name":"dense_Dense7138","trainable":true},"inbound_nodes":[[["dense_Dense7137",0,0,{}]]]},{"name":"dense_Dense7139","class_name":"Dense","config":{"units":2,"activation":"relu","use_bias":true,"kernel_initializer":{"class_name":"VarianceScaling","config":{"scale":1,"mode":"fan_avg","distribution":"normal","seed":null}},"bias_initializer":{"class_name":"Zeros","config":{}},"kernel_regularizer":null,"bias_regularizer":null,"activity_regularizer":null,"kernel_constraint":null,"bias_constraint":null,"name":"dense_Dense7139","trainable":true},"inbound_nodes":[[["dense_Dense7138",0,0,{}]]]},{"name":"dense_Dense7140","class_name":"Dense","config":{"units":1,"activation":"sigmoid","use_bias":true,"kernel_initializer":{"class_name":"VarianceScaling","config":{"scale":1,"mode":"fan_avg","distribution":"normal","seed":null}},"bias_initializer":{"class_name":"Zeros","config":{}},"kernel_regularizer":null,"bias_regularizer":null,"activity_regularizer":null,"kernel_constraint":null,"bias_constraint":null,"name":"dense_Dense7140","trainable":true},"inbound_nodes":[[["dense_Dense7139",0,0,{}]]]}],"input_layers":[["input1190",0,0]],"output_layers":[["dense_Dense7140",0,0]]},"keras_version":"tfjs-layers 3.9.0","backend":"tensor_flow.js"},"weightsManifest":[{"paths":["weights.bin"],"weights":[{"name":"dense_Dense7135/kernel","shape":[3,4],"dtype":"float32"},{"name":"dense_Dense7135/bias","shape":[4],"dtype":"float32"},{"name":"dense_Dense7136/kernel","shape":[4,32],"dtype":"float32"},{"name":"dense_Dense7136/bias","shape":[32],"dtype":"float32"},{"name":"dense_Dense7137/kernel","shape":[32,8],"dtype":"float32"},{"name":"dense_Dense7137/bias","shape":[8],"dtype":"float32"},{"name":"dense_Dense7138/kernel","shape":[8,1],"dtype":"float32"},{"name":"dense_Dense7138/bias","shape":[1],"dtype":"float32"},{"name":"dense_Dense7139/kernel","shape":[1,2],"dtype":"float32"},{"name":"dense_Dense7139/bias","shape":[2],"dtype":"float32"},{"name":"dense_Dense7140/kernel","shape":[2,1],"dtype":"float32"},{"name":"dense_Dense7140/bias","shape":[1],"dtype":"float32"}]}]}