{"modelTopology":{"class_name":"Model","config":{"name":"model277","layers":[{"name":"input277","class_name":"InputLayer","config":{"batch_input_shape":[null,3],"dtype":"float32","sparse":false,"name":"input277"},"inbound_nodes":[]},{"name":"dense_Dense1657","class_name":"Dense","config":{"units":4,"activation":"relu","use_bias":true,"kernel_initializer":{"class_name":"VarianceScaling","config":{"scale":1,"mode":"fan_avg","distribution":"normal","seed":null}},"bias_initializer":{"class_name":"Zeros","config":{}},"kernel_regularizer":null,"bias_regularizer":null,"activity_regularizer":null,"kernel_constraint":null,"bias_constraint":null,"name":"dense_Dense1657","trainable":true},"inbound_nodes":[[["input277",0,0,{}]]]},{"name":"dense_Dense1658","class_name":"Dense","config":{"units":2,"activation":"relu","use_bias":true,"kernel_initializer":{"class_name":"VarianceScaling","config":{"scale":1,"mode":"fan_avg","distribution":"normal","seed":null}},"bias_initializer":{"class_name":"Zeros","config":{}},"kernel_regularizer":null,"bias_regularizer":null,"activity_regularizer":null,"kernel_constraint":null,"bias_constraint":null,"name":"dense_Dense1658","trainable":true},"inbound_nodes":[[["dense_Dense1657",0,0,{}]]]},{"name":"dense_Dense1659","class_name":"Dense","config":{"units":2,"activation":"relu","use_bias":true,"kernel_initializer":{"class_name":"VarianceScaling","config":{"scale":1,"mode":"fan_avg","distribution":"normal","seed":null}},"bias_initializer":{"class_name":"Zeros","config":{}},"kernel_regularizer":null,"bias_regularizer":null,"activity_regularizer":null,"kernel_constraint":null,"bias_constraint":null,"name":"dense_Dense1659","trainable":true},"inbound_nodes":[[["dense_Dense1658",0,0,{}]]]},{"name":"dense_Dense1660","class_name":"Dense","config":{"units":16,"activation":"relu","use_bias":true,"kernel_initializer":{"class_name":"VarianceScaling","config":{"scale":1,"mode":"fan_avg","distribution":"normal","seed":null}},"bias_initializer":{"class_name":"Zeros","config":{}},"kernel_regularizer":null,"bias_regularizer":null,"activity_regularizer":null,"kernel_constraint":null,"bias_constraint":null,"name":"dense_Dense1660","trainable":true},"inbound_nodes":[[["dense_Dense1659",0,0,{}]]]},{"name":"dense_Dense1661","class_name":"Dense","config":{"units":1,"activation":"relu","use_bias":true,"kernel_initializer":{"class_name":"VarianceScaling","config":{"scale":1,"mode":"fan_avg","distribution":"normal","seed":null}},"bias_initializer":{"class_name":"Zeros","config":{}},"kernel_regularizer":null,"bias_regularizer":null,"activity_regularizer":null,"kernel_constraint":null,"bias_constraint":null,"name":"dense_Dense1661","trainable":true},"inbound_nodes":[[["dense_Dense1660",0,0,{}]]]},{"name":"dense_Dense1662","class_name":"Dense","config":{"units":1,"activation":"sigmoid","use_bias":true,"kernel_initializer":{"class_name":"VarianceScaling","config":{"scale":1,"mode":"fan_avg","distribution":"normal","seed":null}},"bias_initializer":{"class_name":"Zeros","config":{}},"kernel_regularizer":null,"bias_regularizer":null,"activity_regularizer":null,"kernel_constraint":null,"bias_constraint":null,"name":"dense_Dense1662","trainable":true},"inbound_nodes":[[["dense_Dense1661",0,0,{}]]]}],"input_layers":[["input277",0,0]],"output_layers":[["dense_Dense1662",0,0]]},"keras_version":"tfjs-layers 3.9.0","backend":"tensor_flow.js"},"weightsManifest":[{"paths":["weights.bin"],"weights":[{"name":"dense_Dense1657/kernel","shape":[3,4],"dtype":"float32"},{"name":"dense_Dense1657/bias","shape":[4],"dtype":"float32"},{"name":"dense_Dense1658/kernel","shape":[4,2],"dtype":"float32"},{"name":"dense_Dense1658/bias","shape":[2],"dtype":"float32"},{"name":"dense_Dense1659/kernel","shape":[2,2],"dtype":"float32"},{"name":"dense_Dense1659/bias","shape":[2],"dtype":"float32"},{"name":"dense_Dense1660/kernel","shape":[2,16],"dtype":"float32"},{"name":"dense_Dense1660/bias","shape":[16],"dtype":"float32"},{"name":"dense_Dense1661/kernel","shape":[16,1],"dtype":"float32"},{"name":"dense_Dense1661/bias","shape":[1],"dtype":"float32"},{"name":"dense_Dense1662/kernel","shape":[1,1],"dtype":"float32"},{"name":"dense_Dense1662/bias","shape":[1],"dtype":"float32"}]}]}