{"modelTopology":{"class_name":"Model","config":{"name":"model113","layers":[{"name":"input113","class_name":"InputLayer","config":{"batch_input_shape":[null,3],"dtype":"float32","sparse":false,"name":"input113"},"inbound_nodes":[]},{"name":"dense_Dense449","class_name":"Dense","config":{"units":8,"activation":"relu","use_bias":true,"kernel_initializer":{"class_name":"VarianceScaling","config":{"scale":1,"mode":"fan_avg","distribution":"normal","seed":null}},"bias_initializer":{"class_name":"Zeros","config":{}},"kernel_regularizer":null,"bias_regularizer":null,"activity_regularizer":null,"kernel_constraint":null,"bias_constraint":null,"name":"dense_Dense449","trainable":true},"inbound_nodes":[[["input113",0,0,{}]]]},{"name":"dense_Dense450","class_name":"Dense","config":{"units":1,"activation":"relu","use_bias":true,"kernel_initializer":{"class_name":"VarianceScaling","config":{"scale":1,"mode":"fan_avg","distribution":"normal","seed":null}},"bias_initializer":{"class_name":"Zeros","config":{}},"kernel_regularizer":null,"bias_regularizer":null,"activity_regularizer":null,"kernel_constraint":null,"bias_constraint":null,"name":"dense_Dense450","trainable":true},"inbound_nodes":[[["dense_Dense449",0,0,{}]]]},{"name":"dense_Dense451","class_name":"Dense","config":{"units":16,"activation":"relu","use_bias":true,"kernel_initializer":{"class_name":"VarianceScaling","config":{"scale":1,"mode":"fan_avg","distribution":"normal","seed":null}},"bias_initializer":{"class_name":"Zeros","config":{}},"kernel_regularizer":null,"bias_regularizer":null,"activity_regularizer":null,"kernel_constraint":null,"bias_constraint":null,"name":"dense_Dense451","trainable":true},"inbound_nodes":[[["dense_Dense450",0,0,{}]]]},{"name":"dense_Dense452","class_name":"Dense","config":{"units":1,"activation":"sigmoid","use_bias":true,"kernel_initializer":{"class_name":"VarianceScaling","config":{"scale":1,"mode":"fan_avg","distribution":"normal","seed":null}},"bias_initializer":{"class_name":"Zeros","config":{}},"kernel_regularizer":null,"bias_regularizer":null,"activity_regularizer":null,"kernel_constraint":null,"bias_constraint":null,"name":"dense_Dense452","trainable":true},"inbound_nodes":[[["dense_Dense451",0,0,{}]]]}],"input_layers":[["input113",0,0]],"output_layers":[["dense_Dense452",0,0]]},"keras_version":"tfjs-layers 3.9.0","backend":"tensor_flow.js"},"weightsManifest":[{"paths":["weights.bin"],"weights":[{"name":"dense_Dense449/kernel","shape":[3,8],"dtype":"float32"},{"name":"dense_Dense449/bias","shape":[8],"dtype":"float32"},{"name":"dense_Dense450/kernel","shape":[8,1],"dtype":"float32"},{"name":"dense_Dense450/bias","shape":[1],"dtype":"float32"},{"name":"dense_Dense451/kernel","shape":[1,16],"dtype":"float32"},{"name":"dense_Dense451/bias","shape":[16],"dtype":"float32"},{"name":"dense_Dense452/kernel","shape":[16,1],"dtype":"float32"},{"name":"dense_Dense452/bias","shape":[1],"dtype":"float32"}]}]}