{"modelTopology":{"class_name":"Model","config":{"name":"model1044","layers":[{"name":"input1044","class_name":"InputLayer","config":{"batch_input_shape":[null,3],"dtype":"float32","sparse":false,"name":"input1044"},"inbound_nodes":[]},{"name":"dense_Dense5216","class_name":"Dense","config":{"units":16,"activation":"relu","use_bias":true,"kernel_initializer":{"class_name":"VarianceScaling","config":{"scale":1,"mode":"fan_avg","distribution":"normal","seed":null}},"bias_initializer":{"class_name":"Zeros","config":{}},"kernel_regularizer":null,"bias_regularizer":null,"activity_regularizer":null,"kernel_constraint":null,"bias_constraint":null,"name":"dense_Dense5216","trainable":true},"inbound_nodes":[[["input1044",0,0,{}]]]},{"name":"dense_Dense5217","class_name":"Dense","config":{"units":16,"activation":"relu","use_bias":true,"kernel_initializer":{"class_name":"VarianceScaling","config":{"scale":1,"mode":"fan_avg","distribution":"normal","seed":null}},"bias_initializer":{"class_name":"Zeros","config":{}},"kernel_regularizer":null,"bias_regularizer":null,"activity_regularizer":null,"kernel_constraint":null,"bias_constraint":null,"name":"dense_Dense5217","trainable":true},"inbound_nodes":[[["dense_Dense5216",0,0,{}]]]},{"name":"dense_Dense5218","class_name":"Dense","config":{"units":32,"activation":"relu","use_bias":true,"kernel_initializer":{"class_name":"VarianceScaling","config":{"scale":1,"mode":"fan_avg","distribution":"normal","seed":null}},"bias_initializer":{"class_name":"Zeros","config":{}},"kernel_regularizer":null,"bias_regularizer":null,"activity_regularizer":null,"kernel_constraint":null,"bias_constraint":null,"name":"dense_Dense5218","trainable":true},"inbound_nodes":[[["dense_Dense5217",0,0,{}]]]},{"name":"dense_Dense5219","class_name":"Dense","config":{"units":32,"activation":"relu","use_bias":true,"kernel_initializer":{"class_name":"VarianceScaling","config":{"scale":1,"mode":"fan_avg","distribution":"normal","seed":null}},"bias_initializer":{"class_name":"Zeros","config":{}},"kernel_regularizer":null,"bias_regularizer":null,"activity_regularizer":null,"kernel_constraint":null,"bias_constraint":null,"name":"dense_Dense5219","trainable":true},"inbound_nodes":[[["dense_Dense5218",0,0,{}]]]},{"name":"dense_Dense5220","class_name":"Dense","config":{"units":1,"activation":"sigmoid","use_bias":true,"kernel_initializer":{"class_name":"VarianceScaling","config":{"scale":1,"mode":"fan_avg","distribution":"normal","seed":null}},"bias_initializer":{"class_name":"Zeros","config":{}},"kernel_regularizer":null,"bias_regularizer":null,"activity_regularizer":null,"kernel_constraint":null,"bias_constraint":null,"name":"dense_Dense5220","trainable":true},"inbound_nodes":[[["dense_Dense5219",0,0,{}]]]}],"input_layers":[["input1044",0,0]],"output_layers":[["dense_Dense5220",0,0]]},"keras_version":"tfjs-layers 3.9.0","backend":"tensor_flow.js"},"weightsManifest":[{"paths":["weights.bin"],"weights":[{"name":"dense_Dense5216/kernel","shape":[3,16],"dtype":"float32"},{"name":"dense_Dense5216/bias","shape":[16],"dtype":"float32"},{"name":"dense_Dense5217/kernel","shape":[16,16],"dtype":"float32"},{"name":"dense_Dense5217/bias","shape":[16],"dtype":"float32"},{"name":"dense_Dense5218/kernel","shape":[16,32],"dtype":"float32"},{"name":"dense_Dense5218/bias","shape":[32],"dtype":"float32"},{"name":"dense_Dense5219/kernel","shape":[32,32],"dtype":"float32"},{"name":"dense_Dense5219/bias","shape":[32],"dtype":"float32"},{"name":"dense_Dense5220/kernel","shape":[32,1],"dtype":"float32"},{"name":"dense_Dense5220/bias","shape":[1],"dtype":"float32"}]}]}