{"modelTopology":{"class_name":"Model","config":{"name":"model775","layers":[{"name":"input775","class_name":"InputLayer","config":{"batch_input_shape":[null,3],"dtype":"float32","sparse":false,"name":"input775"},"inbound_nodes":[]},{"name":"dense_Dense3871","class_name":"Dense","config":{"units":8,"activation":"relu","use_bias":true,"kernel_initializer":{"class_name":"VarianceScaling","config":{"scale":1,"mode":"fan_avg","distribution":"normal","seed":null}},"bias_initializer":{"class_name":"Zeros","config":{}},"kernel_regularizer":null,"bias_regularizer":null,"activity_regularizer":null,"kernel_constraint":null,"bias_constraint":null,"name":"dense_Dense3871","trainable":true},"inbound_nodes":[[["input775",0,0,{}]]]},{"name":"dense_Dense3872","class_name":"Dense","config":{"units":8,"activation":"relu","use_bias":true,"kernel_initializer":{"class_name":"VarianceScaling","config":{"scale":1,"mode":"fan_avg","distribution":"normal","seed":null}},"bias_initializer":{"class_name":"Zeros","config":{}},"kernel_regularizer":null,"bias_regularizer":null,"activity_regularizer":null,"kernel_constraint":null,"bias_constraint":null,"name":"dense_Dense3872","trainable":true},"inbound_nodes":[[["dense_Dense3871",0,0,{}]]]},{"name":"dense_Dense3873","class_name":"Dense","config":{"units":8,"activation":"relu","use_bias":true,"kernel_initializer":{"class_name":"VarianceScaling","config":{"scale":1,"mode":"fan_avg","distribution":"normal","seed":null}},"bias_initializer":{"class_name":"Zeros","config":{}},"kernel_regularizer":null,"bias_regularizer":null,"activity_regularizer":null,"kernel_constraint":null,"bias_constraint":null,"name":"dense_Dense3873","trainable":true},"inbound_nodes":[[["dense_Dense3872",0,0,{}]]]},{"name":"dense_Dense3874","class_name":"Dense","config":{"units":1,"activation":"relu","use_bias":true,"kernel_initializer":{"class_name":"VarianceScaling","config":{"scale":1,"mode":"fan_avg","distribution":"normal","seed":null}},"bias_initializer":{"class_name":"Zeros","config":{}},"kernel_regularizer":null,"bias_regularizer":null,"activity_regularizer":null,"kernel_constraint":null,"bias_constraint":null,"name":"dense_Dense3874","trainable":true},"inbound_nodes":[[["dense_Dense3873",0,0,{}]]]},{"name":"dense_Dense3875","class_name":"Dense","config":{"units":1,"activation":"sigmoid","use_bias":true,"kernel_initializer":{"class_name":"VarianceScaling","config":{"scale":1,"mode":"fan_avg","distribution":"normal","seed":null}},"bias_initializer":{"class_name":"Zeros","config":{}},"kernel_regularizer":null,"bias_regularizer":null,"activity_regularizer":null,"kernel_constraint":null,"bias_constraint":null,"name":"dense_Dense3875","trainable":true},"inbound_nodes":[[["dense_Dense3874",0,0,{}]]]}],"input_layers":[["input775",0,0]],"output_layers":[["dense_Dense3875",0,0]]},"keras_version":"tfjs-layers 3.9.0","backend":"tensor_flow.js"},"weightsManifest":[{"paths":["weights.bin"],"weights":[{"name":"dense_Dense3871/kernel","shape":[3,8],"dtype":"float32"},{"name":"dense_Dense3871/bias","shape":[8],"dtype":"float32"},{"name":"dense_Dense3872/kernel","shape":[8,8],"dtype":"float32"},{"name":"dense_Dense3872/bias","shape":[8],"dtype":"float32"},{"name":"dense_Dense3873/kernel","shape":[8,8],"dtype":"float32"},{"name":"dense_Dense3873/bias","shape":[8],"dtype":"float32"},{"name":"dense_Dense3874/kernel","shape":[8,1],"dtype":"float32"},{"name":"dense_Dense3874/bias","shape":[1],"dtype":"float32"},{"name":"dense_Dense3875/kernel","shape":[1,1],"dtype":"float32"},{"name":"dense_Dense3875/bias","shape":[1],"dtype":"float32"}]}]}