{"modelTopology":{"class_name":"Model","config":{"name":"model943","layers":[{"name":"input943","class_name":"InputLayer","config":{"batch_input_shape":[null,3],"dtype":"float32","sparse":false,"name":"input943"},"inbound_nodes":[]},{"name":"dense_Dense5653","class_name":"Dense","config":{"units":1,"activation":"relu","use_bias":true,"kernel_initializer":{"class_name":"VarianceScaling","config":{"scale":1,"mode":"fan_avg","distribution":"normal","seed":null}},"bias_initializer":{"class_name":"Zeros","config":{}},"kernel_regularizer":null,"bias_regularizer":null,"activity_regularizer":null,"kernel_constraint":null,"bias_constraint":null,"name":"dense_Dense5653","trainable":true},"inbound_nodes":[[["input943",0,0,{}]]]},{"name":"dense_Dense5654","class_name":"Dense","config":{"units":16,"activation":"relu","use_bias":true,"kernel_initializer":{"class_name":"VarianceScaling","config":{"scale":1,"mode":"fan_avg","distribution":"normal","seed":null}},"bias_initializer":{"class_name":"Zeros","config":{}},"kernel_regularizer":null,"bias_regularizer":null,"activity_regularizer":null,"kernel_constraint":null,"bias_constraint":null,"name":"dense_Dense5654","trainable":true},"inbound_nodes":[[["dense_Dense5653",0,0,{}]]]},{"name":"dense_Dense5655","class_name":"Dense","config":{"units":4,"activation":"relu","use_bias":true,"kernel_initializer":{"class_name":"VarianceScaling","config":{"scale":1,"mode":"fan_avg","distribution":"normal","seed":null}},"bias_initializer":{"class_name":"Zeros","config":{}},"kernel_regularizer":null,"bias_regularizer":null,"activity_regularizer":null,"kernel_constraint":null,"bias_constraint":null,"name":"dense_Dense5655","trainable":true},"inbound_nodes":[[["dense_Dense5654",0,0,{}]]]},{"name":"dense_Dense5656","class_name":"Dense","config":{"units":2,"activation":"relu","use_bias":true,"kernel_initializer":{"class_name":"VarianceScaling","config":{"scale":1,"mode":"fan_avg","distribution":"normal","seed":null}},"bias_initializer":{"class_name":"Zeros","config":{}},"kernel_regularizer":null,"bias_regularizer":null,"activity_regularizer":null,"kernel_constraint":null,"bias_constraint":null,"name":"dense_Dense5656","trainable":true},"inbound_nodes":[[["dense_Dense5655",0,0,{}]]]},{"name":"dense_Dense5657","class_name":"Dense","config":{"units":1,"activation":"relu","use_bias":true,"kernel_initializer":{"class_name":"VarianceScaling","config":{"scale":1,"mode":"fan_avg","distribution":"normal","seed":null}},"bias_initializer":{"class_name":"Zeros","config":{}},"kernel_regularizer":null,"bias_regularizer":null,"activity_regularizer":null,"kernel_constraint":null,"bias_constraint":null,"name":"dense_Dense5657","trainable":true},"inbound_nodes":[[["dense_Dense5656",0,0,{}]]]},{"name":"dense_Dense5658","class_name":"Dense","config":{"units":1,"activation":"sigmoid","use_bias":true,"kernel_initializer":{"class_name":"VarianceScaling","config":{"scale":1,"mode":"fan_avg","distribution":"normal","seed":null}},"bias_initializer":{"class_name":"Zeros","config":{}},"kernel_regularizer":null,"bias_regularizer":null,"activity_regularizer":null,"kernel_constraint":null,"bias_constraint":null,"name":"dense_Dense5658","trainable":true},"inbound_nodes":[[["dense_Dense5657",0,0,{}]]]}],"input_layers":[["input943",0,0]],"output_layers":[["dense_Dense5658",0,0]]},"keras_version":"tfjs-layers 3.9.0","backend":"tensor_flow.js"},"weightsManifest":[{"paths":["weights.bin"],"weights":[{"name":"dense_Dense5653/kernel","shape":[3,1],"dtype":"float32"},{"name":"dense_Dense5653/bias","shape":[1],"dtype":"float32"},{"name":"dense_Dense5654/kernel","shape":[1,16],"dtype":"float32"},{"name":"dense_Dense5654/bias","shape":[16],"dtype":"float32"},{"name":"dense_Dense5655/kernel","shape":[16,4],"dtype":"float32"},{"name":"dense_Dense5655/bias","shape":[4],"dtype":"float32"},{"name":"dense_Dense5656/kernel","shape":[4,2],"dtype":"float32"},{"name":"dense_Dense5656/bias","shape":[2],"dtype":"float32"},{"name":"dense_Dense5657/kernel","shape":[2,1],"dtype":"float32"},{"name":"dense_Dense5657/bias","shape":[1],"dtype":"float32"},{"name":"dense_Dense5658/kernel","shape":[1,1],"dtype":"float32"},{"name":"dense_Dense5658/bias","shape":[1],"dtype":"float32"}]}]}