{"modelTopology":{"class_name":"Model","config":{"name":"model455","layers":[{"name":"input455","class_name":"InputLayer","config":{"batch_input_shape":[null,3],"dtype":"float32","sparse":false,"name":"input455"},"inbound_nodes":[]},{"name":"dense_Dense2725","class_name":"Dense","config":{"units":16,"activation":"relu","use_bias":true,"kernel_initializer":{"class_name":"VarianceScaling","config":{"scale":1,"mode":"fan_avg","distribution":"normal","seed":null}},"bias_initializer":{"class_name":"Zeros","config":{}},"kernel_regularizer":null,"bias_regularizer":null,"activity_regularizer":null,"kernel_constraint":null,"bias_constraint":null,"name":"dense_Dense2725","trainable":true},"inbound_nodes":[[["input455",0,0,{}]]]},{"name":"dense_Dense2726","class_name":"Dense","config":{"units":4,"activation":"relu","use_bias":true,"kernel_initializer":{"class_name":"VarianceScaling","config":{"scale":1,"mode":"fan_avg","distribution":"normal","seed":null}},"bias_initializer":{"class_name":"Zeros","config":{}},"kernel_regularizer":null,"bias_regularizer":null,"activity_regularizer":null,"kernel_constraint":null,"bias_constraint":null,"name":"dense_Dense2726","trainable":true},"inbound_nodes":[[["dense_Dense2725",0,0,{}]]]},{"name":"dense_Dense2727","class_name":"Dense","config":{"units":1,"activation":"relu","use_bias":true,"kernel_initializer":{"class_name":"VarianceScaling","config":{"scale":1,"mode":"fan_avg","distribution":"normal","seed":null}},"bias_initializer":{"class_name":"Zeros","config":{}},"kernel_regularizer":null,"bias_regularizer":null,"activity_regularizer":null,"kernel_constraint":null,"bias_constraint":null,"name":"dense_Dense2727","trainable":true},"inbound_nodes":[[["dense_Dense2726",0,0,{}]]]},{"name":"dense_Dense2728","class_name":"Dense","config":{"units":8,"activation":"relu","use_bias":true,"kernel_initializer":{"class_name":"VarianceScaling","config":{"scale":1,"mode":"fan_avg","distribution":"normal","seed":null}},"bias_initializer":{"class_name":"Zeros","config":{}},"kernel_regularizer":null,"bias_regularizer":null,"activity_regularizer":null,"kernel_constraint":null,"bias_constraint":null,"name":"dense_Dense2728","trainable":true},"inbound_nodes":[[["dense_Dense2727",0,0,{}]]]},{"name":"dense_Dense2729","class_name":"Dense","config":{"units":16,"activation":"relu","use_bias":true,"kernel_initializer":{"class_name":"VarianceScaling","config":{"scale":1,"mode":"fan_avg","distribution":"normal","seed":null}},"bias_initializer":{"class_name":"Zeros","config":{}},"kernel_regularizer":null,"bias_regularizer":null,"activity_regularizer":null,"kernel_constraint":null,"bias_constraint":null,"name":"dense_Dense2729","trainable":true},"inbound_nodes":[[["dense_Dense2728",0,0,{}]]]},{"name":"dense_Dense2730","class_name":"Dense","config":{"units":1,"activation":"sigmoid","use_bias":true,"kernel_initializer":{"class_name":"VarianceScaling","config":{"scale":1,"mode":"fan_avg","distribution":"normal","seed":null}},"bias_initializer":{"class_name":"Zeros","config":{}},"kernel_regularizer":null,"bias_regularizer":null,"activity_regularizer":null,"kernel_constraint":null,"bias_constraint":null,"name":"dense_Dense2730","trainable":true},"inbound_nodes":[[["dense_Dense2729",0,0,{}]]]}],"input_layers":[["input455",0,0]],"output_layers":[["dense_Dense2730",0,0]]},"keras_version":"tfjs-layers 3.9.0","backend":"tensor_flow.js"},"weightsManifest":[{"paths":["weights.bin"],"weights":[{"name":"dense_Dense2725/kernel","shape":[3,16],"dtype":"float32"},{"name":"dense_Dense2725/bias","shape":[16],"dtype":"float32"},{"name":"dense_Dense2726/kernel","shape":[16,4],"dtype":"float32"},{"name":"dense_Dense2726/bias","shape":[4],"dtype":"float32"},{"name":"dense_Dense2727/kernel","shape":[4,1],"dtype":"float32"},{"name":"dense_Dense2727/bias","shape":[1],"dtype":"float32"},{"name":"dense_Dense2728/kernel","shape":[1,8],"dtype":"float32"},{"name":"dense_Dense2728/bias","shape":[8],"dtype":"float32"},{"name":"dense_Dense2729/kernel","shape":[8,16],"dtype":"float32"},{"name":"dense_Dense2729/bias","shape":[16],"dtype":"float32"},{"name":"dense_Dense2730/kernel","shape":[16,1],"dtype":"float32"},{"name":"dense_Dense2730/bias","shape":[1],"dtype":"float32"}]}]}