{"modelTopology":{"class_name":"Model","config":{"name":"model643","layers":[{"name":"input643","class_name":"InputLayer","config":{"batch_input_shape":[null,3],"dtype":"float32","sparse":false,"name":"input643"},"inbound_nodes":[]},{"name":"dense_Dense3853","class_name":"Dense","config":{"units":1,"activation":"relu","use_bias":true,"kernel_initializer":{"class_name":"VarianceScaling","config":{"scale":1,"mode":"fan_avg","distribution":"normal","seed":null}},"bias_initializer":{"class_name":"Zeros","config":{}},"kernel_regularizer":null,"bias_regularizer":null,"activity_regularizer":null,"kernel_constraint":null,"bias_constraint":null,"name":"dense_Dense3853","trainable":true},"inbound_nodes":[[["input643",0,0,{}]]]},{"name":"dense_Dense3854","class_name":"Dense","config":{"units":4,"activation":"relu","use_bias":true,"kernel_initializer":{"class_name":"VarianceScaling","config":{"scale":1,"mode":"fan_avg","distribution":"normal","seed":null}},"bias_initializer":{"class_name":"Zeros","config":{}},"kernel_regularizer":null,"bias_regularizer":null,"activity_regularizer":null,"kernel_constraint":null,"bias_constraint":null,"name":"dense_Dense3854","trainable":true},"inbound_nodes":[[["dense_Dense3853",0,0,{}]]]},{"name":"dense_Dense3855","class_name":"Dense","config":{"units":32,"activation":"relu","use_bias":true,"kernel_initializer":{"class_name":"VarianceScaling","config":{"scale":1,"mode":"fan_avg","distribution":"normal","seed":null}},"bias_initializer":{"class_name":"Zeros","config":{}},"kernel_regularizer":null,"bias_regularizer":null,"activity_regularizer":null,"kernel_constraint":null,"bias_constraint":null,"name":"dense_Dense3855","trainable":true},"inbound_nodes":[[["dense_Dense3854",0,0,{}]]]},{"name":"dense_Dense3856","class_name":"Dense","config":{"units":32,"activation":"relu","use_bias":true,"kernel_initializer":{"class_name":"VarianceScaling","config":{"scale":1,"mode":"fan_avg","distribution":"normal","seed":null}},"bias_initializer":{"class_name":"Zeros","config":{}},"kernel_regularizer":null,"bias_regularizer":null,"activity_regularizer":null,"kernel_constraint":null,"bias_constraint":null,"name":"dense_Dense3856","trainable":true},"inbound_nodes":[[["dense_Dense3855",0,0,{}]]]},{"name":"dense_Dense3857","class_name":"Dense","config":{"units":1,"activation":"relu","use_bias":true,"kernel_initializer":{"class_name":"VarianceScaling","config":{"scale":1,"mode":"fan_avg","distribution":"normal","seed":null}},"bias_initializer":{"class_name":"Zeros","config":{}},"kernel_regularizer":null,"bias_regularizer":null,"activity_regularizer":null,"kernel_constraint":null,"bias_constraint":null,"name":"dense_Dense3857","trainable":true},"inbound_nodes":[[["dense_Dense3856",0,0,{}]]]},{"name":"dense_Dense3858","class_name":"Dense","config":{"units":1,"activation":"sigmoid","use_bias":true,"kernel_initializer":{"class_name":"VarianceScaling","config":{"scale":1,"mode":"fan_avg","distribution":"normal","seed":null}},"bias_initializer":{"class_name":"Zeros","config":{}},"kernel_regularizer":null,"bias_regularizer":null,"activity_regularizer":null,"kernel_constraint":null,"bias_constraint":null,"name":"dense_Dense3858","trainable":true},"inbound_nodes":[[["dense_Dense3857",0,0,{}]]]}],"input_layers":[["input643",0,0]],"output_layers":[["dense_Dense3858",0,0]]},"keras_version":"tfjs-layers 3.9.0","backend":"tensor_flow.js"},"weightsManifest":[{"paths":["weights.bin"],"weights":[{"name":"dense_Dense3853/kernel","shape":[3,1],"dtype":"float32"},{"name":"dense_Dense3853/bias","shape":[1],"dtype":"float32"},{"name":"dense_Dense3854/kernel","shape":[1,4],"dtype":"float32"},{"name":"dense_Dense3854/bias","shape":[4],"dtype":"float32"},{"name":"dense_Dense3855/kernel","shape":[4,32],"dtype":"float32"},{"name":"dense_Dense3855/bias","shape":[32],"dtype":"float32"},{"name":"dense_Dense3856/kernel","shape":[32,32],"dtype":"float32"},{"name":"dense_Dense3856/bias","shape":[32],"dtype":"float32"},{"name":"dense_Dense3857/kernel","shape":[32,1],"dtype":"float32"},{"name":"dense_Dense3857/bias","shape":[1],"dtype":"float32"},{"name":"dense_Dense3858/kernel","shape":[1,1],"dtype":"float32"},{"name":"dense_Dense3858/bias","shape":[1],"dtype":"float32"}]}]}