{"modelTopology":{"class_name":"Model","config":{"name":"model396","layers":[{"name":"input396","class_name":"InputLayer","config":{"batch_input_shape":[null,3],"dtype":"float32","sparse":false,"name":"input396"},"inbound_nodes":[]},{"name":"dense_Dense2371","class_name":"Dense","config":{"units":8,"activation":"relu","use_bias":true,"kernel_initializer":{"class_name":"VarianceScaling","config":{"scale":1,"mode":"fan_avg","distribution":"normal","seed":null}},"bias_initializer":{"class_name":"Zeros","config":{}},"kernel_regularizer":null,"bias_regularizer":null,"activity_regularizer":null,"kernel_constraint":null,"bias_constraint":null,"name":"dense_Dense2371","trainable":true},"inbound_nodes":[[["input396",0,0,{}]]]},{"name":"dense_Dense2372","class_name":"Dense","config":{"units":2,"activation":"relu","use_bias":true,"kernel_initializer":{"class_name":"VarianceScaling","config":{"scale":1,"mode":"fan_avg","distribution":"normal","seed":null}},"bias_initializer":{"class_name":"Zeros","config":{}},"kernel_regularizer":null,"bias_regularizer":null,"activity_regularizer":null,"kernel_constraint":null,"bias_constraint":null,"name":"dense_Dense2372","trainable":true},"inbound_nodes":[[["dense_Dense2371",0,0,{}]]]},{"name":"dense_Dense2373","class_name":"Dense","config":{"units":16,"activation":"relu","use_bias":true,"kernel_initializer":{"class_name":"VarianceScaling","config":{"scale":1,"mode":"fan_avg","distribution":"normal","seed":null}},"bias_initializer":{"class_name":"Zeros","config":{}},"kernel_regularizer":null,"bias_regularizer":null,"activity_regularizer":null,"kernel_constraint":null,"bias_constraint":null,"name":"dense_Dense2373","trainable":true},"inbound_nodes":[[["dense_Dense2372",0,0,{}]]]},{"name":"dense_Dense2374","class_name":"Dense","config":{"units":32,"activation":"relu","use_bias":true,"kernel_initializer":{"class_name":"VarianceScaling","config":{"scale":1,"mode":"fan_avg","distribution":"normal","seed":null}},"bias_initializer":{"class_name":"Zeros","config":{}},"kernel_regularizer":null,"bias_regularizer":null,"activity_regularizer":null,"kernel_constraint":null,"bias_constraint":null,"name":"dense_Dense2374","trainable":true},"inbound_nodes":[[["dense_Dense2373",0,0,{}]]]},{"name":"dense_Dense2375","class_name":"Dense","config":{"units":32,"activation":"relu","use_bias":true,"kernel_initializer":{"class_name":"VarianceScaling","config":{"scale":1,"mode":"fan_avg","distribution":"normal","seed":null}},"bias_initializer":{"class_name":"Zeros","config":{}},"kernel_regularizer":null,"bias_regularizer":null,"activity_regularizer":null,"kernel_constraint":null,"bias_constraint":null,"name":"dense_Dense2375","trainable":true},"inbound_nodes":[[["dense_Dense2374",0,0,{}]]]},{"name":"dense_Dense2376","class_name":"Dense","config":{"units":1,"activation":"sigmoid","use_bias":true,"kernel_initializer":{"class_name":"VarianceScaling","config":{"scale":1,"mode":"fan_avg","distribution":"normal","seed":null}},"bias_initializer":{"class_name":"Zeros","config":{}},"kernel_regularizer":null,"bias_regularizer":null,"activity_regularizer":null,"kernel_constraint":null,"bias_constraint":null,"name":"dense_Dense2376","trainable":true},"inbound_nodes":[[["dense_Dense2375",0,0,{}]]]}],"input_layers":[["input396",0,0]],"output_layers":[["dense_Dense2376",0,0]]},"keras_version":"tfjs-layers 3.9.0","backend":"tensor_flow.js"},"weightsManifest":[{"paths":["weights.bin"],"weights":[{"name":"dense_Dense2371/kernel","shape":[3,8],"dtype":"float32"},{"name":"dense_Dense2371/bias","shape":[8],"dtype":"float32"},{"name":"dense_Dense2372/kernel","shape":[8,2],"dtype":"float32"},{"name":"dense_Dense2372/bias","shape":[2],"dtype":"float32"},{"name":"dense_Dense2373/kernel","shape":[2,16],"dtype":"float32"},{"name":"dense_Dense2373/bias","shape":[16],"dtype":"float32"},{"name":"dense_Dense2374/kernel","shape":[16,32],"dtype":"float32"},{"name":"dense_Dense2374/bias","shape":[32],"dtype":"float32"},{"name":"dense_Dense2375/kernel","shape":[32,32],"dtype":"float32"},{"name":"dense_Dense2375/bias","shape":[32],"dtype":"float32"},{"name":"dense_Dense2376/kernel","shape":[32,1],"dtype":"float32"},{"name":"dense_Dense2376/bias","shape":[1],"dtype":"float32"}]}]}