{"modelTopology":{"class_name":"Model","config":{"name":"model724","layers":[{"name":"input724","class_name":"InputLayer","config":{"batch_input_shape":[null,3],"dtype":"float32","sparse":false,"name":"input724"},"inbound_nodes":[]},{"name":"dense_Dense4339","class_name":"Dense","config":{"units":4,"activation":"relu","use_bias":true,"kernel_initializer":{"class_name":"VarianceScaling","config":{"scale":1,"mode":"fan_avg","distribution":"normal","seed":null}},"bias_initializer":{"class_name":"Zeros","config":{}},"kernel_regularizer":null,"bias_regularizer":null,"activity_regularizer":null,"kernel_constraint":null,"bias_constraint":null,"name":"dense_Dense4339","trainable":true},"inbound_nodes":[[["input724",0,0,{}]]]},{"name":"dense_Dense4340","class_name":"Dense","config":{"units":8,"activation":"relu","use_bias":true,"kernel_initializer":{"class_name":"VarianceScaling","config":{"scale":1,"mode":"fan_avg","distribution":"normal","seed":null}},"bias_initializer":{"class_name":"Zeros","config":{}},"kernel_regularizer":null,"bias_regularizer":null,"activity_regularizer":null,"kernel_constraint":null,"bias_constraint":null,"name":"dense_Dense4340","trainable":true},"inbound_nodes":[[["dense_Dense4339",0,0,{}]]]},{"name":"dense_Dense4341","class_name":"Dense","config":{"units":4,"activation":"relu","use_bias":true,"kernel_initializer":{"class_name":"VarianceScaling","config":{"scale":1,"mode":"fan_avg","distribution":"normal","seed":null}},"bias_initializer":{"class_name":"Zeros","config":{}},"kernel_regularizer":null,"bias_regularizer":null,"activity_regularizer":null,"kernel_constraint":null,"bias_constraint":null,"name":"dense_Dense4341","trainable":true},"inbound_nodes":[[["dense_Dense4340",0,0,{}]]]},{"name":"dense_Dense4342","class_name":"Dense","config":{"units":1,"activation":"relu","use_bias":true,"kernel_initializer":{"class_name":"VarianceScaling","config":{"scale":1,"mode":"fan_avg","distribution":"normal","seed":null}},"bias_initializer":{"class_name":"Zeros","config":{}},"kernel_regularizer":null,"bias_regularizer":null,"activity_regularizer":null,"kernel_constraint":null,"bias_constraint":null,"name":"dense_Dense4342","trainable":true},"inbound_nodes":[[["dense_Dense4341",0,0,{}]]]},{"name":"dense_Dense4343","class_name":"Dense","config":{"units":8,"activation":"relu","use_bias":true,"kernel_initializer":{"class_name":"VarianceScaling","config":{"scale":1,"mode":"fan_avg","distribution":"normal","seed":null}},"bias_initializer":{"class_name":"Zeros","config":{}},"kernel_regularizer":null,"bias_regularizer":null,"activity_regularizer":null,"kernel_constraint":null,"bias_constraint":null,"name":"dense_Dense4343","trainable":true},"inbound_nodes":[[["dense_Dense4342",0,0,{}]]]},{"name":"dense_Dense4344","class_name":"Dense","config":{"units":1,"activation":"sigmoid","use_bias":true,"kernel_initializer":{"class_name":"VarianceScaling","config":{"scale":1,"mode":"fan_avg","distribution":"normal","seed":null}},"bias_initializer":{"class_name":"Zeros","config":{}},"kernel_regularizer":null,"bias_regularizer":null,"activity_regularizer":null,"kernel_constraint":null,"bias_constraint":null,"name":"dense_Dense4344","trainable":true},"inbound_nodes":[[["dense_Dense4343",0,0,{}]]]}],"input_layers":[["input724",0,0]],"output_layers":[["dense_Dense4344",0,0]]},"keras_version":"tfjs-layers 3.9.0","backend":"tensor_flow.js"},"weightsManifest":[{"paths":["weights.bin"],"weights":[{"name":"dense_Dense4339/kernel","shape":[3,4],"dtype":"float32"},{"name":"dense_Dense4339/bias","shape":[4],"dtype":"float32"},{"name":"dense_Dense4340/kernel","shape":[4,8],"dtype":"float32"},{"name":"dense_Dense4340/bias","shape":[8],"dtype":"float32"},{"name":"dense_Dense4341/kernel","shape":[8,4],"dtype":"float32"},{"name":"dense_Dense4341/bias","shape":[4],"dtype":"float32"},{"name":"dense_Dense4342/kernel","shape":[4,1],"dtype":"float32"},{"name":"dense_Dense4342/bias","shape":[1],"dtype":"float32"},{"name":"dense_Dense4343/kernel","shape":[1,8],"dtype":"float32"},{"name":"dense_Dense4343/bias","shape":[8],"dtype":"float32"},{"name":"dense_Dense4344/kernel","shape":[8,1],"dtype":"float32"},{"name":"dense_Dense4344/bias","shape":[1],"dtype":"float32"}]}]}