{"modelTopology":{"class_name":"Model","config":{"name":"model1116","layers":[{"name":"input1116","class_name":"InputLayer","config":{"batch_input_shape":[null,3],"dtype":"float32","sparse":false,"name":"input1116"},"inbound_nodes":[]},{"name":"dense_Dense6691","class_name":"Dense","config":{"units":1,"activation":"relu","use_bias":true,"kernel_initializer":{"class_name":"VarianceScaling","config":{"scale":1,"mode":"fan_avg","distribution":"normal","seed":null}},"bias_initializer":{"class_name":"Zeros","config":{}},"kernel_regularizer":null,"bias_regularizer":null,"activity_regularizer":null,"kernel_constraint":null,"bias_constraint":null,"name":"dense_Dense6691","trainable":true},"inbound_nodes":[[["input1116",0,0,{}]]]},{"name":"dense_Dense6692","class_name":"Dense","config":{"units":32,"activation":"relu","use_bias":true,"kernel_initializer":{"class_name":"VarianceScaling","config":{"scale":1,"mode":"fan_avg","distribution":"normal","seed":null}},"bias_initializer":{"class_name":"Zeros","config":{}},"kernel_regularizer":null,"bias_regularizer":null,"activity_regularizer":null,"kernel_constraint":null,"bias_constraint":null,"name":"dense_Dense6692","trainable":true},"inbound_nodes":[[["dense_Dense6691",0,0,{}]]]},{"name":"dense_Dense6693","class_name":"Dense","config":{"units":1,"activation":"relu","use_bias":true,"kernel_initializer":{"class_name":"VarianceScaling","config":{"scale":1,"mode":"fan_avg","distribution":"normal","seed":null}},"bias_initializer":{"class_name":"Zeros","config":{}},"kernel_regularizer":null,"bias_regularizer":null,"activity_regularizer":null,"kernel_constraint":null,"bias_constraint":null,"name":"dense_Dense6693","trainable":true},"inbound_nodes":[[["dense_Dense6692",0,0,{}]]]},{"name":"dense_Dense6694","class_name":"Dense","config":{"units":32,"activation":"relu","use_bias":true,"kernel_initializer":{"class_name":"VarianceScaling","config":{"scale":1,"mode":"fan_avg","distribution":"normal","seed":null}},"bias_initializer":{"class_name":"Zeros","config":{}},"kernel_regularizer":null,"bias_regularizer":null,"activity_regularizer":null,"kernel_constraint":null,"bias_constraint":null,"name":"dense_Dense6694","trainable":true},"inbound_nodes":[[["dense_Dense6693",0,0,{}]]]},{"name":"dense_Dense6695","class_name":"Dense","config":{"units":32,"activation":"relu","use_bias":true,"kernel_initializer":{"class_name":"VarianceScaling","config":{"scale":1,"mode":"fan_avg","distribution":"normal","seed":null}},"bias_initializer":{"class_name":"Zeros","config":{}},"kernel_regularizer":null,"bias_regularizer":null,"activity_regularizer":null,"kernel_constraint":null,"bias_constraint":null,"name":"dense_Dense6695","trainable":true},"inbound_nodes":[[["dense_Dense6694",0,0,{}]]]},{"name":"dense_Dense6696","class_name":"Dense","config":{"units":1,"activation":"sigmoid","use_bias":true,"kernel_initializer":{"class_name":"VarianceScaling","config":{"scale":1,"mode":"fan_avg","distribution":"normal","seed":null}},"bias_initializer":{"class_name":"Zeros","config":{}},"kernel_regularizer":null,"bias_regularizer":null,"activity_regularizer":null,"kernel_constraint":null,"bias_constraint":null,"name":"dense_Dense6696","trainable":true},"inbound_nodes":[[["dense_Dense6695",0,0,{}]]]}],"input_layers":[["input1116",0,0]],"output_layers":[["dense_Dense6696",0,0]]},"keras_version":"tfjs-layers 3.9.0","backend":"tensor_flow.js"},"weightsManifest":[{"paths":["weights.bin"],"weights":[{"name":"dense_Dense6691/kernel","shape":[3,1],"dtype":"float32"},{"name":"dense_Dense6691/bias","shape":[1],"dtype":"float32"},{"name":"dense_Dense6692/kernel","shape":[1,32],"dtype":"float32"},{"name":"dense_Dense6692/bias","shape":[32],"dtype":"float32"},{"name":"dense_Dense6693/kernel","shape":[32,1],"dtype":"float32"},{"name":"dense_Dense6693/bias","shape":[1],"dtype":"float32"},{"name":"dense_Dense6694/kernel","shape":[1,32],"dtype":"float32"},{"name":"dense_Dense6694/bias","shape":[32],"dtype":"float32"},{"name":"dense_Dense6695/kernel","shape":[32,32],"dtype":"float32"},{"name":"dense_Dense6695/bias","shape":[32],"dtype":"float32"},{"name":"dense_Dense6696/kernel","shape":[32,1],"dtype":"float32"},{"name":"dense_Dense6696/bias","shape":[1],"dtype":"float32"}]}]}