{"modelTopology":{"class_name":"Model","config":{"name":"model642","layers":[{"name":"input642","class_name":"InputLayer","config":{"batch_input_shape":[null,3],"dtype":"float32","sparse":false,"name":"input642"},"inbound_nodes":[]},{"name":"dense_Dense3847","class_name":"Dense","config":{"units":8,"activation":"relu","use_bias":true,"kernel_initializer":{"class_name":"VarianceScaling","config":{"scale":1,"mode":"fan_avg","distribution":"normal","seed":null}},"bias_initializer":{"class_name":"Zeros","config":{}},"kernel_regularizer":null,"bias_regularizer":null,"activity_regularizer":null,"kernel_constraint":null,"bias_constraint":null,"name":"dense_Dense3847","trainable":true},"inbound_nodes":[[["input642",0,0,{}]]]},{"name":"dense_Dense3848","class_name":"Dense","config":{"units":4,"activation":"relu","use_bias":true,"kernel_initializer":{"class_name":"VarianceScaling","config":{"scale":1,"mode":"fan_avg","distribution":"normal","seed":null}},"bias_initializer":{"class_name":"Zeros","config":{}},"kernel_regularizer":null,"bias_regularizer":null,"activity_regularizer":null,"kernel_constraint":null,"bias_constraint":null,"name":"dense_Dense3848","trainable":true},"inbound_nodes":[[["dense_Dense3847",0,0,{}]]]},{"name":"dense_Dense3849","class_name":"Dense","config":{"units":32,"activation":"relu","use_bias":true,"kernel_initializer":{"class_name":"VarianceScaling","config":{"scale":1,"mode":"fan_avg","distribution":"normal","seed":null}},"bias_initializer":{"class_name":"Zeros","config":{}},"kernel_regularizer":null,"bias_regularizer":null,"activity_regularizer":null,"kernel_constraint":null,"bias_constraint":null,"name":"dense_Dense3849","trainable":true},"inbound_nodes":[[["dense_Dense3848",0,0,{}]]]},{"name":"dense_Dense3850","class_name":"Dense","config":{"units":16,"activation":"relu","use_bias":true,"kernel_initializer":{"class_name":"VarianceScaling","config":{"scale":1,"mode":"fan_avg","distribution":"normal","seed":null}},"bias_initializer":{"class_name":"Zeros","config":{}},"kernel_regularizer":null,"bias_regularizer":null,"activity_regularizer":null,"kernel_constraint":null,"bias_constraint":null,"name":"dense_Dense3850","trainable":true},"inbound_nodes":[[["dense_Dense3849",0,0,{}]]]},{"name":"dense_Dense3851","class_name":"Dense","config":{"units":32,"activation":"relu","use_bias":true,"kernel_initializer":{"class_name":"VarianceScaling","config":{"scale":1,"mode":"fan_avg","distribution":"normal","seed":null}},"bias_initializer":{"class_name":"Zeros","config":{}},"kernel_regularizer":null,"bias_regularizer":null,"activity_regularizer":null,"kernel_constraint":null,"bias_constraint":null,"name":"dense_Dense3851","trainable":true},"inbound_nodes":[[["dense_Dense3850",0,0,{}]]]},{"name":"dense_Dense3852","class_name":"Dense","config":{"units":1,"activation":"sigmoid","use_bias":true,"kernel_initializer":{"class_name":"VarianceScaling","config":{"scale":1,"mode":"fan_avg","distribution":"normal","seed":null}},"bias_initializer":{"class_name":"Zeros","config":{}},"kernel_regularizer":null,"bias_regularizer":null,"activity_regularizer":null,"kernel_constraint":null,"bias_constraint":null,"name":"dense_Dense3852","trainable":true},"inbound_nodes":[[["dense_Dense3851",0,0,{}]]]}],"input_layers":[["input642",0,0]],"output_layers":[["dense_Dense3852",0,0]]},"keras_version":"tfjs-layers 3.9.0","backend":"tensor_flow.js"},"weightsManifest":[{"paths":["weights.bin"],"weights":[{"name":"dense_Dense3847/kernel","shape":[3,8],"dtype":"float32"},{"name":"dense_Dense3847/bias","shape":[8],"dtype":"float32"},{"name":"dense_Dense3848/kernel","shape":[8,4],"dtype":"float32"},{"name":"dense_Dense3848/bias","shape":[4],"dtype":"float32"},{"name":"dense_Dense3849/kernel","shape":[4,32],"dtype":"float32"},{"name":"dense_Dense3849/bias","shape":[32],"dtype":"float32"},{"name":"dense_Dense3850/kernel","shape":[32,16],"dtype":"float32"},{"name":"dense_Dense3850/bias","shape":[16],"dtype":"float32"},{"name":"dense_Dense3851/kernel","shape":[16,32],"dtype":"float32"},{"name":"dense_Dense3851/bias","shape":[32],"dtype":"float32"},{"name":"dense_Dense3852/kernel","shape":[32,1],"dtype":"float32"},{"name":"dense_Dense3852/bias","shape":[1],"dtype":"float32"}]}]}