{"modelTopology":{"class_name":"Model","config":{"name":"model384","layers":[{"name":"input384","class_name":"InputLayer","config":{"batch_input_shape":[null,3],"dtype":"float32","sparse":false,"name":"input384"},"inbound_nodes":[]},{"name":"dense_Dense2299","class_name":"Dense","config":{"units":1,"activation":"relu","use_bias":true,"kernel_initializer":{"class_name":"VarianceScaling","config":{"scale":1,"mode":"fan_avg","distribution":"normal","seed":null}},"bias_initializer":{"class_name":"Zeros","config":{}},"kernel_regularizer":null,"bias_regularizer":null,"activity_regularizer":null,"kernel_constraint":null,"bias_constraint":null,"name":"dense_Dense2299","trainable":true},"inbound_nodes":[[["input384",0,0,{}]]]},{"name":"dense_Dense2300","class_name":"Dense","config":{"units":2,"activation":"relu","use_bias":true,"kernel_initializer":{"class_name":"VarianceScaling","config":{"scale":1,"mode":"fan_avg","distribution":"normal","seed":null}},"bias_initializer":{"class_name":"Zeros","config":{}},"kernel_regularizer":null,"bias_regularizer":null,"activity_regularizer":null,"kernel_constraint":null,"bias_constraint":null,"name":"dense_Dense2300","trainable":true},"inbound_nodes":[[["dense_Dense2299",0,0,{}]]]},{"name":"dense_Dense2301","class_name":"Dense","config":{"units":16,"activation":"relu","use_bias":true,"kernel_initializer":{"class_name":"VarianceScaling","config":{"scale":1,"mode":"fan_avg","distribution":"normal","seed":null}},"bias_initializer":{"class_name":"Zeros","config":{}},"kernel_regularizer":null,"bias_regularizer":null,"activity_regularizer":null,"kernel_constraint":null,"bias_constraint":null,"name":"dense_Dense2301","trainable":true},"inbound_nodes":[[["dense_Dense2300",0,0,{}]]]},{"name":"dense_Dense2302","class_name":"Dense","config":{"units":8,"activation":"relu","use_bias":true,"kernel_initializer":{"class_name":"VarianceScaling","config":{"scale":1,"mode":"fan_avg","distribution":"normal","seed":null}},"bias_initializer":{"class_name":"Zeros","config":{}},"kernel_regularizer":null,"bias_regularizer":null,"activity_regularizer":null,"kernel_constraint":null,"bias_constraint":null,"name":"dense_Dense2302","trainable":true},"inbound_nodes":[[["dense_Dense2301",0,0,{}]]]},{"name":"dense_Dense2303","class_name":"Dense","config":{"units":32,"activation":"relu","use_bias":true,"kernel_initializer":{"class_name":"VarianceScaling","config":{"scale":1,"mode":"fan_avg","distribution":"normal","seed":null}},"bias_initializer":{"class_name":"Zeros","config":{}},"kernel_regularizer":null,"bias_regularizer":null,"activity_regularizer":null,"kernel_constraint":null,"bias_constraint":null,"name":"dense_Dense2303","trainable":true},"inbound_nodes":[[["dense_Dense2302",0,0,{}]]]},{"name":"dense_Dense2304","class_name":"Dense","config":{"units":1,"activation":"sigmoid","use_bias":true,"kernel_initializer":{"class_name":"VarianceScaling","config":{"scale":1,"mode":"fan_avg","distribution":"normal","seed":null}},"bias_initializer":{"class_name":"Zeros","config":{}},"kernel_regularizer":null,"bias_regularizer":null,"activity_regularizer":null,"kernel_constraint":null,"bias_constraint":null,"name":"dense_Dense2304","trainable":true},"inbound_nodes":[[["dense_Dense2303",0,0,{}]]]}],"input_layers":[["input384",0,0]],"output_layers":[["dense_Dense2304",0,0]]},"keras_version":"tfjs-layers 3.9.0","backend":"tensor_flow.js"},"weightsManifest":[{"paths":["weights.bin"],"weights":[{"name":"dense_Dense2299/kernel","shape":[3,1],"dtype":"float32"},{"name":"dense_Dense2299/bias","shape":[1],"dtype":"float32"},{"name":"dense_Dense2300/kernel","shape":[1,2],"dtype":"float32"},{"name":"dense_Dense2300/bias","shape":[2],"dtype":"float32"},{"name":"dense_Dense2301/kernel","shape":[2,16],"dtype":"float32"},{"name":"dense_Dense2301/bias","shape":[16],"dtype":"float32"},{"name":"dense_Dense2302/kernel","shape":[16,8],"dtype":"float32"},{"name":"dense_Dense2302/bias","shape":[8],"dtype":"float32"},{"name":"dense_Dense2303/kernel","shape":[8,32],"dtype":"float32"},{"name":"dense_Dense2303/bias","shape":[32],"dtype":"float32"},{"name":"dense_Dense2304/kernel","shape":[32,1],"dtype":"float32"},{"name":"dense_Dense2304/bias","shape":[1],"dtype":"float32"}]}]}