{"modelTopology":{"class_name":"Model","config":{"name":"model424","layers":[{"name":"input424","class_name":"InputLayer","config":{"batch_input_shape":[null,3],"dtype":"float32","sparse":false,"name":"input424"},"inbound_nodes":[]},{"name":"dense_Dense2116","class_name":"Dense","config":{"units":2,"activation":"relu","use_bias":true,"kernel_initializer":{"class_name":"VarianceScaling","config":{"scale":1,"mode":"fan_avg","distribution":"normal","seed":null}},"bias_initializer":{"class_name":"Zeros","config":{}},"kernel_regularizer":null,"bias_regularizer":null,"activity_regularizer":null,"kernel_constraint":null,"bias_constraint":null,"name":"dense_Dense2116","trainable":true},"inbound_nodes":[[["input424",0,0,{}]]]},{"name":"dense_Dense2117","class_name":"Dense","config":{"units":32,"activation":"relu","use_bias":true,"kernel_initializer":{"class_name":"VarianceScaling","config":{"scale":1,"mode":"fan_avg","distribution":"normal","seed":null}},"bias_initializer":{"class_name":"Zeros","config":{}},"kernel_regularizer":null,"bias_regularizer":null,"activity_regularizer":null,"kernel_constraint":null,"bias_constraint":null,"name":"dense_Dense2117","trainable":true},"inbound_nodes":[[["dense_Dense2116",0,0,{}]]]},{"name":"dense_Dense2118","class_name":"Dense","config":{"units":16,"activation":"relu","use_bias":true,"kernel_initializer":{"class_name":"VarianceScaling","config":{"scale":1,"mode":"fan_avg","distribution":"normal","seed":null}},"bias_initializer":{"class_name":"Zeros","config":{}},"kernel_regularizer":null,"bias_regularizer":null,"activity_regularizer":null,"kernel_constraint":null,"bias_constraint":null,"name":"dense_Dense2118","trainable":true},"inbound_nodes":[[["dense_Dense2117",0,0,{}]]]},{"name":"dense_Dense2119","class_name":"Dense","config":{"units":8,"activation":"relu","use_bias":true,"kernel_initializer":{"class_name":"VarianceScaling","config":{"scale":1,"mode":"fan_avg","distribution":"normal","seed":null}},"bias_initializer":{"class_name":"Zeros","config":{}},"kernel_regularizer":null,"bias_regularizer":null,"activity_regularizer":null,"kernel_constraint":null,"bias_constraint":null,"name":"dense_Dense2119","trainable":true},"inbound_nodes":[[["dense_Dense2118",0,0,{}]]]},{"name":"dense_Dense2120","class_name":"Dense","config":{"units":1,"activation":"sigmoid","use_bias":true,"kernel_initializer":{"class_name":"VarianceScaling","config":{"scale":1,"mode":"fan_avg","distribution":"normal","seed":null}},"bias_initializer":{"class_name":"Zeros","config":{}},"kernel_regularizer":null,"bias_regularizer":null,"activity_regularizer":null,"kernel_constraint":null,"bias_constraint":null,"name":"dense_Dense2120","trainable":true},"inbound_nodes":[[["dense_Dense2119",0,0,{}]]]}],"input_layers":[["input424",0,0]],"output_layers":[["dense_Dense2120",0,0]]},"keras_version":"tfjs-layers 3.9.0","backend":"tensor_flow.js"},"weightsManifest":[{"paths":["weights.bin"],"weights":[{"name":"dense_Dense2116/kernel","shape":[3,2],"dtype":"float32"},{"name":"dense_Dense2116/bias","shape":[2],"dtype":"float32"},{"name":"dense_Dense2117/kernel","shape":[2,32],"dtype":"float32"},{"name":"dense_Dense2117/bias","shape":[32],"dtype":"float32"},{"name":"dense_Dense2118/kernel","shape":[32,16],"dtype":"float32"},{"name":"dense_Dense2118/bias","shape":[16],"dtype":"float32"},{"name":"dense_Dense2119/kernel","shape":[16,8],"dtype":"float32"},{"name":"dense_Dense2119/bias","shape":[8],"dtype":"float32"},{"name":"dense_Dense2120/kernel","shape":[8,1],"dtype":"float32"},{"name":"dense_Dense2120/bias","shape":[1],"dtype":"float32"}]}]}