{"modelTopology":{"class_name":"Model","config":{"name":"model25","layers":[{"name":"input25","class_name":"InputLayer","config":{"batch_input_shape":[null,3],"dtype":"float32","sparse":false,"name":"input25"},"inbound_nodes":[]},{"name":"dense_Dense145","class_name":"Dense","config":{"units":32,"activation":"relu","use_bias":true,"kernel_initializer":{"class_name":"VarianceScaling","config":{"scale":1,"mode":"fan_avg","distribution":"normal","seed":null}},"bias_initializer":{"class_name":"Zeros","config":{}},"kernel_regularizer":null,"bias_regularizer":null,"activity_regularizer":null,"kernel_constraint":null,"bias_constraint":null,"name":"dense_Dense145","trainable":true},"inbound_nodes":[[["input25",0,0,{}]]]},{"name":"dense_Dense146","class_name":"Dense","config":{"units":1,"activation":"relu","use_bias":true,"kernel_initializer":{"class_name":"VarianceScaling","config":{"scale":1,"mode":"fan_avg","distribution":"normal","seed":null}},"bias_initializer":{"class_name":"Zeros","config":{}},"kernel_regularizer":null,"bias_regularizer":null,"activity_regularizer":null,"kernel_constraint":null,"bias_constraint":null,"name":"dense_Dense146","trainable":true},"inbound_nodes":[[["dense_Dense145",0,0,{}]]]},{"name":"dense_Dense147","class_name":"Dense","config":{"units":1,"activation":"relu","use_bias":true,"kernel_initializer":{"class_name":"VarianceScaling","config":{"scale":1,"mode":"fan_avg","distribution":"normal","seed":null}},"bias_initializer":{"class_name":"Zeros","config":{}},"kernel_regularizer":null,"bias_regularizer":null,"activity_regularizer":null,"kernel_constraint":null,"bias_constraint":null,"name":"dense_Dense147","trainable":true},"inbound_nodes":[[["dense_Dense146",0,0,{}]]]},{"name":"dense_Dense148","class_name":"Dense","config":{"units":16,"activation":"relu","use_bias":true,"kernel_initializer":{"class_name":"VarianceScaling","config":{"scale":1,"mode":"fan_avg","distribution":"normal","seed":null}},"bias_initializer":{"class_name":"Zeros","config":{}},"kernel_regularizer":null,"bias_regularizer":null,"activity_regularizer":null,"kernel_constraint":null,"bias_constraint":null,"name":"dense_Dense148","trainable":true},"inbound_nodes":[[["dense_Dense147",0,0,{}]]]},{"name":"dense_Dense149","class_name":"Dense","config":{"units":1,"activation":"relu","use_bias":true,"kernel_initializer":{"class_name":"VarianceScaling","config":{"scale":1,"mode":"fan_avg","distribution":"normal","seed":null}},"bias_initializer":{"class_name":"Zeros","config":{}},"kernel_regularizer":null,"bias_regularizer":null,"activity_regularizer":null,"kernel_constraint":null,"bias_constraint":null,"name":"dense_Dense149","trainable":true},"inbound_nodes":[[["dense_Dense148",0,0,{}]]]},{"name":"dense_Dense150","class_name":"Dense","config":{"units":1,"activation":"sigmoid","use_bias":true,"kernel_initializer":{"class_name":"VarianceScaling","config":{"scale":1,"mode":"fan_avg","distribution":"normal","seed":null}},"bias_initializer":{"class_name":"Zeros","config":{}},"kernel_regularizer":null,"bias_regularizer":null,"activity_regularizer":null,"kernel_constraint":null,"bias_constraint":null,"name":"dense_Dense150","trainable":true},"inbound_nodes":[[["dense_Dense149",0,0,{}]]]}],"input_layers":[["input25",0,0]],"output_layers":[["dense_Dense150",0,0]]},"keras_version":"tfjs-layers 3.9.0","backend":"tensor_flow.js"},"weightsManifest":[{"paths":["weights.bin"],"weights":[{"name":"dense_Dense145/kernel","shape":[3,32],"dtype":"float32"},{"name":"dense_Dense145/bias","shape":[32],"dtype":"float32"},{"name":"dense_Dense146/kernel","shape":[32,1],"dtype":"float32"},{"name":"dense_Dense146/bias","shape":[1],"dtype":"float32"},{"name":"dense_Dense147/kernel","shape":[1,1],"dtype":"float32"},{"name":"dense_Dense147/bias","shape":[1],"dtype":"float32"},{"name":"dense_Dense148/kernel","shape":[1,16],"dtype":"float32"},{"name":"dense_Dense148/bias","shape":[16],"dtype":"float32"},{"name":"dense_Dense149/kernel","shape":[16,1],"dtype":"float32"},{"name":"dense_Dense149/bias","shape":[1],"dtype":"float32"},{"name":"dense_Dense150/kernel","shape":[1,1],"dtype":"float32"},{"name":"dense_Dense150/bias","shape":[1],"dtype":"float32"}]}]}