{"modelTopology":{"class_name":"Model","config":{"name":"model461","layers":[{"name":"input461","class_name":"InputLayer","config":{"batch_input_shape":[null,3],"dtype":"float32","sparse":false,"name":"input461"},"inbound_nodes":[]},{"name":"dense_Dense2761","class_name":"Dense","config":{"units":32,"activation":"relu","use_bias":true,"kernel_initializer":{"class_name":"VarianceScaling","config":{"scale":1,"mode":"fan_avg","distribution":"normal","seed":null}},"bias_initializer":{"class_name":"Zeros","config":{}},"kernel_regularizer":null,"bias_regularizer":null,"activity_regularizer":null,"kernel_constraint":null,"bias_constraint":null,"name":"dense_Dense2761","trainable":true},"inbound_nodes":[[["input461",0,0,{}]]]},{"name":"dense_Dense2762","class_name":"Dense","config":{"units":4,"activation":"relu","use_bias":true,"kernel_initializer":{"class_name":"VarianceScaling","config":{"scale":1,"mode":"fan_avg","distribution":"normal","seed":null}},"bias_initializer":{"class_name":"Zeros","config":{}},"kernel_regularizer":null,"bias_regularizer":null,"activity_regularizer":null,"kernel_constraint":null,"bias_constraint":null,"name":"dense_Dense2762","trainable":true},"inbound_nodes":[[["dense_Dense2761",0,0,{}]]]},{"name":"dense_Dense2763","class_name":"Dense","config":{"units":1,"activation":"relu","use_bias":true,"kernel_initializer":{"class_name":"VarianceScaling","config":{"scale":1,"mode":"fan_avg","distribution":"normal","seed":null}},"bias_initializer":{"class_name":"Zeros","config":{}},"kernel_regularizer":null,"bias_regularizer":null,"activity_regularizer":null,"kernel_constraint":null,"bias_constraint":null,"name":"dense_Dense2763","trainable":true},"inbound_nodes":[[["dense_Dense2762",0,0,{}]]]},{"name":"dense_Dense2764","class_name":"Dense","config":{"units":16,"activation":"relu","use_bias":true,"kernel_initializer":{"class_name":"VarianceScaling","config":{"scale":1,"mode":"fan_avg","distribution":"normal","seed":null}},"bias_initializer":{"class_name":"Zeros","config":{}},"kernel_regularizer":null,"bias_regularizer":null,"activity_regularizer":null,"kernel_constraint":null,"bias_constraint":null,"name":"dense_Dense2764","trainable":true},"inbound_nodes":[[["dense_Dense2763",0,0,{}]]]},{"name":"dense_Dense2765","class_name":"Dense","config":{"units":16,"activation":"relu","use_bias":true,"kernel_initializer":{"class_name":"VarianceScaling","config":{"scale":1,"mode":"fan_avg","distribution":"normal","seed":null}},"bias_initializer":{"class_name":"Zeros","config":{}},"kernel_regularizer":null,"bias_regularizer":null,"activity_regularizer":null,"kernel_constraint":null,"bias_constraint":null,"name":"dense_Dense2765","trainable":true},"inbound_nodes":[[["dense_Dense2764",0,0,{}]]]},{"name":"dense_Dense2766","class_name":"Dense","config":{"units":1,"activation":"sigmoid","use_bias":true,"kernel_initializer":{"class_name":"VarianceScaling","config":{"scale":1,"mode":"fan_avg","distribution":"normal","seed":null}},"bias_initializer":{"class_name":"Zeros","config":{}},"kernel_regularizer":null,"bias_regularizer":null,"activity_regularizer":null,"kernel_constraint":null,"bias_constraint":null,"name":"dense_Dense2766","trainable":true},"inbound_nodes":[[["dense_Dense2765",0,0,{}]]]}],"input_layers":[["input461",0,0]],"output_layers":[["dense_Dense2766",0,0]]},"keras_version":"tfjs-layers 3.9.0","backend":"tensor_flow.js"},"weightsManifest":[{"paths":["weights.bin"],"weights":[{"name":"dense_Dense2761/kernel","shape":[3,32],"dtype":"float32"},{"name":"dense_Dense2761/bias","shape":[32],"dtype":"float32"},{"name":"dense_Dense2762/kernel","shape":[32,4],"dtype":"float32"},{"name":"dense_Dense2762/bias","shape":[4],"dtype":"float32"},{"name":"dense_Dense2763/kernel","shape":[4,1],"dtype":"float32"},{"name":"dense_Dense2763/bias","shape":[1],"dtype":"float32"},{"name":"dense_Dense2764/kernel","shape":[1,16],"dtype":"float32"},{"name":"dense_Dense2764/bias","shape":[16],"dtype":"float32"},{"name":"dense_Dense2765/kernel","shape":[16,16],"dtype":"float32"},{"name":"dense_Dense2765/bias","shape":[16],"dtype":"float32"},{"name":"dense_Dense2766/kernel","shape":[16,1],"dtype":"float32"},{"name":"dense_Dense2766/bias","shape":[1],"dtype":"float32"}]}]}