{"modelTopology":{"class_name":"Model","config":{"name":"model403","layers":[{"name":"input403","class_name":"InputLayer","config":{"batch_input_shape":[null,3],"dtype":"float32","sparse":false,"name":"input403"},"inbound_nodes":[]},{"name":"dense_Dense2413","class_name":"Dense","config":{"units":8,"activation":"relu","use_bias":true,"kernel_initializer":{"class_name":"VarianceScaling","config":{"scale":1,"mode":"fan_avg","distribution":"normal","seed":null}},"bias_initializer":{"class_name":"Zeros","config":{}},"kernel_regularizer":null,"bias_regularizer":null,"activity_regularizer":null,"kernel_constraint":null,"bias_constraint":null,"name":"dense_Dense2413","trainable":true},"inbound_nodes":[[["input403",0,0,{}]]]},{"name":"dense_Dense2414","class_name":"Dense","config":{"units":2,"activation":"relu","use_bias":true,"kernel_initializer":{"class_name":"VarianceScaling","config":{"scale":1,"mode":"fan_avg","distribution":"normal","seed":null}},"bias_initializer":{"class_name":"Zeros","config":{}},"kernel_regularizer":null,"bias_regularizer":null,"activity_regularizer":null,"kernel_constraint":null,"bias_constraint":null,"name":"dense_Dense2414","trainable":true},"inbound_nodes":[[["dense_Dense2413",0,0,{}]]]},{"name":"dense_Dense2415","class_name":"Dense","config":{"units":32,"activation":"relu","use_bias":true,"kernel_initializer":{"class_name":"VarianceScaling","config":{"scale":1,"mode":"fan_avg","distribution":"normal","seed":null}},"bias_initializer":{"class_name":"Zeros","config":{}},"kernel_regularizer":null,"bias_regularizer":null,"activity_regularizer":null,"kernel_constraint":null,"bias_constraint":null,"name":"dense_Dense2415","trainable":true},"inbound_nodes":[[["dense_Dense2414",0,0,{}]]]},{"name":"dense_Dense2416","class_name":"Dense","config":{"units":2,"activation":"relu","use_bias":true,"kernel_initializer":{"class_name":"VarianceScaling","config":{"scale":1,"mode":"fan_avg","distribution":"normal","seed":null}},"bias_initializer":{"class_name":"Zeros","config":{}},"kernel_regularizer":null,"bias_regularizer":null,"activity_regularizer":null,"kernel_constraint":null,"bias_constraint":null,"name":"dense_Dense2416","trainable":true},"inbound_nodes":[[["dense_Dense2415",0,0,{}]]]},{"name":"dense_Dense2417","class_name":"Dense","config":{"units":1,"activation":"relu","use_bias":true,"kernel_initializer":{"class_name":"VarianceScaling","config":{"scale":1,"mode":"fan_avg","distribution":"normal","seed":null}},"bias_initializer":{"class_name":"Zeros","config":{}},"kernel_regularizer":null,"bias_regularizer":null,"activity_regularizer":null,"kernel_constraint":null,"bias_constraint":null,"name":"dense_Dense2417","trainable":true},"inbound_nodes":[[["dense_Dense2416",0,0,{}]]]},{"name":"dense_Dense2418","class_name":"Dense","config":{"units":1,"activation":"sigmoid","use_bias":true,"kernel_initializer":{"class_name":"VarianceScaling","config":{"scale":1,"mode":"fan_avg","distribution":"normal","seed":null}},"bias_initializer":{"class_name":"Zeros","config":{}},"kernel_regularizer":null,"bias_regularizer":null,"activity_regularizer":null,"kernel_constraint":null,"bias_constraint":null,"name":"dense_Dense2418","trainable":true},"inbound_nodes":[[["dense_Dense2417",0,0,{}]]]}],"input_layers":[["input403",0,0]],"output_layers":[["dense_Dense2418",0,0]]},"keras_version":"tfjs-layers 3.9.0","backend":"tensor_flow.js"},"weightsManifest":[{"paths":["weights.bin"],"weights":[{"name":"dense_Dense2413/kernel","shape":[3,8],"dtype":"float32"},{"name":"dense_Dense2413/bias","shape":[8],"dtype":"float32"},{"name":"dense_Dense2414/kernel","shape":[8,2],"dtype":"float32"},{"name":"dense_Dense2414/bias","shape":[2],"dtype":"float32"},{"name":"dense_Dense2415/kernel","shape":[2,32],"dtype":"float32"},{"name":"dense_Dense2415/bias","shape":[32],"dtype":"float32"},{"name":"dense_Dense2416/kernel","shape":[32,2],"dtype":"float32"},{"name":"dense_Dense2416/bias","shape":[2],"dtype":"float32"},{"name":"dense_Dense2417/kernel","shape":[2,1],"dtype":"float32"},{"name":"dense_Dense2417/bias","shape":[1],"dtype":"float32"},{"name":"dense_Dense2418/kernel","shape":[1,1],"dtype":"float32"},{"name":"dense_Dense2418/bias","shape":[1],"dtype":"float32"}]}]}