{"modelTopology":{"class_name":"Model","config":{"name":"model709","layers":[{"name":"input709","class_name":"InputLayer","config":{"batch_input_shape":[null,3],"dtype":"float32","sparse":false,"name":"input709"},"inbound_nodes":[]},{"name":"dense_Dense3541","class_name":"Dense","config":{"units":8,"activation":"relu","use_bias":true,"kernel_initializer":{"class_name":"VarianceScaling","config":{"scale":1,"mode":"fan_avg","distribution":"normal","seed":null}},"bias_initializer":{"class_name":"Zeros","config":{}},"kernel_regularizer":null,"bias_regularizer":null,"activity_regularizer":null,"kernel_constraint":null,"bias_constraint":null,"name":"dense_Dense3541","trainable":true},"inbound_nodes":[[["input709",0,0,{}]]]},{"name":"dense_Dense3542","class_name":"Dense","config":{"units":2,"activation":"relu","use_bias":true,"kernel_initializer":{"class_name":"VarianceScaling","config":{"scale":1,"mode":"fan_avg","distribution":"normal","seed":null}},"bias_initializer":{"class_name":"Zeros","config":{}},"kernel_regularizer":null,"bias_regularizer":null,"activity_regularizer":null,"kernel_constraint":null,"bias_constraint":null,"name":"dense_Dense3542","trainable":true},"inbound_nodes":[[["dense_Dense3541",0,0,{}]]]},{"name":"dense_Dense3543","class_name":"Dense","config":{"units":16,"activation":"relu","use_bias":true,"kernel_initializer":{"class_name":"VarianceScaling","config":{"scale":1,"mode":"fan_avg","distribution":"normal","seed":null}},"bias_initializer":{"class_name":"Zeros","config":{}},"kernel_regularizer":null,"bias_regularizer":null,"activity_regularizer":null,"kernel_constraint":null,"bias_constraint":null,"name":"dense_Dense3543","trainable":true},"inbound_nodes":[[["dense_Dense3542",0,0,{}]]]},{"name":"dense_Dense3544","class_name":"Dense","config":{"units":1,"activation":"relu","use_bias":true,"kernel_initializer":{"class_name":"VarianceScaling","config":{"scale":1,"mode":"fan_avg","distribution":"normal","seed":null}},"bias_initializer":{"class_name":"Zeros","config":{}},"kernel_regularizer":null,"bias_regularizer":null,"activity_regularizer":null,"kernel_constraint":null,"bias_constraint":null,"name":"dense_Dense3544","trainable":true},"inbound_nodes":[[["dense_Dense3543",0,0,{}]]]},{"name":"dense_Dense3545","class_name":"Dense","config":{"units":1,"activation":"sigmoid","use_bias":true,"kernel_initializer":{"class_name":"VarianceScaling","config":{"scale":1,"mode":"fan_avg","distribution":"normal","seed":null}},"bias_initializer":{"class_name":"Zeros","config":{}},"kernel_regularizer":null,"bias_regularizer":null,"activity_regularizer":null,"kernel_constraint":null,"bias_constraint":null,"name":"dense_Dense3545","trainable":true},"inbound_nodes":[[["dense_Dense3544",0,0,{}]]]}],"input_layers":[["input709",0,0]],"output_layers":[["dense_Dense3545",0,0]]},"keras_version":"tfjs-layers 3.9.0","backend":"tensor_flow.js"},"weightsManifest":[{"paths":["weights.bin"],"weights":[{"name":"dense_Dense3541/kernel","shape":[3,8],"dtype":"float32"},{"name":"dense_Dense3541/bias","shape":[8],"dtype":"float32"},{"name":"dense_Dense3542/kernel","shape":[8,2],"dtype":"float32"},{"name":"dense_Dense3542/bias","shape":[2],"dtype":"float32"},{"name":"dense_Dense3543/kernel","shape":[2,16],"dtype":"float32"},{"name":"dense_Dense3543/bias","shape":[16],"dtype":"float32"},{"name":"dense_Dense3544/kernel","shape":[16,1],"dtype":"float32"},{"name":"dense_Dense3544/bias","shape":[1],"dtype":"float32"},{"name":"dense_Dense3545/kernel","shape":[1,1],"dtype":"float32"},{"name":"dense_Dense3545/bias","shape":[1],"dtype":"float32"}]}]}