{"modelTopology":{"class_name":"Model","config":{"name":"model707","layers":[{"name":"input707","class_name":"InputLayer","config":{"batch_input_shape":[null,3],"dtype":"float32","sparse":false,"name":"input707"},"inbound_nodes":[]},{"name":"dense_Dense3531","class_name":"Dense","config":{"units":8,"activation":"relu","use_bias":true,"kernel_initializer":{"class_name":"VarianceScaling","config":{"scale":1,"mode":"fan_avg","distribution":"normal","seed":null}},"bias_initializer":{"class_name":"Zeros","config":{}},"kernel_regularizer":null,"bias_regularizer":null,"activity_regularizer":null,"kernel_constraint":null,"bias_constraint":null,"name":"dense_Dense3531","trainable":true},"inbound_nodes":[[["input707",0,0,{}]]]},{"name":"dense_Dense3532","class_name":"Dense","config":{"units":2,"activation":"relu","use_bias":true,"kernel_initializer":{"class_name":"VarianceScaling","config":{"scale":1,"mode":"fan_avg","distribution":"normal","seed":null}},"bias_initializer":{"class_name":"Zeros","config":{}},"kernel_regularizer":null,"bias_regularizer":null,"activity_regularizer":null,"kernel_constraint":null,"bias_constraint":null,"name":"dense_Dense3532","trainable":true},"inbound_nodes":[[["dense_Dense3531",0,0,{}]]]},{"name":"dense_Dense3533","class_name":"Dense","config":{"units":8,"activation":"relu","use_bias":true,"kernel_initializer":{"class_name":"VarianceScaling","config":{"scale":1,"mode":"fan_avg","distribution":"normal","seed":null}},"bias_initializer":{"class_name":"Zeros","config":{}},"kernel_regularizer":null,"bias_regularizer":null,"activity_regularizer":null,"kernel_constraint":null,"bias_constraint":null,"name":"dense_Dense3533","trainable":true},"inbound_nodes":[[["dense_Dense3532",0,0,{}]]]},{"name":"dense_Dense3534","class_name":"Dense","config":{"units":16,"activation":"relu","use_bias":true,"kernel_initializer":{"class_name":"VarianceScaling","config":{"scale":1,"mode":"fan_avg","distribution":"normal","seed":null}},"bias_initializer":{"class_name":"Zeros","config":{}},"kernel_regularizer":null,"bias_regularizer":null,"activity_regularizer":null,"kernel_constraint":null,"bias_constraint":null,"name":"dense_Dense3534","trainable":true},"inbound_nodes":[[["dense_Dense3533",0,0,{}]]]},{"name":"dense_Dense3535","class_name":"Dense","config":{"units":1,"activation":"sigmoid","use_bias":true,"kernel_initializer":{"class_name":"VarianceScaling","config":{"scale":1,"mode":"fan_avg","distribution":"normal","seed":null}},"bias_initializer":{"class_name":"Zeros","config":{}},"kernel_regularizer":null,"bias_regularizer":null,"activity_regularizer":null,"kernel_constraint":null,"bias_constraint":null,"name":"dense_Dense3535","trainable":true},"inbound_nodes":[[["dense_Dense3534",0,0,{}]]]}],"input_layers":[["input707",0,0]],"output_layers":[["dense_Dense3535",0,0]]},"keras_version":"tfjs-layers 3.9.0","backend":"tensor_flow.js"},"weightsManifest":[{"paths":["weights.bin"],"weights":[{"name":"dense_Dense3531/kernel","shape":[3,8],"dtype":"float32"},{"name":"dense_Dense3531/bias","shape":[8],"dtype":"float32"},{"name":"dense_Dense3532/kernel","shape":[8,2],"dtype":"float32"},{"name":"dense_Dense3532/bias","shape":[2],"dtype":"float32"},{"name":"dense_Dense3533/kernel","shape":[2,8],"dtype":"float32"},{"name":"dense_Dense3533/bias","shape":[8],"dtype":"float32"},{"name":"dense_Dense3534/kernel","shape":[8,16],"dtype":"float32"},{"name":"dense_Dense3534/bias","shape":[16],"dtype":"float32"},{"name":"dense_Dense3535/kernel","shape":[16,1],"dtype":"float32"},{"name":"dense_Dense3535/bias","shape":[1],"dtype":"float32"}]}]}