{"modelTopology":{"class_name":"Model","config":{"name":"model859","layers":[{"name":"input859","class_name":"InputLayer","config":{"batch_input_shape":[null,3],"dtype":"float32","sparse":false,"name":"input859"},"inbound_nodes":[]},{"name":"dense_Dense4291","class_name":"Dense","config":{"units":8,"activation":"relu","use_bias":true,"kernel_initializer":{"class_name":"VarianceScaling","config":{"scale":1,"mode":"fan_avg","distribution":"normal","seed":null}},"bias_initializer":{"class_name":"Zeros","config":{}},"kernel_regularizer":null,"bias_regularizer":null,"activity_regularizer":null,"kernel_constraint":null,"bias_constraint":null,"name":"dense_Dense4291","trainable":true},"inbound_nodes":[[["input859",0,0,{}]]]},{"name":"dense_Dense4292","class_name":"Dense","config":{"units":32,"activation":"relu","use_bias":true,"kernel_initializer":{"class_name":"VarianceScaling","config":{"scale":1,"mode":"fan_avg","distribution":"normal","seed":null}},"bias_initializer":{"class_name":"Zeros","config":{}},"kernel_regularizer":null,"bias_regularizer":null,"activity_regularizer":null,"kernel_constraint":null,"bias_constraint":null,"name":"dense_Dense4292","trainable":true},"inbound_nodes":[[["dense_Dense4291",0,0,{}]]]},{"name":"dense_Dense4293","class_name":"Dense","config":{"units":32,"activation":"relu","use_bias":true,"kernel_initializer":{"class_name":"VarianceScaling","config":{"scale":1,"mode":"fan_avg","distribution":"normal","seed":null}},"bias_initializer":{"class_name":"Zeros","config":{}},"kernel_regularizer":null,"bias_regularizer":null,"activity_regularizer":null,"kernel_constraint":null,"bias_constraint":null,"name":"dense_Dense4293","trainable":true},"inbound_nodes":[[["dense_Dense4292",0,0,{}]]]},{"name":"dense_Dense4294","class_name":"Dense","config":{"units":1,"activation":"relu","use_bias":true,"kernel_initializer":{"class_name":"VarianceScaling","config":{"scale":1,"mode":"fan_avg","distribution":"normal","seed":null}},"bias_initializer":{"class_name":"Zeros","config":{}},"kernel_regularizer":null,"bias_regularizer":null,"activity_regularizer":null,"kernel_constraint":null,"bias_constraint":null,"name":"dense_Dense4294","trainable":true},"inbound_nodes":[[["dense_Dense4293",0,0,{}]]]},{"name":"dense_Dense4295","class_name":"Dense","config":{"units":1,"activation":"sigmoid","use_bias":true,"kernel_initializer":{"class_name":"VarianceScaling","config":{"scale":1,"mode":"fan_avg","distribution":"normal","seed":null}},"bias_initializer":{"class_name":"Zeros","config":{}},"kernel_regularizer":null,"bias_regularizer":null,"activity_regularizer":null,"kernel_constraint":null,"bias_constraint":null,"name":"dense_Dense4295","trainable":true},"inbound_nodes":[[["dense_Dense4294",0,0,{}]]]}],"input_layers":[["input859",0,0]],"output_layers":[["dense_Dense4295",0,0]]},"keras_version":"tfjs-layers 3.9.0","backend":"tensor_flow.js"},"weightsManifest":[{"paths":["weights.bin"],"weights":[{"name":"dense_Dense4291/kernel","shape":[3,8],"dtype":"float32"},{"name":"dense_Dense4291/bias","shape":[8],"dtype":"float32"},{"name":"dense_Dense4292/kernel","shape":[8,32],"dtype":"float32"},{"name":"dense_Dense4292/bias","shape":[32],"dtype":"float32"},{"name":"dense_Dense4293/kernel","shape":[32,32],"dtype":"float32"},{"name":"dense_Dense4293/bias","shape":[32],"dtype":"float32"},{"name":"dense_Dense4294/kernel","shape":[32,1],"dtype":"float32"},{"name":"dense_Dense4294/bias","shape":[1],"dtype":"float32"},{"name":"dense_Dense4295/kernel","shape":[1,1],"dtype":"float32"},{"name":"dense_Dense4295/bias","shape":[1],"dtype":"float32"}]}]}