{"modelTopology":{"class_name":"Model","config":{"name":"model660","layers":[{"name":"input660","class_name":"InputLayer","config":{"batch_input_shape":[null,3],"dtype":"float32","sparse":false,"name":"input660"},"inbound_nodes":[]},{"name":"dense_Dense3955","class_name":"Dense","config":{"units":1,"activation":"relu","use_bias":true,"kernel_initializer":{"class_name":"VarianceScaling","config":{"scale":1,"mode":"fan_avg","distribution":"normal","seed":null}},"bias_initializer":{"class_name":"Zeros","config":{}},"kernel_regularizer":null,"bias_regularizer":null,"activity_regularizer":null,"kernel_constraint":null,"bias_constraint":null,"name":"dense_Dense3955","trainable":true},"inbound_nodes":[[["input660",0,0,{}]]]},{"name":"dense_Dense3956","class_name":"Dense","config":{"units":8,"activation":"relu","use_bias":true,"kernel_initializer":{"class_name":"VarianceScaling","config":{"scale":1,"mode":"fan_avg","distribution":"normal","seed":null}},"bias_initializer":{"class_name":"Zeros","config":{}},"kernel_regularizer":null,"bias_regularizer":null,"activity_regularizer":null,"kernel_constraint":null,"bias_constraint":null,"name":"dense_Dense3956","trainable":true},"inbound_nodes":[[["dense_Dense3955",0,0,{}]]]},{"name":"dense_Dense3957","class_name":"Dense","config":{"units":1,"activation":"relu","use_bias":true,"kernel_initializer":{"class_name":"VarianceScaling","config":{"scale":1,"mode":"fan_avg","distribution":"normal","seed":null}},"bias_initializer":{"class_name":"Zeros","config":{}},"kernel_regularizer":null,"bias_regularizer":null,"activity_regularizer":null,"kernel_constraint":null,"bias_constraint":null,"name":"dense_Dense3957","trainable":true},"inbound_nodes":[[["dense_Dense3956",0,0,{}]]]},{"name":"dense_Dense3958","class_name":"Dense","config":{"units":2,"activation":"relu","use_bias":true,"kernel_initializer":{"class_name":"VarianceScaling","config":{"scale":1,"mode":"fan_avg","distribution":"normal","seed":null}},"bias_initializer":{"class_name":"Zeros","config":{}},"kernel_regularizer":null,"bias_regularizer":null,"activity_regularizer":null,"kernel_constraint":null,"bias_constraint":null,"name":"dense_Dense3958","trainable":true},"inbound_nodes":[[["dense_Dense3957",0,0,{}]]]},{"name":"dense_Dense3959","class_name":"Dense","config":{"units":32,"activation":"relu","use_bias":true,"kernel_initializer":{"class_name":"VarianceScaling","config":{"scale":1,"mode":"fan_avg","distribution":"normal","seed":null}},"bias_initializer":{"class_name":"Zeros","config":{}},"kernel_regularizer":null,"bias_regularizer":null,"activity_regularizer":null,"kernel_constraint":null,"bias_constraint":null,"name":"dense_Dense3959","trainable":true},"inbound_nodes":[[["dense_Dense3958",0,0,{}]]]},{"name":"dense_Dense3960","class_name":"Dense","config":{"units":1,"activation":"sigmoid","use_bias":true,"kernel_initializer":{"class_name":"VarianceScaling","config":{"scale":1,"mode":"fan_avg","distribution":"normal","seed":null}},"bias_initializer":{"class_name":"Zeros","config":{}},"kernel_regularizer":null,"bias_regularizer":null,"activity_regularizer":null,"kernel_constraint":null,"bias_constraint":null,"name":"dense_Dense3960","trainable":true},"inbound_nodes":[[["dense_Dense3959",0,0,{}]]]}],"input_layers":[["input660",0,0]],"output_layers":[["dense_Dense3960",0,0]]},"keras_version":"tfjs-layers 3.9.0","backend":"tensor_flow.js"},"weightsManifest":[{"paths":["weights.bin"],"weights":[{"name":"dense_Dense3955/kernel","shape":[3,1],"dtype":"float32"},{"name":"dense_Dense3955/bias","shape":[1],"dtype":"float32"},{"name":"dense_Dense3956/kernel","shape":[1,8],"dtype":"float32"},{"name":"dense_Dense3956/bias","shape":[8],"dtype":"float32"},{"name":"dense_Dense3957/kernel","shape":[8,1],"dtype":"float32"},{"name":"dense_Dense3957/bias","shape":[1],"dtype":"float32"},{"name":"dense_Dense3958/kernel","shape":[1,2],"dtype":"float32"},{"name":"dense_Dense3958/bias","shape":[2],"dtype":"float32"},{"name":"dense_Dense3959/kernel","shape":[2,32],"dtype":"float32"},{"name":"dense_Dense3959/bias","shape":[32],"dtype":"float32"},{"name":"dense_Dense3960/kernel","shape":[32,1],"dtype":"float32"},{"name":"dense_Dense3960/bias","shape":[1],"dtype":"float32"}]}]}