{"modelTopology":{"class_name":"Model","config":{"name":"model599","layers":[{"name":"input599","class_name":"InputLayer","config":{"batch_input_shape":[null,3],"dtype":"float32","sparse":false,"name":"input599"},"inbound_nodes":[]},{"name":"dense_Dense3589","class_name":"Dense","config":{"units":4,"activation":"relu","use_bias":true,"kernel_initializer":{"class_name":"VarianceScaling","config":{"scale":1,"mode":"fan_avg","distribution":"normal","seed":null}},"bias_initializer":{"class_name":"Zeros","config":{}},"kernel_regularizer":null,"bias_regularizer":null,"activity_regularizer":null,"kernel_constraint":null,"bias_constraint":null,"name":"dense_Dense3589","trainable":true},"inbound_nodes":[[["input599",0,0,{}]]]},{"name":"dense_Dense3590","class_name":"Dense","config":{"units":4,"activation":"relu","use_bias":true,"kernel_initializer":{"class_name":"VarianceScaling","config":{"scale":1,"mode":"fan_avg","distribution":"normal","seed":null}},"bias_initializer":{"class_name":"Zeros","config":{}},"kernel_regularizer":null,"bias_regularizer":null,"activity_regularizer":null,"kernel_constraint":null,"bias_constraint":null,"name":"dense_Dense3590","trainable":true},"inbound_nodes":[[["dense_Dense3589",0,0,{}]]]},{"name":"dense_Dense3591","class_name":"Dense","config":{"units":16,"activation":"relu","use_bias":true,"kernel_initializer":{"class_name":"VarianceScaling","config":{"scale":1,"mode":"fan_avg","distribution":"normal","seed":null}},"bias_initializer":{"class_name":"Zeros","config":{}},"kernel_regularizer":null,"bias_regularizer":null,"activity_regularizer":null,"kernel_constraint":null,"bias_constraint":null,"name":"dense_Dense3591","trainable":true},"inbound_nodes":[[["dense_Dense3590",0,0,{}]]]},{"name":"dense_Dense3592","class_name":"Dense","config":{"units":8,"activation":"relu","use_bias":true,"kernel_initializer":{"class_name":"VarianceScaling","config":{"scale":1,"mode":"fan_avg","distribution":"normal","seed":null}},"bias_initializer":{"class_name":"Zeros","config":{}},"kernel_regularizer":null,"bias_regularizer":null,"activity_regularizer":null,"kernel_constraint":null,"bias_constraint":null,"name":"dense_Dense3592","trainable":true},"inbound_nodes":[[["dense_Dense3591",0,0,{}]]]},{"name":"dense_Dense3593","class_name":"Dense","config":{"units":16,"activation":"relu","use_bias":true,"kernel_initializer":{"class_name":"VarianceScaling","config":{"scale":1,"mode":"fan_avg","distribution":"normal","seed":null}},"bias_initializer":{"class_name":"Zeros","config":{}},"kernel_regularizer":null,"bias_regularizer":null,"activity_regularizer":null,"kernel_constraint":null,"bias_constraint":null,"name":"dense_Dense3593","trainable":true},"inbound_nodes":[[["dense_Dense3592",0,0,{}]]]},{"name":"dense_Dense3594","class_name":"Dense","config":{"units":1,"activation":"sigmoid","use_bias":true,"kernel_initializer":{"class_name":"VarianceScaling","config":{"scale":1,"mode":"fan_avg","distribution":"normal","seed":null}},"bias_initializer":{"class_name":"Zeros","config":{}},"kernel_regularizer":null,"bias_regularizer":null,"activity_regularizer":null,"kernel_constraint":null,"bias_constraint":null,"name":"dense_Dense3594","trainable":true},"inbound_nodes":[[["dense_Dense3593",0,0,{}]]]}],"input_layers":[["input599",0,0]],"output_layers":[["dense_Dense3594",0,0]]},"keras_version":"tfjs-layers 3.9.0","backend":"tensor_flow.js"},"weightsManifest":[{"paths":["weights.bin"],"weights":[{"name":"dense_Dense3589/kernel","shape":[3,4],"dtype":"float32"},{"name":"dense_Dense3589/bias","shape":[4],"dtype":"float32"},{"name":"dense_Dense3590/kernel","shape":[4,4],"dtype":"float32"},{"name":"dense_Dense3590/bias","shape":[4],"dtype":"float32"},{"name":"dense_Dense3591/kernel","shape":[4,16],"dtype":"float32"},{"name":"dense_Dense3591/bias","shape":[16],"dtype":"float32"},{"name":"dense_Dense3592/kernel","shape":[16,8],"dtype":"float32"},{"name":"dense_Dense3592/bias","shape":[8],"dtype":"float32"},{"name":"dense_Dense3593/kernel","shape":[8,16],"dtype":"float32"},{"name":"dense_Dense3593/bias","shape":[16],"dtype":"float32"},{"name":"dense_Dense3594/kernel","shape":[16,1],"dtype":"float32"},{"name":"dense_Dense3594/bias","shape":[1],"dtype":"float32"}]}]}