{"modelTopology":{"class_name":"Model","config":{"name":"model1133","layers":[{"name":"input1133","class_name":"InputLayer","config":{"batch_input_shape":[null,3],"dtype":"float32","sparse":false,"name":"input1133"},"inbound_nodes":[]},{"name":"dense_Dense5661","class_name":"Dense","config":{"units":32,"activation":"relu","use_bias":true,"kernel_initializer":{"class_name":"VarianceScaling","config":{"scale":1,"mode":"fan_avg","distribution":"normal","seed":null}},"bias_initializer":{"class_name":"Zeros","config":{}},"kernel_regularizer":null,"bias_regularizer":null,"activity_regularizer":null,"kernel_constraint":null,"bias_constraint":null,"name":"dense_Dense5661","trainable":true},"inbound_nodes":[[["input1133",0,0,{}]]]},{"name":"dense_Dense5662","class_name":"Dense","config":{"units":2,"activation":"relu","use_bias":true,"kernel_initializer":{"class_name":"VarianceScaling","config":{"scale":1,"mode":"fan_avg","distribution":"normal","seed":null}},"bias_initializer":{"class_name":"Zeros","config":{}},"kernel_regularizer":null,"bias_regularizer":null,"activity_regularizer":null,"kernel_constraint":null,"bias_constraint":null,"name":"dense_Dense5662","trainable":true},"inbound_nodes":[[["dense_Dense5661",0,0,{}]]]},{"name":"dense_Dense5663","class_name":"Dense","config":{"units":4,"activation":"relu","use_bias":true,"kernel_initializer":{"class_name":"VarianceScaling","config":{"scale":1,"mode":"fan_avg","distribution":"normal","seed":null}},"bias_initializer":{"class_name":"Zeros","config":{}},"kernel_regularizer":null,"bias_regularizer":null,"activity_regularizer":null,"kernel_constraint":null,"bias_constraint":null,"name":"dense_Dense5663","trainable":true},"inbound_nodes":[[["dense_Dense5662",0,0,{}]]]},{"name":"dense_Dense5664","class_name":"Dense","config":{"units":16,"activation":"relu","use_bias":true,"kernel_initializer":{"class_name":"VarianceScaling","config":{"scale":1,"mode":"fan_avg","distribution":"normal","seed":null}},"bias_initializer":{"class_name":"Zeros","config":{}},"kernel_regularizer":null,"bias_regularizer":null,"activity_regularizer":null,"kernel_constraint":null,"bias_constraint":null,"name":"dense_Dense5664","trainable":true},"inbound_nodes":[[["dense_Dense5663",0,0,{}]]]},{"name":"dense_Dense5665","class_name":"Dense","config":{"units":1,"activation":"sigmoid","use_bias":true,"kernel_initializer":{"class_name":"VarianceScaling","config":{"scale":1,"mode":"fan_avg","distribution":"normal","seed":null}},"bias_initializer":{"class_name":"Zeros","config":{}},"kernel_regularizer":null,"bias_regularizer":null,"activity_regularizer":null,"kernel_constraint":null,"bias_constraint":null,"name":"dense_Dense5665","trainable":true},"inbound_nodes":[[["dense_Dense5664",0,0,{}]]]}],"input_layers":[["input1133",0,0]],"output_layers":[["dense_Dense5665",0,0]]},"keras_version":"tfjs-layers 3.9.0","backend":"tensor_flow.js"},"weightsManifest":[{"paths":["weights.bin"],"weights":[{"name":"dense_Dense5661/kernel","shape":[3,32],"dtype":"float32"},{"name":"dense_Dense5661/bias","shape":[32],"dtype":"float32"},{"name":"dense_Dense5662/kernel","shape":[32,2],"dtype":"float32"},{"name":"dense_Dense5662/bias","shape":[2],"dtype":"float32"},{"name":"dense_Dense5663/kernel","shape":[2,4],"dtype":"float32"},{"name":"dense_Dense5663/bias","shape":[4],"dtype":"float32"},{"name":"dense_Dense5664/kernel","shape":[4,16],"dtype":"float32"},{"name":"dense_Dense5664/bias","shape":[16],"dtype":"float32"},{"name":"dense_Dense5665/kernel","shape":[16,1],"dtype":"float32"},{"name":"dense_Dense5665/bias","shape":[1],"dtype":"float32"}]}]}