{"modelTopology":{"class_name":"Model","config":{"name":"model1188","layers":[{"name":"input1188","class_name":"InputLayer","config":{"batch_input_shape":[null,3],"dtype":"float32","sparse":false,"name":"input1188"},"inbound_nodes":[]},{"name":"dense_Dense7123","class_name":"Dense","config":{"units":32,"activation":"relu","use_bias":true,"kernel_initializer":{"class_name":"VarianceScaling","config":{"scale":1,"mode":"fan_avg","distribution":"normal","seed":null}},"bias_initializer":{"class_name":"Zeros","config":{}},"kernel_regularizer":null,"bias_regularizer":null,"activity_regularizer":null,"kernel_constraint":null,"bias_constraint":null,"name":"dense_Dense7123","trainable":true},"inbound_nodes":[[["input1188",0,0,{}]]]},{"name":"dense_Dense7124","class_name":"Dense","config":{"units":32,"activation":"relu","use_bias":true,"kernel_initializer":{"class_name":"VarianceScaling","config":{"scale":1,"mode":"fan_avg","distribution":"normal","seed":null}},"bias_initializer":{"class_name":"Zeros","config":{}},"kernel_regularizer":null,"bias_regularizer":null,"activity_regularizer":null,"kernel_constraint":null,"bias_constraint":null,"name":"dense_Dense7124","trainable":true},"inbound_nodes":[[["dense_Dense7123",0,0,{}]]]},{"name":"dense_Dense7125","class_name":"Dense","config":{"units":4,"activation":"relu","use_bias":true,"kernel_initializer":{"class_name":"VarianceScaling","config":{"scale":1,"mode":"fan_avg","distribution":"normal","seed":null}},"bias_initializer":{"class_name":"Zeros","config":{}},"kernel_regularizer":null,"bias_regularizer":null,"activity_regularizer":null,"kernel_constraint":null,"bias_constraint":null,"name":"dense_Dense7125","trainable":true},"inbound_nodes":[[["dense_Dense7124",0,0,{}]]]},{"name":"dense_Dense7126","class_name":"Dense","config":{"units":32,"activation":"relu","use_bias":true,"kernel_initializer":{"class_name":"VarianceScaling","config":{"scale":1,"mode":"fan_avg","distribution":"normal","seed":null}},"bias_initializer":{"class_name":"Zeros","config":{}},"kernel_regularizer":null,"bias_regularizer":null,"activity_regularizer":null,"kernel_constraint":null,"bias_constraint":null,"name":"dense_Dense7126","trainable":true},"inbound_nodes":[[["dense_Dense7125",0,0,{}]]]},{"name":"dense_Dense7127","class_name":"Dense","config":{"units":32,"activation":"relu","use_bias":true,"kernel_initializer":{"class_name":"VarianceScaling","config":{"scale":1,"mode":"fan_avg","distribution":"normal","seed":null}},"bias_initializer":{"class_name":"Zeros","config":{}},"kernel_regularizer":null,"bias_regularizer":null,"activity_regularizer":null,"kernel_constraint":null,"bias_constraint":null,"name":"dense_Dense7127","trainable":true},"inbound_nodes":[[["dense_Dense7126",0,0,{}]]]},{"name":"dense_Dense7128","class_name":"Dense","config":{"units":1,"activation":"sigmoid","use_bias":true,"kernel_initializer":{"class_name":"VarianceScaling","config":{"scale":1,"mode":"fan_avg","distribution":"normal","seed":null}},"bias_initializer":{"class_name":"Zeros","config":{}},"kernel_regularizer":null,"bias_regularizer":null,"activity_regularizer":null,"kernel_constraint":null,"bias_constraint":null,"name":"dense_Dense7128","trainable":true},"inbound_nodes":[[["dense_Dense7127",0,0,{}]]]}],"input_layers":[["input1188",0,0]],"output_layers":[["dense_Dense7128",0,0]]},"keras_version":"tfjs-layers 3.9.0","backend":"tensor_flow.js"},"weightsManifest":[{"paths":["weights.bin"],"weights":[{"name":"dense_Dense7123/kernel","shape":[3,32],"dtype":"float32"},{"name":"dense_Dense7123/bias","shape":[32],"dtype":"float32"},{"name":"dense_Dense7124/kernel","shape":[32,32],"dtype":"float32"},{"name":"dense_Dense7124/bias","shape":[32],"dtype":"float32"},{"name":"dense_Dense7125/kernel","shape":[32,4],"dtype":"float32"},{"name":"dense_Dense7125/bias","shape":[4],"dtype":"float32"},{"name":"dense_Dense7126/kernel","shape":[4,32],"dtype":"float32"},{"name":"dense_Dense7126/bias","shape":[32],"dtype":"float32"},{"name":"dense_Dense7127/kernel","shape":[32,32],"dtype":"float32"},{"name":"dense_Dense7127/bias","shape":[32],"dtype":"float32"},{"name":"dense_Dense7128/kernel","shape":[32,1],"dtype":"float32"},{"name":"dense_Dense7128/bias","shape":[1],"dtype":"float32"}]}]}