{"modelTopology":{"class_name":"Model","config":{"name":"model226","layers":[{"name":"input226","class_name":"InputLayer","config":{"batch_input_shape":[null,3],"dtype":"float32","sparse":false,"name":"input226"},"inbound_nodes":[]},{"name":"dense_Dense1126","class_name":"Dense","config":{"units":2,"activation":"relu","use_bias":true,"kernel_initializer":{"class_name":"VarianceScaling","config":{"scale":1,"mode":"fan_avg","distribution":"normal","seed":null}},"bias_initializer":{"class_name":"Zeros","config":{}},"kernel_regularizer":null,"bias_regularizer":null,"activity_regularizer":null,"kernel_constraint":null,"bias_constraint":null,"name":"dense_Dense1126","trainable":true},"inbound_nodes":[[["input226",0,0,{}]]]},{"name":"dense_Dense1127","class_name":"Dense","config":{"units":1,"activation":"relu","use_bias":true,"kernel_initializer":{"class_name":"VarianceScaling","config":{"scale":1,"mode":"fan_avg","distribution":"normal","seed":null}},"bias_initializer":{"class_name":"Zeros","config":{}},"kernel_regularizer":null,"bias_regularizer":null,"activity_regularizer":null,"kernel_constraint":null,"bias_constraint":null,"name":"dense_Dense1127","trainable":true},"inbound_nodes":[[["dense_Dense1126",0,0,{}]]]},{"name":"dense_Dense1128","class_name":"Dense","config":{"units":2,"activation":"relu","use_bias":true,"kernel_initializer":{"class_name":"VarianceScaling","config":{"scale":1,"mode":"fan_avg","distribution":"normal","seed":null}},"bias_initializer":{"class_name":"Zeros","config":{}},"kernel_regularizer":null,"bias_regularizer":null,"activity_regularizer":null,"kernel_constraint":null,"bias_constraint":null,"name":"dense_Dense1128","trainable":true},"inbound_nodes":[[["dense_Dense1127",0,0,{}]]]},{"name":"dense_Dense1129","class_name":"Dense","config":{"units":8,"activation":"relu","use_bias":true,"kernel_initializer":{"class_name":"VarianceScaling","config":{"scale":1,"mode":"fan_avg","distribution":"normal","seed":null}},"bias_initializer":{"class_name":"Zeros","config":{}},"kernel_regularizer":null,"bias_regularizer":null,"activity_regularizer":null,"kernel_constraint":null,"bias_constraint":null,"name":"dense_Dense1129","trainable":true},"inbound_nodes":[[["dense_Dense1128",0,0,{}]]]},{"name":"dense_Dense1130","class_name":"Dense","config":{"units":1,"activation":"sigmoid","use_bias":true,"kernel_initializer":{"class_name":"VarianceScaling","config":{"scale":1,"mode":"fan_avg","distribution":"normal","seed":null}},"bias_initializer":{"class_name":"Zeros","config":{}},"kernel_regularizer":null,"bias_regularizer":null,"activity_regularizer":null,"kernel_constraint":null,"bias_constraint":null,"name":"dense_Dense1130","trainable":true},"inbound_nodes":[[["dense_Dense1129",0,0,{}]]]}],"input_layers":[["input226",0,0]],"output_layers":[["dense_Dense1130",0,0]]},"keras_version":"tfjs-layers 3.9.0","backend":"tensor_flow.js"},"weightsManifest":[{"paths":["weights.bin"],"weights":[{"name":"dense_Dense1126/kernel","shape":[3,2],"dtype":"float32"},{"name":"dense_Dense1126/bias","shape":[2],"dtype":"float32"},{"name":"dense_Dense1127/kernel","shape":[2,1],"dtype":"float32"},{"name":"dense_Dense1127/bias","shape":[1],"dtype":"float32"},{"name":"dense_Dense1128/kernel","shape":[1,2],"dtype":"float32"},{"name":"dense_Dense1128/bias","shape":[2],"dtype":"float32"},{"name":"dense_Dense1129/kernel","shape":[2,8],"dtype":"float32"},{"name":"dense_Dense1129/bias","shape":[8],"dtype":"float32"},{"name":"dense_Dense1130/kernel","shape":[8,1],"dtype":"float32"},{"name":"dense_Dense1130/bias","shape":[1],"dtype":"float32"}]}]}