{"modelTopology":{"class_name":"Model","config":{"name":"model1267","layers":[{"name":"input1267","class_name":"InputLayer","config":{"batch_input_shape":[null,3],"dtype":"float32","sparse":false,"name":"input1267"},"inbound_nodes":[]},{"name":"dense_Dense6331","class_name":"Dense","config":{"units":32,"activation":"relu","use_bias":true,"kernel_initializer":{"class_name":"VarianceScaling","config":{"scale":1,"mode":"fan_avg","distribution":"normal","seed":null}},"bias_initializer":{"class_name":"Zeros","config":{}},"kernel_regularizer":null,"bias_regularizer":null,"activity_regularizer":null,"kernel_constraint":null,"bias_constraint":null,"name":"dense_Dense6331","trainable":true},"inbound_nodes":[[["input1267",0,0,{}]]]},{"name":"dense_Dense6332","class_name":"Dense","config":{"units":32,"activation":"relu","use_bias":true,"kernel_initializer":{"class_name":"VarianceScaling","config":{"scale":1,"mode":"fan_avg","distribution":"normal","seed":null}},"bias_initializer":{"class_name":"Zeros","config":{}},"kernel_regularizer":null,"bias_regularizer":null,"activity_regularizer":null,"kernel_constraint":null,"bias_constraint":null,"name":"dense_Dense6332","trainable":true},"inbound_nodes":[[["dense_Dense6331",0,0,{}]]]},{"name":"dense_Dense6333","class_name":"Dense","config":{"units":2,"activation":"relu","use_bias":true,"kernel_initializer":{"class_name":"VarianceScaling","config":{"scale":1,"mode":"fan_avg","distribution":"normal","seed":null}},"bias_initializer":{"class_name":"Zeros","config":{}},"kernel_regularizer":null,"bias_regularizer":null,"activity_regularizer":null,"kernel_constraint":null,"bias_constraint":null,"name":"dense_Dense6333","trainable":true},"inbound_nodes":[[["dense_Dense6332",0,0,{}]]]},{"name":"dense_Dense6334","class_name":"Dense","config":{"units":1,"activation":"relu","use_bias":true,"kernel_initializer":{"class_name":"VarianceScaling","config":{"scale":1,"mode":"fan_avg","distribution":"normal","seed":null}},"bias_initializer":{"class_name":"Zeros","config":{}},"kernel_regularizer":null,"bias_regularizer":null,"activity_regularizer":null,"kernel_constraint":null,"bias_constraint":null,"name":"dense_Dense6334","trainable":true},"inbound_nodes":[[["dense_Dense6333",0,0,{}]]]},{"name":"dense_Dense6335","class_name":"Dense","config":{"units":1,"activation":"sigmoid","use_bias":true,"kernel_initializer":{"class_name":"VarianceScaling","config":{"scale":1,"mode":"fan_avg","distribution":"normal","seed":null}},"bias_initializer":{"class_name":"Zeros","config":{}},"kernel_regularizer":null,"bias_regularizer":null,"activity_regularizer":null,"kernel_constraint":null,"bias_constraint":null,"name":"dense_Dense6335","trainable":true},"inbound_nodes":[[["dense_Dense6334",0,0,{}]]]}],"input_layers":[["input1267",0,0]],"output_layers":[["dense_Dense6335",0,0]]},"keras_version":"tfjs-layers 3.9.0","backend":"tensor_flow.js"},"weightsManifest":[{"paths":["weights.bin"],"weights":[{"name":"dense_Dense6331/kernel","shape":[3,32],"dtype":"float32"},{"name":"dense_Dense6331/bias","shape":[32],"dtype":"float32"},{"name":"dense_Dense6332/kernel","shape":[32,32],"dtype":"float32"},{"name":"dense_Dense6332/bias","shape":[32],"dtype":"float32"},{"name":"dense_Dense6333/kernel","shape":[32,2],"dtype":"float32"},{"name":"dense_Dense6333/bias","shape":[2],"dtype":"float32"},{"name":"dense_Dense6334/kernel","shape":[2,1],"dtype":"float32"},{"name":"dense_Dense6334/bias","shape":[1],"dtype":"float32"},{"name":"dense_Dense6335/kernel","shape":[1,1],"dtype":"float32"},{"name":"dense_Dense6335/bias","shape":[1],"dtype":"float32"}]}]}