{"modelTopology":{"class_name":"Model","config":{"name":"model581","layers":[{"name":"input581","class_name":"InputLayer","config":{"batch_input_shape":[null,3],"dtype":"float32","sparse":false,"name":"input581"},"inbound_nodes":[]},{"name":"dense_Dense2901","class_name":"Dense","config":{"units":4,"activation":"relu","use_bias":true,"kernel_initializer":{"class_name":"VarianceScaling","config":{"scale":1,"mode":"fan_avg","distribution":"normal","seed":null}},"bias_initializer":{"class_name":"Zeros","config":{}},"kernel_regularizer":null,"bias_regularizer":null,"activity_regularizer":null,"kernel_constraint":null,"bias_constraint":null,"name":"dense_Dense2901","trainable":true},"inbound_nodes":[[["input581",0,0,{}]]]},{"name":"dense_Dense2902","class_name":"Dense","config":{"units":16,"activation":"relu","use_bias":true,"kernel_initializer":{"class_name":"VarianceScaling","config":{"scale":1,"mode":"fan_avg","distribution":"normal","seed":null}},"bias_initializer":{"class_name":"Zeros","config":{}},"kernel_regularizer":null,"bias_regularizer":null,"activity_regularizer":null,"kernel_constraint":null,"bias_constraint":null,"name":"dense_Dense2902","trainable":true},"inbound_nodes":[[["dense_Dense2901",0,0,{}]]]},{"name":"dense_Dense2903","class_name":"Dense","config":{"units":1,"activation":"relu","use_bias":true,"kernel_initializer":{"class_name":"VarianceScaling","config":{"scale":1,"mode":"fan_avg","distribution":"normal","seed":null}},"bias_initializer":{"class_name":"Zeros","config":{}},"kernel_regularizer":null,"bias_regularizer":null,"activity_regularizer":null,"kernel_constraint":null,"bias_constraint":null,"name":"dense_Dense2903","trainable":true},"inbound_nodes":[[["dense_Dense2902",0,0,{}]]]},{"name":"dense_Dense2904","class_name":"Dense","config":{"units":16,"activation":"relu","use_bias":true,"kernel_initializer":{"class_name":"VarianceScaling","config":{"scale":1,"mode":"fan_avg","distribution":"normal","seed":null}},"bias_initializer":{"class_name":"Zeros","config":{}},"kernel_regularizer":null,"bias_regularizer":null,"activity_regularizer":null,"kernel_constraint":null,"bias_constraint":null,"name":"dense_Dense2904","trainable":true},"inbound_nodes":[[["dense_Dense2903",0,0,{}]]]},{"name":"dense_Dense2905","class_name":"Dense","config":{"units":1,"activation":"sigmoid","use_bias":true,"kernel_initializer":{"class_name":"VarianceScaling","config":{"scale":1,"mode":"fan_avg","distribution":"normal","seed":null}},"bias_initializer":{"class_name":"Zeros","config":{}},"kernel_regularizer":null,"bias_regularizer":null,"activity_regularizer":null,"kernel_constraint":null,"bias_constraint":null,"name":"dense_Dense2905","trainable":true},"inbound_nodes":[[["dense_Dense2904",0,0,{}]]]}],"input_layers":[["input581",0,0]],"output_layers":[["dense_Dense2905",0,0]]},"keras_version":"tfjs-layers 3.9.0","backend":"tensor_flow.js"},"weightsManifest":[{"paths":["weights.bin"],"weights":[{"name":"dense_Dense2901/kernel","shape":[3,4],"dtype":"float32"},{"name":"dense_Dense2901/bias","shape":[4],"dtype":"float32"},{"name":"dense_Dense2902/kernel","shape":[4,16],"dtype":"float32"},{"name":"dense_Dense2902/bias","shape":[16],"dtype":"float32"},{"name":"dense_Dense2903/kernel","shape":[16,1],"dtype":"float32"},{"name":"dense_Dense2903/bias","shape":[1],"dtype":"float32"},{"name":"dense_Dense2904/kernel","shape":[1,16],"dtype":"float32"},{"name":"dense_Dense2904/bias","shape":[16],"dtype":"float32"},{"name":"dense_Dense2905/kernel","shape":[16,1],"dtype":"float32"},{"name":"dense_Dense2905/bias","shape":[1],"dtype":"float32"}]}]}