{"modelTopology":{"class_name":"Model","config":{"name":"model827","layers":[{"name":"input827","class_name":"InputLayer","config":{"batch_input_shape":[null,3],"dtype":"float32","sparse":false,"name":"input827"},"inbound_nodes":[]},{"name":"dense_Dense4131","class_name":"Dense","config":{"units":8,"activation":"relu","use_bias":true,"kernel_initializer":{"class_name":"VarianceScaling","config":{"scale":1,"mode":"fan_avg","distribution":"normal","seed":null}},"bias_initializer":{"class_name":"Zeros","config":{}},"kernel_regularizer":null,"bias_regularizer":null,"activity_regularizer":null,"kernel_constraint":null,"bias_constraint":null,"name":"dense_Dense4131","trainable":true},"inbound_nodes":[[["input827",0,0,{}]]]},{"name":"dense_Dense4132","class_name":"Dense","config":{"units":16,"activation":"relu","use_bias":true,"kernel_initializer":{"class_name":"VarianceScaling","config":{"scale":1,"mode":"fan_avg","distribution":"normal","seed":null}},"bias_initializer":{"class_name":"Zeros","config":{}},"kernel_regularizer":null,"bias_regularizer":null,"activity_regularizer":null,"kernel_constraint":null,"bias_constraint":null,"name":"dense_Dense4132","trainable":true},"inbound_nodes":[[["dense_Dense4131",0,0,{}]]]},{"name":"dense_Dense4133","class_name":"Dense","config":{"units":32,"activation":"relu","use_bias":true,"kernel_initializer":{"class_name":"VarianceScaling","config":{"scale":1,"mode":"fan_avg","distribution":"normal","seed":null}},"bias_initializer":{"class_name":"Zeros","config":{}},"kernel_regularizer":null,"bias_regularizer":null,"activity_regularizer":null,"kernel_constraint":null,"bias_constraint":null,"name":"dense_Dense4133","trainable":true},"inbound_nodes":[[["dense_Dense4132",0,0,{}]]]},{"name":"dense_Dense4134","class_name":"Dense","config":{"units":16,"activation":"relu","use_bias":true,"kernel_initializer":{"class_name":"VarianceScaling","config":{"scale":1,"mode":"fan_avg","distribution":"normal","seed":null}},"bias_initializer":{"class_name":"Zeros","config":{}},"kernel_regularizer":null,"bias_regularizer":null,"activity_regularizer":null,"kernel_constraint":null,"bias_constraint":null,"name":"dense_Dense4134","trainable":true},"inbound_nodes":[[["dense_Dense4133",0,0,{}]]]},{"name":"dense_Dense4135","class_name":"Dense","config":{"units":1,"activation":"sigmoid","use_bias":true,"kernel_initializer":{"class_name":"VarianceScaling","config":{"scale":1,"mode":"fan_avg","distribution":"normal","seed":null}},"bias_initializer":{"class_name":"Zeros","config":{}},"kernel_regularizer":null,"bias_regularizer":null,"activity_regularizer":null,"kernel_constraint":null,"bias_constraint":null,"name":"dense_Dense4135","trainable":true},"inbound_nodes":[[["dense_Dense4134",0,0,{}]]]}],"input_layers":[["input827",0,0]],"output_layers":[["dense_Dense4135",0,0]]},"keras_version":"tfjs-layers 3.9.0","backend":"tensor_flow.js"},"weightsManifest":[{"paths":["weights.bin"],"weights":[{"name":"dense_Dense4131/kernel","shape":[3,8],"dtype":"float32"},{"name":"dense_Dense4131/bias","shape":[8],"dtype":"float32"},{"name":"dense_Dense4132/kernel","shape":[8,16],"dtype":"float32"},{"name":"dense_Dense4132/bias","shape":[16],"dtype":"float32"},{"name":"dense_Dense4133/kernel","shape":[16,32],"dtype":"float32"},{"name":"dense_Dense4133/bias","shape":[32],"dtype":"float32"},{"name":"dense_Dense4134/kernel","shape":[32,16],"dtype":"float32"},{"name":"dense_Dense4134/bias","shape":[16],"dtype":"float32"},{"name":"dense_Dense4135/kernel","shape":[16,1],"dtype":"float32"},{"name":"dense_Dense4135/bias","shape":[1],"dtype":"float32"}]}]}