{"modelTopology":{"class_name":"Model","config":{"name":"model656","layers":[{"name":"input656","class_name":"InputLayer","config":{"batch_input_shape":[null,3],"dtype":"float32","sparse":false,"name":"input656"},"inbound_nodes":[]},{"name":"dense_Dense3931","class_name":"Dense","config":{"units":1,"activation":"relu","use_bias":true,"kernel_initializer":{"class_name":"VarianceScaling","config":{"scale":1,"mode":"fan_avg","distribution":"normal","seed":null}},"bias_initializer":{"class_name":"Zeros","config":{}},"kernel_regularizer":null,"bias_regularizer":null,"activity_regularizer":null,"kernel_constraint":null,"bias_constraint":null,"name":"dense_Dense3931","trainable":true},"inbound_nodes":[[["input656",0,0,{}]]]},{"name":"dense_Dense3932","class_name":"Dense","config":{"units":8,"activation":"relu","use_bias":true,"kernel_initializer":{"class_name":"VarianceScaling","config":{"scale":1,"mode":"fan_avg","distribution":"normal","seed":null}},"bias_initializer":{"class_name":"Zeros","config":{}},"kernel_regularizer":null,"bias_regularizer":null,"activity_regularizer":null,"kernel_constraint":null,"bias_constraint":null,"name":"dense_Dense3932","trainable":true},"inbound_nodes":[[["dense_Dense3931",0,0,{}]]]},{"name":"dense_Dense3933","class_name":"Dense","config":{"units":1,"activation":"relu","use_bias":true,"kernel_initializer":{"class_name":"VarianceScaling","config":{"scale":1,"mode":"fan_avg","distribution":"normal","seed":null}},"bias_initializer":{"class_name":"Zeros","config":{}},"kernel_regularizer":null,"bias_regularizer":null,"activity_regularizer":null,"kernel_constraint":null,"bias_constraint":null,"name":"dense_Dense3933","trainable":true},"inbound_nodes":[[["dense_Dense3932",0,0,{}]]]},{"name":"dense_Dense3934","class_name":"Dense","config":{"units":2,"activation":"relu","use_bias":true,"kernel_initializer":{"class_name":"VarianceScaling","config":{"scale":1,"mode":"fan_avg","distribution":"normal","seed":null}},"bias_initializer":{"class_name":"Zeros","config":{}},"kernel_regularizer":null,"bias_regularizer":null,"activity_regularizer":null,"kernel_constraint":null,"bias_constraint":null,"name":"dense_Dense3934","trainable":true},"inbound_nodes":[[["dense_Dense3933",0,0,{}]]]},{"name":"dense_Dense3935","class_name":"Dense","config":{"units":2,"activation":"relu","use_bias":true,"kernel_initializer":{"class_name":"VarianceScaling","config":{"scale":1,"mode":"fan_avg","distribution":"normal","seed":null}},"bias_initializer":{"class_name":"Zeros","config":{}},"kernel_regularizer":null,"bias_regularizer":null,"activity_regularizer":null,"kernel_constraint":null,"bias_constraint":null,"name":"dense_Dense3935","trainable":true},"inbound_nodes":[[["dense_Dense3934",0,0,{}]]]},{"name":"dense_Dense3936","class_name":"Dense","config":{"units":1,"activation":"sigmoid","use_bias":true,"kernel_initializer":{"class_name":"VarianceScaling","config":{"scale":1,"mode":"fan_avg","distribution":"normal","seed":null}},"bias_initializer":{"class_name":"Zeros","config":{}},"kernel_regularizer":null,"bias_regularizer":null,"activity_regularizer":null,"kernel_constraint":null,"bias_constraint":null,"name":"dense_Dense3936","trainable":true},"inbound_nodes":[[["dense_Dense3935",0,0,{}]]]}],"input_layers":[["input656",0,0]],"output_layers":[["dense_Dense3936",0,0]]},"keras_version":"tfjs-layers 3.9.0","backend":"tensor_flow.js"},"weightsManifest":[{"paths":["weights.bin"],"weights":[{"name":"dense_Dense3931/kernel","shape":[3,1],"dtype":"float32"},{"name":"dense_Dense3931/bias","shape":[1],"dtype":"float32"},{"name":"dense_Dense3932/kernel","shape":[1,8],"dtype":"float32"},{"name":"dense_Dense3932/bias","shape":[8],"dtype":"float32"},{"name":"dense_Dense3933/kernel","shape":[8,1],"dtype":"float32"},{"name":"dense_Dense3933/bias","shape":[1],"dtype":"float32"},{"name":"dense_Dense3934/kernel","shape":[1,2],"dtype":"float32"},{"name":"dense_Dense3934/bias","shape":[2],"dtype":"float32"},{"name":"dense_Dense3935/kernel","shape":[2,2],"dtype":"float32"},{"name":"dense_Dense3935/bias","shape":[2],"dtype":"float32"},{"name":"dense_Dense3936/kernel","shape":[2,1],"dtype":"float32"},{"name":"dense_Dense3936/bias","shape":[1],"dtype":"float32"}]}]}