{"modelTopology":{"class_name":"Model","config":{"name":"model175","layers":[{"name":"input175","class_name":"InputLayer","config":{"batch_input_shape":[null,3],"dtype":"float32","sparse":false,"name":"input175"},"inbound_nodes":[]},{"name":"dense_Dense871","class_name":"Dense","config":{"units":1,"activation":"relu","use_bias":true,"kernel_initializer":{"class_name":"VarianceScaling","config":{"scale":1,"mode":"fan_avg","distribution":"normal","seed":null}},"bias_initializer":{"class_name":"Zeros","config":{}},"kernel_regularizer":null,"bias_regularizer":null,"activity_regularizer":null,"kernel_constraint":null,"bias_constraint":null,"name":"dense_Dense871","trainable":true},"inbound_nodes":[[["input175",0,0,{}]]]},{"name":"dense_Dense872","class_name":"Dense","config":{"units":16,"activation":"relu","use_bias":true,"kernel_initializer":{"class_name":"VarianceScaling","config":{"scale":1,"mode":"fan_avg","distribution":"normal","seed":null}},"bias_initializer":{"class_name":"Zeros","config":{}},"kernel_regularizer":null,"bias_regularizer":null,"activity_regularizer":null,"kernel_constraint":null,"bias_constraint":null,"name":"dense_Dense872","trainable":true},"inbound_nodes":[[["dense_Dense871",0,0,{}]]]},{"name":"dense_Dense873","class_name":"Dense","config":{"units":32,"activation":"relu","use_bias":true,"kernel_initializer":{"class_name":"VarianceScaling","config":{"scale":1,"mode":"fan_avg","distribution":"normal","seed":null}},"bias_initializer":{"class_name":"Zeros","config":{}},"kernel_regularizer":null,"bias_regularizer":null,"activity_regularizer":null,"kernel_constraint":null,"bias_constraint":null,"name":"dense_Dense873","trainable":true},"inbound_nodes":[[["dense_Dense872",0,0,{}]]]},{"name":"dense_Dense874","class_name":"Dense","config":{"units":1,"activation":"relu","use_bias":true,"kernel_initializer":{"class_name":"VarianceScaling","config":{"scale":1,"mode":"fan_avg","distribution":"normal","seed":null}},"bias_initializer":{"class_name":"Zeros","config":{}},"kernel_regularizer":null,"bias_regularizer":null,"activity_regularizer":null,"kernel_constraint":null,"bias_constraint":null,"name":"dense_Dense874","trainable":true},"inbound_nodes":[[["dense_Dense873",0,0,{}]]]},{"name":"dense_Dense875","class_name":"Dense","config":{"units":1,"activation":"sigmoid","use_bias":true,"kernel_initializer":{"class_name":"VarianceScaling","config":{"scale":1,"mode":"fan_avg","distribution":"normal","seed":null}},"bias_initializer":{"class_name":"Zeros","config":{}},"kernel_regularizer":null,"bias_regularizer":null,"activity_regularizer":null,"kernel_constraint":null,"bias_constraint":null,"name":"dense_Dense875","trainable":true},"inbound_nodes":[[["dense_Dense874",0,0,{}]]]}],"input_layers":[["input175",0,0]],"output_layers":[["dense_Dense875",0,0]]},"keras_version":"tfjs-layers 3.9.0","backend":"tensor_flow.js"},"weightsManifest":[{"paths":["weights.bin"],"weights":[{"name":"dense_Dense871/kernel","shape":[3,1],"dtype":"float32"},{"name":"dense_Dense871/bias","shape":[1],"dtype":"float32"},{"name":"dense_Dense872/kernel","shape":[1,16],"dtype":"float32"},{"name":"dense_Dense872/bias","shape":[16],"dtype":"float32"},{"name":"dense_Dense873/kernel","shape":[16,32],"dtype":"float32"},{"name":"dense_Dense873/bias","shape":[32],"dtype":"float32"},{"name":"dense_Dense874/kernel","shape":[32,1],"dtype":"float32"},{"name":"dense_Dense874/bias","shape":[1],"dtype":"float32"},{"name":"dense_Dense875/kernel","shape":[1,1],"dtype":"float32"},{"name":"dense_Dense875/bias","shape":[1],"dtype":"float32"}]}]}