{"modelTopology":{"class_name":"Model","config":{"name":"model1200","layers":[{"name":"input1200","class_name":"InputLayer","config":{"batch_input_shape":[null,3],"dtype":"float32","sparse":false,"name":"input1200"},"inbound_nodes":[]},{"name":"dense_Dense7195","class_name":"Dense","config":{"units":2,"activation":"relu","use_bias":true,"kernel_initializer":{"class_name":"VarianceScaling","config":{"scale":1,"mode":"fan_avg","distribution":"normal","seed":null}},"bias_initializer":{"class_name":"Zeros","config":{}},"kernel_regularizer":null,"bias_regularizer":null,"activity_regularizer":null,"kernel_constraint":null,"bias_constraint":null,"name":"dense_Dense7195","trainable":true},"inbound_nodes":[[["input1200",0,0,{}]]]},{"name":"dense_Dense7196","class_name":"Dense","config":{"units":32,"activation":"relu","use_bias":true,"kernel_initializer":{"class_name":"VarianceScaling","config":{"scale":1,"mode":"fan_avg","distribution":"normal","seed":null}},"bias_initializer":{"class_name":"Zeros","config":{}},"kernel_regularizer":null,"bias_regularizer":null,"activity_regularizer":null,"kernel_constraint":null,"bias_constraint":null,"name":"dense_Dense7196","trainable":true},"inbound_nodes":[[["dense_Dense7195",0,0,{}]]]},{"name":"dense_Dense7197","class_name":"Dense","config":{"units":8,"activation":"relu","use_bias":true,"kernel_initializer":{"class_name":"VarianceScaling","config":{"scale":1,"mode":"fan_avg","distribution":"normal","seed":null}},"bias_initializer":{"class_name":"Zeros","config":{}},"kernel_regularizer":null,"bias_regularizer":null,"activity_regularizer":null,"kernel_constraint":null,"bias_constraint":null,"name":"dense_Dense7197","trainable":true},"inbound_nodes":[[["dense_Dense7196",0,0,{}]]]},{"name":"dense_Dense7198","class_name":"Dense","config":{"units":2,"activation":"relu","use_bias":true,"kernel_initializer":{"class_name":"VarianceScaling","config":{"scale":1,"mode":"fan_avg","distribution":"normal","seed":null}},"bias_initializer":{"class_name":"Zeros","config":{}},"kernel_regularizer":null,"bias_regularizer":null,"activity_regularizer":null,"kernel_constraint":null,"bias_constraint":null,"name":"dense_Dense7198","trainable":true},"inbound_nodes":[[["dense_Dense7197",0,0,{}]]]},{"name":"dense_Dense7199","class_name":"Dense","config":{"units":32,"activation":"relu","use_bias":true,"kernel_initializer":{"class_name":"VarianceScaling","config":{"scale":1,"mode":"fan_avg","distribution":"normal","seed":null}},"bias_initializer":{"class_name":"Zeros","config":{}},"kernel_regularizer":null,"bias_regularizer":null,"activity_regularizer":null,"kernel_constraint":null,"bias_constraint":null,"name":"dense_Dense7199","trainable":true},"inbound_nodes":[[["dense_Dense7198",0,0,{}]]]},{"name":"dense_Dense7200","class_name":"Dense","config":{"units":1,"activation":"sigmoid","use_bias":true,"kernel_initializer":{"class_name":"VarianceScaling","config":{"scale":1,"mode":"fan_avg","distribution":"normal","seed":null}},"bias_initializer":{"class_name":"Zeros","config":{}},"kernel_regularizer":null,"bias_regularizer":null,"activity_regularizer":null,"kernel_constraint":null,"bias_constraint":null,"name":"dense_Dense7200","trainable":true},"inbound_nodes":[[["dense_Dense7199",0,0,{}]]]}],"input_layers":[["input1200",0,0]],"output_layers":[["dense_Dense7200",0,0]]},"keras_version":"tfjs-layers 3.9.0","backend":"tensor_flow.js"},"weightsManifest":[{"paths":["weights.bin"],"weights":[{"name":"dense_Dense7195/kernel","shape":[3,2],"dtype":"float32"},{"name":"dense_Dense7195/bias","shape":[2],"dtype":"float32"},{"name":"dense_Dense7196/kernel","shape":[2,32],"dtype":"float32"},{"name":"dense_Dense7196/bias","shape":[32],"dtype":"float32"},{"name":"dense_Dense7197/kernel","shape":[32,8],"dtype":"float32"},{"name":"dense_Dense7197/bias","shape":[8],"dtype":"float32"},{"name":"dense_Dense7198/kernel","shape":[8,2],"dtype":"float32"},{"name":"dense_Dense7198/bias","shape":[2],"dtype":"float32"},{"name":"dense_Dense7199/kernel","shape":[2,32],"dtype":"float32"},{"name":"dense_Dense7199/bias","shape":[32],"dtype":"float32"},{"name":"dense_Dense7200/kernel","shape":[32,1],"dtype":"float32"},{"name":"dense_Dense7200/bias","shape":[1],"dtype":"float32"}]}]}