{"modelTopology":{"class_name":"Model","config":{"name":"model1170","layers":[{"name":"input1170","class_name":"InputLayer","config":{"batch_input_shape":[null,3],"dtype":"float32","sparse":false,"name":"input1170"},"inbound_nodes":[]},{"name":"dense_Dense7015","class_name":"Dense","config":{"units":32,"activation":"relu","use_bias":true,"kernel_initializer":{"class_name":"VarianceScaling","config":{"scale":1,"mode":"fan_avg","distribution":"normal","seed":null}},"bias_initializer":{"class_name":"Zeros","config":{}},"kernel_regularizer":null,"bias_regularizer":null,"activity_regularizer":null,"kernel_constraint":null,"bias_constraint":null,"name":"dense_Dense7015","trainable":true},"inbound_nodes":[[["input1170",0,0,{}]]]},{"name":"dense_Dense7016","class_name":"Dense","config":{"units":32,"activation":"relu","use_bias":true,"kernel_initializer":{"class_name":"VarianceScaling","config":{"scale":1,"mode":"fan_avg","distribution":"normal","seed":null}},"bias_initializer":{"class_name":"Zeros","config":{}},"kernel_regularizer":null,"bias_regularizer":null,"activity_regularizer":null,"kernel_constraint":null,"bias_constraint":null,"name":"dense_Dense7016","trainable":true},"inbound_nodes":[[["dense_Dense7015",0,0,{}]]]},{"name":"dense_Dense7017","class_name":"Dense","config":{"units":4,"activation":"relu","use_bias":true,"kernel_initializer":{"class_name":"VarianceScaling","config":{"scale":1,"mode":"fan_avg","distribution":"normal","seed":null}},"bias_initializer":{"class_name":"Zeros","config":{}},"kernel_regularizer":null,"bias_regularizer":null,"activity_regularizer":null,"kernel_constraint":null,"bias_constraint":null,"name":"dense_Dense7017","trainable":true},"inbound_nodes":[[["dense_Dense7016",0,0,{}]]]},{"name":"dense_Dense7018","class_name":"Dense","config":{"units":4,"activation":"relu","use_bias":true,"kernel_initializer":{"class_name":"VarianceScaling","config":{"scale":1,"mode":"fan_avg","distribution":"normal","seed":null}},"bias_initializer":{"class_name":"Zeros","config":{}},"kernel_regularizer":null,"bias_regularizer":null,"activity_regularizer":null,"kernel_constraint":null,"bias_constraint":null,"name":"dense_Dense7018","trainable":true},"inbound_nodes":[[["dense_Dense7017",0,0,{}]]]},{"name":"dense_Dense7019","class_name":"Dense","config":{"units":32,"activation":"relu","use_bias":true,"kernel_initializer":{"class_name":"VarianceScaling","config":{"scale":1,"mode":"fan_avg","distribution":"normal","seed":null}},"bias_initializer":{"class_name":"Zeros","config":{}},"kernel_regularizer":null,"bias_regularizer":null,"activity_regularizer":null,"kernel_constraint":null,"bias_constraint":null,"name":"dense_Dense7019","trainable":true},"inbound_nodes":[[["dense_Dense7018",0,0,{}]]]},{"name":"dense_Dense7020","class_name":"Dense","config":{"units":1,"activation":"sigmoid","use_bias":true,"kernel_initializer":{"class_name":"VarianceScaling","config":{"scale":1,"mode":"fan_avg","distribution":"normal","seed":null}},"bias_initializer":{"class_name":"Zeros","config":{}},"kernel_regularizer":null,"bias_regularizer":null,"activity_regularizer":null,"kernel_constraint":null,"bias_constraint":null,"name":"dense_Dense7020","trainable":true},"inbound_nodes":[[["dense_Dense7019",0,0,{}]]]}],"input_layers":[["input1170",0,0]],"output_layers":[["dense_Dense7020",0,0]]},"keras_version":"tfjs-layers 3.9.0","backend":"tensor_flow.js"},"weightsManifest":[{"paths":["weights.bin"],"weights":[{"name":"dense_Dense7015/kernel","shape":[3,32],"dtype":"float32"},{"name":"dense_Dense7015/bias","shape":[32],"dtype":"float32"},{"name":"dense_Dense7016/kernel","shape":[32,32],"dtype":"float32"},{"name":"dense_Dense7016/bias","shape":[32],"dtype":"float32"},{"name":"dense_Dense7017/kernel","shape":[32,4],"dtype":"float32"},{"name":"dense_Dense7017/bias","shape":[4],"dtype":"float32"},{"name":"dense_Dense7018/kernel","shape":[4,4],"dtype":"float32"},{"name":"dense_Dense7018/bias","shape":[4],"dtype":"float32"},{"name":"dense_Dense7019/kernel","shape":[4,32],"dtype":"float32"},{"name":"dense_Dense7019/bias","shape":[32],"dtype":"float32"},{"name":"dense_Dense7020/kernel","shape":[32,1],"dtype":"float32"},{"name":"dense_Dense7020/bias","shape":[1],"dtype":"float32"}]}]}