{"modelTopology":{"class_name":"Model","config":{"name":"model1159","layers":[{"name":"input1159","class_name":"InputLayer","config":{"batch_input_shape":[null,3],"dtype":"float32","sparse":false,"name":"input1159"},"inbound_nodes":[]},{"name":"dense_Dense6949","class_name":"Dense","config":{"units":2,"activation":"relu","use_bias":true,"kernel_initializer":{"class_name":"VarianceScaling","config":{"scale":1,"mode":"fan_avg","distribution":"normal","seed":null}},"bias_initializer":{"class_name":"Zeros","config":{}},"kernel_regularizer":null,"bias_regularizer":null,"activity_regularizer":null,"kernel_constraint":null,"bias_constraint":null,"name":"dense_Dense6949","trainable":true},"inbound_nodes":[[["input1159",0,0,{}]]]},{"name":"dense_Dense6950","class_name":"Dense","config":{"units":32,"activation":"relu","use_bias":true,"kernel_initializer":{"class_name":"VarianceScaling","config":{"scale":1,"mode":"fan_avg","distribution":"normal","seed":null}},"bias_initializer":{"class_name":"Zeros","config":{}},"kernel_regularizer":null,"bias_regularizer":null,"activity_regularizer":null,"kernel_constraint":null,"bias_constraint":null,"name":"dense_Dense6950","trainable":true},"inbound_nodes":[[["dense_Dense6949",0,0,{}]]]},{"name":"dense_Dense6951","class_name":"Dense","config":{"units":4,"activation":"relu","use_bias":true,"kernel_initializer":{"class_name":"VarianceScaling","config":{"scale":1,"mode":"fan_avg","distribution":"normal","seed":null}},"bias_initializer":{"class_name":"Zeros","config":{}},"kernel_regularizer":null,"bias_regularizer":null,"activity_regularizer":null,"kernel_constraint":null,"bias_constraint":null,"name":"dense_Dense6951","trainable":true},"inbound_nodes":[[["dense_Dense6950",0,0,{}]]]},{"name":"dense_Dense6952","class_name":"Dense","config":{"units":2,"activation":"relu","use_bias":true,"kernel_initializer":{"class_name":"VarianceScaling","config":{"scale":1,"mode":"fan_avg","distribution":"normal","seed":null}},"bias_initializer":{"class_name":"Zeros","config":{}},"kernel_regularizer":null,"bias_regularizer":null,"activity_regularizer":null,"kernel_constraint":null,"bias_constraint":null,"name":"dense_Dense6952","trainable":true},"inbound_nodes":[[["dense_Dense6951",0,0,{}]]]},{"name":"dense_Dense6953","class_name":"Dense","config":{"units":1,"activation":"relu","use_bias":true,"kernel_initializer":{"class_name":"VarianceScaling","config":{"scale":1,"mode":"fan_avg","distribution":"normal","seed":null}},"bias_initializer":{"class_name":"Zeros","config":{}},"kernel_regularizer":null,"bias_regularizer":null,"activity_regularizer":null,"kernel_constraint":null,"bias_constraint":null,"name":"dense_Dense6953","trainable":true},"inbound_nodes":[[["dense_Dense6952",0,0,{}]]]},{"name":"dense_Dense6954","class_name":"Dense","config":{"units":1,"activation":"sigmoid","use_bias":true,"kernel_initializer":{"class_name":"VarianceScaling","config":{"scale":1,"mode":"fan_avg","distribution":"normal","seed":null}},"bias_initializer":{"class_name":"Zeros","config":{}},"kernel_regularizer":null,"bias_regularizer":null,"activity_regularizer":null,"kernel_constraint":null,"bias_constraint":null,"name":"dense_Dense6954","trainable":true},"inbound_nodes":[[["dense_Dense6953",0,0,{}]]]}],"input_layers":[["input1159",0,0]],"output_layers":[["dense_Dense6954",0,0]]},"keras_version":"tfjs-layers 3.9.0","backend":"tensor_flow.js"},"weightsManifest":[{"paths":["weights.bin"],"weights":[{"name":"dense_Dense6949/kernel","shape":[3,2],"dtype":"float32"},{"name":"dense_Dense6949/bias","shape":[2],"dtype":"float32"},{"name":"dense_Dense6950/kernel","shape":[2,32],"dtype":"float32"},{"name":"dense_Dense6950/bias","shape":[32],"dtype":"float32"},{"name":"dense_Dense6951/kernel","shape":[32,4],"dtype":"float32"},{"name":"dense_Dense6951/bias","shape":[4],"dtype":"float32"},{"name":"dense_Dense6952/kernel","shape":[4,2],"dtype":"float32"},{"name":"dense_Dense6952/bias","shape":[2],"dtype":"float32"},{"name":"dense_Dense6953/kernel","shape":[2,1],"dtype":"float32"},{"name":"dense_Dense6953/bias","shape":[1],"dtype":"float32"},{"name":"dense_Dense6954/kernel","shape":[1,1],"dtype":"float32"},{"name":"dense_Dense6954/bias","shape":[1],"dtype":"float32"}]}]}