{"modelTopology":{"class_name":"Model","config":{"name":"model983","layers":[{"name":"input983","class_name":"InputLayer","config":{"batch_input_shape":[null,3],"dtype":"float32","sparse":false,"name":"input983"},"inbound_nodes":[]},{"name":"dense_Dense4911","class_name":"Dense","config":{"units":16,"activation":"relu","use_bias":true,"kernel_initializer":{"class_name":"VarianceScaling","config":{"scale":1,"mode":"fan_avg","distribution":"normal","seed":null}},"bias_initializer":{"class_name":"Zeros","config":{}},"kernel_regularizer":null,"bias_regularizer":null,"activity_regularizer":null,"kernel_constraint":null,"bias_constraint":null,"name":"dense_Dense4911","trainable":true},"inbound_nodes":[[["input983",0,0,{}]]]},{"name":"dense_Dense4912","class_name":"Dense","config":{"units":8,"activation":"relu","use_bias":true,"kernel_initializer":{"class_name":"VarianceScaling","config":{"scale":1,"mode":"fan_avg","distribution":"normal","seed":null}},"bias_initializer":{"class_name":"Zeros","config":{}},"kernel_regularizer":null,"bias_regularizer":null,"activity_regularizer":null,"kernel_constraint":null,"bias_constraint":null,"name":"dense_Dense4912","trainable":true},"inbound_nodes":[[["dense_Dense4911",0,0,{}]]]},{"name":"dense_Dense4913","class_name":"Dense","config":{"units":2,"activation":"relu","use_bias":true,"kernel_initializer":{"class_name":"VarianceScaling","config":{"scale":1,"mode":"fan_avg","distribution":"normal","seed":null}},"bias_initializer":{"class_name":"Zeros","config":{}},"kernel_regularizer":null,"bias_regularizer":null,"activity_regularizer":null,"kernel_constraint":null,"bias_constraint":null,"name":"dense_Dense4913","trainable":true},"inbound_nodes":[[["dense_Dense4912",0,0,{}]]]},{"name":"dense_Dense4914","class_name":"Dense","config":{"units":16,"activation":"relu","use_bias":true,"kernel_initializer":{"class_name":"VarianceScaling","config":{"scale":1,"mode":"fan_avg","distribution":"normal","seed":null}},"bias_initializer":{"class_name":"Zeros","config":{}},"kernel_regularizer":null,"bias_regularizer":null,"activity_regularizer":null,"kernel_constraint":null,"bias_constraint":null,"name":"dense_Dense4914","trainable":true},"inbound_nodes":[[["dense_Dense4913",0,0,{}]]]},{"name":"dense_Dense4915","class_name":"Dense","config":{"units":1,"activation":"sigmoid","use_bias":true,"kernel_initializer":{"class_name":"VarianceScaling","config":{"scale":1,"mode":"fan_avg","distribution":"normal","seed":null}},"bias_initializer":{"class_name":"Zeros","config":{}},"kernel_regularizer":null,"bias_regularizer":null,"activity_regularizer":null,"kernel_constraint":null,"bias_constraint":null,"name":"dense_Dense4915","trainable":true},"inbound_nodes":[[["dense_Dense4914",0,0,{}]]]}],"input_layers":[["input983",0,0]],"output_layers":[["dense_Dense4915",0,0]]},"keras_version":"tfjs-layers 3.9.0","backend":"tensor_flow.js"},"weightsManifest":[{"paths":["weights.bin"],"weights":[{"name":"dense_Dense4911/kernel","shape":[3,16],"dtype":"float32"},{"name":"dense_Dense4911/bias","shape":[16],"dtype":"float32"},{"name":"dense_Dense4912/kernel","shape":[16,8],"dtype":"float32"},{"name":"dense_Dense4912/bias","shape":[8],"dtype":"float32"},{"name":"dense_Dense4913/kernel","shape":[8,2],"dtype":"float32"},{"name":"dense_Dense4913/bias","shape":[2],"dtype":"float32"},{"name":"dense_Dense4914/kernel","shape":[2,16],"dtype":"float32"},{"name":"dense_Dense4914/bias","shape":[16],"dtype":"float32"},{"name":"dense_Dense4915/kernel","shape":[16,1],"dtype":"float32"},{"name":"dense_Dense4915/bias","shape":[1],"dtype":"float32"}]}]}