{"modelTopology":{"class_name":"Model","config":{"name":"model1163","layers":[{"name":"input1163","class_name":"InputLayer","config":{"batch_input_shape":[null,3],"dtype":"float32","sparse":false,"name":"input1163"},"inbound_nodes":[]},{"name":"dense_Dense6973","class_name":"Dense","config":{"units":1,"activation":"relu","use_bias":true,"kernel_initializer":{"class_name":"VarianceScaling","config":{"scale":1,"mode":"fan_avg","distribution":"normal","seed":null}},"bias_initializer":{"class_name":"Zeros","config":{}},"kernel_regularizer":null,"bias_regularizer":null,"activity_regularizer":null,"kernel_constraint":null,"bias_constraint":null,"name":"dense_Dense6973","trainable":true},"inbound_nodes":[[["input1163",0,0,{}]]]},{"name":"dense_Dense6974","class_name":"Dense","config":{"units":32,"activation":"relu","use_bias":true,"kernel_initializer":{"class_name":"VarianceScaling","config":{"scale":1,"mode":"fan_avg","distribution":"normal","seed":null}},"bias_initializer":{"class_name":"Zeros","config":{}},"kernel_regularizer":null,"bias_regularizer":null,"activity_regularizer":null,"kernel_constraint":null,"bias_constraint":null,"name":"dense_Dense6974","trainable":true},"inbound_nodes":[[["dense_Dense6973",0,0,{}]]]},{"name":"dense_Dense6975","class_name":"Dense","config":{"units":4,"activation":"relu","use_bias":true,"kernel_initializer":{"class_name":"VarianceScaling","config":{"scale":1,"mode":"fan_avg","distribution":"normal","seed":null}},"bias_initializer":{"class_name":"Zeros","config":{}},"kernel_regularizer":null,"bias_regularizer":null,"activity_regularizer":null,"kernel_constraint":null,"bias_constraint":null,"name":"dense_Dense6975","trainable":true},"inbound_nodes":[[["dense_Dense6974",0,0,{}]]]},{"name":"dense_Dense6976","class_name":"Dense","config":{"units":2,"activation":"relu","use_bias":true,"kernel_initializer":{"class_name":"VarianceScaling","config":{"scale":1,"mode":"fan_avg","distribution":"normal","seed":null}},"bias_initializer":{"class_name":"Zeros","config":{}},"kernel_regularizer":null,"bias_regularizer":null,"activity_regularizer":null,"kernel_constraint":null,"bias_constraint":null,"name":"dense_Dense6976","trainable":true},"inbound_nodes":[[["dense_Dense6975",0,0,{}]]]},{"name":"dense_Dense6977","class_name":"Dense","config":{"units":16,"activation":"relu","use_bias":true,"kernel_initializer":{"class_name":"VarianceScaling","config":{"scale":1,"mode":"fan_avg","distribution":"normal","seed":null}},"bias_initializer":{"class_name":"Zeros","config":{}},"kernel_regularizer":null,"bias_regularizer":null,"activity_regularizer":null,"kernel_constraint":null,"bias_constraint":null,"name":"dense_Dense6977","trainable":true},"inbound_nodes":[[["dense_Dense6976",0,0,{}]]]},{"name":"dense_Dense6978","class_name":"Dense","config":{"units":1,"activation":"sigmoid","use_bias":true,"kernel_initializer":{"class_name":"VarianceScaling","config":{"scale":1,"mode":"fan_avg","distribution":"normal","seed":null}},"bias_initializer":{"class_name":"Zeros","config":{}},"kernel_regularizer":null,"bias_regularizer":null,"activity_regularizer":null,"kernel_constraint":null,"bias_constraint":null,"name":"dense_Dense6978","trainable":true},"inbound_nodes":[[["dense_Dense6977",0,0,{}]]]}],"input_layers":[["input1163",0,0]],"output_layers":[["dense_Dense6978",0,0]]},"keras_version":"tfjs-layers 3.9.0","backend":"tensor_flow.js"},"weightsManifest":[{"paths":["weights.bin"],"weights":[{"name":"dense_Dense6973/kernel","shape":[3,1],"dtype":"float32"},{"name":"dense_Dense6973/bias","shape":[1],"dtype":"float32"},{"name":"dense_Dense6974/kernel","shape":[1,32],"dtype":"float32"},{"name":"dense_Dense6974/bias","shape":[32],"dtype":"float32"},{"name":"dense_Dense6975/kernel","shape":[32,4],"dtype":"float32"},{"name":"dense_Dense6975/bias","shape":[4],"dtype":"float32"},{"name":"dense_Dense6976/kernel","shape":[4,2],"dtype":"float32"},{"name":"dense_Dense6976/bias","shape":[2],"dtype":"float32"},{"name":"dense_Dense6977/kernel","shape":[2,16],"dtype":"float32"},{"name":"dense_Dense6977/bias","shape":[16],"dtype":"float32"},{"name":"dense_Dense6978/kernel","shape":[16,1],"dtype":"float32"},{"name":"dense_Dense6978/bias","shape":[1],"dtype":"float32"}]}]}