{"modelTopology":{"class_name":"Model","config":{"name":"model1281","layers":[{"name":"input1281","class_name":"InputLayer","config":{"batch_input_shape":[null,3],"dtype":"float32","sparse":false,"name":"input1281"},"inbound_nodes":[]},{"name":"dense_Dense7681","class_name":"Dense","config":{"units":2,"activation":"relu","use_bias":true,"kernel_initializer":{"class_name":"VarianceScaling","config":{"scale":1,"mode":"fan_avg","distribution":"normal","seed":null}},"bias_initializer":{"class_name":"Zeros","config":{}},"kernel_regularizer":null,"bias_regularizer":null,"activity_regularizer":null,"kernel_constraint":null,"bias_constraint":null,"name":"dense_Dense7681","trainable":true},"inbound_nodes":[[["input1281",0,0,{}]]]},{"name":"dense_Dense7682","class_name":"Dense","config":{"units":32,"activation":"relu","use_bias":true,"kernel_initializer":{"class_name":"VarianceScaling","config":{"scale":1,"mode":"fan_avg","distribution":"normal","seed":null}},"bias_initializer":{"class_name":"Zeros","config":{}},"kernel_regularizer":null,"bias_regularizer":null,"activity_regularizer":null,"kernel_constraint":null,"bias_constraint":null,"name":"dense_Dense7682","trainable":true},"inbound_nodes":[[["dense_Dense7681",0,0,{}]]]},{"name":"dense_Dense7683","class_name":"Dense","config":{"units":32,"activation":"relu","use_bias":true,"kernel_initializer":{"class_name":"VarianceScaling","config":{"scale":1,"mode":"fan_avg","distribution":"normal","seed":null}},"bias_initializer":{"class_name":"Zeros","config":{}},"kernel_regularizer":null,"bias_regularizer":null,"activity_regularizer":null,"kernel_constraint":null,"bias_constraint":null,"name":"dense_Dense7683","trainable":true},"inbound_nodes":[[["dense_Dense7682",0,0,{}]]]},{"name":"dense_Dense7684","class_name":"Dense","config":{"units":8,"activation":"relu","use_bias":true,"kernel_initializer":{"class_name":"VarianceScaling","config":{"scale":1,"mode":"fan_avg","distribution":"normal","seed":null}},"bias_initializer":{"class_name":"Zeros","config":{}},"kernel_regularizer":null,"bias_regularizer":null,"activity_regularizer":null,"kernel_constraint":null,"bias_constraint":null,"name":"dense_Dense7684","trainable":true},"inbound_nodes":[[["dense_Dense7683",0,0,{}]]]},{"name":"dense_Dense7685","class_name":"Dense","config":{"units":4,"activation":"relu","use_bias":true,"kernel_initializer":{"class_name":"VarianceScaling","config":{"scale":1,"mode":"fan_avg","distribution":"normal","seed":null}},"bias_initializer":{"class_name":"Zeros","config":{}},"kernel_regularizer":null,"bias_regularizer":null,"activity_regularizer":null,"kernel_constraint":null,"bias_constraint":null,"name":"dense_Dense7685","trainable":true},"inbound_nodes":[[["dense_Dense7684",0,0,{}]]]},{"name":"dense_Dense7686","class_name":"Dense","config":{"units":1,"activation":"sigmoid","use_bias":true,"kernel_initializer":{"class_name":"VarianceScaling","config":{"scale":1,"mode":"fan_avg","distribution":"normal","seed":null}},"bias_initializer":{"class_name":"Zeros","config":{}},"kernel_regularizer":null,"bias_regularizer":null,"activity_regularizer":null,"kernel_constraint":null,"bias_constraint":null,"name":"dense_Dense7686","trainable":true},"inbound_nodes":[[["dense_Dense7685",0,0,{}]]]}],"input_layers":[["input1281",0,0]],"output_layers":[["dense_Dense7686",0,0]]},"keras_version":"tfjs-layers 3.9.0","backend":"tensor_flow.js"},"weightsManifest":[{"paths":["weights.bin"],"weights":[{"name":"dense_Dense7681/kernel","shape":[3,2],"dtype":"float32"},{"name":"dense_Dense7681/bias","shape":[2],"dtype":"float32"},{"name":"dense_Dense7682/kernel","shape":[2,32],"dtype":"float32"},{"name":"dense_Dense7682/bias","shape":[32],"dtype":"float32"},{"name":"dense_Dense7683/kernel","shape":[32,32],"dtype":"float32"},{"name":"dense_Dense7683/bias","shape":[32],"dtype":"float32"},{"name":"dense_Dense7684/kernel","shape":[32,8],"dtype":"float32"},{"name":"dense_Dense7684/bias","shape":[8],"dtype":"float32"},{"name":"dense_Dense7685/kernel","shape":[8,4],"dtype":"float32"},{"name":"dense_Dense7685/bias","shape":[4],"dtype":"float32"},{"name":"dense_Dense7686/kernel","shape":[4,1],"dtype":"float32"},{"name":"dense_Dense7686/bias","shape":[1],"dtype":"float32"}]}]}