{"modelTopology":{"class_name":"Model","config":{"name":"model838","layers":[{"name":"input838","class_name":"InputLayer","config":{"batch_input_shape":[null,3],"dtype":"float32","sparse":false,"name":"input838"},"inbound_nodes":[]},{"name":"dense_Dense5023","class_name":"Dense","config":{"units":32,"activation":"relu","use_bias":true,"kernel_initializer":{"class_name":"VarianceScaling","config":{"scale":1,"mode":"fan_avg","distribution":"normal","seed":null}},"bias_initializer":{"class_name":"Zeros","config":{}},"kernel_regularizer":null,"bias_regularizer":null,"activity_regularizer":null,"kernel_constraint":null,"bias_constraint":null,"name":"dense_Dense5023","trainable":true},"inbound_nodes":[[["input838",0,0,{}]]]},{"name":"dense_Dense5024","class_name":"Dense","config":{"units":8,"activation":"relu","use_bias":true,"kernel_initializer":{"class_name":"VarianceScaling","config":{"scale":1,"mode":"fan_avg","distribution":"normal","seed":null}},"bias_initializer":{"class_name":"Zeros","config":{}},"kernel_regularizer":null,"bias_regularizer":null,"activity_regularizer":null,"kernel_constraint":null,"bias_constraint":null,"name":"dense_Dense5024","trainable":true},"inbound_nodes":[[["dense_Dense5023",0,0,{}]]]},{"name":"dense_Dense5025","class_name":"Dense","config":{"units":32,"activation":"relu","use_bias":true,"kernel_initializer":{"class_name":"VarianceScaling","config":{"scale":1,"mode":"fan_avg","distribution":"normal","seed":null}},"bias_initializer":{"class_name":"Zeros","config":{}},"kernel_regularizer":null,"bias_regularizer":null,"activity_regularizer":null,"kernel_constraint":null,"bias_constraint":null,"name":"dense_Dense5025","trainable":true},"inbound_nodes":[[["dense_Dense5024",0,0,{}]]]},{"name":"dense_Dense5026","class_name":"Dense","config":{"units":2,"activation":"relu","use_bias":true,"kernel_initializer":{"class_name":"VarianceScaling","config":{"scale":1,"mode":"fan_avg","distribution":"normal","seed":null}},"bias_initializer":{"class_name":"Zeros","config":{}},"kernel_regularizer":null,"bias_regularizer":null,"activity_regularizer":null,"kernel_constraint":null,"bias_constraint":null,"name":"dense_Dense5026","trainable":true},"inbound_nodes":[[["dense_Dense5025",0,0,{}]]]},{"name":"dense_Dense5027","class_name":"Dense","config":{"units":8,"activation":"relu","use_bias":true,"kernel_initializer":{"class_name":"VarianceScaling","config":{"scale":1,"mode":"fan_avg","distribution":"normal","seed":null}},"bias_initializer":{"class_name":"Zeros","config":{}},"kernel_regularizer":null,"bias_regularizer":null,"activity_regularizer":null,"kernel_constraint":null,"bias_constraint":null,"name":"dense_Dense5027","trainable":true},"inbound_nodes":[[["dense_Dense5026",0,0,{}]]]},{"name":"dense_Dense5028","class_name":"Dense","config":{"units":1,"activation":"sigmoid","use_bias":true,"kernel_initializer":{"class_name":"VarianceScaling","config":{"scale":1,"mode":"fan_avg","distribution":"normal","seed":null}},"bias_initializer":{"class_name":"Zeros","config":{}},"kernel_regularizer":null,"bias_regularizer":null,"activity_regularizer":null,"kernel_constraint":null,"bias_constraint":null,"name":"dense_Dense5028","trainable":true},"inbound_nodes":[[["dense_Dense5027",0,0,{}]]]}],"input_layers":[["input838",0,0]],"output_layers":[["dense_Dense5028",0,0]]},"keras_version":"tfjs-layers 3.9.0","backend":"tensor_flow.js"},"weightsManifest":[{"paths":["weights.bin"],"weights":[{"name":"dense_Dense5023/kernel","shape":[3,32],"dtype":"float32"},{"name":"dense_Dense5023/bias","shape":[32],"dtype":"float32"},{"name":"dense_Dense5024/kernel","shape":[32,8],"dtype":"float32"},{"name":"dense_Dense5024/bias","shape":[8],"dtype":"float32"},{"name":"dense_Dense5025/kernel","shape":[8,32],"dtype":"float32"},{"name":"dense_Dense5025/bias","shape":[32],"dtype":"float32"},{"name":"dense_Dense5026/kernel","shape":[32,2],"dtype":"float32"},{"name":"dense_Dense5026/bias","shape":[2],"dtype":"float32"},{"name":"dense_Dense5027/kernel","shape":[2,8],"dtype":"float32"},{"name":"dense_Dense5027/bias","shape":[8],"dtype":"float32"},{"name":"dense_Dense5028/kernel","shape":[8,1],"dtype":"float32"},{"name":"dense_Dense5028/bias","shape":[1],"dtype":"float32"}]}]}