{"modelTopology":{"class_name":"Model","config":{"name":"model596","layers":[{"name":"input596","class_name":"InputLayer","config":{"batch_input_shape":[null,3],"dtype":"float32","sparse":false,"name":"input596"},"inbound_nodes":[]},{"name":"dense_Dense3571","class_name":"Dense","config":{"units":32,"activation":"relu","use_bias":true,"kernel_initializer":{"class_name":"VarianceScaling","config":{"scale":1,"mode":"fan_avg","distribution":"normal","seed":null}},"bias_initializer":{"class_name":"Zeros","config":{}},"kernel_regularizer":null,"bias_regularizer":null,"activity_regularizer":null,"kernel_constraint":null,"bias_constraint":null,"name":"dense_Dense3571","trainable":true},"inbound_nodes":[[["input596",0,0,{}]]]},{"name":"dense_Dense3572","class_name":"Dense","config":{"units":4,"activation":"relu","use_bias":true,"kernel_initializer":{"class_name":"VarianceScaling","config":{"scale":1,"mode":"fan_avg","distribution":"normal","seed":null}},"bias_initializer":{"class_name":"Zeros","config":{}},"kernel_regularizer":null,"bias_regularizer":null,"activity_regularizer":null,"kernel_constraint":null,"bias_constraint":null,"name":"dense_Dense3572","trainable":true},"inbound_nodes":[[["dense_Dense3571",0,0,{}]]]},{"name":"dense_Dense3573","class_name":"Dense","config":{"units":16,"activation":"relu","use_bias":true,"kernel_initializer":{"class_name":"VarianceScaling","config":{"scale":1,"mode":"fan_avg","distribution":"normal","seed":null}},"bias_initializer":{"class_name":"Zeros","config":{}},"kernel_regularizer":null,"bias_regularizer":null,"activity_regularizer":null,"kernel_constraint":null,"bias_constraint":null,"name":"dense_Dense3573","trainable":true},"inbound_nodes":[[["dense_Dense3572",0,0,{}]]]},{"name":"dense_Dense3574","class_name":"Dense","config":{"units":8,"activation":"relu","use_bias":true,"kernel_initializer":{"class_name":"VarianceScaling","config":{"scale":1,"mode":"fan_avg","distribution":"normal","seed":null}},"bias_initializer":{"class_name":"Zeros","config":{}},"kernel_regularizer":null,"bias_regularizer":null,"activity_regularizer":null,"kernel_constraint":null,"bias_constraint":null,"name":"dense_Dense3574","trainable":true},"inbound_nodes":[[["dense_Dense3573",0,0,{}]]]},{"name":"dense_Dense3575","class_name":"Dense","config":{"units":2,"activation":"relu","use_bias":true,"kernel_initializer":{"class_name":"VarianceScaling","config":{"scale":1,"mode":"fan_avg","distribution":"normal","seed":null}},"bias_initializer":{"class_name":"Zeros","config":{}},"kernel_regularizer":null,"bias_regularizer":null,"activity_regularizer":null,"kernel_constraint":null,"bias_constraint":null,"name":"dense_Dense3575","trainable":true},"inbound_nodes":[[["dense_Dense3574",0,0,{}]]]},{"name":"dense_Dense3576","class_name":"Dense","config":{"units":1,"activation":"sigmoid","use_bias":true,"kernel_initializer":{"class_name":"VarianceScaling","config":{"scale":1,"mode":"fan_avg","distribution":"normal","seed":null}},"bias_initializer":{"class_name":"Zeros","config":{}},"kernel_regularizer":null,"bias_regularizer":null,"activity_regularizer":null,"kernel_constraint":null,"bias_constraint":null,"name":"dense_Dense3576","trainable":true},"inbound_nodes":[[["dense_Dense3575",0,0,{}]]]}],"input_layers":[["input596",0,0]],"output_layers":[["dense_Dense3576",0,0]]},"keras_version":"tfjs-layers 3.9.0","backend":"tensor_flow.js"},"weightsManifest":[{"paths":["weights.bin"],"weights":[{"name":"dense_Dense3571/kernel","shape":[3,32],"dtype":"float32"},{"name":"dense_Dense3571/bias","shape":[32],"dtype":"float32"},{"name":"dense_Dense3572/kernel","shape":[32,4],"dtype":"float32"},{"name":"dense_Dense3572/bias","shape":[4],"dtype":"float32"},{"name":"dense_Dense3573/kernel","shape":[4,16],"dtype":"float32"},{"name":"dense_Dense3573/bias","shape":[16],"dtype":"float32"},{"name":"dense_Dense3574/kernel","shape":[16,8],"dtype":"float32"},{"name":"dense_Dense3574/bias","shape":[8],"dtype":"float32"},{"name":"dense_Dense3575/kernel","shape":[8,2],"dtype":"float32"},{"name":"dense_Dense3575/bias","shape":[2],"dtype":"float32"},{"name":"dense_Dense3576/kernel","shape":[2,1],"dtype":"float32"},{"name":"dense_Dense3576/bias","shape":[1],"dtype":"float32"}]}]}