{"modelTopology":{"class_name":"Model","config":{"name":"model507","layers":[{"name":"input507","class_name":"InputLayer","config":{"batch_input_shape":[null,3],"dtype":"float32","sparse":false,"name":"input507"},"inbound_nodes":[]},{"name":"dense_Dense3037","class_name":"Dense","config":{"units":1,"activation":"relu","use_bias":true,"kernel_initializer":{"class_name":"VarianceScaling","config":{"scale":1,"mode":"fan_avg","distribution":"normal","seed":null}},"bias_initializer":{"class_name":"Zeros","config":{}},"kernel_regularizer":null,"bias_regularizer":null,"activity_regularizer":null,"kernel_constraint":null,"bias_constraint":null,"name":"dense_Dense3037","trainable":true},"inbound_nodes":[[["input507",0,0,{}]]]},{"name":"dense_Dense3038","class_name":"Dense","config":{"units":4,"activation":"relu","use_bias":true,"kernel_initializer":{"class_name":"VarianceScaling","config":{"scale":1,"mode":"fan_avg","distribution":"normal","seed":null}},"bias_initializer":{"class_name":"Zeros","config":{}},"kernel_regularizer":null,"bias_regularizer":null,"activity_regularizer":null,"kernel_constraint":null,"bias_constraint":null,"name":"dense_Dense3038","trainable":true},"inbound_nodes":[[["dense_Dense3037",0,0,{}]]]},{"name":"dense_Dense3039","class_name":"Dense","config":{"units":4,"activation":"relu","use_bias":true,"kernel_initializer":{"class_name":"VarianceScaling","config":{"scale":1,"mode":"fan_avg","distribution":"normal","seed":null}},"bias_initializer":{"class_name":"Zeros","config":{}},"kernel_regularizer":null,"bias_regularizer":null,"activity_regularizer":null,"kernel_constraint":null,"bias_constraint":null,"name":"dense_Dense3039","trainable":true},"inbound_nodes":[[["dense_Dense3038",0,0,{}]]]},{"name":"dense_Dense3040","class_name":"Dense","config":{"units":1,"activation":"relu","use_bias":true,"kernel_initializer":{"class_name":"VarianceScaling","config":{"scale":1,"mode":"fan_avg","distribution":"normal","seed":null}},"bias_initializer":{"class_name":"Zeros","config":{}},"kernel_regularizer":null,"bias_regularizer":null,"activity_regularizer":null,"kernel_constraint":null,"bias_constraint":null,"name":"dense_Dense3040","trainable":true},"inbound_nodes":[[["dense_Dense3039",0,0,{}]]]},{"name":"dense_Dense3041","class_name":"Dense","config":{"units":4,"activation":"relu","use_bias":true,"kernel_initializer":{"class_name":"VarianceScaling","config":{"scale":1,"mode":"fan_avg","distribution":"normal","seed":null}},"bias_initializer":{"class_name":"Zeros","config":{}},"kernel_regularizer":null,"bias_regularizer":null,"activity_regularizer":null,"kernel_constraint":null,"bias_constraint":null,"name":"dense_Dense3041","trainable":true},"inbound_nodes":[[["dense_Dense3040",0,0,{}]]]},{"name":"dense_Dense3042","class_name":"Dense","config":{"units":1,"activation":"sigmoid","use_bias":true,"kernel_initializer":{"class_name":"VarianceScaling","config":{"scale":1,"mode":"fan_avg","distribution":"normal","seed":null}},"bias_initializer":{"class_name":"Zeros","config":{}},"kernel_regularizer":null,"bias_regularizer":null,"activity_regularizer":null,"kernel_constraint":null,"bias_constraint":null,"name":"dense_Dense3042","trainable":true},"inbound_nodes":[[["dense_Dense3041",0,0,{}]]]}],"input_layers":[["input507",0,0]],"output_layers":[["dense_Dense3042",0,0]]},"keras_version":"tfjs-layers 3.9.0","backend":"tensor_flow.js"},"weightsManifest":[{"paths":["weights.bin"],"weights":[{"name":"dense_Dense3037/kernel","shape":[3,1],"dtype":"float32"},{"name":"dense_Dense3037/bias","shape":[1],"dtype":"float32"},{"name":"dense_Dense3038/kernel","shape":[1,4],"dtype":"float32"},{"name":"dense_Dense3038/bias","shape":[4],"dtype":"float32"},{"name":"dense_Dense3039/kernel","shape":[4,4],"dtype":"float32"},{"name":"dense_Dense3039/bias","shape":[4],"dtype":"float32"},{"name":"dense_Dense3040/kernel","shape":[4,1],"dtype":"float32"},{"name":"dense_Dense3040/bias","shape":[1],"dtype":"float32"},{"name":"dense_Dense3041/kernel","shape":[1,4],"dtype":"float32"},{"name":"dense_Dense3041/bias","shape":[4],"dtype":"float32"},{"name":"dense_Dense3042/kernel","shape":[4,1],"dtype":"float32"},{"name":"dense_Dense3042/bias","shape":[1],"dtype":"float32"}]}]}