{"modelTopology":{"class_name":"Model","config":{"name":"model286","layers":[{"name":"input286","class_name":"InputLayer","config":{"batch_input_shape":[null,3],"dtype":"float32","sparse":false,"name":"input286"},"inbound_nodes":[]},{"name":"dense_Dense1426","class_name":"Dense","config":{"units":2,"activation":"relu","use_bias":true,"kernel_initializer":{"class_name":"VarianceScaling","config":{"scale":1,"mode":"fan_avg","distribution":"normal","seed":null}},"bias_initializer":{"class_name":"Zeros","config":{}},"kernel_regularizer":null,"bias_regularizer":null,"activity_regularizer":null,"kernel_constraint":null,"bias_constraint":null,"name":"dense_Dense1426","trainable":true},"inbound_nodes":[[["input286",0,0,{}]]]},{"name":"dense_Dense1427","class_name":"Dense","config":{"units":2,"activation":"relu","use_bias":true,"kernel_initializer":{"class_name":"VarianceScaling","config":{"scale":1,"mode":"fan_avg","distribution":"normal","seed":null}},"bias_initializer":{"class_name":"Zeros","config":{}},"kernel_regularizer":null,"bias_regularizer":null,"activity_regularizer":null,"kernel_constraint":null,"bias_constraint":null,"name":"dense_Dense1427","trainable":true},"inbound_nodes":[[["dense_Dense1426",0,0,{}]]]},{"name":"dense_Dense1428","class_name":"Dense","config":{"units":32,"activation":"relu","use_bias":true,"kernel_initializer":{"class_name":"VarianceScaling","config":{"scale":1,"mode":"fan_avg","distribution":"normal","seed":null}},"bias_initializer":{"class_name":"Zeros","config":{}},"kernel_regularizer":null,"bias_regularizer":null,"activity_regularizer":null,"kernel_constraint":null,"bias_constraint":null,"name":"dense_Dense1428","trainable":true},"inbound_nodes":[[["dense_Dense1427",0,0,{}]]]},{"name":"dense_Dense1429","class_name":"Dense","config":{"units":8,"activation":"relu","use_bias":true,"kernel_initializer":{"class_name":"VarianceScaling","config":{"scale":1,"mode":"fan_avg","distribution":"normal","seed":null}},"bias_initializer":{"class_name":"Zeros","config":{}},"kernel_regularizer":null,"bias_regularizer":null,"activity_regularizer":null,"kernel_constraint":null,"bias_constraint":null,"name":"dense_Dense1429","trainable":true},"inbound_nodes":[[["dense_Dense1428",0,0,{}]]]},{"name":"dense_Dense1430","class_name":"Dense","config":{"units":1,"activation":"sigmoid","use_bias":true,"kernel_initializer":{"class_name":"VarianceScaling","config":{"scale":1,"mode":"fan_avg","distribution":"normal","seed":null}},"bias_initializer":{"class_name":"Zeros","config":{}},"kernel_regularizer":null,"bias_regularizer":null,"activity_regularizer":null,"kernel_constraint":null,"bias_constraint":null,"name":"dense_Dense1430","trainable":true},"inbound_nodes":[[["dense_Dense1429",0,0,{}]]]}],"input_layers":[["input286",0,0]],"output_layers":[["dense_Dense1430",0,0]]},"keras_version":"tfjs-layers 3.9.0","backend":"tensor_flow.js"},"weightsManifest":[{"paths":["weights.bin"],"weights":[{"name":"dense_Dense1426/kernel","shape":[3,2],"dtype":"float32"},{"name":"dense_Dense1426/bias","shape":[2],"dtype":"float32"},{"name":"dense_Dense1427/kernel","shape":[2,2],"dtype":"float32"},{"name":"dense_Dense1427/bias","shape":[2],"dtype":"float32"},{"name":"dense_Dense1428/kernel","shape":[2,32],"dtype":"float32"},{"name":"dense_Dense1428/bias","shape":[32],"dtype":"float32"},{"name":"dense_Dense1429/kernel","shape":[32,8],"dtype":"float32"},{"name":"dense_Dense1429/bias","shape":[8],"dtype":"float32"},{"name":"dense_Dense1430/kernel","shape":[8,1],"dtype":"float32"},{"name":"dense_Dense1430/bias","shape":[1],"dtype":"float32"}]}]}