{"modelTopology":{"class_name":"Model","config":{"name":"model1237","layers":[{"name":"input1237","class_name":"InputLayer","config":{"batch_input_shape":[null,3],"dtype":"float32","sparse":false,"name":"input1237"},"inbound_nodes":[]},{"name":"dense_Dense7417","class_name":"Dense","config":{"units":8,"activation":"relu","use_bias":true,"kernel_initializer":{"class_name":"VarianceScaling","config":{"scale":1,"mode":"fan_avg","distribution":"normal","seed":null}},"bias_initializer":{"class_name":"Zeros","config":{}},"kernel_regularizer":null,"bias_regularizer":null,"activity_regularizer":null,"kernel_constraint":null,"bias_constraint":null,"name":"dense_Dense7417","trainable":true},"inbound_nodes":[[["input1237",0,0,{}]]]},{"name":"dense_Dense7418","class_name":"Dense","config":{"units":32,"activation":"relu","use_bias":true,"kernel_initializer":{"class_name":"VarianceScaling","config":{"scale":1,"mode":"fan_avg","distribution":"normal","seed":null}},"bias_initializer":{"class_name":"Zeros","config":{}},"kernel_regularizer":null,"bias_regularizer":null,"activity_regularizer":null,"kernel_constraint":null,"bias_constraint":null,"name":"dense_Dense7418","trainable":true},"inbound_nodes":[[["dense_Dense7417",0,0,{}]]]},{"name":"dense_Dense7419","class_name":"Dense","config":{"units":16,"activation":"relu","use_bias":true,"kernel_initializer":{"class_name":"VarianceScaling","config":{"scale":1,"mode":"fan_avg","distribution":"normal","seed":null}},"bias_initializer":{"class_name":"Zeros","config":{}},"kernel_regularizer":null,"bias_regularizer":null,"activity_regularizer":null,"kernel_constraint":null,"bias_constraint":null,"name":"dense_Dense7419","trainable":true},"inbound_nodes":[[["dense_Dense7418",0,0,{}]]]},{"name":"dense_Dense7420","class_name":"Dense","config":{"units":4,"activation":"relu","use_bias":true,"kernel_initializer":{"class_name":"VarianceScaling","config":{"scale":1,"mode":"fan_avg","distribution":"normal","seed":null}},"bias_initializer":{"class_name":"Zeros","config":{}},"kernel_regularizer":null,"bias_regularizer":null,"activity_regularizer":null,"kernel_constraint":null,"bias_constraint":null,"name":"dense_Dense7420","trainable":true},"inbound_nodes":[[["dense_Dense7419",0,0,{}]]]},{"name":"dense_Dense7421","class_name":"Dense","config":{"units":1,"activation":"relu","use_bias":true,"kernel_initializer":{"class_name":"VarianceScaling","config":{"scale":1,"mode":"fan_avg","distribution":"normal","seed":null}},"bias_initializer":{"class_name":"Zeros","config":{}},"kernel_regularizer":null,"bias_regularizer":null,"activity_regularizer":null,"kernel_constraint":null,"bias_constraint":null,"name":"dense_Dense7421","trainable":true},"inbound_nodes":[[["dense_Dense7420",0,0,{}]]]},{"name":"dense_Dense7422","class_name":"Dense","config":{"units":1,"activation":"sigmoid","use_bias":true,"kernel_initializer":{"class_name":"VarianceScaling","config":{"scale":1,"mode":"fan_avg","distribution":"normal","seed":null}},"bias_initializer":{"class_name":"Zeros","config":{}},"kernel_regularizer":null,"bias_regularizer":null,"activity_regularizer":null,"kernel_constraint":null,"bias_constraint":null,"name":"dense_Dense7422","trainable":true},"inbound_nodes":[[["dense_Dense7421",0,0,{}]]]}],"input_layers":[["input1237",0,0]],"output_layers":[["dense_Dense7422",0,0]]},"keras_version":"tfjs-layers 3.9.0","backend":"tensor_flow.js"},"weightsManifest":[{"paths":["weights.bin"],"weights":[{"name":"dense_Dense7417/kernel","shape":[3,8],"dtype":"float32"},{"name":"dense_Dense7417/bias","shape":[8],"dtype":"float32"},{"name":"dense_Dense7418/kernel","shape":[8,32],"dtype":"float32"},{"name":"dense_Dense7418/bias","shape":[32],"dtype":"float32"},{"name":"dense_Dense7419/kernel","shape":[32,16],"dtype":"float32"},{"name":"dense_Dense7419/bias","shape":[16],"dtype":"float32"},{"name":"dense_Dense7420/kernel","shape":[16,4],"dtype":"float32"},{"name":"dense_Dense7420/bias","shape":[4],"dtype":"float32"},{"name":"dense_Dense7421/kernel","shape":[4,1],"dtype":"float32"},{"name":"dense_Dense7421/bias","shape":[1],"dtype":"float32"},{"name":"dense_Dense7422/kernel","shape":[1,1],"dtype":"float32"},{"name":"dense_Dense7422/bias","shape":[1],"dtype":"float32"}]}]}