{"modelTopology":{"class_name":"Model","config":{"name":"model262","layers":[{"name":"input262","class_name":"InputLayer","config":{"batch_input_shape":[null,3],"dtype":"float32","sparse":false,"name":"input262"},"inbound_nodes":[]},{"name":"dense_Dense1567","class_name":"Dense","config":{"units":4,"activation":"relu","use_bias":true,"kernel_initializer":{"class_name":"VarianceScaling","config":{"scale":1,"mode":"fan_avg","distribution":"normal","seed":null}},"bias_initializer":{"class_name":"Zeros","config":{}},"kernel_regularizer":null,"bias_regularizer":null,"activity_regularizer":null,"kernel_constraint":null,"bias_constraint":null,"name":"dense_Dense1567","trainable":true},"inbound_nodes":[[["input262",0,0,{}]]]},{"name":"dense_Dense1568","class_name":"Dense","config":{"units":2,"activation":"relu","use_bias":true,"kernel_initializer":{"class_name":"VarianceScaling","config":{"scale":1,"mode":"fan_avg","distribution":"normal","seed":null}},"bias_initializer":{"class_name":"Zeros","config":{}},"kernel_regularizer":null,"bias_regularizer":null,"activity_regularizer":null,"kernel_constraint":null,"bias_constraint":null,"name":"dense_Dense1568","trainable":true},"inbound_nodes":[[["dense_Dense1567",0,0,{}]]]},{"name":"dense_Dense1569","class_name":"Dense","config":{"units":2,"activation":"relu","use_bias":true,"kernel_initializer":{"class_name":"VarianceScaling","config":{"scale":1,"mode":"fan_avg","distribution":"normal","seed":null}},"bias_initializer":{"class_name":"Zeros","config":{}},"kernel_regularizer":null,"bias_regularizer":null,"activity_regularizer":null,"kernel_constraint":null,"bias_constraint":null,"name":"dense_Dense1569","trainable":true},"inbound_nodes":[[["dense_Dense1568",0,0,{}]]]},{"name":"dense_Dense1570","class_name":"Dense","config":{"units":2,"activation":"relu","use_bias":true,"kernel_initializer":{"class_name":"VarianceScaling","config":{"scale":1,"mode":"fan_avg","distribution":"normal","seed":null}},"bias_initializer":{"class_name":"Zeros","config":{}},"kernel_regularizer":null,"bias_regularizer":null,"activity_regularizer":null,"kernel_constraint":null,"bias_constraint":null,"name":"dense_Dense1570","trainable":true},"inbound_nodes":[[["dense_Dense1569",0,0,{}]]]},{"name":"dense_Dense1571","class_name":"Dense","config":{"units":8,"activation":"relu","use_bias":true,"kernel_initializer":{"class_name":"VarianceScaling","config":{"scale":1,"mode":"fan_avg","distribution":"normal","seed":null}},"bias_initializer":{"class_name":"Zeros","config":{}},"kernel_regularizer":null,"bias_regularizer":null,"activity_regularizer":null,"kernel_constraint":null,"bias_constraint":null,"name":"dense_Dense1571","trainable":true},"inbound_nodes":[[["dense_Dense1570",0,0,{}]]]},{"name":"dense_Dense1572","class_name":"Dense","config":{"units":1,"activation":"sigmoid","use_bias":true,"kernel_initializer":{"class_name":"VarianceScaling","config":{"scale":1,"mode":"fan_avg","distribution":"normal","seed":null}},"bias_initializer":{"class_name":"Zeros","config":{}},"kernel_regularizer":null,"bias_regularizer":null,"activity_regularizer":null,"kernel_constraint":null,"bias_constraint":null,"name":"dense_Dense1572","trainable":true},"inbound_nodes":[[["dense_Dense1571",0,0,{}]]]}],"input_layers":[["input262",0,0]],"output_layers":[["dense_Dense1572",0,0]]},"keras_version":"tfjs-layers 3.9.0","backend":"tensor_flow.js"},"weightsManifest":[{"paths":["weights.bin"],"weights":[{"name":"dense_Dense1567/kernel","shape":[3,4],"dtype":"float32"},{"name":"dense_Dense1567/bias","shape":[4],"dtype":"float32"},{"name":"dense_Dense1568/kernel","shape":[4,2],"dtype":"float32"},{"name":"dense_Dense1568/bias","shape":[2],"dtype":"float32"},{"name":"dense_Dense1569/kernel","shape":[2,2],"dtype":"float32"},{"name":"dense_Dense1569/bias","shape":[2],"dtype":"float32"},{"name":"dense_Dense1570/kernel","shape":[2,2],"dtype":"float32"},{"name":"dense_Dense1570/bias","shape":[2],"dtype":"float32"},{"name":"dense_Dense1571/kernel","shape":[2,8],"dtype":"float32"},{"name":"dense_Dense1571/bias","shape":[8],"dtype":"float32"},{"name":"dense_Dense1572/kernel","shape":[8,1],"dtype":"float32"},{"name":"dense_Dense1572/bias","shape":[1],"dtype":"float32"}]}]}