{"modelTopology":{"class_name":"Model","config":{"name":"model215","layers":[{"name":"input215","class_name":"InputLayer","config":{"batch_input_shape":[null,3],"dtype":"float32","sparse":false,"name":"input215"},"inbound_nodes":[]},{"name":"dense_Dense857","class_name":"Dense","config":{"units":32,"activation":"relu","use_bias":true,"kernel_initializer":{"class_name":"VarianceScaling","config":{"scale":1,"mode":"fan_avg","distribution":"normal","seed":null}},"bias_initializer":{"class_name":"Zeros","config":{}},"kernel_regularizer":null,"bias_regularizer":null,"activity_regularizer":null,"kernel_constraint":null,"bias_constraint":null,"name":"dense_Dense857","trainable":true},"inbound_nodes":[[["input215",0,0,{}]]]},{"name":"dense_Dense858","class_name":"Dense","config":{"units":32,"activation":"relu","use_bias":true,"kernel_initializer":{"class_name":"VarianceScaling","config":{"scale":1,"mode":"fan_avg","distribution":"normal","seed":null}},"bias_initializer":{"class_name":"Zeros","config":{}},"kernel_regularizer":null,"bias_regularizer":null,"activity_regularizer":null,"kernel_constraint":null,"bias_constraint":null,"name":"dense_Dense858","trainable":true},"inbound_nodes":[[["dense_Dense857",0,0,{}]]]},{"name":"dense_Dense859","class_name":"Dense","config":{"units":16,"activation":"relu","use_bias":true,"kernel_initializer":{"class_name":"VarianceScaling","config":{"scale":1,"mode":"fan_avg","distribution":"normal","seed":null}},"bias_initializer":{"class_name":"Zeros","config":{}},"kernel_regularizer":null,"bias_regularizer":null,"activity_regularizer":null,"kernel_constraint":null,"bias_constraint":null,"name":"dense_Dense859","trainable":true},"inbound_nodes":[[["dense_Dense858",0,0,{}]]]},{"name":"dense_Dense860","class_name":"Dense","config":{"units":1,"activation":"sigmoid","use_bias":true,"kernel_initializer":{"class_name":"VarianceScaling","config":{"scale":1,"mode":"fan_avg","distribution":"normal","seed":null}},"bias_initializer":{"class_name":"Zeros","config":{}},"kernel_regularizer":null,"bias_regularizer":null,"activity_regularizer":null,"kernel_constraint":null,"bias_constraint":null,"name":"dense_Dense860","trainable":true},"inbound_nodes":[[["dense_Dense859",0,0,{}]]]}],"input_layers":[["input215",0,0]],"output_layers":[["dense_Dense860",0,0]]},"keras_version":"tfjs-layers 3.9.0","backend":"tensor_flow.js"},"weightsManifest":[{"paths":["weights.bin"],"weights":[{"name":"dense_Dense857/kernel","shape":[3,32],"dtype":"float32"},{"name":"dense_Dense857/bias","shape":[32],"dtype":"float32"},{"name":"dense_Dense858/kernel","shape":[32,32],"dtype":"float32"},{"name":"dense_Dense858/bias","shape":[32],"dtype":"float32"},{"name":"dense_Dense859/kernel","shape":[32,16],"dtype":"float32"},{"name":"dense_Dense859/bias","shape":[16],"dtype":"float32"},{"name":"dense_Dense860/kernel","shape":[16,1],"dtype":"float32"},{"name":"dense_Dense860/bias","shape":[1],"dtype":"float32"}]}]}