{"modelTopology":{"class_name":"Model","config":{"name":"model929","layers":[{"name":"input929","class_name":"InputLayer","config":{"batch_input_shape":[null,3],"dtype":"float32","sparse":false,"name":"input929"},"inbound_nodes":[]},{"name":"dense_Dense5569","class_name":"Dense","config":{"units":1,"activation":"relu","use_bias":true,"kernel_initializer":{"class_name":"VarianceScaling","config":{"scale":1,"mode":"fan_avg","distribution":"normal","seed":null}},"bias_initializer":{"class_name":"Zeros","config":{}},"kernel_regularizer":null,"bias_regularizer":null,"activity_regularizer":null,"kernel_constraint":null,"bias_constraint":null,"name":"dense_Dense5569","trainable":true},"inbound_nodes":[[["input929",0,0,{}]]]},{"name":"dense_Dense5570","class_name":"Dense","config":{"units":16,"activation":"relu","use_bias":true,"kernel_initializer":{"class_name":"VarianceScaling","config":{"scale":1,"mode":"fan_avg","distribution":"normal","seed":null}},"bias_initializer":{"class_name":"Zeros","config":{}},"kernel_regularizer":null,"bias_regularizer":null,"activity_regularizer":null,"kernel_constraint":null,"bias_constraint":null,"name":"dense_Dense5570","trainable":true},"inbound_nodes":[[["dense_Dense5569",0,0,{}]]]},{"name":"dense_Dense5571","class_name":"Dense","config":{"units":2,"activation":"relu","use_bias":true,"kernel_initializer":{"class_name":"VarianceScaling","config":{"scale":1,"mode":"fan_avg","distribution":"normal","seed":null}},"bias_initializer":{"class_name":"Zeros","config":{}},"kernel_regularizer":null,"bias_regularizer":null,"activity_regularizer":null,"kernel_constraint":null,"bias_constraint":null,"name":"dense_Dense5571","trainable":true},"inbound_nodes":[[["dense_Dense5570",0,0,{}]]]},{"name":"dense_Dense5572","class_name":"Dense","config":{"units":16,"activation":"relu","use_bias":true,"kernel_initializer":{"class_name":"VarianceScaling","config":{"scale":1,"mode":"fan_avg","distribution":"normal","seed":null}},"bias_initializer":{"class_name":"Zeros","config":{}},"kernel_regularizer":null,"bias_regularizer":null,"activity_regularizer":null,"kernel_constraint":null,"bias_constraint":null,"name":"dense_Dense5572","trainable":true},"inbound_nodes":[[["dense_Dense5571",0,0,{}]]]},{"name":"dense_Dense5573","class_name":"Dense","config":{"units":16,"activation":"relu","use_bias":true,"kernel_initializer":{"class_name":"VarianceScaling","config":{"scale":1,"mode":"fan_avg","distribution":"normal","seed":null}},"bias_initializer":{"class_name":"Zeros","config":{}},"kernel_regularizer":null,"bias_regularizer":null,"activity_regularizer":null,"kernel_constraint":null,"bias_constraint":null,"name":"dense_Dense5573","trainable":true},"inbound_nodes":[[["dense_Dense5572",0,0,{}]]]},{"name":"dense_Dense5574","class_name":"Dense","config":{"units":1,"activation":"sigmoid","use_bias":true,"kernel_initializer":{"class_name":"VarianceScaling","config":{"scale":1,"mode":"fan_avg","distribution":"normal","seed":null}},"bias_initializer":{"class_name":"Zeros","config":{}},"kernel_regularizer":null,"bias_regularizer":null,"activity_regularizer":null,"kernel_constraint":null,"bias_constraint":null,"name":"dense_Dense5574","trainable":true},"inbound_nodes":[[["dense_Dense5573",0,0,{}]]]}],"input_layers":[["input929",0,0]],"output_layers":[["dense_Dense5574",0,0]]},"keras_version":"tfjs-layers 3.9.0","backend":"tensor_flow.js"},"weightsManifest":[{"paths":["weights.bin"],"weights":[{"name":"dense_Dense5569/kernel","shape":[3,1],"dtype":"float32"},{"name":"dense_Dense5569/bias","shape":[1],"dtype":"float32"},{"name":"dense_Dense5570/kernel","shape":[1,16],"dtype":"float32"},{"name":"dense_Dense5570/bias","shape":[16],"dtype":"float32"},{"name":"dense_Dense5571/kernel","shape":[16,2],"dtype":"float32"},{"name":"dense_Dense5571/bias","shape":[2],"dtype":"float32"},{"name":"dense_Dense5572/kernel","shape":[2,16],"dtype":"float32"},{"name":"dense_Dense5572/bias","shape":[16],"dtype":"float32"},{"name":"dense_Dense5573/kernel","shape":[16,16],"dtype":"float32"},{"name":"dense_Dense5573/bias","shape":[16],"dtype":"float32"},{"name":"dense_Dense5574/kernel","shape":[16,1],"dtype":"float32"},{"name":"dense_Dense5574/bias","shape":[1],"dtype":"float32"}]}]}