{"modelTopology":{"class_name":"Model","config":{"name":"model177","layers":[{"name":"input177","class_name":"InputLayer","config":{"batch_input_shape":[null,3],"dtype":"float32","sparse":false,"name":"input177"},"inbound_nodes":[]},{"name":"dense_Dense1057","class_name":"Dense","config":{"units":16,"activation":"relu","use_bias":true,"kernel_initializer":{"class_name":"VarianceScaling","config":{"scale":1,"mode":"fan_avg","distribution":"normal","seed":null}},"bias_initializer":{"class_name":"Zeros","config":{}},"kernel_regularizer":null,"bias_regularizer":null,"activity_regularizer":null,"kernel_constraint":null,"bias_constraint":null,"name":"dense_Dense1057","trainable":true},"inbound_nodes":[[["input177",0,0,{}]]]},{"name":"dense_Dense1058","class_name":"Dense","config":{"units":1,"activation":"relu","use_bias":true,"kernel_initializer":{"class_name":"VarianceScaling","config":{"scale":1,"mode":"fan_avg","distribution":"normal","seed":null}},"bias_initializer":{"class_name":"Zeros","config":{}},"kernel_regularizer":null,"bias_regularizer":null,"activity_regularizer":null,"kernel_constraint":null,"bias_constraint":null,"name":"dense_Dense1058","trainable":true},"inbound_nodes":[[["dense_Dense1057",0,0,{}]]]},{"name":"dense_Dense1059","class_name":"Dense","config":{"units":16,"activation":"relu","use_bias":true,"kernel_initializer":{"class_name":"VarianceScaling","config":{"scale":1,"mode":"fan_avg","distribution":"normal","seed":null}},"bias_initializer":{"class_name":"Zeros","config":{}},"kernel_regularizer":null,"bias_regularizer":null,"activity_regularizer":null,"kernel_constraint":null,"bias_constraint":null,"name":"dense_Dense1059","trainable":true},"inbound_nodes":[[["dense_Dense1058",0,0,{}]]]},{"name":"dense_Dense1060","class_name":"Dense","config":{"units":32,"activation":"relu","use_bias":true,"kernel_initializer":{"class_name":"VarianceScaling","config":{"scale":1,"mode":"fan_avg","distribution":"normal","seed":null}},"bias_initializer":{"class_name":"Zeros","config":{}},"kernel_regularizer":null,"bias_regularizer":null,"activity_regularizer":null,"kernel_constraint":null,"bias_constraint":null,"name":"dense_Dense1060","trainable":true},"inbound_nodes":[[["dense_Dense1059",0,0,{}]]]},{"name":"dense_Dense1061","class_name":"Dense","config":{"units":4,"activation":"relu","use_bias":true,"kernel_initializer":{"class_name":"VarianceScaling","config":{"scale":1,"mode":"fan_avg","distribution":"normal","seed":null}},"bias_initializer":{"class_name":"Zeros","config":{}},"kernel_regularizer":null,"bias_regularizer":null,"activity_regularizer":null,"kernel_constraint":null,"bias_constraint":null,"name":"dense_Dense1061","trainable":true},"inbound_nodes":[[["dense_Dense1060",0,0,{}]]]},{"name":"dense_Dense1062","class_name":"Dense","config":{"units":1,"activation":"sigmoid","use_bias":true,"kernel_initializer":{"class_name":"VarianceScaling","config":{"scale":1,"mode":"fan_avg","distribution":"normal","seed":null}},"bias_initializer":{"class_name":"Zeros","config":{}},"kernel_regularizer":null,"bias_regularizer":null,"activity_regularizer":null,"kernel_constraint":null,"bias_constraint":null,"name":"dense_Dense1062","trainable":true},"inbound_nodes":[[["dense_Dense1061",0,0,{}]]]}],"input_layers":[["input177",0,0]],"output_layers":[["dense_Dense1062",0,0]]},"keras_version":"tfjs-layers 3.9.0","backend":"tensor_flow.js"},"weightsManifest":[{"paths":["weights.bin"],"weights":[{"name":"dense_Dense1057/kernel","shape":[3,16],"dtype":"float32"},{"name":"dense_Dense1057/bias","shape":[16],"dtype":"float32"},{"name":"dense_Dense1058/kernel","shape":[16,1],"dtype":"float32"},{"name":"dense_Dense1058/bias","shape":[1],"dtype":"float32"},{"name":"dense_Dense1059/kernel","shape":[1,16],"dtype":"float32"},{"name":"dense_Dense1059/bias","shape":[16],"dtype":"float32"},{"name":"dense_Dense1060/kernel","shape":[16,32],"dtype":"float32"},{"name":"dense_Dense1060/bias","shape":[32],"dtype":"float32"},{"name":"dense_Dense1061/kernel","shape":[32,4],"dtype":"float32"},{"name":"dense_Dense1061/bias","shape":[4],"dtype":"float32"},{"name":"dense_Dense1062/kernel","shape":[4,1],"dtype":"float32"},{"name":"dense_Dense1062/bias","shape":[1],"dtype":"float32"}]}]}