{"modelTopology":{"class_name":"Model","config":{"name":"model156","layers":[{"name":"input156","class_name":"InputLayer","config":{"batch_input_shape":[null,3],"dtype":"float32","sparse":false,"name":"input156"},"inbound_nodes":[]},{"name":"dense_Dense621","class_name":"Dense","config":{"units":16,"activation":"relu","use_bias":true,"kernel_initializer":{"class_name":"VarianceScaling","config":{"scale":1,"mode":"fan_avg","distribution":"normal","seed":null}},"bias_initializer":{"class_name":"Zeros","config":{}},"kernel_regularizer":null,"bias_regularizer":null,"activity_regularizer":null,"kernel_constraint":null,"bias_constraint":null,"name":"dense_Dense621","trainable":true},"inbound_nodes":[[["input156",0,0,{}]]]},{"name":"dense_Dense622","class_name":"Dense","config":{"units":2,"activation":"relu","use_bias":true,"kernel_initializer":{"class_name":"VarianceScaling","config":{"scale":1,"mode":"fan_avg","distribution":"normal","seed":null}},"bias_initializer":{"class_name":"Zeros","config":{}},"kernel_regularizer":null,"bias_regularizer":null,"activity_regularizer":null,"kernel_constraint":null,"bias_constraint":null,"name":"dense_Dense622","trainable":true},"inbound_nodes":[[["dense_Dense621",0,0,{}]]]},{"name":"dense_Dense623","class_name":"Dense","config":{"units":32,"activation":"relu","use_bias":true,"kernel_initializer":{"class_name":"VarianceScaling","config":{"scale":1,"mode":"fan_avg","distribution":"normal","seed":null}},"bias_initializer":{"class_name":"Zeros","config":{}},"kernel_regularizer":null,"bias_regularizer":null,"activity_regularizer":null,"kernel_constraint":null,"bias_constraint":null,"name":"dense_Dense623","trainable":true},"inbound_nodes":[[["dense_Dense622",0,0,{}]]]},{"name":"dense_Dense624","class_name":"Dense","config":{"units":1,"activation":"sigmoid","use_bias":true,"kernel_initializer":{"class_name":"VarianceScaling","config":{"scale":1,"mode":"fan_avg","distribution":"normal","seed":null}},"bias_initializer":{"class_name":"Zeros","config":{}},"kernel_regularizer":null,"bias_regularizer":null,"activity_regularizer":null,"kernel_constraint":null,"bias_constraint":null,"name":"dense_Dense624","trainable":true},"inbound_nodes":[[["dense_Dense623",0,0,{}]]]}],"input_layers":[["input156",0,0]],"output_layers":[["dense_Dense624",0,0]]},"keras_version":"tfjs-layers 3.9.0","backend":"tensor_flow.js"},"weightsManifest":[{"paths":["weights.bin"],"weights":[{"name":"dense_Dense621/kernel","shape":[3,16],"dtype":"float32"},{"name":"dense_Dense621/bias","shape":[16],"dtype":"float32"},{"name":"dense_Dense622/kernel","shape":[16,2],"dtype":"float32"},{"name":"dense_Dense622/bias","shape":[2],"dtype":"float32"},{"name":"dense_Dense623/kernel","shape":[2,32],"dtype":"float32"},{"name":"dense_Dense623/bias","shape":[32],"dtype":"float32"},{"name":"dense_Dense624/kernel","shape":[32,1],"dtype":"float32"},{"name":"dense_Dense624/bias","shape":[1],"dtype":"float32"}]}]}