{"modelTopology":{"class_name":"Model","config":{"name":"model1204","layers":[{"name":"input1204","class_name":"InputLayer","config":{"batch_input_shape":[null,3],"dtype":"float32","sparse":false,"name":"input1204"},"inbound_nodes":[]},{"name":"dense_Dense6016","class_name":"Dense","config":{"units":32,"activation":"relu","use_bias":true,"kernel_initializer":{"class_name":"VarianceScaling","config":{"scale":1,"mode":"fan_avg","distribution":"normal","seed":null}},"bias_initializer":{"class_name":"Zeros","config":{}},"kernel_regularizer":null,"bias_regularizer":null,"activity_regularizer":null,"kernel_constraint":null,"bias_constraint":null,"name":"dense_Dense6016","trainable":true},"inbound_nodes":[[["input1204",0,0,{}]]]},{"name":"dense_Dense6017","class_name":"Dense","config":{"units":8,"activation":"relu","use_bias":true,"kernel_initializer":{"class_name":"VarianceScaling","config":{"scale":1,"mode":"fan_avg","distribution":"normal","seed":null}},"bias_initializer":{"class_name":"Zeros","config":{}},"kernel_regularizer":null,"bias_regularizer":null,"activity_regularizer":null,"kernel_constraint":null,"bias_constraint":null,"name":"dense_Dense6017","trainable":true},"inbound_nodes":[[["dense_Dense6016",0,0,{}]]]},{"name":"dense_Dense6018","class_name":"Dense","config":{"units":4,"activation":"relu","use_bias":true,"kernel_initializer":{"class_name":"VarianceScaling","config":{"scale":1,"mode":"fan_avg","distribution":"normal","seed":null}},"bias_initializer":{"class_name":"Zeros","config":{}},"kernel_regularizer":null,"bias_regularizer":null,"activity_regularizer":null,"kernel_constraint":null,"bias_constraint":null,"name":"dense_Dense6018","trainable":true},"inbound_nodes":[[["dense_Dense6017",0,0,{}]]]},{"name":"dense_Dense6019","class_name":"Dense","config":{"units":8,"activation":"relu","use_bias":true,"kernel_initializer":{"class_name":"VarianceScaling","config":{"scale":1,"mode":"fan_avg","distribution":"normal","seed":null}},"bias_initializer":{"class_name":"Zeros","config":{}},"kernel_regularizer":null,"bias_regularizer":null,"activity_regularizer":null,"kernel_constraint":null,"bias_constraint":null,"name":"dense_Dense6019","trainable":true},"inbound_nodes":[[["dense_Dense6018",0,0,{}]]]},{"name":"dense_Dense6020","class_name":"Dense","config":{"units":1,"activation":"sigmoid","use_bias":true,"kernel_initializer":{"class_name":"VarianceScaling","config":{"scale":1,"mode":"fan_avg","distribution":"normal","seed":null}},"bias_initializer":{"class_name":"Zeros","config":{}},"kernel_regularizer":null,"bias_regularizer":null,"activity_regularizer":null,"kernel_constraint":null,"bias_constraint":null,"name":"dense_Dense6020","trainable":true},"inbound_nodes":[[["dense_Dense6019",0,0,{}]]]}],"input_layers":[["input1204",0,0]],"output_layers":[["dense_Dense6020",0,0]]},"keras_version":"tfjs-layers 3.9.0","backend":"tensor_flow.js"},"weightsManifest":[{"paths":["weights.bin"],"weights":[{"name":"dense_Dense6016/kernel","shape":[3,32],"dtype":"float32"},{"name":"dense_Dense6016/bias","shape":[32],"dtype":"float32"},{"name":"dense_Dense6017/kernel","shape":[32,8],"dtype":"float32"},{"name":"dense_Dense6017/bias","shape":[8],"dtype":"float32"},{"name":"dense_Dense6018/kernel","shape":[8,4],"dtype":"float32"},{"name":"dense_Dense6018/bias","shape":[4],"dtype":"float32"},{"name":"dense_Dense6019/kernel","shape":[4,8],"dtype":"float32"},{"name":"dense_Dense6019/bias","shape":[8],"dtype":"float32"},{"name":"dense_Dense6020/kernel","shape":[8,1],"dtype":"float32"},{"name":"dense_Dense6020/bias","shape":[1],"dtype":"float32"}]}]}