{"modelTopology":{"class_name":"Model","config":{"name":"model170","layers":[{"name":"input170","class_name":"InputLayer","config":{"batch_input_shape":[null,3],"dtype":"float32","sparse":false,"name":"input170"},"inbound_nodes":[]},{"name":"dense_Dense1015","class_name":"Dense","config":{"units":32,"activation":"relu","use_bias":true,"kernel_initializer":{"class_name":"VarianceScaling","config":{"scale":1,"mode":"fan_avg","distribution":"normal","seed":null}},"bias_initializer":{"class_name":"Zeros","config":{}},"kernel_regularizer":null,"bias_regularizer":null,"activity_regularizer":null,"kernel_constraint":null,"bias_constraint":null,"name":"dense_Dense1015","trainable":true},"inbound_nodes":[[["input170",0,0,{}]]]},{"name":"dense_Dense1016","class_name":"Dense","config":{"units":1,"activation":"relu","use_bias":true,"kernel_initializer":{"class_name":"VarianceScaling","config":{"scale":1,"mode":"fan_avg","distribution":"normal","seed":null}},"bias_initializer":{"class_name":"Zeros","config":{}},"kernel_regularizer":null,"bias_regularizer":null,"activity_regularizer":null,"kernel_constraint":null,"bias_constraint":null,"name":"dense_Dense1016","trainable":true},"inbound_nodes":[[["dense_Dense1015",0,0,{}]]]},{"name":"dense_Dense1017","class_name":"Dense","config":{"units":16,"activation":"relu","use_bias":true,"kernel_initializer":{"class_name":"VarianceScaling","config":{"scale":1,"mode":"fan_avg","distribution":"normal","seed":null}},"bias_initializer":{"class_name":"Zeros","config":{}},"kernel_regularizer":null,"bias_regularizer":null,"activity_regularizer":null,"kernel_constraint":null,"bias_constraint":null,"name":"dense_Dense1017","trainable":true},"inbound_nodes":[[["dense_Dense1016",0,0,{}]]]},{"name":"dense_Dense1018","class_name":"Dense","config":{"units":16,"activation":"relu","use_bias":true,"kernel_initializer":{"class_name":"VarianceScaling","config":{"scale":1,"mode":"fan_avg","distribution":"normal","seed":null}},"bias_initializer":{"class_name":"Zeros","config":{}},"kernel_regularizer":null,"bias_regularizer":null,"activity_regularizer":null,"kernel_constraint":null,"bias_constraint":null,"name":"dense_Dense1018","trainable":true},"inbound_nodes":[[["dense_Dense1017",0,0,{}]]]},{"name":"dense_Dense1019","class_name":"Dense","config":{"units":2,"activation":"relu","use_bias":true,"kernel_initializer":{"class_name":"VarianceScaling","config":{"scale":1,"mode":"fan_avg","distribution":"normal","seed":null}},"bias_initializer":{"class_name":"Zeros","config":{}},"kernel_regularizer":null,"bias_regularizer":null,"activity_regularizer":null,"kernel_constraint":null,"bias_constraint":null,"name":"dense_Dense1019","trainable":true},"inbound_nodes":[[["dense_Dense1018",0,0,{}]]]},{"name":"dense_Dense1020","class_name":"Dense","config":{"units":1,"activation":"sigmoid","use_bias":true,"kernel_initializer":{"class_name":"VarianceScaling","config":{"scale":1,"mode":"fan_avg","distribution":"normal","seed":null}},"bias_initializer":{"class_name":"Zeros","config":{}},"kernel_regularizer":null,"bias_regularizer":null,"activity_regularizer":null,"kernel_constraint":null,"bias_constraint":null,"name":"dense_Dense1020","trainable":true},"inbound_nodes":[[["dense_Dense1019",0,0,{}]]]}],"input_layers":[["input170",0,0]],"output_layers":[["dense_Dense1020",0,0]]},"keras_version":"tfjs-layers 3.9.0","backend":"tensor_flow.js"},"weightsManifest":[{"paths":["weights.bin"],"weights":[{"name":"dense_Dense1015/kernel","shape":[3,32],"dtype":"float32"},{"name":"dense_Dense1015/bias","shape":[32],"dtype":"float32"},{"name":"dense_Dense1016/kernel","shape":[32,1],"dtype":"float32"},{"name":"dense_Dense1016/bias","shape":[1],"dtype":"float32"},{"name":"dense_Dense1017/kernel","shape":[1,16],"dtype":"float32"},{"name":"dense_Dense1017/bias","shape":[16],"dtype":"float32"},{"name":"dense_Dense1018/kernel","shape":[16,16],"dtype":"float32"},{"name":"dense_Dense1018/bias","shape":[16],"dtype":"float32"},{"name":"dense_Dense1019/kernel","shape":[16,2],"dtype":"float32"},{"name":"dense_Dense1019/bias","shape":[2],"dtype":"float32"},{"name":"dense_Dense1020/kernel","shape":[2,1],"dtype":"float32"},{"name":"dense_Dense1020/bias","shape":[1],"dtype":"float32"}]}]}