{"modelTopology":{"class_name":"Model","config":{"name":"model928","layers":[{"name":"input928","class_name":"InputLayer","config":{"batch_input_shape":[null,3],"dtype":"float32","sparse":false,"name":"input928"},"inbound_nodes":[]},{"name":"dense_Dense5563","class_name":"Dense","config":{"units":2,"activation":"relu","use_bias":true,"kernel_initializer":{"class_name":"VarianceScaling","config":{"scale":1,"mode":"fan_avg","distribution":"normal","seed":null}},"bias_initializer":{"class_name":"Zeros","config":{}},"kernel_regularizer":null,"bias_regularizer":null,"activity_regularizer":null,"kernel_constraint":null,"bias_constraint":null,"name":"dense_Dense5563","trainable":true},"inbound_nodes":[[["input928",0,0,{}]]]},{"name":"dense_Dense5564","class_name":"Dense","config":{"units":16,"activation":"relu","use_bias":true,"kernel_initializer":{"class_name":"VarianceScaling","config":{"scale":1,"mode":"fan_avg","distribution":"normal","seed":null}},"bias_initializer":{"class_name":"Zeros","config":{}},"kernel_regularizer":null,"bias_regularizer":null,"activity_regularizer":null,"kernel_constraint":null,"bias_constraint":null,"name":"dense_Dense5564","trainable":true},"inbound_nodes":[[["dense_Dense5563",0,0,{}]]]},{"name":"dense_Dense5565","class_name":"Dense","config":{"units":2,"activation":"relu","use_bias":true,"kernel_initializer":{"class_name":"VarianceScaling","config":{"scale":1,"mode":"fan_avg","distribution":"normal","seed":null}},"bias_initializer":{"class_name":"Zeros","config":{}},"kernel_regularizer":null,"bias_regularizer":null,"activity_regularizer":null,"kernel_constraint":null,"bias_constraint":null,"name":"dense_Dense5565","trainable":true},"inbound_nodes":[[["dense_Dense5564",0,0,{}]]]},{"name":"dense_Dense5566","class_name":"Dense","config":{"units":16,"activation":"relu","use_bias":true,"kernel_initializer":{"class_name":"VarianceScaling","config":{"scale":1,"mode":"fan_avg","distribution":"normal","seed":null}},"bias_initializer":{"class_name":"Zeros","config":{}},"kernel_regularizer":null,"bias_regularizer":null,"activity_regularizer":null,"kernel_constraint":null,"bias_constraint":null,"name":"dense_Dense5566","trainable":true},"inbound_nodes":[[["dense_Dense5565",0,0,{}]]]},{"name":"dense_Dense5567","class_name":"Dense","config":{"units":8,"activation":"relu","use_bias":true,"kernel_initializer":{"class_name":"VarianceScaling","config":{"scale":1,"mode":"fan_avg","distribution":"normal","seed":null}},"bias_initializer":{"class_name":"Zeros","config":{}},"kernel_regularizer":null,"bias_regularizer":null,"activity_regularizer":null,"kernel_constraint":null,"bias_constraint":null,"name":"dense_Dense5567","trainable":true},"inbound_nodes":[[["dense_Dense5566",0,0,{}]]]},{"name":"dense_Dense5568","class_name":"Dense","config":{"units":1,"activation":"sigmoid","use_bias":true,"kernel_initializer":{"class_name":"VarianceScaling","config":{"scale":1,"mode":"fan_avg","distribution":"normal","seed":null}},"bias_initializer":{"class_name":"Zeros","config":{}},"kernel_regularizer":null,"bias_regularizer":null,"activity_regularizer":null,"kernel_constraint":null,"bias_constraint":null,"name":"dense_Dense5568","trainable":true},"inbound_nodes":[[["dense_Dense5567",0,0,{}]]]}],"input_layers":[["input928",0,0]],"output_layers":[["dense_Dense5568",0,0]]},"keras_version":"tfjs-layers 3.9.0","backend":"tensor_flow.js"},"weightsManifest":[{"paths":["weights.bin"],"weights":[{"name":"dense_Dense5563/kernel","shape":[3,2],"dtype":"float32"},{"name":"dense_Dense5563/bias","shape":[2],"dtype":"float32"},{"name":"dense_Dense5564/kernel","shape":[2,16],"dtype":"float32"},{"name":"dense_Dense5564/bias","shape":[16],"dtype":"float32"},{"name":"dense_Dense5565/kernel","shape":[16,2],"dtype":"float32"},{"name":"dense_Dense5565/bias","shape":[2],"dtype":"float32"},{"name":"dense_Dense5566/kernel","shape":[2,16],"dtype":"float32"},{"name":"dense_Dense5566/bias","shape":[16],"dtype":"float32"},{"name":"dense_Dense5567/kernel","shape":[16,8],"dtype":"float32"},{"name":"dense_Dense5567/bias","shape":[8],"dtype":"float32"},{"name":"dense_Dense5568/kernel","shape":[8,1],"dtype":"float32"},{"name":"dense_Dense5568/bias","shape":[1],"dtype":"float32"}]}]}