{"modelTopology":{"class_name":"Model","config":{"name":"model622","layers":[{"name":"input622","class_name":"InputLayer","config":{"batch_input_shape":[null,3],"dtype":"float32","sparse":false,"name":"input622"},"inbound_nodes":[]},{"name":"dense_Dense3727","class_name":"Dense","config":{"units":32,"activation":"relu","use_bias":true,"kernel_initializer":{"class_name":"VarianceScaling","config":{"scale":1,"mode":"fan_avg","distribution":"normal","seed":null}},"bias_initializer":{"class_name":"Zeros","config":{}},"kernel_regularizer":null,"bias_regularizer":null,"activity_regularizer":null,"kernel_constraint":null,"bias_constraint":null,"name":"dense_Dense3727","trainable":true},"inbound_nodes":[[["input622",0,0,{}]]]},{"name":"dense_Dense3728","class_name":"Dense","config":{"units":4,"activation":"relu","use_bias":true,"kernel_initializer":{"class_name":"VarianceScaling","config":{"scale":1,"mode":"fan_avg","distribution":"normal","seed":null}},"bias_initializer":{"class_name":"Zeros","config":{}},"kernel_regularizer":null,"bias_regularizer":null,"activity_regularizer":null,"kernel_constraint":null,"bias_constraint":null,"name":"dense_Dense3728","trainable":true},"inbound_nodes":[[["dense_Dense3727",0,0,{}]]]},{"name":"dense_Dense3729","class_name":"Dense","config":{"units":32,"activation":"relu","use_bias":true,"kernel_initializer":{"class_name":"VarianceScaling","config":{"scale":1,"mode":"fan_avg","distribution":"normal","seed":null}},"bias_initializer":{"class_name":"Zeros","config":{}},"kernel_regularizer":null,"bias_regularizer":null,"activity_regularizer":null,"kernel_constraint":null,"bias_constraint":null,"name":"dense_Dense3729","trainable":true},"inbound_nodes":[[["dense_Dense3728",0,0,{}]]]},{"name":"dense_Dense3730","class_name":"Dense","config":{"units":2,"activation":"relu","use_bias":true,"kernel_initializer":{"class_name":"VarianceScaling","config":{"scale":1,"mode":"fan_avg","distribution":"normal","seed":null}},"bias_initializer":{"class_name":"Zeros","config":{}},"kernel_regularizer":null,"bias_regularizer":null,"activity_regularizer":null,"kernel_constraint":null,"bias_constraint":null,"name":"dense_Dense3730","trainable":true},"inbound_nodes":[[["dense_Dense3729",0,0,{}]]]},{"name":"dense_Dense3731","class_name":"Dense","config":{"units":8,"activation":"relu","use_bias":true,"kernel_initializer":{"class_name":"VarianceScaling","config":{"scale":1,"mode":"fan_avg","distribution":"normal","seed":null}},"bias_initializer":{"class_name":"Zeros","config":{}},"kernel_regularizer":null,"bias_regularizer":null,"activity_regularizer":null,"kernel_constraint":null,"bias_constraint":null,"name":"dense_Dense3731","trainable":true},"inbound_nodes":[[["dense_Dense3730",0,0,{}]]]},{"name":"dense_Dense3732","class_name":"Dense","config":{"units":1,"activation":"sigmoid","use_bias":true,"kernel_initializer":{"class_name":"VarianceScaling","config":{"scale":1,"mode":"fan_avg","distribution":"normal","seed":null}},"bias_initializer":{"class_name":"Zeros","config":{}},"kernel_regularizer":null,"bias_regularizer":null,"activity_regularizer":null,"kernel_constraint":null,"bias_constraint":null,"name":"dense_Dense3732","trainable":true},"inbound_nodes":[[["dense_Dense3731",0,0,{}]]]}],"input_layers":[["input622",0,0]],"output_layers":[["dense_Dense3732",0,0]]},"keras_version":"tfjs-layers 3.9.0","backend":"tensor_flow.js"},"weightsManifest":[{"paths":["weights.bin"],"weights":[{"name":"dense_Dense3727/kernel","shape":[3,32],"dtype":"float32"},{"name":"dense_Dense3727/bias","shape":[32],"dtype":"float32"},{"name":"dense_Dense3728/kernel","shape":[32,4],"dtype":"float32"},{"name":"dense_Dense3728/bias","shape":[4],"dtype":"float32"},{"name":"dense_Dense3729/kernel","shape":[4,32],"dtype":"float32"},{"name":"dense_Dense3729/bias","shape":[32],"dtype":"float32"},{"name":"dense_Dense3730/kernel","shape":[32,2],"dtype":"float32"},{"name":"dense_Dense3730/bias","shape":[2],"dtype":"float32"},{"name":"dense_Dense3731/kernel","shape":[2,8],"dtype":"float32"},{"name":"dense_Dense3731/bias","shape":[8],"dtype":"float32"},{"name":"dense_Dense3732/kernel","shape":[8,1],"dtype":"float32"},{"name":"dense_Dense3732/bias","shape":[1],"dtype":"float32"}]}]}