{"modelTopology":{"class_name":"Model","config":{"name":"model129","layers":[{"name":"input129","class_name":"InputLayer","config":{"batch_input_shape":[null,3],"dtype":"float32","sparse":false,"name":"input129"},"inbound_nodes":[]},{"name":"dense_Dense641","class_name":"Dense","config":{"units":1,"activation":"relu","use_bias":true,"kernel_initializer":{"class_name":"VarianceScaling","config":{"scale":1,"mode":"fan_avg","distribution":"normal","seed":null}},"bias_initializer":{"class_name":"Zeros","config":{}},"kernel_regularizer":null,"bias_regularizer":null,"activity_regularizer":null,"kernel_constraint":null,"bias_constraint":null,"name":"dense_Dense641","trainable":true},"inbound_nodes":[[["input129",0,0,{}]]]},{"name":"dense_Dense642","class_name":"Dense","config":{"units":8,"activation":"relu","use_bias":true,"kernel_initializer":{"class_name":"VarianceScaling","config":{"scale":1,"mode":"fan_avg","distribution":"normal","seed":null}},"bias_initializer":{"class_name":"Zeros","config":{}},"kernel_regularizer":null,"bias_regularizer":null,"activity_regularizer":null,"kernel_constraint":null,"bias_constraint":null,"name":"dense_Dense642","trainable":true},"inbound_nodes":[[["dense_Dense641",0,0,{}]]]},{"name":"dense_Dense643","class_name":"Dense","config":{"units":8,"activation":"relu","use_bias":true,"kernel_initializer":{"class_name":"VarianceScaling","config":{"scale":1,"mode":"fan_avg","distribution":"normal","seed":null}},"bias_initializer":{"class_name":"Zeros","config":{}},"kernel_regularizer":null,"bias_regularizer":null,"activity_regularizer":null,"kernel_constraint":null,"bias_constraint":null,"name":"dense_Dense643","trainable":true},"inbound_nodes":[[["dense_Dense642",0,0,{}]]]},{"name":"dense_Dense644","class_name":"Dense","config":{"units":4,"activation":"relu","use_bias":true,"kernel_initializer":{"class_name":"VarianceScaling","config":{"scale":1,"mode":"fan_avg","distribution":"normal","seed":null}},"bias_initializer":{"class_name":"Zeros","config":{}},"kernel_regularizer":null,"bias_regularizer":null,"activity_regularizer":null,"kernel_constraint":null,"bias_constraint":null,"name":"dense_Dense644","trainable":true},"inbound_nodes":[[["dense_Dense643",0,0,{}]]]},{"name":"dense_Dense645","class_name":"Dense","config":{"units":1,"activation":"sigmoid","use_bias":true,"kernel_initializer":{"class_name":"VarianceScaling","config":{"scale":1,"mode":"fan_avg","distribution":"normal","seed":null}},"bias_initializer":{"class_name":"Zeros","config":{}},"kernel_regularizer":null,"bias_regularizer":null,"activity_regularizer":null,"kernel_constraint":null,"bias_constraint":null,"name":"dense_Dense645","trainable":true},"inbound_nodes":[[["dense_Dense644",0,0,{}]]]}],"input_layers":[["input129",0,0]],"output_layers":[["dense_Dense645",0,0]]},"keras_version":"tfjs-layers 3.9.0","backend":"tensor_flow.js"},"weightsManifest":[{"paths":["weights.bin"],"weights":[{"name":"dense_Dense641/kernel","shape":[3,1],"dtype":"float32"},{"name":"dense_Dense641/bias","shape":[1],"dtype":"float32"},{"name":"dense_Dense642/kernel","shape":[1,8],"dtype":"float32"},{"name":"dense_Dense642/bias","shape":[8],"dtype":"float32"},{"name":"dense_Dense643/kernel","shape":[8,8],"dtype":"float32"},{"name":"dense_Dense643/bias","shape":[8],"dtype":"float32"},{"name":"dense_Dense644/kernel","shape":[8,4],"dtype":"float32"},{"name":"dense_Dense644/bias","shape":[4],"dtype":"float32"},{"name":"dense_Dense645/kernel","shape":[4,1],"dtype":"float32"},{"name":"dense_Dense645/bias","shape":[1],"dtype":"float32"}]}]}