{"modelTopology":{"class_name":"Model","config":{"name":"model1258","layers":[{"name":"input1258","class_name":"InputLayer","config":{"batch_input_shape":[null,3],"dtype":"float32","sparse":false,"name":"input1258"},"inbound_nodes":[]},{"name":"dense_Dense7543","class_name":"Dense","config":{"units":4,"activation":"relu","use_bias":true,"kernel_initializer":{"class_name":"VarianceScaling","config":{"scale":1,"mode":"fan_avg","distribution":"normal","seed":null}},"bias_initializer":{"class_name":"Zeros","config":{}},"kernel_regularizer":null,"bias_regularizer":null,"activity_regularizer":null,"kernel_constraint":null,"bias_constraint":null,"name":"dense_Dense7543","trainable":true},"inbound_nodes":[[["input1258",0,0,{}]]]},{"name":"dense_Dense7544","class_name":"Dense","config":{"units":32,"activation":"relu","use_bias":true,"kernel_initializer":{"class_name":"VarianceScaling","config":{"scale":1,"mode":"fan_avg","distribution":"normal","seed":null}},"bias_initializer":{"class_name":"Zeros","config":{}},"kernel_regularizer":null,"bias_regularizer":null,"activity_regularizer":null,"kernel_constraint":null,"bias_constraint":null,"name":"dense_Dense7544","trainable":true},"inbound_nodes":[[["dense_Dense7543",0,0,{}]]]},{"name":"dense_Dense7545","class_name":"Dense","config":{"units":16,"activation":"relu","use_bias":true,"kernel_initializer":{"class_name":"VarianceScaling","config":{"scale":1,"mode":"fan_avg","distribution":"normal","seed":null}},"bias_initializer":{"class_name":"Zeros","config":{}},"kernel_regularizer":null,"bias_regularizer":null,"activity_regularizer":null,"kernel_constraint":null,"bias_constraint":null,"name":"dense_Dense7545","trainable":true},"inbound_nodes":[[["dense_Dense7544",0,0,{}]]]},{"name":"dense_Dense7546","class_name":"Dense","config":{"units":32,"activation":"relu","use_bias":true,"kernel_initializer":{"class_name":"VarianceScaling","config":{"scale":1,"mode":"fan_avg","distribution":"normal","seed":null}},"bias_initializer":{"class_name":"Zeros","config":{}},"kernel_regularizer":null,"bias_regularizer":null,"activity_regularizer":null,"kernel_constraint":null,"bias_constraint":null,"name":"dense_Dense7546","trainable":true},"inbound_nodes":[[["dense_Dense7545",0,0,{}]]]},{"name":"dense_Dense7547","class_name":"Dense","config":{"units":8,"activation":"relu","use_bias":true,"kernel_initializer":{"class_name":"VarianceScaling","config":{"scale":1,"mode":"fan_avg","distribution":"normal","seed":null}},"bias_initializer":{"class_name":"Zeros","config":{}},"kernel_regularizer":null,"bias_regularizer":null,"activity_regularizer":null,"kernel_constraint":null,"bias_constraint":null,"name":"dense_Dense7547","trainable":true},"inbound_nodes":[[["dense_Dense7546",0,0,{}]]]},{"name":"dense_Dense7548","class_name":"Dense","config":{"units":1,"activation":"sigmoid","use_bias":true,"kernel_initializer":{"class_name":"VarianceScaling","config":{"scale":1,"mode":"fan_avg","distribution":"normal","seed":null}},"bias_initializer":{"class_name":"Zeros","config":{}},"kernel_regularizer":null,"bias_regularizer":null,"activity_regularizer":null,"kernel_constraint":null,"bias_constraint":null,"name":"dense_Dense7548","trainable":true},"inbound_nodes":[[["dense_Dense7547",0,0,{}]]]}],"input_layers":[["input1258",0,0]],"output_layers":[["dense_Dense7548",0,0]]},"keras_version":"tfjs-layers 3.9.0","backend":"tensor_flow.js"},"weightsManifest":[{"paths":["weights.bin"],"weights":[{"name":"dense_Dense7543/kernel","shape":[3,4],"dtype":"float32"},{"name":"dense_Dense7543/bias","shape":[4],"dtype":"float32"},{"name":"dense_Dense7544/kernel","shape":[4,32],"dtype":"float32"},{"name":"dense_Dense7544/bias","shape":[32],"dtype":"float32"},{"name":"dense_Dense7545/kernel","shape":[32,16],"dtype":"float32"},{"name":"dense_Dense7545/bias","shape":[16],"dtype":"float32"},{"name":"dense_Dense7546/kernel","shape":[16,32],"dtype":"float32"},{"name":"dense_Dense7546/bias","shape":[32],"dtype":"float32"},{"name":"dense_Dense7547/kernel","shape":[32,8],"dtype":"float32"},{"name":"dense_Dense7547/bias","shape":[8],"dtype":"float32"},{"name":"dense_Dense7548/kernel","shape":[8,1],"dtype":"float32"},{"name":"dense_Dense7548/bias","shape":[1],"dtype":"float32"}]}]}