{"modelTopology":{"class_name":"Model","config":{"name":"model253","layers":[{"name":"input253","class_name":"InputLayer","config":{"batch_input_shape":[null,3],"dtype":"float32","sparse":false,"name":"input253"},"inbound_nodes":[]},{"name":"dense_Dense1513","class_name":"Dense","config":{"units":2,"activation":"relu","use_bias":true,"kernel_initializer":{"class_name":"VarianceScaling","config":{"scale":1,"mode":"fan_avg","distribution":"normal","seed":null}},"bias_initializer":{"class_name":"Zeros","config":{}},"kernel_regularizer":null,"bias_regularizer":null,"activity_regularizer":null,"kernel_constraint":null,"bias_constraint":null,"name":"dense_Dense1513","trainable":true},"inbound_nodes":[[["input253",0,0,{}]]]},{"name":"dense_Dense1514","class_name":"Dense","config":{"units":2,"activation":"relu","use_bias":true,"kernel_initializer":{"class_name":"VarianceScaling","config":{"scale":1,"mode":"fan_avg","distribution":"normal","seed":null}},"bias_initializer":{"class_name":"Zeros","config":{}},"kernel_regularizer":null,"bias_regularizer":null,"activity_regularizer":null,"kernel_constraint":null,"bias_constraint":null,"name":"dense_Dense1514","trainable":true},"inbound_nodes":[[["dense_Dense1513",0,0,{}]]]},{"name":"dense_Dense1515","class_name":"Dense","config":{"units":2,"activation":"relu","use_bias":true,"kernel_initializer":{"class_name":"VarianceScaling","config":{"scale":1,"mode":"fan_avg","distribution":"normal","seed":null}},"bias_initializer":{"class_name":"Zeros","config":{}},"kernel_regularizer":null,"bias_regularizer":null,"activity_regularizer":null,"kernel_constraint":null,"bias_constraint":null,"name":"dense_Dense1515","trainable":true},"inbound_nodes":[[["dense_Dense1514",0,0,{}]]]},{"name":"dense_Dense1516","class_name":"Dense","config":{"units":1,"activation":"relu","use_bias":true,"kernel_initializer":{"class_name":"VarianceScaling","config":{"scale":1,"mode":"fan_avg","distribution":"normal","seed":null}},"bias_initializer":{"class_name":"Zeros","config":{}},"kernel_regularizer":null,"bias_regularizer":null,"activity_regularizer":null,"kernel_constraint":null,"bias_constraint":null,"name":"dense_Dense1516","trainable":true},"inbound_nodes":[[["dense_Dense1515",0,0,{}]]]},{"name":"dense_Dense1517","class_name":"Dense","config":{"units":1,"activation":"relu","use_bias":true,"kernel_initializer":{"class_name":"VarianceScaling","config":{"scale":1,"mode":"fan_avg","distribution":"normal","seed":null}},"bias_initializer":{"class_name":"Zeros","config":{}},"kernel_regularizer":null,"bias_regularizer":null,"activity_regularizer":null,"kernel_constraint":null,"bias_constraint":null,"name":"dense_Dense1517","trainable":true},"inbound_nodes":[[["dense_Dense1516",0,0,{}]]]},{"name":"dense_Dense1518","class_name":"Dense","config":{"units":1,"activation":"sigmoid","use_bias":true,"kernel_initializer":{"class_name":"VarianceScaling","config":{"scale":1,"mode":"fan_avg","distribution":"normal","seed":null}},"bias_initializer":{"class_name":"Zeros","config":{}},"kernel_regularizer":null,"bias_regularizer":null,"activity_regularizer":null,"kernel_constraint":null,"bias_constraint":null,"name":"dense_Dense1518","trainable":true},"inbound_nodes":[[["dense_Dense1517",0,0,{}]]]}],"input_layers":[["input253",0,0]],"output_layers":[["dense_Dense1518",0,0]]},"keras_version":"tfjs-layers 3.9.0","backend":"tensor_flow.js"},"weightsManifest":[{"paths":["weights.bin"],"weights":[{"name":"dense_Dense1513/kernel","shape":[3,2],"dtype":"float32"},{"name":"dense_Dense1513/bias","shape":[2],"dtype":"float32"},{"name":"dense_Dense1514/kernel","shape":[2,2],"dtype":"float32"},{"name":"dense_Dense1514/bias","shape":[2],"dtype":"float32"},{"name":"dense_Dense1515/kernel","shape":[2,2],"dtype":"float32"},{"name":"dense_Dense1515/bias","shape":[2],"dtype":"float32"},{"name":"dense_Dense1516/kernel","shape":[2,1],"dtype":"float32"},{"name":"dense_Dense1516/bias","shape":[1],"dtype":"float32"},{"name":"dense_Dense1517/kernel","shape":[1,1],"dtype":"float32"},{"name":"dense_Dense1517/bias","shape":[1],"dtype":"float32"},{"name":"dense_Dense1518/kernel","shape":[1,1],"dtype":"float32"},{"name":"dense_Dense1518/bias","shape":[1],"dtype":"float32"}]}]}