{"modelTopology":{"class_name":"Model","config":{"name":"model1135","layers":[{"name":"input1135","class_name":"InputLayer","config":{"batch_input_shape":[null,3],"dtype":"float32","sparse":false,"name":"input1135"},"inbound_nodes":[]},{"name":"dense_Dense6805","class_name":"Dense","config":{"units":4,"activation":"relu","use_bias":true,"kernel_initializer":{"class_name":"VarianceScaling","config":{"scale":1,"mode":"fan_avg","distribution":"normal","seed":null}},"bias_initializer":{"class_name":"Zeros","config":{}},"kernel_regularizer":null,"bias_regularizer":null,"activity_regularizer":null,"kernel_constraint":null,"bias_constraint":null,"name":"dense_Dense6805","trainable":true},"inbound_nodes":[[["input1135",0,0,{}]]]},{"name":"dense_Dense6806","class_name":"Dense","config":{"units":32,"activation":"relu","use_bias":true,"kernel_initializer":{"class_name":"VarianceScaling","config":{"scale":1,"mode":"fan_avg","distribution":"normal","seed":null}},"bias_initializer":{"class_name":"Zeros","config":{}},"kernel_regularizer":null,"bias_regularizer":null,"activity_regularizer":null,"kernel_constraint":null,"bias_constraint":null,"name":"dense_Dense6806","trainable":true},"inbound_nodes":[[["dense_Dense6805",0,0,{}]]]},{"name":"dense_Dense6807","class_name":"Dense","config":{"units":2,"activation":"relu","use_bias":true,"kernel_initializer":{"class_name":"VarianceScaling","config":{"scale":1,"mode":"fan_avg","distribution":"normal","seed":null}},"bias_initializer":{"class_name":"Zeros","config":{}},"kernel_regularizer":null,"bias_regularizer":null,"activity_regularizer":null,"kernel_constraint":null,"bias_constraint":null,"name":"dense_Dense6807","trainable":true},"inbound_nodes":[[["dense_Dense6806",0,0,{}]]]},{"name":"dense_Dense6808","class_name":"Dense","config":{"units":8,"activation":"relu","use_bias":true,"kernel_initializer":{"class_name":"VarianceScaling","config":{"scale":1,"mode":"fan_avg","distribution":"normal","seed":null}},"bias_initializer":{"class_name":"Zeros","config":{}},"kernel_regularizer":null,"bias_regularizer":null,"activity_regularizer":null,"kernel_constraint":null,"bias_constraint":null,"name":"dense_Dense6808","trainable":true},"inbound_nodes":[[["dense_Dense6807",0,0,{}]]]},{"name":"dense_Dense6809","class_name":"Dense","config":{"units":1,"activation":"relu","use_bias":true,"kernel_initializer":{"class_name":"VarianceScaling","config":{"scale":1,"mode":"fan_avg","distribution":"normal","seed":null}},"bias_initializer":{"class_name":"Zeros","config":{}},"kernel_regularizer":null,"bias_regularizer":null,"activity_regularizer":null,"kernel_constraint":null,"bias_constraint":null,"name":"dense_Dense6809","trainable":true},"inbound_nodes":[[["dense_Dense6808",0,0,{}]]]},{"name":"dense_Dense6810","class_name":"Dense","config":{"units":1,"activation":"sigmoid","use_bias":true,"kernel_initializer":{"class_name":"VarianceScaling","config":{"scale":1,"mode":"fan_avg","distribution":"normal","seed":null}},"bias_initializer":{"class_name":"Zeros","config":{}},"kernel_regularizer":null,"bias_regularizer":null,"activity_regularizer":null,"kernel_constraint":null,"bias_constraint":null,"name":"dense_Dense6810","trainable":true},"inbound_nodes":[[["dense_Dense6809",0,0,{}]]]}],"input_layers":[["input1135",0,0]],"output_layers":[["dense_Dense6810",0,0]]},"keras_version":"tfjs-layers 3.9.0","backend":"tensor_flow.js"},"weightsManifest":[{"paths":["weights.bin"],"weights":[{"name":"dense_Dense6805/kernel","shape":[3,4],"dtype":"float32"},{"name":"dense_Dense6805/bias","shape":[4],"dtype":"float32"},{"name":"dense_Dense6806/kernel","shape":[4,32],"dtype":"float32"},{"name":"dense_Dense6806/bias","shape":[32],"dtype":"float32"},{"name":"dense_Dense6807/kernel","shape":[32,2],"dtype":"float32"},{"name":"dense_Dense6807/bias","shape":[2],"dtype":"float32"},{"name":"dense_Dense6808/kernel","shape":[2,8],"dtype":"float32"},{"name":"dense_Dense6808/bias","shape":[8],"dtype":"float32"},{"name":"dense_Dense6809/kernel","shape":[8,1],"dtype":"float32"},{"name":"dense_Dense6809/bias","shape":[1],"dtype":"float32"},{"name":"dense_Dense6810/kernel","shape":[1,1],"dtype":"float32"},{"name":"dense_Dense6810/bias","shape":[1],"dtype":"float32"}]}]}