{"modelTopology":{"class_name":"Model","config":{"name":"model606","layers":[{"name":"input606","class_name":"InputLayer","config":{"batch_input_shape":[null,3],"dtype":"float32","sparse":false,"name":"input606"},"inbound_nodes":[]},{"name":"dense_Dense3026","class_name":"Dense","config":{"units":4,"activation":"relu","use_bias":true,"kernel_initializer":{"class_name":"VarianceScaling","config":{"scale":1,"mode":"fan_avg","distribution":"normal","seed":null}},"bias_initializer":{"class_name":"Zeros","config":{}},"kernel_regularizer":null,"bias_regularizer":null,"activity_regularizer":null,"kernel_constraint":null,"bias_constraint":null,"name":"dense_Dense3026","trainable":true},"inbound_nodes":[[["input606",0,0,{}]]]},{"name":"dense_Dense3027","class_name":"Dense","config":{"units":16,"activation":"relu","use_bias":true,"kernel_initializer":{"class_name":"VarianceScaling","config":{"scale":1,"mode":"fan_avg","distribution":"normal","seed":null}},"bias_initializer":{"class_name":"Zeros","config":{}},"kernel_regularizer":null,"bias_regularizer":null,"activity_regularizer":null,"kernel_constraint":null,"bias_constraint":null,"name":"dense_Dense3027","trainable":true},"inbound_nodes":[[["dense_Dense3026",0,0,{}]]]},{"name":"dense_Dense3028","class_name":"Dense","config":{"units":16,"activation":"relu","use_bias":true,"kernel_initializer":{"class_name":"VarianceScaling","config":{"scale":1,"mode":"fan_avg","distribution":"normal","seed":null}},"bias_initializer":{"class_name":"Zeros","config":{}},"kernel_regularizer":null,"bias_regularizer":null,"activity_regularizer":null,"kernel_constraint":null,"bias_constraint":null,"name":"dense_Dense3028","trainable":true},"inbound_nodes":[[["dense_Dense3027",0,0,{}]]]},{"name":"dense_Dense3029","class_name":"Dense","config":{"units":32,"activation":"relu","use_bias":true,"kernel_initializer":{"class_name":"VarianceScaling","config":{"scale":1,"mode":"fan_avg","distribution":"normal","seed":null}},"bias_initializer":{"class_name":"Zeros","config":{}},"kernel_regularizer":null,"bias_regularizer":null,"activity_regularizer":null,"kernel_constraint":null,"bias_constraint":null,"name":"dense_Dense3029","trainable":true},"inbound_nodes":[[["dense_Dense3028",0,0,{}]]]},{"name":"dense_Dense3030","class_name":"Dense","config":{"units":1,"activation":"sigmoid","use_bias":true,"kernel_initializer":{"class_name":"VarianceScaling","config":{"scale":1,"mode":"fan_avg","distribution":"normal","seed":null}},"bias_initializer":{"class_name":"Zeros","config":{}},"kernel_regularizer":null,"bias_regularizer":null,"activity_regularizer":null,"kernel_constraint":null,"bias_constraint":null,"name":"dense_Dense3030","trainable":true},"inbound_nodes":[[["dense_Dense3029",0,0,{}]]]}],"input_layers":[["input606",0,0]],"output_layers":[["dense_Dense3030",0,0]]},"keras_version":"tfjs-layers 3.9.0","backend":"tensor_flow.js"},"weightsManifest":[{"paths":["weights.bin"],"weights":[{"name":"dense_Dense3026/kernel","shape":[3,4],"dtype":"float32"},{"name":"dense_Dense3026/bias","shape":[4],"dtype":"float32"},{"name":"dense_Dense3027/kernel","shape":[4,16],"dtype":"float32"},{"name":"dense_Dense3027/bias","shape":[16],"dtype":"float32"},{"name":"dense_Dense3028/kernel","shape":[16,16],"dtype":"float32"},{"name":"dense_Dense3028/bias","shape":[16],"dtype":"float32"},{"name":"dense_Dense3029/kernel","shape":[16,32],"dtype":"float32"},{"name":"dense_Dense3029/bias","shape":[32],"dtype":"float32"},{"name":"dense_Dense3030/kernel","shape":[32,1],"dtype":"float32"},{"name":"dense_Dense3030/bias","shape":[1],"dtype":"float32"}]}]}