{"modelTopology":{"class_name":"Model","config":{"name":"model76","layers":[{"name":"input76","class_name":"InputLayer","config":{"batch_input_shape":[null,3],"dtype":"float32","sparse":false,"name":"input76"},"inbound_nodes":[]},{"name":"dense_Dense301","class_name":"Dense","config":{"units":4,"activation":"relu","use_bias":true,"kernel_initializer":{"class_name":"VarianceScaling","config":{"scale":1,"mode":"fan_avg","distribution":"normal","seed":null}},"bias_initializer":{"class_name":"Zeros","config":{}},"kernel_regularizer":null,"bias_regularizer":null,"activity_regularizer":null,"kernel_constraint":null,"bias_constraint":null,"name":"dense_Dense301","trainable":true},"inbound_nodes":[[["input76",0,0,{}]]]},{"name":"dense_Dense302","class_name":"Dense","config":{"units":1,"activation":"relu","use_bias":true,"kernel_initializer":{"class_name":"VarianceScaling","config":{"scale":1,"mode":"fan_avg","distribution":"normal","seed":null}},"bias_initializer":{"class_name":"Zeros","config":{}},"kernel_regularizer":null,"bias_regularizer":null,"activity_regularizer":null,"kernel_constraint":null,"bias_constraint":null,"name":"dense_Dense302","trainable":true},"inbound_nodes":[[["dense_Dense301",0,0,{}]]]},{"name":"dense_Dense303","class_name":"Dense","config":{"units":8,"activation":"relu","use_bias":true,"kernel_initializer":{"class_name":"VarianceScaling","config":{"scale":1,"mode":"fan_avg","distribution":"normal","seed":null}},"bias_initializer":{"class_name":"Zeros","config":{}},"kernel_regularizer":null,"bias_regularizer":null,"activity_regularizer":null,"kernel_constraint":null,"bias_constraint":null,"name":"dense_Dense303","trainable":true},"inbound_nodes":[[["dense_Dense302",0,0,{}]]]},{"name":"dense_Dense304","class_name":"Dense","config":{"units":1,"activation":"sigmoid","use_bias":true,"kernel_initializer":{"class_name":"VarianceScaling","config":{"scale":1,"mode":"fan_avg","distribution":"normal","seed":null}},"bias_initializer":{"class_name":"Zeros","config":{}},"kernel_regularizer":null,"bias_regularizer":null,"activity_regularizer":null,"kernel_constraint":null,"bias_constraint":null,"name":"dense_Dense304","trainable":true},"inbound_nodes":[[["dense_Dense303",0,0,{}]]]}],"input_layers":[["input76",0,0]],"output_layers":[["dense_Dense304",0,0]]},"keras_version":"tfjs-layers 3.9.0","backend":"tensor_flow.js"},"weightsManifest":[{"paths":["weights.bin"],"weights":[{"name":"dense_Dense301/kernel","shape":[3,4],"dtype":"float32"},{"name":"dense_Dense301/bias","shape":[4],"dtype":"float32"},{"name":"dense_Dense302/kernel","shape":[4,1],"dtype":"float32"},{"name":"dense_Dense302/bias","shape":[1],"dtype":"float32"},{"name":"dense_Dense303/kernel","shape":[1,8],"dtype":"float32"},{"name":"dense_Dense303/bias","shape":[8],"dtype":"float32"},{"name":"dense_Dense304/kernel","shape":[8,1],"dtype":"float32"},{"name":"dense_Dense304/bias","shape":[1],"dtype":"float32"}]}]}