{"modelTopology":{"class_name":"Model","config":{"name":"model226","layers":[{"name":"input226","class_name":"InputLayer","config":{"batch_input_shape":[null,3],"dtype":"float32","sparse":false,"name":"input226"},"inbound_nodes":[]},{"name":"dense_Dense1351","class_name":"Dense","config":{"units":1,"activation":"relu","use_bias":true,"kernel_initializer":{"class_name":"VarianceScaling","config":{"scale":1,"mode":"fan_avg","distribution":"normal","seed":null}},"bias_initializer":{"class_name":"Zeros","config":{}},"kernel_regularizer":null,"bias_regularizer":null,"activity_regularizer":null,"kernel_constraint":null,"bias_constraint":null,"name":"dense_Dense1351","trainable":true},"inbound_nodes":[[["input226",0,0,{}]]]},{"name":"dense_Dense1352","class_name":"Dense","config":{"units":2,"activation":"relu","use_bias":true,"kernel_initializer":{"class_name":"VarianceScaling","config":{"scale":1,"mode":"fan_avg","distribution":"normal","seed":null}},"bias_initializer":{"class_name":"Zeros","config":{}},"kernel_regularizer":null,"bias_regularizer":null,"activity_regularizer":null,"kernel_constraint":null,"bias_constraint":null,"name":"dense_Dense1352","trainable":true},"inbound_nodes":[[["dense_Dense1351",0,0,{}]]]},{"name":"dense_Dense1353","class_name":"Dense","config":{"units":1,"activation":"relu","use_bias":true,"kernel_initializer":{"class_name":"VarianceScaling","config":{"scale":1,"mode":"fan_avg","distribution":"normal","seed":null}},"bias_initializer":{"class_name":"Zeros","config":{}},"kernel_regularizer":null,"bias_regularizer":null,"activity_regularizer":null,"kernel_constraint":null,"bias_constraint":null,"name":"dense_Dense1353","trainable":true},"inbound_nodes":[[["dense_Dense1352",0,0,{}]]]},{"name":"dense_Dense1354","class_name":"Dense","config":{"units":2,"activation":"relu","use_bias":true,"kernel_initializer":{"class_name":"VarianceScaling","config":{"scale":1,"mode":"fan_avg","distribution":"normal","seed":null}},"bias_initializer":{"class_name":"Zeros","config":{}},"kernel_regularizer":null,"bias_regularizer":null,"activity_regularizer":null,"kernel_constraint":null,"bias_constraint":null,"name":"dense_Dense1354","trainable":true},"inbound_nodes":[[["dense_Dense1353",0,0,{}]]]},{"name":"dense_Dense1355","class_name":"Dense","config":{"units":8,"activation":"relu","use_bias":true,"kernel_initializer":{"class_name":"VarianceScaling","config":{"scale":1,"mode":"fan_avg","distribution":"normal","seed":null}},"bias_initializer":{"class_name":"Zeros","config":{}},"kernel_regularizer":null,"bias_regularizer":null,"activity_regularizer":null,"kernel_constraint":null,"bias_constraint":null,"name":"dense_Dense1355","trainable":true},"inbound_nodes":[[["dense_Dense1354",0,0,{}]]]},{"name":"dense_Dense1356","class_name":"Dense","config":{"units":1,"activation":"sigmoid","use_bias":true,"kernel_initializer":{"class_name":"VarianceScaling","config":{"scale":1,"mode":"fan_avg","distribution":"normal","seed":null}},"bias_initializer":{"class_name":"Zeros","config":{}},"kernel_regularizer":null,"bias_regularizer":null,"activity_regularizer":null,"kernel_constraint":null,"bias_constraint":null,"name":"dense_Dense1356","trainable":true},"inbound_nodes":[[["dense_Dense1355",0,0,{}]]]}],"input_layers":[["input226",0,0]],"output_layers":[["dense_Dense1356",0,0]]},"keras_version":"tfjs-layers 3.9.0","backend":"tensor_flow.js"},"weightsManifest":[{"paths":["weights.bin"],"weights":[{"name":"dense_Dense1351/kernel","shape":[3,1],"dtype":"float32"},{"name":"dense_Dense1351/bias","shape":[1],"dtype":"float32"},{"name":"dense_Dense1352/kernel","shape":[1,2],"dtype":"float32"},{"name":"dense_Dense1352/bias","shape":[2],"dtype":"float32"},{"name":"dense_Dense1353/kernel","shape":[2,1],"dtype":"float32"},{"name":"dense_Dense1353/bias","shape":[1],"dtype":"float32"},{"name":"dense_Dense1354/kernel","shape":[1,2],"dtype":"float32"},{"name":"dense_Dense1354/bias","shape":[2],"dtype":"float32"},{"name":"dense_Dense1355/kernel","shape":[2,8],"dtype":"float32"},{"name":"dense_Dense1355/bias","shape":[8],"dtype":"float32"},{"name":"dense_Dense1356/kernel","shape":[8,1],"dtype":"float32"},{"name":"dense_Dense1356/bias","shape":[1],"dtype":"float32"}]}]}