{"modelTopology":{"class_name":"Model","config":{"name":"model516","layers":[{"name":"input516","class_name":"InputLayer","config":{"batch_input_shape":[null,3],"dtype":"float32","sparse":false,"name":"input516"},"inbound_nodes":[]},{"name":"dense_Dense3091","class_name":"Dense","config":{"units":16,"activation":"relu","use_bias":true,"kernel_initializer":{"class_name":"VarianceScaling","config":{"scale":1,"mode":"fan_avg","distribution":"normal","seed":null}},"bias_initializer":{"class_name":"Zeros","config":{}},"kernel_regularizer":null,"bias_regularizer":null,"activity_regularizer":null,"kernel_constraint":null,"bias_constraint":null,"name":"dense_Dense3091","trainable":true},"inbound_nodes":[[["input516",0,0,{}]]]},{"name":"dense_Dense3092","class_name":"Dense","config":{"units":4,"activation":"relu","use_bias":true,"kernel_initializer":{"class_name":"VarianceScaling","config":{"scale":1,"mode":"fan_avg","distribution":"normal","seed":null}},"bias_initializer":{"class_name":"Zeros","config":{}},"kernel_regularizer":null,"bias_regularizer":null,"activity_regularizer":null,"kernel_constraint":null,"bias_constraint":null,"name":"dense_Dense3092","trainable":true},"inbound_nodes":[[["dense_Dense3091",0,0,{}]]]},{"name":"dense_Dense3093","class_name":"Dense","config":{"units":4,"activation":"relu","use_bias":true,"kernel_initializer":{"class_name":"VarianceScaling","config":{"scale":1,"mode":"fan_avg","distribution":"normal","seed":null}},"bias_initializer":{"class_name":"Zeros","config":{}},"kernel_regularizer":null,"bias_regularizer":null,"activity_regularizer":null,"kernel_constraint":null,"bias_constraint":null,"name":"dense_Dense3093","trainable":true},"inbound_nodes":[[["dense_Dense3092",0,0,{}]]]},{"name":"dense_Dense3094","class_name":"Dense","config":{"units":2,"activation":"relu","use_bias":true,"kernel_initializer":{"class_name":"VarianceScaling","config":{"scale":1,"mode":"fan_avg","distribution":"normal","seed":null}},"bias_initializer":{"class_name":"Zeros","config":{}},"kernel_regularizer":null,"bias_regularizer":null,"activity_regularizer":null,"kernel_constraint":null,"bias_constraint":null,"name":"dense_Dense3094","trainable":true},"inbound_nodes":[[["dense_Dense3093",0,0,{}]]]},{"name":"dense_Dense3095","class_name":"Dense","config":{"units":32,"activation":"relu","use_bias":true,"kernel_initializer":{"class_name":"VarianceScaling","config":{"scale":1,"mode":"fan_avg","distribution":"normal","seed":null}},"bias_initializer":{"class_name":"Zeros","config":{}},"kernel_regularizer":null,"bias_regularizer":null,"activity_regularizer":null,"kernel_constraint":null,"bias_constraint":null,"name":"dense_Dense3095","trainable":true},"inbound_nodes":[[["dense_Dense3094",0,0,{}]]]},{"name":"dense_Dense3096","class_name":"Dense","config":{"units":1,"activation":"sigmoid","use_bias":true,"kernel_initializer":{"class_name":"VarianceScaling","config":{"scale":1,"mode":"fan_avg","distribution":"normal","seed":null}},"bias_initializer":{"class_name":"Zeros","config":{}},"kernel_regularizer":null,"bias_regularizer":null,"activity_regularizer":null,"kernel_constraint":null,"bias_constraint":null,"name":"dense_Dense3096","trainable":true},"inbound_nodes":[[["dense_Dense3095",0,0,{}]]]}],"input_layers":[["input516",0,0]],"output_layers":[["dense_Dense3096",0,0]]},"keras_version":"tfjs-layers 3.9.0","backend":"tensor_flow.js"},"weightsManifest":[{"paths":["weights.bin"],"weights":[{"name":"dense_Dense3091/kernel","shape":[3,16],"dtype":"float32"},{"name":"dense_Dense3091/bias","shape":[16],"dtype":"float32"},{"name":"dense_Dense3092/kernel","shape":[16,4],"dtype":"float32"},{"name":"dense_Dense3092/bias","shape":[4],"dtype":"float32"},{"name":"dense_Dense3093/kernel","shape":[4,4],"dtype":"float32"},{"name":"dense_Dense3093/bias","shape":[4],"dtype":"float32"},{"name":"dense_Dense3094/kernel","shape":[4,2],"dtype":"float32"},{"name":"dense_Dense3094/bias","shape":[2],"dtype":"float32"},{"name":"dense_Dense3095/kernel","shape":[2,32],"dtype":"float32"},{"name":"dense_Dense3095/bias","shape":[32],"dtype":"float32"},{"name":"dense_Dense3096/kernel","shape":[32,1],"dtype":"float32"},{"name":"dense_Dense3096/bias","shape":[1],"dtype":"float32"}]}]}