{"modelTopology":{"class_name":"Model","config":{"name":"model828","layers":[{"name":"input828","class_name":"InputLayer","config":{"batch_input_shape":[null,3],"dtype":"float32","sparse":false,"name":"input828"},"inbound_nodes":[]},{"name":"dense_Dense4963","class_name":"Dense","config":{"units":32,"activation":"relu","use_bias":true,"kernel_initializer":{"class_name":"VarianceScaling","config":{"scale":1,"mode":"fan_avg","distribution":"normal","seed":null}},"bias_initializer":{"class_name":"Zeros","config":{}},"kernel_regularizer":null,"bias_regularizer":null,"activity_regularizer":null,"kernel_constraint":null,"bias_constraint":null,"name":"dense_Dense4963","trainable":true},"inbound_nodes":[[["input828",0,0,{}]]]},{"name":"dense_Dense4964","class_name":"Dense","config":{"units":8,"activation":"relu","use_bias":true,"kernel_initializer":{"class_name":"VarianceScaling","config":{"scale":1,"mode":"fan_avg","distribution":"normal","seed":null}},"bias_initializer":{"class_name":"Zeros","config":{}},"kernel_regularizer":null,"bias_regularizer":null,"activity_regularizer":null,"kernel_constraint":null,"bias_constraint":null,"name":"dense_Dense4964","trainable":true},"inbound_nodes":[[["dense_Dense4963",0,0,{}]]]},{"name":"dense_Dense4965","class_name":"Dense","config":{"units":16,"activation":"relu","use_bias":true,"kernel_initializer":{"class_name":"VarianceScaling","config":{"scale":1,"mode":"fan_avg","distribution":"normal","seed":null}},"bias_initializer":{"class_name":"Zeros","config":{}},"kernel_regularizer":null,"bias_regularizer":null,"activity_regularizer":null,"kernel_constraint":null,"bias_constraint":null,"name":"dense_Dense4965","trainable":true},"inbound_nodes":[[["dense_Dense4964",0,0,{}]]]},{"name":"dense_Dense4966","class_name":"Dense","config":{"units":32,"activation":"relu","use_bias":true,"kernel_initializer":{"class_name":"VarianceScaling","config":{"scale":1,"mode":"fan_avg","distribution":"normal","seed":null}},"bias_initializer":{"class_name":"Zeros","config":{}},"kernel_regularizer":null,"bias_regularizer":null,"activity_regularizer":null,"kernel_constraint":null,"bias_constraint":null,"name":"dense_Dense4966","trainable":true},"inbound_nodes":[[["dense_Dense4965",0,0,{}]]]},{"name":"dense_Dense4967","class_name":"Dense","config":{"units":32,"activation":"relu","use_bias":true,"kernel_initializer":{"class_name":"VarianceScaling","config":{"scale":1,"mode":"fan_avg","distribution":"normal","seed":null}},"bias_initializer":{"class_name":"Zeros","config":{}},"kernel_regularizer":null,"bias_regularizer":null,"activity_regularizer":null,"kernel_constraint":null,"bias_constraint":null,"name":"dense_Dense4967","trainable":true},"inbound_nodes":[[["dense_Dense4966",0,0,{}]]]},{"name":"dense_Dense4968","class_name":"Dense","config":{"units":1,"activation":"sigmoid","use_bias":true,"kernel_initializer":{"class_name":"VarianceScaling","config":{"scale":1,"mode":"fan_avg","distribution":"normal","seed":null}},"bias_initializer":{"class_name":"Zeros","config":{}},"kernel_regularizer":null,"bias_regularizer":null,"activity_regularizer":null,"kernel_constraint":null,"bias_constraint":null,"name":"dense_Dense4968","trainable":true},"inbound_nodes":[[["dense_Dense4967",0,0,{}]]]}],"input_layers":[["input828",0,0]],"output_layers":[["dense_Dense4968",0,0]]},"keras_version":"tfjs-layers 3.9.0","backend":"tensor_flow.js"},"weightsManifest":[{"paths":["weights.bin"],"weights":[{"name":"dense_Dense4963/kernel","shape":[3,32],"dtype":"float32"},{"name":"dense_Dense4963/bias","shape":[32],"dtype":"float32"},{"name":"dense_Dense4964/kernel","shape":[32,8],"dtype":"float32"},{"name":"dense_Dense4964/bias","shape":[8],"dtype":"float32"},{"name":"dense_Dense4965/kernel","shape":[8,16],"dtype":"float32"},{"name":"dense_Dense4965/bias","shape":[16],"dtype":"float32"},{"name":"dense_Dense4966/kernel","shape":[16,32],"dtype":"float32"},{"name":"dense_Dense4966/bias","shape":[32],"dtype":"float32"},{"name":"dense_Dense4967/kernel","shape":[32,32],"dtype":"float32"},{"name":"dense_Dense4967/bias","shape":[32],"dtype":"float32"},{"name":"dense_Dense4968/kernel","shape":[32,1],"dtype":"float32"},{"name":"dense_Dense4968/bias","shape":[1],"dtype":"float32"}]}]}