{"modelTopology":{"class_name":"Model","config":{"name":"model176","layers":[{"name":"input176","class_name":"InputLayer","config":{"batch_input_shape":[null,3],"dtype":"float32","sparse":false,"name":"input176"},"inbound_nodes":[]},{"name":"dense_Dense1051","class_name":"Dense","config":{"units":16,"activation":"relu","use_bias":true,"kernel_initializer":{"class_name":"VarianceScaling","config":{"scale":1,"mode":"fan_avg","distribution":"normal","seed":null}},"bias_initializer":{"class_name":"Zeros","config":{}},"kernel_regularizer":null,"bias_regularizer":null,"activity_regularizer":null,"kernel_constraint":null,"bias_constraint":null,"name":"dense_Dense1051","trainable":true},"inbound_nodes":[[["input176",0,0,{}]]]},{"name":"dense_Dense1052","class_name":"Dense","config":{"units":1,"activation":"relu","use_bias":true,"kernel_initializer":{"class_name":"VarianceScaling","config":{"scale":1,"mode":"fan_avg","distribution":"normal","seed":null}},"bias_initializer":{"class_name":"Zeros","config":{}},"kernel_regularizer":null,"bias_regularizer":null,"activity_regularizer":null,"kernel_constraint":null,"bias_constraint":null,"name":"dense_Dense1052","trainable":true},"inbound_nodes":[[["dense_Dense1051",0,0,{}]]]},{"name":"dense_Dense1053","class_name":"Dense","config":{"units":16,"activation":"relu","use_bias":true,"kernel_initializer":{"class_name":"VarianceScaling","config":{"scale":1,"mode":"fan_avg","distribution":"normal","seed":null}},"bias_initializer":{"class_name":"Zeros","config":{}},"kernel_regularizer":null,"bias_regularizer":null,"activity_regularizer":null,"kernel_constraint":null,"bias_constraint":null,"name":"dense_Dense1053","trainable":true},"inbound_nodes":[[["dense_Dense1052",0,0,{}]]]},{"name":"dense_Dense1054","class_name":"Dense","config":{"units":32,"activation":"relu","use_bias":true,"kernel_initializer":{"class_name":"VarianceScaling","config":{"scale":1,"mode":"fan_avg","distribution":"normal","seed":null}},"bias_initializer":{"class_name":"Zeros","config":{}},"kernel_regularizer":null,"bias_regularizer":null,"activity_regularizer":null,"kernel_constraint":null,"bias_constraint":null,"name":"dense_Dense1054","trainable":true},"inbound_nodes":[[["dense_Dense1053",0,0,{}]]]},{"name":"dense_Dense1055","class_name":"Dense","config":{"units":2,"activation":"relu","use_bias":true,"kernel_initializer":{"class_name":"VarianceScaling","config":{"scale":1,"mode":"fan_avg","distribution":"normal","seed":null}},"bias_initializer":{"class_name":"Zeros","config":{}},"kernel_regularizer":null,"bias_regularizer":null,"activity_regularizer":null,"kernel_constraint":null,"bias_constraint":null,"name":"dense_Dense1055","trainable":true},"inbound_nodes":[[["dense_Dense1054",0,0,{}]]]},{"name":"dense_Dense1056","class_name":"Dense","config":{"units":1,"activation":"sigmoid","use_bias":true,"kernel_initializer":{"class_name":"VarianceScaling","config":{"scale":1,"mode":"fan_avg","distribution":"normal","seed":null}},"bias_initializer":{"class_name":"Zeros","config":{}},"kernel_regularizer":null,"bias_regularizer":null,"activity_regularizer":null,"kernel_constraint":null,"bias_constraint":null,"name":"dense_Dense1056","trainable":true},"inbound_nodes":[[["dense_Dense1055",0,0,{}]]]}],"input_layers":[["input176",0,0]],"output_layers":[["dense_Dense1056",0,0]]},"keras_version":"tfjs-layers 3.9.0","backend":"tensor_flow.js"},"weightsManifest":[{"paths":["weights.bin"],"weights":[{"name":"dense_Dense1051/kernel","shape":[3,16],"dtype":"float32"},{"name":"dense_Dense1051/bias","shape":[16],"dtype":"float32"},{"name":"dense_Dense1052/kernel","shape":[16,1],"dtype":"float32"},{"name":"dense_Dense1052/bias","shape":[1],"dtype":"float32"},{"name":"dense_Dense1053/kernel","shape":[1,16],"dtype":"float32"},{"name":"dense_Dense1053/bias","shape":[16],"dtype":"float32"},{"name":"dense_Dense1054/kernel","shape":[16,32],"dtype":"float32"},{"name":"dense_Dense1054/bias","shape":[32],"dtype":"float32"},{"name":"dense_Dense1055/kernel","shape":[32,2],"dtype":"float32"},{"name":"dense_Dense1055/bias","shape":[2],"dtype":"float32"},{"name":"dense_Dense1056/kernel","shape":[2,1],"dtype":"float32"},{"name":"dense_Dense1056/bias","shape":[1],"dtype":"float32"}]}]}