{"modelTopology":{"class_name":"Model","config":{"name":"model804","layers":[{"name":"input804","class_name":"InputLayer","config":{"batch_input_shape":[null,3],"dtype":"float32","sparse":false,"name":"input804"},"inbound_nodes":[]},{"name":"dense_Dense4819","class_name":"Dense","config":{"units":2,"activation":"relu","use_bias":true,"kernel_initializer":{"class_name":"VarianceScaling","config":{"scale":1,"mode":"fan_avg","distribution":"normal","seed":null}},"bias_initializer":{"class_name":"Zeros","config":{}},"kernel_regularizer":null,"bias_regularizer":null,"activity_regularizer":null,"kernel_constraint":null,"bias_constraint":null,"name":"dense_Dense4819","trainable":true},"inbound_nodes":[[["input804",0,0,{}]]]},{"name":"dense_Dense4820","class_name":"Dense","config":{"units":8,"activation":"relu","use_bias":true,"kernel_initializer":{"class_name":"VarianceScaling","config":{"scale":1,"mode":"fan_avg","distribution":"normal","seed":null}},"bias_initializer":{"class_name":"Zeros","config":{}},"kernel_regularizer":null,"bias_regularizer":null,"activity_regularizer":null,"kernel_constraint":null,"bias_constraint":null,"name":"dense_Dense4820","trainable":true},"inbound_nodes":[[["dense_Dense4819",0,0,{}]]]},{"name":"dense_Dense4821","class_name":"Dense","config":{"units":16,"activation":"relu","use_bias":true,"kernel_initializer":{"class_name":"VarianceScaling","config":{"scale":1,"mode":"fan_avg","distribution":"normal","seed":null}},"bias_initializer":{"class_name":"Zeros","config":{}},"kernel_regularizer":null,"bias_regularizer":null,"activity_regularizer":null,"kernel_constraint":null,"bias_constraint":null,"name":"dense_Dense4821","trainable":true},"inbound_nodes":[[["dense_Dense4820",0,0,{}]]]},{"name":"dense_Dense4822","class_name":"Dense","config":{"units":2,"activation":"relu","use_bias":true,"kernel_initializer":{"class_name":"VarianceScaling","config":{"scale":1,"mode":"fan_avg","distribution":"normal","seed":null}},"bias_initializer":{"class_name":"Zeros","config":{}},"kernel_regularizer":null,"bias_regularizer":null,"activity_regularizer":null,"kernel_constraint":null,"bias_constraint":null,"name":"dense_Dense4822","trainable":true},"inbound_nodes":[[["dense_Dense4821",0,0,{}]]]},{"name":"dense_Dense4823","class_name":"Dense","config":{"units":32,"activation":"relu","use_bias":true,"kernel_initializer":{"class_name":"VarianceScaling","config":{"scale":1,"mode":"fan_avg","distribution":"normal","seed":null}},"bias_initializer":{"class_name":"Zeros","config":{}},"kernel_regularizer":null,"bias_regularizer":null,"activity_regularizer":null,"kernel_constraint":null,"bias_constraint":null,"name":"dense_Dense4823","trainable":true},"inbound_nodes":[[["dense_Dense4822",0,0,{}]]]},{"name":"dense_Dense4824","class_name":"Dense","config":{"units":1,"activation":"sigmoid","use_bias":true,"kernel_initializer":{"class_name":"VarianceScaling","config":{"scale":1,"mode":"fan_avg","distribution":"normal","seed":null}},"bias_initializer":{"class_name":"Zeros","config":{}},"kernel_regularizer":null,"bias_regularizer":null,"activity_regularizer":null,"kernel_constraint":null,"bias_constraint":null,"name":"dense_Dense4824","trainable":true},"inbound_nodes":[[["dense_Dense4823",0,0,{}]]]}],"input_layers":[["input804",0,0]],"output_layers":[["dense_Dense4824",0,0]]},"keras_version":"tfjs-layers 3.9.0","backend":"tensor_flow.js"},"weightsManifest":[{"paths":["weights.bin"],"weights":[{"name":"dense_Dense4819/kernel","shape":[3,2],"dtype":"float32"},{"name":"dense_Dense4819/bias","shape":[2],"dtype":"float32"},{"name":"dense_Dense4820/kernel","shape":[2,8],"dtype":"float32"},{"name":"dense_Dense4820/bias","shape":[8],"dtype":"float32"},{"name":"dense_Dense4821/kernel","shape":[8,16],"dtype":"float32"},{"name":"dense_Dense4821/bias","shape":[16],"dtype":"float32"},{"name":"dense_Dense4822/kernel","shape":[16,2],"dtype":"float32"},{"name":"dense_Dense4822/bias","shape":[2],"dtype":"float32"},{"name":"dense_Dense4823/kernel","shape":[2,32],"dtype":"float32"},{"name":"dense_Dense4823/bias","shape":[32],"dtype":"float32"},{"name":"dense_Dense4824/kernel","shape":[32,1],"dtype":"float32"},{"name":"dense_Dense4824/bias","shape":[1],"dtype":"float32"}]}]}