{"modelTopology":{"class_name":"Model","config":{"name":"model598","layers":[{"name":"input598","class_name":"InputLayer","config":{"batch_input_shape":[null,3],"dtype":"float32","sparse":false,"name":"input598"},"inbound_nodes":[]},{"name":"dense_Dense3583","class_name":"Dense","config":{"units":16,"activation":"relu","use_bias":true,"kernel_initializer":{"class_name":"VarianceScaling","config":{"scale":1,"mode":"fan_avg","distribution":"normal","seed":null}},"bias_initializer":{"class_name":"Zeros","config":{}},"kernel_regularizer":null,"bias_regularizer":null,"activity_regularizer":null,"kernel_constraint":null,"bias_constraint":null,"name":"dense_Dense3583","trainable":true},"inbound_nodes":[[["input598",0,0,{}]]]},{"name":"dense_Dense3584","class_name":"Dense","config":{"units":4,"activation":"relu","use_bias":true,"kernel_initializer":{"class_name":"VarianceScaling","config":{"scale":1,"mode":"fan_avg","distribution":"normal","seed":null}},"bias_initializer":{"class_name":"Zeros","config":{}},"kernel_regularizer":null,"bias_regularizer":null,"activity_regularizer":null,"kernel_constraint":null,"bias_constraint":null,"name":"dense_Dense3584","trainable":true},"inbound_nodes":[[["dense_Dense3583",0,0,{}]]]},{"name":"dense_Dense3585","class_name":"Dense","config":{"units":16,"activation":"relu","use_bias":true,"kernel_initializer":{"class_name":"VarianceScaling","config":{"scale":1,"mode":"fan_avg","distribution":"normal","seed":null}},"bias_initializer":{"class_name":"Zeros","config":{}},"kernel_regularizer":null,"bias_regularizer":null,"activity_regularizer":null,"kernel_constraint":null,"bias_constraint":null,"name":"dense_Dense3585","trainable":true},"inbound_nodes":[[["dense_Dense3584",0,0,{}]]]},{"name":"dense_Dense3586","class_name":"Dense","config":{"units":8,"activation":"relu","use_bias":true,"kernel_initializer":{"class_name":"VarianceScaling","config":{"scale":1,"mode":"fan_avg","distribution":"normal","seed":null}},"bias_initializer":{"class_name":"Zeros","config":{}},"kernel_regularizer":null,"bias_regularizer":null,"activity_regularizer":null,"kernel_constraint":null,"bias_constraint":null,"name":"dense_Dense3586","trainable":true},"inbound_nodes":[[["dense_Dense3585",0,0,{}]]]},{"name":"dense_Dense3587","class_name":"Dense","config":{"units":8,"activation":"relu","use_bias":true,"kernel_initializer":{"class_name":"VarianceScaling","config":{"scale":1,"mode":"fan_avg","distribution":"normal","seed":null}},"bias_initializer":{"class_name":"Zeros","config":{}},"kernel_regularizer":null,"bias_regularizer":null,"activity_regularizer":null,"kernel_constraint":null,"bias_constraint":null,"name":"dense_Dense3587","trainable":true},"inbound_nodes":[[["dense_Dense3586",0,0,{}]]]},{"name":"dense_Dense3588","class_name":"Dense","config":{"units":1,"activation":"sigmoid","use_bias":true,"kernel_initializer":{"class_name":"VarianceScaling","config":{"scale":1,"mode":"fan_avg","distribution":"normal","seed":null}},"bias_initializer":{"class_name":"Zeros","config":{}},"kernel_regularizer":null,"bias_regularizer":null,"activity_regularizer":null,"kernel_constraint":null,"bias_constraint":null,"name":"dense_Dense3588","trainable":true},"inbound_nodes":[[["dense_Dense3587",0,0,{}]]]}],"input_layers":[["input598",0,0]],"output_layers":[["dense_Dense3588",0,0]]},"keras_version":"tfjs-layers 3.9.0","backend":"tensor_flow.js"},"weightsManifest":[{"paths":["weights.bin"],"weights":[{"name":"dense_Dense3583/kernel","shape":[3,16],"dtype":"float32"},{"name":"dense_Dense3583/bias","shape":[16],"dtype":"float32"},{"name":"dense_Dense3584/kernel","shape":[16,4],"dtype":"float32"},{"name":"dense_Dense3584/bias","shape":[4],"dtype":"float32"},{"name":"dense_Dense3585/kernel","shape":[4,16],"dtype":"float32"},{"name":"dense_Dense3585/bias","shape":[16],"dtype":"float32"},{"name":"dense_Dense3586/kernel","shape":[16,8],"dtype":"float32"},{"name":"dense_Dense3586/bias","shape":[8],"dtype":"float32"},{"name":"dense_Dense3587/kernel","shape":[8,8],"dtype":"float32"},{"name":"dense_Dense3587/bias","shape":[8],"dtype":"float32"},{"name":"dense_Dense3588/kernel","shape":[8,1],"dtype":"float32"},{"name":"dense_Dense3588/bias","shape":[1],"dtype":"float32"}]}]}