{"modelTopology":{"class_name":"Model","config":{"name":"model657","layers":[{"name":"input657","class_name":"InputLayer","config":{"batch_input_shape":[null,3],"dtype":"float32","sparse":false,"name":"input657"},"inbound_nodes":[]},{"name":"dense_Dense3281","class_name":"Dense","config":{"units":8,"activation":"relu","use_bias":true,"kernel_initializer":{"class_name":"VarianceScaling","config":{"scale":1,"mode":"fan_avg","distribution":"normal","seed":null}},"bias_initializer":{"class_name":"Zeros","config":{}},"kernel_regularizer":null,"bias_regularizer":null,"activity_regularizer":null,"kernel_constraint":null,"bias_constraint":null,"name":"dense_Dense3281","trainable":true},"inbound_nodes":[[["input657",0,0,{}]]]},{"name":"dense_Dense3282","class_name":"Dense","config":{"units":1,"activation":"relu","use_bias":true,"kernel_initializer":{"class_name":"VarianceScaling","config":{"scale":1,"mode":"fan_avg","distribution":"normal","seed":null}},"bias_initializer":{"class_name":"Zeros","config":{}},"kernel_regularizer":null,"bias_regularizer":null,"activity_regularizer":null,"kernel_constraint":null,"bias_constraint":null,"name":"dense_Dense3282","trainable":true},"inbound_nodes":[[["dense_Dense3281",0,0,{}]]]},{"name":"dense_Dense3283","class_name":"Dense","config":{"units":2,"activation":"relu","use_bias":true,"kernel_initializer":{"class_name":"VarianceScaling","config":{"scale":1,"mode":"fan_avg","distribution":"normal","seed":null}},"bias_initializer":{"class_name":"Zeros","config":{}},"kernel_regularizer":null,"bias_regularizer":null,"activity_regularizer":null,"kernel_constraint":null,"bias_constraint":null,"name":"dense_Dense3283","trainable":true},"inbound_nodes":[[["dense_Dense3282",0,0,{}]]]},{"name":"dense_Dense3284","class_name":"Dense","config":{"units":4,"activation":"relu","use_bias":true,"kernel_initializer":{"class_name":"VarianceScaling","config":{"scale":1,"mode":"fan_avg","distribution":"normal","seed":null}},"bias_initializer":{"class_name":"Zeros","config":{}},"kernel_regularizer":null,"bias_regularizer":null,"activity_regularizer":null,"kernel_constraint":null,"bias_constraint":null,"name":"dense_Dense3284","trainable":true},"inbound_nodes":[[["dense_Dense3283",0,0,{}]]]},{"name":"dense_Dense3285","class_name":"Dense","config":{"units":1,"activation":"sigmoid","use_bias":true,"kernel_initializer":{"class_name":"VarianceScaling","config":{"scale":1,"mode":"fan_avg","distribution":"normal","seed":null}},"bias_initializer":{"class_name":"Zeros","config":{}},"kernel_regularizer":null,"bias_regularizer":null,"activity_regularizer":null,"kernel_constraint":null,"bias_constraint":null,"name":"dense_Dense3285","trainable":true},"inbound_nodes":[[["dense_Dense3284",0,0,{}]]]}],"input_layers":[["input657",0,0]],"output_layers":[["dense_Dense3285",0,0]]},"keras_version":"tfjs-layers 3.9.0","backend":"tensor_flow.js"},"weightsManifest":[{"paths":["weights.bin"],"weights":[{"name":"dense_Dense3281/kernel","shape":[3,8],"dtype":"float32"},{"name":"dense_Dense3281/bias","shape":[8],"dtype":"float32"},{"name":"dense_Dense3282/kernel","shape":[8,1],"dtype":"float32"},{"name":"dense_Dense3282/bias","shape":[1],"dtype":"float32"},{"name":"dense_Dense3283/kernel","shape":[1,2],"dtype":"float32"},{"name":"dense_Dense3283/bias","shape":[2],"dtype":"float32"},{"name":"dense_Dense3284/kernel","shape":[2,4],"dtype":"float32"},{"name":"dense_Dense3284/bias","shape":[4],"dtype":"float32"},{"name":"dense_Dense3285/kernel","shape":[4,1],"dtype":"float32"},{"name":"dense_Dense3285/bias","shape":[1],"dtype":"float32"}]}]}