{"modelTopology":{"class_name":"Model","config":{"name":"model1291","layers":[{"name":"input1291","class_name":"InputLayer","config":{"batch_input_shape":[null,3],"dtype":"float32","sparse":false,"name":"input1291"},"inbound_nodes":[]},{"name":"dense_Dense7741","class_name":"Dense","config":{"units":4,"activation":"relu","use_bias":true,"kernel_initializer":{"class_name":"VarianceScaling","config":{"scale":1,"mode":"fan_avg","distribution":"normal","seed":null}},"bias_initializer":{"class_name":"Zeros","config":{}},"kernel_regularizer":null,"bias_regularizer":null,"activity_regularizer":null,"kernel_constraint":null,"bias_constraint":null,"name":"dense_Dense7741","trainable":true},"inbound_nodes":[[["input1291",0,0,{}]]]},{"name":"dense_Dense7742","class_name":"Dense","config":{"units":32,"activation":"relu","use_bias":true,"kernel_initializer":{"class_name":"VarianceScaling","config":{"scale":1,"mode":"fan_avg","distribution":"normal","seed":null}},"bias_initializer":{"class_name":"Zeros","config":{}},"kernel_regularizer":null,"bias_regularizer":null,"activity_regularizer":null,"kernel_constraint":null,"bias_constraint":null,"name":"dense_Dense7742","trainable":true},"inbound_nodes":[[["dense_Dense7741",0,0,{}]]]},{"name":"dense_Dense7743","class_name":"Dense","config":{"units":32,"activation":"relu","use_bias":true,"kernel_initializer":{"class_name":"VarianceScaling","config":{"scale":1,"mode":"fan_avg","distribution":"normal","seed":null}},"bias_initializer":{"class_name":"Zeros","config":{}},"kernel_regularizer":null,"bias_regularizer":null,"activity_regularizer":null,"kernel_constraint":null,"bias_constraint":null,"name":"dense_Dense7743","trainable":true},"inbound_nodes":[[["dense_Dense7742",0,0,{}]]]},{"name":"dense_Dense7744","class_name":"Dense","config":{"units":32,"activation":"relu","use_bias":true,"kernel_initializer":{"class_name":"VarianceScaling","config":{"scale":1,"mode":"fan_avg","distribution":"normal","seed":null}},"bias_initializer":{"class_name":"Zeros","config":{}},"kernel_regularizer":null,"bias_regularizer":null,"activity_regularizer":null,"kernel_constraint":null,"bias_constraint":null,"name":"dense_Dense7744","trainable":true},"inbound_nodes":[[["dense_Dense7743",0,0,{}]]]},{"name":"dense_Dense7745","class_name":"Dense","config":{"units":1,"activation":"relu","use_bias":true,"kernel_initializer":{"class_name":"VarianceScaling","config":{"scale":1,"mode":"fan_avg","distribution":"normal","seed":null}},"bias_initializer":{"class_name":"Zeros","config":{}},"kernel_regularizer":null,"bias_regularizer":null,"activity_regularizer":null,"kernel_constraint":null,"bias_constraint":null,"name":"dense_Dense7745","trainable":true},"inbound_nodes":[[["dense_Dense7744",0,0,{}]]]},{"name":"dense_Dense7746","class_name":"Dense","config":{"units":1,"activation":"sigmoid","use_bias":true,"kernel_initializer":{"class_name":"VarianceScaling","config":{"scale":1,"mode":"fan_avg","distribution":"normal","seed":null}},"bias_initializer":{"class_name":"Zeros","config":{}},"kernel_regularizer":null,"bias_regularizer":null,"activity_regularizer":null,"kernel_constraint":null,"bias_constraint":null,"name":"dense_Dense7746","trainable":true},"inbound_nodes":[[["dense_Dense7745",0,0,{}]]]}],"input_layers":[["input1291",0,0]],"output_layers":[["dense_Dense7746",0,0]]},"keras_version":"tfjs-layers 3.9.0","backend":"tensor_flow.js"},"weightsManifest":[{"paths":["weights.bin"],"weights":[{"name":"dense_Dense7741/kernel","shape":[3,4],"dtype":"float32"},{"name":"dense_Dense7741/bias","shape":[4],"dtype":"float32"},{"name":"dense_Dense7742/kernel","shape":[4,32],"dtype":"float32"},{"name":"dense_Dense7742/bias","shape":[32],"dtype":"float32"},{"name":"dense_Dense7743/kernel","shape":[32,32],"dtype":"float32"},{"name":"dense_Dense7743/bias","shape":[32],"dtype":"float32"},{"name":"dense_Dense7744/kernel","shape":[32,32],"dtype":"float32"},{"name":"dense_Dense7744/bias","shape":[32],"dtype":"float32"},{"name":"dense_Dense7745/kernel","shape":[32,1],"dtype":"float32"},{"name":"dense_Dense7745/bias","shape":[1],"dtype":"float32"},{"name":"dense_Dense7746/kernel","shape":[1,1],"dtype":"float32"},{"name":"dense_Dense7746/bias","shape":[1],"dtype":"float32"}]}]}