{"modelTopology":{"class_name":"Model","config":{"name":"model639","layers":[{"name":"input639","class_name":"InputLayer","config":{"batch_input_shape":[null,3],"dtype":"float32","sparse":false,"name":"input639"},"inbound_nodes":[]},{"name":"dense_Dense3829","class_name":"Dense","config":{"units":4,"activation":"relu","use_bias":true,"kernel_initializer":{"class_name":"VarianceScaling","config":{"scale":1,"mode":"fan_avg","distribution":"normal","seed":null}},"bias_initializer":{"class_name":"Zeros","config":{}},"kernel_regularizer":null,"bias_regularizer":null,"activity_regularizer":null,"kernel_constraint":null,"bias_constraint":null,"name":"dense_Dense3829","trainable":true},"inbound_nodes":[[["input639",0,0,{}]]]},{"name":"dense_Dense3830","class_name":"Dense","config":{"units":4,"activation":"relu","use_bias":true,"kernel_initializer":{"class_name":"VarianceScaling","config":{"scale":1,"mode":"fan_avg","distribution":"normal","seed":null}},"bias_initializer":{"class_name":"Zeros","config":{}},"kernel_regularizer":null,"bias_regularizer":null,"activity_regularizer":null,"kernel_constraint":null,"bias_constraint":null,"name":"dense_Dense3830","trainable":true},"inbound_nodes":[[["dense_Dense3829",0,0,{}]]]},{"name":"dense_Dense3831","class_name":"Dense","config":{"units":32,"activation":"relu","use_bias":true,"kernel_initializer":{"class_name":"VarianceScaling","config":{"scale":1,"mode":"fan_avg","distribution":"normal","seed":null}},"bias_initializer":{"class_name":"Zeros","config":{}},"kernel_regularizer":null,"bias_regularizer":null,"activity_regularizer":null,"kernel_constraint":null,"bias_constraint":null,"name":"dense_Dense3831","trainable":true},"inbound_nodes":[[["dense_Dense3830",0,0,{}]]]},{"name":"dense_Dense3832","class_name":"Dense","config":{"units":16,"activation":"relu","use_bias":true,"kernel_initializer":{"class_name":"VarianceScaling","config":{"scale":1,"mode":"fan_avg","distribution":"normal","seed":null}},"bias_initializer":{"class_name":"Zeros","config":{}},"kernel_regularizer":null,"bias_regularizer":null,"activity_regularizer":null,"kernel_constraint":null,"bias_constraint":null,"name":"dense_Dense3832","trainable":true},"inbound_nodes":[[["dense_Dense3831",0,0,{}]]]},{"name":"dense_Dense3833","class_name":"Dense","config":{"units":4,"activation":"relu","use_bias":true,"kernel_initializer":{"class_name":"VarianceScaling","config":{"scale":1,"mode":"fan_avg","distribution":"normal","seed":null}},"bias_initializer":{"class_name":"Zeros","config":{}},"kernel_regularizer":null,"bias_regularizer":null,"activity_regularizer":null,"kernel_constraint":null,"bias_constraint":null,"name":"dense_Dense3833","trainable":true},"inbound_nodes":[[["dense_Dense3832",0,0,{}]]]},{"name":"dense_Dense3834","class_name":"Dense","config":{"units":1,"activation":"sigmoid","use_bias":true,"kernel_initializer":{"class_name":"VarianceScaling","config":{"scale":1,"mode":"fan_avg","distribution":"normal","seed":null}},"bias_initializer":{"class_name":"Zeros","config":{}},"kernel_regularizer":null,"bias_regularizer":null,"activity_regularizer":null,"kernel_constraint":null,"bias_constraint":null,"name":"dense_Dense3834","trainable":true},"inbound_nodes":[[["dense_Dense3833",0,0,{}]]]}],"input_layers":[["input639",0,0]],"output_layers":[["dense_Dense3834",0,0]]},"keras_version":"tfjs-layers 3.9.0","backend":"tensor_flow.js"},"weightsManifest":[{"paths":["weights.bin"],"weights":[{"name":"dense_Dense3829/kernel","shape":[3,4],"dtype":"float32"},{"name":"dense_Dense3829/bias","shape":[4],"dtype":"float32"},{"name":"dense_Dense3830/kernel","shape":[4,4],"dtype":"float32"},{"name":"dense_Dense3830/bias","shape":[4],"dtype":"float32"},{"name":"dense_Dense3831/kernel","shape":[4,32],"dtype":"float32"},{"name":"dense_Dense3831/bias","shape":[32],"dtype":"float32"},{"name":"dense_Dense3832/kernel","shape":[32,16],"dtype":"float32"},{"name":"dense_Dense3832/bias","shape":[16],"dtype":"float32"},{"name":"dense_Dense3833/kernel","shape":[16,4],"dtype":"float32"},{"name":"dense_Dense3833/bias","shape":[4],"dtype":"float32"},{"name":"dense_Dense3834/kernel","shape":[4,1],"dtype":"float32"},{"name":"dense_Dense3834/bias","shape":[1],"dtype":"float32"}]}]}