{"modelTopology":{"class_name":"Model","config":{"name":"model167","layers":[{"name":"input167","class_name":"InputLayer","config":{"batch_input_shape":[null,3],"dtype":"float32","sparse":false,"name":"input167"},"inbound_nodes":[]},{"name":"dense_Dense831","class_name":"Dense","config":{"units":1,"activation":"relu","use_bias":true,"kernel_initializer":{"class_name":"VarianceScaling","config":{"scale":1,"mode":"fan_avg","distribution":"normal","seed":null}},"bias_initializer":{"class_name":"Zeros","config":{}},"kernel_regularizer":null,"bias_regularizer":null,"activity_regularizer":null,"kernel_constraint":null,"bias_constraint":null,"name":"dense_Dense831","trainable":true},"inbound_nodes":[[["input167",0,0,{}]]]},{"name":"dense_Dense832","class_name":"Dense","config":{"units":16,"activation":"relu","use_bias":true,"kernel_initializer":{"class_name":"VarianceScaling","config":{"scale":1,"mode":"fan_avg","distribution":"normal","seed":null}},"bias_initializer":{"class_name":"Zeros","config":{}},"kernel_regularizer":null,"bias_regularizer":null,"activity_regularizer":null,"kernel_constraint":null,"bias_constraint":null,"name":"dense_Dense832","trainable":true},"inbound_nodes":[[["dense_Dense831",0,0,{}]]]},{"name":"dense_Dense833","class_name":"Dense","config":{"units":8,"activation":"relu","use_bias":true,"kernel_initializer":{"class_name":"VarianceScaling","config":{"scale":1,"mode":"fan_avg","distribution":"normal","seed":null}},"bias_initializer":{"class_name":"Zeros","config":{}},"kernel_regularizer":null,"bias_regularizer":null,"activity_regularizer":null,"kernel_constraint":null,"bias_constraint":null,"name":"dense_Dense833","trainable":true},"inbound_nodes":[[["dense_Dense832",0,0,{}]]]},{"name":"dense_Dense834","class_name":"Dense","config":{"units":16,"activation":"relu","use_bias":true,"kernel_initializer":{"class_name":"VarianceScaling","config":{"scale":1,"mode":"fan_avg","distribution":"normal","seed":null}},"bias_initializer":{"class_name":"Zeros","config":{}},"kernel_regularizer":null,"bias_regularizer":null,"activity_regularizer":null,"kernel_constraint":null,"bias_constraint":null,"name":"dense_Dense834","trainable":true},"inbound_nodes":[[["dense_Dense833",0,0,{}]]]},{"name":"dense_Dense835","class_name":"Dense","config":{"units":1,"activation":"sigmoid","use_bias":true,"kernel_initializer":{"class_name":"VarianceScaling","config":{"scale":1,"mode":"fan_avg","distribution":"normal","seed":null}},"bias_initializer":{"class_name":"Zeros","config":{}},"kernel_regularizer":null,"bias_regularizer":null,"activity_regularizer":null,"kernel_constraint":null,"bias_constraint":null,"name":"dense_Dense835","trainable":true},"inbound_nodes":[[["dense_Dense834",0,0,{}]]]}],"input_layers":[["input167",0,0]],"output_layers":[["dense_Dense835",0,0]]},"keras_version":"tfjs-layers 3.9.0","backend":"tensor_flow.js"},"weightsManifest":[{"paths":["weights.bin"],"weights":[{"name":"dense_Dense831/kernel","shape":[3,1],"dtype":"float32"},{"name":"dense_Dense831/bias","shape":[1],"dtype":"float32"},{"name":"dense_Dense832/kernel","shape":[1,16],"dtype":"float32"},{"name":"dense_Dense832/bias","shape":[16],"dtype":"float32"},{"name":"dense_Dense833/kernel","shape":[16,8],"dtype":"float32"},{"name":"dense_Dense833/bias","shape":[8],"dtype":"float32"},{"name":"dense_Dense834/kernel","shape":[8,16],"dtype":"float32"},{"name":"dense_Dense834/bias","shape":[16],"dtype":"float32"},{"name":"dense_Dense835/kernel","shape":[16,1],"dtype":"float32"},{"name":"dense_Dense835/bias","shape":[1],"dtype":"float32"}]}]}