{"modelTopology":{"class_name":"Model","config":{"name":"model1261","layers":[{"name":"input1261","class_name":"InputLayer","config":{"batch_input_shape":[null,3],"dtype":"float32","sparse":false,"name":"input1261"},"inbound_nodes":[]},{"name":"dense_Dense7561","class_name":"Dense","config":{"units":2,"activation":"relu","use_bias":true,"kernel_initializer":{"class_name":"VarianceScaling","config":{"scale":1,"mode":"fan_avg","distribution":"normal","seed":null}},"bias_initializer":{"class_name":"Zeros","config":{}},"kernel_regularizer":null,"bias_regularizer":null,"activity_regularizer":null,"kernel_constraint":null,"bias_constraint":null,"name":"dense_Dense7561","trainable":true},"inbound_nodes":[[["input1261",0,0,{}]]]},{"name":"dense_Dense7562","class_name":"Dense","config":{"units":32,"activation":"relu","use_bias":true,"kernel_initializer":{"class_name":"VarianceScaling","config":{"scale":1,"mode":"fan_avg","distribution":"normal","seed":null}},"bias_initializer":{"class_name":"Zeros","config":{}},"kernel_regularizer":null,"bias_regularizer":null,"activity_regularizer":null,"kernel_constraint":null,"bias_constraint":null,"name":"dense_Dense7562","trainable":true},"inbound_nodes":[[["dense_Dense7561",0,0,{}]]]},{"name":"dense_Dense7563","class_name":"Dense","config":{"units":32,"activation":"relu","use_bias":true,"kernel_initializer":{"class_name":"VarianceScaling","config":{"scale":1,"mode":"fan_avg","distribution":"normal","seed":null}},"bias_initializer":{"class_name":"Zeros","config":{}},"kernel_regularizer":null,"bias_regularizer":null,"activity_regularizer":null,"kernel_constraint":null,"bias_constraint":null,"name":"dense_Dense7563","trainable":true},"inbound_nodes":[[["dense_Dense7562",0,0,{}]]]},{"name":"dense_Dense7564","class_name":"Dense","config":{"units":1,"activation":"relu","use_bias":true,"kernel_initializer":{"class_name":"VarianceScaling","config":{"scale":1,"mode":"fan_avg","distribution":"normal","seed":null}},"bias_initializer":{"class_name":"Zeros","config":{}},"kernel_regularizer":null,"bias_regularizer":null,"activity_regularizer":null,"kernel_constraint":null,"bias_constraint":null,"name":"dense_Dense7564","trainable":true},"inbound_nodes":[[["dense_Dense7563",0,0,{}]]]},{"name":"dense_Dense7565","class_name":"Dense","config":{"units":1,"activation":"relu","use_bias":true,"kernel_initializer":{"class_name":"VarianceScaling","config":{"scale":1,"mode":"fan_avg","distribution":"normal","seed":null}},"bias_initializer":{"class_name":"Zeros","config":{}},"kernel_regularizer":null,"bias_regularizer":null,"activity_regularizer":null,"kernel_constraint":null,"bias_constraint":null,"name":"dense_Dense7565","trainable":true},"inbound_nodes":[[["dense_Dense7564",0,0,{}]]]},{"name":"dense_Dense7566","class_name":"Dense","config":{"units":1,"activation":"sigmoid","use_bias":true,"kernel_initializer":{"class_name":"VarianceScaling","config":{"scale":1,"mode":"fan_avg","distribution":"normal","seed":null}},"bias_initializer":{"class_name":"Zeros","config":{}},"kernel_regularizer":null,"bias_regularizer":null,"activity_regularizer":null,"kernel_constraint":null,"bias_constraint":null,"name":"dense_Dense7566","trainable":true},"inbound_nodes":[[["dense_Dense7565",0,0,{}]]]}],"input_layers":[["input1261",0,0]],"output_layers":[["dense_Dense7566",0,0]]},"keras_version":"tfjs-layers 3.9.0","backend":"tensor_flow.js"},"weightsManifest":[{"paths":["weights.bin"],"weights":[{"name":"dense_Dense7561/kernel","shape":[3,2],"dtype":"float32"},{"name":"dense_Dense7561/bias","shape":[2],"dtype":"float32"},{"name":"dense_Dense7562/kernel","shape":[2,32],"dtype":"float32"},{"name":"dense_Dense7562/bias","shape":[32],"dtype":"float32"},{"name":"dense_Dense7563/kernel","shape":[32,32],"dtype":"float32"},{"name":"dense_Dense7563/bias","shape":[32],"dtype":"float32"},{"name":"dense_Dense7564/kernel","shape":[32,1],"dtype":"float32"},{"name":"dense_Dense7564/bias","shape":[1],"dtype":"float32"},{"name":"dense_Dense7565/kernel","shape":[1,1],"dtype":"float32"},{"name":"dense_Dense7565/bias","shape":[1],"dtype":"float32"},{"name":"dense_Dense7566/kernel","shape":[1,1],"dtype":"float32"},{"name":"dense_Dense7566/bias","shape":[1],"dtype":"float32"}]}]}