{"modelTopology":{"class_name":"Model","config":{"name":"model43","layers":[{"name":"input43","class_name":"InputLayer","config":{"batch_input_shape":[null,3],"dtype":"float32","sparse":false,"name":"input43"},"inbound_nodes":[]},{"name":"dense_Dense253","class_name":"Dense","config":{"units":32,"activation":"relu","use_bias":true,"kernel_initializer":{"class_name":"VarianceScaling","config":{"scale":1,"mode":"fan_avg","distribution":"normal","seed":null}},"bias_initializer":{"class_name":"Zeros","config":{}},"kernel_regularizer":null,"bias_regularizer":null,"activity_regularizer":null,"kernel_constraint":null,"bias_constraint":null,"name":"dense_Dense253","trainable":true},"inbound_nodes":[[["input43",0,0,{}]]]},{"name":"dense_Dense254","class_name":"Dense","config":{"units":1,"activation":"relu","use_bias":true,"kernel_initializer":{"class_name":"VarianceScaling","config":{"scale":1,"mode":"fan_avg","distribution":"normal","seed":null}},"bias_initializer":{"class_name":"Zeros","config":{}},"kernel_regularizer":null,"bias_regularizer":null,"activity_regularizer":null,"kernel_constraint":null,"bias_constraint":null,"name":"dense_Dense254","trainable":true},"inbound_nodes":[[["dense_Dense253",0,0,{}]]]},{"name":"dense_Dense255","class_name":"Dense","config":{"units":2,"activation":"relu","use_bias":true,"kernel_initializer":{"class_name":"VarianceScaling","config":{"scale":1,"mode":"fan_avg","distribution":"normal","seed":null}},"bias_initializer":{"class_name":"Zeros","config":{}},"kernel_regularizer":null,"bias_regularizer":null,"activity_regularizer":null,"kernel_constraint":null,"bias_constraint":null,"name":"dense_Dense255","trainable":true},"inbound_nodes":[[["dense_Dense254",0,0,{}]]]},{"name":"dense_Dense256","class_name":"Dense","config":{"units":2,"activation":"relu","use_bias":true,"kernel_initializer":{"class_name":"VarianceScaling","config":{"scale":1,"mode":"fan_avg","distribution":"normal","seed":null}},"bias_initializer":{"class_name":"Zeros","config":{}},"kernel_regularizer":null,"bias_regularizer":null,"activity_regularizer":null,"kernel_constraint":null,"bias_constraint":null,"name":"dense_Dense256","trainable":true},"inbound_nodes":[[["dense_Dense255",0,0,{}]]]},{"name":"dense_Dense257","class_name":"Dense","config":{"units":1,"activation":"relu","use_bias":true,"kernel_initializer":{"class_name":"VarianceScaling","config":{"scale":1,"mode":"fan_avg","distribution":"normal","seed":null}},"bias_initializer":{"class_name":"Zeros","config":{}},"kernel_regularizer":null,"bias_regularizer":null,"activity_regularizer":null,"kernel_constraint":null,"bias_constraint":null,"name":"dense_Dense257","trainable":true},"inbound_nodes":[[["dense_Dense256",0,0,{}]]]},{"name":"dense_Dense258","class_name":"Dense","config":{"units":1,"activation":"sigmoid","use_bias":true,"kernel_initializer":{"class_name":"VarianceScaling","config":{"scale":1,"mode":"fan_avg","distribution":"normal","seed":null}},"bias_initializer":{"class_name":"Zeros","config":{}},"kernel_regularizer":null,"bias_regularizer":null,"activity_regularizer":null,"kernel_constraint":null,"bias_constraint":null,"name":"dense_Dense258","trainable":true},"inbound_nodes":[[["dense_Dense257",0,0,{}]]]}],"input_layers":[["input43",0,0]],"output_layers":[["dense_Dense258",0,0]]},"keras_version":"tfjs-layers 3.9.0","backend":"tensor_flow.js"},"weightsManifest":[{"paths":["weights.bin"],"weights":[{"name":"dense_Dense253/kernel","shape":[3,32],"dtype":"float32"},{"name":"dense_Dense253/bias","shape":[32],"dtype":"float32"},{"name":"dense_Dense254/kernel","shape":[32,1],"dtype":"float32"},{"name":"dense_Dense254/bias","shape":[1],"dtype":"float32"},{"name":"dense_Dense255/kernel","shape":[1,2],"dtype":"float32"},{"name":"dense_Dense255/bias","shape":[2],"dtype":"float32"},{"name":"dense_Dense256/kernel","shape":[2,2],"dtype":"float32"},{"name":"dense_Dense256/bias","shape":[2],"dtype":"float32"},{"name":"dense_Dense257/kernel","shape":[2,1],"dtype":"float32"},{"name":"dense_Dense257/bias","shape":[1],"dtype":"float32"},{"name":"dense_Dense258/kernel","shape":[1,1],"dtype":"float32"},{"name":"dense_Dense258/bias","shape":[1],"dtype":"float32"}]}]}