{"modelTopology":{"class_name":"Model","config":{"name":"model86","layers":[{"name":"input86","class_name":"InputLayer","config":{"batch_input_shape":[null,3],"dtype":"float32","sparse":false,"name":"input86"},"inbound_nodes":[]},{"name":"dense_Dense426","class_name":"Dense","config":{"units":1,"activation":"relu","use_bias":true,"kernel_initializer":{"class_name":"VarianceScaling","config":{"scale":1,"mode":"fan_avg","distribution":"normal","seed":null}},"bias_initializer":{"class_name":"Zeros","config":{}},"kernel_regularizer":null,"bias_regularizer":null,"activity_regularizer":null,"kernel_constraint":null,"bias_constraint":null,"name":"dense_Dense426","trainable":true},"inbound_nodes":[[["input86",0,0,{}]]]},{"name":"dense_Dense427","class_name":"Dense","config":{"units":4,"activation":"relu","use_bias":true,"kernel_initializer":{"class_name":"VarianceScaling","config":{"scale":1,"mode":"fan_avg","distribution":"normal","seed":null}},"bias_initializer":{"class_name":"Zeros","config":{}},"kernel_regularizer":null,"bias_regularizer":null,"activity_regularizer":null,"kernel_constraint":null,"bias_constraint":null,"name":"dense_Dense427","trainable":true},"inbound_nodes":[[["dense_Dense426",0,0,{}]]]},{"name":"dense_Dense428","class_name":"Dense","config":{"units":4,"activation":"relu","use_bias":true,"kernel_initializer":{"class_name":"VarianceScaling","config":{"scale":1,"mode":"fan_avg","distribution":"normal","seed":null}},"bias_initializer":{"class_name":"Zeros","config":{}},"kernel_regularizer":null,"bias_regularizer":null,"activity_regularizer":null,"kernel_constraint":null,"bias_constraint":null,"name":"dense_Dense428","trainable":true},"inbound_nodes":[[["dense_Dense427",0,0,{}]]]},{"name":"dense_Dense429","class_name":"Dense","config":{"units":2,"activation":"relu","use_bias":true,"kernel_initializer":{"class_name":"VarianceScaling","config":{"scale":1,"mode":"fan_avg","distribution":"normal","seed":null}},"bias_initializer":{"class_name":"Zeros","config":{}},"kernel_regularizer":null,"bias_regularizer":null,"activity_regularizer":null,"kernel_constraint":null,"bias_constraint":null,"name":"dense_Dense429","trainable":true},"inbound_nodes":[[["dense_Dense428",0,0,{}]]]},{"name":"dense_Dense430","class_name":"Dense","config":{"units":1,"activation":"sigmoid","use_bias":true,"kernel_initializer":{"class_name":"VarianceScaling","config":{"scale":1,"mode":"fan_avg","distribution":"normal","seed":null}},"bias_initializer":{"class_name":"Zeros","config":{}},"kernel_regularizer":null,"bias_regularizer":null,"activity_regularizer":null,"kernel_constraint":null,"bias_constraint":null,"name":"dense_Dense430","trainable":true},"inbound_nodes":[[["dense_Dense429",0,0,{}]]]}],"input_layers":[["input86",0,0]],"output_layers":[["dense_Dense430",0,0]]},"keras_version":"tfjs-layers 3.9.0","backend":"tensor_flow.js"},"weightsManifest":[{"paths":["weights.bin"],"weights":[{"name":"dense_Dense426/kernel","shape":[3,1],"dtype":"float32"},{"name":"dense_Dense426/bias","shape":[1],"dtype":"float32"},{"name":"dense_Dense427/kernel","shape":[1,4],"dtype":"float32"},{"name":"dense_Dense427/bias","shape":[4],"dtype":"float32"},{"name":"dense_Dense428/kernel","shape":[4,4],"dtype":"float32"},{"name":"dense_Dense428/bias","shape":[4],"dtype":"float32"},{"name":"dense_Dense429/kernel","shape":[4,2],"dtype":"float32"},{"name":"dense_Dense429/bias","shape":[2],"dtype":"float32"},{"name":"dense_Dense430/kernel","shape":[2,1],"dtype":"float32"},{"name":"dense_Dense430/bias","shape":[1],"dtype":"float32"}]}]}