{"modelTopology":{"class_name":"Model","config":{"name":"model1136","layers":[{"name":"input1136","class_name":"InputLayer","config":{"batch_input_shape":[null,3],"dtype":"float32","sparse":false,"name":"input1136"},"inbound_nodes":[]},{"name":"dense_Dense6811","class_name":"Dense","config":{"units":1,"activation":"relu","use_bias":true,"kernel_initializer":{"class_name":"VarianceScaling","config":{"scale":1,"mode":"fan_avg","distribution":"normal","seed":null}},"bias_initializer":{"class_name":"Zeros","config":{}},"kernel_regularizer":null,"bias_regularizer":null,"activity_regularizer":null,"kernel_constraint":null,"bias_constraint":null,"name":"dense_Dense6811","trainable":true},"inbound_nodes":[[["input1136",0,0,{}]]]},{"name":"dense_Dense6812","class_name":"Dense","config":{"units":32,"activation":"relu","use_bias":true,"kernel_initializer":{"class_name":"VarianceScaling","config":{"scale":1,"mode":"fan_avg","distribution":"normal","seed":null}},"bias_initializer":{"class_name":"Zeros","config":{}},"kernel_regularizer":null,"bias_regularizer":null,"activity_regularizer":null,"kernel_constraint":null,"bias_constraint":null,"name":"dense_Dense6812","trainable":true},"inbound_nodes":[[["dense_Dense6811",0,0,{}]]]},{"name":"dense_Dense6813","class_name":"Dense","config":{"units":2,"activation":"relu","use_bias":true,"kernel_initializer":{"class_name":"VarianceScaling","config":{"scale":1,"mode":"fan_avg","distribution":"normal","seed":null}},"bias_initializer":{"class_name":"Zeros","config":{}},"kernel_regularizer":null,"bias_regularizer":null,"activity_regularizer":null,"kernel_constraint":null,"bias_constraint":null,"name":"dense_Dense6813","trainable":true},"inbound_nodes":[[["dense_Dense6812",0,0,{}]]]},{"name":"dense_Dense6814","class_name":"Dense","config":{"units":8,"activation":"relu","use_bias":true,"kernel_initializer":{"class_name":"VarianceScaling","config":{"scale":1,"mode":"fan_avg","distribution":"normal","seed":null}},"bias_initializer":{"class_name":"Zeros","config":{}},"kernel_regularizer":null,"bias_regularizer":null,"activity_regularizer":null,"kernel_constraint":null,"bias_constraint":null,"name":"dense_Dense6814","trainable":true},"inbound_nodes":[[["dense_Dense6813",0,0,{}]]]},{"name":"dense_Dense6815","class_name":"Dense","config":{"units":2,"activation":"relu","use_bias":true,"kernel_initializer":{"class_name":"VarianceScaling","config":{"scale":1,"mode":"fan_avg","distribution":"normal","seed":null}},"bias_initializer":{"class_name":"Zeros","config":{}},"kernel_regularizer":null,"bias_regularizer":null,"activity_regularizer":null,"kernel_constraint":null,"bias_constraint":null,"name":"dense_Dense6815","trainable":true},"inbound_nodes":[[["dense_Dense6814",0,0,{}]]]},{"name":"dense_Dense6816","class_name":"Dense","config":{"units":1,"activation":"sigmoid","use_bias":true,"kernel_initializer":{"class_name":"VarianceScaling","config":{"scale":1,"mode":"fan_avg","distribution":"normal","seed":null}},"bias_initializer":{"class_name":"Zeros","config":{}},"kernel_regularizer":null,"bias_regularizer":null,"activity_regularizer":null,"kernel_constraint":null,"bias_constraint":null,"name":"dense_Dense6816","trainable":true},"inbound_nodes":[[["dense_Dense6815",0,0,{}]]]}],"input_layers":[["input1136",0,0]],"output_layers":[["dense_Dense6816",0,0]]},"keras_version":"tfjs-layers 3.9.0","backend":"tensor_flow.js"},"weightsManifest":[{"paths":["weights.bin"],"weights":[{"name":"dense_Dense6811/kernel","shape":[3,1],"dtype":"float32"},{"name":"dense_Dense6811/bias","shape":[1],"dtype":"float32"},{"name":"dense_Dense6812/kernel","shape":[1,32],"dtype":"float32"},{"name":"dense_Dense6812/bias","shape":[32],"dtype":"float32"},{"name":"dense_Dense6813/kernel","shape":[32,2],"dtype":"float32"},{"name":"dense_Dense6813/bias","shape":[2],"dtype":"float32"},{"name":"dense_Dense6814/kernel","shape":[2,8],"dtype":"float32"},{"name":"dense_Dense6814/bias","shape":[8],"dtype":"float32"},{"name":"dense_Dense6815/kernel","shape":[8,2],"dtype":"float32"},{"name":"dense_Dense6815/bias","shape":[2],"dtype":"float32"},{"name":"dense_Dense6816/kernel","shape":[2,1],"dtype":"float32"},{"name":"dense_Dense6816/bias","shape":[1],"dtype":"float32"}]}]}