{"modelTopology":{"class_name":"Model","config":{"name":"model561","layers":[{"name":"input561","class_name":"InputLayer","config":{"batch_input_shape":[null,3],"dtype":"float32","sparse":false,"name":"input561"},"inbound_nodes":[]},{"name":"dense_Dense2801","class_name":"Dense","config":{"units":4,"activation":"relu","use_bias":true,"kernel_initializer":{"class_name":"VarianceScaling","config":{"scale":1,"mode":"fan_avg","distribution":"normal","seed":null}},"bias_initializer":{"class_name":"Zeros","config":{}},"kernel_regularizer":null,"bias_regularizer":null,"activity_regularizer":null,"kernel_constraint":null,"bias_constraint":null,"name":"dense_Dense2801","trainable":true},"inbound_nodes":[[["input561",0,0,{}]]]},{"name":"dense_Dense2802","class_name":"Dense","config":{"units":8,"activation":"relu","use_bias":true,"kernel_initializer":{"class_name":"VarianceScaling","config":{"scale":1,"mode":"fan_avg","distribution":"normal","seed":null}},"bias_initializer":{"class_name":"Zeros","config":{}},"kernel_regularizer":null,"bias_regularizer":null,"activity_regularizer":null,"kernel_constraint":null,"bias_constraint":null,"name":"dense_Dense2802","trainable":true},"inbound_nodes":[[["dense_Dense2801",0,0,{}]]]},{"name":"dense_Dense2803","class_name":"Dense","config":{"units":8,"activation":"relu","use_bias":true,"kernel_initializer":{"class_name":"VarianceScaling","config":{"scale":1,"mode":"fan_avg","distribution":"normal","seed":null}},"bias_initializer":{"class_name":"Zeros","config":{}},"kernel_regularizer":null,"bias_regularizer":null,"activity_regularizer":null,"kernel_constraint":null,"bias_constraint":null,"name":"dense_Dense2803","trainable":true},"inbound_nodes":[[["dense_Dense2802",0,0,{}]]]},{"name":"dense_Dense2804","class_name":"Dense","config":{"units":4,"activation":"relu","use_bias":true,"kernel_initializer":{"class_name":"VarianceScaling","config":{"scale":1,"mode":"fan_avg","distribution":"normal","seed":null}},"bias_initializer":{"class_name":"Zeros","config":{}},"kernel_regularizer":null,"bias_regularizer":null,"activity_regularizer":null,"kernel_constraint":null,"bias_constraint":null,"name":"dense_Dense2804","trainable":true},"inbound_nodes":[[["dense_Dense2803",0,0,{}]]]},{"name":"dense_Dense2805","class_name":"Dense","config":{"units":1,"activation":"sigmoid","use_bias":true,"kernel_initializer":{"class_name":"VarianceScaling","config":{"scale":1,"mode":"fan_avg","distribution":"normal","seed":null}},"bias_initializer":{"class_name":"Zeros","config":{}},"kernel_regularizer":null,"bias_regularizer":null,"activity_regularizer":null,"kernel_constraint":null,"bias_constraint":null,"name":"dense_Dense2805","trainable":true},"inbound_nodes":[[["dense_Dense2804",0,0,{}]]]}],"input_layers":[["input561",0,0]],"output_layers":[["dense_Dense2805",0,0]]},"keras_version":"tfjs-layers 3.9.0","backend":"tensor_flow.js"},"weightsManifest":[{"paths":["weights.bin"],"weights":[{"name":"dense_Dense2801/kernel","shape":[3,4],"dtype":"float32"},{"name":"dense_Dense2801/bias","shape":[4],"dtype":"float32"},{"name":"dense_Dense2802/kernel","shape":[4,8],"dtype":"float32"},{"name":"dense_Dense2802/bias","shape":[8],"dtype":"float32"},{"name":"dense_Dense2803/kernel","shape":[8,8],"dtype":"float32"},{"name":"dense_Dense2803/bias","shape":[8],"dtype":"float32"},{"name":"dense_Dense2804/kernel","shape":[8,4],"dtype":"float32"},{"name":"dense_Dense2804/bias","shape":[4],"dtype":"float32"},{"name":"dense_Dense2805/kernel","shape":[4,1],"dtype":"float32"},{"name":"dense_Dense2805/bias","shape":[1],"dtype":"float32"}]}]}