{"modelTopology":{"class_name":"Model","config":{"name":"model416","layers":[{"name":"input416","class_name":"InputLayer","config":{"batch_input_shape":[null,3],"dtype":"float32","sparse":false,"name":"input416"},"inbound_nodes":[]},{"name":"dense_Dense2491","class_name":"Dense","config":{"units":1,"activation":"relu","use_bias":true,"kernel_initializer":{"class_name":"VarianceScaling","config":{"scale":1,"mode":"fan_avg","distribution":"normal","seed":null}},"bias_initializer":{"class_name":"Zeros","config":{}},"kernel_regularizer":null,"bias_regularizer":null,"activity_regularizer":null,"kernel_constraint":null,"bias_constraint":null,"name":"dense_Dense2491","trainable":true},"inbound_nodes":[[["input416",0,0,{}]]]},{"name":"dense_Dense2492","class_name":"Dense","config":{"units":2,"activation":"relu","use_bias":true,"kernel_initializer":{"class_name":"VarianceScaling","config":{"scale":1,"mode":"fan_avg","distribution":"normal","seed":null}},"bias_initializer":{"class_name":"Zeros","config":{}},"kernel_regularizer":null,"bias_regularizer":null,"activity_regularizer":null,"kernel_constraint":null,"bias_constraint":null,"name":"dense_Dense2492","trainable":true},"inbound_nodes":[[["dense_Dense2491",0,0,{}]]]},{"name":"dense_Dense2493","class_name":"Dense","config":{"units":32,"activation":"relu","use_bias":true,"kernel_initializer":{"class_name":"VarianceScaling","config":{"scale":1,"mode":"fan_avg","distribution":"normal","seed":null}},"bias_initializer":{"class_name":"Zeros","config":{}},"kernel_regularizer":null,"bias_regularizer":null,"activity_regularizer":null,"kernel_constraint":null,"bias_constraint":null,"name":"dense_Dense2493","trainable":true},"inbound_nodes":[[["dense_Dense2492",0,0,{}]]]},{"name":"dense_Dense2494","class_name":"Dense","config":{"units":8,"activation":"relu","use_bias":true,"kernel_initializer":{"class_name":"VarianceScaling","config":{"scale":1,"mode":"fan_avg","distribution":"normal","seed":null}},"bias_initializer":{"class_name":"Zeros","config":{}},"kernel_regularizer":null,"bias_regularizer":null,"activity_regularizer":null,"kernel_constraint":null,"bias_constraint":null,"name":"dense_Dense2494","trainable":true},"inbound_nodes":[[["dense_Dense2493",0,0,{}]]]},{"name":"dense_Dense2495","class_name":"Dense","config":{"units":2,"activation":"relu","use_bias":true,"kernel_initializer":{"class_name":"VarianceScaling","config":{"scale":1,"mode":"fan_avg","distribution":"normal","seed":null}},"bias_initializer":{"class_name":"Zeros","config":{}},"kernel_regularizer":null,"bias_regularizer":null,"activity_regularizer":null,"kernel_constraint":null,"bias_constraint":null,"name":"dense_Dense2495","trainable":true},"inbound_nodes":[[["dense_Dense2494",0,0,{}]]]},{"name":"dense_Dense2496","class_name":"Dense","config":{"units":1,"activation":"sigmoid","use_bias":true,"kernel_initializer":{"class_name":"VarianceScaling","config":{"scale":1,"mode":"fan_avg","distribution":"normal","seed":null}},"bias_initializer":{"class_name":"Zeros","config":{}},"kernel_regularizer":null,"bias_regularizer":null,"activity_regularizer":null,"kernel_constraint":null,"bias_constraint":null,"name":"dense_Dense2496","trainable":true},"inbound_nodes":[[["dense_Dense2495",0,0,{}]]]}],"input_layers":[["input416",0,0]],"output_layers":[["dense_Dense2496",0,0]]},"keras_version":"tfjs-layers 3.9.0","backend":"tensor_flow.js"},"weightsManifest":[{"paths":["weights.bin"],"weights":[{"name":"dense_Dense2491/kernel","shape":[3,1],"dtype":"float32"},{"name":"dense_Dense2491/bias","shape":[1],"dtype":"float32"},{"name":"dense_Dense2492/kernel","shape":[1,2],"dtype":"float32"},{"name":"dense_Dense2492/bias","shape":[2],"dtype":"float32"},{"name":"dense_Dense2493/kernel","shape":[2,32],"dtype":"float32"},{"name":"dense_Dense2493/bias","shape":[32],"dtype":"float32"},{"name":"dense_Dense2494/kernel","shape":[32,8],"dtype":"float32"},{"name":"dense_Dense2494/bias","shape":[8],"dtype":"float32"},{"name":"dense_Dense2495/kernel","shape":[8,2],"dtype":"float32"},{"name":"dense_Dense2495/bias","shape":[2],"dtype":"float32"},{"name":"dense_Dense2496/kernel","shape":[2,1],"dtype":"float32"},{"name":"dense_Dense2496/bias","shape":[1],"dtype":"float32"}]}]}