{"modelTopology":{"class_name":"Model","config":{"name":"model575","layers":[{"name":"input575","class_name":"InputLayer","config":{"batch_input_shape":[null,3],"dtype":"float32","sparse":false,"name":"input575"},"inbound_nodes":[]},{"name":"dense_Dense2871","class_name":"Dense","config":{"units":4,"activation":"relu","use_bias":true,"kernel_initializer":{"class_name":"VarianceScaling","config":{"scale":1,"mode":"fan_avg","distribution":"normal","seed":null}},"bias_initializer":{"class_name":"Zeros","config":{}},"kernel_regularizer":null,"bias_regularizer":null,"activity_regularizer":null,"kernel_constraint":null,"bias_constraint":null,"name":"dense_Dense2871","trainable":true},"inbound_nodes":[[["input575",0,0,{}]]]},{"name":"dense_Dense2872","class_name":"Dense","config":{"units":8,"activation":"relu","use_bias":true,"kernel_initializer":{"class_name":"VarianceScaling","config":{"scale":1,"mode":"fan_avg","distribution":"normal","seed":null}},"bias_initializer":{"class_name":"Zeros","config":{}},"kernel_regularizer":null,"bias_regularizer":null,"activity_regularizer":null,"kernel_constraint":null,"bias_constraint":null,"name":"dense_Dense2872","trainable":true},"inbound_nodes":[[["dense_Dense2871",0,0,{}]]]},{"name":"dense_Dense2873","class_name":"Dense","config":{"units":32,"activation":"relu","use_bias":true,"kernel_initializer":{"class_name":"VarianceScaling","config":{"scale":1,"mode":"fan_avg","distribution":"normal","seed":null}},"bias_initializer":{"class_name":"Zeros","config":{}},"kernel_regularizer":null,"bias_regularizer":null,"activity_regularizer":null,"kernel_constraint":null,"bias_constraint":null,"name":"dense_Dense2873","trainable":true},"inbound_nodes":[[["dense_Dense2872",0,0,{}]]]},{"name":"dense_Dense2874","class_name":"Dense","config":{"units":16,"activation":"relu","use_bias":true,"kernel_initializer":{"class_name":"VarianceScaling","config":{"scale":1,"mode":"fan_avg","distribution":"normal","seed":null}},"bias_initializer":{"class_name":"Zeros","config":{}},"kernel_regularizer":null,"bias_regularizer":null,"activity_regularizer":null,"kernel_constraint":null,"bias_constraint":null,"name":"dense_Dense2874","trainable":true},"inbound_nodes":[[["dense_Dense2873",0,0,{}]]]},{"name":"dense_Dense2875","class_name":"Dense","config":{"units":1,"activation":"sigmoid","use_bias":true,"kernel_initializer":{"class_name":"VarianceScaling","config":{"scale":1,"mode":"fan_avg","distribution":"normal","seed":null}},"bias_initializer":{"class_name":"Zeros","config":{}},"kernel_regularizer":null,"bias_regularizer":null,"activity_regularizer":null,"kernel_constraint":null,"bias_constraint":null,"name":"dense_Dense2875","trainable":true},"inbound_nodes":[[["dense_Dense2874",0,0,{}]]]}],"input_layers":[["input575",0,0]],"output_layers":[["dense_Dense2875",0,0]]},"keras_version":"tfjs-layers 3.9.0","backend":"tensor_flow.js"},"weightsManifest":[{"paths":["weights.bin"],"weights":[{"name":"dense_Dense2871/kernel","shape":[3,4],"dtype":"float32"},{"name":"dense_Dense2871/bias","shape":[4],"dtype":"float32"},{"name":"dense_Dense2872/kernel","shape":[4,8],"dtype":"float32"},{"name":"dense_Dense2872/bias","shape":[8],"dtype":"float32"},{"name":"dense_Dense2873/kernel","shape":[8,32],"dtype":"float32"},{"name":"dense_Dense2873/bias","shape":[32],"dtype":"float32"},{"name":"dense_Dense2874/kernel","shape":[32,16],"dtype":"float32"},{"name":"dense_Dense2874/bias","shape":[16],"dtype":"float32"},{"name":"dense_Dense2875/kernel","shape":[16,1],"dtype":"float32"},{"name":"dense_Dense2875/bias","shape":[1],"dtype":"float32"}]}]}