{"modelTopology":{"class_name":"Model","config":{"name":"model178","layers":[{"name":"input178","class_name":"InputLayer","config":{"batch_input_shape":[null,3],"dtype":"float32","sparse":false,"name":"input178"},"inbound_nodes":[]},{"name":"dense_Dense1063","class_name":"Dense","config":{"units":2,"activation":"relu","use_bias":true,"kernel_initializer":{"class_name":"VarianceScaling","config":{"scale":1,"mode":"fan_avg","distribution":"normal","seed":null}},"bias_initializer":{"class_name":"Zeros","config":{}},"kernel_regularizer":null,"bias_regularizer":null,"activity_regularizer":null,"kernel_constraint":null,"bias_constraint":null,"name":"dense_Dense1063","trainable":true},"inbound_nodes":[[["input178",0,0,{}]]]},{"name":"dense_Dense1064","class_name":"Dense","config":{"units":1,"activation":"relu","use_bias":true,"kernel_initializer":{"class_name":"VarianceScaling","config":{"scale":1,"mode":"fan_avg","distribution":"normal","seed":null}},"bias_initializer":{"class_name":"Zeros","config":{}},"kernel_regularizer":null,"bias_regularizer":null,"activity_regularizer":null,"kernel_constraint":null,"bias_constraint":null,"name":"dense_Dense1064","trainable":true},"inbound_nodes":[[["dense_Dense1063",0,0,{}]]]},{"name":"dense_Dense1065","class_name":"Dense","config":{"units":16,"activation":"relu","use_bias":true,"kernel_initializer":{"class_name":"VarianceScaling","config":{"scale":1,"mode":"fan_avg","distribution":"normal","seed":null}},"bias_initializer":{"class_name":"Zeros","config":{}},"kernel_regularizer":null,"bias_regularizer":null,"activity_regularizer":null,"kernel_constraint":null,"bias_constraint":null,"name":"dense_Dense1065","trainable":true},"inbound_nodes":[[["dense_Dense1064",0,0,{}]]]},{"name":"dense_Dense1066","class_name":"Dense","config":{"units":32,"activation":"relu","use_bias":true,"kernel_initializer":{"class_name":"VarianceScaling","config":{"scale":1,"mode":"fan_avg","distribution":"normal","seed":null}},"bias_initializer":{"class_name":"Zeros","config":{}},"kernel_regularizer":null,"bias_regularizer":null,"activity_regularizer":null,"kernel_constraint":null,"bias_constraint":null,"name":"dense_Dense1066","trainable":true},"inbound_nodes":[[["dense_Dense1065",0,0,{}]]]},{"name":"dense_Dense1067","class_name":"Dense","config":{"units":8,"activation":"relu","use_bias":true,"kernel_initializer":{"class_name":"VarianceScaling","config":{"scale":1,"mode":"fan_avg","distribution":"normal","seed":null}},"bias_initializer":{"class_name":"Zeros","config":{}},"kernel_regularizer":null,"bias_regularizer":null,"activity_regularizer":null,"kernel_constraint":null,"bias_constraint":null,"name":"dense_Dense1067","trainable":true},"inbound_nodes":[[["dense_Dense1066",0,0,{}]]]},{"name":"dense_Dense1068","class_name":"Dense","config":{"units":1,"activation":"sigmoid","use_bias":true,"kernel_initializer":{"class_name":"VarianceScaling","config":{"scale":1,"mode":"fan_avg","distribution":"normal","seed":null}},"bias_initializer":{"class_name":"Zeros","config":{}},"kernel_regularizer":null,"bias_regularizer":null,"activity_regularizer":null,"kernel_constraint":null,"bias_constraint":null,"name":"dense_Dense1068","trainable":true},"inbound_nodes":[[["dense_Dense1067",0,0,{}]]]}],"input_layers":[["input178",0,0]],"output_layers":[["dense_Dense1068",0,0]]},"keras_version":"tfjs-layers 3.9.0","backend":"tensor_flow.js"},"weightsManifest":[{"paths":["weights.bin"],"weights":[{"name":"dense_Dense1063/kernel","shape":[3,2],"dtype":"float32"},{"name":"dense_Dense1063/bias","shape":[2],"dtype":"float32"},{"name":"dense_Dense1064/kernel","shape":[2,1],"dtype":"float32"},{"name":"dense_Dense1064/bias","shape":[1],"dtype":"float32"},{"name":"dense_Dense1065/kernel","shape":[1,16],"dtype":"float32"},{"name":"dense_Dense1065/bias","shape":[16],"dtype":"float32"},{"name":"dense_Dense1066/kernel","shape":[16,32],"dtype":"float32"},{"name":"dense_Dense1066/bias","shape":[32],"dtype":"float32"},{"name":"dense_Dense1067/kernel","shape":[32,8],"dtype":"float32"},{"name":"dense_Dense1067/bias","shape":[8],"dtype":"float32"},{"name":"dense_Dense1068/kernel","shape":[8,1],"dtype":"float32"},{"name":"dense_Dense1068/bias","shape":[1],"dtype":"float32"}]}]}