{"modelTopology":{"class_name":"Model","config":{"name":"model661","layers":[{"name":"input661","class_name":"InputLayer","config":{"batch_input_shape":[null,3],"dtype":"float32","sparse":false,"name":"input661"},"inbound_nodes":[]},{"name":"dense_Dense3961","class_name":"Dense","config":{"units":1,"activation":"relu","use_bias":true,"kernel_initializer":{"class_name":"VarianceScaling","config":{"scale":1,"mode":"fan_avg","distribution":"normal","seed":null}},"bias_initializer":{"class_name":"Zeros","config":{}},"kernel_regularizer":null,"bias_regularizer":null,"activity_regularizer":null,"kernel_constraint":null,"bias_constraint":null,"name":"dense_Dense3961","trainable":true},"inbound_nodes":[[["input661",0,0,{}]]]},{"name":"dense_Dense3962","class_name":"Dense","config":{"units":8,"activation":"relu","use_bias":true,"kernel_initializer":{"class_name":"VarianceScaling","config":{"scale":1,"mode":"fan_avg","distribution":"normal","seed":null}},"bias_initializer":{"class_name":"Zeros","config":{}},"kernel_regularizer":null,"bias_regularizer":null,"activity_regularizer":null,"kernel_constraint":null,"bias_constraint":null,"name":"dense_Dense3962","trainable":true},"inbound_nodes":[[["dense_Dense3961",0,0,{}]]]},{"name":"dense_Dense3963","class_name":"Dense","config":{"units":1,"activation":"relu","use_bias":true,"kernel_initializer":{"class_name":"VarianceScaling","config":{"scale":1,"mode":"fan_avg","distribution":"normal","seed":null}},"bias_initializer":{"class_name":"Zeros","config":{}},"kernel_regularizer":null,"bias_regularizer":null,"activity_regularizer":null,"kernel_constraint":null,"bias_constraint":null,"name":"dense_Dense3963","trainable":true},"inbound_nodes":[[["dense_Dense3962",0,0,{}]]]},{"name":"dense_Dense3964","class_name":"Dense","config":{"units":4,"activation":"relu","use_bias":true,"kernel_initializer":{"class_name":"VarianceScaling","config":{"scale":1,"mode":"fan_avg","distribution":"normal","seed":null}},"bias_initializer":{"class_name":"Zeros","config":{}},"kernel_regularizer":null,"bias_regularizer":null,"activity_regularizer":null,"kernel_constraint":null,"bias_constraint":null,"name":"dense_Dense3964","trainable":true},"inbound_nodes":[[["dense_Dense3963",0,0,{}]]]},{"name":"dense_Dense3965","class_name":"Dense","config":{"units":1,"activation":"relu","use_bias":true,"kernel_initializer":{"class_name":"VarianceScaling","config":{"scale":1,"mode":"fan_avg","distribution":"normal","seed":null}},"bias_initializer":{"class_name":"Zeros","config":{}},"kernel_regularizer":null,"bias_regularizer":null,"activity_regularizer":null,"kernel_constraint":null,"bias_constraint":null,"name":"dense_Dense3965","trainable":true},"inbound_nodes":[[["dense_Dense3964",0,0,{}]]]},{"name":"dense_Dense3966","class_name":"Dense","config":{"units":1,"activation":"sigmoid","use_bias":true,"kernel_initializer":{"class_name":"VarianceScaling","config":{"scale":1,"mode":"fan_avg","distribution":"normal","seed":null}},"bias_initializer":{"class_name":"Zeros","config":{}},"kernel_regularizer":null,"bias_regularizer":null,"activity_regularizer":null,"kernel_constraint":null,"bias_constraint":null,"name":"dense_Dense3966","trainable":true},"inbound_nodes":[[["dense_Dense3965",0,0,{}]]]}],"input_layers":[["input661",0,0]],"output_layers":[["dense_Dense3966",0,0]]},"keras_version":"tfjs-layers 3.9.0","backend":"tensor_flow.js"},"weightsManifest":[{"paths":["weights.bin"],"weights":[{"name":"dense_Dense3961/kernel","shape":[3,1],"dtype":"float32"},{"name":"dense_Dense3961/bias","shape":[1],"dtype":"float32"},{"name":"dense_Dense3962/kernel","shape":[1,8],"dtype":"float32"},{"name":"dense_Dense3962/bias","shape":[8],"dtype":"float32"},{"name":"dense_Dense3963/kernel","shape":[8,1],"dtype":"float32"},{"name":"dense_Dense3963/bias","shape":[1],"dtype":"float32"},{"name":"dense_Dense3964/kernel","shape":[1,4],"dtype":"float32"},{"name":"dense_Dense3964/bias","shape":[4],"dtype":"float32"},{"name":"dense_Dense3965/kernel","shape":[4,1],"dtype":"float32"},{"name":"dense_Dense3965/bias","shape":[1],"dtype":"float32"},{"name":"dense_Dense3966/kernel","shape":[1,1],"dtype":"float32"},{"name":"dense_Dense3966/bias","shape":[1],"dtype":"float32"}]}]}