{"modelTopology":{"class_name":"Model","config":{"name":"model1086","layers":[{"name":"input1086","class_name":"InputLayer","config":{"batch_input_shape":[null,3],"dtype":"float32","sparse":false,"name":"input1086"},"inbound_nodes":[]},{"name":"dense_Dense6511","class_name":"Dense","config":{"units":16,"activation":"relu","use_bias":true,"kernel_initializer":{"class_name":"VarianceScaling","config":{"scale":1,"mode":"fan_avg","distribution":"normal","seed":null}},"bias_initializer":{"class_name":"Zeros","config":{}},"kernel_regularizer":null,"bias_regularizer":null,"activity_regularizer":null,"kernel_constraint":null,"bias_constraint":null,"name":"dense_Dense6511","trainable":true},"inbound_nodes":[[["input1086",0,0,{}]]]},{"name":"dense_Dense6512","class_name":"Dense","config":{"units":32,"activation":"relu","use_bias":true,"kernel_initializer":{"class_name":"VarianceScaling","config":{"scale":1,"mode":"fan_avg","distribution":"normal","seed":null}},"bias_initializer":{"class_name":"Zeros","config":{}},"kernel_regularizer":null,"bias_regularizer":null,"activity_regularizer":null,"kernel_constraint":null,"bias_constraint":null,"name":"dense_Dense6512","trainable":true},"inbound_nodes":[[["dense_Dense6511",0,0,{}]]]},{"name":"dense_Dense6513","class_name":"Dense","config":{"units":1,"activation":"relu","use_bias":true,"kernel_initializer":{"class_name":"VarianceScaling","config":{"scale":1,"mode":"fan_avg","distribution":"normal","seed":null}},"bias_initializer":{"class_name":"Zeros","config":{}},"kernel_regularizer":null,"bias_regularizer":null,"activity_regularizer":null,"kernel_constraint":null,"bias_constraint":null,"name":"dense_Dense6513","trainable":true},"inbound_nodes":[[["dense_Dense6512",0,0,{}]]]},{"name":"dense_Dense6514","class_name":"Dense","config":{"units":1,"activation":"relu","use_bias":true,"kernel_initializer":{"class_name":"VarianceScaling","config":{"scale":1,"mode":"fan_avg","distribution":"normal","seed":null}},"bias_initializer":{"class_name":"Zeros","config":{}},"kernel_regularizer":null,"bias_regularizer":null,"activity_regularizer":null,"kernel_constraint":null,"bias_constraint":null,"name":"dense_Dense6514","trainable":true},"inbound_nodes":[[["dense_Dense6513",0,0,{}]]]},{"name":"dense_Dense6515","class_name":"Dense","config":{"units":32,"activation":"relu","use_bias":true,"kernel_initializer":{"class_name":"VarianceScaling","config":{"scale":1,"mode":"fan_avg","distribution":"normal","seed":null}},"bias_initializer":{"class_name":"Zeros","config":{}},"kernel_regularizer":null,"bias_regularizer":null,"activity_regularizer":null,"kernel_constraint":null,"bias_constraint":null,"name":"dense_Dense6515","trainable":true},"inbound_nodes":[[["dense_Dense6514",0,0,{}]]]},{"name":"dense_Dense6516","class_name":"Dense","config":{"units":1,"activation":"sigmoid","use_bias":true,"kernel_initializer":{"class_name":"VarianceScaling","config":{"scale":1,"mode":"fan_avg","distribution":"normal","seed":null}},"bias_initializer":{"class_name":"Zeros","config":{}},"kernel_regularizer":null,"bias_regularizer":null,"activity_regularizer":null,"kernel_constraint":null,"bias_constraint":null,"name":"dense_Dense6516","trainable":true},"inbound_nodes":[[["dense_Dense6515",0,0,{}]]]}],"input_layers":[["input1086",0,0]],"output_layers":[["dense_Dense6516",0,0]]},"keras_version":"tfjs-layers 3.9.0","backend":"tensor_flow.js"},"weightsManifest":[{"paths":["weights.bin"],"weights":[{"name":"dense_Dense6511/kernel","shape":[3,16],"dtype":"float32"},{"name":"dense_Dense6511/bias","shape":[16],"dtype":"float32"},{"name":"dense_Dense6512/kernel","shape":[16,32],"dtype":"float32"},{"name":"dense_Dense6512/bias","shape":[32],"dtype":"float32"},{"name":"dense_Dense6513/kernel","shape":[32,1],"dtype":"float32"},{"name":"dense_Dense6513/bias","shape":[1],"dtype":"float32"},{"name":"dense_Dense6514/kernel","shape":[1,1],"dtype":"float32"},{"name":"dense_Dense6514/bias","shape":[1],"dtype":"float32"},{"name":"dense_Dense6515/kernel","shape":[1,32],"dtype":"float32"},{"name":"dense_Dense6515/bias","shape":[32],"dtype":"float32"},{"name":"dense_Dense6516/kernel","shape":[32,1],"dtype":"float32"},{"name":"dense_Dense6516/bias","shape":[1],"dtype":"float32"}]}]}