{"modelTopology":{"class_name":"Model","config":{"name":"model953","layers":[{"name":"input953","class_name":"InputLayer","config":{"batch_input_shape":[null,3],"dtype":"float32","sparse":false,"name":"input953"},"inbound_nodes":[]},{"name":"dense_Dense5713","class_name":"Dense","config":{"units":2,"activation":"relu","use_bias":true,"kernel_initializer":{"class_name":"VarianceScaling","config":{"scale":1,"mode":"fan_avg","distribution":"normal","seed":null}},"bias_initializer":{"class_name":"Zeros","config":{}},"kernel_regularizer":null,"bias_regularizer":null,"activity_regularizer":null,"kernel_constraint":null,"bias_constraint":null,"name":"dense_Dense5713","trainable":true},"inbound_nodes":[[["input953",0,0,{}]]]},{"name":"dense_Dense5714","class_name":"Dense","config":{"units":16,"activation":"relu","use_bias":true,"kernel_initializer":{"class_name":"VarianceScaling","config":{"scale":1,"mode":"fan_avg","distribution":"normal","seed":null}},"bias_initializer":{"class_name":"Zeros","config":{}},"kernel_regularizer":null,"bias_regularizer":null,"activity_regularizer":null,"kernel_constraint":null,"bias_constraint":null,"name":"dense_Dense5714","trainable":true},"inbound_nodes":[[["dense_Dense5713",0,0,{}]]]},{"name":"dense_Dense5715","class_name":"Dense","config":{"units":4,"activation":"relu","use_bias":true,"kernel_initializer":{"class_name":"VarianceScaling","config":{"scale":1,"mode":"fan_avg","distribution":"normal","seed":null}},"bias_initializer":{"class_name":"Zeros","config":{}},"kernel_regularizer":null,"bias_regularizer":null,"activity_regularizer":null,"kernel_constraint":null,"bias_constraint":null,"name":"dense_Dense5715","trainable":true},"inbound_nodes":[[["dense_Dense5714",0,0,{}]]]},{"name":"dense_Dense5716","class_name":"Dense","config":{"units":4,"activation":"relu","use_bias":true,"kernel_initializer":{"class_name":"VarianceScaling","config":{"scale":1,"mode":"fan_avg","distribution":"normal","seed":null}},"bias_initializer":{"class_name":"Zeros","config":{}},"kernel_regularizer":null,"bias_regularizer":null,"activity_regularizer":null,"kernel_constraint":null,"bias_constraint":null,"name":"dense_Dense5716","trainable":true},"inbound_nodes":[[["dense_Dense5715",0,0,{}]]]},{"name":"dense_Dense5717","class_name":"Dense","config":{"units":16,"activation":"relu","use_bias":true,"kernel_initializer":{"class_name":"VarianceScaling","config":{"scale":1,"mode":"fan_avg","distribution":"normal","seed":null}},"bias_initializer":{"class_name":"Zeros","config":{}},"kernel_regularizer":null,"bias_regularizer":null,"activity_regularizer":null,"kernel_constraint":null,"bias_constraint":null,"name":"dense_Dense5717","trainable":true},"inbound_nodes":[[["dense_Dense5716",0,0,{}]]]},{"name":"dense_Dense5718","class_name":"Dense","config":{"units":1,"activation":"sigmoid","use_bias":true,"kernel_initializer":{"class_name":"VarianceScaling","config":{"scale":1,"mode":"fan_avg","distribution":"normal","seed":null}},"bias_initializer":{"class_name":"Zeros","config":{}},"kernel_regularizer":null,"bias_regularizer":null,"activity_regularizer":null,"kernel_constraint":null,"bias_constraint":null,"name":"dense_Dense5718","trainable":true},"inbound_nodes":[[["dense_Dense5717",0,0,{}]]]}],"input_layers":[["input953",0,0]],"output_layers":[["dense_Dense5718",0,0]]},"keras_version":"tfjs-layers 3.9.0","backend":"tensor_flow.js"},"weightsManifest":[{"paths":["weights.bin"],"weights":[{"name":"dense_Dense5713/kernel","shape":[3,2],"dtype":"float32"},{"name":"dense_Dense5713/bias","shape":[2],"dtype":"float32"},{"name":"dense_Dense5714/kernel","shape":[2,16],"dtype":"float32"},{"name":"dense_Dense5714/bias","shape":[16],"dtype":"float32"},{"name":"dense_Dense5715/kernel","shape":[16,4],"dtype":"float32"},{"name":"dense_Dense5715/bias","shape":[4],"dtype":"float32"},{"name":"dense_Dense5716/kernel","shape":[4,4],"dtype":"float32"},{"name":"dense_Dense5716/bias","shape":[4],"dtype":"float32"},{"name":"dense_Dense5717/kernel","shape":[4,16],"dtype":"float32"},{"name":"dense_Dense5717/bias","shape":[16],"dtype":"float32"},{"name":"dense_Dense5718/kernel","shape":[16,1],"dtype":"float32"},{"name":"dense_Dense5718/bias","shape":[1],"dtype":"float32"}]}]}