{"modelTopology":{"class_name":"Model","config":{"name":"model674","layers":[{"name":"input674","class_name":"InputLayer","config":{"batch_input_shape":[null,3],"dtype":"float32","sparse":false,"name":"input674"},"inbound_nodes":[]},{"name":"dense_Dense4039","class_name":"Dense","config":{"units":32,"activation":"relu","use_bias":true,"kernel_initializer":{"class_name":"VarianceScaling","config":{"scale":1,"mode":"fan_avg","distribution":"normal","seed":null}},"bias_initializer":{"class_name":"Zeros","config":{}},"kernel_regularizer":null,"bias_regularizer":null,"activity_regularizer":null,"kernel_constraint":null,"bias_constraint":null,"name":"dense_Dense4039","trainable":true},"inbound_nodes":[[["input674",0,0,{}]]]},{"name":"dense_Dense4040","class_name":"Dense","config":{"units":8,"activation":"relu","use_bias":true,"kernel_initializer":{"class_name":"VarianceScaling","config":{"scale":1,"mode":"fan_avg","distribution":"normal","seed":null}},"bias_initializer":{"class_name":"Zeros","config":{}},"kernel_regularizer":null,"bias_regularizer":null,"activity_regularizer":null,"kernel_constraint":null,"bias_constraint":null,"name":"dense_Dense4040","trainable":true},"inbound_nodes":[[["dense_Dense4039",0,0,{}]]]},{"name":"dense_Dense4041","class_name":"Dense","config":{"units":1,"activation":"relu","use_bias":true,"kernel_initializer":{"class_name":"VarianceScaling","config":{"scale":1,"mode":"fan_avg","distribution":"normal","seed":null}},"bias_initializer":{"class_name":"Zeros","config":{}},"kernel_regularizer":null,"bias_regularizer":null,"activity_regularizer":null,"kernel_constraint":null,"bias_constraint":null,"name":"dense_Dense4041","trainable":true},"inbound_nodes":[[["dense_Dense4040",0,0,{}]]]},{"name":"dense_Dense4042","class_name":"Dense","config":{"units":16,"activation":"relu","use_bias":true,"kernel_initializer":{"class_name":"VarianceScaling","config":{"scale":1,"mode":"fan_avg","distribution":"normal","seed":null}},"bias_initializer":{"class_name":"Zeros","config":{}},"kernel_regularizer":null,"bias_regularizer":null,"activity_regularizer":null,"kernel_constraint":null,"bias_constraint":null,"name":"dense_Dense4042","trainable":true},"inbound_nodes":[[["dense_Dense4041",0,0,{}]]]},{"name":"dense_Dense4043","class_name":"Dense","config":{"units":2,"activation":"relu","use_bias":true,"kernel_initializer":{"class_name":"VarianceScaling","config":{"scale":1,"mode":"fan_avg","distribution":"normal","seed":null}},"bias_initializer":{"class_name":"Zeros","config":{}},"kernel_regularizer":null,"bias_regularizer":null,"activity_regularizer":null,"kernel_constraint":null,"bias_constraint":null,"name":"dense_Dense4043","trainable":true},"inbound_nodes":[[["dense_Dense4042",0,0,{}]]]},{"name":"dense_Dense4044","class_name":"Dense","config":{"units":1,"activation":"sigmoid","use_bias":true,"kernel_initializer":{"class_name":"VarianceScaling","config":{"scale":1,"mode":"fan_avg","distribution":"normal","seed":null}},"bias_initializer":{"class_name":"Zeros","config":{}},"kernel_regularizer":null,"bias_regularizer":null,"activity_regularizer":null,"kernel_constraint":null,"bias_constraint":null,"name":"dense_Dense4044","trainable":true},"inbound_nodes":[[["dense_Dense4043",0,0,{}]]]}],"input_layers":[["input674",0,0]],"output_layers":[["dense_Dense4044",0,0]]},"keras_version":"tfjs-layers 3.9.0","backend":"tensor_flow.js"},"weightsManifest":[{"paths":["weights.bin"],"weights":[{"name":"dense_Dense4039/kernel","shape":[3,32],"dtype":"float32"},{"name":"dense_Dense4039/bias","shape":[32],"dtype":"float32"},{"name":"dense_Dense4040/kernel","shape":[32,8],"dtype":"float32"},{"name":"dense_Dense4040/bias","shape":[8],"dtype":"float32"},{"name":"dense_Dense4041/kernel","shape":[8,1],"dtype":"float32"},{"name":"dense_Dense4041/bias","shape":[1],"dtype":"float32"},{"name":"dense_Dense4042/kernel","shape":[1,16],"dtype":"float32"},{"name":"dense_Dense4042/bias","shape":[16],"dtype":"float32"},{"name":"dense_Dense4043/kernel","shape":[16,2],"dtype":"float32"},{"name":"dense_Dense4043/bias","shape":[2],"dtype":"float32"},{"name":"dense_Dense4044/kernel","shape":[2,1],"dtype":"float32"},{"name":"dense_Dense4044/bias","shape":[1],"dtype":"float32"}]}]}