{"modelTopology":{"class_name":"Model","config":{"name":"model1230","layers":[{"name":"input1230","class_name":"InputLayer","config":{"batch_input_shape":[null,3],"dtype":"float32","sparse":false,"name":"input1230"},"inbound_nodes":[]},{"name":"dense_Dense6146","class_name":"Dense","config":{"units":32,"activation":"relu","use_bias":true,"kernel_initializer":{"class_name":"VarianceScaling","config":{"scale":1,"mode":"fan_avg","distribution":"normal","seed":null}},"bias_initializer":{"class_name":"Zeros","config":{}},"kernel_regularizer":null,"bias_regularizer":null,"activity_regularizer":null,"kernel_constraint":null,"bias_constraint":null,"name":"dense_Dense6146","trainable":true},"inbound_nodes":[[["input1230",0,0,{}]]]},{"name":"dense_Dense6147","class_name":"Dense","config":{"units":16,"activation":"relu","use_bias":true,"kernel_initializer":{"class_name":"VarianceScaling","config":{"scale":1,"mode":"fan_avg","distribution":"normal","seed":null}},"bias_initializer":{"class_name":"Zeros","config":{}},"kernel_regularizer":null,"bias_regularizer":null,"activity_regularizer":null,"kernel_constraint":null,"bias_constraint":null,"name":"dense_Dense6147","trainable":true},"inbound_nodes":[[["dense_Dense6146",0,0,{}]]]},{"name":"dense_Dense6148","class_name":"Dense","config":{"units":1,"activation":"relu","use_bias":true,"kernel_initializer":{"class_name":"VarianceScaling","config":{"scale":1,"mode":"fan_avg","distribution":"normal","seed":null}},"bias_initializer":{"class_name":"Zeros","config":{}},"kernel_regularizer":null,"bias_regularizer":null,"activity_regularizer":null,"kernel_constraint":null,"bias_constraint":null,"name":"dense_Dense6148","trainable":true},"inbound_nodes":[[["dense_Dense6147",0,0,{}]]]},{"name":"dense_Dense6149","class_name":"Dense","config":{"units":32,"activation":"relu","use_bias":true,"kernel_initializer":{"class_name":"VarianceScaling","config":{"scale":1,"mode":"fan_avg","distribution":"normal","seed":null}},"bias_initializer":{"class_name":"Zeros","config":{}},"kernel_regularizer":null,"bias_regularizer":null,"activity_regularizer":null,"kernel_constraint":null,"bias_constraint":null,"name":"dense_Dense6149","trainable":true},"inbound_nodes":[[["dense_Dense6148",0,0,{}]]]},{"name":"dense_Dense6150","class_name":"Dense","config":{"units":1,"activation":"sigmoid","use_bias":true,"kernel_initializer":{"class_name":"VarianceScaling","config":{"scale":1,"mode":"fan_avg","distribution":"normal","seed":null}},"bias_initializer":{"class_name":"Zeros","config":{}},"kernel_regularizer":null,"bias_regularizer":null,"activity_regularizer":null,"kernel_constraint":null,"bias_constraint":null,"name":"dense_Dense6150","trainable":true},"inbound_nodes":[[["dense_Dense6149",0,0,{}]]]}],"input_layers":[["input1230",0,0]],"output_layers":[["dense_Dense6150",0,0]]},"keras_version":"tfjs-layers 3.9.0","backend":"tensor_flow.js"},"weightsManifest":[{"paths":["weights.bin"],"weights":[{"name":"dense_Dense6146/kernel","shape":[3,32],"dtype":"float32"},{"name":"dense_Dense6146/bias","shape":[32],"dtype":"float32"},{"name":"dense_Dense6147/kernel","shape":[32,16],"dtype":"float32"},{"name":"dense_Dense6147/bias","shape":[16],"dtype":"float32"},{"name":"dense_Dense6148/kernel","shape":[16,1],"dtype":"float32"},{"name":"dense_Dense6148/bias","shape":[1],"dtype":"float32"},{"name":"dense_Dense6149/kernel","shape":[1,32],"dtype":"float32"},{"name":"dense_Dense6149/bias","shape":[32],"dtype":"float32"},{"name":"dense_Dense6150/kernel","shape":[32,1],"dtype":"float32"},{"name":"dense_Dense6150/bias","shape":[1],"dtype":"float32"}]}]}