{"modelTopology":{"class_name":"Model","config":{"name":"model620","layers":[{"name":"input620","class_name":"InputLayer","config":{"batch_input_shape":[null,3],"dtype":"float32","sparse":false,"name":"input620"},"inbound_nodes":[]},{"name":"dense_Dense3715","class_name":"Dense","config":{"units":2,"activation":"relu","use_bias":true,"kernel_initializer":{"class_name":"VarianceScaling","config":{"scale":1,"mode":"fan_avg","distribution":"normal","seed":null}},"bias_initializer":{"class_name":"Zeros","config":{}},"kernel_regularizer":null,"bias_regularizer":null,"activity_regularizer":null,"kernel_constraint":null,"bias_constraint":null,"name":"dense_Dense3715","trainable":true},"inbound_nodes":[[["input620",0,0,{}]]]},{"name":"dense_Dense3716","class_name":"Dense","config":{"units":4,"activation":"relu","use_bias":true,"kernel_initializer":{"class_name":"VarianceScaling","config":{"scale":1,"mode":"fan_avg","distribution":"normal","seed":null}},"bias_initializer":{"class_name":"Zeros","config":{}},"kernel_regularizer":null,"bias_regularizer":null,"activity_regularizer":null,"kernel_constraint":null,"bias_constraint":null,"name":"dense_Dense3716","trainable":true},"inbound_nodes":[[["dense_Dense3715",0,0,{}]]]},{"name":"dense_Dense3717","class_name":"Dense","config":{"units":32,"activation":"relu","use_bias":true,"kernel_initializer":{"class_name":"VarianceScaling","config":{"scale":1,"mode":"fan_avg","distribution":"normal","seed":null}},"bias_initializer":{"class_name":"Zeros","config":{}},"kernel_regularizer":null,"bias_regularizer":null,"activity_regularizer":null,"kernel_constraint":null,"bias_constraint":null,"name":"dense_Dense3717","trainable":true},"inbound_nodes":[[["dense_Dense3716",0,0,{}]]]},{"name":"dense_Dense3718","class_name":"Dense","config":{"units":2,"activation":"relu","use_bias":true,"kernel_initializer":{"class_name":"VarianceScaling","config":{"scale":1,"mode":"fan_avg","distribution":"normal","seed":null}},"bias_initializer":{"class_name":"Zeros","config":{}},"kernel_regularizer":null,"bias_regularizer":null,"activity_regularizer":null,"kernel_constraint":null,"bias_constraint":null,"name":"dense_Dense3718","trainable":true},"inbound_nodes":[[["dense_Dense3717",0,0,{}]]]},{"name":"dense_Dense3719","class_name":"Dense","config":{"units":2,"activation":"relu","use_bias":true,"kernel_initializer":{"class_name":"VarianceScaling","config":{"scale":1,"mode":"fan_avg","distribution":"normal","seed":null}},"bias_initializer":{"class_name":"Zeros","config":{}},"kernel_regularizer":null,"bias_regularizer":null,"activity_regularizer":null,"kernel_constraint":null,"bias_constraint":null,"name":"dense_Dense3719","trainable":true},"inbound_nodes":[[["dense_Dense3718",0,0,{}]]]},{"name":"dense_Dense3720","class_name":"Dense","config":{"units":1,"activation":"sigmoid","use_bias":true,"kernel_initializer":{"class_name":"VarianceScaling","config":{"scale":1,"mode":"fan_avg","distribution":"normal","seed":null}},"bias_initializer":{"class_name":"Zeros","config":{}},"kernel_regularizer":null,"bias_regularizer":null,"activity_regularizer":null,"kernel_constraint":null,"bias_constraint":null,"name":"dense_Dense3720","trainable":true},"inbound_nodes":[[["dense_Dense3719",0,0,{}]]]}],"input_layers":[["input620",0,0]],"output_layers":[["dense_Dense3720",0,0]]},"keras_version":"tfjs-layers 3.9.0","backend":"tensor_flow.js"},"weightsManifest":[{"paths":["weights.bin"],"weights":[{"name":"dense_Dense3715/kernel","shape":[3,2],"dtype":"float32"},{"name":"dense_Dense3715/bias","shape":[2],"dtype":"float32"},{"name":"dense_Dense3716/kernel","shape":[2,4],"dtype":"float32"},{"name":"dense_Dense3716/bias","shape":[4],"dtype":"float32"},{"name":"dense_Dense3717/kernel","shape":[4,32],"dtype":"float32"},{"name":"dense_Dense3717/bias","shape":[32],"dtype":"float32"},{"name":"dense_Dense3718/kernel","shape":[32,2],"dtype":"float32"},{"name":"dense_Dense3718/bias","shape":[2],"dtype":"float32"},{"name":"dense_Dense3719/kernel","shape":[2,2],"dtype":"float32"},{"name":"dense_Dense3719/bias","shape":[2],"dtype":"float32"},{"name":"dense_Dense3720/kernel","shape":[2,1],"dtype":"float32"},{"name":"dense_Dense3720/bias","shape":[1],"dtype":"float32"}]}]}