{"modelTopology":{"class_name":"Model","config":{"name":"model451","layers":[{"name":"input451","class_name":"InputLayer","config":{"batch_input_shape":[null,3],"dtype":"float32","sparse":false,"name":"input451"},"inbound_nodes":[]},{"name":"dense_Dense2701","class_name":"Dense","config":{"units":8,"activation":"relu","use_bias":true,"kernel_initializer":{"class_name":"VarianceScaling","config":{"scale":1,"mode":"fan_avg","distribution":"normal","seed":null}},"bias_initializer":{"class_name":"Zeros","config":{}},"kernel_regularizer":null,"bias_regularizer":null,"activity_regularizer":null,"kernel_constraint":null,"bias_constraint":null,"name":"dense_Dense2701","trainable":true},"inbound_nodes":[[["input451",0,0,{}]]]},{"name":"dense_Dense2702","class_name":"Dense","config":{"units":4,"activation":"relu","use_bias":true,"kernel_initializer":{"class_name":"VarianceScaling","config":{"scale":1,"mode":"fan_avg","distribution":"normal","seed":null}},"bias_initializer":{"class_name":"Zeros","config":{}},"kernel_regularizer":null,"bias_regularizer":null,"activity_regularizer":null,"kernel_constraint":null,"bias_constraint":null,"name":"dense_Dense2702","trainable":true},"inbound_nodes":[[["dense_Dense2701",0,0,{}]]]},{"name":"dense_Dense2703","class_name":"Dense","config":{"units":1,"activation":"relu","use_bias":true,"kernel_initializer":{"class_name":"VarianceScaling","config":{"scale":1,"mode":"fan_avg","distribution":"normal","seed":null}},"bias_initializer":{"class_name":"Zeros","config":{}},"kernel_regularizer":null,"bias_regularizer":null,"activity_regularizer":null,"kernel_constraint":null,"bias_constraint":null,"name":"dense_Dense2703","trainable":true},"inbound_nodes":[[["dense_Dense2702",0,0,{}]]]},{"name":"dense_Dense2704","class_name":"Dense","config":{"units":8,"activation":"relu","use_bias":true,"kernel_initializer":{"class_name":"VarianceScaling","config":{"scale":1,"mode":"fan_avg","distribution":"normal","seed":null}},"bias_initializer":{"class_name":"Zeros","config":{}},"kernel_regularizer":null,"bias_regularizer":null,"activity_regularizer":null,"kernel_constraint":null,"bias_constraint":null,"name":"dense_Dense2704","trainable":true},"inbound_nodes":[[["dense_Dense2703",0,0,{}]]]},{"name":"dense_Dense2705","class_name":"Dense","config":{"units":1,"activation":"relu","use_bias":true,"kernel_initializer":{"class_name":"VarianceScaling","config":{"scale":1,"mode":"fan_avg","distribution":"normal","seed":null}},"bias_initializer":{"class_name":"Zeros","config":{}},"kernel_regularizer":null,"bias_regularizer":null,"activity_regularizer":null,"kernel_constraint":null,"bias_constraint":null,"name":"dense_Dense2705","trainable":true},"inbound_nodes":[[["dense_Dense2704",0,0,{}]]]},{"name":"dense_Dense2706","class_name":"Dense","config":{"units":1,"activation":"sigmoid","use_bias":true,"kernel_initializer":{"class_name":"VarianceScaling","config":{"scale":1,"mode":"fan_avg","distribution":"normal","seed":null}},"bias_initializer":{"class_name":"Zeros","config":{}},"kernel_regularizer":null,"bias_regularizer":null,"activity_regularizer":null,"kernel_constraint":null,"bias_constraint":null,"name":"dense_Dense2706","trainable":true},"inbound_nodes":[[["dense_Dense2705",0,0,{}]]]}],"input_layers":[["input451",0,0]],"output_layers":[["dense_Dense2706",0,0]]},"keras_version":"tfjs-layers 3.9.0","backend":"tensor_flow.js"},"weightsManifest":[{"paths":["weights.bin"],"weights":[{"name":"dense_Dense2701/kernel","shape":[3,8],"dtype":"float32"},{"name":"dense_Dense2701/bias","shape":[8],"dtype":"float32"},{"name":"dense_Dense2702/kernel","shape":[8,4],"dtype":"float32"},{"name":"dense_Dense2702/bias","shape":[4],"dtype":"float32"},{"name":"dense_Dense2703/kernel","shape":[4,1],"dtype":"float32"},{"name":"dense_Dense2703/bias","shape":[1],"dtype":"float32"},{"name":"dense_Dense2704/kernel","shape":[1,8],"dtype":"float32"},{"name":"dense_Dense2704/bias","shape":[8],"dtype":"float32"},{"name":"dense_Dense2705/kernel","shape":[8,1],"dtype":"float32"},{"name":"dense_Dense2705/bias","shape":[1],"dtype":"float32"},{"name":"dense_Dense2706/kernel","shape":[1,1],"dtype":"float32"},{"name":"dense_Dense2706/bias","shape":[1],"dtype":"float32"}]}]}