{"modelTopology":{"class_name":"Model","config":{"name":"model1092","layers":[{"name":"input1092","class_name":"InputLayer","config":{"batch_input_shape":[null,3],"dtype":"float32","sparse":false,"name":"input1092"},"inbound_nodes":[]},{"name":"dense_Dense6547","class_name":"Dense","config":{"units":1,"activation":"relu","use_bias":true,"kernel_initializer":{"class_name":"VarianceScaling","config":{"scale":1,"mode":"fan_avg","distribution":"normal","seed":null}},"bias_initializer":{"class_name":"Zeros","config":{}},"kernel_regularizer":null,"bias_regularizer":null,"activity_regularizer":null,"kernel_constraint":null,"bias_constraint":null,"name":"dense_Dense6547","trainable":true},"inbound_nodes":[[["input1092",0,0,{}]]]},{"name":"dense_Dense6548","class_name":"Dense","config":{"units":32,"activation":"relu","use_bias":true,"kernel_initializer":{"class_name":"VarianceScaling","config":{"scale":1,"mode":"fan_avg","distribution":"normal","seed":null}},"bias_initializer":{"class_name":"Zeros","config":{}},"kernel_regularizer":null,"bias_regularizer":null,"activity_regularizer":null,"kernel_constraint":null,"bias_constraint":null,"name":"dense_Dense6548","trainable":true},"inbound_nodes":[[["dense_Dense6547",0,0,{}]]]},{"name":"dense_Dense6549","class_name":"Dense","config":{"units":1,"activation":"relu","use_bias":true,"kernel_initializer":{"class_name":"VarianceScaling","config":{"scale":1,"mode":"fan_avg","distribution":"normal","seed":null}},"bias_initializer":{"class_name":"Zeros","config":{}},"kernel_regularizer":null,"bias_regularizer":null,"activity_regularizer":null,"kernel_constraint":null,"bias_constraint":null,"name":"dense_Dense6549","trainable":true},"inbound_nodes":[[["dense_Dense6548",0,0,{}]]]},{"name":"dense_Dense6550","class_name":"Dense","config":{"units":2,"activation":"relu","use_bias":true,"kernel_initializer":{"class_name":"VarianceScaling","config":{"scale":1,"mode":"fan_avg","distribution":"normal","seed":null}},"bias_initializer":{"class_name":"Zeros","config":{}},"kernel_regularizer":null,"bias_regularizer":null,"activity_regularizer":null,"kernel_constraint":null,"bias_constraint":null,"name":"dense_Dense6550","trainable":true},"inbound_nodes":[[["dense_Dense6549",0,0,{}]]]},{"name":"dense_Dense6551","class_name":"Dense","config":{"units":32,"activation":"relu","use_bias":true,"kernel_initializer":{"class_name":"VarianceScaling","config":{"scale":1,"mode":"fan_avg","distribution":"normal","seed":null}},"bias_initializer":{"class_name":"Zeros","config":{}},"kernel_regularizer":null,"bias_regularizer":null,"activity_regularizer":null,"kernel_constraint":null,"bias_constraint":null,"name":"dense_Dense6551","trainable":true},"inbound_nodes":[[["dense_Dense6550",0,0,{}]]]},{"name":"dense_Dense6552","class_name":"Dense","config":{"units":1,"activation":"sigmoid","use_bias":true,"kernel_initializer":{"class_name":"VarianceScaling","config":{"scale":1,"mode":"fan_avg","distribution":"normal","seed":null}},"bias_initializer":{"class_name":"Zeros","config":{}},"kernel_regularizer":null,"bias_regularizer":null,"activity_regularizer":null,"kernel_constraint":null,"bias_constraint":null,"name":"dense_Dense6552","trainable":true},"inbound_nodes":[[["dense_Dense6551",0,0,{}]]]}],"input_layers":[["input1092",0,0]],"output_layers":[["dense_Dense6552",0,0]]},"keras_version":"tfjs-layers 3.9.0","backend":"tensor_flow.js"},"weightsManifest":[{"paths":["weights.bin"],"weights":[{"name":"dense_Dense6547/kernel","shape":[3,1],"dtype":"float32"},{"name":"dense_Dense6547/bias","shape":[1],"dtype":"float32"},{"name":"dense_Dense6548/kernel","shape":[1,32],"dtype":"float32"},{"name":"dense_Dense6548/bias","shape":[32],"dtype":"float32"},{"name":"dense_Dense6549/kernel","shape":[32,1],"dtype":"float32"},{"name":"dense_Dense6549/bias","shape":[1],"dtype":"float32"},{"name":"dense_Dense6550/kernel","shape":[1,2],"dtype":"float32"},{"name":"dense_Dense6550/bias","shape":[2],"dtype":"float32"},{"name":"dense_Dense6551/kernel","shape":[2,32],"dtype":"float32"},{"name":"dense_Dense6551/bias","shape":[32],"dtype":"float32"},{"name":"dense_Dense6552/kernel","shape":[32,1],"dtype":"float32"},{"name":"dense_Dense6552/bias","shape":[1],"dtype":"float32"}]}]}