{"modelTopology":{"class_name":"Model","config":{"name":"model559","layers":[{"name":"input559","class_name":"InputLayer","config":{"batch_input_shape":[null,3],"dtype":"float32","sparse":false,"name":"input559"},"inbound_nodes":[]},{"name":"dense_Dense3349","class_name":"Dense","config":{"units":4,"activation":"relu","use_bias":true,"kernel_initializer":{"class_name":"VarianceScaling","config":{"scale":1,"mode":"fan_avg","distribution":"normal","seed":null}},"bias_initializer":{"class_name":"Zeros","config":{}},"kernel_regularizer":null,"bias_regularizer":null,"activity_regularizer":null,"kernel_constraint":null,"bias_constraint":null,"name":"dense_Dense3349","trainable":true},"inbound_nodes":[[["input559",0,0,{}]]]},{"name":"dense_Dense3350","class_name":"Dense","config":{"units":4,"activation":"relu","use_bias":true,"kernel_initializer":{"class_name":"VarianceScaling","config":{"scale":1,"mode":"fan_avg","distribution":"normal","seed":null}},"bias_initializer":{"class_name":"Zeros","config":{}},"kernel_regularizer":null,"bias_regularizer":null,"activity_regularizer":null,"kernel_constraint":null,"bias_constraint":null,"name":"dense_Dense3350","trainable":true},"inbound_nodes":[[["dense_Dense3349",0,0,{}]]]},{"name":"dense_Dense3351","class_name":"Dense","config":{"units":8,"activation":"relu","use_bias":true,"kernel_initializer":{"class_name":"VarianceScaling","config":{"scale":1,"mode":"fan_avg","distribution":"normal","seed":null}},"bias_initializer":{"class_name":"Zeros","config":{}},"kernel_regularizer":null,"bias_regularizer":null,"activity_regularizer":null,"kernel_constraint":null,"bias_constraint":null,"name":"dense_Dense3351","trainable":true},"inbound_nodes":[[["dense_Dense3350",0,0,{}]]]},{"name":"dense_Dense3352","class_name":"Dense","config":{"units":8,"activation":"relu","use_bias":true,"kernel_initializer":{"class_name":"VarianceScaling","config":{"scale":1,"mode":"fan_avg","distribution":"normal","seed":null}},"bias_initializer":{"class_name":"Zeros","config":{}},"kernel_regularizer":null,"bias_regularizer":null,"activity_regularizer":null,"kernel_constraint":null,"bias_constraint":null,"name":"dense_Dense3352","trainable":true},"inbound_nodes":[[["dense_Dense3351",0,0,{}]]]},{"name":"dense_Dense3353","class_name":"Dense","config":{"units":1,"activation":"relu","use_bias":true,"kernel_initializer":{"class_name":"VarianceScaling","config":{"scale":1,"mode":"fan_avg","distribution":"normal","seed":null}},"bias_initializer":{"class_name":"Zeros","config":{}},"kernel_regularizer":null,"bias_regularizer":null,"activity_regularizer":null,"kernel_constraint":null,"bias_constraint":null,"name":"dense_Dense3353","trainable":true},"inbound_nodes":[[["dense_Dense3352",0,0,{}]]]},{"name":"dense_Dense3354","class_name":"Dense","config":{"units":1,"activation":"sigmoid","use_bias":true,"kernel_initializer":{"class_name":"VarianceScaling","config":{"scale":1,"mode":"fan_avg","distribution":"normal","seed":null}},"bias_initializer":{"class_name":"Zeros","config":{}},"kernel_regularizer":null,"bias_regularizer":null,"activity_regularizer":null,"kernel_constraint":null,"bias_constraint":null,"name":"dense_Dense3354","trainable":true},"inbound_nodes":[[["dense_Dense3353",0,0,{}]]]}],"input_layers":[["input559",0,0]],"output_layers":[["dense_Dense3354",0,0]]},"keras_version":"tfjs-layers 3.9.0","backend":"tensor_flow.js"},"weightsManifest":[{"paths":["weights.bin"],"weights":[{"name":"dense_Dense3349/kernel","shape":[3,4],"dtype":"float32"},{"name":"dense_Dense3349/bias","shape":[4],"dtype":"float32"},{"name":"dense_Dense3350/kernel","shape":[4,4],"dtype":"float32"},{"name":"dense_Dense3350/bias","shape":[4],"dtype":"float32"},{"name":"dense_Dense3351/kernel","shape":[4,8],"dtype":"float32"},{"name":"dense_Dense3351/bias","shape":[8],"dtype":"float32"},{"name":"dense_Dense3352/kernel","shape":[8,8],"dtype":"float32"},{"name":"dense_Dense3352/bias","shape":[8],"dtype":"float32"},{"name":"dense_Dense3353/kernel","shape":[8,1],"dtype":"float32"},{"name":"dense_Dense3353/bias","shape":[1],"dtype":"float32"},{"name":"dense_Dense3354/kernel","shape":[1,1],"dtype":"float32"},{"name":"dense_Dense3354/bias","shape":[1],"dtype":"float32"}]}]}