{"modelTopology":{"class_name":"Model","config":{"name":"model253","layers":[{"name":"input253","class_name":"InputLayer","config":{"batch_input_shape":[null,3],"dtype":"float32","sparse":false,"name":"input253"},"inbound_nodes":[]},{"name":"dense_Dense1261","class_name":"Dense","config":{"units":2,"activation":"relu","use_bias":true,"kernel_initializer":{"class_name":"VarianceScaling","config":{"scale":1,"mode":"fan_avg","distribution":"normal","seed":null}},"bias_initializer":{"class_name":"Zeros","config":{}},"kernel_regularizer":null,"bias_regularizer":null,"activity_regularizer":null,"kernel_constraint":null,"bias_constraint":null,"name":"dense_Dense1261","trainable":true},"inbound_nodes":[[["input253",0,0,{}]]]},{"name":"dense_Dense1262","class_name":"Dense","config":{"units":2,"activation":"relu","use_bias":true,"kernel_initializer":{"class_name":"VarianceScaling","config":{"scale":1,"mode":"fan_avg","distribution":"normal","seed":null}},"bias_initializer":{"class_name":"Zeros","config":{}},"kernel_regularizer":null,"bias_regularizer":null,"activity_regularizer":null,"kernel_constraint":null,"bias_constraint":null,"name":"dense_Dense1262","trainable":true},"inbound_nodes":[[["dense_Dense1261",0,0,{}]]]},{"name":"dense_Dense1263","class_name":"Dense","config":{"units":1,"activation":"relu","use_bias":true,"kernel_initializer":{"class_name":"VarianceScaling","config":{"scale":1,"mode":"fan_avg","distribution":"normal","seed":null}},"bias_initializer":{"class_name":"Zeros","config":{}},"kernel_regularizer":null,"bias_regularizer":null,"activity_regularizer":null,"kernel_constraint":null,"bias_constraint":null,"name":"dense_Dense1263","trainable":true},"inbound_nodes":[[["dense_Dense1262",0,0,{}]]]},{"name":"dense_Dense1264","class_name":"Dense","config":{"units":1,"activation":"relu","use_bias":true,"kernel_initializer":{"class_name":"VarianceScaling","config":{"scale":1,"mode":"fan_avg","distribution":"normal","seed":null}},"bias_initializer":{"class_name":"Zeros","config":{}},"kernel_regularizer":null,"bias_regularizer":null,"activity_regularizer":null,"kernel_constraint":null,"bias_constraint":null,"name":"dense_Dense1264","trainable":true},"inbound_nodes":[[["dense_Dense1263",0,0,{}]]]},{"name":"dense_Dense1265","class_name":"Dense","config":{"units":1,"activation":"sigmoid","use_bias":true,"kernel_initializer":{"class_name":"VarianceScaling","config":{"scale":1,"mode":"fan_avg","distribution":"normal","seed":null}},"bias_initializer":{"class_name":"Zeros","config":{}},"kernel_regularizer":null,"bias_regularizer":null,"activity_regularizer":null,"kernel_constraint":null,"bias_constraint":null,"name":"dense_Dense1265","trainable":true},"inbound_nodes":[[["dense_Dense1264",0,0,{}]]]}],"input_layers":[["input253",0,0]],"output_layers":[["dense_Dense1265",0,0]]},"keras_version":"tfjs-layers 3.9.0","backend":"tensor_flow.js"},"weightsManifest":[{"paths":["weights.bin"],"weights":[{"name":"dense_Dense1261/kernel","shape":[3,2],"dtype":"float32"},{"name":"dense_Dense1261/bias","shape":[2],"dtype":"float32"},{"name":"dense_Dense1262/kernel","shape":[2,2],"dtype":"float32"},{"name":"dense_Dense1262/bias","shape":[2],"dtype":"float32"},{"name":"dense_Dense1263/kernel","shape":[2,1],"dtype":"float32"},{"name":"dense_Dense1263/bias","shape":[1],"dtype":"float32"},{"name":"dense_Dense1264/kernel","shape":[1,1],"dtype":"float32"},{"name":"dense_Dense1264/bias","shape":[1],"dtype":"float32"},{"name":"dense_Dense1265/kernel","shape":[1,1],"dtype":"float32"},{"name":"dense_Dense1265/bias","shape":[1],"dtype":"float32"}]}]}