{"modelTopology":{"class_name":"Model","config":{"name":"model604","layers":[{"name":"input604","class_name":"InputLayer","config":{"batch_input_shape":[null,3],"dtype":"float32","sparse":false,"name":"input604"},"inbound_nodes":[]},{"name":"dense_Dense3016","class_name":"Dense","config":{"units":4,"activation":"relu","use_bias":true,"kernel_initializer":{"class_name":"VarianceScaling","config":{"scale":1,"mode":"fan_avg","distribution":"normal","seed":null}},"bias_initializer":{"class_name":"Zeros","config":{}},"kernel_regularizer":null,"bias_regularizer":null,"activity_regularizer":null,"kernel_constraint":null,"bias_constraint":null,"name":"dense_Dense3016","trainable":true},"inbound_nodes":[[["input604",0,0,{}]]]},{"name":"dense_Dense3017","class_name":"Dense","config":{"units":16,"activation":"relu","use_bias":true,"kernel_initializer":{"class_name":"VarianceScaling","config":{"scale":1,"mode":"fan_avg","distribution":"normal","seed":null}},"bias_initializer":{"class_name":"Zeros","config":{}},"kernel_regularizer":null,"bias_regularizer":null,"activity_regularizer":null,"kernel_constraint":null,"bias_constraint":null,"name":"dense_Dense3017","trainable":true},"inbound_nodes":[[["dense_Dense3016",0,0,{}]]]},{"name":"dense_Dense3018","class_name":"Dense","config":{"units":16,"activation":"relu","use_bias":true,"kernel_initializer":{"class_name":"VarianceScaling","config":{"scale":1,"mode":"fan_avg","distribution":"normal","seed":null}},"bias_initializer":{"class_name":"Zeros","config":{}},"kernel_regularizer":null,"bias_regularizer":null,"activity_regularizer":null,"kernel_constraint":null,"bias_constraint":null,"name":"dense_Dense3018","trainable":true},"inbound_nodes":[[["dense_Dense3017",0,0,{}]]]},{"name":"dense_Dense3019","class_name":"Dense","config":{"units":8,"activation":"relu","use_bias":true,"kernel_initializer":{"class_name":"VarianceScaling","config":{"scale":1,"mode":"fan_avg","distribution":"normal","seed":null}},"bias_initializer":{"class_name":"Zeros","config":{}},"kernel_regularizer":null,"bias_regularizer":null,"activity_regularizer":null,"kernel_constraint":null,"bias_constraint":null,"name":"dense_Dense3019","trainable":true},"inbound_nodes":[[["dense_Dense3018",0,0,{}]]]},{"name":"dense_Dense3020","class_name":"Dense","config":{"units":1,"activation":"sigmoid","use_bias":true,"kernel_initializer":{"class_name":"VarianceScaling","config":{"scale":1,"mode":"fan_avg","distribution":"normal","seed":null}},"bias_initializer":{"class_name":"Zeros","config":{}},"kernel_regularizer":null,"bias_regularizer":null,"activity_regularizer":null,"kernel_constraint":null,"bias_constraint":null,"name":"dense_Dense3020","trainable":true},"inbound_nodes":[[["dense_Dense3019",0,0,{}]]]}],"input_layers":[["input604",0,0]],"output_layers":[["dense_Dense3020",0,0]]},"keras_version":"tfjs-layers 3.9.0","backend":"tensor_flow.js"},"weightsManifest":[{"paths":["weights.bin"],"weights":[{"name":"dense_Dense3016/kernel","shape":[3,4],"dtype":"float32"},{"name":"dense_Dense3016/bias","shape":[4],"dtype":"float32"},{"name":"dense_Dense3017/kernel","shape":[4,16],"dtype":"float32"},{"name":"dense_Dense3017/bias","shape":[16],"dtype":"float32"},{"name":"dense_Dense3018/kernel","shape":[16,16],"dtype":"float32"},{"name":"dense_Dense3018/bias","shape":[16],"dtype":"float32"},{"name":"dense_Dense3019/kernel","shape":[16,8],"dtype":"float32"},{"name":"dense_Dense3019/bias","shape":[8],"dtype":"float32"},{"name":"dense_Dense3020/kernel","shape":[8,1],"dtype":"float32"},{"name":"dense_Dense3020/bias","shape":[1],"dtype":"float32"}]}]}