{"modelTopology":{"class_name":"Model","config":{"name":"model1286","layers":[{"name":"input1286","class_name":"InputLayer","config":{"batch_input_shape":[null,3],"dtype":"float32","sparse":false,"name":"input1286"},"inbound_nodes":[]},{"name":"dense_Dense7711","class_name":"Dense","config":{"units":4,"activation":"relu","use_bias":true,"kernel_initializer":{"class_name":"VarianceScaling","config":{"scale":1,"mode":"fan_avg","distribution":"normal","seed":null}},"bias_initializer":{"class_name":"Zeros","config":{}},"kernel_regularizer":null,"bias_regularizer":null,"activity_regularizer":null,"kernel_constraint":null,"bias_constraint":null,"name":"dense_Dense7711","trainable":true},"inbound_nodes":[[["input1286",0,0,{}]]]},{"name":"dense_Dense7712","class_name":"Dense","config":{"units":32,"activation":"relu","use_bias":true,"kernel_initializer":{"class_name":"VarianceScaling","config":{"scale":1,"mode":"fan_avg","distribution":"normal","seed":null}},"bias_initializer":{"class_name":"Zeros","config":{}},"kernel_regularizer":null,"bias_regularizer":null,"activity_regularizer":null,"kernel_constraint":null,"bias_constraint":null,"name":"dense_Dense7712","trainable":true},"inbound_nodes":[[["dense_Dense7711",0,0,{}]]]},{"name":"dense_Dense7713","class_name":"Dense","config":{"units":32,"activation":"relu","use_bias":true,"kernel_initializer":{"class_name":"VarianceScaling","config":{"scale":1,"mode":"fan_avg","distribution":"normal","seed":null}},"bias_initializer":{"class_name":"Zeros","config":{}},"kernel_regularizer":null,"bias_regularizer":null,"activity_regularizer":null,"kernel_constraint":null,"bias_constraint":null,"name":"dense_Dense7713","trainable":true},"inbound_nodes":[[["dense_Dense7712",0,0,{}]]]},{"name":"dense_Dense7714","class_name":"Dense","config":{"units":16,"activation":"relu","use_bias":true,"kernel_initializer":{"class_name":"VarianceScaling","config":{"scale":1,"mode":"fan_avg","distribution":"normal","seed":null}},"bias_initializer":{"class_name":"Zeros","config":{}},"kernel_regularizer":null,"bias_regularizer":null,"activity_regularizer":null,"kernel_constraint":null,"bias_constraint":null,"name":"dense_Dense7714","trainable":true},"inbound_nodes":[[["dense_Dense7713",0,0,{}]]]},{"name":"dense_Dense7715","class_name":"Dense","config":{"units":2,"activation":"relu","use_bias":true,"kernel_initializer":{"class_name":"VarianceScaling","config":{"scale":1,"mode":"fan_avg","distribution":"normal","seed":null}},"bias_initializer":{"class_name":"Zeros","config":{}},"kernel_regularizer":null,"bias_regularizer":null,"activity_regularizer":null,"kernel_constraint":null,"bias_constraint":null,"name":"dense_Dense7715","trainable":true},"inbound_nodes":[[["dense_Dense7714",0,0,{}]]]},{"name":"dense_Dense7716","class_name":"Dense","config":{"units":1,"activation":"sigmoid","use_bias":true,"kernel_initializer":{"class_name":"VarianceScaling","config":{"scale":1,"mode":"fan_avg","distribution":"normal","seed":null}},"bias_initializer":{"class_name":"Zeros","config":{}},"kernel_regularizer":null,"bias_regularizer":null,"activity_regularizer":null,"kernel_constraint":null,"bias_constraint":null,"name":"dense_Dense7716","trainable":true},"inbound_nodes":[[["dense_Dense7715",0,0,{}]]]}],"input_layers":[["input1286",0,0]],"output_layers":[["dense_Dense7716",0,0]]},"keras_version":"tfjs-layers 3.9.0","backend":"tensor_flow.js"},"weightsManifest":[{"paths":["weights.bin"],"weights":[{"name":"dense_Dense7711/kernel","shape":[3,4],"dtype":"float32"},{"name":"dense_Dense7711/bias","shape":[4],"dtype":"float32"},{"name":"dense_Dense7712/kernel","shape":[4,32],"dtype":"float32"},{"name":"dense_Dense7712/bias","shape":[32],"dtype":"float32"},{"name":"dense_Dense7713/kernel","shape":[32,32],"dtype":"float32"},{"name":"dense_Dense7713/bias","shape":[32],"dtype":"float32"},{"name":"dense_Dense7714/kernel","shape":[32,16],"dtype":"float32"},{"name":"dense_Dense7714/bias","shape":[16],"dtype":"float32"},{"name":"dense_Dense7715/kernel","shape":[16,2],"dtype":"float32"},{"name":"dense_Dense7715/bias","shape":[2],"dtype":"float32"},{"name":"dense_Dense7716/kernel","shape":[2,1],"dtype":"float32"},{"name":"dense_Dense7716/bias","shape":[1],"dtype":"float32"}]}]}