{"modelTopology":{"class_name":"Model","config":{"name":"model738","layers":[{"name":"input738","class_name":"InputLayer","config":{"batch_input_shape":[null,3],"dtype":"float32","sparse":false,"name":"input738"},"inbound_nodes":[]},{"name":"dense_Dense4423","class_name":"Dense","config":{"units":2,"activation":"relu","use_bias":true,"kernel_initializer":{"class_name":"VarianceScaling","config":{"scale":1,"mode":"fan_avg","distribution":"normal","seed":null}},"bias_initializer":{"class_name":"Zeros","config":{}},"kernel_regularizer":null,"bias_regularizer":null,"activity_regularizer":null,"kernel_constraint":null,"bias_constraint":null,"name":"dense_Dense4423","trainable":true},"inbound_nodes":[[["input738",0,0,{}]]]},{"name":"dense_Dense4424","class_name":"Dense","config":{"units":8,"activation":"relu","use_bias":true,"kernel_initializer":{"class_name":"VarianceScaling","config":{"scale":1,"mode":"fan_avg","distribution":"normal","seed":null}},"bias_initializer":{"class_name":"Zeros","config":{}},"kernel_regularizer":null,"bias_regularizer":null,"activity_regularizer":null,"kernel_constraint":null,"bias_constraint":null,"name":"dense_Dense4424","trainable":true},"inbound_nodes":[[["dense_Dense4423",0,0,{}]]]},{"name":"dense_Dense4425","class_name":"Dense","config":{"units":4,"activation":"relu","use_bias":true,"kernel_initializer":{"class_name":"VarianceScaling","config":{"scale":1,"mode":"fan_avg","distribution":"normal","seed":null}},"bias_initializer":{"class_name":"Zeros","config":{}},"kernel_regularizer":null,"bias_regularizer":null,"activity_regularizer":null,"kernel_constraint":null,"bias_constraint":null,"name":"dense_Dense4425","trainable":true},"inbound_nodes":[[["dense_Dense4424",0,0,{}]]]},{"name":"dense_Dense4426","class_name":"Dense","config":{"units":4,"activation":"relu","use_bias":true,"kernel_initializer":{"class_name":"VarianceScaling","config":{"scale":1,"mode":"fan_avg","distribution":"normal","seed":null}},"bias_initializer":{"class_name":"Zeros","config":{}},"kernel_regularizer":null,"bias_regularizer":null,"activity_regularizer":null,"kernel_constraint":null,"bias_constraint":null,"name":"dense_Dense4426","trainable":true},"inbound_nodes":[[["dense_Dense4425",0,0,{}]]]},{"name":"dense_Dense4427","class_name":"Dense","config":{"units":32,"activation":"relu","use_bias":true,"kernel_initializer":{"class_name":"VarianceScaling","config":{"scale":1,"mode":"fan_avg","distribution":"normal","seed":null}},"bias_initializer":{"class_name":"Zeros","config":{}},"kernel_regularizer":null,"bias_regularizer":null,"activity_regularizer":null,"kernel_constraint":null,"bias_constraint":null,"name":"dense_Dense4427","trainable":true},"inbound_nodes":[[["dense_Dense4426",0,0,{}]]]},{"name":"dense_Dense4428","class_name":"Dense","config":{"units":1,"activation":"sigmoid","use_bias":true,"kernel_initializer":{"class_name":"VarianceScaling","config":{"scale":1,"mode":"fan_avg","distribution":"normal","seed":null}},"bias_initializer":{"class_name":"Zeros","config":{}},"kernel_regularizer":null,"bias_regularizer":null,"activity_regularizer":null,"kernel_constraint":null,"bias_constraint":null,"name":"dense_Dense4428","trainable":true},"inbound_nodes":[[["dense_Dense4427",0,0,{}]]]}],"input_layers":[["input738",0,0]],"output_layers":[["dense_Dense4428",0,0]]},"keras_version":"tfjs-layers 3.9.0","backend":"tensor_flow.js"},"weightsManifest":[{"paths":["weights.bin"],"weights":[{"name":"dense_Dense4423/kernel","shape":[3,2],"dtype":"float32"},{"name":"dense_Dense4423/bias","shape":[2],"dtype":"float32"},{"name":"dense_Dense4424/kernel","shape":[2,8],"dtype":"float32"},{"name":"dense_Dense4424/bias","shape":[8],"dtype":"float32"},{"name":"dense_Dense4425/kernel","shape":[8,4],"dtype":"float32"},{"name":"dense_Dense4425/bias","shape":[4],"dtype":"float32"},{"name":"dense_Dense4426/kernel","shape":[4,4],"dtype":"float32"},{"name":"dense_Dense4426/bias","shape":[4],"dtype":"float32"},{"name":"dense_Dense4427/kernel","shape":[4,32],"dtype":"float32"},{"name":"dense_Dense4427/bias","shape":[32],"dtype":"float32"},{"name":"dense_Dense4428/kernel","shape":[32,1],"dtype":"float32"},{"name":"dense_Dense4428/bias","shape":[1],"dtype":"float32"}]}]}