{"modelTopology":{"class_name":"Model","config":{"name":"model345","layers":[{"name":"input345","class_name":"InputLayer","config":{"batch_input_shape":[null,3],"dtype":"float32","sparse":false,"name":"input345"},"inbound_nodes":[]},{"name":"dense_Dense2065","class_name":"Dense","config":{"units":2,"activation":"relu","use_bias":true,"kernel_initializer":{"class_name":"VarianceScaling","config":{"scale":1,"mode":"fan_avg","distribution":"normal","seed":null}},"bias_initializer":{"class_name":"Zeros","config":{}},"kernel_regularizer":null,"bias_regularizer":null,"activity_regularizer":null,"kernel_constraint":null,"bias_constraint":null,"name":"dense_Dense2065","trainable":true},"inbound_nodes":[[["input345",0,0,{}]]]},{"name":"dense_Dense2066","class_name":"Dense","config":{"units":2,"activation":"relu","use_bias":true,"kernel_initializer":{"class_name":"VarianceScaling","config":{"scale":1,"mode":"fan_avg","distribution":"normal","seed":null}},"bias_initializer":{"class_name":"Zeros","config":{}},"kernel_regularizer":null,"bias_regularizer":null,"activity_regularizer":null,"kernel_constraint":null,"bias_constraint":null,"name":"dense_Dense2066","trainable":true},"inbound_nodes":[[["dense_Dense2065",0,0,{}]]]},{"name":"dense_Dense2067","class_name":"Dense","config":{"units":8,"activation":"relu","use_bias":true,"kernel_initializer":{"class_name":"VarianceScaling","config":{"scale":1,"mode":"fan_avg","distribution":"normal","seed":null}},"bias_initializer":{"class_name":"Zeros","config":{}},"kernel_regularizer":null,"bias_regularizer":null,"activity_regularizer":null,"kernel_constraint":null,"bias_constraint":null,"name":"dense_Dense2067","trainable":true},"inbound_nodes":[[["dense_Dense2066",0,0,{}]]]},{"name":"dense_Dense2068","class_name":"Dense","config":{"units":8,"activation":"relu","use_bias":true,"kernel_initializer":{"class_name":"VarianceScaling","config":{"scale":1,"mode":"fan_avg","distribution":"normal","seed":null}},"bias_initializer":{"class_name":"Zeros","config":{}},"kernel_regularizer":null,"bias_regularizer":null,"activity_regularizer":null,"kernel_constraint":null,"bias_constraint":null,"name":"dense_Dense2068","trainable":true},"inbound_nodes":[[["dense_Dense2067",0,0,{}]]]},{"name":"dense_Dense2069","class_name":"Dense","config":{"units":4,"activation":"relu","use_bias":true,"kernel_initializer":{"class_name":"VarianceScaling","config":{"scale":1,"mode":"fan_avg","distribution":"normal","seed":null}},"bias_initializer":{"class_name":"Zeros","config":{}},"kernel_regularizer":null,"bias_regularizer":null,"activity_regularizer":null,"kernel_constraint":null,"bias_constraint":null,"name":"dense_Dense2069","trainable":true},"inbound_nodes":[[["dense_Dense2068",0,0,{}]]]},{"name":"dense_Dense2070","class_name":"Dense","config":{"units":1,"activation":"sigmoid","use_bias":true,"kernel_initializer":{"class_name":"VarianceScaling","config":{"scale":1,"mode":"fan_avg","distribution":"normal","seed":null}},"bias_initializer":{"class_name":"Zeros","config":{}},"kernel_regularizer":null,"bias_regularizer":null,"activity_regularizer":null,"kernel_constraint":null,"bias_constraint":null,"name":"dense_Dense2070","trainable":true},"inbound_nodes":[[["dense_Dense2069",0,0,{}]]]}],"input_layers":[["input345",0,0]],"output_layers":[["dense_Dense2070",0,0]]},"keras_version":"tfjs-layers 3.9.0","backend":"tensor_flow.js"},"weightsManifest":[{"paths":["weights.bin"],"weights":[{"name":"dense_Dense2065/kernel","shape":[3,2],"dtype":"float32"},{"name":"dense_Dense2065/bias","shape":[2],"dtype":"float32"},{"name":"dense_Dense2066/kernel","shape":[2,2],"dtype":"float32"},{"name":"dense_Dense2066/bias","shape":[2],"dtype":"float32"},{"name":"dense_Dense2067/kernel","shape":[2,8],"dtype":"float32"},{"name":"dense_Dense2067/bias","shape":[8],"dtype":"float32"},{"name":"dense_Dense2068/kernel","shape":[8,8],"dtype":"float32"},{"name":"dense_Dense2068/bias","shape":[8],"dtype":"float32"},{"name":"dense_Dense2069/kernel","shape":[8,4],"dtype":"float32"},{"name":"dense_Dense2069/bias","shape":[4],"dtype":"float32"},{"name":"dense_Dense2070/kernel","shape":[4,1],"dtype":"float32"},{"name":"dense_Dense2070/bias","shape":[1],"dtype":"float32"}]}]}