{"modelTopology":{"class_name":"Model","config":{"name":"model39","layers":[{"name":"input39","class_name":"InputLayer","config":{"batch_input_shape":[null,3],"dtype":"float32","sparse":false,"name":"input39"},"inbound_nodes":[]},{"name":"dense_Dense229","class_name":"Dense","config":{"units":1,"activation":"relu","use_bias":true,"kernel_initializer":{"class_name":"VarianceScaling","config":{"scale":1,"mode":"fan_avg","distribution":"normal","seed":null}},"bias_initializer":{"class_name":"Zeros","config":{}},"kernel_regularizer":null,"bias_regularizer":null,"activity_regularizer":null,"kernel_constraint":null,"bias_constraint":null,"name":"dense_Dense229","trainable":true},"inbound_nodes":[[["input39",0,0,{}]]]},{"name":"dense_Dense230","class_name":"Dense","config":{"units":1,"activation":"relu","use_bias":true,"kernel_initializer":{"class_name":"VarianceScaling","config":{"scale":1,"mode":"fan_avg","distribution":"normal","seed":null}},"bias_initializer":{"class_name":"Zeros","config":{}},"kernel_regularizer":null,"bias_regularizer":null,"activity_regularizer":null,"kernel_constraint":null,"bias_constraint":null,"name":"dense_Dense230","trainable":true},"inbound_nodes":[[["dense_Dense229",0,0,{}]]]},{"name":"dense_Dense231","class_name":"Dense","config":{"units":2,"activation":"relu","use_bias":true,"kernel_initializer":{"class_name":"VarianceScaling","config":{"scale":1,"mode":"fan_avg","distribution":"normal","seed":null}},"bias_initializer":{"class_name":"Zeros","config":{}},"kernel_regularizer":null,"bias_regularizer":null,"activity_regularizer":null,"kernel_constraint":null,"bias_constraint":null,"name":"dense_Dense231","trainable":true},"inbound_nodes":[[["dense_Dense230",0,0,{}]]]},{"name":"dense_Dense232","class_name":"Dense","config":{"units":1,"activation":"relu","use_bias":true,"kernel_initializer":{"class_name":"VarianceScaling","config":{"scale":1,"mode":"fan_avg","distribution":"normal","seed":null}},"bias_initializer":{"class_name":"Zeros","config":{}},"kernel_regularizer":null,"bias_regularizer":null,"activity_regularizer":null,"kernel_constraint":null,"bias_constraint":null,"name":"dense_Dense232","trainable":true},"inbound_nodes":[[["dense_Dense231",0,0,{}]]]},{"name":"dense_Dense233","class_name":"Dense","config":{"units":4,"activation":"relu","use_bias":true,"kernel_initializer":{"class_name":"VarianceScaling","config":{"scale":1,"mode":"fan_avg","distribution":"normal","seed":null}},"bias_initializer":{"class_name":"Zeros","config":{}},"kernel_regularizer":null,"bias_regularizer":null,"activity_regularizer":null,"kernel_constraint":null,"bias_constraint":null,"name":"dense_Dense233","trainable":true},"inbound_nodes":[[["dense_Dense232",0,0,{}]]]},{"name":"dense_Dense234","class_name":"Dense","config":{"units":1,"activation":"sigmoid","use_bias":true,"kernel_initializer":{"class_name":"VarianceScaling","config":{"scale":1,"mode":"fan_avg","distribution":"normal","seed":null}},"bias_initializer":{"class_name":"Zeros","config":{}},"kernel_regularizer":null,"bias_regularizer":null,"activity_regularizer":null,"kernel_constraint":null,"bias_constraint":null,"name":"dense_Dense234","trainable":true},"inbound_nodes":[[["dense_Dense233",0,0,{}]]]}],"input_layers":[["input39",0,0]],"output_layers":[["dense_Dense234",0,0]]},"keras_version":"tfjs-layers 3.9.0","backend":"tensor_flow.js"},"weightsManifest":[{"paths":["weights.bin"],"weights":[{"name":"dense_Dense229/kernel","shape":[3,1],"dtype":"float32"},{"name":"dense_Dense229/bias","shape":[1],"dtype":"float32"},{"name":"dense_Dense230/kernel","shape":[1,1],"dtype":"float32"},{"name":"dense_Dense230/bias","shape":[1],"dtype":"float32"},{"name":"dense_Dense231/kernel","shape":[1,2],"dtype":"float32"},{"name":"dense_Dense231/bias","shape":[2],"dtype":"float32"},{"name":"dense_Dense232/kernel","shape":[2,1],"dtype":"float32"},{"name":"dense_Dense232/bias","shape":[1],"dtype":"float32"},{"name":"dense_Dense233/kernel","shape":[1,4],"dtype":"float32"},{"name":"dense_Dense233/bias","shape":[4],"dtype":"float32"},{"name":"dense_Dense234/kernel","shape":[4,1],"dtype":"float32"},{"name":"dense_Dense234/bias","shape":[1],"dtype":"float32"}]}]}