{"modelTopology":{"class_name":"Model","config":{"name":"model981","layers":[{"name":"input981","class_name":"InputLayer","config":{"batch_input_shape":[null,3],"dtype":"float32","sparse":false,"name":"input981"},"inbound_nodes":[]},{"name":"dense_Dense4901","class_name":"Dense","config":{"units":16,"activation":"relu","use_bias":true,"kernel_initializer":{"class_name":"VarianceScaling","config":{"scale":1,"mode":"fan_avg","distribution":"normal","seed":null}},"bias_initializer":{"class_name":"Zeros","config":{}},"kernel_regularizer":null,"bias_regularizer":null,"activity_regularizer":null,"kernel_constraint":null,"bias_constraint":null,"name":"dense_Dense4901","trainable":true},"inbound_nodes":[[["input981",0,0,{}]]]},{"name":"dense_Dense4902","class_name":"Dense","config":{"units":8,"activation":"relu","use_bias":true,"kernel_initializer":{"class_name":"VarianceScaling","config":{"scale":1,"mode":"fan_avg","distribution":"normal","seed":null}},"bias_initializer":{"class_name":"Zeros","config":{}},"kernel_regularizer":null,"bias_regularizer":null,"activity_regularizer":null,"kernel_constraint":null,"bias_constraint":null,"name":"dense_Dense4902","trainable":true},"inbound_nodes":[[["dense_Dense4901",0,0,{}]]]},{"name":"dense_Dense4903","class_name":"Dense","config":{"units":2,"activation":"relu","use_bias":true,"kernel_initializer":{"class_name":"VarianceScaling","config":{"scale":1,"mode":"fan_avg","distribution":"normal","seed":null}},"bias_initializer":{"class_name":"Zeros","config":{}},"kernel_regularizer":null,"bias_regularizer":null,"activity_regularizer":null,"kernel_constraint":null,"bias_constraint":null,"name":"dense_Dense4903","trainable":true},"inbound_nodes":[[["dense_Dense4902",0,0,{}]]]},{"name":"dense_Dense4904","class_name":"Dense","config":{"units":4,"activation":"relu","use_bias":true,"kernel_initializer":{"class_name":"VarianceScaling","config":{"scale":1,"mode":"fan_avg","distribution":"normal","seed":null}},"bias_initializer":{"class_name":"Zeros","config":{}},"kernel_regularizer":null,"bias_regularizer":null,"activity_regularizer":null,"kernel_constraint":null,"bias_constraint":null,"name":"dense_Dense4904","trainable":true},"inbound_nodes":[[["dense_Dense4903",0,0,{}]]]},{"name":"dense_Dense4905","class_name":"Dense","config":{"units":1,"activation":"sigmoid","use_bias":true,"kernel_initializer":{"class_name":"VarianceScaling","config":{"scale":1,"mode":"fan_avg","distribution":"normal","seed":null}},"bias_initializer":{"class_name":"Zeros","config":{}},"kernel_regularizer":null,"bias_regularizer":null,"activity_regularizer":null,"kernel_constraint":null,"bias_constraint":null,"name":"dense_Dense4905","trainable":true},"inbound_nodes":[[["dense_Dense4904",0,0,{}]]]}],"input_layers":[["input981",0,0]],"output_layers":[["dense_Dense4905",0,0]]},"keras_version":"tfjs-layers 3.9.0","backend":"tensor_flow.js"},"weightsManifest":[{"paths":["weights.bin"],"weights":[{"name":"dense_Dense4901/kernel","shape":[3,16],"dtype":"float32"},{"name":"dense_Dense4901/bias","shape":[16],"dtype":"float32"},{"name":"dense_Dense4902/kernel","shape":[16,8],"dtype":"float32"},{"name":"dense_Dense4902/bias","shape":[8],"dtype":"float32"},{"name":"dense_Dense4903/kernel","shape":[8,2],"dtype":"float32"},{"name":"dense_Dense4903/bias","shape":[2],"dtype":"float32"},{"name":"dense_Dense4904/kernel","shape":[2,4],"dtype":"float32"},{"name":"dense_Dense4904/bias","shape":[4],"dtype":"float32"},{"name":"dense_Dense4905/kernel","shape":[4,1],"dtype":"float32"},{"name":"dense_Dense4905/bias","shape":[1],"dtype":"float32"}]}]}