{"modelTopology":{"class_name":"Model","config":{"name":"model836","layers":[{"name":"input836","class_name":"InputLayer","config":{"batch_input_shape":[null,3],"dtype":"float32","sparse":false,"name":"input836"},"inbound_nodes":[]},{"name":"dense_Dense5011","class_name":"Dense","config":{"units":32,"activation":"relu","use_bias":true,"kernel_initializer":{"class_name":"VarianceScaling","config":{"scale":1,"mode":"fan_avg","distribution":"normal","seed":null}},"bias_initializer":{"class_name":"Zeros","config":{}},"kernel_regularizer":null,"bias_regularizer":null,"activity_regularizer":null,"kernel_constraint":null,"bias_constraint":null,"name":"dense_Dense5011","trainable":true},"inbound_nodes":[[["input836",0,0,{}]]]},{"name":"dense_Dense5012","class_name":"Dense","config":{"units":8,"activation":"relu","use_bias":true,"kernel_initializer":{"class_name":"VarianceScaling","config":{"scale":1,"mode":"fan_avg","distribution":"normal","seed":null}},"bias_initializer":{"class_name":"Zeros","config":{}},"kernel_regularizer":null,"bias_regularizer":null,"activity_regularizer":null,"kernel_constraint":null,"bias_constraint":null,"name":"dense_Dense5012","trainable":true},"inbound_nodes":[[["dense_Dense5011",0,0,{}]]]},{"name":"dense_Dense5013","class_name":"Dense","config":{"units":32,"activation":"relu","use_bias":true,"kernel_initializer":{"class_name":"VarianceScaling","config":{"scale":1,"mode":"fan_avg","distribution":"normal","seed":null}},"bias_initializer":{"class_name":"Zeros","config":{}},"kernel_regularizer":null,"bias_regularizer":null,"activity_regularizer":null,"kernel_constraint":null,"bias_constraint":null,"name":"dense_Dense5013","trainable":true},"inbound_nodes":[[["dense_Dense5012",0,0,{}]]]},{"name":"dense_Dense5014","class_name":"Dense","config":{"units":2,"activation":"relu","use_bias":true,"kernel_initializer":{"class_name":"VarianceScaling","config":{"scale":1,"mode":"fan_avg","distribution":"normal","seed":null}},"bias_initializer":{"class_name":"Zeros","config":{}},"kernel_regularizer":null,"bias_regularizer":null,"activity_regularizer":null,"kernel_constraint":null,"bias_constraint":null,"name":"dense_Dense5014","trainable":true},"inbound_nodes":[[["dense_Dense5013",0,0,{}]]]},{"name":"dense_Dense5015","class_name":"Dense","config":{"units":2,"activation":"relu","use_bias":true,"kernel_initializer":{"class_name":"VarianceScaling","config":{"scale":1,"mode":"fan_avg","distribution":"normal","seed":null}},"bias_initializer":{"class_name":"Zeros","config":{}},"kernel_regularizer":null,"bias_regularizer":null,"activity_regularizer":null,"kernel_constraint":null,"bias_constraint":null,"name":"dense_Dense5015","trainable":true},"inbound_nodes":[[["dense_Dense5014",0,0,{}]]]},{"name":"dense_Dense5016","class_name":"Dense","config":{"units":1,"activation":"sigmoid","use_bias":true,"kernel_initializer":{"class_name":"VarianceScaling","config":{"scale":1,"mode":"fan_avg","distribution":"normal","seed":null}},"bias_initializer":{"class_name":"Zeros","config":{}},"kernel_regularizer":null,"bias_regularizer":null,"activity_regularizer":null,"kernel_constraint":null,"bias_constraint":null,"name":"dense_Dense5016","trainable":true},"inbound_nodes":[[["dense_Dense5015",0,0,{}]]]}],"input_layers":[["input836",0,0]],"output_layers":[["dense_Dense5016",0,0]]},"keras_version":"tfjs-layers 3.9.0","backend":"tensor_flow.js"},"weightsManifest":[{"paths":["weights.bin"],"weights":[{"name":"dense_Dense5011/kernel","shape":[3,32],"dtype":"float32"},{"name":"dense_Dense5011/bias","shape":[32],"dtype":"float32"},{"name":"dense_Dense5012/kernel","shape":[32,8],"dtype":"float32"},{"name":"dense_Dense5012/bias","shape":[8],"dtype":"float32"},{"name":"dense_Dense5013/kernel","shape":[8,32],"dtype":"float32"},{"name":"dense_Dense5013/bias","shape":[32],"dtype":"float32"},{"name":"dense_Dense5014/kernel","shape":[32,2],"dtype":"float32"},{"name":"dense_Dense5014/bias","shape":[2],"dtype":"float32"},{"name":"dense_Dense5015/kernel","shape":[2,2],"dtype":"float32"},{"name":"dense_Dense5015/bias","shape":[2],"dtype":"float32"},{"name":"dense_Dense5016/kernel","shape":[2,1],"dtype":"float32"},{"name":"dense_Dense5016/bias","shape":[1],"dtype":"float32"}]}]}