{"modelTopology":{"class_name":"Model","config":{"name":"model1132","layers":[{"name":"input1132","class_name":"InputLayer","config":{"batch_input_shape":[null,3],"dtype":"float32","sparse":false,"name":"input1132"},"inbound_nodes":[]},{"name":"dense_Dense6787","class_name":"Dense","config":{"units":4,"activation":"relu","use_bias":true,"kernel_initializer":{"class_name":"VarianceScaling","config":{"scale":1,"mode":"fan_avg","distribution":"normal","seed":null}},"bias_initializer":{"class_name":"Zeros","config":{}},"kernel_regularizer":null,"bias_regularizer":null,"activity_regularizer":null,"kernel_constraint":null,"bias_constraint":null,"name":"dense_Dense6787","trainable":true},"inbound_nodes":[[["input1132",0,0,{}]]]},{"name":"dense_Dense6788","class_name":"Dense","config":{"units":32,"activation":"relu","use_bias":true,"kernel_initializer":{"class_name":"VarianceScaling","config":{"scale":1,"mode":"fan_avg","distribution":"normal","seed":null}},"bias_initializer":{"class_name":"Zeros","config":{}},"kernel_regularizer":null,"bias_regularizer":null,"activity_regularizer":null,"kernel_constraint":null,"bias_constraint":null,"name":"dense_Dense6788","trainable":true},"inbound_nodes":[[["dense_Dense6787",0,0,{}]]]},{"name":"dense_Dense6789","class_name":"Dense","config":{"units":2,"activation":"relu","use_bias":true,"kernel_initializer":{"class_name":"VarianceScaling","config":{"scale":1,"mode":"fan_avg","distribution":"normal","seed":null}},"bias_initializer":{"class_name":"Zeros","config":{}},"kernel_regularizer":null,"bias_regularizer":null,"activity_regularizer":null,"kernel_constraint":null,"bias_constraint":null,"name":"dense_Dense6789","trainable":true},"inbound_nodes":[[["dense_Dense6788",0,0,{}]]]},{"name":"dense_Dense6790","class_name":"Dense","config":{"units":4,"activation":"relu","use_bias":true,"kernel_initializer":{"class_name":"VarianceScaling","config":{"scale":1,"mode":"fan_avg","distribution":"normal","seed":null}},"bias_initializer":{"class_name":"Zeros","config":{}},"kernel_regularizer":null,"bias_regularizer":null,"activity_regularizer":null,"kernel_constraint":null,"bias_constraint":null,"name":"dense_Dense6790","trainable":true},"inbound_nodes":[[["dense_Dense6789",0,0,{}]]]},{"name":"dense_Dense6791","class_name":"Dense","config":{"units":8,"activation":"relu","use_bias":true,"kernel_initializer":{"class_name":"VarianceScaling","config":{"scale":1,"mode":"fan_avg","distribution":"normal","seed":null}},"bias_initializer":{"class_name":"Zeros","config":{}},"kernel_regularizer":null,"bias_regularizer":null,"activity_regularizer":null,"kernel_constraint":null,"bias_constraint":null,"name":"dense_Dense6791","trainable":true},"inbound_nodes":[[["dense_Dense6790",0,0,{}]]]},{"name":"dense_Dense6792","class_name":"Dense","config":{"units":1,"activation":"sigmoid","use_bias":true,"kernel_initializer":{"class_name":"VarianceScaling","config":{"scale":1,"mode":"fan_avg","distribution":"normal","seed":null}},"bias_initializer":{"class_name":"Zeros","config":{}},"kernel_regularizer":null,"bias_regularizer":null,"activity_regularizer":null,"kernel_constraint":null,"bias_constraint":null,"name":"dense_Dense6792","trainable":true},"inbound_nodes":[[["dense_Dense6791",0,0,{}]]]}],"input_layers":[["input1132",0,0]],"output_layers":[["dense_Dense6792",0,0]]},"keras_version":"tfjs-layers 3.9.0","backend":"tensor_flow.js"},"weightsManifest":[{"paths":["weights.bin"],"weights":[{"name":"dense_Dense6787/kernel","shape":[3,4],"dtype":"float32"},{"name":"dense_Dense6787/bias","shape":[4],"dtype":"float32"},{"name":"dense_Dense6788/kernel","shape":[4,32],"dtype":"float32"},{"name":"dense_Dense6788/bias","shape":[32],"dtype":"float32"},{"name":"dense_Dense6789/kernel","shape":[32,2],"dtype":"float32"},{"name":"dense_Dense6789/bias","shape":[2],"dtype":"float32"},{"name":"dense_Dense6790/kernel","shape":[2,4],"dtype":"float32"},{"name":"dense_Dense6790/bias","shape":[4],"dtype":"float32"},{"name":"dense_Dense6791/kernel","shape":[4,8],"dtype":"float32"},{"name":"dense_Dense6791/bias","shape":[8],"dtype":"float32"},{"name":"dense_Dense6792/kernel","shape":[8,1],"dtype":"float32"},{"name":"dense_Dense6792/bias","shape":[1],"dtype":"float32"}]}]}