{"modelTopology":{"class_name":"Model","config":{"name":"model949","layers":[{"name":"input949","class_name":"InputLayer","config":{"batch_input_shape":[null,3],"dtype":"float32","sparse":false,"name":"input949"},"inbound_nodes":[]},{"name":"dense_Dense5689","class_name":"Dense","config":{"units":1,"activation":"relu","use_bias":true,"kernel_initializer":{"class_name":"VarianceScaling","config":{"scale":1,"mode":"fan_avg","distribution":"normal","seed":null}},"bias_initializer":{"class_name":"Zeros","config":{}},"kernel_regularizer":null,"bias_regularizer":null,"activity_regularizer":null,"kernel_constraint":null,"bias_constraint":null,"name":"dense_Dense5689","trainable":true},"inbound_nodes":[[["input949",0,0,{}]]]},{"name":"dense_Dense5690","class_name":"Dense","config":{"units":16,"activation":"relu","use_bias":true,"kernel_initializer":{"class_name":"VarianceScaling","config":{"scale":1,"mode":"fan_avg","distribution":"normal","seed":null}},"bias_initializer":{"class_name":"Zeros","config":{}},"kernel_regularizer":null,"bias_regularizer":null,"activity_regularizer":null,"kernel_constraint":null,"bias_constraint":null,"name":"dense_Dense5690","trainable":true},"inbound_nodes":[[["dense_Dense5689",0,0,{}]]]},{"name":"dense_Dense5691","class_name":"Dense","config":{"units":4,"activation":"relu","use_bias":true,"kernel_initializer":{"class_name":"VarianceScaling","config":{"scale":1,"mode":"fan_avg","distribution":"normal","seed":null}},"bias_initializer":{"class_name":"Zeros","config":{}},"kernel_regularizer":null,"bias_regularizer":null,"activity_regularizer":null,"kernel_constraint":null,"bias_constraint":null,"name":"dense_Dense5691","trainable":true},"inbound_nodes":[[["dense_Dense5690",0,0,{}]]]},{"name":"dense_Dense5692","class_name":"Dense","config":{"units":4,"activation":"relu","use_bias":true,"kernel_initializer":{"class_name":"VarianceScaling","config":{"scale":1,"mode":"fan_avg","distribution":"normal","seed":null}},"bias_initializer":{"class_name":"Zeros","config":{}},"kernel_regularizer":null,"bias_regularizer":null,"activity_regularizer":null,"kernel_constraint":null,"bias_constraint":null,"name":"dense_Dense5692","trainable":true},"inbound_nodes":[[["dense_Dense5691",0,0,{}]]]},{"name":"dense_Dense5693","class_name":"Dense","config":{"units":1,"activation":"relu","use_bias":true,"kernel_initializer":{"class_name":"VarianceScaling","config":{"scale":1,"mode":"fan_avg","distribution":"normal","seed":null}},"bias_initializer":{"class_name":"Zeros","config":{}},"kernel_regularizer":null,"bias_regularizer":null,"activity_regularizer":null,"kernel_constraint":null,"bias_constraint":null,"name":"dense_Dense5693","trainable":true},"inbound_nodes":[[["dense_Dense5692",0,0,{}]]]},{"name":"dense_Dense5694","class_name":"Dense","config":{"units":1,"activation":"sigmoid","use_bias":true,"kernel_initializer":{"class_name":"VarianceScaling","config":{"scale":1,"mode":"fan_avg","distribution":"normal","seed":null}},"bias_initializer":{"class_name":"Zeros","config":{}},"kernel_regularizer":null,"bias_regularizer":null,"activity_regularizer":null,"kernel_constraint":null,"bias_constraint":null,"name":"dense_Dense5694","trainable":true},"inbound_nodes":[[["dense_Dense5693",0,0,{}]]]}],"input_layers":[["input949",0,0]],"output_layers":[["dense_Dense5694",0,0]]},"keras_version":"tfjs-layers 3.9.0","backend":"tensor_flow.js"},"weightsManifest":[{"paths":["weights.bin"],"weights":[{"name":"dense_Dense5689/kernel","shape":[3,1],"dtype":"float32"},{"name":"dense_Dense5689/bias","shape":[1],"dtype":"float32"},{"name":"dense_Dense5690/kernel","shape":[1,16],"dtype":"float32"},{"name":"dense_Dense5690/bias","shape":[16],"dtype":"float32"},{"name":"dense_Dense5691/kernel","shape":[16,4],"dtype":"float32"},{"name":"dense_Dense5691/bias","shape":[4],"dtype":"float32"},{"name":"dense_Dense5692/kernel","shape":[4,4],"dtype":"float32"},{"name":"dense_Dense5692/bias","shape":[4],"dtype":"float32"},{"name":"dense_Dense5693/kernel","shape":[4,1],"dtype":"float32"},{"name":"dense_Dense5693/bias","shape":[1],"dtype":"float32"},{"name":"dense_Dense5694/kernel","shape":[1,1],"dtype":"float32"},{"name":"dense_Dense5694/bias","shape":[1],"dtype":"float32"}]}]}