{"modelTopology":{"class_name":"Model","config":{"name":"model52","layers":[{"name":"input52","class_name":"InputLayer","config":{"batch_input_shape":[null,3],"dtype":"float32","sparse":false,"name":"input52"},"inbound_nodes":[]},{"name":"dense_Dense307","class_name":"Dense","config":{"units":32,"activation":"relu","use_bias":true,"kernel_initializer":{"class_name":"VarianceScaling","config":{"scale":1,"mode":"fan_avg","distribution":"normal","seed":null}},"bias_initializer":{"class_name":"Zeros","config":{}},"kernel_regularizer":null,"bias_regularizer":null,"activity_regularizer":null,"kernel_constraint":null,"bias_constraint":null,"name":"dense_Dense307","trainable":true},"inbound_nodes":[[["input52",0,0,{}]]]},{"name":"dense_Dense308","class_name":"Dense","config":{"units":1,"activation":"relu","use_bias":true,"kernel_initializer":{"class_name":"VarianceScaling","config":{"scale":1,"mode":"fan_avg","distribution":"normal","seed":null}},"bias_initializer":{"class_name":"Zeros","config":{}},"kernel_regularizer":null,"bias_regularizer":null,"activity_regularizer":null,"kernel_constraint":null,"bias_constraint":null,"name":"dense_Dense308","trainable":true},"inbound_nodes":[[["dense_Dense307",0,0,{}]]]},{"name":"dense_Dense309","class_name":"Dense","config":{"units":2,"activation":"relu","use_bias":true,"kernel_initializer":{"class_name":"VarianceScaling","config":{"scale":1,"mode":"fan_avg","distribution":"normal","seed":null}},"bias_initializer":{"class_name":"Zeros","config":{}},"kernel_regularizer":null,"bias_regularizer":null,"activity_regularizer":null,"kernel_constraint":null,"bias_constraint":null,"name":"dense_Dense309","trainable":true},"inbound_nodes":[[["dense_Dense308",0,0,{}]]]},{"name":"dense_Dense310","class_name":"Dense","config":{"units":4,"activation":"relu","use_bias":true,"kernel_initializer":{"class_name":"VarianceScaling","config":{"scale":1,"mode":"fan_avg","distribution":"normal","seed":null}},"bias_initializer":{"class_name":"Zeros","config":{}},"kernel_regularizer":null,"bias_regularizer":null,"activity_regularizer":null,"kernel_constraint":null,"bias_constraint":null,"name":"dense_Dense310","trainable":true},"inbound_nodes":[[["dense_Dense309",0,0,{}]]]},{"name":"dense_Dense311","class_name":"Dense","config":{"units":8,"activation":"relu","use_bias":true,"kernel_initializer":{"class_name":"VarianceScaling","config":{"scale":1,"mode":"fan_avg","distribution":"normal","seed":null}},"bias_initializer":{"class_name":"Zeros","config":{}},"kernel_regularizer":null,"bias_regularizer":null,"activity_regularizer":null,"kernel_constraint":null,"bias_constraint":null,"name":"dense_Dense311","trainable":true},"inbound_nodes":[[["dense_Dense310",0,0,{}]]]},{"name":"dense_Dense312","class_name":"Dense","config":{"units":1,"activation":"sigmoid","use_bias":true,"kernel_initializer":{"class_name":"VarianceScaling","config":{"scale":1,"mode":"fan_avg","distribution":"normal","seed":null}},"bias_initializer":{"class_name":"Zeros","config":{}},"kernel_regularizer":null,"bias_regularizer":null,"activity_regularizer":null,"kernel_constraint":null,"bias_constraint":null,"name":"dense_Dense312","trainable":true},"inbound_nodes":[[["dense_Dense311",0,0,{}]]]}],"input_layers":[["input52",0,0]],"output_layers":[["dense_Dense312",0,0]]},"keras_version":"tfjs-layers 3.9.0","backend":"tensor_flow.js"},"weightsManifest":[{"paths":["weights.bin"],"weights":[{"name":"dense_Dense307/kernel","shape":[3,32],"dtype":"float32"},{"name":"dense_Dense307/bias","shape":[32],"dtype":"float32"},{"name":"dense_Dense308/kernel","shape":[32,1],"dtype":"float32"},{"name":"dense_Dense308/bias","shape":[1],"dtype":"float32"},{"name":"dense_Dense309/kernel","shape":[1,2],"dtype":"float32"},{"name":"dense_Dense309/bias","shape":[2],"dtype":"float32"},{"name":"dense_Dense310/kernel","shape":[2,4],"dtype":"float32"},{"name":"dense_Dense310/bias","shape":[4],"dtype":"float32"},{"name":"dense_Dense311/kernel","shape":[4,8],"dtype":"float32"},{"name":"dense_Dense311/bias","shape":[8],"dtype":"float32"},{"name":"dense_Dense312/kernel","shape":[8,1],"dtype":"float32"},{"name":"dense_Dense312/bias","shape":[1],"dtype":"float32"}]}]}