{"modelTopology":{"class_name":"Model","config":{"name":"model122","layers":[{"name":"input122","class_name":"InputLayer","config":{"batch_input_shape":[null,3],"dtype":"float32","sparse":false,"name":"input122"},"inbound_nodes":[]},{"name":"dense_Dense727","class_name":"Dense","config":{"units":16,"activation":"relu","use_bias":true,"kernel_initializer":{"class_name":"VarianceScaling","config":{"scale":1,"mode":"fan_avg","distribution":"normal","seed":null}},"bias_initializer":{"class_name":"Zeros","config":{}},"kernel_regularizer":null,"bias_regularizer":null,"activity_regularizer":null,"kernel_constraint":null,"bias_constraint":null,"name":"dense_Dense727","trainable":true},"inbound_nodes":[[["input122",0,0,{}]]]},{"name":"dense_Dense728","class_name":"Dense","config":{"units":1,"activation":"relu","use_bias":true,"kernel_initializer":{"class_name":"VarianceScaling","config":{"scale":1,"mode":"fan_avg","distribution":"normal","seed":null}},"bias_initializer":{"class_name":"Zeros","config":{}},"kernel_regularizer":null,"bias_regularizer":null,"activity_regularizer":null,"kernel_constraint":null,"bias_constraint":null,"name":"dense_Dense728","trainable":true},"inbound_nodes":[[["dense_Dense727",0,0,{}]]]},{"name":"dense_Dense729","class_name":"Dense","config":{"units":8,"activation":"relu","use_bias":true,"kernel_initializer":{"class_name":"VarianceScaling","config":{"scale":1,"mode":"fan_avg","distribution":"normal","seed":null}},"bias_initializer":{"class_name":"Zeros","config":{}},"kernel_regularizer":null,"bias_regularizer":null,"activity_regularizer":null,"kernel_constraint":null,"bias_constraint":null,"name":"dense_Dense729","trainable":true},"inbound_nodes":[[["dense_Dense728",0,0,{}]]]},{"name":"dense_Dense730","class_name":"Dense","config":{"units":4,"activation":"relu","use_bias":true,"kernel_initializer":{"class_name":"VarianceScaling","config":{"scale":1,"mode":"fan_avg","distribution":"normal","seed":null}},"bias_initializer":{"class_name":"Zeros","config":{}},"kernel_regularizer":null,"bias_regularizer":null,"activity_regularizer":null,"kernel_constraint":null,"bias_constraint":null,"name":"dense_Dense730","trainable":true},"inbound_nodes":[[["dense_Dense729",0,0,{}]]]},{"name":"dense_Dense731","class_name":"Dense","config":{"units":2,"activation":"relu","use_bias":true,"kernel_initializer":{"class_name":"VarianceScaling","config":{"scale":1,"mode":"fan_avg","distribution":"normal","seed":null}},"bias_initializer":{"class_name":"Zeros","config":{}},"kernel_regularizer":null,"bias_regularizer":null,"activity_regularizer":null,"kernel_constraint":null,"bias_constraint":null,"name":"dense_Dense731","trainable":true},"inbound_nodes":[[["dense_Dense730",0,0,{}]]]},{"name":"dense_Dense732","class_name":"Dense","config":{"units":1,"activation":"sigmoid","use_bias":true,"kernel_initializer":{"class_name":"VarianceScaling","config":{"scale":1,"mode":"fan_avg","distribution":"normal","seed":null}},"bias_initializer":{"class_name":"Zeros","config":{}},"kernel_regularizer":null,"bias_regularizer":null,"activity_regularizer":null,"kernel_constraint":null,"bias_constraint":null,"name":"dense_Dense732","trainable":true},"inbound_nodes":[[["dense_Dense731",0,0,{}]]]}],"input_layers":[["input122",0,0]],"output_layers":[["dense_Dense732",0,0]]},"keras_version":"tfjs-layers 3.9.0","backend":"tensor_flow.js"},"weightsManifest":[{"paths":["weights.bin"],"weights":[{"name":"dense_Dense727/kernel","shape":[3,16],"dtype":"float32"},{"name":"dense_Dense727/bias","shape":[16],"dtype":"float32"},{"name":"dense_Dense728/kernel","shape":[16,1],"dtype":"float32"},{"name":"dense_Dense728/bias","shape":[1],"dtype":"float32"},{"name":"dense_Dense729/kernel","shape":[1,8],"dtype":"float32"},{"name":"dense_Dense729/bias","shape":[8],"dtype":"float32"},{"name":"dense_Dense730/kernel","shape":[8,4],"dtype":"float32"},{"name":"dense_Dense730/bias","shape":[4],"dtype":"float32"},{"name":"dense_Dense731/kernel","shape":[4,2],"dtype":"float32"},{"name":"dense_Dense731/bias","shape":[2],"dtype":"float32"},{"name":"dense_Dense732/kernel","shape":[2,1],"dtype":"float32"},{"name":"dense_Dense732/bias","shape":[1],"dtype":"float32"}]}]}