{"modelTopology":{"class_name":"Model","config":{"name":"model404","layers":[{"name":"input404","class_name":"InputLayer","config":{"batch_input_shape":[null,3],"dtype":"float32","sparse":false,"name":"input404"},"inbound_nodes":[]},{"name":"dense_Dense2016","class_name":"Dense","config":{"units":2,"activation":"relu","use_bias":true,"kernel_initializer":{"class_name":"VarianceScaling","config":{"scale":1,"mode":"fan_avg","distribution":"normal","seed":null}},"bias_initializer":{"class_name":"Zeros","config":{}},"kernel_regularizer":null,"bias_regularizer":null,"activity_regularizer":null,"kernel_constraint":null,"bias_constraint":null,"name":"dense_Dense2016","trainable":true},"inbound_nodes":[[["input404",0,0,{}]]]},{"name":"dense_Dense2017","class_name":"Dense","config":{"units":32,"activation":"relu","use_bias":true,"kernel_initializer":{"class_name":"VarianceScaling","config":{"scale":1,"mode":"fan_avg","distribution":"normal","seed":null}},"bias_initializer":{"class_name":"Zeros","config":{}},"kernel_regularizer":null,"bias_regularizer":null,"activity_regularizer":null,"kernel_constraint":null,"bias_constraint":null,"name":"dense_Dense2017","trainable":true},"inbound_nodes":[[["dense_Dense2016",0,0,{}]]]},{"name":"dense_Dense2018","class_name":"Dense","config":{"units":2,"activation":"relu","use_bias":true,"kernel_initializer":{"class_name":"VarianceScaling","config":{"scale":1,"mode":"fan_avg","distribution":"normal","seed":null}},"bias_initializer":{"class_name":"Zeros","config":{}},"kernel_regularizer":null,"bias_regularizer":null,"activity_regularizer":null,"kernel_constraint":null,"bias_constraint":null,"name":"dense_Dense2018","trainable":true},"inbound_nodes":[[["dense_Dense2017",0,0,{}]]]},{"name":"dense_Dense2019","class_name":"Dense","config":{"units":2,"activation":"relu","use_bias":true,"kernel_initializer":{"class_name":"VarianceScaling","config":{"scale":1,"mode":"fan_avg","distribution":"normal","seed":null}},"bias_initializer":{"class_name":"Zeros","config":{}},"kernel_regularizer":null,"bias_regularizer":null,"activity_regularizer":null,"kernel_constraint":null,"bias_constraint":null,"name":"dense_Dense2019","trainable":true},"inbound_nodes":[[["dense_Dense2018",0,0,{}]]]},{"name":"dense_Dense2020","class_name":"Dense","config":{"units":1,"activation":"sigmoid","use_bias":true,"kernel_initializer":{"class_name":"VarianceScaling","config":{"scale":1,"mode":"fan_avg","distribution":"normal","seed":null}},"bias_initializer":{"class_name":"Zeros","config":{}},"kernel_regularizer":null,"bias_regularizer":null,"activity_regularizer":null,"kernel_constraint":null,"bias_constraint":null,"name":"dense_Dense2020","trainable":true},"inbound_nodes":[[["dense_Dense2019",0,0,{}]]]}],"input_layers":[["input404",0,0]],"output_layers":[["dense_Dense2020",0,0]]},"keras_version":"tfjs-layers 3.9.0","backend":"tensor_flow.js"},"weightsManifest":[{"paths":["weights.bin"],"weights":[{"name":"dense_Dense2016/kernel","shape":[3,2],"dtype":"float32"},{"name":"dense_Dense2016/bias","shape":[2],"dtype":"float32"},{"name":"dense_Dense2017/kernel","shape":[2,32],"dtype":"float32"},{"name":"dense_Dense2017/bias","shape":[32],"dtype":"float32"},{"name":"dense_Dense2018/kernel","shape":[32,2],"dtype":"float32"},{"name":"dense_Dense2018/bias","shape":[2],"dtype":"float32"},{"name":"dense_Dense2019/kernel","shape":[2,2],"dtype":"float32"},{"name":"dense_Dense2019/bias","shape":[2],"dtype":"float32"},{"name":"dense_Dense2020/kernel","shape":[2,1],"dtype":"float32"},{"name":"dense_Dense2020/bias","shape":[1],"dtype":"float32"}]}]}