{"modelTopology":{"class_name":"Model","config":{"name":"model525","layers":[{"name":"input525","class_name":"InputLayer","config":{"batch_input_shape":[null,3],"dtype":"float32","sparse":false,"name":"input525"},"inbound_nodes":[]},{"name":"dense_Dense3145","class_name":"Dense","config":{"units":32,"activation":"relu","use_bias":true,"kernel_initializer":{"class_name":"VarianceScaling","config":{"scale":1,"mode":"fan_avg","distribution":"normal","seed":null}},"bias_initializer":{"class_name":"Zeros","config":{}},"kernel_regularizer":null,"bias_regularizer":null,"activity_regularizer":null,"kernel_constraint":null,"bias_constraint":null,"name":"dense_Dense3145","trainable":true},"inbound_nodes":[[["input525",0,0,{}]]]},{"name":"dense_Dense3146","class_name":"Dense","config":{"units":4,"activation":"relu","use_bias":true,"kernel_initializer":{"class_name":"VarianceScaling","config":{"scale":1,"mode":"fan_avg","distribution":"normal","seed":null}},"bias_initializer":{"class_name":"Zeros","config":{}},"kernel_regularizer":null,"bias_regularizer":null,"activity_regularizer":null,"kernel_constraint":null,"bias_constraint":null,"name":"dense_Dense3146","trainable":true},"inbound_nodes":[[["dense_Dense3145",0,0,{}]]]},{"name":"dense_Dense3147","class_name":"Dense","config":{"units":4,"activation":"relu","use_bias":true,"kernel_initializer":{"class_name":"VarianceScaling","config":{"scale":1,"mode":"fan_avg","distribution":"normal","seed":null}},"bias_initializer":{"class_name":"Zeros","config":{}},"kernel_regularizer":null,"bias_regularizer":null,"activity_regularizer":null,"kernel_constraint":null,"bias_constraint":null,"name":"dense_Dense3147","trainable":true},"inbound_nodes":[[["dense_Dense3146",0,0,{}]]]},{"name":"dense_Dense3148","class_name":"Dense","config":{"units":8,"activation":"relu","use_bias":true,"kernel_initializer":{"class_name":"VarianceScaling","config":{"scale":1,"mode":"fan_avg","distribution":"normal","seed":null}},"bias_initializer":{"class_name":"Zeros","config":{}},"kernel_regularizer":null,"bias_regularizer":null,"activity_regularizer":null,"kernel_constraint":null,"bias_constraint":null,"name":"dense_Dense3148","trainable":true},"inbound_nodes":[[["dense_Dense3147",0,0,{}]]]},{"name":"dense_Dense3149","class_name":"Dense","config":{"units":4,"activation":"relu","use_bias":true,"kernel_initializer":{"class_name":"VarianceScaling","config":{"scale":1,"mode":"fan_avg","distribution":"normal","seed":null}},"bias_initializer":{"class_name":"Zeros","config":{}},"kernel_regularizer":null,"bias_regularizer":null,"activity_regularizer":null,"kernel_constraint":null,"bias_constraint":null,"name":"dense_Dense3149","trainable":true},"inbound_nodes":[[["dense_Dense3148",0,0,{}]]]},{"name":"dense_Dense3150","class_name":"Dense","config":{"units":1,"activation":"sigmoid","use_bias":true,"kernel_initializer":{"class_name":"VarianceScaling","config":{"scale":1,"mode":"fan_avg","distribution":"normal","seed":null}},"bias_initializer":{"class_name":"Zeros","config":{}},"kernel_regularizer":null,"bias_regularizer":null,"activity_regularizer":null,"kernel_constraint":null,"bias_constraint":null,"name":"dense_Dense3150","trainable":true},"inbound_nodes":[[["dense_Dense3149",0,0,{}]]]}],"input_layers":[["input525",0,0]],"output_layers":[["dense_Dense3150",0,0]]},"keras_version":"tfjs-layers 3.9.0","backend":"tensor_flow.js"},"weightsManifest":[{"paths":["weights.bin"],"weights":[{"name":"dense_Dense3145/kernel","shape":[3,32],"dtype":"float32"},{"name":"dense_Dense3145/bias","shape":[32],"dtype":"float32"},{"name":"dense_Dense3146/kernel","shape":[32,4],"dtype":"float32"},{"name":"dense_Dense3146/bias","shape":[4],"dtype":"float32"},{"name":"dense_Dense3147/kernel","shape":[4,4],"dtype":"float32"},{"name":"dense_Dense3147/bias","shape":[4],"dtype":"float32"},{"name":"dense_Dense3148/kernel","shape":[4,8],"dtype":"float32"},{"name":"dense_Dense3148/bias","shape":[8],"dtype":"float32"},{"name":"dense_Dense3149/kernel","shape":[8,4],"dtype":"float32"},{"name":"dense_Dense3149/bias","shape":[4],"dtype":"float32"},{"name":"dense_Dense3150/kernel","shape":[4,1],"dtype":"float32"},{"name":"dense_Dense3150/bias","shape":[1],"dtype":"float32"}]}]}