{"modelTopology":{"class_name":"Model","config":{"name":"model1287","layers":[{"name":"input1287","class_name":"InputLayer","config":{"batch_input_shape":[null,3],"dtype":"float32","sparse":false,"name":"input1287"},"inbound_nodes":[]},{"name":"dense_Dense7717","class_name":"Dense","config":{"units":32,"activation":"relu","use_bias":true,"kernel_initializer":{"class_name":"VarianceScaling","config":{"scale":1,"mode":"fan_avg","distribution":"normal","seed":null}},"bias_initializer":{"class_name":"Zeros","config":{}},"kernel_regularizer":null,"bias_regularizer":null,"activity_regularizer":null,"kernel_constraint":null,"bias_constraint":null,"name":"dense_Dense7717","trainable":true},"inbound_nodes":[[["input1287",0,0,{}]]]},{"name":"dense_Dense7718","class_name":"Dense","config":{"units":32,"activation":"relu","use_bias":true,"kernel_initializer":{"class_name":"VarianceScaling","config":{"scale":1,"mode":"fan_avg","distribution":"normal","seed":null}},"bias_initializer":{"class_name":"Zeros","config":{}},"kernel_regularizer":null,"bias_regularizer":null,"activity_regularizer":null,"kernel_constraint":null,"bias_constraint":null,"name":"dense_Dense7718","trainable":true},"inbound_nodes":[[["dense_Dense7717",0,0,{}]]]},{"name":"dense_Dense7719","class_name":"Dense","config":{"units":32,"activation":"relu","use_bias":true,"kernel_initializer":{"class_name":"VarianceScaling","config":{"scale":1,"mode":"fan_avg","distribution":"normal","seed":null}},"bias_initializer":{"class_name":"Zeros","config":{}},"kernel_regularizer":null,"bias_regularizer":null,"activity_regularizer":null,"kernel_constraint":null,"bias_constraint":null,"name":"dense_Dense7719","trainable":true},"inbound_nodes":[[["dense_Dense7718",0,0,{}]]]},{"name":"dense_Dense7720","class_name":"Dense","config":{"units":16,"activation":"relu","use_bias":true,"kernel_initializer":{"class_name":"VarianceScaling","config":{"scale":1,"mode":"fan_avg","distribution":"normal","seed":null}},"bias_initializer":{"class_name":"Zeros","config":{}},"kernel_regularizer":null,"bias_regularizer":null,"activity_regularizer":null,"kernel_constraint":null,"bias_constraint":null,"name":"dense_Dense7720","trainable":true},"inbound_nodes":[[["dense_Dense7719",0,0,{}]]]},{"name":"dense_Dense7721","class_name":"Dense","config":{"units":4,"activation":"relu","use_bias":true,"kernel_initializer":{"class_name":"VarianceScaling","config":{"scale":1,"mode":"fan_avg","distribution":"normal","seed":null}},"bias_initializer":{"class_name":"Zeros","config":{}},"kernel_regularizer":null,"bias_regularizer":null,"activity_regularizer":null,"kernel_constraint":null,"bias_constraint":null,"name":"dense_Dense7721","trainable":true},"inbound_nodes":[[["dense_Dense7720",0,0,{}]]]},{"name":"dense_Dense7722","class_name":"Dense","config":{"units":1,"activation":"sigmoid","use_bias":true,"kernel_initializer":{"class_name":"VarianceScaling","config":{"scale":1,"mode":"fan_avg","distribution":"normal","seed":null}},"bias_initializer":{"class_name":"Zeros","config":{}},"kernel_regularizer":null,"bias_regularizer":null,"activity_regularizer":null,"kernel_constraint":null,"bias_constraint":null,"name":"dense_Dense7722","trainable":true},"inbound_nodes":[[["dense_Dense7721",0,0,{}]]]}],"input_layers":[["input1287",0,0]],"output_layers":[["dense_Dense7722",0,0]]},"keras_version":"tfjs-layers 3.9.0","backend":"tensor_flow.js"},"weightsManifest":[{"paths":["weights.bin"],"weights":[{"name":"dense_Dense7717/kernel","shape":[3,32],"dtype":"float32"},{"name":"dense_Dense7717/bias","shape":[32],"dtype":"float32"},{"name":"dense_Dense7718/kernel","shape":[32,32],"dtype":"float32"},{"name":"dense_Dense7718/bias","shape":[32],"dtype":"float32"},{"name":"dense_Dense7719/kernel","shape":[32,32],"dtype":"float32"},{"name":"dense_Dense7719/bias","shape":[32],"dtype":"float32"},{"name":"dense_Dense7720/kernel","shape":[32,16],"dtype":"float32"},{"name":"dense_Dense7720/bias","shape":[16],"dtype":"float32"},{"name":"dense_Dense7721/kernel","shape":[16,4],"dtype":"float32"},{"name":"dense_Dense7721/bias","shape":[4],"dtype":"float32"},{"name":"dense_Dense7722/kernel","shape":[4,1],"dtype":"float32"},{"name":"dense_Dense7722/bias","shape":[1],"dtype":"float32"}]}]}