{"modelTopology":{"class_name":"Model","config":{"name":"model1278","layers":[{"name":"input1278","class_name":"InputLayer","config":{"batch_input_shape":[null,3],"dtype":"float32","sparse":false,"name":"input1278"},"inbound_nodes":[]},{"name":"dense_Dense7663","class_name":"Dense","config":{"units":1,"activation":"relu","use_bias":true,"kernel_initializer":{"class_name":"VarianceScaling","config":{"scale":1,"mode":"fan_avg","distribution":"normal","seed":null}},"bias_initializer":{"class_name":"Zeros","config":{}},"kernel_regularizer":null,"bias_regularizer":null,"activity_regularizer":null,"kernel_constraint":null,"bias_constraint":null,"name":"dense_Dense7663","trainable":true},"inbound_nodes":[[["input1278",0,0,{}]]]},{"name":"dense_Dense7664","class_name":"Dense","config":{"units":32,"activation":"relu","use_bias":true,"kernel_initializer":{"class_name":"VarianceScaling","config":{"scale":1,"mode":"fan_avg","distribution":"normal","seed":null}},"bias_initializer":{"class_name":"Zeros","config":{}},"kernel_regularizer":null,"bias_regularizer":null,"activity_regularizer":null,"kernel_constraint":null,"bias_constraint":null,"name":"dense_Dense7664","trainable":true},"inbound_nodes":[[["dense_Dense7663",0,0,{}]]]},{"name":"dense_Dense7665","class_name":"Dense","config":{"units":32,"activation":"relu","use_bias":true,"kernel_initializer":{"class_name":"VarianceScaling","config":{"scale":1,"mode":"fan_avg","distribution":"normal","seed":null}},"bias_initializer":{"class_name":"Zeros","config":{}},"kernel_regularizer":null,"bias_regularizer":null,"activity_regularizer":null,"kernel_constraint":null,"bias_constraint":null,"name":"dense_Dense7665","trainable":true},"inbound_nodes":[[["dense_Dense7664",0,0,{}]]]},{"name":"dense_Dense7666","class_name":"Dense","config":{"units":4,"activation":"relu","use_bias":true,"kernel_initializer":{"class_name":"VarianceScaling","config":{"scale":1,"mode":"fan_avg","distribution":"normal","seed":null}},"bias_initializer":{"class_name":"Zeros","config":{}},"kernel_regularizer":null,"bias_regularizer":null,"activity_regularizer":null,"kernel_constraint":null,"bias_constraint":null,"name":"dense_Dense7666","trainable":true},"inbound_nodes":[[["dense_Dense7665",0,0,{}]]]},{"name":"dense_Dense7667","class_name":"Dense","config":{"units":32,"activation":"relu","use_bias":true,"kernel_initializer":{"class_name":"VarianceScaling","config":{"scale":1,"mode":"fan_avg","distribution":"normal","seed":null}},"bias_initializer":{"class_name":"Zeros","config":{}},"kernel_regularizer":null,"bias_regularizer":null,"activity_regularizer":null,"kernel_constraint":null,"bias_constraint":null,"name":"dense_Dense7667","trainable":true},"inbound_nodes":[[["dense_Dense7666",0,0,{}]]]},{"name":"dense_Dense7668","class_name":"Dense","config":{"units":1,"activation":"sigmoid","use_bias":true,"kernel_initializer":{"class_name":"VarianceScaling","config":{"scale":1,"mode":"fan_avg","distribution":"normal","seed":null}},"bias_initializer":{"class_name":"Zeros","config":{}},"kernel_regularizer":null,"bias_regularizer":null,"activity_regularizer":null,"kernel_constraint":null,"bias_constraint":null,"name":"dense_Dense7668","trainable":true},"inbound_nodes":[[["dense_Dense7667",0,0,{}]]]}],"input_layers":[["input1278",0,0]],"output_layers":[["dense_Dense7668",0,0]]},"keras_version":"tfjs-layers 3.9.0","backend":"tensor_flow.js"},"weightsManifest":[{"paths":["weights.bin"],"weights":[{"name":"dense_Dense7663/kernel","shape":[3,1],"dtype":"float32"},{"name":"dense_Dense7663/bias","shape":[1],"dtype":"float32"},{"name":"dense_Dense7664/kernel","shape":[1,32],"dtype":"float32"},{"name":"dense_Dense7664/bias","shape":[32],"dtype":"float32"},{"name":"dense_Dense7665/kernel","shape":[32,32],"dtype":"float32"},{"name":"dense_Dense7665/bias","shape":[32],"dtype":"float32"},{"name":"dense_Dense7666/kernel","shape":[32,4],"dtype":"float32"},{"name":"dense_Dense7666/bias","shape":[4],"dtype":"float32"},{"name":"dense_Dense7667/kernel","shape":[4,32],"dtype":"float32"},{"name":"dense_Dense7667/bias","shape":[32],"dtype":"float32"},{"name":"dense_Dense7668/kernel","shape":[32,1],"dtype":"float32"},{"name":"dense_Dense7668/bias","shape":[1],"dtype":"float32"}]}]}