{"modelTopology":{"class_name":"Model","config":{"name":"model85","layers":[{"name":"input85","class_name":"InputLayer","config":{"batch_input_shape":[null,3],"dtype":"float32","sparse":false,"name":"input85"},"inbound_nodes":[]},{"name":"dense_Dense505","class_name":"Dense","config":{"units":2,"activation":"relu","use_bias":true,"kernel_initializer":{"class_name":"VarianceScaling","config":{"scale":1,"mode":"fan_avg","distribution":"normal","seed":null}},"bias_initializer":{"class_name":"Zeros","config":{}},"kernel_regularizer":null,"bias_regularizer":null,"activity_regularizer":null,"kernel_constraint":null,"bias_constraint":null,"name":"dense_Dense505","trainable":true},"inbound_nodes":[[["input85",0,0,{}]]]},{"name":"dense_Dense506","class_name":"Dense","config":{"units":1,"activation":"relu","use_bias":true,"kernel_initializer":{"class_name":"VarianceScaling","config":{"scale":1,"mode":"fan_avg","distribution":"normal","seed":null}},"bias_initializer":{"class_name":"Zeros","config":{}},"kernel_regularizer":null,"bias_regularizer":null,"activity_regularizer":null,"kernel_constraint":null,"bias_constraint":null,"name":"dense_Dense506","trainable":true},"inbound_nodes":[[["dense_Dense505",0,0,{}]]]},{"name":"dense_Dense507","class_name":"Dense","config":{"units":4,"activation":"relu","use_bias":true,"kernel_initializer":{"class_name":"VarianceScaling","config":{"scale":1,"mode":"fan_avg","distribution":"normal","seed":null}},"bias_initializer":{"class_name":"Zeros","config":{}},"kernel_regularizer":null,"bias_regularizer":null,"activity_regularizer":null,"kernel_constraint":null,"bias_constraint":null,"name":"dense_Dense507","trainable":true},"inbound_nodes":[[["dense_Dense506",0,0,{}]]]},{"name":"dense_Dense508","class_name":"Dense","config":{"units":4,"activation":"relu","use_bias":true,"kernel_initializer":{"class_name":"VarianceScaling","config":{"scale":1,"mode":"fan_avg","distribution":"normal","seed":null}},"bias_initializer":{"class_name":"Zeros","config":{}},"kernel_regularizer":null,"bias_regularizer":null,"activity_regularizer":null,"kernel_constraint":null,"bias_constraint":null,"name":"dense_Dense508","trainable":true},"inbound_nodes":[[["dense_Dense507",0,0,{}]]]},{"name":"dense_Dense509","class_name":"Dense","config":{"units":1,"activation":"relu","use_bias":true,"kernel_initializer":{"class_name":"VarianceScaling","config":{"scale":1,"mode":"fan_avg","distribution":"normal","seed":null}},"bias_initializer":{"class_name":"Zeros","config":{}},"kernel_regularizer":null,"bias_regularizer":null,"activity_regularizer":null,"kernel_constraint":null,"bias_constraint":null,"name":"dense_Dense509","trainable":true},"inbound_nodes":[[["dense_Dense508",0,0,{}]]]},{"name":"dense_Dense510","class_name":"Dense","config":{"units":1,"activation":"sigmoid","use_bias":true,"kernel_initializer":{"class_name":"VarianceScaling","config":{"scale":1,"mode":"fan_avg","distribution":"normal","seed":null}},"bias_initializer":{"class_name":"Zeros","config":{}},"kernel_regularizer":null,"bias_regularizer":null,"activity_regularizer":null,"kernel_constraint":null,"bias_constraint":null,"name":"dense_Dense510","trainable":true},"inbound_nodes":[[["dense_Dense509",0,0,{}]]]}],"input_layers":[["input85",0,0]],"output_layers":[["dense_Dense510",0,0]]},"keras_version":"tfjs-layers 3.9.0","backend":"tensor_flow.js"},"weightsManifest":[{"paths":["weights.bin"],"weights":[{"name":"dense_Dense505/kernel","shape":[3,2],"dtype":"float32"},{"name":"dense_Dense505/bias","shape":[2],"dtype":"float32"},{"name":"dense_Dense506/kernel","shape":[2,1],"dtype":"float32"},{"name":"dense_Dense506/bias","shape":[1],"dtype":"float32"},{"name":"dense_Dense507/kernel","shape":[1,4],"dtype":"float32"},{"name":"dense_Dense507/bias","shape":[4],"dtype":"float32"},{"name":"dense_Dense508/kernel","shape":[4,4],"dtype":"float32"},{"name":"dense_Dense508/bias","shape":[4],"dtype":"float32"},{"name":"dense_Dense509/kernel","shape":[4,1],"dtype":"float32"},{"name":"dense_Dense509/bias","shape":[1],"dtype":"float32"},{"name":"dense_Dense510/kernel","shape":[1,1],"dtype":"float32"},{"name":"dense_Dense510/bias","shape":[1],"dtype":"float32"}]}]}