{"modelTopology":{"class_name":"Model","config":{"name":"model691","layers":[{"name":"input691","class_name":"InputLayer","config":{"batch_input_shape":[null,3],"dtype":"float32","sparse":false,"name":"input691"},"inbound_nodes":[]},{"name":"dense_Dense4141","class_name":"Dense","config":{"units":32,"activation":"relu","use_bias":true,"kernel_initializer":{"class_name":"VarianceScaling","config":{"scale":1,"mode":"fan_avg","distribution":"normal","seed":null}},"bias_initializer":{"class_name":"Zeros","config":{}},"kernel_regularizer":null,"bias_regularizer":null,"activity_regularizer":null,"kernel_constraint":null,"bias_constraint":null,"name":"dense_Dense4141","trainable":true},"inbound_nodes":[[["input691",0,0,{}]]]},{"name":"dense_Dense4142","class_name":"Dense","config":{"units":8,"activation":"relu","use_bias":true,"kernel_initializer":{"class_name":"VarianceScaling","config":{"scale":1,"mode":"fan_avg","distribution":"normal","seed":null}},"bias_initializer":{"class_name":"Zeros","config":{}},"kernel_regularizer":null,"bias_regularizer":null,"activity_regularizer":null,"kernel_constraint":null,"bias_constraint":null,"name":"dense_Dense4142","trainable":true},"inbound_nodes":[[["dense_Dense4141",0,0,{}]]]},{"name":"dense_Dense4143","class_name":"Dense","config":{"units":2,"activation":"relu","use_bias":true,"kernel_initializer":{"class_name":"VarianceScaling","config":{"scale":1,"mode":"fan_avg","distribution":"normal","seed":null}},"bias_initializer":{"class_name":"Zeros","config":{}},"kernel_regularizer":null,"bias_regularizer":null,"activity_regularizer":null,"kernel_constraint":null,"bias_constraint":null,"name":"dense_Dense4143","trainable":true},"inbound_nodes":[[["dense_Dense4142",0,0,{}]]]},{"name":"dense_Dense4144","class_name":"Dense","config":{"units":2,"activation":"relu","use_bias":true,"kernel_initializer":{"class_name":"VarianceScaling","config":{"scale":1,"mode":"fan_avg","distribution":"normal","seed":null}},"bias_initializer":{"class_name":"Zeros","config":{}},"kernel_regularizer":null,"bias_regularizer":null,"activity_regularizer":null,"kernel_constraint":null,"bias_constraint":null,"name":"dense_Dense4144","trainable":true},"inbound_nodes":[[["dense_Dense4143",0,0,{}]]]},{"name":"dense_Dense4145","class_name":"Dense","config":{"units":1,"activation":"relu","use_bias":true,"kernel_initializer":{"class_name":"VarianceScaling","config":{"scale":1,"mode":"fan_avg","distribution":"normal","seed":null}},"bias_initializer":{"class_name":"Zeros","config":{}},"kernel_regularizer":null,"bias_regularizer":null,"activity_regularizer":null,"kernel_constraint":null,"bias_constraint":null,"name":"dense_Dense4145","trainable":true},"inbound_nodes":[[["dense_Dense4144",0,0,{}]]]},{"name":"dense_Dense4146","class_name":"Dense","config":{"units":1,"activation":"sigmoid","use_bias":true,"kernel_initializer":{"class_name":"VarianceScaling","config":{"scale":1,"mode":"fan_avg","distribution":"normal","seed":null}},"bias_initializer":{"class_name":"Zeros","config":{}},"kernel_regularizer":null,"bias_regularizer":null,"activity_regularizer":null,"kernel_constraint":null,"bias_constraint":null,"name":"dense_Dense4146","trainable":true},"inbound_nodes":[[["dense_Dense4145",0,0,{}]]]}],"input_layers":[["input691",0,0]],"output_layers":[["dense_Dense4146",0,0]]},"keras_version":"tfjs-layers 3.9.0","backend":"tensor_flow.js"},"weightsManifest":[{"paths":["weights.bin"],"weights":[{"name":"dense_Dense4141/kernel","shape":[3,32],"dtype":"float32"},{"name":"dense_Dense4141/bias","shape":[32],"dtype":"float32"},{"name":"dense_Dense4142/kernel","shape":[32,8],"dtype":"float32"},{"name":"dense_Dense4142/bias","shape":[8],"dtype":"float32"},{"name":"dense_Dense4143/kernel","shape":[8,2],"dtype":"float32"},{"name":"dense_Dense4143/bias","shape":[2],"dtype":"float32"},{"name":"dense_Dense4144/kernel","shape":[2,2],"dtype":"float32"},{"name":"dense_Dense4144/bias","shape":[2],"dtype":"float32"},{"name":"dense_Dense4145/kernel","shape":[2,1],"dtype":"float32"},{"name":"dense_Dense4145/bias","shape":[1],"dtype":"float32"},{"name":"dense_Dense4146/kernel","shape":[1,1],"dtype":"float32"},{"name":"dense_Dense4146/bias","shape":[1],"dtype":"float32"}]}]}