{"modelTopology":{"class_name":"Model","config":{"name":"model189","layers":[{"name":"input189","class_name":"InputLayer","config":{"batch_input_shape":[null,3],"dtype":"float32","sparse":false,"name":"input189"},"inbound_nodes":[]},{"name":"dense_Dense1129","class_name":"Dense","config":{"units":4,"activation":"relu","use_bias":true,"kernel_initializer":{"class_name":"VarianceScaling","config":{"scale":1,"mode":"fan_avg","distribution":"normal","seed":null}},"bias_initializer":{"class_name":"Zeros","config":{}},"kernel_regularizer":null,"bias_regularizer":null,"activity_regularizer":null,"kernel_constraint":null,"bias_constraint":null,"name":"dense_Dense1129","trainable":true},"inbound_nodes":[[["input189",0,0,{}]]]},{"name":"dense_Dense1130","class_name":"Dense","config":{"units":1,"activation":"relu","use_bias":true,"kernel_initializer":{"class_name":"VarianceScaling","config":{"scale":1,"mode":"fan_avg","distribution":"normal","seed":null}},"bias_initializer":{"class_name":"Zeros","config":{}},"kernel_regularizer":null,"bias_regularizer":null,"activity_regularizer":null,"kernel_constraint":null,"bias_constraint":null,"name":"dense_Dense1130","trainable":true},"inbound_nodes":[[["dense_Dense1129",0,0,{}]]]},{"name":"dense_Dense1131","class_name":"Dense","config":{"units":32,"activation":"relu","use_bias":true,"kernel_initializer":{"class_name":"VarianceScaling","config":{"scale":1,"mode":"fan_avg","distribution":"normal","seed":null}},"bias_initializer":{"class_name":"Zeros","config":{}},"kernel_regularizer":null,"bias_regularizer":null,"activity_regularizer":null,"kernel_constraint":null,"bias_constraint":null,"name":"dense_Dense1131","trainable":true},"inbound_nodes":[[["dense_Dense1130",0,0,{}]]]},{"name":"dense_Dense1132","class_name":"Dense","config":{"units":2,"activation":"relu","use_bias":true,"kernel_initializer":{"class_name":"VarianceScaling","config":{"scale":1,"mode":"fan_avg","distribution":"normal","seed":null}},"bias_initializer":{"class_name":"Zeros","config":{}},"kernel_regularizer":null,"bias_regularizer":null,"activity_regularizer":null,"kernel_constraint":null,"bias_constraint":null,"name":"dense_Dense1132","trainable":true},"inbound_nodes":[[["dense_Dense1131",0,0,{}]]]},{"name":"dense_Dense1133","class_name":"Dense","config":{"units":4,"activation":"relu","use_bias":true,"kernel_initializer":{"class_name":"VarianceScaling","config":{"scale":1,"mode":"fan_avg","distribution":"normal","seed":null}},"bias_initializer":{"class_name":"Zeros","config":{}},"kernel_regularizer":null,"bias_regularizer":null,"activity_regularizer":null,"kernel_constraint":null,"bias_constraint":null,"name":"dense_Dense1133","trainable":true},"inbound_nodes":[[["dense_Dense1132",0,0,{}]]]},{"name":"dense_Dense1134","class_name":"Dense","config":{"units":1,"activation":"sigmoid","use_bias":true,"kernel_initializer":{"class_name":"VarianceScaling","config":{"scale":1,"mode":"fan_avg","distribution":"normal","seed":null}},"bias_initializer":{"class_name":"Zeros","config":{}},"kernel_regularizer":null,"bias_regularizer":null,"activity_regularizer":null,"kernel_constraint":null,"bias_constraint":null,"name":"dense_Dense1134","trainable":true},"inbound_nodes":[[["dense_Dense1133",0,0,{}]]]}],"input_layers":[["input189",0,0]],"output_layers":[["dense_Dense1134",0,0]]},"keras_version":"tfjs-layers 3.9.0","backend":"tensor_flow.js"},"weightsManifest":[{"paths":["weights.bin"],"weights":[{"name":"dense_Dense1129/kernel","shape":[3,4],"dtype":"float32"},{"name":"dense_Dense1129/bias","shape":[4],"dtype":"float32"},{"name":"dense_Dense1130/kernel","shape":[4,1],"dtype":"float32"},{"name":"dense_Dense1130/bias","shape":[1],"dtype":"float32"},{"name":"dense_Dense1131/kernel","shape":[1,32],"dtype":"float32"},{"name":"dense_Dense1131/bias","shape":[32],"dtype":"float32"},{"name":"dense_Dense1132/kernel","shape":[32,2],"dtype":"float32"},{"name":"dense_Dense1132/bias","shape":[2],"dtype":"float32"},{"name":"dense_Dense1133/kernel","shape":[2,4],"dtype":"float32"},{"name":"dense_Dense1133/bias","shape":[4],"dtype":"float32"},{"name":"dense_Dense1134/kernel","shape":[4,1],"dtype":"float32"},{"name":"dense_Dense1134/bias","shape":[1],"dtype":"float32"}]}]}