{"modelTopology":{"class_name":"Model","config":{"name":"model137","layers":[{"name":"input137","class_name":"InputLayer","config":{"batch_input_shape":[null,3],"dtype":"float32","sparse":false,"name":"input137"},"inbound_nodes":[]},{"name":"dense_Dense817","class_name":"Dense","config":{"units":4,"activation":"relu","use_bias":true,"kernel_initializer":{"class_name":"VarianceScaling","config":{"scale":1,"mode":"fan_avg","distribution":"normal","seed":null}},"bias_initializer":{"class_name":"Zeros","config":{}},"kernel_regularizer":null,"bias_regularizer":null,"activity_regularizer":null,"kernel_constraint":null,"bias_constraint":null,"name":"dense_Dense817","trainable":true},"inbound_nodes":[[["input137",0,0,{}]]]},{"name":"dense_Dense818","class_name":"Dense","config":{"units":1,"activation":"relu","use_bias":true,"kernel_initializer":{"class_name":"VarianceScaling","config":{"scale":1,"mode":"fan_avg","distribution":"normal","seed":null}},"bias_initializer":{"class_name":"Zeros","config":{}},"kernel_regularizer":null,"bias_regularizer":null,"activity_regularizer":null,"kernel_constraint":null,"bias_constraint":null,"name":"dense_Dense818","trainable":true},"inbound_nodes":[[["dense_Dense817",0,0,{}]]]},{"name":"dense_Dense819","class_name":"Dense","config":{"units":8,"activation":"relu","use_bias":true,"kernel_initializer":{"class_name":"VarianceScaling","config":{"scale":1,"mode":"fan_avg","distribution":"normal","seed":null}},"bias_initializer":{"class_name":"Zeros","config":{}},"kernel_regularizer":null,"bias_regularizer":null,"activity_regularizer":null,"kernel_constraint":null,"bias_constraint":null,"name":"dense_Dense819","trainable":true},"inbound_nodes":[[["dense_Dense818",0,0,{}]]]},{"name":"dense_Dense820","class_name":"Dense","config":{"units":16,"activation":"relu","use_bias":true,"kernel_initializer":{"class_name":"VarianceScaling","config":{"scale":1,"mode":"fan_avg","distribution":"normal","seed":null}},"bias_initializer":{"class_name":"Zeros","config":{}},"kernel_regularizer":null,"bias_regularizer":null,"activity_regularizer":null,"kernel_constraint":null,"bias_constraint":null,"name":"dense_Dense820","trainable":true},"inbound_nodes":[[["dense_Dense819",0,0,{}]]]},{"name":"dense_Dense821","class_name":"Dense","config":{"units":16,"activation":"relu","use_bias":true,"kernel_initializer":{"class_name":"VarianceScaling","config":{"scale":1,"mode":"fan_avg","distribution":"normal","seed":null}},"bias_initializer":{"class_name":"Zeros","config":{}},"kernel_regularizer":null,"bias_regularizer":null,"activity_regularizer":null,"kernel_constraint":null,"bias_constraint":null,"name":"dense_Dense821","trainable":true},"inbound_nodes":[[["dense_Dense820",0,0,{}]]]},{"name":"dense_Dense822","class_name":"Dense","config":{"units":1,"activation":"sigmoid","use_bias":true,"kernel_initializer":{"class_name":"VarianceScaling","config":{"scale":1,"mode":"fan_avg","distribution":"normal","seed":null}},"bias_initializer":{"class_name":"Zeros","config":{}},"kernel_regularizer":null,"bias_regularizer":null,"activity_regularizer":null,"kernel_constraint":null,"bias_constraint":null,"name":"dense_Dense822","trainable":true},"inbound_nodes":[[["dense_Dense821",0,0,{}]]]}],"input_layers":[["input137",0,0]],"output_layers":[["dense_Dense822",0,0]]},"keras_version":"tfjs-layers 3.9.0","backend":"tensor_flow.js"},"weightsManifest":[{"paths":["weights.bin"],"weights":[{"name":"dense_Dense817/kernel","shape":[3,4],"dtype":"float32"},{"name":"dense_Dense817/bias","shape":[4],"dtype":"float32"},{"name":"dense_Dense818/kernel","shape":[4,1],"dtype":"float32"},{"name":"dense_Dense818/bias","shape":[1],"dtype":"float32"},{"name":"dense_Dense819/kernel","shape":[1,8],"dtype":"float32"},{"name":"dense_Dense819/bias","shape":[8],"dtype":"float32"},{"name":"dense_Dense820/kernel","shape":[8,16],"dtype":"float32"},{"name":"dense_Dense820/bias","shape":[16],"dtype":"float32"},{"name":"dense_Dense821/kernel","shape":[16,16],"dtype":"float32"},{"name":"dense_Dense821/bias","shape":[16],"dtype":"float32"},{"name":"dense_Dense822/kernel","shape":[16,1],"dtype":"float32"},{"name":"dense_Dense822/bias","shape":[1],"dtype":"float32"}]}]}