{"modelTopology":{"class_name":"Model","config":{"name":"model910","layers":[{"name":"input910","class_name":"InputLayer","config":{"batch_input_shape":[null,3],"dtype":"float32","sparse":false,"name":"input910"},"inbound_nodes":[]},{"name":"dense_Dense5455","class_name":"Dense","config":{"units":2,"activation":"relu","use_bias":true,"kernel_initializer":{"class_name":"VarianceScaling","config":{"scale":1,"mode":"fan_avg","distribution":"normal","seed":null}},"bias_initializer":{"class_name":"Zeros","config":{}},"kernel_regularizer":null,"bias_regularizer":null,"activity_regularizer":null,"kernel_constraint":null,"bias_constraint":null,"name":"dense_Dense5455","trainable":true},"inbound_nodes":[[["input910",0,0,{}]]]},{"name":"dense_Dense5456","class_name":"Dense","config":{"units":16,"activation":"relu","use_bias":true,"kernel_initializer":{"class_name":"VarianceScaling","config":{"scale":1,"mode":"fan_avg","distribution":"normal","seed":null}},"bias_initializer":{"class_name":"Zeros","config":{}},"kernel_regularizer":null,"bias_regularizer":null,"activity_regularizer":null,"kernel_constraint":null,"bias_constraint":null,"name":"dense_Dense5456","trainable":true},"inbound_nodes":[[["dense_Dense5455",0,0,{}]]]},{"name":"dense_Dense5457","class_name":"Dense","config":{"units":2,"activation":"relu","use_bias":true,"kernel_initializer":{"class_name":"VarianceScaling","config":{"scale":1,"mode":"fan_avg","distribution":"normal","seed":null}},"bias_initializer":{"class_name":"Zeros","config":{}},"kernel_regularizer":null,"bias_regularizer":null,"activity_regularizer":null,"kernel_constraint":null,"bias_constraint":null,"name":"dense_Dense5457","trainable":true},"inbound_nodes":[[["dense_Dense5456",0,0,{}]]]},{"name":"dense_Dense5458","class_name":"Dense","config":{"units":2,"activation":"relu","use_bias":true,"kernel_initializer":{"class_name":"VarianceScaling","config":{"scale":1,"mode":"fan_avg","distribution":"normal","seed":null}},"bias_initializer":{"class_name":"Zeros","config":{}},"kernel_regularizer":null,"bias_regularizer":null,"activity_regularizer":null,"kernel_constraint":null,"bias_constraint":null,"name":"dense_Dense5458","trainable":true},"inbound_nodes":[[["dense_Dense5457",0,0,{}]]]},{"name":"dense_Dense5459","class_name":"Dense","config":{"units":8,"activation":"relu","use_bias":true,"kernel_initializer":{"class_name":"VarianceScaling","config":{"scale":1,"mode":"fan_avg","distribution":"normal","seed":null}},"bias_initializer":{"class_name":"Zeros","config":{}},"kernel_regularizer":null,"bias_regularizer":null,"activity_regularizer":null,"kernel_constraint":null,"bias_constraint":null,"name":"dense_Dense5459","trainable":true},"inbound_nodes":[[["dense_Dense5458",0,0,{}]]]},{"name":"dense_Dense5460","class_name":"Dense","config":{"units":1,"activation":"sigmoid","use_bias":true,"kernel_initializer":{"class_name":"VarianceScaling","config":{"scale":1,"mode":"fan_avg","distribution":"normal","seed":null}},"bias_initializer":{"class_name":"Zeros","config":{}},"kernel_regularizer":null,"bias_regularizer":null,"activity_regularizer":null,"kernel_constraint":null,"bias_constraint":null,"name":"dense_Dense5460","trainable":true},"inbound_nodes":[[["dense_Dense5459",0,0,{}]]]}],"input_layers":[["input910",0,0]],"output_layers":[["dense_Dense5460",0,0]]},"keras_version":"tfjs-layers 3.9.0","backend":"tensor_flow.js"},"weightsManifest":[{"paths":["weights.bin"],"weights":[{"name":"dense_Dense5455/kernel","shape":[3,2],"dtype":"float32"},{"name":"dense_Dense5455/bias","shape":[2],"dtype":"float32"},{"name":"dense_Dense5456/kernel","shape":[2,16],"dtype":"float32"},{"name":"dense_Dense5456/bias","shape":[16],"dtype":"float32"},{"name":"dense_Dense5457/kernel","shape":[16,2],"dtype":"float32"},{"name":"dense_Dense5457/bias","shape":[2],"dtype":"float32"},{"name":"dense_Dense5458/kernel","shape":[2,2],"dtype":"float32"},{"name":"dense_Dense5458/bias","shape":[2],"dtype":"float32"},{"name":"dense_Dense5459/kernel","shape":[2,8],"dtype":"float32"},{"name":"dense_Dense5459/bias","shape":[8],"dtype":"float32"},{"name":"dense_Dense5460/kernel","shape":[8,1],"dtype":"float32"},{"name":"dense_Dense5460/bias","shape":[1],"dtype":"float32"}]}]}