{"modelTopology":{"class_name":"Model","config":{"name":"model190","layers":[{"name":"input190","class_name":"InputLayer","config":{"batch_input_shape":[null,3],"dtype":"float32","sparse":false,"name":"input190"},"inbound_nodes":[]},{"name":"dense_Dense1135","class_name":"Dense","config":{"units":4,"activation":"relu","use_bias":true,"kernel_initializer":{"class_name":"VarianceScaling","config":{"scale":1,"mode":"fan_avg","distribution":"normal","seed":null}},"bias_initializer":{"class_name":"Zeros","config":{}},"kernel_regularizer":null,"bias_regularizer":null,"activity_regularizer":null,"kernel_constraint":null,"bias_constraint":null,"name":"dense_Dense1135","trainable":true},"inbound_nodes":[[["input190",0,0,{}]]]},{"name":"dense_Dense1136","class_name":"Dense","config":{"units":1,"activation":"relu","use_bias":true,"kernel_initializer":{"class_name":"VarianceScaling","config":{"scale":1,"mode":"fan_avg","distribution":"normal","seed":null}},"bias_initializer":{"class_name":"Zeros","config":{}},"kernel_regularizer":null,"bias_regularizer":null,"activity_regularizer":null,"kernel_constraint":null,"bias_constraint":null,"name":"dense_Dense1136","trainable":true},"inbound_nodes":[[["dense_Dense1135",0,0,{}]]]},{"name":"dense_Dense1137","class_name":"Dense","config":{"units":32,"activation":"relu","use_bias":true,"kernel_initializer":{"class_name":"VarianceScaling","config":{"scale":1,"mode":"fan_avg","distribution":"normal","seed":null}},"bias_initializer":{"class_name":"Zeros","config":{}},"kernel_regularizer":null,"bias_regularizer":null,"activity_regularizer":null,"kernel_constraint":null,"bias_constraint":null,"name":"dense_Dense1137","trainable":true},"inbound_nodes":[[["dense_Dense1136",0,0,{}]]]},{"name":"dense_Dense1138","class_name":"Dense","config":{"units":2,"activation":"relu","use_bias":true,"kernel_initializer":{"class_name":"VarianceScaling","config":{"scale":1,"mode":"fan_avg","distribution":"normal","seed":null}},"bias_initializer":{"class_name":"Zeros","config":{}},"kernel_regularizer":null,"bias_regularizer":null,"activity_regularizer":null,"kernel_constraint":null,"bias_constraint":null,"name":"dense_Dense1138","trainable":true},"inbound_nodes":[[["dense_Dense1137",0,0,{}]]]},{"name":"dense_Dense1139","class_name":"Dense","config":{"units":8,"activation":"relu","use_bias":true,"kernel_initializer":{"class_name":"VarianceScaling","config":{"scale":1,"mode":"fan_avg","distribution":"normal","seed":null}},"bias_initializer":{"class_name":"Zeros","config":{}},"kernel_regularizer":null,"bias_regularizer":null,"activity_regularizer":null,"kernel_constraint":null,"bias_constraint":null,"name":"dense_Dense1139","trainable":true},"inbound_nodes":[[["dense_Dense1138",0,0,{}]]]},{"name":"dense_Dense1140","class_name":"Dense","config":{"units":1,"activation":"sigmoid","use_bias":true,"kernel_initializer":{"class_name":"VarianceScaling","config":{"scale":1,"mode":"fan_avg","distribution":"normal","seed":null}},"bias_initializer":{"class_name":"Zeros","config":{}},"kernel_regularizer":null,"bias_regularizer":null,"activity_regularizer":null,"kernel_constraint":null,"bias_constraint":null,"name":"dense_Dense1140","trainable":true},"inbound_nodes":[[["dense_Dense1139",0,0,{}]]]}],"input_layers":[["input190",0,0]],"output_layers":[["dense_Dense1140",0,0]]},"keras_version":"tfjs-layers 3.9.0","backend":"tensor_flow.js"},"weightsManifest":[{"paths":["weights.bin"],"weights":[{"name":"dense_Dense1135/kernel","shape":[3,4],"dtype":"float32"},{"name":"dense_Dense1135/bias","shape":[4],"dtype":"float32"},{"name":"dense_Dense1136/kernel","shape":[4,1],"dtype":"float32"},{"name":"dense_Dense1136/bias","shape":[1],"dtype":"float32"},{"name":"dense_Dense1137/kernel","shape":[1,32],"dtype":"float32"},{"name":"dense_Dense1137/bias","shape":[32],"dtype":"float32"},{"name":"dense_Dense1138/kernel","shape":[32,2],"dtype":"float32"},{"name":"dense_Dense1138/bias","shape":[2],"dtype":"float32"},{"name":"dense_Dense1139/kernel","shape":[2,8],"dtype":"float32"},{"name":"dense_Dense1139/bias","shape":[8],"dtype":"float32"},{"name":"dense_Dense1140/kernel","shape":[8,1],"dtype":"float32"},{"name":"dense_Dense1140/bias","shape":[1],"dtype":"float32"}]}]}