{"modelTopology":{"class_name":"Model","config":{"name":"model492","layers":[{"name":"input492","class_name":"InputLayer","config":{"batch_input_shape":[null,3],"dtype":"float32","sparse":false,"name":"input492"},"inbound_nodes":[]},{"name":"dense_Dense2456","class_name":"Dense","config":{"units":4,"activation":"relu","use_bias":true,"kernel_initializer":{"class_name":"VarianceScaling","config":{"scale":1,"mode":"fan_avg","distribution":"normal","seed":null}},"bias_initializer":{"class_name":"Zeros","config":{}},"kernel_regularizer":null,"bias_regularizer":null,"activity_regularizer":null,"kernel_constraint":null,"bias_constraint":null,"name":"dense_Dense2456","trainable":true},"inbound_nodes":[[["input492",0,0,{}]]]},{"name":"dense_Dense2457","class_name":"Dense","config":{"units":2,"activation":"relu","use_bias":true,"kernel_initializer":{"class_name":"VarianceScaling","config":{"scale":1,"mode":"fan_avg","distribution":"normal","seed":null}},"bias_initializer":{"class_name":"Zeros","config":{}},"kernel_regularizer":null,"bias_regularizer":null,"activity_regularizer":null,"kernel_constraint":null,"bias_constraint":null,"name":"dense_Dense2457","trainable":true},"inbound_nodes":[[["dense_Dense2456",0,0,{}]]]},{"name":"dense_Dense2458","class_name":"Dense","config":{"units":8,"activation":"relu","use_bias":true,"kernel_initializer":{"class_name":"VarianceScaling","config":{"scale":1,"mode":"fan_avg","distribution":"normal","seed":null}},"bias_initializer":{"class_name":"Zeros","config":{}},"kernel_regularizer":null,"bias_regularizer":null,"activity_regularizer":null,"kernel_constraint":null,"bias_constraint":null,"name":"dense_Dense2458","trainable":true},"inbound_nodes":[[["dense_Dense2457",0,0,{}]]]},{"name":"dense_Dense2459","class_name":"Dense","config":{"units":32,"activation":"relu","use_bias":true,"kernel_initializer":{"class_name":"VarianceScaling","config":{"scale":1,"mode":"fan_avg","distribution":"normal","seed":null}},"bias_initializer":{"class_name":"Zeros","config":{}},"kernel_regularizer":null,"bias_regularizer":null,"activity_regularizer":null,"kernel_constraint":null,"bias_constraint":null,"name":"dense_Dense2459","trainable":true},"inbound_nodes":[[["dense_Dense2458",0,0,{}]]]},{"name":"dense_Dense2460","class_name":"Dense","config":{"units":1,"activation":"sigmoid","use_bias":true,"kernel_initializer":{"class_name":"VarianceScaling","config":{"scale":1,"mode":"fan_avg","distribution":"normal","seed":null}},"bias_initializer":{"class_name":"Zeros","config":{}},"kernel_regularizer":null,"bias_regularizer":null,"activity_regularizer":null,"kernel_constraint":null,"bias_constraint":null,"name":"dense_Dense2460","trainable":true},"inbound_nodes":[[["dense_Dense2459",0,0,{}]]]}],"input_layers":[["input492",0,0]],"output_layers":[["dense_Dense2460",0,0]]},"keras_version":"tfjs-layers 3.9.0","backend":"tensor_flow.js"},"weightsManifest":[{"paths":["weights.bin"],"weights":[{"name":"dense_Dense2456/kernel","shape":[3,4],"dtype":"float32"},{"name":"dense_Dense2456/bias","shape":[4],"dtype":"float32"},{"name":"dense_Dense2457/kernel","shape":[4,2],"dtype":"float32"},{"name":"dense_Dense2457/bias","shape":[2],"dtype":"float32"},{"name":"dense_Dense2458/kernel","shape":[2,8],"dtype":"float32"},{"name":"dense_Dense2458/bias","shape":[8],"dtype":"float32"},{"name":"dense_Dense2459/kernel","shape":[8,32],"dtype":"float32"},{"name":"dense_Dense2459/bias","shape":[32],"dtype":"float32"},{"name":"dense_Dense2460/kernel","shape":[32,1],"dtype":"float32"},{"name":"dense_Dense2460/bias","shape":[1],"dtype":"float32"}]}]}