{"modelTopology":{"class_name":"Model","config":{"name":"model538","layers":[{"name":"input538","class_name":"InputLayer","config":{"batch_input_shape":[null,3],"dtype":"float32","sparse":false,"name":"input538"},"inbound_nodes":[]},{"name":"dense_Dense3223","class_name":"Dense","config":{"units":16,"activation":"relu","use_bias":true,"kernel_initializer":{"class_name":"VarianceScaling","config":{"scale":1,"mode":"fan_avg","distribution":"normal","seed":null}},"bias_initializer":{"class_name":"Zeros","config":{}},"kernel_regularizer":null,"bias_regularizer":null,"activity_regularizer":null,"kernel_constraint":null,"bias_constraint":null,"name":"dense_Dense3223","trainable":true},"inbound_nodes":[[["input538",0,0,{}]]]},{"name":"dense_Dense3224","class_name":"Dense","config":{"units":4,"activation":"relu","use_bias":true,"kernel_initializer":{"class_name":"VarianceScaling","config":{"scale":1,"mode":"fan_avg","distribution":"normal","seed":null}},"bias_initializer":{"class_name":"Zeros","config":{}},"kernel_regularizer":null,"bias_regularizer":null,"activity_regularizer":null,"kernel_constraint":null,"bias_constraint":null,"name":"dense_Dense3224","trainable":true},"inbound_nodes":[[["dense_Dense3223",0,0,{}]]]},{"name":"dense_Dense3225","class_name":"Dense","config":{"units":4,"activation":"relu","use_bias":true,"kernel_initializer":{"class_name":"VarianceScaling","config":{"scale":1,"mode":"fan_avg","distribution":"normal","seed":null}},"bias_initializer":{"class_name":"Zeros","config":{}},"kernel_regularizer":null,"bias_regularizer":null,"activity_regularizer":null,"kernel_constraint":null,"bias_constraint":null,"name":"dense_Dense3225","trainable":true},"inbound_nodes":[[["dense_Dense3224",0,0,{}]]]},{"name":"dense_Dense3226","class_name":"Dense","config":{"units":32,"activation":"relu","use_bias":true,"kernel_initializer":{"class_name":"VarianceScaling","config":{"scale":1,"mode":"fan_avg","distribution":"normal","seed":null}},"bias_initializer":{"class_name":"Zeros","config":{}},"kernel_regularizer":null,"bias_regularizer":null,"activity_regularizer":null,"kernel_constraint":null,"bias_constraint":null,"name":"dense_Dense3226","trainable":true},"inbound_nodes":[[["dense_Dense3225",0,0,{}]]]},{"name":"dense_Dense3227","class_name":"Dense","config":{"units":8,"activation":"relu","use_bias":true,"kernel_initializer":{"class_name":"VarianceScaling","config":{"scale":1,"mode":"fan_avg","distribution":"normal","seed":null}},"bias_initializer":{"class_name":"Zeros","config":{}},"kernel_regularizer":null,"bias_regularizer":null,"activity_regularizer":null,"kernel_constraint":null,"bias_constraint":null,"name":"dense_Dense3227","trainable":true},"inbound_nodes":[[["dense_Dense3226",0,0,{}]]]},{"name":"dense_Dense3228","class_name":"Dense","config":{"units":1,"activation":"sigmoid","use_bias":true,"kernel_initializer":{"class_name":"VarianceScaling","config":{"scale":1,"mode":"fan_avg","distribution":"normal","seed":null}},"bias_initializer":{"class_name":"Zeros","config":{}},"kernel_regularizer":null,"bias_regularizer":null,"activity_regularizer":null,"kernel_constraint":null,"bias_constraint":null,"name":"dense_Dense3228","trainable":true},"inbound_nodes":[[["dense_Dense3227",0,0,{}]]]}],"input_layers":[["input538",0,0]],"output_layers":[["dense_Dense3228",0,0]]},"keras_version":"tfjs-layers 3.9.0","backend":"tensor_flow.js"},"weightsManifest":[{"paths":["weights.bin"],"weights":[{"name":"dense_Dense3223/kernel","shape":[3,16],"dtype":"float32"},{"name":"dense_Dense3223/bias","shape":[16],"dtype":"float32"},{"name":"dense_Dense3224/kernel","shape":[16,4],"dtype":"float32"},{"name":"dense_Dense3224/bias","shape":[4],"dtype":"float32"},{"name":"dense_Dense3225/kernel","shape":[4,4],"dtype":"float32"},{"name":"dense_Dense3225/bias","shape":[4],"dtype":"float32"},{"name":"dense_Dense3226/kernel","shape":[4,32],"dtype":"float32"},{"name":"dense_Dense3226/bias","shape":[32],"dtype":"float32"},{"name":"dense_Dense3227/kernel","shape":[32,8],"dtype":"float32"},{"name":"dense_Dense3227/bias","shape":[8],"dtype":"float32"},{"name":"dense_Dense3228/kernel","shape":[8,1],"dtype":"float32"},{"name":"dense_Dense3228/bias","shape":[1],"dtype":"float32"}]}]}