{"modelTopology":{"class_name":"Model","config":{"name":"model8","layers":[{"name":"input8","class_name":"InputLayer","config":{"batch_input_shape":[null,3],"dtype":"float32","sparse":false,"name":"input8"},"inbound_nodes":[]},{"name":"dense_Dense29","class_name":"Dense","config":{"units":1,"activation":"relu","use_bias":true,"kernel_initializer":{"class_name":"VarianceScaling","config":{"scale":1,"mode":"fan_avg","distribution":"normal","seed":null}},"bias_initializer":{"class_name":"Zeros","config":{}},"kernel_regularizer":null,"bias_regularizer":null,"activity_regularizer":null,"kernel_constraint":null,"bias_constraint":null,"name":"dense_Dense29","trainable":true},"inbound_nodes":[[["input8",0,0,{}]]]},{"name":"dense_Dense30","class_name":"Dense","config":{"units":2,"activation":"relu","use_bias":true,"kernel_initializer":{"class_name":"VarianceScaling","config":{"scale":1,"mode":"fan_avg","distribution":"normal","seed":null}},"bias_initializer":{"class_name":"Zeros","config":{}},"kernel_regularizer":null,"bias_regularizer":null,"activity_regularizer":null,"kernel_constraint":null,"bias_constraint":null,"name":"dense_Dense30","trainable":true},"inbound_nodes":[[["dense_Dense29",0,0,{}]]]},{"name":"dense_Dense31","class_name":"Dense","config":{"units":2,"activation":"relu","use_bias":true,"kernel_initializer":{"class_name":"VarianceScaling","config":{"scale":1,"mode":"fan_avg","distribution":"normal","seed":null}},"bias_initializer":{"class_name":"Zeros","config":{}},"kernel_regularizer":null,"bias_regularizer":null,"activity_regularizer":null,"kernel_constraint":null,"bias_constraint":null,"name":"dense_Dense31","trainable":true},"inbound_nodes":[[["dense_Dense30",0,0,{}]]]},{"name":"dense_Dense32","class_name":"Dense","config":{"units":1,"activation":"sigmoid","use_bias":true,"kernel_initializer":{"class_name":"VarianceScaling","config":{"scale":1,"mode":"fan_avg","distribution":"normal","seed":null}},"bias_initializer":{"class_name":"Zeros","config":{}},"kernel_regularizer":null,"bias_regularizer":null,"activity_regularizer":null,"kernel_constraint":null,"bias_constraint":null,"name":"dense_Dense32","trainable":true},"inbound_nodes":[[["dense_Dense31",0,0,{}]]]}],"input_layers":[["input8",0,0]],"output_layers":[["dense_Dense32",0,0]]},"keras_version":"tfjs-layers 3.9.0","backend":"tensor_flow.js"},"weightsManifest":[{"paths":["weights.bin"],"weights":[{"name":"dense_Dense29/kernel","shape":[3,1],"dtype":"float32"},{"name":"dense_Dense29/bias","shape":[1],"dtype":"float32"},{"name":"dense_Dense30/kernel","shape":[1,2],"dtype":"float32"},{"name":"dense_Dense30/bias","shape":[2],"dtype":"float32"},{"name":"dense_Dense31/kernel","shape":[2,2],"dtype":"float32"},{"name":"dense_Dense31/bias","shape":[2],"dtype":"float32"},{"name":"dense_Dense32/kernel","shape":[2,1],"dtype":"float32"},{"name":"dense_Dense32/bias","shape":[1],"dtype":"float32"}]}]}