{"modelTopology":{"class_name":"Model","config":{"name":"model1078","layers":[{"name":"input1078","class_name":"InputLayer","config":{"batch_input_shape":[null,3],"dtype":"float32","sparse":false,"name":"input1078"},"inbound_nodes":[]},{"name":"dense_Dense5386","class_name":"Dense","config":{"units":16,"activation":"relu","use_bias":true,"kernel_initializer":{"class_name":"VarianceScaling","config":{"scale":1,"mode":"fan_avg","distribution":"normal","seed":null}},"bias_initializer":{"class_name":"Zeros","config":{}},"kernel_regularizer":null,"bias_regularizer":null,"activity_regularizer":null,"kernel_constraint":null,"bias_constraint":null,"name":"dense_Dense5386","trainable":true},"inbound_nodes":[[["input1078",0,0,{}]]]},{"name":"dense_Dense5387","class_name":"Dense","config":{"units":32,"activation":"relu","use_bias":true,"kernel_initializer":{"class_name":"VarianceScaling","config":{"scale":1,"mode":"fan_avg","distribution":"normal","seed":null}},"bias_initializer":{"class_name":"Zeros","config":{}},"kernel_regularizer":null,"bias_regularizer":null,"activity_regularizer":null,"kernel_constraint":null,"bias_constraint":null,"name":"dense_Dense5387","trainable":true},"inbound_nodes":[[["dense_Dense5386",0,0,{}]]]},{"name":"dense_Dense5388","class_name":"Dense","config":{"units":32,"activation":"relu","use_bias":true,"kernel_initializer":{"class_name":"VarianceScaling","config":{"scale":1,"mode":"fan_avg","distribution":"normal","seed":null}},"bias_initializer":{"class_name":"Zeros","config":{}},"kernel_regularizer":null,"bias_regularizer":null,"activity_regularizer":null,"kernel_constraint":null,"bias_constraint":null,"name":"dense_Dense5388","trainable":true},"inbound_nodes":[[["dense_Dense5387",0,0,{}]]]},{"name":"dense_Dense5389","class_name":"Dense","config":{"units":8,"activation":"relu","use_bias":true,"kernel_initializer":{"class_name":"VarianceScaling","config":{"scale":1,"mode":"fan_avg","distribution":"normal","seed":null}},"bias_initializer":{"class_name":"Zeros","config":{}},"kernel_regularizer":null,"bias_regularizer":null,"activity_regularizer":null,"kernel_constraint":null,"bias_constraint":null,"name":"dense_Dense5389","trainable":true},"inbound_nodes":[[["dense_Dense5388",0,0,{}]]]},{"name":"dense_Dense5390","class_name":"Dense","config":{"units":1,"activation":"sigmoid","use_bias":true,"kernel_initializer":{"class_name":"VarianceScaling","config":{"scale":1,"mode":"fan_avg","distribution":"normal","seed":null}},"bias_initializer":{"class_name":"Zeros","config":{}},"kernel_regularizer":null,"bias_regularizer":null,"activity_regularizer":null,"kernel_constraint":null,"bias_constraint":null,"name":"dense_Dense5390","trainable":true},"inbound_nodes":[[["dense_Dense5389",0,0,{}]]]}],"input_layers":[["input1078",0,0]],"output_layers":[["dense_Dense5390",0,0]]},"keras_version":"tfjs-layers 3.9.0","backend":"tensor_flow.js"},"weightsManifest":[{"paths":["weights.bin"],"weights":[{"name":"dense_Dense5386/kernel","shape":[3,16],"dtype":"float32"},{"name":"dense_Dense5386/bias","shape":[16],"dtype":"float32"},{"name":"dense_Dense5387/kernel","shape":[16,32],"dtype":"float32"},{"name":"dense_Dense5387/bias","shape":[32],"dtype":"float32"},{"name":"dense_Dense5388/kernel","shape":[32,32],"dtype":"float32"},{"name":"dense_Dense5388/bias","shape":[32],"dtype":"float32"},{"name":"dense_Dense5389/kernel","shape":[32,8],"dtype":"float32"},{"name":"dense_Dense5389/bias","shape":[8],"dtype":"float32"},{"name":"dense_Dense5390/kernel","shape":[8,1],"dtype":"float32"},{"name":"dense_Dense5390/bias","shape":[1],"dtype":"float32"}]}]}