{"modelTopology":{"class_name":"Model","config":{"name":"model499","layers":[{"name":"input499","class_name":"InputLayer","config":{"batch_input_shape":[null,3],"dtype":"float32","sparse":false,"name":"input499"},"inbound_nodes":[]},{"name":"dense_Dense2989","class_name":"Dense","config":{"units":2,"activation":"relu","use_bias":true,"kernel_initializer":{"class_name":"VarianceScaling","config":{"scale":1,"mode":"fan_avg","distribution":"normal","seed":null}},"bias_initializer":{"class_name":"Zeros","config":{}},"kernel_regularizer":null,"bias_regularizer":null,"activity_regularizer":null,"kernel_constraint":null,"bias_constraint":null,"name":"dense_Dense2989","trainable":true},"inbound_nodes":[[["input499",0,0,{}]]]},{"name":"dense_Dense2990","class_name":"Dense","config":{"units":4,"activation":"relu","use_bias":true,"kernel_initializer":{"class_name":"VarianceScaling","config":{"scale":1,"mode":"fan_avg","distribution":"normal","seed":null}},"bias_initializer":{"class_name":"Zeros","config":{}},"kernel_regularizer":null,"bias_regularizer":null,"activity_regularizer":null,"kernel_constraint":null,"bias_constraint":null,"name":"dense_Dense2990","trainable":true},"inbound_nodes":[[["dense_Dense2989",0,0,{}]]]},{"name":"dense_Dense2991","class_name":"Dense","config":{"units":2,"activation":"relu","use_bias":true,"kernel_initializer":{"class_name":"VarianceScaling","config":{"scale":1,"mode":"fan_avg","distribution":"normal","seed":null}},"bias_initializer":{"class_name":"Zeros","config":{}},"kernel_regularizer":null,"bias_regularizer":null,"activity_regularizer":null,"kernel_constraint":null,"bias_constraint":null,"name":"dense_Dense2991","trainable":true},"inbound_nodes":[[["dense_Dense2990",0,0,{}]]]},{"name":"dense_Dense2992","class_name":"Dense","config":{"units":32,"activation":"relu","use_bias":true,"kernel_initializer":{"class_name":"VarianceScaling","config":{"scale":1,"mode":"fan_avg","distribution":"normal","seed":null}},"bias_initializer":{"class_name":"Zeros","config":{}},"kernel_regularizer":null,"bias_regularizer":null,"activity_regularizer":null,"kernel_constraint":null,"bias_constraint":null,"name":"dense_Dense2992","trainable":true},"inbound_nodes":[[["dense_Dense2991",0,0,{}]]]},{"name":"dense_Dense2993","class_name":"Dense","config":{"units":1,"activation":"relu","use_bias":true,"kernel_initializer":{"class_name":"VarianceScaling","config":{"scale":1,"mode":"fan_avg","distribution":"normal","seed":null}},"bias_initializer":{"class_name":"Zeros","config":{}},"kernel_regularizer":null,"bias_regularizer":null,"activity_regularizer":null,"kernel_constraint":null,"bias_constraint":null,"name":"dense_Dense2993","trainable":true},"inbound_nodes":[[["dense_Dense2992",0,0,{}]]]},{"name":"dense_Dense2994","class_name":"Dense","config":{"units":1,"activation":"sigmoid","use_bias":true,"kernel_initializer":{"class_name":"VarianceScaling","config":{"scale":1,"mode":"fan_avg","distribution":"normal","seed":null}},"bias_initializer":{"class_name":"Zeros","config":{}},"kernel_regularizer":null,"bias_regularizer":null,"activity_regularizer":null,"kernel_constraint":null,"bias_constraint":null,"name":"dense_Dense2994","trainable":true},"inbound_nodes":[[["dense_Dense2993",0,0,{}]]]}],"input_layers":[["input499",0,0]],"output_layers":[["dense_Dense2994",0,0]]},"keras_version":"tfjs-layers 3.9.0","backend":"tensor_flow.js"},"weightsManifest":[{"paths":["weights.bin"],"weights":[{"name":"dense_Dense2989/kernel","shape":[3,2],"dtype":"float32"},{"name":"dense_Dense2989/bias","shape":[2],"dtype":"float32"},{"name":"dense_Dense2990/kernel","shape":[2,4],"dtype":"float32"},{"name":"dense_Dense2990/bias","shape":[4],"dtype":"float32"},{"name":"dense_Dense2991/kernel","shape":[4,2],"dtype":"float32"},{"name":"dense_Dense2991/bias","shape":[2],"dtype":"float32"},{"name":"dense_Dense2992/kernel","shape":[2,32],"dtype":"float32"},{"name":"dense_Dense2992/bias","shape":[32],"dtype":"float32"},{"name":"dense_Dense2993/kernel","shape":[32,1],"dtype":"float32"},{"name":"dense_Dense2993/bias","shape":[1],"dtype":"float32"},{"name":"dense_Dense2994/kernel","shape":[1,1],"dtype":"float32"},{"name":"dense_Dense2994/bias","shape":[1],"dtype":"float32"}]}]}