{"modelTopology":{"class_name":"Model","config":{"name":"model143","layers":[{"name":"input143","class_name":"InputLayer","config":{"batch_input_shape":[null,3],"dtype":"float32","sparse":false,"name":"input143"},"inbound_nodes":[]},{"name":"dense_Dense569","class_name":"Dense","config":{"units":8,"activation":"relu","use_bias":true,"kernel_initializer":{"class_name":"VarianceScaling","config":{"scale":1,"mode":"fan_avg","distribution":"normal","seed":null}},"bias_initializer":{"class_name":"Zeros","config":{}},"kernel_regularizer":null,"bias_regularizer":null,"activity_regularizer":null,"kernel_constraint":null,"bias_constraint":null,"name":"dense_Dense569","trainable":true},"inbound_nodes":[[["input143",0,0,{}]]]},{"name":"dense_Dense570","class_name":"Dense","config":{"units":32,"activation":"relu","use_bias":true,"kernel_initializer":{"class_name":"VarianceScaling","config":{"scale":1,"mode":"fan_avg","distribution":"normal","seed":null}},"bias_initializer":{"class_name":"Zeros","config":{}},"kernel_regularizer":null,"bias_regularizer":null,"activity_regularizer":null,"kernel_constraint":null,"bias_constraint":null,"name":"dense_Dense570","trainable":true},"inbound_nodes":[[["dense_Dense569",0,0,{}]]]},{"name":"dense_Dense571","class_name":"Dense","config":{"units":16,"activation":"relu","use_bias":true,"kernel_initializer":{"class_name":"VarianceScaling","config":{"scale":1,"mode":"fan_avg","distribution":"normal","seed":null}},"bias_initializer":{"class_name":"Zeros","config":{}},"kernel_regularizer":null,"bias_regularizer":null,"activity_regularizer":null,"kernel_constraint":null,"bias_constraint":null,"name":"dense_Dense571","trainable":true},"inbound_nodes":[[["dense_Dense570",0,0,{}]]]},{"name":"dense_Dense572","class_name":"Dense","config":{"units":1,"activation":"sigmoid","use_bias":true,"kernel_initializer":{"class_name":"VarianceScaling","config":{"scale":1,"mode":"fan_avg","distribution":"normal","seed":null}},"bias_initializer":{"class_name":"Zeros","config":{}},"kernel_regularizer":null,"bias_regularizer":null,"activity_regularizer":null,"kernel_constraint":null,"bias_constraint":null,"name":"dense_Dense572","trainable":true},"inbound_nodes":[[["dense_Dense571",0,0,{}]]]}],"input_layers":[["input143",0,0]],"output_layers":[["dense_Dense572",0,0]]},"keras_version":"tfjs-layers 3.9.0","backend":"tensor_flow.js"},"weightsManifest":[{"paths":["weights.bin"],"weights":[{"name":"dense_Dense569/kernel","shape":[3,8],"dtype":"float32"},{"name":"dense_Dense569/bias","shape":[8],"dtype":"float32"},{"name":"dense_Dense570/kernel","shape":[8,32],"dtype":"float32"},{"name":"dense_Dense570/bias","shape":[32],"dtype":"float32"},{"name":"dense_Dense571/kernel","shape":[32,16],"dtype":"float32"},{"name":"dense_Dense571/bias","shape":[16],"dtype":"float32"},{"name":"dense_Dense572/kernel","shape":[16,1],"dtype":"float32"},{"name":"dense_Dense572/bias","shape":[1],"dtype":"float32"}]}]}