{"modelTopology":{"class_name":"Model","config":{"name":"model1103","layers":[{"name":"input1103","class_name":"InputLayer","config":{"batch_input_shape":[null,3],"dtype":"float32","sparse":false,"name":"input1103"},"inbound_nodes":[]},{"name":"dense_Dense5511","class_name":"Dense","config":{"units":32,"activation":"relu","use_bias":true,"kernel_initializer":{"class_name":"VarianceScaling","config":{"scale":1,"mode":"fan_avg","distribution":"normal","seed":null}},"bias_initializer":{"class_name":"Zeros","config":{}},"kernel_regularizer":null,"bias_regularizer":null,"activity_regularizer":null,"kernel_constraint":null,"bias_constraint":null,"name":"dense_Dense5511","trainable":true},"inbound_nodes":[[["input1103",0,0,{}]]]},{"name":"dense_Dense5512","class_name":"Dense","config":{"units":1,"activation":"relu","use_bias":true,"kernel_initializer":{"class_name":"VarianceScaling","config":{"scale":1,"mode":"fan_avg","distribution":"normal","seed":null}},"bias_initializer":{"class_name":"Zeros","config":{}},"kernel_regularizer":null,"bias_regularizer":null,"activity_regularizer":null,"kernel_constraint":null,"bias_constraint":null,"name":"dense_Dense5512","trainable":true},"inbound_nodes":[[["dense_Dense5511",0,0,{}]]]},{"name":"dense_Dense5513","class_name":"Dense","config":{"units":8,"activation":"relu","use_bias":true,"kernel_initializer":{"class_name":"VarianceScaling","config":{"scale":1,"mode":"fan_avg","distribution":"normal","seed":null}},"bias_initializer":{"class_name":"Zeros","config":{}},"kernel_regularizer":null,"bias_regularizer":null,"activity_regularizer":null,"kernel_constraint":null,"bias_constraint":null,"name":"dense_Dense5513","trainable":true},"inbound_nodes":[[["dense_Dense5512",0,0,{}]]]},{"name":"dense_Dense5514","class_name":"Dense","config":{"units":16,"activation":"relu","use_bias":true,"kernel_initializer":{"class_name":"VarianceScaling","config":{"scale":1,"mode":"fan_avg","distribution":"normal","seed":null}},"bias_initializer":{"class_name":"Zeros","config":{}},"kernel_regularizer":null,"bias_regularizer":null,"activity_regularizer":null,"kernel_constraint":null,"bias_constraint":null,"name":"dense_Dense5514","trainable":true},"inbound_nodes":[[["dense_Dense5513",0,0,{}]]]},{"name":"dense_Dense5515","class_name":"Dense","config":{"units":1,"activation":"sigmoid","use_bias":true,"kernel_initializer":{"class_name":"VarianceScaling","config":{"scale":1,"mode":"fan_avg","distribution":"normal","seed":null}},"bias_initializer":{"class_name":"Zeros","config":{}},"kernel_regularizer":null,"bias_regularizer":null,"activity_regularizer":null,"kernel_constraint":null,"bias_constraint":null,"name":"dense_Dense5515","trainable":true},"inbound_nodes":[[["dense_Dense5514",0,0,{}]]]}],"input_layers":[["input1103",0,0]],"output_layers":[["dense_Dense5515",0,0]]},"keras_version":"tfjs-layers 3.9.0","backend":"tensor_flow.js"},"weightsManifest":[{"paths":["weights.bin"],"weights":[{"name":"dense_Dense5511/kernel","shape":[3,32],"dtype":"float32"},{"name":"dense_Dense5511/bias","shape":[32],"dtype":"float32"},{"name":"dense_Dense5512/kernel","shape":[32,1],"dtype":"float32"},{"name":"dense_Dense5512/bias","shape":[1],"dtype":"float32"},{"name":"dense_Dense5513/kernel","shape":[1,8],"dtype":"float32"},{"name":"dense_Dense5513/bias","shape":[8],"dtype":"float32"},{"name":"dense_Dense5514/kernel","shape":[8,16],"dtype":"float32"},{"name":"dense_Dense5514/bias","shape":[16],"dtype":"float32"},{"name":"dense_Dense5515/kernel","shape":[16,1],"dtype":"float32"},{"name":"dense_Dense5515/bias","shape":[1],"dtype":"float32"}]}]}