{"modelTopology":{"class_name":"Model","config":{"name":"model740","layers":[{"name":"input740","class_name":"InputLayer","config":{"batch_input_shape":[null,3],"dtype":"float32","sparse":false,"name":"input740"},"inbound_nodes":[]},{"name":"dense_Dense4435","class_name":"Dense","config":{"units":8,"activation":"relu","use_bias":true,"kernel_initializer":{"class_name":"VarianceScaling","config":{"scale":1,"mode":"fan_avg","distribution":"normal","seed":null}},"bias_initializer":{"class_name":"Zeros","config":{}},"kernel_regularizer":null,"bias_regularizer":null,"activity_regularizer":null,"kernel_constraint":null,"bias_constraint":null,"name":"dense_Dense4435","trainable":true},"inbound_nodes":[[["input740",0,0,{}]]]},{"name":"dense_Dense4436","class_name":"Dense","config":{"units":8,"activation":"relu","use_bias":true,"kernel_initializer":{"class_name":"VarianceScaling","config":{"scale":1,"mode":"fan_avg","distribution":"normal","seed":null}},"bias_initializer":{"class_name":"Zeros","config":{}},"kernel_regularizer":null,"bias_regularizer":null,"activity_regularizer":null,"kernel_constraint":null,"bias_constraint":null,"name":"dense_Dense4436","trainable":true},"inbound_nodes":[[["dense_Dense4435",0,0,{}]]]},{"name":"dense_Dense4437","class_name":"Dense","config":{"units":4,"activation":"relu","use_bias":true,"kernel_initializer":{"class_name":"VarianceScaling","config":{"scale":1,"mode":"fan_avg","distribution":"normal","seed":null}},"bias_initializer":{"class_name":"Zeros","config":{}},"kernel_regularizer":null,"bias_regularizer":null,"activity_regularizer":null,"kernel_constraint":null,"bias_constraint":null,"name":"dense_Dense4437","trainable":true},"inbound_nodes":[[["dense_Dense4436",0,0,{}]]]},{"name":"dense_Dense4438","class_name":"Dense","config":{"units":8,"activation":"relu","use_bias":true,"kernel_initializer":{"class_name":"VarianceScaling","config":{"scale":1,"mode":"fan_avg","distribution":"normal","seed":null}},"bias_initializer":{"class_name":"Zeros","config":{}},"kernel_regularizer":null,"bias_regularizer":null,"activity_regularizer":null,"kernel_constraint":null,"bias_constraint":null,"name":"dense_Dense4438","trainable":true},"inbound_nodes":[[["dense_Dense4437",0,0,{}]]]},{"name":"dense_Dense4439","class_name":"Dense","config":{"units":2,"activation":"relu","use_bias":true,"kernel_initializer":{"class_name":"VarianceScaling","config":{"scale":1,"mode":"fan_avg","distribution":"normal","seed":null}},"bias_initializer":{"class_name":"Zeros","config":{}},"kernel_regularizer":null,"bias_regularizer":null,"activity_regularizer":null,"kernel_constraint":null,"bias_constraint":null,"name":"dense_Dense4439","trainable":true},"inbound_nodes":[[["dense_Dense4438",0,0,{}]]]},{"name":"dense_Dense4440","class_name":"Dense","config":{"units":1,"activation":"sigmoid","use_bias":true,"kernel_initializer":{"class_name":"VarianceScaling","config":{"scale":1,"mode":"fan_avg","distribution":"normal","seed":null}},"bias_initializer":{"class_name":"Zeros","config":{}},"kernel_regularizer":null,"bias_regularizer":null,"activity_regularizer":null,"kernel_constraint":null,"bias_constraint":null,"name":"dense_Dense4440","trainable":true},"inbound_nodes":[[["dense_Dense4439",0,0,{}]]]}],"input_layers":[["input740",0,0]],"output_layers":[["dense_Dense4440",0,0]]},"keras_version":"tfjs-layers 3.9.0","backend":"tensor_flow.js"},"weightsManifest":[{"paths":["weights.bin"],"weights":[{"name":"dense_Dense4435/kernel","shape":[3,8],"dtype":"float32"},{"name":"dense_Dense4435/bias","shape":[8],"dtype":"float32"},{"name":"dense_Dense4436/kernel","shape":[8,8],"dtype":"float32"},{"name":"dense_Dense4436/bias","shape":[8],"dtype":"float32"},{"name":"dense_Dense4437/kernel","shape":[8,4],"dtype":"float32"},{"name":"dense_Dense4437/bias","shape":[4],"dtype":"float32"},{"name":"dense_Dense4438/kernel","shape":[4,8],"dtype":"float32"},{"name":"dense_Dense4438/bias","shape":[8],"dtype":"float32"},{"name":"dense_Dense4439/kernel","shape":[8,2],"dtype":"float32"},{"name":"dense_Dense4439/bias","shape":[2],"dtype":"float32"},{"name":"dense_Dense4440/kernel","shape":[2,1],"dtype":"float32"},{"name":"dense_Dense4440/bias","shape":[1],"dtype":"float32"}]}]}