{"modelTopology":{"class_name":"Model","config":{"name":"model612","layers":[{"name":"input612","class_name":"InputLayer","config":{"batch_input_shape":[null,3],"dtype":"float32","sparse":false,"name":"input612"},"inbound_nodes":[]},{"name":"dense_Dense3667","class_name":"Dense","config":{"units":16,"activation":"relu","use_bias":true,"kernel_initializer":{"class_name":"VarianceScaling","config":{"scale":1,"mode":"fan_avg","distribution":"normal","seed":null}},"bias_initializer":{"class_name":"Zeros","config":{}},"kernel_regularizer":null,"bias_regularizer":null,"activity_regularizer":null,"kernel_constraint":null,"bias_constraint":null,"name":"dense_Dense3667","trainable":true},"inbound_nodes":[[["input612",0,0,{}]]]},{"name":"dense_Dense3668","class_name":"Dense","config":{"units":4,"activation":"relu","use_bias":true,"kernel_initializer":{"class_name":"VarianceScaling","config":{"scale":1,"mode":"fan_avg","distribution":"normal","seed":null}},"bias_initializer":{"class_name":"Zeros","config":{}},"kernel_regularizer":null,"bias_regularizer":null,"activity_regularizer":null,"kernel_constraint":null,"bias_constraint":null,"name":"dense_Dense3668","trainable":true},"inbound_nodes":[[["dense_Dense3667",0,0,{}]]]},{"name":"dense_Dense3669","class_name":"Dense","config":{"units":16,"activation":"relu","use_bias":true,"kernel_initializer":{"class_name":"VarianceScaling","config":{"scale":1,"mode":"fan_avg","distribution":"normal","seed":null}},"bias_initializer":{"class_name":"Zeros","config":{}},"kernel_regularizer":null,"bias_regularizer":null,"activity_regularizer":null,"kernel_constraint":null,"bias_constraint":null,"name":"dense_Dense3669","trainable":true},"inbound_nodes":[[["dense_Dense3668",0,0,{}]]]},{"name":"dense_Dense3670","class_name":"Dense","config":{"units":32,"activation":"relu","use_bias":true,"kernel_initializer":{"class_name":"VarianceScaling","config":{"scale":1,"mode":"fan_avg","distribution":"normal","seed":null}},"bias_initializer":{"class_name":"Zeros","config":{}},"kernel_regularizer":null,"bias_regularizer":null,"activity_regularizer":null,"kernel_constraint":null,"bias_constraint":null,"name":"dense_Dense3670","trainable":true},"inbound_nodes":[[["dense_Dense3669",0,0,{}]]]},{"name":"dense_Dense3671","class_name":"Dense","config":{"units":32,"activation":"relu","use_bias":true,"kernel_initializer":{"class_name":"VarianceScaling","config":{"scale":1,"mode":"fan_avg","distribution":"normal","seed":null}},"bias_initializer":{"class_name":"Zeros","config":{}},"kernel_regularizer":null,"bias_regularizer":null,"activity_regularizer":null,"kernel_constraint":null,"bias_constraint":null,"name":"dense_Dense3671","trainable":true},"inbound_nodes":[[["dense_Dense3670",0,0,{}]]]},{"name":"dense_Dense3672","class_name":"Dense","config":{"units":1,"activation":"sigmoid","use_bias":true,"kernel_initializer":{"class_name":"VarianceScaling","config":{"scale":1,"mode":"fan_avg","distribution":"normal","seed":null}},"bias_initializer":{"class_name":"Zeros","config":{}},"kernel_regularizer":null,"bias_regularizer":null,"activity_regularizer":null,"kernel_constraint":null,"bias_constraint":null,"name":"dense_Dense3672","trainable":true},"inbound_nodes":[[["dense_Dense3671",0,0,{}]]]}],"input_layers":[["input612",0,0]],"output_layers":[["dense_Dense3672",0,0]]},"keras_version":"tfjs-layers 3.9.0","backend":"tensor_flow.js"},"weightsManifest":[{"paths":["weights.bin"],"weights":[{"name":"dense_Dense3667/kernel","shape":[3,16],"dtype":"float32"},{"name":"dense_Dense3667/bias","shape":[16],"dtype":"float32"},{"name":"dense_Dense3668/kernel","shape":[16,4],"dtype":"float32"},{"name":"dense_Dense3668/bias","shape":[4],"dtype":"float32"},{"name":"dense_Dense3669/kernel","shape":[4,16],"dtype":"float32"},{"name":"dense_Dense3669/bias","shape":[16],"dtype":"float32"},{"name":"dense_Dense3670/kernel","shape":[16,32],"dtype":"float32"},{"name":"dense_Dense3670/bias","shape":[32],"dtype":"float32"},{"name":"dense_Dense3671/kernel","shape":[32,32],"dtype":"float32"},{"name":"dense_Dense3671/bias","shape":[32],"dtype":"float32"},{"name":"dense_Dense3672/kernel","shape":[32,1],"dtype":"float32"},{"name":"dense_Dense3672/bias","shape":[1],"dtype":"float32"}]}]}