{"modelTopology":{"class_name":"Model","config":{"name":"model757","layers":[{"name":"input757","class_name":"InputLayer","config":{"batch_input_shape":[null,3],"dtype":"float32","sparse":false,"name":"input757"},"inbound_nodes":[]},{"name":"dense_Dense3781","class_name":"Dense","config":{"units":8,"activation":"relu","use_bias":true,"kernel_initializer":{"class_name":"VarianceScaling","config":{"scale":1,"mode":"fan_avg","distribution":"normal","seed":null}},"bias_initializer":{"class_name":"Zeros","config":{}},"kernel_regularizer":null,"bias_regularizer":null,"activity_regularizer":null,"kernel_constraint":null,"bias_constraint":null,"name":"dense_Dense3781","trainable":true},"inbound_nodes":[[["input757",0,0,{}]]]},{"name":"dense_Dense3782","class_name":"Dense","config":{"units":8,"activation":"relu","use_bias":true,"kernel_initializer":{"class_name":"VarianceScaling","config":{"scale":1,"mode":"fan_avg","distribution":"normal","seed":null}},"bias_initializer":{"class_name":"Zeros","config":{}},"kernel_regularizer":null,"bias_regularizer":null,"activity_regularizer":null,"kernel_constraint":null,"bias_constraint":null,"name":"dense_Dense3782","trainable":true},"inbound_nodes":[[["dense_Dense3781",0,0,{}]]]},{"name":"dense_Dense3783","class_name":"Dense","config":{"units":1,"activation":"relu","use_bias":true,"kernel_initializer":{"class_name":"VarianceScaling","config":{"scale":1,"mode":"fan_avg","distribution":"normal","seed":null}},"bias_initializer":{"class_name":"Zeros","config":{}},"kernel_regularizer":null,"bias_regularizer":null,"activity_regularizer":null,"kernel_constraint":null,"bias_constraint":null,"name":"dense_Dense3783","trainable":true},"inbound_nodes":[[["dense_Dense3782",0,0,{}]]]},{"name":"dense_Dense3784","class_name":"Dense","config":{"units":1,"activation":"relu","use_bias":true,"kernel_initializer":{"class_name":"VarianceScaling","config":{"scale":1,"mode":"fan_avg","distribution":"normal","seed":null}},"bias_initializer":{"class_name":"Zeros","config":{}},"kernel_regularizer":null,"bias_regularizer":null,"activity_regularizer":null,"kernel_constraint":null,"bias_constraint":null,"name":"dense_Dense3784","trainable":true},"inbound_nodes":[[["dense_Dense3783",0,0,{}]]]},{"name":"dense_Dense3785","class_name":"Dense","config":{"units":1,"activation":"sigmoid","use_bias":true,"kernel_initializer":{"class_name":"VarianceScaling","config":{"scale":1,"mode":"fan_avg","distribution":"normal","seed":null}},"bias_initializer":{"class_name":"Zeros","config":{}},"kernel_regularizer":null,"bias_regularizer":null,"activity_regularizer":null,"kernel_constraint":null,"bias_constraint":null,"name":"dense_Dense3785","trainable":true},"inbound_nodes":[[["dense_Dense3784",0,0,{}]]]}],"input_layers":[["input757",0,0]],"output_layers":[["dense_Dense3785",0,0]]},"keras_version":"tfjs-layers 3.9.0","backend":"tensor_flow.js"},"weightsManifest":[{"paths":["weights.bin"],"weights":[{"name":"dense_Dense3781/kernel","shape":[3,8],"dtype":"float32"},{"name":"dense_Dense3781/bias","shape":[8],"dtype":"float32"},{"name":"dense_Dense3782/kernel","shape":[8,8],"dtype":"float32"},{"name":"dense_Dense3782/bias","shape":[8],"dtype":"float32"},{"name":"dense_Dense3783/kernel","shape":[8,1],"dtype":"float32"},{"name":"dense_Dense3783/bias","shape":[1],"dtype":"float32"},{"name":"dense_Dense3784/kernel","shape":[1,1],"dtype":"float32"},{"name":"dense_Dense3784/bias","shape":[1],"dtype":"float32"},{"name":"dense_Dense3785/kernel","shape":[1,1],"dtype":"float32"},{"name":"dense_Dense3785/bias","shape":[1],"dtype":"float32"}]}]}