{"modelTopology":{"class_name":"Model","config":{"name":"model152","layers":[{"name":"input152","class_name":"InputLayer","config":{"batch_input_shape":[null,3],"dtype":"float32","sparse":false,"name":"input152"},"inbound_nodes":[]},{"name":"dense_Dense907","class_name":"Dense","config":{"units":4,"activation":"relu","use_bias":true,"kernel_initializer":{"class_name":"VarianceScaling","config":{"scale":1,"mode":"fan_avg","distribution":"normal","seed":null}},"bias_initializer":{"class_name":"Zeros","config":{}},"kernel_regularizer":null,"bias_regularizer":null,"activity_regularizer":null,"kernel_constraint":null,"bias_constraint":null,"name":"dense_Dense907","trainable":true},"inbound_nodes":[[["input152",0,0,{}]]]},{"name":"dense_Dense908","class_name":"Dense","config":{"units":1,"activation":"relu","use_bias":true,"kernel_initializer":{"class_name":"VarianceScaling","config":{"scale":1,"mode":"fan_avg","distribution":"normal","seed":null}},"bias_initializer":{"class_name":"Zeros","config":{}},"kernel_regularizer":null,"bias_regularizer":null,"activity_regularizer":null,"kernel_constraint":null,"bias_constraint":null,"name":"dense_Dense908","trainable":true},"inbound_nodes":[[["dense_Dense907",0,0,{}]]]},{"name":"dense_Dense909","class_name":"Dense","config":{"units":16,"activation":"relu","use_bias":true,"kernel_initializer":{"class_name":"VarianceScaling","config":{"scale":1,"mode":"fan_avg","distribution":"normal","seed":null}},"bias_initializer":{"class_name":"Zeros","config":{}},"kernel_regularizer":null,"bias_regularizer":null,"activity_regularizer":null,"kernel_constraint":null,"bias_constraint":null,"name":"dense_Dense909","trainable":true},"inbound_nodes":[[["dense_Dense908",0,0,{}]]]},{"name":"dense_Dense910","class_name":"Dense","config":{"units":2,"activation":"relu","use_bias":true,"kernel_initializer":{"class_name":"VarianceScaling","config":{"scale":1,"mode":"fan_avg","distribution":"normal","seed":null}},"bias_initializer":{"class_name":"Zeros","config":{}},"kernel_regularizer":null,"bias_regularizer":null,"activity_regularizer":null,"kernel_constraint":null,"bias_constraint":null,"name":"dense_Dense910","trainable":true},"inbound_nodes":[[["dense_Dense909",0,0,{}]]]},{"name":"dense_Dense911","class_name":"Dense","config":{"units":2,"activation":"relu","use_bias":true,"kernel_initializer":{"class_name":"VarianceScaling","config":{"scale":1,"mode":"fan_avg","distribution":"normal","seed":null}},"bias_initializer":{"class_name":"Zeros","config":{}},"kernel_regularizer":null,"bias_regularizer":null,"activity_regularizer":null,"kernel_constraint":null,"bias_constraint":null,"name":"dense_Dense911","trainable":true},"inbound_nodes":[[["dense_Dense910",0,0,{}]]]},{"name":"dense_Dense912","class_name":"Dense","config":{"units":1,"activation":"sigmoid","use_bias":true,"kernel_initializer":{"class_name":"VarianceScaling","config":{"scale":1,"mode":"fan_avg","distribution":"normal","seed":null}},"bias_initializer":{"class_name":"Zeros","config":{}},"kernel_regularizer":null,"bias_regularizer":null,"activity_regularizer":null,"kernel_constraint":null,"bias_constraint":null,"name":"dense_Dense912","trainable":true},"inbound_nodes":[[["dense_Dense911",0,0,{}]]]}],"input_layers":[["input152",0,0]],"output_layers":[["dense_Dense912",0,0]]},"keras_version":"tfjs-layers 3.9.0","backend":"tensor_flow.js"},"weightsManifest":[{"paths":["weights.bin"],"weights":[{"name":"dense_Dense907/kernel","shape":[3,4],"dtype":"float32"},{"name":"dense_Dense907/bias","shape":[4],"dtype":"float32"},{"name":"dense_Dense908/kernel","shape":[4,1],"dtype":"float32"},{"name":"dense_Dense908/bias","shape":[1],"dtype":"float32"},{"name":"dense_Dense909/kernel","shape":[1,16],"dtype":"float32"},{"name":"dense_Dense909/bias","shape":[16],"dtype":"float32"},{"name":"dense_Dense910/kernel","shape":[16,2],"dtype":"float32"},{"name":"dense_Dense910/bias","shape":[2],"dtype":"float32"},{"name":"dense_Dense911/kernel","shape":[2,2],"dtype":"float32"},{"name":"dense_Dense911/bias","shape":[2],"dtype":"float32"},{"name":"dense_Dense912/kernel","shape":[2,1],"dtype":"float32"},{"name":"dense_Dense912/bias","shape":[1],"dtype":"float32"}]}]}