{"modelTopology":{"class_name":"Model","config":{"name":"model1266","layers":[{"name":"input1266","class_name":"InputLayer","config":{"batch_input_shape":[null,3],"dtype":"float32","sparse":false,"name":"input1266"},"inbound_nodes":[]},{"name":"dense_Dense6326","class_name":"Dense","config":{"units":32,"activation":"relu","use_bias":true,"kernel_initializer":{"class_name":"VarianceScaling","config":{"scale":1,"mode":"fan_avg","distribution":"normal","seed":null}},"bias_initializer":{"class_name":"Zeros","config":{}},"kernel_regularizer":null,"bias_regularizer":null,"activity_regularizer":null,"kernel_constraint":null,"bias_constraint":null,"name":"dense_Dense6326","trainable":true},"inbound_nodes":[[["input1266",0,0,{}]]]},{"name":"dense_Dense6327","class_name":"Dense","config":{"units":32,"activation":"relu","use_bias":true,"kernel_initializer":{"class_name":"VarianceScaling","config":{"scale":1,"mode":"fan_avg","distribution":"normal","seed":null}},"bias_initializer":{"class_name":"Zeros","config":{}},"kernel_regularizer":null,"bias_regularizer":null,"activity_regularizer":null,"kernel_constraint":null,"bias_constraint":null,"name":"dense_Dense6327","trainable":true},"inbound_nodes":[[["dense_Dense6326",0,0,{}]]]},{"name":"dense_Dense6328","class_name":"Dense","config":{"units":1,"activation":"relu","use_bias":true,"kernel_initializer":{"class_name":"VarianceScaling","config":{"scale":1,"mode":"fan_avg","distribution":"normal","seed":null}},"bias_initializer":{"class_name":"Zeros","config":{}},"kernel_regularizer":null,"bias_regularizer":null,"activity_regularizer":null,"kernel_constraint":null,"bias_constraint":null,"name":"dense_Dense6328","trainable":true},"inbound_nodes":[[["dense_Dense6327",0,0,{}]]]},{"name":"dense_Dense6329","class_name":"Dense","config":{"units":32,"activation":"relu","use_bias":true,"kernel_initializer":{"class_name":"VarianceScaling","config":{"scale":1,"mode":"fan_avg","distribution":"normal","seed":null}},"bias_initializer":{"class_name":"Zeros","config":{}},"kernel_regularizer":null,"bias_regularizer":null,"activity_regularizer":null,"kernel_constraint":null,"bias_constraint":null,"name":"dense_Dense6329","trainable":true},"inbound_nodes":[[["dense_Dense6328",0,0,{}]]]},{"name":"dense_Dense6330","class_name":"Dense","config":{"units":1,"activation":"sigmoid","use_bias":true,"kernel_initializer":{"class_name":"VarianceScaling","config":{"scale":1,"mode":"fan_avg","distribution":"normal","seed":null}},"bias_initializer":{"class_name":"Zeros","config":{}},"kernel_regularizer":null,"bias_regularizer":null,"activity_regularizer":null,"kernel_constraint":null,"bias_constraint":null,"name":"dense_Dense6330","trainable":true},"inbound_nodes":[[["dense_Dense6329",0,0,{}]]]}],"input_layers":[["input1266",0,0]],"output_layers":[["dense_Dense6330",0,0]]},"keras_version":"tfjs-layers 3.9.0","backend":"tensor_flow.js"},"weightsManifest":[{"paths":["weights.bin"],"weights":[{"name":"dense_Dense6326/kernel","shape":[3,32],"dtype":"float32"},{"name":"dense_Dense6326/bias","shape":[32],"dtype":"float32"},{"name":"dense_Dense6327/kernel","shape":[32,32],"dtype":"float32"},{"name":"dense_Dense6327/bias","shape":[32],"dtype":"float32"},{"name":"dense_Dense6328/kernel","shape":[32,1],"dtype":"float32"},{"name":"dense_Dense6328/bias","shape":[1],"dtype":"float32"},{"name":"dense_Dense6329/kernel","shape":[1,32],"dtype":"float32"},{"name":"dense_Dense6329/bias","shape":[32],"dtype":"float32"},{"name":"dense_Dense6330/kernel","shape":[32,1],"dtype":"float32"},{"name":"dense_Dense6330/bias","shape":[1],"dtype":"float32"}]}]}