{"modelTopology":{"class_name":"Model","config":{"name":"model267","layers":[{"name":"input267","class_name":"InputLayer","config":{"batch_input_shape":[null,3],"dtype":"float32","sparse":false,"name":"input267"},"inbound_nodes":[]},{"name":"dense_Dense1331","class_name":"Dense","config":{"units":2,"activation":"relu","use_bias":true,"kernel_initializer":{"class_name":"VarianceScaling","config":{"scale":1,"mode":"fan_avg","distribution":"normal","seed":null}},"bias_initializer":{"class_name":"Zeros","config":{}},"kernel_regularizer":null,"bias_regularizer":null,"activity_regularizer":null,"kernel_constraint":null,"bias_constraint":null,"name":"dense_Dense1331","trainable":true},"inbound_nodes":[[["input267",0,0,{}]]]},{"name":"dense_Dense1332","class_name":"Dense","config":{"units":2,"activation":"relu","use_bias":true,"kernel_initializer":{"class_name":"VarianceScaling","config":{"scale":1,"mode":"fan_avg","distribution":"normal","seed":null}},"bias_initializer":{"class_name":"Zeros","config":{}},"kernel_regularizer":null,"bias_regularizer":null,"activity_regularizer":null,"kernel_constraint":null,"bias_constraint":null,"name":"dense_Dense1332","trainable":true},"inbound_nodes":[[["dense_Dense1331",0,0,{}]]]},{"name":"dense_Dense1333","class_name":"Dense","config":{"units":4,"activation":"relu","use_bias":true,"kernel_initializer":{"class_name":"VarianceScaling","config":{"scale":1,"mode":"fan_avg","distribution":"normal","seed":null}},"bias_initializer":{"class_name":"Zeros","config":{}},"kernel_regularizer":null,"bias_regularizer":null,"activity_regularizer":null,"kernel_constraint":null,"bias_constraint":null,"name":"dense_Dense1333","trainable":true},"inbound_nodes":[[["dense_Dense1332",0,0,{}]]]},{"name":"dense_Dense1334","class_name":"Dense","config":{"units":4,"activation":"relu","use_bias":true,"kernel_initializer":{"class_name":"VarianceScaling","config":{"scale":1,"mode":"fan_avg","distribution":"normal","seed":null}},"bias_initializer":{"class_name":"Zeros","config":{}},"kernel_regularizer":null,"bias_regularizer":null,"activity_regularizer":null,"kernel_constraint":null,"bias_constraint":null,"name":"dense_Dense1334","trainable":true},"inbound_nodes":[[["dense_Dense1333",0,0,{}]]]},{"name":"dense_Dense1335","class_name":"Dense","config":{"units":1,"activation":"sigmoid","use_bias":true,"kernel_initializer":{"class_name":"VarianceScaling","config":{"scale":1,"mode":"fan_avg","distribution":"normal","seed":null}},"bias_initializer":{"class_name":"Zeros","config":{}},"kernel_regularizer":null,"bias_regularizer":null,"activity_regularizer":null,"kernel_constraint":null,"bias_constraint":null,"name":"dense_Dense1335","trainable":true},"inbound_nodes":[[["dense_Dense1334",0,0,{}]]]}],"input_layers":[["input267",0,0]],"output_layers":[["dense_Dense1335",0,0]]},"keras_version":"tfjs-layers 3.9.0","backend":"tensor_flow.js"},"weightsManifest":[{"paths":["weights.bin"],"weights":[{"name":"dense_Dense1331/kernel","shape":[3,2],"dtype":"float32"},{"name":"dense_Dense1331/bias","shape":[2],"dtype":"float32"},{"name":"dense_Dense1332/kernel","shape":[2,2],"dtype":"float32"},{"name":"dense_Dense1332/bias","shape":[2],"dtype":"float32"},{"name":"dense_Dense1333/kernel","shape":[2,4],"dtype":"float32"},{"name":"dense_Dense1333/bias","shape":[4],"dtype":"float32"},{"name":"dense_Dense1334/kernel","shape":[4,4],"dtype":"float32"},{"name":"dense_Dense1334/bias","shape":[4],"dtype":"float32"},{"name":"dense_Dense1335/kernel","shape":[4,1],"dtype":"float32"},{"name":"dense_Dense1335/bias","shape":[1],"dtype":"float32"}]}]}