{"modelTopology":{"class_name":"Model","config":{"name":"model1118","layers":[{"name":"input1118","class_name":"InputLayer","config":{"batch_input_shape":[null,3],"dtype":"float32","sparse":false,"name":"input1118"},"inbound_nodes":[]},{"name":"dense_Dense6703","class_name":"Dense","config":{"units":2,"activation":"relu","use_bias":true,"kernel_initializer":{"class_name":"VarianceScaling","config":{"scale":1,"mode":"fan_avg","distribution":"normal","seed":null}},"bias_initializer":{"class_name":"Zeros","config":{}},"kernel_regularizer":null,"bias_regularizer":null,"activity_regularizer":null,"kernel_constraint":null,"bias_constraint":null,"name":"dense_Dense6703","trainable":true},"inbound_nodes":[[["input1118",0,0,{}]]]},{"name":"dense_Dense6704","class_name":"Dense","config":{"units":32,"activation":"relu","use_bias":true,"kernel_initializer":{"class_name":"VarianceScaling","config":{"scale":1,"mode":"fan_avg","distribution":"normal","seed":null}},"bias_initializer":{"class_name":"Zeros","config":{}},"kernel_regularizer":null,"bias_regularizer":null,"activity_regularizer":null,"kernel_constraint":null,"bias_constraint":null,"name":"dense_Dense6704","trainable":true},"inbound_nodes":[[["dense_Dense6703",0,0,{}]]]},{"name":"dense_Dense6705","class_name":"Dense","config":{"units":2,"activation":"relu","use_bias":true,"kernel_initializer":{"class_name":"VarianceScaling","config":{"scale":1,"mode":"fan_avg","distribution":"normal","seed":null}},"bias_initializer":{"class_name":"Zeros","config":{}},"kernel_regularizer":null,"bias_regularizer":null,"activity_regularizer":null,"kernel_constraint":null,"bias_constraint":null,"name":"dense_Dense6705","trainable":true},"inbound_nodes":[[["dense_Dense6704",0,0,{}]]]},{"name":"dense_Dense6706","class_name":"Dense","config":{"units":1,"activation":"relu","use_bias":true,"kernel_initializer":{"class_name":"VarianceScaling","config":{"scale":1,"mode":"fan_avg","distribution":"normal","seed":null}},"bias_initializer":{"class_name":"Zeros","config":{}},"kernel_regularizer":null,"bias_regularizer":null,"activity_regularizer":null,"kernel_constraint":null,"bias_constraint":null,"name":"dense_Dense6706","trainable":true},"inbound_nodes":[[["dense_Dense6705",0,0,{}]]]},{"name":"dense_Dense6707","class_name":"Dense","config":{"units":2,"activation":"relu","use_bias":true,"kernel_initializer":{"class_name":"VarianceScaling","config":{"scale":1,"mode":"fan_avg","distribution":"normal","seed":null}},"bias_initializer":{"class_name":"Zeros","config":{}},"kernel_regularizer":null,"bias_regularizer":null,"activity_regularizer":null,"kernel_constraint":null,"bias_constraint":null,"name":"dense_Dense6707","trainable":true},"inbound_nodes":[[["dense_Dense6706",0,0,{}]]]},{"name":"dense_Dense6708","class_name":"Dense","config":{"units":1,"activation":"sigmoid","use_bias":true,"kernel_initializer":{"class_name":"VarianceScaling","config":{"scale":1,"mode":"fan_avg","distribution":"normal","seed":null}},"bias_initializer":{"class_name":"Zeros","config":{}},"kernel_regularizer":null,"bias_regularizer":null,"activity_regularizer":null,"kernel_constraint":null,"bias_constraint":null,"name":"dense_Dense6708","trainable":true},"inbound_nodes":[[["dense_Dense6707",0,0,{}]]]}],"input_layers":[["input1118",0,0]],"output_layers":[["dense_Dense6708",0,0]]},"keras_version":"tfjs-layers 3.9.0","backend":"tensor_flow.js"},"weightsManifest":[{"paths":["weights.bin"],"weights":[{"name":"dense_Dense6703/kernel","shape":[3,2],"dtype":"float32"},{"name":"dense_Dense6703/bias","shape":[2],"dtype":"float32"},{"name":"dense_Dense6704/kernel","shape":[2,32],"dtype":"float32"},{"name":"dense_Dense6704/bias","shape":[32],"dtype":"float32"},{"name":"dense_Dense6705/kernel","shape":[32,2],"dtype":"float32"},{"name":"dense_Dense6705/bias","shape":[2],"dtype":"float32"},{"name":"dense_Dense6706/kernel","shape":[2,1],"dtype":"float32"},{"name":"dense_Dense6706/bias","shape":[1],"dtype":"float32"},{"name":"dense_Dense6707/kernel","shape":[1,2],"dtype":"float32"},{"name":"dense_Dense6707/bias","shape":[2],"dtype":"float32"},{"name":"dense_Dense6708/kernel","shape":[2,1],"dtype":"float32"},{"name":"dense_Dense6708/bias","shape":[1],"dtype":"float32"}]}]}