{"modelTopology":{"class_name":"Model","config":{"name":"model767","layers":[{"name":"input767","class_name":"InputLayer","config":{"batch_input_shape":[null,3],"dtype":"float32","sparse":false,"name":"input767"},"inbound_nodes":[]},{"name":"dense_Dense4597","class_name":"Dense","config":{"units":2,"activation":"relu","use_bias":true,"kernel_initializer":{"class_name":"VarianceScaling","config":{"scale":1,"mode":"fan_avg","distribution":"normal","seed":null}},"bias_initializer":{"class_name":"Zeros","config":{}},"kernel_regularizer":null,"bias_regularizer":null,"activity_regularizer":null,"kernel_constraint":null,"bias_constraint":null,"name":"dense_Dense4597","trainable":true},"inbound_nodes":[[["input767",0,0,{}]]]},{"name":"dense_Dense4598","class_name":"Dense","config":{"units":8,"activation":"relu","use_bias":true,"kernel_initializer":{"class_name":"VarianceScaling","config":{"scale":1,"mode":"fan_avg","distribution":"normal","seed":null}},"bias_initializer":{"class_name":"Zeros","config":{}},"kernel_regularizer":null,"bias_regularizer":null,"activity_regularizer":null,"kernel_constraint":null,"bias_constraint":null,"name":"dense_Dense4598","trainable":true},"inbound_nodes":[[["dense_Dense4597",0,0,{}]]]},{"name":"dense_Dense4599","class_name":"Dense","config":{"units":8,"activation":"relu","use_bias":true,"kernel_initializer":{"class_name":"VarianceScaling","config":{"scale":1,"mode":"fan_avg","distribution":"normal","seed":null}},"bias_initializer":{"class_name":"Zeros","config":{}},"kernel_regularizer":null,"bias_regularizer":null,"activity_regularizer":null,"kernel_constraint":null,"bias_constraint":null,"name":"dense_Dense4599","trainable":true},"inbound_nodes":[[["dense_Dense4598",0,0,{}]]]},{"name":"dense_Dense4600","class_name":"Dense","config":{"units":2,"activation":"relu","use_bias":true,"kernel_initializer":{"class_name":"VarianceScaling","config":{"scale":1,"mode":"fan_avg","distribution":"normal","seed":null}},"bias_initializer":{"class_name":"Zeros","config":{}},"kernel_regularizer":null,"bias_regularizer":null,"activity_regularizer":null,"kernel_constraint":null,"bias_constraint":null,"name":"dense_Dense4600","trainable":true},"inbound_nodes":[[["dense_Dense4599",0,0,{}]]]},{"name":"dense_Dense4601","class_name":"Dense","config":{"units":16,"activation":"relu","use_bias":true,"kernel_initializer":{"class_name":"VarianceScaling","config":{"scale":1,"mode":"fan_avg","distribution":"normal","seed":null}},"bias_initializer":{"class_name":"Zeros","config":{}},"kernel_regularizer":null,"bias_regularizer":null,"activity_regularizer":null,"kernel_constraint":null,"bias_constraint":null,"name":"dense_Dense4601","trainable":true},"inbound_nodes":[[["dense_Dense4600",0,0,{}]]]},{"name":"dense_Dense4602","class_name":"Dense","config":{"units":1,"activation":"sigmoid","use_bias":true,"kernel_initializer":{"class_name":"VarianceScaling","config":{"scale":1,"mode":"fan_avg","distribution":"normal","seed":null}},"bias_initializer":{"class_name":"Zeros","config":{}},"kernel_regularizer":null,"bias_regularizer":null,"activity_regularizer":null,"kernel_constraint":null,"bias_constraint":null,"name":"dense_Dense4602","trainable":true},"inbound_nodes":[[["dense_Dense4601",0,0,{}]]]}],"input_layers":[["input767",0,0]],"output_layers":[["dense_Dense4602",0,0]]},"keras_version":"tfjs-layers 3.9.0","backend":"tensor_flow.js"},"weightsManifest":[{"paths":["weights.bin"],"weights":[{"name":"dense_Dense4597/kernel","shape":[3,2],"dtype":"float32"},{"name":"dense_Dense4597/bias","shape":[2],"dtype":"float32"},{"name":"dense_Dense4598/kernel","shape":[2,8],"dtype":"float32"},{"name":"dense_Dense4598/bias","shape":[8],"dtype":"float32"},{"name":"dense_Dense4599/kernel","shape":[8,8],"dtype":"float32"},{"name":"dense_Dense4599/bias","shape":[8],"dtype":"float32"},{"name":"dense_Dense4600/kernel","shape":[8,2],"dtype":"float32"},{"name":"dense_Dense4600/bias","shape":[2],"dtype":"float32"},{"name":"dense_Dense4601/kernel","shape":[2,16],"dtype":"float32"},{"name":"dense_Dense4601/bias","shape":[16],"dtype":"float32"},{"name":"dense_Dense4602/kernel","shape":[16,1],"dtype":"float32"},{"name":"dense_Dense4602/bias","shape":[1],"dtype":"float32"}]}]}