{"modelTopology":{"class_name":"Model","config":{"name":"model61","layers":[{"name":"input61","class_name":"InputLayer","config":{"batch_input_shape":[null,3],"dtype":"float32","sparse":false,"name":"input61"},"inbound_nodes":[]},{"name":"dense_Dense361","class_name":"Dense","config":{"units":4,"activation":"relu","use_bias":true,"kernel_initializer":{"class_name":"VarianceScaling","config":{"scale":1,"mode":"fan_avg","distribution":"normal","seed":null}},"bias_initializer":{"class_name":"Zeros","config":{}},"kernel_regularizer":null,"bias_regularizer":null,"activity_regularizer":null,"kernel_constraint":null,"bias_constraint":null,"name":"dense_Dense361","trainable":true},"inbound_nodes":[[["input61",0,0,{}]]]},{"name":"dense_Dense362","class_name":"Dense","config":{"units":1,"activation":"relu","use_bias":true,"kernel_initializer":{"class_name":"VarianceScaling","config":{"scale":1,"mode":"fan_avg","distribution":"normal","seed":null}},"bias_initializer":{"class_name":"Zeros","config":{}},"kernel_regularizer":null,"bias_regularizer":null,"activity_regularizer":null,"kernel_constraint":null,"bias_constraint":null,"name":"dense_Dense362","trainable":true},"inbound_nodes":[[["dense_Dense361",0,0,{}]]]},{"name":"dense_Dense363","class_name":"Dense","config":{"units":2,"activation":"relu","use_bias":true,"kernel_initializer":{"class_name":"VarianceScaling","config":{"scale":1,"mode":"fan_avg","distribution":"normal","seed":null}},"bias_initializer":{"class_name":"Zeros","config":{}},"kernel_regularizer":null,"bias_regularizer":null,"activity_regularizer":null,"kernel_constraint":null,"bias_constraint":null,"name":"dense_Dense363","trainable":true},"inbound_nodes":[[["dense_Dense362",0,0,{}]]]},{"name":"dense_Dense364","class_name":"Dense","config":{"units":16,"activation":"relu","use_bias":true,"kernel_initializer":{"class_name":"VarianceScaling","config":{"scale":1,"mode":"fan_avg","distribution":"normal","seed":null}},"bias_initializer":{"class_name":"Zeros","config":{}},"kernel_regularizer":null,"bias_regularizer":null,"activity_regularizer":null,"kernel_constraint":null,"bias_constraint":null,"name":"dense_Dense364","trainable":true},"inbound_nodes":[[["dense_Dense363",0,0,{}]]]},{"name":"dense_Dense365","class_name":"Dense","config":{"units":1,"activation":"relu","use_bias":true,"kernel_initializer":{"class_name":"VarianceScaling","config":{"scale":1,"mode":"fan_avg","distribution":"normal","seed":null}},"bias_initializer":{"class_name":"Zeros","config":{}},"kernel_regularizer":null,"bias_regularizer":null,"activity_regularizer":null,"kernel_constraint":null,"bias_constraint":null,"name":"dense_Dense365","trainable":true},"inbound_nodes":[[["dense_Dense364",0,0,{}]]]},{"name":"dense_Dense366","class_name":"Dense","config":{"units":1,"activation":"sigmoid","use_bias":true,"kernel_initializer":{"class_name":"VarianceScaling","config":{"scale":1,"mode":"fan_avg","distribution":"normal","seed":null}},"bias_initializer":{"class_name":"Zeros","config":{}},"kernel_regularizer":null,"bias_regularizer":null,"activity_regularizer":null,"kernel_constraint":null,"bias_constraint":null,"name":"dense_Dense366","trainable":true},"inbound_nodes":[[["dense_Dense365",0,0,{}]]]}],"input_layers":[["input61",0,0]],"output_layers":[["dense_Dense366",0,0]]},"keras_version":"tfjs-layers 3.9.0","backend":"tensor_flow.js"},"weightsManifest":[{"paths":["weights.bin"],"weights":[{"name":"dense_Dense361/kernel","shape":[3,4],"dtype":"float32"},{"name":"dense_Dense361/bias","shape":[4],"dtype":"float32"},{"name":"dense_Dense362/kernel","shape":[4,1],"dtype":"float32"},{"name":"dense_Dense362/bias","shape":[1],"dtype":"float32"},{"name":"dense_Dense363/kernel","shape":[1,2],"dtype":"float32"},{"name":"dense_Dense363/bias","shape":[2],"dtype":"float32"},{"name":"dense_Dense364/kernel","shape":[2,16],"dtype":"float32"},{"name":"dense_Dense364/bias","shape":[16],"dtype":"float32"},{"name":"dense_Dense365/kernel","shape":[16,1],"dtype":"float32"},{"name":"dense_Dense365/bias","shape":[1],"dtype":"float32"},{"name":"dense_Dense366/kernel","shape":[1,1],"dtype":"float32"},{"name":"dense_Dense366/bias","shape":[1],"dtype":"float32"}]}]}