{"modelTopology":{"class_name":"Model","config":{"name":"model519","layers":[{"name":"input519","class_name":"InputLayer","config":{"batch_input_shape":[null,3],"dtype":"float32","sparse":false,"name":"input519"},"inbound_nodes":[]},{"name":"dense_Dense3109","class_name":"Dense","config":{"units":1,"activation":"relu","use_bias":true,"kernel_initializer":{"class_name":"VarianceScaling","config":{"scale":1,"mode":"fan_avg","distribution":"normal","seed":null}},"bias_initializer":{"class_name":"Zeros","config":{}},"kernel_regularizer":null,"bias_regularizer":null,"activity_regularizer":null,"kernel_constraint":null,"bias_constraint":null,"name":"dense_Dense3109","trainable":true},"inbound_nodes":[[["input519",0,0,{}]]]},{"name":"dense_Dense3110","class_name":"Dense","config":{"units":4,"activation":"relu","use_bias":true,"kernel_initializer":{"class_name":"VarianceScaling","config":{"scale":1,"mode":"fan_avg","distribution":"normal","seed":null}},"bias_initializer":{"class_name":"Zeros","config":{}},"kernel_regularizer":null,"bias_regularizer":null,"activity_regularizer":null,"kernel_constraint":null,"bias_constraint":null,"name":"dense_Dense3110","trainable":true},"inbound_nodes":[[["dense_Dense3109",0,0,{}]]]},{"name":"dense_Dense3111","class_name":"Dense","config":{"units":4,"activation":"relu","use_bias":true,"kernel_initializer":{"class_name":"VarianceScaling","config":{"scale":1,"mode":"fan_avg","distribution":"normal","seed":null}},"bias_initializer":{"class_name":"Zeros","config":{}},"kernel_regularizer":null,"bias_regularizer":null,"activity_regularizer":null,"kernel_constraint":null,"bias_constraint":null,"name":"dense_Dense3111","trainable":true},"inbound_nodes":[[["dense_Dense3110",0,0,{}]]]},{"name":"dense_Dense3112","class_name":"Dense","config":{"units":4,"activation":"relu","use_bias":true,"kernel_initializer":{"class_name":"VarianceScaling","config":{"scale":1,"mode":"fan_avg","distribution":"normal","seed":null}},"bias_initializer":{"class_name":"Zeros","config":{}},"kernel_regularizer":null,"bias_regularizer":null,"activity_regularizer":null,"kernel_constraint":null,"bias_constraint":null,"name":"dense_Dense3112","trainable":true},"inbound_nodes":[[["dense_Dense3111",0,0,{}]]]},{"name":"dense_Dense3113","class_name":"Dense","config":{"units":4,"activation":"relu","use_bias":true,"kernel_initializer":{"class_name":"VarianceScaling","config":{"scale":1,"mode":"fan_avg","distribution":"normal","seed":null}},"bias_initializer":{"class_name":"Zeros","config":{}},"kernel_regularizer":null,"bias_regularizer":null,"activity_regularizer":null,"kernel_constraint":null,"bias_constraint":null,"name":"dense_Dense3113","trainable":true},"inbound_nodes":[[["dense_Dense3112",0,0,{}]]]},{"name":"dense_Dense3114","class_name":"Dense","config":{"units":1,"activation":"sigmoid","use_bias":true,"kernel_initializer":{"class_name":"VarianceScaling","config":{"scale":1,"mode":"fan_avg","distribution":"normal","seed":null}},"bias_initializer":{"class_name":"Zeros","config":{}},"kernel_regularizer":null,"bias_regularizer":null,"activity_regularizer":null,"kernel_constraint":null,"bias_constraint":null,"name":"dense_Dense3114","trainable":true},"inbound_nodes":[[["dense_Dense3113",0,0,{}]]]}],"input_layers":[["input519",0,0]],"output_layers":[["dense_Dense3114",0,0]]},"keras_version":"tfjs-layers 3.9.0","backend":"tensor_flow.js"},"weightsManifest":[{"paths":["weights.bin"],"weights":[{"name":"dense_Dense3109/kernel","shape":[3,1],"dtype":"float32"},{"name":"dense_Dense3109/bias","shape":[1],"dtype":"float32"},{"name":"dense_Dense3110/kernel","shape":[1,4],"dtype":"float32"},{"name":"dense_Dense3110/bias","shape":[4],"dtype":"float32"},{"name":"dense_Dense3111/kernel","shape":[4,4],"dtype":"float32"},{"name":"dense_Dense3111/bias","shape":[4],"dtype":"float32"},{"name":"dense_Dense3112/kernel","shape":[4,4],"dtype":"float32"},{"name":"dense_Dense3112/bias","shape":[4],"dtype":"float32"},{"name":"dense_Dense3113/kernel","shape":[4,4],"dtype":"float32"},{"name":"dense_Dense3113/bias","shape":[4],"dtype":"float32"},{"name":"dense_Dense3114/kernel","shape":[4,1],"dtype":"float32"},{"name":"dense_Dense3114/bias","shape":[1],"dtype":"float32"}]}]}