{"modelTopology":{"class_name":"Model","config":{"name":"model1177","layers":[{"name":"input1177","class_name":"InputLayer","config":{"batch_input_shape":[null,3],"dtype":"float32","sparse":false,"name":"input1177"},"inbound_nodes":[]},{"name":"dense_Dense7057","class_name":"Dense","config":{"units":2,"activation":"relu","use_bias":true,"kernel_initializer":{"class_name":"VarianceScaling","config":{"scale":1,"mode":"fan_avg","distribution":"normal","seed":null}},"bias_initializer":{"class_name":"Zeros","config":{}},"kernel_regularizer":null,"bias_regularizer":null,"activity_regularizer":null,"kernel_constraint":null,"bias_constraint":null,"name":"dense_Dense7057","trainable":true},"inbound_nodes":[[["input1177",0,0,{}]]]},{"name":"dense_Dense7058","class_name":"Dense","config":{"units":32,"activation":"relu","use_bias":true,"kernel_initializer":{"class_name":"VarianceScaling","config":{"scale":1,"mode":"fan_avg","distribution":"normal","seed":null}},"bias_initializer":{"class_name":"Zeros","config":{}},"kernel_regularizer":null,"bias_regularizer":null,"activity_regularizer":null,"kernel_constraint":null,"bias_constraint":null,"name":"dense_Dense7058","trainable":true},"inbound_nodes":[[["dense_Dense7057",0,0,{}]]]},{"name":"dense_Dense7059","class_name":"Dense","config":{"units":4,"activation":"relu","use_bias":true,"kernel_initializer":{"class_name":"VarianceScaling","config":{"scale":1,"mode":"fan_avg","distribution":"normal","seed":null}},"bias_initializer":{"class_name":"Zeros","config":{}},"kernel_regularizer":null,"bias_regularizer":null,"activity_regularizer":null,"kernel_constraint":null,"bias_constraint":null,"name":"dense_Dense7059","trainable":true},"inbound_nodes":[[["dense_Dense7058",0,0,{}]]]},{"name":"dense_Dense7060","class_name":"Dense","config":{"units":16,"activation":"relu","use_bias":true,"kernel_initializer":{"class_name":"VarianceScaling","config":{"scale":1,"mode":"fan_avg","distribution":"normal","seed":null}},"bias_initializer":{"class_name":"Zeros","config":{}},"kernel_regularizer":null,"bias_regularizer":null,"activity_regularizer":null,"kernel_constraint":null,"bias_constraint":null,"name":"dense_Dense7060","trainable":true},"inbound_nodes":[[["dense_Dense7059",0,0,{}]]]},{"name":"dense_Dense7061","class_name":"Dense","config":{"units":1,"activation":"relu","use_bias":true,"kernel_initializer":{"class_name":"VarianceScaling","config":{"scale":1,"mode":"fan_avg","distribution":"normal","seed":null}},"bias_initializer":{"class_name":"Zeros","config":{}},"kernel_regularizer":null,"bias_regularizer":null,"activity_regularizer":null,"kernel_constraint":null,"bias_constraint":null,"name":"dense_Dense7061","trainable":true},"inbound_nodes":[[["dense_Dense7060",0,0,{}]]]},{"name":"dense_Dense7062","class_name":"Dense","config":{"units":1,"activation":"sigmoid","use_bias":true,"kernel_initializer":{"class_name":"VarianceScaling","config":{"scale":1,"mode":"fan_avg","distribution":"normal","seed":null}},"bias_initializer":{"class_name":"Zeros","config":{}},"kernel_regularizer":null,"bias_regularizer":null,"activity_regularizer":null,"kernel_constraint":null,"bias_constraint":null,"name":"dense_Dense7062","trainable":true},"inbound_nodes":[[["dense_Dense7061",0,0,{}]]]}],"input_layers":[["input1177",0,0]],"output_layers":[["dense_Dense7062",0,0]]},"keras_version":"tfjs-layers 3.9.0","backend":"tensor_flow.js"},"weightsManifest":[{"paths":["weights.bin"],"weights":[{"name":"dense_Dense7057/kernel","shape":[3,2],"dtype":"float32"},{"name":"dense_Dense7057/bias","shape":[2],"dtype":"float32"},{"name":"dense_Dense7058/kernel","shape":[2,32],"dtype":"float32"},{"name":"dense_Dense7058/bias","shape":[32],"dtype":"float32"},{"name":"dense_Dense7059/kernel","shape":[32,4],"dtype":"float32"},{"name":"dense_Dense7059/bias","shape":[4],"dtype":"float32"},{"name":"dense_Dense7060/kernel","shape":[4,16],"dtype":"float32"},{"name":"dense_Dense7060/bias","shape":[16],"dtype":"float32"},{"name":"dense_Dense7061/kernel","shape":[16,1],"dtype":"float32"},{"name":"dense_Dense7061/bias","shape":[1],"dtype":"float32"},{"name":"dense_Dense7062/kernel","shape":[1,1],"dtype":"float32"},{"name":"dense_Dense7062/bias","shape":[1],"dtype":"float32"}]}]}