{"modelTopology":{"class_name":"Model","config":{"name":"model733","layers":[{"name":"input733","class_name":"InputLayer","config":{"batch_input_shape":[null,3],"dtype":"float32","sparse":false,"name":"input733"},"inbound_nodes":[]},{"name":"dense_Dense4393","class_name":"Dense","config":{"units":1,"activation":"relu","use_bias":true,"kernel_initializer":{"class_name":"VarianceScaling","config":{"scale":1,"mode":"fan_avg","distribution":"normal","seed":null}},"bias_initializer":{"class_name":"Zeros","config":{}},"kernel_regularizer":null,"bias_regularizer":null,"activity_regularizer":null,"kernel_constraint":null,"bias_constraint":null,"name":"dense_Dense4393","trainable":true},"inbound_nodes":[[["input733",0,0,{}]]]},{"name":"dense_Dense4394","class_name":"Dense","config":{"units":8,"activation":"relu","use_bias":true,"kernel_initializer":{"class_name":"VarianceScaling","config":{"scale":1,"mode":"fan_avg","distribution":"normal","seed":null}},"bias_initializer":{"class_name":"Zeros","config":{}},"kernel_regularizer":null,"bias_regularizer":null,"activity_regularizer":null,"kernel_constraint":null,"bias_constraint":null,"name":"dense_Dense4394","trainable":true},"inbound_nodes":[[["dense_Dense4393",0,0,{}]]]},{"name":"dense_Dense4395","class_name":"Dense","config":{"units":4,"activation":"relu","use_bias":true,"kernel_initializer":{"class_name":"VarianceScaling","config":{"scale":1,"mode":"fan_avg","distribution":"normal","seed":null}},"bias_initializer":{"class_name":"Zeros","config":{}},"kernel_regularizer":null,"bias_regularizer":null,"activity_regularizer":null,"kernel_constraint":null,"bias_constraint":null,"name":"dense_Dense4395","trainable":true},"inbound_nodes":[[["dense_Dense4394",0,0,{}]]]},{"name":"dense_Dense4396","class_name":"Dense","config":{"units":4,"activation":"relu","use_bias":true,"kernel_initializer":{"class_name":"VarianceScaling","config":{"scale":1,"mode":"fan_avg","distribution":"normal","seed":null}},"bias_initializer":{"class_name":"Zeros","config":{}},"kernel_regularizer":null,"bias_regularizer":null,"activity_regularizer":null,"kernel_constraint":null,"bias_constraint":null,"name":"dense_Dense4396","trainable":true},"inbound_nodes":[[["dense_Dense4395",0,0,{}]]]},{"name":"dense_Dense4397","class_name":"Dense","config":{"units":1,"activation":"relu","use_bias":true,"kernel_initializer":{"class_name":"VarianceScaling","config":{"scale":1,"mode":"fan_avg","distribution":"normal","seed":null}},"bias_initializer":{"class_name":"Zeros","config":{}},"kernel_regularizer":null,"bias_regularizer":null,"activity_regularizer":null,"kernel_constraint":null,"bias_constraint":null,"name":"dense_Dense4397","trainable":true},"inbound_nodes":[[["dense_Dense4396",0,0,{}]]]},{"name":"dense_Dense4398","class_name":"Dense","config":{"units":1,"activation":"sigmoid","use_bias":true,"kernel_initializer":{"class_name":"VarianceScaling","config":{"scale":1,"mode":"fan_avg","distribution":"normal","seed":null}},"bias_initializer":{"class_name":"Zeros","config":{}},"kernel_regularizer":null,"bias_regularizer":null,"activity_regularizer":null,"kernel_constraint":null,"bias_constraint":null,"name":"dense_Dense4398","trainable":true},"inbound_nodes":[[["dense_Dense4397",0,0,{}]]]}],"input_layers":[["input733",0,0]],"output_layers":[["dense_Dense4398",0,0]]},"keras_version":"tfjs-layers 3.9.0","backend":"tensor_flow.js"},"weightsManifest":[{"paths":["weights.bin"],"weights":[{"name":"dense_Dense4393/kernel","shape":[3,1],"dtype":"float32"},{"name":"dense_Dense4393/bias","shape":[1],"dtype":"float32"},{"name":"dense_Dense4394/kernel","shape":[1,8],"dtype":"float32"},{"name":"dense_Dense4394/bias","shape":[8],"dtype":"float32"},{"name":"dense_Dense4395/kernel","shape":[8,4],"dtype":"float32"},{"name":"dense_Dense4395/bias","shape":[4],"dtype":"float32"},{"name":"dense_Dense4396/kernel","shape":[4,4],"dtype":"float32"},{"name":"dense_Dense4396/bias","shape":[4],"dtype":"float32"},{"name":"dense_Dense4397/kernel","shape":[4,1],"dtype":"float32"},{"name":"dense_Dense4397/bias","shape":[1],"dtype":"float32"},{"name":"dense_Dense4398/kernel","shape":[1,1],"dtype":"float32"},{"name":"dense_Dense4398/bias","shape":[1],"dtype":"float32"}]}]}