{"modelTopology":{"class_name":"Model","config":{"name":"model543","layers":[{"name":"input543","class_name":"InputLayer","config":{"batch_input_shape":[null,3],"dtype":"float32","sparse":false,"name":"input543"},"inbound_nodes":[]},{"name":"dense_Dense2711","class_name":"Dense","config":{"units":4,"activation":"relu","use_bias":true,"kernel_initializer":{"class_name":"VarianceScaling","config":{"scale":1,"mode":"fan_avg","distribution":"normal","seed":null}},"bias_initializer":{"class_name":"Zeros","config":{}},"kernel_regularizer":null,"bias_regularizer":null,"activity_regularizer":null,"kernel_constraint":null,"bias_constraint":null,"name":"dense_Dense2711","trainable":true},"inbound_nodes":[[["input543",0,0,{}]]]},{"name":"dense_Dense2712","class_name":"Dense","config":{"units":8,"activation":"relu","use_bias":true,"kernel_initializer":{"class_name":"VarianceScaling","config":{"scale":1,"mode":"fan_avg","distribution":"normal","seed":null}},"bias_initializer":{"class_name":"Zeros","config":{}},"kernel_regularizer":null,"bias_regularizer":null,"activity_regularizer":null,"kernel_constraint":null,"bias_constraint":null,"name":"dense_Dense2712","trainable":true},"inbound_nodes":[[["dense_Dense2711",0,0,{}]]]},{"name":"dense_Dense2713","class_name":"Dense","config":{"units":1,"activation":"relu","use_bias":true,"kernel_initializer":{"class_name":"VarianceScaling","config":{"scale":1,"mode":"fan_avg","distribution":"normal","seed":null}},"bias_initializer":{"class_name":"Zeros","config":{}},"kernel_regularizer":null,"bias_regularizer":null,"activity_regularizer":null,"kernel_constraint":null,"bias_constraint":null,"name":"dense_Dense2713","trainable":true},"inbound_nodes":[[["dense_Dense2712",0,0,{}]]]},{"name":"dense_Dense2714","class_name":"Dense","config":{"units":4,"activation":"relu","use_bias":true,"kernel_initializer":{"class_name":"VarianceScaling","config":{"scale":1,"mode":"fan_avg","distribution":"normal","seed":null}},"bias_initializer":{"class_name":"Zeros","config":{}},"kernel_regularizer":null,"bias_regularizer":null,"activity_regularizer":null,"kernel_constraint":null,"bias_constraint":null,"name":"dense_Dense2714","trainable":true},"inbound_nodes":[[["dense_Dense2713",0,0,{}]]]},{"name":"dense_Dense2715","class_name":"Dense","config":{"units":1,"activation":"sigmoid","use_bias":true,"kernel_initializer":{"class_name":"VarianceScaling","config":{"scale":1,"mode":"fan_avg","distribution":"normal","seed":null}},"bias_initializer":{"class_name":"Zeros","config":{}},"kernel_regularizer":null,"bias_regularizer":null,"activity_regularizer":null,"kernel_constraint":null,"bias_constraint":null,"name":"dense_Dense2715","trainable":true},"inbound_nodes":[[["dense_Dense2714",0,0,{}]]]}],"input_layers":[["input543",0,0]],"output_layers":[["dense_Dense2715",0,0]]},"keras_version":"tfjs-layers 3.9.0","backend":"tensor_flow.js"},"weightsManifest":[{"paths":["weights.bin"],"weights":[{"name":"dense_Dense2711/kernel","shape":[3,4],"dtype":"float32"},{"name":"dense_Dense2711/bias","shape":[4],"dtype":"float32"},{"name":"dense_Dense2712/kernel","shape":[4,8],"dtype":"float32"},{"name":"dense_Dense2712/bias","shape":[8],"dtype":"float32"},{"name":"dense_Dense2713/kernel","shape":[8,1],"dtype":"float32"},{"name":"dense_Dense2713/bias","shape":[1],"dtype":"float32"},{"name":"dense_Dense2714/kernel","shape":[1,4],"dtype":"float32"},{"name":"dense_Dense2714/bias","shape":[4],"dtype":"float32"},{"name":"dense_Dense2715/kernel","shape":[4,1],"dtype":"float32"},{"name":"dense_Dense2715/bias","shape":[1],"dtype":"float32"}]}]}