{"modelTopology":{"class_name":"Model","config":{"name":"model950","layers":[{"name":"input950","class_name":"InputLayer","config":{"batch_input_shape":[null,3],"dtype":"float32","sparse":false,"name":"input950"},"inbound_nodes":[]},{"name":"dense_Dense4746","class_name":"Dense","config":{"units":16,"activation":"relu","use_bias":true,"kernel_initializer":{"class_name":"VarianceScaling","config":{"scale":1,"mode":"fan_avg","distribution":"normal","seed":null}},"bias_initializer":{"class_name":"Zeros","config":{}},"kernel_regularizer":null,"bias_regularizer":null,"activity_regularizer":null,"kernel_constraint":null,"bias_constraint":null,"name":"dense_Dense4746","trainable":true},"inbound_nodes":[[["input950",0,0,{}]]]},{"name":"dense_Dense4747","class_name":"Dense","config":{"units":4,"activation":"relu","use_bias":true,"kernel_initializer":{"class_name":"VarianceScaling","config":{"scale":1,"mode":"fan_avg","distribution":"normal","seed":null}},"bias_initializer":{"class_name":"Zeros","config":{}},"kernel_regularizer":null,"bias_regularizer":null,"activity_regularizer":null,"kernel_constraint":null,"bias_constraint":null,"name":"dense_Dense4747","trainable":true},"inbound_nodes":[[["dense_Dense4746",0,0,{}]]]},{"name":"dense_Dense4748","class_name":"Dense","config":{"units":4,"activation":"relu","use_bias":true,"kernel_initializer":{"class_name":"VarianceScaling","config":{"scale":1,"mode":"fan_avg","distribution":"normal","seed":null}},"bias_initializer":{"class_name":"Zeros","config":{}},"kernel_regularizer":null,"bias_regularizer":null,"activity_regularizer":null,"kernel_constraint":null,"bias_constraint":null,"name":"dense_Dense4748","trainable":true},"inbound_nodes":[[["dense_Dense4747",0,0,{}]]]},{"name":"dense_Dense4749","class_name":"Dense","config":{"units":2,"activation":"relu","use_bias":true,"kernel_initializer":{"class_name":"VarianceScaling","config":{"scale":1,"mode":"fan_avg","distribution":"normal","seed":null}},"bias_initializer":{"class_name":"Zeros","config":{}},"kernel_regularizer":null,"bias_regularizer":null,"activity_regularizer":null,"kernel_constraint":null,"bias_constraint":null,"name":"dense_Dense4749","trainable":true},"inbound_nodes":[[["dense_Dense4748",0,0,{}]]]},{"name":"dense_Dense4750","class_name":"Dense","config":{"units":1,"activation":"sigmoid","use_bias":true,"kernel_initializer":{"class_name":"VarianceScaling","config":{"scale":1,"mode":"fan_avg","distribution":"normal","seed":null}},"bias_initializer":{"class_name":"Zeros","config":{}},"kernel_regularizer":null,"bias_regularizer":null,"activity_regularizer":null,"kernel_constraint":null,"bias_constraint":null,"name":"dense_Dense4750","trainable":true},"inbound_nodes":[[["dense_Dense4749",0,0,{}]]]}],"input_layers":[["input950",0,0]],"output_layers":[["dense_Dense4750",0,0]]},"keras_version":"tfjs-layers 3.9.0","backend":"tensor_flow.js"},"weightsManifest":[{"paths":["weights.bin"],"weights":[{"name":"dense_Dense4746/kernel","shape":[3,16],"dtype":"float32"},{"name":"dense_Dense4746/bias","shape":[16],"dtype":"float32"},{"name":"dense_Dense4747/kernel","shape":[16,4],"dtype":"float32"},{"name":"dense_Dense4747/bias","shape":[4],"dtype":"float32"},{"name":"dense_Dense4748/kernel","shape":[4,4],"dtype":"float32"},{"name":"dense_Dense4748/bias","shape":[4],"dtype":"float32"},{"name":"dense_Dense4749/kernel","shape":[4,2],"dtype":"float32"},{"name":"dense_Dense4749/bias","shape":[2],"dtype":"float32"},{"name":"dense_Dense4750/kernel","shape":[2,1],"dtype":"float32"},{"name":"dense_Dense4750/bias","shape":[1],"dtype":"float32"}]}]}