{"modelTopology":{"class_name":"Model","config":{"name":"model531","layers":[{"name":"input531","class_name":"InputLayer","config":{"batch_input_shape":[null,3],"dtype":"float32","sparse":false,"name":"input531"},"inbound_nodes":[]},{"name":"dense_Dense3181","class_name":"Dense","config":{"units":16,"activation":"relu","use_bias":true,"kernel_initializer":{"class_name":"VarianceScaling","config":{"scale":1,"mode":"fan_avg","distribution":"normal","seed":null}},"bias_initializer":{"class_name":"Zeros","config":{}},"kernel_regularizer":null,"bias_regularizer":null,"activity_regularizer":null,"kernel_constraint":null,"bias_constraint":null,"name":"dense_Dense3181","trainable":true},"inbound_nodes":[[["input531",0,0,{}]]]},{"name":"dense_Dense3182","class_name":"Dense","config":{"units":4,"activation":"relu","use_bias":true,"kernel_initializer":{"class_name":"VarianceScaling","config":{"scale":1,"mode":"fan_avg","distribution":"normal","seed":null}},"bias_initializer":{"class_name":"Zeros","config":{}},"kernel_regularizer":null,"bias_regularizer":null,"activity_regularizer":null,"kernel_constraint":null,"bias_constraint":null,"name":"dense_Dense3182","trainable":true},"inbound_nodes":[[["dense_Dense3181",0,0,{}]]]},{"name":"dense_Dense3183","class_name":"Dense","config":{"units":4,"activation":"relu","use_bias":true,"kernel_initializer":{"class_name":"VarianceScaling","config":{"scale":1,"mode":"fan_avg","distribution":"normal","seed":null}},"bias_initializer":{"class_name":"Zeros","config":{}},"kernel_regularizer":null,"bias_regularizer":null,"activity_regularizer":null,"kernel_constraint":null,"bias_constraint":null,"name":"dense_Dense3183","trainable":true},"inbound_nodes":[[["dense_Dense3182",0,0,{}]]]},{"name":"dense_Dense3184","class_name":"Dense","config":{"units":16,"activation":"relu","use_bias":true,"kernel_initializer":{"class_name":"VarianceScaling","config":{"scale":1,"mode":"fan_avg","distribution":"normal","seed":null}},"bias_initializer":{"class_name":"Zeros","config":{}},"kernel_regularizer":null,"bias_regularizer":null,"activity_regularizer":null,"kernel_constraint":null,"bias_constraint":null,"name":"dense_Dense3184","trainable":true},"inbound_nodes":[[["dense_Dense3183",0,0,{}]]]},{"name":"dense_Dense3185","class_name":"Dense","config":{"units":4,"activation":"relu","use_bias":true,"kernel_initializer":{"class_name":"VarianceScaling","config":{"scale":1,"mode":"fan_avg","distribution":"normal","seed":null}},"bias_initializer":{"class_name":"Zeros","config":{}},"kernel_regularizer":null,"bias_regularizer":null,"activity_regularizer":null,"kernel_constraint":null,"bias_constraint":null,"name":"dense_Dense3185","trainable":true},"inbound_nodes":[[["dense_Dense3184",0,0,{}]]]},{"name":"dense_Dense3186","class_name":"Dense","config":{"units":1,"activation":"sigmoid","use_bias":true,"kernel_initializer":{"class_name":"VarianceScaling","config":{"scale":1,"mode":"fan_avg","distribution":"normal","seed":null}},"bias_initializer":{"class_name":"Zeros","config":{}},"kernel_regularizer":null,"bias_regularizer":null,"activity_regularizer":null,"kernel_constraint":null,"bias_constraint":null,"name":"dense_Dense3186","trainable":true},"inbound_nodes":[[["dense_Dense3185",0,0,{}]]]}],"input_layers":[["input531",0,0]],"output_layers":[["dense_Dense3186",0,0]]},"keras_version":"tfjs-layers 3.9.0","backend":"tensor_flow.js"},"weightsManifest":[{"paths":["weights.bin"],"weights":[{"name":"dense_Dense3181/kernel","shape":[3,16],"dtype":"float32"},{"name":"dense_Dense3181/bias","shape":[16],"dtype":"float32"},{"name":"dense_Dense3182/kernel","shape":[16,4],"dtype":"float32"},{"name":"dense_Dense3182/bias","shape":[4],"dtype":"float32"},{"name":"dense_Dense3183/kernel","shape":[4,4],"dtype":"float32"},{"name":"dense_Dense3183/bias","shape":[4],"dtype":"float32"},{"name":"dense_Dense3184/kernel","shape":[4,16],"dtype":"float32"},{"name":"dense_Dense3184/bias","shape":[16],"dtype":"float32"},{"name":"dense_Dense3185/kernel","shape":[16,4],"dtype":"float32"},{"name":"dense_Dense3185/bias","shape":[4],"dtype":"float32"},{"name":"dense_Dense3186/kernel","shape":[4,1],"dtype":"float32"},{"name":"dense_Dense3186/bias","shape":[1],"dtype":"float32"}]}]}