{"modelTopology":{"class_name":"Model","config":{"name":"model1179","layers":[{"name":"input1179","class_name":"InputLayer","config":{"batch_input_shape":[null,3],"dtype":"float32","sparse":false,"name":"input1179"},"inbound_nodes":[]},{"name":"dense_Dense7069","class_name":"Dense","config":{"units":1,"activation":"relu","use_bias":true,"kernel_initializer":{"class_name":"VarianceScaling","config":{"scale":1,"mode":"fan_avg","distribution":"normal","seed":null}},"bias_initializer":{"class_name":"Zeros","config":{}},"kernel_regularizer":null,"bias_regularizer":null,"activity_regularizer":null,"kernel_constraint":null,"bias_constraint":null,"name":"dense_Dense7069","trainable":true},"inbound_nodes":[[["input1179",0,0,{}]]]},{"name":"dense_Dense7070","class_name":"Dense","config":{"units":32,"activation":"relu","use_bias":true,"kernel_initializer":{"class_name":"VarianceScaling","config":{"scale":1,"mode":"fan_avg","distribution":"normal","seed":null}},"bias_initializer":{"class_name":"Zeros","config":{}},"kernel_regularizer":null,"bias_regularizer":null,"activity_regularizer":null,"kernel_constraint":null,"bias_constraint":null,"name":"dense_Dense7070","trainable":true},"inbound_nodes":[[["dense_Dense7069",0,0,{}]]]},{"name":"dense_Dense7071","class_name":"Dense","config":{"units":4,"activation":"relu","use_bias":true,"kernel_initializer":{"class_name":"VarianceScaling","config":{"scale":1,"mode":"fan_avg","distribution":"normal","seed":null}},"bias_initializer":{"class_name":"Zeros","config":{}},"kernel_regularizer":null,"bias_regularizer":null,"activity_regularizer":null,"kernel_constraint":null,"bias_constraint":null,"name":"dense_Dense7071","trainable":true},"inbound_nodes":[[["dense_Dense7070",0,0,{}]]]},{"name":"dense_Dense7072","class_name":"Dense","config":{"units":16,"activation":"relu","use_bias":true,"kernel_initializer":{"class_name":"VarianceScaling","config":{"scale":1,"mode":"fan_avg","distribution":"normal","seed":null}},"bias_initializer":{"class_name":"Zeros","config":{}},"kernel_regularizer":null,"bias_regularizer":null,"activity_regularizer":null,"kernel_constraint":null,"bias_constraint":null,"name":"dense_Dense7072","trainable":true},"inbound_nodes":[[["dense_Dense7071",0,0,{}]]]},{"name":"dense_Dense7073","class_name":"Dense","config":{"units":4,"activation":"relu","use_bias":true,"kernel_initializer":{"class_name":"VarianceScaling","config":{"scale":1,"mode":"fan_avg","distribution":"normal","seed":null}},"bias_initializer":{"class_name":"Zeros","config":{}},"kernel_regularizer":null,"bias_regularizer":null,"activity_regularizer":null,"kernel_constraint":null,"bias_constraint":null,"name":"dense_Dense7073","trainable":true},"inbound_nodes":[[["dense_Dense7072",0,0,{}]]]},{"name":"dense_Dense7074","class_name":"Dense","config":{"units":1,"activation":"sigmoid","use_bias":true,"kernel_initializer":{"class_name":"VarianceScaling","config":{"scale":1,"mode":"fan_avg","distribution":"normal","seed":null}},"bias_initializer":{"class_name":"Zeros","config":{}},"kernel_regularizer":null,"bias_regularizer":null,"activity_regularizer":null,"kernel_constraint":null,"bias_constraint":null,"name":"dense_Dense7074","trainable":true},"inbound_nodes":[[["dense_Dense7073",0,0,{}]]]}],"input_layers":[["input1179",0,0]],"output_layers":[["dense_Dense7074",0,0]]},"keras_version":"tfjs-layers 3.9.0","backend":"tensor_flow.js"},"weightsManifest":[{"paths":["weights.bin"],"weights":[{"name":"dense_Dense7069/kernel","shape":[3,1],"dtype":"float32"},{"name":"dense_Dense7069/bias","shape":[1],"dtype":"float32"},{"name":"dense_Dense7070/kernel","shape":[1,32],"dtype":"float32"},{"name":"dense_Dense7070/bias","shape":[32],"dtype":"float32"},{"name":"dense_Dense7071/kernel","shape":[32,4],"dtype":"float32"},{"name":"dense_Dense7071/bias","shape":[4],"dtype":"float32"},{"name":"dense_Dense7072/kernel","shape":[4,16],"dtype":"float32"},{"name":"dense_Dense7072/bias","shape":[16],"dtype":"float32"},{"name":"dense_Dense7073/kernel","shape":[16,4],"dtype":"float32"},{"name":"dense_Dense7073/bias","shape":[4],"dtype":"float32"},{"name":"dense_Dense7074/kernel","shape":[4,1],"dtype":"float32"},{"name":"dense_Dense7074/bias","shape":[1],"dtype":"float32"}]}]}