{"modelTopology":{"class_name":"Model","config":{"name":"model888","layers":[{"name":"input888","class_name":"InputLayer","config":{"batch_input_shape":[null,3],"dtype":"float32","sparse":false,"name":"input888"},"inbound_nodes":[]},{"name":"dense_Dense5323","class_name":"Dense","config":{"units":2,"activation":"relu","use_bias":true,"kernel_initializer":{"class_name":"VarianceScaling","config":{"scale":1,"mode":"fan_avg","distribution":"normal","seed":null}},"bias_initializer":{"class_name":"Zeros","config":{}},"kernel_regularizer":null,"bias_regularizer":null,"activity_regularizer":null,"kernel_constraint":null,"bias_constraint":null,"name":"dense_Dense5323","trainable":true},"inbound_nodes":[[["input888",0,0,{}]]]},{"name":"dense_Dense5324","class_name":"Dense","config":{"units":16,"activation":"relu","use_bias":true,"kernel_initializer":{"class_name":"VarianceScaling","config":{"scale":1,"mode":"fan_avg","distribution":"normal","seed":null}},"bias_initializer":{"class_name":"Zeros","config":{}},"kernel_regularizer":null,"bias_regularizer":null,"activity_regularizer":null,"kernel_constraint":null,"bias_constraint":null,"name":"dense_Dense5324","trainable":true},"inbound_nodes":[[["dense_Dense5323",0,0,{}]]]},{"name":"dense_Dense5325","class_name":"Dense","config":{"units":1,"activation":"relu","use_bias":true,"kernel_initializer":{"class_name":"VarianceScaling","config":{"scale":1,"mode":"fan_avg","distribution":"normal","seed":null}},"bias_initializer":{"class_name":"Zeros","config":{}},"kernel_regularizer":null,"bias_regularizer":null,"activity_regularizer":null,"kernel_constraint":null,"bias_constraint":null,"name":"dense_Dense5325","trainable":true},"inbound_nodes":[[["dense_Dense5324",0,0,{}]]]},{"name":"dense_Dense5326","class_name":"Dense","config":{"units":8,"activation":"relu","use_bias":true,"kernel_initializer":{"class_name":"VarianceScaling","config":{"scale":1,"mode":"fan_avg","distribution":"normal","seed":null}},"bias_initializer":{"class_name":"Zeros","config":{}},"kernel_regularizer":null,"bias_regularizer":null,"activity_regularizer":null,"kernel_constraint":null,"bias_constraint":null,"name":"dense_Dense5326","trainable":true},"inbound_nodes":[[["dense_Dense5325",0,0,{}]]]},{"name":"dense_Dense5327","class_name":"Dense","config":{"units":32,"activation":"relu","use_bias":true,"kernel_initializer":{"class_name":"VarianceScaling","config":{"scale":1,"mode":"fan_avg","distribution":"normal","seed":null}},"bias_initializer":{"class_name":"Zeros","config":{}},"kernel_regularizer":null,"bias_regularizer":null,"activity_regularizer":null,"kernel_constraint":null,"bias_constraint":null,"name":"dense_Dense5327","trainable":true},"inbound_nodes":[[["dense_Dense5326",0,0,{}]]]},{"name":"dense_Dense5328","class_name":"Dense","config":{"units":1,"activation":"sigmoid","use_bias":true,"kernel_initializer":{"class_name":"VarianceScaling","config":{"scale":1,"mode":"fan_avg","distribution":"normal","seed":null}},"bias_initializer":{"class_name":"Zeros","config":{}},"kernel_regularizer":null,"bias_regularizer":null,"activity_regularizer":null,"kernel_constraint":null,"bias_constraint":null,"name":"dense_Dense5328","trainable":true},"inbound_nodes":[[["dense_Dense5327",0,0,{}]]]}],"input_layers":[["input888",0,0]],"output_layers":[["dense_Dense5328",0,0]]},"keras_version":"tfjs-layers 3.9.0","backend":"tensor_flow.js"},"weightsManifest":[{"paths":["weights.bin"],"weights":[{"name":"dense_Dense5323/kernel","shape":[3,2],"dtype":"float32"},{"name":"dense_Dense5323/bias","shape":[2],"dtype":"float32"},{"name":"dense_Dense5324/kernel","shape":[2,16],"dtype":"float32"},{"name":"dense_Dense5324/bias","shape":[16],"dtype":"float32"},{"name":"dense_Dense5325/kernel","shape":[16,1],"dtype":"float32"},{"name":"dense_Dense5325/bias","shape":[1],"dtype":"float32"},{"name":"dense_Dense5326/kernel","shape":[1,8],"dtype":"float32"},{"name":"dense_Dense5326/bias","shape":[8],"dtype":"float32"},{"name":"dense_Dense5327/kernel","shape":[8,32],"dtype":"float32"},{"name":"dense_Dense5327/bias","shape":[32],"dtype":"float32"},{"name":"dense_Dense5328/kernel","shape":[32,1],"dtype":"float32"},{"name":"dense_Dense5328/bias","shape":[1],"dtype":"float32"}]}]}