{"modelTopology":{"class_name":"Model","config":{"name":"model1107","layers":[{"name":"input1107","class_name":"InputLayer","config":{"batch_input_shape":[null,3],"dtype":"float32","sparse":false,"name":"input1107"},"inbound_nodes":[]},{"name":"dense_Dense6637","class_name":"Dense","config":{"units":2,"activation":"relu","use_bias":true,"kernel_initializer":{"class_name":"VarianceScaling","config":{"scale":1,"mode":"fan_avg","distribution":"normal","seed":null}},"bias_initializer":{"class_name":"Zeros","config":{}},"kernel_regularizer":null,"bias_regularizer":null,"activity_regularizer":null,"kernel_constraint":null,"bias_constraint":null,"name":"dense_Dense6637","trainable":true},"inbound_nodes":[[["input1107",0,0,{}]]]},{"name":"dense_Dense6638","class_name":"Dense","config":{"units":32,"activation":"relu","use_bias":true,"kernel_initializer":{"class_name":"VarianceScaling","config":{"scale":1,"mode":"fan_avg","distribution":"normal","seed":null}},"bias_initializer":{"class_name":"Zeros","config":{}},"kernel_regularizer":null,"bias_regularizer":null,"activity_regularizer":null,"kernel_constraint":null,"bias_constraint":null,"name":"dense_Dense6638","trainable":true},"inbound_nodes":[[["dense_Dense6637",0,0,{}]]]},{"name":"dense_Dense6639","class_name":"Dense","config":{"units":1,"activation":"relu","use_bias":true,"kernel_initializer":{"class_name":"VarianceScaling","config":{"scale":1,"mode":"fan_avg","distribution":"normal","seed":null}},"bias_initializer":{"class_name":"Zeros","config":{}},"kernel_regularizer":null,"bias_regularizer":null,"activity_regularizer":null,"kernel_constraint":null,"bias_constraint":null,"name":"dense_Dense6639","trainable":true},"inbound_nodes":[[["dense_Dense6638",0,0,{}]]]},{"name":"dense_Dense6640","class_name":"Dense","config":{"units":16,"activation":"relu","use_bias":true,"kernel_initializer":{"class_name":"VarianceScaling","config":{"scale":1,"mode":"fan_avg","distribution":"normal","seed":null}},"bias_initializer":{"class_name":"Zeros","config":{}},"kernel_regularizer":null,"bias_regularizer":null,"activity_regularizer":null,"kernel_constraint":null,"bias_constraint":null,"name":"dense_Dense6640","trainable":true},"inbound_nodes":[[["dense_Dense6639",0,0,{}]]]},{"name":"dense_Dense6641","class_name":"Dense","config":{"units":4,"activation":"relu","use_bias":true,"kernel_initializer":{"class_name":"VarianceScaling","config":{"scale":1,"mode":"fan_avg","distribution":"normal","seed":null}},"bias_initializer":{"class_name":"Zeros","config":{}},"kernel_regularizer":null,"bias_regularizer":null,"activity_regularizer":null,"kernel_constraint":null,"bias_constraint":null,"name":"dense_Dense6641","trainable":true},"inbound_nodes":[[["dense_Dense6640",0,0,{}]]]},{"name":"dense_Dense6642","class_name":"Dense","config":{"units":1,"activation":"sigmoid","use_bias":true,"kernel_initializer":{"class_name":"VarianceScaling","config":{"scale":1,"mode":"fan_avg","distribution":"normal","seed":null}},"bias_initializer":{"class_name":"Zeros","config":{}},"kernel_regularizer":null,"bias_regularizer":null,"activity_regularizer":null,"kernel_constraint":null,"bias_constraint":null,"name":"dense_Dense6642","trainable":true},"inbound_nodes":[[["dense_Dense6641",0,0,{}]]]}],"input_layers":[["input1107",0,0]],"output_layers":[["dense_Dense6642",0,0]]},"keras_version":"tfjs-layers 3.9.0","backend":"tensor_flow.js"},"weightsManifest":[{"paths":["weights.bin"],"weights":[{"name":"dense_Dense6637/kernel","shape":[3,2],"dtype":"float32"},{"name":"dense_Dense6637/bias","shape":[2],"dtype":"float32"},{"name":"dense_Dense6638/kernel","shape":[2,32],"dtype":"float32"},{"name":"dense_Dense6638/bias","shape":[32],"dtype":"float32"},{"name":"dense_Dense6639/kernel","shape":[32,1],"dtype":"float32"},{"name":"dense_Dense6639/bias","shape":[1],"dtype":"float32"},{"name":"dense_Dense6640/kernel","shape":[1,16],"dtype":"float32"},{"name":"dense_Dense6640/bias","shape":[16],"dtype":"float32"},{"name":"dense_Dense6641/kernel","shape":[16,4],"dtype":"float32"},{"name":"dense_Dense6641/bias","shape":[4],"dtype":"float32"},{"name":"dense_Dense6642/kernel","shape":[4,1],"dtype":"float32"},{"name":"dense_Dense6642/bias","shape":[1],"dtype":"float32"}]}]}