{"modelTopology":{"class_name":"Model","config":{"name":"model722","layers":[{"name":"input722","class_name":"InputLayer","config":{"batch_input_shape":[null,3],"dtype":"float32","sparse":false,"name":"input722"},"inbound_nodes":[]},{"name":"dense_Dense4327","class_name":"Dense","config":{"units":4,"activation":"relu","use_bias":true,"kernel_initializer":{"class_name":"VarianceScaling","config":{"scale":1,"mode":"fan_avg","distribution":"normal","seed":null}},"bias_initializer":{"class_name":"Zeros","config":{}},"kernel_regularizer":null,"bias_regularizer":null,"activity_regularizer":null,"kernel_constraint":null,"bias_constraint":null,"name":"dense_Dense4327","trainable":true},"inbound_nodes":[[["input722",0,0,{}]]]},{"name":"dense_Dense4328","class_name":"Dense","config":{"units":8,"activation":"relu","use_bias":true,"kernel_initializer":{"class_name":"VarianceScaling","config":{"scale":1,"mode":"fan_avg","distribution":"normal","seed":null}},"bias_initializer":{"class_name":"Zeros","config":{}},"kernel_regularizer":null,"bias_regularizer":null,"activity_regularizer":null,"kernel_constraint":null,"bias_constraint":null,"name":"dense_Dense4328","trainable":true},"inbound_nodes":[[["dense_Dense4327",0,0,{}]]]},{"name":"dense_Dense4329","class_name":"Dense","config":{"units":4,"activation":"relu","use_bias":true,"kernel_initializer":{"class_name":"VarianceScaling","config":{"scale":1,"mode":"fan_avg","distribution":"normal","seed":null}},"bias_initializer":{"class_name":"Zeros","config":{}},"kernel_regularizer":null,"bias_regularizer":null,"activity_regularizer":null,"kernel_constraint":null,"bias_constraint":null,"name":"dense_Dense4329","trainable":true},"inbound_nodes":[[["dense_Dense4328",0,0,{}]]]},{"name":"dense_Dense4330","class_name":"Dense","config":{"units":1,"activation":"relu","use_bias":true,"kernel_initializer":{"class_name":"VarianceScaling","config":{"scale":1,"mode":"fan_avg","distribution":"normal","seed":null}},"bias_initializer":{"class_name":"Zeros","config":{}},"kernel_regularizer":null,"bias_regularizer":null,"activity_regularizer":null,"kernel_constraint":null,"bias_constraint":null,"name":"dense_Dense4330","trainable":true},"inbound_nodes":[[["dense_Dense4329",0,0,{}]]]},{"name":"dense_Dense4331","class_name":"Dense","config":{"units":2,"activation":"relu","use_bias":true,"kernel_initializer":{"class_name":"VarianceScaling","config":{"scale":1,"mode":"fan_avg","distribution":"normal","seed":null}},"bias_initializer":{"class_name":"Zeros","config":{}},"kernel_regularizer":null,"bias_regularizer":null,"activity_regularizer":null,"kernel_constraint":null,"bias_constraint":null,"name":"dense_Dense4331","trainable":true},"inbound_nodes":[[["dense_Dense4330",0,0,{}]]]},{"name":"dense_Dense4332","class_name":"Dense","config":{"units":1,"activation":"sigmoid","use_bias":true,"kernel_initializer":{"class_name":"VarianceScaling","config":{"scale":1,"mode":"fan_avg","distribution":"normal","seed":null}},"bias_initializer":{"class_name":"Zeros","config":{}},"kernel_regularizer":null,"bias_regularizer":null,"activity_regularizer":null,"kernel_constraint":null,"bias_constraint":null,"name":"dense_Dense4332","trainable":true},"inbound_nodes":[[["dense_Dense4331",0,0,{}]]]}],"input_layers":[["input722",0,0]],"output_layers":[["dense_Dense4332",0,0]]},"keras_version":"tfjs-layers 3.9.0","backend":"tensor_flow.js"},"weightsManifest":[{"paths":["weights.bin"],"weights":[{"name":"dense_Dense4327/kernel","shape":[3,4],"dtype":"float32"},{"name":"dense_Dense4327/bias","shape":[4],"dtype":"float32"},{"name":"dense_Dense4328/kernel","shape":[4,8],"dtype":"float32"},{"name":"dense_Dense4328/bias","shape":[8],"dtype":"float32"},{"name":"dense_Dense4329/kernel","shape":[8,4],"dtype":"float32"},{"name":"dense_Dense4329/bias","shape":[4],"dtype":"float32"},{"name":"dense_Dense4330/kernel","shape":[4,1],"dtype":"float32"},{"name":"dense_Dense4330/bias","shape":[1],"dtype":"float32"},{"name":"dense_Dense4331/kernel","shape":[1,2],"dtype":"float32"},{"name":"dense_Dense4331/bias","shape":[2],"dtype":"float32"},{"name":"dense_Dense4332/kernel","shape":[2,1],"dtype":"float32"},{"name":"dense_Dense4332/bias","shape":[1],"dtype":"float32"}]}]}