{"modelTopology":{"class_name":"Model","config":{"name":"model1026","layers":[{"name":"input1026","class_name":"InputLayer","config":{"batch_input_shape":[null,3],"dtype":"float32","sparse":false,"name":"input1026"},"inbound_nodes":[]},{"name":"dense_Dense6151","class_name":"Dense","config":{"units":8,"activation":"relu","use_bias":true,"kernel_initializer":{"class_name":"VarianceScaling","config":{"scale":1,"mode":"fan_avg","distribution":"normal","seed":null}},"bias_initializer":{"class_name":"Zeros","config":{}},"kernel_regularizer":null,"bias_regularizer":null,"activity_regularizer":null,"kernel_constraint":null,"bias_constraint":null,"name":"dense_Dense6151","trainable":true},"inbound_nodes":[[["input1026",0,0,{}]]]},{"name":"dense_Dense6152","class_name":"Dense","config":{"units":16,"activation":"relu","use_bias":true,"kernel_initializer":{"class_name":"VarianceScaling","config":{"scale":1,"mode":"fan_avg","distribution":"normal","seed":null}},"bias_initializer":{"class_name":"Zeros","config":{}},"kernel_regularizer":null,"bias_regularizer":null,"activity_regularizer":null,"kernel_constraint":null,"bias_constraint":null,"name":"dense_Dense6152","trainable":true},"inbound_nodes":[[["dense_Dense6151",0,0,{}]]]},{"name":"dense_Dense6153","class_name":"Dense","config":{"units":16,"activation":"relu","use_bias":true,"kernel_initializer":{"class_name":"VarianceScaling","config":{"scale":1,"mode":"fan_avg","distribution":"normal","seed":null}},"bias_initializer":{"class_name":"Zeros","config":{}},"kernel_regularizer":null,"bias_regularizer":null,"activity_regularizer":null,"kernel_constraint":null,"bias_constraint":null,"name":"dense_Dense6153","trainable":true},"inbound_nodes":[[["dense_Dense6152",0,0,{}]]]},{"name":"dense_Dense6154","class_name":"Dense","config":{"units":4,"activation":"relu","use_bias":true,"kernel_initializer":{"class_name":"VarianceScaling","config":{"scale":1,"mode":"fan_avg","distribution":"normal","seed":null}},"bias_initializer":{"class_name":"Zeros","config":{}},"kernel_regularizer":null,"bias_regularizer":null,"activity_regularizer":null,"kernel_constraint":null,"bias_constraint":null,"name":"dense_Dense6154","trainable":true},"inbound_nodes":[[["dense_Dense6153",0,0,{}]]]},{"name":"dense_Dense6155","class_name":"Dense","config":{"units":32,"activation":"relu","use_bias":true,"kernel_initializer":{"class_name":"VarianceScaling","config":{"scale":1,"mode":"fan_avg","distribution":"normal","seed":null}},"bias_initializer":{"class_name":"Zeros","config":{}},"kernel_regularizer":null,"bias_regularizer":null,"activity_regularizer":null,"kernel_constraint":null,"bias_constraint":null,"name":"dense_Dense6155","trainable":true},"inbound_nodes":[[["dense_Dense6154",0,0,{}]]]},{"name":"dense_Dense6156","class_name":"Dense","config":{"units":1,"activation":"sigmoid","use_bias":true,"kernel_initializer":{"class_name":"VarianceScaling","config":{"scale":1,"mode":"fan_avg","distribution":"normal","seed":null}},"bias_initializer":{"class_name":"Zeros","config":{}},"kernel_regularizer":null,"bias_regularizer":null,"activity_regularizer":null,"kernel_constraint":null,"bias_constraint":null,"name":"dense_Dense6156","trainable":true},"inbound_nodes":[[["dense_Dense6155",0,0,{}]]]}],"input_layers":[["input1026",0,0]],"output_layers":[["dense_Dense6156",0,0]]},"keras_version":"tfjs-layers 3.9.0","backend":"tensor_flow.js"},"weightsManifest":[{"paths":["weights.bin"],"weights":[{"name":"dense_Dense6151/kernel","shape":[3,8],"dtype":"float32"},{"name":"dense_Dense6151/bias","shape":[8],"dtype":"float32"},{"name":"dense_Dense6152/kernel","shape":[8,16],"dtype":"float32"},{"name":"dense_Dense6152/bias","shape":[16],"dtype":"float32"},{"name":"dense_Dense6153/kernel","shape":[16,16],"dtype":"float32"},{"name":"dense_Dense6153/bias","shape":[16],"dtype":"float32"},{"name":"dense_Dense6154/kernel","shape":[16,4],"dtype":"float32"},{"name":"dense_Dense6154/bias","shape":[4],"dtype":"float32"},{"name":"dense_Dense6155/kernel","shape":[4,32],"dtype":"float32"},{"name":"dense_Dense6155/bias","shape":[32],"dtype":"float32"},{"name":"dense_Dense6156/kernel","shape":[32,1],"dtype":"float32"},{"name":"dense_Dense6156/bias","shape":[1],"dtype":"float32"}]}]}