{"modelTopology":{"class_name":"Model","config":{"name":"model1185","layers":[{"name":"input1185","class_name":"InputLayer","config":{"batch_input_shape":[null,3],"dtype":"float32","sparse":false,"name":"input1185"},"inbound_nodes":[]},{"name":"dense_Dense7105","class_name":"Dense","config":{"units":4,"activation":"relu","use_bias":true,"kernel_initializer":{"class_name":"VarianceScaling","config":{"scale":1,"mode":"fan_avg","distribution":"normal","seed":null}},"bias_initializer":{"class_name":"Zeros","config":{}},"kernel_regularizer":null,"bias_regularizer":null,"activity_regularizer":null,"kernel_constraint":null,"bias_constraint":null,"name":"dense_Dense7105","trainable":true},"inbound_nodes":[[["input1185",0,0,{}]]]},{"name":"dense_Dense7106","class_name":"Dense","config":{"units":32,"activation":"relu","use_bias":true,"kernel_initializer":{"class_name":"VarianceScaling","config":{"scale":1,"mode":"fan_avg","distribution":"normal","seed":null}},"bias_initializer":{"class_name":"Zeros","config":{}},"kernel_regularizer":null,"bias_regularizer":null,"activity_regularizer":null,"kernel_constraint":null,"bias_constraint":null,"name":"dense_Dense7106","trainable":true},"inbound_nodes":[[["dense_Dense7105",0,0,{}]]]},{"name":"dense_Dense7107","class_name":"Dense","config":{"units":4,"activation":"relu","use_bias":true,"kernel_initializer":{"class_name":"VarianceScaling","config":{"scale":1,"mode":"fan_avg","distribution":"normal","seed":null}},"bias_initializer":{"class_name":"Zeros","config":{}},"kernel_regularizer":null,"bias_regularizer":null,"activity_regularizer":null,"kernel_constraint":null,"bias_constraint":null,"name":"dense_Dense7107","trainable":true},"inbound_nodes":[[["dense_Dense7106",0,0,{}]]]},{"name":"dense_Dense7108","class_name":"Dense","config":{"units":32,"activation":"relu","use_bias":true,"kernel_initializer":{"class_name":"VarianceScaling","config":{"scale":1,"mode":"fan_avg","distribution":"normal","seed":null}},"bias_initializer":{"class_name":"Zeros","config":{}},"kernel_regularizer":null,"bias_regularizer":null,"activity_regularizer":null,"kernel_constraint":null,"bias_constraint":null,"name":"dense_Dense7108","trainable":true},"inbound_nodes":[[["dense_Dense7107",0,0,{}]]]},{"name":"dense_Dense7109","class_name":"Dense","config":{"units":4,"activation":"relu","use_bias":true,"kernel_initializer":{"class_name":"VarianceScaling","config":{"scale":1,"mode":"fan_avg","distribution":"normal","seed":null}},"bias_initializer":{"class_name":"Zeros","config":{}},"kernel_regularizer":null,"bias_regularizer":null,"activity_regularizer":null,"kernel_constraint":null,"bias_constraint":null,"name":"dense_Dense7109","trainable":true},"inbound_nodes":[[["dense_Dense7108",0,0,{}]]]},{"name":"dense_Dense7110","class_name":"Dense","config":{"units":1,"activation":"sigmoid","use_bias":true,"kernel_initializer":{"class_name":"VarianceScaling","config":{"scale":1,"mode":"fan_avg","distribution":"normal","seed":null}},"bias_initializer":{"class_name":"Zeros","config":{}},"kernel_regularizer":null,"bias_regularizer":null,"activity_regularizer":null,"kernel_constraint":null,"bias_constraint":null,"name":"dense_Dense7110","trainable":true},"inbound_nodes":[[["dense_Dense7109",0,0,{}]]]}],"input_layers":[["input1185",0,0]],"output_layers":[["dense_Dense7110",0,0]]},"keras_version":"tfjs-layers 3.9.0","backend":"tensor_flow.js"},"weightsManifest":[{"paths":["weights.bin"],"weights":[{"name":"dense_Dense7105/kernel","shape":[3,4],"dtype":"float32"},{"name":"dense_Dense7105/bias","shape":[4],"dtype":"float32"},{"name":"dense_Dense7106/kernel","shape":[4,32],"dtype":"float32"},{"name":"dense_Dense7106/bias","shape":[32],"dtype":"float32"},{"name":"dense_Dense7107/kernel","shape":[32,4],"dtype":"float32"},{"name":"dense_Dense7107/bias","shape":[4],"dtype":"float32"},{"name":"dense_Dense7108/kernel","shape":[4,32],"dtype":"float32"},{"name":"dense_Dense7108/bias","shape":[32],"dtype":"float32"},{"name":"dense_Dense7109/kernel","shape":[32,4],"dtype":"float32"},{"name":"dense_Dense7109/bias","shape":[4],"dtype":"float32"},{"name":"dense_Dense7110/kernel","shape":[4,1],"dtype":"float32"},{"name":"dense_Dense7110/bias","shape":[1],"dtype":"float32"}]}]}