{"modelTopology":{"class_name":"Model","config":{"name":"model160","layers":[{"name":"input160","class_name":"InputLayer","config":{"batch_input_shape":[null,3],"dtype":"float32","sparse":false,"name":"input160"},"inbound_nodes":[]},{"name":"dense_Dense955","class_name":"Dense","config":{"units":8,"activation":"relu","use_bias":true,"kernel_initializer":{"class_name":"VarianceScaling","config":{"scale":1,"mode":"fan_avg","distribution":"normal","seed":null}},"bias_initializer":{"class_name":"Zeros","config":{}},"kernel_regularizer":null,"bias_regularizer":null,"activity_regularizer":null,"kernel_constraint":null,"bias_constraint":null,"name":"dense_Dense955","trainable":true},"inbound_nodes":[[["input160",0,0,{}]]]},{"name":"dense_Dense956","class_name":"Dense","config":{"units":1,"activation":"relu","use_bias":true,"kernel_initializer":{"class_name":"VarianceScaling","config":{"scale":1,"mode":"fan_avg","distribution":"normal","seed":null}},"bias_initializer":{"class_name":"Zeros","config":{}},"kernel_regularizer":null,"bias_regularizer":null,"activity_regularizer":null,"kernel_constraint":null,"bias_constraint":null,"name":"dense_Dense956","trainable":true},"inbound_nodes":[[["dense_Dense955",0,0,{}]]]},{"name":"dense_Dense957","class_name":"Dense","config":{"units":16,"activation":"relu","use_bias":true,"kernel_initializer":{"class_name":"VarianceScaling","config":{"scale":1,"mode":"fan_avg","distribution":"normal","seed":null}},"bias_initializer":{"class_name":"Zeros","config":{}},"kernel_regularizer":null,"bias_regularizer":null,"activity_regularizer":null,"kernel_constraint":null,"bias_constraint":null,"name":"dense_Dense957","trainable":true},"inbound_nodes":[[["dense_Dense956",0,0,{}]]]},{"name":"dense_Dense958","class_name":"Dense","config":{"units":4,"activation":"relu","use_bias":true,"kernel_initializer":{"class_name":"VarianceScaling","config":{"scale":1,"mode":"fan_avg","distribution":"normal","seed":null}},"bias_initializer":{"class_name":"Zeros","config":{}},"kernel_regularizer":null,"bias_regularizer":null,"activity_regularizer":null,"kernel_constraint":null,"bias_constraint":null,"name":"dense_Dense958","trainable":true},"inbound_nodes":[[["dense_Dense957",0,0,{}]]]},{"name":"dense_Dense959","class_name":"Dense","config":{"units":8,"activation":"relu","use_bias":true,"kernel_initializer":{"class_name":"VarianceScaling","config":{"scale":1,"mode":"fan_avg","distribution":"normal","seed":null}},"bias_initializer":{"class_name":"Zeros","config":{}},"kernel_regularizer":null,"bias_regularizer":null,"activity_regularizer":null,"kernel_constraint":null,"bias_constraint":null,"name":"dense_Dense959","trainable":true},"inbound_nodes":[[["dense_Dense958",0,0,{}]]]},{"name":"dense_Dense960","class_name":"Dense","config":{"units":1,"activation":"sigmoid","use_bias":true,"kernel_initializer":{"class_name":"VarianceScaling","config":{"scale":1,"mode":"fan_avg","distribution":"normal","seed":null}},"bias_initializer":{"class_name":"Zeros","config":{}},"kernel_regularizer":null,"bias_regularizer":null,"activity_regularizer":null,"kernel_constraint":null,"bias_constraint":null,"name":"dense_Dense960","trainable":true},"inbound_nodes":[[["dense_Dense959",0,0,{}]]]}],"input_layers":[["input160",0,0]],"output_layers":[["dense_Dense960",0,0]]},"keras_version":"tfjs-layers 3.9.0","backend":"tensor_flow.js"},"weightsManifest":[{"paths":["weights.bin"],"weights":[{"name":"dense_Dense955/kernel","shape":[3,8],"dtype":"float32"},{"name":"dense_Dense955/bias","shape":[8],"dtype":"float32"},{"name":"dense_Dense956/kernel","shape":[8,1],"dtype":"float32"},{"name":"dense_Dense956/bias","shape":[1],"dtype":"float32"},{"name":"dense_Dense957/kernel","shape":[1,16],"dtype":"float32"},{"name":"dense_Dense957/bias","shape":[16],"dtype":"float32"},{"name":"dense_Dense958/kernel","shape":[16,4],"dtype":"float32"},{"name":"dense_Dense958/bias","shape":[4],"dtype":"float32"},{"name":"dense_Dense959/kernel","shape":[4,8],"dtype":"float32"},{"name":"dense_Dense959/bias","shape":[8],"dtype":"float32"},{"name":"dense_Dense960/kernel","shape":[8,1],"dtype":"float32"},{"name":"dense_Dense960/bias","shape":[1],"dtype":"float32"}]}]}