{"modelTopology":{"class_name":"Model","config":{"name":"model1174","layers":[{"name":"input1174","class_name":"InputLayer","config":{"batch_input_shape":[null,3],"dtype":"float32","sparse":false,"name":"input1174"},"inbound_nodes":[]},{"name":"dense_Dense7039","class_name":"Dense","config":{"units":1,"activation":"relu","use_bias":true,"kernel_initializer":{"class_name":"VarianceScaling","config":{"scale":1,"mode":"fan_avg","distribution":"normal","seed":null}},"bias_initializer":{"class_name":"Zeros","config":{}},"kernel_regularizer":null,"bias_regularizer":null,"activity_regularizer":null,"kernel_constraint":null,"bias_constraint":null,"name":"dense_Dense7039","trainable":true},"inbound_nodes":[[["input1174",0,0,{}]]]},{"name":"dense_Dense7040","class_name":"Dense","config":{"units":32,"activation":"relu","use_bias":true,"kernel_initializer":{"class_name":"VarianceScaling","config":{"scale":1,"mode":"fan_avg","distribution":"normal","seed":null}},"bias_initializer":{"class_name":"Zeros","config":{}},"kernel_regularizer":null,"bias_regularizer":null,"activity_regularizer":null,"kernel_constraint":null,"bias_constraint":null,"name":"dense_Dense7040","trainable":true},"inbound_nodes":[[["dense_Dense7039",0,0,{}]]]},{"name":"dense_Dense7041","class_name":"Dense","config":{"units":4,"activation":"relu","use_bias":true,"kernel_initializer":{"class_name":"VarianceScaling","config":{"scale":1,"mode":"fan_avg","distribution":"normal","seed":null}},"bias_initializer":{"class_name":"Zeros","config":{}},"kernel_regularizer":null,"bias_regularizer":null,"activity_regularizer":null,"kernel_constraint":null,"bias_constraint":null,"name":"dense_Dense7041","trainable":true},"inbound_nodes":[[["dense_Dense7040",0,0,{}]]]},{"name":"dense_Dense7042","class_name":"Dense","config":{"units":8,"activation":"relu","use_bias":true,"kernel_initializer":{"class_name":"VarianceScaling","config":{"scale":1,"mode":"fan_avg","distribution":"normal","seed":null}},"bias_initializer":{"class_name":"Zeros","config":{}},"kernel_regularizer":null,"bias_regularizer":null,"activity_regularizer":null,"kernel_constraint":null,"bias_constraint":null,"name":"dense_Dense7042","trainable":true},"inbound_nodes":[[["dense_Dense7041",0,0,{}]]]},{"name":"dense_Dense7043","class_name":"Dense","config":{"units":8,"activation":"relu","use_bias":true,"kernel_initializer":{"class_name":"VarianceScaling","config":{"scale":1,"mode":"fan_avg","distribution":"normal","seed":null}},"bias_initializer":{"class_name":"Zeros","config":{}},"kernel_regularizer":null,"bias_regularizer":null,"activity_regularizer":null,"kernel_constraint":null,"bias_constraint":null,"name":"dense_Dense7043","trainable":true},"inbound_nodes":[[["dense_Dense7042",0,0,{}]]]},{"name":"dense_Dense7044","class_name":"Dense","config":{"units":1,"activation":"sigmoid","use_bias":true,"kernel_initializer":{"class_name":"VarianceScaling","config":{"scale":1,"mode":"fan_avg","distribution":"normal","seed":null}},"bias_initializer":{"class_name":"Zeros","config":{}},"kernel_regularizer":null,"bias_regularizer":null,"activity_regularizer":null,"kernel_constraint":null,"bias_constraint":null,"name":"dense_Dense7044","trainable":true},"inbound_nodes":[[["dense_Dense7043",0,0,{}]]]}],"input_layers":[["input1174",0,0]],"output_layers":[["dense_Dense7044",0,0]]},"keras_version":"tfjs-layers 3.9.0","backend":"tensor_flow.js"},"weightsManifest":[{"paths":["weights.bin"],"weights":[{"name":"dense_Dense7039/kernel","shape":[3,1],"dtype":"float32"},{"name":"dense_Dense7039/bias","shape":[1],"dtype":"float32"},{"name":"dense_Dense7040/kernel","shape":[1,32],"dtype":"float32"},{"name":"dense_Dense7040/bias","shape":[32],"dtype":"float32"},{"name":"dense_Dense7041/kernel","shape":[32,4],"dtype":"float32"},{"name":"dense_Dense7041/bias","shape":[4],"dtype":"float32"},{"name":"dense_Dense7042/kernel","shape":[4,8],"dtype":"float32"},{"name":"dense_Dense7042/bias","shape":[8],"dtype":"float32"},{"name":"dense_Dense7043/kernel","shape":[8,8],"dtype":"float32"},{"name":"dense_Dense7043/bias","shape":[8],"dtype":"float32"},{"name":"dense_Dense7044/kernel","shape":[8,1],"dtype":"float32"},{"name":"dense_Dense7044/bias","shape":[1],"dtype":"float32"}]}]}