{"modelTopology":{"class_name":"Model","config":{"name":"model431","layers":[{"name":"input431","class_name":"InputLayer","config":{"batch_input_shape":[null,3],"dtype":"float32","sparse":false,"name":"input431"},"inbound_nodes":[]},{"name":"dense_Dense2151","class_name":"Dense","config":{"units":2,"activation":"relu","use_bias":true,"kernel_initializer":{"class_name":"VarianceScaling","config":{"scale":1,"mode":"fan_avg","distribution":"normal","seed":null}},"bias_initializer":{"class_name":"Zeros","config":{}},"kernel_regularizer":null,"bias_regularizer":null,"activity_regularizer":null,"kernel_constraint":null,"bias_constraint":null,"name":"dense_Dense2151","trainable":true},"inbound_nodes":[[["input431",0,0,{}]]]},{"name":"dense_Dense2152","class_name":"Dense","config":{"units":32,"activation":"relu","use_bias":true,"kernel_initializer":{"class_name":"VarianceScaling","config":{"scale":1,"mode":"fan_avg","distribution":"normal","seed":null}},"bias_initializer":{"class_name":"Zeros","config":{}},"kernel_regularizer":null,"bias_regularizer":null,"activity_regularizer":null,"kernel_constraint":null,"bias_constraint":null,"name":"dense_Dense2152","trainable":true},"inbound_nodes":[[["dense_Dense2151",0,0,{}]]]},{"name":"dense_Dense2153","class_name":"Dense","config":{"units":32,"activation":"relu","use_bias":true,"kernel_initializer":{"class_name":"VarianceScaling","config":{"scale":1,"mode":"fan_avg","distribution":"normal","seed":null}},"bias_initializer":{"class_name":"Zeros","config":{}},"kernel_regularizer":null,"bias_regularizer":null,"activity_regularizer":null,"kernel_constraint":null,"bias_constraint":null,"name":"dense_Dense2153","trainable":true},"inbound_nodes":[[["dense_Dense2152",0,0,{}]]]},{"name":"dense_Dense2154","class_name":"Dense","config":{"units":16,"activation":"relu","use_bias":true,"kernel_initializer":{"class_name":"VarianceScaling","config":{"scale":1,"mode":"fan_avg","distribution":"normal","seed":null}},"bias_initializer":{"class_name":"Zeros","config":{}},"kernel_regularizer":null,"bias_regularizer":null,"activity_regularizer":null,"kernel_constraint":null,"bias_constraint":null,"name":"dense_Dense2154","trainable":true},"inbound_nodes":[[["dense_Dense2153",0,0,{}]]]},{"name":"dense_Dense2155","class_name":"Dense","config":{"units":1,"activation":"sigmoid","use_bias":true,"kernel_initializer":{"class_name":"VarianceScaling","config":{"scale":1,"mode":"fan_avg","distribution":"normal","seed":null}},"bias_initializer":{"class_name":"Zeros","config":{}},"kernel_regularizer":null,"bias_regularizer":null,"activity_regularizer":null,"kernel_constraint":null,"bias_constraint":null,"name":"dense_Dense2155","trainable":true},"inbound_nodes":[[["dense_Dense2154",0,0,{}]]]}],"input_layers":[["input431",0,0]],"output_layers":[["dense_Dense2155",0,0]]},"keras_version":"tfjs-layers 3.9.0","backend":"tensor_flow.js"},"weightsManifest":[{"paths":["weights.bin"],"weights":[{"name":"dense_Dense2151/kernel","shape":[3,2],"dtype":"float32"},{"name":"dense_Dense2151/bias","shape":[2],"dtype":"float32"},{"name":"dense_Dense2152/kernel","shape":[2,32],"dtype":"float32"},{"name":"dense_Dense2152/bias","shape":[32],"dtype":"float32"},{"name":"dense_Dense2153/kernel","shape":[32,32],"dtype":"float32"},{"name":"dense_Dense2153/bias","shape":[32],"dtype":"float32"},{"name":"dense_Dense2154/kernel","shape":[32,16],"dtype":"float32"},{"name":"dense_Dense2154/bias","shape":[16],"dtype":"float32"},{"name":"dense_Dense2155/kernel","shape":[16,1],"dtype":"float32"},{"name":"dense_Dense2155/bias","shape":[1],"dtype":"float32"}]}]}