{"modelTopology":{"class_name":"Model","config":{"name":"model1097","layers":[{"name":"input1097","class_name":"InputLayer","config":{"batch_input_shape":[null,3],"dtype":"float32","sparse":false,"name":"input1097"},"inbound_nodes":[]},{"name":"dense_Dense6577","class_name":"Dense","config":{"units":4,"activation":"relu","use_bias":true,"kernel_initializer":{"class_name":"VarianceScaling","config":{"scale":1,"mode":"fan_avg","distribution":"normal","seed":null}},"bias_initializer":{"class_name":"Zeros","config":{}},"kernel_regularizer":null,"bias_regularizer":null,"activity_regularizer":null,"kernel_constraint":null,"bias_constraint":null,"name":"dense_Dense6577","trainable":true},"inbound_nodes":[[["input1097",0,0,{}]]]},{"name":"dense_Dense6578","class_name":"Dense","config":{"units":32,"activation":"relu","use_bias":true,"kernel_initializer":{"class_name":"VarianceScaling","config":{"scale":1,"mode":"fan_avg","distribution":"normal","seed":null}},"bias_initializer":{"class_name":"Zeros","config":{}},"kernel_regularizer":null,"bias_regularizer":null,"activity_regularizer":null,"kernel_constraint":null,"bias_constraint":null,"name":"dense_Dense6578","trainable":true},"inbound_nodes":[[["dense_Dense6577",0,0,{}]]]},{"name":"dense_Dense6579","class_name":"Dense","config":{"units":1,"activation":"relu","use_bias":true,"kernel_initializer":{"class_name":"VarianceScaling","config":{"scale":1,"mode":"fan_avg","distribution":"normal","seed":null}},"bias_initializer":{"class_name":"Zeros","config":{}},"kernel_regularizer":null,"bias_regularizer":null,"activity_regularizer":null,"kernel_constraint":null,"bias_constraint":null,"name":"dense_Dense6579","trainable":true},"inbound_nodes":[[["dense_Dense6578",0,0,{}]]]},{"name":"dense_Dense6580","class_name":"Dense","config":{"units":4,"activation":"relu","use_bias":true,"kernel_initializer":{"class_name":"VarianceScaling","config":{"scale":1,"mode":"fan_avg","distribution":"normal","seed":null}},"bias_initializer":{"class_name":"Zeros","config":{}},"kernel_regularizer":null,"bias_regularizer":null,"activity_regularizer":null,"kernel_constraint":null,"bias_constraint":null,"name":"dense_Dense6580","trainable":true},"inbound_nodes":[[["dense_Dense6579",0,0,{}]]]},{"name":"dense_Dense6581","class_name":"Dense","config":{"units":16,"activation":"relu","use_bias":true,"kernel_initializer":{"class_name":"VarianceScaling","config":{"scale":1,"mode":"fan_avg","distribution":"normal","seed":null}},"bias_initializer":{"class_name":"Zeros","config":{}},"kernel_regularizer":null,"bias_regularizer":null,"activity_regularizer":null,"kernel_constraint":null,"bias_constraint":null,"name":"dense_Dense6581","trainable":true},"inbound_nodes":[[["dense_Dense6580",0,0,{}]]]},{"name":"dense_Dense6582","class_name":"Dense","config":{"units":1,"activation":"sigmoid","use_bias":true,"kernel_initializer":{"class_name":"VarianceScaling","config":{"scale":1,"mode":"fan_avg","distribution":"normal","seed":null}},"bias_initializer":{"class_name":"Zeros","config":{}},"kernel_regularizer":null,"bias_regularizer":null,"activity_regularizer":null,"kernel_constraint":null,"bias_constraint":null,"name":"dense_Dense6582","trainable":true},"inbound_nodes":[[["dense_Dense6581",0,0,{}]]]}],"input_layers":[["input1097",0,0]],"output_layers":[["dense_Dense6582",0,0]]},"keras_version":"tfjs-layers 3.9.0","backend":"tensor_flow.js"},"weightsManifest":[{"paths":["weights.bin"],"weights":[{"name":"dense_Dense6577/kernel","shape":[3,4],"dtype":"float32"},{"name":"dense_Dense6577/bias","shape":[4],"dtype":"float32"},{"name":"dense_Dense6578/kernel","shape":[4,32],"dtype":"float32"},{"name":"dense_Dense6578/bias","shape":[32],"dtype":"float32"},{"name":"dense_Dense6579/kernel","shape":[32,1],"dtype":"float32"},{"name":"dense_Dense6579/bias","shape":[1],"dtype":"float32"},{"name":"dense_Dense6580/kernel","shape":[1,4],"dtype":"float32"},{"name":"dense_Dense6580/bias","shape":[4],"dtype":"float32"},{"name":"dense_Dense6581/kernel","shape":[4,16],"dtype":"float32"},{"name":"dense_Dense6581/bias","shape":[16],"dtype":"float32"},{"name":"dense_Dense6582/kernel","shape":[16,1],"dtype":"float32"},{"name":"dense_Dense6582/bias","shape":[1],"dtype":"float32"}]}]}