{"modelTopology":{"class_name":"Model","config":{"name":"model713","layers":[{"name":"input713","class_name":"InputLayer","config":{"batch_input_shape":[null,3],"dtype":"float32","sparse":false,"name":"input713"},"inbound_nodes":[]},{"name":"dense_Dense4273","class_name":"Dense","config":{"units":1,"activation":"relu","use_bias":true,"kernel_initializer":{"class_name":"VarianceScaling","config":{"scale":1,"mode":"fan_avg","distribution":"normal","seed":null}},"bias_initializer":{"class_name":"Zeros","config":{}},"kernel_regularizer":null,"bias_regularizer":null,"activity_regularizer":null,"kernel_constraint":null,"bias_constraint":null,"name":"dense_Dense4273","trainable":true},"inbound_nodes":[[["input713",0,0,{}]]]},{"name":"dense_Dense4274","class_name":"Dense","config":{"units":8,"activation":"relu","use_bias":true,"kernel_initializer":{"class_name":"VarianceScaling","config":{"scale":1,"mode":"fan_avg","distribution":"normal","seed":null}},"bias_initializer":{"class_name":"Zeros","config":{}},"kernel_regularizer":null,"bias_regularizer":null,"activity_regularizer":null,"kernel_constraint":null,"bias_constraint":null,"name":"dense_Dense4274","trainable":true},"inbound_nodes":[[["dense_Dense4273",0,0,{}]]]},{"name":"dense_Dense4275","class_name":"Dense","config":{"units":2,"activation":"relu","use_bias":true,"kernel_initializer":{"class_name":"VarianceScaling","config":{"scale":1,"mode":"fan_avg","distribution":"normal","seed":null}},"bias_initializer":{"class_name":"Zeros","config":{}},"kernel_regularizer":null,"bias_regularizer":null,"activity_regularizer":null,"kernel_constraint":null,"bias_constraint":null,"name":"dense_Dense4275","trainable":true},"inbound_nodes":[[["dense_Dense4274",0,0,{}]]]},{"name":"dense_Dense4276","class_name":"Dense","config":{"units":16,"activation":"relu","use_bias":true,"kernel_initializer":{"class_name":"VarianceScaling","config":{"scale":1,"mode":"fan_avg","distribution":"normal","seed":null}},"bias_initializer":{"class_name":"Zeros","config":{}},"kernel_regularizer":null,"bias_regularizer":null,"activity_regularizer":null,"kernel_constraint":null,"bias_constraint":null,"name":"dense_Dense4276","trainable":true},"inbound_nodes":[[["dense_Dense4275",0,0,{}]]]},{"name":"dense_Dense4277","class_name":"Dense","config":{"units":16,"activation":"relu","use_bias":true,"kernel_initializer":{"class_name":"VarianceScaling","config":{"scale":1,"mode":"fan_avg","distribution":"normal","seed":null}},"bias_initializer":{"class_name":"Zeros","config":{}},"kernel_regularizer":null,"bias_regularizer":null,"activity_regularizer":null,"kernel_constraint":null,"bias_constraint":null,"name":"dense_Dense4277","trainable":true},"inbound_nodes":[[["dense_Dense4276",0,0,{}]]]},{"name":"dense_Dense4278","class_name":"Dense","config":{"units":1,"activation":"sigmoid","use_bias":true,"kernel_initializer":{"class_name":"VarianceScaling","config":{"scale":1,"mode":"fan_avg","distribution":"normal","seed":null}},"bias_initializer":{"class_name":"Zeros","config":{}},"kernel_regularizer":null,"bias_regularizer":null,"activity_regularizer":null,"kernel_constraint":null,"bias_constraint":null,"name":"dense_Dense4278","trainable":true},"inbound_nodes":[[["dense_Dense4277",0,0,{}]]]}],"input_layers":[["input713",0,0]],"output_layers":[["dense_Dense4278",0,0]]},"keras_version":"tfjs-layers 3.9.0","backend":"tensor_flow.js"},"weightsManifest":[{"paths":["weights.bin"],"weights":[{"name":"dense_Dense4273/kernel","shape":[3,1],"dtype":"float32"},{"name":"dense_Dense4273/bias","shape":[1],"dtype":"float32"},{"name":"dense_Dense4274/kernel","shape":[1,8],"dtype":"float32"},{"name":"dense_Dense4274/bias","shape":[8],"dtype":"float32"},{"name":"dense_Dense4275/kernel","shape":[8,2],"dtype":"float32"},{"name":"dense_Dense4275/bias","shape":[2],"dtype":"float32"},{"name":"dense_Dense4276/kernel","shape":[2,16],"dtype":"float32"},{"name":"dense_Dense4276/bias","shape":[16],"dtype":"float32"},{"name":"dense_Dense4277/kernel","shape":[16,16],"dtype":"float32"},{"name":"dense_Dense4277/bias","shape":[16],"dtype":"float32"},{"name":"dense_Dense4278/kernel","shape":[16,1],"dtype":"float32"},{"name":"dense_Dense4278/bias","shape":[1],"dtype":"float32"}]}]}