{"modelTopology":{"class_name":"Model","config":{"name":"model1164","layers":[{"name":"input1164","class_name":"InputLayer","config":{"batch_input_shape":[null,3],"dtype":"float32","sparse":false,"name":"input1164"},"inbound_nodes":[]},{"name":"dense_Dense6979","class_name":"Dense","config":{"units":16,"activation":"relu","use_bias":true,"kernel_initializer":{"class_name":"VarianceScaling","config":{"scale":1,"mode":"fan_avg","distribution":"normal","seed":null}},"bias_initializer":{"class_name":"Zeros","config":{}},"kernel_regularizer":null,"bias_regularizer":null,"activity_regularizer":null,"kernel_constraint":null,"bias_constraint":null,"name":"dense_Dense6979","trainable":true},"inbound_nodes":[[["input1164",0,0,{}]]]},{"name":"dense_Dense6980","class_name":"Dense","config":{"units":32,"activation":"relu","use_bias":true,"kernel_initializer":{"class_name":"VarianceScaling","config":{"scale":1,"mode":"fan_avg","distribution":"normal","seed":null}},"bias_initializer":{"class_name":"Zeros","config":{}},"kernel_regularizer":null,"bias_regularizer":null,"activity_regularizer":null,"kernel_constraint":null,"bias_constraint":null,"name":"dense_Dense6980","trainable":true},"inbound_nodes":[[["dense_Dense6979",0,0,{}]]]},{"name":"dense_Dense6981","class_name":"Dense","config":{"units":4,"activation":"relu","use_bias":true,"kernel_initializer":{"class_name":"VarianceScaling","config":{"scale":1,"mode":"fan_avg","distribution":"normal","seed":null}},"bias_initializer":{"class_name":"Zeros","config":{}},"kernel_regularizer":null,"bias_regularizer":null,"activity_regularizer":null,"kernel_constraint":null,"bias_constraint":null,"name":"dense_Dense6981","trainable":true},"inbound_nodes":[[["dense_Dense6980",0,0,{}]]]},{"name":"dense_Dense6982","class_name":"Dense","config":{"units":2,"activation":"relu","use_bias":true,"kernel_initializer":{"class_name":"VarianceScaling","config":{"scale":1,"mode":"fan_avg","distribution":"normal","seed":null}},"bias_initializer":{"class_name":"Zeros","config":{}},"kernel_regularizer":null,"bias_regularizer":null,"activity_regularizer":null,"kernel_constraint":null,"bias_constraint":null,"name":"dense_Dense6982","trainable":true},"inbound_nodes":[[["dense_Dense6981",0,0,{}]]]},{"name":"dense_Dense6983","class_name":"Dense","config":{"units":32,"activation":"relu","use_bias":true,"kernel_initializer":{"class_name":"VarianceScaling","config":{"scale":1,"mode":"fan_avg","distribution":"normal","seed":null}},"bias_initializer":{"class_name":"Zeros","config":{}},"kernel_regularizer":null,"bias_regularizer":null,"activity_regularizer":null,"kernel_constraint":null,"bias_constraint":null,"name":"dense_Dense6983","trainable":true},"inbound_nodes":[[["dense_Dense6982",0,0,{}]]]},{"name":"dense_Dense6984","class_name":"Dense","config":{"units":1,"activation":"sigmoid","use_bias":true,"kernel_initializer":{"class_name":"VarianceScaling","config":{"scale":1,"mode":"fan_avg","distribution":"normal","seed":null}},"bias_initializer":{"class_name":"Zeros","config":{}},"kernel_regularizer":null,"bias_regularizer":null,"activity_regularizer":null,"kernel_constraint":null,"bias_constraint":null,"name":"dense_Dense6984","trainable":true},"inbound_nodes":[[["dense_Dense6983",0,0,{}]]]}],"input_layers":[["input1164",0,0]],"output_layers":[["dense_Dense6984",0,0]]},"keras_version":"tfjs-layers 3.9.0","backend":"tensor_flow.js"},"weightsManifest":[{"paths":["weights.bin"],"weights":[{"name":"dense_Dense6979/kernel","shape":[3,16],"dtype":"float32"},{"name":"dense_Dense6979/bias","shape":[16],"dtype":"float32"},{"name":"dense_Dense6980/kernel","shape":[16,32],"dtype":"float32"},{"name":"dense_Dense6980/bias","shape":[32],"dtype":"float32"},{"name":"dense_Dense6981/kernel","shape":[32,4],"dtype":"float32"},{"name":"dense_Dense6981/bias","shape":[4],"dtype":"float32"},{"name":"dense_Dense6982/kernel","shape":[4,2],"dtype":"float32"},{"name":"dense_Dense6982/bias","shape":[2],"dtype":"float32"},{"name":"dense_Dense6983/kernel","shape":[2,32],"dtype":"float32"},{"name":"dense_Dense6983/bias","shape":[32],"dtype":"float32"},{"name":"dense_Dense6984/kernel","shape":[32,1],"dtype":"float32"},{"name":"dense_Dense6984/bias","shape":[1],"dtype":"float32"}]}]}