{"modelTopology":{"class_name":"Model","config":{"name":"model119","layers":[{"name":"input119","class_name":"InputLayer","config":{"batch_input_shape":[null,3],"dtype":"float32","sparse":false,"name":"input119"},"inbound_nodes":[]},{"name":"dense_Dense709","class_name":"Dense","config":{"units":8,"activation":"relu","use_bias":true,"kernel_initializer":{"class_name":"VarianceScaling","config":{"scale":1,"mode":"fan_avg","distribution":"normal","seed":null}},"bias_initializer":{"class_name":"Zeros","config":{}},"kernel_regularizer":null,"bias_regularizer":null,"activity_regularizer":null,"kernel_constraint":null,"bias_constraint":null,"name":"dense_Dense709","trainable":true},"inbound_nodes":[[["input119",0,0,{}]]]},{"name":"dense_Dense710","class_name":"Dense","config":{"units":1,"activation":"relu","use_bias":true,"kernel_initializer":{"class_name":"VarianceScaling","config":{"scale":1,"mode":"fan_avg","distribution":"normal","seed":null}},"bias_initializer":{"class_name":"Zeros","config":{}},"kernel_regularizer":null,"bias_regularizer":null,"activity_regularizer":null,"kernel_constraint":null,"bias_constraint":null,"name":"dense_Dense710","trainable":true},"inbound_nodes":[[["dense_Dense709",0,0,{}]]]},{"name":"dense_Dense711","class_name":"Dense","config":{"units":8,"activation":"relu","use_bias":true,"kernel_initializer":{"class_name":"VarianceScaling","config":{"scale":1,"mode":"fan_avg","distribution":"normal","seed":null}},"bias_initializer":{"class_name":"Zeros","config":{}},"kernel_regularizer":null,"bias_regularizer":null,"activity_regularizer":null,"kernel_constraint":null,"bias_constraint":null,"name":"dense_Dense711","trainable":true},"inbound_nodes":[[["dense_Dense710",0,0,{}]]]},{"name":"dense_Dense712","class_name":"Dense","config":{"units":2,"activation":"relu","use_bias":true,"kernel_initializer":{"class_name":"VarianceScaling","config":{"scale":1,"mode":"fan_avg","distribution":"normal","seed":null}},"bias_initializer":{"class_name":"Zeros","config":{}},"kernel_regularizer":null,"bias_regularizer":null,"activity_regularizer":null,"kernel_constraint":null,"bias_constraint":null,"name":"dense_Dense712","trainable":true},"inbound_nodes":[[["dense_Dense711",0,0,{}]]]},{"name":"dense_Dense713","class_name":"Dense","config":{"units":16,"activation":"relu","use_bias":true,"kernel_initializer":{"class_name":"VarianceScaling","config":{"scale":1,"mode":"fan_avg","distribution":"normal","seed":null}},"bias_initializer":{"class_name":"Zeros","config":{}},"kernel_regularizer":null,"bias_regularizer":null,"activity_regularizer":null,"kernel_constraint":null,"bias_constraint":null,"name":"dense_Dense713","trainable":true},"inbound_nodes":[[["dense_Dense712",0,0,{}]]]},{"name":"dense_Dense714","class_name":"Dense","config":{"units":1,"activation":"sigmoid","use_bias":true,"kernel_initializer":{"class_name":"VarianceScaling","config":{"scale":1,"mode":"fan_avg","distribution":"normal","seed":null}},"bias_initializer":{"class_name":"Zeros","config":{}},"kernel_regularizer":null,"bias_regularizer":null,"activity_regularizer":null,"kernel_constraint":null,"bias_constraint":null,"name":"dense_Dense714","trainable":true},"inbound_nodes":[[["dense_Dense713",0,0,{}]]]}],"input_layers":[["input119",0,0]],"output_layers":[["dense_Dense714",0,0]]},"keras_version":"tfjs-layers 3.9.0","backend":"tensor_flow.js"},"weightsManifest":[{"paths":["weights.bin"],"weights":[{"name":"dense_Dense709/kernel","shape":[3,8],"dtype":"float32"},{"name":"dense_Dense709/bias","shape":[8],"dtype":"float32"},{"name":"dense_Dense710/kernel","shape":[8,1],"dtype":"float32"},{"name":"dense_Dense710/bias","shape":[1],"dtype":"float32"},{"name":"dense_Dense711/kernel","shape":[1,8],"dtype":"float32"},{"name":"dense_Dense711/bias","shape":[8],"dtype":"float32"},{"name":"dense_Dense712/kernel","shape":[8,2],"dtype":"float32"},{"name":"dense_Dense712/bias","shape":[2],"dtype":"float32"},{"name":"dense_Dense713/kernel","shape":[2,16],"dtype":"float32"},{"name":"dense_Dense713/bias","shape":[16],"dtype":"float32"},{"name":"dense_Dense714/kernel","shape":[16,1],"dtype":"float32"},{"name":"dense_Dense714/bias","shape":[1],"dtype":"float32"}]}]}