{"modelTopology":{"class_name":"Model","config":{"name":"model120","layers":[{"name":"input120","class_name":"InputLayer","config":{"batch_input_shape":[null,3],"dtype":"float32","sparse":false,"name":"input120"},"inbound_nodes":[]},{"name":"dense_Dense715","class_name":"Dense","config":{"units":32,"activation":"relu","use_bias":true,"kernel_initializer":{"class_name":"VarianceScaling","config":{"scale":1,"mode":"fan_avg","distribution":"normal","seed":null}},"bias_initializer":{"class_name":"Zeros","config":{}},"kernel_regularizer":null,"bias_regularizer":null,"activity_regularizer":null,"kernel_constraint":null,"bias_constraint":null,"name":"dense_Dense715","trainable":true},"inbound_nodes":[[["input120",0,0,{}]]]},{"name":"dense_Dense716","class_name":"Dense","config":{"units":1,"activation":"relu","use_bias":true,"kernel_initializer":{"class_name":"VarianceScaling","config":{"scale":1,"mode":"fan_avg","distribution":"normal","seed":null}},"bias_initializer":{"class_name":"Zeros","config":{}},"kernel_regularizer":null,"bias_regularizer":null,"activity_regularizer":null,"kernel_constraint":null,"bias_constraint":null,"name":"dense_Dense716","trainable":true},"inbound_nodes":[[["dense_Dense715",0,0,{}]]]},{"name":"dense_Dense717","class_name":"Dense","config":{"units":8,"activation":"relu","use_bias":true,"kernel_initializer":{"class_name":"VarianceScaling","config":{"scale":1,"mode":"fan_avg","distribution":"normal","seed":null}},"bias_initializer":{"class_name":"Zeros","config":{}},"kernel_regularizer":null,"bias_regularizer":null,"activity_regularizer":null,"kernel_constraint":null,"bias_constraint":null,"name":"dense_Dense717","trainable":true},"inbound_nodes":[[["dense_Dense716",0,0,{}]]]},{"name":"dense_Dense718","class_name":"Dense","config":{"units":2,"activation":"relu","use_bias":true,"kernel_initializer":{"class_name":"VarianceScaling","config":{"scale":1,"mode":"fan_avg","distribution":"normal","seed":null}},"bias_initializer":{"class_name":"Zeros","config":{}},"kernel_regularizer":null,"bias_regularizer":null,"activity_regularizer":null,"kernel_constraint":null,"bias_constraint":null,"name":"dense_Dense718","trainable":true},"inbound_nodes":[[["dense_Dense717",0,0,{}]]]},{"name":"dense_Dense719","class_name":"Dense","config":{"units":32,"activation":"relu","use_bias":true,"kernel_initializer":{"class_name":"VarianceScaling","config":{"scale":1,"mode":"fan_avg","distribution":"normal","seed":null}},"bias_initializer":{"class_name":"Zeros","config":{}},"kernel_regularizer":null,"bias_regularizer":null,"activity_regularizer":null,"kernel_constraint":null,"bias_constraint":null,"name":"dense_Dense719","trainable":true},"inbound_nodes":[[["dense_Dense718",0,0,{}]]]},{"name":"dense_Dense720","class_name":"Dense","config":{"units":1,"activation":"sigmoid","use_bias":true,"kernel_initializer":{"class_name":"VarianceScaling","config":{"scale":1,"mode":"fan_avg","distribution":"normal","seed":null}},"bias_initializer":{"class_name":"Zeros","config":{}},"kernel_regularizer":null,"bias_regularizer":null,"activity_regularizer":null,"kernel_constraint":null,"bias_constraint":null,"name":"dense_Dense720","trainable":true},"inbound_nodes":[[["dense_Dense719",0,0,{}]]]}],"input_layers":[["input120",0,0]],"output_layers":[["dense_Dense720",0,0]]},"keras_version":"tfjs-layers 3.9.0","backend":"tensor_flow.js"},"weightsManifest":[{"paths":["weights.bin"],"weights":[{"name":"dense_Dense715/kernel","shape":[3,32],"dtype":"float32"},{"name":"dense_Dense715/bias","shape":[32],"dtype":"float32"},{"name":"dense_Dense716/kernel","shape":[32,1],"dtype":"float32"},{"name":"dense_Dense716/bias","shape":[1],"dtype":"float32"},{"name":"dense_Dense717/kernel","shape":[1,8],"dtype":"float32"},{"name":"dense_Dense717/bias","shape":[8],"dtype":"float32"},{"name":"dense_Dense718/kernel","shape":[8,2],"dtype":"float32"},{"name":"dense_Dense718/bias","shape":[2],"dtype":"float32"},{"name":"dense_Dense719/kernel","shape":[2,32],"dtype":"float32"},{"name":"dense_Dense719/bias","shape":[32],"dtype":"float32"},{"name":"dense_Dense720/kernel","shape":[32,1],"dtype":"float32"},{"name":"dense_Dense720/bias","shape":[1],"dtype":"float32"}]}]}