{"modelTopology":{"class_name":"Model","config":{"name":"model781","layers":[{"name":"input781","class_name":"InputLayer","config":{"batch_input_shape":[null,3],"dtype":"float32","sparse":false,"name":"input781"},"inbound_nodes":[]},{"name":"dense_Dense4681","class_name":"Dense","config":{"units":8,"activation":"relu","use_bias":true,"kernel_initializer":{"class_name":"VarianceScaling","config":{"scale":1,"mode":"fan_avg","distribution":"normal","seed":null}},"bias_initializer":{"class_name":"Zeros","config":{}},"kernel_regularizer":null,"bias_regularizer":null,"activity_regularizer":null,"kernel_constraint":null,"bias_constraint":null,"name":"dense_Dense4681","trainable":true},"inbound_nodes":[[["input781",0,0,{}]]]},{"name":"dense_Dense4682","class_name":"Dense","config":{"units":8,"activation":"relu","use_bias":true,"kernel_initializer":{"class_name":"VarianceScaling","config":{"scale":1,"mode":"fan_avg","distribution":"normal","seed":null}},"bias_initializer":{"class_name":"Zeros","config":{}},"kernel_regularizer":null,"bias_regularizer":null,"activity_regularizer":null,"kernel_constraint":null,"bias_constraint":null,"name":"dense_Dense4682","trainable":true},"inbound_nodes":[[["dense_Dense4681",0,0,{}]]]},{"name":"dense_Dense4683","class_name":"Dense","config":{"units":8,"activation":"relu","use_bias":true,"kernel_initializer":{"class_name":"VarianceScaling","config":{"scale":1,"mode":"fan_avg","distribution":"normal","seed":null}},"bias_initializer":{"class_name":"Zeros","config":{}},"kernel_regularizer":null,"bias_regularizer":null,"activity_regularizer":null,"kernel_constraint":null,"bias_constraint":null,"name":"dense_Dense4683","trainable":true},"inbound_nodes":[[["dense_Dense4682",0,0,{}]]]},{"name":"dense_Dense4684","class_name":"Dense","config":{"units":16,"activation":"relu","use_bias":true,"kernel_initializer":{"class_name":"VarianceScaling","config":{"scale":1,"mode":"fan_avg","distribution":"normal","seed":null}},"bias_initializer":{"class_name":"Zeros","config":{}},"kernel_regularizer":null,"bias_regularizer":null,"activity_regularizer":null,"kernel_constraint":null,"bias_constraint":null,"name":"dense_Dense4684","trainable":true},"inbound_nodes":[[["dense_Dense4683",0,0,{}]]]},{"name":"dense_Dense4685","class_name":"Dense","config":{"units":1,"activation":"relu","use_bias":true,"kernel_initializer":{"class_name":"VarianceScaling","config":{"scale":1,"mode":"fan_avg","distribution":"normal","seed":null}},"bias_initializer":{"class_name":"Zeros","config":{}},"kernel_regularizer":null,"bias_regularizer":null,"activity_regularizer":null,"kernel_constraint":null,"bias_constraint":null,"name":"dense_Dense4685","trainable":true},"inbound_nodes":[[["dense_Dense4684",0,0,{}]]]},{"name":"dense_Dense4686","class_name":"Dense","config":{"units":1,"activation":"sigmoid","use_bias":true,"kernel_initializer":{"class_name":"VarianceScaling","config":{"scale":1,"mode":"fan_avg","distribution":"normal","seed":null}},"bias_initializer":{"class_name":"Zeros","config":{}},"kernel_regularizer":null,"bias_regularizer":null,"activity_regularizer":null,"kernel_constraint":null,"bias_constraint":null,"name":"dense_Dense4686","trainable":true},"inbound_nodes":[[["dense_Dense4685",0,0,{}]]]}],"input_layers":[["input781",0,0]],"output_layers":[["dense_Dense4686",0,0]]},"keras_version":"tfjs-layers 3.9.0","backend":"tensor_flow.js"},"weightsManifest":[{"paths":["weights.bin"],"weights":[{"name":"dense_Dense4681/kernel","shape":[3,8],"dtype":"float32"},{"name":"dense_Dense4681/bias","shape":[8],"dtype":"float32"},{"name":"dense_Dense4682/kernel","shape":[8,8],"dtype":"float32"},{"name":"dense_Dense4682/bias","shape":[8],"dtype":"float32"},{"name":"dense_Dense4683/kernel","shape":[8,8],"dtype":"float32"},{"name":"dense_Dense4683/bias","shape":[8],"dtype":"float32"},{"name":"dense_Dense4684/kernel","shape":[8,16],"dtype":"float32"},{"name":"dense_Dense4684/bias","shape":[16],"dtype":"float32"},{"name":"dense_Dense4685/kernel","shape":[16,1],"dtype":"float32"},{"name":"dense_Dense4685/bias","shape":[1],"dtype":"float32"},{"name":"dense_Dense4686/kernel","shape":[1,1],"dtype":"float32"},{"name":"dense_Dense4686/bias","shape":[1],"dtype":"float32"}]}]}