{"modelTopology":{"class_name":"Model","config":{"name":"model608","layers":[{"name":"input608","class_name":"InputLayer","config":{"batch_input_shape":[null,3],"dtype":"float32","sparse":false,"name":"input608"},"inbound_nodes":[]},{"name":"dense_Dense3036","class_name":"Dense","config":{"units":4,"activation":"relu","use_bias":true,"kernel_initializer":{"class_name":"VarianceScaling","config":{"scale":1,"mode":"fan_avg","distribution":"normal","seed":null}},"bias_initializer":{"class_name":"Zeros","config":{}},"kernel_regularizer":null,"bias_regularizer":null,"activity_regularizer":null,"kernel_constraint":null,"bias_constraint":null,"name":"dense_Dense3036","trainable":true},"inbound_nodes":[[["input608",0,0,{}]]]},{"name":"dense_Dense3037","class_name":"Dense","config":{"units":16,"activation":"relu","use_bias":true,"kernel_initializer":{"class_name":"VarianceScaling","config":{"scale":1,"mode":"fan_avg","distribution":"normal","seed":null}},"bias_initializer":{"class_name":"Zeros","config":{}},"kernel_regularizer":null,"bias_regularizer":null,"activity_regularizer":null,"kernel_constraint":null,"bias_constraint":null,"name":"dense_Dense3037","trainable":true},"inbound_nodes":[[["dense_Dense3036",0,0,{}]]]},{"name":"dense_Dense3038","class_name":"Dense","config":{"units":32,"activation":"relu","use_bias":true,"kernel_initializer":{"class_name":"VarianceScaling","config":{"scale":1,"mode":"fan_avg","distribution":"normal","seed":null}},"bias_initializer":{"class_name":"Zeros","config":{}},"kernel_regularizer":null,"bias_regularizer":null,"activity_regularizer":null,"kernel_constraint":null,"bias_constraint":null,"name":"dense_Dense3038","trainable":true},"inbound_nodes":[[["dense_Dense3037",0,0,{}]]]},{"name":"dense_Dense3039","class_name":"Dense","config":{"units":2,"activation":"relu","use_bias":true,"kernel_initializer":{"class_name":"VarianceScaling","config":{"scale":1,"mode":"fan_avg","distribution":"normal","seed":null}},"bias_initializer":{"class_name":"Zeros","config":{}},"kernel_regularizer":null,"bias_regularizer":null,"activity_regularizer":null,"kernel_constraint":null,"bias_constraint":null,"name":"dense_Dense3039","trainable":true},"inbound_nodes":[[["dense_Dense3038",0,0,{}]]]},{"name":"dense_Dense3040","class_name":"Dense","config":{"units":1,"activation":"sigmoid","use_bias":true,"kernel_initializer":{"class_name":"VarianceScaling","config":{"scale":1,"mode":"fan_avg","distribution":"normal","seed":null}},"bias_initializer":{"class_name":"Zeros","config":{}},"kernel_regularizer":null,"bias_regularizer":null,"activity_regularizer":null,"kernel_constraint":null,"bias_constraint":null,"name":"dense_Dense3040","trainable":true},"inbound_nodes":[[["dense_Dense3039",0,0,{}]]]}],"input_layers":[["input608",0,0]],"output_layers":[["dense_Dense3040",0,0]]},"keras_version":"tfjs-layers 3.9.0","backend":"tensor_flow.js"},"weightsManifest":[{"paths":["weights.bin"],"weights":[{"name":"dense_Dense3036/kernel","shape":[3,4],"dtype":"float32"},{"name":"dense_Dense3036/bias","shape":[4],"dtype":"float32"},{"name":"dense_Dense3037/kernel","shape":[4,16],"dtype":"float32"},{"name":"dense_Dense3037/bias","shape":[16],"dtype":"float32"},{"name":"dense_Dense3038/kernel","shape":[16,32],"dtype":"float32"},{"name":"dense_Dense3038/bias","shape":[32],"dtype":"float32"},{"name":"dense_Dense3039/kernel","shape":[32,2],"dtype":"float32"},{"name":"dense_Dense3039/bias","shape":[2],"dtype":"float32"},{"name":"dense_Dense3040/kernel","shape":[2,1],"dtype":"float32"},{"name":"dense_Dense3040/bias","shape":[1],"dtype":"float32"}]}]}