{"modelTopology":{"class_name":"Model","config":{"name":"model849","layers":[{"name":"input849","class_name":"InputLayer","config":{"batch_input_shape":[null,3],"dtype":"float32","sparse":false,"name":"input849"},"inbound_nodes":[]},{"name":"dense_Dense5089","class_name":"Dense","config":{"units":8,"activation":"relu","use_bias":true,"kernel_initializer":{"class_name":"VarianceScaling","config":{"scale":1,"mode":"fan_avg","distribution":"normal","seed":null}},"bias_initializer":{"class_name":"Zeros","config":{}},"kernel_regularizer":null,"bias_regularizer":null,"activity_regularizer":null,"kernel_constraint":null,"bias_constraint":null,"name":"dense_Dense5089","trainable":true},"inbound_nodes":[[["input849",0,0,{}]]]},{"name":"dense_Dense5090","class_name":"Dense","config":{"units":8,"activation":"relu","use_bias":true,"kernel_initializer":{"class_name":"VarianceScaling","config":{"scale":1,"mode":"fan_avg","distribution":"normal","seed":null}},"bias_initializer":{"class_name":"Zeros","config":{}},"kernel_regularizer":null,"bias_regularizer":null,"activity_regularizer":null,"kernel_constraint":null,"bias_constraint":null,"name":"dense_Dense5090","trainable":true},"inbound_nodes":[[["dense_Dense5089",0,0,{}]]]},{"name":"dense_Dense5091","class_name":"Dense","config":{"units":32,"activation":"relu","use_bias":true,"kernel_initializer":{"class_name":"VarianceScaling","config":{"scale":1,"mode":"fan_avg","distribution":"normal","seed":null}},"bias_initializer":{"class_name":"Zeros","config":{}},"kernel_regularizer":null,"bias_regularizer":null,"activity_regularizer":null,"kernel_constraint":null,"bias_constraint":null,"name":"dense_Dense5091","trainable":true},"inbound_nodes":[[["dense_Dense5090",0,0,{}]]]},{"name":"dense_Dense5092","class_name":"Dense","config":{"units":8,"activation":"relu","use_bias":true,"kernel_initializer":{"class_name":"VarianceScaling","config":{"scale":1,"mode":"fan_avg","distribution":"normal","seed":null}},"bias_initializer":{"class_name":"Zeros","config":{}},"kernel_regularizer":null,"bias_regularizer":null,"activity_regularizer":null,"kernel_constraint":null,"bias_constraint":null,"name":"dense_Dense5092","trainable":true},"inbound_nodes":[[["dense_Dense5091",0,0,{}]]]},{"name":"dense_Dense5093","class_name":"Dense","config":{"units":4,"activation":"relu","use_bias":true,"kernel_initializer":{"class_name":"VarianceScaling","config":{"scale":1,"mode":"fan_avg","distribution":"normal","seed":null}},"bias_initializer":{"class_name":"Zeros","config":{}},"kernel_regularizer":null,"bias_regularizer":null,"activity_regularizer":null,"kernel_constraint":null,"bias_constraint":null,"name":"dense_Dense5093","trainable":true},"inbound_nodes":[[["dense_Dense5092",0,0,{}]]]},{"name":"dense_Dense5094","class_name":"Dense","config":{"units":1,"activation":"sigmoid","use_bias":true,"kernel_initializer":{"class_name":"VarianceScaling","config":{"scale":1,"mode":"fan_avg","distribution":"normal","seed":null}},"bias_initializer":{"class_name":"Zeros","config":{}},"kernel_regularizer":null,"bias_regularizer":null,"activity_regularizer":null,"kernel_constraint":null,"bias_constraint":null,"name":"dense_Dense5094","trainable":true},"inbound_nodes":[[["dense_Dense5093",0,0,{}]]]}],"input_layers":[["input849",0,0]],"output_layers":[["dense_Dense5094",0,0]]},"keras_version":"tfjs-layers 3.9.0","backend":"tensor_flow.js"},"weightsManifest":[{"paths":["weights.bin"],"weights":[{"name":"dense_Dense5089/kernel","shape":[3,8],"dtype":"float32"},{"name":"dense_Dense5089/bias","shape":[8],"dtype":"float32"},{"name":"dense_Dense5090/kernel","shape":[8,8],"dtype":"float32"},{"name":"dense_Dense5090/bias","shape":[8],"dtype":"float32"},{"name":"dense_Dense5091/kernel","shape":[8,32],"dtype":"float32"},{"name":"dense_Dense5091/bias","shape":[32],"dtype":"float32"},{"name":"dense_Dense5092/kernel","shape":[32,8],"dtype":"float32"},{"name":"dense_Dense5092/bias","shape":[8],"dtype":"float32"},{"name":"dense_Dense5093/kernel","shape":[8,4],"dtype":"float32"},{"name":"dense_Dense5093/bias","shape":[4],"dtype":"float32"},{"name":"dense_Dense5094/kernel","shape":[4,1],"dtype":"float32"},{"name":"dense_Dense5094/bias","shape":[1],"dtype":"float32"}]}]}