{"modelTopology":{"class_name":"Model","config":{"name":"model844","layers":[{"name":"input844","class_name":"InputLayer","config":{"batch_input_shape":[null,3],"dtype":"float32","sparse":false,"name":"input844"},"inbound_nodes":[]},{"name":"dense_Dense5059","class_name":"Dense","config":{"units":8,"activation":"relu","use_bias":true,"kernel_initializer":{"class_name":"VarianceScaling","config":{"scale":1,"mode":"fan_avg","distribution":"normal","seed":null}},"bias_initializer":{"class_name":"Zeros","config":{}},"kernel_regularizer":null,"bias_regularizer":null,"activity_regularizer":null,"kernel_constraint":null,"bias_constraint":null,"name":"dense_Dense5059","trainable":true},"inbound_nodes":[[["input844",0,0,{}]]]},{"name":"dense_Dense5060","class_name":"Dense","config":{"units":8,"activation":"relu","use_bias":true,"kernel_initializer":{"class_name":"VarianceScaling","config":{"scale":1,"mode":"fan_avg","distribution":"normal","seed":null}},"bias_initializer":{"class_name":"Zeros","config":{}},"kernel_regularizer":null,"bias_regularizer":null,"activity_regularizer":null,"kernel_constraint":null,"bias_constraint":null,"name":"dense_Dense5060","trainable":true},"inbound_nodes":[[["dense_Dense5059",0,0,{}]]]},{"name":"dense_Dense5061","class_name":"Dense","config":{"units":32,"activation":"relu","use_bias":true,"kernel_initializer":{"class_name":"VarianceScaling","config":{"scale":1,"mode":"fan_avg","distribution":"normal","seed":null}},"bias_initializer":{"class_name":"Zeros","config":{}},"kernel_regularizer":null,"bias_regularizer":null,"activity_regularizer":null,"kernel_constraint":null,"bias_constraint":null,"name":"dense_Dense5061","trainable":true},"inbound_nodes":[[["dense_Dense5060",0,0,{}]]]},{"name":"dense_Dense5062","class_name":"Dense","config":{"units":4,"activation":"relu","use_bias":true,"kernel_initializer":{"class_name":"VarianceScaling","config":{"scale":1,"mode":"fan_avg","distribution":"normal","seed":null}},"bias_initializer":{"class_name":"Zeros","config":{}},"kernel_regularizer":null,"bias_regularizer":null,"activity_regularizer":null,"kernel_constraint":null,"bias_constraint":null,"name":"dense_Dense5062","trainable":true},"inbound_nodes":[[["dense_Dense5061",0,0,{}]]]},{"name":"dense_Dense5063","class_name":"Dense","config":{"units":8,"activation":"relu","use_bias":true,"kernel_initializer":{"class_name":"VarianceScaling","config":{"scale":1,"mode":"fan_avg","distribution":"normal","seed":null}},"bias_initializer":{"class_name":"Zeros","config":{}},"kernel_regularizer":null,"bias_regularizer":null,"activity_regularizer":null,"kernel_constraint":null,"bias_constraint":null,"name":"dense_Dense5063","trainable":true},"inbound_nodes":[[["dense_Dense5062",0,0,{}]]]},{"name":"dense_Dense5064","class_name":"Dense","config":{"units":1,"activation":"sigmoid","use_bias":true,"kernel_initializer":{"class_name":"VarianceScaling","config":{"scale":1,"mode":"fan_avg","distribution":"normal","seed":null}},"bias_initializer":{"class_name":"Zeros","config":{}},"kernel_regularizer":null,"bias_regularizer":null,"activity_regularizer":null,"kernel_constraint":null,"bias_constraint":null,"name":"dense_Dense5064","trainable":true},"inbound_nodes":[[["dense_Dense5063",0,0,{}]]]}],"input_layers":[["input844",0,0]],"output_layers":[["dense_Dense5064",0,0]]},"keras_version":"tfjs-layers 3.9.0","backend":"tensor_flow.js"},"weightsManifest":[{"paths":["weights.bin"],"weights":[{"name":"dense_Dense5059/kernel","shape":[3,8],"dtype":"float32"},{"name":"dense_Dense5059/bias","shape":[8],"dtype":"float32"},{"name":"dense_Dense5060/kernel","shape":[8,8],"dtype":"float32"},{"name":"dense_Dense5060/bias","shape":[8],"dtype":"float32"},{"name":"dense_Dense5061/kernel","shape":[8,32],"dtype":"float32"},{"name":"dense_Dense5061/bias","shape":[32],"dtype":"float32"},{"name":"dense_Dense5062/kernel","shape":[32,4],"dtype":"float32"},{"name":"dense_Dense5062/bias","shape":[4],"dtype":"float32"},{"name":"dense_Dense5063/kernel","shape":[4,8],"dtype":"float32"},{"name":"dense_Dense5063/bias","shape":[8],"dtype":"float32"},{"name":"dense_Dense5064/kernel","shape":[8,1],"dtype":"float32"},{"name":"dense_Dense5064/bias","shape":[1],"dtype":"float32"}]}]}