{"modelTopology":{"class_name":"Model","config":{"name":"model654","layers":[{"name":"input654","class_name":"InputLayer","config":{"batch_input_shape":[null,3],"dtype":"float32","sparse":false,"name":"input654"},"inbound_nodes":[]},{"name":"dense_Dense3919","class_name":"Dense","config":{"units":1,"activation":"relu","use_bias":true,"kernel_initializer":{"class_name":"VarianceScaling","config":{"scale":1,"mode":"fan_avg","distribution":"normal","seed":null}},"bias_initializer":{"class_name":"Zeros","config":{}},"kernel_regularizer":null,"bias_regularizer":null,"activity_regularizer":null,"kernel_constraint":null,"bias_constraint":null,"name":"dense_Dense3919","trainable":true},"inbound_nodes":[[["input654",0,0,{}]]]},{"name":"dense_Dense3920","class_name":"Dense","config":{"units":8,"activation":"relu","use_bias":true,"kernel_initializer":{"class_name":"VarianceScaling","config":{"scale":1,"mode":"fan_avg","distribution":"normal","seed":null}},"bias_initializer":{"class_name":"Zeros","config":{}},"kernel_regularizer":null,"bias_regularizer":null,"activity_regularizer":null,"kernel_constraint":null,"bias_constraint":null,"name":"dense_Dense3920","trainable":true},"inbound_nodes":[[["dense_Dense3919",0,0,{}]]]},{"name":"dense_Dense3921","class_name":"Dense","config":{"units":1,"activation":"relu","use_bias":true,"kernel_initializer":{"class_name":"VarianceScaling","config":{"scale":1,"mode":"fan_avg","distribution":"normal","seed":null}},"bias_initializer":{"class_name":"Zeros","config":{}},"kernel_regularizer":null,"bias_regularizer":null,"activity_regularizer":null,"kernel_constraint":null,"bias_constraint":null,"name":"dense_Dense3921","trainable":true},"inbound_nodes":[[["dense_Dense3920",0,0,{}]]]},{"name":"dense_Dense3922","class_name":"Dense","config":{"units":1,"activation":"relu","use_bias":true,"kernel_initializer":{"class_name":"VarianceScaling","config":{"scale":1,"mode":"fan_avg","distribution":"normal","seed":null}},"bias_initializer":{"class_name":"Zeros","config":{}},"kernel_regularizer":null,"bias_regularizer":null,"activity_regularizer":null,"kernel_constraint":null,"bias_constraint":null,"name":"dense_Dense3922","trainable":true},"inbound_nodes":[[["dense_Dense3921",0,0,{}]]]},{"name":"dense_Dense3923","class_name":"Dense","config":{"units":32,"activation":"relu","use_bias":true,"kernel_initializer":{"class_name":"VarianceScaling","config":{"scale":1,"mode":"fan_avg","distribution":"normal","seed":null}},"bias_initializer":{"class_name":"Zeros","config":{}},"kernel_regularizer":null,"bias_regularizer":null,"activity_regularizer":null,"kernel_constraint":null,"bias_constraint":null,"name":"dense_Dense3923","trainable":true},"inbound_nodes":[[["dense_Dense3922",0,0,{}]]]},{"name":"dense_Dense3924","class_name":"Dense","config":{"units":1,"activation":"sigmoid","use_bias":true,"kernel_initializer":{"class_name":"VarianceScaling","config":{"scale":1,"mode":"fan_avg","distribution":"normal","seed":null}},"bias_initializer":{"class_name":"Zeros","config":{}},"kernel_regularizer":null,"bias_regularizer":null,"activity_regularizer":null,"kernel_constraint":null,"bias_constraint":null,"name":"dense_Dense3924","trainable":true},"inbound_nodes":[[["dense_Dense3923",0,0,{}]]]}],"input_layers":[["input654",0,0]],"output_layers":[["dense_Dense3924",0,0]]},"keras_version":"tfjs-layers 3.9.0","backend":"tensor_flow.js"},"weightsManifest":[{"paths":["weights.bin"],"weights":[{"name":"dense_Dense3919/kernel","shape":[3,1],"dtype":"float32"},{"name":"dense_Dense3919/bias","shape":[1],"dtype":"float32"},{"name":"dense_Dense3920/kernel","shape":[1,8],"dtype":"float32"},{"name":"dense_Dense3920/bias","shape":[8],"dtype":"float32"},{"name":"dense_Dense3921/kernel","shape":[8,1],"dtype":"float32"},{"name":"dense_Dense3921/bias","shape":[1],"dtype":"float32"},{"name":"dense_Dense3922/kernel","shape":[1,1],"dtype":"float32"},{"name":"dense_Dense3922/bias","shape":[1],"dtype":"float32"},{"name":"dense_Dense3923/kernel","shape":[1,32],"dtype":"float32"},{"name":"dense_Dense3923/bias","shape":[32],"dtype":"float32"},{"name":"dense_Dense3924/kernel","shape":[32,1],"dtype":"float32"},{"name":"dense_Dense3924/bias","shape":[1],"dtype":"float32"}]}]}