{"modelTopology":{"class_name":"Model","config":{"name":"model514","layers":[{"name":"input514","class_name":"InputLayer","config":{"batch_input_shape":[null,3],"dtype":"float32","sparse":false,"name":"input514"},"inbound_nodes":[]},{"name":"dense_Dense3079","class_name":"Dense","config":{"units":4,"activation":"relu","use_bias":true,"kernel_initializer":{"class_name":"VarianceScaling","config":{"scale":1,"mode":"fan_avg","distribution":"normal","seed":null}},"bias_initializer":{"class_name":"Zeros","config":{}},"kernel_regularizer":null,"bias_regularizer":null,"activity_regularizer":null,"kernel_constraint":null,"bias_constraint":null,"name":"dense_Dense3079","trainable":true},"inbound_nodes":[[["input514",0,0,{}]]]},{"name":"dense_Dense3080","class_name":"Dense","config":{"units":4,"activation":"relu","use_bias":true,"kernel_initializer":{"class_name":"VarianceScaling","config":{"scale":1,"mode":"fan_avg","distribution":"normal","seed":null}},"bias_initializer":{"class_name":"Zeros","config":{}},"kernel_regularizer":null,"bias_regularizer":null,"activity_regularizer":null,"kernel_constraint":null,"bias_constraint":null,"name":"dense_Dense3080","trainable":true},"inbound_nodes":[[["dense_Dense3079",0,0,{}]]]},{"name":"dense_Dense3081","class_name":"Dense","config":{"units":4,"activation":"relu","use_bias":true,"kernel_initializer":{"class_name":"VarianceScaling","config":{"scale":1,"mode":"fan_avg","distribution":"normal","seed":null}},"bias_initializer":{"class_name":"Zeros","config":{}},"kernel_regularizer":null,"bias_regularizer":null,"activity_regularizer":null,"kernel_constraint":null,"bias_constraint":null,"name":"dense_Dense3081","trainable":true},"inbound_nodes":[[["dense_Dense3080",0,0,{}]]]},{"name":"dense_Dense3082","class_name":"Dense","config":{"units":2,"activation":"relu","use_bias":true,"kernel_initializer":{"class_name":"VarianceScaling","config":{"scale":1,"mode":"fan_avg","distribution":"normal","seed":null}},"bias_initializer":{"class_name":"Zeros","config":{}},"kernel_regularizer":null,"bias_regularizer":null,"activity_regularizer":null,"kernel_constraint":null,"bias_constraint":null,"name":"dense_Dense3082","trainable":true},"inbound_nodes":[[["dense_Dense3081",0,0,{}]]]},{"name":"dense_Dense3083","class_name":"Dense","config":{"units":8,"activation":"relu","use_bias":true,"kernel_initializer":{"class_name":"VarianceScaling","config":{"scale":1,"mode":"fan_avg","distribution":"normal","seed":null}},"bias_initializer":{"class_name":"Zeros","config":{}},"kernel_regularizer":null,"bias_regularizer":null,"activity_regularizer":null,"kernel_constraint":null,"bias_constraint":null,"name":"dense_Dense3083","trainable":true},"inbound_nodes":[[["dense_Dense3082",0,0,{}]]]},{"name":"dense_Dense3084","class_name":"Dense","config":{"units":1,"activation":"sigmoid","use_bias":true,"kernel_initializer":{"class_name":"VarianceScaling","config":{"scale":1,"mode":"fan_avg","distribution":"normal","seed":null}},"bias_initializer":{"class_name":"Zeros","config":{}},"kernel_regularizer":null,"bias_regularizer":null,"activity_regularizer":null,"kernel_constraint":null,"bias_constraint":null,"name":"dense_Dense3084","trainable":true},"inbound_nodes":[[["dense_Dense3083",0,0,{}]]]}],"input_layers":[["input514",0,0]],"output_layers":[["dense_Dense3084",0,0]]},"keras_version":"tfjs-layers 3.9.0","backend":"tensor_flow.js"},"weightsManifest":[{"paths":["weights.bin"],"weights":[{"name":"dense_Dense3079/kernel","shape":[3,4],"dtype":"float32"},{"name":"dense_Dense3079/bias","shape":[4],"dtype":"float32"},{"name":"dense_Dense3080/kernel","shape":[4,4],"dtype":"float32"},{"name":"dense_Dense3080/bias","shape":[4],"dtype":"float32"},{"name":"dense_Dense3081/kernel","shape":[4,4],"dtype":"float32"},{"name":"dense_Dense3081/bias","shape":[4],"dtype":"float32"},{"name":"dense_Dense3082/kernel","shape":[4,2],"dtype":"float32"},{"name":"dense_Dense3082/bias","shape":[2],"dtype":"float32"},{"name":"dense_Dense3083/kernel","shape":[2,8],"dtype":"float32"},{"name":"dense_Dense3083/bias","shape":[8],"dtype":"float32"},{"name":"dense_Dense3084/kernel","shape":[8,1],"dtype":"float32"},{"name":"dense_Dense3084/bias","shape":[1],"dtype":"float32"}]}]}