{"modelTopology":{"class_name":"Model","config":{"name":"model911","layers":[{"name":"input911","class_name":"InputLayer","config":{"batch_input_shape":[null,3],"dtype":"float32","sparse":false,"name":"input911"},"inbound_nodes":[]},{"name":"dense_Dense5461","class_name":"Dense","config":{"units":8,"activation":"relu","use_bias":true,"kernel_initializer":{"class_name":"VarianceScaling","config":{"scale":1,"mode":"fan_avg","distribution":"normal","seed":null}},"bias_initializer":{"class_name":"Zeros","config":{}},"kernel_regularizer":null,"bias_regularizer":null,"activity_regularizer":null,"kernel_constraint":null,"bias_constraint":null,"name":"dense_Dense5461","trainable":true},"inbound_nodes":[[["input911",0,0,{}]]]},{"name":"dense_Dense5462","class_name":"Dense","config":{"units":16,"activation":"relu","use_bias":true,"kernel_initializer":{"class_name":"VarianceScaling","config":{"scale":1,"mode":"fan_avg","distribution":"normal","seed":null}},"bias_initializer":{"class_name":"Zeros","config":{}},"kernel_regularizer":null,"bias_regularizer":null,"activity_regularizer":null,"kernel_constraint":null,"bias_constraint":null,"name":"dense_Dense5462","trainable":true},"inbound_nodes":[[["dense_Dense5461",0,0,{}]]]},{"name":"dense_Dense5463","class_name":"Dense","config":{"units":2,"activation":"relu","use_bias":true,"kernel_initializer":{"class_name":"VarianceScaling","config":{"scale":1,"mode":"fan_avg","distribution":"normal","seed":null}},"bias_initializer":{"class_name":"Zeros","config":{}},"kernel_regularizer":null,"bias_regularizer":null,"activity_regularizer":null,"kernel_constraint":null,"bias_constraint":null,"name":"dense_Dense5463","trainable":true},"inbound_nodes":[[["dense_Dense5462",0,0,{}]]]},{"name":"dense_Dense5464","class_name":"Dense","config":{"units":2,"activation":"relu","use_bias":true,"kernel_initializer":{"class_name":"VarianceScaling","config":{"scale":1,"mode":"fan_avg","distribution":"normal","seed":null}},"bias_initializer":{"class_name":"Zeros","config":{}},"kernel_regularizer":null,"bias_regularizer":null,"activity_regularizer":null,"kernel_constraint":null,"bias_constraint":null,"name":"dense_Dense5464","trainable":true},"inbound_nodes":[[["dense_Dense5463",0,0,{}]]]},{"name":"dense_Dense5465","class_name":"Dense","config":{"units":16,"activation":"relu","use_bias":true,"kernel_initializer":{"class_name":"VarianceScaling","config":{"scale":1,"mode":"fan_avg","distribution":"normal","seed":null}},"bias_initializer":{"class_name":"Zeros","config":{}},"kernel_regularizer":null,"bias_regularizer":null,"activity_regularizer":null,"kernel_constraint":null,"bias_constraint":null,"name":"dense_Dense5465","trainable":true},"inbound_nodes":[[["dense_Dense5464",0,0,{}]]]},{"name":"dense_Dense5466","class_name":"Dense","config":{"units":1,"activation":"sigmoid","use_bias":true,"kernel_initializer":{"class_name":"VarianceScaling","config":{"scale":1,"mode":"fan_avg","distribution":"normal","seed":null}},"bias_initializer":{"class_name":"Zeros","config":{}},"kernel_regularizer":null,"bias_regularizer":null,"activity_regularizer":null,"kernel_constraint":null,"bias_constraint":null,"name":"dense_Dense5466","trainable":true},"inbound_nodes":[[["dense_Dense5465",0,0,{}]]]}],"input_layers":[["input911",0,0]],"output_layers":[["dense_Dense5466",0,0]]},"keras_version":"tfjs-layers 3.9.0","backend":"tensor_flow.js"},"weightsManifest":[{"paths":["weights.bin"],"weights":[{"name":"dense_Dense5461/kernel","shape":[3,8],"dtype":"float32"},{"name":"dense_Dense5461/bias","shape":[8],"dtype":"float32"},{"name":"dense_Dense5462/kernel","shape":[8,16],"dtype":"float32"},{"name":"dense_Dense5462/bias","shape":[16],"dtype":"float32"},{"name":"dense_Dense5463/kernel","shape":[16,2],"dtype":"float32"},{"name":"dense_Dense5463/bias","shape":[2],"dtype":"float32"},{"name":"dense_Dense5464/kernel","shape":[2,2],"dtype":"float32"},{"name":"dense_Dense5464/bias","shape":[2],"dtype":"float32"},{"name":"dense_Dense5465/kernel","shape":[2,16],"dtype":"float32"},{"name":"dense_Dense5465/bias","shape":[16],"dtype":"float32"},{"name":"dense_Dense5466/kernel","shape":[16,1],"dtype":"float32"},{"name":"dense_Dense5466/bias","shape":[1],"dtype":"float32"}]}]}