{"modelTopology":{"class_name":"Model","config":{"name":"model533","layers":[{"name":"input533","class_name":"InputLayer","config":{"batch_input_shape":[null,3],"dtype":"float32","sparse":false,"name":"input533"},"inbound_nodes":[]},{"name":"dense_Dense2661","class_name":"Dense","config":{"units":4,"activation":"relu","use_bias":true,"kernel_initializer":{"class_name":"VarianceScaling","config":{"scale":1,"mode":"fan_avg","distribution":"normal","seed":null}},"bias_initializer":{"class_name":"Zeros","config":{}},"kernel_regularizer":null,"bias_regularizer":null,"activity_regularizer":null,"kernel_constraint":null,"bias_constraint":null,"name":"dense_Dense2661","trainable":true},"inbound_nodes":[[["input533",0,0,{}]]]},{"name":"dense_Dense2662","class_name":"Dense","config":{"units":4,"activation":"relu","use_bias":true,"kernel_initializer":{"class_name":"VarianceScaling","config":{"scale":1,"mode":"fan_avg","distribution":"normal","seed":null}},"bias_initializer":{"class_name":"Zeros","config":{}},"kernel_regularizer":null,"bias_regularizer":null,"activity_regularizer":null,"kernel_constraint":null,"bias_constraint":null,"name":"dense_Dense2662","trainable":true},"inbound_nodes":[[["dense_Dense2661",0,0,{}]]]},{"name":"dense_Dense2663","class_name":"Dense","config":{"units":16,"activation":"relu","use_bias":true,"kernel_initializer":{"class_name":"VarianceScaling","config":{"scale":1,"mode":"fan_avg","distribution":"normal","seed":null}},"bias_initializer":{"class_name":"Zeros","config":{}},"kernel_regularizer":null,"bias_regularizer":null,"activity_regularizer":null,"kernel_constraint":null,"bias_constraint":null,"name":"dense_Dense2663","trainable":true},"inbound_nodes":[[["dense_Dense2662",0,0,{}]]]},{"name":"dense_Dense2664","class_name":"Dense","config":{"units":16,"activation":"relu","use_bias":true,"kernel_initializer":{"class_name":"VarianceScaling","config":{"scale":1,"mode":"fan_avg","distribution":"normal","seed":null}},"bias_initializer":{"class_name":"Zeros","config":{}},"kernel_regularizer":null,"bias_regularizer":null,"activity_regularizer":null,"kernel_constraint":null,"bias_constraint":null,"name":"dense_Dense2664","trainable":true},"inbound_nodes":[[["dense_Dense2663",0,0,{}]]]},{"name":"dense_Dense2665","class_name":"Dense","config":{"units":1,"activation":"sigmoid","use_bias":true,"kernel_initializer":{"class_name":"VarianceScaling","config":{"scale":1,"mode":"fan_avg","distribution":"normal","seed":null}},"bias_initializer":{"class_name":"Zeros","config":{}},"kernel_regularizer":null,"bias_regularizer":null,"activity_regularizer":null,"kernel_constraint":null,"bias_constraint":null,"name":"dense_Dense2665","trainable":true},"inbound_nodes":[[["dense_Dense2664",0,0,{}]]]}],"input_layers":[["input533",0,0]],"output_layers":[["dense_Dense2665",0,0]]},"keras_version":"tfjs-layers 3.9.0","backend":"tensor_flow.js"},"weightsManifest":[{"paths":["weights.bin"],"weights":[{"name":"dense_Dense2661/kernel","shape":[3,4],"dtype":"float32"},{"name":"dense_Dense2661/bias","shape":[4],"dtype":"float32"},{"name":"dense_Dense2662/kernel","shape":[4,4],"dtype":"float32"},{"name":"dense_Dense2662/bias","shape":[4],"dtype":"float32"},{"name":"dense_Dense2663/kernel","shape":[4,16],"dtype":"float32"},{"name":"dense_Dense2663/bias","shape":[16],"dtype":"float32"},{"name":"dense_Dense2664/kernel","shape":[16,16],"dtype":"float32"},{"name":"dense_Dense2664/bias","shape":[16],"dtype":"float32"},{"name":"dense_Dense2665/kernel","shape":[16,1],"dtype":"float32"},{"name":"dense_Dense2665/bias","shape":[1],"dtype":"float32"}]}]}