{"modelTopology":{"class_name":"Model","config":{"name":"model520","layers":[{"name":"input520","class_name":"InputLayer","config":{"batch_input_shape":[null,3],"dtype":"float32","sparse":false,"name":"input520"},"inbound_nodes":[]},{"name":"dense_Dense3115","class_name":"Dense","config":{"units":4,"activation":"relu","use_bias":true,"kernel_initializer":{"class_name":"VarianceScaling","config":{"scale":1,"mode":"fan_avg","distribution":"normal","seed":null}},"bias_initializer":{"class_name":"Zeros","config":{}},"kernel_regularizer":null,"bias_regularizer":null,"activity_regularizer":null,"kernel_constraint":null,"bias_constraint":null,"name":"dense_Dense3115","trainable":true},"inbound_nodes":[[["input520",0,0,{}]]]},{"name":"dense_Dense3116","class_name":"Dense","config":{"units":4,"activation":"relu","use_bias":true,"kernel_initializer":{"class_name":"VarianceScaling","config":{"scale":1,"mode":"fan_avg","distribution":"normal","seed":null}},"bias_initializer":{"class_name":"Zeros","config":{}},"kernel_regularizer":null,"bias_regularizer":null,"activity_regularizer":null,"kernel_constraint":null,"bias_constraint":null,"name":"dense_Dense3116","trainable":true},"inbound_nodes":[[["dense_Dense3115",0,0,{}]]]},{"name":"dense_Dense3117","class_name":"Dense","config":{"units":4,"activation":"relu","use_bias":true,"kernel_initializer":{"class_name":"VarianceScaling","config":{"scale":1,"mode":"fan_avg","distribution":"normal","seed":null}},"bias_initializer":{"class_name":"Zeros","config":{}},"kernel_regularizer":null,"bias_regularizer":null,"activity_regularizer":null,"kernel_constraint":null,"bias_constraint":null,"name":"dense_Dense3117","trainable":true},"inbound_nodes":[[["dense_Dense3116",0,0,{}]]]},{"name":"dense_Dense3118","class_name":"Dense","config":{"units":4,"activation":"relu","use_bias":true,"kernel_initializer":{"class_name":"VarianceScaling","config":{"scale":1,"mode":"fan_avg","distribution":"normal","seed":null}},"bias_initializer":{"class_name":"Zeros","config":{}},"kernel_regularizer":null,"bias_regularizer":null,"activity_regularizer":null,"kernel_constraint":null,"bias_constraint":null,"name":"dense_Dense3118","trainable":true},"inbound_nodes":[[["dense_Dense3117",0,0,{}]]]},{"name":"dense_Dense3119","class_name":"Dense","config":{"units":8,"activation":"relu","use_bias":true,"kernel_initializer":{"class_name":"VarianceScaling","config":{"scale":1,"mode":"fan_avg","distribution":"normal","seed":null}},"bias_initializer":{"class_name":"Zeros","config":{}},"kernel_regularizer":null,"bias_regularizer":null,"activity_regularizer":null,"kernel_constraint":null,"bias_constraint":null,"name":"dense_Dense3119","trainable":true},"inbound_nodes":[[["dense_Dense3118",0,0,{}]]]},{"name":"dense_Dense3120","class_name":"Dense","config":{"units":1,"activation":"sigmoid","use_bias":true,"kernel_initializer":{"class_name":"VarianceScaling","config":{"scale":1,"mode":"fan_avg","distribution":"normal","seed":null}},"bias_initializer":{"class_name":"Zeros","config":{}},"kernel_regularizer":null,"bias_regularizer":null,"activity_regularizer":null,"kernel_constraint":null,"bias_constraint":null,"name":"dense_Dense3120","trainable":true},"inbound_nodes":[[["dense_Dense3119",0,0,{}]]]}],"input_layers":[["input520",0,0]],"output_layers":[["dense_Dense3120",0,0]]},"keras_version":"tfjs-layers 3.9.0","backend":"tensor_flow.js"},"weightsManifest":[{"paths":["weights.bin"],"weights":[{"name":"dense_Dense3115/kernel","shape":[3,4],"dtype":"float32"},{"name":"dense_Dense3115/bias","shape":[4],"dtype":"float32"},{"name":"dense_Dense3116/kernel","shape":[4,4],"dtype":"float32"},{"name":"dense_Dense3116/bias","shape":[4],"dtype":"float32"},{"name":"dense_Dense3117/kernel","shape":[4,4],"dtype":"float32"},{"name":"dense_Dense3117/bias","shape":[4],"dtype":"float32"},{"name":"dense_Dense3118/kernel","shape":[4,4],"dtype":"float32"},{"name":"dense_Dense3118/bias","shape":[4],"dtype":"float32"},{"name":"dense_Dense3119/kernel","shape":[4,8],"dtype":"float32"},{"name":"dense_Dense3119/bias","shape":[8],"dtype":"float32"},{"name":"dense_Dense3120/kernel","shape":[8,1],"dtype":"float32"},{"name":"dense_Dense3120/bias","shape":[1],"dtype":"float32"}]}]}