{"modelTopology":{"class_name":"Model","config":{"name":"model903","layers":[{"name":"input903","class_name":"InputLayer","config":{"batch_input_shape":[null,3],"dtype":"float32","sparse":false,"name":"input903"},"inbound_nodes":[]},{"name":"dense_Dense4511","class_name":"Dense","config":{"units":16,"activation":"relu","use_bias":true,"kernel_initializer":{"class_name":"VarianceScaling","config":{"scale":1,"mode":"fan_avg","distribution":"normal","seed":null}},"bias_initializer":{"class_name":"Zeros","config":{}},"kernel_regularizer":null,"bias_regularizer":null,"activity_regularizer":null,"kernel_constraint":null,"bias_constraint":null,"name":"dense_Dense4511","trainable":true},"inbound_nodes":[[["input903",0,0,{}]]]},{"name":"dense_Dense4512","class_name":"Dense","config":{"units":2,"activation":"relu","use_bias":true,"kernel_initializer":{"class_name":"VarianceScaling","config":{"scale":1,"mode":"fan_avg","distribution":"normal","seed":null}},"bias_initializer":{"class_name":"Zeros","config":{}},"kernel_regularizer":null,"bias_regularizer":null,"activity_regularizer":null,"kernel_constraint":null,"bias_constraint":null,"name":"dense_Dense4512","trainable":true},"inbound_nodes":[[["dense_Dense4511",0,0,{}]]]},{"name":"dense_Dense4513","class_name":"Dense","config":{"units":1,"activation":"relu","use_bias":true,"kernel_initializer":{"class_name":"VarianceScaling","config":{"scale":1,"mode":"fan_avg","distribution":"normal","seed":null}},"bias_initializer":{"class_name":"Zeros","config":{}},"kernel_regularizer":null,"bias_regularizer":null,"activity_regularizer":null,"kernel_constraint":null,"bias_constraint":null,"name":"dense_Dense4513","trainable":true},"inbound_nodes":[[["dense_Dense4512",0,0,{}]]]},{"name":"dense_Dense4514","class_name":"Dense","config":{"units":4,"activation":"relu","use_bias":true,"kernel_initializer":{"class_name":"VarianceScaling","config":{"scale":1,"mode":"fan_avg","distribution":"normal","seed":null}},"bias_initializer":{"class_name":"Zeros","config":{}},"kernel_regularizer":null,"bias_regularizer":null,"activity_regularizer":null,"kernel_constraint":null,"bias_constraint":null,"name":"dense_Dense4514","trainable":true},"inbound_nodes":[[["dense_Dense4513",0,0,{}]]]},{"name":"dense_Dense4515","class_name":"Dense","config":{"units":1,"activation":"sigmoid","use_bias":true,"kernel_initializer":{"class_name":"VarianceScaling","config":{"scale":1,"mode":"fan_avg","distribution":"normal","seed":null}},"bias_initializer":{"class_name":"Zeros","config":{}},"kernel_regularizer":null,"bias_regularizer":null,"activity_regularizer":null,"kernel_constraint":null,"bias_constraint":null,"name":"dense_Dense4515","trainable":true},"inbound_nodes":[[["dense_Dense4514",0,0,{}]]]}],"input_layers":[["input903",0,0]],"output_layers":[["dense_Dense4515",0,0]]},"keras_version":"tfjs-layers 3.9.0","backend":"tensor_flow.js"},"weightsManifest":[{"paths":["weights.bin"],"weights":[{"name":"dense_Dense4511/kernel","shape":[3,16],"dtype":"float32"},{"name":"dense_Dense4511/bias","shape":[16],"dtype":"float32"},{"name":"dense_Dense4512/kernel","shape":[16,2],"dtype":"float32"},{"name":"dense_Dense4512/bias","shape":[2],"dtype":"float32"},{"name":"dense_Dense4513/kernel","shape":[2,1],"dtype":"float32"},{"name":"dense_Dense4513/bias","shape":[1],"dtype":"float32"},{"name":"dense_Dense4514/kernel","shape":[1,4],"dtype":"float32"},{"name":"dense_Dense4514/bias","shape":[4],"dtype":"float32"},{"name":"dense_Dense4515/kernel","shape":[4,1],"dtype":"float32"},{"name":"dense_Dense4515/bias","shape":[1],"dtype":"float32"}]}]}