{"modelTopology":{"class_name":"Model","config":{"name":"model347","layers":[{"name":"input347","class_name":"InputLayer","config":{"batch_input_shape":[null,3],"dtype":"float32","sparse":false,"name":"input347"},"inbound_nodes":[]},{"name":"dense_Dense2077","class_name":"Dense","config":{"units":1,"activation":"relu","use_bias":true,"kernel_initializer":{"class_name":"VarianceScaling","config":{"scale":1,"mode":"fan_avg","distribution":"normal","seed":null}},"bias_initializer":{"class_name":"Zeros","config":{}},"kernel_regularizer":null,"bias_regularizer":null,"activity_regularizer":null,"kernel_constraint":null,"bias_constraint":null,"name":"dense_Dense2077","trainable":true},"inbound_nodes":[[["input347",0,0,{}]]]},{"name":"dense_Dense2078","class_name":"Dense","config":{"units":2,"activation":"relu","use_bias":true,"kernel_initializer":{"class_name":"VarianceScaling","config":{"scale":1,"mode":"fan_avg","distribution":"normal","seed":null}},"bias_initializer":{"class_name":"Zeros","config":{}},"kernel_regularizer":null,"bias_regularizer":null,"activity_regularizer":null,"kernel_constraint":null,"bias_constraint":null,"name":"dense_Dense2078","trainable":true},"inbound_nodes":[[["dense_Dense2077",0,0,{}]]]},{"name":"dense_Dense2079","class_name":"Dense","config":{"units":8,"activation":"relu","use_bias":true,"kernel_initializer":{"class_name":"VarianceScaling","config":{"scale":1,"mode":"fan_avg","distribution":"normal","seed":null}},"bias_initializer":{"class_name":"Zeros","config":{}},"kernel_regularizer":null,"bias_regularizer":null,"activity_regularizer":null,"kernel_constraint":null,"bias_constraint":null,"name":"dense_Dense2079","trainable":true},"inbound_nodes":[[["dense_Dense2078",0,0,{}]]]},{"name":"dense_Dense2080","class_name":"Dense","config":{"units":8,"activation":"relu","use_bias":true,"kernel_initializer":{"class_name":"VarianceScaling","config":{"scale":1,"mode":"fan_avg","distribution":"normal","seed":null}},"bias_initializer":{"class_name":"Zeros","config":{}},"kernel_regularizer":null,"bias_regularizer":null,"activity_regularizer":null,"kernel_constraint":null,"bias_constraint":null,"name":"dense_Dense2080","trainable":true},"inbound_nodes":[[["dense_Dense2079",0,0,{}]]]},{"name":"dense_Dense2081","class_name":"Dense","config":{"units":16,"activation":"relu","use_bias":true,"kernel_initializer":{"class_name":"VarianceScaling","config":{"scale":1,"mode":"fan_avg","distribution":"normal","seed":null}},"bias_initializer":{"class_name":"Zeros","config":{}},"kernel_regularizer":null,"bias_regularizer":null,"activity_regularizer":null,"kernel_constraint":null,"bias_constraint":null,"name":"dense_Dense2081","trainable":true},"inbound_nodes":[[["dense_Dense2080",0,0,{}]]]},{"name":"dense_Dense2082","class_name":"Dense","config":{"units":1,"activation":"sigmoid","use_bias":true,"kernel_initializer":{"class_name":"VarianceScaling","config":{"scale":1,"mode":"fan_avg","distribution":"normal","seed":null}},"bias_initializer":{"class_name":"Zeros","config":{}},"kernel_regularizer":null,"bias_regularizer":null,"activity_regularizer":null,"kernel_constraint":null,"bias_constraint":null,"name":"dense_Dense2082","trainable":true},"inbound_nodes":[[["dense_Dense2081",0,0,{}]]]}],"input_layers":[["input347",0,0]],"output_layers":[["dense_Dense2082",0,0]]},"keras_version":"tfjs-layers 3.9.0","backend":"tensor_flow.js"},"weightsManifest":[{"paths":["weights.bin"],"weights":[{"name":"dense_Dense2077/kernel","shape":[3,1],"dtype":"float32"},{"name":"dense_Dense2077/bias","shape":[1],"dtype":"float32"},{"name":"dense_Dense2078/kernel","shape":[1,2],"dtype":"float32"},{"name":"dense_Dense2078/bias","shape":[2],"dtype":"float32"},{"name":"dense_Dense2079/kernel","shape":[2,8],"dtype":"float32"},{"name":"dense_Dense2079/bias","shape":[8],"dtype":"float32"},{"name":"dense_Dense2080/kernel","shape":[8,8],"dtype":"float32"},{"name":"dense_Dense2080/bias","shape":[8],"dtype":"float32"},{"name":"dense_Dense2081/kernel","shape":[8,16],"dtype":"float32"},{"name":"dense_Dense2081/bias","shape":[16],"dtype":"float32"},{"name":"dense_Dense2082/kernel","shape":[16,1],"dtype":"float32"},{"name":"dense_Dense2082/bias","shape":[1],"dtype":"float32"}]}]}