{"modelTopology":{"class_name":"Model","config":{"name":"model24","layers":[{"name":"input24","class_name":"InputLayer","config":{"batch_input_shape":[null,3],"dtype":"float32","sparse":false,"name":"input24"},"inbound_nodes":[]},{"name":"dense_Dense116","class_name":"Dense","config":{"units":1,"activation":"relu","use_bias":true,"kernel_initializer":{"class_name":"VarianceScaling","config":{"scale":1,"mode":"fan_avg","distribution":"normal","seed":null}},"bias_initializer":{"class_name":"Zeros","config":{}},"kernel_regularizer":null,"bias_regularizer":null,"activity_regularizer":null,"kernel_constraint":null,"bias_constraint":null,"name":"dense_Dense116","trainable":true},"inbound_nodes":[[["input24",0,0,{}]]]},{"name":"dense_Dense117","class_name":"Dense","config":{"units":1,"activation":"relu","use_bias":true,"kernel_initializer":{"class_name":"VarianceScaling","config":{"scale":1,"mode":"fan_avg","distribution":"normal","seed":null}},"bias_initializer":{"class_name":"Zeros","config":{}},"kernel_regularizer":null,"bias_regularizer":null,"activity_regularizer":null,"kernel_constraint":null,"bias_constraint":null,"name":"dense_Dense117","trainable":true},"inbound_nodes":[[["dense_Dense116",0,0,{}]]]},{"name":"dense_Dense118","class_name":"Dense","config":{"units":8,"activation":"relu","use_bias":true,"kernel_initializer":{"class_name":"VarianceScaling","config":{"scale":1,"mode":"fan_avg","distribution":"normal","seed":null}},"bias_initializer":{"class_name":"Zeros","config":{}},"kernel_regularizer":null,"bias_regularizer":null,"activity_regularizer":null,"kernel_constraint":null,"bias_constraint":null,"name":"dense_Dense118","trainable":true},"inbound_nodes":[[["dense_Dense117",0,0,{}]]]},{"name":"dense_Dense119","class_name":"Dense","config":{"units":32,"activation":"relu","use_bias":true,"kernel_initializer":{"class_name":"VarianceScaling","config":{"scale":1,"mode":"fan_avg","distribution":"normal","seed":null}},"bias_initializer":{"class_name":"Zeros","config":{}},"kernel_regularizer":null,"bias_regularizer":null,"activity_regularizer":null,"kernel_constraint":null,"bias_constraint":null,"name":"dense_Dense119","trainable":true},"inbound_nodes":[[["dense_Dense118",0,0,{}]]]},{"name":"dense_Dense120","class_name":"Dense","config":{"units":1,"activation":"sigmoid","use_bias":true,"kernel_initializer":{"class_name":"VarianceScaling","config":{"scale":1,"mode":"fan_avg","distribution":"normal","seed":null}},"bias_initializer":{"class_name":"Zeros","config":{}},"kernel_regularizer":null,"bias_regularizer":null,"activity_regularizer":null,"kernel_constraint":null,"bias_constraint":null,"name":"dense_Dense120","trainable":true},"inbound_nodes":[[["dense_Dense119",0,0,{}]]]}],"input_layers":[["input24",0,0]],"output_layers":[["dense_Dense120",0,0]]},"keras_version":"tfjs-layers 3.9.0","backend":"tensor_flow.js"},"weightsManifest":[{"paths":["weights.bin"],"weights":[{"name":"dense_Dense116/kernel","shape":[3,1],"dtype":"float32"},{"name":"dense_Dense116/bias","shape":[1],"dtype":"float32"},{"name":"dense_Dense117/kernel","shape":[1,1],"dtype":"float32"},{"name":"dense_Dense117/bias","shape":[1],"dtype":"float32"},{"name":"dense_Dense118/kernel","shape":[1,8],"dtype":"float32"},{"name":"dense_Dense118/bias","shape":[8],"dtype":"float32"},{"name":"dense_Dense119/kernel","shape":[8,32],"dtype":"float32"},{"name":"dense_Dense119/bias","shape":[32],"dtype":"float32"},{"name":"dense_Dense120/kernel","shape":[32,1],"dtype":"float32"},{"name":"dense_Dense120/bias","shape":[1],"dtype":"float32"}]}]}