{"modelTopology":{"class_name":"Model","config":{"name":"model1087","layers":[{"name":"input1087","class_name":"InputLayer","config":{"batch_input_shape":[null,3],"dtype":"float32","sparse":false,"name":"input1087"},"inbound_nodes":[]},{"name":"dense_Dense6517","class_name":"Dense","config":{"units":32,"activation":"relu","use_bias":true,"kernel_initializer":{"class_name":"VarianceScaling","config":{"scale":1,"mode":"fan_avg","distribution":"normal","seed":null}},"bias_initializer":{"class_name":"Zeros","config":{}},"kernel_regularizer":null,"bias_regularizer":null,"activity_regularizer":null,"kernel_constraint":null,"bias_constraint":null,"name":"dense_Dense6517","trainable":true},"inbound_nodes":[[["input1087",0,0,{}]]]},{"name":"dense_Dense6518","class_name":"Dense","config":{"units":32,"activation":"relu","use_bias":true,"kernel_initializer":{"class_name":"VarianceScaling","config":{"scale":1,"mode":"fan_avg","distribution":"normal","seed":null}},"bias_initializer":{"class_name":"Zeros","config":{}},"kernel_regularizer":null,"bias_regularizer":null,"activity_regularizer":null,"kernel_constraint":null,"bias_constraint":null,"name":"dense_Dense6518","trainable":true},"inbound_nodes":[[["dense_Dense6517",0,0,{}]]]},{"name":"dense_Dense6519","class_name":"Dense","config":{"units":1,"activation":"relu","use_bias":true,"kernel_initializer":{"class_name":"VarianceScaling","config":{"scale":1,"mode":"fan_avg","distribution":"normal","seed":null}},"bias_initializer":{"class_name":"Zeros","config":{}},"kernel_regularizer":null,"bias_regularizer":null,"activity_regularizer":null,"kernel_constraint":null,"bias_constraint":null,"name":"dense_Dense6519","trainable":true},"inbound_nodes":[[["dense_Dense6518",0,0,{}]]]},{"name":"dense_Dense6520","class_name":"Dense","config":{"units":2,"activation":"relu","use_bias":true,"kernel_initializer":{"class_name":"VarianceScaling","config":{"scale":1,"mode":"fan_avg","distribution":"normal","seed":null}},"bias_initializer":{"class_name":"Zeros","config":{}},"kernel_regularizer":null,"bias_regularizer":null,"activity_regularizer":null,"kernel_constraint":null,"bias_constraint":null,"name":"dense_Dense6520","trainable":true},"inbound_nodes":[[["dense_Dense6519",0,0,{}]]]},{"name":"dense_Dense6521","class_name":"Dense","config":{"units":1,"activation":"relu","use_bias":true,"kernel_initializer":{"class_name":"VarianceScaling","config":{"scale":1,"mode":"fan_avg","distribution":"normal","seed":null}},"bias_initializer":{"class_name":"Zeros","config":{}},"kernel_regularizer":null,"bias_regularizer":null,"activity_regularizer":null,"kernel_constraint":null,"bias_constraint":null,"name":"dense_Dense6521","trainable":true},"inbound_nodes":[[["dense_Dense6520",0,0,{}]]]},{"name":"dense_Dense6522","class_name":"Dense","config":{"units":1,"activation":"sigmoid","use_bias":true,"kernel_initializer":{"class_name":"VarianceScaling","config":{"scale":1,"mode":"fan_avg","distribution":"normal","seed":null}},"bias_initializer":{"class_name":"Zeros","config":{}},"kernel_regularizer":null,"bias_regularizer":null,"activity_regularizer":null,"kernel_constraint":null,"bias_constraint":null,"name":"dense_Dense6522","trainable":true},"inbound_nodes":[[["dense_Dense6521",0,0,{}]]]}],"input_layers":[["input1087",0,0]],"output_layers":[["dense_Dense6522",0,0]]},"keras_version":"tfjs-layers 3.9.0","backend":"tensor_flow.js"},"weightsManifest":[{"paths":["weights.bin"],"weights":[{"name":"dense_Dense6517/kernel","shape":[3,32],"dtype":"float32"},{"name":"dense_Dense6517/bias","shape":[32],"dtype":"float32"},{"name":"dense_Dense6518/kernel","shape":[32,32],"dtype":"float32"},{"name":"dense_Dense6518/bias","shape":[32],"dtype":"float32"},{"name":"dense_Dense6519/kernel","shape":[32,1],"dtype":"float32"},{"name":"dense_Dense6519/bias","shape":[1],"dtype":"float32"},{"name":"dense_Dense6520/kernel","shape":[1,2],"dtype":"float32"},{"name":"dense_Dense6520/bias","shape":[2],"dtype":"float32"},{"name":"dense_Dense6521/kernel","shape":[2,1],"dtype":"float32"},{"name":"dense_Dense6521/bias","shape":[1],"dtype":"float32"},{"name":"dense_Dense6522/kernel","shape":[1,1],"dtype":"float32"},{"name":"dense_Dense6522/bias","shape":[1],"dtype":"float32"}]}]}