{"modelTopology":{"class_name":"Model","config":{"name":"model919","layers":[{"name":"input919","class_name":"InputLayer","config":{"batch_input_shape":[null,3],"dtype":"float32","sparse":false,"name":"input919"},"inbound_nodes":[]},{"name":"dense_Dense4591","class_name":"Dense","config":{"units":16,"activation":"relu","use_bias":true,"kernel_initializer":{"class_name":"VarianceScaling","config":{"scale":1,"mode":"fan_avg","distribution":"normal","seed":null}},"bias_initializer":{"class_name":"Zeros","config":{}},"kernel_regularizer":null,"bias_regularizer":null,"activity_regularizer":null,"kernel_constraint":null,"bias_constraint":null,"name":"dense_Dense4591","trainable":true},"inbound_nodes":[[["input919",0,0,{}]]]},{"name":"dense_Dense4592","class_name":"Dense","config":{"units":2,"activation":"relu","use_bias":true,"kernel_initializer":{"class_name":"VarianceScaling","config":{"scale":1,"mode":"fan_avg","distribution":"normal","seed":null}},"bias_initializer":{"class_name":"Zeros","config":{}},"kernel_regularizer":null,"bias_regularizer":null,"activity_regularizer":null,"kernel_constraint":null,"bias_constraint":null,"name":"dense_Dense4592","trainable":true},"inbound_nodes":[[["dense_Dense4591",0,0,{}]]]},{"name":"dense_Dense4593","class_name":"Dense","config":{"units":8,"activation":"relu","use_bias":true,"kernel_initializer":{"class_name":"VarianceScaling","config":{"scale":1,"mode":"fan_avg","distribution":"normal","seed":null}},"bias_initializer":{"class_name":"Zeros","config":{}},"kernel_regularizer":null,"bias_regularizer":null,"activity_regularizer":null,"kernel_constraint":null,"bias_constraint":null,"name":"dense_Dense4593","trainable":true},"inbound_nodes":[[["dense_Dense4592",0,0,{}]]]},{"name":"dense_Dense4594","class_name":"Dense","config":{"units":1,"activation":"relu","use_bias":true,"kernel_initializer":{"class_name":"VarianceScaling","config":{"scale":1,"mode":"fan_avg","distribution":"normal","seed":null}},"bias_initializer":{"class_name":"Zeros","config":{}},"kernel_regularizer":null,"bias_regularizer":null,"activity_regularizer":null,"kernel_constraint":null,"bias_constraint":null,"name":"dense_Dense4594","trainable":true},"inbound_nodes":[[["dense_Dense4593",0,0,{}]]]},{"name":"dense_Dense4595","class_name":"Dense","config":{"units":1,"activation":"sigmoid","use_bias":true,"kernel_initializer":{"class_name":"VarianceScaling","config":{"scale":1,"mode":"fan_avg","distribution":"normal","seed":null}},"bias_initializer":{"class_name":"Zeros","config":{}},"kernel_regularizer":null,"bias_regularizer":null,"activity_regularizer":null,"kernel_constraint":null,"bias_constraint":null,"name":"dense_Dense4595","trainable":true},"inbound_nodes":[[["dense_Dense4594",0,0,{}]]]}],"input_layers":[["input919",0,0]],"output_layers":[["dense_Dense4595",0,0]]},"keras_version":"tfjs-layers 3.9.0","backend":"tensor_flow.js"},"weightsManifest":[{"paths":["weights.bin"],"weights":[{"name":"dense_Dense4591/kernel","shape":[3,16],"dtype":"float32"},{"name":"dense_Dense4591/bias","shape":[16],"dtype":"float32"},{"name":"dense_Dense4592/kernel","shape":[16,2],"dtype":"float32"},{"name":"dense_Dense4592/bias","shape":[2],"dtype":"float32"},{"name":"dense_Dense4593/kernel","shape":[2,8],"dtype":"float32"},{"name":"dense_Dense4593/bias","shape":[8],"dtype":"float32"},{"name":"dense_Dense4594/kernel","shape":[8,1],"dtype":"float32"},{"name":"dense_Dense4594/bias","shape":[1],"dtype":"float32"},{"name":"dense_Dense4595/kernel","shape":[1,1],"dtype":"float32"},{"name":"dense_Dense4595/bias","shape":[1],"dtype":"float32"}]}]}