{"modelTopology":{"class_name":"Model","config":{"name":"model330","layers":[{"name":"input330","class_name":"InputLayer","config":{"batch_input_shape":[null,3],"dtype":"float32","sparse":false,"name":"input330"},"inbound_nodes":[]},{"name":"dense_Dense1975","class_name":"Dense","config":{"units":1,"activation":"relu","use_bias":true,"kernel_initializer":{"class_name":"VarianceScaling","config":{"scale":1,"mode":"fan_avg","distribution":"normal","seed":null}},"bias_initializer":{"class_name":"Zeros","config":{}},"kernel_regularizer":null,"bias_regularizer":null,"activity_regularizer":null,"kernel_constraint":null,"bias_constraint":null,"name":"dense_Dense1975","trainable":true},"inbound_nodes":[[["input330",0,0,{}]]]},{"name":"dense_Dense1976","class_name":"Dense","config":{"units":2,"activation":"relu","use_bias":true,"kernel_initializer":{"class_name":"VarianceScaling","config":{"scale":1,"mode":"fan_avg","distribution":"normal","seed":null}},"bias_initializer":{"class_name":"Zeros","config":{}},"kernel_regularizer":null,"bias_regularizer":null,"activity_regularizer":null,"kernel_constraint":null,"bias_constraint":null,"name":"dense_Dense1976","trainable":true},"inbound_nodes":[[["dense_Dense1975",0,0,{}]]]},{"name":"dense_Dense1977","class_name":"Dense","config":{"units":8,"activation":"relu","use_bias":true,"kernel_initializer":{"class_name":"VarianceScaling","config":{"scale":1,"mode":"fan_avg","distribution":"normal","seed":null}},"bias_initializer":{"class_name":"Zeros","config":{}},"kernel_regularizer":null,"bias_regularizer":null,"activity_regularizer":null,"kernel_constraint":null,"bias_constraint":null,"name":"dense_Dense1977","trainable":true},"inbound_nodes":[[["dense_Dense1976",0,0,{}]]]},{"name":"dense_Dense1978","class_name":"Dense","config":{"units":1,"activation":"relu","use_bias":true,"kernel_initializer":{"class_name":"VarianceScaling","config":{"scale":1,"mode":"fan_avg","distribution":"normal","seed":null}},"bias_initializer":{"class_name":"Zeros","config":{}},"kernel_regularizer":null,"bias_regularizer":null,"activity_regularizer":null,"kernel_constraint":null,"bias_constraint":null,"name":"dense_Dense1978","trainable":true},"inbound_nodes":[[["dense_Dense1977",0,0,{}]]]},{"name":"dense_Dense1979","class_name":"Dense","config":{"units":32,"activation":"relu","use_bias":true,"kernel_initializer":{"class_name":"VarianceScaling","config":{"scale":1,"mode":"fan_avg","distribution":"normal","seed":null}},"bias_initializer":{"class_name":"Zeros","config":{}},"kernel_regularizer":null,"bias_regularizer":null,"activity_regularizer":null,"kernel_constraint":null,"bias_constraint":null,"name":"dense_Dense1979","trainable":true},"inbound_nodes":[[["dense_Dense1978",0,0,{}]]]},{"name":"dense_Dense1980","class_name":"Dense","config":{"units":1,"activation":"sigmoid","use_bias":true,"kernel_initializer":{"class_name":"VarianceScaling","config":{"scale":1,"mode":"fan_avg","distribution":"normal","seed":null}},"bias_initializer":{"class_name":"Zeros","config":{}},"kernel_regularizer":null,"bias_regularizer":null,"activity_regularizer":null,"kernel_constraint":null,"bias_constraint":null,"name":"dense_Dense1980","trainable":true},"inbound_nodes":[[["dense_Dense1979",0,0,{}]]]}],"input_layers":[["input330",0,0]],"output_layers":[["dense_Dense1980",0,0]]},"keras_version":"tfjs-layers 3.9.0","backend":"tensor_flow.js"},"weightsManifest":[{"paths":["weights.bin"],"weights":[{"name":"dense_Dense1975/kernel","shape":[3,1],"dtype":"float32"},{"name":"dense_Dense1975/bias","shape":[1],"dtype":"float32"},{"name":"dense_Dense1976/kernel","shape":[1,2],"dtype":"float32"},{"name":"dense_Dense1976/bias","shape":[2],"dtype":"float32"},{"name":"dense_Dense1977/kernel","shape":[2,8],"dtype":"float32"},{"name":"dense_Dense1977/bias","shape":[8],"dtype":"float32"},{"name":"dense_Dense1978/kernel","shape":[8,1],"dtype":"float32"},{"name":"dense_Dense1978/bias","shape":[1],"dtype":"float32"},{"name":"dense_Dense1979/kernel","shape":[1,32],"dtype":"float32"},{"name":"dense_Dense1979/bias","shape":[32],"dtype":"float32"},{"name":"dense_Dense1980/kernel","shape":[32,1],"dtype":"float32"},{"name":"dense_Dense1980/bias","shape":[1],"dtype":"float32"}]}]}