{"modelTopology":{"class_name":"Model","config":{"name":"model742","layers":[{"name":"input742","class_name":"InputLayer","config":{"batch_input_shape":[null,3],"dtype":"float32","sparse":false,"name":"input742"},"inbound_nodes":[]},{"name":"dense_Dense3706","class_name":"Dense","config":{"units":8,"activation":"relu","use_bias":true,"kernel_initializer":{"class_name":"VarianceScaling","config":{"scale":1,"mode":"fan_avg","distribution":"normal","seed":null}},"bias_initializer":{"class_name":"Zeros","config":{}},"kernel_regularizer":null,"bias_regularizer":null,"activity_regularizer":null,"kernel_constraint":null,"bias_constraint":null,"name":"dense_Dense3706","trainable":true},"inbound_nodes":[[["input742",0,0,{}]]]},{"name":"dense_Dense3707","class_name":"Dense","config":{"units":4,"activation":"relu","use_bias":true,"kernel_initializer":{"class_name":"VarianceScaling","config":{"scale":1,"mode":"fan_avg","distribution":"normal","seed":null}},"bias_initializer":{"class_name":"Zeros","config":{}},"kernel_regularizer":null,"bias_regularizer":null,"activity_regularizer":null,"kernel_constraint":null,"bias_constraint":null,"name":"dense_Dense3707","trainable":true},"inbound_nodes":[[["dense_Dense3706",0,0,{}]]]},{"name":"dense_Dense3708","class_name":"Dense","config":{"units":8,"activation":"relu","use_bias":true,"kernel_initializer":{"class_name":"VarianceScaling","config":{"scale":1,"mode":"fan_avg","distribution":"normal","seed":null}},"bias_initializer":{"class_name":"Zeros","config":{}},"kernel_regularizer":null,"bias_regularizer":null,"activity_regularizer":null,"kernel_constraint":null,"bias_constraint":null,"name":"dense_Dense3708","trainable":true},"inbound_nodes":[[["dense_Dense3707",0,0,{}]]]},{"name":"dense_Dense3709","class_name":"Dense","config":{"units":8,"activation":"relu","use_bias":true,"kernel_initializer":{"class_name":"VarianceScaling","config":{"scale":1,"mode":"fan_avg","distribution":"normal","seed":null}},"bias_initializer":{"class_name":"Zeros","config":{}},"kernel_regularizer":null,"bias_regularizer":null,"activity_regularizer":null,"kernel_constraint":null,"bias_constraint":null,"name":"dense_Dense3709","trainable":true},"inbound_nodes":[[["dense_Dense3708",0,0,{}]]]},{"name":"dense_Dense3710","class_name":"Dense","config":{"units":1,"activation":"sigmoid","use_bias":true,"kernel_initializer":{"class_name":"VarianceScaling","config":{"scale":1,"mode":"fan_avg","distribution":"normal","seed":null}},"bias_initializer":{"class_name":"Zeros","config":{}},"kernel_regularizer":null,"bias_regularizer":null,"activity_regularizer":null,"kernel_constraint":null,"bias_constraint":null,"name":"dense_Dense3710","trainable":true},"inbound_nodes":[[["dense_Dense3709",0,0,{}]]]}],"input_layers":[["input742",0,0]],"output_layers":[["dense_Dense3710",0,0]]},"keras_version":"tfjs-layers 3.9.0","backend":"tensor_flow.js"},"weightsManifest":[{"paths":["weights.bin"],"weights":[{"name":"dense_Dense3706/kernel","shape":[3,8],"dtype":"float32"},{"name":"dense_Dense3706/bias","shape":[8],"dtype":"float32"},{"name":"dense_Dense3707/kernel","shape":[8,4],"dtype":"float32"},{"name":"dense_Dense3707/bias","shape":[4],"dtype":"float32"},{"name":"dense_Dense3708/kernel","shape":[4,8],"dtype":"float32"},{"name":"dense_Dense3708/bias","shape":[8],"dtype":"float32"},{"name":"dense_Dense3709/kernel","shape":[8,8],"dtype":"float32"},{"name":"dense_Dense3709/bias","shape":[8],"dtype":"float32"},{"name":"dense_Dense3710/kernel","shape":[8,1],"dtype":"float32"},{"name":"dense_Dense3710/bias","shape":[1],"dtype":"float32"}]}]}