{"modelTopology":{"class_name":"Model","config":{"name":"model791","layers":[{"name":"input791","class_name":"InputLayer","config":{"batch_input_shape":[null,3],"dtype":"float32","sparse":false,"name":"input791"},"inbound_nodes":[]},{"name":"dense_Dense3951","class_name":"Dense","config":{"units":8,"activation":"relu","use_bias":true,"kernel_initializer":{"class_name":"VarianceScaling","config":{"scale":1,"mode":"fan_avg","distribution":"normal","seed":null}},"bias_initializer":{"class_name":"Zeros","config":{}},"kernel_regularizer":null,"bias_regularizer":null,"activity_regularizer":null,"kernel_constraint":null,"bias_constraint":null,"name":"dense_Dense3951","trainable":true},"inbound_nodes":[[["input791",0,0,{}]]]},{"name":"dense_Dense3952","class_name":"Dense","config":{"units":8,"activation":"relu","use_bias":true,"kernel_initializer":{"class_name":"VarianceScaling","config":{"scale":1,"mode":"fan_avg","distribution":"normal","seed":null}},"bias_initializer":{"class_name":"Zeros","config":{}},"kernel_regularizer":null,"bias_regularizer":null,"activity_regularizer":null,"kernel_constraint":null,"bias_constraint":null,"name":"dense_Dense3952","trainable":true},"inbound_nodes":[[["dense_Dense3951",0,0,{}]]]},{"name":"dense_Dense3953","class_name":"Dense","config":{"units":32,"activation":"relu","use_bias":true,"kernel_initializer":{"class_name":"VarianceScaling","config":{"scale":1,"mode":"fan_avg","distribution":"normal","seed":null}},"bias_initializer":{"class_name":"Zeros","config":{}},"kernel_regularizer":null,"bias_regularizer":null,"activity_regularizer":null,"kernel_constraint":null,"bias_constraint":null,"name":"dense_Dense3953","trainable":true},"inbound_nodes":[[["dense_Dense3952",0,0,{}]]]},{"name":"dense_Dense3954","class_name":"Dense","config":{"units":16,"activation":"relu","use_bias":true,"kernel_initializer":{"class_name":"VarianceScaling","config":{"scale":1,"mode":"fan_avg","distribution":"normal","seed":null}},"bias_initializer":{"class_name":"Zeros","config":{}},"kernel_regularizer":null,"bias_regularizer":null,"activity_regularizer":null,"kernel_constraint":null,"bias_constraint":null,"name":"dense_Dense3954","trainable":true},"inbound_nodes":[[["dense_Dense3953",0,0,{}]]]},{"name":"dense_Dense3955","class_name":"Dense","config":{"units":1,"activation":"sigmoid","use_bias":true,"kernel_initializer":{"class_name":"VarianceScaling","config":{"scale":1,"mode":"fan_avg","distribution":"normal","seed":null}},"bias_initializer":{"class_name":"Zeros","config":{}},"kernel_regularizer":null,"bias_regularizer":null,"activity_regularizer":null,"kernel_constraint":null,"bias_constraint":null,"name":"dense_Dense3955","trainable":true},"inbound_nodes":[[["dense_Dense3954",0,0,{}]]]}],"input_layers":[["input791",0,0]],"output_layers":[["dense_Dense3955",0,0]]},"keras_version":"tfjs-layers 3.9.0","backend":"tensor_flow.js"},"weightsManifest":[{"paths":["weights.bin"],"weights":[{"name":"dense_Dense3951/kernel","shape":[3,8],"dtype":"float32"},{"name":"dense_Dense3951/bias","shape":[8],"dtype":"float32"},{"name":"dense_Dense3952/kernel","shape":[8,8],"dtype":"float32"},{"name":"dense_Dense3952/bias","shape":[8],"dtype":"float32"},{"name":"dense_Dense3953/kernel","shape":[8,32],"dtype":"float32"},{"name":"dense_Dense3953/bias","shape":[32],"dtype":"float32"},{"name":"dense_Dense3954/kernel","shape":[32,16],"dtype":"float32"},{"name":"dense_Dense3954/bias","shape":[16],"dtype":"float32"},{"name":"dense_Dense3955/kernel","shape":[16,1],"dtype":"float32"},{"name":"dense_Dense3955/bias","shape":[1],"dtype":"float32"}]}]}