{"modelTopology":{"class_name":"Model","config":{"name":"model378","layers":[{"name":"input378","class_name":"InputLayer","config":{"batch_input_shape":[null,3],"dtype":"float32","sparse":false,"name":"input378"},"inbound_nodes":[]},{"name":"dense_Dense2263","class_name":"Dense","config":{"units":2,"activation":"relu","use_bias":true,"kernel_initializer":{"class_name":"VarianceScaling","config":{"scale":1,"mode":"fan_avg","distribution":"normal","seed":null}},"bias_initializer":{"class_name":"Zeros","config":{}},"kernel_regularizer":null,"bias_regularizer":null,"activity_regularizer":null,"kernel_constraint":null,"bias_constraint":null,"name":"dense_Dense2263","trainable":true},"inbound_nodes":[[["input378",0,0,{}]]]},{"name":"dense_Dense2264","class_name":"Dense","config":{"units":2,"activation":"relu","use_bias":true,"kernel_initializer":{"class_name":"VarianceScaling","config":{"scale":1,"mode":"fan_avg","distribution":"normal","seed":null}},"bias_initializer":{"class_name":"Zeros","config":{}},"kernel_regularizer":null,"bias_regularizer":null,"activity_regularizer":null,"kernel_constraint":null,"bias_constraint":null,"name":"dense_Dense2264","trainable":true},"inbound_nodes":[[["dense_Dense2263",0,0,{}]]]},{"name":"dense_Dense2265","class_name":"Dense","config":{"units":16,"activation":"relu","use_bias":true,"kernel_initializer":{"class_name":"VarianceScaling","config":{"scale":1,"mode":"fan_avg","distribution":"normal","seed":null}},"bias_initializer":{"class_name":"Zeros","config":{}},"kernel_regularizer":null,"bias_regularizer":null,"activity_regularizer":null,"kernel_constraint":null,"bias_constraint":null,"name":"dense_Dense2265","trainable":true},"inbound_nodes":[[["dense_Dense2264",0,0,{}]]]},{"name":"dense_Dense2266","class_name":"Dense","config":{"units":4,"activation":"relu","use_bias":true,"kernel_initializer":{"class_name":"VarianceScaling","config":{"scale":1,"mode":"fan_avg","distribution":"normal","seed":null}},"bias_initializer":{"class_name":"Zeros","config":{}},"kernel_regularizer":null,"bias_regularizer":null,"activity_regularizer":null,"kernel_constraint":null,"bias_constraint":null,"name":"dense_Dense2266","trainable":true},"inbound_nodes":[[["dense_Dense2265",0,0,{}]]]},{"name":"dense_Dense2267","class_name":"Dense","config":{"units":32,"activation":"relu","use_bias":true,"kernel_initializer":{"class_name":"VarianceScaling","config":{"scale":1,"mode":"fan_avg","distribution":"normal","seed":null}},"bias_initializer":{"class_name":"Zeros","config":{}},"kernel_regularizer":null,"bias_regularizer":null,"activity_regularizer":null,"kernel_constraint":null,"bias_constraint":null,"name":"dense_Dense2267","trainable":true},"inbound_nodes":[[["dense_Dense2266",0,0,{}]]]},{"name":"dense_Dense2268","class_name":"Dense","config":{"units":1,"activation":"sigmoid","use_bias":true,"kernel_initializer":{"class_name":"VarianceScaling","config":{"scale":1,"mode":"fan_avg","distribution":"normal","seed":null}},"bias_initializer":{"class_name":"Zeros","config":{}},"kernel_regularizer":null,"bias_regularizer":null,"activity_regularizer":null,"kernel_constraint":null,"bias_constraint":null,"name":"dense_Dense2268","trainable":true},"inbound_nodes":[[["dense_Dense2267",0,0,{}]]]}],"input_layers":[["input378",0,0]],"output_layers":[["dense_Dense2268",0,0]]},"keras_version":"tfjs-layers 3.9.0","backend":"tensor_flow.js"},"weightsManifest":[{"paths":["weights.bin"],"weights":[{"name":"dense_Dense2263/kernel","shape":[3,2],"dtype":"float32"},{"name":"dense_Dense2263/bias","shape":[2],"dtype":"float32"},{"name":"dense_Dense2264/kernel","shape":[2,2],"dtype":"float32"},{"name":"dense_Dense2264/bias","shape":[2],"dtype":"float32"},{"name":"dense_Dense2265/kernel","shape":[2,16],"dtype":"float32"},{"name":"dense_Dense2265/bias","shape":[16],"dtype":"float32"},{"name":"dense_Dense2266/kernel","shape":[16,4],"dtype":"float32"},{"name":"dense_Dense2266/bias","shape":[4],"dtype":"float32"},{"name":"dense_Dense2267/kernel","shape":[4,32],"dtype":"float32"},{"name":"dense_Dense2267/bias","shape":[32],"dtype":"float32"},{"name":"dense_Dense2268/kernel","shape":[32,1],"dtype":"float32"},{"name":"dense_Dense2268/bias","shape":[1],"dtype":"float32"}]}]}