{"modelTopology":{"class_name":"Model","config":{"name":"model845","layers":[{"name":"input845","class_name":"InputLayer","config":{"batch_input_shape":[null,3],"dtype":"float32","sparse":false,"name":"input845"},"inbound_nodes":[]},{"name":"dense_Dense5065","class_name":"Dense","config":{"units":8,"activation":"relu","use_bias":true,"kernel_initializer":{"class_name":"VarianceScaling","config":{"scale":1,"mode":"fan_avg","distribution":"normal","seed":null}},"bias_initializer":{"class_name":"Zeros","config":{}},"kernel_regularizer":null,"bias_regularizer":null,"activity_regularizer":null,"kernel_constraint":null,"bias_constraint":null,"name":"dense_Dense5065","trainable":true},"inbound_nodes":[[["input845",0,0,{}]]]},{"name":"dense_Dense5066","class_name":"Dense","config":{"units":8,"activation":"relu","use_bias":true,"kernel_initializer":{"class_name":"VarianceScaling","config":{"scale":1,"mode":"fan_avg","distribution":"normal","seed":null}},"bias_initializer":{"class_name":"Zeros","config":{}},"kernel_regularizer":null,"bias_regularizer":null,"activity_regularizer":null,"kernel_constraint":null,"bias_constraint":null,"name":"dense_Dense5066","trainable":true},"inbound_nodes":[[["dense_Dense5065",0,0,{}]]]},{"name":"dense_Dense5067","class_name":"Dense","config":{"units":32,"activation":"relu","use_bias":true,"kernel_initializer":{"class_name":"VarianceScaling","config":{"scale":1,"mode":"fan_avg","distribution":"normal","seed":null}},"bias_initializer":{"class_name":"Zeros","config":{}},"kernel_regularizer":null,"bias_regularizer":null,"activity_regularizer":null,"kernel_constraint":null,"bias_constraint":null,"name":"dense_Dense5067","trainable":true},"inbound_nodes":[[["dense_Dense5066",0,0,{}]]]},{"name":"dense_Dense5068","class_name":"Dense","config":{"units":4,"activation":"relu","use_bias":true,"kernel_initializer":{"class_name":"VarianceScaling","config":{"scale":1,"mode":"fan_avg","distribution":"normal","seed":null}},"bias_initializer":{"class_name":"Zeros","config":{}},"kernel_regularizer":null,"bias_regularizer":null,"activity_regularizer":null,"kernel_constraint":null,"bias_constraint":null,"name":"dense_Dense5068","trainable":true},"inbound_nodes":[[["dense_Dense5067",0,0,{}]]]},{"name":"dense_Dense5069","class_name":"Dense","config":{"units":16,"activation":"relu","use_bias":true,"kernel_initializer":{"class_name":"VarianceScaling","config":{"scale":1,"mode":"fan_avg","distribution":"normal","seed":null}},"bias_initializer":{"class_name":"Zeros","config":{}},"kernel_regularizer":null,"bias_regularizer":null,"activity_regularizer":null,"kernel_constraint":null,"bias_constraint":null,"name":"dense_Dense5069","trainable":true},"inbound_nodes":[[["dense_Dense5068",0,0,{}]]]},{"name":"dense_Dense5070","class_name":"Dense","config":{"units":1,"activation":"sigmoid","use_bias":true,"kernel_initializer":{"class_name":"VarianceScaling","config":{"scale":1,"mode":"fan_avg","distribution":"normal","seed":null}},"bias_initializer":{"class_name":"Zeros","config":{}},"kernel_regularizer":null,"bias_regularizer":null,"activity_regularizer":null,"kernel_constraint":null,"bias_constraint":null,"name":"dense_Dense5070","trainable":true},"inbound_nodes":[[["dense_Dense5069",0,0,{}]]]}],"input_layers":[["input845",0,0]],"output_layers":[["dense_Dense5070",0,0]]},"keras_version":"tfjs-layers 3.9.0","backend":"tensor_flow.js"},"weightsManifest":[{"paths":["weights.bin"],"weights":[{"name":"dense_Dense5065/kernel","shape":[3,8],"dtype":"float32"},{"name":"dense_Dense5065/bias","shape":[8],"dtype":"float32"},{"name":"dense_Dense5066/kernel","shape":[8,8],"dtype":"float32"},{"name":"dense_Dense5066/bias","shape":[8],"dtype":"float32"},{"name":"dense_Dense5067/kernel","shape":[8,32],"dtype":"float32"},{"name":"dense_Dense5067/bias","shape":[32],"dtype":"float32"},{"name":"dense_Dense5068/kernel","shape":[32,4],"dtype":"float32"},{"name":"dense_Dense5068/bias","shape":[4],"dtype":"float32"},{"name":"dense_Dense5069/kernel","shape":[4,16],"dtype":"float32"},{"name":"dense_Dense5069/bias","shape":[16],"dtype":"float32"},{"name":"dense_Dense5070/kernel","shape":[16,1],"dtype":"float32"},{"name":"dense_Dense5070/bias","shape":[1],"dtype":"float32"}]}]}