{"modelTopology":{"class_name":"Model","config":{"name":"model376","layers":[{"name":"input376","class_name":"InputLayer","config":{"batch_input_shape":[null,3],"dtype":"float32","sparse":false,"name":"input376"},"inbound_nodes":[]},{"name":"dense_Dense2251","class_name":"Dense","config":{"units":4,"activation":"relu","use_bias":true,"kernel_initializer":{"class_name":"VarianceScaling","config":{"scale":1,"mode":"fan_avg","distribution":"normal","seed":null}},"bias_initializer":{"class_name":"Zeros","config":{}},"kernel_regularizer":null,"bias_regularizer":null,"activity_regularizer":null,"kernel_constraint":null,"bias_constraint":null,"name":"dense_Dense2251","trainable":true},"inbound_nodes":[[["input376",0,0,{}]]]},{"name":"dense_Dense2252","class_name":"Dense","config":{"units":2,"activation":"relu","use_bias":true,"kernel_initializer":{"class_name":"VarianceScaling","config":{"scale":1,"mode":"fan_avg","distribution":"normal","seed":null}},"bias_initializer":{"class_name":"Zeros","config":{}},"kernel_regularizer":null,"bias_regularizer":null,"activity_regularizer":null,"kernel_constraint":null,"bias_constraint":null,"name":"dense_Dense2252","trainable":true},"inbound_nodes":[[["dense_Dense2251",0,0,{}]]]},{"name":"dense_Dense2253","class_name":"Dense","config":{"units":16,"activation":"relu","use_bias":true,"kernel_initializer":{"class_name":"VarianceScaling","config":{"scale":1,"mode":"fan_avg","distribution":"normal","seed":null}},"bias_initializer":{"class_name":"Zeros","config":{}},"kernel_regularizer":null,"bias_regularizer":null,"activity_regularizer":null,"kernel_constraint":null,"bias_constraint":null,"name":"dense_Dense2253","trainable":true},"inbound_nodes":[[["dense_Dense2252",0,0,{}]]]},{"name":"dense_Dense2254","class_name":"Dense","config":{"units":4,"activation":"relu","use_bias":true,"kernel_initializer":{"class_name":"VarianceScaling","config":{"scale":1,"mode":"fan_avg","distribution":"normal","seed":null}},"bias_initializer":{"class_name":"Zeros","config":{}},"kernel_regularizer":null,"bias_regularizer":null,"activity_regularizer":null,"kernel_constraint":null,"bias_constraint":null,"name":"dense_Dense2254","trainable":true},"inbound_nodes":[[["dense_Dense2253",0,0,{}]]]},{"name":"dense_Dense2255","class_name":"Dense","config":{"units":8,"activation":"relu","use_bias":true,"kernel_initializer":{"class_name":"VarianceScaling","config":{"scale":1,"mode":"fan_avg","distribution":"normal","seed":null}},"bias_initializer":{"class_name":"Zeros","config":{}},"kernel_regularizer":null,"bias_regularizer":null,"activity_regularizer":null,"kernel_constraint":null,"bias_constraint":null,"name":"dense_Dense2255","trainable":true},"inbound_nodes":[[["dense_Dense2254",0,0,{}]]]},{"name":"dense_Dense2256","class_name":"Dense","config":{"units":1,"activation":"sigmoid","use_bias":true,"kernel_initializer":{"class_name":"VarianceScaling","config":{"scale":1,"mode":"fan_avg","distribution":"normal","seed":null}},"bias_initializer":{"class_name":"Zeros","config":{}},"kernel_regularizer":null,"bias_regularizer":null,"activity_regularizer":null,"kernel_constraint":null,"bias_constraint":null,"name":"dense_Dense2256","trainable":true},"inbound_nodes":[[["dense_Dense2255",0,0,{}]]]}],"input_layers":[["input376",0,0]],"output_layers":[["dense_Dense2256",0,0]]},"keras_version":"tfjs-layers 3.9.0","backend":"tensor_flow.js"},"weightsManifest":[{"paths":["weights.bin"],"weights":[{"name":"dense_Dense2251/kernel","shape":[3,4],"dtype":"float32"},{"name":"dense_Dense2251/bias","shape":[4],"dtype":"float32"},{"name":"dense_Dense2252/kernel","shape":[4,2],"dtype":"float32"},{"name":"dense_Dense2252/bias","shape":[2],"dtype":"float32"},{"name":"dense_Dense2253/kernel","shape":[2,16],"dtype":"float32"},{"name":"dense_Dense2253/bias","shape":[16],"dtype":"float32"},{"name":"dense_Dense2254/kernel","shape":[16,4],"dtype":"float32"},{"name":"dense_Dense2254/bias","shape":[4],"dtype":"float32"},{"name":"dense_Dense2255/kernel","shape":[4,8],"dtype":"float32"},{"name":"dense_Dense2255/bias","shape":[8],"dtype":"float32"},{"name":"dense_Dense2256/kernel","shape":[8,1],"dtype":"float32"},{"name":"dense_Dense2256/bias","shape":[1],"dtype":"float32"}]}]}