{"modelTopology":{"class_name":"Model","config":{"name":"model37","layers":[{"name":"input37","class_name":"InputLayer","config":{"batch_input_shape":[null,3],"dtype":"float32","sparse":false,"name":"input37"},"inbound_nodes":[]},{"name":"dense_Dense217","class_name":"Dense","config":{"units":8,"activation":"relu","use_bias":true,"kernel_initializer":{"class_name":"VarianceScaling","config":{"scale":1,"mode":"fan_avg","distribution":"normal","seed":null}},"bias_initializer":{"class_name":"Zeros","config":{}},"kernel_regularizer":null,"bias_regularizer":null,"activity_regularizer":null,"kernel_constraint":null,"bias_constraint":null,"name":"dense_Dense217","trainable":true},"inbound_nodes":[[["input37",0,0,{}]]]},{"name":"dense_Dense218","class_name":"Dense","config":{"units":1,"activation":"relu","use_bias":true,"kernel_initializer":{"class_name":"VarianceScaling","config":{"scale":1,"mode":"fan_avg","distribution":"normal","seed":null}},"bias_initializer":{"class_name":"Zeros","config":{}},"kernel_regularizer":null,"bias_regularizer":null,"activity_regularizer":null,"kernel_constraint":null,"bias_constraint":null,"name":"dense_Dense218","trainable":true},"inbound_nodes":[[["dense_Dense217",0,0,{}]]]},{"name":"dense_Dense219","class_name":"Dense","config":{"units":2,"activation":"relu","use_bias":true,"kernel_initializer":{"class_name":"VarianceScaling","config":{"scale":1,"mode":"fan_avg","distribution":"normal","seed":null}},"bias_initializer":{"class_name":"Zeros","config":{}},"kernel_regularizer":null,"bias_regularizer":null,"activity_regularizer":null,"kernel_constraint":null,"bias_constraint":null,"name":"dense_Dense219","trainable":true},"inbound_nodes":[[["dense_Dense218",0,0,{}]]]},{"name":"dense_Dense220","class_name":"Dense","config":{"units":1,"activation":"relu","use_bias":true,"kernel_initializer":{"class_name":"VarianceScaling","config":{"scale":1,"mode":"fan_avg","distribution":"normal","seed":null}},"bias_initializer":{"class_name":"Zeros","config":{}},"kernel_regularizer":null,"bias_regularizer":null,"activity_regularizer":null,"kernel_constraint":null,"bias_constraint":null,"name":"dense_Dense220","trainable":true},"inbound_nodes":[[["dense_Dense219",0,0,{}]]]},{"name":"dense_Dense221","class_name":"Dense","config":{"units":1,"activation":"relu","use_bias":true,"kernel_initializer":{"class_name":"VarianceScaling","config":{"scale":1,"mode":"fan_avg","distribution":"normal","seed":null}},"bias_initializer":{"class_name":"Zeros","config":{}},"kernel_regularizer":null,"bias_regularizer":null,"activity_regularizer":null,"kernel_constraint":null,"bias_constraint":null,"name":"dense_Dense221","trainable":true},"inbound_nodes":[[["dense_Dense220",0,0,{}]]]},{"name":"dense_Dense222","class_name":"Dense","config":{"units":1,"activation":"sigmoid","use_bias":true,"kernel_initializer":{"class_name":"VarianceScaling","config":{"scale":1,"mode":"fan_avg","distribution":"normal","seed":null}},"bias_initializer":{"class_name":"Zeros","config":{}},"kernel_regularizer":null,"bias_regularizer":null,"activity_regularizer":null,"kernel_constraint":null,"bias_constraint":null,"name":"dense_Dense222","trainable":true},"inbound_nodes":[[["dense_Dense221",0,0,{}]]]}],"input_layers":[["input37",0,0]],"output_layers":[["dense_Dense222",0,0]]},"keras_version":"tfjs-layers 3.9.0","backend":"tensor_flow.js"},"weightsManifest":[{"paths":["weights.bin"],"weights":[{"name":"dense_Dense217/kernel","shape":[3,8],"dtype":"float32"},{"name":"dense_Dense217/bias","shape":[8],"dtype":"float32"},{"name":"dense_Dense218/kernel","shape":[8,1],"dtype":"float32"},{"name":"dense_Dense218/bias","shape":[1],"dtype":"float32"},{"name":"dense_Dense219/kernel","shape":[1,2],"dtype":"float32"},{"name":"dense_Dense219/bias","shape":[2],"dtype":"float32"},{"name":"dense_Dense220/kernel","shape":[2,1],"dtype":"float32"},{"name":"dense_Dense220/bias","shape":[1],"dtype":"float32"},{"name":"dense_Dense221/kernel","shape":[1,1],"dtype":"float32"},{"name":"dense_Dense221/bias","shape":[1],"dtype":"float32"},{"name":"dense_Dense222/kernel","shape":[1,1],"dtype":"float32"},{"name":"dense_Dense222/bias","shape":[1],"dtype":"float32"}]}]}