{"modelTopology":{"class_name":"Model","config":{"name":"model963","layers":[{"name":"input963","class_name":"InputLayer","config":{"batch_input_shape":[null,3],"dtype":"float32","sparse":false,"name":"input963"},"inbound_nodes":[]},{"name":"dense_Dense5773","class_name":"Dense","config":{"units":16,"activation":"relu","use_bias":true,"kernel_initializer":{"class_name":"VarianceScaling","config":{"scale":1,"mode":"fan_avg","distribution":"normal","seed":null}},"bias_initializer":{"class_name":"Zeros","config":{}},"kernel_regularizer":null,"bias_regularizer":null,"activity_regularizer":null,"kernel_constraint":null,"bias_constraint":null,"name":"dense_Dense5773","trainable":true},"inbound_nodes":[[["input963",0,0,{}]]]},{"name":"dense_Dense5774","class_name":"Dense","config":{"units":16,"activation":"relu","use_bias":true,"kernel_initializer":{"class_name":"VarianceScaling","config":{"scale":1,"mode":"fan_avg","distribution":"normal","seed":null}},"bias_initializer":{"class_name":"Zeros","config":{}},"kernel_regularizer":null,"bias_regularizer":null,"activity_regularizer":null,"kernel_constraint":null,"bias_constraint":null,"name":"dense_Dense5774","trainable":true},"inbound_nodes":[[["dense_Dense5773",0,0,{}]]]},{"name":"dense_Dense5775","class_name":"Dense","config":{"units":4,"activation":"relu","use_bias":true,"kernel_initializer":{"class_name":"VarianceScaling","config":{"scale":1,"mode":"fan_avg","distribution":"normal","seed":null}},"bias_initializer":{"class_name":"Zeros","config":{}},"kernel_regularizer":null,"bias_regularizer":null,"activity_regularizer":null,"kernel_constraint":null,"bias_constraint":null,"name":"dense_Dense5775","trainable":true},"inbound_nodes":[[["dense_Dense5774",0,0,{}]]]},{"name":"dense_Dense5776","class_name":"Dense","config":{"units":16,"activation":"relu","use_bias":true,"kernel_initializer":{"class_name":"VarianceScaling","config":{"scale":1,"mode":"fan_avg","distribution":"normal","seed":null}},"bias_initializer":{"class_name":"Zeros","config":{}},"kernel_regularizer":null,"bias_regularizer":null,"activity_regularizer":null,"kernel_constraint":null,"bias_constraint":null,"name":"dense_Dense5776","trainable":true},"inbound_nodes":[[["dense_Dense5775",0,0,{}]]]},{"name":"dense_Dense5777","class_name":"Dense","config":{"units":4,"activation":"relu","use_bias":true,"kernel_initializer":{"class_name":"VarianceScaling","config":{"scale":1,"mode":"fan_avg","distribution":"normal","seed":null}},"bias_initializer":{"class_name":"Zeros","config":{}},"kernel_regularizer":null,"bias_regularizer":null,"activity_regularizer":null,"kernel_constraint":null,"bias_constraint":null,"name":"dense_Dense5777","trainable":true},"inbound_nodes":[[["dense_Dense5776",0,0,{}]]]},{"name":"dense_Dense5778","class_name":"Dense","config":{"units":1,"activation":"sigmoid","use_bias":true,"kernel_initializer":{"class_name":"VarianceScaling","config":{"scale":1,"mode":"fan_avg","distribution":"normal","seed":null}},"bias_initializer":{"class_name":"Zeros","config":{}},"kernel_regularizer":null,"bias_regularizer":null,"activity_regularizer":null,"kernel_constraint":null,"bias_constraint":null,"name":"dense_Dense5778","trainable":true},"inbound_nodes":[[["dense_Dense5777",0,0,{}]]]}],"input_layers":[["input963",0,0]],"output_layers":[["dense_Dense5778",0,0]]},"keras_version":"tfjs-layers 3.9.0","backend":"tensor_flow.js"},"weightsManifest":[{"paths":["weights.bin"],"weights":[{"name":"dense_Dense5773/kernel","shape":[3,16],"dtype":"float32"},{"name":"dense_Dense5773/bias","shape":[16],"dtype":"float32"},{"name":"dense_Dense5774/kernel","shape":[16,16],"dtype":"float32"},{"name":"dense_Dense5774/bias","shape":[16],"dtype":"float32"},{"name":"dense_Dense5775/kernel","shape":[16,4],"dtype":"float32"},{"name":"dense_Dense5775/bias","shape":[4],"dtype":"float32"},{"name":"dense_Dense5776/kernel","shape":[4,16],"dtype":"float32"},{"name":"dense_Dense5776/bias","shape":[16],"dtype":"float32"},{"name":"dense_Dense5777/kernel","shape":[16,4],"dtype":"float32"},{"name":"dense_Dense5777/bias","shape":[4],"dtype":"float32"},{"name":"dense_Dense5778/kernel","shape":[4,1],"dtype":"float32"},{"name":"dense_Dense5778/bias","shape":[1],"dtype":"float32"}]}]}