{"modelTopology":{"class_name":"Model","config":{"name":"model126","layers":[{"name":"input126","class_name":"InputLayer","config":{"batch_input_shape":[null,3],"dtype":"float32","sparse":false,"name":"input126"},"inbound_nodes":[]},{"name":"dense_Dense626","class_name":"Dense","config":{"units":1,"activation":"relu","use_bias":true,"kernel_initializer":{"class_name":"VarianceScaling","config":{"scale":1,"mode":"fan_avg","distribution":"normal","seed":null}},"bias_initializer":{"class_name":"Zeros","config":{}},"kernel_regularizer":null,"bias_regularizer":null,"activity_regularizer":null,"kernel_constraint":null,"bias_constraint":null,"name":"dense_Dense626","trainable":true},"inbound_nodes":[[["input126",0,0,{}]]]},{"name":"dense_Dense627","class_name":"Dense","config":{"units":8,"activation":"relu","use_bias":true,"kernel_initializer":{"class_name":"VarianceScaling","config":{"scale":1,"mode":"fan_avg","distribution":"normal","seed":null}},"bias_initializer":{"class_name":"Zeros","config":{}},"kernel_regularizer":null,"bias_regularizer":null,"activity_regularizer":null,"kernel_constraint":null,"bias_constraint":null,"name":"dense_Dense627","trainable":true},"inbound_nodes":[[["dense_Dense626",0,0,{}]]]},{"name":"dense_Dense628","class_name":"Dense","config":{"units":4,"activation":"relu","use_bias":true,"kernel_initializer":{"class_name":"VarianceScaling","config":{"scale":1,"mode":"fan_avg","distribution":"normal","seed":null}},"bias_initializer":{"class_name":"Zeros","config":{}},"kernel_regularizer":null,"bias_regularizer":null,"activity_regularizer":null,"kernel_constraint":null,"bias_constraint":null,"name":"dense_Dense628","trainable":true},"inbound_nodes":[[["dense_Dense627",0,0,{}]]]},{"name":"dense_Dense629","class_name":"Dense","config":{"units":32,"activation":"relu","use_bias":true,"kernel_initializer":{"class_name":"VarianceScaling","config":{"scale":1,"mode":"fan_avg","distribution":"normal","seed":null}},"bias_initializer":{"class_name":"Zeros","config":{}},"kernel_regularizer":null,"bias_regularizer":null,"activity_regularizer":null,"kernel_constraint":null,"bias_constraint":null,"name":"dense_Dense629","trainable":true},"inbound_nodes":[[["dense_Dense628",0,0,{}]]]},{"name":"dense_Dense630","class_name":"Dense","config":{"units":1,"activation":"sigmoid","use_bias":true,"kernel_initializer":{"class_name":"VarianceScaling","config":{"scale":1,"mode":"fan_avg","distribution":"normal","seed":null}},"bias_initializer":{"class_name":"Zeros","config":{}},"kernel_regularizer":null,"bias_regularizer":null,"activity_regularizer":null,"kernel_constraint":null,"bias_constraint":null,"name":"dense_Dense630","trainable":true},"inbound_nodes":[[["dense_Dense629",0,0,{}]]]}],"input_layers":[["input126",0,0]],"output_layers":[["dense_Dense630",0,0]]},"keras_version":"tfjs-layers 3.9.0","backend":"tensor_flow.js"},"weightsManifest":[{"paths":["weights.bin"],"weights":[{"name":"dense_Dense626/kernel","shape":[3,1],"dtype":"float32"},{"name":"dense_Dense626/bias","shape":[1],"dtype":"float32"},{"name":"dense_Dense627/kernel","shape":[1,8],"dtype":"float32"},{"name":"dense_Dense627/bias","shape":[8],"dtype":"float32"},{"name":"dense_Dense628/kernel","shape":[8,4],"dtype":"float32"},{"name":"dense_Dense628/bias","shape":[4],"dtype":"float32"},{"name":"dense_Dense629/kernel","shape":[4,32],"dtype":"float32"},{"name":"dense_Dense629/bias","shape":[32],"dtype":"float32"},{"name":"dense_Dense630/kernel","shape":[32,1],"dtype":"float32"},{"name":"dense_Dense630/bias","shape":[1],"dtype":"float32"}]}]}