{"modelTopology":{"class_name":"Model","config":{"name":"model163","layers":[{"name":"input163","class_name":"InputLayer","config":{"batch_input_shape":[null,3],"dtype":"float32","sparse":false,"name":"input163"},"inbound_nodes":[]},{"name":"dense_Dense811","class_name":"Dense","config":{"units":1,"activation":"relu","use_bias":true,"kernel_initializer":{"class_name":"VarianceScaling","config":{"scale":1,"mode":"fan_avg","distribution":"normal","seed":null}},"bias_initializer":{"class_name":"Zeros","config":{}},"kernel_regularizer":null,"bias_regularizer":null,"activity_regularizer":null,"kernel_constraint":null,"bias_constraint":null,"name":"dense_Dense811","trainable":true},"inbound_nodes":[[["input163",0,0,{}]]]},{"name":"dense_Dense812","class_name":"Dense","config":{"units":16,"activation":"relu","use_bias":true,"kernel_initializer":{"class_name":"VarianceScaling","config":{"scale":1,"mode":"fan_avg","distribution":"normal","seed":null}},"bias_initializer":{"class_name":"Zeros","config":{}},"kernel_regularizer":null,"bias_regularizer":null,"activity_regularizer":null,"kernel_constraint":null,"bias_constraint":null,"name":"dense_Dense812","trainable":true},"inbound_nodes":[[["dense_Dense811",0,0,{}]]]},{"name":"dense_Dense813","class_name":"Dense","config":{"units":8,"activation":"relu","use_bias":true,"kernel_initializer":{"class_name":"VarianceScaling","config":{"scale":1,"mode":"fan_avg","distribution":"normal","seed":null}},"bias_initializer":{"class_name":"Zeros","config":{}},"kernel_regularizer":null,"bias_regularizer":null,"activity_regularizer":null,"kernel_constraint":null,"bias_constraint":null,"name":"dense_Dense813","trainable":true},"inbound_nodes":[[["dense_Dense812",0,0,{}]]]},{"name":"dense_Dense814","class_name":"Dense","config":{"units":1,"activation":"relu","use_bias":true,"kernel_initializer":{"class_name":"VarianceScaling","config":{"scale":1,"mode":"fan_avg","distribution":"normal","seed":null}},"bias_initializer":{"class_name":"Zeros","config":{}},"kernel_regularizer":null,"bias_regularizer":null,"activity_regularizer":null,"kernel_constraint":null,"bias_constraint":null,"name":"dense_Dense814","trainable":true},"inbound_nodes":[[["dense_Dense813",0,0,{}]]]},{"name":"dense_Dense815","class_name":"Dense","config":{"units":1,"activation":"sigmoid","use_bias":true,"kernel_initializer":{"class_name":"VarianceScaling","config":{"scale":1,"mode":"fan_avg","distribution":"normal","seed":null}},"bias_initializer":{"class_name":"Zeros","config":{}},"kernel_regularizer":null,"bias_regularizer":null,"activity_regularizer":null,"kernel_constraint":null,"bias_constraint":null,"name":"dense_Dense815","trainable":true},"inbound_nodes":[[["dense_Dense814",0,0,{}]]]}],"input_layers":[["input163",0,0]],"output_layers":[["dense_Dense815",0,0]]},"keras_version":"tfjs-layers 3.9.0","backend":"tensor_flow.js"},"weightsManifest":[{"paths":["weights.bin"],"weights":[{"name":"dense_Dense811/kernel","shape":[3,1],"dtype":"float32"},{"name":"dense_Dense811/bias","shape":[1],"dtype":"float32"},{"name":"dense_Dense812/kernel","shape":[1,16],"dtype":"float32"},{"name":"dense_Dense812/bias","shape":[16],"dtype":"float32"},{"name":"dense_Dense813/kernel","shape":[16,8],"dtype":"float32"},{"name":"dense_Dense813/bias","shape":[8],"dtype":"float32"},{"name":"dense_Dense814/kernel","shape":[8,1],"dtype":"float32"},{"name":"dense_Dense814/bias","shape":[1],"dtype":"float32"},{"name":"dense_Dense815/kernel","shape":[1,1],"dtype":"float32"},{"name":"dense_Dense815/bias","shape":[1],"dtype":"float32"}]}]}