{"modelTopology":{"class_name":"Model","config":{"name":"model44","layers":[{"name":"input44","class_name":"InputLayer","config":{"batch_input_shape":[null,3],"dtype":"float32","sparse":false,"name":"input44"},"inbound_nodes":[]},{"name":"dense_Dense259","class_name":"Dense","config":{"units":1,"activation":"relu","use_bias":true,"kernel_initializer":{"class_name":"VarianceScaling","config":{"scale":1,"mode":"fan_avg","distribution":"normal","seed":null}},"bias_initializer":{"class_name":"Zeros","config":{}},"kernel_regularizer":null,"bias_regularizer":null,"activity_regularizer":null,"kernel_constraint":null,"bias_constraint":null,"name":"dense_Dense259","trainable":true},"inbound_nodes":[[["input44",0,0,{}]]]},{"name":"dense_Dense260","class_name":"Dense","config":{"units":1,"activation":"relu","use_bias":true,"kernel_initializer":{"class_name":"VarianceScaling","config":{"scale":1,"mode":"fan_avg","distribution":"normal","seed":null}},"bias_initializer":{"class_name":"Zeros","config":{}},"kernel_regularizer":null,"bias_regularizer":null,"activity_regularizer":null,"kernel_constraint":null,"bias_constraint":null,"name":"dense_Dense260","trainable":true},"inbound_nodes":[[["dense_Dense259",0,0,{}]]]},{"name":"dense_Dense261","class_name":"Dense","config":{"units":2,"activation":"relu","use_bias":true,"kernel_initializer":{"class_name":"VarianceScaling","config":{"scale":1,"mode":"fan_avg","distribution":"normal","seed":null}},"bias_initializer":{"class_name":"Zeros","config":{}},"kernel_regularizer":null,"bias_regularizer":null,"activity_regularizer":null,"kernel_constraint":null,"bias_constraint":null,"name":"dense_Dense261","trainable":true},"inbound_nodes":[[["dense_Dense260",0,0,{}]]]},{"name":"dense_Dense262","class_name":"Dense","config":{"units":2,"activation":"relu","use_bias":true,"kernel_initializer":{"class_name":"VarianceScaling","config":{"scale":1,"mode":"fan_avg","distribution":"normal","seed":null}},"bias_initializer":{"class_name":"Zeros","config":{}},"kernel_regularizer":null,"bias_regularizer":null,"activity_regularizer":null,"kernel_constraint":null,"bias_constraint":null,"name":"dense_Dense262","trainable":true},"inbound_nodes":[[["dense_Dense261",0,0,{}]]]},{"name":"dense_Dense263","class_name":"Dense","config":{"units":2,"activation":"relu","use_bias":true,"kernel_initializer":{"class_name":"VarianceScaling","config":{"scale":1,"mode":"fan_avg","distribution":"normal","seed":null}},"bias_initializer":{"class_name":"Zeros","config":{}},"kernel_regularizer":null,"bias_regularizer":null,"activity_regularizer":null,"kernel_constraint":null,"bias_constraint":null,"name":"dense_Dense263","trainable":true},"inbound_nodes":[[["dense_Dense262",0,0,{}]]]},{"name":"dense_Dense264","class_name":"Dense","config":{"units":1,"activation":"sigmoid","use_bias":true,"kernel_initializer":{"class_name":"VarianceScaling","config":{"scale":1,"mode":"fan_avg","distribution":"normal","seed":null}},"bias_initializer":{"class_name":"Zeros","config":{}},"kernel_regularizer":null,"bias_regularizer":null,"activity_regularizer":null,"kernel_constraint":null,"bias_constraint":null,"name":"dense_Dense264","trainable":true},"inbound_nodes":[[["dense_Dense263",0,0,{}]]]}],"input_layers":[["input44",0,0]],"output_layers":[["dense_Dense264",0,0]]},"keras_version":"tfjs-layers 3.9.0","backend":"tensor_flow.js"},"weightsManifest":[{"paths":["weights.bin"],"weights":[{"name":"dense_Dense259/kernel","shape":[3,1],"dtype":"float32"},{"name":"dense_Dense259/bias","shape":[1],"dtype":"float32"},{"name":"dense_Dense260/kernel","shape":[1,1],"dtype":"float32"},{"name":"dense_Dense260/bias","shape":[1],"dtype":"float32"},{"name":"dense_Dense261/kernel","shape":[1,2],"dtype":"float32"},{"name":"dense_Dense261/bias","shape":[2],"dtype":"float32"},{"name":"dense_Dense262/kernel","shape":[2,2],"dtype":"float32"},{"name":"dense_Dense262/bias","shape":[2],"dtype":"float32"},{"name":"dense_Dense263/kernel","shape":[2,2],"dtype":"float32"},{"name":"dense_Dense263/bias","shape":[2],"dtype":"float32"},{"name":"dense_Dense264/kernel","shape":[2,1],"dtype":"float32"},{"name":"dense_Dense264/bias","shape":[1],"dtype":"float32"}]}]}