{"modelTopology":{"class_name":"Model","config":{"name":"model503","layers":[{"name":"input503","class_name":"InputLayer","config":{"batch_input_shape":[null,3],"dtype":"float32","sparse":false,"name":"input503"},"inbound_nodes":[]},{"name":"dense_Dense3013","class_name":"Dense","config":{"units":2,"activation":"relu","use_bias":true,"kernel_initializer":{"class_name":"VarianceScaling","config":{"scale":1,"mode":"fan_avg","distribution":"normal","seed":null}},"bias_initializer":{"class_name":"Zeros","config":{}},"kernel_regularizer":null,"bias_regularizer":null,"activity_regularizer":null,"kernel_constraint":null,"bias_constraint":null,"name":"dense_Dense3013","trainable":true},"inbound_nodes":[[["input503",0,0,{}]]]},{"name":"dense_Dense3014","class_name":"Dense","config":{"units":4,"activation":"relu","use_bias":true,"kernel_initializer":{"class_name":"VarianceScaling","config":{"scale":1,"mode":"fan_avg","distribution":"normal","seed":null}},"bias_initializer":{"class_name":"Zeros","config":{}},"kernel_regularizer":null,"bias_regularizer":null,"activity_regularizer":null,"kernel_constraint":null,"bias_constraint":null,"name":"dense_Dense3014","trainable":true},"inbound_nodes":[[["dense_Dense3013",0,0,{}]]]},{"name":"dense_Dense3015","class_name":"Dense","config":{"units":2,"activation":"relu","use_bias":true,"kernel_initializer":{"class_name":"VarianceScaling","config":{"scale":1,"mode":"fan_avg","distribution":"normal","seed":null}},"bias_initializer":{"class_name":"Zeros","config":{}},"kernel_regularizer":null,"bias_regularizer":null,"activity_regularizer":null,"kernel_constraint":null,"bias_constraint":null,"name":"dense_Dense3015","trainable":true},"inbound_nodes":[[["dense_Dense3014",0,0,{}]]]},{"name":"dense_Dense3016","class_name":"Dense","config":{"units":32,"activation":"relu","use_bias":true,"kernel_initializer":{"class_name":"VarianceScaling","config":{"scale":1,"mode":"fan_avg","distribution":"normal","seed":null}},"bias_initializer":{"class_name":"Zeros","config":{}},"kernel_regularizer":null,"bias_regularizer":null,"activity_regularizer":null,"kernel_constraint":null,"bias_constraint":null,"name":"dense_Dense3016","trainable":true},"inbound_nodes":[[["dense_Dense3015",0,0,{}]]]},{"name":"dense_Dense3017","class_name":"Dense","config":{"units":16,"activation":"relu","use_bias":true,"kernel_initializer":{"class_name":"VarianceScaling","config":{"scale":1,"mode":"fan_avg","distribution":"normal","seed":null}},"bias_initializer":{"class_name":"Zeros","config":{}},"kernel_regularizer":null,"bias_regularizer":null,"activity_regularizer":null,"kernel_constraint":null,"bias_constraint":null,"name":"dense_Dense3017","trainable":true},"inbound_nodes":[[["dense_Dense3016",0,0,{}]]]},{"name":"dense_Dense3018","class_name":"Dense","config":{"units":1,"activation":"sigmoid","use_bias":true,"kernel_initializer":{"class_name":"VarianceScaling","config":{"scale":1,"mode":"fan_avg","distribution":"normal","seed":null}},"bias_initializer":{"class_name":"Zeros","config":{}},"kernel_regularizer":null,"bias_regularizer":null,"activity_regularizer":null,"kernel_constraint":null,"bias_constraint":null,"name":"dense_Dense3018","trainable":true},"inbound_nodes":[[["dense_Dense3017",0,0,{}]]]}],"input_layers":[["input503",0,0]],"output_layers":[["dense_Dense3018",0,0]]},"keras_version":"tfjs-layers 3.9.0","backend":"tensor_flow.js"},"weightsManifest":[{"paths":["weights.bin"],"weights":[{"name":"dense_Dense3013/kernel","shape":[3,2],"dtype":"float32"},{"name":"dense_Dense3013/bias","shape":[2],"dtype":"float32"},{"name":"dense_Dense3014/kernel","shape":[2,4],"dtype":"float32"},{"name":"dense_Dense3014/bias","shape":[4],"dtype":"float32"},{"name":"dense_Dense3015/kernel","shape":[4,2],"dtype":"float32"},{"name":"dense_Dense3015/bias","shape":[2],"dtype":"float32"},{"name":"dense_Dense3016/kernel","shape":[2,32],"dtype":"float32"},{"name":"dense_Dense3016/bias","shape":[32],"dtype":"float32"},{"name":"dense_Dense3017/kernel","shape":[32,16],"dtype":"float32"},{"name":"dense_Dense3017/bias","shape":[16],"dtype":"float32"},{"name":"dense_Dense3018/kernel","shape":[16,1],"dtype":"float32"},{"name":"dense_Dense3018/bias","shape":[1],"dtype":"float32"}]}]}