{"modelTopology":{"class_name":"Model","config":{"name":"model1274","layers":[{"name":"input1274","class_name":"InputLayer","config":{"batch_input_shape":[null,3],"dtype":"float32","sparse":false,"name":"input1274"},"inbound_nodes":[]},{"name":"dense_Dense6366","class_name":"Dense","config":{"units":32,"activation":"relu","use_bias":true,"kernel_initializer":{"class_name":"VarianceScaling","config":{"scale":1,"mode":"fan_avg","distribution":"normal","seed":null}},"bias_initializer":{"class_name":"Zeros","config":{}},"kernel_regularizer":null,"bias_regularizer":null,"activity_regularizer":null,"kernel_constraint":null,"bias_constraint":null,"name":"dense_Dense6366","trainable":true},"inbound_nodes":[[["input1274",0,0,{}]]]},{"name":"dense_Dense6367","class_name":"Dense","config":{"units":32,"activation":"relu","use_bias":true,"kernel_initializer":{"class_name":"VarianceScaling","config":{"scale":1,"mode":"fan_avg","distribution":"normal","seed":null}},"bias_initializer":{"class_name":"Zeros","config":{}},"kernel_regularizer":null,"bias_regularizer":null,"activity_regularizer":null,"kernel_constraint":null,"bias_constraint":null,"name":"dense_Dense6367","trainable":true},"inbound_nodes":[[["dense_Dense6366",0,0,{}]]]},{"name":"dense_Dense6368","class_name":"Dense","config":{"units":4,"activation":"relu","use_bias":true,"kernel_initializer":{"class_name":"VarianceScaling","config":{"scale":1,"mode":"fan_avg","distribution":"normal","seed":null}},"bias_initializer":{"class_name":"Zeros","config":{}},"kernel_regularizer":null,"bias_regularizer":null,"activity_regularizer":null,"kernel_constraint":null,"bias_constraint":null,"name":"dense_Dense6368","trainable":true},"inbound_nodes":[[["dense_Dense6367",0,0,{}]]]},{"name":"dense_Dense6369","class_name":"Dense","config":{"units":2,"activation":"relu","use_bias":true,"kernel_initializer":{"class_name":"VarianceScaling","config":{"scale":1,"mode":"fan_avg","distribution":"normal","seed":null}},"bias_initializer":{"class_name":"Zeros","config":{}},"kernel_regularizer":null,"bias_regularizer":null,"activity_regularizer":null,"kernel_constraint":null,"bias_constraint":null,"name":"dense_Dense6369","trainable":true},"inbound_nodes":[[["dense_Dense6368",0,0,{}]]]},{"name":"dense_Dense6370","class_name":"Dense","config":{"units":1,"activation":"sigmoid","use_bias":true,"kernel_initializer":{"class_name":"VarianceScaling","config":{"scale":1,"mode":"fan_avg","distribution":"normal","seed":null}},"bias_initializer":{"class_name":"Zeros","config":{}},"kernel_regularizer":null,"bias_regularizer":null,"activity_regularizer":null,"kernel_constraint":null,"bias_constraint":null,"name":"dense_Dense6370","trainable":true},"inbound_nodes":[[["dense_Dense6369",0,0,{}]]]}],"input_layers":[["input1274",0,0]],"output_layers":[["dense_Dense6370",0,0]]},"keras_version":"tfjs-layers 3.9.0","backend":"tensor_flow.js"},"weightsManifest":[{"paths":["weights.bin"],"weights":[{"name":"dense_Dense6366/kernel","shape":[3,32],"dtype":"float32"},{"name":"dense_Dense6366/bias","shape":[32],"dtype":"float32"},{"name":"dense_Dense6367/kernel","shape":[32,32],"dtype":"float32"},{"name":"dense_Dense6367/bias","shape":[32],"dtype":"float32"},{"name":"dense_Dense6368/kernel","shape":[32,4],"dtype":"float32"},{"name":"dense_Dense6368/bias","shape":[4],"dtype":"float32"},{"name":"dense_Dense6369/kernel","shape":[4,2],"dtype":"float32"},{"name":"dense_Dense6369/bias","shape":[2],"dtype":"float32"},{"name":"dense_Dense6370/kernel","shape":[2,1],"dtype":"float32"},{"name":"dense_Dense6370/bias","shape":[1],"dtype":"float32"}]}]}