{"modelTopology":{"class_name":"Model","config":{"name":"model1218","layers":[{"name":"input1218","class_name":"InputLayer","config":{"batch_input_shape":[null,3],"dtype":"float32","sparse":false,"name":"input1218"},"inbound_nodes":[]},{"name":"dense_Dense6086","class_name":"Dense","config":{"units":32,"activation":"relu","use_bias":true,"kernel_initializer":{"class_name":"VarianceScaling","config":{"scale":1,"mode":"fan_avg","distribution":"normal","seed":null}},"bias_initializer":{"class_name":"Zeros","config":{}},"kernel_regularizer":null,"bias_regularizer":null,"activity_regularizer":null,"kernel_constraint":null,"bias_constraint":null,"name":"dense_Dense6086","trainable":true},"inbound_nodes":[[["input1218",0,0,{}]]]},{"name":"dense_Dense6087","class_name":"Dense","config":{"units":8,"activation":"relu","use_bias":true,"kernel_initializer":{"class_name":"VarianceScaling","config":{"scale":1,"mode":"fan_avg","distribution":"normal","seed":null}},"bias_initializer":{"class_name":"Zeros","config":{}},"kernel_regularizer":null,"bias_regularizer":null,"activity_regularizer":null,"kernel_constraint":null,"bias_constraint":null,"name":"dense_Dense6087","trainable":true},"inbound_nodes":[[["dense_Dense6086",0,0,{}]]]},{"name":"dense_Dense6088","class_name":"Dense","config":{"units":16,"activation":"relu","use_bias":true,"kernel_initializer":{"class_name":"VarianceScaling","config":{"scale":1,"mode":"fan_avg","distribution":"normal","seed":null}},"bias_initializer":{"class_name":"Zeros","config":{}},"kernel_regularizer":null,"bias_regularizer":null,"activity_regularizer":null,"kernel_constraint":null,"bias_constraint":null,"name":"dense_Dense6088","trainable":true},"inbound_nodes":[[["dense_Dense6087",0,0,{}]]]},{"name":"dense_Dense6089","class_name":"Dense","config":{"units":32,"activation":"relu","use_bias":true,"kernel_initializer":{"class_name":"VarianceScaling","config":{"scale":1,"mode":"fan_avg","distribution":"normal","seed":null}},"bias_initializer":{"class_name":"Zeros","config":{}},"kernel_regularizer":null,"bias_regularizer":null,"activity_regularizer":null,"kernel_constraint":null,"bias_constraint":null,"name":"dense_Dense6089","trainable":true},"inbound_nodes":[[["dense_Dense6088",0,0,{}]]]},{"name":"dense_Dense6090","class_name":"Dense","config":{"units":1,"activation":"sigmoid","use_bias":true,"kernel_initializer":{"class_name":"VarianceScaling","config":{"scale":1,"mode":"fan_avg","distribution":"normal","seed":null}},"bias_initializer":{"class_name":"Zeros","config":{}},"kernel_regularizer":null,"bias_regularizer":null,"activity_regularizer":null,"kernel_constraint":null,"bias_constraint":null,"name":"dense_Dense6090","trainable":true},"inbound_nodes":[[["dense_Dense6089",0,0,{}]]]}],"input_layers":[["input1218",0,0]],"output_layers":[["dense_Dense6090",0,0]]},"keras_version":"tfjs-layers 3.9.0","backend":"tensor_flow.js"},"weightsManifest":[{"paths":["weights.bin"],"weights":[{"name":"dense_Dense6086/kernel","shape":[3,32],"dtype":"float32"},{"name":"dense_Dense6086/bias","shape":[32],"dtype":"float32"},{"name":"dense_Dense6087/kernel","shape":[32,8],"dtype":"float32"},{"name":"dense_Dense6087/bias","shape":[8],"dtype":"float32"},{"name":"dense_Dense6088/kernel","shape":[8,16],"dtype":"float32"},{"name":"dense_Dense6088/bias","shape":[16],"dtype":"float32"},{"name":"dense_Dense6089/kernel","shape":[16,32],"dtype":"float32"},{"name":"dense_Dense6089/bias","shape":[32],"dtype":"float32"},{"name":"dense_Dense6090/kernel","shape":[32,1],"dtype":"float32"},{"name":"dense_Dense6090/bias","shape":[1],"dtype":"float32"}]}]}