{"modelTopology":{"class_name":"Model","config":{"name":"model480","layers":[{"name":"input480","class_name":"InputLayer","config":{"batch_input_shape":[null,3],"dtype":"float32","sparse":false,"name":"input480"},"inbound_nodes":[]},{"name":"dense_Dense2875","class_name":"Dense","config":{"units":2,"activation":"relu","use_bias":true,"kernel_initializer":{"class_name":"VarianceScaling","config":{"scale":1,"mode":"fan_avg","distribution":"normal","seed":null}},"bias_initializer":{"class_name":"Zeros","config":{}},"kernel_regularizer":null,"bias_regularizer":null,"activity_regularizer":null,"kernel_constraint":null,"bias_constraint":null,"name":"dense_Dense2875","trainable":true},"inbound_nodes":[[["input480",0,0,{}]]]},{"name":"dense_Dense2876","class_name":"Dense","config":{"units":4,"activation":"relu","use_bias":true,"kernel_initializer":{"class_name":"VarianceScaling","config":{"scale":1,"mode":"fan_avg","distribution":"normal","seed":null}},"bias_initializer":{"class_name":"Zeros","config":{}},"kernel_regularizer":null,"bias_regularizer":null,"activity_regularizer":null,"kernel_constraint":null,"bias_constraint":null,"name":"dense_Dense2876","trainable":true},"inbound_nodes":[[["dense_Dense2875",0,0,{}]]]},{"name":"dense_Dense2877","class_name":"Dense","config":{"units":2,"activation":"relu","use_bias":true,"kernel_initializer":{"class_name":"VarianceScaling","config":{"scale":1,"mode":"fan_avg","distribution":"normal","seed":null}},"bias_initializer":{"class_name":"Zeros","config":{}},"kernel_regularizer":null,"bias_regularizer":null,"activity_regularizer":null,"kernel_constraint":null,"bias_constraint":null,"name":"dense_Dense2877","trainable":true},"inbound_nodes":[[["dense_Dense2876",0,0,{}]]]},{"name":"dense_Dense2878","class_name":"Dense","config":{"units":2,"activation":"relu","use_bias":true,"kernel_initializer":{"class_name":"VarianceScaling","config":{"scale":1,"mode":"fan_avg","distribution":"normal","seed":null}},"bias_initializer":{"class_name":"Zeros","config":{}},"kernel_regularizer":null,"bias_regularizer":null,"activity_regularizer":null,"kernel_constraint":null,"bias_constraint":null,"name":"dense_Dense2878","trainable":true},"inbound_nodes":[[["dense_Dense2877",0,0,{}]]]},{"name":"dense_Dense2879","class_name":"Dense","config":{"units":32,"activation":"relu","use_bias":true,"kernel_initializer":{"class_name":"VarianceScaling","config":{"scale":1,"mode":"fan_avg","distribution":"normal","seed":null}},"bias_initializer":{"class_name":"Zeros","config":{}},"kernel_regularizer":null,"bias_regularizer":null,"activity_regularizer":null,"kernel_constraint":null,"bias_constraint":null,"name":"dense_Dense2879","trainable":true},"inbound_nodes":[[["dense_Dense2878",0,0,{}]]]},{"name":"dense_Dense2880","class_name":"Dense","config":{"units":1,"activation":"sigmoid","use_bias":true,"kernel_initializer":{"class_name":"VarianceScaling","config":{"scale":1,"mode":"fan_avg","distribution":"normal","seed":null}},"bias_initializer":{"class_name":"Zeros","config":{}},"kernel_regularizer":null,"bias_regularizer":null,"activity_regularizer":null,"kernel_constraint":null,"bias_constraint":null,"name":"dense_Dense2880","trainable":true},"inbound_nodes":[[["dense_Dense2879",0,0,{}]]]}],"input_layers":[["input480",0,0]],"output_layers":[["dense_Dense2880",0,0]]},"keras_version":"tfjs-layers 3.9.0","backend":"tensor_flow.js"},"weightsManifest":[{"paths":["weights.bin"],"weights":[{"name":"dense_Dense2875/kernel","shape":[3,2],"dtype":"float32"},{"name":"dense_Dense2875/bias","shape":[2],"dtype":"float32"},{"name":"dense_Dense2876/kernel","shape":[2,4],"dtype":"float32"},{"name":"dense_Dense2876/bias","shape":[4],"dtype":"float32"},{"name":"dense_Dense2877/kernel","shape":[4,2],"dtype":"float32"},{"name":"dense_Dense2877/bias","shape":[2],"dtype":"float32"},{"name":"dense_Dense2878/kernel","shape":[2,2],"dtype":"float32"},{"name":"dense_Dense2878/bias","shape":[2],"dtype":"float32"},{"name":"dense_Dense2879/kernel","shape":[2,32],"dtype":"float32"},{"name":"dense_Dense2879/bias","shape":[32],"dtype":"float32"},{"name":"dense_Dense2880/kernel","shape":[32,1],"dtype":"float32"},{"name":"dense_Dense2880/bias","shape":[1],"dtype":"float32"}]}]}