{"modelTopology":{"class_name":"Model","config":{"name":"model594","layers":[{"name":"input594","class_name":"InputLayer","config":{"batch_input_shape":[null,3],"dtype":"float32","sparse":false,"name":"input594"},"inbound_nodes":[]},{"name":"dense_Dense3559","class_name":"Dense","config":{"units":8,"activation":"relu","use_bias":true,"kernel_initializer":{"class_name":"VarianceScaling","config":{"scale":1,"mode":"fan_avg","distribution":"normal","seed":null}},"bias_initializer":{"class_name":"Zeros","config":{}},"kernel_regularizer":null,"bias_regularizer":null,"activity_regularizer":null,"kernel_constraint":null,"bias_constraint":null,"name":"dense_Dense3559","trainable":true},"inbound_nodes":[[["input594",0,0,{}]]]},{"name":"dense_Dense3560","class_name":"Dense","config":{"units":4,"activation":"relu","use_bias":true,"kernel_initializer":{"class_name":"VarianceScaling","config":{"scale":1,"mode":"fan_avg","distribution":"normal","seed":null}},"bias_initializer":{"class_name":"Zeros","config":{}},"kernel_regularizer":null,"bias_regularizer":null,"activity_regularizer":null,"kernel_constraint":null,"bias_constraint":null,"name":"dense_Dense3560","trainable":true},"inbound_nodes":[[["dense_Dense3559",0,0,{}]]]},{"name":"dense_Dense3561","class_name":"Dense","config":{"units":16,"activation":"relu","use_bias":true,"kernel_initializer":{"class_name":"VarianceScaling","config":{"scale":1,"mode":"fan_avg","distribution":"normal","seed":null}},"bias_initializer":{"class_name":"Zeros","config":{}},"kernel_regularizer":null,"bias_regularizer":null,"activity_regularizer":null,"kernel_constraint":null,"bias_constraint":null,"name":"dense_Dense3561","trainable":true},"inbound_nodes":[[["dense_Dense3560",0,0,{}]]]},{"name":"dense_Dense3562","class_name":"Dense","config":{"units":4,"activation":"relu","use_bias":true,"kernel_initializer":{"class_name":"VarianceScaling","config":{"scale":1,"mode":"fan_avg","distribution":"normal","seed":null}},"bias_initializer":{"class_name":"Zeros","config":{}},"kernel_regularizer":null,"bias_regularizer":null,"activity_regularizer":null,"kernel_constraint":null,"bias_constraint":null,"name":"dense_Dense3562","trainable":true},"inbound_nodes":[[["dense_Dense3561",0,0,{}]]]},{"name":"dense_Dense3563","class_name":"Dense","config":{"units":32,"activation":"relu","use_bias":true,"kernel_initializer":{"class_name":"VarianceScaling","config":{"scale":1,"mode":"fan_avg","distribution":"normal","seed":null}},"bias_initializer":{"class_name":"Zeros","config":{}},"kernel_regularizer":null,"bias_regularizer":null,"activity_regularizer":null,"kernel_constraint":null,"bias_constraint":null,"name":"dense_Dense3563","trainable":true},"inbound_nodes":[[["dense_Dense3562",0,0,{}]]]},{"name":"dense_Dense3564","class_name":"Dense","config":{"units":1,"activation":"sigmoid","use_bias":true,"kernel_initializer":{"class_name":"VarianceScaling","config":{"scale":1,"mode":"fan_avg","distribution":"normal","seed":null}},"bias_initializer":{"class_name":"Zeros","config":{}},"kernel_regularizer":null,"bias_regularizer":null,"activity_regularizer":null,"kernel_constraint":null,"bias_constraint":null,"name":"dense_Dense3564","trainable":true},"inbound_nodes":[[["dense_Dense3563",0,0,{}]]]}],"input_layers":[["input594",0,0]],"output_layers":[["dense_Dense3564",0,0]]},"keras_version":"tfjs-layers 3.9.0","backend":"tensor_flow.js"},"weightsManifest":[{"paths":["weights.bin"],"weights":[{"name":"dense_Dense3559/kernel","shape":[3,8],"dtype":"float32"},{"name":"dense_Dense3559/bias","shape":[8],"dtype":"float32"},{"name":"dense_Dense3560/kernel","shape":[8,4],"dtype":"float32"},{"name":"dense_Dense3560/bias","shape":[4],"dtype":"float32"},{"name":"dense_Dense3561/kernel","shape":[4,16],"dtype":"float32"},{"name":"dense_Dense3561/bias","shape":[16],"dtype":"float32"},{"name":"dense_Dense3562/kernel","shape":[16,4],"dtype":"float32"},{"name":"dense_Dense3562/bias","shape":[4],"dtype":"float32"},{"name":"dense_Dense3563/kernel","shape":[4,32],"dtype":"float32"},{"name":"dense_Dense3563/bias","shape":[32],"dtype":"float32"},{"name":"dense_Dense3564/kernel","shape":[32,1],"dtype":"float32"},{"name":"dense_Dense3564/bias","shape":[1],"dtype":"float32"}]}]}