{"modelTopology":{"class_name":"Model","config":{"name":"model755","layers":[{"name":"input755","class_name":"InputLayer","config":{"batch_input_shape":[null,3],"dtype":"float32","sparse":false,"name":"input755"},"inbound_nodes":[]},{"name":"dense_Dense3771","class_name":"Dense","config":{"units":8,"activation":"relu","use_bias":true,"kernel_initializer":{"class_name":"VarianceScaling","config":{"scale":1,"mode":"fan_avg","distribution":"normal","seed":null}},"bias_initializer":{"class_name":"Zeros","config":{}},"kernel_regularizer":null,"bias_regularizer":null,"activity_regularizer":null,"kernel_constraint":null,"bias_constraint":null,"name":"dense_Dense3771","trainable":true},"inbound_nodes":[[["input755",0,0,{}]]]},{"name":"dense_Dense3772","class_name":"Dense","config":{"units":4,"activation":"relu","use_bias":true,"kernel_initializer":{"class_name":"VarianceScaling","config":{"scale":1,"mode":"fan_avg","distribution":"normal","seed":null}},"bias_initializer":{"class_name":"Zeros","config":{}},"kernel_regularizer":null,"bias_regularizer":null,"activity_regularizer":null,"kernel_constraint":null,"bias_constraint":null,"name":"dense_Dense3772","trainable":true},"inbound_nodes":[[["dense_Dense3771",0,0,{}]]]},{"name":"dense_Dense3773","class_name":"Dense","config":{"units":32,"activation":"relu","use_bias":true,"kernel_initializer":{"class_name":"VarianceScaling","config":{"scale":1,"mode":"fan_avg","distribution":"normal","seed":null}},"bias_initializer":{"class_name":"Zeros","config":{}},"kernel_regularizer":null,"bias_regularizer":null,"activity_regularizer":null,"kernel_constraint":null,"bias_constraint":null,"name":"dense_Dense3773","trainable":true},"inbound_nodes":[[["dense_Dense3772",0,0,{}]]]},{"name":"dense_Dense3774","class_name":"Dense","config":{"units":16,"activation":"relu","use_bias":true,"kernel_initializer":{"class_name":"VarianceScaling","config":{"scale":1,"mode":"fan_avg","distribution":"normal","seed":null}},"bias_initializer":{"class_name":"Zeros","config":{}},"kernel_regularizer":null,"bias_regularizer":null,"activity_regularizer":null,"kernel_constraint":null,"bias_constraint":null,"name":"dense_Dense3774","trainable":true},"inbound_nodes":[[["dense_Dense3773",0,0,{}]]]},{"name":"dense_Dense3775","class_name":"Dense","config":{"units":1,"activation":"sigmoid","use_bias":true,"kernel_initializer":{"class_name":"VarianceScaling","config":{"scale":1,"mode":"fan_avg","distribution":"normal","seed":null}},"bias_initializer":{"class_name":"Zeros","config":{}},"kernel_regularizer":null,"bias_regularizer":null,"activity_regularizer":null,"kernel_constraint":null,"bias_constraint":null,"name":"dense_Dense3775","trainable":true},"inbound_nodes":[[["dense_Dense3774",0,0,{}]]]}],"input_layers":[["input755",0,0]],"output_layers":[["dense_Dense3775",0,0]]},"keras_version":"tfjs-layers 3.9.0","backend":"tensor_flow.js"},"weightsManifest":[{"paths":["weights.bin"],"weights":[{"name":"dense_Dense3771/kernel","shape":[3,8],"dtype":"float32"},{"name":"dense_Dense3771/bias","shape":[8],"dtype":"float32"},{"name":"dense_Dense3772/kernel","shape":[8,4],"dtype":"float32"},{"name":"dense_Dense3772/bias","shape":[4],"dtype":"float32"},{"name":"dense_Dense3773/kernel","shape":[4,32],"dtype":"float32"},{"name":"dense_Dense3773/bias","shape":[32],"dtype":"float32"},{"name":"dense_Dense3774/kernel","shape":[32,16],"dtype":"float32"},{"name":"dense_Dense3774/bias","shape":[16],"dtype":"float32"},{"name":"dense_Dense3775/kernel","shape":[16,1],"dtype":"float32"},{"name":"dense_Dense3775/bias","shape":[1],"dtype":"float32"}]}]}