{"modelTopology":{"class_name":"Model","config":{"name":"model217","layers":[{"name":"input217","class_name":"InputLayer","config":{"batch_input_shape":[null,3],"dtype":"float32","sparse":false,"name":"input217"},"inbound_nodes":[]},{"name":"dense_Dense1297","class_name":"Dense","config":{"units":2,"activation":"relu","use_bias":true,"kernel_initializer":{"class_name":"VarianceScaling","config":{"scale":1,"mode":"fan_avg","distribution":"normal","seed":null}},"bias_initializer":{"class_name":"Zeros","config":{}},"kernel_regularizer":null,"bias_regularizer":null,"activity_regularizer":null,"kernel_constraint":null,"bias_constraint":null,"name":"dense_Dense1297","trainable":true},"inbound_nodes":[[["input217",0,0,{}]]]},{"name":"dense_Dense1298","class_name":"Dense","config":{"units":2,"activation":"relu","use_bias":true,"kernel_initializer":{"class_name":"VarianceScaling","config":{"scale":1,"mode":"fan_avg","distribution":"normal","seed":null}},"bias_initializer":{"class_name":"Zeros","config":{}},"kernel_regularizer":null,"bias_regularizer":null,"activity_regularizer":null,"kernel_constraint":null,"bias_constraint":null,"name":"dense_Dense1298","trainable":true},"inbound_nodes":[[["dense_Dense1297",0,0,{}]]]},{"name":"dense_Dense1299","class_name":"Dense","config":{"units":1,"activation":"relu","use_bias":true,"kernel_initializer":{"class_name":"VarianceScaling","config":{"scale":1,"mode":"fan_avg","distribution":"normal","seed":null}},"bias_initializer":{"class_name":"Zeros","config":{}},"kernel_regularizer":null,"bias_regularizer":null,"activity_regularizer":null,"kernel_constraint":null,"bias_constraint":null,"name":"dense_Dense1299","trainable":true},"inbound_nodes":[[["dense_Dense1298",0,0,{}]]]},{"name":"dense_Dense1300","class_name":"Dense","config":{"units":1,"activation":"relu","use_bias":true,"kernel_initializer":{"class_name":"VarianceScaling","config":{"scale":1,"mode":"fan_avg","distribution":"normal","seed":null}},"bias_initializer":{"class_name":"Zeros","config":{}},"kernel_regularizer":null,"bias_regularizer":null,"activity_regularizer":null,"kernel_constraint":null,"bias_constraint":null,"name":"dense_Dense1300","trainable":true},"inbound_nodes":[[["dense_Dense1299",0,0,{}]]]},{"name":"dense_Dense1301","class_name":"Dense","config":{"units":1,"activation":"relu","use_bias":true,"kernel_initializer":{"class_name":"VarianceScaling","config":{"scale":1,"mode":"fan_avg","distribution":"normal","seed":null}},"bias_initializer":{"class_name":"Zeros","config":{}},"kernel_regularizer":null,"bias_regularizer":null,"activity_regularizer":null,"kernel_constraint":null,"bias_constraint":null,"name":"dense_Dense1301","trainable":true},"inbound_nodes":[[["dense_Dense1300",0,0,{}]]]},{"name":"dense_Dense1302","class_name":"Dense","config":{"units":1,"activation":"sigmoid","use_bias":true,"kernel_initializer":{"class_name":"VarianceScaling","config":{"scale":1,"mode":"fan_avg","distribution":"normal","seed":null}},"bias_initializer":{"class_name":"Zeros","config":{}},"kernel_regularizer":null,"bias_regularizer":null,"activity_regularizer":null,"kernel_constraint":null,"bias_constraint":null,"name":"dense_Dense1302","trainable":true},"inbound_nodes":[[["dense_Dense1301",0,0,{}]]]}],"input_layers":[["input217",0,0]],"output_layers":[["dense_Dense1302",0,0]]},"keras_version":"tfjs-layers 3.9.0","backend":"tensor_flow.js"},"weightsManifest":[{"paths":["weights.bin"],"weights":[{"name":"dense_Dense1297/kernel","shape":[3,2],"dtype":"float32"},{"name":"dense_Dense1297/bias","shape":[2],"dtype":"float32"},{"name":"dense_Dense1298/kernel","shape":[2,2],"dtype":"float32"},{"name":"dense_Dense1298/bias","shape":[2],"dtype":"float32"},{"name":"dense_Dense1299/kernel","shape":[2,1],"dtype":"float32"},{"name":"dense_Dense1299/bias","shape":[1],"dtype":"float32"},{"name":"dense_Dense1300/kernel","shape":[1,1],"dtype":"float32"},{"name":"dense_Dense1300/bias","shape":[1],"dtype":"float32"},{"name":"dense_Dense1301/kernel","shape":[1,1],"dtype":"float32"},{"name":"dense_Dense1301/bias","shape":[1],"dtype":"float32"},{"name":"dense_Dense1302/kernel","shape":[1,1],"dtype":"float32"},{"name":"dense_Dense1302/bias","shape":[1],"dtype":"float32"}]}]}