{"modelTopology":{"class_name":"Model","config":{"name":"model583","layers":[{"name":"input583","class_name":"InputLayer","config":{"batch_input_shape":[null,3],"dtype":"float32","sparse":false,"name":"input583"},"inbound_nodes":[]},{"name":"dense_Dense3493","class_name":"Dense","config":{"units":4,"activation":"relu","use_bias":true,"kernel_initializer":{"class_name":"VarianceScaling","config":{"scale":1,"mode":"fan_avg","distribution":"normal","seed":null}},"bias_initializer":{"class_name":"Zeros","config":{}},"kernel_regularizer":null,"bias_regularizer":null,"activity_regularizer":null,"kernel_constraint":null,"bias_constraint":null,"name":"dense_Dense3493","trainable":true},"inbound_nodes":[[["input583",0,0,{}]]]},{"name":"dense_Dense3494","class_name":"Dense","config":{"units":4,"activation":"relu","use_bias":true,"kernel_initializer":{"class_name":"VarianceScaling","config":{"scale":1,"mode":"fan_avg","distribution":"normal","seed":null}},"bias_initializer":{"class_name":"Zeros","config":{}},"kernel_regularizer":null,"bias_regularizer":null,"activity_regularizer":null,"kernel_constraint":null,"bias_constraint":null,"name":"dense_Dense3494","trainable":true},"inbound_nodes":[[["dense_Dense3493",0,0,{}]]]},{"name":"dense_Dense3495","class_name":"Dense","config":{"units":16,"activation":"relu","use_bias":true,"kernel_initializer":{"class_name":"VarianceScaling","config":{"scale":1,"mode":"fan_avg","distribution":"normal","seed":null}},"bias_initializer":{"class_name":"Zeros","config":{}},"kernel_regularizer":null,"bias_regularizer":null,"activity_regularizer":null,"kernel_constraint":null,"bias_constraint":null,"name":"dense_Dense3495","trainable":true},"inbound_nodes":[[["dense_Dense3494",0,0,{}]]]},{"name":"dense_Dense3496","class_name":"Dense","config":{"units":2,"activation":"relu","use_bias":true,"kernel_initializer":{"class_name":"VarianceScaling","config":{"scale":1,"mode":"fan_avg","distribution":"normal","seed":null}},"bias_initializer":{"class_name":"Zeros","config":{}},"kernel_regularizer":null,"bias_regularizer":null,"activity_regularizer":null,"kernel_constraint":null,"bias_constraint":null,"name":"dense_Dense3496","trainable":true},"inbound_nodes":[[["dense_Dense3495",0,0,{}]]]},{"name":"dense_Dense3497","class_name":"Dense","config":{"units":1,"activation":"relu","use_bias":true,"kernel_initializer":{"class_name":"VarianceScaling","config":{"scale":1,"mode":"fan_avg","distribution":"normal","seed":null}},"bias_initializer":{"class_name":"Zeros","config":{}},"kernel_regularizer":null,"bias_regularizer":null,"activity_regularizer":null,"kernel_constraint":null,"bias_constraint":null,"name":"dense_Dense3497","trainable":true},"inbound_nodes":[[["dense_Dense3496",0,0,{}]]]},{"name":"dense_Dense3498","class_name":"Dense","config":{"units":1,"activation":"sigmoid","use_bias":true,"kernel_initializer":{"class_name":"VarianceScaling","config":{"scale":1,"mode":"fan_avg","distribution":"normal","seed":null}},"bias_initializer":{"class_name":"Zeros","config":{}},"kernel_regularizer":null,"bias_regularizer":null,"activity_regularizer":null,"kernel_constraint":null,"bias_constraint":null,"name":"dense_Dense3498","trainable":true},"inbound_nodes":[[["dense_Dense3497",0,0,{}]]]}],"input_layers":[["input583",0,0]],"output_layers":[["dense_Dense3498",0,0]]},"keras_version":"tfjs-layers 3.9.0","backend":"tensor_flow.js"},"weightsManifest":[{"paths":["weights.bin"],"weights":[{"name":"dense_Dense3493/kernel","shape":[3,4],"dtype":"float32"},{"name":"dense_Dense3493/bias","shape":[4],"dtype":"float32"},{"name":"dense_Dense3494/kernel","shape":[4,4],"dtype":"float32"},{"name":"dense_Dense3494/bias","shape":[4],"dtype":"float32"},{"name":"dense_Dense3495/kernel","shape":[4,16],"dtype":"float32"},{"name":"dense_Dense3495/bias","shape":[16],"dtype":"float32"},{"name":"dense_Dense3496/kernel","shape":[16,2],"dtype":"float32"},{"name":"dense_Dense3496/bias","shape":[2],"dtype":"float32"},{"name":"dense_Dense3497/kernel","shape":[2,1],"dtype":"float32"},{"name":"dense_Dense3497/bias","shape":[1],"dtype":"float32"},{"name":"dense_Dense3498/kernel","shape":[1,1],"dtype":"float32"},{"name":"dense_Dense3498/bias","shape":[1],"dtype":"float32"}]}]}