{"modelTopology":{"class_name":"Model","config":{"name":"model560","layers":[{"name":"input560","class_name":"InputLayer","config":{"batch_input_shape":[null,3],"dtype":"float32","sparse":false,"name":"input560"},"inbound_nodes":[]},{"name":"dense_Dense2796","class_name":"Dense","config":{"units":4,"activation":"relu","use_bias":true,"kernel_initializer":{"class_name":"VarianceScaling","config":{"scale":1,"mode":"fan_avg","distribution":"normal","seed":null}},"bias_initializer":{"class_name":"Zeros","config":{}},"kernel_regularizer":null,"bias_regularizer":null,"activity_regularizer":null,"kernel_constraint":null,"bias_constraint":null,"name":"dense_Dense2796","trainable":true},"inbound_nodes":[[["input560",0,0,{}]]]},{"name":"dense_Dense2797","class_name":"Dense","config":{"units":8,"activation":"relu","use_bias":true,"kernel_initializer":{"class_name":"VarianceScaling","config":{"scale":1,"mode":"fan_avg","distribution":"normal","seed":null}},"bias_initializer":{"class_name":"Zeros","config":{}},"kernel_regularizer":null,"bias_regularizer":null,"activity_regularizer":null,"kernel_constraint":null,"bias_constraint":null,"name":"dense_Dense2797","trainable":true},"inbound_nodes":[[["dense_Dense2796",0,0,{}]]]},{"name":"dense_Dense2798","class_name":"Dense","config":{"units":8,"activation":"relu","use_bias":true,"kernel_initializer":{"class_name":"VarianceScaling","config":{"scale":1,"mode":"fan_avg","distribution":"normal","seed":null}},"bias_initializer":{"class_name":"Zeros","config":{}},"kernel_regularizer":null,"bias_regularizer":null,"activity_regularizer":null,"kernel_constraint":null,"bias_constraint":null,"name":"dense_Dense2798","trainable":true},"inbound_nodes":[[["dense_Dense2797",0,0,{}]]]},{"name":"dense_Dense2799","class_name":"Dense","config":{"units":2,"activation":"relu","use_bias":true,"kernel_initializer":{"class_name":"VarianceScaling","config":{"scale":1,"mode":"fan_avg","distribution":"normal","seed":null}},"bias_initializer":{"class_name":"Zeros","config":{}},"kernel_regularizer":null,"bias_regularizer":null,"activity_regularizer":null,"kernel_constraint":null,"bias_constraint":null,"name":"dense_Dense2799","trainable":true},"inbound_nodes":[[["dense_Dense2798",0,0,{}]]]},{"name":"dense_Dense2800","class_name":"Dense","config":{"units":1,"activation":"sigmoid","use_bias":true,"kernel_initializer":{"class_name":"VarianceScaling","config":{"scale":1,"mode":"fan_avg","distribution":"normal","seed":null}},"bias_initializer":{"class_name":"Zeros","config":{}},"kernel_regularizer":null,"bias_regularizer":null,"activity_regularizer":null,"kernel_constraint":null,"bias_constraint":null,"name":"dense_Dense2800","trainable":true},"inbound_nodes":[[["dense_Dense2799",0,0,{}]]]}],"input_layers":[["input560",0,0]],"output_layers":[["dense_Dense2800",0,0]]},"keras_version":"tfjs-layers 3.9.0","backend":"tensor_flow.js"},"weightsManifest":[{"paths":["weights.bin"],"weights":[{"name":"dense_Dense2796/kernel","shape":[3,4],"dtype":"float32"},{"name":"dense_Dense2796/bias","shape":[4],"dtype":"float32"},{"name":"dense_Dense2797/kernel","shape":[4,8],"dtype":"float32"},{"name":"dense_Dense2797/bias","shape":[8],"dtype":"float32"},{"name":"dense_Dense2798/kernel","shape":[8,8],"dtype":"float32"},{"name":"dense_Dense2798/bias","shape":[8],"dtype":"float32"},{"name":"dense_Dense2799/kernel","shape":[8,2],"dtype":"float32"},{"name":"dense_Dense2799/bias","shape":[2],"dtype":"float32"},{"name":"dense_Dense2800/kernel","shape":[2,1],"dtype":"float32"},{"name":"dense_Dense2800/bias","shape":[1],"dtype":"float32"}]}]}