{"modelTopology":{"class_name":"Model","config":{"name":"model242","layers":[{"name":"input242","class_name":"InputLayer","config":{"batch_input_shape":[null,3],"dtype":"float32","sparse":false,"name":"input242"},"inbound_nodes":[]},{"name":"dense_Dense1447","class_name":"Dense","config":{"units":4,"activation":"relu","use_bias":true,"kernel_initializer":{"class_name":"VarianceScaling","config":{"scale":1,"mode":"fan_avg","distribution":"normal","seed":null}},"bias_initializer":{"class_name":"Zeros","config":{}},"kernel_regularizer":null,"bias_regularizer":null,"activity_regularizer":null,"kernel_constraint":null,"bias_constraint":null,"name":"dense_Dense1447","trainable":true},"inbound_nodes":[[["input242",0,0,{}]]]},{"name":"dense_Dense1448","class_name":"Dense","config":{"units":2,"activation":"relu","use_bias":true,"kernel_initializer":{"class_name":"VarianceScaling","config":{"scale":1,"mode":"fan_avg","distribution":"normal","seed":null}},"bias_initializer":{"class_name":"Zeros","config":{}},"kernel_regularizer":null,"bias_regularizer":null,"activity_regularizer":null,"kernel_constraint":null,"bias_constraint":null,"name":"dense_Dense1448","trainable":true},"inbound_nodes":[[["dense_Dense1447",0,0,{}]]]},{"name":"dense_Dense1449","class_name":"Dense","config":{"units":1,"activation":"relu","use_bias":true,"kernel_initializer":{"class_name":"VarianceScaling","config":{"scale":1,"mode":"fan_avg","distribution":"normal","seed":null}},"bias_initializer":{"class_name":"Zeros","config":{}},"kernel_regularizer":null,"bias_regularizer":null,"activity_regularizer":null,"kernel_constraint":null,"bias_constraint":null,"name":"dense_Dense1449","trainable":true},"inbound_nodes":[[["dense_Dense1448",0,0,{}]]]},{"name":"dense_Dense1450","class_name":"Dense","config":{"units":16,"activation":"relu","use_bias":true,"kernel_initializer":{"class_name":"VarianceScaling","config":{"scale":1,"mode":"fan_avg","distribution":"normal","seed":null}},"bias_initializer":{"class_name":"Zeros","config":{}},"kernel_regularizer":null,"bias_regularizer":null,"activity_regularizer":null,"kernel_constraint":null,"bias_constraint":null,"name":"dense_Dense1450","trainable":true},"inbound_nodes":[[["dense_Dense1449",0,0,{}]]]},{"name":"dense_Dense1451","class_name":"Dense","config":{"units":2,"activation":"relu","use_bias":true,"kernel_initializer":{"class_name":"VarianceScaling","config":{"scale":1,"mode":"fan_avg","distribution":"normal","seed":null}},"bias_initializer":{"class_name":"Zeros","config":{}},"kernel_regularizer":null,"bias_regularizer":null,"activity_regularizer":null,"kernel_constraint":null,"bias_constraint":null,"name":"dense_Dense1451","trainable":true},"inbound_nodes":[[["dense_Dense1450",0,0,{}]]]},{"name":"dense_Dense1452","class_name":"Dense","config":{"units":1,"activation":"sigmoid","use_bias":true,"kernel_initializer":{"class_name":"VarianceScaling","config":{"scale":1,"mode":"fan_avg","distribution":"normal","seed":null}},"bias_initializer":{"class_name":"Zeros","config":{}},"kernel_regularizer":null,"bias_regularizer":null,"activity_regularizer":null,"kernel_constraint":null,"bias_constraint":null,"name":"dense_Dense1452","trainable":true},"inbound_nodes":[[["dense_Dense1451",0,0,{}]]]}],"input_layers":[["input242",0,0]],"output_layers":[["dense_Dense1452",0,0]]},"keras_version":"tfjs-layers 3.9.0","backend":"tensor_flow.js"},"weightsManifest":[{"paths":["weights.bin"],"weights":[{"name":"dense_Dense1447/kernel","shape":[3,4],"dtype":"float32"},{"name":"dense_Dense1447/bias","shape":[4],"dtype":"float32"},{"name":"dense_Dense1448/kernel","shape":[4,2],"dtype":"float32"},{"name":"dense_Dense1448/bias","shape":[2],"dtype":"float32"},{"name":"dense_Dense1449/kernel","shape":[2,1],"dtype":"float32"},{"name":"dense_Dense1449/bias","shape":[1],"dtype":"float32"},{"name":"dense_Dense1450/kernel","shape":[1,16],"dtype":"float32"},{"name":"dense_Dense1450/bias","shape":[16],"dtype":"float32"},{"name":"dense_Dense1451/kernel","shape":[16,2],"dtype":"float32"},{"name":"dense_Dense1451/bias","shape":[2],"dtype":"float32"},{"name":"dense_Dense1452/kernel","shape":[2,1],"dtype":"float32"},{"name":"dense_Dense1452/bias","shape":[1],"dtype":"float32"}]}]}