{"modelTopology":{"class_name":"Model","config":{"name":"model1000","layers":[{"name":"input1000","class_name":"InputLayer","config":{"batch_input_shape":[null,3],"dtype":"float32","sparse":false,"name":"input1000"},"inbound_nodes":[]},{"name":"dense_Dense4996","class_name":"Dense","config":{"units":16,"activation":"relu","use_bias":true,"kernel_initializer":{"class_name":"VarianceScaling","config":{"scale":1,"mode":"fan_avg","distribution":"normal","seed":null}},"bias_initializer":{"class_name":"Zeros","config":{}},"kernel_regularizer":null,"bias_regularizer":null,"activity_regularizer":null,"kernel_constraint":null,"bias_constraint":null,"name":"dense_Dense4996","trainable":true},"inbound_nodes":[[["input1000",0,0,{}]]]},{"name":"dense_Dense4997","class_name":"Dense","config":{"units":8,"activation":"relu","use_bias":true,"kernel_initializer":{"class_name":"VarianceScaling","config":{"scale":1,"mode":"fan_avg","distribution":"normal","seed":null}},"bias_initializer":{"class_name":"Zeros","config":{}},"kernel_regularizer":null,"bias_regularizer":null,"activity_regularizer":null,"kernel_constraint":null,"bias_constraint":null,"name":"dense_Dense4997","trainable":true},"inbound_nodes":[[["dense_Dense4996",0,0,{}]]]},{"name":"dense_Dense4998","class_name":"Dense","config":{"units":16,"activation":"relu","use_bias":true,"kernel_initializer":{"class_name":"VarianceScaling","config":{"scale":1,"mode":"fan_avg","distribution":"normal","seed":null}},"bias_initializer":{"class_name":"Zeros","config":{}},"kernel_regularizer":null,"bias_regularizer":null,"activity_regularizer":null,"kernel_constraint":null,"bias_constraint":null,"name":"dense_Dense4998","trainable":true},"inbound_nodes":[[["dense_Dense4997",0,0,{}]]]},{"name":"dense_Dense4999","class_name":"Dense","config":{"units":8,"activation":"relu","use_bias":true,"kernel_initializer":{"class_name":"VarianceScaling","config":{"scale":1,"mode":"fan_avg","distribution":"normal","seed":null}},"bias_initializer":{"class_name":"Zeros","config":{}},"kernel_regularizer":null,"bias_regularizer":null,"activity_regularizer":null,"kernel_constraint":null,"bias_constraint":null,"name":"dense_Dense4999","trainable":true},"inbound_nodes":[[["dense_Dense4998",0,0,{}]]]},{"name":"dense_Dense5000","class_name":"Dense","config":{"units":1,"activation":"sigmoid","use_bias":true,"kernel_initializer":{"class_name":"VarianceScaling","config":{"scale":1,"mode":"fan_avg","distribution":"normal","seed":null}},"bias_initializer":{"class_name":"Zeros","config":{}},"kernel_regularizer":null,"bias_regularizer":null,"activity_regularizer":null,"kernel_constraint":null,"bias_constraint":null,"name":"dense_Dense5000","trainable":true},"inbound_nodes":[[["dense_Dense4999",0,0,{}]]]}],"input_layers":[["input1000",0,0]],"output_layers":[["dense_Dense5000",0,0]]},"keras_version":"tfjs-layers 3.9.0","backend":"tensor_flow.js"},"weightsManifest":[{"paths":["weights.bin"],"weights":[{"name":"dense_Dense4996/kernel","shape":[3,16],"dtype":"float32"},{"name":"dense_Dense4996/bias","shape":[16],"dtype":"float32"},{"name":"dense_Dense4997/kernel","shape":[16,8],"dtype":"float32"},{"name":"dense_Dense4997/bias","shape":[8],"dtype":"float32"},{"name":"dense_Dense4998/kernel","shape":[8,16],"dtype":"float32"},{"name":"dense_Dense4998/bias","shape":[16],"dtype":"float32"},{"name":"dense_Dense4999/kernel","shape":[16,8],"dtype":"float32"},{"name":"dense_Dense4999/bias","shape":[8],"dtype":"float32"},{"name":"dense_Dense5000/kernel","shape":[8,1],"dtype":"float32"},{"name":"dense_Dense5000/bias","shape":[1],"dtype":"float32"}]}]}