{"modelTopology":{"class_name":"Model","config":{"name":"model470","layers":[{"name":"input470","class_name":"InputLayer","config":{"batch_input_shape":[null,3],"dtype":"float32","sparse":false,"name":"input470"},"inbound_nodes":[]},{"name":"dense_Dense2346","class_name":"Dense","config":{"units":4,"activation":"relu","use_bias":true,"kernel_initializer":{"class_name":"VarianceScaling","config":{"scale":1,"mode":"fan_avg","distribution":"normal","seed":null}},"bias_initializer":{"class_name":"Zeros","config":{}},"kernel_regularizer":null,"bias_regularizer":null,"activity_regularizer":null,"kernel_constraint":null,"bias_constraint":null,"name":"dense_Dense2346","trainable":true},"inbound_nodes":[[["input470",0,0,{}]]]},{"name":"dense_Dense2347","class_name":"Dense","config":{"units":2,"activation":"relu","use_bias":true,"kernel_initializer":{"class_name":"VarianceScaling","config":{"scale":1,"mode":"fan_avg","distribution":"normal","seed":null}},"bias_initializer":{"class_name":"Zeros","config":{}},"kernel_regularizer":null,"bias_regularizer":null,"activity_regularizer":null,"kernel_constraint":null,"bias_constraint":null,"name":"dense_Dense2347","trainable":true},"inbound_nodes":[[["dense_Dense2346",0,0,{}]]]},{"name":"dense_Dense2348","class_name":"Dense","config":{"units":1,"activation":"relu","use_bias":true,"kernel_initializer":{"class_name":"VarianceScaling","config":{"scale":1,"mode":"fan_avg","distribution":"normal","seed":null}},"bias_initializer":{"class_name":"Zeros","config":{}},"kernel_regularizer":null,"bias_regularizer":null,"activity_regularizer":null,"kernel_constraint":null,"bias_constraint":null,"name":"dense_Dense2348","trainable":true},"inbound_nodes":[[["dense_Dense2347",0,0,{}]]]},{"name":"dense_Dense2349","class_name":"Dense","config":{"units":2,"activation":"relu","use_bias":true,"kernel_initializer":{"class_name":"VarianceScaling","config":{"scale":1,"mode":"fan_avg","distribution":"normal","seed":null}},"bias_initializer":{"class_name":"Zeros","config":{}},"kernel_regularizer":null,"bias_regularizer":null,"activity_regularizer":null,"kernel_constraint":null,"bias_constraint":null,"name":"dense_Dense2349","trainable":true},"inbound_nodes":[[["dense_Dense2348",0,0,{}]]]},{"name":"dense_Dense2350","class_name":"Dense","config":{"units":1,"activation":"sigmoid","use_bias":true,"kernel_initializer":{"class_name":"VarianceScaling","config":{"scale":1,"mode":"fan_avg","distribution":"normal","seed":null}},"bias_initializer":{"class_name":"Zeros","config":{}},"kernel_regularizer":null,"bias_regularizer":null,"activity_regularizer":null,"kernel_constraint":null,"bias_constraint":null,"name":"dense_Dense2350","trainable":true},"inbound_nodes":[[["dense_Dense2349",0,0,{}]]]}],"input_layers":[["input470",0,0]],"output_layers":[["dense_Dense2350",0,0]]},"keras_version":"tfjs-layers 3.9.0","backend":"tensor_flow.js"},"weightsManifest":[{"paths":["weights.bin"],"weights":[{"name":"dense_Dense2346/kernel","shape":[3,4],"dtype":"float32"},{"name":"dense_Dense2346/bias","shape":[4],"dtype":"float32"},{"name":"dense_Dense2347/kernel","shape":[4,2],"dtype":"float32"},{"name":"dense_Dense2347/bias","shape":[2],"dtype":"float32"},{"name":"dense_Dense2348/kernel","shape":[2,1],"dtype":"float32"},{"name":"dense_Dense2348/bias","shape":[1],"dtype":"float32"},{"name":"dense_Dense2349/kernel","shape":[1,2],"dtype":"float32"},{"name":"dense_Dense2349/bias","shape":[2],"dtype":"float32"},{"name":"dense_Dense2350/kernel","shape":[2,1],"dtype":"float32"},{"name":"dense_Dense2350/bias","shape":[1],"dtype":"float32"}]}]}