{"modelTopology":{"class_name":"Model","config":{"name":"model1246","layers":[{"name":"input1246","class_name":"InputLayer","config":{"batch_input_shape":[null,3],"dtype":"float32","sparse":false,"name":"input1246"},"inbound_nodes":[]},{"name":"dense_Dense6226","class_name":"Dense","config":{"units":32,"activation":"relu","use_bias":true,"kernel_initializer":{"class_name":"VarianceScaling","config":{"scale":1,"mode":"fan_avg","distribution":"normal","seed":null}},"bias_initializer":{"class_name":"Zeros","config":{}},"kernel_regularizer":null,"bias_regularizer":null,"activity_regularizer":null,"kernel_constraint":null,"bias_constraint":null,"name":"dense_Dense6226","trainable":true},"inbound_nodes":[[["input1246",0,0,{}]]]},{"name":"dense_Dense6227","class_name":"Dense","config":{"units":16,"activation":"relu","use_bias":true,"kernel_initializer":{"class_name":"VarianceScaling","config":{"scale":1,"mode":"fan_avg","distribution":"normal","seed":null}},"bias_initializer":{"class_name":"Zeros","config":{}},"kernel_regularizer":null,"bias_regularizer":null,"activity_regularizer":null,"kernel_constraint":null,"bias_constraint":null,"name":"dense_Dense6227","trainable":true},"inbound_nodes":[[["dense_Dense6226",0,0,{}]]]},{"name":"dense_Dense6228","class_name":"Dense","config":{"units":8,"activation":"relu","use_bias":true,"kernel_initializer":{"class_name":"VarianceScaling","config":{"scale":1,"mode":"fan_avg","distribution":"normal","seed":null}},"bias_initializer":{"class_name":"Zeros","config":{}},"kernel_regularizer":null,"bias_regularizer":null,"activity_regularizer":null,"kernel_constraint":null,"bias_constraint":null,"name":"dense_Dense6228","trainable":true},"inbound_nodes":[[["dense_Dense6227",0,0,{}]]]},{"name":"dense_Dense6229","class_name":"Dense","config":{"units":8,"activation":"relu","use_bias":true,"kernel_initializer":{"class_name":"VarianceScaling","config":{"scale":1,"mode":"fan_avg","distribution":"normal","seed":null}},"bias_initializer":{"class_name":"Zeros","config":{}},"kernel_regularizer":null,"bias_regularizer":null,"activity_regularizer":null,"kernel_constraint":null,"bias_constraint":null,"name":"dense_Dense6229","trainable":true},"inbound_nodes":[[["dense_Dense6228",0,0,{}]]]},{"name":"dense_Dense6230","class_name":"Dense","config":{"units":1,"activation":"sigmoid","use_bias":true,"kernel_initializer":{"class_name":"VarianceScaling","config":{"scale":1,"mode":"fan_avg","distribution":"normal","seed":null}},"bias_initializer":{"class_name":"Zeros","config":{}},"kernel_regularizer":null,"bias_regularizer":null,"activity_regularizer":null,"kernel_constraint":null,"bias_constraint":null,"name":"dense_Dense6230","trainable":true},"inbound_nodes":[[["dense_Dense6229",0,0,{}]]]}],"input_layers":[["input1246",0,0]],"output_layers":[["dense_Dense6230",0,0]]},"keras_version":"tfjs-layers 3.9.0","backend":"tensor_flow.js"},"weightsManifest":[{"paths":["weights.bin"],"weights":[{"name":"dense_Dense6226/kernel","shape":[3,32],"dtype":"float32"},{"name":"dense_Dense6226/bias","shape":[32],"dtype":"float32"},{"name":"dense_Dense6227/kernel","shape":[32,16],"dtype":"float32"},{"name":"dense_Dense6227/bias","shape":[16],"dtype":"float32"},{"name":"dense_Dense6228/kernel","shape":[16,8],"dtype":"float32"},{"name":"dense_Dense6228/bias","shape":[8],"dtype":"float32"},{"name":"dense_Dense6229/kernel","shape":[8,8],"dtype":"float32"},{"name":"dense_Dense6229/bias","shape":[8],"dtype":"float32"},{"name":"dense_Dense6230/kernel","shape":[8,1],"dtype":"float32"},{"name":"dense_Dense6230/bias","shape":[1],"dtype":"float32"}]}]}