{"modelTopology":{"class_name":"Model","config":{"name":"model975","layers":[{"name":"input975","class_name":"InputLayer","config":{"batch_input_shape":[null,3],"dtype":"float32","sparse":false,"name":"input975"},"inbound_nodes":[]},{"name":"dense_Dense4871","class_name":"Dense","config":{"units":16,"activation":"relu","use_bias":true,"kernel_initializer":{"class_name":"VarianceScaling","config":{"scale":1,"mode":"fan_avg","distribution":"normal","seed":null}},"bias_initializer":{"class_name":"Zeros","config":{}},"kernel_regularizer":null,"bias_regularizer":null,"activity_regularizer":null,"kernel_constraint":null,"bias_constraint":null,"name":"dense_Dense4871","trainable":true},"inbound_nodes":[[["input975",0,0,{}]]]},{"name":"dense_Dense4872","class_name":"Dense","config":{"units":8,"activation":"relu","use_bias":true,"kernel_initializer":{"class_name":"VarianceScaling","config":{"scale":1,"mode":"fan_avg","distribution":"normal","seed":null}},"bias_initializer":{"class_name":"Zeros","config":{}},"kernel_regularizer":null,"bias_regularizer":null,"activity_regularizer":null,"kernel_constraint":null,"bias_constraint":null,"name":"dense_Dense4872","trainable":true},"inbound_nodes":[[["dense_Dense4871",0,0,{}]]]},{"name":"dense_Dense4873","class_name":"Dense","config":{"units":1,"activation":"relu","use_bias":true,"kernel_initializer":{"class_name":"VarianceScaling","config":{"scale":1,"mode":"fan_avg","distribution":"normal","seed":null}},"bias_initializer":{"class_name":"Zeros","config":{}},"kernel_regularizer":null,"bias_regularizer":null,"activity_regularizer":null,"kernel_constraint":null,"bias_constraint":null,"name":"dense_Dense4873","trainable":true},"inbound_nodes":[[["dense_Dense4872",0,0,{}]]]},{"name":"dense_Dense4874","class_name":"Dense","config":{"units":4,"activation":"relu","use_bias":true,"kernel_initializer":{"class_name":"VarianceScaling","config":{"scale":1,"mode":"fan_avg","distribution":"normal","seed":null}},"bias_initializer":{"class_name":"Zeros","config":{}},"kernel_regularizer":null,"bias_regularizer":null,"activity_regularizer":null,"kernel_constraint":null,"bias_constraint":null,"name":"dense_Dense4874","trainable":true},"inbound_nodes":[[["dense_Dense4873",0,0,{}]]]},{"name":"dense_Dense4875","class_name":"Dense","config":{"units":1,"activation":"sigmoid","use_bias":true,"kernel_initializer":{"class_name":"VarianceScaling","config":{"scale":1,"mode":"fan_avg","distribution":"normal","seed":null}},"bias_initializer":{"class_name":"Zeros","config":{}},"kernel_regularizer":null,"bias_regularizer":null,"activity_regularizer":null,"kernel_constraint":null,"bias_constraint":null,"name":"dense_Dense4875","trainable":true},"inbound_nodes":[[["dense_Dense4874",0,0,{}]]]}],"input_layers":[["input975",0,0]],"output_layers":[["dense_Dense4875",0,0]]},"keras_version":"tfjs-layers 3.9.0","backend":"tensor_flow.js"},"weightsManifest":[{"paths":["weights.bin"],"weights":[{"name":"dense_Dense4871/kernel","shape":[3,16],"dtype":"float32"},{"name":"dense_Dense4871/bias","shape":[16],"dtype":"float32"},{"name":"dense_Dense4872/kernel","shape":[16,8],"dtype":"float32"},{"name":"dense_Dense4872/bias","shape":[8],"dtype":"float32"},{"name":"dense_Dense4873/kernel","shape":[8,1],"dtype":"float32"},{"name":"dense_Dense4873/bias","shape":[1],"dtype":"float32"},{"name":"dense_Dense4874/kernel","shape":[1,4],"dtype":"float32"},{"name":"dense_Dense4874/bias","shape":[4],"dtype":"float32"},{"name":"dense_Dense4875/kernel","shape":[4,1],"dtype":"float32"},{"name":"dense_Dense4875/bias","shape":[1],"dtype":"float32"}]}]}