{"modelTopology":{"class_name":"Model","config":{"name":"model125","layers":[{"name":"input125","class_name":"InputLayer","config":{"batch_input_shape":[null,3],"dtype":"float32","sparse":false,"name":"input125"},"inbound_nodes":[]},{"name":"dense_Dense497","class_name":"Dense","config":{"units":8,"activation":"relu","use_bias":true,"kernel_initializer":{"class_name":"VarianceScaling","config":{"scale":1,"mode":"fan_avg","distribution":"normal","seed":null}},"bias_initializer":{"class_name":"Zeros","config":{}},"kernel_regularizer":null,"bias_regularizer":null,"activity_regularizer":null,"kernel_constraint":null,"bias_constraint":null,"name":"dense_Dense497","trainable":true},"inbound_nodes":[[["input125",0,0,{}]]]},{"name":"dense_Dense498","class_name":"Dense","config":{"units":4,"activation":"relu","use_bias":true,"kernel_initializer":{"class_name":"VarianceScaling","config":{"scale":1,"mode":"fan_avg","distribution":"normal","seed":null}},"bias_initializer":{"class_name":"Zeros","config":{}},"kernel_regularizer":null,"bias_regularizer":null,"activity_regularizer":null,"kernel_constraint":null,"bias_constraint":null,"name":"dense_Dense498","trainable":true},"inbound_nodes":[[["dense_Dense497",0,0,{}]]]},{"name":"dense_Dense499","class_name":"Dense","config":{"units":16,"activation":"relu","use_bias":true,"kernel_initializer":{"class_name":"VarianceScaling","config":{"scale":1,"mode":"fan_avg","distribution":"normal","seed":null}},"bias_initializer":{"class_name":"Zeros","config":{}},"kernel_regularizer":null,"bias_regularizer":null,"activity_regularizer":null,"kernel_constraint":null,"bias_constraint":null,"name":"dense_Dense499","trainable":true},"inbound_nodes":[[["dense_Dense498",0,0,{}]]]},{"name":"dense_Dense500","class_name":"Dense","config":{"units":1,"activation":"sigmoid","use_bias":true,"kernel_initializer":{"class_name":"VarianceScaling","config":{"scale":1,"mode":"fan_avg","distribution":"normal","seed":null}},"bias_initializer":{"class_name":"Zeros","config":{}},"kernel_regularizer":null,"bias_regularizer":null,"activity_regularizer":null,"kernel_constraint":null,"bias_constraint":null,"name":"dense_Dense500","trainable":true},"inbound_nodes":[[["dense_Dense499",0,0,{}]]]}],"input_layers":[["input125",0,0]],"output_layers":[["dense_Dense500",0,0]]},"keras_version":"tfjs-layers 3.9.0","backend":"tensor_flow.js"},"weightsManifest":[{"paths":["weights.bin"],"weights":[{"name":"dense_Dense497/kernel","shape":[3,8],"dtype":"float32"},{"name":"dense_Dense497/bias","shape":[8],"dtype":"float32"},{"name":"dense_Dense498/kernel","shape":[8,4],"dtype":"float32"},{"name":"dense_Dense498/bias","shape":[4],"dtype":"float32"},{"name":"dense_Dense499/kernel","shape":[4,16],"dtype":"float32"},{"name":"dense_Dense499/bias","shape":[16],"dtype":"float32"},{"name":"dense_Dense500/kernel","shape":[16,1],"dtype":"float32"},{"name":"dense_Dense500/bias","shape":[1],"dtype":"float32"}]}]}