{"modelTopology":{"class_name":"Model","config":{"name":"model427","layers":[{"name":"input427","class_name":"InputLayer","config":{"batch_input_shape":[null,3],"dtype":"float32","sparse":false,"name":"input427"},"inbound_nodes":[]},{"name":"dense_Dense2557","class_name":"Dense","config":{"units":16,"activation":"relu","use_bias":true,"kernel_initializer":{"class_name":"VarianceScaling","config":{"scale":1,"mode":"fan_avg","distribution":"normal","seed":null}},"bias_initializer":{"class_name":"Zeros","config":{}},"kernel_regularizer":null,"bias_regularizer":null,"activity_regularizer":null,"kernel_constraint":null,"bias_constraint":null,"name":"dense_Dense2557","trainable":true},"inbound_nodes":[[["input427",0,0,{}]]]},{"name":"dense_Dense2558","class_name":"Dense","config":{"units":2,"activation":"relu","use_bias":true,"kernel_initializer":{"class_name":"VarianceScaling","config":{"scale":1,"mode":"fan_avg","distribution":"normal","seed":null}},"bias_initializer":{"class_name":"Zeros","config":{}},"kernel_regularizer":null,"bias_regularizer":null,"activity_regularizer":null,"kernel_constraint":null,"bias_constraint":null,"name":"dense_Dense2558","trainable":true},"inbound_nodes":[[["dense_Dense2557",0,0,{}]]]},{"name":"dense_Dense2559","class_name":"Dense","config":{"units":32,"activation":"relu","use_bias":true,"kernel_initializer":{"class_name":"VarianceScaling","config":{"scale":1,"mode":"fan_avg","distribution":"normal","seed":null}},"bias_initializer":{"class_name":"Zeros","config":{}},"kernel_regularizer":null,"bias_regularizer":null,"activity_regularizer":null,"kernel_constraint":null,"bias_constraint":null,"name":"dense_Dense2559","trainable":true},"inbound_nodes":[[["dense_Dense2558",0,0,{}]]]},{"name":"dense_Dense2560","class_name":"Dense","config":{"units":32,"activation":"relu","use_bias":true,"kernel_initializer":{"class_name":"VarianceScaling","config":{"scale":1,"mode":"fan_avg","distribution":"normal","seed":null}},"bias_initializer":{"class_name":"Zeros","config":{}},"kernel_regularizer":null,"bias_regularizer":null,"activity_regularizer":null,"kernel_constraint":null,"bias_constraint":null,"name":"dense_Dense2560","trainable":true},"inbound_nodes":[[["dense_Dense2559",0,0,{}]]]},{"name":"dense_Dense2561","class_name":"Dense","config":{"units":1,"activation":"relu","use_bias":true,"kernel_initializer":{"class_name":"VarianceScaling","config":{"scale":1,"mode":"fan_avg","distribution":"normal","seed":null}},"bias_initializer":{"class_name":"Zeros","config":{}},"kernel_regularizer":null,"bias_regularizer":null,"activity_regularizer":null,"kernel_constraint":null,"bias_constraint":null,"name":"dense_Dense2561","trainable":true},"inbound_nodes":[[["dense_Dense2560",0,0,{}]]]},{"name":"dense_Dense2562","class_name":"Dense","config":{"units":1,"activation":"sigmoid","use_bias":true,"kernel_initializer":{"class_name":"VarianceScaling","config":{"scale":1,"mode":"fan_avg","distribution":"normal","seed":null}},"bias_initializer":{"class_name":"Zeros","config":{}},"kernel_regularizer":null,"bias_regularizer":null,"activity_regularizer":null,"kernel_constraint":null,"bias_constraint":null,"name":"dense_Dense2562","trainable":true},"inbound_nodes":[[["dense_Dense2561",0,0,{}]]]}],"input_layers":[["input427",0,0]],"output_layers":[["dense_Dense2562",0,0]]},"keras_version":"tfjs-layers 3.9.0","backend":"tensor_flow.js"},"weightsManifest":[{"paths":["weights.bin"],"weights":[{"name":"dense_Dense2557/kernel","shape":[3,16],"dtype":"float32"},{"name":"dense_Dense2557/bias","shape":[16],"dtype":"float32"},{"name":"dense_Dense2558/kernel","shape":[16,2],"dtype":"float32"},{"name":"dense_Dense2558/bias","shape":[2],"dtype":"float32"},{"name":"dense_Dense2559/kernel","shape":[2,32],"dtype":"float32"},{"name":"dense_Dense2559/bias","shape":[32],"dtype":"float32"},{"name":"dense_Dense2560/kernel","shape":[32,32],"dtype":"float32"},{"name":"dense_Dense2560/bias","shape":[32],"dtype":"float32"},{"name":"dense_Dense2561/kernel","shape":[32,1],"dtype":"float32"},{"name":"dense_Dense2561/bias","shape":[1],"dtype":"float32"},{"name":"dense_Dense2562/kernel","shape":[1,1],"dtype":"float32"},{"name":"dense_Dense2562/bias","shape":[1],"dtype":"float32"}]}]}