{"modelTopology":{"class_name":"Model","config":{"name":"model118","layers":[{"name":"input118","class_name":"InputLayer","config":{"batch_input_shape":[null,3],"dtype":"float32","sparse":false,"name":"input118"},"inbound_nodes":[]},{"name":"dense_Dense469","class_name":"Dense","config":{"units":8,"activation":"relu","use_bias":true,"kernel_initializer":{"class_name":"VarianceScaling","config":{"scale":1,"mode":"fan_avg","distribution":"normal","seed":null}},"bias_initializer":{"class_name":"Zeros","config":{}},"kernel_regularizer":null,"bias_regularizer":null,"activity_regularizer":null,"kernel_constraint":null,"bias_constraint":null,"name":"dense_Dense469","trainable":true},"inbound_nodes":[[["input118",0,0,{}]]]},{"name":"dense_Dense470","class_name":"Dense","config":{"units":2,"activation":"relu","use_bias":true,"kernel_initializer":{"class_name":"VarianceScaling","config":{"scale":1,"mode":"fan_avg","distribution":"normal","seed":null}},"bias_initializer":{"class_name":"Zeros","config":{}},"kernel_regularizer":null,"bias_regularizer":null,"activity_regularizer":null,"kernel_constraint":null,"bias_constraint":null,"name":"dense_Dense470","trainable":true},"inbound_nodes":[[["dense_Dense469",0,0,{}]]]},{"name":"dense_Dense471","class_name":"Dense","config":{"units":8,"activation":"relu","use_bias":true,"kernel_initializer":{"class_name":"VarianceScaling","config":{"scale":1,"mode":"fan_avg","distribution":"normal","seed":null}},"bias_initializer":{"class_name":"Zeros","config":{}},"kernel_regularizer":null,"bias_regularizer":null,"activity_regularizer":null,"kernel_constraint":null,"bias_constraint":null,"name":"dense_Dense471","trainable":true},"inbound_nodes":[[["dense_Dense470",0,0,{}]]]},{"name":"dense_Dense472","class_name":"Dense","config":{"units":1,"activation":"sigmoid","use_bias":true,"kernel_initializer":{"class_name":"VarianceScaling","config":{"scale":1,"mode":"fan_avg","distribution":"normal","seed":null}},"bias_initializer":{"class_name":"Zeros","config":{}},"kernel_regularizer":null,"bias_regularizer":null,"activity_regularizer":null,"kernel_constraint":null,"bias_constraint":null,"name":"dense_Dense472","trainable":true},"inbound_nodes":[[["dense_Dense471",0,0,{}]]]}],"input_layers":[["input118",0,0]],"output_layers":[["dense_Dense472",0,0]]},"keras_version":"tfjs-layers 3.9.0","backend":"tensor_flow.js"},"weightsManifest":[{"paths":["weights.bin"],"weights":[{"name":"dense_Dense469/kernel","shape":[3,8],"dtype":"float32"},{"name":"dense_Dense469/bias","shape":[8],"dtype":"float32"},{"name":"dense_Dense470/kernel","shape":[8,2],"dtype":"float32"},{"name":"dense_Dense470/bias","shape":[2],"dtype":"float32"},{"name":"dense_Dense471/kernel","shape":[2,8],"dtype":"float32"},{"name":"dense_Dense471/bias","shape":[8],"dtype":"float32"},{"name":"dense_Dense472/kernel","shape":[8,1],"dtype":"float32"},{"name":"dense_Dense472/bias","shape":[1],"dtype":"float32"}]}]}