{"modelTopology":{"class_name":"Model","config":{"name":"model1098","layers":[{"name":"input1098","class_name":"InputLayer","config":{"batch_input_shape":[null,3],"dtype":"float32","sparse":false,"name":"input1098"},"inbound_nodes":[]},{"name":"dense_Dense5486","class_name":"Dense","config":{"units":32,"activation":"relu","use_bias":true,"kernel_initializer":{"class_name":"VarianceScaling","config":{"scale":1,"mode":"fan_avg","distribution":"normal","seed":null}},"bias_initializer":{"class_name":"Zeros","config":{}},"kernel_regularizer":null,"bias_regularizer":null,"activity_regularizer":null,"kernel_constraint":null,"bias_constraint":null,"name":"dense_Dense5486","trainable":true},"inbound_nodes":[[["input1098",0,0,{}]]]},{"name":"dense_Dense5487","class_name":"Dense","config":{"units":1,"activation":"relu","use_bias":true,"kernel_initializer":{"class_name":"VarianceScaling","config":{"scale":1,"mode":"fan_avg","distribution":"normal","seed":null}},"bias_initializer":{"class_name":"Zeros","config":{}},"kernel_regularizer":null,"bias_regularizer":null,"activity_regularizer":null,"kernel_constraint":null,"bias_constraint":null,"name":"dense_Dense5487","trainable":true},"inbound_nodes":[[["dense_Dense5486",0,0,{}]]]},{"name":"dense_Dense5488","class_name":"Dense","config":{"units":4,"activation":"relu","use_bias":true,"kernel_initializer":{"class_name":"VarianceScaling","config":{"scale":1,"mode":"fan_avg","distribution":"normal","seed":null}},"bias_initializer":{"class_name":"Zeros","config":{}},"kernel_regularizer":null,"bias_regularizer":null,"activity_regularizer":null,"kernel_constraint":null,"bias_constraint":null,"name":"dense_Dense5488","trainable":true},"inbound_nodes":[[["dense_Dense5487",0,0,{}]]]},{"name":"dense_Dense5489","class_name":"Dense","config":{"units":32,"activation":"relu","use_bias":true,"kernel_initializer":{"class_name":"VarianceScaling","config":{"scale":1,"mode":"fan_avg","distribution":"normal","seed":null}},"bias_initializer":{"class_name":"Zeros","config":{}},"kernel_regularizer":null,"bias_regularizer":null,"activity_regularizer":null,"kernel_constraint":null,"bias_constraint":null,"name":"dense_Dense5489","trainable":true},"inbound_nodes":[[["dense_Dense5488",0,0,{}]]]},{"name":"dense_Dense5490","class_name":"Dense","config":{"units":1,"activation":"sigmoid","use_bias":true,"kernel_initializer":{"class_name":"VarianceScaling","config":{"scale":1,"mode":"fan_avg","distribution":"normal","seed":null}},"bias_initializer":{"class_name":"Zeros","config":{}},"kernel_regularizer":null,"bias_regularizer":null,"activity_regularizer":null,"kernel_constraint":null,"bias_constraint":null,"name":"dense_Dense5490","trainable":true},"inbound_nodes":[[["dense_Dense5489",0,0,{}]]]}],"input_layers":[["input1098",0,0]],"output_layers":[["dense_Dense5490",0,0]]},"keras_version":"tfjs-layers 3.9.0","backend":"tensor_flow.js"},"weightsManifest":[{"paths":["weights.bin"],"weights":[{"name":"dense_Dense5486/kernel","shape":[3,32],"dtype":"float32"},{"name":"dense_Dense5486/bias","shape":[32],"dtype":"float32"},{"name":"dense_Dense5487/kernel","shape":[32,1],"dtype":"float32"},{"name":"dense_Dense5487/bias","shape":[1],"dtype":"float32"},{"name":"dense_Dense5488/kernel","shape":[1,4],"dtype":"float32"},{"name":"dense_Dense5488/bias","shape":[4],"dtype":"float32"},{"name":"dense_Dense5489/kernel","shape":[4,32],"dtype":"float32"},{"name":"dense_Dense5489/bias","shape":[32],"dtype":"float32"},{"name":"dense_Dense5490/kernel","shape":[32,1],"dtype":"float32"},{"name":"dense_Dense5490/bias","shape":[1],"dtype":"float32"}]}]}