{"modelTopology":{"class_name":"Model","config":{"name":"model1275","layers":[{"name":"input1275","class_name":"InputLayer","config":{"batch_input_shape":[null,3],"dtype":"float32","sparse":false,"name":"input1275"},"inbound_nodes":[]},{"name":"dense_Dense6371","class_name":"Dense","config":{"units":32,"activation":"relu","use_bias":true,"kernel_initializer":{"class_name":"VarianceScaling","config":{"scale":1,"mode":"fan_avg","distribution":"normal","seed":null}},"bias_initializer":{"class_name":"Zeros","config":{}},"kernel_regularizer":null,"bias_regularizer":null,"activity_regularizer":null,"kernel_constraint":null,"bias_constraint":null,"name":"dense_Dense6371","trainable":true},"inbound_nodes":[[["input1275",0,0,{}]]]},{"name":"dense_Dense6372","class_name":"Dense","config":{"units":32,"activation":"relu","use_bias":true,"kernel_initializer":{"class_name":"VarianceScaling","config":{"scale":1,"mode":"fan_avg","distribution":"normal","seed":null}},"bias_initializer":{"class_name":"Zeros","config":{}},"kernel_regularizer":null,"bias_regularizer":null,"activity_regularizer":null,"kernel_constraint":null,"bias_constraint":null,"name":"dense_Dense6372","trainable":true},"inbound_nodes":[[["dense_Dense6371",0,0,{}]]]},{"name":"dense_Dense6373","class_name":"Dense","config":{"units":4,"activation":"relu","use_bias":true,"kernel_initializer":{"class_name":"VarianceScaling","config":{"scale":1,"mode":"fan_avg","distribution":"normal","seed":null}},"bias_initializer":{"class_name":"Zeros","config":{}},"kernel_regularizer":null,"bias_regularizer":null,"activity_regularizer":null,"kernel_constraint":null,"bias_constraint":null,"name":"dense_Dense6373","trainable":true},"inbound_nodes":[[["dense_Dense6372",0,0,{}]]]},{"name":"dense_Dense6374","class_name":"Dense","config":{"units":4,"activation":"relu","use_bias":true,"kernel_initializer":{"class_name":"VarianceScaling","config":{"scale":1,"mode":"fan_avg","distribution":"normal","seed":null}},"bias_initializer":{"class_name":"Zeros","config":{}},"kernel_regularizer":null,"bias_regularizer":null,"activity_regularizer":null,"kernel_constraint":null,"bias_constraint":null,"name":"dense_Dense6374","trainable":true},"inbound_nodes":[[["dense_Dense6373",0,0,{}]]]},{"name":"dense_Dense6375","class_name":"Dense","config":{"units":1,"activation":"sigmoid","use_bias":true,"kernel_initializer":{"class_name":"VarianceScaling","config":{"scale":1,"mode":"fan_avg","distribution":"normal","seed":null}},"bias_initializer":{"class_name":"Zeros","config":{}},"kernel_regularizer":null,"bias_regularizer":null,"activity_regularizer":null,"kernel_constraint":null,"bias_constraint":null,"name":"dense_Dense6375","trainable":true},"inbound_nodes":[[["dense_Dense6374",0,0,{}]]]}],"input_layers":[["input1275",0,0]],"output_layers":[["dense_Dense6375",0,0]]},"keras_version":"tfjs-layers 3.9.0","backend":"tensor_flow.js"},"weightsManifest":[{"paths":["weights.bin"],"weights":[{"name":"dense_Dense6371/kernel","shape":[3,32],"dtype":"float32"},{"name":"dense_Dense6371/bias","shape":[32],"dtype":"float32"},{"name":"dense_Dense6372/kernel","shape":[32,32],"dtype":"float32"},{"name":"dense_Dense6372/bias","shape":[32],"dtype":"float32"},{"name":"dense_Dense6373/kernel","shape":[32,4],"dtype":"float32"},{"name":"dense_Dense6373/bias","shape":[4],"dtype":"float32"},{"name":"dense_Dense6374/kernel","shape":[4,4],"dtype":"float32"},{"name":"dense_Dense6374/bias","shape":[4],"dtype":"float32"},{"name":"dense_Dense6375/kernel","shape":[4,1],"dtype":"float32"},{"name":"dense_Dense6375/bias","shape":[1],"dtype":"float32"}]}]}