{"modelTopology":{"class_name":"Model","config":{"name":"model860","layers":[{"name":"input860","class_name":"InputLayer","config":{"batch_input_shape":[null,3],"dtype":"float32","sparse":false,"name":"input860"},"inbound_nodes":[]},{"name":"dense_Dense5155","class_name":"Dense","config":{"units":4,"activation":"relu","use_bias":true,"kernel_initializer":{"class_name":"VarianceScaling","config":{"scale":1,"mode":"fan_avg","distribution":"normal","seed":null}},"bias_initializer":{"class_name":"Zeros","config":{}},"kernel_regularizer":null,"bias_regularizer":null,"activity_regularizer":null,"kernel_constraint":null,"bias_constraint":null,"name":"dense_Dense5155","trainable":true},"inbound_nodes":[[["input860",0,0,{}]]]},{"name":"dense_Dense5156","class_name":"Dense","config":{"units":8,"activation":"relu","use_bias":true,"kernel_initializer":{"class_name":"VarianceScaling","config":{"scale":1,"mode":"fan_avg","distribution":"normal","seed":null}},"bias_initializer":{"class_name":"Zeros","config":{}},"kernel_regularizer":null,"bias_regularizer":null,"activity_regularizer":null,"kernel_constraint":null,"bias_constraint":null,"name":"dense_Dense5156","trainable":true},"inbound_nodes":[[["dense_Dense5155",0,0,{}]]]},{"name":"dense_Dense5157","class_name":"Dense","config":{"units":32,"activation":"relu","use_bias":true,"kernel_initializer":{"class_name":"VarianceScaling","config":{"scale":1,"mode":"fan_avg","distribution":"normal","seed":null}},"bias_initializer":{"class_name":"Zeros","config":{}},"kernel_regularizer":null,"bias_regularizer":null,"activity_regularizer":null,"kernel_constraint":null,"bias_constraint":null,"name":"dense_Dense5157","trainable":true},"inbound_nodes":[[["dense_Dense5156",0,0,{}]]]},{"name":"dense_Dense5158","class_name":"Dense","config":{"units":32,"activation":"relu","use_bias":true,"kernel_initializer":{"class_name":"VarianceScaling","config":{"scale":1,"mode":"fan_avg","distribution":"normal","seed":null}},"bias_initializer":{"class_name":"Zeros","config":{}},"kernel_regularizer":null,"bias_regularizer":null,"activity_regularizer":null,"kernel_constraint":null,"bias_constraint":null,"name":"dense_Dense5158","trainable":true},"inbound_nodes":[[["dense_Dense5157",0,0,{}]]]},{"name":"dense_Dense5159","class_name":"Dense","config":{"units":2,"activation":"relu","use_bias":true,"kernel_initializer":{"class_name":"VarianceScaling","config":{"scale":1,"mode":"fan_avg","distribution":"normal","seed":null}},"bias_initializer":{"class_name":"Zeros","config":{}},"kernel_regularizer":null,"bias_regularizer":null,"activity_regularizer":null,"kernel_constraint":null,"bias_constraint":null,"name":"dense_Dense5159","trainable":true},"inbound_nodes":[[["dense_Dense5158",0,0,{}]]]},{"name":"dense_Dense5160","class_name":"Dense","config":{"units":1,"activation":"sigmoid","use_bias":true,"kernel_initializer":{"class_name":"VarianceScaling","config":{"scale":1,"mode":"fan_avg","distribution":"normal","seed":null}},"bias_initializer":{"class_name":"Zeros","config":{}},"kernel_regularizer":null,"bias_regularizer":null,"activity_regularizer":null,"kernel_constraint":null,"bias_constraint":null,"name":"dense_Dense5160","trainable":true},"inbound_nodes":[[["dense_Dense5159",0,0,{}]]]}],"input_layers":[["input860",0,0]],"output_layers":[["dense_Dense5160",0,0]]},"keras_version":"tfjs-layers 3.9.0","backend":"tensor_flow.js"},"weightsManifest":[{"paths":["weights.bin"],"weights":[{"name":"dense_Dense5155/kernel","shape":[3,4],"dtype":"float32"},{"name":"dense_Dense5155/bias","shape":[4],"dtype":"float32"},{"name":"dense_Dense5156/kernel","shape":[4,8],"dtype":"float32"},{"name":"dense_Dense5156/bias","shape":[8],"dtype":"float32"},{"name":"dense_Dense5157/kernel","shape":[8,32],"dtype":"float32"},{"name":"dense_Dense5157/bias","shape":[32],"dtype":"float32"},{"name":"dense_Dense5158/kernel","shape":[32,32],"dtype":"float32"},{"name":"dense_Dense5158/bias","shape":[32],"dtype":"float32"},{"name":"dense_Dense5159/kernel","shape":[32,2],"dtype":"float32"},{"name":"dense_Dense5159/bias","shape":[2],"dtype":"float32"},{"name":"dense_Dense5160/kernel","shape":[2,1],"dtype":"float32"},{"name":"dense_Dense5160/bias","shape":[1],"dtype":"float32"}]}]}