{"modelTopology":{"class_name":"Model","config":{"name":"model841","layers":[{"name":"input841","class_name":"InputLayer","config":{"batch_input_shape":[null,3],"dtype":"float32","sparse":false,"name":"input841"},"inbound_nodes":[]},{"name":"dense_Dense4201","class_name":"Dense","config":{"units":8,"activation":"relu","use_bias":true,"kernel_initializer":{"class_name":"VarianceScaling","config":{"scale":1,"mode":"fan_avg","distribution":"normal","seed":null}},"bias_initializer":{"class_name":"Zeros","config":{}},"kernel_regularizer":null,"bias_regularizer":null,"activity_regularizer":null,"kernel_constraint":null,"bias_constraint":null,"name":"dense_Dense4201","trainable":true},"inbound_nodes":[[["input841",0,0,{}]]]},{"name":"dense_Dense4202","class_name":"Dense","config":{"units":32,"activation":"relu","use_bias":true,"kernel_initializer":{"class_name":"VarianceScaling","config":{"scale":1,"mode":"fan_avg","distribution":"normal","seed":null}},"bias_initializer":{"class_name":"Zeros","config":{}},"kernel_regularizer":null,"bias_regularizer":null,"activity_regularizer":null,"kernel_constraint":null,"bias_constraint":null,"name":"dense_Dense4202","trainable":true},"inbound_nodes":[[["dense_Dense4201",0,0,{}]]]},{"name":"dense_Dense4203","class_name":"Dense","config":{"units":4,"activation":"relu","use_bias":true,"kernel_initializer":{"class_name":"VarianceScaling","config":{"scale":1,"mode":"fan_avg","distribution":"normal","seed":null}},"bias_initializer":{"class_name":"Zeros","config":{}},"kernel_regularizer":null,"bias_regularizer":null,"activity_regularizer":null,"kernel_constraint":null,"bias_constraint":null,"name":"dense_Dense4203","trainable":true},"inbound_nodes":[[["dense_Dense4202",0,0,{}]]]},{"name":"dense_Dense4204","class_name":"Dense","config":{"units":1,"activation":"relu","use_bias":true,"kernel_initializer":{"class_name":"VarianceScaling","config":{"scale":1,"mode":"fan_avg","distribution":"normal","seed":null}},"bias_initializer":{"class_name":"Zeros","config":{}},"kernel_regularizer":null,"bias_regularizer":null,"activity_regularizer":null,"kernel_constraint":null,"bias_constraint":null,"name":"dense_Dense4204","trainable":true},"inbound_nodes":[[["dense_Dense4203",0,0,{}]]]},{"name":"dense_Dense4205","class_name":"Dense","config":{"units":1,"activation":"sigmoid","use_bias":true,"kernel_initializer":{"class_name":"VarianceScaling","config":{"scale":1,"mode":"fan_avg","distribution":"normal","seed":null}},"bias_initializer":{"class_name":"Zeros","config":{}},"kernel_regularizer":null,"bias_regularizer":null,"activity_regularizer":null,"kernel_constraint":null,"bias_constraint":null,"name":"dense_Dense4205","trainable":true},"inbound_nodes":[[["dense_Dense4204",0,0,{}]]]}],"input_layers":[["input841",0,0]],"output_layers":[["dense_Dense4205",0,0]]},"keras_version":"tfjs-layers 3.9.0","backend":"tensor_flow.js"},"weightsManifest":[{"paths":["weights.bin"],"weights":[{"name":"dense_Dense4201/kernel","shape":[3,8],"dtype":"float32"},{"name":"dense_Dense4201/bias","shape":[8],"dtype":"float32"},{"name":"dense_Dense4202/kernel","shape":[8,32],"dtype":"float32"},{"name":"dense_Dense4202/bias","shape":[32],"dtype":"float32"},{"name":"dense_Dense4203/kernel","shape":[32,4],"dtype":"float32"},{"name":"dense_Dense4203/bias","shape":[4],"dtype":"float32"},{"name":"dense_Dense4204/kernel","shape":[4,1],"dtype":"float32"},{"name":"dense_Dense4204/bias","shape":[1],"dtype":"float32"},{"name":"dense_Dense4205/kernel","shape":[1,1],"dtype":"float32"},{"name":"dense_Dense4205/bias","shape":[1],"dtype":"float32"}]}]}