{"modelTopology":{"class_name":"Model","config":{"name":"model269","layers":[{"name":"input269","class_name":"InputLayer","config":{"batch_input_shape":[null,3],"dtype":"float32","sparse":false,"name":"input269"},"inbound_nodes":[]},{"name":"dense_Dense1609","class_name":"Dense","config":{"units":32,"activation":"relu","use_bias":true,"kernel_initializer":{"class_name":"VarianceScaling","config":{"scale":1,"mode":"fan_avg","distribution":"normal","seed":null}},"bias_initializer":{"class_name":"Zeros","config":{}},"kernel_regularizer":null,"bias_regularizer":null,"activity_regularizer":null,"kernel_constraint":null,"bias_constraint":null,"name":"dense_Dense1609","trainable":true},"inbound_nodes":[[["input269",0,0,{}]]]},{"name":"dense_Dense1610","class_name":"Dense","config":{"units":2,"activation":"relu","use_bias":true,"kernel_initializer":{"class_name":"VarianceScaling","config":{"scale":1,"mode":"fan_avg","distribution":"normal","seed":null}},"bias_initializer":{"class_name":"Zeros","config":{}},"kernel_regularizer":null,"bias_regularizer":null,"activity_regularizer":null,"kernel_constraint":null,"bias_constraint":null,"name":"dense_Dense1610","trainable":true},"inbound_nodes":[[["dense_Dense1609",0,0,{}]]]},{"name":"dense_Dense1611","class_name":"Dense","config":{"units":2,"activation":"relu","use_bias":true,"kernel_initializer":{"class_name":"VarianceScaling","config":{"scale":1,"mode":"fan_avg","distribution":"normal","seed":null}},"bias_initializer":{"class_name":"Zeros","config":{}},"kernel_regularizer":null,"bias_regularizer":null,"activity_regularizer":null,"kernel_constraint":null,"bias_constraint":null,"name":"dense_Dense1611","trainable":true},"inbound_nodes":[[["dense_Dense1610",0,0,{}]]]},{"name":"dense_Dense1612","class_name":"Dense","config":{"units":4,"activation":"relu","use_bias":true,"kernel_initializer":{"class_name":"VarianceScaling","config":{"scale":1,"mode":"fan_avg","distribution":"normal","seed":null}},"bias_initializer":{"class_name":"Zeros","config":{}},"kernel_regularizer":null,"bias_regularizer":null,"activity_regularizer":null,"kernel_constraint":null,"bias_constraint":null,"name":"dense_Dense1612","trainable":true},"inbound_nodes":[[["dense_Dense1611",0,0,{}]]]},{"name":"dense_Dense1613","class_name":"Dense","config":{"units":16,"activation":"relu","use_bias":true,"kernel_initializer":{"class_name":"VarianceScaling","config":{"scale":1,"mode":"fan_avg","distribution":"normal","seed":null}},"bias_initializer":{"class_name":"Zeros","config":{}},"kernel_regularizer":null,"bias_regularizer":null,"activity_regularizer":null,"kernel_constraint":null,"bias_constraint":null,"name":"dense_Dense1613","trainable":true},"inbound_nodes":[[["dense_Dense1612",0,0,{}]]]},{"name":"dense_Dense1614","class_name":"Dense","config":{"units":1,"activation":"sigmoid","use_bias":true,"kernel_initializer":{"class_name":"VarianceScaling","config":{"scale":1,"mode":"fan_avg","distribution":"normal","seed":null}},"bias_initializer":{"class_name":"Zeros","config":{}},"kernel_regularizer":null,"bias_regularizer":null,"activity_regularizer":null,"kernel_constraint":null,"bias_constraint":null,"name":"dense_Dense1614","trainable":true},"inbound_nodes":[[["dense_Dense1613",0,0,{}]]]}],"input_layers":[["input269",0,0]],"output_layers":[["dense_Dense1614",0,0]]},"keras_version":"tfjs-layers 3.9.0","backend":"tensor_flow.js"},"weightsManifest":[{"paths":["weights.bin"],"weights":[{"name":"dense_Dense1609/kernel","shape":[3,32],"dtype":"float32"},{"name":"dense_Dense1609/bias","shape":[32],"dtype":"float32"},{"name":"dense_Dense1610/kernel","shape":[32,2],"dtype":"float32"},{"name":"dense_Dense1610/bias","shape":[2],"dtype":"float32"},{"name":"dense_Dense1611/kernel","shape":[2,2],"dtype":"float32"},{"name":"dense_Dense1611/bias","shape":[2],"dtype":"float32"},{"name":"dense_Dense1612/kernel","shape":[2,4],"dtype":"float32"},{"name":"dense_Dense1612/bias","shape":[4],"dtype":"float32"},{"name":"dense_Dense1613/kernel","shape":[4,16],"dtype":"float32"},{"name":"dense_Dense1613/bias","shape":[16],"dtype":"float32"},{"name":"dense_Dense1614/kernel","shape":[16,1],"dtype":"float32"},{"name":"dense_Dense1614/bias","shape":[1],"dtype":"float32"}]}]}