{"modelTopology":{"class_name":"Model","config":{"name":"model321","layers":[{"name":"input321","class_name":"InputLayer","config":{"batch_input_shape":[null,3],"dtype":"float32","sparse":false,"name":"input321"},"inbound_nodes":[]},{"name":"dense_Dense1921","class_name":"Dense","config":{"units":4,"activation":"relu","use_bias":true,"kernel_initializer":{"class_name":"VarianceScaling","config":{"scale":1,"mode":"fan_avg","distribution":"normal","seed":null}},"bias_initializer":{"class_name":"Zeros","config":{}},"kernel_regularizer":null,"bias_regularizer":null,"activity_regularizer":null,"kernel_constraint":null,"bias_constraint":null,"name":"dense_Dense1921","trainable":true},"inbound_nodes":[[["input321",0,0,{}]]]},{"name":"dense_Dense1922","class_name":"Dense","config":{"units":2,"activation":"relu","use_bias":true,"kernel_initializer":{"class_name":"VarianceScaling","config":{"scale":1,"mode":"fan_avg","distribution":"normal","seed":null}},"bias_initializer":{"class_name":"Zeros","config":{}},"kernel_regularizer":null,"bias_regularizer":null,"activity_regularizer":null,"kernel_constraint":null,"bias_constraint":null,"name":"dense_Dense1922","trainable":true},"inbound_nodes":[[["dense_Dense1921",0,0,{}]]]},{"name":"dense_Dense1923","class_name":"Dense","config":{"units":4,"activation":"relu","use_bias":true,"kernel_initializer":{"class_name":"VarianceScaling","config":{"scale":1,"mode":"fan_avg","distribution":"normal","seed":null}},"bias_initializer":{"class_name":"Zeros","config":{}},"kernel_regularizer":null,"bias_regularizer":null,"activity_regularizer":null,"kernel_constraint":null,"bias_constraint":null,"name":"dense_Dense1923","trainable":true},"inbound_nodes":[[["dense_Dense1922",0,0,{}]]]},{"name":"dense_Dense1924","class_name":"Dense","config":{"units":32,"activation":"relu","use_bias":true,"kernel_initializer":{"class_name":"VarianceScaling","config":{"scale":1,"mode":"fan_avg","distribution":"normal","seed":null}},"bias_initializer":{"class_name":"Zeros","config":{}},"kernel_regularizer":null,"bias_regularizer":null,"activity_regularizer":null,"kernel_constraint":null,"bias_constraint":null,"name":"dense_Dense1924","trainable":true},"inbound_nodes":[[["dense_Dense1923",0,0,{}]]]},{"name":"dense_Dense1925","class_name":"Dense","config":{"units":4,"activation":"relu","use_bias":true,"kernel_initializer":{"class_name":"VarianceScaling","config":{"scale":1,"mode":"fan_avg","distribution":"normal","seed":null}},"bias_initializer":{"class_name":"Zeros","config":{}},"kernel_regularizer":null,"bias_regularizer":null,"activity_regularizer":null,"kernel_constraint":null,"bias_constraint":null,"name":"dense_Dense1925","trainable":true},"inbound_nodes":[[["dense_Dense1924",0,0,{}]]]},{"name":"dense_Dense1926","class_name":"Dense","config":{"units":1,"activation":"sigmoid","use_bias":true,"kernel_initializer":{"class_name":"VarianceScaling","config":{"scale":1,"mode":"fan_avg","distribution":"normal","seed":null}},"bias_initializer":{"class_name":"Zeros","config":{}},"kernel_regularizer":null,"bias_regularizer":null,"activity_regularizer":null,"kernel_constraint":null,"bias_constraint":null,"name":"dense_Dense1926","trainable":true},"inbound_nodes":[[["dense_Dense1925",0,0,{}]]]}],"input_layers":[["input321",0,0]],"output_layers":[["dense_Dense1926",0,0]]},"keras_version":"tfjs-layers 3.9.0","backend":"tensor_flow.js"},"weightsManifest":[{"paths":["weights.bin"],"weights":[{"name":"dense_Dense1921/kernel","shape":[3,4],"dtype":"float32"},{"name":"dense_Dense1921/bias","shape":[4],"dtype":"float32"},{"name":"dense_Dense1922/kernel","shape":[4,2],"dtype":"float32"},{"name":"dense_Dense1922/bias","shape":[2],"dtype":"float32"},{"name":"dense_Dense1923/kernel","shape":[2,4],"dtype":"float32"},{"name":"dense_Dense1923/bias","shape":[4],"dtype":"float32"},{"name":"dense_Dense1924/kernel","shape":[4,32],"dtype":"float32"},{"name":"dense_Dense1924/bias","shape":[32],"dtype":"float32"},{"name":"dense_Dense1925/kernel","shape":[32,4],"dtype":"float32"},{"name":"dense_Dense1925/bias","shape":[4],"dtype":"float32"},{"name":"dense_Dense1926/kernel","shape":[4,1],"dtype":"float32"},{"name":"dense_Dense1926/bias","shape":[1],"dtype":"float32"}]}]}