{"modelTopology":{"class_name":"Model","config":{"name":"model231","layers":[{"name":"input231","class_name":"InputLayer","config":{"batch_input_shape":[null,3],"dtype":"float32","sparse":false,"name":"input231"},"inbound_nodes":[]},{"name":"dense_Dense1381","class_name":"Dense","config":{"units":32,"activation":"relu","use_bias":true,"kernel_initializer":{"class_name":"VarianceScaling","config":{"scale":1,"mode":"fan_avg","distribution":"normal","seed":null}},"bias_initializer":{"class_name":"Zeros","config":{}},"kernel_regularizer":null,"bias_regularizer":null,"activity_regularizer":null,"kernel_constraint":null,"bias_constraint":null,"name":"dense_Dense1381","trainable":true},"inbound_nodes":[[["input231",0,0,{}]]]},{"name":"dense_Dense1382","class_name":"Dense","config":{"units":2,"activation":"relu","use_bias":true,"kernel_initializer":{"class_name":"VarianceScaling","config":{"scale":1,"mode":"fan_avg","distribution":"normal","seed":null}},"bias_initializer":{"class_name":"Zeros","config":{}},"kernel_regularizer":null,"bias_regularizer":null,"activity_regularizer":null,"kernel_constraint":null,"bias_constraint":null,"name":"dense_Dense1382","trainable":true},"inbound_nodes":[[["dense_Dense1381",0,0,{}]]]},{"name":"dense_Dense1383","class_name":"Dense","config":{"units":1,"activation":"relu","use_bias":true,"kernel_initializer":{"class_name":"VarianceScaling","config":{"scale":1,"mode":"fan_avg","distribution":"normal","seed":null}},"bias_initializer":{"class_name":"Zeros","config":{}},"kernel_regularizer":null,"bias_regularizer":null,"activity_regularizer":null,"kernel_constraint":null,"bias_constraint":null,"name":"dense_Dense1383","trainable":true},"inbound_nodes":[[["dense_Dense1382",0,0,{}]]]},{"name":"dense_Dense1384","class_name":"Dense","config":{"units":4,"activation":"relu","use_bias":true,"kernel_initializer":{"class_name":"VarianceScaling","config":{"scale":1,"mode":"fan_avg","distribution":"normal","seed":null}},"bias_initializer":{"class_name":"Zeros","config":{}},"kernel_regularizer":null,"bias_regularizer":null,"activity_regularizer":null,"kernel_constraint":null,"bias_constraint":null,"name":"dense_Dense1384","trainable":true},"inbound_nodes":[[["dense_Dense1383",0,0,{}]]]},{"name":"dense_Dense1385","class_name":"Dense","config":{"units":4,"activation":"relu","use_bias":true,"kernel_initializer":{"class_name":"VarianceScaling","config":{"scale":1,"mode":"fan_avg","distribution":"normal","seed":null}},"bias_initializer":{"class_name":"Zeros","config":{}},"kernel_regularizer":null,"bias_regularizer":null,"activity_regularizer":null,"kernel_constraint":null,"bias_constraint":null,"name":"dense_Dense1385","trainable":true},"inbound_nodes":[[["dense_Dense1384",0,0,{}]]]},{"name":"dense_Dense1386","class_name":"Dense","config":{"units":1,"activation":"sigmoid","use_bias":true,"kernel_initializer":{"class_name":"VarianceScaling","config":{"scale":1,"mode":"fan_avg","distribution":"normal","seed":null}},"bias_initializer":{"class_name":"Zeros","config":{}},"kernel_regularizer":null,"bias_regularizer":null,"activity_regularizer":null,"kernel_constraint":null,"bias_constraint":null,"name":"dense_Dense1386","trainable":true},"inbound_nodes":[[["dense_Dense1385",0,0,{}]]]}],"input_layers":[["input231",0,0]],"output_layers":[["dense_Dense1386",0,0]]},"keras_version":"tfjs-layers 3.9.0","backend":"tensor_flow.js"},"weightsManifest":[{"paths":["weights.bin"],"weights":[{"name":"dense_Dense1381/kernel","shape":[3,32],"dtype":"float32"},{"name":"dense_Dense1381/bias","shape":[32],"dtype":"float32"},{"name":"dense_Dense1382/kernel","shape":[32,2],"dtype":"float32"},{"name":"dense_Dense1382/bias","shape":[2],"dtype":"float32"},{"name":"dense_Dense1383/kernel","shape":[2,1],"dtype":"float32"},{"name":"dense_Dense1383/bias","shape":[1],"dtype":"float32"},{"name":"dense_Dense1384/kernel","shape":[1,4],"dtype":"float32"},{"name":"dense_Dense1384/bias","shape":[4],"dtype":"float32"},{"name":"dense_Dense1385/kernel","shape":[4,4],"dtype":"float32"},{"name":"dense_Dense1385/bias","shape":[4],"dtype":"float32"},{"name":"dense_Dense1386/kernel","shape":[4,1],"dtype":"float32"},{"name":"dense_Dense1386/bias","shape":[1],"dtype":"float32"}]}]}