{"modelTopology":{"class_name":"Model","config":{"name":"model1036","layers":[{"name":"input1036","class_name":"InputLayer","config":{"batch_input_shape":[null,3],"dtype":"float32","sparse":false,"name":"input1036"},"inbound_nodes":[]},{"name":"dense_Dense5176","class_name":"Dense","config":{"units":16,"activation":"relu","use_bias":true,"kernel_initializer":{"class_name":"VarianceScaling","config":{"scale":1,"mode":"fan_avg","distribution":"normal","seed":null}},"bias_initializer":{"class_name":"Zeros","config":{}},"kernel_regularizer":null,"bias_regularizer":null,"activity_regularizer":null,"kernel_constraint":null,"bias_constraint":null,"name":"dense_Dense5176","trainable":true},"inbound_nodes":[[["input1036",0,0,{}]]]},{"name":"dense_Dense5177","class_name":"Dense","config":{"units":16,"activation":"relu","use_bias":true,"kernel_initializer":{"class_name":"VarianceScaling","config":{"scale":1,"mode":"fan_avg","distribution":"normal","seed":null}},"bias_initializer":{"class_name":"Zeros","config":{}},"kernel_regularizer":null,"bias_regularizer":null,"activity_regularizer":null,"kernel_constraint":null,"bias_constraint":null,"name":"dense_Dense5177","trainable":true},"inbound_nodes":[[["dense_Dense5176",0,0,{}]]]},{"name":"dense_Dense5178","class_name":"Dense","config":{"units":16,"activation":"relu","use_bias":true,"kernel_initializer":{"class_name":"VarianceScaling","config":{"scale":1,"mode":"fan_avg","distribution":"normal","seed":null}},"bias_initializer":{"class_name":"Zeros","config":{}},"kernel_regularizer":null,"bias_regularizer":null,"activity_regularizer":null,"kernel_constraint":null,"bias_constraint":null,"name":"dense_Dense5178","trainable":true},"inbound_nodes":[[["dense_Dense5177",0,0,{}]]]},{"name":"dense_Dense5179","class_name":"Dense","config":{"units":8,"activation":"relu","use_bias":true,"kernel_initializer":{"class_name":"VarianceScaling","config":{"scale":1,"mode":"fan_avg","distribution":"normal","seed":null}},"bias_initializer":{"class_name":"Zeros","config":{}},"kernel_regularizer":null,"bias_regularizer":null,"activity_regularizer":null,"kernel_constraint":null,"bias_constraint":null,"name":"dense_Dense5179","trainable":true},"inbound_nodes":[[["dense_Dense5178",0,0,{}]]]},{"name":"dense_Dense5180","class_name":"Dense","config":{"units":1,"activation":"sigmoid","use_bias":true,"kernel_initializer":{"class_name":"VarianceScaling","config":{"scale":1,"mode":"fan_avg","distribution":"normal","seed":null}},"bias_initializer":{"class_name":"Zeros","config":{}},"kernel_regularizer":null,"bias_regularizer":null,"activity_regularizer":null,"kernel_constraint":null,"bias_constraint":null,"name":"dense_Dense5180","trainable":true},"inbound_nodes":[[["dense_Dense5179",0,0,{}]]]}],"input_layers":[["input1036",0,0]],"output_layers":[["dense_Dense5180",0,0]]},"keras_version":"tfjs-layers 3.9.0","backend":"tensor_flow.js"},"weightsManifest":[{"paths":["weights.bin"],"weights":[{"name":"dense_Dense5176/kernel","shape":[3,16],"dtype":"float32"},{"name":"dense_Dense5176/bias","shape":[16],"dtype":"float32"},{"name":"dense_Dense5177/kernel","shape":[16,16],"dtype":"float32"},{"name":"dense_Dense5177/bias","shape":[16],"dtype":"float32"},{"name":"dense_Dense5178/kernel","shape":[16,16],"dtype":"float32"},{"name":"dense_Dense5178/bias","shape":[16],"dtype":"float32"},{"name":"dense_Dense5179/kernel","shape":[16,8],"dtype":"float32"},{"name":"dense_Dense5179/bias","shape":[8],"dtype":"float32"},{"name":"dense_Dense5180/kernel","shape":[8,1],"dtype":"float32"},{"name":"dense_Dense5180/bias","shape":[1],"dtype":"float32"}]}]}