{"modelTopology":{"class_name":"Model","config":{"name":"model930","layers":[{"name":"input930","class_name":"InputLayer","config":{"batch_input_shape":[null,3],"dtype":"float32","sparse":false,"name":"input930"},"inbound_nodes":[]},{"name":"dense_Dense5575","class_name":"Dense","config":{"units":8,"activation":"relu","use_bias":true,"kernel_initializer":{"class_name":"VarianceScaling","config":{"scale":1,"mode":"fan_avg","distribution":"normal","seed":null}},"bias_initializer":{"class_name":"Zeros","config":{}},"kernel_regularizer":null,"bias_regularizer":null,"activity_regularizer":null,"kernel_constraint":null,"bias_constraint":null,"name":"dense_Dense5575","trainable":true},"inbound_nodes":[[["input930",0,0,{}]]]},{"name":"dense_Dense5576","class_name":"Dense","config":{"units":16,"activation":"relu","use_bias":true,"kernel_initializer":{"class_name":"VarianceScaling","config":{"scale":1,"mode":"fan_avg","distribution":"normal","seed":null}},"bias_initializer":{"class_name":"Zeros","config":{}},"kernel_regularizer":null,"bias_regularizer":null,"activity_regularizer":null,"kernel_constraint":null,"bias_constraint":null,"name":"dense_Dense5576","trainable":true},"inbound_nodes":[[["dense_Dense5575",0,0,{}]]]},{"name":"dense_Dense5577","class_name":"Dense","config":{"units":2,"activation":"relu","use_bias":true,"kernel_initializer":{"class_name":"VarianceScaling","config":{"scale":1,"mode":"fan_avg","distribution":"normal","seed":null}},"bias_initializer":{"class_name":"Zeros","config":{}},"kernel_regularizer":null,"bias_regularizer":null,"activity_regularizer":null,"kernel_constraint":null,"bias_constraint":null,"name":"dense_Dense5577","trainable":true},"inbound_nodes":[[["dense_Dense5576",0,0,{}]]]},{"name":"dense_Dense5578","class_name":"Dense","config":{"units":16,"activation":"relu","use_bias":true,"kernel_initializer":{"class_name":"VarianceScaling","config":{"scale":1,"mode":"fan_avg","distribution":"normal","seed":null}},"bias_initializer":{"class_name":"Zeros","config":{}},"kernel_regularizer":null,"bias_regularizer":null,"activity_regularizer":null,"kernel_constraint":null,"bias_constraint":null,"name":"dense_Dense5578","trainable":true},"inbound_nodes":[[["dense_Dense5577",0,0,{}]]]},{"name":"dense_Dense5579","class_name":"Dense","config":{"units":32,"activation":"relu","use_bias":true,"kernel_initializer":{"class_name":"VarianceScaling","config":{"scale":1,"mode":"fan_avg","distribution":"normal","seed":null}},"bias_initializer":{"class_name":"Zeros","config":{}},"kernel_regularizer":null,"bias_regularizer":null,"activity_regularizer":null,"kernel_constraint":null,"bias_constraint":null,"name":"dense_Dense5579","trainable":true},"inbound_nodes":[[["dense_Dense5578",0,0,{}]]]},{"name":"dense_Dense5580","class_name":"Dense","config":{"units":1,"activation":"sigmoid","use_bias":true,"kernel_initializer":{"class_name":"VarianceScaling","config":{"scale":1,"mode":"fan_avg","distribution":"normal","seed":null}},"bias_initializer":{"class_name":"Zeros","config":{}},"kernel_regularizer":null,"bias_regularizer":null,"activity_regularizer":null,"kernel_constraint":null,"bias_constraint":null,"name":"dense_Dense5580","trainable":true},"inbound_nodes":[[["dense_Dense5579",0,0,{}]]]}],"input_layers":[["input930",0,0]],"output_layers":[["dense_Dense5580",0,0]]},"keras_version":"tfjs-layers 3.9.0","backend":"tensor_flow.js"},"weightsManifest":[{"paths":["weights.bin"],"weights":[{"name":"dense_Dense5575/kernel","shape":[3,8],"dtype":"float32"},{"name":"dense_Dense5575/bias","shape":[8],"dtype":"float32"},{"name":"dense_Dense5576/kernel","shape":[8,16],"dtype":"float32"},{"name":"dense_Dense5576/bias","shape":[16],"dtype":"float32"},{"name":"dense_Dense5577/kernel","shape":[16,2],"dtype":"float32"},{"name":"dense_Dense5577/bias","shape":[2],"dtype":"float32"},{"name":"dense_Dense5578/kernel","shape":[2,16],"dtype":"float32"},{"name":"dense_Dense5578/bias","shape":[16],"dtype":"float32"},{"name":"dense_Dense5579/kernel","shape":[16,32],"dtype":"float32"},{"name":"dense_Dense5579/bias","shape":[32],"dtype":"float32"},{"name":"dense_Dense5580/kernel","shape":[32,1],"dtype":"float32"},{"name":"dense_Dense5580/bias","shape":[1],"dtype":"float32"}]}]}