{"modelTopology":{"class_name":"Model","config":{"name":"model220","layers":[{"name":"input220","class_name":"InputLayer","config":{"batch_input_shape":[null,3],"dtype":"float32","sparse":false,"name":"input220"},"inbound_nodes":[]},{"name":"dense_Dense1315","class_name":"Dense","config":{"units":2,"activation":"relu","use_bias":true,"kernel_initializer":{"class_name":"VarianceScaling","config":{"scale":1,"mode":"fan_avg","distribution":"normal","seed":null}},"bias_initializer":{"class_name":"Zeros","config":{}},"kernel_regularizer":null,"bias_regularizer":null,"activity_regularizer":null,"kernel_constraint":null,"bias_constraint":null,"name":"dense_Dense1315","trainable":true},"inbound_nodes":[[["input220",0,0,{}]]]},{"name":"dense_Dense1316","class_name":"Dense","config":{"units":2,"activation":"relu","use_bias":true,"kernel_initializer":{"class_name":"VarianceScaling","config":{"scale":1,"mode":"fan_avg","distribution":"normal","seed":null}},"bias_initializer":{"class_name":"Zeros","config":{}},"kernel_regularizer":null,"bias_regularizer":null,"activity_regularizer":null,"kernel_constraint":null,"bias_constraint":null,"name":"dense_Dense1316","trainable":true},"inbound_nodes":[[["dense_Dense1315",0,0,{}]]]},{"name":"dense_Dense1317","class_name":"Dense","config":{"units":1,"activation":"relu","use_bias":true,"kernel_initializer":{"class_name":"VarianceScaling","config":{"scale":1,"mode":"fan_avg","distribution":"normal","seed":null}},"bias_initializer":{"class_name":"Zeros","config":{}},"kernel_regularizer":null,"bias_regularizer":null,"activity_regularizer":null,"kernel_constraint":null,"bias_constraint":null,"name":"dense_Dense1317","trainable":true},"inbound_nodes":[[["dense_Dense1316",0,0,{}]]]},{"name":"dense_Dense1318","class_name":"Dense","config":{"units":1,"activation":"relu","use_bias":true,"kernel_initializer":{"class_name":"VarianceScaling","config":{"scale":1,"mode":"fan_avg","distribution":"normal","seed":null}},"bias_initializer":{"class_name":"Zeros","config":{}},"kernel_regularizer":null,"bias_regularizer":null,"activity_regularizer":null,"kernel_constraint":null,"bias_constraint":null,"name":"dense_Dense1318","trainable":true},"inbound_nodes":[[["dense_Dense1317",0,0,{}]]]},{"name":"dense_Dense1319","class_name":"Dense","config":{"units":8,"activation":"relu","use_bias":true,"kernel_initializer":{"class_name":"VarianceScaling","config":{"scale":1,"mode":"fan_avg","distribution":"normal","seed":null}},"bias_initializer":{"class_name":"Zeros","config":{}},"kernel_regularizer":null,"bias_regularizer":null,"activity_regularizer":null,"kernel_constraint":null,"bias_constraint":null,"name":"dense_Dense1319","trainable":true},"inbound_nodes":[[["dense_Dense1318",0,0,{}]]]},{"name":"dense_Dense1320","class_name":"Dense","config":{"units":1,"activation":"sigmoid","use_bias":true,"kernel_initializer":{"class_name":"VarianceScaling","config":{"scale":1,"mode":"fan_avg","distribution":"normal","seed":null}},"bias_initializer":{"class_name":"Zeros","config":{}},"kernel_regularizer":null,"bias_regularizer":null,"activity_regularizer":null,"kernel_constraint":null,"bias_constraint":null,"name":"dense_Dense1320","trainable":true},"inbound_nodes":[[["dense_Dense1319",0,0,{}]]]}],"input_layers":[["input220",0,0]],"output_layers":[["dense_Dense1320",0,0]]},"keras_version":"tfjs-layers 3.9.0","backend":"tensor_flow.js"},"weightsManifest":[{"paths":["weights.bin"],"weights":[{"name":"dense_Dense1315/kernel","shape":[3,2],"dtype":"float32"},{"name":"dense_Dense1315/bias","shape":[2],"dtype":"float32"},{"name":"dense_Dense1316/kernel","shape":[2,2],"dtype":"float32"},{"name":"dense_Dense1316/bias","shape":[2],"dtype":"float32"},{"name":"dense_Dense1317/kernel","shape":[2,1],"dtype":"float32"},{"name":"dense_Dense1317/bias","shape":[1],"dtype":"float32"},{"name":"dense_Dense1318/kernel","shape":[1,1],"dtype":"float32"},{"name":"dense_Dense1318/bias","shape":[1],"dtype":"float32"},{"name":"dense_Dense1319/kernel","shape":[1,8],"dtype":"float32"},{"name":"dense_Dense1319/bias","shape":[8],"dtype":"float32"},{"name":"dense_Dense1320/kernel","shape":[8,1],"dtype":"float32"},{"name":"dense_Dense1320/bias","shape":[1],"dtype":"float32"}]}]}