{"modelTopology":{"class_name":"Model","config":{"name":"model66","layers":[{"name":"input66","class_name":"InputLayer","config":{"batch_input_shape":[null,3],"dtype":"float32","sparse":false,"name":"input66"},"inbound_nodes":[]},{"name":"dense_Dense391","class_name":"Dense","config":{"units":16,"activation":"relu","use_bias":true,"kernel_initializer":{"class_name":"VarianceScaling","config":{"scale":1,"mode":"fan_avg","distribution":"normal","seed":null}},"bias_initializer":{"class_name":"Zeros","config":{}},"kernel_regularizer":null,"bias_regularizer":null,"activity_regularizer":null,"kernel_constraint":null,"bias_constraint":null,"name":"dense_Dense391","trainable":true},"inbound_nodes":[[["input66",0,0,{}]]]},{"name":"dense_Dense392","class_name":"Dense","config":{"units":1,"activation":"relu","use_bias":true,"kernel_initializer":{"class_name":"VarianceScaling","config":{"scale":1,"mode":"fan_avg","distribution":"normal","seed":null}},"bias_initializer":{"class_name":"Zeros","config":{}},"kernel_regularizer":null,"bias_regularizer":null,"activity_regularizer":null,"kernel_constraint":null,"bias_constraint":null,"name":"dense_Dense392","trainable":true},"inbound_nodes":[[["dense_Dense391",0,0,{}]]]},{"name":"dense_Dense393","class_name":"Dense","config":{"units":2,"activation":"relu","use_bias":true,"kernel_initializer":{"class_name":"VarianceScaling","config":{"scale":1,"mode":"fan_avg","distribution":"normal","seed":null}},"bias_initializer":{"class_name":"Zeros","config":{}},"kernel_regularizer":null,"bias_regularizer":null,"activity_regularizer":null,"kernel_constraint":null,"bias_constraint":null,"name":"dense_Dense393","trainable":true},"inbound_nodes":[[["dense_Dense392",0,0,{}]]]},{"name":"dense_Dense394","class_name":"Dense","config":{"units":16,"activation":"relu","use_bias":true,"kernel_initializer":{"class_name":"VarianceScaling","config":{"scale":1,"mode":"fan_avg","distribution":"normal","seed":null}},"bias_initializer":{"class_name":"Zeros","config":{}},"kernel_regularizer":null,"bias_regularizer":null,"activity_regularizer":null,"kernel_constraint":null,"bias_constraint":null,"name":"dense_Dense394","trainable":true},"inbound_nodes":[[["dense_Dense393",0,0,{}]]]},{"name":"dense_Dense395","class_name":"Dense","config":{"units":32,"activation":"relu","use_bias":true,"kernel_initializer":{"class_name":"VarianceScaling","config":{"scale":1,"mode":"fan_avg","distribution":"normal","seed":null}},"bias_initializer":{"class_name":"Zeros","config":{}},"kernel_regularizer":null,"bias_regularizer":null,"activity_regularizer":null,"kernel_constraint":null,"bias_constraint":null,"name":"dense_Dense395","trainable":true},"inbound_nodes":[[["dense_Dense394",0,0,{}]]]},{"name":"dense_Dense396","class_name":"Dense","config":{"units":1,"activation":"sigmoid","use_bias":true,"kernel_initializer":{"class_name":"VarianceScaling","config":{"scale":1,"mode":"fan_avg","distribution":"normal","seed":null}},"bias_initializer":{"class_name":"Zeros","config":{}},"kernel_regularizer":null,"bias_regularizer":null,"activity_regularizer":null,"kernel_constraint":null,"bias_constraint":null,"name":"dense_Dense396","trainable":true},"inbound_nodes":[[["dense_Dense395",0,0,{}]]]}],"input_layers":[["input66",0,0]],"output_layers":[["dense_Dense396",0,0]]},"keras_version":"tfjs-layers 3.9.0","backend":"tensor_flow.js"},"weightsManifest":[{"paths":["weights.bin"],"weights":[{"name":"dense_Dense391/kernel","shape":[3,16],"dtype":"float32"},{"name":"dense_Dense391/bias","shape":[16],"dtype":"float32"},{"name":"dense_Dense392/kernel","shape":[16,1],"dtype":"float32"},{"name":"dense_Dense392/bias","shape":[1],"dtype":"float32"},{"name":"dense_Dense393/kernel","shape":[1,2],"dtype":"float32"},{"name":"dense_Dense393/bias","shape":[2],"dtype":"float32"},{"name":"dense_Dense394/kernel","shape":[2,16],"dtype":"float32"},{"name":"dense_Dense394/bias","shape":[16],"dtype":"float32"},{"name":"dense_Dense395/kernel","shape":[16,32],"dtype":"float32"},{"name":"dense_Dense395/bias","shape":[32],"dtype":"float32"},{"name":"dense_Dense396/kernel","shape":[32,1],"dtype":"float32"},{"name":"dense_Dense396/bias","shape":[1],"dtype":"float32"}]}]}