{"modelTopology":{"class_name":"Model","config":{"name":"model214","layers":[{"name":"input214","class_name":"InputLayer","config":{"batch_input_shape":[null,3],"dtype":"float32","sparse":false,"name":"input214"},"inbound_nodes":[]},{"name":"dense_Dense1279","class_name":"Dense","config":{"units":8,"activation":"relu","use_bias":true,"kernel_initializer":{"class_name":"VarianceScaling","config":{"scale":1,"mode":"fan_avg","distribution":"normal","seed":null}},"bias_initializer":{"class_name":"Zeros","config":{}},"kernel_regularizer":null,"bias_regularizer":null,"activity_regularizer":null,"kernel_constraint":null,"bias_constraint":null,"name":"dense_Dense1279","trainable":true},"inbound_nodes":[[["input214",0,0,{}]]]},{"name":"dense_Dense1280","class_name":"Dense","config":{"units":1,"activation":"relu","use_bias":true,"kernel_initializer":{"class_name":"VarianceScaling","config":{"scale":1,"mode":"fan_avg","distribution":"normal","seed":null}},"bias_initializer":{"class_name":"Zeros","config":{}},"kernel_regularizer":null,"bias_regularizer":null,"activity_regularizer":null,"kernel_constraint":null,"bias_constraint":null,"name":"dense_Dense1280","trainable":true},"inbound_nodes":[[["dense_Dense1279",0,0,{}]]]},{"name":"dense_Dense1281","class_name":"Dense","config":{"units":32,"activation":"relu","use_bias":true,"kernel_initializer":{"class_name":"VarianceScaling","config":{"scale":1,"mode":"fan_avg","distribution":"normal","seed":null}},"bias_initializer":{"class_name":"Zeros","config":{}},"kernel_regularizer":null,"bias_regularizer":null,"activity_regularizer":null,"kernel_constraint":null,"bias_constraint":null,"name":"dense_Dense1281","trainable":true},"inbound_nodes":[[["dense_Dense1280",0,0,{}]]]},{"name":"dense_Dense1282","class_name":"Dense","config":{"units":32,"activation":"relu","use_bias":true,"kernel_initializer":{"class_name":"VarianceScaling","config":{"scale":1,"mode":"fan_avg","distribution":"normal","seed":null}},"bias_initializer":{"class_name":"Zeros","config":{}},"kernel_regularizer":null,"bias_regularizer":null,"activity_regularizer":null,"kernel_constraint":null,"bias_constraint":null,"name":"dense_Dense1282","trainable":true},"inbound_nodes":[[["dense_Dense1281",0,0,{}]]]},{"name":"dense_Dense1283","class_name":"Dense","config":{"units":8,"activation":"relu","use_bias":true,"kernel_initializer":{"class_name":"VarianceScaling","config":{"scale":1,"mode":"fan_avg","distribution":"normal","seed":null}},"bias_initializer":{"class_name":"Zeros","config":{}},"kernel_regularizer":null,"bias_regularizer":null,"activity_regularizer":null,"kernel_constraint":null,"bias_constraint":null,"name":"dense_Dense1283","trainable":true},"inbound_nodes":[[["dense_Dense1282",0,0,{}]]]},{"name":"dense_Dense1284","class_name":"Dense","config":{"units":1,"activation":"sigmoid","use_bias":true,"kernel_initializer":{"class_name":"VarianceScaling","config":{"scale":1,"mode":"fan_avg","distribution":"normal","seed":null}},"bias_initializer":{"class_name":"Zeros","config":{}},"kernel_regularizer":null,"bias_regularizer":null,"activity_regularizer":null,"kernel_constraint":null,"bias_constraint":null,"name":"dense_Dense1284","trainable":true},"inbound_nodes":[[["dense_Dense1283",0,0,{}]]]}],"input_layers":[["input214",0,0]],"output_layers":[["dense_Dense1284",0,0]]},"keras_version":"tfjs-layers 3.9.0","backend":"tensor_flow.js"},"weightsManifest":[{"paths":["weights.bin"],"weights":[{"name":"dense_Dense1279/kernel","shape":[3,8],"dtype":"float32"},{"name":"dense_Dense1279/bias","shape":[8],"dtype":"float32"},{"name":"dense_Dense1280/kernel","shape":[8,1],"dtype":"float32"},{"name":"dense_Dense1280/bias","shape":[1],"dtype":"float32"},{"name":"dense_Dense1281/kernel","shape":[1,32],"dtype":"float32"},{"name":"dense_Dense1281/bias","shape":[32],"dtype":"float32"},{"name":"dense_Dense1282/kernel","shape":[32,32],"dtype":"float32"},{"name":"dense_Dense1282/bias","shape":[32],"dtype":"float32"},{"name":"dense_Dense1283/kernel","shape":[32,8],"dtype":"float32"},{"name":"dense_Dense1283/bias","shape":[8],"dtype":"float32"},{"name":"dense_Dense1284/kernel","shape":[8,1],"dtype":"float32"},{"name":"dense_Dense1284/bias","shape":[1],"dtype":"float32"}]}]}