{"modelTopology":{"class_name":"Model","config":{"name":"model695","layers":[{"name":"input695","class_name":"InputLayer","config":{"batch_input_shape":[null,3],"dtype":"float32","sparse":false,"name":"input695"},"inbound_nodes":[]},{"name":"dense_Dense4165","class_name":"Dense","config":{"units":4,"activation":"relu","use_bias":true,"kernel_initializer":{"class_name":"VarianceScaling","config":{"scale":1,"mode":"fan_avg","distribution":"normal","seed":null}},"bias_initializer":{"class_name":"Zeros","config":{}},"kernel_regularizer":null,"bias_regularizer":null,"activity_regularizer":null,"kernel_constraint":null,"bias_constraint":null,"name":"dense_Dense4165","trainable":true},"inbound_nodes":[[["input695",0,0,{}]]]},{"name":"dense_Dense4166","class_name":"Dense","config":{"units":8,"activation":"relu","use_bias":true,"kernel_initializer":{"class_name":"VarianceScaling","config":{"scale":1,"mode":"fan_avg","distribution":"normal","seed":null}},"bias_initializer":{"class_name":"Zeros","config":{}},"kernel_regularizer":null,"bias_regularizer":null,"activity_regularizer":null,"kernel_constraint":null,"bias_constraint":null,"name":"dense_Dense4166","trainable":true},"inbound_nodes":[[["dense_Dense4165",0,0,{}]]]},{"name":"dense_Dense4167","class_name":"Dense","config":{"units":2,"activation":"relu","use_bias":true,"kernel_initializer":{"class_name":"VarianceScaling","config":{"scale":1,"mode":"fan_avg","distribution":"normal","seed":null}},"bias_initializer":{"class_name":"Zeros","config":{}},"kernel_regularizer":null,"bias_regularizer":null,"activity_regularizer":null,"kernel_constraint":null,"bias_constraint":null,"name":"dense_Dense4167","trainable":true},"inbound_nodes":[[["dense_Dense4166",0,0,{}]]]},{"name":"dense_Dense4168","class_name":"Dense","config":{"units":2,"activation":"relu","use_bias":true,"kernel_initializer":{"class_name":"VarianceScaling","config":{"scale":1,"mode":"fan_avg","distribution":"normal","seed":null}},"bias_initializer":{"class_name":"Zeros","config":{}},"kernel_regularizer":null,"bias_regularizer":null,"activity_regularizer":null,"kernel_constraint":null,"bias_constraint":null,"name":"dense_Dense4168","trainable":true},"inbound_nodes":[[["dense_Dense4167",0,0,{}]]]},{"name":"dense_Dense4169","class_name":"Dense","config":{"units":16,"activation":"relu","use_bias":true,"kernel_initializer":{"class_name":"VarianceScaling","config":{"scale":1,"mode":"fan_avg","distribution":"normal","seed":null}},"bias_initializer":{"class_name":"Zeros","config":{}},"kernel_regularizer":null,"bias_regularizer":null,"activity_regularizer":null,"kernel_constraint":null,"bias_constraint":null,"name":"dense_Dense4169","trainable":true},"inbound_nodes":[[["dense_Dense4168",0,0,{}]]]},{"name":"dense_Dense4170","class_name":"Dense","config":{"units":1,"activation":"sigmoid","use_bias":true,"kernel_initializer":{"class_name":"VarianceScaling","config":{"scale":1,"mode":"fan_avg","distribution":"normal","seed":null}},"bias_initializer":{"class_name":"Zeros","config":{}},"kernel_regularizer":null,"bias_regularizer":null,"activity_regularizer":null,"kernel_constraint":null,"bias_constraint":null,"name":"dense_Dense4170","trainable":true},"inbound_nodes":[[["dense_Dense4169",0,0,{}]]]}],"input_layers":[["input695",0,0]],"output_layers":[["dense_Dense4170",0,0]]},"keras_version":"tfjs-layers 3.9.0","backend":"tensor_flow.js"},"weightsManifest":[{"paths":["weights.bin"],"weights":[{"name":"dense_Dense4165/kernel","shape":[3,4],"dtype":"float32"},{"name":"dense_Dense4165/bias","shape":[4],"dtype":"float32"},{"name":"dense_Dense4166/kernel","shape":[4,8],"dtype":"float32"},{"name":"dense_Dense4166/bias","shape":[8],"dtype":"float32"},{"name":"dense_Dense4167/kernel","shape":[8,2],"dtype":"float32"},{"name":"dense_Dense4167/bias","shape":[2],"dtype":"float32"},{"name":"dense_Dense4168/kernel","shape":[2,2],"dtype":"float32"},{"name":"dense_Dense4168/bias","shape":[2],"dtype":"float32"},{"name":"dense_Dense4169/kernel","shape":[2,16],"dtype":"float32"},{"name":"dense_Dense4169/bias","shape":[16],"dtype":"float32"},{"name":"dense_Dense4170/kernel","shape":[16,1],"dtype":"float32"},{"name":"dense_Dense4170/bias","shape":[1],"dtype":"float32"}]}]}