{"modelTopology":{"class_name":"Model","config":{"name":"model542","layers":[{"name":"input542","class_name":"InputLayer","config":{"batch_input_shape":[null,3],"dtype":"float32","sparse":false,"name":"input542"},"inbound_nodes":[]},{"name":"dense_Dense2706","class_name":"Dense","config":{"units":4,"activation":"relu","use_bias":true,"kernel_initializer":{"class_name":"VarianceScaling","config":{"scale":1,"mode":"fan_avg","distribution":"normal","seed":null}},"bias_initializer":{"class_name":"Zeros","config":{}},"kernel_regularizer":null,"bias_regularizer":null,"activity_regularizer":null,"kernel_constraint":null,"bias_constraint":null,"name":"dense_Dense2706","trainable":true},"inbound_nodes":[[["input542",0,0,{}]]]},{"name":"dense_Dense2707","class_name":"Dense","config":{"units":8,"activation":"relu","use_bias":true,"kernel_initializer":{"class_name":"VarianceScaling","config":{"scale":1,"mode":"fan_avg","distribution":"normal","seed":null}},"bias_initializer":{"class_name":"Zeros","config":{}},"kernel_regularizer":null,"bias_regularizer":null,"activity_regularizer":null,"kernel_constraint":null,"bias_constraint":null,"name":"dense_Dense2707","trainable":true},"inbound_nodes":[[["dense_Dense2706",0,0,{}]]]},{"name":"dense_Dense2708","class_name":"Dense","config":{"units":1,"activation":"relu","use_bias":true,"kernel_initializer":{"class_name":"VarianceScaling","config":{"scale":1,"mode":"fan_avg","distribution":"normal","seed":null}},"bias_initializer":{"class_name":"Zeros","config":{}},"kernel_regularizer":null,"bias_regularizer":null,"activity_regularizer":null,"kernel_constraint":null,"bias_constraint":null,"name":"dense_Dense2708","trainable":true},"inbound_nodes":[[["dense_Dense2707",0,0,{}]]]},{"name":"dense_Dense2709","class_name":"Dense","config":{"units":2,"activation":"relu","use_bias":true,"kernel_initializer":{"class_name":"VarianceScaling","config":{"scale":1,"mode":"fan_avg","distribution":"normal","seed":null}},"bias_initializer":{"class_name":"Zeros","config":{}},"kernel_regularizer":null,"bias_regularizer":null,"activity_regularizer":null,"kernel_constraint":null,"bias_constraint":null,"name":"dense_Dense2709","trainable":true},"inbound_nodes":[[["dense_Dense2708",0,0,{}]]]},{"name":"dense_Dense2710","class_name":"Dense","config":{"units":1,"activation":"sigmoid","use_bias":true,"kernel_initializer":{"class_name":"VarianceScaling","config":{"scale":1,"mode":"fan_avg","distribution":"normal","seed":null}},"bias_initializer":{"class_name":"Zeros","config":{}},"kernel_regularizer":null,"bias_regularizer":null,"activity_regularizer":null,"kernel_constraint":null,"bias_constraint":null,"name":"dense_Dense2710","trainable":true},"inbound_nodes":[[["dense_Dense2709",0,0,{}]]]}],"input_layers":[["input542",0,0]],"output_layers":[["dense_Dense2710",0,0]]},"keras_version":"tfjs-layers 3.9.0","backend":"tensor_flow.js"},"weightsManifest":[{"paths":["weights.bin"],"weights":[{"name":"dense_Dense2706/kernel","shape":[3,4],"dtype":"float32"},{"name":"dense_Dense2706/bias","shape":[4],"dtype":"float32"},{"name":"dense_Dense2707/kernel","shape":[4,8],"dtype":"float32"},{"name":"dense_Dense2707/bias","shape":[8],"dtype":"float32"},{"name":"dense_Dense2708/kernel","shape":[8,1],"dtype":"float32"},{"name":"dense_Dense2708/bias","shape":[1],"dtype":"float32"},{"name":"dense_Dense2709/kernel","shape":[1,2],"dtype":"float32"},{"name":"dense_Dense2709/bias","shape":[2],"dtype":"float32"},{"name":"dense_Dense2710/kernel","shape":[2,1],"dtype":"float32"},{"name":"dense_Dense2710/bias","shape":[1],"dtype":"float32"}]}]}