{"modelTopology":{"class_name":"Model","config":{"name":"model574","layers":[{"name":"input574","class_name":"InputLayer","config":{"batch_input_shape":[null,3],"dtype":"float32","sparse":false,"name":"input574"},"inbound_nodes":[]},{"name":"dense_Dense3439","class_name":"Dense","config":{"units":4,"activation":"relu","use_bias":true,"kernel_initializer":{"class_name":"VarianceScaling","config":{"scale":1,"mode":"fan_avg","distribution":"normal","seed":null}},"bias_initializer":{"class_name":"Zeros","config":{}},"kernel_regularizer":null,"bias_regularizer":null,"activity_regularizer":null,"kernel_constraint":null,"bias_constraint":null,"name":"dense_Dense3439","trainable":true},"inbound_nodes":[[["input574",0,0,{}]]]},{"name":"dense_Dense3440","class_name":"Dense","config":{"units":4,"activation":"relu","use_bias":true,"kernel_initializer":{"class_name":"VarianceScaling","config":{"scale":1,"mode":"fan_avg","distribution":"normal","seed":null}},"bias_initializer":{"class_name":"Zeros","config":{}},"kernel_regularizer":null,"bias_regularizer":null,"activity_regularizer":null,"kernel_constraint":null,"bias_constraint":null,"name":"dense_Dense3440","trainable":true},"inbound_nodes":[[["dense_Dense3439",0,0,{}]]]},{"name":"dense_Dense3441","class_name":"Dense","config":{"units":8,"activation":"relu","use_bias":true,"kernel_initializer":{"class_name":"VarianceScaling","config":{"scale":1,"mode":"fan_avg","distribution":"normal","seed":null}},"bias_initializer":{"class_name":"Zeros","config":{}},"kernel_regularizer":null,"bias_regularizer":null,"activity_regularizer":null,"kernel_constraint":null,"bias_constraint":null,"name":"dense_Dense3441","trainable":true},"inbound_nodes":[[["dense_Dense3440",0,0,{}]]]},{"name":"dense_Dense3442","class_name":"Dense","config":{"units":32,"activation":"relu","use_bias":true,"kernel_initializer":{"class_name":"VarianceScaling","config":{"scale":1,"mode":"fan_avg","distribution":"normal","seed":null}},"bias_initializer":{"class_name":"Zeros","config":{}},"kernel_regularizer":null,"bias_regularizer":null,"activity_regularizer":null,"kernel_constraint":null,"bias_constraint":null,"name":"dense_Dense3442","trainable":true},"inbound_nodes":[[["dense_Dense3441",0,0,{}]]]},{"name":"dense_Dense3443","class_name":"Dense","config":{"units":8,"activation":"relu","use_bias":true,"kernel_initializer":{"class_name":"VarianceScaling","config":{"scale":1,"mode":"fan_avg","distribution":"normal","seed":null}},"bias_initializer":{"class_name":"Zeros","config":{}},"kernel_regularizer":null,"bias_regularizer":null,"activity_regularizer":null,"kernel_constraint":null,"bias_constraint":null,"name":"dense_Dense3443","trainable":true},"inbound_nodes":[[["dense_Dense3442",0,0,{}]]]},{"name":"dense_Dense3444","class_name":"Dense","config":{"units":1,"activation":"sigmoid","use_bias":true,"kernel_initializer":{"class_name":"VarianceScaling","config":{"scale":1,"mode":"fan_avg","distribution":"normal","seed":null}},"bias_initializer":{"class_name":"Zeros","config":{}},"kernel_regularizer":null,"bias_regularizer":null,"activity_regularizer":null,"kernel_constraint":null,"bias_constraint":null,"name":"dense_Dense3444","trainable":true},"inbound_nodes":[[["dense_Dense3443",0,0,{}]]]}],"input_layers":[["input574",0,0]],"output_layers":[["dense_Dense3444",0,0]]},"keras_version":"tfjs-layers 3.9.0","backend":"tensor_flow.js"},"weightsManifest":[{"paths":["weights.bin"],"weights":[{"name":"dense_Dense3439/kernel","shape":[3,4],"dtype":"float32"},{"name":"dense_Dense3439/bias","shape":[4],"dtype":"float32"},{"name":"dense_Dense3440/kernel","shape":[4,4],"dtype":"float32"},{"name":"dense_Dense3440/bias","shape":[4],"dtype":"float32"},{"name":"dense_Dense3441/kernel","shape":[4,8],"dtype":"float32"},{"name":"dense_Dense3441/bias","shape":[8],"dtype":"float32"},{"name":"dense_Dense3442/kernel","shape":[8,32],"dtype":"float32"},{"name":"dense_Dense3442/bias","shape":[32],"dtype":"float32"},{"name":"dense_Dense3443/kernel","shape":[32,8],"dtype":"float32"},{"name":"dense_Dense3443/bias","shape":[8],"dtype":"float32"},{"name":"dense_Dense3444/kernel","shape":[8,1],"dtype":"float32"},{"name":"dense_Dense3444/bias","shape":[1],"dtype":"float32"}]}]}