{"modelTopology":{"class_name":"Model","config":{"name":"model1127","layers":[{"name":"input1127","class_name":"InputLayer","config":{"batch_input_shape":[null,3],"dtype":"float32","sparse":false,"name":"input1127"},"inbound_nodes":[]},{"name":"dense_Dense5631","class_name":"Dense","config":{"units":32,"activation":"relu","use_bias":true,"kernel_initializer":{"class_name":"VarianceScaling","config":{"scale":1,"mode":"fan_avg","distribution":"normal","seed":null}},"bias_initializer":{"class_name":"Zeros","config":{}},"kernel_regularizer":null,"bias_regularizer":null,"activity_regularizer":null,"kernel_constraint":null,"bias_constraint":null,"name":"dense_Dense5631","trainable":true},"inbound_nodes":[[["input1127",0,0,{}]]]},{"name":"dense_Dense5632","class_name":"Dense","config":{"units":2,"activation":"relu","use_bias":true,"kernel_initializer":{"class_name":"VarianceScaling","config":{"scale":1,"mode":"fan_avg","distribution":"normal","seed":null}},"bias_initializer":{"class_name":"Zeros","config":{}},"kernel_regularizer":null,"bias_regularizer":null,"activity_regularizer":null,"kernel_constraint":null,"bias_constraint":null,"name":"dense_Dense5632","trainable":true},"inbound_nodes":[[["dense_Dense5631",0,0,{}]]]},{"name":"dense_Dense5633","class_name":"Dense","config":{"units":2,"activation":"relu","use_bias":true,"kernel_initializer":{"class_name":"VarianceScaling","config":{"scale":1,"mode":"fan_avg","distribution":"normal","seed":null}},"bias_initializer":{"class_name":"Zeros","config":{}},"kernel_regularizer":null,"bias_regularizer":null,"activity_regularizer":null,"kernel_constraint":null,"bias_constraint":null,"name":"dense_Dense5633","trainable":true},"inbound_nodes":[[["dense_Dense5632",0,0,{}]]]},{"name":"dense_Dense5634","class_name":"Dense","config":{"units":16,"activation":"relu","use_bias":true,"kernel_initializer":{"class_name":"VarianceScaling","config":{"scale":1,"mode":"fan_avg","distribution":"normal","seed":null}},"bias_initializer":{"class_name":"Zeros","config":{}},"kernel_regularizer":null,"bias_regularizer":null,"activity_regularizer":null,"kernel_constraint":null,"bias_constraint":null,"name":"dense_Dense5634","trainable":true},"inbound_nodes":[[["dense_Dense5633",0,0,{}]]]},{"name":"dense_Dense5635","class_name":"Dense","config":{"units":1,"activation":"sigmoid","use_bias":true,"kernel_initializer":{"class_name":"VarianceScaling","config":{"scale":1,"mode":"fan_avg","distribution":"normal","seed":null}},"bias_initializer":{"class_name":"Zeros","config":{}},"kernel_regularizer":null,"bias_regularizer":null,"activity_regularizer":null,"kernel_constraint":null,"bias_constraint":null,"name":"dense_Dense5635","trainable":true},"inbound_nodes":[[["dense_Dense5634",0,0,{}]]]}],"input_layers":[["input1127",0,0]],"output_layers":[["dense_Dense5635",0,0]]},"keras_version":"tfjs-layers 3.9.0","backend":"tensor_flow.js"},"weightsManifest":[{"paths":["weights.bin"],"weights":[{"name":"dense_Dense5631/kernel","shape":[3,32],"dtype":"float32"},{"name":"dense_Dense5631/bias","shape":[32],"dtype":"float32"},{"name":"dense_Dense5632/kernel","shape":[32,2],"dtype":"float32"},{"name":"dense_Dense5632/bias","shape":[2],"dtype":"float32"},{"name":"dense_Dense5633/kernel","shape":[2,2],"dtype":"float32"},{"name":"dense_Dense5633/bias","shape":[2],"dtype":"float32"},{"name":"dense_Dense5634/kernel","shape":[2,16],"dtype":"float32"},{"name":"dense_Dense5634/bias","shape":[16],"dtype":"float32"},{"name":"dense_Dense5635/kernel","shape":[16,1],"dtype":"float32"},{"name":"dense_Dense5635/bias","shape":[1],"dtype":"float32"}]}]}