{"modelTopology":{"class_name":"Model","config":{"name":"model164","layers":[{"name":"input164","class_name":"InputLayer","config":{"batch_input_shape":[null,3],"dtype":"float32","sparse":false,"name":"input164"},"inbound_nodes":[]},{"name":"dense_Dense979","class_name":"Dense","config":{"units":1,"activation":"relu","use_bias":true,"kernel_initializer":{"class_name":"VarianceScaling","config":{"scale":1,"mode":"fan_avg","distribution":"normal","seed":null}},"bias_initializer":{"class_name":"Zeros","config":{}},"kernel_regularizer":null,"bias_regularizer":null,"activity_regularizer":null,"kernel_constraint":null,"bias_constraint":null,"name":"dense_Dense979","trainable":true},"inbound_nodes":[[["input164",0,0,{}]]]},{"name":"dense_Dense980","class_name":"Dense","config":{"units":1,"activation":"relu","use_bias":true,"kernel_initializer":{"class_name":"VarianceScaling","config":{"scale":1,"mode":"fan_avg","distribution":"normal","seed":null}},"bias_initializer":{"class_name":"Zeros","config":{}},"kernel_regularizer":null,"bias_regularizer":null,"activity_regularizer":null,"kernel_constraint":null,"bias_constraint":null,"name":"dense_Dense980","trainable":true},"inbound_nodes":[[["dense_Dense979",0,0,{}]]]},{"name":"dense_Dense981","class_name":"Dense","config":{"units":16,"activation":"relu","use_bias":true,"kernel_initializer":{"class_name":"VarianceScaling","config":{"scale":1,"mode":"fan_avg","distribution":"normal","seed":null}},"bias_initializer":{"class_name":"Zeros","config":{}},"kernel_regularizer":null,"bias_regularizer":null,"activity_regularizer":null,"kernel_constraint":null,"bias_constraint":null,"name":"dense_Dense981","trainable":true},"inbound_nodes":[[["dense_Dense980",0,0,{}]]]},{"name":"dense_Dense982","class_name":"Dense","config":{"units":8,"activation":"relu","use_bias":true,"kernel_initializer":{"class_name":"VarianceScaling","config":{"scale":1,"mode":"fan_avg","distribution":"normal","seed":null}},"bias_initializer":{"class_name":"Zeros","config":{}},"kernel_regularizer":null,"bias_regularizer":null,"activity_regularizer":null,"kernel_constraint":null,"bias_constraint":null,"name":"dense_Dense982","trainable":true},"inbound_nodes":[[["dense_Dense981",0,0,{}]]]},{"name":"dense_Dense983","class_name":"Dense","config":{"units":2,"activation":"relu","use_bias":true,"kernel_initializer":{"class_name":"VarianceScaling","config":{"scale":1,"mode":"fan_avg","distribution":"normal","seed":null}},"bias_initializer":{"class_name":"Zeros","config":{}},"kernel_regularizer":null,"bias_regularizer":null,"activity_regularizer":null,"kernel_constraint":null,"bias_constraint":null,"name":"dense_Dense983","trainable":true},"inbound_nodes":[[["dense_Dense982",0,0,{}]]]},{"name":"dense_Dense984","class_name":"Dense","config":{"units":1,"activation":"sigmoid","use_bias":true,"kernel_initializer":{"class_name":"VarianceScaling","config":{"scale":1,"mode":"fan_avg","distribution":"normal","seed":null}},"bias_initializer":{"class_name":"Zeros","config":{}},"kernel_regularizer":null,"bias_regularizer":null,"activity_regularizer":null,"kernel_constraint":null,"bias_constraint":null,"name":"dense_Dense984","trainable":true},"inbound_nodes":[[["dense_Dense983",0,0,{}]]]}],"input_layers":[["input164",0,0]],"output_layers":[["dense_Dense984",0,0]]},"keras_version":"tfjs-layers 3.9.0","backend":"tensor_flow.js"},"weightsManifest":[{"paths":["weights.bin"],"weights":[{"name":"dense_Dense979/kernel","shape":[3,1],"dtype":"float32"},{"name":"dense_Dense979/bias","shape":[1],"dtype":"float32"},{"name":"dense_Dense980/kernel","shape":[1,1],"dtype":"float32"},{"name":"dense_Dense980/bias","shape":[1],"dtype":"float32"},{"name":"dense_Dense981/kernel","shape":[1,16],"dtype":"float32"},{"name":"dense_Dense981/bias","shape":[16],"dtype":"float32"},{"name":"dense_Dense982/kernel","shape":[16,8],"dtype":"float32"},{"name":"dense_Dense982/bias","shape":[8],"dtype":"float32"},{"name":"dense_Dense983/kernel","shape":[8,2],"dtype":"float32"},{"name":"dense_Dense983/bias","shape":[2],"dtype":"float32"},{"name":"dense_Dense984/kernel","shape":[2,1],"dtype":"float32"},{"name":"dense_Dense984/bias","shape":[1],"dtype":"float32"}]}]}