{"modelTopology":{"class_name":"Model","config":{"name":"model1281","layers":[{"name":"input1281","class_name":"InputLayer","config":{"batch_input_shape":[null,3],"dtype":"float32","sparse":false,"name":"input1281"},"inbound_nodes":[]},{"name":"dense_Dense6401","class_name":"Dense","config":{"units":32,"activation":"relu","use_bias":true,"kernel_initializer":{"class_name":"VarianceScaling","config":{"scale":1,"mode":"fan_avg","distribution":"normal","seed":null}},"bias_initializer":{"class_name":"Zeros","config":{}},"kernel_regularizer":null,"bias_regularizer":null,"activity_regularizer":null,"kernel_constraint":null,"bias_constraint":null,"name":"dense_Dense6401","trainable":true},"inbound_nodes":[[["input1281",0,0,{}]]]},{"name":"dense_Dense6402","class_name":"Dense","config":{"units":32,"activation":"relu","use_bias":true,"kernel_initializer":{"class_name":"VarianceScaling","config":{"scale":1,"mode":"fan_avg","distribution":"normal","seed":null}},"bias_initializer":{"class_name":"Zeros","config":{}},"kernel_regularizer":null,"bias_regularizer":null,"activity_regularizer":null,"kernel_constraint":null,"bias_constraint":null,"name":"dense_Dense6402","trainable":true},"inbound_nodes":[[["dense_Dense6401",0,0,{}]]]},{"name":"dense_Dense6403","class_name":"Dense","config":{"units":8,"activation":"relu","use_bias":true,"kernel_initializer":{"class_name":"VarianceScaling","config":{"scale":1,"mode":"fan_avg","distribution":"normal","seed":null}},"bias_initializer":{"class_name":"Zeros","config":{}},"kernel_regularizer":null,"bias_regularizer":null,"activity_regularizer":null,"kernel_constraint":null,"bias_constraint":null,"name":"dense_Dense6403","trainable":true},"inbound_nodes":[[["dense_Dense6402",0,0,{}]]]},{"name":"dense_Dense6404","class_name":"Dense","config":{"units":4,"activation":"relu","use_bias":true,"kernel_initializer":{"class_name":"VarianceScaling","config":{"scale":1,"mode":"fan_avg","distribution":"normal","seed":null}},"bias_initializer":{"class_name":"Zeros","config":{}},"kernel_regularizer":null,"bias_regularizer":null,"activity_regularizer":null,"kernel_constraint":null,"bias_constraint":null,"name":"dense_Dense6404","trainable":true},"inbound_nodes":[[["dense_Dense6403",0,0,{}]]]},{"name":"dense_Dense6405","class_name":"Dense","config":{"units":1,"activation":"sigmoid","use_bias":true,"kernel_initializer":{"class_name":"VarianceScaling","config":{"scale":1,"mode":"fan_avg","distribution":"normal","seed":null}},"bias_initializer":{"class_name":"Zeros","config":{}},"kernel_regularizer":null,"bias_regularizer":null,"activity_regularizer":null,"kernel_constraint":null,"bias_constraint":null,"name":"dense_Dense6405","trainable":true},"inbound_nodes":[[["dense_Dense6404",0,0,{}]]]}],"input_layers":[["input1281",0,0]],"output_layers":[["dense_Dense6405",0,0]]},"keras_version":"tfjs-layers 3.9.0","backend":"tensor_flow.js"},"weightsManifest":[{"paths":["weights.bin"],"weights":[{"name":"dense_Dense6401/kernel","shape":[3,32],"dtype":"float32"},{"name":"dense_Dense6401/bias","shape":[32],"dtype":"float32"},{"name":"dense_Dense6402/kernel","shape":[32,32],"dtype":"float32"},{"name":"dense_Dense6402/bias","shape":[32],"dtype":"float32"},{"name":"dense_Dense6403/kernel","shape":[32,8],"dtype":"float32"},{"name":"dense_Dense6403/bias","shape":[8],"dtype":"float32"},{"name":"dense_Dense6404/kernel","shape":[8,4],"dtype":"float32"},{"name":"dense_Dense6404/bias","shape":[4],"dtype":"float32"},{"name":"dense_Dense6405/kernel","shape":[4,1],"dtype":"float32"},{"name":"dense_Dense6405/bias","shape":[1],"dtype":"float32"}]}]}