{"modelTopology":{"class_name":"Model","config":{"name":"model688","layers":[{"name":"input688","class_name":"InputLayer","config":{"batch_input_shape":[null,3],"dtype":"float32","sparse":false,"name":"input688"},"inbound_nodes":[]},{"name":"dense_Dense4123","class_name":"Dense","config":{"units":2,"activation":"relu","use_bias":true,"kernel_initializer":{"class_name":"VarianceScaling","config":{"scale":1,"mode":"fan_avg","distribution":"normal","seed":null}},"bias_initializer":{"class_name":"Zeros","config":{}},"kernel_regularizer":null,"bias_regularizer":null,"activity_regularizer":null,"kernel_constraint":null,"bias_constraint":null,"name":"dense_Dense4123","trainable":true},"inbound_nodes":[[["input688",0,0,{}]]]},{"name":"dense_Dense4124","class_name":"Dense","config":{"units":8,"activation":"relu","use_bias":true,"kernel_initializer":{"class_name":"VarianceScaling","config":{"scale":1,"mode":"fan_avg","distribution":"normal","seed":null}},"bias_initializer":{"class_name":"Zeros","config":{}},"kernel_regularizer":null,"bias_regularizer":null,"activity_regularizer":null,"kernel_constraint":null,"bias_constraint":null,"name":"dense_Dense4124","trainable":true},"inbound_nodes":[[["dense_Dense4123",0,0,{}]]]},{"name":"dense_Dense4125","class_name":"Dense","config":{"units":2,"activation":"relu","use_bias":true,"kernel_initializer":{"class_name":"VarianceScaling","config":{"scale":1,"mode":"fan_avg","distribution":"normal","seed":null}},"bias_initializer":{"class_name":"Zeros","config":{}},"kernel_regularizer":null,"bias_regularizer":null,"activity_regularizer":null,"kernel_constraint":null,"bias_constraint":null,"name":"dense_Dense4125","trainable":true},"inbound_nodes":[[["dense_Dense4124",0,0,{}]]]},{"name":"dense_Dense4126","class_name":"Dense","config":{"units":1,"activation":"relu","use_bias":true,"kernel_initializer":{"class_name":"VarianceScaling","config":{"scale":1,"mode":"fan_avg","distribution":"normal","seed":null}},"bias_initializer":{"class_name":"Zeros","config":{}},"kernel_regularizer":null,"bias_regularizer":null,"activity_regularizer":null,"kernel_constraint":null,"bias_constraint":null,"name":"dense_Dense4126","trainable":true},"inbound_nodes":[[["dense_Dense4125",0,0,{}]]]},{"name":"dense_Dense4127","class_name":"Dense","config":{"units":8,"activation":"relu","use_bias":true,"kernel_initializer":{"class_name":"VarianceScaling","config":{"scale":1,"mode":"fan_avg","distribution":"normal","seed":null}},"bias_initializer":{"class_name":"Zeros","config":{}},"kernel_regularizer":null,"bias_regularizer":null,"activity_regularizer":null,"kernel_constraint":null,"bias_constraint":null,"name":"dense_Dense4127","trainable":true},"inbound_nodes":[[["dense_Dense4126",0,0,{}]]]},{"name":"dense_Dense4128","class_name":"Dense","config":{"units":1,"activation":"sigmoid","use_bias":true,"kernel_initializer":{"class_name":"VarianceScaling","config":{"scale":1,"mode":"fan_avg","distribution":"normal","seed":null}},"bias_initializer":{"class_name":"Zeros","config":{}},"kernel_regularizer":null,"bias_regularizer":null,"activity_regularizer":null,"kernel_constraint":null,"bias_constraint":null,"name":"dense_Dense4128","trainable":true},"inbound_nodes":[[["dense_Dense4127",0,0,{}]]]}],"input_layers":[["input688",0,0]],"output_layers":[["dense_Dense4128",0,0]]},"keras_version":"tfjs-layers 3.9.0","backend":"tensor_flow.js"},"weightsManifest":[{"paths":["weights.bin"],"weights":[{"name":"dense_Dense4123/kernel","shape":[3,2],"dtype":"float32"},{"name":"dense_Dense4123/bias","shape":[2],"dtype":"float32"},{"name":"dense_Dense4124/kernel","shape":[2,8],"dtype":"float32"},{"name":"dense_Dense4124/bias","shape":[8],"dtype":"float32"},{"name":"dense_Dense4125/kernel","shape":[8,2],"dtype":"float32"},{"name":"dense_Dense4125/bias","shape":[2],"dtype":"float32"},{"name":"dense_Dense4126/kernel","shape":[2,1],"dtype":"float32"},{"name":"dense_Dense4126/bias","shape":[1],"dtype":"float32"},{"name":"dense_Dense4127/kernel","shape":[1,8],"dtype":"float32"},{"name":"dense_Dense4127/bias","shape":[8],"dtype":"float32"},{"name":"dense_Dense4128/kernel","shape":[8,1],"dtype":"float32"},{"name":"dense_Dense4128/bias","shape":[1],"dtype":"float32"}]}]}