{"modelTopology":{"class_name":"Model","config":{"name":"model1040","layers":[{"name":"input1040","class_name":"InputLayer","config":{"batch_input_shape":[null,3],"dtype":"float32","sparse":false,"name":"input1040"},"inbound_nodes":[]},{"name":"dense_Dense6235","class_name":"Dense","config":{"units":2,"activation":"relu","use_bias":true,"kernel_initializer":{"class_name":"VarianceScaling","config":{"scale":1,"mode":"fan_avg","distribution":"normal","seed":null}},"bias_initializer":{"class_name":"Zeros","config":{}},"kernel_regularizer":null,"bias_regularizer":null,"activity_regularizer":null,"kernel_constraint":null,"bias_constraint":null,"name":"dense_Dense6235","trainable":true},"inbound_nodes":[[["input1040",0,0,{}]]]},{"name":"dense_Dense6236","class_name":"Dense","config":{"units":16,"activation":"relu","use_bias":true,"kernel_initializer":{"class_name":"VarianceScaling","config":{"scale":1,"mode":"fan_avg","distribution":"normal","seed":null}},"bias_initializer":{"class_name":"Zeros","config":{}},"kernel_regularizer":null,"bias_regularizer":null,"activity_regularizer":null,"kernel_constraint":null,"bias_constraint":null,"name":"dense_Dense6236","trainable":true},"inbound_nodes":[[["dense_Dense6235",0,0,{}]]]},{"name":"dense_Dense6237","class_name":"Dense","config":{"units":16,"activation":"relu","use_bias":true,"kernel_initializer":{"class_name":"VarianceScaling","config":{"scale":1,"mode":"fan_avg","distribution":"normal","seed":null}},"bias_initializer":{"class_name":"Zeros","config":{}},"kernel_regularizer":null,"bias_regularizer":null,"activity_regularizer":null,"kernel_constraint":null,"bias_constraint":null,"name":"dense_Dense6237","trainable":true},"inbound_nodes":[[["dense_Dense6236",0,0,{}]]]},{"name":"dense_Dense6238","class_name":"Dense","config":{"units":32,"activation":"relu","use_bias":true,"kernel_initializer":{"class_name":"VarianceScaling","config":{"scale":1,"mode":"fan_avg","distribution":"normal","seed":null}},"bias_initializer":{"class_name":"Zeros","config":{}},"kernel_regularizer":null,"bias_regularizer":null,"activity_regularizer":null,"kernel_constraint":null,"bias_constraint":null,"name":"dense_Dense6238","trainable":true},"inbound_nodes":[[["dense_Dense6237",0,0,{}]]]},{"name":"dense_Dense6239","class_name":"Dense","config":{"units":2,"activation":"relu","use_bias":true,"kernel_initializer":{"class_name":"VarianceScaling","config":{"scale":1,"mode":"fan_avg","distribution":"normal","seed":null}},"bias_initializer":{"class_name":"Zeros","config":{}},"kernel_regularizer":null,"bias_regularizer":null,"activity_regularizer":null,"kernel_constraint":null,"bias_constraint":null,"name":"dense_Dense6239","trainable":true},"inbound_nodes":[[["dense_Dense6238",0,0,{}]]]},{"name":"dense_Dense6240","class_name":"Dense","config":{"units":1,"activation":"sigmoid","use_bias":true,"kernel_initializer":{"class_name":"VarianceScaling","config":{"scale":1,"mode":"fan_avg","distribution":"normal","seed":null}},"bias_initializer":{"class_name":"Zeros","config":{}},"kernel_regularizer":null,"bias_regularizer":null,"activity_regularizer":null,"kernel_constraint":null,"bias_constraint":null,"name":"dense_Dense6240","trainable":true},"inbound_nodes":[[["dense_Dense6239",0,0,{}]]]}],"input_layers":[["input1040",0,0]],"output_layers":[["dense_Dense6240",0,0]]},"keras_version":"tfjs-layers 3.9.0","backend":"tensor_flow.js"},"weightsManifest":[{"paths":["weights.bin"],"weights":[{"name":"dense_Dense6235/kernel","shape":[3,2],"dtype":"float32"},{"name":"dense_Dense6235/bias","shape":[2],"dtype":"float32"},{"name":"dense_Dense6236/kernel","shape":[2,16],"dtype":"float32"},{"name":"dense_Dense6236/bias","shape":[16],"dtype":"float32"},{"name":"dense_Dense6237/kernel","shape":[16,16],"dtype":"float32"},{"name":"dense_Dense6237/bias","shape":[16],"dtype":"float32"},{"name":"dense_Dense6238/kernel","shape":[16,32],"dtype":"float32"},{"name":"dense_Dense6238/bias","shape":[32],"dtype":"float32"},{"name":"dense_Dense6239/kernel","shape":[32,2],"dtype":"float32"},{"name":"dense_Dense6239/bias","shape":[2],"dtype":"float32"},{"name":"dense_Dense6240/kernel","shape":[2,1],"dtype":"float32"},{"name":"dense_Dense6240/bias","shape":[1],"dtype":"float32"}]}]}