{"modelTopology":{"class_name":"Model","config":{"name":"model158","layers":[{"name":"input158","class_name":"InputLayer","config":{"batch_input_shape":[null,3],"dtype":"float32","sparse":false,"name":"input158"},"inbound_nodes":[]},{"name":"dense_Dense943","class_name":"Dense","config":{"units":2,"activation":"relu","use_bias":true,"kernel_initializer":{"class_name":"VarianceScaling","config":{"scale":1,"mode":"fan_avg","distribution":"normal","seed":null}},"bias_initializer":{"class_name":"Zeros","config":{}},"kernel_regularizer":null,"bias_regularizer":null,"activity_regularizer":null,"kernel_constraint":null,"bias_constraint":null,"name":"dense_Dense943","trainable":true},"inbound_nodes":[[["input158",0,0,{}]]]},{"name":"dense_Dense944","class_name":"Dense","config":{"units":1,"activation":"relu","use_bias":true,"kernel_initializer":{"class_name":"VarianceScaling","config":{"scale":1,"mode":"fan_avg","distribution":"normal","seed":null}},"bias_initializer":{"class_name":"Zeros","config":{}},"kernel_regularizer":null,"bias_regularizer":null,"activity_regularizer":null,"kernel_constraint":null,"bias_constraint":null,"name":"dense_Dense944","trainable":true},"inbound_nodes":[[["dense_Dense943",0,0,{}]]]},{"name":"dense_Dense945","class_name":"Dense","config":{"units":16,"activation":"relu","use_bias":true,"kernel_initializer":{"class_name":"VarianceScaling","config":{"scale":1,"mode":"fan_avg","distribution":"normal","seed":null}},"bias_initializer":{"class_name":"Zeros","config":{}},"kernel_regularizer":null,"bias_regularizer":null,"activity_regularizer":null,"kernel_constraint":null,"bias_constraint":null,"name":"dense_Dense945","trainable":true},"inbound_nodes":[[["dense_Dense944",0,0,{}]]]},{"name":"dense_Dense946","class_name":"Dense","config":{"units":4,"activation":"relu","use_bias":true,"kernel_initializer":{"class_name":"VarianceScaling","config":{"scale":1,"mode":"fan_avg","distribution":"normal","seed":null}},"bias_initializer":{"class_name":"Zeros","config":{}},"kernel_regularizer":null,"bias_regularizer":null,"activity_regularizer":null,"kernel_constraint":null,"bias_constraint":null,"name":"dense_Dense946","trainable":true},"inbound_nodes":[[["dense_Dense945",0,0,{}]]]},{"name":"dense_Dense947","class_name":"Dense","config":{"units":2,"activation":"relu","use_bias":true,"kernel_initializer":{"class_name":"VarianceScaling","config":{"scale":1,"mode":"fan_avg","distribution":"normal","seed":null}},"bias_initializer":{"class_name":"Zeros","config":{}},"kernel_regularizer":null,"bias_regularizer":null,"activity_regularizer":null,"kernel_constraint":null,"bias_constraint":null,"name":"dense_Dense947","trainable":true},"inbound_nodes":[[["dense_Dense946",0,0,{}]]]},{"name":"dense_Dense948","class_name":"Dense","config":{"units":1,"activation":"sigmoid","use_bias":true,"kernel_initializer":{"class_name":"VarianceScaling","config":{"scale":1,"mode":"fan_avg","distribution":"normal","seed":null}},"bias_initializer":{"class_name":"Zeros","config":{}},"kernel_regularizer":null,"bias_regularizer":null,"activity_regularizer":null,"kernel_constraint":null,"bias_constraint":null,"name":"dense_Dense948","trainable":true},"inbound_nodes":[[["dense_Dense947",0,0,{}]]]}],"input_layers":[["input158",0,0]],"output_layers":[["dense_Dense948",0,0]]},"keras_version":"tfjs-layers 3.9.0","backend":"tensor_flow.js"},"weightsManifest":[{"paths":["weights.bin"],"weights":[{"name":"dense_Dense943/kernel","shape":[3,2],"dtype":"float32"},{"name":"dense_Dense943/bias","shape":[2],"dtype":"float32"},{"name":"dense_Dense944/kernel","shape":[2,1],"dtype":"float32"},{"name":"dense_Dense944/bias","shape":[1],"dtype":"float32"},{"name":"dense_Dense945/kernel","shape":[1,16],"dtype":"float32"},{"name":"dense_Dense945/bias","shape":[16],"dtype":"float32"},{"name":"dense_Dense946/kernel","shape":[16,4],"dtype":"float32"},{"name":"dense_Dense946/bias","shape":[4],"dtype":"float32"},{"name":"dense_Dense947/kernel","shape":[4,2],"dtype":"float32"},{"name":"dense_Dense947/bias","shape":[2],"dtype":"float32"},{"name":"dense_Dense948/kernel","shape":[2,1],"dtype":"float32"},{"name":"dense_Dense948/bias","shape":[1],"dtype":"float32"}]}]}