{"modelTopology":{"class_name":"Model","config":{"name":"model428","layers":[{"name":"input428","class_name":"InputLayer","config":{"batch_input_shape":[null,3],"dtype":"float32","sparse":false,"name":"input428"},"inbound_nodes":[]},{"name":"dense_Dense2136","class_name":"Dense","config":{"units":2,"activation":"relu","use_bias":true,"kernel_initializer":{"class_name":"VarianceScaling","config":{"scale":1,"mode":"fan_avg","distribution":"normal","seed":null}},"bias_initializer":{"class_name":"Zeros","config":{}},"kernel_regularizer":null,"bias_regularizer":null,"activity_regularizer":null,"kernel_constraint":null,"bias_constraint":null,"name":"dense_Dense2136","trainable":true},"inbound_nodes":[[["input428",0,0,{}]]]},{"name":"dense_Dense2137","class_name":"Dense","config":{"units":32,"activation":"relu","use_bias":true,"kernel_initializer":{"class_name":"VarianceScaling","config":{"scale":1,"mode":"fan_avg","distribution":"normal","seed":null}},"bias_initializer":{"class_name":"Zeros","config":{}},"kernel_regularizer":null,"bias_regularizer":null,"activity_regularizer":null,"kernel_constraint":null,"bias_constraint":null,"name":"dense_Dense2137","trainable":true},"inbound_nodes":[[["dense_Dense2136",0,0,{}]]]},{"name":"dense_Dense2138","class_name":"Dense","config":{"units":32,"activation":"relu","use_bias":true,"kernel_initializer":{"class_name":"VarianceScaling","config":{"scale":1,"mode":"fan_avg","distribution":"normal","seed":null}},"bias_initializer":{"class_name":"Zeros","config":{}},"kernel_regularizer":null,"bias_regularizer":null,"activity_regularizer":null,"kernel_constraint":null,"bias_constraint":null,"name":"dense_Dense2138","trainable":true},"inbound_nodes":[[["dense_Dense2137",0,0,{}]]]},{"name":"dense_Dense2139","class_name":"Dense","config":{"units":2,"activation":"relu","use_bias":true,"kernel_initializer":{"class_name":"VarianceScaling","config":{"scale":1,"mode":"fan_avg","distribution":"normal","seed":null}},"bias_initializer":{"class_name":"Zeros","config":{}},"kernel_regularizer":null,"bias_regularizer":null,"activity_regularizer":null,"kernel_constraint":null,"bias_constraint":null,"name":"dense_Dense2139","trainable":true},"inbound_nodes":[[["dense_Dense2138",0,0,{}]]]},{"name":"dense_Dense2140","class_name":"Dense","config":{"units":1,"activation":"sigmoid","use_bias":true,"kernel_initializer":{"class_name":"VarianceScaling","config":{"scale":1,"mode":"fan_avg","distribution":"normal","seed":null}},"bias_initializer":{"class_name":"Zeros","config":{}},"kernel_regularizer":null,"bias_regularizer":null,"activity_regularizer":null,"kernel_constraint":null,"bias_constraint":null,"name":"dense_Dense2140","trainable":true},"inbound_nodes":[[["dense_Dense2139",0,0,{}]]]}],"input_layers":[["input428",0,0]],"output_layers":[["dense_Dense2140",0,0]]},"keras_version":"tfjs-layers 3.9.0","backend":"tensor_flow.js"},"weightsManifest":[{"paths":["weights.bin"],"weights":[{"name":"dense_Dense2136/kernel","shape":[3,2],"dtype":"float32"},{"name":"dense_Dense2136/bias","shape":[2],"dtype":"float32"},{"name":"dense_Dense2137/kernel","shape":[2,32],"dtype":"float32"},{"name":"dense_Dense2137/bias","shape":[32],"dtype":"float32"},{"name":"dense_Dense2138/kernel","shape":[32,32],"dtype":"float32"},{"name":"dense_Dense2138/bias","shape":[32],"dtype":"float32"},{"name":"dense_Dense2139/kernel","shape":[32,2],"dtype":"float32"},{"name":"dense_Dense2139/bias","shape":[2],"dtype":"float32"},{"name":"dense_Dense2140/kernel","shape":[2,1],"dtype":"float32"},{"name":"dense_Dense2140/bias","shape":[1],"dtype":"float32"}]}]}