{"modelTopology":{"class_name":"Model","config":{"name":"model121","layers":[{"name":"input121","class_name":"InputLayer","config":{"batch_input_shape":[null,3],"dtype":"float32","sparse":false,"name":"input121"},"inbound_nodes":[]},{"name":"dense_Dense481","class_name":"Dense","config":{"units":8,"activation":"relu","use_bias":true,"kernel_initializer":{"class_name":"VarianceScaling","config":{"scale":1,"mode":"fan_avg","distribution":"normal","seed":null}},"bias_initializer":{"class_name":"Zeros","config":{}},"kernel_regularizer":null,"bias_regularizer":null,"activity_regularizer":null,"kernel_constraint":null,"bias_constraint":null,"name":"dense_Dense481","trainable":true},"inbound_nodes":[[["input121",0,0,{}]]]},{"name":"dense_Dense482","class_name":"Dense","config":{"units":4,"activation":"relu","use_bias":true,"kernel_initializer":{"class_name":"VarianceScaling","config":{"scale":1,"mode":"fan_avg","distribution":"normal","seed":null}},"bias_initializer":{"class_name":"Zeros","config":{}},"kernel_regularizer":null,"bias_regularizer":null,"activity_regularizer":null,"kernel_constraint":null,"bias_constraint":null,"name":"dense_Dense482","trainable":true},"inbound_nodes":[[["dense_Dense481",0,0,{}]]]},{"name":"dense_Dense483","class_name":"Dense","config":{"units":1,"activation":"relu","use_bias":true,"kernel_initializer":{"class_name":"VarianceScaling","config":{"scale":1,"mode":"fan_avg","distribution":"normal","seed":null}},"bias_initializer":{"class_name":"Zeros","config":{}},"kernel_regularizer":null,"bias_regularizer":null,"activity_regularizer":null,"kernel_constraint":null,"bias_constraint":null,"name":"dense_Dense483","trainable":true},"inbound_nodes":[[["dense_Dense482",0,0,{}]]]},{"name":"dense_Dense484","class_name":"Dense","config":{"units":1,"activation":"sigmoid","use_bias":true,"kernel_initializer":{"class_name":"VarianceScaling","config":{"scale":1,"mode":"fan_avg","distribution":"normal","seed":null}},"bias_initializer":{"class_name":"Zeros","config":{}},"kernel_regularizer":null,"bias_regularizer":null,"activity_regularizer":null,"kernel_constraint":null,"bias_constraint":null,"name":"dense_Dense484","trainable":true},"inbound_nodes":[[["dense_Dense483",0,0,{}]]]}],"input_layers":[["input121",0,0]],"output_layers":[["dense_Dense484",0,0]]},"keras_version":"tfjs-layers 3.9.0","backend":"tensor_flow.js"},"weightsManifest":[{"paths":["weights.bin"],"weights":[{"name":"dense_Dense481/kernel","shape":[3,8],"dtype":"float32"},{"name":"dense_Dense481/bias","shape":[8],"dtype":"float32"},{"name":"dense_Dense482/kernel","shape":[8,4],"dtype":"float32"},{"name":"dense_Dense482/bias","shape":[4],"dtype":"float32"},{"name":"dense_Dense483/kernel","shape":[4,1],"dtype":"float32"},{"name":"dense_Dense483/bias","shape":[1],"dtype":"float32"},{"name":"dense_Dense484/kernel","shape":[1,1],"dtype":"float32"},{"name":"dense_Dense484/bias","shape":[1],"dtype":"float32"}]}]}