{"modelTopology":{"class_name":"Model","config":{"name":"model844","layers":[{"name":"input844","class_name":"InputLayer","config":{"batch_input_shape":[null,3],"dtype":"float32","sparse":false,"name":"input844"},"inbound_nodes":[]},{"name":"dense_Dense4216","class_name":"Dense","config":{"units":8,"activation":"relu","use_bias":true,"kernel_initializer":{"class_name":"VarianceScaling","config":{"scale":1,"mode":"fan_avg","distribution":"normal","seed":null}},"bias_initializer":{"class_name":"Zeros","config":{}},"kernel_regularizer":null,"bias_regularizer":null,"activity_regularizer":null,"kernel_constraint":null,"bias_constraint":null,"name":"dense_Dense4216","trainable":true},"inbound_nodes":[[["input844",0,0,{}]]]},{"name":"dense_Dense4217","class_name":"Dense","config":{"units":32,"activation":"relu","use_bias":true,"kernel_initializer":{"class_name":"VarianceScaling","config":{"scale":1,"mode":"fan_avg","distribution":"normal","seed":null}},"bias_initializer":{"class_name":"Zeros","config":{}},"kernel_regularizer":null,"bias_regularizer":null,"activity_regularizer":null,"kernel_constraint":null,"bias_constraint":null,"name":"dense_Dense4217","trainable":true},"inbound_nodes":[[["dense_Dense4216",0,0,{}]]]},{"name":"dense_Dense4218","class_name":"Dense","config":{"units":4,"activation":"relu","use_bias":true,"kernel_initializer":{"class_name":"VarianceScaling","config":{"scale":1,"mode":"fan_avg","distribution":"normal","seed":null}},"bias_initializer":{"class_name":"Zeros","config":{}},"kernel_regularizer":null,"bias_regularizer":null,"activity_regularizer":null,"kernel_constraint":null,"bias_constraint":null,"name":"dense_Dense4218","trainable":true},"inbound_nodes":[[["dense_Dense4217",0,0,{}]]]},{"name":"dense_Dense4219","class_name":"Dense","config":{"units":8,"activation":"relu","use_bias":true,"kernel_initializer":{"class_name":"VarianceScaling","config":{"scale":1,"mode":"fan_avg","distribution":"normal","seed":null}},"bias_initializer":{"class_name":"Zeros","config":{}},"kernel_regularizer":null,"bias_regularizer":null,"activity_regularizer":null,"kernel_constraint":null,"bias_constraint":null,"name":"dense_Dense4219","trainable":true},"inbound_nodes":[[["dense_Dense4218",0,0,{}]]]},{"name":"dense_Dense4220","class_name":"Dense","config":{"units":1,"activation":"sigmoid","use_bias":true,"kernel_initializer":{"class_name":"VarianceScaling","config":{"scale":1,"mode":"fan_avg","distribution":"normal","seed":null}},"bias_initializer":{"class_name":"Zeros","config":{}},"kernel_regularizer":null,"bias_regularizer":null,"activity_regularizer":null,"kernel_constraint":null,"bias_constraint":null,"name":"dense_Dense4220","trainable":true},"inbound_nodes":[[["dense_Dense4219",0,0,{}]]]}],"input_layers":[["input844",0,0]],"output_layers":[["dense_Dense4220",0,0]]},"keras_version":"tfjs-layers 3.9.0","backend":"tensor_flow.js"},"weightsManifest":[{"paths":["weights.bin"],"weights":[{"name":"dense_Dense4216/kernel","shape":[3,8],"dtype":"float32"},{"name":"dense_Dense4216/bias","shape":[8],"dtype":"float32"},{"name":"dense_Dense4217/kernel","shape":[8,32],"dtype":"float32"},{"name":"dense_Dense4217/bias","shape":[32],"dtype":"float32"},{"name":"dense_Dense4218/kernel","shape":[32,4],"dtype":"float32"},{"name":"dense_Dense4218/bias","shape":[4],"dtype":"float32"},{"name":"dense_Dense4219/kernel","shape":[4,8],"dtype":"float32"},{"name":"dense_Dense4219/bias","shape":[8],"dtype":"float32"},{"name":"dense_Dense4220/kernel","shape":[8,1],"dtype":"float32"},{"name":"dense_Dense4220/bias","shape":[1],"dtype":"float32"}]}]}