{"modelTopology":{"class_name":"Model","config":{"name":"model724","layers":[{"name":"input724","class_name":"InputLayer","config":{"batch_input_shape":[null,3],"dtype":"float32","sparse":false,"name":"input724"},"inbound_nodes":[]},{"name":"dense_Dense3616","class_name":"Dense","config":{"units":8,"activation":"relu","use_bias":true,"kernel_initializer":{"class_name":"VarianceScaling","config":{"scale":1,"mode":"fan_avg","distribution":"normal","seed":null}},"bias_initializer":{"class_name":"Zeros","config":{}},"kernel_regularizer":null,"bias_regularizer":null,"activity_regularizer":null,"kernel_constraint":null,"bias_constraint":null,"name":"dense_Dense3616","trainable":true},"inbound_nodes":[[["input724",0,0,{}]]]},{"name":"dense_Dense3617","class_name":"Dense","config":{"units":4,"activation":"relu","use_bias":true,"kernel_initializer":{"class_name":"VarianceScaling","config":{"scale":1,"mode":"fan_avg","distribution":"normal","seed":null}},"bias_initializer":{"class_name":"Zeros","config":{}},"kernel_regularizer":null,"bias_regularizer":null,"activity_regularizer":null,"kernel_constraint":null,"bias_constraint":null,"name":"dense_Dense3617","trainable":true},"inbound_nodes":[[["dense_Dense3616",0,0,{}]]]},{"name":"dense_Dense3618","class_name":"Dense","config":{"units":1,"activation":"relu","use_bias":true,"kernel_initializer":{"class_name":"VarianceScaling","config":{"scale":1,"mode":"fan_avg","distribution":"normal","seed":null}},"bias_initializer":{"class_name":"Zeros","config":{}},"kernel_regularizer":null,"bias_regularizer":null,"activity_regularizer":null,"kernel_constraint":null,"bias_constraint":null,"name":"dense_Dense3618","trainable":true},"inbound_nodes":[[["dense_Dense3617",0,0,{}]]]},{"name":"dense_Dense3619","class_name":"Dense","config":{"units":8,"activation":"relu","use_bias":true,"kernel_initializer":{"class_name":"VarianceScaling","config":{"scale":1,"mode":"fan_avg","distribution":"normal","seed":null}},"bias_initializer":{"class_name":"Zeros","config":{}},"kernel_regularizer":null,"bias_regularizer":null,"activity_regularizer":null,"kernel_constraint":null,"bias_constraint":null,"name":"dense_Dense3619","trainable":true},"inbound_nodes":[[["dense_Dense3618",0,0,{}]]]},{"name":"dense_Dense3620","class_name":"Dense","config":{"units":1,"activation":"sigmoid","use_bias":true,"kernel_initializer":{"class_name":"VarianceScaling","config":{"scale":1,"mode":"fan_avg","distribution":"normal","seed":null}},"bias_initializer":{"class_name":"Zeros","config":{}},"kernel_regularizer":null,"bias_regularizer":null,"activity_regularizer":null,"kernel_constraint":null,"bias_constraint":null,"name":"dense_Dense3620","trainable":true},"inbound_nodes":[[["dense_Dense3619",0,0,{}]]]}],"input_layers":[["input724",0,0]],"output_layers":[["dense_Dense3620",0,0]]},"keras_version":"tfjs-layers 3.9.0","backend":"tensor_flow.js"},"weightsManifest":[{"paths":["weights.bin"],"weights":[{"name":"dense_Dense3616/kernel","shape":[3,8],"dtype":"float32"},{"name":"dense_Dense3616/bias","shape":[8],"dtype":"float32"},{"name":"dense_Dense3617/kernel","shape":[8,4],"dtype":"float32"},{"name":"dense_Dense3617/bias","shape":[4],"dtype":"float32"},{"name":"dense_Dense3618/kernel","shape":[4,1],"dtype":"float32"},{"name":"dense_Dense3618/bias","shape":[1],"dtype":"float32"},{"name":"dense_Dense3619/kernel","shape":[1,8],"dtype":"float32"},{"name":"dense_Dense3619/bias","shape":[8],"dtype":"float32"},{"name":"dense_Dense3620/kernel","shape":[8,1],"dtype":"float32"},{"name":"dense_Dense3620/bias","shape":[1],"dtype":"float32"}]}]}