{"modelTopology":{"class_name":"Model","config":{"name":"model26","layers":[{"name":"input26","class_name":"InputLayer","config":{"batch_input_shape":[null,3],"dtype":"float32","sparse":false,"name":"input26"},"inbound_nodes":[]},{"name":"dense_Dense151","class_name":"Dense","config":{"units":2,"activation":"relu","use_bias":true,"kernel_initializer":{"class_name":"VarianceScaling","config":{"scale":1,"mode":"fan_avg","distribution":"normal","seed":null}},"bias_initializer":{"class_name":"Zeros","config":{}},"kernel_regularizer":null,"bias_regularizer":null,"activity_regularizer":null,"kernel_constraint":null,"bias_constraint":null,"name":"dense_Dense151","trainable":true},"inbound_nodes":[[["input26",0,0,{}]]]},{"name":"dense_Dense152","class_name":"Dense","config":{"units":1,"activation":"relu","use_bias":true,"kernel_initializer":{"class_name":"VarianceScaling","config":{"scale":1,"mode":"fan_avg","distribution":"normal","seed":null}},"bias_initializer":{"class_name":"Zeros","config":{}},"kernel_regularizer":null,"bias_regularizer":null,"activity_regularizer":null,"kernel_constraint":null,"bias_constraint":null,"name":"dense_Dense152","trainable":true},"inbound_nodes":[[["dense_Dense151",0,0,{}]]]},{"name":"dense_Dense153","class_name":"Dense","config":{"units":1,"activation":"relu","use_bias":true,"kernel_initializer":{"class_name":"VarianceScaling","config":{"scale":1,"mode":"fan_avg","distribution":"normal","seed":null}},"bias_initializer":{"class_name":"Zeros","config":{}},"kernel_regularizer":null,"bias_regularizer":null,"activity_regularizer":null,"kernel_constraint":null,"bias_constraint":null,"name":"dense_Dense153","trainable":true},"inbound_nodes":[[["dense_Dense152",0,0,{}]]]},{"name":"dense_Dense154","class_name":"Dense","config":{"units":16,"activation":"relu","use_bias":true,"kernel_initializer":{"class_name":"VarianceScaling","config":{"scale":1,"mode":"fan_avg","distribution":"normal","seed":null}},"bias_initializer":{"class_name":"Zeros","config":{}},"kernel_regularizer":null,"bias_regularizer":null,"activity_regularizer":null,"kernel_constraint":null,"bias_constraint":null,"name":"dense_Dense154","trainable":true},"inbound_nodes":[[["dense_Dense153",0,0,{}]]]},{"name":"dense_Dense155","class_name":"Dense","config":{"units":2,"activation":"relu","use_bias":true,"kernel_initializer":{"class_name":"VarianceScaling","config":{"scale":1,"mode":"fan_avg","distribution":"normal","seed":null}},"bias_initializer":{"class_name":"Zeros","config":{}},"kernel_regularizer":null,"bias_regularizer":null,"activity_regularizer":null,"kernel_constraint":null,"bias_constraint":null,"name":"dense_Dense155","trainable":true},"inbound_nodes":[[["dense_Dense154",0,0,{}]]]},{"name":"dense_Dense156","class_name":"Dense","config":{"units":1,"activation":"sigmoid","use_bias":true,"kernel_initializer":{"class_name":"VarianceScaling","config":{"scale":1,"mode":"fan_avg","distribution":"normal","seed":null}},"bias_initializer":{"class_name":"Zeros","config":{}},"kernel_regularizer":null,"bias_regularizer":null,"activity_regularizer":null,"kernel_constraint":null,"bias_constraint":null,"name":"dense_Dense156","trainable":true},"inbound_nodes":[[["dense_Dense155",0,0,{}]]]}],"input_layers":[["input26",0,0]],"output_layers":[["dense_Dense156",0,0]]},"keras_version":"tfjs-layers 3.9.0","backend":"tensor_flow.js"},"weightsManifest":[{"paths":["weights.bin"],"weights":[{"name":"dense_Dense151/kernel","shape":[3,2],"dtype":"float32"},{"name":"dense_Dense151/bias","shape":[2],"dtype":"float32"},{"name":"dense_Dense152/kernel","shape":[2,1],"dtype":"float32"},{"name":"dense_Dense152/bias","shape":[1],"dtype":"float32"},{"name":"dense_Dense153/kernel","shape":[1,1],"dtype":"float32"},{"name":"dense_Dense153/bias","shape":[1],"dtype":"float32"},{"name":"dense_Dense154/kernel","shape":[1,16],"dtype":"float32"},{"name":"dense_Dense154/bias","shape":[16],"dtype":"float32"},{"name":"dense_Dense155/kernel","shape":[16,2],"dtype":"float32"},{"name":"dense_Dense155/bias","shape":[2],"dtype":"float32"},{"name":"dense_Dense156/kernel","shape":[2,1],"dtype":"float32"},{"name":"dense_Dense156/bias","shape":[1],"dtype":"float32"}]}]}