{"modelTopology":{"class_name":"Model","config":{"name":"model418","layers":[{"name":"input418","class_name":"InputLayer","config":{"batch_input_shape":[null,3],"dtype":"float32","sparse":false,"name":"input418"},"inbound_nodes":[]},{"name":"dense_Dense2086","class_name":"Dense","config":{"units":2,"activation":"relu","use_bias":true,"kernel_initializer":{"class_name":"VarianceScaling","config":{"scale":1,"mode":"fan_avg","distribution":"normal","seed":null}},"bias_initializer":{"class_name":"Zeros","config":{}},"kernel_regularizer":null,"bias_regularizer":null,"activity_regularizer":null,"kernel_constraint":null,"bias_constraint":null,"name":"dense_Dense2086","trainable":true},"inbound_nodes":[[["input418",0,0,{}]]]},{"name":"dense_Dense2087","class_name":"Dense","config":{"units":32,"activation":"relu","use_bias":true,"kernel_initializer":{"class_name":"VarianceScaling","config":{"scale":1,"mode":"fan_avg","distribution":"normal","seed":null}},"bias_initializer":{"class_name":"Zeros","config":{}},"kernel_regularizer":null,"bias_regularizer":null,"activity_regularizer":null,"kernel_constraint":null,"bias_constraint":null,"name":"dense_Dense2087","trainable":true},"inbound_nodes":[[["dense_Dense2086",0,0,{}]]]},{"name":"dense_Dense2088","class_name":"Dense","config":{"units":8,"activation":"relu","use_bias":true,"kernel_initializer":{"class_name":"VarianceScaling","config":{"scale":1,"mode":"fan_avg","distribution":"normal","seed":null}},"bias_initializer":{"class_name":"Zeros","config":{}},"kernel_regularizer":null,"bias_regularizer":null,"activity_regularizer":null,"kernel_constraint":null,"bias_constraint":null,"name":"dense_Dense2088","trainable":true},"inbound_nodes":[[["dense_Dense2087",0,0,{}]]]},{"name":"dense_Dense2089","class_name":"Dense","config":{"units":8,"activation":"relu","use_bias":true,"kernel_initializer":{"class_name":"VarianceScaling","config":{"scale":1,"mode":"fan_avg","distribution":"normal","seed":null}},"bias_initializer":{"class_name":"Zeros","config":{}},"kernel_regularizer":null,"bias_regularizer":null,"activity_regularizer":null,"kernel_constraint":null,"bias_constraint":null,"name":"dense_Dense2089","trainable":true},"inbound_nodes":[[["dense_Dense2088",0,0,{}]]]},{"name":"dense_Dense2090","class_name":"Dense","config":{"units":1,"activation":"sigmoid","use_bias":true,"kernel_initializer":{"class_name":"VarianceScaling","config":{"scale":1,"mode":"fan_avg","distribution":"normal","seed":null}},"bias_initializer":{"class_name":"Zeros","config":{}},"kernel_regularizer":null,"bias_regularizer":null,"activity_regularizer":null,"kernel_constraint":null,"bias_constraint":null,"name":"dense_Dense2090","trainable":true},"inbound_nodes":[[["dense_Dense2089",0,0,{}]]]}],"input_layers":[["input418",0,0]],"output_layers":[["dense_Dense2090",0,0]]},"keras_version":"tfjs-layers 3.9.0","backend":"tensor_flow.js"},"weightsManifest":[{"paths":["weights.bin"],"weights":[{"name":"dense_Dense2086/kernel","shape":[3,2],"dtype":"float32"},{"name":"dense_Dense2086/bias","shape":[2],"dtype":"float32"},{"name":"dense_Dense2087/kernel","shape":[2,32],"dtype":"float32"},{"name":"dense_Dense2087/bias","shape":[32],"dtype":"float32"},{"name":"dense_Dense2088/kernel","shape":[32,8],"dtype":"float32"},{"name":"dense_Dense2088/bias","shape":[8],"dtype":"float32"},{"name":"dense_Dense2089/kernel","shape":[8,8],"dtype":"float32"},{"name":"dense_Dense2089/bias","shape":[8],"dtype":"float32"},{"name":"dense_Dense2090/kernel","shape":[8,1],"dtype":"float32"},{"name":"dense_Dense2090/bias","shape":[1],"dtype":"float32"}]}]}