{"modelTopology":{"class_name":"Model","config":{"name":"model857","layers":[{"name":"input857","class_name":"InputLayer","config":{"batch_input_shape":[null,3],"dtype":"float32","sparse":false,"name":"input857"},"inbound_nodes":[]},{"name":"dense_Dense4281","class_name":"Dense","config":{"units":8,"activation":"relu","use_bias":true,"kernel_initializer":{"class_name":"VarianceScaling","config":{"scale":1,"mode":"fan_avg","distribution":"normal","seed":null}},"bias_initializer":{"class_name":"Zeros","config":{}},"kernel_regularizer":null,"bias_regularizer":null,"activity_regularizer":null,"kernel_constraint":null,"bias_constraint":null,"name":"dense_Dense4281","trainable":true},"inbound_nodes":[[["input857",0,0,{}]]]},{"name":"dense_Dense4282","class_name":"Dense","config":{"units":32,"activation":"relu","use_bias":true,"kernel_initializer":{"class_name":"VarianceScaling","config":{"scale":1,"mode":"fan_avg","distribution":"normal","seed":null}},"bias_initializer":{"class_name":"Zeros","config":{}},"kernel_regularizer":null,"bias_regularizer":null,"activity_regularizer":null,"kernel_constraint":null,"bias_constraint":null,"name":"dense_Dense4282","trainable":true},"inbound_nodes":[[["dense_Dense4281",0,0,{}]]]},{"name":"dense_Dense4283","class_name":"Dense","config":{"units":16,"activation":"relu","use_bias":true,"kernel_initializer":{"class_name":"VarianceScaling","config":{"scale":1,"mode":"fan_avg","distribution":"normal","seed":null}},"bias_initializer":{"class_name":"Zeros","config":{}},"kernel_regularizer":null,"bias_regularizer":null,"activity_regularizer":null,"kernel_constraint":null,"bias_constraint":null,"name":"dense_Dense4283","trainable":true},"inbound_nodes":[[["dense_Dense4282",0,0,{}]]]},{"name":"dense_Dense4284","class_name":"Dense","config":{"units":16,"activation":"relu","use_bias":true,"kernel_initializer":{"class_name":"VarianceScaling","config":{"scale":1,"mode":"fan_avg","distribution":"normal","seed":null}},"bias_initializer":{"class_name":"Zeros","config":{}},"kernel_regularizer":null,"bias_regularizer":null,"activity_regularizer":null,"kernel_constraint":null,"bias_constraint":null,"name":"dense_Dense4284","trainable":true},"inbound_nodes":[[["dense_Dense4283",0,0,{}]]]},{"name":"dense_Dense4285","class_name":"Dense","config":{"units":1,"activation":"sigmoid","use_bias":true,"kernel_initializer":{"class_name":"VarianceScaling","config":{"scale":1,"mode":"fan_avg","distribution":"normal","seed":null}},"bias_initializer":{"class_name":"Zeros","config":{}},"kernel_regularizer":null,"bias_regularizer":null,"activity_regularizer":null,"kernel_constraint":null,"bias_constraint":null,"name":"dense_Dense4285","trainable":true},"inbound_nodes":[[["dense_Dense4284",0,0,{}]]]}],"input_layers":[["input857",0,0]],"output_layers":[["dense_Dense4285",0,0]]},"keras_version":"tfjs-layers 3.9.0","backend":"tensor_flow.js"},"weightsManifest":[{"paths":["weights.bin"],"weights":[{"name":"dense_Dense4281/kernel","shape":[3,8],"dtype":"float32"},{"name":"dense_Dense4281/bias","shape":[8],"dtype":"float32"},{"name":"dense_Dense4282/kernel","shape":[8,32],"dtype":"float32"},{"name":"dense_Dense4282/bias","shape":[32],"dtype":"float32"},{"name":"dense_Dense4283/kernel","shape":[32,16],"dtype":"float32"},{"name":"dense_Dense4283/bias","shape":[16],"dtype":"float32"},{"name":"dense_Dense4284/kernel","shape":[16,16],"dtype":"float32"},{"name":"dense_Dense4284/bias","shape":[16],"dtype":"float32"},{"name":"dense_Dense4285/kernel","shape":[16,1],"dtype":"float32"},{"name":"dense_Dense4285/bias","shape":[1],"dtype":"float32"}]}]}