{"modelTopology":{"class_name":"Model","config":{"name":"model458","layers":[{"name":"input458","class_name":"InputLayer","config":{"batch_input_shape":[null,3],"dtype":"float32","sparse":false,"name":"input458"},"inbound_nodes":[]},{"name":"dense_Dense2743","class_name":"Dense","config":{"units":8,"activation":"relu","use_bias":true,"kernel_initializer":{"class_name":"VarianceScaling","config":{"scale":1,"mode":"fan_avg","distribution":"normal","seed":null}},"bias_initializer":{"class_name":"Zeros","config":{}},"kernel_regularizer":null,"bias_regularizer":null,"activity_regularizer":null,"kernel_constraint":null,"bias_constraint":null,"name":"dense_Dense2743","trainable":true},"inbound_nodes":[[["input458",0,0,{}]]]},{"name":"dense_Dense2744","class_name":"Dense","config":{"units":4,"activation":"relu","use_bias":true,"kernel_initializer":{"class_name":"VarianceScaling","config":{"scale":1,"mode":"fan_avg","distribution":"normal","seed":null}},"bias_initializer":{"class_name":"Zeros","config":{}},"kernel_regularizer":null,"bias_regularizer":null,"activity_regularizer":null,"kernel_constraint":null,"bias_constraint":null,"name":"dense_Dense2744","trainable":true},"inbound_nodes":[[["dense_Dense2743",0,0,{}]]]},{"name":"dense_Dense2745","class_name":"Dense","config":{"units":1,"activation":"relu","use_bias":true,"kernel_initializer":{"class_name":"VarianceScaling","config":{"scale":1,"mode":"fan_avg","distribution":"normal","seed":null}},"bias_initializer":{"class_name":"Zeros","config":{}},"kernel_regularizer":null,"bias_regularizer":null,"activity_regularizer":null,"kernel_constraint":null,"bias_constraint":null,"name":"dense_Dense2745","trainable":true},"inbound_nodes":[[["dense_Dense2744",0,0,{}]]]},{"name":"dense_Dense2746","class_name":"Dense","config":{"units":16,"activation":"relu","use_bias":true,"kernel_initializer":{"class_name":"VarianceScaling","config":{"scale":1,"mode":"fan_avg","distribution":"normal","seed":null}},"bias_initializer":{"class_name":"Zeros","config":{}},"kernel_regularizer":null,"bias_regularizer":null,"activity_regularizer":null,"kernel_constraint":null,"bias_constraint":null,"name":"dense_Dense2746","trainable":true},"inbound_nodes":[[["dense_Dense2745",0,0,{}]]]},{"name":"dense_Dense2747","class_name":"Dense","config":{"units":2,"activation":"relu","use_bias":true,"kernel_initializer":{"class_name":"VarianceScaling","config":{"scale":1,"mode":"fan_avg","distribution":"normal","seed":null}},"bias_initializer":{"class_name":"Zeros","config":{}},"kernel_regularizer":null,"bias_regularizer":null,"activity_regularizer":null,"kernel_constraint":null,"bias_constraint":null,"name":"dense_Dense2747","trainable":true},"inbound_nodes":[[["dense_Dense2746",0,0,{}]]]},{"name":"dense_Dense2748","class_name":"Dense","config":{"units":1,"activation":"sigmoid","use_bias":true,"kernel_initializer":{"class_name":"VarianceScaling","config":{"scale":1,"mode":"fan_avg","distribution":"normal","seed":null}},"bias_initializer":{"class_name":"Zeros","config":{}},"kernel_regularizer":null,"bias_regularizer":null,"activity_regularizer":null,"kernel_constraint":null,"bias_constraint":null,"name":"dense_Dense2748","trainable":true},"inbound_nodes":[[["dense_Dense2747",0,0,{}]]]}],"input_layers":[["input458",0,0]],"output_layers":[["dense_Dense2748",0,0]]},"keras_version":"tfjs-layers 3.9.0","backend":"tensor_flow.js"},"weightsManifest":[{"paths":["weights.bin"],"weights":[{"name":"dense_Dense2743/kernel","shape":[3,8],"dtype":"float32"},{"name":"dense_Dense2743/bias","shape":[8],"dtype":"float32"},{"name":"dense_Dense2744/kernel","shape":[8,4],"dtype":"float32"},{"name":"dense_Dense2744/bias","shape":[4],"dtype":"float32"},{"name":"dense_Dense2745/kernel","shape":[4,1],"dtype":"float32"},{"name":"dense_Dense2745/bias","shape":[1],"dtype":"float32"},{"name":"dense_Dense2746/kernel","shape":[1,16],"dtype":"float32"},{"name":"dense_Dense2746/bias","shape":[16],"dtype":"float32"},{"name":"dense_Dense2747/kernel","shape":[16,2],"dtype":"float32"},{"name":"dense_Dense2747/bias","shape":[2],"dtype":"float32"},{"name":"dense_Dense2748/kernel","shape":[2,1],"dtype":"float32"},{"name":"dense_Dense2748/bias","shape":[1],"dtype":"float32"}]}]}