{"modelTopology":{"class_name":"Model","config":{"name":"model406","layers":[{"name":"input406","class_name":"InputLayer","config":{"batch_input_shape":[null,3],"dtype":"float32","sparse":false,"name":"input406"},"inbound_nodes":[]},{"name":"dense_Dense2026","class_name":"Dense","config":{"units":2,"activation":"relu","use_bias":true,"kernel_initializer":{"class_name":"VarianceScaling","config":{"scale":1,"mode":"fan_avg","distribution":"normal","seed":null}},"bias_initializer":{"class_name":"Zeros","config":{}},"kernel_regularizer":null,"bias_regularizer":null,"activity_regularizer":null,"kernel_constraint":null,"bias_constraint":null,"name":"dense_Dense2026","trainable":true},"inbound_nodes":[[["input406",0,0,{}]]]},{"name":"dense_Dense2027","class_name":"Dense","config":{"units":32,"activation":"relu","use_bias":true,"kernel_initializer":{"class_name":"VarianceScaling","config":{"scale":1,"mode":"fan_avg","distribution":"normal","seed":null}},"bias_initializer":{"class_name":"Zeros","config":{}},"kernel_regularizer":null,"bias_regularizer":null,"activity_regularizer":null,"kernel_constraint":null,"bias_constraint":null,"name":"dense_Dense2027","trainable":true},"inbound_nodes":[[["dense_Dense2026",0,0,{}]]]},{"name":"dense_Dense2028","class_name":"Dense","config":{"units":2,"activation":"relu","use_bias":true,"kernel_initializer":{"class_name":"VarianceScaling","config":{"scale":1,"mode":"fan_avg","distribution":"normal","seed":null}},"bias_initializer":{"class_name":"Zeros","config":{}},"kernel_regularizer":null,"bias_regularizer":null,"activity_regularizer":null,"kernel_constraint":null,"bias_constraint":null,"name":"dense_Dense2028","trainable":true},"inbound_nodes":[[["dense_Dense2027",0,0,{}]]]},{"name":"dense_Dense2029","class_name":"Dense","config":{"units":8,"activation":"relu","use_bias":true,"kernel_initializer":{"class_name":"VarianceScaling","config":{"scale":1,"mode":"fan_avg","distribution":"normal","seed":null}},"bias_initializer":{"class_name":"Zeros","config":{}},"kernel_regularizer":null,"bias_regularizer":null,"activity_regularizer":null,"kernel_constraint":null,"bias_constraint":null,"name":"dense_Dense2029","trainable":true},"inbound_nodes":[[["dense_Dense2028",0,0,{}]]]},{"name":"dense_Dense2030","class_name":"Dense","config":{"units":1,"activation":"sigmoid","use_bias":true,"kernel_initializer":{"class_name":"VarianceScaling","config":{"scale":1,"mode":"fan_avg","distribution":"normal","seed":null}},"bias_initializer":{"class_name":"Zeros","config":{}},"kernel_regularizer":null,"bias_regularizer":null,"activity_regularizer":null,"kernel_constraint":null,"bias_constraint":null,"name":"dense_Dense2030","trainable":true},"inbound_nodes":[[["dense_Dense2029",0,0,{}]]]}],"input_layers":[["input406",0,0]],"output_layers":[["dense_Dense2030",0,0]]},"keras_version":"tfjs-layers 3.9.0","backend":"tensor_flow.js"},"weightsManifest":[{"paths":["weights.bin"],"weights":[{"name":"dense_Dense2026/kernel","shape":[3,2],"dtype":"float32"},{"name":"dense_Dense2026/bias","shape":[2],"dtype":"float32"},{"name":"dense_Dense2027/kernel","shape":[2,32],"dtype":"float32"},{"name":"dense_Dense2027/bias","shape":[32],"dtype":"float32"},{"name":"dense_Dense2028/kernel","shape":[32,2],"dtype":"float32"},{"name":"dense_Dense2028/bias","shape":[2],"dtype":"float32"},{"name":"dense_Dense2029/kernel","shape":[2,8],"dtype":"float32"},{"name":"dense_Dense2029/bias","shape":[8],"dtype":"float32"},{"name":"dense_Dense2030/kernel","shape":[8,1],"dtype":"float32"},{"name":"dense_Dense2030/bias","shape":[1],"dtype":"float32"}]}]}