{"modelTopology":{"class_name":"Model","config":{"name":"model148","layers":[{"name":"input148","class_name":"InputLayer","config":{"batch_input_shape":[null,3],"dtype":"float32","sparse":false,"name":"input148"},"inbound_nodes":[]},{"name":"dense_Dense883","class_name":"Dense","config":{"units":2,"activation":"relu","use_bias":true,"kernel_initializer":{"class_name":"VarianceScaling","config":{"scale":1,"mode":"fan_avg","distribution":"normal","seed":null}},"bias_initializer":{"class_name":"Zeros","config":{}},"kernel_regularizer":null,"bias_regularizer":null,"activity_regularizer":null,"kernel_constraint":null,"bias_constraint":null,"name":"dense_Dense883","trainable":true},"inbound_nodes":[[["input148",0,0,{}]]]},{"name":"dense_Dense884","class_name":"Dense","config":{"units":1,"activation":"relu","use_bias":true,"kernel_initializer":{"class_name":"VarianceScaling","config":{"scale":1,"mode":"fan_avg","distribution":"normal","seed":null}},"bias_initializer":{"class_name":"Zeros","config":{}},"kernel_regularizer":null,"bias_regularizer":null,"activity_regularizer":null,"kernel_constraint":null,"bias_constraint":null,"name":"dense_Dense884","trainable":true},"inbound_nodes":[[["dense_Dense883",0,0,{}]]]},{"name":"dense_Dense885","class_name":"Dense","config":{"units":16,"activation":"relu","use_bias":true,"kernel_initializer":{"class_name":"VarianceScaling","config":{"scale":1,"mode":"fan_avg","distribution":"normal","seed":null}},"bias_initializer":{"class_name":"Zeros","config":{}},"kernel_regularizer":null,"bias_regularizer":null,"activity_regularizer":null,"kernel_constraint":null,"bias_constraint":null,"name":"dense_Dense885","trainable":true},"inbound_nodes":[[["dense_Dense884",0,0,{}]]]},{"name":"dense_Dense886","class_name":"Dense","config":{"units":1,"activation":"relu","use_bias":true,"kernel_initializer":{"class_name":"VarianceScaling","config":{"scale":1,"mode":"fan_avg","distribution":"normal","seed":null}},"bias_initializer":{"class_name":"Zeros","config":{}},"kernel_regularizer":null,"bias_regularizer":null,"activity_regularizer":null,"kernel_constraint":null,"bias_constraint":null,"name":"dense_Dense886","trainable":true},"inbound_nodes":[[["dense_Dense885",0,0,{}]]]},{"name":"dense_Dense887","class_name":"Dense","config":{"units":8,"activation":"relu","use_bias":true,"kernel_initializer":{"class_name":"VarianceScaling","config":{"scale":1,"mode":"fan_avg","distribution":"normal","seed":null}},"bias_initializer":{"class_name":"Zeros","config":{}},"kernel_regularizer":null,"bias_regularizer":null,"activity_regularizer":null,"kernel_constraint":null,"bias_constraint":null,"name":"dense_Dense887","trainable":true},"inbound_nodes":[[["dense_Dense886",0,0,{}]]]},{"name":"dense_Dense888","class_name":"Dense","config":{"units":1,"activation":"sigmoid","use_bias":true,"kernel_initializer":{"class_name":"VarianceScaling","config":{"scale":1,"mode":"fan_avg","distribution":"normal","seed":null}},"bias_initializer":{"class_name":"Zeros","config":{}},"kernel_regularizer":null,"bias_regularizer":null,"activity_regularizer":null,"kernel_constraint":null,"bias_constraint":null,"name":"dense_Dense888","trainable":true},"inbound_nodes":[[["dense_Dense887",0,0,{}]]]}],"input_layers":[["input148",0,0]],"output_layers":[["dense_Dense888",0,0]]},"keras_version":"tfjs-layers 3.9.0","backend":"tensor_flow.js"},"weightsManifest":[{"paths":["weights.bin"],"weights":[{"name":"dense_Dense883/kernel","shape":[3,2],"dtype":"float32"},{"name":"dense_Dense883/bias","shape":[2],"dtype":"float32"},{"name":"dense_Dense884/kernel","shape":[2,1],"dtype":"float32"},{"name":"dense_Dense884/bias","shape":[1],"dtype":"float32"},{"name":"dense_Dense885/kernel","shape":[1,16],"dtype":"float32"},{"name":"dense_Dense885/bias","shape":[16],"dtype":"float32"},{"name":"dense_Dense886/kernel","shape":[16,1],"dtype":"float32"},{"name":"dense_Dense886/bias","shape":[1],"dtype":"float32"},{"name":"dense_Dense887/kernel","shape":[1,8],"dtype":"float32"},{"name":"dense_Dense887/bias","shape":[8],"dtype":"float32"},{"name":"dense_Dense888/kernel","shape":[8,1],"dtype":"float32"},{"name":"dense_Dense888/bias","shape":[1],"dtype":"float32"}]}]}