{"modelTopology":{"class_name":"Model","config":{"name":"model67","layers":[{"name":"input67","class_name":"InputLayer","config":{"batch_input_shape":[null,3],"dtype":"float32","sparse":false,"name":"input67"},"inbound_nodes":[]},{"name":"dense_Dense397","class_name":"Dense","config":{"units":8,"activation":"relu","use_bias":true,"kernel_initializer":{"class_name":"VarianceScaling","config":{"scale":1,"mode":"fan_avg","distribution":"normal","seed":null}},"bias_initializer":{"class_name":"Zeros","config":{}},"kernel_regularizer":null,"bias_regularizer":null,"activity_regularizer":null,"kernel_constraint":null,"bias_constraint":null,"name":"dense_Dense397","trainable":true},"inbound_nodes":[[["input67",0,0,{}]]]},{"name":"dense_Dense398","class_name":"Dense","config":{"units":1,"activation":"relu","use_bias":true,"kernel_initializer":{"class_name":"VarianceScaling","config":{"scale":1,"mode":"fan_avg","distribution":"normal","seed":null}},"bias_initializer":{"class_name":"Zeros","config":{}},"kernel_regularizer":null,"bias_regularizer":null,"activity_regularizer":null,"kernel_constraint":null,"bias_constraint":null,"name":"dense_Dense398","trainable":true},"inbound_nodes":[[["dense_Dense397",0,0,{}]]]},{"name":"dense_Dense399","class_name":"Dense","config":{"units":2,"activation":"relu","use_bias":true,"kernel_initializer":{"class_name":"VarianceScaling","config":{"scale":1,"mode":"fan_avg","distribution":"normal","seed":null}},"bias_initializer":{"class_name":"Zeros","config":{}},"kernel_regularizer":null,"bias_regularizer":null,"activity_regularizer":null,"kernel_constraint":null,"bias_constraint":null,"name":"dense_Dense399","trainable":true},"inbound_nodes":[[["dense_Dense398",0,0,{}]]]},{"name":"dense_Dense400","class_name":"Dense","config":{"units":32,"activation":"relu","use_bias":true,"kernel_initializer":{"class_name":"VarianceScaling","config":{"scale":1,"mode":"fan_avg","distribution":"normal","seed":null}},"bias_initializer":{"class_name":"Zeros","config":{}},"kernel_regularizer":null,"bias_regularizer":null,"activity_regularizer":null,"kernel_constraint":null,"bias_constraint":null,"name":"dense_Dense400","trainable":true},"inbound_nodes":[[["dense_Dense399",0,0,{}]]]},{"name":"dense_Dense401","class_name":"Dense","config":{"units":1,"activation":"relu","use_bias":true,"kernel_initializer":{"class_name":"VarianceScaling","config":{"scale":1,"mode":"fan_avg","distribution":"normal","seed":null}},"bias_initializer":{"class_name":"Zeros","config":{}},"kernel_regularizer":null,"bias_regularizer":null,"activity_regularizer":null,"kernel_constraint":null,"bias_constraint":null,"name":"dense_Dense401","trainable":true},"inbound_nodes":[[["dense_Dense400",0,0,{}]]]},{"name":"dense_Dense402","class_name":"Dense","config":{"units":1,"activation":"sigmoid","use_bias":true,"kernel_initializer":{"class_name":"VarianceScaling","config":{"scale":1,"mode":"fan_avg","distribution":"normal","seed":null}},"bias_initializer":{"class_name":"Zeros","config":{}},"kernel_regularizer":null,"bias_regularizer":null,"activity_regularizer":null,"kernel_constraint":null,"bias_constraint":null,"name":"dense_Dense402","trainable":true},"inbound_nodes":[[["dense_Dense401",0,0,{}]]]}],"input_layers":[["input67",0,0]],"output_layers":[["dense_Dense402",0,0]]},"keras_version":"tfjs-layers 3.9.0","backend":"tensor_flow.js"},"weightsManifest":[{"paths":["weights.bin"],"weights":[{"name":"dense_Dense397/kernel","shape":[3,8],"dtype":"float32"},{"name":"dense_Dense397/bias","shape":[8],"dtype":"float32"},{"name":"dense_Dense398/kernel","shape":[8,1],"dtype":"float32"},{"name":"dense_Dense398/bias","shape":[1],"dtype":"float32"},{"name":"dense_Dense399/kernel","shape":[1,2],"dtype":"float32"},{"name":"dense_Dense399/bias","shape":[2],"dtype":"float32"},{"name":"dense_Dense400/kernel","shape":[2,32],"dtype":"float32"},{"name":"dense_Dense400/bias","shape":[32],"dtype":"float32"},{"name":"dense_Dense401/kernel","shape":[32,1],"dtype":"float32"},{"name":"dense_Dense401/bias","shape":[1],"dtype":"float32"},{"name":"dense_Dense402/kernel","shape":[1,1],"dtype":"float32"},{"name":"dense_Dense402/bias","shape":[1],"dtype":"float32"}]}]}