{"modelTopology":{"class_name":"Model","config":{"name":"model121","layers":[{"name":"input121","class_name":"InputLayer","config":{"batch_input_shape":[null,3],"dtype":"float32","sparse":false,"name":"input121"},"inbound_nodes":[]},{"name":"dense_Dense721","class_name":"Dense","config":{"units":8,"activation":"relu","use_bias":true,"kernel_initializer":{"class_name":"VarianceScaling","config":{"scale":1,"mode":"fan_avg","distribution":"normal","seed":null}},"bias_initializer":{"class_name":"Zeros","config":{}},"kernel_regularizer":null,"bias_regularizer":null,"activity_regularizer":null,"kernel_constraint":null,"bias_constraint":null,"name":"dense_Dense721","trainable":true},"inbound_nodes":[[["input121",0,0,{}]]]},{"name":"dense_Dense722","class_name":"Dense","config":{"units":1,"activation":"relu","use_bias":true,"kernel_initializer":{"class_name":"VarianceScaling","config":{"scale":1,"mode":"fan_avg","distribution":"normal","seed":null}},"bias_initializer":{"class_name":"Zeros","config":{}},"kernel_regularizer":null,"bias_regularizer":null,"activity_regularizer":null,"kernel_constraint":null,"bias_constraint":null,"name":"dense_Dense722","trainable":true},"inbound_nodes":[[["dense_Dense721",0,0,{}]]]},{"name":"dense_Dense723","class_name":"Dense","config":{"units":8,"activation":"relu","use_bias":true,"kernel_initializer":{"class_name":"VarianceScaling","config":{"scale":1,"mode":"fan_avg","distribution":"normal","seed":null}},"bias_initializer":{"class_name":"Zeros","config":{}},"kernel_regularizer":null,"bias_regularizer":null,"activity_regularizer":null,"kernel_constraint":null,"bias_constraint":null,"name":"dense_Dense723","trainable":true},"inbound_nodes":[[["dense_Dense722",0,0,{}]]]},{"name":"dense_Dense724","class_name":"Dense","config":{"units":4,"activation":"relu","use_bias":true,"kernel_initializer":{"class_name":"VarianceScaling","config":{"scale":1,"mode":"fan_avg","distribution":"normal","seed":null}},"bias_initializer":{"class_name":"Zeros","config":{}},"kernel_regularizer":null,"bias_regularizer":null,"activity_regularizer":null,"kernel_constraint":null,"bias_constraint":null,"name":"dense_Dense724","trainable":true},"inbound_nodes":[[["dense_Dense723",0,0,{}]]]},{"name":"dense_Dense725","class_name":"Dense","config":{"units":1,"activation":"relu","use_bias":true,"kernel_initializer":{"class_name":"VarianceScaling","config":{"scale":1,"mode":"fan_avg","distribution":"normal","seed":null}},"bias_initializer":{"class_name":"Zeros","config":{}},"kernel_regularizer":null,"bias_regularizer":null,"activity_regularizer":null,"kernel_constraint":null,"bias_constraint":null,"name":"dense_Dense725","trainable":true},"inbound_nodes":[[["dense_Dense724",0,0,{}]]]},{"name":"dense_Dense726","class_name":"Dense","config":{"units":1,"activation":"sigmoid","use_bias":true,"kernel_initializer":{"class_name":"VarianceScaling","config":{"scale":1,"mode":"fan_avg","distribution":"normal","seed":null}},"bias_initializer":{"class_name":"Zeros","config":{}},"kernel_regularizer":null,"bias_regularizer":null,"activity_regularizer":null,"kernel_constraint":null,"bias_constraint":null,"name":"dense_Dense726","trainable":true},"inbound_nodes":[[["dense_Dense725",0,0,{}]]]}],"input_layers":[["input121",0,0]],"output_layers":[["dense_Dense726",0,0]]},"keras_version":"tfjs-layers 3.9.0","backend":"tensor_flow.js"},"weightsManifest":[{"paths":["weights.bin"],"weights":[{"name":"dense_Dense721/kernel","shape":[3,8],"dtype":"float32"},{"name":"dense_Dense721/bias","shape":[8],"dtype":"float32"},{"name":"dense_Dense722/kernel","shape":[8,1],"dtype":"float32"},{"name":"dense_Dense722/bias","shape":[1],"dtype":"float32"},{"name":"dense_Dense723/kernel","shape":[1,8],"dtype":"float32"},{"name":"dense_Dense723/bias","shape":[8],"dtype":"float32"},{"name":"dense_Dense724/kernel","shape":[8,4],"dtype":"float32"},{"name":"dense_Dense724/bias","shape":[4],"dtype":"float32"},{"name":"dense_Dense725/kernel","shape":[4,1],"dtype":"float32"},{"name":"dense_Dense725/bias","shape":[1],"dtype":"float32"},{"name":"dense_Dense726/kernel","shape":[1,1],"dtype":"float32"},{"name":"dense_Dense726/bias","shape":[1],"dtype":"float32"}]}]}