{"modelTopology":{"class_name":"Model","config":{"name":"model200","layers":[{"name":"input200","class_name":"InputLayer","config":{"batch_input_shape":[null,3],"dtype":"float32","sparse":false,"name":"input200"},"inbound_nodes":[]},{"name":"dense_Dense797","class_name":"Dense","config":{"units":32,"activation":"relu","use_bias":true,"kernel_initializer":{"class_name":"VarianceScaling","config":{"scale":1,"mode":"fan_avg","distribution":"normal","seed":null}},"bias_initializer":{"class_name":"Zeros","config":{}},"kernel_regularizer":null,"bias_regularizer":null,"activity_regularizer":null,"kernel_constraint":null,"bias_constraint":null,"name":"dense_Dense797","trainable":true},"inbound_nodes":[[["input200",0,0,{}]]]},{"name":"dense_Dense798","class_name":"Dense","config":{"units":8,"activation":"relu","use_bias":true,"kernel_initializer":{"class_name":"VarianceScaling","config":{"scale":1,"mode":"fan_avg","distribution":"normal","seed":null}},"bias_initializer":{"class_name":"Zeros","config":{}},"kernel_regularizer":null,"bias_regularizer":null,"activity_regularizer":null,"kernel_constraint":null,"bias_constraint":null,"name":"dense_Dense798","trainable":true},"inbound_nodes":[[["dense_Dense797",0,0,{}]]]},{"name":"dense_Dense799","class_name":"Dense","config":{"units":2,"activation":"relu","use_bias":true,"kernel_initializer":{"class_name":"VarianceScaling","config":{"scale":1,"mode":"fan_avg","distribution":"normal","seed":null}},"bias_initializer":{"class_name":"Zeros","config":{}},"kernel_regularizer":null,"bias_regularizer":null,"activity_regularizer":null,"kernel_constraint":null,"bias_constraint":null,"name":"dense_Dense799","trainable":true},"inbound_nodes":[[["dense_Dense798",0,0,{}]]]},{"name":"dense_Dense800","class_name":"Dense","config":{"units":1,"activation":"sigmoid","use_bias":true,"kernel_initializer":{"class_name":"VarianceScaling","config":{"scale":1,"mode":"fan_avg","distribution":"normal","seed":null}},"bias_initializer":{"class_name":"Zeros","config":{}},"kernel_regularizer":null,"bias_regularizer":null,"activity_regularizer":null,"kernel_constraint":null,"bias_constraint":null,"name":"dense_Dense800","trainable":true},"inbound_nodes":[[["dense_Dense799",0,0,{}]]]}],"input_layers":[["input200",0,0]],"output_layers":[["dense_Dense800",0,0]]},"keras_version":"tfjs-layers 3.9.0","backend":"tensor_flow.js"},"weightsManifest":[{"paths":["weights.bin"],"weights":[{"name":"dense_Dense797/kernel","shape":[3,32],"dtype":"float32"},{"name":"dense_Dense797/bias","shape":[32],"dtype":"float32"},{"name":"dense_Dense798/kernel","shape":[32,8],"dtype":"float32"},{"name":"dense_Dense798/bias","shape":[8],"dtype":"float32"},{"name":"dense_Dense799/kernel","shape":[8,2],"dtype":"float32"},{"name":"dense_Dense799/bias","shape":[2],"dtype":"float32"},{"name":"dense_Dense800/kernel","shape":[2,1],"dtype":"float32"},{"name":"dense_Dense800/bias","shape":[1],"dtype":"float32"}]}]}