{"modelTopology":{"class_name":"Model","config":{"name":"model432","layers":[{"name":"input432","class_name":"InputLayer","config":{"batch_input_shape":[null,3],"dtype":"float32","sparse":false,"name":"input432"},"inbound_nodes":[]},{"name":"dense_Dense2587","class_name":"Dense","config":{"units":4,"activation":"relu","use_bias":true,"kernel_initializer":{"class_name":"VarianceScaling","config":{"scale":1,"mode":"fan_avg","distribution":"normal","seed":null}},"bias_initializer":{"class_name":"Zeros","config":{}},"kernel_regularizer":null,"bias_regularizer":null,"activity_regularizer":null,"kernel_constraint":null,"bias_constraint":null,"name":"dense_Dense2587","trainable":true},"inbound_nodes":[[["input432",0,0,{}]]]},{"name":"dense_Dense2588","class_name":"Dense","config":{"units":2,"activation":"relu","use_bias":true,"kernel_initializer":{"class_name":"VarianceScaling","config":{"scale":1,"mode":"fan_avg","distribution":"normal","seed":null}},"bias_initializer":{"class_name":"Zeros","config":{}},"kernel_regularizer":null,"bias_regularizer":null,"activity_regularizer":null,"kernel_constraint":null,"bias_constraint":null,"name":"dense_Dense2588","trainable":true},"inbound_nodes":[[["dense_Dense2587",0,0,{}]]]},{"name":"dense_Dense2589","class_name":"Dense","config":{"units":32,"activation":"relu","use_bias":true,"kernel_initializer":{"class_name":"VarianceScaling","config":{"scale":1,"mode":"fan_avg","distribution":"normal","seed":null}},"bias_initializer":{"class_name":"Zeros","config":{}},"kernel_regularizer":null,"bias_regularizer":null,"activity_regularizer":null,"kernel_constraint":null,"bias_constraint":null,"name":"dense_Dense2589","trainable":true},"inbound_nodes":[[["dense_Dense2588",0,0,{}]]]},{"name":"dense_Dense2590","class_name":"Dense","config":{"units":32,"activation":"relu","use_bias":true,"kernel_initializer":{"class_name":"VarianceScaling","config":{"scale":1,"mode":"fan_avg","distribution":"normal","seed":null}},"bias_initializer":{"class_name":"Zeros","config":{}},"kernel_regularizer":null,"bias_regularizer":null,"activity_regularizer":null,"kernel_constraint":null,"bias_constraint":null,"name":"dense_Dense2590","trainable":true},"inbound_nodes":[[["dense_Dense2589",0,0,{}]]]},{"name":"dense_Dense2591","class_name":"Dense","config":{"units":32,"activation":"relu","use_bias":true,"kernel_initializer":{"class_name":"VarianceScaling","config":{"scale":1,"mode":"fan_avg","distribution":"normal","seed":null}},"bias_initializer":{"class_name":"Zeros","config":{}},"kernel_regularizer":null,"bias_regularizer":null,"activity_regularizer":null,"kernel_constraint":null,"bias_constraint":null,"name":"dense_Dense2591","trainable":true},"inbound_nodes":[[["dense_Dense2590",0,0,{}]]]},{"name":"dense_Dense2592","class_name":"Dense","config":{"units":1,"activation":"sigmoid","use_bias":true,"kernel_initializer":{"class_name":"VarianceScaling","config":{"scale":1,"mode":"fan_avg","distribution":"normal","seed":null}},"bias_initializer":{"class_name":"Zeros","config":{}},"kernel_regularizer":null,"bias_regularizer":null,"activity_regularizer":null,"kernel_constraint":null,"bias_constraint":null,"name":"dense_Dense2592","trainable":true},"inbound_nodes":[[["dense_Dense2591",0,0,{}]]]}],"input_layers":[["input432",0,0]],"output_layers":[["dense_Dense2592",0,0]]},"keras_version":"tfjs-layers 3.9.0","backend":"tensor_flow.js"},"weightsManifest":[{"paths":["weights.bin"],"weights":[{"name":"dense_Dense2587/kernel","shape":[3,4],"dtype":"float32"},{"name":"dense_Dense2587/bias","shape":[4],"dtype":"float32"},{"name":"dense_Dense2588/kernel","shape":[4,2],"dtype":"float32"},{"name":"dense_Dense2588/bias","shape":[2],"dtype":"float32"},{"name":"dense_Dense2589/kernel","shape":[2,32],"dtype":"float32"},{"name":"dense_Dense2589/bias","shape":[32],"dtype":"float32"},{"name":"dense_Dense2590/kernel","shape":[32,32],"dtype":"float32"},{"name":"dense_Dense2590/bias","shape":[32],"dtype":"float32"},{"name":"dense_Dense2591/kernel","shape":[32,32],"dtype":"float32"},{"name":"dense_Dense2591/bias","shape":[32],"dtype":"float32"},{"name":"dense_Dense2592/kernel","shape":[32,1],"dtype":"float32"},{"name":"dense_Dense2592/bias","shape":[1],"dtype":"float32"}]}]}