{"modelTopology":{"class_name":"Model","config":{"name":"model891","layers":[{"name":"input891","class_name":"InputLayer","config":{"batch_input_shape":[null,3],"dtype":"float32","sparse":false,"name":"input891"},"inbound_nodes":[]},{"name":"dense_Dense5341","class_name":"Dense","config":{"units":8,"activation":"relu","use_bias":true,"kernel_initializer":{"class_name":"VarianceScaling","config":{"scale":1,"mode":"fan_avg","distribution":"normal","seed":null}},"bias_initializer":{"class_name":"Zeros","config":{}},"kernel_regularizer":null,"bias_regularizer":null,"activity_regularizer":null,"kernel_constraint":null,"bias_constraint":null,"name":"dense_Dense5341","trainable":true},"inbound_nodes":[[["input891",0,0,{}]]]},{"name":"dense_Dense5342","class_name":"Dense","config":{"units":16,"activation":"relu","use_bias":true,"kernel_initializer":{"class_name":"VarianceScaling","config":{"scale":1,"mode":"fan_avg","distribution":"normal","seed":null}},"bias_initializer":{"class_name":"Zeros","config":{}},"kernel_regularizer":null,"bias_regularizer":null,"activity_regularizer":null,"kernel_constraint":null,"bias_constraint":null,"name":"dense_Dense5342","trainable":true},"inbound_nodes":[[["dense_Dense5341",0,0,{}]]]},{"name":"dense_Dense5343","class_name":"Dense","config":{"units":1,"activation":"relu","use_bias":true,"kernel_initializer":{"class_name":"VarianceScaling","config":{"scale":1,"mode":"fan_avg","distribution":"normal","seed":null}},"bias_initializer":{"class_name":"Zeros","config":{}},"kernel_regularizer":null,"bias_regularizer":null,"activity_regularizer":null,"kernel_constraint":null,"bias_constraint":null,"name":"dense_Dense5343","trainable":true},"inbound_nodes":[[["dense_Dense5342",0,0,{}]]]},{"name":"dense_Dense5344","class_name":"Dense","config":{"units":16,"activation":"relu","use_bias":true,"kernel_initializer":{"class_name":"VarianceScaling","config":{"scale":1,"mode":"fan_avg","distribution":"normal","seed":null}},"bias_initializer":{"class_name":"Zeros","config":{}},"kernel_regularizer":null,"bias_regularizer":null,"activity_regularizer":null,"kernel_constraint":null,"bias_constraint":null,"name":"dense_Dense5344","trainable":true},"inbound_nodes":[[["dense_Dense5343",0,0,{}]]]},{"name":"dense_Dense5345","class_name":"Dense","config":{"units":4,"activation":"relu","use_bias":true,"kernel_initializer":{"class_name":"VarianceScaling","config":{"scale":1,"mode":"fan_avg","distribution":"normal","seed":null}},"bias_initializer":{"class_name":"Zeros","config":{}},"kernel_regularizer":null,"bias_regularizer":null,"activity_regularizer":null,"kernel_constraint":null,"bias_constraint":null,"name":"dense_Dense5345","trainable":true},"inbound_nodes":[[["dense_Dense5344",0,0,{}]]]},{"name":"dense_Dense5346","class_name":"Dense","config":{"units":1,"activation":"sigmoid","use_bias":true,"kernel_initializer":{"class_name":"VarianceScaling","config":{"scale":1,"mode":"fan_avg","distribution":"normal","seed":null}},"bias_initializer":{"class_name":"Zeros","config":{}},"kernel_regularizer":null,"bias_regularizer":null,"activity_regularizer":null,"kernel_constraint":null,"bias_constraint":null,"name":"dense_Dense5346","trainable":true},"inbound_nodes":[[["dense_Dense5345",0,0,{}]]]}],"input_layers":[["input891",0,0]],"output_layers":[["dense_Dense5346",0,0]]},"keras_version":"tfjs-layers 3.9.0","backend":"tensor_flow.js"},"weightsManifest":[{"paths":["weights.bin"],"weights":[{"name":"dense_Dense5341/kernel","shape":[3,8],"dtype":"float32"},{"name":"dense_Dense5341/bias","shape":[8],"dtype":"float32"},{"name":"dense_Dense5342/kernel","shape":[8,16],"dtype":"float32"},{"name":"dense_Dense5342/bias","shape":[16],"dtype":"float32"},{"name":"dense_Dense5343/kernel","shape":[16,1],"dtype":"float32"},{"name":"dense_Dense5343/bias","shape":[1],"dtype":"float32"},{"name":"dense_Dense5344/kernel","shape":[1,16],"dtype":"float32"},{"name":"dense_Dense5344/bias","shape":[16],"dtype":"float32"},{"name":"dense_Dense5345/kernel","shape":[16,4],"dtype":"float32"},{"name":"dense_Dense5345/bias","shape":[4],"dtype":"float32"},{"name":"dense_Dense5346/kernel","shape":[4,1],"dtype":"float32"},{"name":"dense_Dense5346/bias","shape":[1],"dtype":"float32"}]}]}