{"modelTopology":{"class_name":"Model","config":{"name":"model331","layers":[{"name":"input331","class_name":"InputLayer","config":{"batch_input_shape":[null,3],"dtype":"float32","sparse":false,"name":"input331"},"inbound_nodes":[]},{"name":"dense_Dense1981","class_name":"Dense","config":{"units":16,"activation":"relu","use_bias":true,"kernel_initializer":{"class_name":"VarianceScaling","config":{"scale":1,"mode":"fan_avg","distribution":"normal","seed":null}},"bias_initializer":{"class_name":"Zeros","config":{}},"kernel_regularizer":null,"bias_regularizer":null,"activity_regularizer":null,"kernel_constraint":null,"bias_constraint":null,"name":"dense_Dense1981","trainable":true},"inbound_nodes":[[["input331",0,0,{}]]]},{"name":"dense_Dense1982","class_name":"Dense","config":{"units":2,"activation":"relu","use_bias":true,"kernel_initializer":{"class_name":"VarianceScaling","config":{"scale":1,"mode":"fan_avg","distribution":"normal","seed":null}},"bias_initializer":{"class_name":"Zeros","config":{}},"kernel_regularizer":null,"bias_regularizer":null,"activity_regularizer":null,"kernel_constraint":null,"bias_constraint":null,"name":"dense_Dense1982","trainable":true},"inbound_nodes":[[["dense_Dense1981",0,0,{}]]]},{"name":"dense_Dense1983","class_name":"Dense","config":{"units":8,"activation":"relu","use_bias":true,"kernel_initializer":{"class_name":"VarianceScaling","config":{"scale":1,"mode":"fan_avg","distribution":"normal","seed":null}},"bias_initializer":{"class_name":"Zeros","config":{}},"kernel_regularizer":null,"bias_regularizer":null,"activity_regularizer":null,"kernel_constraint":null,"bias_constraint":null,"name":"dense_Dense1983","trainable":true},"inbound_nodes":[[["dense_Dense1982",0,0,{}]]]},{"name":"dense_Dense1984","class_name":"Dense","config":{"units":2,"activation":"relu","use_bias":true,"kernel_initializer":{"class_name":"VarianceScaling","config":{"scale":1,"mode":"fan_avg","distribution":"normal","seed":null}},"bias_initializer":{"class_name":"Zeros","config":{}},"kernel_regularizer":null,"bias_regularizer":null,"activity_regularizer":null,"kernel_constraint":null,"bias_constraint":null,"name":"dense_Dense1984","trainable":true},"inbound_nodes":[[["dense_Dense1983",0,0,{}]]]},{"name":"dense_Dense1985","class_name":"Dense","config":{"units":1,"activation":"relu","use_bias":true,"kernel_initializer":{"class_name":"VarianceScaling","config":{"scale":1,"mode":"fan_avg","distribution":"normal","seed":null}},"bias_initializer":{"class_name":"Zeros","config":{}},"kernel_regularizer":null,"bias_regularizer":null,"activity_regularizer":null,"kernel_constraint":null,"bias_constraint":null,"name":"dense_Dense1985","trainable":true},"inbound_nodes":[[["dense_Dense1984",0,0,{}]]]},{"name":"dense_Dense1986","class_name":"Dense","config":{"units":1,"activation":"sigmoid","use_bias":true,"kernel_initializer":{"class_name":"VarianceScaling","config":{"scale":1,"mode":"fan_avg","distribution":"normal","seed":null}},"bias_initializer":{"class_name":"Zeros","config":{}},"kernel_regularizer":null,"bias_regularizer":null,"activity_regularizer":null,"kernel_constraint":null,"bias_constraint":null,"name":"dense_Dense1986","trainable":true},"inbound_nodes":[[["dense_Dense1985",0,0,{}]]]}],"input_layers":[["input331",0,0]],"output_layers":[["dense_Dense1986",0,0]]},"keras_version":"tfjs-layers 3.9.0","backend":"tensor_flow.js"},"weightsManifest":[{"paths":["weights.bin"],"weights":[{"name":"dense_Dense1981/kernel","shape":[3,16],"dtype":"float32"},{"name":"dense_Dense1981/bias","shape":[16],"dtype":"float32"},{"name":"dense_Dense1982/kernel","shape":[16,2],"dtype":"float32"},{"name":"dense_Dense1982/bias","shape":[2],"dtype":"float32"},{"name":"dense_Dense1983/kernel","shape":[2,8],"dtype":"float32"},{"name":"dense_Dense1983/bias","shape":[8],"dtype":"float32"},{"name":"dense_Dense1984/kernel","shape":[8,2],"dtype":"float32"},{"name":"dense_Dense1984/bias","shape":[2],"dtype":"float32"},{"name":"dense_Dense1985/kernel","shape":[2,1],"dtype":"float32"},{"name":"dense_Dense1985/bias","shape":[1],"dtype":"float32"},{"name":"dense_Dense1986/kernel","shape":[1,1],"dtype":"float32"},{"name":"dense_Dense1986/bias","shape":[1],"dtype":"float32"}]}]}