{"modelTopology":{"class_name":"Model","config":{"name":"model526","layers":[{"name":"input526","class_name":"InputLayer","config":{"batch_input_shape":[null,3],"dtype":"float32","sparse":false,"name":"input526"},"inbound_nodes":[]},{"name":"dense_Dense2626","class_name":"Dense","config":{"units":4,"activation":"relu","use_bias":true,"kernel_initializer":{"class_name":"VarianceScaling","config":{"scale":1,"mode":"fan_avg","distribution":"normal","seed":null}},"bias_initializer":{"class_name":"Zeros","config":{}},"kernel_regularizer":null,"bias_regularizer":null,"activity_regularizer":null,"kernel_constraint":null,"bias_constraint":null,"name":"dense_Dense2626","trainable":true},"inbound_nodes":[[["input526",0,0,{}]]]},{"name":"dense_Dense2627","class_name":"Dense","config":{"units":4,"activation":"relu","use_bias":true,"kernel_initializer":{"class_name":"VarianceScaling","config":{"scale":1,"mode":"fan_avg","distribution":"normal","seed":null}},"bias_initializer":{"class_name":"Zeros","config":{}},"kernel_regularizer":null,"bias_regularizer":null,"activity_regularizer":null,"kernel_constraint":null,"bias_constraint":null,"name":"dense_Dense2627","trainable":true},"inbound_nodes":[[["dense_Dense2626",0,0,{}]]]},{"name":"dense_Dense2628","class_name":"Dense","config":{"units":8,"activation":"relu","use_bias":true,"kernel_initializer":{"class_name":"VarianceScaling","config":{"scale":1,"mode":"fan_avg","distribution":"normal","seed":null}},"bias_initializer":{"class_name":"Zeros","config":{}},"kernel_regularizer":null,"bias_regularizer":null,"activity_regularizer":null,"kernel_constraint":null,"bias_constraint":null,"name":"dense_Dense2628","trainable":true},"inbound_nodes":[[["dense_Dense2627",0,0,{}]]]},{"name":"dense_Dense2629","class_name":"Dense","config":{"units":8,"activation":"relu","use_bias":true,"kernel_initializer":{"class_name":"VarianceScaling","config":{"scale":1,"mode":"fan_avg","distribution":"normal","seed":null}},"bias_initializer":{"class_name":"Zeros","config":{}},"kernel_regularizer":null,"bias_regularizer":null,"activity_regularizer":null,"kernel_constraint":null,"bias_constraint":null,"name":"dense_Dense2629","trainable":true},"inbound_nodes":[[["dense_Dense2628",0,0,{}]]]},{"name":"dense_Dense2630","class_name":"Dense","config":{"units":1,"activation":"sigmoid","use_bias":true,"kernel_initializer":{"class_name":"VarianceScaling","config":{"scale":1,"mode":"fan_avg","distribution":"normal","seed":null}},"bias_initializer":{"class_name":"Zeros","config":{}},"kernel_regularizer":null,"bias_regularizer":null,"activity_regularizer":null,"kernel_constraint":null,"bias_constraint":null,"name":"dense_Dense2630","trainable":true},"inbound_nodes":[[["dense_Dense2629",0,0,{}]]]}],"input_layers":[["input526",0,0]],"output_layers":[["dense_Dense2630",0,0]]},"keras_version":"tfjs-layers 3.9.0","backend":"tensor_flow.js"},"weightsManifest":[{"paths":["weights.bin"],"weights":[{"name":"dense_Dense2626/kernel","shape":[3,4],"dtype":"float32"},{"name":"dense_Dense2626/bias","shape":[4],"dtype":"float32"},{"name":"dense_Dense2627/kernel","shape":[4,4],"dtype":"float32"},{"name":"dense_Dense2627/bias","shape":[4],"dtype":"float32"},{"name":"dense_Dense2628/kernel","shape":[4,8],"dtype":"float32"},{"name":"dense_Dense2628/bias","shape":[8],"dtype":"float32"},{"name":"dense_Dense2629/kernel","shape":[8,8],"dtype":"float32"},{"name":"dense_Dense2629/bias","shape":[8],"dtype":"float32"},{"name":"dense_Dense2630/kernel","shape":[8,1],"dtype":"float32"},{"name":"dense_Dense2630/bias","shape":[1],"dtype":"float32"}]}]}