{"modelTopology":{"class_name":"Model","config":{"name":"model474","layers":[{"name":"input474","class_name":"InputLayer","config":{"batch_input_shape":[null,3],"dtype":"float32","sparse":false,"name":"input474"},"inbound_nodes":[]},{"name":"dense_Dense2839","class_name":"Dense","config":{"units":32,"activation":"relu","use_bias":true,"kernel_initializer":{"class_name":"VarianceScaling","config":{"scale":1,"mode":"fan_avg","distribution":"normal","seed":null}},"bias_initializer":{"class_name":"Zeros","config":{}},"kernel_regularizer":null,"bias_regularizer":null,"activity_regularizer":null,"kernel_constraint":null,"bias_constraint":null,"name":"dense_Dense2839","trainable":true},"inbound_nodes":[[["input474",0,0,{}]]]},{"name":"dense_Dense2840","class_name":"Dense","config":{"units":4,"activation":"relu","use_bias":true,"kernel_initializer":{"class_name":"VarianceScaling","config":{"scale":1,"mode":"fan_avg","distribution":"normal","seed":null}},"bias_initializer":{"class_name":"Zeros","config":{}},"kernel_regularizer":null,"bias_regularizer":null,"activity_regularizer":null,"kernel_constraint":null,"bias_constraint":null,"name":"dense_Dense2840","trainable":true},"inbound_nodes":[[["dense_Dense2839",0,0,{}]]]},{"name":"dense_Dense2841","class_name":"Dense","config":{"units":2,"activation":"relu","use_bias":true,"kernel_initializer":{"class_name":"VarianceScaling","config":{"scale":1,"mode":"fan_avg","distribution":"normal","seed":null}},"bias_initializer":{"class_name":"Zeros","config":{}},"kernel_regularizer":null,"bias_regularizer":null,"activity_regularizer":null,"kernel_constraint":null,"bias_constraint":null,"name":"dense_Dense2841","trainable":true},"inbound_nodes":[[["dense_Dense2840",0,0,{}]]]},{"name":"dense_Dense2842","class_name":"Dense","config":{"units":1,"activation":"relu","use_bias":true,"kernel_initializer":{"class_name":"VarianceScaling","config":{"scale":1,"mode":"fan_avg","distribution":"normal","seed":null}},"bias_initializer":{"class_name":"Zeros","config":{}},"kernel_regularizer":null,"bias_regularizer":null,"activity_regularizer":null,"kernel_constraint":null,"bias_constraint":null,"name":"dense_Dense2842","trainable":true},"inbound_nodes":[[["dense_Dense2841",0,0,{}]]]},{"name":"dense_Dense2843","class_name":"Dense","config":{"units":32,"activation":"relu","use_bias":true,"kernel_initializer":{"class_name":"VarianceScaling","config":{"scale":1,"mode":"fan_avg","distribution":"normal","seed":null}},"bias_initializer":{"class_name":"Zeros","config":{}},"kernel_regularizer":null,"bias_regularizer":null,"activity_regularizer":null,"kernel_constraint":null,"bias_constraint":null,"name":"dense_Dense2843","trainable":true},"inbound_nodes":[[["dense_Dense2842",0,0,{}]]]},{"name":"dense_Dense2844","class_name":"Dense","config":{"units":1,"activation":"sigmoid","use_bias":true,"kernel_initializer":{"class_name":"VarianceScaling","config":{"scale":1,"mode":"fan_avg","distribution":"normal","seed":null}},"bias_initializer":{"class_name":"Zeros","config":{}},"kernel_regularizer":null,"bias_regularizer":null,"activity_regularizer":null,"kernel_constraint":null,"bias_constraint":null,"name":"dense_Dense2844","trainable":true},"inbound_nodes":[[["dense_Dense2843",0,0,{}]]]}],"input_layers":[["input474",0,0]],"output_layers":[["dense_Dense2844",0,0]]},"keras_version":"tfjs-layers 3.9.0","backend":"tensor_flow.js"},"weightsManifest":[{"paths":["weights.bin"],"weights":[{"name":"dense_Dense2839/kernel","shape":[3,32],"dtype":"float32"},{"name":"dense_Dense2839/bias","shape":[32],"dtype":"float32"},{"name":"dense_Dense2840/kernel","shape":[32,4],"dtype":"float32"},{"name":"dense_Dense2840/bias","shape":[4],"dtype":"float32"},{"name":"dense_Dense2841/kernel","shape":[4,2],"dtype":"float32"},{"name":"dense_Dense2841/bias","shape":[2],"dtype":"float32"},{"name":"dense_Dense2842/kernel","shape":[2,1],"dtype":"float32"},{"name":"dense_Dense2842/bias","shape":[1],"dtype":"float32"},{"name":"dense_Dense2843/kernel","shape":[1,32],"dtype":"float32"},{"name":"dense_Dense2843/bias","shape":[32],"dtype":"float32"},{"name":"dense_Dense2844/kernel","shape":[32,1],"dtype":"float32"},{"name":"dense_Dense2844/bias","shape":[1],"dtype":"float32"}]}]}