{"modelTopology":{"class_name":"Model","config":{"name":"model1294","layers":[{"name":"input1294","class_name":"InputLayer","config":{"batch_input_shape":[null,3],"dtype":"float32","sparse":false,"name":"input1294"},"inbound_nodes":[]},{"name":"dense_Dense6466","class_name":"Dense","config":{"units":32,"activation":"relu","use_bias":true,"kernel_initializer":{"class_name":"VarianceScaling","config":{"scale":1,"mode":"fan_avg","distribution":"normal","seed":null}},"bias_initializer":{"class_name":"Zeros","config":{}},"kernel_regularizer":null,"bias_regularizer":null,"activity_regularizer":null,"kernel_constraint":null,"bias_constraint":null,"name":"dense_Dense6466","trainable":true},"inbound_nodes":[[["input1294",0,0,{}]]]},{"name":"dense_Dense6467","class_name":"Dense","config":{"units":32,"activation":"relu","use_bias":true,"kernel_initializer":{"class_name":"VarianceScaling","config":{"scale":1,"mode":"fan_avg","distribution":"normal","seed":null}},"bias_initializer":{"class_name":"Zeros","config":{}},"kernel_regularizer":null,"bias_regularizer":null,"activity_regularizer":null,"kernel_constraint":null,"bias_constraint":null,"name":"dense_Dense6467","trainable":true},"inbound_nodes":[[["dense_Dense6466",0,0,{}]]]},{"name":"dense_Dense6468","class_name":"Dense","config":{"units":32,"activation":"relu","use_bias":true,"kernel_initializer":{"class_name":"VarianceScaling","config":{"scale":1,"mode":"fan_avg","distribution":"normal","seed":null}},"bias_initializer":{"class_name":"Zeros","config":{}},"kernel_regularizer":null,"bias_regularizer":null,"activity_regularizer":null,"kernel_constraint":null,"bias_constraint":null,"name":"dense_Dense6468","trainable":true},"inbound_nodes":[[["dense_Dense6467",0,0,{}]]]},{"name":"dense_Dense6469","class_name":"Dense","config":{"units":8,"activation":"relu","use_bias":true,"kernel_initializer":{"class_name":"VarianceScaling","config":{"scale":1,"mode":"fan_avg","distribution":"normal","seed":null}},"bias_initializer":{"class_name":"Zeros","config":{}},"kernel_regularizer":null,"bias_regularizer":null,"activity_regularizer":null,"kernel_constraint":null,"bias_constraint":null,"name":"dense_Dense6469","trainable":true},"inbound_nodes":[[["dense_Dense6468",0,0,{}]]]},{"name":"dense_Dense6470","class_name":"Dense","config":{"units":1,"activation":"sigmoid","use_bias":true,"kernel_initializer":{"class_name":"VarianceScaling","config":{"scale":1,"mode":"fan_avg","distribution":"normal","seed":null}},"bias_initializer":{"class_name":"Zeros","config":{}},"kernel_regularizer":null,"bias_regularizer":null,"activity_regularizer":null,"kernel_constraint":null,"bias_constraint":null,"name":"dense_Dense6470","trainable":true},"inbound_nodes":[[["dense_Dense6469",0,0,{}]]]}],"input_layers":[["input1294",0,0]],"output_layers":[["dense_Dense6470",0,0]]},"keras_version":"tfjs-layers 3.9.0","backend":"tensor_flow.js"},"weightsManifest":[{"paths":["weights.bin"],"weights":[{"name":"dense_Dense6466/kernel","shape":[3,32],"dtype":"float32"},{"name":"dense_Dense6466/bias","shape":[32],"dtype":"float32"},{"name":"dense_Dense6467/kernel","shape":[32,32],"dtype":"float32"},{"name":"dense_Dense6467/bias","shape":[32],"dtype":"float32"},{"name":"dense_Dense6468/kernel","shape":[32,32],"dtype":"float32"},{"name":"dense_Dense6468/bias","shape":[32],"dtype":"float32"},{"name":"dense_Dense6469/kernel","shape":[32,8],"dtype":"float32"},{"name":"dense_Dense6469/bias","shape":[8],"dtype":"float32"},{"name":"dense_Dense6470/kernel","shape":[8,1],"dtype":"float32"},{"name":"dense_Dense6470/bias","shape":[1],"dtype":"float32"}]}]}