{"modelTopology":{"class_name":"Model","config":{"name":"model749","layers":[{"name":"input749","class_name":"InputLayer","config":{"batch_input_shape":[null,3],"dtype":"float32","sparse":false,"name":"input749"},"inbound_nodes":[]},{"name":"dense_Dense3741","class_name":"Dense","config":{"units":8,"activation":"relu","use_bias":true,"kernel_initializer":{"class_name":"VarianceScaling","config":{"scale":1,"mode":"fan_avg","distribution":"normal","seed":null}},"bias_initializer":{"class_name":"Zeros","config":{}},"kernel_regularizer":null,"bias_regularizer":null,"activity_regularizer":null,"kernel_constraint":null,"bias_constraint":null,"name":"dense_Dense3741","trainable":true},"inbound_nodes":[[["input749",0,0,{}]]]},{"name":"dense_Dense3742","class_name":"Dense","config":{"units":4,"activation":"relu","use_bias":true,"kernel_initializer":{"class_name":"VarianceScaling","config":{"scale":1,"mode":"fan_avg","distribution":"normal","seed":null}},"bias_initializer":{"class_name":"Zeros","config":{}},"kernel_regularizer":null,"bias_regularizer":null,"activity_regularizer":null,"kernel_constraint":null,"bias_constraint":null,"name":"dense_Dense3742","trainable":true},"inbound_nodes":[[["dense_Dense3741",0,0,{}]]]},{"name":"dense_Dense3743","class_name":"Dense","config":{"units":16,"activation":"relu","use_bias":true,"kernel_initializer":{"class_name":"VarianceScaling","config":{"scale":1,"mode":"fan_avg","distribution":"normal","seed":null}},"bias_initializer":{"class_name":"Zeros","config":{}},"kernel_regularizer":null,"bias_regularizer":null,"activity_regularizer":null,"kernel_constraint":null,"bias_constraint":null,"name":"dense_Dense3743","trainable":true},"inbound_nodes":[[["dense_Dense3742",0,0,{}]]]},{"name":"dense_Dense3744","class_name":"Dense","config":{"units":16,"activation":"relu","use_bias":true,"kernel_initializer":{"class_name":"VarianceScaling","config":{"scale":1,"mode":"fan_avg","distribution":"normal","seed":null}},"bias_initializer":{"class_name":"Zeros","config":{}},"kernel_regularizer":null,"bias_regularizer":null,"activity_regularizer":null,"kernel_constraint":null,"bias_constraint":null,"name":"dense_Dense3744","trainable":true},"inbound_nodes":[[["dense_Dense3743",0,0,{}]]]},{"name":"dense_Dense3745","class_name":"Dense","config":{"units":1,"activation":"sigmoid","use_bias":true,"kernel_initializer":{"class_name":"VarianceScaling","config":{"scale":1,"mode":"fan_avg","distribution":"normal","seed":null}},"bias_initializer":{"class_name":"Zeros","config":{}},"kernel_regularizer":null,"bias_regularizer":null,"activity_regularizer":null,"kernel_constraint":null,"bias_constraint":null,"name":"dense_Dense3745","trainable":true},"inbound_nodes":[[["dense_Dense3744",0,0,{}]]]}],"input_layers":[["input749",0,0]],"output_layers":[["dense_Dense3745",0,0]]},"keras_version":"tfjs-layers 3.9.0","backend":"tensor_flow.js"},"weightsManifest":[{"paths":["weights.bin"],"weights":[{"name":"dense_Dense3741/kernel","shape":[3,8],"dtype":"float32"},{"name":"dense_Dense3741/bias","shape":[8],"dtype":"float32"},{"name":"dense_Dense3742/kernel","shape":[8,4],"dtype":"float32"},{"name":"dense_Dense3742/bias","shape":[4],"dtype":"float32"},{"name":"dense_Dense3743/kernel","shape":[4,16],"dtype":"float32"},{"name":"dense_Dense3743/bias","shape":[16],"dtype":"float32"},{"name":"dense_Dense3744/kernel","shape":[16,16],"dtype":"float32"},{"name":"dense_Dense3744/bias","shape":[16],"dtype":"float32"},{"name":"dense_Dense3745/kernel","shape":[16,1],"dtype":"float32"},{"name":"dense_Dense3745/bias","shape":[1],"dtype":"float32"}]}]}