{"modelTopology":{"class_name":"Model","config":{"name":"model512","layers":[{"name":"input512","class_name":"InputLayer","config":{"batch_input_shape":[null,3],"dtype":"float32","sparse":false,"name":"input512"},"inbound_nodes":[]},{"name":"dense_Dense3067","class_name":"Dense","config":{"units":32,"activation":"relu","use_bias":true,"kernel_initializer":{"class_name":"VarianceScaling","config":{"scale":1,"mode":"fan_avg","distribution":"normal","seed":null}},"bias_initializer":{"class_name":"Zeros","config":{}},"kernel_regularizer":null,"bias_regularizer":null,"activity_regularizer":null,"kernel_constraint":null,"bias_constraint":null,"name":"dense_Dense3067","trainable":true},"inbound_nodes":[[["input512",0,0,{}]]]},{"name":"dense_Dense3068","class_name":"Dense","config":{"units":4,"activation":"relu","use_bias":true,"kernel_initializer":{"class_name":"VarianceScaling","config":{"scale":1,"mode":"fan_avg","distribution":"normal","seed":null}},"bias_initializer":{"class_name":"Zeros","config":{}},"kernel_regularizer":null,"bias_regularizer":null,"activity_regularizer":null,"kernel_constraint":null,"bias_constraint":null,"name":"dense_Dense3068","trainable":true},"inbound_nodes":[[["dense_Dense3067",0,0,{}]]]},{"name":"dense_Dense3069","class_name":"Dense","config":{"units":4,"activation":"relu","use_bias":true,"kernel_initializer":{"class_name":"VarianceScaling","config":{"scale":1,"mode":"fan_avg","distribution":"normal","seed":null}},"bias_initializer":{"class_name":"Zeros","config":{}},"kernel_regularizer":null,"bias_regularizer":null,"activity_regularizer":null,"kernel_constraint":null,"bias_constraint":null,"name":"dense_Dense3069","trainable":true},"inbound_nodes":[[["dense_Dense3068",0,0,{}]]]},{"name":"dense_Dense3070","class_name":"Dense","config":{"units":2,"activation":"relu","use_bias":true,"kernel_initializer":{"class_name":"VarianceScaling","config":{"scale":1,"mode":"fan_avg","distribution":"normal","seed":null}},"bias_initializer":{"class_name":"Zeros","config":{}},"kernel_regularizer":null,"bias_regularizer":null,"activity_regularizer":null,"kernel_constraint":null,"bias_constraint":null,"name":"dense_Dense3070","trainable":true},"inbound_nodes":[[["dense_Dense3069",0,0,{}]]]},{"name":"dense_Dense3071","class_name":"Dense","config":{"units":2,"activation":"relu","use_bias":true,"kernel_initializer":{"class_name":"VarianceScaling","config":{"scale":1,"mode":"fan_avg","distribution":"normal","seed":null}},"bias_initializer":{"class_name":"Zeros","config":{}},"kernel_regularizer":null,"bias_regularizer":null,"activity_regularizer":null,"kernel_constraint":null,"bias_constraint":null,"name":"dense_Dense3071","trainable":true},"inbound_nodes":[[["dense_Dense3070",0,0,{}]]]},{"name":"dense_Dense3072","class_name":"Dense","config":{"units":1,"activation":"sigmoid","use_bias":true,"kernel_initializer":{"class_name":"VarianceScaling","config":{"scale":1,"mode":"fan_avg","distribution":"normal","seed":null}},"bias_initializer":{"class_name":"Zeros","config":{}},"kernel_regularizer":null,"bias_regularizer":null,"activity_regularizer":null,"kernel_constraint":null,"bias_constraint":null,"name":"dense_Dense3072","trainable":true},"inbound_nodes":[[["dense_Dense3071",0,0,{}]]]}],"input_layers":[["input512",0,0]],"output_layers":[["dense_Dense3072",0,0]]},"keras_version":"tfjs-layers 3.9.0","backend":"tensor_flow.js"},"weightsManifest":[{"paths":["weights.bin"],"weights":[{"name":"dense_Dense3067/kernel","shape":[3,32],"dtype":"float32"},{"name":"dense_Dense3067/bias","shape":[32],"dtype":"float32"},{"name":"dense_Dense3068/kernel","shape":[32,4],"dtype":"float32"},{"name":"dense_Dense3068/bias","shape":[4],"dtype":"float32"},{"name":"dense_Dense3069/kernel","shape":[4,4],"dtype":"float32"},{"name":"dense_Dense3069/bias","shape":[4],"dtype":"float32"},{"name":"dense_Dense3070/kernel","shape":[4,2],"dtype":"float32"},{"name":"dense_Dense3070/bias","shape":[2],"dtype":"float32"},{"name":"dense_Dense3071/kernel","shape":[2,2],"dtype":"float32"},{"name":"dense_Dense3071/bias","shape":[2],"dtype":"float32"},{"name":"dense_Dense3072/kernel","shape":[2,1],"dtype":"float32"},{"name":"dense_Dense3072/bias","shape":[1],"dtype":"float32"}]}]}