{"modelTopology":{"class_name":"Model","config":{"name":"model197","layers":[{"name":"input197","class_name":"InputLayer","config":{"batch_input_shape":[null,3],"dtype":"float32","sparse":false,"name":"input197"},"inbound_nodes":[]},{"name":"dense_Dense785","class_name":"Dense","config":{"units":32,"activation":"relu","use_bias":true,"kernel_initializer":{"class_name":"VarianceScaling","config":{"scale":1,"mode":"fan_avg","distribution":"normal","seed":null}},"bias_initializer":{"class_name":"Zeros","config":{}},"kernel_regularizer":null,"bias_regularizer":null,"activity_regularizer":null,"kernel_constraint":null,"bias_constraint":null,"name":"dense_Dense785","trainable":true},"inbound_nodes":[[["input197",0,0,{}]]]},{"name":"dense_Dense786","class_name":"Dense","config":{"units":4,"activation":"relu","use_bias":true,"kernel_initializer":{"class_name":"VarianceScaling","config":{"scale":1,"mode":"fan_avg","distribution":"normal","seed":null}},"bias_initializer":{"class_name":"Zeros","config":{}},"kernel_regularizer":null,"bias_regularizer":null,"activity_regularizer":null,"kernel_constraint":null,"bias_constraint":null,"name":"dense_Dense786","trainable":true},"inbound_nodes":[[["dense_Dense785",0,0,{}]]]},{"name":"dense_Dense787","class_name":"Dense","config":{"units":16,"activation":"relu","use_bias":true,"kernel_initializer":{"class_name":"VarianceScaling","config":{"scale":1,"mode":"fan_avg","distribution":"normal","seed":null}},"bias_initializer":{"class_name":"Zeros","config":{}},"kernel_regularizer":null,"bias_regularizer":null,"activity_regularizer":null,"kernel_constraint":null,"bias_constraint":null,"name":"dense_Dense787","trainable":true},"inbound_nodes":[[["dense_Dense786",0,0,{}]]]},{"name":"dense_Dense788","class_name":"Dense","config":{"units":1,"activation":"sigmoid","use_bias":true,"kernel_initializer":{"class_name":"VarianceScaling","config":{"scale":1,"mode":"fan_avg","distribution":"normal","seed":null}},"bias_initializer":{"class_name":"Zeros","config":{}},"kernel_regularizer":null,"bias_regularizer":null,"activity_regularizer":null,"kernel_constraint":null,"bias_constraint":null,"name":"dense_Dense788","trainable":true},"inbound_nodes":[[["dense_Dense787",0,0,{}]]]}],"input_layers":[["input197",0,0]],"output_layers":[["dense_Dense788",0,0]]},"keras_version":"tfjs-layers 3.9.0","backend":"tensor_flow.js"},"weightsManifest":[{"paths":["weights.bin"],"weights":[{"name":"dense_Dense785/kernel","shape":[3,32],"dtype":"float32"},{"name":"dense_Dense785/bias","shape":[32],"dtype":"float32"},{"name":"dense_Dense786/kernel","shape":[32,4],"dtype":"float32"},{"name":"dense_Dense786/bias","shape":[4],"dtype":"float32"},{"name":"dense_Dense787/kernel","shape":[4,16],"dtype":"float32"},{"name":"dense_Dense787/bias","shape":[16],"dtype":"float32"},{"name":"dense_Dense788/kernel","shape":[16,1],"dtype":"float32"},{"name":"dense_Dense788/bias","shape":[1],"dtype":"float32"}]}]}