{"modelTopology":{"class_name":"Model","config":{"name":"model497","layers":[{"name":"input497","class_name":"InputLayer","config":{"batch_input_shape":[null,3],"dtype":"float32","sparse":false,"name":"input497"},"inbound_nodes":[]},{"name":"dense_Dense2977","class_name":"Dense","config":{"units":2,"activation":"relu","use_bias":true,"kernel_initializer":{"class_name":"VarianceScaling","config":{"scale":1,"mode":"fan_avg","distribution":"normal","seed":null}},"bias_initializer":{"class_name":"Zeros","config":{}},"kernel_regularizer":null,"bias_regularizer":null,"activity_regularizer":null,"kernel_constraint":null,"bias_constraint":null,"name":"dense_Dense2977","trainable":true},"inbound_nodes":[[["input497",0,0,{}]]]},{"name":"dense_Dense2978","class_name":"Dense","config":{"units":4,"activation":"relu","use_bias":true,"kernel_initializer":{"class_name":"VarianceScaling","config":{"scale":1,"mode":"fan_avg","distribution":"normal","seed":null}},"bias_initializer":{"class_name":"Zeros","config":{}},"kernel_regularizer":null,"bias_regularizer":null,"activity_regularizer":null,"kernel_constraint":null,"bias_constraint":null,"name":"dense_Dense2978","trainable":true},"inbound_nodes":[[["dense_Dense2977",0,0,{}]]]},{"name":"dense_Dense2979","class_name":"Dense","config":{"units":2,"activation":"relu","use_bias":true,"kernel_initializer":{"class_name":"VarianceScaling","config":{"scale":1,"mode":"fan_avg","distribution":"normal","seed":null}},"bias_initializer":{"class_name":"Zeros","config":{}},"kernel_regularizer":null,"bias_regularizer":null,"activity_regularizer":null,"kernel_constraint":null,"bias_constraint":null,"name":"dense_Dense2979","trainable":true},"inbound_nodes":[[["dense_Dense2978",0,0,{}]]]},{"name":"dense_Dense2980","class_name":"Dense","config":{"units":16,"activation":"relu","use_bias":true,"kernel_initializer":{"class_name":"VarianceScaling","config":{"scale":1,"mode":"fan_avg","distribution":"normal","seed":null}},"bias_initializer":{"class_name":"Zeros","config":{}},"kernel_regularizer":null,"bias_regularizer":null,"activity_regularizer":null,"kernel_constraint":null,"bias_constraint":null,"name":"dense_Dense2980","trainable":true},"inbound_nodes":[[["dense_Dense2979",0,0,{}]]]},{"name":"dense_Dense2981","class_name":"Dense","config":{"units":16,"activation":"relu","use_bias":true,"kernel_initializer":{"class_name":"VarianceScaling","config":{"scale":1,"mode":"fan_avg","distribution":"normal","seed":null}},"bias_initializer":{"class_name":"Zeros","config":{}},"kernel_regularizer":null,"bias_regularizer":null,"activity_regularizer":null,"kernel_constraint":null,"bias_constraint":null,"name":"dense_Dense2981","trainable":true},"inbound_nodes":[[["dense_Dense2980",0,0,{}]]]},{"name":"dense_Dense2982","class_name":"Dense","config":{"units":1,"activation":"sigmoid","use_bias":true,"kernel_initializer":{"class_name":"VarianceScaling","config":{"scale":1,"mode":"fan_avg","distribution":"normal","seed":null}},"bias_initializer":{"class_name":"Zeros","config":{}},"kernel_regularizer":null,"bias_regularizer":null,"activity_regularizer":null,"kernel_constraint":null,"bias_constraint":null,"name":"dense_Dense2982","trainable":true},"inbound_nodes":[[["dense_Dense2981",0,0,{}]]]}],"input_layers":[["input497",0,0]],"output_layers":[["dense_Dense2982",0,0]]},"keras_version":"tfjs-layers 3.9.0","backend":"tensor_flow.js"},"weightsManifest":[{"paths":["weights.bin"],"weights":[{"name":"dense_Dense2977/kernel","shape":[3,2],"dtype":"float32"},{"name":"dense_Dense2977/bias","shape":[2],"dtype":"float32"},{"name":"dense_Dense2978/kernel","shape":[2,4],"dtype":"float32"},{"name":"dense_Dense2978/bias","shape":[4],"dtype":"float32"},{"name":"dense_Dense2979/kernel","shape":[4,2],"dtype":"float32"},{"name":"dense_Dense2979/bias","shape":[2],"dtype":"float32"},{"name":"dense_Dense2980/kernel","shape":[2,16],"dtype":"float32"},{"name":"dense_Dense2980/bias","shape":[16],"dtype":"float32"},{"name":"dense_Dense2981/kernel","shape":[16,16],"dtype":"float32"},{"name":"dense_Dense2981/bias","shape":[16],"dtype":"float32"},{"name":"dense_Dense2982/kernel","shape":[16,1],"dtype":"float32"},{"name":"dense_Dense2982/bias","shape":[1],"dtype":"float32"}]}]}