{"modelTopology":{"class_name":"Model","config":{"name":"model1014","layers":[{"name":"input1014","class_name":"InputLayer","config":{"batch_input_shape":[null,3],"dtype":"float32","sparse":false,"name":"input1014"},"inbound_nodes":[]},{"name":"dense_Dense6079","class_name":"Dense","config":{"units":16,"activation":"relu","use_bias":true,"kernel_initializer":{"class_name":"VarianceScaling","config":{"scale":1,"mode":"fan_avg","distribution":"normal","seed":null}},"bias_initializer":{"class_name":"Zeros","config":{}},"kernel_regularizer":null,"bias_regularizer":null,"activity_regularizer":null,"kernel_constraint":null,"bias_constraint":null,"name":"dense_Dense6079","trainable":true},"inbound_nodes":[[["input1014",0,0,{}]]]},{"name":"dense_Dense6080","class_name":"Dense","config":{"units":16,"activation":"relu","use_bias":true,"kernel_initializer":{"class_name":"VarianceScaling","config":{"scale":1,"mode":"fan_avg","distribution":"normal","seed":null}},"bias_initializer":{"class_name":"Zeros","config":{}},"kernel_regularizer":null,"bias_regularizer":null,"activity_regularizer":null,"kernel_constraint":null,"bias_constraint":null,"name":"dense_Dense6080","trainable":true},"inbound_nodes":[[["dense_Dense6079",0,0,{}]]]},{"name":"dense_Dense6081","class_name":"Dense","config":{"units":16,"activation":"relu","use_bias":true,"kernel_initializer":{"class_name":"VarianceScaling","config":{"scale":1,"mode":"fan_avg","distribution":"normal","seed":null}},"bias_initializer":{"class_name":"Zeros","config":{}},"kernel_regularizer":null,"bias_regularizer":null,"activity_regularizer":null,"kernel_constraint":null,"bias_constraint":null,"name":"dense_Dense6081","trainable":true},"inbound_nodes":[[["dense_Dense6080",0,0,{}]]]},{"name":"dense_Dense6082","class_name":"Dense","config":{"units":1,"activation":"relu","use_bias":true,"kernel_initializer":{"class_name":"VarianceScaling","config":{"scale":1,"mode":"fan_avg","distribution":"normal","seed":null}},"bias_initializer":{"class_name":"Zeros","config":{}},"kernel_regularizer":null,"bias_regularizer":null,"activity_regularizer":null,"kernel_constraint":null,"bias_constraint":null,"name":"dense_Dense6082","trainable":true},"inbound_nodes":[[["dense_Dense6081",0,0,{}]]]},{"name":"dense_Dense6083","class_name":"Dense","config":{"units":32,"activation":"relu","use_bias":true,"kernel_initializer":{"class_name":"VarianceScaling","config":{"scale":1,"mode":"fan_avg","distribution":"normal","seed":null}},"bias_initializer":{"class_name":"Zeros","config":{}},"kernel_regularizer":null,"bias_regularizer":null,"activity_regularizer":null,"kernel_constraint":null,"bias_constraint":null,"name":"dense_Dense6083","trainable":true},"inbound_nodes":[[["dense_Dense6082",0,0,{}]]]},{"name":"dense_Dense6084","class_name":"Dense","config":{"units":1,"activation":"sigmoid","use_bias":true,"kernel_initializer":{"class_name":"VarianceScaling","config":{"scale":1,"mode":"fan_avg","distribution":"normal","seed":null}},"bias_initializer":{"class_name":"Zeros","config":{}},"kernel_regularizer":null,"bias_regularizer":null,"activity_regularizer":null,"kernel_constraint":null,"bias_constraint":null,"name":"dense_Dense6084","trainable":true},"inbound_nodes":[[["dense_Dense6083",0,0,{}]]]}],"input_layers":[["input1014",0,0]],"output_layers":[["dense_Dense6084",0,0]]},"keras_version":"tfjs-layers 3.9.0","backend":"tensor_flow.js"},"weightsManifest":[{"paths":["weights.bin"],"weights":[{"name":"dense_Dense6079/kernel","shape":[3,16],"dtype":"float32"},{"name":"dense_Dense6079/bias","shape":[16],"dtype":"float32"},{"name":"dense_Dense6080/kernel","shape":[16,16],"dtype":"float32"},{"name":"dense_Dense6080/bias","shape":[16],"dtype":"float32"},{"name":"dense_Dense6081/kernel","shape":[16,16],"dtype":"float32"},{"name":"dense_Dense6081/bias","shape":[16],"dtype":"float32"},{"name":"dense_Dense6082/kernel","shape":[16,1],"dtype":"float32"},{"name":"dense_Dense6082/bias","shape":[1],"dtype":"float32"},{"name":"dense_Dense6083/kernel","shape":[1,32],"dtype":"float32"},{"name":"dense_Dense6083/bias","shape":[32],"dtype":"float32"},{"name":"dense_Dense6084/kernel","shape":[32,1],"dtype":"float32"},{"name":"dense_Dense6084/bias","shape":[1],"dtype":"float32"}]}]}