{"modelTopology":{"class_name":"Model","config":{"name":"model968","layers":[{"name":"input968","class_name":"InputLayer","config":{"batch_input_shape":[null,3],"dtype":"float32","sparse":false,"name":"input968"},"inbound_nodes":[]},{"name":"dense_Dense4836","class_name":"Dense","config":{"units":16,"activation":"relu","use_bias":true,"kernel_initializer":{"class_name":"VarianceScaling","config":{"scale":1,"mode":"fan_avg","distribution":"normal","seed":null}},"bias_initializer":{"class_name":"Zeros","config":{}},"kernel_regularizer":null,"bias_regularizer":null,"activity_regularizer":null,"kernel_constraint":null,"bias_constraint":null,"name":"dense_Dense4836","trainable":true},"inbound_nodes":[[["input968",0,0,{}]]]},{"name":"dense_Dense4837","class_name":"Dense","config":{"units":4,"activation":"relu","use_bias":true,"kernel_initializer":{"class_name":"VarianceScaling","config":{"scale":1,"mode":"fan_avg","distribution":"normal","seed":null}},"bias_initializer":{"class_name":"Zeros","config":{}},"kernel_regularizer":null,"bias_regularizer":null,"activity_regularizer":null,"kernel_constraint":null,"bias_constraint":null,"name":"dense_Dense4837","trainable":true},"inbound_nodes":[[["dense_Dense4836",0,0,{}]]]},{"name":"dense_Dense4838","class_name":"Dense","config":{"units":32,"activation":"relu","use_bias":true,"kernel_initializer":{"class_name":"VarianceScaling","config":{"scale":1,"mode":"fan_avg","distribution":"normal","seed":null}},"bias_initializer":{"class_name":"Zeros","config":{}},"kernel_regularizer":null,"bias_regularizer":null,"activity_regularizer":null,"kernel_constraint":null,"bias_constraint":null,"name":"dense_Dense4838","trainable":true},"inbound_nodes":[[["dense_Dense4837",0,0,{}]]]},{"name":"dense_Dense4839","class_name":"Dense","config":{"units":2,"activation":"relu","use_bias":true,"kernel_initializer":{"class_name":"VarianceScaling","config":{"scale":1,"mode":"fan_avg","distribution":"normal","seed":null}},"bias_initializer":{"class_name":"Zeros","config":{}},"kernel_regularizer":null,"bias_regularizer":null,"activity_regularizer":null,"kernel_constraint":null,"bias_constraint":null,"name":"dense_Dense4839","trainable":true},"inbound_nodes":[[["dense_Dense4838",0,0,{}]]]},{"name":"dense_Dense4840","class_name":"Dense","config":{"units":1,"activation":"sigmoid","use_bias":true,"kernel_initializer":{"class_name":"VarianceScaling","config":{"scale":1,"mode":"fan_avg","distribution":"normal","seed":null}},"bias_initializer":{"class_name":"Zeros","config":{}},"kernel_regularizer":null,"bias_regularizer":null,"activity_regularizer":null,"kernel_constraint":null,"bias_constraint":null,"name":"dense_Dense4840","trainable":true},"inbound_nodes":[[["dense_Dense4839",0,0,{}]]]}],"input_layers":[["input968",0,0]],"output_layers":[["dense_Dense4840",0,0]]},"keras_version":"tfjs-layers 3.9.0","backend":"tensor_flow.js"},"weightsManifest":[{"paths":["weights.bin"],"weights":[{"name":"dense_Dense4836/kernel","shape":[3,16],"dtype":"float32"},{"name":"dense_Dense4836/bias","shape":[16],"dtype":"float32"},{"name":"dense_Dense4837/kernel","shape":[16,4],"dtype":"float32"},{"name":"dense_Dense4837/bias","shape":[4],"dtype":"float32"},{"name":"dense_Dense4838/kernel","shape":[4,32],"dtype":"float32"},{"name":"dense_Dense4838/bias","shape":[32],"dtype":"float32"},{"name":"dense_Dense4839/kernel","shape":[32,2],"dtype":"float32"},{"name":"dense_Dense4839/bias","shape":[2],"dtype":"float32"},{"name":"dense_Dense4840/kernel","shape":[2,1],"dtype":"float32"},{"name":"dense_Dense4840/bias","shape":[1],"dtype":"float32"}]}]}