{"modelTopology":{"class_name":"Model","config":{"name":"model11","layers":[{"name":"input11","class_name":"InputLayer","config":{"batch_input_shape":[null,3],"dtype":"float32","sparse":false,"name":"input11"},"inbound_nodes":[]},{"name":"dense_Dense61","class_name":"Dense","config":{"units":16,"activation":"relu","use_bias":true,"kernel_initializer":{"class_name":"VarianceScaling","config":{"scale":1,"mode":"fan_avg","distribution":"normal","seed":null}},"bias_initializer":{"class_name":"Zeros","config":{}},"kernel_regularizer":null,"bias_regularizer":null,"activity_regularizer":null,"kernel_constraint":null,"bias_constraint":null,"name":"dense_Dense61","trainable":true},"inbound_nodes":[[["input11",0,0,{}]]]},{"name":"dense_Dense62","class_name":"Dense","config":{"units":1,"activation":"relu","use_bias":true,"kernel_initializer":{"class_name":"VarianceScaling","config":{"scale":1,"mode":"fan_avg","distribution":"normal","seed":null}},"bias_initializer":{"class_name":"Zeros","config":{}},"kernel_regularizer":null,"bias_regularizer":null,"activity_regularizer":null,"kernel_constraint":null,"bias_constraint":null,"name":"dense_Dense62","trainable":true},"inbound_nodes":[[["dense_Dense61",0,0,{}]]]},{"name":"dense_Dense63","class_name":"Dense","config":{"units":1,"activation":"relu","use_bias":true,"kernel_initializer":{"class_name":"VarianceScaling","config":{"scale":1,"mode":"fan_avg","distribution":"normal","seed":null}},"bias_initializer":{"class_name":"Zeros","config":{}},"kernel_regularizer":null,"bias_regularizer":null,"activity_regularizer":null,"kernel_constraint":null,"bias_constraint":null,"name":"dense_Dense63","trainable":true},"inbound_nodes":[[["dense_Dense62",0,0,{}]]]},{"name":"dense_Dense64","class_name":"Dense","config":{"units":2,"activation":"relu","use_bias":true,"kernel_initializer":{"class_name":"VarianceScaling","config":{"scale":1,"mode":"fan_avg","distribution":"normal","seed":null}},"bias_initializer":{"class_name":"Zeros","config":{}},"kernel_regularizer":null,"bias_regularizer":null,"activity_regularizer":null,"kernel_constraint":null,"bias_constraint":null,"name":"dense_Dense64","trainable":true},"inbound_nodes":[[["dense_Dense63",0,0,{}]]]},{"name":"dense_Dense65","class_name":"Dense","config":{"units":16,"activation":"relu","use_bias":true,"kernel_initializer":{"class_name":"VarianceScaling","config":{"scale":1,"mode":"fan_avg","distribution":"normal","seed":null}},"bias_initializer":{"class_name":"Zeros","config":{}},"kernel_regularizer":null,"bias_regularizer":null,"activity_regularizer":null,"kernel_constraint":null,"bias_constraint":null,"name":"dense_Dense65","trainable":true},"inbound_nodes":[[["dense_Dense64",0,0,{}]]]},{"name":"dense_Dense66","class_name":"Dense","config":{"units":1,"activation":"sigmoid","use_bias":true,"kernel_initializer":{"class_name":"VarianceScaling","config":{"scale":1,"mode":"fan_avg","distribution":"normal","seed":null}},"bias_initializer":{"class_name":"Zeros","config":{}},"kernel_regularizer":null,"bias_regularizer":null,"activity_regularizer":null,"kernel_constraint":null,"bias_constraint":null,"name":"dense_Dense66","trainable":true},"inbound_nodes":[[["dense_Dense65",0,0,{}]]]}],"input_layers":[["input11",0,0]],"output_layers":[["dense_Dense66",0,0]]},"keras_version":"tfjs-layers 3.9.0","backend":"tensor_flow.js"},"weightsManifest":[{"paths":["weights.bin"],"weights":[{"name":"dense_Dense61/kernel","shape":[3,16],"dtype":"float32"},{"name":"dense_Dense61/bias","shape":[16],"dtype":"float32"},{"name":"dense_Dense62/kernel","shape":[16,1],"dtype":"float32"},{"name":"dense_Dense62/bias","shape":[1],"dtype":"float32"},{"name":"dense_Dense63/kernel","shape":[1,1],"dtype":"float32"},{"name":"dense_Dense63/bias","shape":[1],"dtype":"float32"},{"name":"dense_Dense64/kernel","shape":[1,2],"dtype":"float32"},{"name":"dense_Dense64/bias","shape":[2],"dtype":"float32"},{"name":"dense_Dense65/kernel","shape":[2,16],"dtype":"float32"},{"name":"dense_Dense65/bias","shape":[16],"dtype":"float32"},{"name":"dense_Dense66/kernel","shape":[16,1],"dtype":"float32"},{"name":"dense_Dense66/bias","shape":[1],"dtype":"float32"}]}]}