{"modelTopology":{"class_name":"Model","config":{"name":"model32","layers":[{"name":"input32","class_name":"InputLayer","config":{"batch_input_shape":[null,3],"dtype":"float32","sparse":false,"name":"input32"},"inbound_nodes":[]},{"name":"dense_Dense94","class_name":"Dense","config":{"units":32,"activation":"relu","use_bias":true,"kernel_initializer":{"class_name":"VarianceScaling","config":{"scale":1,"mode":"fan_avg","distribution":"normal","seed":null}},"bias_initializer":{"class_name":"Zeros","config":{}},"kernel_regularizer":null,"bias_regularizer":null,"activity_regularizer":null,"kernel_constraint":null,"bias_constraint":null,"name":"dense_Dense94","trainable":true},"inbound_nodes":[[["input32",0,0,{}]]]},{"name":"dense_Dense95","class_name":"Dense","config":{"units":2,"activation":"relu","use_bias":true,"kernel_initializer":{"class_name":"VarianceScaling","config":{"scale":1,"mode":"fan_avg","distribution":"normal","seed":null}},"bias_initializer":{"class_name":"Zeros","config":{}},"kernel_regularizer":null,"bias_regularizer":null,"activity_regularizer":null,"kernel_constraint":null,"bias_constraint":null,"name":"dense_Dense95","trainable":true},"inbound_nodes":[[["dense_Dense94",0,0,{}]]]},{"name":"dense_Dense96","class_name":"Dense","config":{"units":1,"activation":"sigmoid","use_bias":true,"kernel_initializer":{"class_name":"VarianceScaling","config":{"scale":1,"mode":"fan_avg","distribution":"normal","seed":null}},"bias_initializer":{"class_name":"Zeros","config":{}},"kernel_regularizer":null,"bias_regularizer":null,"activity_regularizer":null,"kernel_constraint":null,"bias_constraint":null,"name":"dense_Dense96","trainable":true},"inbound_nodes":[[["dense_Dense95",0,0,{}]]]}],"input_layers":[["input32",0,0]],"output_layers":[["dense_Dense96",0,0]]},"keras_version":"tfjs-layers 3.9.0","backend":"tensor_flow.js"},"weightsManifest":[{"paths":["weights.bin"],"weights":[{"name":"dense_Dense94/kernel","shape":[3,32],"dtype":"float32"},{"name":"dense_Dense94/bias","shape":[32],"dtype":"float32"},{"name":"dense_Dense95/kernel","shape":[32,2],"dtype":"float32"},{"name":"dense_Dense95/bias","shape":[2],"dtype":"float32"},{"name":"dense_Dense96/kernel","shape":[2,1],"dtype":"float32"},{"name":"dense_Dense96/bias","shape":[1],"dtype":"float32"}]}]}