{"modelTopology":{"class_name":"Model","config":{"name":"model175","layers":[{"name":"input175","class_name":"InputLayer","config":{"batch_input_shape":[null,3],"dtype":"float32","sparse":false,"name":"input175"},"inbound_nodes":[]},{"name":"dense_Dense1045","class_name":"Dense","config":{"units":1,"activation":"relu","use_bias":true,"kernel_initializer":{"class_name":"VarianceScaling","config":{"scale":1,"mode":"fan_avg","distribution":"normal","seed":null}},"bias_initializer":{"class_name":"Zeros","config":{}},"kernel_regularizer":null,"bias_regularizer":null,"activity_regularizer":null,"kernel_constraint":null,"bias_constraint":null,"name":"dense_Dense1045","trainable":true},"inbound_nodes":[[["input175",0,0,{}]]]},{"name":"dense_Dense1046","class_name":"Dense","config":{"units":1,"activation":"relu","use_bias":true,"kernel_initializer":{"class_name":"VarianceScaling","config":{"scale":1,"mode":"fan_avg","distribution":"normal","seed":null}},"bias_initializer":{"class_name":"Zeros","config":{}},"kernel_regularizer":null,"bias_regularizer":null,"activity_regularizer":null,"kernel_constraint":null,"bias_constraint":null,"name":"dense_Dense1046","trainable":true},"inbound_nodes":[[["dense_Dense1045",0,0,{}]]]},{"name":"dense_Dense1047","class_name":"Dense","config":{"units":16,"activation":"relu","use_bias":true,"kernel_initializer":{"class_name":"VarianceScaling","config":{"scale":1,"mode":"fan_avg","distribution":"normal","seed":null}},"bias_initializer":{"class_name":"Zeros","config":{}},"kernel_regularizer":null,"bias_regularizer":null,"activity_regularizer":null,"kernel_constraint":null,"bias_constraint":null,"name":"dense_Dense1047","trainable":true},"inbound_nodes":[[["dense_Dense1046",0,0,{}]]]},{"name":"dense_Dense1048","class_name":"Dense","config":{"units":32,"activation":"relu","use_bias":true,"kernel_initializer":{"class_name":"VarianceScaling","config":{"scale":1,"mode":"fan_avg","distribution":"normal","seed":null}},"bias_initializer":{"class_name":"Zeros","config":{}},"kernel_regularizer":null,"bias_regularizer":null,"activity_regularizer":null,"kernel_constraint":null,"bias_constraint":null,"name":"dense_Dense1048","trainable":true},"inbound_nodes":[[["dense_Dense1047",0,0,{}]]]},{"name":"dense_Dense1049","class_name":"Dense","config":{"units":1,"activation":"relu","use_bias":true,"kernel_initializer":{"class_name":"VarianceScaling","config":{"scale":1,"mode":"fan_avg","distribution":"normal","seed":null}},"bias_initializer":{"class_name":"Zeros","config":{}},"kernel_regularizer":null,"bias_regularizer":null,"activity_regularizer":null,"kernel_constraint":null,"bias_constraint":null,"name":"dense_Dense1049","trainable":true},"inbound_nodes":[[["dense_Dense1048",0,0,{}]]]},{"name":"dense_Dense1050","class_name":"Dense","config":{"units":1,"activation":"sigmoid","use_bias":true,"kernel_initializer":{"class_name":"VarianceScaling","config":{"scale":1,"mode":"fan_avg","distribution":"normal","seed":null}},"bias_initializer":{"class_name":"Zeros","config":{}},"kernel_regularizer":null,"bias_regularizer":null,"activity_regularizer":null,"kernel_constraint":null,"bias_constraint":null,"name":"dense_Dense1050","trainable":true},"inbound_nodes":[[["dense_Dense1049",0,0,{}]]]}],"input_layers":[["input175",0,0]],"output_layers":[["dense_Dense1050",0,0]]},"keras_version":"tfjs-layers 3.9.0","backend":"tensor_flow.js"},"weightsManifest":[{"paths":["weights.bin"],"weights":[{"name":"dense_Dense1045/kernel","shape":[3,1],"dtype":"float32"},{"name":"dense_Dense1045/bias","shape":[1],"dtype":"float32"},{"name":"dense_Dense1046/kernel","shape":[1,1],"dtype":"float32"},{"name":"dense_Dense1046/bias","shape":[1],"dtype":"float32"},{"name":"dense_Dense1047/kernel","shape":[1,16],"dtype":"float32"},{"name":"dense_Dense1047/bias","shape":[16],"dtype":"float32"},{"name":"dense_Dense1048/kernel","shape":[16,32],"dtype":"float32"},{"name":"dense_Dense1048/bias","shape":[32],"dtype":"float32"},{"name":"dense_Dense1049/kernel","shape":[32,1],"dtype":"float32"},{"name":"dense_Dense1049/bias","shape":[1],"dtype":"float32"},{"name":"dense_Dense1050/kernel","shape":[1,1],"dtype":"float32"},{"name":"dense_Dense1050/bias","shape":[1],"dtype":"float32"}]}]}