{"modelTopology":{"class_name":"Model","config":{"name":"model368","layers":[{"name":"input368","class_name":"InputLayer","config":{"batch_input_shape":[null,3],"dtype":"float32","sparse":false,"name":"input368"},"inbound_nodes":[]},{"name":"dense_Dense2203","class_name":"Dense","config":{"units":16,"activation":"relu","use_bias":true,"kernel_initializer":{"class_name":"VarianceScaling","config":{"scale":1,"mode":"fan_avg","distribution":"normal","seed":null}},"bias_initializer":{"class_name":"Zeros","config":{}},"kernel_regularizer":null,"bias_regularizer":null,"activity_regularizer":null,"kernel_constraint":null,"bias_constraint":null,"name":"dense_Dense2203","trainable":true},"inbound_nodes":[[["input368",0,0,{}]]]},{"name":"dense_Dense2204","class_name":"Dense","config":{"units":2,"activation":"relu","use_bias":true,"kernel_initializer":{"class_name":"VarianceScaling","config":{"scale":1,"mode":"fan_avg","distribution":"normal","seed":null}},"bias_initializer":{"class_name":"Zeros","config":{}},"kernel_regularizer":null,"bias_regularizer":null,"activity_regularizer":null,"kernel_constraint":null,"bias_constraint":null,"name":"dense_Dense2204","trainable":true},"inbound_nodes":[[["dense_Dense2203",0,0,{}]]]},{"name":"dense_Dense2205","class_name":"Dense","config":{"units":16,"activation":"relu","use_bias":true,"kernel_initializer":{"class_name":"VarianceScaling","config":{"scale":1,"mode":"fan_avg","distribution":"normal","seed":null}},"bias_initializer":{"class_name":"Zeros","config":{}},"kernel_regularizer":null,"bias_regularizer":null,"activity_regularizer":null,"kernel_constraint":null,"bias_constraint":null,"name":"dense_Dense2205","trainable":true},"inbound_nodes":[[["dense_Dense2204",0,0,{}]]]},{"name":"dense_Dense2206","class_name":"Dense","config":{"units":2,"activation":"relu","use_bias":true,"kernel_initializer":{"class_name":"VarianceScaling","config":{"scale":1,"mode":"fan_avg","distribution":"normal","seed":null}},"bias_initializer":{"class_name":"Zeros","config":{}},"kernel_regularizer":null,"bias_regularizer":null,"activity_regularizer":null,"kernel_constraint":null,"bias_constraint":null,"name":"dense_Dense2206","trainable":true},"inbound_nodes":[[["dense_Dense2205",0,0,{}]]]},{"name":"dense_Dense2207","class_name":"Dense","config":{"units":2,"activation":"relu","use_bias":true,"kernel_initializer":{"class_name":"VarianceScaling","config":{"scale":1,"mode":"fan_avg","distribution":"normal","seed":null}},"bias_initializer":{"class_name":"Zeros","config":{}},"kernel_regularizer":null,"bias_regularizer":null,"activity_regularizer":null,"kernel_constraint":null,"bias_constraint":null,"name":"dense_Dense2207","trainable":true},"inbound_nodes":[[["dense_Dense2206",0,0,{}]]]},{"name":"dense_Dense2208","class_name":"Dense","config":{"units":1,"activation":"sigmoid","use_bias":true,"kernel_initializer":{"class_name":"VarianceScaling","config":{"scale":1,"mode":"fan_avg","distribution":"normal","seed":null}},"bias_initializer":{"class_name":"Zeros","config":{}},"kernel_regularizer":null,"bias_regularizer":null,"activity_regularizer":null,"kernel_constraint":null,"bias_constraint":null,"name":"dense_Dense2208","trainable":true},"inbound_nodes":[[["dense_Dense2207",0,0,{}]]]}],"input_layers":[["input368",0,0]],"output_layers":[["dense_Dense2208",0,0]]},"keras_version":"tfjs-layers 3.9.0","backend":"tensor_flow.js"},"weightsManifest":[{"paths":["weights.bin"],"weights":[{"name":"dense_Dense2203/kernel","shape":[3,16],"dtype":"float32"},{"name":"dense_Dense2203/bias","shape":[16],"dtype":"float32"},{"name":"dense_Dense2204/kernel","shape":[16,2],"dtype":"float32"},{"name":"dense_Dense2204/bias","shape":[2],"dtype":"float32"},{"name":"dense_Dense2205/kernel","shape":[2,16],"dtype":"float32"},{"name":"dense_Dense2205/bias","shape":[16],"dtype":"float32"},{"name":"dense_Dense2206/kernel","shape":[16,2],"dtype":"float32"},{"name":"dense_Dense2206/bias","shape":[2],"dtype":"float32"},{"name":"dense_Dense2207/kernel","shape":[2,2],"dtype":"float32"},{"name":"dense_Dense2207/bias","shape":[2],"dtype":"float32"},{"name":"dense_Dense2208/kernel","shape":[2,1],"dtype":"float32"},{"name":"dense_Dense2208/bias","shape":[1],"dtype":"float32"}]}]}