{"modelTopology":{"class_name":"Model","config":{"name":"model227","layers":[{"name":"input227","class_name":"InputLayer","config":{"batch_input_shape":[null,3],"dtype":"float32","sparse":false,"name":"input227"},"inbound_nodes":[]},{"name":"dense_Dense1131","class_name":"Dense","config":{"units":2,"activation":"relu","use_bias":true,"kernel_initializer":{"class_name":"VarianceScaling","config":{"scale":1,"mode":"fan_avg","distribution":"normal","seed":null}},"bias_initializer":{"class_name":"Zeros","config":{}},"kernel_regularizer":null,"bias_regularizer":null,"activity_regularizer":null,"kernel_constraint":null,"bias_constraint":null,"name":"dense_Dense1131","trainable":true},"inbound_nodes":[[["input227",0,0,{}]]]},{"name":"dense_Dense1132","class_name":"Dense","config":{"units":1,"activation":"relu","use_bias":true,"kernel_initializer":{"class_name":"VarianceScaling","config":{"scale":1,"mode":"fan_avg","distribution":"normal","seed":null}},"bias_initializer":{"class_name":"Zeros","config":{}},"kernel_regularizer":null,"bias_regularizer":null,"activity_regularizer":null,"kernel_constraint":null,"bias_constraint":null,"name":"dense_Dense1132","trainable":true},"inbound_nodes":[[["dense_Dense1131",0,0,{}]]]},{"name":"dense_Dense1133","class_name":"Dense","config":{"units":2,"activation":"relu","use_bias":true,"kernel_initializer":{"class_name":"VarianceScaling","config":{"scale":1,"mode":"fan_avg","distribution":"normal","seed":null}},"bias_initializer":{"class_name":"Zeros","config":{}},"kernel_regularizer":null,"bias_regularizer":null,"activity_regularizer":null,"kernel_constraint":null,"bias_constraint":null,"name":"dense_Dense1133","trainable":true},"inbound_nodes":[[["dense_Dense1132",0,0,{}]]]},{"name":"dense_Dense1134","class_name":"Dense","config":{"units":16,"activation":"relu","use_bias":true,"kernel_initializer":{"class_name":"VarianceScaling","config":{"scale":1,"mode":"fan_avg","distribution":"normal","seed":null}},"bias_initializer":{"class_name":"Zeros","config":{}},"kernel_regularizer":null,"bias_regularizer":null,"activity_regularizer":null,"kernel_constraint":null,"bias_constraint":null,"name":"dense_Dense1134","trainable":true},"inbound_nodes":[[["dense_Dense1133",0,0,{}]]]},{"name":"dense_Dense1135","class_name":"Dense","config":{"units":1,"activation":"sigmoid","use_bias":true,"kernel_initializer":{"class_name":"VarianceScaling","config":{"scale":1,"mode":"fan_avg","distribution":"normal","seed":null}},"bias_initializer":{"class_name":"Zeros","config":{}},"kernel_regularizer":null,"bias_regularizer":null,"activity_regularizer":null,"kernel_constraint":null,"bias_constraint":null,"name":"dense_Dense1135","trainable":true},"inbound_nodes":[[["dense_Dense1134",0,0,{}]]]}],"input_layers":[["input227",0,0]],"output_layers":[["dense_Dense1135",0,0]]},"keras_version":"tfjs-layers 3.9.0","backend":"tensor_flow.js"},"weightsManifest":[{"paths":["weights.bin"],"weights":[{"name":"dense_Dense1131/kernel","shape":[3,2],"dtype":"float32"},{"name":"dense_Dense1131/bias","shape":[2],"dtype":"float32"},{"name":"dense_Dense1132/kernel","shape":[2,1],"dtype":"float32"},{"name":"dense_Dense1132/bias","shape":[1],"dtype":"float32"},{"name":"dense_Dense1133/kernel","shape":[1,2],"dtype":"float32"},{"name":"dense_Dense1133/bias","shape":[2],"dtype":"float32"},{"name":"dense_Dense1134/kernel","shape":[2,16],"dtype":"float32"},{"name":"dense_Dense1134/bias","shape":[16],"dtype":"float32"},{"name":"dense_Dense1135/kernel","shape":[16,1],"dtype":"float32"},{"name":"dense_Dense1135/bias","shape":[1],"dtype":"float32"}]}]}