{"modelTopology":{"class_name":"Model","config":{"name":"model1042","layers":[{"name":"input1042","class_name":"InputLayer","config":{"batch_input_shape":[null,3],"dtype":"float32","sparse":false,"name":"input1042"},"inbound_nodes":[]},{"name":"dense_Dense6247","class_name":"Dense","config":{"units":4,"activation":"relu","use_bias":true,"kernel_initializer":{"class_name":"VarianceScaling","config":{"scale":1,"mode":"fan_avg","distribution":"normal","seed":null}},"bias_initializer":{"class_name":"Zeros","config":{}},"kernel_regularizer":null,"bias_regularizer":null,"activity_regularizer":null,"kernel_constraint":null,"bias_constraint":null,"name":"dense_Dense6247","trainable":true},"inbound_nodes":[[["input1042",0,0,{}]]]},{"name":"dense_Dense6248","class_name":"Dense","config":{"units":16,"activation":"relu","use_bias":true,"kernel_initializer":{"class_name":"VarianceScaling","config":{"scale":1,"mode":"fan_avg","distribution":"normal","seed":null}},"bias_initializer":{"class_name":"Zeros","config":{}},"kernel_regularizer":null,"bias_regularizer":null,"activity_regularizer":null,"kernel_constraint":null,"bias_constraint":null,"name":"dense_Dense6248","trainable":true},"inbound_nodes":[[["dense_Dense6247",0,0,{}]]]},{"name":"dense_Dense6249","class_name":"Dense","config":{"units":16,"activation":"relu","use_bias":true,"kernel_initializer":{"class_name":"VarianceScaling","config":{"scale":1,"mode":"fan_avg","distribution":"normal","seed":null}},"bias_initializer":{"class_name":"Zeros","config":{}},"kernel_regularizer":null,"bias_regularizer":null,"activity_regularizer":null,"kernel_constraint":null,"bias_constraint":null,"name":"dense_Dense6249","trainable":true},"inbound_nodes":[[["dense_Dense6248",0,0,{}]]]},{"name":"dense_Dense6250","class_name":"Dense","config":{"units":32,"activation":"relu","use_bias":true,"kernel_initializer":{"class_name":"VarianceScaling","config":{"scale":1,"mode":"fan_avg","distribution":"normal","seed":null}},"bias_initializer":{"class_name":"Zeros","config":{}},"kernel_regularizer":null,"bias_regularizer":null,"activity_regularizer":null,"kernel_constraint":null,"bias_constraint":null,"name":"dense_Dense6250","trainable":true},"inbound_nodes":[[["dense_Dense6249",0,0,{}]]]},{"name":"dense_Dense6251","class_name":"Dense","config":{"units":8,"activation":"relu","use_bias":true,"kernel_initializer":{"class_name":"VarianceScaling","config":{"scale":1,"mode":"fan_avg","distribution":"normal","seed":null}},"bias_initializer":{"class_name":"Zeros","config":{}},"kernel_regularizer":null,"bias_regularizer":null,"activity_regularizer":null,"kernel_constraint":null,"bias_constraint":null,"name":"dense_Dense6251","trainable":true},"inbound_nodes":[[["dense_Dense6250",0,0,{}]]]},{"name":"dense_Dense6252","class_name":"Dense","config":{"units":1,"activation":"sigmoid","use_bias":true,"kernel_initializer":{"class_name":"VarianceScaling","config":{"scale":1,"mode":"fan_avg","distribution":"normal","seed":null}},"bias_initializer":{"class_name":"Zeros","config":{}},"kernel_regularizer":null,"bias_regularizer":null,"activity_regularizer":null,"kernel_constraint":null,"bias_constraint":null,"name":"dense_Dense6252","trainable":true},"inbound_nodes":[[["dense_Dense6251",0,0,{}]]]}],"input_layers":[["input1042",0,0]],"output_layers":[["dense_Dense6252",0,0]]},"keras_version":"tfjs-layers 3.9.0","backend":"tensor_flow.js"},"weightsManifest":[{"paths":["weights.bin"],"weights":[{"name":"dense_Dense6247/kernel","shape":[3,4],"dtype":"float32"},{"name":"dense_Dense6247/bias","shape":[4],"dtype":"float32"},{"name":"dense_Dense6248/kernel","shape":[4,16],"dtype":"float32"},{"name":"dense_Dense6248/bias","shape":[16],"dtype":"float32"},{"name":"dense_Dense6249/kernel","shape":[16,16],"dtype":"float32"},{"name":"dense_Dense6249/bias","shape":[16],"dtype":"float32"},{"name":"dense_Dense6250/kernel","shape":[16,32],"dtype":"float32"},{"name":"dense_Dense6250/bias","shape":[32],"dtype":"float32"},{"name":"dense_Dense6251/kernel","shape":[32,8],"dtype":"float32"},{"name":"dense_Dense6251/bias","shape":[8],"dtype":"float32"},{"name":"dense_Dense6252/kernel","shape":[8,1],"dtype":"float32"},{"name":"dense_Dense6252/bias","shape":[1],"dtype":"float32"}]}]}