{"modelTopology":{"class_name":"Model","config":{"name":"model333","layers":[{"name":"input333","class_name":"InputLayer","config":{"batch_input_shape":[null,3],"dtype":"float32","sparse":false,"name":"input333"},"inbound_nodes":[]},{"name":"dense_Dense1993","class_name":"Dense","config":{"units":4,"activation":"relu","use_bias":true,"kernel_initializer":{"class_name":"VarianceScaling","config":{"scale":1,"mode":"fan_avg","distribution":"normal","seed":null}},"bias_initializer":{"class_name":"Zeros","config":{}},"kernel_regularizer":null,"bias_regularizer":null,"activity_regularizer":null,"kernel_constraint":null,"bias_constraint":null,"name":"dense_Dense1993","trainable":true},"inbound_nodes":[[["input333",0,0,{}]]]},{"name":"dense_Dense1994","class_name":"Dense","config":{"units":2,"activation":"relu","use_bias":true,"kernel_initializer":{"class_name":"VarianceScaling","config":{"scale":1,"mode":"fan_avg","distribution":"normal","seed":null}},"bias_initializer":{"class_name":"Zeros","config":{}},"kernel_regularizer":null,"bias_regularizer":null,"activity_regularizer":null,"kernel_constraint":null,"bias_constraint":null,"name":"dense_Dense1994","trainable":true},"inbound_nodes":[[["dense_Dense1993",0,0,{}]]]},{"name":"dense_Dense1995","class_name":"Dense","config":{"units":8,"activation":"relu","use_bias":true,"kernel_initializer":{"class_name":"VarianceScaling","config":{"scale":1,"mode":"fan_avg","distribution":"normal","seed":null}},"bias_initializer":{"class_name":"Zeros","config":{}},"kernel_regularizer":null,"bias_regularizer":null,"activity_regularizer":null,"kernel_constraint":null,"bias_constraint":null,"name":"dense_Dense1995","trainable":true},"inbound_nodes":[[["dense_Dense1994",0,0,{}]]]},{"name":"dense_Dense1996","class_name":"Dense","config":{"units":2,"activation":"relu","use_bias":true,"kernel_initializer":{"class_name":"VarianceScaling","config":{"scale":1,"mode":"fan_avg","distribution":"normal","seed":null}},"bias_initializer":{"class_name":"Zeros","config":{}},"kernel_regularizer":null,"bias_regularizer":null,"activity_regularizer":null,"kernel_constraint":null,"bias_constraint":null,"name":"dense_Dense1996","trainable":true},"inbound_nodes":[[["dense_Dense1995",0,0,{}]]]},{"name":"dense_Dense1997","class_name":"Dense","config":{"units":4,"activation":"relu","use_bias":true,"kernel_initializer":{"class_name":"VarianceScaling","config":{"scale":1,"mode":"fan_avg","distribution":"normal","seed":null}},"bias_initializer":{"class_name":"Zeros","config":{}},"kernel_regularizer":null,"bias_regularizer":null,"activity_regularizer":null,"kernel_constraint":null,"bias_constraint":null,"name":"dense_Dense1997","trainable":true},"inbound_nodes":[[["dense_Dense1996",0,0,{}]]]},{"name":"dense_Dense1998","class_name":"Dense","config":{"units":1,"activation":"sigmoid","use_bias":true,"kernel_initializer":{"class_name":"VarianceScaling","config":{"scale":1,"mode":"fan_avg","distribution":"normal","seed":null}},"bias_initializer":{"class_name":"Zeros","config":{}},"kernel_regularizer":null,"bias_regularizer":null,"activity_regularizer":null,"kernel_constraint":null,"bias_constraint":null,"name":"dense_Dense1998","trainable":true},"inbound_nodes":[[["dense_Dense1997",0,0,{}]]]}],"input_layers":[["input333",0,0]],"output_layers":[["dense_Dense1998",0,0]]},"keras_version":"tfjs-layers 3.9.0","backend":"tensor_flow.js"},"weightsManifest":[{"paths":["weights.bin"],"weights":[{"name":"dense_Dense1993/kernel","shape":[3,4],"dtype":"float32"},{"name":"dense_Dense1993/bias","shape":[4],"dtype":"float32"},{"name":"dense_Dense1994/kernel","shape":[4,2],"dtype":"float32"},{"name":"dense_Dense1994/bias","shape":[2],"dtype":"float32"},{"name":"dense_Dense1995/kernel","shape":[2,8],"dtype":"float32"},{"name":"dense_Dense1995/bias","shape":[8],"dtype":"float32"},{"name":"dense_Dense1996/kernel","shape":[8,2],"dtype":"float32"},{"name":"dense_Dense1996/bias","shape":[2],"dtype":"float32"},{"name":"dense_Dense1997/kernel","shape":[2,4],"dtype":"float32"},{"name":"dense_Dense1997/bias","shape":[4],"dtype":"float32"},{"name":"dense_Dense1998/kernel","shape":[4,1],"dtype":"float32"},{"name":"dense_Dense1998/bias","shape":[1],"dtype":"float32"}]}]}