{"modelTopology":{"class_name":"Model","config":{"name":"model675","layers":[{"name":"input675","class_name":"InputLayer","config":{"batch_input_shape":[null,3],"dtype":"float32","sparse":false,"name":"input675"},"inbound_nodes":[]},{"name":"dense_Dense4045","class_name":"Dense","config":{"units":16,"activation":"relu","use_bias":true,"kernel_initializer":{"class_name":"VarianceScaling","config":{"scale":1,"mode":"fan_avg","distribution":"normal","seed":null}},"bias_initializer":{"class_name":"Zeros","config":{}},"kernel_regularizer":null,"bias_regularizer":null,"activity_regularizer":null,"kernel_constraint":null,"bias_constraint":null,"name":"dense_Dense4045","trainable":true},"inbound_nodes":[[["input675",0,0,{}]]]},{"name":"dense_Dense4046","class_name":"Dense","config":{"units":8,"activation":"relu","use_bias":true,"kernel_initializer":{"class_name":"VarianceScaling","config":{"scale":1,"mode":"fan_avg","distribution":"normal","seed":null}},"bias_initializer":{"class_name":"Zeros","config":{}},"kernel_regularizer":null,"bias_regularizer":null,"activity_regularizer":null,"kernel_constraint":null,"bias_constraint":null,"name":"dense_Dense4046","trainable":true},"inbound_nodes":[[["dense_Dense4045",0,0,{}]]]},{"name":"dense_Dense4047","class_name":"Dense","config":{"units":1,"activation":"relu","use_bias":true,"kernel_initializer":{"class_name":"VarianceScaling","config":{"scale":1,"mode":"fan_avg","distribution":"normal","seed":null}},"bias_initializer":{"class_name":"Zeros","config":{}},"kernel_regularizer":null,"bias_regularizer":null,"activity_regularizer":null,"kernel_constraint":null,"bias_constraint":null,"name":"dense_Dense4047","trainable":true},"inbound_nodes":[[["dense_Dense4046",0,0,{}]]]},{"name":"dense_Dense4048","class_name":"Dense","config":{"units":16,"activation":"relu","use_bias":true,"kernel_initializer":{"class_name":"VarianceScaling","config":{"scale":1,"mode":"fan_avg","distribution":"normal","seed":null}},"bias_initializer":{"class_name":"Zeros","config":{}},"kernel_regularizer":null,"bias_regularizer":null,"activity_regularizer":null,"kernel_constraint":null,"bias_constraint":null,"name":"dense_Dense4048","trainable":true},"inbound_nodes":[[["dense_Dense4047",0,0,{}]]]},{"name":"dense_Dense4049","class_name":"Dense","config":{"units":4,"activation":"relu","use_bias":true,"kernel_initializer":{"class_name":"VarianceScaling","config":{"scale":1,"mode":"fan_avg","distribution":"normal","seed":null}},"bias_initializer":{"class_name":"Zeros","config":{}},"kernel_regularizer":null,"bias_regularizer":null,"activity_regularizer":null,"kernel_constraint":null,"bias_constraint":null,"name":"dense_Dense4049","trainable":true},"inbound_nodes":[[["dense_Dense4048",0,0,{}]]]},{"name":"dense_Dense4050","class_name":"Dense","config":{"units":1,"activation":"sigmoid","use_bias":true,"kernel_initializer":{"class_name":"VarianceScaling","config":{"scale":1,"mode":"fan_avg","distribution":"normal","seed":null}},"bias_initializer":{"class_name":"Zeros","config":{}},"kernel_regularizer":null,"bias_regularizer":null,"activity_regularizer":null,"kernel_constraint":null,"bias_constraint":null,"name":"dense_Dense4050","trainable":true},"inbound_nodes":[[["dense_Dense4049",0,0,{}]]]}],"input_layers":[["input675",0,0]],"output_layers":[["dense_Dense4050",0,0]]},"keras_version":"tfjs-layers 3.9.0","backend":"tensor_flow.js"},"weightsManifest":[{"paths":["weights.bin"],"weights":[{"name":"dense_Dense4045/kernel","shape":[3,16],"dtype":"float32"},{"name":"dense_Dense4045/bias","shape":[16],"dtype":"float32"},{"name":"dense_Dense4046/kernel","shape":[16,8],"dtype":"float32"},{"name":"dense_Dense4046/bias","shape":[8],"dtype":"float32"},{"name":"dense_Dense4047/kernel","shape":[8,1],"dtype":"float32"},{"name":"dense_Dense4047/bias","shape":[1],"dtype":"float32"},{"name":"dense_Dense4048/kernel","shape":[1,16],"dtype":"float32"},{"name":"dense_Dense4048/bias","shape":[16],"dtype":"float32"},{"name":"dense_Dense4049/kernel","shape":[16,4],"dtype":"float32"},{"name":"dense_Dense4049/bias","shape":[4],"dtype":"float32"},{"name":"dense_Dense4050/kernel","shape":[4,1],"dtype":"float32"},{"name":"dense_Dense4050/bias","shape":[1],"dtype":"float32"}]}]}