{"modelTopology":{"class_name":"Model","config":{"name":"model1064","layers":[{"name":"input1064","class_name":"InputLayer","config":{"batch_input_shape":[null,3],"dtype":"float32","sparse":false,"name":"input1064"},"inbound_nodes":[]},{"name":"dense_Dense6379","class_name":"Dense","config":{"units":2,"activation":"relu","use_bias":true,"kernel_initializer":{"class_name":"VarianceScaling","config":{"scale":1,"mode":"fan_avg","distribution":"normal","seed":null}},"bias_initializer":{"class_name":"Zeros","config":{}},"kernel_regularizer":null,"bias_regularizer":null,"activity_regularizer":null,"kernel_constraint":null,"bias_constraint":null,"name":"dense_Dense6379","trainable":true},"inbound_nodes":[[["input1064",0,0,{}]]]},{"name":"dense_Dense6380","class_name":"Dense","config":{"units":16,"activation":"relu","use_bias":true,"kernel_initializer":{"class_name":"VarianceScaling","config":{"scale":1,"mode":"fan_avg","distribution":"normal","seed":null}},"bias_initializer":{"class_name":"Zeros","config":{}},"kernel_regularizer":null,"bias_regularizer":null,"activity_regularizer":null,"kernel_constraint":null,"bias_constraint":null,"name":"dense_Dense6380","trainable":true},"inbound_nodes":[[["dense_Dense6379",0,0,{}]]]},{"name":"dense_Dense6381","class_name":"Dense","config":{"units":32,"activation":"relu","use_bias":true,"kernel_initializer":{"class_name":"VarianceScaling","config":{"scale":1,"mode":"fan_avg","distribution":"normal","seed":null}},"bias_initializer":{"class_name":"Zeros","config":{}},"kernel_regularizer":null,"bias_regularizer":null,"activity_regularizer":null,"kernel_constraint":null,"bias_constraint":null,"name":"dense_Dense6381","trainable":true},"inbound_nodes":[[["dense_Dense6380",0,0,{}]]]},{"name":"dense_Dense6382","class_name":"Dense","config":{"units":8,"activation":"relu","use_bias":true,"kernel_initializer":{"class_name":"VarianceScaling","config":{"scale":1,"mode":"fan_avg","distribution":"normal","seed":null}},"bias_initializer":{"class_name":"Zeros","config":{}},"kernel_regularizer":null,"bias_regularizer":null,"activity_regularizer":null,"kernel_constraint":null,"bias_constraint":null,"name":"dense_Dense6382","trainable":true},"inbound_nodes":[[["dense_Dense6381",0,0,{}]]]},{"name":"dense_Dense6383","class_name":"Dense","config":{"units":2,"activation":"relu","use_bias":true,"kernel_initializer":{"class_name":"VarianceScaling","config":{"scale":1,"mode":"fan_avg","distribution":"normal","seed":null}},"bias_initializer":{"class_name":"Zeros","config":{}},"kernel_regularizer":null,"bias_regularizer":null,"activity_regularizer":null,"kernel_constraint":null,"bias_constraint":null,"name":"dense_Dense6383","trainable":true},"inbound_nodes":[[["dense_Dense6382",0,0,{}]]]},{"name":"dense_Dense6384","class_name":"Dense","config":{"units":1,"activation":"sigmoid","use_bias":true,"kernel_initializer":{"class_name":"VarianceScaling","config":{"scale":1,"mode":"fan_avg","distribution":"normal","seed":null}},"bias_initializer":{"class_name":"Zeros","config":{}},"kernel_regularizer":null,"bias_regularizer":null,"activity_regularizer":null,"kernel_constraint":null,"bias_constraint":null,"name":"dense_Dense6384","trainable":true},"inbound_nodes":[[["dense_Dense6383",0,0,{}]]]}],"input_layers":[["input1064",0,0]],"output_layers":[["dense_Dense6384",0,0]]},"keras_version":"tfjs-layers 3.9.0","backend":"tensor_flow.js"},"weightsManifest":[{"paths":["weights.bin"],"weights":[{"name":"dense_Dense6379/kernel","shape":[3,2],"dtype":"float32"},{"name":"dense_Dense6379/bias","shape":[2],"dtype":"float32"},{"name":"dense_Dense6380/kernel","shape":[2,16],"dtype":"float32"},{"name":"dense_Dense6380/bias","shape":[16],"dtype":"float32"},{"name":"dense_Dense6381/kernel","shape":[16,32],"dtype":"float32"},{"name":"dense_Dense6381/bias","shape":[32],"dtype":"float32"},{"name":"dense_Dense6382/kernel","shape":[32,8],"dtype":"float32"},{"name":"dense_Dense6382/bias","shape":[8],"dtype":"float32"},{"name":"dense_Dense6383/kernel","shape":[8,2],"dtype":"float32"},{"name":"dense_Dense6383/bias","shape":[2],"dtype":"float32"},{"name":"dense_Dense6384/kernel","shape":[2,1],"dtype":"float32"},{"name":"dense_Dense6384/bias","shape":[1],"dtype":"float32"}]}]}