{"modelTopology":{"class_name":"Model","config":{"name":"model1141","layers":[{"name":"input1141","class_name":"InputLayer","config":{"batch_input_shape":[null,3],"dtype":"float32","sparse":false,"name":"input1141"},"inbound_nodes":[]},{"name":"dense_Dense6841","class_name":"Dense","config":{"units":2,"activation":"relu","use_bias":true,"kernel_initializer":{"class_name":"VarianceScaling","config":{"scale":1,"mode":"fan_avg","distribution":"normal","seed":null}},"bias_initializer":{"class_name":"Zeros","config":{}},"kernel_regularizer":null,"bias_regularizer":null,"activity_regularizer":null,"kernel_constraint":null,"bias_constraint":null,"name":"dense_Dense6841","trainable":true},"inbound_nodes":[[["input1141",0,0,{}]]]},{"name":"dense_Dense6842","class_name":"Dense","config":{"units":32,"activation":"relu","use_bias":true,"kernel_initializer":{"class_name":"VarianceScaling","config":{"scale":1,"mode":"fan_avg","distribution":"normal","seed":null}},"bias_initializer":{"class_name":"Zeros","config":{}},"kernel_regularizer":null,"bias_regularizer":null,"activity_regularizer":null,"kernel_constraint":null,"bias_constraint":null,"name":"dense_Dense6842","trainable":true},"inbound_nodes":[[["dense_Dense6841",0,0,{}]]]},{"name":"dense_Dense6843","class_name":"Dense","config":{"units":2,"activation":"relu","use_bias":true,"kernel_initializer":{"class_name":"VarianceScaling","config":{"scale":1,"mode":"fan_avg","distribution":"normal","seed":null}},"bias_initializer":{"class_name":"Zeros","config":{}},"kernel_regularizer":null,"bias_regularizer":null,"activity_regularizer":null,"kernel_constraint":null,"bias_constraint":null,"name":"dense_Dense6843","trainable":true},"inbound_nodes":[[["dense_Dense6842",0,0,{}]]]},{"name":"dense_Dense6844","class_name":"Dense","config":{"units":16,"activation":"relu","use_bias":true,"kernel_initializer":{"class_name":"VarianceScaling","config":{"scale":1,"mode":"fan_avg","distribution":"normal","seed":null}},"bias_initializer":{"class_name":"Zeros","config":{}},"kernel_regularizer":null,"bias_regularizer":null,"activity_regularizer":null,"kernel_constraint":null,"bias_constraint":null,"name":"dense_Dense6844","trainable":true},"inbound_nodes":[[["dense_Dense6843",0,0,{}]]]},{"name":"dense_Dense6845","class_name":"Dense","config":{"units":1,"activation":"relu","use_bias":true,"kernel_initializer":{"class_name":"VarianceScaling","config":{"scale":1,"mode":"fan_avg","distribution":"normal","seed":null}},"bias_initializer":{"class_name":"Zeros","config":{}},"kernel_regularizer":null,"bias_regularizer":null,"activity_regularizer":null,"kernel_constraint":null,"bias_constraint":null,"name":"dense_Dense6845","trainable":true},"inbound_nodes":[[["dense_Dense6844",0,0,{}]]]},{"name":"dense_Dense6846","class_name":"Dense","config":{"units":1,"activation":"sigmoid","use_bias":true,"kernel_initializer":{"class_name":"VarianceScaling","config":{"scale":1,"mode":"fan_avg","distribution":"normal","seed":null}},"bias_initializer":{"class_name":"Zeros","config":{}},"kernel_regularizer":null,"bias_regularizer":null,"activity_regularizer":null,"kernel_constraint":null,"bias_constraint":null,"name":"dense_Dense6846","trainable":true},"inbound_nodes":[[["dense_Dense6845",0,0,{}]]]}],"input_layers":[["input1141",0,0]],"output_layers":[["dense_Dense6846",0,0]]},"keras_version":"tfjs-layers 3.9.0","backend":"tensor_flow.js"},"weightsManifest":[{"paths":["weights.bin"],"weights":[{"name":"dense_Dense6841/kernel","shape":[3,2],"dtype":"float32"},{"name":"dense_Dense6841/bias","shape":[2],"dtype":"float32"},{"name":"dense_Dense6842/kernel","shape":[2,32],"dtype":"float32"},{"name":"dense_Dense6842/bias","shape":[32],"dtype":"float32"},{"name":"dense_Dense6843/kernel","shape":[32,2],"dtype":"float32"},{"name":"dense_Dense6843/bias","shape":[2],"dtype":"float32"},{"name":"dense_Dense6844/kernel","shape":[2,16],"dtype":"float32"},{"name":"dense_Dense6844/bias","shape":[16],"dtype":"float32"},{"name":"dense_Dense6845/kernel","shape":[16,1],"dtype":"float32"},{"name":"dense_Dense6845/bias","shape":[1],"dtype":"float32"},{"name":"dense_Dense6846/kernel","shape":[1,1],"dtype":"float32"},{"name":"dense_Dense6846/bias","shape":[1],"dtype":"float32"}]}]}