{"modelTopology":{"class_name":"Model","config":{"name":"model91","layers":[{"name":"input91","class_name":"InputLayer","config":{"batch_input_shape":[null,3],"dtype":"float32","sparse":false,"name":"input91"},"inbound_nodes":[]},{"name":"dense_Dense451","class_name":"Dense","config":{"units":1,"activation":"relu","use_bias":true,"kernel_initializer":{"class_name":"VarianceScaling","config":{"scale":1,"mode":"fan_avg","distribution":"normal","seed":null}},"bias_initializer":{"class_name":"Zeros","config":{}},"kernel_regularizer":null,"bias_regularizer":null,"activity_regularizer":null,"kernel_constraint":null,"bias_constraint":null,"name":"dense_Dense451","trainable":true},"inbound_nodes":[[["input91",0,0,{}]]]},{"name":"dense_Dense452","class_name":"Dense","config":{"units":4,"activation":"relu","use_bias":true,"kernel_initializer":{"class_name":"VarianceScaling","config":{"scale":1,"mode":"fan_avg","distribution":"normal","seed":null}},"bias_initializer":{"class_name":"Zeros","config":{}},"kernel_regularizer":null,"bias_regularizer":null,"activity_regularizer":null,"kernel_constraint":null,"bias_constraint":null,"name":"dense_Dense452","trainable":true},"inbound_nodes":[[["dense_Dense451",0,0,{}]]]},{"name":"dense_Dense453","class_name":"Dense","config":{"units":8,"activation":"relu","use_bias":true,"kernel_initializer":{"class_name":"VarianceScaling","config":{"scale":1,"mode":"fan_avg","distribution":"normal","seed":null}},"bias_initializer":{"class_name":"Zeros","config":{}},"kernel_regularizer":null,"bias_regularizer":null,"activity_regularizer":null,"kernel_constraint":null,"bias_constraint":null,"name":"dense_Dense453","trainable":true},"inbound_nodes":[[["dense_Dense452",0,0,{}]]]},{"name":"dense_Dense454","class_name":"Dense","config":{"units":1,"activation":"relu","use_bias":true,"kernel_initializer":{"class_name":"VarianceScaling","config":{"scale":1,"mode":"fan_avg","distribution":"normal","seed":null}},"bias_initializer":{"class_name":"Zeros","config":{}},"kernel_regularizer":null,"bias_regularizer":null,"activity_regularizer":null,"kernel_constraint":null,"bias_constraint":null,"name":"dense_Dense454","trainable":true},"inbound_nodes":[[["dense_Dense453",0,0,{}]]]},{"name":"dense_Dense455","class_name":"Dense","config":{"units":1,"activation":"sigmoid","use_bias":true,"kernel_initializer":{"class_name":"VarianceScaling","config":{"scale":1,"mode":"fan_avg","distribution":"normal","seed":null}},"bias_initializer":{"class_name":"Zeros","config":{}},"kernel_regularizer":null,"bias_regularizer":null,"activity_regularizer":null,"kernel_constraint":null,"bias_constraint":null,"name":"dense_Dense455","trainable":true},"inbound_nodes":[[["dense_Dense454",0,0,{}]]]}],"input_layers":[["input91",0,0]],"output_layers":[["dense_Dense455",0,0]]},"keras_version":"tfjs-layers 3.9.0","backend":"tensor_flow.js"},"weightsManifest":[{"paths":["weights.bin"],"weights":[{"name":"dense_Dense451/kernel","shape":[3,1],"dtype":"float32"},{"name":"dense_Dense451/bias","shape":[1],"dtype":"float32"},{"name":"dense_Dense452/kernel","shape":[1,4],"dtype":"float32"},{"name":"dense_Dense452/bias","shape":[4],"dtype":"float32"},{"name":"dense_Dense453/kernel","shape":[4,8],"dtype":"float32"},{"name":"dense_Dense453/bias","shape":[8],"dtype":"float32"},{"name":"dense_Dense454/kernel","shape":[8,1],"dtype":"float32"},{"name":"dense_Dense454/bias","shape":[1],"dtype":"float32"},{"name":"dense_Dense455/kernel","shape":[1,1],"dtype":"float32"},{"name":"dense_Dense455/bias","shape":[1],"dtype":"float32"}]}]}