{"modelTopology":{"class_name":"Model","config":{"name":"model902","layers":[{"name":"input902","class_name":"InputLayer","config":{"batch_input_shape":[null,3],"dtype":"float32","sparse":false,"name":"input902"},"inbound_nodes":[]},{"name":"dense_Dense5407","class_name":"Dense","config":{"units":4,"activation":"relu","use_bias":true,"kernel_initializer":{"class_name":"VarianceScaling","config":{"scale":1,"mode":"fan_avg","distribution":"normal","seed":null}},"bias_initializer":{"class_name":"Zeros","config":{}},"kernel_regularizer":null,"bias_regularizer":null,"activity_regularizer":null,"kernel_constraint":null,"bias_constraint":null,"name":"dense_Dense5407","trainable":true},"inbound_nodes":[[["input902",0,0,{}]]]},{"name":"dense_Dense5408","class_name":"Dense","config":{"units":16,"activation":"relu","use_bias":true,"kernel_initializer":{"class_name":"VarianceScaling","config":{"scale":1,"mode":"fan_avg","distribution":"normal","seed":null}},"bias_initializer":{"class_name":"Zeros","config":{}},"kernel_regularizer":null,"bias_regularizer":null,"activity_regularizer":null,"kernel_constraint":null,"bias_constraint":null,"name":"dense_Dense5408","trainable":true},"inbound_nodes":[[["dense_Dense5407",0,0,{}]]]},{"name":"dense_Dense5409","class_name":"Dense","config":{"units":2,"activation":"relu","use_bias":true,"kernel_initializer":{"class_name":"VarianceScaling","config":{"scale":1,"mode":"fan_avg","distribution":"normal","seed":null}},"bias_initializer":{"class_name":"Zeros","config":{}},"kernel_regularizer":null,"bias_regularizer":null,"activity_regularizer":null,"kernel_constraint":null,"bias_constraint":null,"name":"dense_Dense5409","trainable":true},"inbound_nodes":[[["dense_Dense5408",0,0,{}]]]},{"name":"dense_Dense5410","class_name":"Dense","config":{"units":1,"activation":"relu","use_bias":true,"kernel_initializer":{"class_name":"VarianceScaling","config":{"scale":1,"mode":"fan_avg","distribution":"normal","seed":null}},"bias_initializer":{"class_name":"Zeros","config":{}},"kernel_regularizer":null,"bias_regularizer":null,"activity_regularizer":null,"kernel_constraint":null,"bias_constraint":null,"name":"dense_Dense5410","trainable":true},"inbound_nodes":[[["dense_Dense5409",0,0,{}]]]},{"name":"dense_Dense5411","class_name":"Dense","config":{"units":2,"activation":"relu","use_bias":true,"kernel_initializer":{"class_name":"VarianceScaling","config":{"scale":1,"mode":"fan_avg","distribution":"normal","seed":null}},"bias_initializer":{"class_name":"Zeros","config":{}},"kernel_regularizer":null,"bias_regularizer":null,"activity_regularizer":null,"kernel_constraint":null,"bias_constraint":null,"name":"dense_Dense5411","trainable":true},"inbound_nodes":[[["dense_Dense5410",0,0,{}]]]},{"name":"dense_Dense5412","class_name":"Dense","config":{"units":1,"activation":"sigmoid","use_bias":true,"kernel_initializer":{"class_name":"VarianceScaling","config":{"scale":1,"mode":"fan_avg","distribution":"normal","seed":null}},"bias_initializer":{"class_name":"Zeros","config":{}},"kernel_regularizer":null,"bias_regularizer":null,"activity_regularizer":null,"kernel_constraint":null,"bias_constraint":null,"name":"dense_Dense5412","trainable":true},"inbound_nodes":[[["dense_Dense5411",0,0,{}]]]}],"input_layers":[["input902",0,0]],"output_layers":[["dense_Dense5412",0,0]]},"keras_version":"tfjs-layers 3.9.0","backend":"tensor_flow.js"},"weightsManifest":[{"paths":["weights.bin"],"weights":[{"name":"dense_Dense5407/kernel","shape":[3,4],"dtype":"float32"},{"name":"dense_Dense5407/bias","shape":[4],"dtype":"float32"},{"name":"dense_Dense5408/kernel","shape":[4,16],"dtype":"float32"},{"name":"dense_Dense5408/bias","shape":[16],"dtype":"float32"},{"name":"dense_Dense5409/kernel","shape":[16,2],"dtype":"float32"},{"name":"dense_Dense5409/bias","shape":[2],"dtype":"float32"},{"name":"dense_Dense5410/kernel","shape":[2,1],"dtype":"float32"},{"name":"dense_Dense5410/bias","shape":[1],"dtype":"float32"},{"name":"dense_Dense5411/kernel","shape":[1,2],"dtype":"float32"},{"name":"dense_Dense5411/bias","shape":[2],"dtype":"float32"},{"name":"dense_Dense5412/kernel","shape":[2,1],"dtype":"float32"},{"name":"dense_Dense5412/bias","shape":[1],"dtype":"float32"}]}]}