{"modelTopology":{"class_name":"Model","config":{"name":"model448","layers":[{"name":"input448","class_name":"InputLayer","config":{"batch_input_shape":[null,3],"dtype":"float32","sparse":false,"name":"input448"},"inbound_nodes":[]},{"name":"dense_Dense2236","class_name":"Dense","config":{"units":4,"activation":"relu","use_bias":true,"kernel_initializer":{"class_name":"VarianceScaling","config":{"scale":1,"mode":"fan_avg","distribution":"normal","seed":null}},"bias_initializer":{"class_name":"Zeros","config":{}},"kernel_regularizer":null,"bias_regularizer":null,"activity_regularizer":null,"kernel_constraint":null,"bias_constraint":null,"name":"dense_Dense2236","trainable":true},"inbound_nodes":[[["input448",0,0,{}]]]},{"name":"dense_Dense2237","class_name":"Dense","config":{"units":1,"activation":"relu","use_bias":true,"kernel_initializer":{"class_name":"VarianceScaling","config":{"scale":1,"mode":"fan_avg","distribution":"normal","seed":null}},"bias_initializer":{"class_name":"Zeros","config":{}},"kernel_regularizer":null,"bias_regularizer":null,"activity_regularizer":null,"kernel_constraint":null,"bias_constraint":null,"name":"dense_Dense2237","trainable":true},"inbound_nodes":[[["dense_Dense2236",0,0,{}]]]},{"name":"dense_Dense2238","class_name":"Dense","config":{"units":4,"activation":"relu","use_bias":true,"kernel_initializer":{"class_name":"VarianceScaling","config":{"scale":1,"mode":"fan_avg","distribution":"normal","seed":null}},"bias_initializer":{"class_name":"Zeros","config":{}},"kernel_regularizer":null,"bias_regularizer":null,"activity_regularizer":null,"kernel_constraint":null,"bias_constraint":null,"name":"dense_Dense2238","trainable":true},"inbound_nodes":[[["dense_Dense2237",0,0,{}]]]},{"name":"dense_Dense2239","class_name":"Dense","config":{"units":8,"activation":"relu","use_bias":true,"kernel_initializer":{"class_name":"VarianceScaling","config":{"scale":1,"mode":"fan_avg","distribution":"normal","seed":null}},"bias_initializer":{"class_name":"Zeros","config":{}},"kernel_regularizer":null,"bias_regularizer":null,"activity_regularizer":null,"kernel_constraint":null,"bias_constraint":null,"name":"dense_Dense2239","trainable":true},"inbound_nodes":[[["dense_Dense2238",0,0,{}]]]},{"name":"dense_Dense2240","class_name":"Dense","config":{"units":1,"activation":"sigmoid","use_bias":true,"kernel_initializer":{"class_name":"VarianceScaling","config":{"scale":1,"mode":"fan_avg","distribution":"normal","seed":null}},"bias_initializer":{"class_name":"Zeros","config":{}},"kernel_regularizer":null,"bias_regularizer":null,"activity_regularizer":null,"kernel_constraint":null,"bias_constraint":null,"name":"dense_Dense2240","trainable":true},"inbound_nodes":[[["dense_Dense2239",0,0,{}]]]}],"input_layers":[["input448",0,0]],"output_layers":[["dense_Dense2240",0,0]]},"keras_version":"tfjs-layers 3.9.0","backend":"tensor_flow.js"},"weightsManifest":[{"paths":["weights.bin"],"weights":[{"name":"dense_Dense2236/kernel","shape":[3,4],"dtype":"float32"},{"name":"dense_Dense2236/bias","shape":[4],"dtype":"float32"},{"name":"dense_Dense2237/kernel","shape":[4,1],"dtype":"float32"},{"name":"dense_Dense2237/bias","shape":[1],"dtype":"float32"},{"name":"dense_Dense2238/kernel","shape":[1,4],"dtype":"float32"},{"name":"dense_Dense2238/bias","shape":[4],"dtype":"float32"},{"name":"dense_Dense2239/kernel","shape":[4,8],"dtype":"float32"},{"name":"dense_Dense2239/bias","shape":[8],"dtype":"float32"},{"name":"dense_Dense2240/kernel","shape":[8,1],"dtype":"float32"},{"name":"dense_Dense2240/bias","shape":[1],"dtype":"float32"}]}]}