{"modelTopology":{"class_name":"Model","config":{"name":"model741","layers":[{"name":"input741","class_name":"InputLayer","config":{"batch_input_shape":[null,3],"dtype":"float32","sparse":false,"name":"input741"},"inbound_nodes":[]},{"name":"dense_Dense3701","class_name":"Dense","config":{"units":8,"activation":"relu","use_bias":true,"kernel_initializer":{"class_name":"VarianceScaling","config":{"scale":1,"mode":"fan_avg","distribution":"normal","seed":null}},"bias_initializer":{"class_name":"Zeros","config":{}},"kernel_regularizer":null,"bias_regularizer":null,"activity_regularizer":null,"kernel_constraint":null,"bias_constraint":null,"name":"dense_Dense3701","trainable":true},"inbound_nodes":[[["input741",0,0,{}]]]},{"name":"dense_Dense3702","class_name":"Dense","config":{"units":4,"activation":"relu","use_bias":true,"kernel_initializer":{"class_name":"VarianceScaling","config":{"scale":1,"mode":"fan_avg","distribution":"normal","seed":null}},"bias_initializer":{"class_name":"Zeros","config":{}},"kernel_regularizer":null,"bias_regularizer":null,"activity_regularizer":null,"kernel_constraint":null,"bias_constraint":null,"name":"dense_Dense3702","trainable":true},"inbound_nodes":[[["dense_Dense3701",0,0,{}]]]},{"name":"dense_Dense3703","class_name":"Dense","config":{"units":8,"activation":"relu","use_bias":true,"kernel_initializer":{"class_name":"VarianceScaling","config":{"scale":1,"mode":"fan_avg","distribution":"normal","seed":null}},"bias_initializer":{"class_name":"Zeros","config":{}},"kernel_regularizer":null,"bias_regularizer":null,"activity_regularizer":null,"kernel_constraint":null,"bias_constraint":null,"name":"dense_Dense3703","trainable":true},"inbound_nodes":[[["dense_Dense3702",0,0,{}]]]},{"name":"dense_Dense3704","class_name":"Dense","config":{"units":4,"activation":"relu","use_bias":true,"kernel_initializer":{"class_name":"VarianceScaling","config":{"scale":1,"mode":"fan_avg","distribution":"normal","seed":null}},"bias_initializer":{"class_name":"Zeros","config":{}},"kernel_regularizer":null,"bias_regularizer":null,"activity_regularizer":null,"kernel_constraint":null,"bias_constraint":null,"name":"dense_Dense3704","trainable":true},"inbound_nodes":[[["dense_Dense3703",0,0,{}]]]},{"name":"dense_Dense3705","class_name":"Dense","config":{"units":1,"activation":"sigmoid","use_bias":true,"kernel_initializer":{"class_name":"VarianceScaling","config":{"scale":1,"mode":"fan_avg","distribution":"normal","seed":null}},"bias_initializer":{"class_name":"Zeros","config":{}},"kernel_regularizer":null,"bias_regularizer":null,"activity_regularizer":null,"kernel_constraint":null,"bias_constraint":null,"name":"dense_Dense3705","trainable":true},"inbound_nodes":[[["dense_Dense3704",0,0,{}]]]}],"input_layers":[["input741",0,0]],"output_layers":[["dense_Dense3705",0,0]]},"keras_version":"tfjs-layers 3.9.0","backend":"tensor_flow.js"},"weightsManifest":[{"paths":["weights.bin"],"weights":[{"name":"dense_Dense3701/kernel","shape":[3,8],"dtype":"float32"},{"name":"dense_Dense3701/bias","shape":[8],"dtype":"float32"},{"name":"dense_Dense3702/kernel","shape":[8,4],"dtype":"float32"},{"name":"dense_Dense3702/bias","shape":[4],"dtype":"float32"},{"name":"dense_Dense3703/kernel","shape":[4,8],"dtype":"float32"},{"name":"dense_Dense3703/bias","shape":[8],"dtype":"float32"},{"name":"dense_Dense3704/kernel","shape":[8,4],"dtype":"float32"},{"name":"dense_Dense3704/bias","shape":[4],"dtype":"float32"},{"name":"dense_Dense3705/kernel","shape":[4,1],"dtype":"float32"},{"name":"dense_Dense3705/bias","shape":[1],"dtype":"float32"}]}]}