{"modelTopology":{"class_name":"Model","config":{"name":"model1005","layers":[{"name":"input1005","class_name":"InputLayer","config":{"batch_input_shape":[null,3],"dtype":"float32","sparse":false,"name":"input1005"},"inbound_nodes":[]},{"name":"dense_Dense5021","class_name":"Dense","config":{"units":16,"activation":"relu","use_bias":true,"kernel_initializer":{"class_name":"VarianceScaling","config":{"scale":1,"mode":"fan_avg","distribution":"normal","seed":null}},"bias_initializer":{"class_name":"Zeros","config":{}},"kernel_regularizer":null,"bias_regularizer":null,"activity_regularizer":null,"kernel_constraint":null,"bias_constraint":null,"name":"dense_Dense5021","trainable":true},"inbound_nodes":[[["input1005",0,0,{}]]]},{"name":"dense_Dense5022","class_name":"Dense","config":{"units":8,"activation":"relu","use_bias":true,"kernel_initializer":{"class_name":"VarianceScaling","config":{"scale":1,"mode":"fan_avg","distribution":"normal","seed":null}},"bias_initializer":{"class_name":"Zeros","config":{}},"kernel_regularizer":null,"bias_regularizer":null,"activity_regularizer":null,"kernel_constraint":null,"bias_constraint":null,"name":"dense_Dense5022","trainable":true},"inbound_nodes":[[["dense_Dense5021",0,0,{}]]]},{"name":"dense_Dense5023","class_name":"Dense","config":{"units":32,"activation":"relu","use_bias":true,"kernel_initializer":{"class_name":"VarianceScaling","config":{"scale":1,"mode":"fan_avg","distribution":"normal","seed":null}},"bias_initializer":{"class_name":"Zeros","config":{}},"kernel_regularizer":null,"bias_regularizer":null,"activity_regularizer":null,"kernel_constraint":null,"bias_constraint":null,"name":"dense_Dense5023","trainable":true},"inbound_nodes":[[["dense_Dense5022",0,0,{}]]]},{"name":"dense_Dense5024","class_name":"Dense","config":{"units":4,"activation":"relu","use_bias":true,"kernel_initializer":{"class_name":"VarianceScaling","config":{"scale":1,"mode":"fan_avg","distribution":"normal","seed":null}},"bias_initializer":{"class_name":"Zeros","config":{}},"kernel_regularizer":null,"bias_regularizer":null,"activity_regularizer":null,"kernel_constraint":null,"bias_constraint":null,"name":"dense_Dense5024","trainable":true},"inbound_nodes":[[["dense_Dense5023",0,0,{}]]]},{"name":"dense_Dense5025","class_name":"Dense","config":{"units":1,"activation":"sigmoid","use_bias":true,"kernel_initializer":{"class_name":"VarianceScaling","config":{"scale":1,"mode":"fan_avg","distribution":"normal","seed":null}},"bias_initializer":{"class_name":"Zeros","config":{}},"kernel_regularizer":null,"bias_regularizer":null,"activity_regularizer":null,"kernel_constraint":null,"bias_constraint":null,"name":"dense_Dense5025","trainable":true},"inbound_nodes":[[["dense_Dense5024",0,0,{}]]]}],"input_layers":[["input1005",0,0]],"output_layers":[["dense_Dense5025",0,0]]},"keras_version":"tfjs-layers 3.9.0","backend":"tensor_flow.js"},"weightsManifest":[{"paths":["weights.bin"],"weights":[{"name":"dense_Dense5021/kernel","shape":[3,16],"dtype":"float32"},{"name":"dense_Dense5021/bias","shape":[16],"dtype":"float32"},{"name":"dense_Dense5022/kernel","shape":[16,8],"dtype":"float32"},{"name":"dense_Dense5022/bias","shape":[8],"dtype":"float32"},{"name":"dense_Dense5023/kernel","shape":[8,32],"dtype":"float32"},{"name":"dense_Dense5023/bias","shape":[32],"dtype":"float32"},{"name":"dense_Dense5024/kernel","shape":[32,4],"dtype":"float32"},{"name":"dense_Dense5024/bias","shape":[4],"dtype":"float32"},{"name":"dense_Dense5025/kernel","shape":[4,1],"dtype":"float32"},{"name":"dense_Dense5025/bias","shape":[1],"dtype":"float32"}]}]}