{"modelTopology":{"class_name":"Model","config":{"name":"model208","layers":[{"name":"input208","class_name":"InputLayer","config":{"batch_input_shape":[null,3],"dtype":"float32","sparse":false,"name":"input208"},"inbound_nodes":[]},{"name":"dense_Dense1243","class_name":"Dense","config":{"units":16,"activation":"relu","use_bias":true,"kernel_initializer":{"class_name":"VarianceScaling","config":{"scale":1,"mode":"fan_avg","distribution":"normal","seed":null}},"bias_initializer":{"class_name":"Zeros","config":{}},"kernel_regularizer":null,"bias_regularizer":null,"activity_regularizer":null,"kernel_constraint":null,"bias_constraint":null,"name":"dense_Dense1243","trainable":true},"inbound_nodes":[[["input208",0,0,{}]]]},{"name":"dense_Dense1244","class_name":"Dense","config":{"units":1,"activation":"relu","use_bias":true,"kernel_initializer":{"class_name":"VarianceScaling","config":{"scale":1,"mode":"fan_avg","distribution":"normal","seed":null}},"bias_initializer":{"class_name":"Zeros","config":{}},"kernel_regularizer":null,"bias_regularizer":null,"activity_regularizer":null,"kernel_constraint":null,"bias_constraint":null,"name":"dense_Dense1244","trainable":true},"inbound_nodes":[[["dense_Dense1243",0,0,{}]]]},{"name":"dense_Dense1245","class_name":"Dense","config":{"units":32,"activation":"relu","use_bias":true,"kernel_initializer":{"class_name":"VarianceScaling","config":{"scale":1,"mode":"fan_avg","distribution":"normal","seed":null}},"bias_initializer":{"class_name":"Zeros","config":{}},"kernel_regularizer":null,"bias_regularizer":null,"activity_regularizer":null,"kernel_constraint":null,"bias_constraint":null,"name":"dense_Dense1245","trainable":true},"inbound_nodes":[[["dense_Dense1244",0,0,{}]]]},{"name":"dense_Dense1246","class_name":"Dense","config":{"units":16,"activation":"relu","use_bias":true,"kernel_initializer":{"class_name":"VarianceScaling","config":{"scale":1,"mode":"fan_avg","distribution":"normal","seed":null}},"bias_initializer":{"class_name":"Zeros","config":{}},"kernel_regularizer":null,"bias_regularizer":null,"activity_regularizer":null,"kernel_constraint":null,"bias_constraint":null,"name":"dense_Dense1246","trainable":true},"inbound_nodes":[[["dense_Dense1245",0,0,{}]]]},{"name":"dense_Dense1247","class_name":"Dense","config":{"units":8,"activation":"relu","use_bias":true,"kernel_initializer":{"class_name":"VarianceScaling","config":{"scale":1,"mode":"fan_avg","distribution":"normal","seed":null}},"bias_initializer":{"class_name":"Zeros","config":{}},"kernel_regularizer":null,"bias_regularizer":null,"activity_regularizer":null,"kernel_constraint":null,"bias_constraint":null,"name":"dense_Dense1247","trainable":true},"inbound_nodes":[[["dense_Dense1246",0,0,{}]]]},{"name":"dense_Dense1248","class_name":"Dense","config":{"units":1,"activation":"sigmoid","use_bias":true,"kernel_initializer":{"class_name":"VarianceScaling","config":{"scale":1,"mode":"fan_avg","distribution":"normal","seed":null}},"bias_initializer":{"class_name":"Zeros","config":{}},"kernel_regularizer":null,"bias_regularizer":null,"activity_regularizer":null,"kernel_constraint":null,"bias_constraint":null,"name":"dense_Dense1248","trainable":true},"inbound_nodes":[[["dense_Dense1247",0,0,{}]]]}],"input_layers":[["input208",0,0]],"output_layers":[["dense_Dense1248",0,0]]},"keras_version":"tfjs-layers 3.9.0","backend":"tensor_flow.js"},"weightsManifest":[{"paths":["weights.bin"],"weights":[{"name":"dense_Dense1243/kernel","shape":[3,16],"dtype":"float32"},{"name":"dense_Dense1243/bias","shape":[16],"dtype":"float32"},{"name":"dense_Dense1244/kernel","shape":[16,1],"dtype":"float32"},{"name":"dense_Dense1244/bias","shape":[1],"dtype":"float32"},{"name":"dense_Dense1245/kernel","shape":[1,32],"dtype":"float32"},{"name":"dense_Dense1245/bias","shape":[32],"dtype":"float32"},{"name":"dense_Dense1246/kernel","shape":[32,16],"dtype":"float32"},{"name":"dense_Dense1246/bias","shape":[16],"dtype":"float32"},{"name":"dense_Dense1247/kernel","shape":[16,8],"dtype":"float32"},{"name":"dense_Dense1247/bias","shape":[8],"dtype":"float32"},{"name":"dense_Dense1248/kernel","shape":[8,1],"dtype":"float32"},{"name":"dense_Dense1248/bias","shape":[1],"dtype":"float32"}]}]}