{"modelTopology":{"class_name":"Model","config":{"name":"model17","layers":[{"name":"input17","class_name":"InputLayer","config":{"batch_input_shape":[null,3],"dtype":"float32","sparse":false,"name":"input17"},"inbound_nodes":[]},{"name":"dense_Dense49","class_name":"Dense","config":{"units":4,"activation":"relu","use_bias":true,"kernel_initializer":{"class_name":"VarianceScaling","config":{"scale":1,"mode":"fan_avg","distribution":"normal","seed":null}},"bias_initializer":{"class_name":"Zeros","config":{}},"kernel_regularizer":null,"bias_regularizer":null,"activity_regularizer":null,"kernel_constraint":null,"bias_constraint":null,"name":"dense_Dense49","trainable":true},"inbound_nodes":[[["input17",0,0,{}]]]},{"name":"dense_Dense50","class_name":"Dense","config":{"units":16,"activation":"relu","use_bias":true,"kernel_initializer":{"class_name":"VarianceScaling","config":{"scale":1,"mode":"fan_avg","distribution":"normal","seed":null}},"bias_initializer":{"class_name":"Zeros","config":{}},"kernel_regularizer":null,"bias_regularizer":null,"activity_regularizer":null,"kernel_constraint":null,"bias_constraint":null,"name":"dense_Dense50","trainable":true},"inbound_nodes":[[["dense_Dense49",0,0,{}]]]},{"name":"dense_Dense51","class_name":"Dense","config":{"units":1,"activation":"sigmoid","use_bias":true,"kernel_initializer":{"class_name":"VarianceScaling","config":{"scale":1,"mode":"fan_avg","distribution":"normal","seed":null}},"bias_initializer":{"class_name":"Zeros","config":{}},"kernel_regularizer":null,"bias_regularizer":null,"activity_regularizer":null,"kernel_constraint":null,"bias_constraint":null,"name":"dense_Dense51","trainable":true},"inbound_nodes":[[["dense_Dense50",0,0,{}]]]}],"input_layers":[["input17",0,0]],"output_layers":[["dense_Dense51",0,0]]},"keras_version":"tfjs-layers 3.9.0","backend":"tensor_flow.js"},"weightsManifest":[{"paths":["weights.bin"],"weights":[{"name":"dense_Dense49/kernel","shape":[3,4],"dtype":"float32"},{"name":"dense_Dense49/bias","shape":[4],"dtype":"float32"},{"name":"dense_Dense50/kernel","shape":[4,16],"dtype":"float32"},{"name":"dense_Dense50/bias","shape":[16],"dtype":"float32"},{"name":"dense_Dense51/kernel","shape":[16,1],"dtype":"float32"},{"name":"dense_Dense51/bias","shape":[1],"dtype":"float32"}]}]}