{"modelTopology":{"class_name":"Model","config":{"name":"model878","layers":[{"name":"input878","class_name":"InputLayer","config":{"batch_input_shape":[null,3],"dtype":"float32","sparse":false,"name":"input878"},"inbound_nodes":[]},{"name":"dense_Dense4386","class_name":"Dense","config":{"units":16,"activation":"relu","use_bias":true,"kernel_initializer":{"class_name":"VarianceScaling","config":{"scale":1,"mode":"fan_avg","distribution":"normal","seed":null}},"bias_initializer":{"class_name":"Zeros","config":{}},"kernel_regularizer":null,"bias_regularizer":null,"activity_regularizer":null,"kernel_constraint":null,"bias_constraint":null,"name":"dense_Dense4386","trainable":true},"inbound_nodes":[[["input878",0,0,{}]]]},{"name":"dense_Dense4387","class_name":"Dense","config":{"units":1,"activation":"relu","use_bias":true,"kernel_initializer":{"class_name":"VarianceScaling","config":{"scale":1,"mode":"fan_avg","distribution":"normal","seed":null}},"bias_initializer":{"class_name":"Zeros","config":{}},"kernel_regularizer":null,"bias_regularizer":null,"activity_regularizer":null,"kernel_constraint":null,"bias_constraint":null,"name":"dense_Dense4387","trainable":true},"inbound_nodes":[[["dense_Dense4386",0,0,{}]]]},{"name":"dense_Dense4388","class_name":"Dense","config":{"units":4,"activation":"relu","use_bias":true,"kernel_initializer":{"class_name":"VarianceScaling","config":{"scale":1,"mode":"fan_avg","distribution":"normal","seed":null}},"bias_initializer":{"class_name":"Zeros","config":{}},"kernel_regularizer":null,"bias_regularizer":null,"activity_regularizer":null,"kernel_constraint":null,"bias_constraint":null,"name":"dense_Dense4388","trainable":true},"inbound_nodes":[[["dense_Dense4387",0,0,{}]]]},{"name":"dense_Dense4389","class_name":"Dense","config":{"units":2,"activation":"relu","use_bias":true,"kernel_initializer":{"class_name":"VarianceScaling","config":{"scale":1,"mode":"fan_avg","distribution":"normal","seed":null}},"bias_initializer":{"class_name":"Zeros","config":{}},"kernel_regularizer":null,"bias_regularizer":null,"activity_regularizer":null,"kernel_constraint":null,"bias_constraint":null,"name":"dense_Dense4389","trainable":true},"inbound_nodes":[[["dense_Dense4388",0,0,{}]]]},{"name":"dense_Dense4390","class_name":"Dense","config":{"units":1,"activation":"sigmoid","use_bias":true,"kernel_initializer":{"class_name":"VarianceScaling","config":{"scale":1,"mode":"fan_avg","distribution":"normal","seed":null}},"bias_initializer":{"class_name":"Zeros","config":{}},"kernel_regularizer":null,"bias_regularizer":null,"activity_regularizer":null,"kernel_constraint":null,"bias_constraint":null,"name":"dense_Dense4390","trainable":true},"inbound_nodes":[[["dense_Dense4389",0,0,{}]]]}],"input_layers":[["input878",0,0]],"output_layers":[["dense_Dense4390",0,0]]},"keras_version":"tfjs-layers 3.9.0","backend":"tensor_flow.js"},"weightsManifest":[{"paths":["weights.bin"],"weights":[{"name":"dense_Dense4386/kernel","shape":[3,16],"dtype":"float32"},{"name":"dense_Dense4386/bias","shape":[16],"dtype":"float32"},{"name":"dense_Dense4387/kernel","shape":[16,1],"dtype":"float32"},{"name":"dense_Dense4387/bias","shape":[1],"dtype":"float32"},{"name":"dense_Dense4388/kernel","shape":[1,4],"dtype":"float32"},{"name":"dense_Dense4388/bias","shape":[4],"dtype":"float32"},{"name":"dense_Dense4389/kernel","shape":[4,2],"dtype":"float32"},{"name":"dense_Dense4389/bias","shape":[2],"dtype":"float32"},{"name":"dense_Dense4390/kernel","shape":[2,1],"dtype":"float32"},{"name":"dense_Dense4390/bias","shape":[1],"dtype":"float32"}]}]}