{"modelTopology":{"class_name":"Model","config":{"name":"model281","layers":[{"name":"input281","class_name":"InputLayer","config":{"batch_input_shape":[null,3],"dtype":"float32","sparse":false,"name":"input281"},"inbound_nodes":[]},{"name":"dense_Dense1681","class_name":"Dense","config":{"units":32,"activation":"relu","use_bias":true,"kernel_initializer":{"class_name":"VarianceScaling","config":{"scale":1,"mode":"fan_avg","distribution":"normal","seed":null}},"bias_initializer":{"class_name":"Zeros","config":{}},"kernel_regularizer":null,"bias_regularizer":null,"activity_regularizer":null,"kernel_constraint":null,"bias_constraint":null,"name":"dense_Dense1681","trainable":true},"inbound_nodes":[[["input281",0,0,{}]]]},{"name":"dense_Dense1682","class_name":"Dense","config":{"units":2,"activation":"relu","use_bias":true,"kernel_initializer":{"class_name":"VarianceScaling","config":{"scale":1,"mode":"fan_avg","distribution":"normal","seed":null}},"bias_initializer":{"class_name":"Zeros","config":{}},"kernel_regularizer":null,"bias_regularizer":null,"activity_regularizer":null,"kernel_constraint":null,"bias_constraint":null,"name":"dense_Dense1682","trainable":true},"inbound_nodes":[[["dense_Dense1681",0,0,{}]]]},{"name":"dense_Dense1683","class_name":"Dense","config":{"units":2,"activation":"relu","use_bias":true,"kernel_initializer":{"class_name":"VarianceScaling","config":{"scale":1,"mode":"fan_avg","distribution":"normal","seed":null}},"bias_initializer":{"class_name":"Zeros","config":{}},"kernel_regularizer":null,"bias_regularizer":null,"activity_regularizer":null,"kernel_constraint":null,"bias_constraint":null,"name":"dense_Dense1683","trainable":true},"inbound_nodes":[[["dense_Dense1682",0,0,{}]]]},{"name":"dense_Dense1684","class_name":"Dense","config":{"units":16,"activation":"relu","use_bias":true,"kernel_initializer":{"class_name":"VarianceScaling","config":{"scale":1,"mode":"fan_avg","distribution":"normal","seed":null}},"bias_initializer":{"class_name":"Zeros","config":{}},"kernel_regularizer":null,"bias_regularizer":null,"activity_regularizer":null,"kernel_constraint":null,"bias_constraint":null,"name":"dense_Dense1684","trainable":true},"inbound_nodes":[[["dense_Dense1683",0,0,{}]]]},{"name":"dense_Dense1685","class_name":"Dense","config":{"units":16,"activation":"relu","use_bias":true,"kernel_initializer":{"class_name":"VarianceScaling","config":{"scale":1,"mode":"fan_avg","distribution":"normal","seed":null}},"bias_initializer":{"class_name":"Zeros","config":{}},"kernel_regularizer":null,"bias_regularizer":null,"activity_regularizer":null,"kernel_constraint":null,"bias_constraint":null,"name":"dense_Dense1685","trainable":true},"inbound_nodes":[[["dense_Dense1684",0,0,{}]]]},{"name":"dense_Dense1686","class_name":"Dense","config":{"units":1,"activation":"sigmoid","use_bias":true,"kernel_initializer":{"class_name":"VarianceScaling","config":{"scale":1,"mode":"fan_avg","distribution":"normal","seed":null}},"bias_initializer":{"class_name":"Zeros","config":{}},"kernel_regularizer":null,"bias_regularizer":null,"activity_regularizer":null,"kernel_constraint":null,"bias_constraint":null,"name":"dense_Dense1686","trainable":true},"inbound_nodes":[[["dense_Dense1685",0,0,{}]]]}],"input_layers":[["input281",0,0]],"output_layers":[["dense_Dense1686",0,0]]},"keras_version":"tfjs-layers 3.9.0","backend":"tensor_flow.js"},"weightsManifest":[{"paths":["weights.bin"],"weights":[{"name":"dense_Dense1681/kernel","shape":[3,32],"dtype":"float32"},{"name":"dense_Dense1681/bias","shape":[32],"dtype":"float32"},{"name":"dense_Dense1682/kernel","shape":[32,2],"dtype":"float32"},{"name":"dense_Dense1682/bias","shape":[2],"dtype":"float32"},{"name":"dense_Dense1683/kernel","shape":[2,2],"dtype":"float32"},{"name":"dense_Dense1683/bias","shape":[2],"dtype":"float32"},{"name":"dense_Dense1684/kernel","shape":[2,16],"dtype":"float32"},{"name":"dense_Dense1684/bias","shape":[16],"dtype":"float32"},{"name":"dense_Dense1685/kernel","shape":[16,16],"dtype":"float32"},{"name":"dense_Dense1685/bias","shape":[16],"dtype":"float32"},{"name":"dense_Dense1686/kernel","shape":[16,1],"dtype":"float32"},{"name":"dense_Dense1686/bias","shape":[1],"dtype":"float32"}]}]}