{"modelTopology":{"class_name":"Model","config":{"name":"model546","layers":[{"name":"input546","class_name":"InputLayer","config":{"batch_input_shape":[null,3],"dtype":"float32","sparse":false,"name":"input546"},"inbound_nodes":[]},{"name":"dense_Dense3271","class_name":"Dense","config":{"units":1,"activation":"relu","use_bias":true,"kernel_initializer":{"class_name":"VarianceScaling","config":{"scale":1,"mode":"fan_avg","distribution":"normal","seed":null}},"bias_initializer":{"class_name":"Zeros","config":{}},"kernel_regularizer":null,"bias_regularizer":null,"activity_regularizer":null,"kernel_constraint":null,"bias_constraint":null,"name":"dense_Dense3271","trainable":true},"inbound_nodes":[[["input546",0,0,{}]]]},{"name":"dense_Dense3272","class_name":"Dense","config":{"units":4,"activation":"relu","use_bias":true,"kernel_initializer":{"class_name":"VarianceScaling","config":{"scale":1,"mode":"fan_avg","distribution":"normal","seed":null}},"bias_initializer":{"class_name":"Zeros","config":{}},"kernel_regularizer":null,"bias_regularizer":null,"activity_regularizer":null,"kernel_constraint":null,"bias_constraint":null,"name":"dense_Dense3272","trainable":true},"inbound_nodes":[[["dense_Dense3271",0,0,{}]]]},{"name":"dense_Dense3273","class_name":"Dense","config":{"units":8,"activation":"relu","use_bias":true,"kernel_initializer":{"class_name":"VarianceScaling","config":{"scale":1,"mode":"fan_avg","distribution":"normal","seed":null}},"bias_initializer":{"class_name":"Zeros","config":{}},"kernel_regularizer":null,"bias_regularizer":null,"activity_regularizer":null,"kernel_constraint":null,"bias_constraint":null,"name":"dense_Dense3273","trainable":true},"inbound_nodes":[[["dense_Dense3272",0,0,{}]]]},{"name":"dense_Dense3274","class_name":"Dense","config":{"units":1,"activation":"relu","use_bias":true,"kernel_initializer":{"class_name":"VarianceScaling","config":{"scale":1,"mode":"fan_avg","distribution":"normal","seed":null}},"bias_initializer":{"class_name":"Zeros","config":{}},"kernel_regularizer":null,"bias_regularizer":null,"activity_regularizer":null,"kernel_constraint":null,"bias_constraint":null,"name":"dense_Dense3274","trainable":true},"inbound_nodes":[[["dense_Dense3273",0,0,{}]]]},{"name":"dense_Dense3275","class_name":"Dense","config":{"units":32,"activation":"relu","use_bias":true,"kernel_initializer":{"class_name":"VarianceScaling","config":{"scale":1,"mode":"fan_avg","distribution":"normal","seed":null}},"bias_initializer":{"class_name":"Zeros","config":{}},"kernel_regularizer":null,"bias_regularizer":null,"activity_regularizer":null,"kernel_constraint":null,"bias_constraint":null,"name":"dense_Dense3275","trainable":true},"inbound_nodes":[[["dense_Dense3274",0,0,{}]]]},{"name":"dense_Dense3276","class_name":"Dense","config":{"units":1,"activation":"sigmoid","use_bias":true,"kernel_initializer":{"class_name":"VarianceScaling","config":{"scale":1,"mode":"fan_avg","distribution":"normal","seed":null}},"bias_initializer":{"class_name":"Zeros","config":{}},"kernel_regularizer":null,"bias_regularizer":null,"activity_regularizer":null,"kernel_constraint":null,"bias_constraint":null,"name":"dense_Dense3276","trainable":true},"inbound_nodes":[[["dense_Dense3275",0,0,{}]]]}],"input_layers":[["input546",0,0]],"output_layers":[["dense_Dense3276",0,0]]},"keras_version":"tfjs-layers 3.9.0","backend":"tensor_flow.js"},"weightsManifest":[{"paths":["weights.bin"],"weights":[{"name":"dense_Dense3271/kernel","shape":[3,1],"dtype":"float32"},{"name":"dense_Dense3271/bias","shape":[1],"dtype":"float32"},{"name":"dense_Dense3272/kernel","shape":[1,4],"dtype":"float32"},{"name":"dense_Dense3272/bias","shape":[4],"dtype":"float32"},{"name":"dense_Dense3273/kernel","shape":[4,8],"dtype":"float32"},{"name":"dense_Dense3273/bias","shape":[8],"dtype":"float32"},{"name":"dense_Dense3274/kernel","shape":[8,1],"dtype":"float32"},{"name":"dense_Dense3274/bias","shape":[1],"dtype":"float32"},{"name":"dense_Dense3275/kernel","shape":[1,32],"dtype":"float32"},{"name":"dense_Dense3275/bias","shape":[32],"dtype":"float32"},{"name":"dense_Dense3276/kernel","shape":[32,1],"dtype":"float32"},{"name":"dense_Dense3276/bias","shape":[1],"dtype":"float32"}]}]}