{"modelTopology":{"class_name":"Model","config":{"name":"model244","layers":[{"name":"input244","class_name":"InputLayer","config":{"batch_input_shape":[null,3],"dtype":"float32","sparse":false,"name":"input244"},"inbound_nodes":[]},{"name":"dense_Dense1459","class_name":"Dense","config":{"units":32,"activation":"relu","use_bias":true,"kernel_initializer":{"class_name":"VarianceScaling","config":{"scale":1,"mode":"fan_avg","distribution":"normal","seed":null}},"bias_initializer":{"class_name":"Zeros","config":{}},"kernel_regularizer":null,"bias_regularizer":null,"activity_regularizer":null,"kernel_constraint":null,"bias_constraint":null,"name":"dense_Dense1459","trainable":true},"inbound_nodes":[[["input244",0,0,{}]]]},{"name":"dense_Dense1460","class_name":"Dense","config":{"units":2,"activation":"relu","use_bias":true,"kernel_initializer":{"class_name":"VarianceScaling","config":{"scale":1,"mode":"fan_avg","distribution":"normal","seed":null}},"bias_initializer":{"class_name":"Zeros","config":{}},"kernel_regularizer":null,"bias_regularizer":null,"activity_regularizer":null,"kernel_constraint":null,"bias_constraint":null,"name":"dense_Dense1460","trainable":true},"inbound_nodes":[[["dense_Dense1459",0,0,{}]]]},{"name":"dense_Dense1461","class_name":"Dense","config":{"units":1,"activation":"relu","use_bias":true,"kernel_initializer":{"class_name":"VarianceScaling","config":{"scale":1,"mode":"fan_avg","distribution":"normal","seed":null}},"bias_initializer":{"class_name":"Zeros","config":{}},"kernel_regularizer":null,"bias_regularizer":null,"activity_regularizer":null,"kernel_constraint":null,"bias_constraint":null,"name":"dense_Dense1461","trainable":true},"inbound_nodes":[[["dense_Dense1460",0,0,{}]]]},{"name":"dense_Dense1462","class_name":"Dense","config":{"units":16,"activation":"relu","use_bias":true,"kernel_initializer":{"class_name":"VarianceScaling","config":{"scale":1,"mode":"fan_avg","distribution":"normal","seed":null}},"bias_initializer":{"class_name":"Zeros","config":{}},"kernel_regularizer":null,"bias_regularizer":null,"activity_regularizer":null,"kernel_constraint":null,"bias_constraint":null,"name":"dense_Dense1462","trainable":true},"inbound_nodes":[[["dense_Dense1461",0,0,{}]]]},{"name":"dense_Dense1463","class_name":"Dense","config":{"units":8,"activation":"relu","use_bias":true,"kernel_initializer":{"class_name":"VarianceScaling","config":{"scale":1,"mode":"fan_avg","distribution":"normal","seed":null}},"bias_initializer":{"class_name":"Zeros","config":{}},"kernel_regularizer":null,"bias_regularizer":null,"activity_regularizer":null,"kernel_constraint":null,"bias_constraint":null,"name":"dense_Dense1463","trainable":true},"inbound_nodes":[[["dense_Dense1462",0,0,{}]]]},{"name":"dense_Dense1464","class_name":"Dense","config":{"units":1,"activation":"sigmoid","use_bias":true,"kernel_initializer":{"class_name":"VarianceScaling","config":{"scale":1,"mode":"fan_avg","distribution":"normal","seed":null}},"bias_initializer":{"class_name":"Zeros","config":{}},"kernel_regularizer":null,"bias_regularizer":null,"activity_regularizer":null,"kernel_constraint":null,"bias_constraint":null,"name":"dense_Dense1464","trainable":true},"inbound_nodes":[[["dense_Dense1463",0,0,{}]]]}],"input_layers":[["input244",0,0]],"output_layers":[["dense_Dense1464",0,0]]},"keras_version":"tfjs-layers 3.9.0","backend":"tensor_flow.js"},"weightsManifest":[{"paths":["weights.bin"],"weights":[{"name":"dense_Dense1459/kernel","shape":[3,32],"dtype":"float32"},{"name":"dense_Dense1459/bias","shape":[32],"dtype":"float32"},{"name":"dense_Dense1460/kernel","shape":[32,2],"dtype":"float32"},{"name":"dense_Dense1460/bias","shape":[2],"dtype":"float32"},{"name":"dense_Dense1461/kernel","shape":[2,1],"dtype":"float32"},{"name":"dense_Dense1461/bias","shape":[1],"dtype":"float32"},{"name":"dense_Dense1462/kernel","shape":[1,16],"dtype":"float32"},{"name":"dense_Dense1462/bias","shape":[16],"dtype":"float32"},{"name":"dense_Dense1463/kernel","shape":[16,8],"dtype":"float32"},{"name":"dense_Dense1463/bias","shape":[8],"dtype":"float32"},{"name":"dense_Dense1464/kernel","shape":[8,1],"dtype":"float32"},{"name":"dense_Dense1464/bias","shape":[1],"dtype":"float32"}]}]}