{"modelTopology":{"class_name":"Model","config":{"name":"model486","layers":[{"name":"input486","class_name":"InputLayer","config":{"batch_input_shape":[null,3],"dtype":"float32","sparse":false,"name":"input486"},"inbound_nodes":[]},{"name":"dense_Dense2426","class_name":"Dense","config":{"units":4,"activation":"relu","use_bias":true,"kernel_initializer":{"class_name":"VarianceScaling","config":{"scale":1,"mode":"fan_avg","distribution":"normal","seed":null}},"bias_initializer":{"class_name":"Zeros","config":{}},"kernel_regularizer":null,"bias_regularizer":null,"activity_regularizer":null,"kernel_constraint":null,"bias_constraint":null,"name":"dense_Dense2426","trainable":true},"inbound_nodes":[[["input486",0,0,{}]]]},{"name":"dense_Dense2427","class_name":"Dense","config":{"units":2,"activation":"relu","use_bias":true,"kernel_initializer":{"class_name":"VarianceScaling","config":{"scale":1,"mode":"fan_avg","distribution":"normal","seed":null}},"bias_initializer":{"class_name":"Zeros","config":{}},"kernel_regularizer":null,"bias_regularizer":null,"activity_regularizer":null,"kernel_constraint":null,"bias_constraint":null,"name":"dense_Dense2427","trainable":true},"inbound_nodes":[[["dense_Dense2426",0,0,{}]]]},{"name":"dense_Dense2428","class_name":"Dense","config":{"units":4,"activation":"relu","use_bias":true,"kernel_initializer":{"class_name":"VarianceScaling","config":{"scale":1,"mode":"fan_avg","distribution":"normal","seed":null}},"bias_initializer":{"class_name":"Zeros","config":{}},"kernel_regularizer":null,"bias_regularizer":null,"activity_regularizer":null,"kernel_constraint":null,"bias_constraint":null,"name":"dense_Dense2428","trainable":true},"inbound_nodes":[[["dense_Dense2427",0,0,{}]]]},{"name":"dense_Dense2429","class_name":"Dense","config":{"units":32,"activation":"relu","use_bias":true,"kernel_initializer":{"class_name":"VarianceScaling","config":{"scale":1,"mode":"fan_avg","distribution":"normal","seed":null}},"bias_initializer":{"class_name":"Zeros","config":{}},"kernel_regularizer":null,"bias_regularizer":null,"activity_regularizer":null,"kernel_constraint":null,"bias_constraint":null,"name":"dense_Dense2429","trainable":true},"inbound_nodes":[[["dense_Dense2428",0,0,{}]]]},{"name":"dense_Dense2430","class_name":"Dense","config":{"units":1,"activation":"sigmoid","use_bias":true,"kernel_initializer":{"class_name":"VarianceScaling","config":{"scale":1,"mode":"fan_avg","distribution":"normal","seed":null}},"bias_initializer":{"class_name":"Zeros","config":{}},"kernel_regularizer":null,"bias_regularizer":null,"activity_regularizer":null,"kernel_constraint":null,"bias_constraint":null,"name":"dense_Dense2430","trainable":true},"inbound_nodes":[[["dense_Dense2429",0,0,{}]]]}],"input_layers":[["input486",0,0]],"output_layers":[["dense_Dense2430",0,0]]},"keras_version":"tfjs-layers 3.9.0","backend":"tensor_flow.js"},"weightsManifest":[{"paths":["weights.bin"],"weights":[{"name":"dense_Dense2426/kernel","shape":[3,4],"dtype":"float32"},{"name":"dense_Dense2426/bias","shape":[4],"dtype":"float32"},{"name":"dense_Dense2427/kernel","shape":[4,2],"dtype":"float32"},{"name":"dense_Dense2427/bias","shape":[2],"dtype":"float32"},{"name":"dense_Dense2428/kernel","shape":[2,4],"dtype":"float32"},{"name":"dense_Dense2428/bias","shape":[4],"dtype":"float32"},{"name":"dense_Dense2429/kernel","shape":[4,32],"dtype":"float32"},{"name":"dense_Dense2429/bias","shape":[32],"dtype":"float32"},{"name":"dense_Dense2430/kernel","shape":[32,1],"dtype":"float32"},{"name":"dense_Dense2430/bias","shape":[1],"dtype":"float32"}]}]}