{"modelTopology":{"class_name":"Model","config":{"name":"model550","layers":[{"name":"input550","class_name":"InputLayer","config":{"batch_input_shape":[null,3],"dtype":"float32","sparse":false,"name":"input550"},"inbound_nodes":[]},{"name":"dense_Dense2746","class_name":"Dense","config":{"units":4,"activation":"relu","use_bias":true,"kernel_initializer":{"class_name":"VarianceScaling","config":{"scale":1,"mode":"fan_avg","distribution":"normal","seed":null}},"bias_initializer":{"class_name":"Zeros","config":{}},"kernel_regularizer":null,"bias_regularizer":null,"activity_regularizer":null,"kernel_constraint":null,"bias_constraint":null,"name":"dense_Dense2746","trainable":true},"inbound_nodes":[[["input550",0,0,{}]]]},{"name":"dense_Dense2747","class_name":"Dense","config":{"units":8,"activation":"relu","use_bias":true,"kernel_initializer":{"class_name":"VarianceScaling","config":{"scale":1,"mode":"fan_avg","distribution":"normal","seed":null}},"bias_initializer":{"class_name":"Zeros","config":{}},"kernel_regularizer":null,"bias_regularizer":null,"activity_regularizer":null,"kernel_constraint":null,"bias_constraint":null,"name":"dense_Dense2747","trainable":true},"inbound_nodes":[[["dense_Dense2746",0,0,{}]]]},{"name":"dense_Dense2748","class_name":"Dense","config":{"units":2,"activation":"relu","use_bias":true,"kernel_initializer":{"class_name":"VarianceScaling","config":{"scale":1,"mode":"fan_avg","distribution":"normal","seed":null}},"bias_initializer":{"class_name":"Zeros","config":{}},"kernel_regularizer":null,"bias_regularizer":null,"activity_regularizer":null,"kernel_constraint":null,"bias_constraint":null,"name":"dense_Dense2748","trainable":true},"inbound_nodes":[[["dense_Dense2747",0,0,{}]]]},{"name":"dense_Dense2749","class_name":"Dense","config":{"units":8,"activation":"relu","use_bias":true,"kernel_initializer":{"class_name":"VarianceScaling","config":{"scale":1,"mode":"fan_avg","distribution":"normal","seed":null}},"bias_initializer":{"class_name":"Zeros","config":{}},"kernel_regularizer":null,"bias_regularizer":null,"activity_regularizer":null,"kernel_constraint":null,"bias_constraint":null,"name":"dense_Dense2749","trainable":true},"inbound_nodes":[[["dense_Dense2748",0,0,{}]]]},{"name":"dense_Dense2750","class_name":"Dense","config":{"units":1,"activation":"sigmoid","use_bias":true,"kernel_initializer":{"class_name":"VarianceScaling","config":{"scale":1,"mode":"fan_avg","distribution":"normal","seed":null}},"bias_initializer":{"class_name":"Zeros","config":{}},"kernel_regularizer":null,"bias_regularizer":null,"activity_regularizer":null,"kernel_constraint":null,"bias_constraint":null,"name":"dense_Dense2750","trainable":true},"inbound_nodes":[[["dense_Dense2749",0,0,{}]]]}],"input_layers":[["input550",0,0]],"output_layers":[["dense_Dense2750",0,0]]},"keras_version":"tfjs-layers 3.9.0","backend":"tensor_flow.js"},"weightsManifest":[{"paths":["weights.bin"],"weights":[{"name":"dense_Dense2746/kernel","shape":[3,4],"dtype":"float32"},{"name":"dense_Dense2746/bias","shape":[4],"dtype":"float32"},{"name":"dense_Dense2747/kernel","shape":[4,8],"dtype":"float32"},{"name":"dense_Dense2747/bias","shape":[8],"dtype":"float32"},{"name":"dense_Dense2748/kernel","shape":[8,2],"dtype":"float32"},{"name":"dense_Dense2748/bias","shape":[2],"dtype":"float32"},{"name":"dense_Dense2749/kernel","shape":[2,8],"dtype":"float32"},{"name":"dense_Dense2749/bias","shape":[8],"dtype":"float32"},{"name":"dense_Dense2750/kernel","shape":[8,1],"dtype":"float32"},{"name":"dense_Dense2750/bias","shape":[1],"dtype":"float32"}]}]}