{"modelTopology":{"class_name":"Model","config":{"name":"model831","layers":[{"name":"input831","class_name":"InputLayer","config":{"batch_input_shape":[null,3],"dtype":"float32","sparse":false,"name":"input831"},"inbound_nodes":[]},{"name":"dense_Dense4981","class_name":"Dense","config":{"units":16,"activation":"relu","use_bias":true,"kernel_initializer":{"class_name":"VarianceScaling","config":{"scale":1,"mode":"fan_avg","distribution":"normal","seed":null}},"bias_initializer":{"class_name":"Zeros","config":{}},"kernel_regularizer":null,"bias_regularizer":null,"activity_regularizer":null,"kernel_constraint":null,"bias_constraint":null,"name":"dense_Dense4981","trainable":true},"inbound_nodes":[[["input831",0,0,{}]]]},{"name":"dense_Dense4982","class_name":"Dense","config":{"units":8,"activation":"relu","use_bias":true,"kernel_initializer":{"class_name":"VarianceScaling","config":{"scale":1,"mode":"fan_avg","distribution":"normal","seed":null}},"bias_initializer":{"class_name":"Zeros","config":{}},"kernel_regularizer":null,"bias_regularizer":null,"activity_regularizer":null,"kernel_constraint":null,"bias_constraint":null,"name":"dense_Dense4982","trainable":true},"inbound_nodes":[[["dense_Dense4981",0,0,{}]]]},{"name":"dense_Dense4983","class_name":"Dense","config":{"units":32,"activation":"relu","use_bias":true,"kernel_initializer":{"class_name":"VarianceScaling","config":{"scale":1,"mode":"fan_avg","distribution":"normal","seed":null}},"bias_initializer":{"class_name":"Zeros","config":{}},"kernel_regularizer":null,"bias_regularizer":null,"activity_regularizer":null,"kernel_constraint":null,"bias_constraint":null,"name":"dense_Dense4983","trainable":true},"inbound_nodes":[[["dense_Dense4982",0,0,{}]]]},{"name":"dense_Dense4984","class_name":"Dense","config":{"units":1,"activation":"relu","use_bias":true,"kernel_initializer":{"class_name":"VarianceScaling","config":{"scale":1,"mode":"fan_avg","distribution":"normal","seed":null}},"bias_initializer":{"class_name":"Zeros","config":{}},"kernel_regularizer":null,"bias_regularizer":null,"activity_regularizer":null,"kernel_constraint":null,"bias_constraint":null,"name":"dense_Dense4984","trainable":true},"inbound_nodes":[[["dense_Dense4983",0,0,{}]]]},{"name":"dense_Dense4985","class_name":"Dense","config":{"units":4,"activation":"relu","use_bias":true,"kernel_initializer":{"class_name":"VarianceScaling","config":{"scale":1,"mode":"fan_avg","distribution":"normal","seed":null}},"bias_initializer":{"class_name":"Zeros","config":{}},"kernel_regularizer":null,"bias_regularizer":null,"activity_regularizer":null,"kernel_constraint":null,"bias_constraint":null,"name":"dense_Dense4985","trainable":true},"inbound_nodes":[[["dense_Dense4984",0,0,{}]]]},{"name":"dense_Dense4986","class_name":"Dense","config":{"units":1,"activation":"sigmoid","use_bias":true,"kernel_initializer":{"class_name":"VarianceScaling","config":{"scale":1,"mode":"fan_avg","distribution":"normal","seed":null}},"bias_initializer":{"class_name":"Zeros","config":{}},"kernel_regularizer":null,"bias_regularizer":null,"activity_regularizer":null,"kernel_constraint":null,"bias_constraint":null,"name":"dense_Dense4986","trainable":true},"inbound_nodes":[[["dense_Dense4985",0,0,{}]]]}],"input_layers":[["input831",0,0]],"output_layers":[["dense_Dense4986",0,0]]},"keras_version":"tfjs-layers 3.9.0","backend":"tensor_flow.js"},"weightsManifest":[{"paths":["weights.bin"],"weights":[{"name":"dense_Dense4981/kernel","shape":[3,16],"dtype":"float32"},{"name":"dense_Dense4981/bias","shape":[16],"dtype":"float32"},{"name":"dense_Dense4982/kernel","shape":[16,8],"dtype":"float32"},{"name":"dense_Dense4982/bias","shape":[8],"dtype":"float32"},{"name":"dense_Dense4983/kernel","shape":[8,32],"dtype":"float32"},{"name":"dense_Dense4983/bias","shape":[32],"dtype":"float32"},{"name":"dense_Dense4984/kernel","shape":[32,1],"dtype":"float32"},{"name":"dense_Dense4984/bias","shape":[1],"dtype":"float32"},{"name":"dense_Dense4985/kernel","shape":[1,4],"dtype":"float32"},{"name":"dense_Dense4985/bias","shape":[4],"dtype":"float32"},{"name":"dense_Dense4986/kernel","shape":[4,1],"dtype":"float32"},{"name":"dense_Dense4986/bias","shape":[1],"dtype":"float32"}]}]}