{"modelTopology":{"class_name":"Model","config":{"name":"model1211","layers":[{"name":"input1211","class_name":"InputLayer","config":{"batch_input_shape":[null,3],"dtype":"float32","sparse":false,"name":"input1211"},"inbound_nodes":[]},{"name":"dense_Dense7261","class_name":"Dense","config":{"units":2,"activation":"relu","use_bias":true,"kernel_initializer":{"class_name":"VarianceScaling","config":{"scale":1,"mode":"fan_avg","distribution":"normal","seed":null}},"bias_initializer":{"class_name":"Zeros","config":{}},"kernel_regularizer":null,"bias_regularizer":null,"activity_regularizer":null,"kernel_constraint":null,"bias_constraint":null,"name":"dense_Dense7261","trainable":true},"inbound_nodes":[[["input1211",0,0,{}]]]},{"name":"dense_Dense7262","class_name":"Dense","config":{"units":32,"activation":"relu","use_bias":true,"kernel_initializer":{"class_name":"VarianceScaling","config":{"scale":1,"mode":"fan_avg","distribution":"normal","seed":null}},"bias_initializer":{"class_name":"Zeros","config":{}},"kernel_regularizer":null,"bias_regularizer":null,"activity_regularizer":null,"kernel_constraint":null,"bias_constraint":null,"name":"dense_Dense7262","trainable":true},"inbound_nodes":[[["dense_Dense7261",0,0,{}]]]},{"name":"dense_Dense7263","class_name":"Dense","config":{"units":8,"activation":"relu","use_bias":true,"kernel_initializer":{"class_name":"VarianceScaling","config":{"scale":1,"mode":"fan_avg","distribution":"normal","seed":null}},"bias_initializer":{"class_name":"Zeros","config":{}},"kernel_regularizer":null,"bias_regularizer":null,"activity_regularizer":null,"kernel_constraint":null,"bias_constraint":null,"name":"dense_Dense7263","trainable":true},"inbound_nodes":[[["dense_Dense7262",0,0,{}]]]},{"name":"dense_Dense7264","class_name":"Dense","config":{"units":8,"activation":"relu","use_bias":true,"kernel_initializer":{"class_name":"VarianceScaling","config":{"scale":1,"mode":"fan_avg","distribution":"normal","seed":null}},"bias_initializer":{"class_name":"Zeros","config":{}},"kernel_regularizer":null,"bias_regularizer":null,"activity_regularizer":null,"kernel_constraint":null,"bias_constraint":null,"name":"dense_Dense7264","trainable":true},"inbound_nodes":[[["dense_Dense7263",0,0,{}]]]},{"name":"dense_Dense7265","class_name":"Dense","config":{"units":16,"activation":"relu","use_bias":true,"kernel_initializer":{"class_name":"VarianceScaling","config":{"scale":1,"mode":"fan_avg","distribution":"normal","seed":null}},"bias_initializer":{"class_name":"Zeros","config":{}},"kernel_regularizer":null,"bias_regularizer":null,"activity_regularizer":null,"kernel_constraint":null,"bias_constraint":null,"name":"dense_Dense7265","trainable":true},"inbound_nodes":[[["dense_Dense7264",0,0,{}]]]},{"name":"dense_Dense7266","class_name":"Dense","config":{"units":1,"activation":"sigmoid","use_bias":true,"kernel_initializer":{"class_name":"VarianceScaling","config":{"scale":1,"mode":"fan_avg","distribution":"normal","seed":null}},"bias_initializer":{"class_name":"Zeros","config":{}},"kernel_regularizer":null,"bias_regularizer":null,"activity_regularizer":null,"kernel_constraint":null,"bias_constraint":null,"name":"dense_Dense7266","trainable":true},"inbound_nodes":[[["dense_Dense7265",0,0,{}]]]}],"input_layers":[["input1211",0,0]],"output_layers":[["dense_Dense7266",0,0]]},"keras_version":"tfjs-layers 3.9.0","backend":"tensor_flow.js"},"weightsManifest":[{"paths":["weights.bin"],"weights":[{"name":"dense_Dense7261/kernel","shape":[3,2],"dtype":"float32"},{"name":"dense_Dense7261/bias","shape":[2],"dtype":"float32"},{"name":"dense_Dense7262/kernel","shape":[2,32],"dtype":"float32"},{"name":"dense_Dense7262/bias","shape":[32],"dtype":"float32"},{"name":"dense_Dense7263/kernel","shape":[32,8],"dtype":"float32"},{"name":"dense_Dense7263/bias","shape":[8],"dtype":"float32"},{"name":"dense_Dense7264/kernel","shape":[8,8],"dtype":"float32"},{"name":"dense_Dense7264/bias","shape":[8],"dtype":"float32"},{"name":"dense_Dense7265/kernel","shape":[8,16],"dtype":"float32"},{"name":"dense_Dense7265/bias","shape":[16],"dtype":"float32"},{"name":"dense_Dense7266/kernel","shape":[16,1],"dtype":"float32"},{"name":"dense_Dense7266/bias","shape":[1],"dtype":"float32"}]}]}