{"modelTopology":{"class_name":"Model","config":{"name":"model495","layers":[{"name":"input495","class_name":"InputLayer","config":{"batch_input_shape":[null,3],"dtype":"float32","sparse":false,"name":"input495"},"inbound_nodes":[]},{"name":"dense_Dense2965","class_name":"Dense","config":{"units":32,"activation":"relu","use_bias":true,"kernel_initializer":{"class_name":"VarianceScaling","config":{"scale":1,"mode":"fan_avg","distribution":"normal","seed":null}},"bias_initializer":{"class_name":"Zeros","config":{}},"kernel_regularizer":null,"bias_regularizer":null,"activity_regularizer":null,"kernel_constraint":null,"bias_constraint":null,"name":"dense_Dense2965","trainable":true},"inbound_nodes":[[["input495",0,0,{}]]]},{"name":"dense_Dense2966","class_name":"Dense","config":{"units":4,"activation":"relu","use_bias":true,"kernel_initializer":{"class_name":"VarianceScaling","config":{"scale":1,"mode":"fan_avg","distribution":"normal","seed":null}},"bias_initializer":{"class_name":"Zeros","config":{}},"kernel_regularizer":null,"bias_regularizer":null,"activity_regularizer":null,"kernel_constraint":null,"bias_constraint":null,"name":"dense_Dense2966","trainable":true},"inbound_nodes":[[["dense_Dense2965",0,0,{}]]]},{"name":"dense_Dense2967","class_name":"Dense","config":{"units":2,"activation":"relu","use_bias":true,"kernel_initializer":{"class_name":"VarianceScaling","config":{"scale":1,"mode":"fan_avg","distribution":"normal","seed":null}},"bias_initializer":{"class_name":"Zeros","config":{}},"kernel_regularizer":null,"bias_regularizer":null,"activity_regularizer":null,"kernel_constraint":null,"bias_constraint":null,"name":"dense_Dense2967","trainable":true},"inbound_nodes":[[["dense_Dense2966",0,0,{}]]]},{"name":"dense_Dense2968","class_name":"Dense","config":{"units":16,"activation":"relu","use_bias":true,"kernel_initializer":{"class_name":"VarianceScaling","config":{"scale":1,"mode":"fan_avg","distribution":"normal","seed":null}},"bias_initializer":{"class_name":"Zeros","config":{}},"kernel_regularizer":null,"bias_regularizer":null,"activity_regularizer":null,"kernel_constraint":null,"bias_constraint":null,"name":"dense_Dense2968","trainable":true},"inbound_nodes":[[["dense_Dense2967",0,0,{}]]]},{"name":"dense_Dense2969","class_name":"Dense","config":{"units":4,"activation":"relu","use_bias":true,"kernel_initializer":{"class_name":"VarianceScaling","config":{"scale":1,"mode":"fan_avg","distribution":"normal","seed":null}},"bias_initializer":{"class_name":"Zeros","config":{}},"kernel_regularizer":null,"bias_regularizer":null,"activity_regularizer":null,"kernel_constraint":null,"bias_constraint":null,"name":"dense_Dense2969","trainable":true},"inbound_nodes":[[["dense_Dense2968",0,0,{}]]]},{"name":"dense_Dense2970","class_name":"Dense","config":{"units":1,"activation":"sigmoid","use_bias":true,"kernel_initializer":{"class_name":"VarianceScaling","config":{"scale":1,"mode":"fan_avg","distribution":"normal","seed":null}},"bias_initializer":{"class_name":"Zeros","config":{}},"kernel_regularizer":null,"bias_regularizer":null,"activity_regularizer":null,"kernel_constraint":null,"bias_constraint":null,"name":"dense_Dense2970","trainable":true},"inbound_nodes":[[["dense_Dense2969",0,0,{}]]]}],"input_layers":[["input495",0,0]],"output_layers":[["dense_Dense2970",0,0]]},"keras_version":"tfjs-layers 3.9.0","backend":"tensor_flow.js"},"weightsManifest":[{"paths":["weights.bin"],"weights":[{"name":"dense_Dense2965/kernel","shape":[3,32],"dtype":"float32"},{"name":"dense_Dense2965/bias","shape":[32],"dtype":"float32"},{"name":"dense_Dense2966/kernel","shape":[32,4],"dtype":"float32"},{"name":"dense_Dense2966/bias","shape":[4],"dtype":"float32"},{"name":"dense_Dense2967/kernel","shape":[4,2],"dtype":"float32"},{"name":"dense_Dense2967/bias","shape":[2],"dtype":"float32"},{"name":"dense_Dense2968/kernel","shape":[2,16],"dtype":"float32"},{"name":"dense_Dense2968/bias","shape":[16],"dtype":"float32"},{"name":"dense_Dense2969/kernel","shape":[16,4],"dtype":"float32"},{"name":"dense_Dense2969/bias","shape":[4],"dtype":"float32"},{"name":"dense_Dense2970/kernel","shape":[4,1],"dtype":"float32"},{"name":"dense_Dense2970/bias","shape":[1],"dtype":"float32"}]}]}