{"modelTopology":{"class_name":"Model","config":{"name":"model72","layers":[{"name":"input72","class_name":"InputLayer","config":{"batch_input_shape":[null,3],"dtype":"float32","sparse":false,"name":"input72"},"inbound_nodes":[]},{"name":"dense_Dense427","class_name":"Dense","config":{"units":16,"activation":"relu","use_bias":true,"kernel_initializer":{"class_name":"VarianceScaling","config":{"scale":1,"mode":"fan_avg","distribution":"normal","seed":null}},"bias_initializer":{"class_name":"Zeros","config":{}},"kernel_regularizer":null,"bias_regularizer":null,"activity_regularizer":null,"kernel_constraint":null,"bias_constraint":null,"name":"dense_Dense427","trainable":true},"inbound_nodes":[[["input72",0,0,{}]]]},{"name":"dense_Dense428","class_name":"Dense","config":{"units":1,"activation":"relu","use_bias":true,"kernel_initializer":{"class_name":"VarianceScaling","config":{"scale":1,"mode":"fan_avg","distribution":"normal","seed":null}},"bias_initializer":{"class_name":"Zeros","config":{}},"kernel_regularizer":null,"bias_regularizer":null,"activity_regularizer":null,"kernel_constraint":null,"bias_constraint":null,"name":"dense_Dense428","trainable":true},"inbound_nodes":[[["dense_Dense427",0,0,{}]]]},{"name":"dense_Dense429","class_name":"Dense","config":{"units":2,"activation":"relu","use_bias":true,"kernel_initializer":{"class_name":"VarianceScaling","config":{"scale":1,"mode":"fan_avg","distribution":"normal","seed":null}},"bias_initializer":{"class_name":"Zeros","config":{}},"kernel_regularizer":null,"bias_regularizer":null,"activity_regularizer":null,"kernel_constraint":null,"bias_constraint":null,"name":"dense_Dense429","trainable":true},"inbound_nodes":[[["dense_Dense428",0,0,{}]]]},{"name":"dense_Dense430","class_name":"Dense","config":{"units":32,"activation":"relu","use_bias":true,"kernel_initializer":{"class_name":"VarianceScaling","config":{"scale":1,"mode":"fan_avg","distribution":"normal","seed":null}},"bias_initializer":{"class_name":"Zeros","config":{}},"kernel_regularizer":null,"bias_regularizer":null,"activity_regularizer":null,"kernel_constraint":null,"bias_constraint":null,"name":"dense_Dense430","trainable":true},"inbound_nodes":[[["dense_Dense429",0,0,{}]]]},{"name":"dense_Dense431","class_name":"Dense","config":{"units":32,"activation":"relu","use_bias":true,"kernel_initializer":{"class_name":"VarianceScaling","config":{"scale":1,"mode":"fan_avg","distribution":"normal","seed":null}},"bias_initializer":{"class_name":"Zeros","config":{}},"kernel_regularizer":null,"bias_regularizer":null,"activity_regularizer":null,"kernel_constraint":null,"bias_constraint":null,"name":"dense_Dense431","trainable":true},"inbound_nodes":[[["dense_Dense430",0,0,{}]]]},{"name":"dense_Dense432","class_name":"Dense","config":{"units":1,"activation":"sigmoid","use_bias":true,"kernel_initializer":{"class_name":"VarianceScaling","config":{"scale":1,"mode":"fan_avg","distribution":"normal","seed":null}},"bias_initializer":{"class_name":"Zeros","config":{}},"kernel_regularizer":null,"bias_regularizer":null,"activity_regularizer":null,"kernel_constraint":null,"bias_constraint":null,"name":"dense_Dense432","trainable":true},"inbound_nodes":[[["dense_Dense431",0,0,{}]]]}],"input_layers":[["input72",0,0]],"output_layers":[["dense_Dense432",0,0]]},"keras_version":"tfjs-layers 3.9.0","backend":"tensor_flow.js"},"weightsManifest":[{"paths":["weights.bin"],"weights":[{"name":"dense_Dense427/kernel","shape":[3,16],"dtype":"float32"},{"name":"dense_Dense427/bias","shape":[16],"dtype":"float32"},{"name":"dense_Dense428/kernel","shape":[16,1],"dtype":"float32"},{"name":"dense_Dense428/bias","shape":[1],"dtype":"float32"},{"name":"dense_Dense429/kernel","shape":[1,2],"dtype":"float32"},{"name":"dense_Dense429/bias","shape":[2],"dtype":"float32"},{"name":"dense_Dense430/kernel","shape":[2,32],"dtype":"float32"},{"name":"dense_Dense430/bias","shape":[32],"dtype":"float32"},{"name":"dense_Dense431/kernel","shape":[32,32],"dtype":"float32"},{"name":"dense_Dense431/bias","shape":[32],"dtype":"float32"},{"name":"dense_Dense432/kernel","shape":[32,1],"dtype":"float32"},{"name":"dense_Dense432/bias","shape":[1],"dtype":"float32"}]}]}