{"modelTopology":{"class_name":"Model","config":{"name":"model55","layers":[{"name":"input55","class_name":"InputLayer","config":{"batch_input_shape":[null,3],"dtype":"float32","sparse":false,"name":"input55"},"inbound_nodes":[]},{"name":"dense_Dense325","class_name":"Dense","config":{"units":4,"activation":"relu","use_bias":true,"kernel_initializer":{"class_name":"VarianceScaling","config":{"scale":1,"mode":"fan_avg","distribution":"normal","seed":null}},"bias_initializer":{"class_name":"Zeros","config":{}},"kernel_regularizer":null,"bias_regularizer":null,"activity_regularizer":null,"kernel_constraint":null,"bias_constraint":null,"name":"dense_Dense325","trainable":true},"inbound_nodes":[[["input55",0,0,{}]]]},{"name":"dense_Dense326","class_name":"Dense","config":{"units":1,"activation":"relu","use_bias":true,"kernel_initializer":{"class_name":"VarianceScaling","config":{"scale":1,"mode":"fan_avg","distribution":"normal","seed":null}},"bias_initializer":{"class_name":"Zeros","config":{}},"kernel_regularizer":null,"bias_regularizer":null,"activity_regularizer":null,"kernel_constraint":null,"bias_constraint":null,"name":"dense_Dense326","trainable":true},"inbound_nodes":[[["dense_Dense325",0,0,{}]]]},{"name":"dense_Dense327","class_name":"Dense","config":{"units":2,"activation":"relu","use_bias":true,"kernel_initializer":{"class_name":"VarianceScaling","config":{"scale":1,"mode":"fan_avg","distribution":"normal","seed":null}},"bias_initializer":{"class_name":"Zeros","config":{}},"kernel_regularizer":null,"bias_regularizer":null,"activity_regularizer":null,"kernel_constraint":null,"bias_constraint":null,"name":"dense_Dense327","trainable":true},"inbound_nodes":[[["dense_Dense326",0,0,{}]]]},{"name":"dense_Dense328","class_name":"Dense","config":{"units":8,"activation":"relu","use_bias":true,"kernel_initializer":{"class_name":"VarianceScaling","config":{"scale":1,"mode":"fan_avg","distribution":"normal","seed":null}},"bias_initializer":{"class_name":"Zeros","config":{}},"kernel_regularizer":null,"bias_regularizer":null,"activity_regularizer":null,"kernel_constraint":null,"bias_constraint":null,"name":"dense_Dense328","trainable":true},"inbound_nodes":[[["dense_Dense327",0,0,{}]]]},{"name":"dense_Dense329","class_name":"Dense","config":{"units":1,"activation":"relu","use_bias":true,"kernel_initializer":{"class_name":"VarianceScaling","config":{"scale":1,"mode":"fan_avg","distribution":"normal","seed":null}},"bias_initializer":{"class_name":"Zeros","config":{}},"kernel_regularizer":null,"bias_regularizer":null,"activity_regularizer":null,"kernel_constraint":null,"bias_constraint":null,"name":"dense_Dense329","trainable":true},"inbound_nodes":[[["dense_Dense328",0,0,{}]]]},{"name":"dense_Dense330","class_name":"Dense","config":{"units":1,"activation":"sigmoid","use_bias":true,"kernel_initializer":{"class_name":"VarianceScaling","config":{"scale":1,"mode":"fan_avg","distribution":"normal","seed":null}},"bias_initializer":{"class_name":"Zeros","config":{}},"kernel_regularizer":null,"bias_regularizer":null,"activity_regularizer":null,"kernel_constraint":null,"bias_constraint":null,"name":"dense_Dense330","trainable":true},"inbound_nodes":[[["dense_Dense329",0,0,{}]]]}],"input_layers":[["input55",0,0]],"output_layers":[["dense_Dense330",0,0]]},"keras_version":"tfjs-layers 3.9.0","backend":"tensor_flow.js"},"weightsManifest":[{"paths":["weights.bin"],"weights":[{"name":"dense_Dense325/kernel","shape":[3,4],"dtype":"float32"},{"name":"dense_Dense325/bias","shape":[4],"dtype":"float32"},{"name":"dense_Dense326/kernel","shape":[4,1],"dtype":"float32"},{"name":"dense_Dense326/bias","shape":[1],"dtype":"float32"},{"name":"dense_Dense327/kernel","shape":[1,2],"dtype":"float32"},{"name":"dense_Dense327/bias","shape":[2],"dtype":"float32"},{"name":"dense_Dense328/kernel","shape":[2,8],"dtype":"float32"},{"name":"dense_Dense328/bias","shape":[8],"dtype":"float32"},{"name":"dense_Dense329/kernel","shape":[8,1],"dtype":"float32"},{"name":"dense_Dense329/bias","shape":[1],"dtype":"float32"},{"name":"dense_Dense330/kernel","shape":[1,1],"dtype":"float32"},{"name":"dense_Dense330/bias","shape":[1],"dtype":"float32"}]}]}