{"modelTopology":{"class_name":"Model","config":{"name":"model301","layers":[{"name":"input301","class_name":"InputLayer","config":{"batch_input_shape":[null,3],"dtype":"float32","sparse":false,"name":"input301"},"inbound_nodes":[]},{"name":"dense_Dense1801","class_name":"Dense","config":{"units":4,"activation":"relu","use_bias":true,"kernel_initializer":{"class_name":"VarianceScaling","config":{"scale":1,"mode":"fan_avg","distribution":"normal","seed":null}},"bias_initializer":{"class_name":"Zeros","config":{}},"kernel_regularizer":null,"bias_regularizer":null,"activity_regularizer":null,"kernel_constraint":null,"bias_constraint":null,"name":"dense_Dense1801","trainable":true},"inbound_nodes":[[["input301",0,0,{}]]]},{"name":"dense_Dense1802","class_name":"Dense","config":{"units":2,"activation":"relu","use_bias":true,"kernel_initializer":{"class_name":"VarianceScaling","config":{"scale":1,"mode":"fan_avg","distribution":"normal","seed":null}},"bias_initializer":{"class_name":"Zeros","config":{}},"kernel_regularizer":null,"bias_regularizer":null,"activity_regularizer":null,"kernel_constraint":null,"bias_constraint":null,"name":"dense_Dense1802","trainable":true},"inbound_nodes":[[["dense_Dense1801",0,0,{}]]]},{"name":"dense_Dense1803","class_name":"Dense","config":{"units":4,"activation":"relu","use_bias":true,"kernel_initializer":{"class_name":"VarianceScaling","config":{"scale":1,"mode":"fan_avg","distribution":"normal","seed":null}},"bias_initializer":{"class_name":"Zeros","config":{}},"kernel_regularizer":null,"bias_regularizer":null,"activity_regularizer":null,"kernel_constraint":null,"bias_constraint":null,"name":"dense_Dense1803","trainable":true},"inbound_nodes":[[["dense_Dense1802",0,0,{}]]]},{"name":"dense_Dense1804","class_name":"Dense","config":{"units":4,"activation":"relu","use_bias":true,"kernel_initializer":{"class_name":"VarianceScaling","config":{"scale":1,"mode":"fan_avg","distribution":"normal","seed":null}},"bias_initializer":{"class_name":"Zeros","config":{}},"kernel_regularizer":null,"bias_regularizer":null,"activity_regularizer":null,"kernel_constraint":null,"bias_constraint":null,"name":"dense_Dense1804","trainable":true},"inbound_nodes":[[["dense_Dense1803",0,0,{}]]]},{"name":"dense_Dense1805","class_name":"Dense","config":{"units":1,"activation":"relu","use_bias":true,"kernel_initializer":{"class_name":"VarianceScaling","config":{"scale":1,"mode":"fan_avg","distribution":"normal","seed":null}},"bias_initializer":{"class_name":"Zeros","config":{}},"kernel_regularizer":null,"bias_regularizer":null,"activity_regularizer":null,"kernel_constraint":null,"bias_constraint":null,"name":"dense_Dense1805","trainable":true},"inbound_nodes":[[["dense_Dense1804",0,0,{}]]]},{"name":"dense_Dense1806","class_name":"Dense","config":{"units":1,"activation":"sigmoid","use_bias":true,"kernel_initializer":{"class_name":"VarianceScaling","config":{"scale":1,"mode":"fan_avg","distribution":"normal","seed":null}},"bias_initializer":{"class_name":"Zeros","config":{}},"kernel_regularizer":null,"bias_regularizer":null,"activity_regularizer":null,"kernel_constraint":null,"bias_constraint":null,"name":"dense_Dense1806","trainable":true},"inbound_nodes":[[["dense_Dense1805",0,0,{}]]]}],"input_layers":[["input301",0,0]],"output_layers":[["dense_Dense1806",0,0]]},"keras_version":"tfjs-layers 3.9.0","backend":"tensor_flow.js"},"weightsManifest":[{"paths":["weights.bin"],"weights":[{"name":"dense_Dense1801/kernel","shape":[3,4],"dtype":"float32"},{"name":"dense_Dense1801/bias","shape":[4],"dtype":"float32"},{"name":"dense_Dense1802/kernel","shape":[4,2],"dtype":"float32"},{"name":"dense_Dense1802/bias","shape":[2],"dtype":"float32"},{"name":"dense_Dense1803/kernel","shape":[2,4],"dtype":"float32"},{"name":"dense_Dense1803/bias","shape":[4],"dtype":"float32"},{"name":"dense_Dense1804/kernel","shape":[4,4],"dtype":"float32"},{"name":"dense_Dense1804/bias","shape":[4],"dtype":"float32"},{"name":"dense_Dense1805/kernel","shape":[4,1],"dtype":"float32"},{"name":"dense_Dense1805/bias","shape":[1],"dtype":"float32"},{"name":"dense_Dense1806/kernel","shape":[1,1],"dtype":"float32"},{"name":"dense_Dense1806/bias","shape":[1],"dtype":"float32"}]}]}