{"modelTopology":{"class_name":"Model","config":{"name":"model430","layers":[{"name":"input430","class_name":"InputLayer","config":{"batch_input_shape":[null,3],"dtype":"float32","sparse":false,"name":"input430"},"inbound_nodes":[]},{"name":"dense_Dense2575","class_name":"Dense","config":{"units":4,"activation":"relu","use_bias":true,"kernel_initializer":{"class_name":"VarianceScaling","config":{"scale":1,"mode":"fan_avg","distribution":"normal","seed":null}},"bias_initializer":{"class_name":"Zeros","config":{}},"kernel_regularizer":null,"bias_regularizer":null,"activity_regularizer":null,"kernel_constraint":null,"bias_constraint":null,"name":"dense_Dense2575","trainable":true},"inbound_nodes":[[["input430",0,0,{}]]]},{"name":"dense_Dense2576","class_name":"Dense","config":{"units":2,"activation":"relu","use_bias":true,"kernel_initializer":{"class_name":"VarianceScaling","config":{"scale":1,"mode":"fan_avg","distribution":"normal","seed":null}},"bias_initializer":{"class_name":"Zeros","config":{}},"kernel_regularizer":null,"bias_regularizer":null,"activity_regularizer":null,"kernel_constraint":null,"bias_constraint":null,"name":"dense_Dense2576","trainable":true},"inbound_nodes":[[["dense_Dense2575",0,0,{}]]]},{"name":"dense_Dense2577","class_name":"Dense","config":{"units":32,"activation":"relu","use_bias":true,"kernel_initializer":{"class_name":"VarianceScaling","config":{"scale":1,"mode":"fan_avg","distribution":"normal","seed":null}},"bias_initializer":{"class_name":"Zeros","config":{}},"kernel_regularizer":null,"bias_regularizer":null,"activity_regularizer":null,"kernel_constraint":null,"bias_constraint":null,"name":"dense_Dense2577","trainable":true},"inbound_nodes":[[["dense_Dense2576",0,0,{}]]]},{"name":"dense_Dense2578","class_name":"Dense","config":{"units":32,"activation":"relu","use_bias":true,"kernel_initializer":{"class_name":"VarianceScaling","config":{"scale":1,"mode":"fan_avg","distribution":"normal","seed":null}},"bias_initializer":{"class_name":"Zeros","config":{}},"kernel_regularizer":null,"bias_regularizer":null,"activity_regularizer":null,"kernel_constraint":null,"bias_constraint":null,"name":"dense_Dense2578","trainable":true},"inbound_nodes":[[["dense_Dense2577",0,0,{}]]]},{"name":"dense_Dense2579","class_name":"Dense","config":{"units":8,"activation":"relu","use_bias":true,"kernel_initializer":{"class_name":"VarianceScaling","config":{"scale":1,"mode":"fan_avg","distribution":"normal","seed":null}},"bias_initializer":{"class_name":"Zeros","config":{}},"kernel_regularizer":null,"bias_regularizer":null,"activity_regularizer":null,"kernel_constraint":null,"bias_constraint":null,"name":"dense_Dense2579","trainable":true},"inbound_nodes":[[["dense_Dense2578",0,0,{}]]]},{"name":"dense_Dense2580","class_name":"Dense","config":{"units":1,"activation":"sigmoid","use_bias":true,"kernel_initializer":{"class_name":"VarianceScaling","config":{"scale":1,"mode":"fan_avg","distribution":"normal","seed":null}},"bias_initializer":{"class_name":"Zeros","config":{}},"kernel_regularizer":null,"bias_regularizer":null,"activity_regularizer":null,"kernel_constraint":null,"bias_constraint":null,"name":"dense_Dense2580","trainable":true},"inbound_nodes":[[["dense_Dense2579",0,0,{}]]]}],"input_layers":[["input430",0,0]],"output_layers":[["dense_Dense2580",0,0]]},"keras_version":"tfjs-layers 3.9.0","backend":"tensor_flow.js"},"weightsManifest":[{"paths":["weights.bin"],"weights":[{"name":"dense_Dense2575/kernel","shape":[3,4],"dtype":"float32"},{"name":"dense_Dense2575/bias","shape":[4],"dtype":"float32"},{"name":"dense_Dense2576/kernel","shape":[4,2],"dtype":"float32"},{"name":"dense_Dense2576/bias","shape":[2],"dtype":"float32"},{"name":"dense_Dense2577/kernel","shape":[2,32],"dtype":"float32"},{"name":"dense_Dense2577/bias","shape":[32],"dtype":"float32"},{"name":"dense_Dense2578/kernel","shape":[32,32],"dtype":"float32"},{"name":"dense_Dense2578/bias","shape":[32],"dtype":"float32"},{"name":"dense_Dense2579/kernel","shape":[32,8],"dtype":"float32"},{"name":"dense_Dense2579/bias","shape":[8],"dtype":"float32"},{"name":"dense_Dense2580/kernel","shape":[8,1],"dtype":"float32"},{"name":"dense_Dense2580/bias","shape":[1],"dtype":"float32"}]}]}