{"modelTopology":{"class_name":"Model","config":{"name":"model27","layers":[{"name":"input27","class_name":"InputLayer","config":{"batch_input_shape":[null,3],"dtype":"float32","sparse":false,"name":"input27"},"inbound_nodes":[]},{"name":"dense_Dense157","class_name":"Dense","config":{"units":1,"activation":"relu","use_bias":true,"kernel_initializer":{"class_name":"VarianceScaling","config":{"scale":1,"mode":"fan_avg","distribution":"normal","seed":null}},"bias_initializer":{"class_name":"Zeros","config":{}},"kernel_regularizer":null,"bias_regularizer":null,"activity_regularizer":null,"kernel_constraint":null,"bias_constraint":null,"name":"dense_Dense157","trainable":true},"inbound_nodes":[[["input27",0,0,{}]]]},{"name":"dense_Dense158","class_name":"Dense","config":{"units":1,"activation":"relu","use_bias":true,"kernel_initializer":{"class_name":"VarianceScaling","config":{"scale":1,"mode":"fan_avg","distribution":"normal","seed":null}},"bias_initializer":{"class_name":"Zeros","config":{}},"kernel_regularizer":null,"bias_regularizer":null,"activity_regularizer":null,"kernel_constraint":null,"bias_constraint":null,"name":"dense_Dense158","trainable":true},"inbound_nodes":[[["dense_Dense157",0,0,{}]]]},{"name":"dense_Dense159","class_name":"Dense","config":{"units":1,"activation":"relu","use_bias":true,"kernel_initializer":{"class_name":"VarianceScaling","config":{"scale":1,"mode":"fan_avg","distribution":"normal","seed":null}},"bias_initializer":{"class_name":"Zeros","config":{}},"kernel_regularizer":null,"bias_regularizer":null,"activity_regularizer":null,"kernel_constraint":null,"bias_constraint":null,"name":"dense_Dense159","trainable":true},"inbound_nodes":[[["dense_Dense158",0,0,{}]]]},{"name":"dense_Dense160","class_name":"Dense","config":{"units":16,"activation":"relu","use_bias":true,"kernel_initializer":{"class_name":"VarianceScaling","config":{"scale":1,"mode":"fan_avg","distribution":"normal","seed":null}},"bias_initializer":{"class_name":"Zeros","config":{}},"kernel_regularizer":null,"bias_regularizer":null,"activity_regularizer":null,"kernel_constraint":null,"bias_constraint":null,"name":"dense_Dense160","trainable":true},"inbound_nodes":[[["dense_Dense159",0,0,{}]]]},{"name":"dense_Dense161","class_name":"Dense","config":{"units":4,"activation":"relu","use_bias":true,"kernel_initializer":{"class_name":"VarianceScaling","config":{"scale":1,"mode":"fan_avg","distribution":"normal","seed":null}},"bias_initializer":{"class_name":"Zeros","config":{}},"kernel_regularizer":null,"bias_regularizer":null,"activity_regularizer":null,"kernel_constraint":null,"bias_constraint":null,"name":"dense_Dense161","trainable":true},"inbound_nodes":[[["dense_Dense160",0,0,{}]]]},{"name":"dense_Dense162","class_name":"Dense","config":{"units":1,"activation":"sigmoid","use_bias":true,"kernel_initializer":{"class_name":"VarianceScaling","config":{"scale":1,"mode":"fan_avg","distribution":"normal","seed":null}},"bias_initializer":{"class_name":"Zeros","config":{}},"kernel_regularizer":null,"bias_regularizer":null,"activity_regularizer":null,"kernel_constraint":null,"bias_constraint":null,"name":"dense_Dense162","trainable":true},"inbound_nodes":[[["dense_Dense161",0,0,{}]]]}],"input_layers":[["input27",0,0]],"output_layers":[["dense_Dense162",0,0]]},"keras_version":"tfjs-layers 3.9.0","backend":"tensor_flow.js"},"weightsManifest":[{"paths":["weights.bin"],"weights":[{"name":"dense_Dense157/kernel","shape":[3,1],"dtype":"float32"},{"name":"dense_Dense157/bias","shape":[1],"dtype":"float32"},{"name":"dense_Dense158/kernel","shape":[1,1],"dtype":"float32"},{"name":"dense_Dense158/bias","shape":[1],"dtype":"float32"},{"name":"dense_Dense159/kernel","shape":[1,1],"dtype":"float32"},{"name":"dense_Dense159/bias","shape":[1],"dtype":"float32"},{"name":"dense_Dense160/kernel","shape":[1,16],"dtype":"float32"},{"name":"dense_Dense160/bias","shape":[16],"dtype":"float32"},{"name":"dense_Dense161/kernel","shape":[16,4],"dtype":"float32"},{"name":"dense_Dense161/bias","shape":[4],"dtype":"float32"},{"name":"dense_Dense162/kernel","shape":[4,1],"dtype":"float32"},{"name":"dense_Dense162/bias","shape":[1],"dtype":"float32"}]}]}