{"modelTopology":{"class_name":"Model","config":{"name":"model449","layers":[{"name":"input449","class_name":"InputLayer","config":{"batch_input_shape":[null,3],"dtype":"float32","sparse":false,"name":"input449"},"inbound_nodes":[]},{"name":"dense_Dense2241","class_name":"Dense","config":{"units":4,"activation":"relu","use_bias":true,"kernel_initializer":{"class_name":"VarianceScaling","config":{"scale":1,"mode":"fan_avg","distribution":"normal","seed":null}},"bias_initializer":{"class_name":"Zeros","config":{}},"kernel_regularizer":null,"bias_regularizer":null,"activity_regularizer":null,"kernel_constraint":null,"bias_constraint":null,"name":"dense_Dense2241","trainable":true},"inbound_nodes":[[["input449",0,0,{}]]]},{"name":"dense_Dense2242","class_name":"Dense","config":{"units":1,"activation":"relu","use_bias":true,"kernel_initializer":{"class_name":"VarianceScaling","config":{"scale":1,"mode":"fan_avg","distribution":"normal","seed":null}},"bias_initializer":{"class_name":"Zeros","config":{}},"kernel_regularizer":null,"bias_regularizer":null,"activity_regularizer":null,"kernel_constraint":null,"bias_constraint":null,"name":"dense_Dense2242","trainable":true},"inbound_nodes":[[["dense_Dense2241",0,0,{}]]]},{"name":"dense_Dense2243","class_name":"Dense","config":{"units":4,"activation":"relu","use_bias":true,"kernel_initializer":{"class_name":"VarianceScaling","config":{"scale":1,"mode":"fan_avg","distribution":"normal","seed":null}},"bias_initializer":{"class_name":"Zeros","config":{}},"kernel_regularizer":null,"bias_regularizer":null,"activity_regularizer":null,"kernel_constraint":null,"bias_constraint":null,"name":"dense_Dense2243","trainable":true},"inbound_nodes":[[["dense_Dense2242",0,0,{}]]]},{"name":"dense_Dense2244","class_name":"Dense","config":{"units":16,"activation":"relu","use_bias":true,"kernel_initializer":{"class_name":"VarianceScaling","config":{"scale":1,"mode":"fan_avg","distribution":"normal","seed":null}},"bias_initializer":{"class_name":"Zeros","config":{}},"kernel_regularizer":null,"bias_regularizer":null,"activity_regularizer":null,"kernel_constraint":null,"bias_constraint":null,"name":"dense_Dense2244","trainable":true},"inbound_nodes":[[["dense_Dense2243",0,0,{}]]]},{"name":"dense_Dense2245","class_name":"Dense","config":{"units":1,"activation":"sigmoid","use_bias":true,"kernel_initializer":{"class_name":"VarianceScaling","config":{"scale":1,"mode":"fan_avg","distribution":"normal","seed":null}},"bias_initializer":{"class_name":"Zeros","config":{}},"kernel_regularizer":null,"bias_regularizer":null,"activity_regularizer":null,"kernel_constraint":null,"bias_constraint":null,"name":"dense_Dense2245","trainable":true},"inbound_nodes":[[["dense_Dense2244",0,0,{}]]]}],"input_layers":[["input449",0,0]],"output_layers":[["dense_Dense2245",0,0]]},"keras_version":"tfjs-layers 3.9.0","backend":"tensor_flow.js"},"weightsManifest":[{"paths":["weights.bin"],"weights":[{"name":"dense_Dense2241/kernel","shape":[3,4],"dtype":"float32"},{"name":"dense_Dense2241/bias","shape":[4],"dtype":"float32"},{"name":"dense_Dense2242/kernel","shape":[4,1],"dtype":"float32"},{"name":"dense_Dense2242/bias","shape":[1],"dtype":"float32"},{"name":"dense_Dense2243/kernel","shape":[1,4],"dtype":"float32"},{"name":"dense_Dense2243/bias","shape":[4],"dtype":"float32"},{"name":"dense_Dense2244/kernel","shape":[4,16],"dtype":"float32"},{"name":"dense_Dense2244/bias","shape":[16],"dtype":"float32"},{"name":"dense_Dense2245/kernel","shape":[16,1],"dtype":"float32"},{"name":"dense_Dense2245/bias","shape":[1],"dtype":"float32"}]}]}