{"modelTopology":{"class_name":"Model","config":{"name":"model962","layers":[{"name":"input962","class_name":"InputLayer","config":{"batch_input_shape":[null,3],"dtype":"float32","sparse":false,"name":"input962"},"inbound_nodes":[]},{"name":"dense_Dense4806","class_name":"Dense","config":{"units":16,"activation":"relu","use_bias":true,"kernel_initializer":{"class_name":"VarianceScaling","config":{"scale":1,"mode":"fan_avg","distribution":"normal","seed":null}},"bias_initializer":{"class_name":"Zeros","config":{}},"kernel_regularizer":null,"bias_regularizer":null,"activity_regularizer":null,"kernel_constraint":null,"bias_constraint":null,"name":"dense_Dense4806","trainable":true},"inbound_nodes":[[["input962",0,0,{}]]]},{"name":"dense_Dense4807","class_name":"Dense","config":{"units":4,"activation":"relu","use_bias":true,"kernel_initializer":{"class_name":"VarianceScaling","config":{"scale":1,"mode":"fan_avg","distribution":"normal","seed":null}},"bias_initializer":{"class_name":"Zeros","config":{}},"kernel_regularizer":null,"bias_regularizer":null,"activity_regularizer":null,"kernel_constraint":null,"bias_constraint":null,"name":"dense_Dense4807","trainable":true},"inbound_nodes":[[["dense_Dense4806",0,0,{}]]]},{"name":"dense_Dense4808","class_name":"Dense","config":{"units":16,"activation":"relu","use_bias":true,"kernel_initializer":{"class_name":"VarianceScaling","config":{"scale":1,"mode":"fan_avg","distribution":"normal","seed":null}},"bias_initializer":{"class_name":"Zeros","config":{}},"kernel_regularizer":null,"bias_regularizer":null,"activity_regularizer":null,"kernel_constraint":null,"bias_constraint":null,"name":"dense_Dense4808","trainable":true},"inbound_nodes":[[["dense_Dense4807",0,0,{}]]]},{"name":"dense_Dense4809","class_name":"Dense","config":{"units":2,"activation":"relu","use_bias":true,"kernel_initializer":{"class_name":"VarianceScaling","config":{"scale":1,"mode":"fan_avg","distribution":"normal","seed":null}},"bias_initializer":{"class_name":"Zeros","config":{}},"kernel_regularizer":null,"bias_regularizer":null,"activity_regularizer":null,"kernel_constraint":null,"bias_constraint":null,"name":"dense_Dense4809","trainable":true},"inbound_nodes":[[["dense_Dense4808",0,0,{}]]]},{"name":"dense_Dense4810","class_name":"Dense","config":{"units":1,"activation":"sigmoid","use_bias":true,"kernel_initializer":{"class_name":"VarianceScaling","config":{"scale":1,"mode":"fan_avg","distribution":"normal","seed":null}},"bias_initializer":{"class_name":"Zeros","config":{}},"kernel_regularizer":null,"bias_regularizer":null,"activity_regularizer":null,"kernel_constraint":null,"bias_constraint":null,"name":"dense_Dense4810","trainable":true},"inbound_nodes":[[["dense_Dense4809",0,0,{}]]]}],"input_layers":[["input962",0,0]],"output_layers":[["dense_Dense4810",0,0]]},"keras_version":"tfjs-layers 3.9.0","backend":"tensor_flow.js"},"weightsManifest":[{"paths":["weights.bin"],"weights":[{"name":"dense_Dense4806/kernel","shape":[3,16],"dtype":"float32"},{"name":"dense_Dense4806/bias","shape":[16],"dtype":"float32"},{"name":"dense_Dense4807/kernel","shape":[16,4],"dtype":"float32"},{"name":"dense_Dense4807/bias","shape":[4],"dtype":"float32"},{"name":"dense_Dense4808/kernel","shape":[4,16],"dtype":"float32"},{"name":"dense_Dense4808/bias","shape":[16],"dtype":"float32"},{"name":"dense_Dense4809/kernel","shape":[16,2],"dtype":"float32"},{"name":"dense_Dense4809/bias","shape":[2],"dtype":"float32"},{"name":"dense_Dense4810/kernel","shape":[2,1],"dtype":"float32"},{"name":"dense_Dense4810/bias","shape":[1],"dtype":"float32"}]}]}