{"modelTopology":{"class_name":"Model","config":{"name":"model127","layers":[{"name":"input127","class_name":"InputLayer","config":{"batch_input_shape":[null,3],"dtype":"float32","sparse":false,"name":"input127"},"inbound_nodes":[]},{"name":"dense_Dense757","class_name":"Dense","config":{"units":4,"activation":"relu","use_bias":true,"kernel_initializer":{"class_name":"VarianceScaling","config":{"scale":1,"mode":"fan_avg","distribution":"normal","seed":null}},"bias_initializer":{"class_name":"Zeros","config":{}},"kernel_regularizer":null,"bias_regularizer":null,"activity_regularizer":null,"kernel_constraint":null,"bias_constraint":null,"name":"dense_Dense757","trainable":true},"inbound_nodes":[[["input127",0,0,{}]]]},{"name":"dense_Dense758","class_name":"Dense","config":{"units":1,"activation":"relu","use_bias":true,"kernel_initializer":{"class_name":"VarianceScaling","config":{"scale":1,"mode":"fan_avg","distribution":"normal","seed":null}},"bias_initializer":{"class_name":"Zeros","config":{}},"kernel_regularizer":null,"bias_regularizer":null,"activity_regularizer":null,"kernel_constraint":null,"bias_constraint":null,"name":"dense_Dense758","trainable":true},"inbound_nodes":[[["dense_Dense757",0,0,{}]]]},{"name":"dense_Dense759","class_name":"Dense","config":{"units":8,"activation":"relu","use_bias":true,"kernel_initializer":{"class_name":"VarianceScaling","config":{"scale":1,"mode":"fan_avg","distribution":"normal","seed":null}},"bias_initializer":{"class_name":"Zeros","config":{}},"kernel_regularizer":null,"bias_regularizer":null,"activity_regularizer":null,"kernel_constraint":null,"bias_constraint":null,"name":"dense_Dense759","trainable":true},"inbound_nodes":[[["dense_Dense758",0,0,{}]]]},{"name":"dense_Dense760","class_name":"Dense","config":{"units":8,"activation":"relu","use_bias":true,"kernel_initializer":{"class_name":"VarianceScaling","config":{"scale":1,"mode":"fan_avg","distribution":"normal","seed":null}},"bias_initializer":{"class_name":"Zeros","config":{}},"kernel_regularizer":null,"bias_regularizer":null,"activity_regularizer":null,"kernel_constraint":null,"bias_constraint":null,"name":"dense_Dense760","trainable":true},"inbound_nodes":[[["dense_Dense759",0,0,{}]]]},{"name":"dense_Dense761","class_name":"Dense","config":{"units":1,"activation":"relu","use_bias":true,"kernel_initializer":{"class_name":"VarianceScaling","config":{"scale":1,"mode":"fan_avg","distribution":"normal","seed":null}},"bias_initializer":{"class_name":"Zeros","config":{}},"kernel_regularizer":null,"bias_regularizer":null,"activity_regularizer":null,"kernel_constraint":null,"bias_constraint":null,"name":"dense_Dense761","trainable":true},"inbound_nodes":[[["dense_Dense760",0,0,{}]]]},{"name":"dense_Dense762","class_name":"Dense","config":{"units":1,"activation":"sigmoid","use_bias":true,"kernel_initializer":{"class_name":"VarianceScaling","config":{"scale":1,"mode":"fan_avg","distribution":"normal","seed":null}},"bias_initializer":{"class_name":"Zeros","config":{}},"kernel_regularizer":null,"bias_regularizer":null,"activity_regularizer":null,"kernel_constraint":null,"bias_constraint":null,"name":"dense_Dense762","trainable":true},"inbound_nodes":[[["dense_Dense761",0,0,{}]]]}],"input_layers":[["input127",0,0]],"output_layers":[["dense_Dense762",0,0]]},"keras_version":"tfjs-layers 3.9.0","backend":"tensor_flow.js"},"weightsManifest":[{"paths":["weights.bin"],"weights":[{"name":"dense_Dense757/kernel","shape":[3,4],"dtype":"float32"},{"name":"dense_Dense757/bias","shape":[4],"dtype":"float32"},{"name":"dense_Dense758/kernel","shape":[4,1],"dtype":"float32"},{"name":"dense_Dense758/bias","shape":[1],"dtype":"float32"},{"name":"dense_Dense759/kernel","shape":[1,8],"dtype":"float32"},{"name":"dense_Dense759/bias","shape":[8],"dtype":"float32"},{"name":"dense_Dense760/kernel","shape":[8,8],"dtype":"float32"},{"name":"dense_Dense760/bias","shape":[8],"dtype":"float32"},{"name":"dense_Dense761/kernel","shape":[8,1],"dtype":"float32"},{"name":"dense_Dense761/bias","shape":[1],"dtype":"float32"},{"name":"dense_Dense762/kernel","shape":[1,1],"dtype":"float32"},{"name":"dense_Dense762/bias","shape":[1],"dtype":"float32"}]}]}