{"modelTopology":{"class_name":"Model","config":{"name":"model159","layers":[{"name":"input159","class_name":"InputLayer","config":{"batch_input_shape":[null,3],"dtype":"float32","sparse":false,"name":"input159"},"inbound_nodes":[]},{"name":"dense_Dense633","class_name":"Dense","config":{"units":16,"activation":"relu","use_bias":true,"kernel_initializer":{"class_name":"VarianceScaling","config":{"scale":1,"mode":"fan_avg","distribution":"normal","seed":null}},"bias_initializer":{"class_name":"Zeros","config":{}},"kernel_regularizer":null,"bias_regularizer":null,"activity_regularizer":null,"kernel_constraint":null,"bias_constraint":null,"name":"dense_Dense633","trainable":true},"inbound_nodes":[[["input159",0,0,{}]]]},{"name":"dense_Dense634","class_name":"Dense","config":{"units":4,"activation":"relu","use_bias":true,"kernel_initializer":{"class_name":"VarianceScaling","config":{"scale":1,"mode":"fan_avg","distribution":"normal","seed":null}},"bias_initializer":{"class_name":"Zeros","config":{}},"kernel_regularizer":null,"bias_regularizer":null,"activity_regularizer":null,"kernel_constraint":null,"bias_constraint":null,"name":"dense_Dense634","trainable":true},"inbound_nodes":[[["dense_Dense633",0,0,{}]]]},{"name":"dense_Dense635","class_name":"Dense","config":{"units":4,"activation":"relu","use_bias":true,"kernel_initializer":{"class_name":"VarianceScaling","config":{"scale":1,"mode":"fan_avg","distribution":"normal","seed":null}},"bias_initializer":{"class_name":"Zeros","config":{}},"kernel_regularizer":null,"bias_regularizer":null,"activity_regularizer":null,"kernel_constraint":null,"bias_constraint":null,"name":"dense_Dense635","trainable":true},"inbound_nodes":[[["dense_Dense634",0,0,{}]]]},{"name":"dense_Dense636","class_name":"Dense","config":{"units":1,"activation":"sigmoid","use_bias":true,"kernel_initializer":{"class_name":"VarianceScaling","config":{"scale":1,"mode":"fan_avg","distribution":"normal","seed":null}},"bias_initializer":{"class_name":"Zeros","config":{}},"kernel_regularizer":null,"bias_regularizer":null,"activity_regularizer":null,"kernel_constraint":null,"bias_constraint":null,"name":"dense_Dense636","trainable":true},"inbound_nodes":[[["dense_Dense635",0,0,{}]]]}],"input_layers":[["input159",0,0]],"output_layers":[["dense_Dense636",0,0]]},"keras_version":"tfjs-layers 3.9.0","backend":"tensor_flow.js"},"weightsManifest":[{"paths":["weights.bin"],"weights":[{"name":"dense_Dense633/kernel","shape":[3,16],"dtype":"float32"},{"name":"dense_Dense633/bias","shape":[16],"dtype":"float32"},{"name":"dense_Dense634/kernel","shape":[16,4],"dtype":"float32"},{"name":"dense_Dense634/bias","shape":[4],"dtype":"float32"},{"name":"dense_Dense635/kernel","shape":[4,4],"dtype":"float32"},{"name":"dense_Dense635/bias","shape":[4],"dtype":"float32"},{"name":"dense_Dense636/kernel","shape":[4,1],"dtype":"float32"},{"name":"dense_Dense636/bias","shape":[1],"dtype":"float32"}]}]}