{"modelTopology":{"class_name":"Model","config":{"name":"model995","layers":[{"name":"input995","class_name":"InputLayer","config":{"batch_input_shape":[null,3],"dtype":"float32","sparse":false,"name":"input995"},"inbound_nodes":[]},{"name":"dense_Dense4971","class_name":"Dense","config":{"units":16,"activation":"relu","use_bias":true,"kernel_initializer":{"class_name":"VarianceScaling","config":{"scale":1,"mode":"fan_avg","distribution":"normal","seed":null}},"bias_initializer":{"class_name":"Zeros","config":{}},"kernel_regularizer":null,"bias_regularizer":null,"activity_regularizer":null,"kernel_constraint":null,"bias_constraint":null,"name":"dense_Dense4971","trainable":true},"inbound_nodes":[[["input995",0,0,{}]]]},{"name":"dense_Dense4972","class_name":"Dense","config":{"units":8,"activation":"relu","use_bias":true,"kernel_initializer":{"class_name":"VarianceScaling","config":{"scale":1,"mode":"fan_avg","distribution":"normal","seed":null}},"bias_initializer":{"class_name":"Zeros","config":{}},"kernel_regularizer":null,"bias_regularizer":null,"activity_regularizer":null,"kernel_constraint":null,"bias_constraint":null,"name":"dense_Dense4972","trainable":true},"inbound_nodes":[[["dense_Dense4971",0,0,{}]]]},{"name":"dense_Dense4973","class_name":"Dense","config":{"units":8,"activation":"relu","use_bias":true,"kernel_initializer":{"class_name":"VarianceScaling","config":{"scale":1,"mode":"fan_avg","distribution":"normal","seed":null}},"bias_initializer":{"class_name":"Zeros","config":{}},"kernel_regularizer":null,"bias_regularizer":null,"activity_regularizer":null,"kernel_constraint":null,"bias_constraint":null,"name":"dense_Dense4973","trainable":true},"inbound_nodes":[[["dense_Dense4972",0,0,{}]]]},{"name":"dense_Dense4974","class_name":"Dense","config":{"units":16,"activation":"relu","use_bias":true,"kernel_initializer":{"class_name":"VarianceScaling","config":{"scale":1,"mode":"fan_avg","distribution":"normal","seed":null}},"bias_initializer":{"class_name":"Zeros","config":{}},"kernel_regularizer":null,"bias_regularizer":null,"activity_regularizer":null,"kernel_constraint":null,"bias_constraint":null,"name":"dense_Dense4974","trainable":true},"inbound_nodes":[[["dense_Dense4973",0,0,{}]]]},{"name":"dense_Dense4975","class_name":"Dense","config":{"units":1,"activation":"sigmoid","use_bias":true,"kernel_initializer":{"class_name":"VarianceScaling","config":{"scale":1,"mode":"fan_avg","distribution":"normal","seed":null}},"bias_initializer":{"class_name":"Zeros","config":{}},"kernel_regularizer":null,"bias_regularizer":null,"activity_regularizer":null,"kernel_constraint":null,"bias_constraint":null,"name":"dense_Dense4975","trainable":true},"inbound_nodes":[[["dense_Dense4974",0,0,{}]]]}],"input_layers":[["input995",0,0]],"output_layers":[["dense_Dense4975",0,0]]},"keras_version":"tfjs-layers 3.9.0","backend":"tensor_flow.js"},"weightsManifest":[{"paths":["weights.bin"],"weights":[{"name":"dense_Dense4971/kernel","shape":[3,16],"dtype":"float32"},{"name":"dense_Dense4971/bias","shape":[16],"dtype":"float32"},{"name":"dense_Dense4972/kernel","shape":[16,8],"dtype":"float32"},{"name":"dense_Dense4972/bias","shape":[8],"dtype":"float32"},{"name":"dense_Dense4973/kernel","shape":[8,8],"dtype":"float32"},{"name":"dense_Dense4973/bias","shape":[8],"dtype":"float32"},{"name":"dense_Dense4974/kernel","shape":[8,16],"dtype":"float32"},{"name":"dense_Dense4974/bias","shape":[16],"dtype":"float32"},{"name":"dense_Dense4975/kernel","shape":[16,1],"dtype":"float32"},{"name":"dense_Dense4975/bias","shape":[1],"dtype":"float32"}]}]}